transformer_results_random_no_constants_no_param_tune/performance_prediction/DE-GA-ES-PSO_random_no_constants_dim_3_samples_50_fold_4_budget_50_n_heads_2_n_layers_1_d_model_100_d_k_30_d_v_30_aggregations_mean/trained_model_dict.pt (torch, 337211 bytes, 22 tensors)

W_P.weight f4 [100, 4]
0.3852285 0.34651104 0.37677026 -0.24611755 -0.45362654 0.05383733 -0.19479625 0.60864335
0.39573896 -0.2899279 -0.32040164 -0.1889199 0.14946115 0.36888427 0.1902075 0.1301251
-0.25812316 0.2442218 0.38234326 -0.15287222 -0.2147029 -0.02658445 -0.083362535 -0.70286095
0.06778119 -0.08504461 0.11899602 0.32439783 0.11442643 0.25754482 -0.3207175 0.5294815
-0.2716145 -0.00021673377 -0.11895834 0.16908239 -0.20773974 0.22050051 -0.2854225 0.69306785
-0.018488754 -0.35223496 -0.0205254 0.2521342 0.37688163 0.41906154 -0.11292526 0.21026288
0.37405658 -0.4325857 -0.38942498 -0.56463975 -0.3287174 0.024256412 0.16056363 0.2034323
-0.20593338 -0.30060786 -0.21762677 0.2448255 0.008197488 0.28611088 0.17772675 -0.3532203
0.06621798 0.062425103 -0.008403808 -0.6529613 0.13644913 0.030935116 0.38425526 0.117971145
0.094080105 0.13216057 0.022891728 0.07250808 0.41531903 -0.25556257 0.013298454 0.70765567
-0.04344424 -0.052981958 -0.1492013 0.51824474 -0.09360377 -0.17628162 0.4724785 0.6524113
-0.2803158 -0.08133561 0.21486525 -0.48293155 0.2568585 0.41600874 -0.3363017 0.3629987
-0.13025273 0.117817104 0.3680736 0.72843283 0.24847198 -0.055235058 0.45301044 -0.43459174
0.18001032 0.44073743 -0.3954456 0.4501742 0.15130895 0.33058628 0.20140576 0.33791366
0.16024962 0.16178553 -0.111472435 0.64202803 0.04866532 0.2074708 0.37848285 0.8066247
0.36747885 -0.33155066 -0.21472394 -0.58251333 0.42457524 0.38797712 -0.22157747 0.24179235
-0.38404313 -0.036038823 -0.15742812 0.6475148 0.41787222 0.22021517 -0.32011056 0.55469763
-0.09218039 0.20043012 -0.102957115 0.57544464 0.11386114 0.00020441918 -0.1202558 0.1009683
0.26653025 0.12688743 0.07686116 0.030035812 -0.23569287 0.09777932 0.33683437 -0.029530045
0.3426729 -0.16031332 0.19241387 -0.5403755 0.03373623 0.46822205 0.11697236 -0.6448599
-0.006578868 0.11023338 0.10531743 -0.5080536 -0.32250455 -0.41214767 -0.2078233 -0.34847206
-0.105755635 0.42392212 0.24165156 0.46701348 0.36309645 0.35965618 -0.17645362 0.48562446
0.019825613 -0.055744495 -0.45169157 0.33316004 0.06507689 -0.07190615 0.17167257 -0.5710665
-0.3539192 -0.090879254 -0.4311881 0.3364672 -0.33469635 -0.19825861 0.47344264 0.379011
0.4099144 0.08278377 0.014183041 0.6678948 -0.21753909 0.043918956 -0.14282636 -0.75798035
-0.12053469 0.22037986 -0.010853008 -0.34300953 -0.17998524 -0.38527662 0.26872498 0.12704615
-0.17088243 -0.1973871 0.11494991 -0.7573009 0.25441054 0.45058006 0.24588919 0.14247975
0.37042302 0.18200523 0.26297352 -0.29180485 0.4138888 0.36350316 0.078314126 -0.6642197
0.3615193 0.10263287 0.05794607 -0.27992696 0.035790984 0.36706412 0.35943893 -0.684498
0.399231 0.13029227 -0.10067682 -0.74389803 -0.3222401 0.063102774 -0.20395109 0.65446764
0.30036712 -0.44725353 -0.06766671 0.3321592 0.38826394 -0.24305975 -0.0002314832 -0.7190085
-0.4100992 0.18121372 0.115753226 -0.29265708 0.2136342 0.381794 0.066537894 -0.101707995
00000000: ac3c c53e e569 b13e 08e8 c03e 3d06 7cbe
00000010: bd41 e8be 8884 5c3d ab78 47be 0dd0 1b3f
00000020: 4c9e ca3e 6e71 94be af0b a4be 3874 41be
00000030: 580c 193e 66de bc3e c1c5 423e 843f 053e
00000040: b828 84be 4815 7a3e 7fc2 c33e 898a 1cbe
00000050: 14db 5bbe a2c7 d9bc fab9 aabd b2ee 33bf
00000060: ddd0 8a3d de2b aebd 2fb4 f33d 7917 a63e
00000070: 6758 ea3d eadc 833e 1635 a4be 198c 073f
00000080: 0e11 8bbe 0743 63b9 6ea0 f3bd ef23 2d3e
00000090: bab9 54be e3ca 613e e622 92be e56c 313f
000000a0: ba75 97bc 2458 b4be e224 a8bc bc17 813e
000000b0: a1f6 c03e 3c8f d63e 5c45 e7bd 274f 573e
000000c0: 5884 bf3e df7b ddbe b662 c7be 3b8c 10bf
000000d0: a64d a8be 62b5 c63c cb6a 243e 8f50 503e
000000e0: 33e0 52be 46e9 99be 8dd9 5ebe 89b3 7a3e
000000f0: c24e 063c 207d 923e 00fe 353e 4bd9 b4be
00000100: 4b9d 873d 77b1 7f3d 20b0 09bc 7928 27bf
00000110: 52b9 0b3e a46b fd3c 1bbd c43e db9a f13d
00000120: 12ad c03d 1a55 073e 6f87 bb3c 1e7f 943d
00000130: b2a4 d43e 19d9 82be c2e1 593c ec28 353f
00000140: 96f2 31bd 9c03 59bd 3ac8 18be b0ab 043f
00000150: 55b3 bfbd 2b83 34be b4e8 f13e 6d04 273f
00000160: 8d85 8fbe 4993 a6bd a305 5c3e ce42 f7be
00000170: f582 833e 19ff d43e bd2f acbe f7da b93e
00000180: f960 05be 184a f13d 2574 bc3e 937a 3a3f
00000190: 706f 7e3e 283e 62bd fcf0 e73e cf82 debe
000001a0: a054 383e 56a8 e13e d877 cabe 3c7d e63e
000001b0: bcf0 1a3e 9b42 a93e 503d 4e3e 0503 ad3e
000001c0: 7a18 243e 1bab 253e a94b e4bd f35b 243f
000001d0: 4955 473d 3a73 543e 81c8 c13e f57e 4e3f
000001e0: 3026 bc3e 02c1 a9be 98e0 5bbe 981f 15bf
000001f0: ed61 d93e f0a4 c63e 34e5 62be 6a98 773e
00000200: 4da1 c4be 729d 13bd d634 21be 88c3 253f
00000210: 59f3 d53e 1680 613e 88e5 a3be aa00 0e3f
00000220: 13c9 bcbd 8e3d 4d3e 2edb d2bd 5750 133f
00000230: 0830 e93d 5b59 5639 ac48 f6bd 78c8 ce3d
00000240: a776 883e c7ee 013e 6269 9d3d aa0d f63c
00000250: 7959 71be 8640 c83d 8e75 ac3e fee8 f1bc
00000260: d372 af3e 2d29 24be 2408 453e 0c56 0abf
00000270: 002f 0a3d cdba ef3e 348f ef3d 8a15 25bf
00000280: 8b93 d7bb 0ac2 e13d aab0 d73d cd0f 02bf
00000290: 511f a5be 0505 d3be a2cf 54be ee6a b2be
000002a0: 6996 d8bd 520c d93e 8273 773e 641c ef3e
000002b0: c7e7 b93e db24 b83e 42b0 34be c5a3 f83e
000002c0: 5369 a23c 5754 64bd 1e44 e7be f493 aa3e
000002d0: 0847 853d 8843 93bd efca 2f3e 6a31 12bf
000002e0: e634 b5be e71e babd b0c4 dcbe 6e45 ac3e
000002f0: 525d abbe 4e04 4bbe 1367 f23e bb0d c23e
00000300: 4de0 d13e 8a8a a93d fc5f 683c 27fb 2a3f
00000310: 91c2 5ebe 5de4 333d 1341 12be 000b 42bf
00000320: e4da f6bd 42ab 613e d1d0 31bc f29e afbe
00000330: 0d4e 38be fa42 c5be 5296 893e 6318 023e
00000340: cefb 2ebe d81f 4abe dc6a eb3d 79de 41bf
00000350: 1942 823e 6eb2 e63e 60ca 7b3e 36e6 113e
00000360: 16a8 bd3e 945f 3a3e 77a4 863e 7267 95be
00000370: 3ce9 d33e 161d ba3e 2863 a03d 4d0a 2abf
00000380: 0f19 b93e 2f31 d23d dc58 6d3d 9652 8fbe
00000390: 9199 123d d4ef bb3e 6108 b83e 433b 2fbf
000003a0: 0168 cc3e 566b 053e a62f cebd 1a70 3ebf
000003b0: a8fc a4be 073c 813d 8ed8 50be 318b 273f
000003c0: b8c9 993e 6afe e4be d894 8abd c510 aa3e
000003d0: 88ca c63e a8e4 78be 4cba 72b9 f110 38bf
000003e0: 86f8 d1be 1790 393e 0710 ed3d 26d7 95be
000003f0: ecc2 5a3e 817a c33e 0545 883d 484c d0bd

W_P.bias f4 [100]
-0.28526196 0.0026832197 -0.19932327 -0.4848565 -0.46612856 0.4040887 -0.44182074 0.18439546
-0.38398337 -0.214666 0.28714544 0.20154941 0.4798943 0.036335196 0.19650398 0.046525013
-0.21845607 0.41239446 -0.17354953 -0.21667336 0.23492782 0.020287538 0.19333024 -0.14683223
-0.0067778486 0.08547878 0.33013973 -0.56540173 0.43689844 -0.26104876 0.49920508 -0.049403694
-0.37298942 -0.121189326 0.14704295 0.09737498 0.22715954 0.11000651 0.16374746 -0.15332107
0.43685633 0.55687946 0.05615533 0.5072022 -0.44612116 0.0308932 -0.35561755 -0.27119943
-0.081750855 -0.33043027 -0.49489057 -0.20232235 0.48252782 0.3556581 0.35983428 0.12318568
0.31470898 -0.03164942 -0.09578818 0.26708305 -0.32797864 -0.3331375 -0.060829356 0.18296625
-0.6063501 0.25113857 -0.53958344 0.15001568 -0.108477674 -0.5141186 -0.21136574 0.28194147
0.018224418 -0.15685117 -0.20355463 -0.3704964 0.24552864 0.5354836 -0.36726534 0.19635805
-0.25106665 -0.06363795 -0.50140446 0.6031926 0.310218 -0.32534865 -0.5267146 -0.524715
-0.027856337 -0.58134526 -0.25782812 -0.019428272 -0.32997054 -0.20283253 -0.54298306 0.14626724
-0.63327587 0.27408007 0.37381518 0.56417346
00000000: db0d 92be f5d8 2f3b 661b 4cbe 1c3f f8be
00000010: 67a8 eebe b7e4 ce3e 5436 e2be 2ad2 3c3e
00000020: 7899 c4be 67d1 5bbe ba04 933e f862 4e3e
00000030: b5b4 f53e 37d4 143d 5738 493e 0391 3e3d
00000040: f3b2 5fbe 5e25 d33e f8b6 31be 9fdf 5dbe
00000050: eb90 703e 0d32 a63c 5df8 453e 305b 16be
00000060: b718 debb 800f af3d 1308 a93e 2bbe 10bf
00000070: 27b1 df3e 2fa8 85be cf97 ff3e 875b 4abd
00000080: 78f8 bebe 1c32 f8bd 6d92 163e 896c c73d
00000090: 839c 683e 184b e13d 6aad 273e 3300 1dbe
000000a0: a2ab df3e a78f 0e3f 2203 663d 01d8 013f
000000b0: fe69 e4be bc13 fd3c 8113 b6be a7da 8abe
000000c0: fe6c a7bd 282e a9be 4c62 fdbe 972d 4fbe
000000d0: e30d f73e d218 b63e 333c b83e c648 fc3d
000000e0: 8921 a13e d2a2 01bd 982c c4bd 1cbf 883e
000000f0: d1ec a7be 0091 aabe 3428 79bd 815b 3b3e
00000100: c339 1bbf 3c95 803e 2422 0abf b69d 193e
00000110: 8b29 debd 479d 03bf 4370 58be a25a 903e
00000120: 604b 953c 989d 20be a070 50be b4b1 bdbe
00000130: dc6b 7b3e 7415 093f 340a bcbe 1612 493e
00000140: cf8b 80be 9d54 82bd 0b5c 00bf d56a 1a3f
00000150: e5d4 9e3e 1994 a6be c5d6 06bf b953 06bf
00000160: f932 e4bc 0bd3 14bf 0c02 84be 0a28 9fbc
00000170: e6f1 a8be 55b3 4fbe f000 0bbf 14c7 153e
00000180: 5e1e 22bf 3954 8c3e b464 bf3e ac6d 103f

encoder.layers.0.self_attn.W_Q.weight f4 [60, 100]
-0.03326266 -0.09664717 -0.055038948 -0.07069695 0.04142599 -0.14935946 0.030213598 -0.09659384
0.050288152 -0.11911972 -0.02641587 -0.13027823 -0.106521405 0.057175763 0.04132227 -0.0013693282
0.018883657 -0.03526631 0.0061052055 0.08941959 0.00823624 0.11496174 -0.024688764 -0.10343743
0.0510706 -0.028701907 -0.118626304 0.101614885 -0.055295475 0.12984908 -0.009439496 -0.019905554
-0.07739572 -0.039635357 0.061719645 0.056810483 -0.0042450656 0.08616387 0.07639703 -0.0824686
-0.037516005 -0.082742974 -0.02067883 -0.07270451 -0.09916179 -0.06285124 0.00324289 0.14402387
-0.04244083 -0.108731404 -0.055267897 0.1295638 -0.009154083 -0.036719996 -0.048432283 -0.015465325
-0.062172852 0.012358381 0.038184464 0.013925449 0.15721282 -0.0052194777 -0.0766544 0.049730662
-0.015914744 -0.048897058 0.010171431 -0.0661861 -0.03182237 0.157704 0.048260227 -0.017150491
0.09105852 -0.027765673 -0.115866005 0.00902232 -0.03159558 -0.14373174 0.019135231 -0.031956002
0.02119063 -0.1465777 0.030980663 -0.039824847 0.043138616 -0.02930957 0.05090191 0.09244339
0.10380311 -0.010922469 0.016360804 0.06818422 0.051900316 0.033868026 0.041920703 0.025041005
0.024143972 -0.096641116 0.014094987 -0.068616495 -0.070881136 0.04913472 0.07045875 0.0065181064
-0.047969047 -0.07151695 -0.011159928 -0.040834486 0.041631185 0.046142027 0.11583022 -0.04852331
0.012456582 0.024474947 -0.008418696 -0.12541151 0.025646321 0.04877773 0.08383672 0.15538494
0.11995705 0.16062133 -0.085980855 0.024903858 0.0008675525 0.07170382 -0.06406062 0.06690174
-0.026982186 0.040890742 -0.06676286 -0.037312362 0.030161891 0.05839674 -0.07369167 -0.07851501
-0.07814113 0.08049542 0.05607227 -0.124270685 -0.120863065 -0.01412531 0.061221525 -0.12060799
-0.007923939 0.0061287815 0.061768454 -0.017332109 0.05795704 -0.017719181 0.0656062 0.09122023
-0.099736966 -0.09381708 -0.01741141 -0.082996 0.066291645 0.049676478 0.021173483 -0.03930083
0.028012682 0.08495721 -0.024310414 0.020456862 0.14341088 -0.01773097 -0.07071706 -0.07019368
0.062824175 0.010968964 0.074900374 0.00030310274 0.028956925 0.10525149 0.01706255 -0.0030168463
-0.057227768 0.044024695 -0.017874464 0.06860291 0.015166449 0.014852493 0.097688615 -0.044982772
0.106551714 -0.044295937 0.085437916 -0.032916367 0.025354104 0.048431944 -0.10729043 0.0069916965
0.026342567 0.052387033 0.056525525 -0.040878527 -0.06906723 -0.053794328 -0.008973773 -0.15445171
-0.011565069 0.018925495 0.0050911848 0.008719454 0.03378525 -0.0120919105 -0.019453064 0.013125573
-0.006850164 0.046819977 0.032595463 0.068239264 -0.06817128 -0.092373654 0.08170063 0.08122617
0.051755585 0.06851712 0.092371196 0.045592077 0.05064802 -0.0015100802 0.067646585 0.048041236
-0.14015503 0.055419464 -0.062140513 -0.044259254 -0.044527955 -0.07351658 -0.040360045 0.048830044
-0.10898514 -0.079546414 0.063961335 0.02341544 -0.094286114 0.021614032 -0.039190974 0.0009807328
-0.035001095 -0.033001967 -0.089831084 0.057981826 0.090680264 0.059383534 -0.067873016 -0.05279359
0.0156636 0.06977689 -0.04538955 0.008160461 -0.054980915 0.06018243 0.094798096 0.0942428
00000000: 6d3e 08bd f4ee c5bd 8570 61bd 90c9 90bd
00000010: 4dae 293d b0f1 18be 8282 f73c fed2 c5bd
00000020: f3fa 4d3d 0af5 f3bd 1866 d8bc a867 05be
00000030: e527 dabd 2231 6a3d 8a41 293d 087b b3ba
00000040: e6b1 9a3c 6873 10bd 2d0e c83b 9e21 b73d
00000050: 4bf1 063c 1071 eb3d 1740 cabc 01d7 d3bd
00000060: 682f 513d 4320 ebbc 59f2 f2bd 771b d03d
00000070: 827d 62bd 28f7 043e 1ea8 1abc f910 a3bc
00000080: a681 9ebd af58 22bd bdcd 7c3d 1cb2 683d
00000090: 311a 8bbb af76 b03d 0c76 9c3d 4ce5 a8bd
000000a0: 62aa 19bd 2675 a9bd a666 a9bc 1ae6 94bd
000000b0: 5615 cbbd 27b8 80bd aa86 543b fe7a 133e
000000c0: 70d6 2dbd 92ae debd 9760 62bd 5fac 043e
000000d0: 02fb 15bc b567 16bd ee60 46bd 4662 7dbc
000000e0: f6a8 7ebd cf7a 4a3c 5067 1c3d 9127 643c
000000f0: 66fc 203e 2708 abbb fbfc 9cbd 61b2 4b3d
00000100: a35f 82bc 4848 48bd 13a6 263c 948c 87bd
00000110: 2c58 02bd 287d 213e 84ac 453d 307f 8cbc
00000120: e47c ba3d d674 e3bc 284b edbd 5ad2 133c
00000130: 5e6a 01bd 6a2e 13be 7dc1 9c3c 4ce4 02bd
00000140: f997 ad3c 7718 16be 29cb fd3c 611f 23bd
00000150: 1eb2 303d a01a f0bc 857e 503d f652 bd3d
00000160: ba96 d43d 28f4 32bc 1807 863c 2ba4 8b3d
00000170: 6d95 543d 33b9 0a3d 0bb5 2b3d cb22 cd3c
00000180: 94c9 c53c c7eb c5bd a9ee 663c ce86 8cbd
00000190: 212a 91bd 7d41 493d ad4c 903d d795 d53b
000001a0: 317b 44bd 7b77 92bd 21d8 36bc 1042 27bd
000001b0: 7685 2a3d 6cff 3c3d 6538 ed3d 61c0 46bd
000001c0: b116 4c3c af7f c83c 92ee 09bc e06b 00be
000001d0: 3c18 d23c 28cb 473d 96b2 ab3d 3b1d 1f3e
000001e0: 0bac f53d eb79 243e bb16 b0bd 2d03 cc3c
000001f0: 766c 633a 74d9 923d 3732 83bd c803 893d
00000200: bf09 ddbc 0d7d 273d f7ba 88bd d9d4 18bd
00000210: 1216 f73c 6c31 6f3d a9eb 96bd 7acc a0bd
00000220: 7508 a0bd c8da a43d 09ac 653d a181 febd
00000230: 0e87 f7bd d86d 67bc 6cc3 7a3d 5201 f7bd
00000240: 69d3 01bc f2d3 c83b eb00 7d3d 11fc 8dbc
00000250: 5c64 6d3d d127 91bc 8b5c 863d acd1 ba3d
00000260: e542 ccbd 2b23 c0bd 60a2 8ebc cff9 a9bd
00000270: eac3 873d 9079 4b3d 0374 ad3c e8f9 20bd
00000280: da7a e53c 0cfe ad3d a226 c7bc 2695 a73c
00000290: 4dda 123e 8a40 91bc 1bd4 90bd b4c1 8fbd
000002a0: f6a9 803d 2bb7 333c 5e65 993d c3e9 9e39
000002b0: 1337 ed3c 188e d73d c3c6 8b3c 48b6 45bb
000002c0: aa67 6abd 3d53 343d 786d 92bc af7f 8c3d
000002d0: b37c 783c df57 733c f810 c83d db3f 38bd
000002e0: c937 da3d a86f 35bd 13fa ae3d 50d3 06bd
000002f0: 69b3 cf3c 9360 463d 16bb dbbd 9a1a e53b
00000300: 5ecc d73c c993 563d 4f87 673d 3e70 27bd
00000310: 1f73 8dbd 7157 5cbd bb06 13bc 9728 1ebe
00000320: 6a7b 3dbc a409 9b3c f4d3 a63b 0adc 0e3c
00000330: 6762 0a3d 261d 46bc 085c 9fbc a50c 573c
00000340: 5777 e0bb 4ec6 3f3d d282 053d 07c1 8b3d
00000350: 629d 8bbd 662e bdbd a952 a73d e859 a63d
00000360: aafd 533d b452 8c3d 1c2d bd3d c2be 3a3d
00000370: 4c74 4f3d e2ed c5ba 4b8a 8a3d e3c6 443d
00000380: cd84 0fbe 85ff 623d 0d87 7ebd 3149 35bd
00000390: f262 36bd dc8f 96bd 9350 25bd 0302 483d
000003a0: 9a33 dfbd 3be9 a2bd 29fe 823d bdd1 bf3c
000003b0: 1419 c1bd e90f b13c b786 20bd ef8b 803a
000003c0: 4f5d 0fbd 122d 07bd 5cf9 b7bd 5a7e 6d3d
000003d0: 93b6 b93d 263c 733d 0201 8bbd 173e 58bd
000003e0: f350 803c 30e7 8e3d 65ea 39bd 74b3 053c
000003f0: ab33 61bd da81 763d 8125 c23d 5e02 c13d

encoder.layers.0.self_attn.W_K.weight f4 [60, 100]
0.08376646 0.081783965 -0.12070686 -0.085527204 0.06054927 -0.12857853 0.080394894 -0.023922225
-0.00029632295 0.0027711699 -0.062241174 0.078433864 -0.097887464 0.015474289 0.061632592 0.020071315
-0.07141051 0.003026834 -0.041839544 -0.017149104 0.119454496 0.13006662 0.0017236064 -0.05654621
0.16823393 -0.049013004 -0.0061599035 -0.04949482 0.15343134 -0.021320226 -0.14763898 -0.053213105
-0.066668265 0.04649714 0.064018875 -0.089729555 -0.084117495 0.08973867 0.010014618 0.04289558
0.030434297 -0.12161199 0.0662568 0.08040149 -0.10711868 -0.104338944 -0.06899785 0.09832487
0.04200853 -0.00576936 -0.083419055 -0.047917277 0.029939784 -0.07311684 -0.08001481 0.020687817
-0.04047394 -0.0636613 -0.16140993 0.040697806 0.06402344 -0.030330358 -0.041013826 -0.10457896
0.025913807 -0.2766781 -0.06687651 -0.07283481 -0.056124955 0.102264695 0.061355237 0.0459668
0.12902424 0.057995096 0.10110375 0.043671083 0.02309075 -0.12256633 -0.10440145 0.04351217
-0.09593557 -0.0614008 0.10841357 -0.09852051 -0.042601638 -0.104269154 -0.055257846 -0.02801819
0.12614864 0.095209636 -0.10755237 -0.05647552 -0.054531056 0.0063862633 0.016856903 0.18568254
-0.038225845 -0.14522588 -0.07631708 -0.11190783 0.10865266 0.08998227 -0.051886935 0.0679867
0.010926689 0.05044294 0.07729851 0.06068216 0.056226347 -0.07135593 -0.05646573 0.017449193
-0.06021759 -0.052307643 0.025995638 0.10634011 0.009911644 0.027680425 0.02345093 -0.09196019
0.08558716 0.069522835 0.06783611 0.009957935 0.022571048 0.0760816 0.056704797 -0.01170854
-0.05161084 0.07142265 -0.0067939875 0.04007141 0.08262546 -0.07373334 0.12606992 -0.00972661
0.11132794 -0.0023539122 -0.04425947 -0.025239568 0.096963674 0.030003995 -0.029876567 0.038137052
-0.03267048 -0.029436557 0.062207628 0.08774511 0.096579075 -0.0059304056 -0.09353252 0.050612554
-0.0059700245 0.09926478 0.114362046 -0.036439843 -0.08030167 0.0033053763 0.002861138 0.031985287
-0.09674813 -0.061318528 0.055079855 -0.06881404 0.107315116 -0.01719185 0.01802205 -0.07252259
-0.030824857 0.049717847 -0.0331607 0.0703411 0.015469121 0.03777062 0.04631671 -0.0021801137
-0.009117603 -0.00419024 -0.043095313 0.029408222 -0.06901443 0.037314877 0.11084226 -0.020437991
0.11073201 0.035682727 0.047987916 -0.08062597 0.12677172 -0.057228554 0.02091035 -0.033045847
-0.070191644 0.07199577 -0.03094993 0.058875013 0.11239813 0.093592554 -0.046570443 -0.04460111
-0.07387603 -0.07115942 -0.028652359 -0.046460092 -0.033033483 0.11899213 -0.11090708 0.0698926
-0.04607774 0.07590852 -0.024619704 0.055380035 0.091486596 0.03847743 0.013754041 0.08980423
0.104875974 -0.03656068 -0.044039465 -0.0072475853 -0.033350114 -0.024262864 -0.0045085857 0.08921453
-0.08671701 -0.055599835 -0.070258565 0.02767405 0.064046696 -0.04113112 0.061598573 0.03052441
0.032538373 -0.058132894 -0.107710734 0.007889849 0.06095078 0.03899739 -0.059003584 -0.025695676
-0.017250352 0.03597116 -0.019048821 0.027442427 -0.08533422 0.08410497 0.05345332 -0.041684356
-0.01652956 0.03967508 0.025474777 0.07352895 0.04050185 0.0750871 -0.092698105 0.018364437
00000000: c08d ab3d 5a7e a73d 2935 f7bd e328 afbd
00000010: 8302 783d 17aa 03be 14a6 a43d 8bf8 c3bc
00000020: cb5b 9bb9 849c 353b 9af0 7ebd efa1 a03d
00000030: 3979 c8bd df87 7d3c 7572 7c3d 996c a43c
00000040: ac3f 92bd d95d 463b f15f 2bbd 477c 8cbc
00000050: 8fa4 f43d 2f30 053e a2ea e13a 009d 67bd
00000060: 8445 2c3e dcc1 48bd 04d9 c9bb 15bb 4abd
00000070: 1b1d 1d3e c1a7 aebc ac2e 17be fcf5 59bd
00000080: 5f89 88bd c973 3e3d 541c 833d 21c4 b7bd
00000090: cb45 acbd e8c8 b73d 5a14 243c 47b3 2f3d
000000a0: 5951 f93c b50f f9bd a5b1 873d 89a9 a43d
000000b0: 0a61 dbbd a8af d5bd bf4e 8dbd 8d5e c93d
000000c0: 2311 2c3d e60c bdbb 9cd7 aabd e844 44bd
000000d0: 4744 f53c 48be 95bd cede a3bd 7f79 a93c
000000e0: 01c8 25bd db60 82bd a548 25be beb2 263d
000000f0: b91e 833d 5f77 f8bc 1dfe 27bd 7e2d d6bd
00000100: 3149 d43c c0a8 8dbe 8df6 88bd 6b2a 95bd
00000110: 48e3 65bd 2770 d13d a14f 7b3d af47 3c3d
00000120: ee1e 043e 448c 6d3d 7c0f cf3d 73e0 323d
00000130: d028 bd3c 0e04 fbbd 6dd0 d5bd d139 323d
00000140: de79 c4bd 687f 7bbd ef07 de3d 1fc5 c9bd
00000150: 0e7f 2ebd 118b d5bd 0d56 62bd 6786 e5bc
00000160: 1c2d 013e 45fd c23d 6b44 dcbd e052 67bd
00000170: f55b 5fbd dc43 d13b 7d17 8a3c 9023 3e3e
00000180: b492 1cbd 18b6 14be 214c 9cbd ef2f e5bd
00000190: 4985 de3d a048 b83d 6587 54bd 9c3c 8b3d
000001a0: db05 333c 429d 4e3d ae4e 9e3d db8d 783d
000001b0: 994d 663d 0f23 92bd 9c48 67bd 9cf1 8e3c
000001c0: b8a6 76bd 8a40 56bd cef4 d43c d8c8 d93d
000001d0: 7364 223c 0fc2 e23c 2a1c c03c a055 bcbd
000001e0: 5248 af3d fd61 8e3d a9ed 8a3d 9b26 233c
000001f0: ebe6 b83c abd0 9b3d 4a43 683d 2dd5 3fbc
00000200: e365 53bd 0a46 923d 19a0 debb eb21 243d
00000210: 8a37 a93d 8101 97bd 7918 013e 5c5c 1fbc
00000220: e7ff e33d 1844 1abb 6b49 35bd 36c3 cebc
00000230: e494 c63d f0ca f53c b4bf f4bc 9935 1c3d
00000240: 7bd1 05bd ef24 f1bc 6dcd 7e3d b5b3 b33d
00000250: 40cb c53d d953 c2bb fa8d bfbd 1c4f 4f3d
00000260: 32a0 c3bb 554b cb3d a636 ea3d f241 15bd
00000270: 3475 a4bd 039f 583b ee81 3b3b 0103 033d
00000280: e223 c6bd 2329 7bbd 6a9b 613d 60ee 8cbd
00000290: 07c8 db3d ecd5 8cbc faa2 933c b986 94bd
000002a0: 6984 fcbc f1a4 4b3d 84d3 07bd ff0e 903d
000002b0: 3272 7d3c 5eb5 1a3d 97b6 3d3d 3de0 0ebb
000002c0: 0062 15bc 484e 89bb b684 30bd 83e9 f03c
000002d0: 7057 8dbd 7cd7 183d 4401 e33d 936d a7bc
000002e0: 77c7 e23d 0d28 123d fa8e 443d 3b1f a5bd
000002f0: 72d0 013e 7d68 6abd 2f4c ab3c 155b 07bd
00000300: a3c0 8fbd 8572 933d b58a fdbc ed26 713d
00000310: fe30 e63d 74ad bf3d a6c0 3ebd a7af 36bd
00000320: 514c 97bd 08bc 91bd 5ab8 eabc f04c 3ebd
00000330: 1e4e 07bd 25b2 f33d 4023 e3bd da23 8f3d
00000340: 03bc 3cbd ed75 9b3d 43af c9bc 2dd6 623d
00000350: 535d bb3d 829a 1d3d a158 613c 48eb b73d
00000360: 37c9 d63d a7c0 15bd ba62 34bd 277d edbb
00000370: 219a 08bd eac2 c6bc c2bc 93bb 1cb6 b63d
00000380: b098 b1bd a7bc 63bd b9e3 8fbd b0b4 e23c
00000390: ea2a 833d 1b79 28bd c94e 7c3d 540e fa3c
000003a0: f546 053d c21c 6ebd 7297 dcbd 6d44 013c
000003b0: 86a7 793d babb 1f3d bead 71bd bd7f d2bc
000003c0: 9c50 8dbc 7f56 133d 460c 9cbc f1ce e03c
000003d0: b5c3 aebd 3a3f ac3d def1 5a3d 37bd 2abd
000003e0: 0069 87bc 5682 223d 7bb0 d03c 5996 963d
000003f0: 45e5 253d 44c7 993d 81d8 bdbd 0471 963c

encoder.layers.0.self_attn.W_V.weight f4 [60, 100]
0.084114596 -0.04463503 0.09537569 -0.09510461 0.011746608 0.115487635 -0.014145526 -0.0876567
0.09881969 0.053559206 -0.038602594 -0.0465631 0.07925428 -0.10618809 0.039158866 -0.07717859
0.102536865 -0.088310674 -0.03694725 -0.033665016 -0.068227276 -0.024567384 -0.0070523024 -0.0267255
-0.017805677 -0.046881877 0.06637675 -0.06526168 0.010583097 -0.06736253 0.042661678 0.06950895
0.06945054 -0.025631212 -0.05434918 0.00828325 -0.06378939 -0.08736526 0.023245435 0.057101376
0.08015115 0.0047396803 -0.020868758 0.043104865 -0.020054203 0.073909275 -0.014954279 -0.063712016
-0.028170355 0.14109805 0.02270367 0.015119398 -0.0056529627 -0.10046872 0.033818956 -0.04855652
0.038124822 -0.035692073 0.096187115 -0.10529589 -0.0033504693 0.06546583 -0.069574155 -0.026694337
-0.07177439 0.0016586721 0.018655809 0.013204293 -0.074221626 -0.07233133 0.082911454 -0.015489435
-0.08739296 0.022276605 -0.08233846 0.09888517 -0.041019708 0.03953603 0.051064085 -0.065301485
-0.011218283 -0.00047067698 -0.063788354 -0.048190348 0.07863304 0.12455167 -0.09231254 -0.035530645
-0.059317425 -0.0028692158 0.020282827 -0.010280858 0.04007918 -0.004116583 -0.13432026 -0.11822466
-0.11211059 0.086625546 0.11655671 -0.028679986 0.054080572 -0.06884955 -0.029503195 -0.05208415
0.043748397 -0.104216054 0.08755619 0.02609762 0.033247672 0.079913594 0.08526529 -0.07732677
0.022222335 -0.07845466 0.09097976 -0.11948189 -0.09583076 0.041363202 0.026654948 0.10825885
0.024199018 0.07646492 -0.13139665 -0.02244221 -0.008620439 0.024693636 0.06274901 -0.05525835
-0.02404565 0.011659075 0.051671315 0.052899897 0.006023259 -0.0070596696 0.113610856 0.018037234
0.06027141 -0.06721792 0.07823529 -0.015242792 0.02370213 -0.03517647 -0.009815039 -0.053085532
-0.07313856 -0.07033447 -0.003547476 0.111631244 0.045270067 -0.08407062 0.03215295 0.034048207
-0.03257082 0.07355453 -0.018249074 -0.052547634 -0.06645502 -0.1090897 0.037537996 0.080503
-0.00031893197 -0.024895225 -0.06863035 0.038696654 0.15624672 -0.19944175 0.022832714 0.11255829
0.01619348 0.04367586 -0.042305805 -0.030023577 0.1094207 -0.0297716 -0.055327304 -0.10748639
-0.11893964 0.07348846 -0.07778686 -0.11669052 -0.055481933 -0.13244815 -0.038413763 -0.097209774
-0.047640502 -0.083898336 0.004290787 0.050848484 0.026831495 0.05295757 -0.079648495 0.062694825
0.06519325 0.053321876 0.037028767 0.04938107 0.041817777 -0.02250545 0.08084718 -0.091415346
0.0035458421 0.07976885 -0.00938312 0.04386956 -0.029427024 0.04041098 0.11182624 -0.021631857
-0.070875935 0.08092491 -0.014033187 -0.04509077 -0.105054215 0.097141 0.07997674 -0.011367402
-0.013746246 -0.048826557 0.06279816 0.0945626 0.11558552 -0.01179802 -0.018064145 -0.0061413394
0.118311994 -0.101293296 -0.010056274 0.045467097 -0.010218629 0.01278151 -0.09882924 -0.0145571055
-0.010888707 0.06604026 0.08130934 0.04746553 0.007913678 0.033895254 0.017808205 -0.045466978
-0.058192663 -0.1077799 -0.03996375 0.011591281 0.09922419 -0.06992224 -0.00030937738 0.0026243974
0.014910791 -0.070386685 0.034804296 -0.06939379 -0.07779826 -0.0008536477 -0.06478798 0.044990383
00000000: 4644 ac3d 39d3 36bd 5454 c33d 35c6 c2bd
00000010: d874 403c c884 ec3d a3c2 67bc 5b85 b3bd
00000020: fa61 ca3d e660 5b3d c11d 1ebd f3b8 3ebd
00000030: 1150 a23d 2479 d9bd 0c65 203d cf0f 9ebd
00000040: d9fe d13d 3adc b4bd 0056 17bd 54e4 09bd
00000050: beba 8bbd 8a41 c9bc 0017 e7bb 70ef dabc
00000060: 36dd 91bc 3607 40bd 89f0 873d eaa7 85bd
00000070: ba64 2d3c 5ef5 89bd 03be 2e3d b55a 8e3d
00000080: 163c 8e3d 8cf8 d1bc 3f9d 5ebd 78b6 073c
00000090: 03a4 82bd 8fec b2bd 366d be3c 22e3 693d
000000a0: 4926 a43d 524f 9b3b f5f4 aabc ba8e 303d
000000b0: b648 a4bc bf5d 973d cb02 75bc 727b 82bd
000000c0: 84c5 e6bc 027c 103e 0cfd b93c 5ab7 773c
000000d0: 7d3c b9bb 8bc2 cdbd bf85 0a3d 34e3 46bd
000000e0: c628 1c3d da31 12bd c0fd c43d 5fa5 d7bd
000000f0: 8c93 5bbb f312 863d e57c 8ebd 15ae dabc
00000100: 74fe 92bd cd67 d93a 11d4 983c d256 583c
00000110: 8201 98bd 7322 94bd 7bcd a93d 66c7 7dbc
00000120: 15fb b2bd 6d7d b63c 11a1 a8bd 4f84 ca3d
00000130: 4804 28bd 88f0 213d 9328 513d c9bc 85bd
00000140: e4cc 37bc 32c5 f6b9 78a3 82bd 3e63 45bd
00000150: 5c0a a13d f214 ff3d 5b0e bdbd 9588 11bd
00000160: d4f6 72bd 7409 3cbb 2c28 a63c 0b71 28bc
00000170: 112a 243d 67e4 86bb 408b 09be c51f f2bd
00000180: 3d9a e5bd bc68 b13d 49b5 ee3d 4af2 eabc
00000190: 9783 5d3d fe00 8dbd afb0 f1bc 3156 55bd
000001a0: 8531 333d 3a6f d5bd a950 b33d adca d53c
000001b0: b62e 083d bda9 a33d 929f ae3d 7f5d 9ebd
000001c0: 9d0b b63c d6ac a0bd 9953 ba3d ecb2 f4bd
000001d0: eb42 c4bd 766c 293d 7a5b da3c d1b6 dd3d
000001e0: 053d c63c a499 9c3d d88c 06be bad8 b7bc
000001f0: be3c 0dbc 4f4a ca3c 8e82 803d 9456 62bd
00000200: 62fb c4bc b405 3f3c 4da5 533d 90ad 583d
00000210: c25e c53b cd54 e7bb cfac e83d d2c2 933c
00000220: 27df 763d 8da9 89bd d339 a03d e7bc 79bc
00000230: f82a c23c 3415 10bd 42cf 20bc 3770 59bd
00000240: abc9 95bd 850b 90bd c57c 68bb ec9e e43d
00000250: 1b6d 393d 382d acbd d0b2 033d 2276 0b3d
00000260: fb68 05bd c2a3 963d 157f 95bc 303c 57bd
00000270: 9219 88bd 6c6a dfbd 71c1 193d c2de a43d
00000280: 5336 a7b9 12f1 cbbc 128e 8cbd 6280 1e3d
00000290: 24ff 1f3e 753a 4cbe ac0b bb3c f684 e63d
000002a0: 30a8 843c 75e5 323d da48 2dbd 01f4 f5bc
000002b0: f617 e03d 92e3 f3bc e29e 62bd d321 dcbd
000002c0: a096 f3bd 1e81 963d b84e 9fbd 70fb eebd
000002d0: 0641 63bd 7da0 07be c057 1dbd eb15 c7bd
000002e0: b022 43bd e4d2 abbd bb99 8c3b 8046 503d
000002f0: b9cd db3c 09ea 583d c01e a3bd 2566 803d
00000300: 0a84 853d 0a68 5a3d 7aab 173d ce43 4a3d
00000310: 1e49 2b3d 595d b8bc 3593 a53d f837 bbbd
00000320: 5c61 683b da5d a33d a8bb 19bc 91b0 333d
00000330: f110 f1bc fc85 253d 2805 e53d 4b35 b1bc
00000340: 6727 91bd f6bb a53d 74eb 65bc 19b1 38bd
00000350: aa26 d7bd dcf1 c63d d8ca a33d 573e 3abc
00000360: ef37 61bc 5bfe 47bd 529c 803d 09aa c13d
00000370: 1ab8 ec3d 7c4c 41bc 42fb 93bc 4a3d c9bb
00000380: 8f4d f23d dc72 cfbd 12c3 24bc b53b 3a3d
00000390: 096c 27bc 8a69 513c fc66 cabd ed80 6ebc
000003a0: 8c66 32bc 1e40 873d 8385 a63d 376b 423d
000003b0: 5fa8 013c c0d5 0a3d 83e2 913c 953b 3abd
000003c0: 6e5b 6ebd b5bb dcbd 07b1 23bd 5be9 3d3c
000003d0: 0d36 cb3d 6433 8fbd ee33 a2b9 15fe 2b3b
000003e0: 644c 743c e526 90bd f38e 0e3d 551e 8ebd
000003f0: b254 9fbd 54c7 5fba 8faf 84bd d647 383d

encoder.layers.0.self_attn.W_O.weight f4 [100, 60]
0.103069276 -0.01676095 -0.050791007 -0.088693865 0.11760472 -0.018324267 0.07346302 -0.06909073
-0.0077986126 0.037392855 0.16633973 0.15009084 0.012411547 -0.14610747 0.07354793 0.06394611
-0.16783111 -0.114849284 -0.13618056 -0.14666836 0.017787334 0.12875926 0.10778266 0.1405516
0.0040868535 -0.23383342 -0.07170066 -0.02606314 -0.04091082 0.11086261 -0.0019511944 -0.011811784
0.005005567 0.122375876 -0.095011175 0.09415935 0.087437786 -0.06821288 -0.041308727 -0.012055201
-0.1310307 -0.028534293 -0.014269587 0.12467178 0.13242353 -0.009621478 0.08040605 0.072755314
-0.03434493 0.020383915 0.08192516 0.048627418 0.07655437 -0.008584902 0.013239809 0.01416081
0.042205878 0.14069735 -0.11766772 -0.099548824 0.04669835 0.039501704 -0.14145295 -0.120055415
0.09890149 0.10639723 0.118894316 0.049608022 -0.027937595 0.07955047 0.07687152 0.015931359
0.11955178 0.06942151 -0.107745126 -0.045089085 0.11629418 0.11268614 0.020957656 -0.03371491
-0.021623489 0.0530822 -0.03951176 0.06341853 0.082608886 0.06512578 0.11888481 0.057635296
0.08015837 0.014210566 -0.13179927 0.029380357 -0.12271206 -0.0995669 0.11186223 0.017657993
0.021527838 -0.054186862 -0.008658359 0.014682405 -0.01840026 -0.03252976 0.13976407 -0.032438245
-0.05509808 0.08354324 -0.12283224 -0.18481784 0.10023224 0.04451494 -0.04146186 0.06308172
0.11073176 0.13327172 -0.07990192 0.04146225 -0.0655533 0.015381686 -0.018156799 0.0697337
0.03841274 -0.08355445 0.087395154 -0.023641638 0.07470957 -0.027418766 0.09717486 -0.024718786
-0.077242315 -0.15653722 0.10805174 0.07812581 0.09388617 -0.0319889 -0.043242503 -0.013724375
-0.14477739 0.0015095224 0.061176375 0.07086816 -0.009507494 -0.046297822 -0.09233324 0.043254696
0.18556814 -0.09848862 0.10282529 -0.06350905 0.107506834 0.05672745 0.18172848 0.10480073
0.16189618 -0.028830195 0.019939553 -0.050504472 0.033570357 -0.0822953 -0.04259247 0.11407004
-0.02543734 0.14226998 -0.17046873 0.19687586 -0.007221824 0.03581797 0.07153245 -0.06413885
-0.023120899 0.0671547 -0.075193726 0.020600531 -0.012670508 -0.14920865 0.18885837 0.06514186
0.08761655 0.11512036 -0.07708604 -0.028952204 0.07438696 0.10686144 0.17836834 -0.1450521
-0.06369009 -0.04259662 -0.010268207 -0.14224495 0.04093049 -0.20865566 -0.016312525 0.07945009
0.014125531 0.04575196 0.018683452 -0.053062893 -0.14868914 -0.0833995 -0.12466288 -0.15201156
-0.1040056 0.059909694 0.14197215 0.09993683 0.09894707 -0.17643717 -0.004055631 0.14425546
-0.047855124 -0.00025700242 0.03952446 0.06816969 0.110882245 -0.116315626 0.114077225 0.033403642
0.010093835 0.0073336214 0.124695 -0.045451414 -0.06707282 -0.014117965 -0.13549091 -0.06862707
0.081894524 -0.03219936 0.1146784 0.121200986 0.0011368773 -0.0034000913 -0.07108493 -0.040350266
-0.056364875 -0.071759075 0.054952458 -0.03547948 0.03963427 0.0075414157 -0.10252029 -0.018041505
-0.07417306 0.001363566 -0.08156719 0.09005216 -0.104159944 0.036949266 0.12456248 0.1146711
-0.07428341 -0.00061558536 -0.09271081 0.101107724 -0.087982304 0.097584166 -0.08465048 0.100902006
00000000: fc15 d33d 434e 89bc 3b0a 50bd 21a5 b5bd
00000010: beda f03d c61c 96bc c873 963d 717f 8dbd
00000020: 818b ffbb 4029 193d f654 2a3e 6ab1 193e
00000030: cd59 4b3c 329d 15be 4ca0 963d 2ef6 823d
00000040: ebdb 2bbe 1a36 ebbd eb72 0bbe 3b30 16be
00000050: beb6 913c 78d9 033e 28bd dc3d c2ec 0f3e
00000060: 03eb 853b 0772 6fbe ccd7 92bd 5e82 d5bc
00000070: 1b92 27bd f00b e33d 38bf ffba 3686 41bc
00000080: bd05 a43b 34a0 fa3d 3895 c2bd 9ed6 c03d
00000090: 9512 b33d 32b3 8bbd 5733 29bd 2e83 45bc
000000a0: e92c 06be c0c0 e9bc fcca 69bc eb53 ff3d
000000b0: 099a 073e 67a3 1dbc edab a43d bd00 953d
000000c0: 45ad 0cbd 2bfc a63c 61c8 a73d 8b2d 473d
000000d0: 8ac8 9c3d b0a7 0cbc c9eb 583c be02 683c
000000e0: 12e0 2c3d f712 103e c6fb f0bd 41e0 cbbd
000000f0: c546 3f3d 8acc 213d 0bd9 10be 9ddf f5bd
00000100: dd8c ca3d cae6 d93d dd7e f33d c831 4b3d
00000110: 62dd e4bc 5beb a23d d16e 9d3d 7b82 823c
00000120: 90d7 f43d dd2c 8e3d 7aa9 dcbd 55af 38bd
00000130: a52b ee3d fec7 e63d 64af ab3c a518 0abd
00000140: be23 b1bc b96c 593d 15d7 21bd 93e1 813d
00000150: d92e a93d aa60 853d e179 f33d fd12 6c3d
00000160: 122a a43d 6fd3 683c 63f6 06be 13af f03c
00000170: 7650 fbbd bbe9 cbbd 0618 e53d 7fa7 903c
00000180: 265b b03c 0bf3 5dbd cadb 0dbc 788e 703c
00000190: 24bc 96bc ed3d 05bd 501e 0f3e f7dd 04bd
000001a0: 86ae 61bd b818 ab3d 788f fbbd e340 3dbe
000001b0: 9046 cd3d 4c55 363d e9d3 29bd fd30 813d
000001c0: 55c7 e23d 6278 083e 9ea3 a3bd 52d4 293d
000001d0: cf40 86bd 7803 7c3c 91bd 94bc 8bd0 8e3d
000001e0: ad56 1d3d 981e abbd 3bfc b23d 1cac c1bc
000001f0: 5501 993d 529d e0bc 9d03 c73d 0d7f cabc
00000200: 3831 9ebd 4b4b 20be 3b4a dd3d 6d00 a03d
00000210: 6447 c03d cb06 03bd 0d1f 31bd 33dc 60bc
00000220: 8640 14be 2bdb c53a 1494 7a3d 5323 913d
00000230: 52c5 1bbc c9a2 3dbd 3619 bdbd d62b 313d
00000240: 9305 3e3e 67b4 c9bd 1196 d23d 0811 82bd
00000250: 8b2c dc3d 0b5b 683d 0817 3a3e c4a1 d63d
00000260: 1dc8 253e 4d2d ecbc 4658 a33c c7dd 4ebd
00000270: 1281 093d 708a a8bd 7175 2ebd 8e9d e93d
00000280: f861 d0bc 39af 113e 5b8f 2ebe d399 493e
00000290: 0da5 ecbb ddb5 123d 9b7f 923d 3b5b 83bd
000002a0: 0a68 bdbc 6788 893d 2bff 99bd 72c2 a83c
000002b0: f697 4fbc 27ca 18be 1764 413e 1869 853d
000002c0: 4e70 b33d 39c4 eb3d 49df 9dbd 2c2d edbc
000002d0: 3158 983d 2cda da3d 31a6 363e 8a88 14be
000002e0: f36f 82bd cb79 2ebd fb3b 28bc a9a8 11be
000002f0: bba6 273d d4a9 55be d8a1 85bc bbb6 a23d
00000300: c56e 673c 6866 3b3d 0a0e 993c 7a58 59bd
00000310: f741 18be 5bcd aabd 414f ffbd eba8 1bbe
00000320: e300 d5bd de63 753d 2661 113e aeab cc3d
00000330: c3a4 ca3d f2ab 34be 19e5 84bb b4b7 133e
00000340: bc03 44bd 48be 86b9 66e4 213d 8d9c 8b3d
00000350: 3b16 e33d e336 eebd 52a1 e93d 42d2 083d
00000360: 9d60 253c e04e f03b 1860 ff3d 432b 3abd
00000370: 7a5d 89bd 094f 67bc 21be 0abe 598c 8cbd
00000380: 51b8 a73d 7ae3 03bd 82dc ea3d 3938 f83d
00000390: 4603 953a 11d4 5ebb fa94 91bd 5246 25bd
000003a0: dbde 66bd 6cf6 92bd d415 613d ee52 11bd
000003b0: 8b57 223d fb1d f73b 28f6 d1bd c7cb 93bc
000003c0: 0ce8 97bd afb9 b23a b30c a7bd 446d b83d
000003d0: cf51 d5bd 1d58 173d 9d1a ff3d afd8 ea3d
000003e0: e721 98bd 3c5f 21ba 2adf bdbd 9111 cf3d
000003f0: 1130 b4bd 35da c73d 3b5d adbd b6a5 ce3d

encoder.layers.0.batchnorm_attn.1.weight f4 [100]
0.9716348 0.9770131 0.90919894 0.9796903 0.9965073 1.069015 1.036387 1.0025176
0.965891 1.0470321 0.9641627 1.046312 0.97576386 0.9638723 0.98524916 0.95308936
1.0093056 1.0552279 0.9690144 0.99107695 0.9843042 1.0022337 1.1003219 0.96393126
0.96477836 1.0857327 1.0073993 0.94995904 1.0239357 0.9963136 0.96313304 0.96406776
1.0148089 1.01974 1.0239304 1.0710982 1.0060865 1.0128909 1.0508295 0.9391175
0.9964362 0.9512411 0.9574857 0.95650184 0.99285555 1.0367799 1.0223706 0.98716944
0.9854595 1.05397 1.0400817 1.0126113 1.0804498 0.942881 0.96306074 0.95266485
0.93556505 1.0467641 1.0137718 1.0062467 1.0409151 0.9539973 1.0253323 1.0334542
1.0637888 1.0232663 0.9462524 1.0879893 1.0122013 1.1015655 1.0206956 0.9998739
1.0253603 0.9772652 1.006755 1.0184176 1.0273618 1.022945 1.0514797 0.9870583
0.99809265 0.99774176 0.9704051 1.0663929 1.0630798 1.0299572 1.0368975 1.0405548
0.879118 0.998729 1.0531925 1.0582441 1.0727319 0.9848219 0.9888896 1.0594845
0.96859473 1.0193466 1.0054688 1.1287524
00000000: 0fbd 783f 881d 7a3f 43c1 683f fccc 7a3f
00000010: 1a1b 7f3f 7cd5 883f 54a8 843f 7f52 803f
00000020: a244 773f 2605 863f 5ed3 763f 8ded 853f
00000030: a9cb 793f 56c0 763f 4a39 7c3f aafd 733f
00000040: ed30 813f b511 873f 5411 783f 38b7 7d3f
00000050: 5cfb 7b3f 3249 803f 59d7 8c3f 33c4 763f
00000060: b7fb 763f 4af9 8a3f 76f2 803f 8430 733f
00000070: 5310 833f 680e 7f3f e38f 763f 25cd 763f
00000080: 42e5 813f d786 823f 2710 833f bf19 893f
00000090: 71c7 803f 69a6 813f 9581 863f 016a 703f
000000a0: 7116 7f3f 8984 733f c81d 753f 4edd 743f
000000b0: c82b 7e3f 34b5 843f 0add 823f 23b7 7c3f
000000c0: 1347 7c3f 7de8 863f 6621 853f 3f9d 813f
000000d0: 2e4c 8a3f a660 713f 268b 763f d8e1 733f
000000e0: 3181 6f3f 5efc 853f 46c3 813f b1cc 803f
000000f0: b53c 853f 2b39 743f 173e 833f 3a48 843f
00000100: 3b2a 883f 64fa 823f 993d 723f 3c43 8b3f
00000110: d08f 813f 1900 8d3f 27a6 823f bcf7 7f3f
00000120: 023f 833f 0d2e 7a3f 59dd 803f 825b 823f
00000130: 9780 833f ddef 823f e396 863f daaf 7c3f
00000140: 0083 7f3f 016c 7f3f 786c 783f 907f 883f
00000150: 0013 883f a3d5 833f 0fb9 843f e630 853f
00000160: e10d 613f b4ac 7f3f 03cf 863f 8b74 873f
00000170: 474f 893f 4a1d 7c3f de27 7d3f 309d 873f
00000180: d3f5 773f f379 823f 34b3 803f f57a 903f

encoder.layers.0.batchnorm_attn.1.bias f4 [100]
0.07063487 -0.031604808 0.0035743958 0.01575436 -0.02684812 0.013414374 0.007895363 0.003790689
-0.050514672 -0.008285441 -0.010703969 -0.02942524 -0.055839874 0.025561633 0.017802276 -0.03533251
0.009525555 -0.0050794417 -0.03939178 0.0015917729 0.019592362 0.01914095 0.017904421 0.0032958072
0.04378837 -0.0045455894 -0.033354696 -0.038705103 0.032413326 0.02217749 0.006296667 -0.03800055
-0.021897094 0.0059539396 -0.0030417668 0.029344669 -0.03552638 0.015552117 -0.015351488 -0.08796284
0.028431667 -0.056607272 0.027846226 0.015663048 -0.020724816 -0.012874953 -0.028803926 0.010047364
0.034154203 -0.0099620335 -0.040793598 -0.0009170272 -0.0019159061 0.03817818 0.040672645 0.013565564
0.0056965873 0.056349568 0.0039372724 0.006285613 0.014268849 0.0056772083 0.002744698 -0.05242871
0.0064418167 -0.024637677 -0.015957624 0.002549762 -0.010119868 0.014717741 0.015514322 0.035397865
0.0006713353 -0.049579687 -0.01477467 -0.009236393 -0.012982288 -0.036661938 -0.018486224 -0.010130261
-0.024539169 -0.015351885 0.02170882 -0.0281363 0.044857357 -0.037717286 -0.00560775 0.0036606072
-0.0520374 0.02085981 0.007663798 0.05505086 -0.04723046 -0.010813817 0.031781714 -0.021476636
0.019498877 -0.009084094 -0.0044427007 -0.007612241
00000000: 04a9 903d 0b74 01bd 6940 6a3b 4a0f 813c
00000010: 97f0 dbbc f6c7 5b3c 8d5b 013c 356d 783b
00000020: 79e8 4ebd a9bf 07bc b35f 2fbc 330d f1bc
00000030: 5ab8 64bd a166 d13c 14d6 913c d2b8 10bd
00000040: 1311 1c3c 7271 a6bb 4659 21bd 09a3 d03a
00000050: 2980 a03c 7bcd 9c3c 4bac 923c 78fe 573b
00000060: 6f5b 333d 2bf3 94bb ef9e 08bd 3e89 1ebd
00000070: d6c3 043d 91ad b53c 4554 ce3b 77a6 1bbd
00000080: 8961 b3bc 4419 c33b 6158 47bb 3b64 f03c
00000090: 1c84 11bd 4ece 7e3c cf84 7bbc dd25 b4bd
000000a0: 87e9 e83c 07dd 67bd c51d e43c cb4f 803c
000000b0: 17c7 a9bc 78f1 52bc 36f6 ebbc b39d 243c
000000c0: 47e5 0b3d cc37 23bc 3017 27bd a764 70ba
000000d0: 241f fbba b960 1c3d 5c98 263d 1942 5e3c
000000e0: 70aa ba3b cece 663d 3c04 813b 8bf7 cd3b
000000f0: e4c7 693c e007 ba3b 64e0 333b 7dbf 56bd
00000100: e015 d33b f4d4 c9bc 90b9 82bc e819 273b
00000110: cecd 25bc ae22 713c c82f 7e3c 5afd 103d
00000120: 8dfc 2f3a 1214 4bbd 7511 72bc 3d54 17bc
00000130: aab3 54bc d42a 16bd 6c70 97bc 65f9 25bc
00000140: 5e06 c9bc 7986 7bbc b2d6 b13c 197e e6bc
00000150: 59bc 373d 717d 1abd 37c1 b7bb cce6 6f3b
00000160: 2b25 55bd 31e2 aa3c 9920 fb3b 037d 613d
00000170: ba74 41bd 702c 31bc 8b2d 023d c5ef afbc
00000180: 1cbc 9f3c 74d5 14bc 1394 91bb 1b70 f9bb

encoder.layers.0.batchnorm_attn.1.running_mean f4 [100]
-0.03695796 0.49083593 0.086196646 0.56921226 -0.5023502 -0.1819425 -1.2583628 0.8101431
-1.5741433 -0.5572694 -0.29751143 1.0303599 -1.0645015 0.5251283 1.3325169 -0.9498792
-1.0883856 -0.22729906 -0.62347174 0.9434209 1.1187359 0.21792942 0.6919038 -0.26212645
0.743749 -0.6609992 -0.22823976 -1.4227012 2.503891 0.95500016 0.41968405 -0.094299674
-0.7587254 0.09584973 1.6445811 0.730691 -0.13285837 -0.6051488 -0.24685536 -1.3442712
-0.5906862 0.27378234 2.160999 1.2024173 0.05258904 -0.95142394 -0.3584059 -0.51195264
1.359347 -1.8028151 -1.5202042 0.215286 0.37104192 1.942523 0.036572557 -0.53468615
0.9242998 0.3422443 0.7426982 2.1583657 -0.96047205 -1.5240294 0.20023684 -1.4832652
0.31256044 -0.5024688 -1.0881162 0.25922784 -0.6189722 -0.31500542 -0.46138516 0.69901145
-0.12279447 0.3031966 -0.4376913 0.03341463 -0.2762758 -1.4851857 -0.83322334 0.011723848
1.1471827 0.26062384 -0.15882689 -0.3757351 -0.3243102 -1.2940034 -0.39913255 -0.830881
-0.7247155 0.6707347 -1.527077 0.64089507 -1.7165769 0.3114831 0.8804049 0.56514275
-1.6519186 -0.27051902 0.028082464 0.4401202
00000000: 3b61 17bd d94e fb3e de87 b03d e5b7 113f
00000010: 069a 00bf 224f 3abe 0812 a1bf 8a65 4f3f
00000020: 877d c9bf 35a9 0ebf 6b53 98be d5e2 833f
00000030: 9641 88bf cf6e 063f ea8f aa3f 492b 73bf
00000040: 3850 8bbf 16c1 68be d89b 1fbf 0884 713f
00000050: bd32 8f3f e428 5f3e 9c20 313f 7035 86be
00000060: 5666 3e3f 3e37 29bf afb7 69be 131b b6bf
00000070: c03f 2040 e47a 743f d4e0 d63e 3020 c1bd
00000080: d43b 42bf dd4c c43d a281 d23f 910e 3b3f
00000090: 060c 08be 08eb 1abf a7c7 7cbe 1411 acbf
000000a0: 3637 17bf 332d 8c3e cf4d 0a40 cfe8 993f
000000b0: 9b67 573d 8590 73bf fa80 b7be 540f 03bf
000000c0: 15ff ad3f a5c2 e6bf 0d96 c2bf ef73 5c3e
000000d0: 35f9 bd3e 98a4 f83f 1bcd 153d 31e1 08bf
000000e0: e99e 6c3f a53a af3e 7821 3e3f aa22 0a40
000000f0: 7fe1 75bf 6513 c3bf e30a 4d3e a2db bdbf
00000100: ec07 a03e cca1 00bf 6447 8bbf 83b9 843e
00000110: f674 1ebf 6448 a1be ad3a ecbe 6af2 323f
00000120: ab7b fbbd 963c 9b3e 1319 e0be c7dd 083d
00000130: 0674 8dbe 911a bebf 204e 55bf 6215 403c
00000140: e2d6 923f 7d70 853e 84a3 22be 5a60 c0be
00000150: fd0b a6be e7a1 a5bf 1a5b ccbe 9eb4 54bf
00000160: f486 39bf 45b5 2b3f 4277 c3bf b311 243f
00000170: cbb8 dbbf b67a 9f3e 3762 613f 32ad 103f
00000180: 1272 d3bf 7881 8abe 320d e63c 6f57 e13e

encoder.layers.0.batchnorm_attn.1.running_var f4 [100]
6.7626786 10.558208 13.024907 5.3668823 2.45426 1.2609905 1.3496516 3.5104897
6.461948 3.9000728 3.7345195 8.677255 5.0790925 3.393226 3.5697443 4.913835
3.7191613 3.960712 1.4744098 6.2696567 3.2159247 2.4424722 1.7009411 5.344369
5.857913 7.7044706 4.150755 3.304548 3.9814544 6.008969 2.2255702 4.564653
9.6839075 4.0244346 9.351117 2.9725497 3.708955 4.5157466 2.6098747 7.820389
7.3781514 3.8545094 3.9421933 12.398925 1.1214577 3.5321436 6.7089534 5.0072947
4.588996 2.8325238 3.880903 1.3474782 0.7019488 5.9723086 8.200104 6.061467
8.302973 3.0198193 5.361504 2.197087 3.888456 6.287216 1.6642963 4.8595567
5.4854383 1.0174289 5.2211657 1.6985933 2.495934 1.6235262 1.0466213 9.381073
7.161714 2.1391423 1.8088372 8.781376 2.314583 4.59241 2.9914932 2.388122
8.330973 1.8734881 5.852074 4.091713 3.6332347 3.2244608 1.5207447 1.0559443
3.8868458 6.047583 4.766471 1.8746583 7.078959 2.775109 5.6969047 0.92026633
5.2146173 3.1007078 3.720072 0.817967
00000000: dd67 d840 6cee 2841 0566 5041 80bd ab40
00000010: 9912 1d40 2368 a13f 62c1 ac3f ddab 6040
00000020: 47c8 ce40 cb9a 7940 5e02 6f40 09d6 0a41
00000030: ed87 a240 9d2a 5940 b176 6440 233e 9d40
00000040: bd06 6e40 4e7c 7d40 76b9 bc3f 07a1 c840
00000050: b6d1 4d40 7751 1c40 70b8 d93f 1205 ab40
00000060: 0674 bb40 068b f640 fcd2 8440 b77d 5340
00000070: 26d0 7e40 7949 c040 be6f 0e40 a311 9240
00000080: 49f1 1a41 2bc8 8040 2d9e 1541 413e 3e40
00000090: 855f 6d40 ff80 9040 3008 2740 a040 fa40
000000a0: d119 ec40 48b0 7640 e54c 7c40 ff61 4641
000000b0: ed8b 8f3f a40e 6240 bfaf d640 c23b a040
000000c0: 0ed9 9240 1248 3540 b760 7840 2a7a ac3f
000000d0: ebb2 333f 271d bf40 a033 0341 8af7 c140
000000e0: fad8 0441 b844 4140 7191 ab40 139d 0c40
000000f0: 77dc 7840 e030 c940 a907 d53f 7d81 9b40
00000100: b688 af40 1c3b 823f ca13 a740 816b d93f
00000110: 62bd 1f40 b5cf cf3f b0f7 853f e018 1641
00000120: c32c e540 b5e7 0840 fa87 e73f 8480 0c41
00000130: 2122 1440 06f5 9240 a074 3f40 fed6 1840
00000140: aa4b 0541 75ce ef3f 3144 bb40 50ef 8240
00000150: eb86 6840 915d 4e40 c3a7 c23f 2f29 873f
00000160: 15c2 7840 cd85 c140 ee86 9840 cef4 ef3f
00000170: d586 e240 639b 3140 0b4d b640 9396 6b3f
00000180: 25de a640 ff71 4640 a915 6e40 4966 513f

encoder.layers.0.ff.0.weight f4 [256, 100]
0.1319703 -0.07764823 -0.059264082 0.064520955 0.073086455 0.118831515 0.11662777 -0.14384323
-0.036304027 0.006524598 0.081279255 -0.17507644 0.09770873 -0.08851515 0.028521877 -0.020625018
-0.0040985635 0.088106535 -0.008853415 -0.0028954276 -0.17653778 -0.038181152 -0.038439654 0.03055946
-0.03694963 0.011165439 -0.04465119 0.004041495 -0.085020475 -0.019291375 -0.02242706 -0.07127448
-0.09384662 -0.13222274 0.0053014713 -0.0768515 0.02592755 0.123420045 0.018291447 -0.043204743
0.050612975 -0.01641418 -0.07640098 0.04992613 -0.13623843 0.111980565 -0.10393924 0.012704855
0.055048756 0.12946366 -0.009800016 -0.00092728646 0.109367386 0.07626699 0.01750503 0.073730946
0.029041458 0.016391855 -0.030808171 -0.12457414 -0.0027704912 -0.0024604884 -0.049372472 0.023751395
-0.10994587 0.008465661 0.09552845 -0.14356242 -0.019615563 -0.11939867 0.03873047 -0.020254485
-0.09927281 0.039005652 -0.027669517 -0.057555318 0.033704296 0.009773942 0.08674665 -0.051014535
-0.06718248 -0.103340566 -0.03344455 0.17003988 0.0055770553 0.035446472 -0.064737596 -0.047436338
-0.08506484 -0.13337204 -0.075712636 0.02151714 0.08488858 -0.09420586 0.0039072796 -0.07678256
0.13977958 0.053446293 0.10615775 -0.004412016 0.016444476 -0.032740064 0.0117611885 0.058737118
0.019471703 0.06197506 -0.021932436 0.024511255 0.09200795 -0.08882 -0.0014381866 -0.090016015
0.011055772 -0.0056847357 0.07191018 -0.08773797 0.056135558 -0.028738128 0.010246428 0.01174342
0.01757679 -0.05527097 0.062061306 -0.1620789 0.037477124 0.086224675 0.0118992105 -0.007307361
0.060226496 -0.069067106 0.1401338 -0.0207663 0.07984967 0.006180071 0.0108765 0.045693893
0.051715177 -0.039530914 0.018598927 0.05301613 0.02630505 -0.035615392 -0.08528996 0.036317606
-0.07019937 0.04677324 0.03776951 0.14332098 -0.0008892129 0.070871666 -0.08125602 0.041074645
0.099580765 -0.040988635 -0.07775231 -0.016890824 0.030516693 0.0039171893 0.0700956 0.034432825
-0.028200082 -0.07077877 -0.1011681 0.109626494 -0.03860164 0.10419484 0.121687815 -0.003789368
-0.15438569 0.031600695 -0.10429149 0.036664363 0.021587323 0.0652403 -0.0076706596 0.004343124
0.026854884 -0.080625325 0.0042867167 -0.040804107 0.041101344 -0.047786083 0.08436859 0.061728522
-0.0065831076 0.057209358 0.05198495 0.07188896 -0.014855238 0.043969188 0.016667763 0.12057728
-0.0029911953 -0.05814181 0.0041011586 -0.09070895 -0.09162268 -0.098453924 -0.09917812 0.09365363
-0.11768613 0.01938325 -0.06479356 -0.0008754968 0.035816405 -0.075151205 0.012235407 0.069904365
-0.05259646 -0.037972353 0.047733095 -0.01908325 0.09381732 -0.01946654 0.09685685 -0.08587156
-0.10996091 0.01494837 -0.02223561 -0.009623468 -0.09355623 -0.054685727 -0.01298871 -0.099963985
0.0024515993 -0.07203842 -0.08808233 -0.0997662 0.08338187 -0.019462707 0.022998681 -0.025806826
-0.07341974 -0.04790833 -0.033266354 0.014602938 -0.04293118 -0.018740155 0.08215159 0.024814932
-0.089969285 0.10798078 0.08710446 -0.053496573 -0.052034546 0.060389515 -0.008717551 0.0611779
0.07010074 0.07047006 -0.08242759 0.030782174 0.013920036 0.05574414 -0.06474086 -0.047989454
00000000: 3923 073e 0906 9fbd e5be 72bd 9023 843d
00000010: 5aae 953d f05d f33d 8ada ee3d a44b 13be
00000020: 88b3 14bd 4ccc d53b bd75 a63d 3d47 33be
00000030: 841b c83d 6e47 b5bd b6a6 e93c ccf5 a8bc
00000040: 3e4d 86bb 3371 b43d ea0d 11bc 37c1 3dbb
00000050: 52c6 34be d763 1cbd e672 1dbd d557 fa3c
00000060: 7f58 17bd 3fef 363c 2be4 36bd 846e 843b
00000070: 371f aebd f208 9ebc f4b8 b7bc 5bf8 91bd
00000080: a832 c0bd 6665 07be f7b7 ad3b 5264 9dbd
00000090: 0366 d43c a6c3 fc3d f2d7 953c 75f7 30bd
000000a0: 8d4f 4f3d 0877 86bc 1e78 9cbd 577f 4c3d
000000b0: 1682 0bbe 1156 e53d 19de d4bd 0628 503c
000000c0: ce7a 613d 1f92 043e 3f90 20bc 2415 73ba
000000d0: 02fc df3d de31 9c3d b566 8f3c 4000 973d
000000e0: 5ae8 ed3c 3648 863c 6b61 fcbc ba20 ffbd
000000f0: 2191 35bb 2540 21bb ca3a 4abd 4992 c23c
00000100: 4d2b e1bd 8eb3 0a3c 6ca4 c33d 0702 13be
00000110: d1b0 a0bc 4a87 f4bd d7a3 1e3d bcec a5bc
00000120: 8b4f cbbd 64c4 1f3d 2fab e2bc 20bf 6bbd
00000130: 840d 0a3d e222 203c 3aa8 b13d 9ef4 50bd
00000140: f896 89bd 38a4 d3bd 27fd 08bd ef1e 2e3e
00000150: bbbf b63b 5230 113d 2595 84bd 9b4c 42bd
00000160: 7a36 aebd ae92 08be 3a0f 9bbd b744 b03c
00000170: 10da ad3d 00ef c0bd a308 803b 2d40 9dbd
00000180: 6122 0f3e 80ea 5a3d 3c69 d93d ac92 90bb
00000190: 91b6 863c 721a 06bd 00b2 403c 5596 703d
000001a0: 1f83 9f3c 8fd9 7d3d a7ab b3bc d4cb c83c
000001b0: aa6e bc3d 43e7 b5bd 8981 bcba 515a b8bd
000001c0: 4523 353c 0547 babb a545 933d f7af b3bd
000001d0: 66ee 653d 396c ebbc a2e0 273c 7967 403c
000001e0: 33fd 8f3c d063 62bd ff33 7e3d 03f8 25be
000001f0: 9d81 193d 9096 b03d e8f4 423c 9672 efbb
00000200: 0fb0 763d 0e73 8dbd 3c7f 0f3e 161e aabc
00000210: 3988 a33d 3182 ca3b 5933 323c 8529 3b3d
00000220: 4bd3 533d 2beb 21bd c75c 983c 7127 593d
00000230: b07d d73c 72e1 11bd 81ac aebd c5c1 143d
00000240: b0c4 8fbd 4c95 3f3d 34b4 1a3d bcc2 123e
00000250: 111a 69ba 2a25 913d 8e69 a6bd e33d 283d
00000260: 00f1 cb3d b3e3 27bd 9a3c 9fbd a05e 8abc
00000270: 25fe f93c c45b 803b 488e 8f3d 6f09 0d3d
00000280: dc03 e7bc 76f4 90bd 3931 cfbd db83 e03d
00000290: c11c 1ebd 1b64 d53d 7637 f93d 0c57 78bb
000002a0: 4817 1ebe bb6f 013d c796 d5bd 5f2d 163d
000002b0: e6d7 b03c b59c 853d 285a fbbb c450 8e3b
000002c0: c6fe db3c e41e a5bd 9677 8c3b 3522 27bd
000002d0: e259 283d 57bb 43bd 70c9 ac3d 0cd7 7c3d
000002e0: 1cb7 d7bb 5c54 6a3d 2cee 543d 853a 933d
000002f0: 6263 73bc 0919 343d d58a 883c 39f1 f63d
00000300: ee07 44bb 1b26 6ebd 0363 863b 9dc5 b9bd
00000310: aca4 bbbd 36a2 c9bd e61d cbbd 79cd bf3d
00000320: 6d05 f1bd 9fc9 9e3c 7cb2 84bd 9881 65ba
00000330: 39b4 123d e0e8 99bd 0477 483c 052a 8f3d
00000340: 636f 57bd e688 1bbd c783 433d 7a54 9cbc
00000350: 4c23 c03d 4b78 9fbc e25c c63d 6edd afbd
00000360: 3033 e1bd 02ea 743c 7427 b6bc c0ab 1dbc
00000370: 699a bfbd 24fe 5fbd 99ce 54bc ebb9 ccbd
00000380: 03ab 203b e188 93bd 8264 b4bd 3952 ccbd
00000390: 1dc4 aa3d 4170 9fbc bb67 bc3c d668 d3bc
000003a0: 175d 96bd 863b 44bd 4d42 08bd 2941 6f3c
000003b0: 9bd8 2fbd f484 99bc 183f a83d af48 cb3c
000003c0: d141 b8bd 0725 dd3d d363 b23d 391f 5bbd
000003d0: 2d22 55bd ff5a 773d 0fd4 0ebc ad95 7a3d
000003e0: fa90 8f3d 9b52 903d cccf a8bd e62a fc3c
000003f0: dd10 643c f853 643d db96 84bd 9790 44bd
