transformer_results_random_no_constants_no_param_tune/performance_prediction/DE-GA-ES-PSO_random_no_constants_dim_10_samples_50_fold_9_budget_30_n_heads_2_n_layers_1_d_model_100_d_k_30_d_v_30_aggregations_mean/trained_model.pt (torch, 344953 bytes, 22 tensors)

weight f4 [100, 11]
0	0x3e8dfb03	0.2773057
1	0xbe380519	-0.17970695
2	0xbe24127d	-0.16022678
3	0x3e323ffc	0.1740722
4	0x3e17d85e	0.14828631
5	0xbbd1ca78	-0.00640231
6	0x3d0c9e0c	0.034330413
7	0xbddb2460	-0.10700297
8	0x3d8b789e	0.06810115
9	0xbe10515d	-0.14093538
10	0xbe852876	-0.26007432
11	0x3e7a8a37	0.24466787
12	0x3e28ce70	0.16485
13	0xbdd1a0eb	-0.10235771
14	0xbd39c0ad	-0.045349766
15	0x3e7bcc14	0.24589568
16	0xbce92d4c	-0.028463982
17	0xbe65ddd9	-0.2244791
18	0xbdc1e177	-0.09466832
19	0xbe55229f	-0.20813988
20	0x3e73c762	0.23806527
21	0xbf26988c	-0.6507652
22	0x3e7472d9	0.23871936
23	0xbe864a65	-0.26228634
24	0xbe55efcc	-0.20892256
25	0x3e0be9dd	0.1366343
26	0xbd9ea504	-0.07746318
27	0x3da40899	0.080094524
28	0xbdb6a53e	-0.08918236
29	0x3e57685e	0.21035907
30	0x3d88a1ef	0.066715114
31	0xbe7bb725	-0.24581583
32	0x3ed0ec6e	0.40805382
33	0x3e6fe3af	0.23426698
34	0xbda4f821	-0.08055139
35	0x3c51c47e	0.012803195
36	0x3e0894c9	0.13338007
37	0xbe76dac6	-0.24106893
38	0xbd9df571	-0.0771283
39	0xbe18e9ae	-0.14932892
40	0xbe135298	-0.14386976
41	0xbde86a0e	-0.11348353
42	0x3e10f954	0.14157611
43	0x3ef6e599	0.48222044
44	0x3caf28a4	0.021381684
45	0xbe36461d	-0.17800184
46	0xbe047230	-0.12934184
47	0x3dbaff64	0.09130743
48	0x3e1c7d4c	0.15282172
49	0xbe189b46	-0.14902982
50	0x3d8b9357	0.06815212
51	0xbd565f28	-0.05233684
52	0xbd0472ed	-0.032336164
53	0x3ced7341	0.028985621
54	0xbee9aac1	-0.45638087
55	0xbe676031	-0.22595288
56	0x3c10224d	0.00879724
57	0x3d919463	0.07108381
58	0xbe8b9cbb	-0.27268013
59	0x3e2c7758	0.16842401
60	0xbe1f9bd1	-0.15586783
61	0xbd99a5b6	-0.0750231
62	0x3e57303b	0.21014492
63	0x3d560fa7	0.05226102
64	0xbd0fc4b0	-0.035099685
65	0xbcab4c6f	-0.02091047
66	0x3d013b49	0.03155068
67	0xbc834b8b	-0.016027233
68	0xbe79b3fe	-0.24385068
69	0x3d5b0fbb	0.0534818
70	0x3e644c73	0.22294788
71	0xbe6bd575	-0.23030646
72	0x3dcf0532	0.10108413
73	0x3dd0fb9f	0.10204243
74	0x3ea14112	0.31494957
75	0xbd6e7101	-0.058213238
76	0x3db81762	0.08988835
77	0xbe679a32	-0.22617415
78	0x3cc895c4	0.024485476
79	0x3e55212f	0.2081344
80	0x3e0a1e81	0.13488199
81	0xbe8c7e46	-0.2744009
82	0xbd6f5921	-0.05843461
83	0x3e073040	0.13202
84	0xbdfc72b6	-0.12326567
85	0x3e36851b	0.17824213
86	0x3de0f98b	0.109850965
87	0xbefd965b	-0.49528775
88	0xbe717ea2	-0.23583463
89	0xbe064657	-0.1311277
90	0xbdfe2778	-0.12409872
91	0x3e5c59a8	0.21518576
92	0x3e51e290	0.20496583
93	0x3e04beeb	0.12963454
94	0xbe170bce	-0.14750597
95	0x3e0f4abb	0.13993351
96	0xbe4d4f50	-0.20049787
97	0xbe8f8d93	-0.280377
98	0xbee4160e	-0.44548076
99	0x3e206710	0.15664315
100	0x3d8af3f9	0.06784815
101	0xbe60b645	-0.2194453
102	0xbd4d46d8	-0.05011639
103	0x3e7a9eb7	0.24474607
104	0xbde50b93	-0.11183848
105	0xbe5543ce	-0.20826647
106	0x3cdda3eb	0.027055701
107	0x3e81d37c	0.25356662
108	0xbe2870f0	-0.16449332
109	0x3ed2cc04	0.41171277
110	0xbdeae96e	-0.114703044
111	0x3e52197e	0.20517537
112	0x3d221c95	0.03957804
113	0x3cfdd198	0.030983731
114	0xbc1404b4	-0.009034324
115	0xbe35f9f5	-0.17771132
116	0xb9952e32	-0.00028453913
117	0x3de89fc6	0.11358599
118	0x3d48d515	0.049031336
119	0xbd449635	-0.04799481
120	0x3f080d35	0.5314515
121	0xbe2c5c26	-0.16832027
122	0xbdbb8a4d	-0.09157238
123	0x3d131eb1	0.03591794
124	0x3bc09686	0.005877319
125	0xbc0fa53a	-0.00876742
126	0x3e4f5bb8	0.20249832
127	0xbe439dd0	-0.1910317
128	0xbe54150d	-0.20711155
129	0xbdb0a13a	-0.086245015
130	0xbe13dce1	-0.14439727
131	0x3ecb09d9	0.3965595
132	0x3d246b57	0.04014143
133	0xbe5c4884	-0.21512038
134	0xbda53d51	-0.08068336
135	0xbdb28938	-0.08717579
136	0x3e2faaeb	0.17155044
137	0x3df4e0f4	0.11956969
138	0xbe0a1462	-0.13484338
139	0xbe8521f7	-0.26002476
140	0x3d783a49	0.06060246
141	0x3bda7d0f	0.00666774
142	0x3f152782	0.5826341
143	0xbd65204f	-0.055939015
144	0x3e4c9f81	0.19982721
145	0x3d0752b1	0.033037845
146	0x3e79f4e6	0.24409828
147	0xbb88ac84	-0.004170956
148	0xbe060899	-0.13089217
149	0xbe300a59	-0.17191447
150	0x3e080e89	0.13286795
151	0xbdccd5dd	-0.10001729
152	0x3e7cf0cd	0.24701233
153	0x3eec1e1c	0.46116722
154	0xbdafe1c0	-0.0858798
155	0xbe04762e	-0.12935707
156	0x3e69b974	0.22824651
157	0x3e8ed43c	0.27896297
158	0x3e48370d	0.1955225
159	0x3e7930b1	0.2433498
160	0xbe1c5e7a	-0.15270415
161	0xbcaa7a2c	-0.02081021
162	0x3dfa6827	0.12226897
163	0xbd5bed17	-0.053692903
164	0xbeca0f52	-0.39464813
165	0xbe21a845	-0.15786846
166	0x3e8f7ac4	0.2802335
167	0xbddd4ac0	-0.10805273
168	0xbdfddc3e	-0.123955235
169	0x3e2afabb	0.16697209
170	0x3e28e3c2	0.16493133
171	0xbdf74141	-0.12072993
172	0x3d883bc1	0.06652022
173	0xbe39e263	-0.18152766
174	0xbe74b5d4	-0.23897487
175	0xbef6bf9c	-0.4819306
176	0xbe6f801d	-0.23388715
177	0xbc92aaa8	-0.01790364
178	0xbe8afd13	-0.27146205
179	0x3e8cc660	0.27495098
180	0xbe69cfe7	-0.22833215
181	0x3de397b7	0.11112922
182	0x3e61d8a0	0.22055292
183	0xbbe6438b	-0.0070270947
184	0xbdcf61ee	-0.101261005
185	0xbd3626d6	-0.04447063
186	0xbea4c4c4	-0.3218137
187	0x3d30c316	0.0431548
188	0xbdf3d7e9	-0.11906416
189	0xbe9cff1e	-0.3066339
190	0xbe6ff19c	-0.2343201
191	0xbca34945	-0.019932399
192	0x3e359777	0.1773356
193	0xbd12fabd	-0.035883654
194	0x3e34ca6e	0.17655346
195	0x3def54df	0.1168611
196	0x3e977eb6	0.2958886
197	0x3e83b13e	0.25721163
198	0xbd016b78	-0.03159663
199	0x3b97d259	0.0046332297
200	0xbe135194	-0.14386588
201	0x3b9e042d	0.004822275
202	0xbe373764	-0.17892224
203	0x3e4592e1	0.19294311
204	0xbe281f02	-0.16418079
205	0x3b9cb26a	0.004782011
206	0x3dc41b11	0.09575475
207	0xbdf0ed2c	-0.11763987
208	0xbc0f7061	-0.008754821
209	0x3dfd9134	0.12381211
210	0x3e70f954	0.23532611
211	0xbe0a704c	-0.135194
212	0xbe6d9a77	-0.23203455
213	0x3d9a859a	0.07545014
214	0x3e02f2f3	0.1278799
215	0x3e0b4634	0.13600999
216	0x3e2e9c72	0.17051867
217	0xbc983c01	-0.0185833
218	0xbce75c4d	-0.028242255
219	0xbf1f2276	-0.6216196
220	0xbe60fa61	-0.21970512
221	0x3d98d982	0.07463361
222	0xbd9af834	-0.07566872
223	0x3e0c53ed	0.1370389
224	0x3e752f16	0.23943743
225	0xbe8ccf95	-0.27502123
226	0xbe8b8b93	-0.27254924
227	0x3e486b3f	0.19572161
228	0x3e8041c6	0.2505018
229	0xbdb234fe	-0.08701514
230	0xbf007bcb	-0.50188893
231	0x3da4dc5d	0.080498435
232	0xbe8e5cd1	-0.27805188
233	0xbe8c98bf	-0.27460286
234	0x3e004372	0.12525728
235	0xbe6cdbe5	-0.23130758
236	0x3c811d6c	0.0157611
237	0xbdb16499	-0.086617656
238	0x3e0d10fb	0.13776009
239	0x3e97194d	0.2951149
240	0xbd996c51	-0.07491363
241	0x3ea0f003	0.31433114
242	0x3e2c3ac6	0.16819295
243	0xbdf42084	-0.11920264
244	0xbd8fd5f4	-0.0702323
245	0x3d7753a4	0.0603825
246	0xbe41d304	-0.18928152
247	0x3c231f9c	0.009956267
248	0xbe39e667	-0.18154298
249	0x3e392763	0.18081431
250	0x3d277e16	0.04089173
251	0x3e4d2048	0.20031846
252	0x3f005a48	0.5013776
253	0xbc671f4d	-0.014106584
254	0x3da2fd2b	0.07958444
255	0x3e5c9ddf	0.21544598

bias f4 [100]
0	0x3e1f887e	0.15579411
1	0xbe313f27	-0.17309247
2	0xbe3262ed	-0.1742055
3	0xbdf68f66	-0.1203907
4	0xbc50c52e	-0.012742324
5	0x3e88d7f4	0.2672726
6	0xbe619a78	-0.22031581
7	0xbe387bcf	-0.18015979
8	0x3e078473	0.13234119
9	0xbe99e5ca	-0.30058128
10	0xbe2e9016	-0.17047152
11	0x3e7a759d	0.24458928
12	0x3e2b63f1	0.16737343
13	0xbe5dd696	-0.2166389
14	0x3e92ad9c	0.28648078
15	0x3e8badb5	0.27280965
16	0x3e6c98f2	0.23105219
17	0x3d43984b	0.04775266
18	0x3e1c10ed	0.15240832
19	0xbdfd2080	-0.123597145
20	0xbdeefafb	-0.116689645
21	0x3e77f284	0.24213606
22	0xbdf4075b	-0.119154654
23	0x3e28028f	0.16407226
24	0xbcd66c3e	-0.02617466
25	0xbc9e79bd	-0.019345159
26	0x3e862bbf	0.2620525
27	0xbdf67053	-0.12033143
28	0x3e882698	0.26591945
29	0x3e3c39f4	0.18381482
30	0xbe60e697	-0.21962963
31	0x3df1078d	0.11769018
32	0x3d932741	0.071852215
33	0xbe3aea93	-0.18253545
34	0xbde649d0	-0.11244547
35	0x3e938989	0.28815868
36	0xbe0d89fb	-0.13822167
37	0xbd6a9e1b	-0.057279687
38	0xbe836ce3	-0.2566901
39	0xbc8fd27b	-0.01755642
40	0xbe3a5795	-0.18197472
41	0xbd060fc4	-0.03272988
42	0x3e9253f9	0.2857969
43	0xbdda0bee	-0.10646807
44	0x3e5c5762	0.21517709
45	0xbe8d186f	-0.27557704
46	0x3da99d68	0.08281976
47	0xbeab5e91	-0.33470586
48	0x3e93cae1	0.28865722
49	0x3e7d38a8	0.24728644
50	0x3dba3faf	0.09094178
51	0xbcc7fe39	-0.024413215
52	0x3e70be2c	0.23510045
53	0xbd7a3def	-0.06109422
54	0xbe290f79	-0.16509809
55	0x3de74c1b	0.11293813
56	0x3e3a7648	0.18209183
57	0x3de267b6	0.110549375
58	0x3d6c9f5e	0.057769172
59	0x3d17ccaf	0.037060436
60	0x3e9716a7	0.2950947
61	0xbdf461c0	-0.11932707
62	0xbe093db1	-0.1340244
63	0xbda3e3e4	-0.08002451
64	0x3dd8553f	0.105631344
65	0x3dfb4467	0.12268906
66	0x3da68a78	0.081318796
67	0x3e05bce7	0.13060342
68	0x3dcbd088	0.099518836
69	0xbd97c8cb	-0.07411345
70	0xbd867a81	-0.065663345
71	0x3e90cb45	0.28280082
72	0xbdd0a808	-0.101882994
73	0xbe6962eb	-0.2279164
74	0x3e407434	0.18794328
75	0x3e9bcbf2	0.30429035
76	0xbe50ab9d	-0.20377965
77	0x3e98d181	0.2984734
78	0xbd9971f7	-0.0749244
79	0x3de82b37	0.113363676
80	0xbca68a07	-0.020329488
81	0xbe6de1e8	-0.23230708
82	0x3e4b1cef	0.19835256
83	0xbe00cfb4	-0.12579232
84	0xbe5c8338	-0.21534431
85	0xbe711176	-0.23541817
86	0xbd6d3605	-0.057912845
87	0xbe3c3189	-0.18378271
88	0xbda49c00	-0.08037567
89	0x3e8d2982	0.2757073
90	0xbcb690f6	-0.02228592
91	0xbea35245	-0.31898704
92	0xbe7a6ecb	-0.24456327
93	0xbe954fef	-0.29162547
94	0xbe6166e0	-0.220119
95	0x3dc4d3d4	0.096107155
96	0xbde3f5a0	-0.111308336
97	0x3d33950f	0.043843325
98	0x3e11bdcf	0.14232562
99	0x3dfe793c	0.12425467

weight f4 [60, 100]
0	0x3d9dd0a9	0.077058144
1	0x3c801604	0.015635498
2	0x3a370c46	0.0006982725
3	0xbdaa0a3f	-0.083027355
4	0x3d99552e	0.0748695
5	0x3d96690e	0.07344256
6	0xbd374726	-0.044745587
7	0x3c1ae232	0.009453343
8	0x3d17832d	0.036990333
9	0x3d3a7d9b	0.045529943
10	0xbddfe2ae	-0.109319076
11	0x3d6b10c4	0.057389036
12	0xbc06f2ec	-0.008236628
13	0xbc0d28f4	-0.008615721
14	0x3e18ceff	0.14922713
15	0x3d1704b8	0.036869735
16	0x3ce42724	0.027850695
17	0xbd547342	-0.05186773
18	0x3c2b0eca	0.010440538
19	0x3cc2e68e	0.023791578
20	0x3d9907f0	0.07472217
21	0xbd884022	-0.06652857
22	0xbdc3a688	-0.09553248
23	0xbba6d77b	-0.0050916052
24	0x3e1ce909	0.15323271
25	0xbdea3a35	-0.11436883
26	0x3d1f3de6	0.03887739
27	0xbd8f1e69	-0.06988222
28	0x3c80c692	0.015719686
29	0x3da7df5f	0.081969015
30	0x3a43d33a	0.0007470135
31	0xbd8edaa7	-0.069752984
32	0x3dafbd8c	0.08581075
33	0x3c4c5edd	0.012473789
34	0xbd07b338	-0.0331299
35	0xbc7f5d4e	-0.01558621
36	0xbd690f95	-0.056899626
37	0xbcd82c0a	-0.026388187
38	0x3d1dca10	0.03852278
39	0xbd034e52	-0.032057114
40	0xbc49b6fa	-0.012311691
41	0xbd467ad5	-0.048456986
42	0x3c26f3ac	0.010189932
43	0x3d8b306e	0.067963466
44	0xbd2bf36f	-0.041980203
45	0xbd347c67	-0.04406395
46	0xbd4e388d	-0.0503469
47	0xbd92fb56	-0.07176845
48	0xbd205b47	-0.03914955
49	0xbb751694	-0.003739749
50	0xbd489d05	-0.04897787
51	0x3df3fd5c	0.11913559
52	0x3d8e141d	0.0693743
53	0xbace2752	-0.0015728271
54	0xbde731cd	-0.112887956
55	0x3e34f66a	0.17672125
56	0x3da60442	0.08106281
57	0xbcc175ff	-0.023615835
58	0x3c5cda47	0.013479776
59	0x3c940072	0.018066619
60	0xbd290184	-0.04126121
61	0xbdf004e3	-0.11719682
62	0xbd19b521	-0.037526254
63	0xbd2c5831	-0.042076293
64	0x3e085fd8	0.13317811
65	0x3dff1caa	0.12456639
66	0xbd8fd9c5	-0.07023958
67	0x3d4ee1db	0.05050836
68	0x3c1fb1c3	0.009746972
69	0xbdae0989	-0.084979124
70	0xbdc63a78	-0.09679121
71	0x3c845f0c	0.016158603
72	0xbd7ad271	-0.06123585
73	0xbd153d69	-0.03643552
74	0x3d5a28a3	0.05326141
75	0x3d9d66f7	0.076856546
76	0x3e112320	0.14173555
77	0x3dbcdfbc	0.092223614
78	0x3df52f6c	0.11971936
79	0xbd63d6ec	-0.055624887
80	0xbd1ed8fb	-0.038781147
81	0x3cdf8950	0.027287155
82	0x3d1592df	0.03651702
83	0x3dbf92b7	0.093541555
84	0x3c3c483c	0.011491831
85	0x3b89f0d5	0.0042096176
86	0xbd20aabf	-0.039225336
87	0xbcd046ca	-0.02542438
88	0xbde3ba63	-0.11119535
89	0xbb14a2fd	-0.0022680156
90	0xbdb76c15	-0.08956162
91	0xbe005a55	-0.12534459
92	0xbdd43bc7	-0.10362964
93	0x3d93991d	0.072069384
94	0xbbff7908	-0.0077964105
95	0x3d6bfa7f	0.05761194
96	0xbd889357	-0.06668728
97	0x3e192404	0.14955145
98	0x3e336b94	0.17521507
99	0x3cad460c	0.021151565
100	0x3d964569	0.07337458
101	0xbd53a176	-0.051667653
102	0x3d914dfd	0.07094953
103	0xbd8d627c	-0.0690355
104	0x3ce67407	0.028131498
105	0xbdc2feae	-0.095212325
106	0x3dc110a1	0.09427
107	0xbdb374a1	-0.087624796
108	0x3c0aac0f	0.0084638735
109	0xbcc6e79d	-0.024280364
110	0x3dee7503	0.11643412
111	0xbc4bb2f1	-0.0124328
112	0x3e165194	0.14679557
113	0xbd48b434	-0.04899998
114	0xbd7b10e8	-0.06129542
115	0xbbddb083	-0.0067654266
116	0x3d10b559	0.035329197
117	0xbd070d31	-0.032971565
118	0x3daacde9	0.083400555
119	0xbdce5d4c	-0.10076389
120	0xbd745d31	-0.059659187
121	0x3dc004b6	0.093758985
122	0xbd685339	-0.056719992
123	0xbd94c449	-0.07264001
124	0xbdfd3ea8	-0.12365466
125	0x388a413b	6.592503e-05
126	0x3dec8174	0.11548129
127	0x3d09d77b	0.033652764
128	0x3d972f9a	0.07382126
129	0xbddfe1fe	-0.109317765
130	0xbb595978	-0.00331649
131	0xbd7a8a99	-0.061167333
132	0xbcc8ec22	-0.02452666
133	0xbda6fca4	-0.08153656
134	0xbd9a8c4f	-0.07546293
135	0xbd947eff	-0.07250785
136	0x3d235c48	0.039882928
137	0xbdf0feb0	-0.11767328
138	0xbcca8954	-0.024723686
139	0xbda9927a	-0.08279891
140	0xbc9f88b1	-0.01947436
141	0xbd9f0936	-0.07765429
142	0x3c1ec2f0	0.009690031
143	0x3d0503c0	0.03247428
144	0xbd533f0d	-0.0515738
145	0x3c699cf3	0.014258611
146	0x3c89efb1	0.016837927
147	0x3d936544	0.07197049
148	0xbde23313	-0.11044898
149	0xbb7cc1eb	-0.0038567733
150	0xbbd867cd	-0.006604171
151	0xbdcb3a09	-0.09923179
152	0x3dbfd515	0.09366814
153	0xbda04c71	-0.0782708
154	0xbb7917d5	-0.003800859
155	0xbe053201	-0.13007356
156	0xbd8e9ea7	-0.06963854
157	0x3ddd43e4	0.10803965
158	0xbdc83553	-0.09775796
159	0xbd341f03	-0.043974888
160	0xbe16d5e6	-0.14730033
161	0x3da65ec8	0.08123547
162	0xbc8bea81	-0.017079594
163	0xbd8b2c6c	-0.06795582
164	0x3cacff68	0.021117881
165	0x3d4984dd	0.049198974
166	0xbd61b8cb	-0.055107873
167	0x3d50c891	0.050972525
168	0x3b801d44	0.0039097387
169	0xbca364c5	-0.019945512
170	0x3da844a2	0.08216216
171	0x3c3d3c2c	0.011549991
172	0xbcee6029	-0.029098587
173	0xbde0a7b2	-0.10969485
174	0xbbe712ec	-0.007051816
175	0x3dd06db4	0.10177174
176	0xbdf00617	-0.117199115
177	0xbe0366c5	-0.12832172
178	0xbd18df05	-0.037322063
179	0x3ce4679e	0.02788144
180	0x3dc2c95f	0.09511065
181	0xbd9237cd	-0.071395494
182	0x3d03cced	0.032177854
183	0xbd4d0768	-0.05005589
184	0x3df93a9f	0.12169384
185	0xbd286202	-0.041109093
186	0xbdc56888	-0.096390784
187	0xbdd35307	-0.103185706
188	0x3dbe7358	0.09299344
189	0x3ceaecbc	0.028677337
190	0x3d97e8d6	0.07417457
191	0xbca44830	-0.020053953
192	0x3d60559b	0.05476914
193	0xbd03cb11	-0.03217608
194	0x3de0ffd8	0.10986298
195	0xbdd4cc27	-0.103905015
196	0x3da4ae37	0.08041041
197	0xbde3da11	-0.11125577
198	0xbe26a921	-0.16275455
199	0x3a68ec70	0.00088853296
200	0xbc78f307	-0.015194661
201	0x3d003048	0.031296045
202	0x3d0e411d	0.034730066
203	0x3c59b7f3	0.013288486
204	0xbe02e9ad	-0.12784453
205	0xbc104a02	-0.008806707
206	0x3d5bbdd7	0.053647842
207	0xbdd1be55	-0.10241381
208	0xbcb0e806	-0.021595012
209	0x3c9c47b6	0.019077163
210	0x3d3e2f17	0.046431627
211	0x3d9b21a7	0.07574778
212	0x3d1f3a2b	0.038873833
213	0x3de55eca	0.1119972
214	0xbdb18524	-0.08667973
215	0x3d5728e2	0.052529223
216	0xbd51f566	-0.05125942
217	0xbd870e92	-0.06594576
218	0xbdc3e4a7	-0.09565096
219	0xbd4453e3	-0.047931563
220	0x3db6ce8f	0.08926117
221	0x3cfa2eb4	0.030539848
222	0x3d92bcc5	0.07164911
223	0xbc424d20	-0.011859208
224	0x3cf5241a	0.029924441
225	0x3d14c267	0.03631821
226	0x3d44e4dd	0.048069824
227	0xbd507a34	-0.050897792
228	0xbd7baf5c	-0.061446533
229	0xbe028850	-0.12747312
230	0x3da2b7cb	0.07945212
231	0xbd13c222	-0.03607381
232	0x3d7e4ff6	0.062087975
233	0x3d238384	0.039920345
234	0x3d4d9f91	0.050201003
235	0xbdc0fd1f	-0.09423279
236	0x3c983acd	0.018582726
237	0xbc8bd8fd	-0.017071242
238	0x3d8e3d26	0.06945257
239	0xbd934111	-0.07190145
240	0xbcdf25ba	-0.02723967
241	0xbdad9fed	-0.08477769
242	0xbb5cc6bd	-0.0033687793
243	0x3cd9a18d	0.026566291
244	0xbd2d06a5	-0.042242665
245	0x3ae88ad1	0.0017741566
246	0x3dbca0c7	0.09210353
247	0xbd00ade7	-0.031415846
248	0xbbd47fa1	-0.006484941
249	0xbd8b8567	-0.06812554
250	0xbd5952e7	-0.053057577
251	0x3d1e462a	0.038641132
252	0xbd7d73d1	-0.06187803
253	0x3c856790	0.016284734
254	0xbd754e4a	-0.059889115
255	0xbdf2dded	-0.11858735

weight f4 [60, 100]
0	0xbe27d899	-0.16391219
1	0x3d84999e	0.06474613
2	0xbc6eae56	-0.014567932
3	0x3c9d7e1c	0.019225173
4	0x3d45bbd4	0.04827483
5	0xbd0a8ca8	-0.033825547
6	0x3d7d041b	0.061771493
7	0x3d5384f9	0.051640484
8	0xbdb50c05	-0.08840183
9	0x3d7b3a36	0.06133481
10	0xbdcaa7cf	-0.09895288
11	0x3cd14cea	0.02554937
12	0xbcf2a21b	-0.029618314
13	0x3dbaf3fc	0.091285676
14	0xbc8061f4	-0.015671708
15	0x383968c5	4.420501e-05
16	0xbddaf1fd	-0.10690687
17	0x3cdafcfc	0.02673196
18	0x3cd65ef9	0.026168333
19	0xbdeff82a	-0.117172554
20	0x3df127a0	0.11775136
21	0xbcb1f8bf	-0.021725057
22	0xbd04fdd4	-0.032468632
23	0xbd7fd53c	-0.062459216
24	0xbdc32976	-0.095293924
25	0xbb24660d	-0.002508524
26	0xbde88c4c	-0.113548845
27	0xbd28e302	-0.041232117
28	0xbd37dfc9	-0.044891153
29	0x3da387ee	0.07984911
30	0x3d194449	0.037418637
31	0x3d5d7d2e	0.05407446
32	0xbd4f066a	-0.050543226
33	0x3dbf7263	0.093479894
34	0xbdef90ac	-0.11697516
35	0xbe0d4eeb	-0.13799636
36	0x3caa64aa	0.020799953
37	0x3ccfbc61	0.02535838
38	0x3ca4fc20	0.020139754
39	0xbd25e8a2	-0.04050506
40	0x3dd4b39d	0.10385821
41	0xbdd0738a	-0.10178287
42	0x3e2df916	0.1698955
43	0xbcafdc48	-0.021467343
44	0xbd06131b	-0.032733064
45	0xbd7e463a	-0.062078692
46	0xbd8c0f86	-0.06838898
47	0xbd579e64	-0.052641287
48	0xbd5a460e	-0.053289466
49	0xbd5647f2	-0.052314706
50	0xbda1d7db	-0.07902499
51	0x3db63bce	0.088981256
52	0x3c5baff9	0.013408654
53	0xbd3b0252	-0.04565651
54	0x3c5140a7	0.012771762
55	0x3e35a55c	0.17738861
56	0x3da110f8	0.07864565
57	0xbd8aad8f	-0.06771385
58	0x3c74a942	0.014932932
59	0xbd7214df	-0.059101935
60	0xbd0ece1e	-0.034864537
61	0x3c1a6576	0.009423604
62	0x3d8d6942	0.06904842
63	0x3e0db16c	0.13837212
64	0x3da95c5d	0.0826957
65	0xbc91e8f1	-0.01781127
66	0xbdd5a344	-0.10431531
67	0xbc8b8201	-0.017029764
68	0xbca26ca1	-0.019827189
69	0x3cd1bc10	0.02560237
70	0xbd50a24f	-0.05093604
71	0x3c523540	0.012830079
72	0x3e08c519	0.13356437
73	0xbd16a612	-0.03677947
74	0xbda11478	-0.07865232
75	0x3c0644b7	0.008195094
76	0xbde9ea14	-0.114216
77	0x3dfb9818	0.12284869
78	0xbd756ead	-0.05992
79	0xbdd0d551	-0.10196937
80	0x3cb0f511	0.021601232
81	0xbcc1d9cc	-0.023663424
82	0xbe4427bb	-0.19155781
83	0x3db2ff37	0.087400846
84	0x3db3e170	0.08783233
85	0xbd30df10	-0.04318148
86	0xbd86eeaa	-0.0658849
87	0x3d117ee3	0.0355214
88	0x3cacb361	0.021081628
89	0x3b997e15	0.0046842196
90	0x3d5ebaf5	0.054377515
91	0xbde7e897	-0.1132366
92	0xbc4fc7ee	-0.012681944
93	0xbd3f1844	-0.046654
94	0xbdc0cda3	-0.09414222
95	0xbdd90845	-0.105972804
96	0xbe37ed72	-0.17961672
97	0x3cd3396b	0.025784215
98	0xbdfe47ce	-0.124160394
99	0x3e1b92af	0.15192674
100	0x3dffae3e	0.12484406
101	0x3d3ba696	0.045813166
102	0xbcc9a03c	-0.024612539
103	0xbd6710b8	-0.05641243
104	0x3dae2e15	0.08504883
105	0xbdcd8f6a	-0.1003712
106	0x3d8b5606	0.06803517
107	0xbc345005	-0.011005406
108	0x3d536251	0.051607434
109	0xbdc07b06	-0.09398465
110	0xbd0c88c3	-0.034310114
111	0xbc611901	-0.013738872
112	0xbdf3cad0	-0.11903918
113	0xbdd7a924	-0.10530308
114	0x3d7d27c2	0.061805494
115	0x3e4b4c29	0.19853272
116	0x3ca15f3f	0.019698737
117	0xbe2e86a6	-0.17043552
118	0xbdabaef0	-0.08382976
119	0x3dc1608b	0.09442242
120	0x3cfb206c	0.030655108
121	0xbdd6aba2	-0.10481955
122	0xbda06c3a	-0.078331426
123	0x3e0a120f	0.13483451
124	0xbbdbb052	-0.0067043686
125	0xbc7b5bfc	-0.015341755
126	0xbc920105	-0.017822752
127	0xbc5c06a4	-0.013429318
128	0x3c0a3032	0.008434342
129	0xbc6a6c69	-0.014308074
130	0xbc4549ce	-0.012041522
131	0xbde50d64	-0.11184195
132	0xbcbca44a	-0.023027558
133	0x3dae0513	0.084970616
134	0x3cc03c3b	0.02346622
135	0x3e14aff3	0.14520244
136	0xbdb14337	-0.08655398
137	0x3db32863	0.087479375
138	0x3d88d745	0.066816844
139	0xbd41c527	-0.04730716
140	0xbc7f9db8	-0.015601568
141	0x3e118577	0.14211069
142	0x3d5f7cec	0.054562494
143	0xbcbc1d85	-0.022963295
144	0xbc6e1dde	-0.014533488
145	0xbdfd924d	-0.1238142
146	0xbdcd3fd8	-0.10021943
147	0x3c18abdd	0.009318319
148	0xbdfcbc67	-0.123406224
149	0x3d54f1e0	0.051988482
150	0x3bbb222b	0.0057108602
151	0xbd3bdcd8	-0.04586491
152	0xbe251b59	-0.16123714
153	0xbb212300	-0.0024587512
154	0x3c3c2534	0.011483479
155	0xbcdabe87	-0.026702179
156	0xbd3c3bc6	-0.045955442
157	0x3db11eff	0.0864849
158	0xbc8b3b30	-0.016995996
159	0xbd0266f3	-0.03183646
160	0xbdb13d9e	-0.08654331
161	0xbdd01607	-0.101604514
162	0xbd9d2d66	-0.07674675
163	0xbdb369f2	-0.08760442
164	0x3d4095f0	0.04701799
165	0xbc204824	-0.009782825
166	0x3d026e56	0.031843506
167	0xbd2188d3	-0.039437126
168	0x3d89274f	0.06696951
169	0xbc730d16	-0.014834663
170	0xbcdbb3cd	-0.026819134
171	0x3d169e0c	0.03677182
172	0xbddc28c0	-0.1074996
173	0x3d951e37	0.07281154
174	0x3d0cc97c	0.034371838
175	0xbd2f8c50	-0.04285842
176	0x3e014834	0.126252
177	0xbd3dffe2	-0.046386607
178	0xbc81a23e	-0.015824433
179	0x3df9ecbd	0.12203357
180	0x3cbddd88	0.023176923
181	0x3d85f850	0.065415025
182	0x3d8e38a4	0.06944397
183	0x3c962ff5	0.018333415
184	0xbe381161	-0.1797538
185	0x3db13d7f	0.086543076
186	0x3e00bf29	0.12572922
187	0x3d5a9a23	0.053369652
188	0x3d6c7a30	0.057733715
189	0x3c6252f6	0.013813725
190	0xbd84902c	-0.06472811
191	0xbd22a538	-0.039708346
192	0x3d532716	0.051550947
193	0xbd36a85d	-0.044594157
194	0x3d80c6d0	0.062879205
195	0x3dfe9ffc	0.12432858
196	0x3d0753da	0.03303895
197	0x3da7d275	0.08194438
198	0x3e23b1c3	0.1598578
199	0xbd663017	-0.056198206
200	0xbcc9019b	-0.024536898
201	0xbd1828f4	-0.03714843
202	0xbc94daf9	-0.01817082
203	0xbd8bcb45	-0.0682588
204	0xbc8a7e85	-0.016906032
205	0xbcd8ac05	-0.026449213
206	0x3c621b89	0.01380051
207	0xbcc36a86	-0.023854505
208	0xbd5b679c	-0.053565606
209	0x3c2afe92	0.010436671
210	0xbd223e62	-0.039610274
211	0x3c857ba0	0.0162943
212	0x3d211534	0.03932686
213	0xbe127f74	-0.14306432
214	0xbc637b98	-0.0138844475
215	0x3d19cadd	0.03754698
216	0xbd835f13	-0.06414618
217	0xbdf47f2f	-0.11938321
218	0xbe12c1a0	-0.14331675
219	0xbd14b8be	-0.036308996
220	0xbdc836ea	-0.09776099
221	0x3ce709f8	0.028202996
222	0xbd96dae5	-0.073659696
223	0x3d9574e6	0.07297687
224	0x3d60b486	0.05485966
225	0x3c729dca	0.014808128
226	0x3ceccac6	0.028905284
227	0xbc50f6e1	-0.012754173
228	0x3d01fc7f	0.03173494
229	0xbdcbd3cb	-0.09952506
230	0x3d724b81	0.059154037
231	0x3b466180	0.0030270517
232	0xbd054335	-0.032534797
233	0xbd167eef	-0.036742147
234	0xbde9c911	-0.114153035
235	0x3d12592e	0.03572958
236	0xbd6d76a6	-0.05797448
237	0x3cd726ca	0.026263613
238	0x3c6c4540	0.014420807
239	0xbd47f13b	-0.04881404
240	0x3d373eef	0.044737753
241	0xbd6f91db	-0.058488708
242	0x3d149bb2	0.036281295
243	0xbda3677e	-0.07978724
244	0xbda2cda4	-0.07949379
245	0xbd8e5587	-0.06949907
246	0xbe2c90aa	-0.1685206
247	0x3de4d6e8	0.111738026
248	0xbd576e2a	-0.052595295
249	0x3d0c5f55	0.034270603
250	0x3db21138	0.086946905
251	0xbc71858d	-0.014741314
252	0x3da7ca3b	0.08192869
253	0x3d84f823	0.06492641
254	0x3ddf918f	0.10916435
255	0x3d275bfa	0.0408592

weight f4 [60, 100]
0	0xbdfc1ea5	-0.123105325
1	0xbdc962fa	-0.098333314
2	0x3dc27341	0.09494639
3	0x3dd36fea	0.1032408
4	0xbdab3d52	-0.08361305
5	0x3cdaff8b	0.02673318
6	0xbd9c183c	-0.0762181
7	0xbd8409ad	-0.06447158
8	0xbe078539	-0.13234414
9	0xbc5a564e	-0.013326241
10	0x3d85e288	0.06537348
11	0x3d9be289	0.076115675
12	0xbbb793a9	-0.0056023193
13	0x3e263a4e	0.16233179
14	0xbd605fe2	-0.05477894
15	0xbc354516	-0.011063835
16	0xbe09edfd	-0.13469692
17	0x3d3749d7	0.044748154
18	0xbd4426a3	-0.04788841
19	0xbdb3c5c4	-0.08777955
20	0xbb996edd	-0.0046824054
21	0xbdf129c3	-0.117755435
22	0x3dfec6ae	0.12440239
23	0x3db724bf	0.08942556
24	0xbdf9b3c4	-0.12192491
25	0x3db6fb07	0.089345984
26	0x3cb00d67	0.021490766
27	0xbe570eac	-0.2100169
28	0xbd256fc2	-0.040389784
29	0xbda76d72	-0.08175172
30	0x3bd3aa12	0.006459483
31	0x3d192bb6	0.0373952
32	0x3cc46fbc	0.02397906
33	0xbdad7288	-0.08469111
34	0xbd2a91db	-0.041643005
35	0xbc78c650	-0.015184
36	0x3d6b7f70	0.05749458
37	0xbc2ba7c9	-0.010477015
38	0xbe2f8067	-0.17138825
39	0xbd8433cd	-0.06455193
40	0x3cb7655c	0.0223872
41	0x3d5fef68	0.054671675
42	0xbdc6d15d	-0.097079016
43	0x3de9f803	0.114242576
44	0x3dca9f08	0.09893614
45	0xbb8dbe6f	-0.00432568
46	0x3d7429d1	0.05961019
47	0xbcb39937	-0.021923644
48	0xbde6f44a	-0.11277063
49	0xbbcbf415	-0.006224165
50	0xbd127917	-0.03576001
51	0xbc570df4	-0.013125885
52	0xbb0e0cd4	-0.0021675127
53	0xbdbd6bae	-0.09249054
54	0x3db877bc	0.090072125
55	0xba3b9fb2	-0.00071572803
56	0xbddb5b65	-0.107107915
57	0x3d2be9f3	0.04197116
58	0xbd2b45f6	-0.041814767
59	0xbd8273af	-0.06369721
60	0xbd806ec2	-0.062711254
61	0x3de119cd	0.10991249
62	0xbd32373c	-0.043509707
63	0x3cb2ccfc	0.02182626
64	0xbdade2f4	-0.084905535
65	0xbe03f9c7	-0.12888251
66	0xbe0b5d89	-0.136099
67	0x3cf39472	0.02973387
68	0xbb102899	-0.0021996854
69	0x3ca7b545	0.020472178
70	0x3d2dd72c	0.042441532
71	0x3d86a7dc	0.065749854
72	0x3c974ce7	0.018469287
73	0xbcd7e4f2	-0.026354287
74	0x3d27759a	0.040883638
75	0xbca45ec7	-0.020064725
76	0xbd94532e	-0.07242428
77	0xbcd1acd4	-0.025595106
78	0xbe235233	-0.15949325
79	0xbda134df	-0.078714125
80	0x3ac3511c	0.0014901492
81	0xbd580da0	-0.05274737
82	0x3c1c59b4	0.009542871
83	0xbe00ac31	-0.12565686
84	0xbd0e31b9	-0.034715388
85	0xbcdc3d0d	-0.02688458
86	0xbb9ea265	-0.0048411363
87	0xbcefd939	-0.029278385
88	0x3dec8cc4	0.115502864
89	0xbd3bf91f	-0.045891877
90	0xbcdb45e7	-0.02676673
91	0xbcfc8fff	-0.030830381
92	0x3a5ff320	0.00085430034
93	0x3d9e7c9c	0.07738611
94	0xbcfc8e27	-0.030829502
95	0xbdc42890	-0.09578049
96	0x3e07fa94	0.13279182
97	0x3c0fffee	0.008789046
98	0xbda97f43	-0.08276226
99	0xbc2757a9	-0.010213771
100	0xbda4a0fe	-0.08038519
101	0xbc98664e	-0.01860347
102	0xbe332e32	-0.17498091
103	0x3cd4aaef	0.025960414
104	0x3c161631	0.009160564
105	0x3d73fac3	0.059565317
106	0xbd9f5f44	-0.07781842
107	0xbdf37166	-0.118868634
108	0xbc7f92c2	-0.015598955
109	0x386517df	5.4620086e-05
110	0xbd47ed56	-0.048810326
111	0xbd88af65	-0.06674079
112	0x3dcc3752	0.09971489
113	0xbd47b38d	-0.048755217
114	0xba007dfb	-0.0004901585
115	0xbd523950	-0.05132419
116	0xbd67761d	-0.056509126
117	0xbe05123c	-0.12995237
118	0xbd41f5d1	-0.04735357
119	0xbd227f86	-0.039672397
120	0xbd86178e	-0.065474615
121	0xbe216f9f	-0.15765236
122	0xbc88a851	-0.016681822
123	0x3e0bebd2	0.13664177
124	0xbd4f0850	-0.050545037
125	0x3c8cff6d	0.01721164
126	0x3c9f55db	0.019450119
127	0xbcc6a776	-0.024249773
128	0xbd084a13	-0.033273768
129	0x3d53cc04	0.051708236
130	0xbe0b3ba9	-0.13596977
131	0x3d5445b6	0.051824294
132	0xbd926df7	-0.071498804
133	0xbc85c1fc	-0.01632785
134	0x3d5c3e50	0.053770363
135	0x3d94fd0f	0.072748296
136	0x3d759ea8	0.05996576
137	0x3d189fef	0.0372619
138	0xbbf4ed3f	-0.007474571
139	0x3c9b7e2e	0.018981066
140	0x3d8ce4dc	0.06879589
141	0x3dc6e268	0.09711152
142	0xbddc1371	-0.10745896
143	0xbdef7aa9	-0.116933174
144	0xbd953fe1	-0.072875746
145	0xbd49ff35	-0.04931565
146	0x3cddaf72	0.027061198
147	0x3dff6f0e	0.12472354
148	0x3d22060d	0.03955655
149	0x3d900213	0.070316456
150	0xbbb738e8	-0.0055915006
151	0x3d3fb624	0.046804562
152	0xbb17c756	-0.0023159585
153	0xbdcdf8a7	-0.10057192
154	0x3df0ff7a	0.11767478
155	0xbe02c424	-0.12770134
156	0xbd3e5d56	-0.04647573
157	0xbd5f016a	-0.054444708
158	0xbdb353c9	-0.08756215
159	0x3daba54b	0.083811365
160	0x3da1a974	0.07893649
161	0x3d9753f9	0.073890634
162	0xbd3e71e6	-0.04649534
163	0x3ccfbc43	0.025358325
164	0xbdf2dff9	-0.11859126
165	0xbd776b9c	-0.06040536
166	0xbd55aa1b	-0.05216418
167	0x3d9c5f6e	0.07635389
168	0xbd9521d1	-0.072818406
169	0xbe0a45e7	-0.13503228
170	0x3e0e0df9	0.13872518
171	0x3cedcf0e	0.029029395
172	0x3d302a1a	0.0430089
173	0x3d6e0a51	0.058115307
174	0x3e0324fc	0.12807077
175	0x3c910257	0.017701311
176	0xbc37d200	-0.0112195015
177	0xbdb516ed	-0.08842263
178	0x3d32a7db	0.04361711
179	0x3d75a54f	0.059972104
180	0x3d2dddfd	0.042448033
181	0x3ddc0291	0.10742677
182	0x3d543b5f	0.051814433
183	0xbd1e1b62	-0.038600333
184	0xbb840a66	-0.00402956
185	0xbd42e884	-0.047585025
186	0x3d1a8991	0.03772885
187	0x3dee4845	0.11634878
188	0x3ce13e08	0.0274954
189	0x3d68d565	0.056844134
190	0xbd3bfa14	-0.04589279
191	0x3d4168d2	0.047219105
192	0x3d98c240	0.07458925
193	0x3a301c0e	0.00067180477
194	0x3d4636dc	0.04839216
195	0xbd70cc21	-0.058788422
196	0x3d987c8e	0.07445632
197	0xbd963b81	-0.07335568
198	0xbe03654e	-0.12831613
199	0x3c226be0	0.009913415
200	0xbd6b09f4	-0.05738254
201	0x3da4ce40	0.080471516
202	0xbe40b2c0	-0.18818188
203	0x3d74fc72	0.059811063
204	0x3bdd1af0	0.006747596
205	0xbd52e712	-0.051489897
206	0xbe1a8278	-0.15088832
207	0xbd11f8df	-0.035637733
208	0xbccb1ae4	-0.024793096
209	0xbdfd24c3	-0.12360527
210	0x3c9bc4f0	0.019014806
211	0xbd2714f6	-0.040791474
212	0xbd737969	-0.059441958
213	0x3dc6b010	0.0970155
214	0x39e96a80	0.00044520572
215	0xbbc9f63c	-0.0061633866
216	0xbe2fdbaa	-0.17173639
217	0x3d101c56	0.035183273
218	0xbde4353a	-0.11142965
219	0xbd8134d4	-0.06308904
220	0xbdfec86f	-0.124405734
221	0xbdc40150	-0.09570563
222	0x3cee3467	0.029077722
223	0xbc5690f6	-0.013096085
224	0xbbda254f	-0.0066572796
225	0x3cc3b6a2	0.023890797
226	0x3d784d2a	0.060620464
227	0xbe01f4ad	-0.12690993
228	0x3cbc687b	0.022999039
229	0x3da904c4	0.08252862
230	0xbe02aaa9	-0.12760414
231	0x3d50acee	0.05094617
232	0xbd9d7b49	-0.076895304
233	0x3dab5f50	0.08367789
234	0x3ba37ee4	0.004989492
235	0x3da14e0b	0.07876214
236	0x3c1af47e	0.009457706
237	0xbce7f20a	-0.028313655
238	0xbcbc72b1	-0.023003908
239	0xbc5a44ce	-0.013322068
240	0x3d01b6f6	0.031668626
241	0x3d6a2d53	0.05717213
242	0xbd1d8982	-0.038461216
243	0xbdf293a2	-0.11844565
244	0x3db5ea59	0.08882589
245	0xbd35e9aa	-0.044412293
246	0xbdbccee3	-0.09219148
247	0x3dc36de0	0.09542441
248	0xbe31bb8b	-0.17356698
249	0xbd5c773f	-0.05382466
250	0x3da8a829	0.08235199
251	0x3d1ebc6b	0.038753908
252	0x3d98b88d	0.07457075
253	0x3c6454c1	0.0139362225
254	0x3d82ba45	0.06383184
255	0xbcaef4b6	-0.021356922

weight f4 [100, 60]
0	0x3d6f15f5	0.05837055
1	0x3aefcad0	0.0018294696
2	0xbc026142	-0.007957758
3	0xbc4f6706	-0.01265884
4	0x3d0bcd0b	0.03413109
5	0xbdcfffa4	-0.101561815
6	0x3ce5b03c	0.028038137
7	0x3cf23581	0.029566528
8	0xbd3849d4	-0.044992283
9	0xbd2e5866	-0.042564772
10	0xbe3f794b	-0.18698613
11	0xbd2c3cdd	-0.04205023
12	0xbbbed6c7	-0.0058239433
13	0x3cba1588	0.022715345
14	0xbc305db6	-0.01076453
15	0xbc541021	-0.012943299
16	0x3cb10902	0.02161074
17	0xbe0ea4f3	-0.1393011
18	0xbd8cb9b8	-0.068713605
19	0x3db1a00d	0.086731054
20	0xbd9b0339	-0.07568974
21	0x3e5dad0f	0.21648048
22	0x3e23d95f	0.16000889
23	0xbe15d72b	-0.14632861
24	0x3e01221e	0.12610671
25	0xbc963109	-0.018333929
26	0x3daafc30	0.08348882
27	0xbd840139	-0.06445546
28	0xbda6d173	-0.08145418
29	0xbd72b6c1	-0.05925632
30	0x3d6c534f	0.057696637
31	0xbe130ea8	-0.1436106
32	0xbdc33ea9	-0.09533436
33	0x3c9a0302	0.018800262
34	0x3cb6ed30	0.022329897
35	0xbd55d795	-0.05220755
36	0x3bd87825	0.006606119
37	0x3dcf859c	0.10132906
38	0xbd2e82c3	-0.042605173
39	0x3dcfb5b8	0.10142082
40	0x3dd616e8	0.10453588
41	0x3dc90301	0.09815026
42	0xbd1102bf	-0.03540301
43	0x3ac89108	0.0015302012
44	0x3d214e70	0.039381444
45	0x3df57f76	0.11987202
46	0x3d83eee9	0.06442053
47	0x3dea916d	0.11453519
48	0x3daa7e6a	0.08324893
49	0xbd843916	-0.06456201
50	0x3de56389	0.112006254
51	0x3de5617d	0.11200235
52	0x3db5d6de	0.08878873
53	0xbdfddb01	-0.12395287
54	0xbdbffa67	-0.09373932
55	0xbd782a3b	-0.06058715
56	0x3dd6b5cf	0.10483896
57	0x3c5e67d3	0.013574558
58	0x3aa93638	0.0012909835
59	0x3d63839e	0.05554544
60	0x3d11781f	0.035514947
61	0x3dbeb417	0.09311693
62	0xbdfc0c8d	-0.12307081
63	0xbe10104c	-0.14068717
64	0x3e10d59f	0.1414399
65	0xbd771e49	-0.060331617
66	0xbdc385b4	-0.09546986
67	0x3d86b80a	0.065780714
68	0xbd2ac0b3	-0.04168768
69	0xbe60a4c6	-0.21937856
70	0xbe79d021	-0.24395801
71	0x3e290333	0.16505127
72	0xbca7d623	-0.02048785
73	0x3d5b4141	0.053529028
74	0xbda996e4	-0.08280733
75	0x3d841fa7	0.0645135
76	0xbe59206e	-0.21203777
77	0x3c8248a3	0.015903777
78	0x3cf6da5a	0.030133415
79	0xbd9ff752	-0.078108445
80	0x3d7ad765	0.061240572
81	0x3e969068	0.29407048
82	0x3e293ac3	0.16526322
83	0xbe51499e	-0.20438239
84	0xbd166915	-0.036721308
85	0x3de8268c	0.11335477
86	0xbd64be52	-0.055845566
87	0x3db0f31d	0.0864012
88	0x3d0119fe	0.03151893
89	0xbd88dbee	-0.06682573
90	0x3db7a1df	0.08966421
91	0xbd623ba9	-0.055232678
92	0x3d15f677	0.036612
93	0xbbadeb3a	-0.005307582
94	0x3d957a09	0.07298667
95	0x3d4be50c	0.049778983
96	0x3e308cff	0.17241286
97	0xbe1aaa40	-0.15104008
98	0x3bcf17c1	0.0063199704
99	0x3de41449	0.111366816
100	0xbdacb121	-0.08432222
101	0x3ddfebad	0.109336235
102	0x3df10158	0.117678344
103	0x3ceaefe7	0.028678847
104	0x3e3b5110	0.18292642
105	0xbde859c3	-0.11345246
106	0xbb8ca539	-0.004292157
107	0x3e0c10a8	0.13678229
108	0xbe043d0d	-0.12913914
109	0x3c044603	0.008073333
110	0xbd95e0b7	-0.073182516
111	0x3d352db4	0.04423304
112	0x3d474615	0.04865082
113	0x3d0d8651	0.034551922
114	0xba629a2c	-0.0008644189
115	0xbd48fef6	-0.049071275
116	0xbcb08dd9	-0.021552013
117	0xbd72ed90	-0.05930859
118	0x3dbe5d6f	0.09295165
119	0xbccbc2e4	-0.024873205
120	0x3e03819b	0.1284241
121	0xbca786a6	-0.020449948
122	0xbd97dac3	-0.07414772
123	0xbdeda593	-0.116038464
124	0xbc09bcd6	-0.008406838
125	0xbd5cad76	-0.053876363
126	0xbe2a7b15	-0.16648515
127	0xbe05a13f	-0.13049792
128	0xbbd04251	-0.006355562
129	0xbdd0db79	-0.10198111
130	0x3d5b9ebb	0.053618174
131	0xbc1304f7	-0.008973352
132	0x3ddfa6cb	0.10920485
133	0x3d99bf7c	0.07507226
134	0xbd73fd08	-0.05956748
135	0x3d03ab21	0.032145623
136	0xbe4ae10c	-0.19812411
137	0x3dd59049	0.10427911
138	0x3d4646d6	0.0484074
139	0x3d969376	0.07352345
140	0xbd530853	-0.05152161
141	0x3dbc054c	0.09180698
142	0x3be86d75	0.0070931264
143	0xbe494192	-0.1965392
144	0xbe1bf920	-0.15231752
145	0x3d80e715	0.062940754
146	0xbde10ff1	-0.10989369
147	0x3d9a554d	0.07535801
148	0xbdb73403	-0.08945467
149	0xbbd0cc02	-0.006371976
150	0x3d4a5a83	0.049402725
151	0x3e2f547e	0.17122075
152	0x3e181f86	0.14855775
153	0x3cfa8baa	0.030584175
154	0xbe2ea725	-0.17055948
155	0xbe04d7c8	-0.12972939
156	0x3cbce0d4	0.023056425
157	0xbe03ce8d	-0.12871762
158	0xbd844adb	-0.0645959
159	0xbaaa1ceb	-0.0012978589
160	0x3e163adc	0.1467089
161	0x3e1afbde	0.15135142
162	0xbc058940	-0.008150399
163	0xbd4535fe	-0.048147194
164	0x3d4128aa	0.04715792
165	0xbe1b003a	-0.15136805
166	0xbd67ea75	-0.05662008
167	0xbdb7d46a	-0.08976062
168	0xbc9e598d	-0.01932981
169	0xbd245658	-0.040121406
170	0x3e26c128	0.16284621
171	0xbd4ee74e	-0.050513558
172	0xbdb6eb03	-0.08931544
173	0x3c4922bd	0.012276349
174	0x3d721560	0.059102416
175	0x3ca94f43	0.020667678
176	0x3d82ef8b	0.063933454
177	0xbe192f20	-0.14959383
178	0xbde13e85	-0.10998253
179	0x3df24dd3	0.1183125
180	0x3c1a0252	0.009399967
181	0xbd987f3d	-0.07446144
182	0x3e10adb7	0.14128767
183	0xbd25435b	-0.04034744
184	0x3d4e29a4	0.05033268
185	0x3d478bc4	0.048717275
186	0x3bc1f835	0.005919481
187	0x3da1cf33	0.07900848
188	0x3bca27f7	0.006169315
189	0xbe02dd43	-0.12779717
190	0x3cc8b15d	0.024498636
191	0xbd034e83	-0.032057296
192	0x3df26ede	0.118375525
193	0xbdb25ae5	-0.08708743
194	0x3d6024cd	0.054722596
195	0xbdb28165	-0.08716086
196	0xbe46c995	-0.19412835
197	0x3d4c4fe0	0.049880862
198	0x3e02061a	0.1269764
199	0xbd63b446	-0.055591844
200	0x3b962e68	0.004583169
201	0x3e012060	0.12610006
202	0x3d99253b	0.07477804
203	0xbd8e3781	-0.0694418
204	0x3bba5514	0.0056864116
205	0xbd41e2fc	-0.04733561
206	0xbe20911b	-0.15680353
207	0xbc51fe69	-0.012817004
208	0xba4c2eee	-0.00077889755
209	0x3db725c1	0.08942748
210	0xbd80cd70	-0.06289184
211	0x3d184b14	0.037180975
212	0x3d7cb919	0.06169996
213	0xbe05030c	-0.12989444
214	0xbe32da70	-0.1746614
215	0xbe1a033a	-0.15040293
216	0x3de3864e	0.11109601
217	0xbd1c529d	-0.038164724
218	0x3e019c5c	0.12657303
219	0xbd581847	-0.052757528
220	0x3e0d7c9d	0.13817067
221	0xbd7706dd	-0.06030928
222	0x3e3a40a5	0.18188722
223	0xbd9b58ee	-0.07585321
224	0xbd163193	-0.03666837
225	0xbd8bf212	-0.068332806
226	0x3e22f377	0.15913187
227	0xbe03c9cf	-0.12869953
228	0xbcb12e73	-0.021628594
229	0x3c425f20	0.0118635
230	0x3d66dc13	0.056362223
231	0xbdb8a466	-0.090157315
232	0xbd1c71ac	-0.038194343
233	0xbccc3640	-0.024928212
234	0x3dd0e987	0.10200792
235	0xbd806734	-0.062696844
236	0x3e224997	0.15848385
237	0xbe27d7be	-0.16390893
238	0x3d8ed22b	0.0697368
239	0x3d4af55e	0.049550407
240	0xbe00eda5	-0.12590654
241	0x3dc07b4e	0.093985185
242	0xbd0edde1	-0.03487957
243	0x3dc14a7b	0.09438034
244	0xbdf8d229	-0.1214946
245	0x3b825d31	0.0039783944
246	0xbd773d57	-0.060361233
247	0x3d55d0d3	0.052201103
248	0xbd244b14	-0.040110663
249	0x3d74a674	0.059729055
250	0x3db5eb8b	0.08882817
251	0xbdea5fea	-0.114440754
252	0x3cd30e48	0.025763646
253	0x3df91b58	0.121634185
254	0xbda4f0f9	-0.080537744
255	0xbdc07dbc	-0.09398982

weight f4 [100]
0	0x3f83ffdc	1.0312457
1	0x3f8bccbe	1.0921857
2	0x3f71c4da	0.94440997
3	0x3f6f6a43	0.9352152
4	0x3f7ee564	0.9956877
5	0x3f807071	1.0034314
6	0x3f6ca07d	0.92432386
7	0x3f8138bb	1.0095438
8	0x3f80b3a8	1.0054827
9	0x3f803e1a	1.0018952
10	0x3f800330	1.0000973
11	0x3f8c243e	1.094856
12	0x3f80947a	1.0045311
13	0x3f828aac	1.0198569
14	0x3f79b72e	0.97545135
15	0x3f73177a	0.949577
16	0x3f6d0016	0.92578256
17	0x3f73627a	0.9507214
18	0x3f8ed58d	1.115892
19	0x3f7c144b	0.98468465
20	0x3f759d15	0.95942813
21	0x3f642d6a	0.89131796
22	0x3f7e9db4	0.99459386
23	0x3f74a935	0.9557069
24	0x3f72eef3	0.9489586
25	0x3f8a1692	1.0788138
26	0x3f838f2c	1.0278068
27	0x3f7b0756	0.9805807
28	0x3f79f2ee	0.97636306
29	0x3f7bf8cc	0.9842651
30	0x3f7cf2d1	0.9880801
31	0x3f6e1fcd	0.93017274
32	0x3f7ca46e	0.986884
33	0x3f7202b6	0.94535387
34	0x3f7d6150	0.9897661
35	0x3f8c34ad	1.0953575
36	0x3f87b535	1.0602175
37	0x3f81f85b	1.0153917
38	0x3f776e44	0.96652627
39	0x3f8ae775	1.0851885
40	0x3f6ab50f	0.91682523
41	0x3f6bc2d7	0.92094177
42	0x3f7ee3ce	0.9956635
43	0x3f75dccb	0.9604003
44	0x3f8706b3	1.054892
45	0x3f8025ee	1.0011575
46	0x3f74b1c9	0.9558378
47	0x3f75b264	0.9597533
48	0x3f79390d	0.9735268
49	0x3f73fee5	0.95310813
50	0x3f86171e	1.0475805
51	0x3f74122e	0.9534024
52	0x3f849bb6	1.0360019
53	0x3f80ac7d	1.0052639
54	0x3f8af79e	1.0856817
55	0x3f7e3a8b	0.9930808
56	0x3f82a843	1.0207599
57	0x3f65f586	0.89827764
58	0x3f85d3a8	1.0455217
59	0x3f7ecad3	0.99528235
60	0x3f723137	0.94606346
61	0x3f90fa96	1.1326473
62	0x3f739729	0.9515253
63	0x3f7ae3bc	0.98003745
64	0x3f76ea34	0.96451116
65	0x3f8870c1	1.065941
66	0x3f763bdd	0.96185094
67	0x3f7a1271	0.9768439
68	0x3f886ee6	1.0658844
69	0x3f770c95	0.96503574
70	0x3f7f6f21	0.99778944
71	0x3f8b0093	1.085955
72	0x3f6fb7cb	0.9363982
73	0x3f8213d5	1.0162302
74	0x3f855706	1.0417182
75	0x3f776ab6	0.966472
76	0x3f8b1ed4	1.0868783
77	0x3f83314f	1.0249423
78	0x3f71380f	0.94226164
79	0x3f83a3de	1.0284383
80	0x3f6a1c54	0.91449475
81	0x3f82180f	1.0163592
82	0x3f7d0cd4	0.988477
83	0x3f75c1d4	0.95998883
84	0x3f6c31e7	0.92263645
85	0x3f7d0e9f	0.98850435
86	0x3f787621	0.9705525
87	0x3f6f6e65	0.93527824
88	0x3f76385b	0.9617974
89	0x3f7936df	0.9734935
90	0x3f7dfd00	0.9921417
91	0x3f733df8	0.9501643
92	0x3f6ed1c2	0.93288815
93	0x3f89f6a7	1.0778397
94	0x3f74f275	0.9568246
95	0x3f866188	1.0498514
96	0x3f85b2a4	1.0445142
97	0x3f752a52	0.957677
98	0x3f872cb3	1.0560516
99	0x3f8067cf	1.003168

bias f4 [100]
0	0xbd1e4387	-0.038638618
1	0x3d47f539	0.048817847
2	0x3c0e1595	0.008672138
3	0x3ce4b2b9	0.027917253
4	0x3cddb8a9	0.027065592
5	0xbd136bc9	-0.035991464
6	0xbd3accb4	-0.045605376
7	0x3d420f60	0.047377944
8	0xbcdd8741	-0.027042033
9	0x3d3b96d2	0.04579813
10	0x3c899e77	0.016799195
11	0xbc096287	-0.008385307
12	0xbcac6017	-0.021041913
13	0x3c7d4525	0.01545838
14	0xbcc5a932	-0.02412853
15	0xbc8ca308	-0.017167583
16	0x3b1bb1ff	0.0023757217
17	0x3cb07178	0.021538481
18	0x3cb1a554	0.02168528
19	0xbbcf9e83	-0.0063360347
20	0xbc4cc2c3	-0.012497607
21	0x3bb06b7f	0.0053839083
22	0x3af10752	0.0018389022
23	0x3a98a415	0.001164558
24	0xbc35b204	-0.0110898055
25	0xbb56dc14	-0.0032784985
26	0x3c911dff	0.017714499
27	0xba530e45	-0.00080511376
28	0xbc88ea08	-0.016713157
29	0xbde55929	-0.111986466
30	0xbd0e9b8d	-0.034816314
31	0x3d071330	0.032977283
32	0x3c048413	0.00808813
33	0x3d1cba76	0.03826376
34	0x3d292ce1	0.041302565
35	0x3c589e53	0.013221341
36	0x3ce367d6	0.027759474
37	0xbcead5b7	-0.02866636
38	0xbb08bece	-0.0020865682
39	0x3c8bb2b5	0.017052988
40	0xbbf085e5	-0.00734018
41	0x3d4ad13c	0.049515948
42	0xbd2a2884	-0.041542545
43	0x3ce741bf	0.028229592
44	0xbc3714f6	-0.011174431
45	0x3c91cb65	0.017797181
46	0xbc12d0d5	-0.008960922
47	0x3cc53321	0.024072232
48	0xbc8f3b84	-0.017484434
49	0x3d31fa76	0.04345175
50	0x3c185592	0.009297745
51	0xbc39c94f	-0.0113395
52	0xbe0faf3d	-0.14031692
53	0xbd5ab867	-0.053398516
54	0xbd2ea447	-0.042637136
55	0xbcd2cb57	-0.025731726
56	0xbcdceaad	-0.02696737
57	0x3ccdd7c7	0.025127305
58	0xbd591bab	-0.0530049
59	0xbcecfebd	-0.028930062
60	0x3d328d7c	0.04359196
61	0x3d41e252	0.047334976
62	0xbd42e78b	-0.047584098
63	0xbc6b3e4a	-0.014358113
64	0xbb7e164a	-0.003877061
65	0xbdcd36d3	-0.100202225
66	0x3cb38845	0.021915564
67	0x3b135401	0.002248049
68	0x3c207276	0.009792915
69	0xbe0b1408	-0.1358186
70	0xbcbf0bf3	-0.023321128
71	0xbd86a821	-0.06575037
72	0x3d279fa8	0.040923744
73	0x3bd4650e	0.006481773
74	0x3ccccc35	0.024999717
75	0x3d3bb65d	0.045828212
76	0x3c3a3389	0.011364826
77	0x3d359747	0.044333722
78	0x3bf29852	0.007403412
79	0x3d14f4f9	0.036366437
80	0x3d238250	0.039919198
81	0xbd45c41e	-0.048282735
82	0x3d10114e	0.035172753
83	0x3c865f72	0.016402934
84	0x3ba5a709	0.0050553125
85	0x3cd55d75	0.02604554
86	0x3ca77acb	0.020444294
87	0xbc59aa75	-0.013285269
88	0x3d0a8a25	0.03382315
89	0xbd627dd4	-0.05529578
90	0x3c631c9b	0.013861801
91	0xbaf9b9f1	-0.0019052607
92	0x3c58374c	0.013196778
93	0xbbede08e	-0.007259435
94	0xbc1ef094	-0.009700913
95	0xbcae90c7	-0.02130927
96	0x3cd17a2c	0.025570951
97	0xbd1dac64	-0.038494483
98	0x3b1f39bb	0.0024295885
99	0x3c58f80b	0.013242732

running_mean f4 [100]
0	0xbfb367c1	-1.4016038
1	0x3fcc3c66	1.5955932
2	0x404cb071	3.1982691
3	0x3fcf7edf	1.6210593
4	0xc050cab5	-3.2623723
5	0xbfd75a0c	-1.6824355
6	0x3fe9592a	1.8230336
7	0xbf75297c	-0.95766425
8	0xc05e04f3	-3.469052
9	0x3f3224ef	0.69587606
10	0x3f0fa69d	0.56113607
11	0xbf7593c1	-0.9592858
12	0x405bf35f	3.4367292
13	0x3ea6efa1	0.32604697
14	0xbfdbf776	-1.7184894
15	0x3ffcd9b4	1.9753938
16	0xc04b5c86	-3.1775222
17	0xbfbc002c	-1.4687552
18	0x3c0b7639	0.008512073
19	0xc0382401	-2.8771975
20	0xc0444099	-3.0664427
21	0x40376939	2.8657973
22	0xc075a60b	-3.8382595
23	0xbfde8c97	-1.7386655
24	0x3e470006	0.19433603
25	0x3f253519	0.64534146
26	0x3fdaf571	1.7106153
27	0xc0886b49	-4.2630963
28	0x3ffebf24	1.9902081
29	0x3fc53b2b	1.5408682
30	0x402f6408	2.7404804
31	0xc02862d4	-2.631032
32	0xc0226047	-2.5371263
33	0xc0a59023	-5.173845
34	0x404f58d6	3.239797
35	0x3fc3b3f7	1.5289296
36	0x3edf01e8	0.43556142
37	0x3d356dc4	0.044294134
38	0xbf7aaa05	-0.9791568
39	0x3ede1bf6	0.43380708
40	0x402b4dc4	2.6766214
41	0x4017100a	2.360354
42	0xbfa0717c	-1.2534633
43	0x40605d60	3.5056992
44	0xbfcf8eba	-1.6215432
45	0xbffd504e	-1.9790132
46	0x3fd844bf	1.689598
47	0xbffc657f	-1.9718474
48	0x3fd5c3fa	1.6700432
49	0x3f8ff570	1.1246777
50	0xc0285fbb	-2.630843
51	0x3d12de17	0.035856333
52	0x3fd17259	1.6363021
53	0xbe26e58f	-0.16298507
54	0x3f88c35c	1.0684619
55	0xc091436e	-4.539481
56	0xbfbaba33	-1.4588073
57	0x3fd7f4f5	1.687163
58	0xbfc49938	-1.5359259
59	0xbfd46729	-1.6593982
60	0x3eb5d737	0.35515758
61	0x3f9f56fa	1.2448418
62	0xbe945d97	-0.28977653
63	0x3ecc8db6	0.39951867
64	0xc095c150	-4.6798477
65	0x3dabfd46	0.083979174
66	0xbfbd8d70	-1.4808788
67	0x408daa6f	4.427055
68	0xbf80367c	-1.0016627
69	0x3ee3d73b	0.44500145
70	0x4018da26	2.3883147
71	0xbf282867	-0.6568665
72	0x3f5a48f0	0.85267544
73	0x3f2dc23d	0.6787451
74	0x3f12eb1e	0.5739001
75	0xbf9f2690	-1.2433643
76	0xbf561523	-0.83626
77	0xbe23acbf	-0.15983866
78	0xc050dd14	-3.2634935
79	0xbfe4cafb	-1.7874445
80	0x40008dbf	2.0086515
81	0x40023498	2.03446
82	0x405132b6	3.2687201
83	0xc0322836	-2.7837043
84	0x40490241	3.1407626
85	0x3ff6cccf	1.9281253
86	0xbffa6627	-1.9562424
87	0x407e5e78	3.974516
88	0x4083c90d	4.1182923
89	0x4000595f	2.0054548
90	0xc0843c6a	-4.132375
91	0x3fc9cc0c	1.5765395
92	0xbfbb9554	-1.4654946
93	0x3f682b6f	0.90691274
94	0x4004888f	2.0708349
95	0xbf9f868f	-1.2462939
96	0x3fb9d6bc	1.4518657
97	0xc0203fce	-2.5038943
98	0xbfa422ea	-1.2823155
99	0x40015563	2.0208366

running_var f4 [100]
0	0x40bcf338	5.90469
1	0x40b7d7c1	5.745087
2	0x4130989a	11.037256
3	0x40e20c24	7.063982
4	0x4119b7b3	9.607348
5	0x407c7362	3.9445424
6	0x4101d456	8.11434
7	0x40e03f82	7.0077524
8	0x41a29553	20.322912
9	0x41179d62	9.475924
10	0x4090e8fd	4.528441
11	0x414a341f	12.637725
12	0x411f80b6	9.968924
13	0x40870efd	4.2205796
14	0x411e780c	9.904308
15	0x40f71e5f	7.7224574
16	0x41241c42	10.256899
17	0x40f78139	7.7345243
18	0x40c609f9	6.1887174
19	0x41094af4	8.580799
20	0x41168d2f	9.409469
21	0x412f49d2	10.955523
22	0x41327195	11.15273
23	0x40d25948	6.5733986
24	0x40c589e3	6.173082
25	0x41022473	8.133899
26	0x412c1062	10.754
27	0x41868950	16.817047
28	0x40e2c0ff	7.086059
29	0x408d46ae	4.414878
30	0x41405f6b	12.023295
31	0x411aeafd	9.68237
32	0x40c43abd	6.13217
33	0x418a7220	17.305725
34	0x4109c637	8.610892
35	0x414610c2	12.379091
36	0x40d6bc4d	6.710486
37	0x40db1f74	6.8475895
38	0x40d8db2b	6.776754
39	0x4094138c	4.627386
40	0x41276d50	10.464188
41	0x40d718a8	6.72176
42	0x409ca0f2	4.8946466
43	0x41352779	11.322137
44	0x40ad299b	5.411329
45	0x410c30f2	8.76195
46	0x409e96ad	4.955893
47	0x40a97d89	5.296574
48	0x41101e8c	9.007458
49	0x40f32cda	7.599225
50	0x4187ad17	16.959517
51	0x40ec6f8e	7.3886175
52	0x40afec5b	5.497602
53	0x4082b34f	4.0843883
54	0x41630929	14.189736
55	0x4181f20b	16.243185
56	0x40a826ab	5.25472
57	0x40dc2051	6.878945
58	0x40b1c40c	5.5551815
59	0x40cdfced	6.4371247
60	0x409e6a0c	4.950445
61	0x4142b133	12.168262
62	0x40dad714	6.8387547
63	0x40a62426	5.1919127
64	0x4193d89a	18.480762
65	0x40f790c7	7.736423
66	0x40f971d4	7.795145
67	0x4156c42c	13.422894
68	0x40c2c60e	6.0866766
69	0x40e987ab	7.297811
70	0x40b43e59	5.632611
71	0x4104a24a	8.289621
72	0x408b0a25	4.3449883
73	0x4076d088	3.8564777
74	0x40c636ee	6.1942053
75	0x40c3a39b	6.1137214
76	0x4104400f	8.265639
77	0x411d20ea	9.820536
78	0x411d09ee	9.814924
79	0x40ba4de2	5.822007
80	0x40c53581	6.1627812
81	0x410185f7	8.095206
82	0x4149132f	12.5671835
83	0x410a2df0	8.636215
84	0x41157e9f	9.343413
85	0x40fb7b6e	7.858817
86	0x40df44f5	6.9771676
87	0x4151dc80	13.116333
88	0x41997ab4	19.184914
89	0x411c3c7f	9.76477
90	0x41760441	15.376039
91	0x40f6b170	7.70916
92	0x40ddc0c2	6.92978
93	0x40c141af	6.039268
94	0x41009a24	8.037632
95	0x405e41aa	3.4727578
96	0x40c7c1c4	6.242403
97	0x40f2fbde	7.5932455
98	0x40b91ee1	5.7850194
99	0x4121f182	10.121462
