transformer_results_random_no_constants_no_param_tune/performance_prediction/DE-GA-ES-PSO_random_no_constants_dim_10_samples_50_fold_4_budget_30_n_heads_2_n_layers_1_d_model_100_d_k_30_d_v_30_aggregations_mean/trained_model.pt (torch, 344953 bytes, 22 tensors)

weight f4 [100, 11]
000000 af 1c 59 be b2 ee 7a 3e 03 dd 9e be 15 bd 14 3e
       -0.21202348 0.24505118 -0.31027994 0.14525254
000010 b1 d6 ba 3d 3c 48 79 3d 47 c8 38 3d 06 d5 5a 3e
       0.091229804 0.060859904 0.045112874 0.21370324
000020 19 9d 43 3d f7 1d d3 3d 19 e5 4f 3e 87 9e 95 3e
       0.047757242 0.1030845 0.20302238 0.2922251
000030 b9 74 4e 3e 5e c0 9f bd e3 00 0e bd ab 30 2e bd
       0.20161714 -0.07800363 -0.034668814 -0.042526882
000040 54 a6 07 3e 78 b0 c8 bc 72 f8 7c 3d 7f 41 23 3e
       0.13247043 -0.02449821 0.061760373 0.15942954
000050 48 c2 1e bd b8 94 29 be a1 36 88 3c 55 9e 5a 3e
       -0.0387595 -0.16560638 0.016627612 0.21349461
000060 a1 6e 97 3e c5 1b 6a 3c 27 ff a7 3d 16 1e 31 be
       0.2957659 0.014288847 0.08202963 -0.17296633
000070 18 03 64 3e 24 36 a8 bc d8 db 4e bd 0c 5d 63 3e
       0.22266805 -0.020533629 -0.050502628 0.22203463
000080 46 d8 7f be 62 be 67 3e ea c7 94 be 53 46 c5 3b
       -0.24984846 0.22631219 -0.29058772 0.006020346
000090 48 cd 3c 3e 5d a1 e7 3d d3 fd 28 bd 32 e1 a8 bd
       0.18437684 0.113100745 -0.04125769 -0.082460776
0000a0 7d ab 8c 3e ec 12 5d be 27 24 58 be 95 53 dd 3b
       0.27474585 -0.2158925 -0.21107541 0.0067543485
0000b0 d6 9d 5f bd 8d dd 16 3e c1 9d 4c 3e f9 d4 df bd
       -0.054593883 0.14732952 0.19982053 -0.10929293
0000c0 90 75 d6 bd 2d f1 66 3c 88 d1 5a bd 70 3f 41 3d
       -0.10471642 0.014095587 -0.05342248 0.04717964
0000d0 e9 25 70 be 4f 66 52 bd 5e 9f 90 bd 51 b3 4c 3e
       -0.23451962 -0.0513671 -0.07061647 0.19990279
0000e0 f6 c9 dc 3c 0a 1b 41 be 29 f1 2e bd 44 a6 81 3d
       0.026951771 -0.18857971 -0.042710457 0.06330541
0000f0 6d d5 38 3e 1c f9 98 bd 26 72 54 be 39 02 27 3e
       0.18050165 -0.07469389 -0.20746669 0.16309442
000100 5d 6b 7c be eb 07 90 3e 6b 4b f0 3d 90 dd 8a 3e
       -0.24650331 0.2813104 0.11733135 0.27122164
000110 8b 06 2e be e5 a7 10 3e 2c 75 f2 3d 04 c0 83 bd
       -0.16994683 0.14126547 0.11838755 -0.064331084
000120 1a 9a 8c 3d 24 8f 8a 3e cb 44 af 3d 0a 8a 38 be
       0.0686533 0.27062333 0.08558043 -0.18021408
000130 16 20 b3 3e 5f e0 6d be 57 81 28 be 48 8b 20 be
       0.34985417 -0.23230122 -0.16455589 -0.15678132
000140 0d d8 16 3e 37 49 65 3e 88 97 3c 3e 1d ea b2 3d
       0.14730854 0.2239121 0.1841718 0.0873606
000150 9d c6 ad 3d 1e a5 91 bd 68 7b 1c bd 93 46 60 be
       0.08485148 -0.07111572 -0.038203627 -0.21901922
000160 59 37 65 be 89 1e 26 be fa f8 80 3e af c4 e3 3d
       -0.22384395 -0.16222586 0.25189954 0.11121499
000170 90 d9 03 3e f4 16 ac bd b7 39 77 3d 21 e7 8f bb
       0.12875962 -0.084028155 0.060357776 -0.0043915664
000180 d9 ad 48 3e 57 a6 94 be a5 cd 8e 3e 47 56 04 bb
       0.19597568 -0.29033157 0.2789127 -0.0020193027
000190 5f 68 dd bd 52 42 b1 3d 82 1b 84 3e e5 ce 63 3e
       -0.10810923 0.08655228 0.25802237 0.22246893
0001a0 f0 3d df bc ab be 6f be 72 99 62 be d6 a8 84 3d
       -0.027251214 -0.23412578 -0.22128847 0.064775154
0001b0 23 14 84 be a2 c2 6a be ce c7 b8 bd 83 cb 8d be
       -0.25796613 -0.22925809 -0.09022485 -0.2769433
0001c0 4f 29 91 3d 12 17 81 bd d5 25 93 bd 49 92 7b 3e
       0.07087957 -0.063032284 -0.0718495 0.24567522
0001d0 f6 2c a5 bc 27 0c b8 bd 60 a8 6d 3e 22 7a 97 3d
       -0.02016304 -0.08986693 0.23208761 0.07396342
0001e0 ab ad 76 be a6 12 36 3c 33 cb 9c be 4a 2d bf 3b
       -0.24089687 0.011112845 -0.3062378 0.0058342563
0001f0 ef f4 3f 3e 3f 0b 56 be 67 4f 46 bd c7 8d c8 bc
       0.18745779 -0.20902728 -0.048415568 -0.024481667
000200 7a 9f 18 bd eb 2c 72 bc 53 ec 86 bd ff f4 5f 3e
       -0.037261464 -0.014781217 -0.06588044 0.21870802
000210 08 06 3d bd e2 2f d6 3d b8 96 61 be c6 7d 9c 3c
       -0.04614833 0.10458352 -0.22030151 0.019102942
000220 73 dd a8 3d 51 4d 2b 3e 78 6e 85 be 53 8d a3 bd
       0.08245363 0.16728713 -0.26060843 -0.0798594
000230 fc bd 05 be 34 d1 d2 bd 27 f9 78 3e 23 c1 49 3d
       -0.13060755 -0.102938086 0.24313794 0.049256455
000240 29 a5 27 3e 35 42 c9 3a 15 45 35 be 03 86 16 3d
       0.16371597 0.0015354814 -0.17702134 0.036748897
000250 7b 76 09 3e 76 8a c4 ba 67 b1 06 be 9d c6 09 be
       0.13424103 -0.0014994878 -0.13153611 -0.13454671
000260 c0 e2 6a 3e 63 01 af 3e a6 92 49 be 28 65 87 bd
       0.22938061 0.34180745 -0.19684848 -0.06611091
000270 cc 72 89 3e 7f be f0 3d c2 27 53 be 42 0c 24 bd
       0.26845396 0.11755084 -0.20620635 -0.040050752
000280 78 76 94 3e 5a 1d ce bd 37 0d ae 3c 12 3c a8 3d
       0.28996634 -0.10064192 0.021246536 0.082145825
000290 58 48 8e 3e 59 e2 41 be 84 0f 20 3d ee 3a a9 bd
       0.2778957 -0.18934001 0.039077297 -0.08263193
0002a0 1d ca 50 bd 36 e6 7c 3d a4 6a b0 bd f7 e1 83 3d
       -0.050974 0.061742984 -0.0861409 0.06439584
0002b0 0b 36 3a be 08 45 5f be d4 e1 27 3d 76 29 d3 3e
       -0.18184678 -0.21803677 0.04098685 0.4124257
0002c0 7d d3 19 3e 50 22 9e be 65 83 15 3e 92 77 68 3e
       0.15022083 -0.30885553 0.14600904 0.22701862
0002d0 96 3c 96 be bc c8 33 3e 34 f1 4c be d0 e6 92 3e
       -0.29343098 0.17557043 -0.20013887 0.2869172
0002e0 33 62 36 bd 33 ac 95 be 44 86 d5 3e d2 6b 32 bd
       -0.044527244 -0.2923294 0.41704 -0.043559857
0002f0 f4 ee 83 be d1 d0 2b 3e 20 f8 34 be 51 ff b8 bc
       -0.25768244 0.16778876 -0.17672777 -0.022582682
000300 61 ea d0 3d 7e d6 ad bd 6f df 89 3d ee 13 41 be
       0.10200954 -0.08488177 0.0673207 -0.18855259
000310 b5 3e 8f be 70 8e c8 bd ee 57 05 3d b0 3c 47 3e
       -0.2797753 -0.09792793 0.03255456 0.19456744
000320 4d f7 5f 3e 76 da 7a 3e 01 b2 b5 3d 2d 03 77 3e
       0.21871682 0.24497399 0.08871842 0.24122305
000330 a9 e2 a2 3d 00 ef 1c 3d 3a ce 43 be 60 ff b1 bd
       0.07953388 0.038313866 -0.19121638 -0.08691287
000340 3d d1 a1 3e 21 97 2c be fe 9b 3c be 15 e9 69 be
       0.3160495 -0.16854526 -0.18418881 -0.2284282
000350 a1 6e 4a bc e3 2c ae 3d 60 5e c6 bd 6d 83 1f 3c
       -0.012355478 0.08504655 -0.09685969 0.009735924
000360 88 fb 85 3d d7 53 e2 3d cd 07 e4 3d d4 3a c8 3e
       0.065421164 0.110511474 0.111343004 0.39107382
000370 9f a2 82 be 80 52 da 3c 03 9d f3 3d e6 b9 90 3d
       -0.25514695 0.026650667 0.11895182 0.07066707
000380 bd 5b 5c be 1b 0d 91 be 2d c5 18 3e 69 40 98 bd
       -0.2151937 -0.2833031 0.14918967 -0.0743416
000390 6d bb 81 3e f4 da e2 bd 76 d3 a5 be b2 67 21 be
       0.25338307 -0.11076918 -0.32387894 -0.15762213
0003a0 89 dc 6a be 12 a0 1d be 30 61 82 be ad 27 14 bd
       -0.2293569 -0.15393093 -0.25464773 -0.03617065
0003b0 cd 58 44 be d8 b7 3c bc 11 a9 ed 3c 6d 96 0a 3e
       -0.191745 -0.011518441 0.029011281 0.13533945
0003c0 5e 1f 3a 3e 68 cc b6 3e a4 45 37 3e 0d e3 7b 3e
       0.18176028 0.35702825 0.1789766 0.24598332
0003d0 c0 e8 38 3e 84 a9 59 bd a6 f4 4a 3e a2 67 65 3e
       0.18057537 -0.05314018 0.19819888 0.22402814
0003e0 d6 3c 0f be 07 60 a9 be 56 c9 2d 3e 56 8d cf bb
       -0.13988051 -0.33081076 0.16971335 -0.006333987
0003f0 9f 25 2e be 8f 6d 82 3e 82 0c 76 3d d2 16 50 be
       -0.17006539 0.25474212 0.060070522 -0.20321205

bias f4 [100]
000000 e6 85 03 3c 14 40 88 be 9f f3 88 bb 2c 1a 25 3e
       0.008027529 -0.26611388 -0.0041794325 0.16123265
000010 3f 06 95 be cf 8d f3 bd 33 79 52 3e a5 3e 9c 3e
       -0.29106328 -0.11892282 0.20554046 0.30516544
000020 de 4a 45 be 5a d1 0f 3e 70 c6 76 3e 05 a2 32 3e
       -0.19266841 0.14044705 0.24099135 0.17444618
000030 1e b9 0f be 85 a9 93 bd 97 a6 4b be 3b d6 32 be
       -0.1403546 -0.07210068 -0.19887768 -0.17464535
000040 40 bb 05 3e 65 fa bc bd 44 49 d7 bd 53 0c 09 3e
       0.13059711 -0.092274465 -0.10512021 0.13383608
000050 91 1f b3 bd 06 1e 0f be 5e 87 83 be 42 05 62 be
       -0.08746255 -0.13976297 -0.25689214 -0.22072318
000060 04 7f 83 bb 2e 74 8c 3e 6a c7 fc 3d e6 c0 60 bc
       -0.004012944 0.27432388 0.12342723 -0.013717866
000070 34 7a 67 be 39 82 87 be 72 d3 88 bd 93 01 80 3e
       -0.2260521 -0.2646654 -0.06680955 0.250012
000080 13 c1 01 be 1a 00 fb bd 6b a8 94 3e 53 fd 00 be
       -0.12671308 -0.12255879 0.29034743 -0.12596636
000090 11 9f 00 be e3 99 9d 3e d2 5b 47 3e 29 f6 0f be
       -0.12560679 0.3078147 0.1946862 -0.14058746
0000a0 7f 54 85 3e 2b 17 20 3d 6e e9 78 be ff a3 29 3e
       0.26041028 0.039084595 -0.24307796 0.16566466
0000b0 61 c0 66 be 56 6a 80 be 21 80 e5 bd 44 53 fe bd
       -0.22534324 -0.25081128 -0.11206079 -0.124182254
0000c0 9a 84 15 be bd 5b 3c 3e 42 43 75 3e 4b 12 4a 3e
       -0.14601365 0.1839437 0.23951438 0.1973354
0000d0 67 26 f6 3c 4f ef 22 3e 53 4f 8f be fb 3f 4f be
       0.030047609 0.15911601 -0.27990207 -0.2023925
0000e0 fc f0 69 3e 6d 81 8d 3d f4 9c 51 3e 2a 78 ff 3d
       0.22845834 0.06909452 0.20470029 0.12474091
0000f0 94 2e a0 be 7a a3 22 be 26 ef 69 3d c2 41 15 3e
       -0.31285536 -0.15882674 0.057112835 0.14575866
000100 8c f4 84 be a2 b8 f3 bd 10 f3 d9 3d 10 ec 6f bd
       -0.25967824 -0.1190045 0.106420636 -0.058574736
000110 09 4a 9b 3d f4 2b 2a 3d eb 78 67 be 25 69 f8 3d
       0.075824805 0.041545823 -0.2260472 0.1212943
000120 89 f8 72 be b7 c5 93 bb af dd 6f be ed a2 c7 3d
       -0.23727621 -0.0045096534 -0.2342441 0.097478725
000130 cd 4b bd 3d 03 80 22 be 47 d0 d5 3d e2 6c 1b be
       0.092429735 -0.15869145 0.104401164 -0.15178254
000140 06 bd 71 3e d7 24 2f 3e bf 94 90 3e db ec d0 3d
       0.23607263 0.17103897 0.28238484 0.102014266
000150 6a fc dc bd 82 f6 30 3e dc b5 25 be 30 28 66 3e
       -0.10790332 0.17281535 -0.16182655 0.22476268
000160 78 39 7c be 62 2c e2 3c 57 b0 8c 3e 85 d9 bf bd
       -0.24631298 0.027609054 0.27478287 -0.093676604
000170 c9 70 e0 3b 1d f1 06 be 6b 6d 6b be b3 ce 91 be
       0.0068493825 -0.13177915 -0.22990958 -0.2847801
000180 70 91 90 3e c1 a2 53 be 70 b3 98 3e 63 ff b9 3d
       0.2823596 -0.20667554 0.298244 0.09081914

weight f4 [60, 100]
000000 cd 87 50 3d 57 c4 9f bd 4f 7e 17 bd 96 0b 69 bd
       0.05091076 -0.07801121 -0.03698569 -0.056895815
000010 2d 19 48 bb 46 49 96 3c 1c 27 6a bd 20 12 88 bd
       -0.0030532584 0.018345486 -0.057166204 -0.06644082
000020 01 a3 7c bd 55 52 4c 3b 72 29 60 3d a1 74 da bc
       -0.06167889 0.0031177003 0.054727025 -0.026666941
000030 87 20 15 3c 90 4c bb bd d2 d3 9e bd 88 9e 63 3d
       0.009101993 -0.091454625 -0.07755245 0.05557111
000040 c7 f6 51 bd 4c d3 83 bd 7b 8c 39 3c 4d ed 2f 3c
       -0.051260736 -0.06436786 0.011324997 0.010737729
000050 10 3f 35 3d f4 3e 53 bd 9f 70 47 bd 2f de aa 3c
       0.044249594 -0.05157371 -0.04869139 0.020857899
000060 d1 66 1a bc cf 7a bf 3d d7 a7 59 3d 03 6c cb bb
       -0.009423927 0.09349596 0.05313858 -0.0062079444
000070 4a 23 3d bd 20 75 b6 bc 2c af 79 bd c1 ba 40 bd
       -0.046176232 -0.022272646 -0.060958073 -0.047053102
000080 28 4e 96 3b e1 ad 36 3d 82 8d bb bb a8 85 bf bd
       0.0045869537 0.044599418 -0.005723656 -0.09351665
000090 ed 87 a2 bc 45 4f d3 3d cf b5 c3 bd fd 32 4f 3d
       -0.019840205 0.10317854 -0.095561616 0.050585736
0000a0 e2 0a d3 3d 1d 40 a3 bd 04 5a 7d 3c dc 65 9e bc
       0.1030481 -0.07971213 0.015463356 -0.01933568
0000b0 a7 e3 a6 bd cc 3f ba bd ab a8 98 3d 44 20 86 3d
       -0.0814889 -0.090941995 0.07454046 0.06549123
0000c0 05 86 54 3d c1 d0 8d bd db df 47 bd 3d 3d b3 bd
       0.051885623 -0.06924582 -0.04879747 -0.08751915
0000d0 7f 36 56 ba 4b f9 e9 bc 33 68 9c 3b 8e ad 59 3d
       -0.00081715727 -0.028561255 0.0047731637 0.05314403
0000e0 56 82 7c 3d 2c d0 6d 3d e2 b9 95 bd 0a e6 7c bd
       0.061647736 0.058059856 -0.07310845 -0.06174282
0000f0 c8 ef 86 bb 14 88 6e 3d 79 76 d2 ba 7b 4a d7 bc
       -0.0041179396 0.058235243 -0.0016057036 -0.026280632
000100 03 da 6f 3d 6a 80 9a 3d dd 47 54 3d 25 9e ac 3d
       0.05855752 0.07544024 0.051826347 0.08428601
000110 3f 6a c1 3c d5 b5 19 bd ce 17 64 3d 01 af 9b 3d
       0.023610232 -0.037526924 0.055686764 0.07601739
000120 22 f3 77 3c fe 98 d4 bd d7 93 df bd df b2 3c bd
       0.015133651 -0.103807434 -0.1091687 -0.046069022
000130 16 67 39 3d df b5 a3 bd 1f d4 f5 bc bd 47 59 3d
       0.045264326 -0.079936735 -0.030008374 0.05304693
000140 d2 7f ad bd ee 46 5a bd 9c 2a 8b bd d3 d4 97 3d
       -0.084716454 -0.0532903 -0.067952365 0.0741364
000150 00 47 b5 bd 7c 74 71 bd 7b 86 66 3d de 3d cb bc
       -0.08851433 -0.05894898 0.056280594 -0.024809774
000160 51 99 48 3d 80 45 f9 3c f9 54 ae bd 6c de ad bd
       0.04897434 0.030428648 -0.08512301 -0.08489689
000170 c9 f0 93 3d 1b 17 92 3d cb 1a 88 bd f5 83 84 bd
       0.072236605 0.07133313 -0.06645735 -0.06470481
000180 bf 21 c2 bd 77 d6 56 bd 3e 75 a4 bd 36 a4 7a 3d
       -0.09479093 -0.052450623 -0.08030175 0.06119176
000190 31 ed 41 bc dd 2d 95 bd 07 7b 13 3d 8b 31 8f 3c
       -0.011836336 -0.07284138 0.036006 0.017479679
0001a0 23 f2 31 bb 77 e0 01 3d 6b b1 fb 3d 6a 7f 03 be
       -0.0027152381 0.031708207 0.12289699 -0.12841573
0001b0 d0 ab ff 3d f0 70 f0 bd 80 9b 65 bd c9 8d ae bc
       0.124839425 -0.11740291 -0.0560565 -0.021307843
0001c0 95 2c 0b bc b1 de 2a 3d 07 64 4a bd 07 ae 09 3e
       -0.008494516 0.04171628 -0.0494118 0.13445292
0001d0 50 53 37 3d 07 f2 e5 bc ae 69 44 b9 2e 19 92 bc
       0.044757187 -0.02806951 -0.00018731385 -0.017834272
0001e0 cc 86 2b bd ac 63 99 3d 7b 35 9f bd 1f 1d 70 3c
       -0.0418766 0.07489714 -0.077738725 0.0146553805
0001f0 dd de 8a 3d 75 be a0 bd 93 08 38 bc aa 4e a3 bd
       0.06780789 -0.07848827 -0.011232513 -0.07973988
000200 ec f4 66 3d 6e e8 11 be ad e9 84 bd f4 1a 93 b9
       0.05638592 -0.14248821 -0.064898826 -0.00028058107
000210 5c 55 89 bd 84 bb da 3c 76 3c 38 bd 49 0d 0e 3e
       -0.06705734 0.026700743 -0.044979535 0.13872255
000220 87 15 96 bc 6a ed a8 bd 87 17 0b 3d a4 32 85 3c
       -0.018320812 -0.08248408 0.033957984 0.016259499
000230 39 41 48 bd 56 d4 a7 3d 17 81 c7 b7 9e 36 a5 3c
       -0.048890326 0.08194797 -2.378276e-05 0.020167645
000240 ae ee 90 3d 20 db 0b bb c5 95 ca bd da 19 ad 3c
       0.070767745 -0.0021340325 -0.098918475 0.021130491
000250 9c e6 4a bd 87 d7 05 3e 95 3f 8b bd 62 4b 91 bd
       -0.049536332 0.13070498 -0.06799237 -0.07094456
000260 4f 9b d3 3d c4 10 59 3d db 94 00 3c 0c 5a 15 bd
       0.10332357 0.052994505 0.00784799 -0.03646283
000270 21 37 fc bd 84 0b 8e bd c5 fb e3 bc c9 b1 52 bd
       -0.123152025 -0.0693579 -0.027830014 -0.05143908
000280 77 37 58 3c 95 03 68 bd d7 80 15 bc 2c 63 90 3d
       0.013196818 -0.05664404 -0.009124956 0.070501655
000290 96 b3 c9 bc 10 19 89 bd a6 bd f5 3b e9 16 be bd
       -0.024621766 -0.066942334 0.0074994145 -0.092817135
0002a0 63 0b 77 3c 17 d7 8f 3d 91 1f ba 3c 22 20 a6 bd
       0.015078398 0.07023447 0.02272013 -0.081115976
0002b0 42 fc fd ba 13 d1 3e 3d b6 c3 8d bc f1 82 70 bc
       -0.0019377547 0.046586107 -0.017305236 -0.014679656
0002c0 39 32 a6 3d 67 bc dc 3c 64 85 c3 bc e7 f3 e5 bd
       0.08115048 0.026945306 -0.023867317 -0.11228161
0002d0 40 e1 f3 3c 1c 05 c1 bd 34 a2 fd 3d 27 4a 87 3d
       0.029770494 -0.09424803 0.123844534 0.0660594
0002e0 e8 d3 bc bd f2 c2 cd bc 6a ee 99 bc 4f 15 6c bd
       -0.092201054 -0.025117371 -0.018790442 -0.05763751
0002f0 72 16 40 bd ef 74 0e bd 08 41 c6 bd af 84 b4 3c
       -0.046896406 -0.034779485 -0.096803725 0.022035925
000300 3c 2c c4 3d 2b 01 74 bc 66 73 05 3d b4 33 ce 3d
       0.095787495 -0.014892857 0.032580756 0.10068455
000310 60 ed a6 3c 27 79 1c bd 1b 79 cc bd cc ed 01 3c
       0.020376861 -0.038201477 -0.099840365 0.00793023
000320 d8 61 94 bc 2a f1 ef 3c be ef b1 3d d3 ec d3 bd
       -0.018113062 0.0292898 0.08688305 -0.10347905
000330 70 e6 1b bd 32 9d ab bd 2c 2f 8a 3d 95 ed 78 bc
       -0.03806156 -0.08379592 0.067472786 -0.015193363
000340 1f 42 06 3d 23 07 62 bd b2 2e 11 3d bd 3e 7b bd
       0.0327779 -0.055182587 0.035444923 -0.06133913
000350 60 42 81 bd 88 0c ba bd b5 cf e7 bd 63 03 9d bb
       -0.06311488 -0.090844214 -0.11318914 -0.0047916635
000360 8c 38 b8 bb 28 ef 9f 3d 40 82 ac bd a1 1e 95 bd
       -0.0056219753 0.07809287 -0.08423281 -0.072812326
000370 17 70 5b 3d c6 97 d3 bd 25 04 54 bd c8 0c df bd
       0.053573694 -0.10331683 -0.051761765 -0.1089111
000380 6a 04 eb bd 73 6d 91 bb 0b 68 bf bc 33 20 50 3d
       -0.11475451 -0.004438096 -0.023365041 0.050811958
000390 fe af de 3b 8f 8c 13 bd 31 69 0a 3e 3e 22 9e 3d
       0.0067958822 -0.03602272 0.1351669 0.07721375
0003a0 f8 c3 ac b9 97 53 f4 3d 2b 45 52 3d ca ed 04 be
       -0.00032952405 0.11930006 0.051335495 -0.12981334
0003b0 50 d4 06 be 36 b1 5b bd ec 16 6b 3d d5 6e a0 3b
       -0.13166928 -0.0536358 0.057394907 0.0048960247
0003c0 f7 fd ce 3d ef 6a b8 bd 00 3e 38 3c 27 f0 58 bc
       0.10107034 -0.09004771 0.011245251 -0.0132408505
0003d0 b4 81 4f bd 2d 0a ff bc 0e d0 97 3d 5c 39 2b 3d
       -0.050660804 -0.031132782 0.0741273 0.04180275
0003e0 21 82 dd bd bc 7b 9d 3c 99 47 a4 bb af 9c 0b 3d
       -0.10815836 0.01922404 -0.005013418 0.034084972
0003f0 df 2f 35 3d 13 be 6e bd 4b 1e 08 3d 2f 46 b2 3d
       0.044235107 -0.058286738 0.033232015 0.08704793

weight f4 [60, 100]
000000 c1 ac 21 bc 3a d8 17 bd 9a 5d b6 bd e7 82 a8 bd
       -0.009867848 -0.037071444 -0.08904572 -0.08228093
000010 53 87 bc bd 9a e5 64 3d 25 1a 86 bb 2e 24 55 bd
       -0.092054985 0.055883028 -0.004092472 -0.052036457
000020 5c 84 a8 3d 8a b2 87 3d 90 07 5e bc 42 6c 97 3b
       0.082283705 0.066258505 -0.013551608 0.0046210596
000030 0a be 65 3b 26 47 b6 bd c2 47 b0 bc 52 bf c9 3c
       0.00350559 -0.08900289 -0.021518592 0.024627361
000040 22 07 0f 3d 05 ef f0 3d ee 36 c1 bd e0 93 91 bc
       0.03491891 0.11764339 -0.09434305 -0.017770708
000050 cb a1 8f 3d 35 f0 56 bc fb 15 cf bb 86 b5 27 bb
       0.070132814 -0.013118793 -0.006319759 -0.0025590374
000060 11 8e d9 3d 0c 25 b1 bd 20 ca 63 3d 6f 23 df bd
       0.106228 -0.08649644 0.055612683 -0.1089543
000070 c7 e9 cf bd 7b 2a 24 3d 5d 85 3e 3d cd 9b 86 3d
       -0.10152011 0.040079575 0.046513904 0.065726854
000080 ec e0 b2 3d 0b 6a bc 3c aa 3f 11 3d 03 06 d9 bc
       0.08734307 0.022999784 0.035461105 -0.026492124
000090 fa 52 b5 bb 34 c7 a0 3d bb 02 96 3d 6b 1f c3 3c
       -0.005533573 0.07850495 0.073247395 0.023818692
0000a0 15 77 99 bd cc e4 a4 3c e2 c0 22 bd b3 dd ed bd
       -0.07493416 0.02012863 -0.03973473 -0.116145514
0000b0 a6 6b 2f bc b3 3d db 3d 2d 47 81 3d da 10 8b 3d
       -0.010706818 0.107051276 0.06312404 0.067903236
0000c0 5d b1 46 bd cf 24 b3 bd 9e fd d6 bc 9a b9 6b bd
       -0.04850899 -0.08747255 -0.026243981 -0.05755005
0000d0 cf 76 0f bd 99 c1 2f 3d 0a e8 f7 3a 27 56 ad bc
       -0.035025414 0.04290924 0.0018913758 -0.021159245
0000e0 26 4f 24 3d b6 fe 82 bd df 83 a6 bd ef 50 b5 3d
       0.040114544 -0.063962385 -0.08130621 0.088533275
0000f0 d6 62 f7 bc 3c da 2d bc b2 fc 28 3d 1f 0f af bc
       -0.030198496 -0.010611113 0.041256614 -0.021369515
000100 e2 79 82 3d e3 48 8b bd b6 0d d6 bd a2 db c1 3d
       0.063709036 -0.068010114 -0.10451834 0.0946572
000110 44 5e c3 bd 33 3c 18 3d 8e d6 7f bd 5f 60 e2 3c
       -0.09539464 0.037166785 -0.062460475 0.027633844
000120 63 62 36 3d ba 4d 1c 3d 24 03 51 bc 53 79 c7 3c
       0.044527423 0.038160063 -0.012757096 0.024349844
000130 f4 fa be 3d 25 f9 ba bd 00 4c 6e 3b b0 e4 5e bd
       0.09325209 -0.09129552 0.0036361217 -0.054417312
000140 9f 8e a3 bc e9 78 e4 bd 6f 3e a4 3d 34 00 13 3d
       -0.019965468 -0.11155874 0.08019721 0.035888866
000150 0c ef f4 bb 3b ba e8 3c 32 f0 c8 3d 82 20 df 3c
       -0.0074747857 0.028409114 0.098114386 0.02723718
000160 6f 48 69 3d 02 a0 80 bd d1 1a 52 bd f3 74 a4 bd
       0.056953844 -0.06280519 -0.051295105 -0.08030119
000170 c5 e6 05 3b 58 f9 61 bd 5e 8c aa 3d db a9 51 3d
       0.0020431739 -0.055169433 0.08327554 0.051187377
000180 77 ad 3d 3d aa 93 4b 3a b7 43 cf 3c 4e ae 22 3d
       0.046308007 0.0007765839 0.025300844 0.03971701
000190 41 ff dd 3d e9 e2 27 bd 3e c8 9f 3c b6 49 c6 bd
       0.108397014 -0.040987883 0.019504663 -0.09682028
0001a0 d4 51 13 bd e4 16 28 b9 6c 35 4a bd d3 8e 3c bd
       -0.03596671 -0.00016030256 -0.049367353 -0.046034645
0001b0 8f 7c 08 3c 9e b9 95 3d b0 bf ca 3d 56 e5 be bd
       0.008330478 0.07310794 0.09899843 -0.09321086
0001c0 c6 d4 4e bd 02 e4 ac 3d 64 10 cf 3c 61 69 b5 bc
       -0.050495885 0.084419265 0.02527637 -0.022144975
0001d0 13 e2 7d bd a7 12 d9 bd 98 6a 33 3d ef 21 09 3c
       -0.06198318 -0.10599261 0.043802828 0.008369907
0001e0 52 e4 ba bd 74 50 2e bd df 3d 91 3d 59 9c ee bc
       -0.0912558 -0.042557195 0.07091879 -0.029127287
0001f0 33 cf 5d bc 6a df b2 bc 63 c1 56 bd ad 3a 80 bc
       -0.01353817 -0.021835048 -0.05243052 -0.015652979
000200 57 fb 58 3d ea 39 0e 3e c2 d3 f4 bd e8 12 ea bc
       0.05297407 0.1388928 -0.11954452 -0.028573468
000210 1d ba d7 bd 56 60 cd bd 37 c6 cd bc d1 64 b1 bd
       -0.10533545 -0.1002814 -0.02511893 -0.08661807
000220 9c aa 42 3d 38 6f 04 3d 21 23 81 3c b5 7f 68 bd
       0.047525987 0.03233263 0.015763821 -0.056762416
000230 7b d6 e4 bc 63 61 3c bd 2e 90 e0 3d 7e a1 3c 3e
       -0.027934304 -0.045991313 0.10965 0.1842098
000240 4f ea b1 3d 16 41 c4 3a 3a 3e 57 bd 08 2d c3 3d
       0.08687269 0.001497301 -0.05254958 0.095300734
000250 86 2e 29 3d f1 29 40 3d de bf 85 bd 1a 24 40 bd
       0.041304134 0.046915 -0.065307364 -0.04690943
000260 cb 55 7a 3d 7d 84 d0 bd 6a 9a d1 bd 20 86 23 bc
       0.061116975 -0.1018152 -0.1023453 -0.009980708
000270 9d 00 6d bd b8 64 b0 3b 8b fb f4 bd b2 b4 ec 3c
       -0.057861913 0.0053831004 -0.119620405 0.028894756
000280 71 14 96 3c 84 ea 6e bd 98 b3 43 3d 53 d5 65 bd
       0.018320294 -0.05832912 0.047778696 -0.056111645
000290 7a d3 cc 3c 01 12 1e bd 26 65 da 3d d2 7e 46 bd
       0.025003184 -0.03859139 0.10663824 -0.04846079
0002a0 d0 bb e1 bd c0 30 1f 3c 36 43 ed 3c 67 b8 9a 3c
       -0.110221505 0.009716213 0.028962713 0.018886758
0002b0 34 f7 dd 3d d3 09 f2 bc a3 91 cf bd cb 8e 9a bd
       0.10838166 -0.0295457 -0.101352 -0.07546767
0002c0 4b d7 7d 3c 7e df 52 3d 13 77 3d bc 01 fc d9 b9
       0.015493224 0.05148267 -0.011564034 -0.00041577223
0002d0 3a 66 ce 3d b6 9d 92 bc 18 e2 26 bd c7 af b4 bc
       0.10078092 -0.017897468 -0.040742964 -0.022056473
0002e0 0e c4 ea 3c 92 54 0c 3e 1c 72 6c 3b 00 bb 34 bd
       0.02865794 0.13704136 0.0036078757 -0.04412365
0002f0 f2 b5 a6 bc 0d 8f b4 bd fe cd fa bd 7b e3 0c be
       -0.02035043 -0.08816347 -0.12246321 -0.13758652
000300 02 74 8c bd a0 30 13 bd d9 62 e2 bd 66 6a aa 3d
       -0.06858064 -0.035935044 -0.1105401 0.08321075
000310 40 c6 99 bd 5d 84 c4 bc 00 d4 e1 3d e1 57 51 bd
       -0.07508516 -0.023988897 0.11026764 -0.0511092
000320 58 a7 08 be 1b 7f af bd ca a7 95 3b 0b 48 d7 3d
       -0.13345087 -0.08569165 0.004567121 0.10511788
000330 a0 4a 6f 3d ca f2 e3 3c 84 59 62 3d d7 63 ea 3d
       0.058420777 0.027825732 0.05526115 0.11444824
000340 fd fb a4 3d fe c5 57 3d 9b ac 90 bd 76 28 8e 3c
       0.080558755 0.052679054 -0.07064172 0.017353278
000350 2b 5d 3c bd f4 62 82 bd ab cb 03 3e 7d 71 82 3d
       -0.04598729 -0.0636653 0.12870662 0.063693024
000360 09 b8 6b bd 5d 24 f3 bb 9d 36 15 3e a2 09 81 bc
       -0.057548556 -0.0074201063 0.14571615 -0.015751664
000370 8b ab b1 3d 0e 01 4a bd fe e9 e3 bd 36 2f 87 bc
       0.08675297 -0.049317412 -0.11128615 -0.016502004
000380 17 ad 3e 3d 27 01 1f 3e 04 30 c4 3d 3c ad 87 bd
       0.04655179 0.15527783 0.09579471 -0.06624839
000390 a0 a2 16 3e 6f 39 88 bd 0c 29 d7 3d 53 5b 02 bd
       0.14710474 -0.066515796 0.10505876 -0.031825375
0003a0 80 28 be 3d 27 2b ce bc 3d 6f 07 bd 2a 1e 85 3d
       0.092850685 -0.025167061 -0.03306507 0.06499894
0003b0 13 98 b1 3c 76 b4 d6 bd db 87 56 3d 10 ee 85 3d
       0.02167896 -0.10483639 0.052375656 0.065395474
0003c0 6d 34 01 be b1 9c c4 3d e3 2c 02 be a1 d1 1f be
       -0.12617655 0.09600199 -0.12712435 -0.15607311
0003d0 64 ba 98 bd c4 97 a6 3b d4 26 35 3d 97 05 c9 bd
       -0.07457426 0.00508401 0.044226483 -0.09815519
0003e0 00 2e cf bc f1 80 93 bd c8 6d 93 3c 8a a6 d2 bc
       -0.02529049 -0.07202328 0.017996684 -0.025714178
0003f0 0f b3 11 bd 70 1a 11 3e d8 9d 69 bd ca d8 59 bc
       -0.035571154 0.14170241 -0.057035297 -0.013296315

weight f4 [60, 100]
000000 a3 dc 9f 3b 7c 94 95 3b a1 ec d0 3c e3 eb ba 3c
       0.004878597 0.00456482 0.025503458 0.022817558
000010 d6 e5 03 3d 81 f7 d1 3d 46 2b f9 bc 7c 5c e9 bc
       0.03220161 0.10252286 -0.030416142 -0.028486483
000020 77 3b 45 bd 1a 0a 79 bd 61 c2 03 3c 15 76 a9 3d
       -0.048152413 -0.06080065 0.008041949 0.082744755
000030 08 8d be 3d d1 5a 17 bc 55 06 85 bc 4c b7 81 3d
       0.09304243 -0.009237961 -0.01623837 0.06333789
000040 41 bf 09 bd 84 4a 50 bd 4a 35 36 bd d2 b7 be bb
       -0.03362966 -0.050852314 -0.044484414 -0.005820253
000050 c3 6b 56 bd 18 94 6c 3d d7 b3 2e bc c0 ab 2b 3e
       -0.052348863 0.05775842 -0.010662994 0.16764736
000060 ef 5b 63 3c 51 ba 06 be 11 7d dc bd 73 73 c0 3c
       0.013876899 -0.13157012 -0.10766042 0.02349255
000070 c2 4d 60 3c 55 29 75 3d 59 ce bb bd 6b a7 8f bb
       0.013690414 0.05985387 -0.09170217 -0.0043839714
000080 13 4b 40 3d 60 19 09 be 4e ec ff 3d e9 c0 be bc
       0.046946596 -0.13388586 0.124962434 -0.023285346
000090 5e d6 37 3d fa 89 dd bc 5d ed 93 3d b9 63 d4 3d
       0.04488217 -0.027043331 0.07223008 0.10370583
0000a0 ea 87 15 bd 59 19 b1 bc 94 52 a8 bd fa 01 8f bd
       -0.03650657 -0.021618532 -0.082188755 -0.06982799
0000b0 7e ab a2 3d 0a 96 91 3d 91 65 d0 3c e7 a4 fe 3d
       0.07942866 0.07108696 0.025439056 0.124337964
0000c0 6c 5d a1 bd 9b 86 a6 3c e7 30 37 bd 5b ac 89 3c
       -0.07879147 0.020327857 -0.04472437 0.016805818
0000d0 af ef 36 bd e9 5a fc bc 8a 01 1d be ba 73 18 be
       -0.044662174 -0.030805068 -0.15332618 -0.14887896
0000e0 20 7d 90 bd 71 3b c5 3d 3d 01 0a 3d 63 fa 04 bd
       -0.07055116 0.09630478 0.033692587 -0.03246535
0000f0 9f 5f 15 bd 20 51 ae 3c cf 53 e9 bd 76 a6 26 3e
       -0.036468145 0.021278918 -0.11392938 0.16274437
000100 7e c8 81 bd 50 0e 27 bd af bc 63 3d 98 b4 97 bd
       -0.06337069 -0.040785134 0.055599865 -0.074074924
000110 7b 41 05 be 20 fc 67 3c 20 69 a8 bd 0f 0f fc 3b
       -0.1301326 0.014159232 -0.08223176 0.007692225
000120 5e bc 04 3d e6 6f 49 3c 16 99 48 bd 68 b9 87 bd
       0.032406203 0.012294745 -0.04897412 -0.0662716
000130 cb eb 98 bd a1 a1 ee 3d 83 62 d0 3d a8 eb 2b bc
       -0.07466849 0.11651922 0.101750396 -0.010493197
000140 2c 90 80 bc 57 8d 31 be a2 ce 87 3d d9 29 57 3d
       -0.015693747 -0.17339073 0.06631209 0.052530143
000150 a9 71 02 be 76 e7 ad 3c 33 bc 8a 3d c3 3b 7b 3d
       -0.1273867 0.021228533 0.067741774 0.06133629
000160 ea 48 10 bd 06 17 c6 3d 0f c8 04 be b7 0b fa 3c
       -0.035225786 0.0967236 -0.12966941 0.030523164
000170 5f 4a ae 3c 9e 73 64 bd 9e 95 94 bd 00 0e 63 3d
       0.021275697 -0.055774324 -0.072551 0.055433273
000180 b6 1e c6 3d 03 cf f8 bd f5 b2 1f bb 26 b6 ae bb
       0.096738264 -0.12148859 -0.0024368141 -0.0053317724
000190 7b 15 e7 bd 0d 84 c5 bd 48 df b2 bc 25 40 a5 bd
       -0.11283394 -0.09644327 -0.021834984 -0.08068875
0001a0 de 49 a7 3d 24 0e 04 bd 17 ac c3 bd 84 6d dd 3d
       0.08168386 -0.032240048 -0.09554308 0.10811904
0001b0 94 83 f8 bc e3 23 00 3d 99 97 09 3e 68 0d 46 bc
       -0.030336179 0.031284224 0.13436736 -0.012088157
0001c0 71 50 80 bd 7c 24 31 3d 31 af a7 bc 70 51 1b bd
       -0.06265343 0.043247685 -0.02046928 -0.03791946
0001d0 4e ef b6 3d 24 14 97 3d 95 aa 41 bc 1b aa 86 bd
       0.089323625 0.073768884 -0.011820455 -0.06575414
0001e0 51 2b 82 bd 25 80 c6 bd 27 a5 85 3d 10 35 09 bd
       -0.06355918 -0.096924104 0.06525641 -0.03349787
0001f0 73 13 7d bc 65 fa 24 3c ad c4 d7 3d 01 04 27 3c
       -0.015446532 0.010069464 0.1053556 0.010193826
000200 c4 74 61 3c a7 c4 16 3d 01 91 43 bd 2f 2b 4a 3c
       0.013760749 0.036808636 -0.04774571 0.012339397
000210 29 93 94 3c 4b e2 de 3d 7e 16 e0 bd f3 8d ec 3c
       0.018136578 0.10883006 -0.1094179 0.02887628
000220 6a dc b7 3c 41 ae 16 3d 98 d4 84 bd 8c 6d 01 be
       0.022443969 0.036787275 -0.064858615 -0.12639445
000230 4a 78 69 3d 5b 07 c2 bd 8a 7e 0a 3e 1e 5b c5 3d
       0.056999482 -0.09474059 0.13524833 0.0963652
000240 03 9d 88 3d 68 01 61 3b 4c 18 7b bd a3 af 6d 3c
       0.066705726 0.0034333114 -0.06130247 0.014507207
000250 53 d4 b9 bd 11 3b b3 bd a3 dd c3 3d f4 27 90 3d
       -0.09073701 -0.087515004 0.09563758 0.070388705
000260 31 92 e5 3a ac 31 c3 bd 83 3b 96 3d e4 69 c9 3d
       0.0017514882 -0.095309585 0.0733557 0.0983465
000270 08 30 13 3e 7a 80 45 bb 30 29 fd bc 20 85 8e 3d
       0.14373791 -0.0030136392 -0.030903429 0.06958985
000280 23 cb d3 bd 81 b4 e4 bd d5 2f a1 3c da cc 04 be
       -0.1034148 -0.11167241 0.019676128 -0.1296877
000290 c3 27 dd bc 42 b2 f8 3d 97 df ca bd 6e c3 f3 3d
       -0.026996499 0.12143375 -0.09905928 0.1190251
0002a0 7f 4a 0c bd 24 db b4 bc 3f 73 31 3d 75 ff 72 3d
       -0.034250733 -0.02207715 0.043322798 0.059325654
0002b0 35 fe a7 bd c1 39 c7 3c f6 b2 b4 bc 57 a6 0c 3e
       -0.08202783 0.024319531 -0.022057991 0.13735329
0002c0 18 3d 77 3b 31 d0 8b bd 94 fe a5 bd b7 b5 c7 3d
       0.0037725624 -0.06826819 -0.081051975 0.09751456
0002d0 55 00 30 bd ac 0f 05 3e 14 cf a5 bd 9f 8e a9 3d
       -0.042969067 0.1299426 -0.08096138 0.08279156
0002e0 e1 3c c8 3c 9f 14 43 3d 02 cd a8 3c e9 47 87 3d
       0.024443092 0.047627088 0.020605568 0.06605513
0002f0 90 76 ab bc 22 ad 31 bd 28 7a d4 3d 70 c2 82 bd
       -0.020930558 -0.043378003 0.10374862 -0.06384742
000300 03 3c c7 3c bd 7b 98 3d 24 39 73 3d 27 8a 13 bd
       0.024320608 0.07445476 0.059380665 -0.036020424
000310 18 58 58 bb 26 2d f1 3d 7e 0a 7c bd 6b 17 d6 3c
       -0.0033011492 0.117761895 -0.061533444 0.026134213
000320 f1 84 ec bd 94 c9 be bd 7d 3b 6c 3c 14 66 56 3d
       -0.11548794 -0.09315792 0.01441848 0.052343443
000330 5e 58 f5 3a c8 4b 12 bd 66 b8 d2 3c f7 c0 14 3e
       0.0018718352 -0.035716802 0.025722694 0.14526735
000340 fe 0c cc 3c ea 07 a2 bc f1 11 33 3d e4 4c 63 3d
       0.024908539 -0.019779164 0.043718282 0.05549325
000350 9c 6c 2c 3d 1b 14 fa bd 69 34 ad bd 2c e9 93 bc
       0.042095765 -0.12210866 -0.08457262 -0.018055521
000360 49 36 10 3d 15 b5 55 bd 13 2e 36 bd 63 f8 47 3c
       0.03520802 -0.052174646 -0.044477534 0.012205216
000370 37 6f 02 3e f8 ce d0 3c 51 8c eb bd 29 3e ed bd
       0.12737738 0.025489315 -0.115013726 -0.11584122
000380 db 3e 2b 3d 69 fa 11 3e 14 13 f7 bc c8 bb 45 bc
       0.04180799 0.1425568 -0.030160464 -0.012068696
000390 fc cb b5 3d ba 24 42 bc 36 b2 5e bc 87 2e 8e 3d
       0.088767976 -0.011849577 -0.0135922935 0.06942468
0003a0 93 85 ab 3d 7e c5 d0 3d 29 bd 3b 3d 5c 4b 13 bd
       0.08375087 0.10193919 0.045834694 -0.03596054
0003b0 ec 72 2e 3d bf 3d 23 bc d3 53 63 3c 4c d0 3a ba
       0.042590067 -0.009963452 0.013874966 -0.00071263756
0003c0 2a 4c 19 bd 87 7d b5 bd 7c ad d0 3d 71 c7 0f 3d
       -0.03742615 -0.08861833 0.101893395 0.03510231
0003d0 6c b5 63 bd 39 17 72 3d 9b 62 a8 bb 7f d0 b3 bd
       -0.05559294 0.059104178 -0.005138708 -0.08780002
0003e0 2d fe d1 bd 2e 63 c0 bd be 92 ca 3d 9c 1d da 3d
       -0.10253558 -0.09393917 0.0989127 0.10650179
0003f0 2a cd 0e bd 46 37 b3 bd f2 fe 2d 3d 77 53 fe 3d
       -0.03486363 -0.08750777 0.042479463 0.124182634

weight f4 [100, 60]
000000 14 39 c6 3d 45 84 1b be 2e 3d 40 3d 56 f7 97 3d
       0.096788555 -0.15187176 0.046933345 0.074202225
000010 7f ec db 3c 17 1d a0 bd a1 fa 31 3d 9a 0e 61 3d
       0.026846169 -0.078180484 0.04345191 0.054945566
000020 fa 5d 59 bd ab bd 65 bd dc 39 26 3c bf 5c 82 3d
       -0.05306814 -0.056089085 0.010145631 0.06365346
000030 63 10 a9 3d 09 98 6d bd 3d dc 1a 3d 1e db 23 bd
       0.08255079 -0.05800632 0.03780769 -0.04000389
000040 d5 b0 05 be 05 49 98 3d b3 5d bf 3d 14 b6 9d 3d
       -0.13055737 0.07435802 0.093440436 0.07700744
000050 8d f7 1e bd a0 7e ae bd e2 8c 5a bc ac 51 1d 3e
       -0.0388103 -0.085202456 -0.013339253 0.15363187
000060 c4 bc a2 bc 89 b3 2e 3c a4 87 8a bb c1 7e 2f 3b
       -0.019865401 0.010662922 -0.0042275954 0.0026778432
000070 3a e8 27 3d c4 92 57 bd 95 e8 f2 3b 53 81 db 3c
       0.040992953 -0.0526302 0.00741298 0.026795065
000080 d7 91 bd bd 9b db d1 bd ff 2f f2 bd 5b e2 ea 3d
       -0.09256332 -0.102469645 -0.11825561 0.11468955
000090 9a 49 48 bd 87 99 f4 3d f0 07 bc bd 6c d6 6e bb
       -0.048898317 0.119433455 -0.091812015 -0.0036443723
0000a0 2a ee d0 3d 20 3a 16 3e 5e 04 ec 38 fc 50 cd bc
       0.10201676 0.1467061 0.000112541704 -0.02506303
0000b0 2e 15 02 3b 02 97 11 be a5 bf 36 be 9d c5 21 bd
       0.001984905 -0.14217761 -0.17846544 -0.0394951
0000c0 e4 07 0f be ed b1 df bd f7 67 69 3d 6f ff 38 3e
       -0.13967854 -0.109226085 0.056983914 0.1806619
0000d0 ab f4 a5 bd 7d af 52 3d 5b 66 c7 bc 45 7a b7 3c
       -0.08103307 0.05143689 -0.0243408 0.02239717
0000e0 b1 b6 84 3d 8b 92 1b 3e 22 e8 4c bb 3e 1f 9c bd
       0.06480158 0.1519262 -0.0031266292 -0.076231465
0000f0 32 36 44 3a 41 4d 83 3d 3b 05 b3 bd 85 8e 25 be
       0.00074848824 0.064112194 -0.08741232 -0.16167648
000100 6b 1f ad bd 74 09 f6 3d 6f 8d 08 be de f6 e7 bc
       -0.08453258 0.12013522 -0.13335203 -0.028315958
000110 aa 6f b6 bd c4 55 28 bd 3d c4 fa 3c 73 d7 92 bd
       -0.08908017 -0.041097417 0.030611152 -0.0717
000120 ac e2 2d 3d b8 ac a2 3c 34 45 a9 bd e1 2e e2 bc
       0.0424525 0.01985775 -0.082651526 -0.027610244
000130 e0 f8 0d be c4 21 44 bd 04 35 d0 3d 9b 4a 56 bd
       -0.1386447 -0.047883764 0.10166362 -0.052317243
000140 34 98 99 bd 8a 71 84 bd 88 fa d2 bd f4 37 35 3d
       -0.074997336 -0.06466968 -0.10301691 0.044242814
000150 64 61 49 bd 57 56 54 bd ac 4f 8d bd 58 8a bf bd
       -0.049165145 -0.051840153 -0.06899962 -0.09352559
000160 b1 20 bd bd d0 81 c6 bd 06 42 80 bd 2f a9 02 3d
       -0.09234751 -0.096927285 -0.06262593 0.031899627
000170 44 a7 c7 bd 56 38 9f bb 63 4c 05 3e e7 15 06 3e
       -0.097487 -0.0048590107 0.1301742 0.13094293
000180 d3 1b 11 be 60 6c 22 3e 0b 2f fa bd eb 4a 0a 3d
       -0.1417077 0.15861654 -0.12216004 0.033762854
000190 75 fe d6 3c 42 8c 59 3e 35 8d fa 3c 57 77 33 3e
       0.026244381 0.2124491 0.03058491 0.17525993
0001a0 09 22 4e 3e 24 9e 09 be 06 06 65 bc 65 c8 51 bb
       0.20130171 -0.13439232 -0.013978487 -0.0032010314
0001b0 fe ca 90 3d b7 86 05 be ed 2a da 3d 2f 01 8b bd
       0.07069968 -0.13039671 0.10652719 -0.06787335
0001c0 9c 6a de bd 33 28 8d 3d 1d bc cc bd 2b 1e 8e 3d
       -0.10860178 0.06892433 -0.09996817 0.06939348
0001d0 15 fa 8b bd 20 6b 58 bd f4 85 30 be 2c 6a 11 3e
       -0.06834809 -0.052836537 -0.17238599 0.14200658
0001e0 55 29 61 39 cf dc 98 3d 51 4d 86 3c 5c 1d b9 3d
       0.0002147307 0.07463991 0.01639429 0.09038803
0001f0 83 ca d8 3b 1a 11 3d 3b fc 56 20 3d 62 55 28 be
       0.006615938 0.0028849305 0.039145455 -0.16438821
000200 56 79 b0 bd da 12 ee bd f6 38 84 bd f0 a9 2b bd
       -0.08616893 -0.116246894 -0.06456177 -0.041910112
000210 c4 ed 2c bd 73 48 f2 3d e2 a9 a4 3d 80 20 4a 3d
       -0.04221894 0.11830225 0.08040215 0.0493474
000220 25 71 05 3e 06 95 2d be 33 5a 08 be e5 63 74 3d
       0.13031442 -0.16951379 -0.13315658 0.05966558
000230 ac d4 62 3d 1e 6d e7 3d ec db 5e bd 68 ce 96 bd
       0.0553786 0.11300109 -0.054408953 -0.073635876
000240 3b 91 eb 3c 7f 8e a5 3b 58 29 b2 3d 13 33 65 3d
       0.028755775 0.0050523872 0.08699292 0.05595691
000250 c9 d0 26 be 9c 2f 1b bd 20 93 b5 3c 4f c1 cb 3d
       -0.16290583 -0.0378872 0.022164881 0.0994898
000260 8d 73 ec 3d e9 3a 0e 3d 46 ad 35 bd d1 c5 29 be
       0.11545477 0.03472415 -0.0443547 -0.16579367
000270 80 41 75 bd 07 c4 db 3c 94 17 fb 3d 49 09 69 bd
       -0.05987692 0.026826872 0.122603565 -0.05689362
000280 06 4e 9d 3d 01 3e ad bd e0 2a 49 3d b0 39 1a be
       0.076808974 -0.08459092 0.049113154 -0.15061069
000290 09 00 5f bd e3 a0 e9 3d 4a 64 63 3c 8d 54 a1 3d
       -0.054443393 0.1140764 0.013878891 0.07877455
0002a0 92 29 b2 bd fb f4 c3 3d 4f 3f 51 bc 85 2c 01 be
       -0.08699335 0.09568211 -0.012771442 -0.12614639
0002b0 65 60 ec bd ef da 84 3c 8d 2a 11 3e 76 0e 34 3d
       -0.11541823 0.016217677 0.14176388 0.043959104
0002c0 c6 c7 cd 3d 4a ae 22 bd 7b 09 92 bd f0 57 c5 3c
       0.100478694 -0.039716996 -0.071307145 0.024089783
0002d0 2c 4d 13 be 3c 62 9b 3d d7 48 ed 3d 59 29 0e 3e
       -0.14384907 0.07587096 0.11586159 0.1388296
0002e0 46 94 36 be d1 b9 ab bd a5 0c 39 3d 68 8b a2 3b
       -0.1783 -0.08385051 0.045178074 0.004960466
0002f0 b8 c1 24 3d 60 7e 34 be ef bb 31 bd 47 6f c6 bd
       0.040223807 -0.17626333 -0.043392118 -0.09689193
000300 b3 7e f6 bc b1 7c 01 3e 22 0e a9 bd 40 f8 08 3d
       -0.030089712 0.12645222 -0.08254649 0.033439875
000310 b0 c3 44 bd 8e aa 97 3c 2d 6d 5b bd ca 58 0b 3d
       -0.048038185 0.018513944 -0.053570915 0.034020223
000320 25 39 12 3e c6 0d 87 bd eb 7f c4 3a 02 c5 0e 3d
       0.14279611 -0.06594424 0.0014991736 0.03485585
000330 7e a1 0c 3e ab c7 0d bd 33 9a b0 3c a5 8c 01 3e
       0.1373348 -0.034614246 0.021557903 0.12651308
000340 a4 9d 98 bd 4f 47 1a bd ca f6 28 bd 48 6d cc 3d
       -0.074519426 -0.03766566 -0.04125098 0.09981781
000350 f5 75 c1 3d 06 86 5e 3d 9c 8b 8a bd 88 59 92 bd
       0.09446327 0.054327033 -0.067649096 -0.07145983
000360 42 92 fd bc b4 a2 2c be 87 29 29 3d f6 a8 08 3e
       -0.03095353 -0.16858941 0.04129937 0.13345703
000370 98 6a dc bd a2 87 74 bc fc 93 15 3e e0 1a b1 3c
       -0.10762519 -0.0149249155 0.14607233 0.02161926
000380 48 cd 1b bd 58 e8 37 bd e1 bb f6 3d 59 a2 00 be
       -0.03803757 -0.044899315 0.12047554 -0.1256193
000390 9d c9 ae bd 37 38 ff 3d cf c9 a9 bc 46 66 7a 3d
       -0.085345484 0.12461894 -0.020726113 0.06113269
0003a0 7b 64 01 bc f7 88 1b bc 00 49 d3 3d b9 75 6b bc
       -0.007897492 -0.009493104 0.10316658 -0.014371329
0003b0 cb 59 e4 3d 40 a4 32 bd 59 ef 05 bd 25 13 7a 3c
       0.11149939 -0.043613672 -0.032698963 0.0152633535
0003c0 8d aa e2 3d a9 4d a2 3d 2d 5a 18 3e 18 52 e6 bc
       0.11067686 0.07924969 0.1487815 -0.028115317
0003d0 dc 69 e9 bd 25 72 cb bd 25 7f 10 3e b4 d8 e1 bd
       -0.11397144 -0.09933881 0.14111002 -0.11027661
0003e0 fc e5 83 3d aa 5e 39 3c 2e 3e dc 3c 28 0a b4 bd
       0.064403504 0.011314074 0.026885118 -0.08791
0003f0 51 5d 80 bd 2f 69 ca 3d e0 8a 5a 3a d3 89 d5 bc
       -0.06267799 0.098833434 0.0008336734 -0.026066696

weight f4 [100]
000000 a3 0d 80 3f ae bd 80 3f 05 57 77 3f d1 41 79 3f
       1.0004162 1.0057886 0.96617156 0.9736605
000010 3a 7d 84 3f 50 80 77 3f 29 9e 7c 3f f6 49 78 3f
       1.0350716 0.96680164 0.98678833 0.96987855
000020 72 2d 7b 3f e7 c0 75 3f 4d fa 82 3f 84 fc 75 3f
       0.9811622 0.9599747 1.0232636 0.96088433
000030 b9 cc 81 3f 01 ce 7b 3f 14 df 7d 3f c0 84 7f 3f
       1.0140601 0.9836121 0.99168515 0.99811935
000040 e3 f4 81 3f 2f a5 76 3f 14 66 85 3f 97 d4 84 3f
       1.0152858 0.963458 1.0421777 1.0377377
000050 a1 10 88 3f d6 e6 7a 3f 9b 66 81 3f f2 b1 83 3f
       1.0630075 0.9800848 1.0109438 1.028868
000060 92 3b 86 3f 54 10 7b 3f b7 07 7d 3f 90 17 7d 3f
       1.048693 0.9807179 0.98839897 0.9886408
000070 39 c8 76 3f 71 57 84 3f 08 ed 80 3f f4 e2 86 3f
       0.96399266 1.0339185 1.0072336 1.0538011
000080 ca 14 82 3f fa c4 7c 3f a7 10 82 3f 9d 0b 80 3f
       1.0162594 0.9873806 1.0161332 1.0003544
000090 fd e9 79 3f ae 96 78 3f 9a a4 82 3f f4 bb 7e 3f
       0.9762266 0.9710492 1.0206482 0.99505544
0000a0 82 d5 82 3f c0 10 79 3f fa 8f 81 3f bf 79 80 3f
       1.0221407 0.97291183 1.0122063 1.0037154
0000b0 b9 43 76 3f bb 01 84 3f 09 d9 82 3f 81 4f 83 3f
       0.96197087 1.0313028 1.0222484 1.0258638
0000c0 ca 1b 81 3f c4 04 81 3f 20 94 7c 3f 68 29 70 3f
       1.0086606 1.0079579 0.9866352 0.9381318
0000d0 bb c1 77 3f ee a9 80 3f 3d 37 88 3f a6 59 7d 3f
       0.96779984 1.0051858 1.0641857 0.9896492
0000e0 54 fb 76 3f 7c 0b 84 3f ee 61 83 3f e5 64 81 3f
       0.96477246 1.0316005 1.0264261 1.0108916
0000f0 2b c7 85 3f d7 71 80 3f 8f 21 84 3f e5 81 79 3f
       1.0451406 1.0034741 1.0322741 0.9746383
000100 5b 71 84 3f c3 c0 7b 3f 0b 38 80 3f 81 41 80 3f
       1.0347093 0.98341006 1.0017103 1.001999
000110 a4 6e 74 3f 9f 08 80 3f b5 bc 7f 3f 84 30 7e 3f
       0.95481324 1.0002631 0.9989732 0.9929278
000120 26 a3 82 3f 12 92 80 3f 0a 0e 81 3f de 09 76 3f
       1.0206039 1.0044577 1.0082409 0.96108806
000130 f4 c0 80 3f 04 8a 81 3f 2b 14 85 3f 97 30 79 3f
       1.0058885 1.0120244 1.039678 0.9733977
000140 85 df 85 3f b3 fc 81 3f 90 59 7b 3f bd 83 7f 3f
       1.0458838 1.0155243 0.98183537 0.9981039
000150 ea 92 84 3f e7 ab 7e 3f 80 fb 84 3f a0 9b 7e 3f
       1.0357335 0.9948105 1.0389252 0.99456215
000160 77 06 7f 3f fa f0 85 3f 8e 3e 74 3f fa ae 7a 3f
       0.9961924 1.0464165 0.9540795 0.97923243
000170 66 8a 7e 3f 47 f2 72 3f 8f 30 7a 3f 62 f0 85 3f
       0.9942993 0.94900936 0.97730345 1.0463984
000180 39 f7 77 3f a4 2f 80 3f 7e d0 76 3f cd 5a 82 3f
       0.96861607 1.0014539 0.96411884 1.018396

bias f4 [100]
000000 68 e4 51 bb 19 1a 1b bc 33 db 77 bb 65 04 b8 bc
       -0.003202701 -0.009466671 -0.0037819862 -0.022463033
000010 4a de 54 bc 9f 82 3a 3d 47 c5 8e bc 7a 46 b0 bc
       -0.012992451 0.045534726 -0.017428054 -0.02151798
000020 a7 24 de bb 87 19 72 bc 23 ed 43 bd 27 f4 15 bd
       -0.0067792716 -0.014776594 -0.047833573 -0.036609795
000030 f6 61 b2 3c 99 6d 6b 3d 77 b7 f1 bc 08 46 53 3d
       0.021775227 0.057477567 -0.029506428 0.05158046
000040 cc 8c d9 3c dd cd 68 bc 98 84 5d bb 5a 9c 4b 3d
       0.026556395 -0.014209238 -0.0033800956 0.049709655
000050 bf c4 b5 bc 09 4e 2b 3c 2c 91 39 3d 23 b5 5c ba
       -0.022188542 0.010455617 0.045304462 -0.00084193255
000060 95 ef af 3c db 43 2f bd 1a 29 44 bd c7 e2 5b bb
       0.021476546 -0.04278932 -0.04789076 -0.0033551918
000070 3f bf 8b bc 45 e8 9a bc 93 54 32 bd 58 f8 5c bd
       -0.017058967 -0.018909583 -0.043537688 -0.053947777
000080 88 38 66 3c 76 a1 0d 3d 7d 65 85 3c a1 79 4e 3d
       0.014051564 0.03457781 0.016283745 0.050408963
000090 f0 ea 4c 3d 55 f4 0f 3d e9 75 9b 3c 3b 20 d4 bc
       0.05002874 0.035145123 0.018977122 -0.025894275
0000a0 26 04 3d 3b 57 be 52 bc 20 e5 d0 3b d8 07 72 bd
       0.0028841584 -0.012862763 0.00637497 -0.05908951
0000b0 28 c8 54 3d d9 90 2c 3d 0c 88 18 bd 2a 75 5a bd
       0.051948696 0.042130325 -0.03723912 -0.053334393
0000c0 13 4e 4e 3d be 3a 4a 3c 05 57 fa 3b d8 a2 3f 3d
       0.050367426 0.012343107 0.007639768 0.04678616
0000d0 1c 9b a6 3c b2 91 c2 3a 2a 7c 37 bd 9c ad 51 bd
       0.020337634 0.0014844446 -0.044796146 -0.051190957
0000e0 08 dd 00 bd 34 9e 40 3d fd ce b6 ba be 05 14 3c
       -0.03146079 0.047025874 -0.0013947185 0.009034572
0000f0 d4 b6 24 3d 5e 2e 96 3b 8b 9d 3c 3b a8 be 3c 3d
       0.04021342 0.004583164 0.0028780426 0.04608026
000100 ea d7 3a 3d f5 d0 92 bc 41 b4 05 bd 6b 29 58 3c
       0.045616068 -0.017921904 -0.032642607 0.013193469
000110 46 e3 a1 3b d5 3f 00 3d 5b 7d e9 bc c5 23 82 3b
       0.004940423 0.031310875 -0.028502157 0.003971549
000120 9f 54 59 ba 01 23 59 3b f3 10 4f bd dc 14 10 bd
       -0.00082905026 0.0033132436 -0.050553273 -0.035176143
000130 e5 f1 cb 3c 44 be 4f 3c 4c 21 5a b8 25 b4 05 3b
       0.024895618 0.01267964 -5.200626e-05 0.0020401564
000140 3d 25 4d 3a ee 82 5b bc ea ad 3c 3d ad 8c d2 3c
       0.00078256783 -0.013397915 0.046064295 0.025701845
000150 25 9d f9 ba e8 3f 3c bd 36 34 65 3d 73 72 81 bd
       -0.0019044025 -0.045959383 0.055957995 -0.063206576
000160 05 d1 c4 39 5c b4 92 3b 34 ab 86 bc cb 88 13 bc
       0.00037539765 0.004477067 -0.016439058 -0.009004782
000170 98 7d 98 3c 3f d6 4b bd b5 4f 12 bd 3e 38 3f 3d
       0.018614575 -0.049764868 -0.035720546 0.046684496
000180 e2 82 cc 3c 4a 4c 7e bb d6 fb ee 3b dc 0a 08 3b
       0.024964754 -0.0038802796 0.007293205 0.0020758426

running_mean f4 [100]
000000 14 38 53 3e 23 7c 95 3d 3d ae 6f c0 94 30 77 c0
       0.20626861 0.07299068 -3.7450097 -3.86234
000010 70 33 ff bf e3 35 ff 3f 74 3d dd bf cb 54 35 3e
       -1.9937572 1.993832 -1.7284379 0.17708127
000020 0e 62 85 40 f0 81 7c 3f 3e d3 38 c0 50 5f b2 bf
       4.1682196 0.9863577 -2.8878932 -1.3935337
000030 70 73 48 40 c0 d5 93 3f 86 d9 b6 bf 6f f7 c5 3f
       3.1320457 1.1549606 -1.4285133 1.5466136
000040 20 6d 75 40 fd 63 03 c0 6f 26 c4 bf 2a 7c 7f bf
       3.8347855 -2.0529778 -1.5324229 -0.99798834
000050 95 a3 60 c0 31 67 03 40 61 3e 03 bf c8 93 c1 bf
       -3.5099843 2.0531733 -0.5126706 -1.5123224
000060 d3 ba 31 40 2d 89 f2 bf 19 39 14 c0 52 77 23 c0
       2.7770278 -1.8948113 -2.315985 -2.5541577
000070 74 ac 92 c0 a0 22 91 bf 2d bc 73 c0 df f8 8b c0
       -4.5835514 -1.1338692 -3.8083603 -4.37413
000080 55 05 b9 bf de 29 af 3f 67 ed 58 40 45 a4 bb 3f
       -1.4454752 1.3684652 3.38949 1.4659506
000090 c9 02 42 40 71 aa 6b 40 b9 f5 06 40 b3 1c fc bf
       3.03142 3.682278 2.1087477 -1.9696258
0000a0 a0 2f 9b c0 b5 01 bc 3f 35 47 87 3f 37 e5 7e c0
       -4.8495636 1.4688021 1.0568606 -3.9827402
0000b0 ec 5a ea 3f f6 10 04 40 a0 63 43 c0 3a 7f 18 c0
       1.8308997 2.0635352 -3.0529556 -2.3827653
0000c0 aa b4 a5 3f b2 72 1b 40 63 9e a4 bf 2f 08 0f 40
       1.2945759 2.4288754 -1.2860836 2.2348745
0000d0 57 f6 ee be 8f 04 94 40 46 bd 9d 3f 3d 49 74 c0
       -0.46672317 4.6255565 1.2323387 -3.81697
0000e0 f0 ad 19 c0 b7 55 07 bf 86 ed 29 40 b0 7c 22 40
       -2.4012413 -0.52865165 2.6551223 2.5388603
0000f0 9e 10 80 40 f5 57 0b 40 b8 16 1c c0 b5 0b 89 40
       4.0020285 2.1772435 -2.4388866 4.282679
000100 55 35 36 bf 1c 63 e3 bf 90 cc bb bf 69 cd 1f c0
       -0.7117513 -1.7764621 -1.4671803 -2.4969122
000110 7c 5a 3a c0 68 6d 3a 40 88 fb 3f c0 32 1e 29 c0
       -2.9117727 2.9129276 -2.9997272 -2.642468
000120 26 8a 88 40 b3 5a 4a c0 29 be 40 bf 22 e9 58 c0
       4.266864 -3.1617858 -0.7529016 -3.3892293
000130 4f 35 3c 40 01 07 42 40 55 d9 64 40 8e c2 4c bf
       2.9407537 3.0316775 3.575765 -0.79984367
000140 d0 fb 81 c0 00 9f dc bf 18 73 99 40 eb 49 db bf
       -4.061989 -1.7236023 4.7952995 -1.7131933
000150 a3 16 8d c0 ad 92 ce 3f 22 d1 88 40 46 89 4d c0
       -4.4090133 1.6138512 4.275529 -3.2115035
000160 b3 3f 71 c0 1e c3 8e bf 5f 3f 6d 40 a5 d9 11 40
       -3.769513 -1.1153295 3.7069929 2.278909
000170 e1 39 67 40 8b cf 4c c0 60 32 33 c0 f9 d6 9e 40
       3.6129076 -3.2001674 -2.7999496 4.963742
000180 55 c7 52 c0 c9 20 28 bf c6 9a a4 bf dd 0f 5e 40
       -3.2934163 -0.65675026 -1.2859733 3.4697182

running_var f4 [100]
000000 cc ff 49 40 1a 74 80 40 0c 11 06 41 14 b0 2c 41
       3.1562376 4.0141726 8.379162 10.792988
000010 38 9f 58 40 35 51 83 40 47 4d b8 40 00 99 17 40
       3.384718 4.103663 5.7594333 2.3687134
000020 6f 13 45 41 28 b2 72 40 c1 ff d9 40 8d 5e 9a 40
       12.317245 3.7921238 6.81247 4.824042
000030 ed ad e4 40 57 31 45 40 d3 95 90 40 40 e6 24 40
       7.146231 3.0811365 4.518289 2.5765533
000040 ce 15 40 41 75 50 94 40 49 9f ae 40 ca c0 59 40
       12.005323 4.6348214 5.456944 3.402392
000050 ca 11 2b 41 a3 18 af 40 3d 94 ca 40 a6 a9 94 40
       10.691843 5.4717574 6.3305955 4.645709
000060 0e da 8e 40 30 be bd 40 7a c0 e9 40 c5 0b c0 40
       4.464118 5.9294662 7.3047457 6.0014367
000070 89 00 2b 41 7d c2 57 40 36 cc 0c 41 88 67 5c 41
       10.687631 3.3712456 8.799856 13.775276
000080 2e 58 c7 40 69 e2 7b 40 53 5a bf 40 53 ba c7 40
       6.229514 3.935694 5.979776 6.2414947
000090 08 ca fb 40 3b 2b 09 41 d6 bd 87 40 58 27 a2 40
       7.868412 8.573054 4.2419233 5.0673027
0000a0 29 0c 6c 41 52 3a 8c 40 2a 47 85 40 9d a8 15 41
       14.752969 4.382119 4.164937 9.353665
0000b0 10 64 bd 40 04 13 b4 40 9d d2 05 41 a4 af fc 40
       5.9184647 5.6273212 8.363919 7.8964405
0000c0 84 68 c2 40 8a 10 e5 40 8e 29 6e 40 3c 63 93 40
       6.0752583 7.158269 3.7212863 4.6058636
0000d0 b0 c3 92 40 69 f7 3d 41 2e 06 bd 40 0d 89 01 41
       4.5863876 11.872903 5.9070044 8.09596
0000e0 11 11 a1 40 aa ee af 40 93 f6 e2 40 46 a7 06 41
       5.0333333 5.497884 7.0925994 8.415838
0000f0 6e fa 2b 41 d7 6a 9a 40 2d d2 7d 40 8e 54 29 41
       10.74864 4.825542 3.965953 10.583143
000100 a8 92 37 40 a6 87 69 40 ce cb e5 40 aa 4c f4 40
       2.8683262 3.6489043 7.1811285 7.6343584
000110 d6 c3 f9 40 7c 18 c2 40 0b 50 cf 40 a3 0d 25 41
       7.8051558 6.065489 6.478521 10.315829
000120 5e 27 4a 41 e0 66 e2 40 98 e9 85 40 ae a4 f3 40
       12.634611 7.075058 4.184765 7.6138525
000130 82 8f f2 40 64 cc cf 40 fd 16 f5 40 cd a9 93 40
       7.580018 6.4937 7.659056 4.6144776
000140 e4 69 36 41 da df 67 40 a3 20 3a 41 3f dd 85 40
       11.400852 3.6230378 11.632968 4.1832576
000150 cf d2 21 41 d3 f6 9d 40 0e d1 2b 41 11 f2 ee 40
       10.113967 4.93638 10.738539 7.467049
000160 ac 2c 28 41 e6 8f 93 40 a3 1e 13 41 56 1e bb 40
       10.510906 4.6113157 9.19498 5.847453
000170 0e 71 12 41 9f 0f 17 41 33 83 f6 40 58 0f 84 41
       9.152601 9.441314 7.7035155 16.507492
000180 74 58 3f 41 78 17 30 40 8f 12 a3 40 b2 37 18 41
       11.959095 2.7514324 5.0960155 9.5135975
