transformer_results_random_no_constants_no_param_tune/performance_prediction/DE-GA-ES-PSO_random_no_constants_dim_3_samples_50_fold_6_budget_30_n_heads_2_n_layers_1_d_model_100_d_k_30_d_v_30_aggregations_mean/trained_model_dict.pt (torch, 337211 bytes, 22 tensors)

W_P.weight f4 [100, 4]
00000000: 880b bdbe c634 d4bd ea56 b53e 9e61 4c3e
00000010: 8bdd f9bd d4ae 043e 66ee 1a3b 2768 f03d
00000020: 5e41 aabd 145c fcbd 071b 9a3e de4f da3e
00000030: 3e68 b03d 006b dcbe 33e4 94be 97c3 3a3d
00000040: d2fd 933e 708c ad3d 223f 523e 88b1 a63a
00000050: 52d5 103e 9915 2b3e f2f4 ea3e 32ca dcbd
00000060: 5f63 9cbe 7012 b43c 46c7 f3be 7daa cebe
00000070: 015f 923e f120 b63c bf45 0abe 6aa3 de3e
00000080: cabc cebe d445 ce3e 5e2b c7be fc31 df3e
00000090: 5bab 9b3e d52f 013e 35c5 8e3e 2920 27bf
000000a0: b826 a93d 5122 10be c0c2 063e 39c1 52be
000000b0: fc5f 64be 8f79 e13d 4851 833d 286e c43e
000000c0: 4bb7 7bbe d2c7 af3e a01a f7bc d445 0f3e
000000d0: 1d0b 543e 799e 033e 936f 963e 5c2b 86be
000000e0: 905a 42bc 9c59 953d 2404 b3be f435 a13e
000000f0: 28da fa3c 2f73 613e 7fab 893e 3b2d 073f
00000100: b6a1 08be e83c 823e 1b96 d43e 7015 133f
00000110: 5b85 ce3d 0a7d af3e e16a 8a3e 6038 9d3e
00000120: a474 6c3e 3b56 93be dda0 97be f6e4 b4be
00000130: e831 82be 8861 d73e ef91 583e 1e36 263f
00000140: 14a6 b23e 9eff 943c 2400 323e 0def dcbe
00000150: fc6d 463e 1aba 38be a10d 9a3e 988e 413e
00000160: 025d e93e 9f19 b03e e8f8 aabd e16e 0c3f
00000170: c7e1 6b3e 31c2 b039 cec7 343e e7a2 a03e
00000180: 1411 393d 1654 e33e 9317 e9bc 8b05 06bf
00000190: 6d2f 85be 22c3 e2be 9b78 5dbe 5149 20bf
000001a0: e15a af3e 6295 5fbe 8061 cabd ab42 0ebc
000001b0: 7595 c43d 23ee 64be eff0 1dbe b131 893e
000001c0: 2ce8 52be f66c 073d 477b 543e a67f 8bbe
000001d0: dfe6 6cbe 98b1 e83e 76da e8be fca3 473e
000001e0: 60ea 153e 8813 93be 8592 653e 2db5 e1be
000001f0: db82 7cbd ec98 26bb 3051 3f3e d81a aebd
00000200: 6b3c efbe dc28 c6be 4e6a 893e 86da 383e
00000210: 6822 863d 3d33 c8be 1ffd 313d 3342 153f
00000220: be27 7ebe f4ae bfbe 3c5f 1e3e 87b8 613e
00000230: 3a68 b23d 3aa0 cb3c f08f 85be 94a4 043f
00000240: 2d28 d03e b4b0 e7bd 01b2 21be 0752 13bf
00000250: 6abe c6bd 8402 cc3e f349 d0be 3456 2b3f
00000260: eb2f 49be f28a 85be 585b 10be 2e23 a63d
00000270: 768f 51be 71f6 573e 9b80 90be 91aa ba3e
00000280: 3873 f7bd f3c9 debe 6c28 fabd 1432 213e
00000290: 6a54 a5bd 652c 69be 1862 973e 929c 2e3f
000002a0: dd3a b5be 1d65 c0be 7756 ce3e a933 003f
000002b0: e666 03be 236a e43e 92ec 9abb ffcf ebbe
000002c0: e034 04be a7a0 3c3e fd2f 19be 3443 243f
000002d0: c35a 793e b342 eabd 570a 3ebb 46c4 8fbe
000002e0: b93a c33d bea7 dcbe cab6 cd3e 7bca b4be
000002f0: 6b18 8a3e e2a2 5bbc 4863 e53e 1a81 ddbe
00000300: 1ff2 633e 7ecb 593d 1f42 62be de90 01bf
00000310: d781 a6bc ae5a 4d3d 6797 ebbe 1950 1bbf
00000320: 4776 82be 4d4a ac3d c8ea 9cbe 84f3 813e
00000330: e83a 98be 1d25 dbbe 83d8 b43e 6ef8 203f
00000340: cb4e 813e a7f5 bebd 05ae 4cbe f5d7 d0be
00000350: 29f9 acbc 78da b5bd d1e0 76bd ba96 9d3e
00000360: e353 673e 6768 7abe abe1 b83e bc8b 483e
00000370: 5bd6 b6be f934 7d3e cbd0 493d 7ab0 b3be
00000380: f8c0 8dbe 22eb c5be f9a0 c2be 2bc5 923d
00000390: 5ff1 923d cd56 d83e 6069 6d3e f3fa d83e
000003a0: c05c ca3e 7730 793e 6b57 733d 2f47 7dbe
000003b0: 4738 693d 715f 94be 7482 85be 95d5 3a3d
000003c0: 6cde 063e 36e2 62be 9522 bd3e 1c5c d5b9
000003d0: 8e4f 543e 357e d33d 3a63 4b3d 003e ffbe
000003e0: 13c9 40bd 5a94 003e e2f4 28bd ce11 513e
000003f0: 9de2 963d 2373 ccbe 7f5f 84be d3ce 2a3f
-0.3692286 -0.10361628 0.35417873 0.19959113 -0.12200459 0.12957317 0.0023640632 0.117386155
-0.08313249 -0.1232225 0.30098745 0.4263906 0.086136326 -0.43050385 -0.29080352 0.045596685
0.28904587 0.08474052 0.20531896 0.0012717703 0.14143875 0.16707458 0.45890003 -0.10780753
-0.30544564 0.021981448 -0.4761297 -0.40364447 0.28588107 0.022232505 -0.13503169 0.4348405
-0.4037841 0.4028765 -0.38900274 0.43592823 0.3040417 0.12615903 0.27884832 -0.6528345
0.08259338 -0.1407559 0.13160229 -0.20581521 -0.2230224 0.110095136 0.064119875 0.38365293
-0.2458164 0.34332138 -0.030164063 0.13991481 0.20707364 0.12853421 0.29382 -0.26204956
-0.011862412 0.07292482 -0.34964097 0.31486475 0.030621603 0.22016595 0.26888654 0.5280339
-0.13342938 0.25437093 0.4152077 0.57454586 0.10084029 0.34275085 0.27034667 0.30707073
0.2309137 -0.28776726 -0.29614916 -0.35330933 -0.254287 0.42066598 0.21149419 0.64926326
0.34892333 0.018188294 0.17382866 -0.4315113 0.19377893 -0.18039742 0.30088523 0.18902051
0.45578772 0.34394547 -0.08348256 0.5485669 0.23035346 0.0003371402 0.17654344 0.31374285
0.045182303 0.4440009 -0.028453624 -0.5235221 -0.26012745 -0.442895 -0.21628039 -0.6261187
0.34249023 -0.21834329 -0.09881878 -0.008682887 0.09598819 -0.22356467 -0.1542394 0.26795724
-0.20596379 0.033062898 0.20750152 -0.27245826 -0.23134945 0.45447993 -0.45479172 0.19496149
0.14640188 -0.2872584 0.22419174 -0.4408354 -0.06164823 -0.0025420738 0.18683314 -0.08501214
-0.46725783 -0.38703048 0.26838917 0.1805211 0.06549531 -0.39101592 0.043454286 0.58304137
-0.24819848 -0.37438166 0.15466017 0.22043048 0.08711286 0.024856675 -0.26086378 0.51813626
0.40655652 -0.11313 -0.1579056 -0.5754704 -0.09704287 0.3984567 -0.4068142 0.6692841
-0.19647186 -0.2608257 -0.14097345 0.08112179 -0.20464882 0.21090104 -0.28223118 0.36458257
-0.12082523 -0.4351345 -0.12214741 0.1574176 -0.08072741 -0.22770841 0.29567027 0.6820766
-0.35396472 -0.37577143 0.40300342 0.5007883 -0.12832221 0.44612226 -0.0047279084 -0.46057126
-0.12910795 0.18420659 -0.14959712 0.64165044 0.24351029 -0.11438503 -0.0028997862 -0.28079432
0.09532685 -0.43096727 0.4017852 -0.3531073 0.26971754 -0.0134055335 0.44802308 -0.4326256
0.2226033 0.05317258 -0.22095536 -0.50611675 -0.020325584 0.050135307 -0.46013948 -0.60669094
-0.25480863 0.08412609 -0.30647874 0.253811 -0.29732442 -0.42801753 0.35321435 0.62879074
0.25255427 -0.09324198 -0.19988258 -0.40789762 -0.021114903 -0.0887956 -0.060272995 0.30779058
0.22590594 -0.24453889 0.3610967 0.19584554 -0.35710415 0.24727239 0.049271386 -0.35095578
-0.27686286 -0.38655955 -0.38013437 0.07166513 0.07174944 0.42253724 0.23184729 0.4237896
0.39523888 0.24334894 0.05940954 -0.24734186 0.056938436 -0.28979066 -0.2607609 0.045613844
0.13170785 -0.22156605 0.36940446 -0.00040695153 0.20733473 0.103268065 0.049655177 -0.4985199
-0.04706676 0.12556592 -0.041249163 0.20416948 0.07367442 -0.39931592 -0.25854108 0.6672184

W_P.bias f4 [100]
00000000: 8f65 77bc 4fdb d73e 0018 07bf 1605 033f
00000010: bdde ad3d 9df7 c7be 1d42 3ebe 421d b93e
00000020: d714 e73e 21de 003c befc 8ebe 91fc dd3d
00000030: 5990 a83e 4b5b f33d 27ee 1abc b81a c7be
00000040: 088f 77bd 1438 30be b96f c3be e630 3cbd
00000050: 8d58 f73e c8c6 8a3e 870f e93e 0d4e ab3e
00000060: 5046 44bc 55e2 95be 7925 7b3d fecc a33d
00000070: 46f4 2dbe 4d45 a43e 71d5 10be 4b3d 493b
00000080: 40d5 8fbb a106 c6be 1903 a8be a19c 2ebe
00000090: a07f 30be 0d45 afbe 0e71 2dbc a770 a63e
000000a0: 40cd e1be 3856 c73d 316f a2be 9add babe
000000b0: e891 963e 850d b2be f158 e93e 2197 32be
000000c0: 1760 d6bc f3b8 1d3d b5a1 d9bd d1f5 f03c
000000d0: d100 1d3e b6d2 ab3e 35dc 3c3e bf12 e73e
000000e0: 4cdf b4be 3d8c febd 772d be3e ef20 edbe
000000f0: e99d bbbe bedf 103e ff8e 8cbe 6b6f 873d
00000100: ea1e 753d ecf2 a63e 6b53 8ebd c4d5 f73e
00000110: 78b0 5c3d fabd ecbe a419 f13e e76b e03e
00000120: 8b72 b73e 4035 d2be b17d 8ebe e960 7cbe
00000130: 1794 b7be c111 bb3e e5e8 973e 09e2 c93d
00000140: 3884 90be 9dff babd af06 d03e 580e 903d
00000150: 657a 9fbc 22de c93e 14d1 b8bc 65a8 48be
00000160: ea65 d83e 3e73 bb3e 881c bd3e 726a 09be
00000170: 77f9 a83d a8e4 6bbd a243 dfbe 5cfe 473e
00000180: 823d cf3e 34e4 afbe 74ec 873e 15c8 cabe
-0.015099897 0.42159507 -0.52770996 0.51179636 0.084897496 -0.390561 -0.18579908 0.36155134
0.45133087 0.00786546 -0.27927202 0.10839189 0.3292263 0.11882647 -0.009456194 -0.38887572
-0.06043914 -0.17208892 -0.38171175 -0.04594507 0.48309746 0.27104783 0.4551966 0.33457986
-0.011979654 -0.2927424 0.061315034 0.079980835 -0.16987714 0.32084122 -0.14143921 0.00307067
-0.004389435 -0.38676932 -0.32814863 -0.17051937 -0.17236185 -0.3423237 -0.010586036 0.32507822
-0.44101906 0.09733242 -0.31725457 -0.36497194 0.29408193 -0.3477594 0.4557567 -0.17440464
-0.026168866 0.03850646 -0.10626546 0.02941409 0.15332343 0.33559197 0.18443377 0.4513149
-0.35326612 -0.12429092 0.37144062 -0.4631419 -0.36643913 0.14147851 -0.27452847 0.06613048
0.059843935 0.3260721 -0.069495045 0.48405278 0.05387923 -0.4623869 0.47089875 0.43832323
0.35829577 -0.41056252 -0.2783027 -0.24646343 -0.3585517 0.36536983 0.29669872 0.09857566
-0.28225875 -0.091307856 0.406301 0.07033986 -0.019467542 0.39427286 -0.022560634 -0.19595487
0.42265254 0.3661136 0.3693583 -0.13419512 0.08250707 -0.05759111 -0.43606287 0.19530624
0.40476614 -0.34353793 0.26547587 -0.39605775

encoder.layers.0.self_attn.W_Q.weight f4 [60, 100]
00000000: 6bfd 44bc 8737 95bd 33e0 b93d f481 1ebd
00000010: 0584 cabc 077b 5abd a364 b8bd 2713 57bd
00000020: 0db2 9a3d 7433 adbd 09ff b53d 795e d13d
00000030: 09b8 b93d d529 a63d 16ed 853d 9db4 ca3d
00000040: 5e23 1abd 5a5a cb3d 4579 c33c 40d5 373d
00000050: 2cb9 ba3a b730 b8bd fcc0 a43d 69cd 8f3d
00000060: fefa 813c f247 423d 5432 aabd 5f42 54bc
00000070: e502 65bc 9aa7 823d 14fc a13d 4035 af3c
00000080: f072 03bd 6e3a a23d 9782 6f3c 1f9b b63d
00000090: 0b3c 533d 322a 2e3d bf86 11bc 7eec b93d
000000a0: 2b83 a0bc f8d3 953d 7faf 873c 048f 2abc
000000b0: 7468 c63d fa77 5bbd 4724 123d e1c1 b7bd
000000c0: 7f86 05be 3636 8aba c79e 90bd 2993 6fbc
000000d0: 72ee cd38 ce34 d23d 6b01 913d a8fb 3ebd
000000e0: c199 103d db7a a63d 58c8 873d cd0a 60bd
000000f0: d157 c83d 791e 8bbc 563f c53d b3e7 6c3d
00000100: e4cf 263d 0134 0bbc 0610 713d 3747 e8bd
00000110: e9b4 e5bc 8b55 013e 86f2 dc3d 9211 de3c
00000120: 9d1d 003d 6cc7 a2bc e36d 643c e1fe 8ebd
00000130: b7a4 dbbb f4d1 76bd 7541 243c 60f7 913d
00000140: 3580 2dbd 0b40 0a3e 4091 15bc 71db 203d
00000150: 646b 3d3d a374 1fbd 18d7 dd3c b2f2 9fbb
00000160: 09eb c73d 9585 973b c6f4 343d a33b a03c
00000170: 4aee aabd 7ae2 9c3d e138 4abd 294f adbc
00000180: f041 823d fbc6 e0bd 6b71 36bb 734f 3e3d
00000190: dd72 d6bd da97 173d ba1a 1a3c f486 ab3d
000001a0: 5fb3 93bd 21ad 3b3d d465 1abd 35ab cabd
000001b0: b48e 863d c242 2bbc 9104 c9ba 8090 8dbd
000001c0: 1b71 943d ca4b 7cbb 355f 70bd 79e5 293d
000001d0: 4d90 acbd 9a65 e0bc e1fa d33c 8313 71bb
000001e0: fcf5 033d b554 ad3d 28e3 a8bd a7df d5bd
000001f0: ba66 f8bc 0d94 d838 c0a3 f13c 6622 e63c
00000200: 7ab5 42ba a2e6 0ebd b114 0a3d cedd cebc
00000210: 27ab 0fbd d6d7 103c 1d2d c4bc 48da 5ebd
00000220: dc5c bcbc 1421 bbbd 7edc 46bd 9c67 b1bc
00000230: 5530 afbd fdd7 9cbd 7a66 74bb ec88 62bd
00000240: 5b58 0fbe 5271 c83d b809 7fbc 77b3 a2bd
00000250: 4dee a6bb 1726 0dbd 1af9 6d3d 00ea e3bd
00000260: a97f 9e3d 663c d3bd 4c07 4cbd b605 3ebd
00000270: fc9d b7bd 0ab0 07bb 5770 323c 3e60 863d
00000280: 6146 6d3d 76dd f4bc 063b 133d 2388 103d
00000290: 8092 ce3d a7c4 b7bc 9545 c53d 67ec 5ebc
000002a0: 119e 403d 9617 8fbd 5e9a cc3c 387b 0a3d
000002b0: 37e2 d83d 2021 563d 1b82 debc 83bc 583d
000002c0: fef4 a03d f1ea dd3d cd81 8b3d 74ce 28bc
000002d0: 7320 60bd 7348 08be 48d7 86bc db2b 103e
000002e0: f8d6 ddbd e2f4 243d abc6 3fb9 42d5 6f3d
000002f0: 993b 86bd 193b 6bbd 8ebb cf3d e9f2 323d
00000300: 8c31 5dbd e878 2a3c d51a 283c 698c 1b3c
00000310: f010 e83d 1c71 963c 0587 e6bc 4da6 f2bb
00000320: 336a 9dbd 5916 cdbd 58d8 043c 5192 a73b
00000330: 564b 8e3b cf23 84bd d0a9 7d3d 73a7 bb3d
00000340: add4 ca3d 963e 02be 8fa9 28bd b78b a5bd
00000350: 47d0 b1bd 0f73 443d 4856 c53d 40fc 223d
00000360: de74 42bc 9b6e 27bd fae8 8ebd d6a4 5fbc
00000370: 34c7 7cbc 8ae1 483d 1098 623c 41cf 81bd
00000380: 3a0d 9e3c e218 f73c 67d8 7e3c c42b 9d3d
00000390: b848 83bc dc10 223b c34b d2bd 1b45 a5bd
000003a0: edb4 ffbc 93e3 bb3d e50e 12bd 8ae1 f63d
000003b0: 2e6c afbd 960a 10bd 6f31 7fbc 7332 c0bd
000003c0: 41d8 33bd 28f2 d43d 78dc 09bd ced7 dcbc
000003d0: a28f e93d cb36 86bc e28e 373d 317a cfbd
000003e0: c5e5 9d3b f52e c5bd ccb4 983c 8e64 843c
000003f0: 320b 01be e6d4 8fbd dcb6 8d3d 6f16 c6bc
-0.01202331 -0.072859816 0.09075966 -0.03869815 -0.024721155 -0.053339984 -0.0900357 -0.0525085
0.07553492 -0.084570795 0.08886535 0.10223097 0.09068305 0.081134476 0.06539361 0.098977305
-0.037631385 0.099293426 0.023861537 0.044881105 0.0014245859 -0.089936666 0.08044621 0.07021601
0.015866753 0.047431894 -0.083103806 -0.012955277 -0.013977741 0.06379624 0.07909408 0.021387696
-0.032092035 0.07921301 0.014618537 0.08916306 0.051570933 0.04252071 -0.008882224 0.090783104
-0.019593796 0.073158205 0.016563175 -0.010410074 0.096878916 -0.053581215 0.035679128 -0.08972526
-0.13039587 -0.001054472 -0.070615344 -0.014622488 9.819576e-05 0.10263978 0.070803486 -0.046626717
0.03530288 0.081289016 0.066300094 -0.0546978 0.09782375 -0.016982304 0.09631221 0.057838153
0.040725604 -0.008496285 0.05885317 -0.11341708 -0.028040366 0.12630288 0.10788445 0.027107988
0.03127824 -0.019870482 0.013942215 -0.06982208 -0.006702985 -0.06025882 0.010025372 0.07127261
-0.042358596 0.13500993 -0.009128869 0.039271776 0.046244994 -0.038929593 0.027080104 -0.0048812265
0.09761626 0.0046240785 0.044178747 0.019559687 -0.08346231 0.076603845 -0.04937065 -0.02115591
0.06360233 -0.109754525 -0.0027838598 0.046462487 -0.10471127 0.03701005 0.009405786 0.0837535
-0.07211947 0.045819405 -0.037694767 -0.098959364 0.06570187 -0.010452928 -0.0015336444 -0.06912327
0.07248136 -0.0038497322 -0.058684547 0.041478608 -0.08425961 -0.027392197 0.025876464 -0.0036785312
0.03221701 0.08463422 -0.082464516 -0.10443049 -0.030322421 0.00010327259 0.029497027 0.028092574
-0.0007427555 -0.034887917 0.03371114 -0.02525225 -0.035075333 0.008840522 -0.023947293 -0.054407388
-0.022993498 -0.091371685 -0.04855012 -0.02165585 -0.085541405 -0.07658384 -0.0037292526 -0.05530636
-0.13998549 0.09787239 -0.015566282 -0.079443865 -0.0050943256 -0.034460153 0.05809889 -0.11128616
0.07739193 -0.103142545 -0.049811646 -0.046392165 -0.0896568 -0.0020704293 0.010891042 0.065613255
0.057928447 -0.029890757 0.03594496 0.03528608 0.100865364 -0.022432638 0.09632412 -0.013606167
0.047025744 -0.069869205 0.024975952 0.033808917 0.10590022 0.052277684 -0.027161648 0.052914154
0.078592286 0.10835827 0.06811867 -0.0103031285 -0.054718446 -0.13308887 -0.016460076 0.1407923
-0.10832018 0.0402726 -0.00018289189 0.058552988 -0.06554336 -0.057429407 0.10143195 0.04368869
-0.05400233 0.010404803 0.0102603035 0.009493926 0.113313556 0.018364482 -0.028140554 -0.0074050785
-0.076862715 -0.10014028 0.008108221 0.005113878 0.004342477 -0.064521424 0.061929524 0.09162798
0.09903846 -0.12719187 -0.04117733 -0.08083289 -0.08682304 0.04796129 0.096355975 0.039791346
-0.011868684 -0.040876966 -0.069780305 -0.01365014 -0.015428353 0.049043216 0.0138302 -0.06338359
0.019293416 0.030163232 0.015554524 0.07674363 -0.016025886 0.0024729287 -0.10268357 -0.080698214
-0.031214202 0.09174266 -0.035658736 0.12054737 -0.085655555 -0.035166346 -0.015575751 -0.093846224
-0.043907408 0.1039775 -0.03365752 -0.026958372 0.11404349 -0.01638355 0.044813998 -0.10130728
0.0048186504 -0.09628097 0.018640898 0.01616123 -0.12601927 -0.07023029 0.06919643 -0.024180619

encoder.layers.0.self_attn.W_K.weight f4 [60, 100]
00000000: 4433 0b3d f7e9 e5bd 1d54 b6bd 305c 90bd
00000010: 9eb7 9dbd 9489 b9bd 5d98 013d 271f ffbb
00000020: 537d b93d 958d 6e3d 8998 a03c 0e49 46bd
00000030: d958 813d 3ac7 8d3b 2537 10bd a283 b1bd
00000040: 2aaf fdbc 2b9c d13c 6c63 ff3b 3d80 c63d
00000050: 944f 1cbd e5d8 6e3c 85e2 9ebd 7d0b 76bd
00000060: 4325 c83c fcbb 95bd d07b 003e 3a63 cabc
00000070: 4359 553d 7ad4 aabd 33a0 fbbb 5527 833c
00000080: 3aa1 423d c32a 4fbc 89cc b63d cdeb 823c
00000090: cd11 b93d d020 ae3d beb8 a7bd a2a5 5c3d
000000a0: 23db 1a3d 58a6 77bd 59af f53a 8664 7c3d
000000b0: 86ea f03c 3aca f93c 527f a1bb f0d7 d7bc
000000c0: 3a21 aa3d 9afb 8bbd c16c a0bd 5f5e f93c
000000d0: f63a 4ebd 79d5 9b3c c850 bf3b 7946 7dbd
000000e0: bed3 24bb 5450 8cbd 0bca d8bc ab52 453d
000000f0: 95ac 6bbc 6894 78bd fb53 9d3d 4b1b 4e3d
00000100: ea41 e6bd 3dd8 f9bd 9a91 0fbd 07b0 0abc
00000110: 79fb 183d ca19 9b3b 0631 e43d 9691 8ebd
00000120: 60ba cdbd bd9d babc 7db5 c0bd b6dd 58bc
00000130: f47b ddbd bec3 97bd 6559 323d 1224 003c
00000140: 3cd3 993d 6096 dd3d b55e fbbd 359f 223d
00000150: c495 85bd 6fcd aabd 0e45 c63c 2fde 923d
00000160: 4a51 a93d e033 ca3d 654c 083d 73aa c13c
00000170: b365 8fbd 9f6e d5b9 db4e 7abd f78d b33d
00000180: 24f1 ac3d feb8 58bd 3577 ee3d 2b04 ad3d
00000190: da2f 853d c450 a23b cc4f f1bc 2747 58bd
000001a0: 4297 abbc ca57 86bd 1658 173d f926 adbc
000001b0: b158 5c3c 5b72 a6bd cce3 c7bd c0b1 b53c
000001c0: 7097 5e3c 19fb 7fbd 5e51 87bd 237f 323d
000001d0: 0d93 e1bd b2b2 3d3d 8302 af3d 95b8 ac3b
000001e0: 2fb1 7b3d 5c34 37bd 9f37 be3d 0c8e e73b
000001f0: 1922 26bd 7460 d4bd 0d3d 3cbd 3305 f0bc
00000200: 9ccc 2a3c e193 45bd ef88 b8bc e728 413d
00000210: 8d33 abbd 601e 9c3d e576 b33d 8809 8cbd
00000220: b738 a0bd ef98 8ebd 6286 9f3c c892 063d
00000230: 8165 923d ce7c a9bd 91ea 0b3a f34b ddbd
00000240: dfe3 b4bd 7d77 a33d f4de 873a d79d 893d
00000250: 8365 17bd 0173 e13c c29d bbbb cd99 eb3c
00000260: 5037 953d d45d 09bd 96c2 953d ffec e1bc
00000270: 34e2 b9bd 8b9f a9bd 7216 99bc 236f 2e3d
00000280: 0933 d7bd 2a1e c43d 5628 cebd 0a33 c63d
00000290: f44d 023d a9d8 a43c ced3 eabc 29a3 8e3d
000002a0: 0593 a3bd a640 eb3d b3ce bf3d f0e8 db3c
000002b0: be97 b13d fe20 afbd edf1 2dbc 2f86 c83d
000002c0: d87b 28bc 65b5 9b3d 9c41 a4bd ae69 233d
000002d0: 1b5f 883c 2d26 2cbd 5abb 5fbd b3eb 673d
000002e0: cc41 273d 2bd3 38bd aa54 ffbc e4d5 b23d
000002f0: 6b91 1e3a 5833 433d 2e39 c0bc cee8 c23b
00000300: afe3 91bd 7d3a 35bd 7ecb e13c aca2 5f3b
00000310: 6151 733d 3f89 903d fe64 a4bd 9186 5fbd
00000320: 3ec7 07bd 2916 82bb d497 c4bc f489 8f3d
00000330: 3c00 c1bd 8ae6 0bbd f1f4 8f3d 7b19 85bd
00000340: 7e25 0c3d 1c00 8abd 6e4f 4d3d c75a 01bd
00000350: 27dc 8d3d 33b2 d43b 9c64 733d 308d c7bd
00000360: 5fff 45bd 5241 fcbc c090 fe3c ff09 8cbd
00000370: 7c75 3c3d ca28 b4bd 3c55 8839 7ef7 633d
00000380: a120 88bd f35c a8bd a3c3 08bd 05c2 943d
00000390: 4e55 3dbd 38ad b53c 29aa b9bd dcde 193d
000003a0: 65d6 c3bd b560 a83d c14b 66bc f9b0 d03d
000003b0: 5c04 2ebd d3b2 10bd 2fb8 afbd 52bd cebb
000003c0: e01c fd3c 9858 683d c67d 0abc bed4 0ebd
000003d0: cc57 9f3c 82eb 08bd 5643 53bd 71e9 34bc
000003e0: 8f4a 25bd 0f54 a63d 3fca 0fbc 2385 9abd
000003f0: 5904 da3c 2629 51bd e238 06bd 1a9f ea3c
0.033984438 -0.11226266 -0.08902762 -0.07048833 -0.07701038 -0.09059444 0.031639446 -0.007785696
0.09057107 0.058240492 0.019603984 -0.048409514 0.063157745 0.004326728 -0.03520884 -0.08667685
-0.030967314 0.025587162 0.0077938344 0.09692428 -0.03816183 0.014578079 -0.07758049 -0.06006955
0.02443183 -0.07311246 0.1254723 -0.024705518 0.05208708 -0.08341308 -0.0076790093 0.016009966
0.04751704 -0.0126444725 0.08925731 0.01598158 0.09036598 0.08502352 -0.08189534 0.053868897
0.03780664 -0.060461372 0.0018744274 0.061619304 0.029408704 0.030491937 -0.004928508 -0.026348084
0.08307119 -0.068350986 -0.07833243 0.030440507 -0.0503492 0.01902269 0.0058384873 -0.061834786
-0.0025150622 -0.06851259 -0.02646353 0.04817454 -0.0143844085 -0.060688406 0.07682034 0.050318997
-0.11243041 -0.12199447 -0.035050966 -0.00846482 0.037349198 0.004733299 0.11142163 -0.06961362
-0.10045314 -0.022780294 -0.09409616 -0.013236454 -0.10814658 -0.07410382 0.043542285 0.0078211
0.07510993 0.108196974 -0.12273923 0.039702613 -0.06522706 -0.083399646 0.02420285 0.071712844
0.08267458 0.098731756 0.03327598 0.023640847 -0.070018195 -0.00040708945 -0.06111036 0.08767312
0.084444314 -0.052910797 0.11643831 0.084480606 0.065032676 0.0049534757 -0.029456995 -0.05280223
-0.020946149 -0.06559713 0.03694924 -0.021136748 0.01344888 -0.0812728 -0.09760246 0.022179484
0.01358591 -0.062495325 -0.066073164 0.04357828 -0.11014376 0.046312995 0.08545401 0.0052710273
0.061448272 -0.04472767 0.09287953 0.007066494 -0.04055986 -0.103699595 -0.04595666 -0.029299354
0.010424759 -0.04823673 -0.022526233 0.04715815 -0.08359442 0.07622981 0.08762912 -0.068377554
-0.078233175 -0.069627635 0.019473258 0.032854825 0.071482666 -0.08275758 0.00053373823 -0.10805502
-0.088325255 0.07981775 0.0010366128 0.06719559 -0.036962043 0.027520658 -0.0057255933 0.028759861
0.07285941 -0.033536747 0.07312505 -0.027578829 -0.09076348 -0.082823835 -0.01868746 0.042586457
-0.10507781 0.09576066 -0.10066287 0.09677704 0.031812623 0.020122843 -0.02866545 0.06964714
-0.07987026 0.1148694 0.093655966 0.026844472 0.08671521 -0.08551215 -0.010616762 0.097912185
-0.010283433 0.07602958 -0.080203265 0.039895706 0.016646912 -0.042028595 -0.05462203 0.056621265
0.040834233 -0.04512326 -0.0311683 0.08732203 0.00060488906 0.047656387 -0.023464765 0.0059481626
-0.07123505 -0.044245232 0.027562853 0.003412406 0.05940378 0.070574276 -0.08027075 -0.054571692
-0.033148997 -0.003969927 -0.023998179 0.07008734 -0.09423873 -0.034155406 0.07029141 -0.06499001
0.034215443 -0.06738302 0.05012458 -0.031580713 0.06926756 0.0064909696 0.05942212 -0.09743726
-0.048339244 -0.030792866 0.031074882 -0.06837844 0.04601048 -0.087968424 0.00026003446 0.05565595
-0.066468485 -0.08220854 -0.0333897 0.07263569 -0.04622393 0.022177324 -0.090656586 0.03756605
-0.09562377 0.082215704 -0.014056147 0.10190005 -0.042484626 -0.03532679 -0.08580052 -0.00630919
0.030897558 0.056725115 -0.008452838 -0.034870856 0.019451044 -0.033427723 -0.05157789 -0.011041985
-0.040354308 0.08121502 -0.008776247 -0.07544925 0.026613401 -0.051064633 -0.03276909 0.028640319

encoder.layers.0.self_attn.W_V.weight f4 [60, 100]
00000000: 0bb5 b43d ae49 1d3e 0636 a03d 6f24 80bd
00000010: 9d3d c33d bc14 293d 784f cdbd 69a2 343d
00000020: 8fa8 6c3c 90dc 6fbd 242c a6bd b4bb adbc
00000030: b255 f7bc a291 af3d 700c 663d 8637 f83d
00000040: cd5c 823d 905b 123e 3730 a7bd 7ce0 f63d
00000050: 2b25 54bc 30b8 bc3d d82c 5e3d ce74 f33d
00000060: 558f f8bd 6e7c d1bd 6315 703c 66fd 8cbd
00000070: 6f1f dfbd 7ce7 f0bc c17c d0bd 8a71 cb3c
00000080: 8722 4fbd 6fa9 c13d 6a8a 85bd 0b7c 12bd
00000090: 8985 7dbd 0acf 313d 4df9 8d3d 8ddb 203d
000000a0: 6f89 bcbd 1a3c 0c3e cf06 2bbd eee0 0d3d
000000b0: a3eb 81bc 22a6 88bd 1ec9 6a3d daeb 14bd
000000c0: b302 56bd 26db babc b790 e6bc 362b bc3d
000000d0: 00c3 0abe 1ab1 20bd 5714 82bd 91b3 7dbd
000000e0: de56 aebd d877 a5bc a2bd ebbc 1ad8 44bd
000000f0: 6e0a 3e3d 1115 83bd 3b64 183d 632b 8bbc
00000100: e78e 43bd a1bf 4f3b a563 08be 17c4 8bbd
00000110: 6dac ca3d 1750 1e3d f091 e33d c0d0 bdbd
00000120: 9fb8 353d 3e19 cdbb 7966 2ebd cd11 6fbc
00000130: a7dd 38bd 71f2 0cbe 3358 83bd b3fc ff3c
00000140: 5c3c 1bbe a3f1 8bbd 46d7 10bc 2128 11be
00000150: dc84 fabc 0b95 42bd 30d7 c83d 610c 073d
00000160: 4b2a 053e c7b6 83bc 5096 273d df35 2fbd
00000170: b1ba c93d 598b 01be 95be 1ebd dc4c c53c
00000180: 087a 9cbc 3a04 513d a5c1 a23d 5037 1a3d
00000190: 950e ebbd b6ba cebd f46e bdbd 2ad1 8ebd
000001a0: 9110 97bd 20fb 9abd d866 cb3d cbc7 7abd
000001b0: 5cf2 d03c 3777 3cbc a990 df38 7a3f e5bd
000001c0: d571 ec3c 97d8 86bd f2e4 c4ba 35fe 2a3d
000001d0: 7b8d 00bc e7cd 283d a99b 323c 7a21 b7bc
000001e0: 761a 113c 72e5 42bd de74 dbbd f0fc 153d
000001f0: 90d2 e23d 0ad4 5cbd f801 353d 4dcb af3d
00000200: 97ad d63b bdc8 a53d 58ab 85bd d198 053c
00000210: 0d68 e9bc c8df 093d fd01 c7bd d15a 883c
00000220: 4db4 083e 2f33 f93c 478d 573d 0b5e 81bd
00000230: 40a2 82bd 8e5e eabd 55e9 e9bd b765 4bbd
00000240: 9cf7 c9bd 792f 4dbd ddf8 c3bc 7128 043d
00000250: 433d ad3d c74c 823d 4ef5 833d 216b a53c
00000260: fbaa e13d 2f34 19bd 132e a3bd cc76 f43d
00000270: 2feb e93c 1686 6b3d edf0 a53b 938c 9bbc
00000280: aede a73d 1e3f cf3d f107 7cbd bc91 d2bd
00000290: 4990 cc3b 2016 c33d 0285 9d3d eef9 c53d
000002a0: 94c1 4cbd 3789 8cbd ecd7 9bbc 3f5b 2abd
000002b0: cb12 44bd 5249 b93d 401e a43d 9b3b 35bd
000002c0: 7c03 09bd 437e e43c 4e6e a83d e9dd e2bd
000002d0: 4101 c53c 3faf d0bd d9b8 593d e52c 573d
000002e0: cf9a f6bc a767 25bd a955 98bd 9f45 4b3d
000002f0: 0b3a 81bd 4d95 60bd 7c33 333d 6e9a d73d
00000300: d0a6 d7bc a4b5 f23c eb09 01bd 6b48 343b
00000310: 8134 2fbd ccf0 79bc c9b3 ad3b 504c 433d
00000320: 4063 54bd 9003 a7bd 159f d4bd e417 9fbd
00000330: f8af 863d 4822 ae3d f2fd 8cbd 82ae 19bc
00000340: 6701 5abd 30c6 d83d 0bd3 cc3d 4bda 23bc
00000350: c2ca a2bd 5499 8cbd 9438 6ebc 4759 10bd
00000360: da3f fabd a02a d4bd e241 1abd caa0 ccbd
00000370: f0de 373d a5aa a8bb f7cb 50bd 500b 573d
00000380: 8a87 443d 5ddc 0ebd 8d2b 0c3b e206 9cbc
00000390: db7b 91bd 961a ad3d d7ce a93d fc07 a8bd
000003a0: bedc dfbd a8a9 9cbc 9d6b e5bd 2061 b8bd
000003b0: a7ed b8ba 9def 633d 7714 aebd fae4 223c
000003c0: 3a1e ddbd d294 d0bd 3b83 a3bd 04e1 72bb
000003d0: 6eb3 113c 9a57 c13d 9ed6 9c3c 1eff ec3d
000003e0: d599 f13d 2ef5 2dbd 8b2b 803d 0f99 98bd
000003f0: 2c59 d63d c11d 3abd 601a c3bd 86e7 d03c
0.08823594 0.15360138 0.07822804 -0.06256949 0.09533236 0.04127954 -0.10024923 0.0441002
0.014444484 -0.058559954 -0.08113888 -0.021207668 -0.03019223 0.08572699 0.056164205 0.12119965
0.063653566 0.14292741 -0.08163493 0.12054536 -0.012948315 0.092148185 0.054241985 0.11887513
-0.121367134 -0.10228811 0.0146535365 -0.068842694 -0.10894667 -0.029407255 -0.10180045 0.024834413
-0.050570037 0.09456145 -0.06520541 -0.035762828 -0.061894927 0.04341034 0.06932316 0.03927188
-0.09205901 0.13694802 -0.04175454 0.034638338 -0.01585943 -0.06672312 0.057320707 -0.036357738
-0.052248668 -0.022809576 -0.028145177 0.09187929 -0.13550949 -0.039231397 -0.06351536 -0.061938826
-0.08512662 -0.020198748 -0.028776947 -0.048057653 0.046396665 -0.064005025 0.037204962 -0.016988462
-0.047743704 0.0031699913 -0.13319261 -0.068245105 0.09896169 0.0386506 0.1111182 -0.092683315
0.04436552 -0.0062591126 -0.042578194 -0.014591646 -0.04513326 -0.13764359 -0.06413307 0.031248426
-0.15159744 -0.06833198 -0.008840388 -0.14175464 -0.03058093 -0.04750542 0.09806669 0.03297079
0.13004415 -0.016078366 0.040914834 -0.042775985 0.09850062 -0.12650813 -0.038755972 0.024084501
-0.019101158 0.05102942 0.07947091 0.037650406 -0.11477391 -0.10094206 -0.09249678 -0.06973489
-0.07376207 -0.075674295 0.09931725 -0.061225694 0.025506191 -0.011503032 0.00010660414 -0.11193748
0.028862873 -0.0658428 -0.0015021844 0.041746337 -0.007846232 0.04121199 0.01090137 -0.02235483
0.008856406 -0.047582097 -0.1071565 0.036618173 0.11075318 -0.053913154 0.04419133 0.085836984
0.0065514552 0.080949284 -0.06526822 0.00815411 -0.028491998 0.03366068 -0.09717176 0.016644867
0.1335003 0.030419914 0.052624967 -0.063167654 -0.06378603 -0.11443816 -0.11421458 -0.04965755
-0.09861681 -0.0500941 -0.023922378 0.03226513 0.0845895 0.063623 0.064432725 0.020192685
0.1101894 -0.03740328 -0.07967772 0.11936721 0.028554527 0.05750092 0.005064121 -0.01898793
0.0819677 0.101194605 -0.06153101 -0.10281703 0.006242786 0.095257044 0.07691385 0.09666811
-0.049989298 -0.06862109 -0.019023858 -0.041590925 -0.047869485 0.09047188 0.08013582 -0.044246297
-0.03345059 0.027892238 0.08224164 -0.11077482 0.02404845 -0.101896755 0.0531548 0.05253305
-0.030103115 -0.040382054 -0.074382134 0.049626943 -0.06309899 -0.054829884 0.04375027 0.10527502
-0.02632466 0.029627629 -0.0315036 0.0027508985 -0.04277468 -0.015255164 0.005300973 0.0476802
-0.051852465 -0.08154976 -0.10381905 -0.07768229 0.06576532 0.085026324 -0.06884374 -0.009379985
-0.053223994 0.10584676 0.10001191 -0.010000776 -0.07948829 -0.068651825 -0.014539856 -0.03524139
-0.1221921 -0.103596926 -0.037660487 -0.099916056 0.044890344 -0.0051472955 -0.050975766 0.052501023
0.047980823 -0.034878124 0.0021388263 -0.01904625 -0.07103702 0.084523365 0.08291405 -0.08204648
-0.10930775 -0.019123867 -0.11202166 -0.090029 -0.0014108912 0.055648435 -0.08499997 0.009942288
-0.10796781 -0.10184635 -0.079840146 -0.003706039 0.008892877 0.09440537 0.019145306 0.11572097
0.11796919 -0.04247015 0.06258305 -0.074510686 0.10466227 -0.04543853 -0.09526515 0.025501024

encoder.layers.0.self_attn.W_O.weight f4 [100, 60]
00000000: 3c34 03bd 029c 83bd c85b 4a3d 0db8 f8bd
00000010: 8d1f 56bb f3db a13d cbcd d6bd e146 d93d
00000020: 18ce 073e 05af 3c3e 9fed f53c 630d e3bd
00000030: 1a75 01be 5036 01be 5803 f6bc 306e dcbb
00000040: c343 81ba fbf3 043e f11d d0bd d0d9 33bd
00000050: ee0a 7dbd 9495 a23d e5f0 72bc 8a69 8b3d
00000060: c271 b3bd 4262 e73c 18a7 bcbd 5ae9 6cbd
00000070: 3ed0 32bd 8146 b53d 4fef 39bd fed0 b93c
00000080: 9f08 173e 6798 c23d 6088 163e c53f bcbd
00000090: 6b9d 9a3d 58fe c8bd 7636 dcbd 2276 0abe
000000a0: 2159 413d 41fd 153d 17f3 e53c 2aa8 61bd
000000b0: 9766 8dbd 278e 8cbd 56b6 493e 4a00 19bd
000000c0: d14a 74bc fac8 64bd aadc 4abd c4e0 043e
000000d0: fac9 3a3c 0eaf acbd ebe1 33bd 0430 a3bd
000000e0: dde2 663d d873 7fbc 45e4 83ba 9833 a1bc
000000f0: 6702 573e b04b a7bd 35aa df3d 5be4 bc3d
00000100: 472e 973d ab7b 79bc 1cee 52bd 6dd8 553c
00000110: 4580 cf3d c138 12bd 3d73 423d c077 e1bd
00000120: 6251 29be a49c 79bd bebe d6bd dfab 213e
00000130: 8aea c8bd d7d3 a73d 04c6 013c 3816 bd3d
00000140: 3bc6 8b3d 6ab3 cb3d 8353 19be 8078 df3b
00000150: 9112 3bbc c2d0 07bd 8cb3 b83d e1b4 a13d
00000160: 1fcb eebd cf97 483d d1ae ae3d 2eed b7bd
00000170: 685f 1a3d afbd 06bd 873d 6e3c a649 703d
00000180: fc86 2a3d 9680 43bc f1c7 113d 8694 c4bd
00000190: 472a 193d 42c8 05be d91c 273e edac c13d
000001a0: 3433 903d c40e d43d dbed 30bd a908 82bd
000001b0: 25c8 2b3d 9872 eb3d aafb d73d 3e91 97bd
000001c0: c332 8a3c 31e4 bbbd 0237 8e39 106d b2bd
000001d0: 8cb7 7a3c 8da2 0fbc bb98 eebc 8718 ed3d
000001e0: b3da df3c ae7a 01be 27c7 2c3c 0e48 4a3d
000001f0: e61e febc b87c 7e3d 24ad 76bd f3ad 213d
00000200: 12b2 683d ba75 f83d 07e8 093e 9668 6e3d
00000210: 691e 00be 4d9f 343d 6f45 efbc 7461 8cbd
00000220: be60 833d a030 41bd 3f31 003c 7a2e f83c
00000230: 199e 30bd 05e4 b53c 72a6 30bd 1129 8cbc
00000240: 4845 96bd 65ab ae3c a8e4 ea3c 5e2d 3f3d
00000250: 25ba 92bd b6ff 123e 51a9 13be 131b 81bd
00000260: ab21 2c3e 9177 593e e482 953c 8028 b53d
00000270: 5d44 823d 72c9 bc3c 764f 193d 696d e8bd
00000280: c3ba 14be d648 073e 8136 0dbd e9c6 413d
00000290: e0cb ca3d 6149 ecbc 8241 ea3d d352 04bc
000002a0: 056b 283e 7624 903d a739 253d 5c04 673d
000002b0: 3c90 e13d 83d0 b3bc 6e36 373e d42d 89bd
000002c0: f6b9 b23d 7ecb 5a3d fd36 67be a441 b23d
000002d0: b66d 24be 4fec 0c3d 4646 5b3d 4bcb 8bbd
000002e0: 6a21 883d 3b15 5a3c 980d a03d 6a24 01be
000002f0: fe9f 28bd 4add debd 17c0 e03d f009 523c
00000300: 8c79 253e 39ad f9bb 7d93 903d b699 70bc
00000310: 3b01 633d 686c 2dbe 360e 9a3d cc41 05be
00000320: 2e78 88bd 2145 1a3d a011 5e3d 81b3 d73d
00000330: aee7 c03d 2634 1fbe d537 503d 3bb2 363d
00000340: a8ed 10bd 6a5f df3c da56 323b 8d87 12bd
00000350: 3e03 84bd 89ff a3bd 89be f5bd 3245 2a3d
00000360: 8144 3bbd 3f69 4a3d a74b 99bd 4875 463c
00000370: 5ee0 e6bd 4c4f 153e 9245 c7bd 0a8a 8b3d
00000380: c648 ba3d a832 12bd caa0 cdbd 7032 073e
00000390: 0df1 613c 2200 c93d aca0 643b 171c 08bd
000003a0: 7a58 793d 3e31 0abe 3ec7 f13d cd71 b3bb
000003b0: aca0 10bd ea95 783b 3b64 c7bd 691b dc3d
000003c0: 6e83 e83c 7fbf d6bd 9248 10bd 31fc e03b
000003d0: e327 883d e54c ce3c 7569 4e3d edb2 853d
000003e0: 104a 0c3d 1178 1d3d f53e e63d edbf 03be
000003f0: 966f be3d d018 633d 48a9 a5bb d933 adbc
-0.032032236 -0.064262405 0.049403936 -0.1214448 -0.0032672614 0.0790328 -0.10488471 0.10609222
0.13262212 0.1842614 0.030020533 -0.11086538 -0.12642327 -0.12618375 -0.030030891 -0.0067270026
-0.0009862114 0.12983696 -0.10161961 -0.043908894 -0.061778 0.07938686 -0.014827942 0.06807239
-0.08761932 0.028245095 -0.09211558 -0.05783973 -0.043655626 0.08851338 -0.045394238 0.022682663
0.14749382 0.09501725 0.1470046 -0.091918506 0.07549556 -0.09814137 -0.10752575 -0.13521627
0.04720414 0.036618475 0.028070016 -0.055092014 -0.06904333 -0.06863051 0.19698462 -0.03735379
-0.014910416 -0.05585573 -0.049526848 0.12976366 0.011400694 -0.084318265 -0.043916624 -0.07968143
0.056368697 -0.015591584 -0.0010062536 -0.019677922 0.2099701 -0.08168733 0.10921136 0.09223243
0.073818736 -0.015227239 -0.05149661 0.013052088 0.10131887 -0.035698656 0.04747318 -0.110091686
-0.16534951 -0.0609404 -0.104856 0.1578822 -0.0981036 0.08194702 0.007920746 0.092327535
0.06824919 0.0994633 -0.14973263 0.0068197846 -0.011418001 -0.03315807 0.09018621 0.07895828
-0.11659836 0.0489729 0.08529437 -0.08980785 0.037688643 -0.03289574 0.014541036 0.058663987
0.041632637 -0.011932513 0.03559107 -0.09598641 0.037393834 -0.13064674 0.16319598 0.09456811
0.07041016 0.10354379 -0.043195587 -0.06349308 0.04193892 0.114964664 0.10546048 -0.074007496
0.016869908 -0.091743834 0.00027125335 -0.08712208 0.01530255 -0.0087667825 -0.029125562 0.11576944
0.027325964 -0.12644455 0.0105455285 0.049385123 -0.031020593 0.06213066 -0.060223714 0.03947253
0.056810446 0.121318296 0.13467418 0.05820521 -0.125116 0.044097234 -0.029207913 -0.06854525
0.064149365 -0.047165513 0.007824241 0.0302956 -0.043119524 0.022203455 -0.043127485 -0.017109426
-0.07337433 0.021321962 0.028673485 0.046674125 -0.071644105 0.14355358 -0.14420058 -0.06303992
0.16809718 0.21237017 0.01825089 0.088456154 0.063606955 0.023045275 0.037429295 -0.11348993
-0.14524369 0.13211378 -0.034475807 0.047308836 0.09902167 -0.028843584 0.11438276 -0.008076387
0.16447075 0.07038204 0.040338185 0.05640064 0.11013839 -0.021950012 0.17891857 -0.06698194
0.087268755 0.05341672 -0.2257957 0.08703926 -0.16057476 0.03440505 0.053533815 -0.068258844
0.06646998 0.013310726 0.07815093 -0.12611547 -0.041168205 -0.10882051 0.10974138 0.012819752
0.16159648 -0.0076195267 0.07059381 -0.014685085 0.055421095 -0.16935885 0.07522242 -0.13013381
-0.066635475 0.037663583 0.054216027 0.105322845 0.094191894 -0.15547237 0.050834496 0.044603568
-0.035382897 0.027267177 0.0027212412 -0.035773803 -0.06445931 -0.08007724 -0.11999232 0.041569896
-0.045719627 0.049416777 -0.07485133 0.012112923 -0.112732634 0.1458103 -0.09730066 0.06813438
0.09095912 -0.03569284 -0.10040434 0.13202834 0.013790381 0.098144785 0.0034885807 -0.033229914
0.060875393 -0.13495347 0.118055806 -0.0054762126 -0.03530948 0.0037931153 -0.09735914 0.107474156
0.028382983 -0.10485744 -0.03522546 0.006866001 0.06648233 0.02518315 0.05039354 0.06528268
0.03425032 0.038444582 0.11242477 -0.12866183 0.09298627 0.055443585 -0.0050555803 -0.021142887

encoder.layers.0.batchnorm_attn.1.weight f4 [100]
00000000: 16d5 753f 5824 863f 56c3 7e3f 360e 843f
00000010: 5e8a 763f a94e 7e3f 2667 7e3f 07e0 7b3f
00000020: 9c50 763f f90d 883f 694d 823f d951 833f
00000030: 5d48 853f c455 873f 32c6 7e3f 1356 893f
00000040: 3bdc 7e3f e057 763f bbb8 7b3f f9ba 7d3f
00000050: e965 843f ec86 7e3f 467d 883f 421a 7e3f
00000060: 9e5d 763f 79f9 813f 91e0 833f 019b 7e3f
00000070: e97f 863f cb7e 803f ea1d 7c3f 35a1 803f
00000080: 108c 823f 955c 833f f3ee 7d3f 3af5 823f
00000090: cddc 863f 1cb8 7f3f 9f40 883f 4599 803f
000000a0: e30d 843f 61a7 833f caa0 733f 1e3a 873f
000000b0: 969b 7f3f 0bb5 893f 2846 813f 3158 7c3f
000000c0: 20c4 843f 2303 813f 6806 853f 87f2 743f
000000d0: c034 7f3f 4043 813f af8a 7c3f 8d48 803f
000000e0: d9d6 7e3f 6e77 873f adaf 783f 6b4f 7f3f
000000f0: f736 8b3f 256f 793f ee13 823f fcad 7d3f
00000100: f8c3 843f 7602 803f a952 763f a76e 7a3f
00000110: 88a5 823f 0741 7d3f debf 7a3f e598 7f3f
00000120: b31c 873f f38d 7b3f 6847 7b3f 8b3f 873f
00000130: c4b3 803f 09ce 773f 1ed3 853f 2e19 833f
00000140: b995 8a3f 4e92 7d3f c144 893f 6db6 813f
00000150: c95a 7d3f 3dc3 853f 558e 813f f251 793f
00000160: 2869 753f 62f2 813f 9d42 803f 7523 7d3f
00000170: 550b 733f 648d 803f 20ae 833f 9807 883f
00000180: 3b46 723f cbbe 823f e8fd 7a3f 3833 703f
0.9602827 1.0479841 0.9951681 1.0316837 0.9630488 0.99338776 0.9937614 0.98388714
0.9621675 1.0629264 1.0179874 1.0259353 1.0412709 1.0573049 0.9952117 1.0729393
0.99554795 0.96227837 0.9832875 0.9911342 1.03436 0.99424624 1.066323 0.99258816
0.962366 1.0154258 1.0302907 0.9945527 1.0507785 1.0038694 0.98483145 1.0049196
1.0198994 1.0262629 0.9919273 1.0231087 1.0536133 0.99890304 1.0644721 1.0046774
1.0316738 1.0285455 0.9516722 1.0564611 0.9984678 1.0758375 1.0099535 0.9857207
1.0372353 1.0079082 1.039258 0.9568257 0.99689865 1.0098648 0.98649114 1.0022141
0.9954658 1.0583322 0.9714306 0.9973056 1.0876149 0.9743522 1.0162332 0.99093604
1.0372305 1.0000751 0.9621988 0.9782509 1.0206766 0.9892735 0.97949016 0.99842674
1.0555633 0.9826347 0.9815583 1.0566267 1.005486 0.9679876 1.0455053 1.0242059
1.0826942 0.9905137 1.0724107 1.0133797 0.9896665 1.0450207 1.0121561 0.97390664
0.9586358 1.0152094 1.0020329 0.9888223 0.94939166 1.0043149 1.0287514 1.0627317
0.94638413 1.0214475 0.9804368 0.93828154

encoder.layers.0.batchnorm_attn.1.bias f4 [100]
00000000: 47cf 51bc 8275 0cb8 1389 99bc fe71 22bc
00000010: 3dca 203d 5b9a 02bd 00d7 91bd 6620 dbbb
00000020: b4b9 1cbd 93a0 453b 4f4d 3fbc 6062 643c
00000030: 95db 7ebc 4bb6 70bc aead 47bd bedc 223d
00000040: 966a 163d ae4d 6c3c cfe4 483b 0690 b4bc
00000050: 1207 26bb 3c7d 823c 831d 143d dd1b a2bc
00000060: a0f4 0dbd 6868 c5bc a155 61bd 3c06 a73c
00000070: 65a2 c3bc 3018 64bd 00bd 933c b670 c53c
00000080: 14fe 923c f73b 253c 66a9 c53c 6146 b7bc
00000090: 1ef9 3f3d 9dbd 27bd e11e 24bc 2444 1fbd
000000a0: c059 6a3c 4618 3b3d 7cfd 9b3d fce7 adbc
000000b0: a552 cb3c b5df ccbb 7658 2f3d ed1e bf3b
000000c0: 0246 15bd fff0 91bc 4dd6 113c 1bcf 7d3c
000000d0: f332 153c f09f 413d 0439 3abb f916 52bc
000000e0: 0b45 c83b 147c c63c 473e 84bd d8a0 823d
000000f0: 387c ab3c 71ce 013d 3930 cabc 33b4 de3b
00000100: c517 99bb 3537 1ebd c7a7 46bd 74ea 533d
00000110: 85be 67bd 7b1c 62bb e5e6 68bc 7286 99bb
00000120: 29fc 733b 2f1d 27bd 5e6a 1fbd f978 03bd
00000130: 8285 013d b9de 15bd f025 2b3d ada4 203c
00000140: d4af 6abd c183 93ba 6814 23bd 13ce 803b
00000150: cf8a ffbc 28e4 f23b a360 b23a 1fea 60bc
00000160: 69bc 913a ff5e a23d ba60 ebbc fb67 06bd
00000170: fad8 00bd 5dbf fc3b 0bd4 653c f0fc 66bc
00000180: 2efa cf3a 7d1f e53a 8eaf 96bc f799 71bd
-0.012805766 -3.348804e-05 -0.01874212 -0.009914873 0.03925537 -0.031885486 -0.07121086 -0.006687212
-0.038263038 0.0030155524 -0.011676147 0.01393947 -0.015555282 -0.0146918995 -0.04874962 0.039761297
0.036722742 0.014422817 0.0030653959 -0.022041332 -0.0025333804 0.015928857 0.036160957 -0.019788677
-0.03465712 -0.024097636 -0.055013303 0.020388715 -0.023881147 -0.05568713 0.018034458 0.024101596
0.01794342 0.0100850975 0.024128627 -0.022372426 0.046868436 -0.040952314 -0.010017128 -0.038883343
0.014303625 0.045677446 0.07616708 -0.021228783 0.024819681 -0.006252254 0.042808972 0.005832544
-0.036443718 -0.017815111 0.008901191 0.015491272 0.0091063855 0.04727167 -0.0028415332 -0.01282286
0.006111746 0.024229087 -0.06457191 0.06378335 0.020933256 0.03169102 -0.024681197 0.0067963838
-0.004672023 -0.03862687 -0.04849985 0.051737264 -0.056578178 -0.003450184 -0.014215206 -0.0046852166
0.0037229157 -0.040799316 -0.0389198 -0.03209779 0.031621464 -0.036589358 0.041784227 0.009804887
-0.05729659 -0.0011254476 -0.039814383 0.003930816 -0.031194119 0.0074124523 0.0013609122 -0.013727694
0.0011118773 0.07928275 -0.028732646 -0.032814007 -0.031456925 0.007713242 0.014027606 -0.014098391
0.0015867406 0.0017480698 -0.018394258 -0.058984723

encoder.layers.0.batchnorm_attn.1.running_mean f4 [100]
00000000: a8ed 523f 11d9 d9bd 9508 7e3f 2f5d 233e
00000010: 9098 18bf 6498 91bd 8fa7 95bf 2246 2040
00000020: 03a7 54bf 4874 b9be 01c0 2abf 8b73 babe
00000030: 4809 303f 14fc f3bd 3c2f b6be df8a 82be
00000040: 3505 383d fd12 4c3f d99f a6bf 999e b33e
00000050: fb28 2dbe 22c8 09bf c976 6c3f c535 c03f
00000060: f8b2 54bf 2f8b d63e 2da0 cc3e aefb ffbe
00000070: 0fb6 c1be 239b 8a3f ca0e 16bf 36fd 96bf
00000080: fa82 5e3e 2570 943d 094a 84bf b271 ee3e
00000090: 3b78 4abe eff1 2e3f 768b 1cbe 2968 3fbe
000000a0: 3218 873f 6fdb 1d3f f0b3 b2bd ea15 3bbe
000000b0: 58d2 b6be 9717 a1be 8cea ca3b 206d 78bd
000000c0: fbe9 bd3d de7a 32bf c7ce f3be bb2c d33f
000000d0: 18a9 b03e cb9f 163f 3481 b83f e266 a83f
000000e0: 33a6 e93d 26a2 f6bd f456 623f bb27 00bf
000000f0: faf7 fabe 3e6c 6dbf 8d7e 6dbe b7eb e63f
00000100: 668d 6fbf 5c3c b3bf 56e8 20bf 3de1 ffbe
00000110: 6b15 873f ef4a 943e d36a 2f3d eaac 073f
00000120: 4ba5 cbbe 6696 aa3c b8ff a03f 312f f1be
00000130: aad1 083e 55de 9cbc 09b5 17bc 8485 d33f
00000140: e6b7 36bd d715 ec3f 6ab9 b73e dfb1 0ec0
00000150: 56d9 533f 2eac ddbe 2b7b eb3f 3a19 e63f
00000160: 2556 133f 3108 d13d c36c 9bbe 5e38 a33e
00000170: 0f10 0cbe 5ca9 93be e5c8 3abe 9155 5b3f
00000180: a4f6 5abf 24bc f9bf f170 30bf aca8 4f3e
0.82393885 -0.10637105 0.99231845 0.15953515 -0.5960779 -0.07109144 -1.169176 2.5042806
-0.8306734 -0.36221528 -0.66699225 -0.36416277 0.6876416 -0.119133145 -0.35582912 -0.25496575
0.04492684 0.79716474 -1.3017532 0.35081938 -0.16910164 -0.53821003 0.9236875 1.5016409
-0.83085585 0.41903064 0.39965954 -0.49996704 -0.37834212 1.0828594 -0.58616316 -1.1796024
0.21729651 0.07247952 -1.0335094 0.46571118 -0.19772427 0.6833791 -0.15287575 -0.18692078
1.0554259 0.61662954 -0.087257266 -0.18270078 -0.35707355 -0.3146331 0.006192511 -0.060650945
0.09273144 -0.6971873 -0.47618696 1.6498026 0.34504008 0.58837575 1.441443 1.3156397
0.11408653 -0.12042646 0.8841393 -0.50060624 -0.49017316 -0.9274329 -0.23192807 1.8040684
-0.9357513 -1.4002795 -0.62854517 -0.4997653 1.0553411 0.2896342 0.042826485 0.5299822
-0.39774546 0.020823669 1.2578039 -0.47106317 0.1336123 -0.019148985 -0.009259471 1.6525121
-0.044608973 1.8444165 0.35883647 -2.2296064 0.82753503 -0.43295425 1.8396963 1.7976449
0.5755332 0.102066405 -0.30356416 0.31878942 -0.13678001 -0.28840148 -0.18240698 0.8567744
-0.85532594 -1.9510541 -0.68922335 0.20279187

encoder.layers.0.batchnorm_attn.1.running_var f4 [100]
00000000: 33ca 4240 a0d0 4840 6783 9340 4dd9 c53f
00000010: 1531 1740 c7ab d640 a8b2 1b40 b50b 2640
00000020: 64be 8b40 6df2 6040 0116 8040 75a2 2540
00000030: b2f9 0a40 8d08 ec3f 6520 623f 9a46 8f3f
00000040: a543 b13f b0b8 dc3f 7a40 d23f 46de c63f
00000050: 390d c03f 7acb b640 063c a540 aafe e73f
00000060: 1fec 5940 5e4f 6b40 e294 8f3f 7888 1b3f
00000070: a1a9 0e40 4316 4540 d5fd b940 1b5f c83f
00000080: a88c b340 9c41 0940 f886 8440 9ffb 8640
00000090: a20b 6340 4735 a140 25a6 9e3f 1009 1240
000000a0: 1462 4140 a990 d73f 03b1 bc40 52a3 e73f
000000b0: a342 a43f f806 1740 6e39 7440 caa6 5140
000000c0: b0e9 cb3f 1ec8 733f bf2d 3640 18a4 fe40
000000d0: 0445 2d40 2893 1140 bc8f 4b40 9f3c 0840
000000e0: 1bdd 3f40 83bb 0240 6c65 b540 e88c 9b40
000000f0: 6a26 3240 44ce d03f 2c2b 6740 87b4 6c40
00000100: c93e 8c40 38c8 ad3f 2a47 3340 deb5 df3f
00000110: 4bda 7b40 e761 3d40 96bd cf40 a2df b240
00000120: a6f1 5340 ba5b a040 7ee4 5b40 7b86 b740
00000130: 3056 7f40 a9e3 0040 0413 4740 f11c b23f
00000140: 11b8 c03f 144f 1d40 d2eb bf40 adc1 4440
00000150: 96f6 b840 e6c2 a640 c73e ee3f d6a2 be40
00000160: f6c4 3240 01f7 0440 206c ec40 c8f4 fd40
00000170: 8b06 6240 468a ba3f 002d 9740 999d 0040
00000180: fc92 7340 265b 8c40 9023 a540 364e 9c40
3.0435913 3.1377335 4.6097903 1.545694 2.3623707 6.708469 2.4327793 2.5944645
4.366991 3.5147965 4.002686 2.5880406 2.1714902 1.844011 0.8833068 1.1193421
1.3848768 1.7243862 1.6425927 1.5536582 1.5004035 5.7123384 5.163577 1.8124592
3.4050367 3.6767192 1.121731 0.6075511 2.2291033 3.0794837 5.8122354 1.5654024
5.61092 2.1446295 4.1414757 4.2182155 3.547585 5.0377536 1.2394453 2.2818031
3.0216112 1.6841022 5.896608 1.8096716 1.2832836 2.3598003 3.8160052 3.275805
1.5930691 0.9522723 2.8465421 7.957531 2.7073374 2.2746067 3.1806479 2.1287
2.9978702 2.0426948 5.6686306 4.8609505 2.7835946 1.6312947 3.61201 3.6985185
4.382664 1.3576727 2.8012185 1.7477376 3.9351985 2.9591005 6.491893 5.589799
3.311624 5.011197 3.435821 5.735166 3.9896355 2.0138953 3.1105356 1.3915082
1.5056173 2.4579515 5.9975367 3.074321 5.780101 5.2112913 1.8612908 5.9573774
2.7932715 2.077576 7.388199 7.9361305 3.5316494 1.4573448 4.724243 2.009619
3.8058462 4.3861265 5.160591 4.884547

encoder.layers.0.ff.0.weight f4 [256, 100]
00000000: 5ddd bcbc bbb5 ef3c 6a1d bfbd 4120 afbd
00000010: 0c84 323c a31a 25be 5df4 533d a4c3 7ebd
00000020: 349a 913d b767 3e3d d456 9dbd 241f 7d3b
00000030: e8ff 1abd 4a09 20be c58f 08be a9b8 b83d
00000040: 5a32 9bbc d1ad 46bc f089 483d 883b 94bd
00000050: e79f 7fbd 4e29 0bbe 6462 023e 0463 7e3d
00000060: 9918 26bd de68 0b3c 7b65 23be f00e b3bc
00000070: 9962 12bd 932e a5bd 7c67 253d fe22 01bd
00000080: cbb8 84bd f153 36bd 7c8e 7f3d 9d2e 083e
00000090: 519e cc3b 1e3c c23d ce79 b9bd ed3b 0f3d
000000a0: 6f66 97bc 8de2 c93d 993c 0c3e bbdf b2bd
000000b0: 8586 07bd 1f5f ae3d 082d c0bb 0a70 d33c
000000c0: 83f7 f2bd dde1 f7bb c963 903d e551 463d
000000d0: 6956 943d 5048 003e 6bf6 98bc a48f 763d
000000e0: ab81 89bc 62b4 973d 1566 14be 5113 7f3d
000000f0: aee1 923d 3bb1 e5bd 4361 9fbc bb09 383d
00000100: 59f9 84bd e794 9cbd 82f9 a4bc 3133 253d
00000110: 7dcc 7738 e359 5cbc 6e4a 02be d0a5 1dbd
00000120: 3fe3 a1bc 8b72 26bd 87a1 1cbd eb1e 8bbd
00000130: fd80 d3bd 7990 f73b 9a53 1cbd 1f9d d3bc
00000140: b1ec ff3c 90d7 b43d f804 a6bd adae cbbd
00000150: 611c 0dbe 65e1 f73d fe00 8e3d 5c18 abbd
00000160: 8d41 e7bc 80f2 b03d b4b8 ccbd 6a3e 603c
00000170: 0649 5b3d 3e32 e7bd 30c7 c73c 3ae0 8fbd
00000180: fc90 86bc 7f82 bdbd f672 c6bd 0426 173d
00000190: c1e6 963d 4179 3d3e f34c 083e afc4 c2bb
000001a0: 780a d23c b9b7 8e3d ee13 11bd eaa3 81bc
000001b0: 3f8a 3a3c b218 3dbe de92 9e3d 5c56 27be
000001c0: e302 2a3d ac48 01be 7f27 4abc f4fb ccbd
000001d0: 26fa 043c b3ba ba3d 1017 12be 1a96 1b3d
000001e0: ea28 3dbe 0e3e 75bd b207 52bd 7d3f 6bbd
000001f0: 1e00 cc3d e398 a73d 1d52 d4bd fe51 c839
00000200: 2381 b93d 8c69 8a3d 0a15 ee3d ee04 8cbc
00000210: 9407 e83d 18e2 2fbd 4ecb 23bd 3c71 03bd
00000220: 202c 65bd 26f3 32bd 2069 a63d f7ee 92bd
00000230: e43f a6bd de65 e8bd 65dd 7fbd 0d57 c83d
00000240: 2b1f 0d3b 5ca3 0cbe 216e c7ba b117 2bbd
00000250: b493 57bd cb86 023b 40ef d53d b1b8 6d3d
00000260: 0fdb 9a3d 3881 91bd 6dbc 8fbd 2d47 7e3d
00000270: 0604 bd3d f8b0 bc3d a34b 793d 9b23 7cbd
00000280: 6b40 3dbe ae30 aebd 9c59 263b 599d 85bb
00000290: 5e51 843c f745 ce3c ec66 373b a051 0bbe
000002a0: 9449 873d 39ae e83d ed83 06bd 2964 d93d
000002b0: a723 f9bd aeba 373c 7e96 a03d 24a8 ffbd
000002c0: b3b7 e83c 5de2 923b 7c7a edbb 162f 7b3c
000002d0: d70b 3c3e 1819 a43d bbc4 3a3e 680f b6ba
000002e0: 9a13 113e d758 b33c 4ace 603c f01f d1bb
000002f0: c493 27bd 9afe ebbd f29a e33d 0acf af3d
00000300: 6c86 d13b a4e6 8ebd 38da 03be 4ab8 1d3e
00000310: 3a5b c13c 0617 953d 0a74 8a3d 372f cfbd
00000320: 5671 35bb f936 003e e4ed 95bc b149 6fbd
00000330: c0a8 9abd 1088 c43d 8b51 303e cd5e 13bc
00000340: 30ed 5abc 4d0b 90bc 24ba 333e 4a0d d8bd
00000350: 486a 603d 78af 05be d7d0 c3bb ee8e a6bd
00000360: 0e73 f2bc 5afb 94bd 67d0 9ebd 8d9f 0d3d
00000370: 71ec 9cbd bc13 e03d 2cde fbbd 6617 01be
00000380: a1ca c93c 5e0b 183e 93f8 b03b 23dd edbd
00000390: 0c2c 253e 421f 393d 3d3e eb3d dbe7 90bd
000003a0: 852f 0b3e d60e b5bd ad14 8dbc 1067 a73d
000003b0: 157b 253d b777 753c 996a 83bb f583 64bd
000003c0: 9b29 593d c395 39be 5fe0 243d d9f6 053e
000003d0: dc68 7dbd 4a8d 14be a3f1 dbbc 8a3b 903c
000003e0: b8da 513d 31f3 833c e9af af3d 4ca8 5a3c
000003f0: 8225 3d3d 093e 2bbe 4396 83bd 1d5f 5e3d
-0.023054773 0.02926146 -0.09331782 -0.08551074 0.01089574 -0.16123442 0.051746715 -0.062198296
0.0710949 0.04648563 -0.07682577 0.0038623298 -0.037841707 -0.15628543 -0.13336094 0.09019596
-0.018944908 -0.012126402 0.048959672 -0.07237917 -0.062408354 -0.13589975 0.12732846 0.062106147
-0.040550802 0.008508889 -0.1595668 -0.021857709 -0.03573856 -0.08065524 0.040381894 -0.03152751
-0.06480559 -0.044513647 0.062391743 0.13299032 0.0062444587 0.09484123 -0.090564355 0.03496926
-0.018481461 0.09857664 0.13694991 -0.087340795 -0.033087272 0.08514237 -0.005864743 0.02581026
-0.11863615 -0.007564767 0.070502825 0.048417944 0.07243044 0.12527585 -0.018672189 0.06019558
-0.016785463 0.07407452 -0.14492066 0.06227428 0.07171951 -0.11215445 -0.019455558 0.044931155
-0.06492872 -0.07645588 -0.020138506 0.040332023 5.9079834e-05 -0.013449165 -0.12723705 -0.03848821
-0.01976168 -0.04063658 -0.038239982 -0.067930065 -0.10327337 0.0075550643 -0.038165666 -0.025831757
0.031240793 0.08830178 -0.081064165 -0.09945426 -0.13780357 0.121035375 0.06933783 -0.083542556
-0.0282295 0.08640003 -0.09996167 0.013686756 0.053536437 -0.1128888 0.024386972 -0.0702519
-0.016426556 -0.09253406 -0.09689896 0.03690149 0.073682316 0.18503286 0.13310604 -0.0059438567
0.025639758 0.06968636 -0.035419397 -0.01582523 0.0113854995 -0.18466452 0.077428564 -0.16341537
0.04150666 -0.12625378 -0.012338518 -0.10008994 0.008116281 0.09117641 -0.1426661 0.037984945
-0.18472639 -0.059873633 -0.05127687 -0.057433594 0.0996096 0.08183458 -0.10367224 0.00038208062
0.09057834 0.06758413 0.11625107 -0.017092194 0.113295704 -0.04294023 -0.03998881 -0.03209041
-0.055950284 -0.043688916 0.0812552 -0.07174485 -0.08117655 -0.113475546 -0.062466998 0.097822286
0.002153347 -0.13734192 -0.0015215316 -0.04177064 -0.052631095 0.0019916769 0.10446024 0.058037464
0.07561313 -0.07104725 -0.07018361 0.062079597 0.09229283 0.092134416 0.06086315 -0.061557394
-0.18481605 -0.08505379 0.0025383001 -0.004077595 0.01615208 0.025179846 0.002798493 -0.13605356
0.06605831 0.11361355 -0.032840658 0.10614807 -0.12165003 0.0112139415 0.07841204 -0.12483242
0.028407907 0.004482551 -0.0072472673 0.01533105 0.18363892 0.08012599 0.18239109 -0.001389009
0.14167634 0.021892948 0.013721058 -0.006381981 -0.040912405 -0.11523171 0.11113538 0.085844114
0.006394198 -0.06977585 -0.12876213 0.15402332 0.02360307 0.07279782 0.06760414 -0.101164274
-0.0027685962 0.1252097 -0.018301912 -0.058419887 -0.07551718 0.09596264 0.17218606 -0.00899477
-0.013362214 -0.017583514 0.17551476 -0.1054941 0.054788858 -0.13055217 -0.0059758234 -0.081327304
-0.029595878 -0.07274504 -0.07754593 0.034575988 -0.07662285 0.10941264 -0.12298235 -0.12606582
0.024632754 0.14848086 0.005400726 -0.11614444 0.16130084 0.045195825 0.114864804 -0.07075473
0.13592346 -0.0884072 -0.017221773 0.081739545 0.040400583 0.0149821555 -0.00401051 -0.055789907
0.053018194 -0.18123536 0.04025304 0.13082446 -0.06186758 -0.14507023 -0.02684862 0.017606515
0.051233977 0.016107174 0.08578474 0.013345789 0.04617835 -0.16722883 -0.064251445 0.054289926
