transformer_results_random_no_constants_no_param_tune/performance_prediction/PSO1-PSO2-PSO3-PSO4-PSO5-PSO6-PSO7-PSO8-PSO9-PSO10-PSO11-PSO12_random_no_constants_dim_3_samples_50_fold_8_budget_30_n_heads_2_n_layers_1_d_model_100_d_k_30_d_v_30_aggregations_mean/trained_model_dict.pt (torch, 338811 bytes, 22 tensors)

W_P.weight f4 [100, 4]
-0.38145244 -0.37017837 -0.21003759 0.40170714 -0.19922443 -0.13728273 0.0021340603 -0.028021848
-0.45699564 -0.13854381 0.17575756 -0.36173278 -0.27080676 0.10756405 0.40037227 0.52566594
-0.3135219 0.3254933 0.39307657 -0.03422957 0.12604181 0.014260686 -0.31465477 0.55783564
-0.05309959 -0.13193744 -0.15534806 -0.37315065 0.21510878 0.4792265 -0.20116717 -0.14859694
-0.10361637 -0.21015455 0.24906705 0.18450211 -0.22525053 -0.33072326 0.12000498 0.6161982
0.29441476 0.028498579 -0.440745 0.15042374 0.41962838 0.45797223 0.210874 -0.22864015
0.20324484 0.36033142 -0.2904316 0.6350962 0.1136684 0.022126593 0.06270272 0.5981697
0.298203 -0.29881456 0.05461807 -0.5378678 0.30246198 -0.3157494 0.33210468 -0.50527364
-0.3792386 0.23159829 0.20394501 0.5116956 0.123564 0.29728863 0.004887025 0.55649805
0.013100049 -0.4430003 -0.24087359 0.42835125 -0.2837266 -0.129362 0.4016192 -0.1345588
-0.2479759 -0.3640942 0.07343233 0.014102263 -0.28391236 -0.025384916 -0.1922552 -0.23617521
-0.081250645 -0.30557048 -0.11005637 -0.42839396 0.29345417 -0.40086114 0.18921569 -0.6384197
0.26319072 0.2561557 -0.20141865 -0.14691643 0.022401853 0.41557935 -0.052317824 -0.25787604
0.11019264 0.25825885 0.09043575 0.46450365 -0.082195066 -0.11873188 -0.07487238 0.37627232
-0.3736876 0.22903082 0.09109839 0.5030957 -0.2661974 -0.1609225 -0.027687795 -0.4492614
-0.47797686 0.1223642 0.028834604 0.18062413 -0.3928366 0.32074097 0.36000034 -0.45267597
-0.2505034 -0.16439068 -0.035200916 0.6001842 -0.34289837 0.13584943 -0.32038203 -0.12727197
-0.07891817 0.3922802 -0.33304855 0.043251038 -0.31215885 -0.3858157 -0.42584997 0.23740946
-0.042730417 -0.19526464 0.041246686 0.17376642 0.3376197 -0.084499866 0.24092937 -0.4451782
-0.4227005 -0.037855145 0.26058584 0.44093215 0.15150774 -0.4949769 -0.010103901 0.44092718
0.30928153 -0.0025792522 0.2735269 0.5401257 0.32619673 0.031931072 -0.4413427 0.5507296
-0.21071257 0.38600776 -0.20298044 0.2746176 0.27971375 0.1810177 -0.24821723 0.4679105
-0.025839977 0.19159012 -0.10356506 0.36590517 -0.12257607 0.18841486 0.27497977 -0.46765417
-0.3824362 0.039279353 -0.026615476 0.23992468 0.32636413 -0.18772027 0.21800172 0.47363916
-0.052414767 0.27110383 0.40607992 0.27610618 0.011281287 -0.4214784 0.1895074 -0.5954807
0.30801246 0.3878758 0.26405284 -0.06731082 -0.17719491 0.17947553 -0.031421024 0.60211843
0.27802068 0.039406758 0.23036224 0.22703882 0.30726543 0.0707411 0.37115574 -0.35447752
-0.380261 0.096328154 -0.17819174 0.3728574 0.1649796 0.37981036 0.040022317 -0.550873
0.16354506 -0.29620722 0.41076383 0.32281816 -0.349382 -0.035704706 0.32807258 -0.35390595
0.13167089 0.34468603 -0.11099702 -0.00224212 0.1132112 0.16943705 0.1801797 -0.177542
0.28692386 -0.4436698 -0.09850269 -0.63087857 0.05045234 -0.03880523 0.19923724 -0.22639635
-0.07720441 -0.22735219 0.10813758 -0.6498528 -0.037050735 -0.41311482 -0.16473784 0.5901538
00000000: bc4d c3be 0588 bdbe 1814 57be 8fac cd3e
00000010: 7d01 4cbe d893 0cbe 97db 0b3b 138e e5bc
00000020: 55fb e9be 6ede 0dbe caf9 333e 0a35 b9be
00000030: 2fa7 8abe 8a4a dc3d 98fd cc3e 0b92 063f
00000040: f185 a0be 0fa7 a63e 5541 c93e 4e34 0cbd
00000050: 1b11 013e a7a5 693c 6e1a a1be 51ce 0e3f
00000060: f57e 59bd 9c1a 07be 9013 1fbe 9a0d bfbe
00000070: 7a45 5c3e 2d5d f53e c4fe 4dbe cc29 18be
00000080: d234 d4bd c132 57be 6f0b 7f3e 1fee 3c3e
00000090: 13a8 66be 8f54 a9be 2cc5 f53d 2abf 1d3f
000000a0: 88bd 963e da75 e93c 54a9 e1be ae08 1a3e
000000b0: 88d9 d63e 567b ea3e 5bef 573e a520 6abe
000000c0: 6a1f 503e 5c7d b83e 73b3 94be aa95 223f
000000d0: faca e83d d442 b53c 496a 803d a621 193f
000000e0: 10ae 983e 39fe 98be 33b7 5f3d b4b1 09bf
000000f0: 4cdc 9a3e e8a9 a1be a009 aa3e 9d59 01bf
00000100: 902b c2be 1a28 6d3e f6d6 503e 7cfe 023f
00000110: 1f0f fd3d 3736 983e 5623 a03b a876 0e3f
00000120: 97a1 563c efd0 e2be 91a7 76be db50 db3e
00000130: 9d44 91be 7977 04be 08a1 cd3e c8c9 09be
00000140: 65ed 7dbe 8e6a babe b063 963d 2e0d 673c
00000150: f65c 91be 07f4 cfbc 8cde 44be ead7 71be
00000160: bd66 a6bd bc73 9cbe 3c65 e1bd 7456 dbbe
00000170: a03f 963e ac3d cdbe c2c1 413e 796f 23bf
00000180: efc0 863e d726 833e b140 4ebe 4371 16be
00000190: 1784 b73c d1c6 d43e 374b 56bd 5408 84be
000001a0: aeac e13d 813a 843e 6136 b93d 6cd3 ed3e
000001b0: e355 a8bd b329 f3bd b156 99bd c4a6 c03e
000001c0: fb53 bfbe 0e87 6a3e cb91 ba3d e1ca 003f
000001d0: 074b 88be dec8 24be 84d1 e2bc 9705 e6be
000001e0: 62b9 f4be 159a fa3d 8c36 ec3c 88f5 383e
000001f0: e121 c9be 2938 a43e f751 b83e 25c5 e7be
00000200: fb41 80be 0856 28be d62e 10bd aca5 193f
00000210: 6090 afbe 1d1c 0b3e 1d09 a4be 9553 02be
00000220: d99f a1bd f3d8 c83e 5785 aabe 0028 313d
00000230: 49d3 9fbe a389 c5be 0209 dabe 771b 733e
00000240: 1706 2fbd 74f3 47be 49f2 283d d3ef 313e
00000250: 7ddc ac3e 440e adbd 30b6 763e 66ee e3be
00000260: 336c d8be ff0d 1bbd 826b 853e dcc1 e13e
00000270: d824 1b3e 9d6d fdbe d58a 25bc 35c1 e13e
00000280: 265a 9e3e ac08 29bb b80b 8c3e ae45 0a3f
00000290: 4203 a73e 28ca 023d acf7 e1be 9dfc 0c3f
000002a0: 09c5 57be cfa2 c53e 1bda 4fbe ae9a 8c3e
000002b0: a436 8f3e b45c 393e a82c 7ebe f791 ef3e
000002c0: 5cae d3bc 3330 443e eb19 d4bd ec57 bb3e
000002d0: 2a09 fbbd d3ef 403e 26ca 8c3e 5e70 efbe
000002e0: adce c3be 63e3 203d b308 dabc d1ae 753e
000002f0: 3319 a73e be39 40be d83b 5f3e d580 f23e
00000300: deb0 56bd 1fce 8a3e b5e9 cf3e ca5d 8d3e
00000310: 26d5 383c 04cc d7be 3a0e 423e 6c71 18bf
00000320: cfb3 9d3e a897 c63e ef31 873e 41da 89bd
00000330: 9572 35be 6fc8 373e 55b3 00bd 6f24 1a3f
00000340: ba58 8e3e fb68 213d 14e4 6b3e dd7c 683e
00000350: e551 9d3e b6e0 903d 2008 be3e 147e b5be
00000360: 92b1 c2be b247 c53d e577 36be 2ae7 be3e
00000370: 6af0 283e 8176 c23e 71ee 233d 0306 0dbf
00000380: 5b78 273e 79a8 97be a34f d23e 6c48 a53e
00000390: 33e2 b2be 193f 12bd 21f9 a73e 2933 b5be
000003a0: bcd4 063e b07a b03e 6852 e3bd 88f0 12bb
000003b0: 46db e73d e880 2d3e 0781 383e 92cd 35be
000003c0: afe7 923e b028 e3be c7bb c9bd 4281 21bf
000003d0: 1da7 4e3d 3cf2 1ebd d904 4c3e 72d4 67be
000003e0: 591d 9ebd 03cf 68be 3c77 dd3d c15c 26bf
000003f0: 83c2 17bd c983 d3be 09b1 28be 5214 173f

W_P.bias f4 [100]
-0.16599613 0.508976 -0.13219002 0.36148527 -0.36964628 0.48623148 -0.18145809 -0.49742204
-0.466636 0.2701056 0.0036400391 0.25856176 -0.05890764 -0.5146875 0.51641726 -0.3617765
0.35456797 -0.22156087 0.11968867 0.2508539 -0.37770167 -0.122119546 -0.2960131 0.08000796
0.063606046 0.076708235 -0.0525771 0.13037035 0.40397412 -0.0031492491 0.19830737 -0.19504367
-0.30949897 -0.3969451 0.49127343 0.033118576 -0.11539085 0.44694203 0.15513271 0.3829761
0.5076934 -0.40800056 0.29366958 -0.49001667 -0.117096394 -0.045423415 0.20196566 -0.10792962
-0.34294212 -0.26937953 -0.24989021 -0.28174123 -0.004124157 0.08118783 0.5412727 -0.09620892
-0.19846192 0.15739472 -0.033182733 0.29246768 0.059778765 0.45397773 0.31140593 -0.2916105
-0.5001825 -0.34096748 -0.21284667 -0.49432793 0.53680843 -0.008310588 0.37641633 -0.059822064
0.4349176 0.2199056 0.37683204 0.21521325 0.31607032 0.122411154 0.22739033 -0.16992812
0.24772234 0.49171272 -0.52328956 0.012594033 0.16238295 0.08576181 0.24636814 -0.49265793
0.030496985 -0.3547698 0.20372514 0.2955335 0.5445377 -0.20701753 -0.13966107 -0.48344496
-0.3975958 0.4937307 -0.02570887 0.4874239
00000000: e4fa 29be 404c 023f d25c 07be 9914 b93e
00000010: 4742 bdbe 55f3 f83e 26d0 39be 1aae febe
00000020: eaea eebe 484b 8a3e b98d 6e3b 3562 843e
00000030: 2349 71bd 8fc2 03bf ec33 043f c53a b9be
00000040: ef89 b53e dae0 62be 551f f53d ec6f 803e
00000050: 1d62 c1be d019 fabd 078f 97be 37db a33d
00000060: e343 823d 3519 9d3d 165b 57bd ce7f 053e
00000070: b2d5 ce3e a263 4ebb 1611 4b3e 87b9 47be
00000080: a676 9ebe 633c cbbe 3188 fb3e 58a7 073d
00000090: 0a52 ecbd 96d5 e43e 1cdb 1e3e 7215 c43e
000000a0: 32f8 013f 73e5 d0be dc5b 963e 77e3 fabe
000000b0: 3cd0 efbd e70d 3abd 16d0 4e3e 340a ddbd
000000c0: 1c96 afbe 1dec 89be 38e3 7fbe 6340 90be
000000d0: f023 87bb ce45 a63d d990 0a3f 2f09 c5bd
000000e0: 9a39 4bbe 152c 213e 9eea 07bd 53be 953e
000000f0: 94da 743d c56f e83e 9970 9f3e f94d 95be
00000100: f60b 00bf 4a93 aebe 7af4 59be 8d18 fdbe
00000110: 476c 093f 2229 08bc a4b9 c03e fb07 75bd
00000120: 85ad de3e ef2e 613e 21f0 c03e dd60 5c3e
00000130: f8d3 a13e b3b2 fa3d 03d9 683e a301 2ebe
00000140: edaa 7d3e c5c1 fb3e 4ef6 05bf 3457 4e3c
00000150: b747 263e e3a3 af3d ee47 7c3e a93d fcbe
00000160: d0d4 f93c 63a4 b5be 539d 503e 2b50 973e
00000170: d366 0b3f 67fc 53be 5003 0fbe 1986 f7be
00000180: ad91 cbbe 45ca fc3e 689b d2bc a08f f93e

encoder.layers.0.self_attn.W_Q.weight f4 [60, 100]
-0.037355546 -0.116999105 -0.052428003 -0.12240796 -0.08375503 -0.067471564 0.04586061 0.118992366
-0.02622531 0.012134896 0.10518826 0.06345486 -0.07239496 0.024011815 0.03349082 0.09326529
-0.030350907 0.05053181 0.0944162 0.007918367 0.06973064 0.0417522 0.085573144 0.038041305
0.11834652 0.0075576277 0.07794007 -0.014163474 -0.10735981 0.029289356 -0.07602884 -0.02985749
0.04656774 0.037269495 0.032355133 -0.05451284 0.0030815525 -0.0101060355 -0.123476386 -0.08041141
-0.0735723 0.11323376 -0.07370773 0.11540834 0.017727317 0.08078491 -0.14896062 0.120899625
0.028057763 0.01827383 0.033715703 0.0653066 -0.046842497 -0.005470182 0.014454024 0.08986812
0.07813305 -0.08721477 0.004457992 -0.036875315 -0.0005681538 0.029691458 -0.100437425 -0.032213602
0.038447652 -0.063170746 0.059673846 0.18586862 -0.07903655 -0.0005751003 -0.030598858 -0.10891572
0.08025128 0.043133788 0.018687414 -0.003520651 0.011178027 0.08769801 -0.017809352 0.083662875
-0.02131372 -0.059658565 -0.06747374 0.016160255 0.08611929 0.0057482533 0.057366762 0.079911694
-0.00052396505 0.0063642524 -0.004760002 -0.043163225 -0.041872658 0.08285071 -0.113190055 -0.010076336
0.10652681 -0.028847585 -0.09256684 -0.12434776 0.07218936 0.057493273 0.10998103 0.020211266
-0.05822389 -0.10408636 0.046103343 0.030433314 0.07116901 -0.03083583 -0.04492999 0.05790348
-0.07563666 -0.0875163 -0.030433748 0.10523251 -0.10390845 -0.14437033 0.06088182 -0.052891765
-0.037851583 0.11764723 -0.003088536 0.10926542 -0.029387046 0.056221228 -0.13562101 -0.039325807
-0.06896391 0.123747006 0.022694785 0.07065358 -0.09391644 0.00079891906 0.050731987 0.0892538
-0.08561766 0.05713808 -0.086454734 -0.078851596 -0.047778517 0.05541106 -0.089030676 -0.11346987
-0.13531186 0.004973733 0.06788867 -0.118560635 0.016236028 0.14131758 -0.028591406 0.026096806
-0.035812456 -0.014406372 0.030506222 -0.04487137 0.04784812 0.005967493 -0.06689226 -0.03952395
0.07001363 0.12092285 0.13865462 0.06232812 0.029390173 0.10265204 -0.13221802 -0.058918
0.08839571 0.03189924 0.004597684 -0.028449018 0.024108596 0.02909149 -0.0077547827 0.0032340696
-0.0027447632 0.008402612 0.09152533 0.0032567442 0.10452195 0.058899324 0.08485859 -0.036777165
-0.07372361 0.0032798892 0.0426299 -0.06225904 0.022140773 0.13886924 0.084740594 -0.07716242
-0.046628747 0.040923223 0.13094544 -0.04063017 -0.092278525 -0.046597417 -0.054310713 0.0070646596
0.062230885 -0.102526374 -0.105018295 -0.15321974 -0.030886946 -0.00689267 0.032401983 0.07325504
-0.08919906 -0.08103213 -0.021833332 0.062451083 0.020854797 0.0102908425 0.018075353 0.094333135
0.009742978 -0.029960241 -0.06321103 0.031972796 -0.05955917 0.06668315 0.05951948 0.08071311
0.113610186 0.08166585 0.07254571 -0.104755625 -0.024868818 -0.045987867 0.03521883 -0.038478207
0.06262146 -0.08380834 -0.055699456 -0.0156526 -0.07568139 0.08312691 -0.042159233 -0.11683164
-0.071267225 -0.024663594 -0.008117064 0.0564269 -0.089760676 -0.017373372 -0.10559321 -0.058332615
-0.09223347 -0.014907591 0.012519837 -0.107826576 -0.09178991 0.0067028706 0.013597847 0.11331372
00000000: 2102 19bd 3a9d efbd bfbe 56bd 06b1 fabd
00000010: c287 abbd 882e 8abd 56d8 3b3d 45b2 f33d
00000020: 76d6 d6bc 71d1 463c f16c d73d 9ff4 813d
00000030: cf43 94bd 6db4 c43c ac2d 093d df01 bf3d
00000040: 77a2 f8bc 71fa 4e3d 485d c13d 0abc 013c
00000050: f0ce 8e3d 5b04 2b3d f940 af3d 33d1 1b3d
00000060: a95f f23d faa5 f73b 0b9f 9f3d ea0d 68bc
00000070: 76df dbbd 3bf0 ef3c 02b5 9bbd b297 f4bc
00000080: d1bd 3e3d e6a7 183d d186 043d db48 5fbd
00000090: dff3 493b c993 25bc 30e1 fcbd bdae a4bd
000000a0: 13ad 96bd 1ae7 e73d 14f4 96bd 355b ec3d
000000b0: e138 913c 8f72 a53d 2289 18be 399a f73d
000000c0: 65d9 e53c 00b3 953c 7a19 0a3d 77bf 853d
000000d0: ebdd 3fbd 363f b3bb 92d0 6c3c c70c b83d
000000e0: 3804 a03d a89d b2bd 5914 923b 920a 17bd
000000f0: 28f0 14ba 803b f33c 23b2 cdbd 69f2 03bd
00000100: 497b 1d3d aa5f 81bd 906c 743d 5854 3e3e
00000110: eadd a1bd 54c2 16ba 75aa fabc 340f dfbd
00000120: c85a a43d 0ead 303d 5916 993c b9ba 66bb
00000130: 0b24 373c 049b b33d ebe4 91bc 7157 ab3d
00000140: 1c9a aebc 8a5c 74bd ac2f 8abd 8362 843c
00000150: 4f5f b03d d85b bc3b 69f9 6a3d bea8 a33d
00000160: b35a 09ba 388b d03b caf9 9bbb eccb 30bd
00000170: aa82 2bbd a2ad a93d 30d0 e7bd 3717 25bc
00000180: ba2a da3d c551 ecbc af93 bdbd 0aaa febd
00000190: 04d8 933d 117e 6b3d bc3d e13d 1992 a53c
000001a0: 2c7c 6ebd 3b2b d5bd dcd6 3c3d 494f f93c
000001b0: 0fc1 913d 6c9b fcbc 8208 38bd 332c 6d3d
000001c0: 65e7 9abd bf3b b3bd 3250 f9bc 2484 d73d
000001d0: f4cd d4bd d1d5 13be 375f 793d 09a5 58bd
000001e0: 430a 1bbd 08f1 f03d 0969 4abb 8cc6 df3d
000001f0: 1abd f0bc 3b48 663d 3ce0 0abe 1914 21bd
00000200: f33c 8dbd 126f fd3d 6aea b93c d3b2 903d
00000210: 4357 c0bd 8d6e 513a 58cc 4f3d b2ca b63d
00000220: 5058 afbd 9f09 6a3d 2e0f b1bd f27c a1bd
00000230: 68b3 43bd b5f6 623d b755 b6bd e462 e8bd
00000240: 318f 0abe b2fa a23b 3709 8b3d ebcf f2bd
00000250: 6b01 853c 8eb5 103e 8638 eabc f8c8 d53c
00000260: 15b0 12bd b408 6cbc 2fe8 f93c 0bcb 37bd
00000270: 64fc 433d f68a c33b cffe 88bd dee3 21bd
00000280: 4e63 8f3d 66a6 f73d 7afb 0d3e c54b 7f3d
00000290: a9c3 f03c 3c3b d23d 2964 07be 0054 71bd
000002a0: cf08 b53d c7a8 023d 2ba8 963b ea0d e9bc
000002b0: 647f c53c 4751 ee3c d51b febb aff2 533b
000002c0: 7ce1 33bb 1cab 093c a271 bb3d 1a6f 553b
000002d0: 9b0f d63d 6b40 713d 57ca ad3d a7a3 16bd
000002e0: 67fc 96bd 69f3 563b b19c 2e3d 5603 7fbd
000002f0: 9160 b53c bd33 0e3e 7a8c ad3d 5507 9ebd
00000300: c9fd 3ebd 1c9f 273d 9016 063e d26b 26bd
00000310: 86fc bcbd efdc 3ebd e974 5ebd a97e e73b
00000320: d0e5 7e3d 59f9 d1bd d513 d7bd a3e5 1cbe
00000330: 9f06 fdbc e8db e1bb f1b7 043d bd06 963d
00000340: ffad b6bd 2cf4 a5bd d1db b2bc b5cc 7f3d
00000350: aed7 aa3c ec9a 283c c312 943c bb31 c13d
00000360: 03a1 1f3c 2e6f f5bc c974 81bd e8f5 023d
00000370: 51f4 73bd 2d91 883d b3ca 733d ea4c a53d
00000380: 75ac e83d 6d40 a73d d892 943d 1e8a d6bd
00000390: b1b9 cbbc c65d 3cbd 9f41 103d 539b 1dbd
000003a0: ae3f 803d b5a3 abbd 1d25 64bd e239 80bc
000003b0: d8fe 9abd 713e aa3d 29af 2cbd 6d45 efbd
000003c0: 8df4 91bd 4e0b cabc 6ffd 04bc e51f 673d
000003d0: 72d4 b7bd 9a52 8ebc 4141 d8bd 2eee 6ebd
000003e0: e7e4 bcbd f83e 74bc 0120 4d3c 2ed4 dcbd
000003f0: 59fc bbbd c1a3 db3b 81c9 5e3c 0611 e83d

encoder.layers.0.self_attn.W_K.weight f4 [60, 100]
0.044156354 0.04841467 -0.058851294 -0.034170575 -0.081334956 0.059994362 -0.05409131 -0.024195679
-0.038991533 0.100916125 -0.07498155 0.046934184 -0.047825992 0.052222006 -0.112029724 -0.08214112
0.07092633 -0.059829026 -0.0072589586 0.037248783 -0.024869947 0.065244384 -0.029734286 -0.028065568
0.025721496 -0.033694055 0.038173825 0.09174304 0.106374554 -0.10406503 0.067750126 -0.042789195
0.09819436 -0.037933078 0.09979807 -0.052265108 -0.030667149 -0.13832697 0.12944876 0.027703986
0.010677049 0.066649504 -0.022170225 0.0937905 0.008229428 -0.03238184 0.10351284 0.012336532
0.047380693 -0.14543122 -0.083115466 0.035410397 0.10396271 -0.060808428 -0.034155283 -0.11101833
0.10240152 -0.07507615 0.06458669 -0.04974682 -0.1122158 0.038338974 -0.104908824 0.087619215
0.02000886 0.06434405 0.0033427186 -0.030381108 0.039201234 0.08711778 0.08466827 0.06155054
-0.08142981 -0.020989792 0.03260777 0.031486318 -0.08899537 0.074866466 -0.03781527 -0.026762737
-0.10129347 -0.09538458 -0.07637564 0.07505195 -0.053411447 0.014747287 -0.050337136 -0.03749925
0.056646235 -0.095896065 0.037398558 0.0068798005 0.121599466 -0.068415835 -0.12790398 -0.018457184
-0.030180078 0.022995392 0.097896576 0.02814804 0.03526262 0.11242754 0.12959059 0.006442335
-0.013131028 -0.1339588 -0.042130403 0.03937536 0.11981659 -0.07713223 0.040686563 -0.06227779
-0.062288433 -0.07011009 0.06941357 0.086383164 0.06322025 0.031422984 -0.0039623156 0.015815778
0.117274806 -0.037686765 0.040877108 0.009354172 -0.12959303 0.03239803 -0.11267264 0.06561673
-0.09075051 -0.024333281 0.08543719 -0.06528129 -0.040049292 -0.07227967 0.02743006 0.0701364
0.052330375 -0.073346525 -0.05416361 -0.024271172 -0.044905573 -0.13139148 -0.038613174 -0.059975035
-0.12395199 0.0024990055 0.0037921595 -0.0704468 -0.03684052 0.007480653 0.04886898 -0.13066931
-0.11694622 0.027381498 -0.076529436 -0.029473491 -0.08414353 0.023020094 -0.010162691 0.046866298
-0.018836997 0.06634107 0.15173021 0.041449636 0.049864836 0.02190949 -0.025421765 -0.06292888
0.05102983 0.043176502 -0.050277133 -0.09869781 -0.09924337 0.13915654 -0.0832933 0.08849873
0.0019638147 -0.035201572 0.06545965 0.103961386 0.14305907 -0.13203146 0.10152807 0.10584706
-0.027896637 0.13393122 0.02212055 -0.10511461 -0.13280311 0.034880213 0.05754803 0.053533316
-0.06404933 -0.082899034 0.1425834 0.10175361 0.042631954 0.03951493 0.08180145 0.109518304
0.08144889 0.122281 -0.0801953 -0.03628708 -0.09348413 0.15253244 0.06165812 -0.03640058
-0.05050043 0.14545079 -0.023800716 -0.016867353 0.10844859 0.040850393 -0.018970944 -0.09705552
-0.042494666 0.056816082 0.07714082 -0.042448502 0.095510714 -0.011879682 -0.05983547 -0.04436156
-0.118103996 -0.05932759 0.047808234 0.04697918 0.041908383 -0.00021206035 0.005318641 0.03396563
0.08321559 -0.0014552918 0.09908407 -0.055042394 0.1386535 -0.12105998 0.1283193 -0.030483523
-0.031644743 0.09091806 0.05554438 0.06608891 0.07856626 -0.102706455 0.013234032 0.034707107
0.043769658 0.016542174 -0.040346324 -0.013719531 0.076811045 0.014244768 -0.0062823948 -0.06315503
00000000: 4bdd 343d 764e 463d 0e0e 71bd 72f6 0bbd
00000010: f192 a6bd a6bc 753d d98e 5dbd 0436 c6bc
00000020: 96b5 1fbd 1dad ce3d ed8f 99bd 0f3e 403d
00000030: 30e5 43bd bee6 553d d76f e5bd 9b39 a8bd
00000040: d341 913d 480f 75bd 8fdc edbb 2e92 183d
00000050: 0fbc cbbc d99e 853d 5195 f3bc c3e9 e5bc
00000060: e3b5 d23c c702 0abd 285c 1c3d c6e3 bb3d
00000070: e7da d93d 0c20 d5bd 94c0 8a3d b943 2fbd
00000080: 201a c93d b75f 1bbd ee62 cc3d f013 56bd
00000090: ac39 fbbc 96a5 0dbe 378e 043e 78f3 e23c
000000a0: caee 2e3c 897f 883d 559e b5bc 3c15 c03d
000000b0: b9d4 063c d2a2 04bd 8afe d33d 2a1f 4a3c
000000c0: 4212 423d eceb 14be 7138 aabd 7e0a 113d
000000d0: 67ea d43d 4212 79bd 69e6 0bbd 945d e3bd
000000e0: e3b7 d13d 86c1 99bd 0746 843d 52c3 4bbd
000000f0: 66d1 e5bd 5409 1d3d 70da d6bd b471 b33d
00000100: 9fe9 a33c d0c6 833d 8311 5b3b cde1 f8bc
00000110: 7991 203d cf6a b23d 8f66 ad3d 6b1c 7c3d
00000120: acc4 a6bd c9f2 abbc ba8f 053d ccf7 003d
00000130: 3443 b6bd 9753 993d 2fe4 1abd 873d dbbc
00000140: f372 cfbd fe58 c3bd d56a 9cbd d6b4 993d
00000150: f6c5 5abd 9b9e 713c 502e 4ebd d098 19bd
00000160: e205 683d 2865 c4bd 3b2f 193d f36f e13b
00000170: 2409 f93d 9a1d 8cbd 43f9 02be 8533 97bc
00000180: 363c f7bc d560 bc3c 007e c83d b896 e63c
00000190: 896f 103d 6940 e63d 65b3 043e 391a d33b
000001a0: 8623 57bc 7f2c 09be ee90 2cbd 0f48 213d
000001b0: 6662 f53d 81f7 9dbd f4a6 263d ff16 7fbd
000001c0: 2822 7fbd e195 8fbd b428 8e3d a8e9 b03d
000001d0: 9e79 813d 63b5 003d 50d6 81bb 1790 813c
000001e0: c62d f03d 705d 1abd c16e 273d 3e42 193c
000001f0: 09b4 04be ccb3 043d eac0 e6bd 1062 863d
00000200: 67db b9bd 9756 c7bc b2f9 ae3d 32b2 85bd
00000210: ba0a 24bd 5d07 94bd 01b5 e03c aca3 8f3d
00000220: 6058 563d b436 96bd a9da 5dbd 56d4 c6bc
00000230: e8ee 37bd 7d8b 06be d928 1ebd 62a8 75bd
00000240: 8ada fdbd 5bc6 233b e185 783b 6946 90bd
00000250: 16e6 16bd 4420 f53b d72a 483d 2dce 05be
00000260: 8081 efbd 2a4f e03c 77bb 9cbd 6472 f1bc
00000270: 7153 acbd a394 bc3c 6a81 26bc e0f6 3f3d
00000280: 0c50 9abc d4dd 873d 2a5f 1b3e 18c7 293d
00000290: 123f 4c3d 887b b33c 4e41 d0bc dbe0 80bd
000002a0: a804 513d d8d9 303d 65ef 4dbd 1422 cabd
000002b0: 1c40 cbbd 0d7f 0e3e ad95 aabd d23e b53d
000002c0: 58b3 003b 862f 10bd b50f 863d b5e9 d43d
000002d0: 147e 123e 4133 07be f3ed cf3d 58c6 d83d
000002e0: 7d87 e4bc 4425 093e 2836 b53c 5446 d7bd
000002f0: 8afd 07be 8ede 0e3d 7cb7 6b3d c045 5b3d
00000300: 4c2c 83bd f8c6 a9bd 6201 123e 3264 d03d
00000310: d89e 2e3d 68da 213d 8587 a73d 224b e03d
00000320: adce a63d 766e fa3d 6f3d a4bd c3a1 14bd
00000330: 9c74 bfbd 7731 1c3e 3a8d 7c3d c618 15bd
00000340: 8ad9 4ebd 0df1 143e b8f9 c2bc 672d 8abc
00000350: 4b1a de3d be52 273d f468 9bbc 0bc5 c6bd
00000360: e30e 2ebd fbb7 683d 02fc 9d3d 7bde 2dbd
00000370: 1f9b c33d ffa2 42bc 0a16 75bd 78b4 35bd
00000380: 82e0 f1bd 7d01 73bd 91d2 433d 3e6d 403d
00000390: 20a8 2b3d 845c 5eb9 ff47 ae3b 8b1f 0b3d
000003a0: ef6c aa3d 7dbf beba 97ec ca3d 2274 61bd
000003b0: 2ffb 0d3e 4bee f7bd 2266 033e 95b8 f9bc
000003c0: eb9d 01bd 3f33 ba3d 8182 633d 9f59 873d
000003d0: 59e7 a03d c357 d2bd 8ed3 583c 0a29 0e3d
000003e0: d047 333d 7483 873c 3042 25bd e2c7 60bc
000003f0: 1c4f 9d3d e362 693c 8cdc cdbb 6d57 81bd

encoder.layers.0.self_attn.W_V.weight f4 [60, 100]
0.020782864 -0.015608883 0.0607996 -0.026992517 -0.04397255 0.034688137 -0.029771592 -0.010112714
0.06002386 0.007897806 -0.039637852 0.047661085 -0.012423199 0.016605198 -0.18834989 -0.030423058
0.08939618 0.02802596 -0.037947167 -0.034577623 -0.05988551 -0.013313597 -0.055715114 -0.034291513
0.05204422 -0.013718557 0.091061 0.032471493 0.0021272537 -0.076853424 0.068446144 -0.05032339
0.0046205632 -0.063242376 0.08603788 0.0466307 -0.1103974 -0.06253275 -0.009282066 -0.060582522
-0.078412935 0.0045998115 0.037800457 0.016147962 -0.006679489 -0.11535696 -0.061978765 -0.0629639
0.11698963 0.018234817 0.06744953 0.010510759 0.08474899 0.053396728 -0.00941733 0.020381052
-0.1471454 -0.049049843 0.022973677 -0.020549696 -0.11893459 -0.14818166 0.012901555 -0.023213102
-0.01394778 -0.086531684 0.044825308 0.036767937 -0.06833181 0.07746915 -0.07214887 0.093895406
-0.027077954 -0.10523653 0.022625472 -0.12389273 0.05608966 -0.015264296 0.0034957014 -0.0749005
0.005777643 0.0121200485 -0.014403695 0.0070911488 -0.050897397 -0.12674361 0.041958883 -0.01897054
0.10157279 -0.07642463 -0.08686346 0.050060097 0.022732511 -0.08373786 -0.007577177 -0.13803092
-0.020180123 0.0286769 0.062809706 0.07603678 0.058699854 0.06320982 0.003550338 0.14367932
-0.048646394 0.027305728 -0.08900109 -0.008723748 0.07865374 0.045785077 -0.032691333 0.008501322
-0.05976665 0.032328613 -0.0256086 0.071151376 -0.04988701 0.025385603 0.05795323 -0.008488284
0.046339177 -0.09208298 -0.09611298 0.0037947427 0.013961715 -0.118261345 0.016967107 0.12168508
-0.050197035 -0.074934185 0.038807053 -0.10946036 0.15640287 0.05107418 0.0377744 0.09378515
-0.04587882 -0.068135835 0.06178475 0.015429771 -0.06753936 -0.012183145 -0.07836621 -0.015086992
0.07531742 -0.055205353 -0.010805593 -0.04162235 0.026558949 0.07115396 -0.035487026 0.13005221
0.069295086 -0.052258685 -0.011773779 -0.06598618 0.12078587 0.0060653887 -0.006251914 0.06972415
0.016712593 -0.03146454 -0.11485419 -0.007519733 -0.009651109 -0.08692447 0.1273218 0.092108816
0.031775124 -0.028221224 0.025929518 -0.029746883 -0.0138927875 -0.14299423 -0.11990426 0.03656439
-0.06103563 0.041233957 -0.058535576 0.05771582 -0.06332167 -0.09955044 -0.02744478 0.08311742
0.03418061 -0.08265823 0.02696265 -0.12580171 0.11747963 -0.11854341 0.13189544 -0.0023324366
-0.0072796047 -0.063363336 -0.09199163 -0.042724308 -0.02282294 -0.0068356246 -0.014201016 0.020454662
-0.05973722 -0.07551128 -0.091620915 0.13747878 0.030047663 0.13528451 -0.08610006 -0.025033124
0.13421084 0.09408034 -0.01331483 0.004555959 0.07744186 0.13490692 0.0069997166 0.06603366
-0.031060154 0.02398435 0.114831656 -0.016497454 -0.010479649 0.015520003 -0.04511495 -0.05952472
0.06447311 -0.12058228 0.02379274 -0.005984222 0.026366891 -0.12512507 -0.08205942 -0.089114696
0.021809952 -0.10394031 0.065708496 0.04887491 0.06519064 -0.017478073 0.0060518067 -0.031734303
0.08180324 -0.042985905 -0.0006650328 0.038203977 0.05456225 -0.038524862 0.07127474 0.08301465
0.006970084 0.024027312 -0.08238885 0.14769444 -0.058155462 0.09825571 0.10185816 0.017111622
00000000: d340 aa3c 67bc 7fbc 0009 793d 691f ddbc
00000010: 901c 34bd 2615 0e3d 8ee3 f3bc ccaf 25bc
00000020: 94db 753d cd65 013c 4d5b 22bd 4538 433d
00000030: ac8a 4bbc a007 883c cbde 40be c739 f9bc
00000040: 5815 b73d b396 e53c 7d6e 1bbd 44a1 0dbd
00000050: 824a 75bd 4621 5abc 8835 64bd 4275 0cbd
00000060: 522c 553d ccc3 60bc 317e ba3d d400 053d
00000070: 6569 0b3b 5465 9dbd 7e2d 8c3d e61f 4ebd
00000080: 1868 973b 3885 81bd a134 b03d d5ff 3e3d
00000090: 0818 e2bd 2c11 80bd ce13 18bc 6125 78bd
000000a0: f696 a0bd 04ba 963b a7d4 1a3d bb48 843c
000000b0: 9ddf dabb 4540 ecbd 72dd 7dbd 38f3 80bd
000000c0: 4298 ef3d 2f61 953c fb22 8a3d 5235 2c3c
000000d0: e190 ad3d 87b6 5a3d 254b 1abc 2af6 a63c
000000e0: 49ad 16be 7de8 48bd 4b33 bc3c d657 a8bc
000000f0: fa93 f3bd efbc 17be 0b61 533c 6729 bebc
00000100: 3b85 64bc 8637 b1bd be9a 373d fa99 163d
00000110: 8cf1 8bbd 25a8 9e3d c9c2 93bd 3c4c c03d
00000120: 96d2 ddbc 4086 d7bd 0e59 b93c 79bb fdbd
00000130: 45be 653d 1917 7abc 2318 653b 6f65 99bd
00000140: 6252 bd3b 2b93 463c 7afd 6bbc de5c e83b
00000150: ca79 50bd 14c9 01be 14dd 2b3d 1b68 9bbc
00000160: 6505 d03d 8484 9cbd 78e5 b1bd d10b 4d3d
00000170: 8839 ba3c c17e abbd f849 f8bb fa57 0dbe
00000180: c950 a5bc d1eb ea3c 60a2 803d 2cb9 9b3d
00000190: 426f 703d 2674 813d caac 683b ac20 133e
000001a0: 7141 47bd 43b0 df3c 3446 b6bd 0dee 0ebc
000001b0: 3615 a13d 2289 3b3d 59e7 05bd 2149 0b3c
000001c0: e0cd 74bd 026b 043d 20c9 d1bc d0b7 913d
000001d0: 5256 4cbd 78f5 cf3c 5e60 6d3d 7212 0bbc
000001e0: 26ce 3d3d 0096 bcbd e2d6 c4bd 38b1 783b
000001f0: adbf 643c 0133 f2bd 9afe 8a3c 0736 f93d
00000200: 689b 4dbd 1877 99bd 25f4 1e3d c12c e0bd
00000210: 1328 203e 2933 513d 54b9 1a3d 6e12 c03d
00000220: 6eeb 3bbd cd8a 8bbd 0212 7d3d 26cd 7c3c
00000230: 1352 8abd d09b 47bc 777e a0bd 6e2f 77bc
00000240: 0540 9a3d 021f 62bd f109 31bc 337c 2abd
00000250: 2792 d93c 2bb9 913d d85a 11bd 682c 053e
00000260: 95ea 8d3d 340d 56bd cfe6 40bc c323 87bd
00000270: 955e f73d 2bc0 c63b dbdc ccbb 89cb 8e3d
00000280: d9e8 883c f6e0 00bd ac38 ebbd 1868 f6bb
00000290: af1f 1ebc 7505 b2bd a560 023e 8ca3 bc3d
000002a0: a226 023d 3230 e7bc 246a d43c bcaf f3bc
000002b0: 939e 63bc 146d 12be 5d90 f5bd 8bc4 153d
000002c0: 7f00 7abd f0e4 283d 00c3 6fbd 6c67 6c3d
000002d0: cbae 81bd 1ae1 cbbd e0d3 e0bc 7739 aa3d
000002e0: f800 0c3d b848 a9bd c6e0 dc3c 2ad2 00be
000002f0: 2999 f03d e3c6 f2bd 990f 073e cbdb 18bb
00000300: c089 eebb a3c4 81bd 1c66 bcbd afff 2ebd
00000310: 2df7 babc 60fd dfbb 61ab 68bc 8990 a73c
00000320: 04af 74bd a8a5 9abd bfa3 bbbd 3dc7 0c3e
00000330: 8426 f63c 0688 0a3e 3a55 b0bd 4412 cdbc
00000340: 916e 093e 31ad c03d 7226 5abc 274a 953b
00000350: d799 9e3d 0a25 0a3e e15d e53b a83c 873d
00000360: dd71 febc d47a c43c dc2c eb3d ab25 87bc
00000370: d5b2 2bbc 9c47 7e3c 74ca 38bd 31d0 73bd
00000380: 7a0a 843d d8f3 f6bd fee8 c23c 4b17 c4bb
00000390: 61ff d73c c920 00be c50e a8bd c481 b6bd
000003a0: c9aa b23c a8de d4bd 2d92 863d 0f31 483d
000003b0: ac82 853d 2d2e 8fbc 3c4e c63b d4fb 01bd
000003c0: 7588 a73d fd11 30bd 9955 2eba c67b 1c3d
000003d0: aa7c 5f3d 3fcc 1dbd 7ef8 913d 9603 aa3d
000003e0: 4d65 e43b edd4 c43c 7cbb a8bd 363d 173e
000003f0: 6c34 6ebd 4a3a c93d 039b d03d ac2d 8c3c

encoder.layers.0.self_attn.W_O.weight f4 [100, 60]
-0.10741771 -0.02812318 -0.06108776 -0.016094346 0.14807406 -0.12464911 -0.092419684 -0.10161982
0.045898188 -0.061733678 -0.050243936 -0.045089085 0.05870721 -0.012026669 0.06832708 0.048665445
-0.107920475 0.0036423383 0.085887365 -0.06331369 0.04147824 0.014588925 -0.1348983 0.026930384
-0.05990999 -0.06504804 -0.057736438 0.0050540688 0.0019275091 -0.12351926 0.027449798 0.06341856
0.13339865 -0.0583127 0.024607906 0.17767367 -0.035366517 -0.058275245 -0.17063466 -0.009352894
0.10483632 -0.19038485 0.014339385 -0.1952655 0.110737056 0.058350675 0.06795883 -0.117172495
-0.17985111 0.09047159 -0.2021512 0.021534504 -0.076820284 -0.105698265 0.05247278 0.10878721
0.09398148 -0.0016322648 -0.03039506 0.01150161 -0.06978757 -0.022098735 0.012858032 0.068675525
-0.026673928 -0.016869517 0.10601393 -0.031184584 -0.04194381 -0.021108214 0.017192174 0.026343936
0.009797061 0.0036141132 0.10890914 0.091629505 0.043488894 0.0531338 -0.04501973 0.09041175
0.06805735 0.105976515 -0.012302014 0.010942645 -0.047694746 0.00976212 0.09494851 0.058940273
-0.029538974 -0.0014799901 -0.13309127 -0.11155053 -0.019873885 -0.05383958 -0.055240806 0.08841532
-0.033283994 0.1367541 -0.10235421 -0.1431778 0.14134267 -0.06688841 0.01427391 -0.056487184
0.13010591 0.05804941 -0.091541566 0.022890449 0.14128056 0.069401905 0.11313156 -0.14005022
-0.17093632 0.08916676 0.117911704 -0.016983561 0.1263842 0.0015385502 -0.10096502 0.05404791
0.03437391 0.059030935 -0.08360951 0.1045104 0.0019299639 0.15302348 -0.18348809 0.10021484
0.12605515 -0.08877714 -0.013088176 0.015955862 0.13605583 0.019779092 -0.07082006 -0.10355107
0.14398433 -0.067283414 -0.12645596 -0.08817532 -0.10119217 0.06555678 0.17995602 0.0022968203
-0.06290314 -0.0416759 -0.037812646 -0.10653196 -0.016401075 0.12773454 0.12940873 -0.07060869
-0.12853776 -0.027018525 -0.04873721 0.07891548 -0.09109466 -0.07816325 -0.06980247 -0.023125354
0.064436555 0.07421637 0.14187054 -0.037935607 0.12349411 -0.15709868 0.10249334 -0.07468891
-0.031160492 0.08337554 -0.14218639 -0.077351995 -0.09186903 -0.028039683 -0.020138295 0.16382541
-0.075112306 0.063046165 0.050164197 0.030278949 -0.11274517 0.096864596 0.13751048 0.04528186
0.09498262 -0.002155129 0.03717225 0.015644368 -0.0006029114 0.07480833 0.08841021 -0.13011488
-0.00900481 0.009197222 -0.015181556 0.04519291 -0.07710981 -0.027208127 -0.0939157 0.07187501
0.01961631 0.09032892 -0.0025590044 -0.16462223 0.047578283 0.08076538 0.100307815 -0.01423195
0.13268892 -0.050525624 -0.049562205 0.09875462 0.17970644 -0.07717877 0.048734765 -0.098046765
0.08177248 -0.05773895 0.00021224134 -0.08191398 -0.075432085 0.038176358 0.02207789 0.03277651
-0.026047047 0.1271606 -0.09420997 -0.028821032 -0.07976377 -0.17225114 -0.09225429 -0.038070694
0.17991169 -0.08841571 -0.047987483 -0.10891972 -0.029205156 0.10900355 -0.11397995 -0.13215582
0.08112154 0.04338187 -0.07881499 -0.018715497 -0.08730569 0.065614544 0.10759318 -0.10213829
-0.060118932 0.1410924 0.11326693 0.11957718 0.04800728 0.16009907 0.067771636 -0.01159641
00000000: d1fd dbbd 9562 e6bc 2937 7abd 4ad8 83bc
00000010: baa0 173e 0848 ffbd 8846 bdbd 0d1e d0bd
00000020: bdff 3b3d 74dc 7cbd 96cc 4dbd 55af 38bd
00000030: f976 703d 820b 45bc 11ef 8b3d 6b55 473d
00000040: 6905 ddbd 4cb4 6e3b b7e5 af3d 9caa 81bd
00000050: 16e5 293d 6306 6f3c c822 0abe 1c9d dc3c
00000060: 2d64 75bd e837 85bd 0b7d 6cbd 9a9c a53b
00000070: 79a4 fc3a aaf7 fcbd 66de e03c 97e1 813d
00000080: a899 083e 4cd9 6ebd 8596 c93c 16f0 353e
00000090: 7bdc 10bd 06b2 6ebd daba 2ebe e13c 19bc
000000a0: 6db4 d63d 3ff4 42be bdef 6a3c aef3 47be
000000b0: 1cca e23d 1e01 6f3d 002e 8b3d 22f8 efbd
000000c0: e42a 38be 2b49 b93d b900 4fbe 2169 b03c
000000d0: f453 9dbd 5578 d8bd b3ed 563d d4cb de3d
000000e0: 5d79 c03d b8f1 d5ba 10ff f8bc 4071 3c3c
000000f0: c9ec 8ebd 6808 b5bc 7faa 523c c1a5 8c3d
00000100: 4883 dabc f131 8abc d51d d93d d076 ffbc
00000110: 46cd 2bbd 22eb acbc 9ad6 8c3c 3dcf d73c
00000120: da83 203c c2da 6c3b c10b df3d 40a8 bb3d
00000130: 6921 323d d4a2 593d 9c66 38bd cc29 b93d
00000140: a761 8b3d 370a d93d 638e 49bc c848 333c
00000150: 915b 43bd 4df1 1f3c 5d74 c23d 5b6b 713d
00000160: b8fb f1bc 3afc c1ba 1449 08be 9b74 e4bd
00000170: 8fce a2bc e486 5cbd 2f44 62bd 1713 b53d
00000180: cc54 08bd 4409 0c3e 169f d1bd 349d 12be
00000190: 22bc 103e cafc 88bd 1edd 693c 1b5f 67bd
000001a0: 7c3a 053e 38c5 6d3d 257a bbbd c084 bb3c
000001b0: daab 103e 9622 8e3d 85b1 e73d 5369 0fbe
000001c0: ee09 2fbe 109d b63d b17b f13d 1c21 8bbc
000001d0: dc6a 013e 2ea9 c93a c0c6 cebd 5761 5d3d
000001e0: a8cb 0c3d 6cca 713d 763b abbd 8c09 d63d
000001f0: d8f6 fc3a 30b2 1c3e 4de4 3bbe 703d cd3d
00000200: 9a14 013e cad0 b5bd ca6f 56bc deb5 823c
00000210: 3852 0b3e c307 a23c 1c0a 91bd 9512 d4bd
00000220: a170 133e e3cb 89bd ac7d 01be 4395 b4bd
00000230: d73d cfbd a242 863d 6446 383e 4086 163b
00000240: 5dd3 80bd 59b4 2abd 6fe1 1abd 6e2d dabd
00000250: 8c5b 86bc d8cc 023e b983 043e 4a9b 90bd
00000260: 679f 03be f455 ddbc aba0 47bd 709e a13d
00000270: d68f babd 0e14 a0bd 99f4 8ebd 6271 bdbc
00000280: 50f7 833d c1fe 973d 8346 113e 5e62 1bbd
00000290: 7bea fc3d 7ade 20be 07e8 d13d 80f6 98bd
000002a0: 4a44 ffbc ccc0 aa3d 4f99 11be b96a 9ebd
000002b0: d425 bcbd 7ab3 e5bc 11f9 a4bc d9c1 273e
000002c0: 7bd4 99bd 591e 813d f978 4d3d 8f0b f83c
000002d0: f1e6 e6bd f260 c63d 8ccf 0c3e 7979 393d
000002e0: 3f86 c23d 113d 0dbb ee41 183d 9e28 803c
000002f0: b30c 1eba 1c35 993d 6a10 b53d d63c 05be
00000300: e988 13bc f2af 163c 10bc 78bc 331c 393d
00000310: c0eb 9dbd 94e3 debc e056 c0bd 3533 933d
00000320: 62b2 a03c 5efe b83d f8b4 27bb bb92 28be
00000330: 72e1 423d 5268 a53d 2f6e cd3d 202d 69bc
00000340: 9bdf 073e f5f3 4ebd bd01 4bbd dd3f ca3d
00000350: f704 383e e70f 9ebd 1b9e 473d becc c8bd
00000360: 5478 a73d ad7f 6cbd 1a8d 5e39 84c2 a7bd
00000370: 237c 9abd d05e 1c3d b1dc b43c a940 063d
00000380: 9e60 d5bc 6336 023e 28f1 c0bd 161a ecbc
00000390: 305b a3bd 9a62 30be d1ef bcbd 04f0 1bbd
000003a0: c53a 383e 4c13 b5bd 868e 44bd 4d11 dfbd
000003b0: a73f efbc 413d df3d 526e e9bd db53 07be
000003c0: 0d23 a63d 30b1 313d c169 a1bd 3e51 99bc
000003d0: 53cd b2bd eb60 863d d059 dc3d e12d d1bd
000003e0: 453f 76bd 877a 103e 7ef8 e73d e1e4 f43d
000003f0: 48a3 443d 03f1 233e dbcb 8a3d defe 3dbc

encoder.layers.0.batchnorm_attn.1.weight f4 [100]
0.9432536 1.02123 1.0210373 0.99056685 1.0362545 1.0395824 0.98363674 0.98484695
0.98922306 1.1081489 1.042305 1.0505724 0.99219555 1.01052 1.0400244 1.0008905
0.997735 0.9516036 0.9467106 0.9826132 0.98430544 0.969874 1.0156349 0.9978407
1.0418161 1.0676783 1.0780854 0.98567516 0.9929503 0.97649246 0.9509658 0.96601146
1.1017871 1.0036558 0.9918736 1.0310514 0.9987897 1.0526367 1.0144472 1.0389639
0.9825946 0.9764289 0.97966766 0.98663896 0.98247325 1.0601909 1.0176347 1.0190152
1.0199995 0.9816765 0.91643786 1.0416995 1.015876 1.011232 0.9595465 1.0769153
0.95884633 0.94945866 1.0063521 1.0368651 0.9917871 1.027359 1.0408626 1.0208684
1.0171361 0.96575534 0.98200065 1.0076482 0.959911 1.0306203 1.0075177 0.9932345
0.9742318 1.0303974 1.0140783 0.9842732 1.0203632 0.9987 0.99767995 1.0101802
0.9992435 0.9779513 0.9856197 1.0456591 0.9681247 1.0121686 1.0062668 1.0553825
1.0448769 0.9688993 1.0549445 0.96349525 1.0046555 0.9125561 0.9812483 0.99965227
0.9897888 0.9077296 1.0051646 0.9975531
00000000: 1179 713f aab7 823f 5ab1 823f ca95 7d3f
00000010: fda3 843f 0911 853f 9ecf 7b3f ee1e 7c3f
00000020: b93d 7d3f d3d7 8d3f 406a 853f 2879 863f
00000030: 8700 7e3f b858 813f 851f 853f 2e1d 803f
00000040: 906b 7f3f 4b9c 733f a05b 723f 8a8c 7b3f
00000050: 71fb 7b3f aa49 783f 5300 823f 7d72 7f3f
00000060: 3b5a 853f afa9 883f b4fe 893f 3555 7c3f
00000070: fe31 7e3f 69fb 793f 7f72 733f 874c 773f
00000080: 5c07 8d3f cb77 803f 6eeb 7d3f 7ef9 833f
00000090: afb0 7f3f cdbc 863f 68d9 813f c5fc 843f
000000a0: 528b 7b3f 3ff7 793f 80cb 7a3f 5f94 7c3f
000000b0: 5e83 7b3f 56b4 873f db41 823f 176f 823f
000000c0: 588f 823f 274f 7b3f ac9b 6a3f 6956 853f
000000d0: 3a08 823f 0d70 813f d7a4 753f 5cd8 893f
000000e0: f476 753f b90f 733f 25d0 803f ffb7 843f
000000f0: c2e5 7d3f 8080 833f fc3a 853f d1ab 823f
00000100: 8431 823f be3b 773f 6564 7b3f 9efa 803f
00000110: babc 753f 5eeb 833f 57f6 803f 9e44 7e3f
00000120: 4167 793f 10e4 833f 51cd 813f 54f9 7b3f
00000130: 439b 823f ceaa 7f3f f467 7f3f 964d 813f
00000140: 6cce 7f3f 045b 7a3f 9351 7c3f 28d8 853f
00000150: 05d7 773f be8e 813f 5acd 803f c616 873f
00000160: 87be 853f c909 783f 6c08 873f a0a7 763f
00000170: 8d98 803f 479d 693f 1733 7b3f 36e9 7f3f
00000180: cc62 7d3f f860 683f 3ca9 803f a45f 7f3f

encoder.layers.0.batchnorm_attn.1.bias f4 [100]
-0.013217332 0.037280295 0.021071682 -0.0485993 0.049467117 0.08553684 0.031818517 -0.08240734
-0.053818773 -0.016998641 0.024392642 -0.022010572 -0.053518344 -0.019111285 -0.039723262 0.014447461
-0.01072878 -0.064485304 0.027389044 0.03697187 0.01701631 0.041169137 0.034812193 0.059138868
0.0042901468 0.034015547 -0.029881375 -0.038169164 -0.038065933 0.008784532 0.018782532 0.046905063
0.024856811 0.028331552 0.03950211 -0.0012291975 -0.00090648606 -0.009648778 -0.0025809861 -0.005882717
-0.012098008 -0.0077578556 -0.07375685 -0.06675357 -0.0034664087 -0.02013948 0.06695158 -0.034978747
-0.04360875 0.009850373 -0.017618245 -0.077263124 -0.049551178 0.007789557 -0.02543617 0.02567017
-0.010646389 0.04568579 0.0023291488 0.010578639 0.056401882 0.039155327 0.039146725 0.010180869
0.0071384427 0.05641369 0.024064187 0.0042522172 0.040208492 -0.028106436 0.033189256 -0.03868254
-0.051764447 0.068026856 0.05719253 -0.074497506 0.005328173 -0.017916119 0.04632919 0.07778554
0.029820817 -0.023712844 0.06318451 0.011953018 0.010265302 0.037442658 0.062493257 0.027332747
-0.015852662 0.007647805 0.01523065 -0.07045503 -0.04538848 -0.052274734 0.037750717 0.023359207
-0.0036838583 0.015962431 0.0100160735 0.03989456
00000000: 828d 58bc 39b3 183d 859e ac3c 0f10 47bd
00000010: 089e 4a3d f02d af3d 2254 023d 2ec5 a8bd
00000020: 1371 5cbd bc40 8bbc 14d3 c73c 844f b4bc
00000030: 0d36 5bbd 458f 9cbc dcb4 22bd 0bb5 6c3c
00000040: c4c7 2fbc df10 84bd fd5e e03c d16f 173d
00000050: ca65 8b3c f8a0 283d 3b97 0e3d 993b 723d
00000060: 5c94 8c3b e353 0b3d c9c9 f4bc 4557 1cbd
00000070: 06eb 1bbd ffec 0f3c d3dd 993c 861f 403d
00000080: 83a0 cb3c 9217 e83c f7cc 213d 061d a1ba
00000090: 40a1 6dba e815 1ebc c325 29bb cfc3 c0bb
000000a0: b936 46bc 9c35 febb d50d 97bd 19b6 88bd
000000b0: b02c 63bb 8dfb a4bc e91d 893d e045 0fbd
000000c0: 179f 32bd 7563 213c 2354 90bc 213c 9ebd
000000d0: 2df6 4abd 8a3f ff3b 845f d0bc 404a d23c
000000e0: 316e 2ebc 0621 3b3d a2a4 183b 0752 2d3c
000000f0: a905 673d 5661 203d 5158 203d a9cd 263c
00000100: 99e9 e93b 0b12 673d 4222 c53c 2f56 8b3b
00000110: a9b1 243d 783f e6bc 75f1 073d 9571 1ebd
00000120: f506 54bd aa51 8b3d b742 6a3d 2692 98bd
00000130: f497 ae3b d3c4 92bc adc3 3d3d 064e 9f3d
00000140: c94a f43c 7041 c2bc e166 813d 97d6 433c
00000150: cc2f 283c 795d 193d eef8 7f3d ede8 df3c
00000160: 71dd 81bc 709a fa3b fa89 793c ba4a 90bd
00000170: 45e9 39bd 081e 56bd 7fa0 1a3d cf5b bf3c
00000180: e36c 71bb a5c3 823c 751a 243c 7a68 233d

encoder.layers.0.batchnorm_attn.1.running_mean f4 [100]
2.6994977 -0.06647362 -1.1152378 1.6726502 -1.1985245 0.071772486 -1.5938946 -0.2357714
1.4842075 0.3632881 -0.4894756 0.44711006 1.303173 0.695697 1.691744 -0.9752234
0.67314047 0.16521947 0.887815 -0.97585624 -1.4068365 1.7558632 -2.1038206 -2.0177517
-0.2849798 -0.48826313 -0.29825318 2.0120823 1.43472 0.24319522 1.4277519 -2.7531853
-0.3107826 0.29401344 1.0767618 0.5518237 1.6015164 0.84373415 -0.5940204 0.16900459
1.6678299 0.07434773 1.5256805 2.2091753 1.0030465 -0.3996721 -1.538842 -0.58631027
0.7634255 -1.1763295 -2.1457 0.69852 0.6247481 -0.30583015 1.8817699 -1.0035428
0.67492616 -2.4587212 0.20955178 0.07889146 -0.69554335 -1.6232613 -0.4970579 -0.3643637
-1.4417504 -2.0320601 -1.6959753 0.23636992 -0.81142336 1.0656623 0.8836528 2.894433
-0.4433645 -1.0759659 -2.0100572 0.6883083 0.18211704 2.6058688 -1.9988084 -1.376767
-2.4819582 0.80236906 -1.2955117 0.7672098 -2.125088 -0.4154015 -0.02232213 -1.3865405
0.20822373 -0.18644473 0.4382087 2.0111196 3.6162362 -0.6708273 -1.013614 -0.9624451
0.8700142 -2.1096559 -1.6667602 -1.0547632
00000000: 92c4 2c40 5223 88bd 1dc0 8ebf 6719 d63f
00000010: 4069 99bf 74fd 923d bd04 ccbf 0f6e 71be
00000020: 83fa bd3f e600 ba3e 8c9c fabe 9ceb e43e
00000030: 5fce a63f 3319 323f 118b d83f 3ea8 79bf
00000040: ef52 2c3f 4b2f 293e d847 633f b7d1 79bf
00000050: 3813 b4bf 20c0 e03f ffa4 06c0 d822 01c0
00000060: dfe8 91be a0fd f9be a4b4 98be f5c5 0040
00000070: e8a4 b73f 2b08 793e 93c0 b63f 3034 30c0
00000080: e61e 9fbe ee88 963e 55d3 893f 5144 0d3f
00000090: 7dfe cc3f f6fe 573f b911 18bf 8a0f 2d3e
000000a0: 737b d53f 9f43 983d 8049 c33f 2163 0d40
000000b0: d463 803f d2a1 ccbe c6f8 c4bf 6e18 16bf
000000c0: db6f 433f f791 96bf 2653 09c0 35d2 323f
000000d0: 7eef 1f3f c595 9cbe d6dd f03f 1774 80bf
000000e0: f6c7 2c3f b05b 1dc0 be94 563e d991 a13d
000000f0: 210f 32bf 07c7 cfbf 607e febe e18d babe
00000100: 478b b8bf 460d 02c0 b815 d9bf f50a 723e
00000110: 71b9 4fbf 9f67 883f 1237 623f 643e 3940
00000120: ac00 e3be 40b9 89bf c7a4 00c0 f934 303f
00000130: e47c 3a3e 8ec6 2640 f4d8 ffbf e739 b0bf
00000140: 67d8 1ec0 0f68 4d3f 54d3 a5bf dd67 443f
00000150: 7101 08c0 81af d4be e6dc b6bc 297a b1bf
00000160: 9a38 553e 5eeb 3ebe e45c e03e 2fb6 0040
00000170: 6a70 6740 57bb 2bbf 1bbe 81bf cd62 76bf
00000180: 40b9 5e3f 9a04 07c0 6658 d5bf 7b02 87bf

encoder.layers.0.batchnorm_attn.1.running_var f4 [100]
7.9041486 0.7960401 3.40996 5.555648 3.1191666 2.005203 1.4846082 2.358726
4.5043507 1.6793865 5.111179 6.4150057 4.752727 3.3836641 2.5488446 7.06474
3.7362137 0.6267996 2.6779704 2.9305456 4.9154816 2.4883082 1.6888478 5.2370906
2.5501795 1.7844952 1.7732922 4.3355565 4.5214458 2.246881 1.5740772 7.966184
0.5130598 2.531514 3.7401016 3.2317238 4.1357636 1.2167695 2.3971856 2.3740208
2.7809174 4.046552 4.1616755 2.4812756 2.047727 2.4411864 3.886736 1.8536565
2.869204 3.9659884 4.632074 1.8775876 1.3738673 3.1290712 2.4124072 1.9272816
4.064164 3.6360903 1.3400639 0.94372314 3.6191866 4.1303163 1.4732522 3.6809635
3.7522912 2.4019914 4.472505 1.4031696 3.4363053 10.65353 1.2725517 5.7724314
4.688823 2.2179909 6.0003767 3.8482585 1.7276015 3.623334 3.863067 1.0895214
4.0507464 2.5219812 2.8802593 2.401749 5.2697487 1.355195 4.0723925 1.5018353
1.4182254 5.013106 1.8645797 2.8933504 4.290802 2.4488611 2.5825038 2.2878742
5.684425 5.908115 3.915254 5.3822856
00000000: c9ee fc40 49c9 4b3f c93c 5a40 dec7 b140
00000010: 6da0 4740 3f55 0040 a407 be3f 5ef5 1640
00000020: a423 9040 23f6 d63f c78e a340 ba47 cd40
00000030: 5716 9840 f48d 5840 4520 2340 5a12 e240
00000040: 201e 6f40 f075 203f de63 2b40 0f8e 3b40
00000050: a04b 9d40 7140 1f40 2a2c d83f 3f96 a740
00000060: 2436 2340 576a e43f 3dfb e23f e1bc 8a40
00000070: afaf 9040 e6cc 0f40 5d7b c93f fbea fe40
00000080: e357 033f 5304 2240 d35d 6f40 90d4 4e40
00000090: 2d58 8440 1abf 9b3f 7d6b 1940 f5ef 1740
000000a0: 8dfa 3140 5b7d 8140 722c 8540 38cd 1e40
000000b0: f60d 0340 663c 1c40 48c0 7840 9e44 ed3f
000000c0: 0aa1 3740 c1d2 7d40 f339 9440 ca54 f03f
000000d0: e2da af3f b442 4840 e164 1a40 2ab1 f63f
000000e0: a20d 8240 b4b5 6840 3787 ab3f d797 713f
000000f0: c1a0 6740 8d2b 8440 8793 bc3f e894 6b40
00000100: 8a25 7040 3aba 1940 c31e 8f40 109b b33f
00000110: 6dec 5b40 dc74 2a41 f9e2 a23f c2b7 b840
00000120: d70a 9640 90f3 0d40 1603 c040 de49 7640
00000130: 0c22 dd3f b4e4 6740 7d3c 7740 7075 8b3f
00000140: b79f 8140 2468 2140 2b56 3840 41b6 1940
00000150: c8a1 a840 0877 ad3f 0a51 8240 243c c03f
00000160: 6988 b53f 5d6b a040 8caa ee3f a72c 3940
00000170: 404e 8940 24ba 1c40 be47 2540 886c 1240
00000180: cfe6 b540 470f bd40 8693 7a40 af3b ac40

encoder.layers.0.ff.0.weight f4 [256, 100]
-0.037344705 0.024661632 0.10154964 0.09521013 -0.10941962 -0.0033941998 0.09992627 0.13231148
0.02106357 0.15582909 -0.030762626 -0.12426596 -0.11996637 -0.09083212 0.07520298 -0.09708621
0.13335043 0.0042730137 -0.07060851 -0.059422523 0.04867931 -0.050520234 -0.029195935 -0.038886145
-0.11529757 0.041421138 0.0010495094 -0.06076123 -0.012075958 0.05741925 -0.061753888 -0.019101484
-0.12724829 0.05257248 -0.038687475 0.07446419 -0.08150512 -0.09514866 -0.07611429 0.03606053
-0.03865377 0.054723185 0.09902486 -0.1030914 -0.054608196 -0.12033581 0.1176267 0.037744686
-0.10175702 0.101266414 0.003965793 0.047316726 -0.054942027 -0.0432086 0.072337285 0.024820693
-0.018355057 0.07978711 0.05988983 0.0031962167 0.032055795 -0.09157667 0.050139174 0.079961784
-0.053181104 -0.031188216 -0.00722522 -0.019900473 0.13401566 0.0067882226 0.047561456 -0.112129785
0.05977664 -0.06269373 -0.07531541 0.05519316 0.013484234 -0.048515517 -0.040398896 -0.036039703
0.08246339 -0.05209878 0.073626086 -0.058509756 -0.005335889 -0.035836283 -0.07755114 -0.08189538
-0.05987566 -0.028580928 0.018410377 0.026013248 -0.04372915 -0.01243948 0.03636341 -0.02619824
0.10382917 -0.04596766 -0.00789581 -0.010540591 -0.037543852 0.0129361 0.057102386 -0.07066399
0.0100304205 -0.06652748 0.05784696 -0.064119056 -0.0005940156 -0.04081829 -0.11930188 -0.11424734
-0.028169679 -0.087873064 -0.09767627 -0.10909866 0.06982762 -0.054744806 -0.075934894 0.013686861
0.06841473 0.021449946 0.03279834 -0.05940565 -0.12391138 -0.09121902 -0.12514572 -0.0890413
-0.04062834 -0.040012363 -0.06502467 0.05866406 -0.111607075 0.10861149 -0.00054597406 0.13386893
0.07018176 -0.037564877 0.022462234 -0.022879204 -0.01529465 -0.119547315 0.10143548 -0.0044022603
-0.060058136 -0.016136393 0.081925556 -0.09795348 0.058888223 0.10790244 0.08540633 0.103915945
-0.09630602 0.036269877 -0.02575165 -0.0024208652 0.04926662 0.0795881 0.03311593 -0.01012883
0.013104264 0.08875896 -0.063280106 -0.044091213 -0.05759184 0.025129791 0.016627913 0.043997947
0.028935058 -0.0067163813 0.078157105 0.015218547 0.072195 -0.047739957 -0.046851248 0.010621145
-0.031248292 -0.060344715 -0.040057372 -0.031376995 0.021946846 0.07127136 -0.062234066 -0.00037692496
0.083358176 -0.03541758 -0.11267505 -0.03361107 -0.011460926 -0.015004371 0.06947275 -0.07956483
-0.07828515 0.021767039 -0.0040107416 0.083656535 0.024665976 0.029444937 -0.054278523 0.10841349
0.09876335 -0.1317897 -0.009678321 0.0600187 -0.11527304 -0.089487046 -0.02305322 -0.02496513
0.12249177 -0.027015971 -0.0028220804 -0.09359682 0.14271486 -0.017253181 0.006360585 0.05281861
-0.13565941 -0.034573294 -0.09599374 0.013801376 0.10410869 -0.13137297 -0.054311432 -0.0070090997
-0.002830647 -0.036698516 0.07275567 0.015028861 -0.025165442 0.044553943 -0.0045980657 0.019727902
0.13045761 -0.14022164 0.034174815 0.06263098 0.010025552 0.05524754 -0.06296796 0.0607198
-0.024897875 -0.09944289 0.018802881 -0.050896328 -0.030223463 0.046367757 -0.06356508 0.061100625
-0.07047505 0.041818872 0.025188604 -0.014350302 0.06452082 0.07018607 -0.07777164 0.14245208
00000000: c3f6 18bd 3107 ca3c 42f9 cf3d 87fd c23d
00000010: 6517 e0bd 3971 5ebb 25a6 cc3d a97c 073e
00000020: 828d ac3c a991 1f3e e701 fcbc 277f febd
00000030: eeb0 f5bd 3106 babd 0504 9a3d 23d5 c6bd
00000040: 048d 083e a304 8c3b 329b 90bd 0865 73bd
00000050: f563 473d 4eee 4ebd 502c efbc 1447 1fbd
00000060: 2221 ecbd 36a9 293d b18f 893a c4e0 78bd
00000070: 3dda 45bc 7330 6b3d a5f1 7cbd b77a 9cbc
00000080: 604d 02be 3e56 573d c276 1ebd ae80 983d
00000090: 28ec a6bd 4ddd c2bd cfe1 9bbd 35b4 133d
000000a0: 6a53 1ebd 6b25 603d 8ccd ca3d 9521 d3bd
000000b0: d8ac 5fbd 9f72 f6bd 44e6 f03d 2c9a 1a3d
000000c0: fc65 d0bd c464 cf3d 7cf3 813b 2fcf 413d
000000d0: e40a 61bd 80fb 30bd 9225 943d c454 cb3c
000000e0: 585d 96bc 6d67 a33d 0a4f 753d 9e77 513b
000000f0: f04c 033d 8d8c bbbd bc5e 4d3d 01c3 a33d
00000100: 6ed4 59bd 6e7e ffbc 8ac1 ecbb 5106 a3bc
00000110: 673b 093e bd6f de3b cdcf 423d 4da4 e5bd
00000120: 5ad8 743d 9265 80bd f73e 9abd 3912 623d
00000130: faec 5c3c 35b8 46bd 5079 25bd 5e9e 13bd
00000140: 91e2 a83d 8865 55bd 46c9 963d eda7 6fbd
00000150: aed8 aebb 11c9 12bd 22d3 9ebd c4b8 a7bd
00000160: 2e40 75bd 8d22 eabc 5cd1 963c bc19 d53c
00000170: 561d 33bd f6ce 4bbc cdf1 143d b19d d6bc
00000180: 63a4 d43d 9648 3cbd 6d5d 01bc 71b2 2cbc
00000190: 95c7 19bd f0f1 533c 31e4 693d 48b8 90bd
000001a0: a256 243c 8f3f 88bd eff0 6c3d da50 83bd
000001b0: b6b7 1bba 1431 27bd 8b54 f4bd 82fa e9bd
000001c0: 19c4 e6bc cbf6 b3bd 7f0a c8bd 1e6f dfbd
000001d0: c901 8f3d 173c 60bd c183 9bbd db3e 603c
000001e0: 061d 8c3d ccb7 af3c 8d57 063d 5753 73bd
000001f0: 40c5 fdbd 0ad1 babd 3326 00be 495b b6bd
00000200: e769 26bd 01e4 23bd a72b 85bd ba49 703d
00000210: 4092 e4bd b36f de3d b31f 0fba f014 093e
00000220: 74bb 8f3d a1dd 19bd b802 b83c 2b6d bbbc
00000230: 6996 7abc 39d5 f4bd 68bd cf3d d640 90bb
00000240: 85ff 75bd 7830 84bc 96c8 a73d d69b c8bd
00000250: c734 713d f4fb dc3d 84e9 ae3d e2d1 d43d
00000260: 173c c5bd b98f 143d 20f5 d2bc 61a7 1ebb
00000270: cccb 493d 16ff a23d 92a4 073d 64f3 25bc
00000280: 44b3 563c 42c7 b53d 0099 81bd fd98 34bd
00000290: 6ce5 6bbd fedc cd3c 4337 883c 3137 343d
000002a0: 3709 ed3c 1715 dcbb d510 a03d 3657 793c
000002b0: f9da 933d f98a 43bd 18e7 3fbd 5004 2e3c
000002c0: 6bfc ffbc 052c 77bd 3313 24bd 2a85 00bd
000002d0: dfc9 b33c b8f6 913d 26e9 7ebd 039e c5b9
000002e0: b1b7 aa3d 0612 11bd 2dc2 e6bd c3ab 09bd
000002f0: 9cc6 3bbc e5d4 75bc bb47 8e3d e3f2 a2bd
00000300: f753 a0bd ca50 b23c 8a6c 83bb 1e54 ab3d
00000310: 4d10 ca3c 8236 f13c 2853 5ebd e407 de3d
00000320: 7044 ca3d e1f3 06be d291 1ebc 2bd6 753d
00000330: 4614 ecbd fc44 b7bd 1bda bcbc ac83 ccbc
00000340: f7dc fa3d 9950 ddbc a7f2 38bb b1af bfbd
00000350: d823 123e 8b56 8dbc 746c d03b 5458 583d
00000360: 4dea 0abe ba9c 0dbd 5e98 c4bd 2b1f 623c
00000370: f036 d53d a386 06be aa75 5ebd 97ac e5bb
00000380: 6082 39bb 2f51 16bd ed00 953d 9d3b 763c
00000390: c227 cebc 327e 363d 5fab 96bb 699c a13c
000003a0: ae96 053e 4396 0fbe e4fa 0b3d ac44 803d
000003b0: 3642 243c 3f4b 623d 59f5 80bd 53b5 783d
000003c0: a1f6 cbbc b7a8 cbbd 8008 9a3c ab78 50bd
000003d0: 3297 f7bc 1eec 3d3d 692e 82bd a644 7a3d
000003e0: 3955 90bd 444a 2b3d 5558 ce3c 871d 6bbc
000003f0: 7e23 843d b7bd 8f3d bd46 9fbd f5de 113e
