transformer_results_random_no_constants_no_param_tune/performance_prediction/PSO1-PSO2-PSO3-PSO4-PSO5-PSO6-PSO7-PSO8-PSO9-PSO10-PSO11-PSO12_random_no_constants_dim_3_samples_50_fold_3_budget_30_n_heads_2_n_layers_1_d_model_100_d_k_30_d_v_30_aggregations_mean/trained_model_dict.pt (torch, 338811 bytes, 22 tensors)

W_P.weight f4 [100, 4]
00000000: 8d2b a2be d832 b83e b0e7 5fbe 0ae2 ac3e
00000010: 1177 eb3e 21e8 1cbe 5dec 9e3e 7a74 e53e
00000020: 518d 1ebe 84ed bebe 69ed ae3e ed86 1c3f
00000030: eac7 d0be 80d2 debe b01f 5bbc 13a7 8dbc
00000040: d368 bc3e a05d 5ebe 797c d3bc 1af0 333e
00000050: 6c67 d9be 6296 58be 3e10 dc3e 5dfd fcbd
00000060: 7aa4 503e 81dc f0bd 1fbb 91be 4195 183e
00000070: aba0 d2bd acc3 a23e f9c1 adbe fe29 d6be
00000080: 099a ebbd 4b66 efbe 2093 ca3e 4d7c 183f
00000090: 19d5 8fbe 6800 073d 9bcf 683e fccf 91be
000000a0: 48f9 48be 9ec0 60be e3dd 9dbe f47c b83e
000000b0: efa5 ea3d bb77 5f3d 5def 883e 30b4 84bd
000000c0: 9b59 283d 6992 5c3e 141c 803e 7606 1a3f
000000d0: 31ca 3c3e 6c44 18be 5f10 e03c 65b1 a9ba
000000e0: 47ae a2bd e704 32be 2c42 49bd 8fbe 03bf
000000f0: fd78 91be 4db5 cf3e d9fe 0d3e 96f1 efbe
00000100: 8ea4 8ebc af64 87be 72f2 c5be 0b1f edbe
00000110: 4606 cb3c 2b60 a73e ebe2 a43d c6ff dc3e
00000120: 203a 8b3e 50b0 dd3c 39af 893e a3a3 ebbe
00000130: 1e86 e33e a31c 7f3c 5018 2f3e 30f9 83be
00000140: 96db a7be a4ec 32be d0c4 03be 2b1b d5be
00000150: 1ae5 bdbe 363b dfbe f964 be3e 0719 d43e
00000160: eddf aebe deaa 97bd 1424 d43e 984a c93e
00000170: 259c e73e 208a eebe ced8 9e3e 20f8 ec3b
00000180: df19 e2bc bfdb 143e be4f 8e3e 7388 de3e
00000190: c312 74be 955b 1c3d 241e 5e3d 099a f63e
000001a0: 1f4d 333c 15f6 aebb e243 8c3d 37bf e5be
000001b0: c7c6 cebe 2833 a1bc c6e6 403d 02e0 15bf
000001c0: 5452 f6bd e8ef 52be 99ff dd3d d9f3 7abe
000001d0: b9da 0dbe da58 b9be caff 453d 943a cdbe
000001e0: 91aa 48be c9fc 1bbc 5d8e 50be e6ce f43e
000001f0: 8172 403e fd47 993e 1d7d 393e bd27 a43e
00000200: a226 06be 9bde b0be ee82 77bd 19fc 053f
00000210: f13e 883e d6f9 9dbe b215 d1bd d22f 7d3e
00000220: 2ae2 8c3c d180 d73d 9a0e 5e3e a7cd fd3e
00000230: 0639 3dbe 00c7 7cbd 6de8 bb3e 082f edbe
00000240: c680 a9be c7b1 a33e 7382 c83e 1d74 183e
00000250: 8880 31be 0ad0 a6be 45b2 debe 9ad6 2dbe
00000260: e010 86be 24eb c6bd b61b e9bd 1c9c 133f
00000270: 9030 913e 2177 1bbe 8454 433e 1fec 9dbd
00000280: 7a9f 233b 529b 41be a6ff cbbd b249 a43e
00000290: b4e7 933e fc40 203e 1e90 d7be c532 0a3f
000002a0: c5ac 1bbd 4fab 073d f6af 0cbe a6af d53e
000002b0: 28db afbe 80c2 c03d 6dfc 683e b087 7e3e
000002c0: 94db c53e af3a 933e 2051 afbe 9eaa 363e
000002d0: e062 853e f5c3 7cbe 95b8 0cbc f526 ccbe
000002e0: 83e7 e8be b8f5 b1be a48c c33d b6bf e93e
000002f0: 44dc 193e a479 3d3e d052 cbbe 2fad 703e
00000300: e65c 0abd d895 57be 0993 063e 242e ccbe
00000310: bec2 52be 6145 fabd ab97 903e d211 f1be
00000320: 89c2 8ebe 3ec7 99be 0844 b6be fe1c 0ebf
00000330: 5736 013d 7d79 a5bd 8120 5f3e 6a78 ddbe
00000340: 964c 913e 19e7 ee3e 3190 45be 4c02 65be
00000350: e1dc a93b f0eb b6be 6136 c5be e19a 52be
00000360: 9f9a a8bd d42c 213e dfa8 0d3e 9c78 e93c
00000370: 870f 403e 09f0 d93e 1f5c 9abd 57da 0fbf
00000380: 7204 e7be 0e30 b63d 46b5 513e 7ca6 8ebe
00000390: 4cd6 c43e a52c f63e b697 cdbc 0370 0abf
000003a0: 0f26 4d3e aefd c93e 4755 84bd 13f3 0cbf
000003b0: 68db 6bbd a8df cdbe 1225 2bbd fac9 91bd
000003c0: 127e 19be 7759 423e ae9f e93c bb1b fc3d
000003d0: 9a22 e9bc 8564 473c 8d43 a9bd ffb9 babe
000003e0: 740e 49be e18a 49be 6f24 56bd 9b08 cd3e
000003f0: 1833 0bbe 5f6b 62bd 39e8 653d 8c76 12be
-0.31673852 0.3597629 -0.21865726 0.33766204 0.45989278 -0.15322925 0.31039706 0.44815427
-0.15483595 -0.37290585 0.34165505 0.6114338 -0.40777522 -0.43519974 -0.013374254 -0.017291581
0.36798725 -0.21715403 -0.02581619 0.1757206 -0.42461717 -0.21151116 0.42981142 -0.12353013
0.20375243 -0.11760808 -0.28463075 0.14900686 -0.10284551 0.3178991 -0.33937052 -0.41828912
-0.11503989 -0.4675773 0.39565372 0.5956467 -0.28092268 0.03295937 0.22735445 -0.28478992
-0.19626343 -0.21948478 -0.3083335 0.36032832 0.114574306 0.054557543 0.2674512 -0.064796805
0.04110108 0.21540226 0.25021422 0.6016611 0.18436505 -0.14869851 0.027351556 -0.0012946544
-0.07943397 -0.17384683 -0.049135372 -0.51462644 -0.2841262 0.4056801 0.13866748 -0.46864003
-0.01741245 -0.26444003 -0.38661534 -0.46312746 0.024783265 0.32690558 0.08051094 0.4316389
0.27192783 0.027061611 0.26891497 -0.46023282 0.4443826 0.015570792 0.17099118 -0.25776052
-0.32784718 -0.17473084 -0.12868047 -0.4162229 -0.37088853 -0.43599862 0.3718641 0.41425344
-0.34155217 -0.07405637 0.41433775 0.39314723 0.45236316 -0.46589756 0.31024784 0.0072317272
-0.027600227 0.14536951 0.27795213 0.43463477 -0.23835282 0.038173277 0.054227963 0.48164394
0.01094368 -0.005339394 0.06848885 -0.44872448 -0.4038603 -0.019677714 0.047095083 -0.58544934
-0.120274216 -0.2059933 0.10839767 -0.24507083 -0.13852967 -0.362006 0.048339643 -0.40083754
-0.19596316 -0.009520718 -0.20366807 0.478141 0.1879368 0.29937735 0.18114133 0.32061568
-0.13100675 -0.34544834 -0.0604276 0.52337795 0.2661052 -0.30854672 -0.10209216 0.24725273
0.017197687 0.10522617 0.21685258 0.49570963 -0.18478784 -0.06171322 0.36700764 -0.46324944
-0.3310606 0.3197157 0.39162025 0.14888044 -0.17334187 -0.32580596 -0.43495384 -0.16976395
-0.2618475 -0.09712818 -0.113822386 0.5766008 0.28357363 -0.15182163 0.19075209 -0.07711052
0.0024966882 -0.18906906 -0.099608704 0.32087475 0.28887713 0.1564979 -0.4210214 0.5398372
-0.038006563 0.033122357 -0.13738999 0.41735572 -0.3434689 0.09412098 0.22752543 0.24856448
0.38644087 0.2875571 -0.3424158 0.17838523 0.26051998 -0.24684127 -0.00858893 -0.39873472
-0.4548913 -0.3475778 0.095483094 0.45654076 0.15025431 0.18503433 -0.39711618 0.23503564
-0.03378 -0.21053255 0.13142027 -0.39878953 -0.20582101 -0.12220264 0.28240713 -0.47083908
-0.27882794 -0.30034822 -0.3559878 -0.5551299 0.031545963 -0.08079813 0.21789743 -0.4325593
0.28378743 0.4666069 -0.19293286 -0.22364157 0.0051838015 -0.3572688 -0.3851805 -0.20566894
-0.08232617 0.15739757 0.1383395 0.028499894 0.18755923 0.42565945 -0.07537102 -0.56192535
-0.4512058 0.088958845 0.20479307 -0.27861392 0.38444746 0.48080936 -0.025096755 -0.54077166
0.2003405 0.39451355 -0.06461578 -0.550584 -0.05758229 -0.402097 -0.0417834 -0.07118602
-0.14989498 0.1897944 0.028518524 0.12309977 -0.028458882 0.012169962 -0.082648374 -0.3647003
-0.1963442 -0.19681884 -0.05228084 0.40045628 -0.1359371 -0.05527818 0.056129668 -0.14303035

W_P.bias f4 [100]
00000000: 7601 00bc d5ad d73d b9c7 e5bd dbad 713e
00000010: 05de efbe addf fd3d c52c 9e3e 2eab e4be
00000020: f76a e2bd 57a3 de3e e58b eb3e 0bd1 e0be
00000030: 5665 57be 4de2 9c3e 93d4 eabe 58d2 d03e
00000040: c450 61be 45ab c93e 73e7 113f 37ae a43d
00000050: 5e1b efbe 0467 a3bd 7eea 97be b188 133f
00000060: 4b7f 5ebd dca7 c5be 4667 96be b5b3 09bf
00000070: 5267 953d 1138 c5bb 5ef9 26be b519 96be
00000080: 4a70 10bd bbb9 123e a4fd 3fbe baf0 fcbe
00000090: 9ebd 32be 4203 e2be 2c2b 95be d564 dfbe
000000a0: e724 003f ecc2 ae3e 938b 08bf 0a44 cb3e
000000b0: cd98 dcbe 0733 023f 3205 d5be 244e 14be
000000c0: db73 bcbd f18e e0be da4f 9c3e 13d5 bcbe
000000d0: dfad edbe 508e 893d 06b1 5a3e 4d98 f83e
000000e0: 7d8c 473e dd10 b03e 415e a43e 641d e7be
000000f0: 7413 dbbe 2d12 9cbe 1350 ddbe 3a22 f03e
00000100: a745 e13e 1a8e 993e 7dc5 06bf f31f 073f
00000110: 8720 e23d 5823 723e addd dc3e d420 36bd
00000120: 859e 113e 7119 09bf 36a3 efbe 40d8 7c3e
00000130: 38fd 92be 5111 703d 3bf8 053f bff8 a93e
00000140: 0c8a 12bf 1de6 9e3d 6446 c3be 1ca8 f33e
00000150: 50e3 b8be f719 8f3e 51cf 123e 8eaa 16be
00000160: e18c e0bc 362c dd3d 0986 aebe 2337 0a3f
00000170: 6564 cabe 8995 aebe 7d0b 6bbe a184 95bd
00000180: e604 f33e 547e e83d e001 76be ad7a da3e
-0.007812848 0.10531203 -0.11219735 0.23601477 -0.46849075 0.123961784 0.3089353 -0.4466185
-0.11055558 0.43483993 0.4600517 -0.43909487 -0.2103475 0.30641404 -0.45865306 0.4078548
-0.22003466 0.3938848 0.5699379 0.08041041 -0.46700567 -0.07978633 -0.2967109 0.5763045
-0.054320615 -0.3860463 -0.29375666 -0.53789836 0.072950974 -0.0060186465 -0.16306064 -0.29316488
-0.035263337 0.14328663 -0.187491 -0.4940241 -0.17455146 -0.4414311 -0.291345 -0.43631616
0.5005631 0.3413309 -0.53337973 0.39700347 -0.43085328 0.5085911 -0.41605526 -0.14482933
-0.09201785 -0.43859056 0.30529672 -0.36881313 -0.46421716 0.06716597 0.21356592 0.48553696
0.19487186 0.34387866 0.3210316 -0.4513961 -0.4278828 -0.30482617 -0.43225154 0.46901113
0.43998453 0.29991227 -0.52645093 0.52783126 0.1104136 0.23646295 0.43137875 -0.0444649
0.14220627 -0.53554446 -0.46804208 0.24691868 -0.28708816 0.058610264 0.52331895 0.3319759
-0.5724189 0.077587344 -0.3813964 0.47589195 -0.36110926 0.27949497 0.14336897 -0.14713499
-0.027410926 0.10799448 -0.34086636 0.5399038 -0.3952972 -0.3409846 -0.22953601 -0.073006876
0.47464675 0.1135222 -0.24024153 0.4267172

encoder.layers.0.self_attn.W_Q.weight f4 [60, 100]
00000000: 6e98 a03d dfd3 aa3d 8277 053d c90d 2f3d
00000010: e0ed d43c eb3c d13d b942 a9bd 18e7 6bbd
00000020: a2b9 8bbd 15fd 06bd 590f 743d f9c9 98bd
00000030: 7607 8abd 94b6 36bc 4d18 f5bd 130b 74bc
00000040: 5d60 a6bd 839f a1bd f481 043e a89c e7bc
00000050: 950d d4bd cc2f 843d d418 acbd a493 3a3d
00000060: c04a bb3d 3e52 bfbd a8e0 ba3b affb c3bd
00000070: 2412 d2bc 250c ff3c 11f4 a7bd 2bba 82bb
00000080: 16b0 f5bc bb15 ef3c b82a 2dbc a378 9abd
00000090: 53c4 9b3d a396 5cbb d5c9 48bd d9b3 843d
000000a0: cfb7 e73d e017 bd3d 1f88 acbd a665 1dbd
000000b0: f911 d4bd 6c78 193d f2d7 a13b 4aec 44bd
000000c0: 53e9 d9bc c89d 2cbd 4e5c 93bc 84d1 bdbd
000000d0: f09b 673d 4646 803d 8dea 873c 9163 a4bd
000000e0: 387b 43bc 1f86 183c bc9f 68bd 7cc4 0b3d
000000f0: f447 dabd a2cf cabc 8c3e cd3a 499a 813c
00000100: c57d 6e3d f6f8 923c bb4c 2c3d 0229 d83d
00000110: 2669 2c3d c5e6 f53d d6dc 83bc ed1f 87bd
00000120: 7353 b23d 26d7 57bd d0c5 033c f45a 913d
00000130: 98ff ab3c 20da 28bd 41a6 9bbd 48fc bc3d
00000140: c142 973d b200 72bb 6fd3 36bc a1a3 1dbd
00000150: b3dd b5bd 40d6 90bc ee5c debc 54d8 81bd
00000160: 22d2 973d 0bcb 9e3d 4e68 1e3c d642 89bd
00000170: 677a babd f892 7cbd e072 aabd 9786 943d
00000180: 2f18 f63d 3ac0 8e3d 3642 c1bd befa b1bc
00000190: 8e96 813d a280 55bd 5b2b 3abd a78a b3bc
000001a0: 935a 813d a995 433d 5d92 9cbd 5ad9 c33d
000001b0: 2b3e 703d 8993 f93b 2b9a 6ebc b330 e63d
000001c0: 2286 9a3d 9b88 dfbd 91d8 e93d 768b 00be
000001d0: acad 01bd e1d9 8f3d aff8 3cbd 72d0 7d3d
000001e0: 0a17 4d3d 23ce 463d 2ebc 2d3d 085e 893c
000001f0: 94d2 643d 70e1 773d c715 253b eb87 7abd
00000200: ef03 613c e89d 893d d89d f23d 2b22 55bc
00000210: 4163 c5bc f9b0 3d3c 2f7c e93d bd60 933d
00000220: 976f dd3d 07b7 f63d 5308 123e 7c13 bc3d
00000230: a983 92bd 9c2a 5e39 2475 d33d ac1c 8b3c
00000240: b868 803d bced fbbc d9a7 073e 7de8 9f3d
00000250: b7cf 883d 5dd7 7dbd d9fb d4bc e85f 783d
00000260: eef5 233d 3af1 b0bb 79ec 583d 2c1e e1bd
00000270: cb2e d6bd be70 2ebd 6218 01be 2c3c 80bd
00000280: f8ea 663d 05cf bd3c 3207 00bd fc59 eb3c
00000290: 11d9 21bd f1e7 8d3d 4c4e 853d 8b2e 01be
000002a0: 954f a6bc 893a 32bd 317b 9cbd b03d 433c
000002b0: 2fc8 e3bc 1c91 f2bc 6f3e 253c e38f abbd
000002c0: ae76 a3bc b631 d63c cc63 d7bd d4c7 e93c
000002d0: 3f81 e23c 75f4 47bc 2064 bc3a b481 f3bd
000002e0: ba43 e73d 241e 2dbc 82c9 09bd 10dd a43d
000002f0: 9adb 3bbd 7fc0 ac3d 5c51 8a3d 8622 c3bc
00000300: f936 e73d 5df6 563d 6dac 553d 0fb6 09bc
00000310: 8cce 2c3d bfda be3d 05ec a73d fc33 21be
00000320: 8282 6d3c 0209 7fbd f776 8ebd 8eac 8cbd
00000330: f3ea 583d bbd3 a13d 1c2c de3b 8f65 31bd
00000340: 5d53 aebd 08ef 17bd 729d c0bd aabb 23bc
00000350: f233 eabd 93f6 a6bd cf17 95bc d4f3 7bbd
00000360: 2e3a 6e3d 0443 a1bd 0c8c 2cb9 b637 b0bc
00000370: 5dc4 afbd 0e53 1bbd 60ec 173d 4f11 4a3d
00000380: 58d5 c4bd f80c c3bd adfb b83d 98ec 4d3d
00000390: 07bc d7bc 13da 64bd 4ed8 f13c 66c1 1d3d
000003a0: 5173 a6bd 982b 86bd 1842 c1bd f38e cb3d
000003b0: 3f20 3c3b 9cd4 c4bd 3d72 403d bd83 ebbc
000003c0: 0354 bfbc 78a9 383a a8eb 953d fd3c 853c
000003d0: c583 4dbd 951b 623d da9c d9bd 3d18 893d
000003e0: e553 9cbd 441c f43c ee2b 28bc fea6 b03d
000003f0: 9ffa a73d be50 fcbc 0034 53bd b6b5 59bb
0.07841574 0.083411925 0.032584675 0.042737756 0.025992334 0.10216697 -0.082646795 -0.057593435
-0.06822516 -0.0329562 0.05958495 -0.07460398 -0.06739704 -0.011151928 -0.11967526 -0.014895218
-0.081238486 -0.078917526 0.12940198 -0.028272942 -0.10354153 0.06454429 -0.08403173 0.045550957
0.09145117 -0.09341858 0.0057030506 -0.09569489 -0.025643416 0.03113372 -0.08200849 -0.003989478
-0.02999119 0.029185167 -0.010569267 -0.07542541 0.07605805 -0.0033659122 -0.049020607 0.06479616
0.113143556 0.092330694 -0.084244005 -0.038427018 -0.103549905 0.03746836 0.0049390728 -0.048076905
-0.026600515 -0.04214266 -0.01798835 -0.092684776 0.056545198 0.062634036 0.016591335 -0.08026803
-0.011931233 0.009309321 -0.05679296 0.03412293 -0.10658255 -0.02475721 0.0015658899 0.01582064
0.058225412 0.01794098 0.042065363 0.105546966 0.042092465 0.120069064 -0.016096514 -0.06597886
0.08707323 -0.052695416 0.008042768 0.07097426 0.0209959 -0.041223645 -0.0760007 0.09227806
0.07385779 -0.0036926684 -0.011158808 -0.038486127 -0.088801764 -0.017680287 -0.027143922 -0.063400894
0.074131265 0.07753571 0.009668423 -0.06702201 -0.09105378 -0.061663598 -0.08322692 0.072522335
0.120163314 0.06970258 -0.09436457 -0.021726009 0.06327544 -0.052124627 -0.045451503 -0.0219167
0.06316104 0.04775015 -0.07645104 0.09562941 0.058653038 0.0076164645 -0.014563124 0.112397574
0.07545115 -0.10914727 0.1141826 -0.125532 -0.031659767 0.07023979 -0.0461356 0.061966367
0.0500708 0.04853643 0.04241579 0.01676847 0.055864885 0.06051773 0.0025189982 -0.061164778
0.013733848 0.06719571 0.118465126 -0.013008635 -0.02409518 0.011577838 0.11400639 0.07196186
0.108123 0.120466284 0.14260988 0.09183404 -0.071540184 0.00021187443 0.10325077 0.016981445
0.062699735 -0.030753009 0.13247623 0.078080155 0.066802435 -0.061972965 -0.025998997 0.06063834
0.04002946 -0.00539985 0.052959893 -0.10992083 -0.10458144 -0.042587988 -0.12606958 -0.06261477
0.056376427 0.023170004 -0.031256862 0.028729431 -0.03951365 0.06929005 0.065090746 -0.12615411
-0.02030162 -0.043512855 -0.076406844 0.011916563 -0.027805416 -0.02961021 0.010085686 -0.083770536
-0.019954052 0.02614675 -0.105170816 0.028537668 0.02764952 -0.012204279 0.0014373101 -0.11889973
0.11292215 -0.010566268 -0.03363944 0.08049977 -0.045863725 0.08435153 0.06753799 -0.023820173
0.11289782 0.052481044 0.05216639 -0.008405223 0.042189166 0.09319066 0.08199314 -0.15742487
0.0144964475 -0.06226445 -0.069562845 -0.0686885 0.05295844 0.079017125 0.0067801606 -0.043309744
-0.08511994 -0.037093192 -0.0940503 -0.009993473 -0.11435689 -0.08152499 -0.01819983 -0.06151183
0.058160953 -0.0787411 -0.0001645537 -0.02151094 -0.08582375 -0.037921004 0.03709066 0.049332913
-0.096110046 -0.09523958 0.09032378 0.05027446 -0.026334776 -0.055872034 0.029522087 0.038514517
-0.081274636 -0.065512836 -0.094364345 0.09939375 0.0028705744 -0.096108645 0.046983946 -0.028749341
-0.02335549 0.0007044296 0.073203385 0.016264433 -0.050174493 0.055202086 -0.1062562 0.06694076
-0.07633189 0.029798634 -0.01026438 0.08625601 0.08202099 -0.03080022 -0.051563263 -0.003321988

encoder.layers.0.self_attn.W_K.weight f4 [60, 100]
00000000: 5617 c5bd ac34 983d 9760 45bd f9d9 d0bd
00000010: 7ecb 133d f33f 213d 0775 dfbc 4b5d aa3d
00000020: 6c6e d73c da6a 25bd 01cf 78bd e7f6 a13c
00000030: 82b1 de3b b4a8 b13c 9f56 013c 3e29 4d3d
00000040: 5ec6 8abd 6b78 a7bd bd67 49bd 28bc dc3d
00000050: c70e ef3d 5cbe 90bd 7ec8 81bd 29d5 883d
00000060: 9c60 dbbd 4d62 013d f71b feba 956b e33d
00000070: a4a8 66bd 41be a43c c2ef 67bd 309d 83bd
00000080: 3076 90bd 1dd7 b3bd c4b5 86bd 1150 0f3e
00000090: 96ac 563d 26ce 163d 2f9f 63bd cebe 6cbc
000000a0: 8b77 9bbc 87eb 4dbd 8eef 0fbd d108 81bd
000000b0: 5fc4 863c f209 923d 182c 6abd cb8b d5bd
000000c0: 92f6 d73c 6e15 033e 6e4b dcbc fd3f 0cbd
000000d0: 1947 6ebd fee2 a9bc 5d7c a53d 02fc 39bd
000000e0: e591 4cbd 5aae 99bd 28d4 fb3d bc7d b93c
000000f0: 4e8f af3b a962 193d 778e a1bd 5827 8ebd
00000100: fb76 b03a c947 80bd 8f9d b03d ec53 a9bd
00000110: 9bd1 4dbd 7fec cbbc 850c c23c 26d9 6e3d
00000120: 5176 5fbd 2abf 1bbd 460d 4d3d 22d5 5e3d
00000130: 9ced c8bc 21c7 24bd f6f9 dfbd 4853 52bd
00000140: 78fa 743c 1db5 333d b309 00bd 8a15 b33c
00000150: 2f72 e73d 04e0 b83d ca80 953d 1215 b9bd
00000160: 852a fcbd 3042 5d3d c620 4f3d 7673 693b
00000170: 6d88 7c3d 4dd6 28bd d22d 67bd 5401 82bd
00000180: a220 803b ef31 b13d 29c8 9abd a2da 843d
00000190: 7827 fb3d 13dd 8abd 7d5f 103e b8c6 61bd
000001a0: 61ba e53d 2d5f 4bbd c359 cf3d f85a 16be
000001b0: 75bf a03d 5d86 6f3d 852b ba3d a15d b83c
000001c0: 3b84 973d 6b19 8e3c 2345 43bd 262a 28bd
000001d0: 83f9 b0bd 430b 823d 8c34 373d 3785 e5bd
000001e0: 87e8 debd 6f23 163d a64d 70bc 2de1 8abb
000001f0: 7a92 b2b9 b91b 3f3d fbe1 30be af90 2fbd
00000200: 7ee4 f7bc 3190 4a3d b83f ff3d ed21 a43d
00000210: 6082 b53d 61cf f73d c7b3 083e 2086 dbbc
00000220: a344 9b3c ff8d 53bd f37e e73c bc31 093d
00000230: 21c3 1ebd 626f 283b 8dc9 8f3d f3db 493c
00000240: 777d 98bc 3f87 ac3c b23b 143d 1849 8a3d
00000250: 3d32 3fbd 05a9 b13c 800b 42bd 5386 97bc
00000260: 861e b6bd 2e1d f43b 7f3e 1d3d 2348 38bd
00000270: 1b48 393d 04a1 a03c ce06 2a3a a356 953d
00000280: d096 25bd 8820 14be f6e8 27bd 951a ab3c
00000290: 48aa ed3d 17ad da3c d548 6a3d 78de a8bd
000002a0: 4933 39bd 2c20 903c b4fd 903d 9f6d 9fbd
000002b0: 08a4 593a 55fb a83c bd6e 52bd 324e 97bd
000002c0: 23e0 88bd 9ce8 e7bc 7b60 2e3d 3ead c6bd
000002d0: d211 93bd 5003 93bc e686 c93c 0f82 02bd
000002e0: 03cb 80bd 7998 ebbc fae2 943d 3aab 943d
000002f0: f1b7 623c e940 99bc 7381 25bd 8ca3 afbb
00000300: a3f9 2f3c 4991 52bc 16fb 6e3d a769 063d
00000310: 7d8d a13d a226 973d 7303 b4bd b555 7abd
00000320: 7400 33bd ebf2 b2bd 9279 d7bc b302 80bd
00000330: 3ec6 db3c dfdc b2bd c2a3 a0bd 4074 1cbd
00000340: 4941 be3d e193 bebd bc38 b13d a235 4b3d
00000350: b1fb eb3d 237b d2bb 9982 cabd ca16 c23b
00000360: a167 b7bd cbca 24bd 5cb4 3aba 47ac 073d
00000370: b4fb 653c 54c8 e4bc b172 39bd 2f3f 083a
00000380: 2b0b a43d 8981 a13d d126 f03c 5521 233c
00000390: e9df 8f3d 2ab6 59bd b0a6 963d e6fb 74bd
000003a0: b9aa 81bc fdca d63d 708d 0e3d 7678 7d3c
000003b0: d4aa c1bd d774 5c3d 8222 2a3c aa1c 46bd
000003c0: 8b07 a83d 556c a6bc e98c 673c 77ba 5fbd
000003d0: c40a 6dbd aaf8 ed3b 438d c6bb 4d46 913d
000003e0: b904 35bd 9f48 44bd ab9d d7bc 6baa f33c
000003f0: 86f6 2a3d 9128 1a3d 03dd 0cbd fef5 9fbd
-0.096235916 0.07431921 -0.04818782 -0.10197825 0.036082737 0.039367627 -0.027277483 0.083185755
0.02629777 -0.040385105 -0.06074429 0.019771053 0.006796063 0.02168689 0.007894187 0.05008816
-0.06776117 -0.08177265 -0.0491712 0.107780755 0.116727404 -0.07067558 -0.06337069 0.06681282
-0.10711786 0.031587888 -0.0019386996 0.11104504 -0.056313172 0.020110251 -0.056625135 -0.064264655
-0.070537925 -0.08781264 -0.06577638 0.13995387 0.052410685 0.036817692 -0.05557173 -0.014449788
-0.018977901 -0.050273445 -0.035140567 -0.0630051 0.016451059 0.07130803 -0.057170957 -0.10427054
0.026362691 0.12801144 -0.026891436 -0.03424071 -0.058173273 -0.020738121 0.08080361 -0.04540635
-0.049943823 -0.07503958 0.12296325 0.022642963 0.0053576594 0.037447605 -0.07888501 -0.06941098
0.0013463193 -0.06263692 0.08623802 -0.0826796 -0.050248723 -0.024893044 0.02368761 0.058312558
-0.054556195 -0.038024105 0.050061487 0.054402478 -0.024527363 -0.040228967 -0.10936348 -0.051348954
0.0149522945 0.043873895 -0.03125925 0.021860857 0.11301076 0.090271026 0.07299955 -0.09037222
-0.123127975 0.0540182 0.050568365 0.0035621799 0.061653543 -0.04122 -0.056440182 -0.063479096
0.00391014 0.08652102 -0.07557709 0.064870134 0.122633874 -0.06780448 0.14098926 -0.055121154
0.112171896 -0.049651314 0.101245426 -0.1468314 0.078490175 0.05847775 0.09090332 0.022505583
0.07398268 0.017346105 -0.047673356 -0.04105582 -0.086413406 0.06349804 0.044727847 -0.11207049
-0.10884195 0.036654886 -0.01466695 -0.004238269 -0.0003405994 0.046657298 -0.17273705 -0.04286259
-0.03026032 0.049453918 0.12463325 0.08014283 0.08862758 0.12100101 0.1334983 -0.026797354
0.018953627 -0.05164909 0.028258776 0.033494696 -0.03876031 0.0025701155 0.07020865 0.012320506
-0.018614514 0.021060584 0.036189742 0.06752223 -0.04667877 0.02168704 -0.04737425 -0.018496668
-0.08892541 0.0074497676 0.03838968 -0.04499067 0.04523478 0.019608028 0.00064859993 0.07291915
-0.04042703 -0.14465535 -0.040993653 0.020886699 0.11604744 0.026693864 0.057198364 -0.082455575
-0.045214925 0.017593466 0.0707964 -0.077845804 0.00083023356 0.020627657 -0.05137514 -0.073879614
-0.06683376 -0.028309159 0.04257248 -0.09701012 -0.07181133 -0.017945915 0.024600457 -0.031862315
-0.062887214 -0.028759228 0.07269855 0.072592214 0.0138378 -0.01870771 -0.040406656 -0.0053600725
0.01074067 -0.0128520215 0.058344923 0.0328156 0.07888315 0.073804155 -0.087897204 -0.061116893
-0.043701604 -0.08737739 -0.026303086 -0.06250515 0.026827928 -0.08733534 -0.07843734 -0.038196802
0.09289796 -0.093055494 0.08653399 0.049611695 0.11522616 -0.0064233704 -0.09888191 0.005923127
-0.089553125 -0.04023246 -0.00071222126 0.03312328 0.0140370615 -0.027927555 -0.045275394 0.00051974034
0.080099426 0.07886035 0.029315384 0.009956677 0.07025129 -0.05315224 0.07356012 -0.05981054
-0.015828477 0.10487936 0.034802854 0.015470615 -0.09456411 0.053822365 0.010384204 -0.04836718
0.08204564 -0.020315329 0.014132717 -0.054621186 -0.057871595 0.007262309 -0.00605932 0.07093487
-0.044193957 -0.04792082 -0.0263203 0.029744348 0.04173901 0.037636343 -0.03439046 -0.07810591

encoder.layers.0.self_attn.W_V.weight f4 [60, 100]
00000000: d7d1 00be 2d00 a4bd 21e3 05be f042 2c3c
00000010: e1d7 a33a f425 03bd 5b7e 94bd c2f0 96bc
00000020: 3848 efbd dca8 b53d 3e5e e73a b8f2 df3b
00000030: 3ed5 01bd 9701 4dbd 4366 023e 625d 8d3d
00000040: 886a cc3d e324 4d3d 812c 943c 9353 80bd
00000050: 1363 a73d b344 c0bd 0633 39bc b0ff a73d
00000060: 8d63 2dbc 63a2 f5bd ea48 613d c213 efbc
00000070: 0434 fb3d 442c c1bc 41b2 acbc f028 00be
00000080: 7b52 98bd 4c42 943c 5d83 ff3a 3561 ca3c
00000090: 2f88 2abc 9265 83bb b0e2 79bd 6d1b 4b3d
000000a0: 155d 27bd 54f1 0bbe a60e 7abb f41d 85bc
000000b0: bd3b 3ebd 4549 673c a599 96bd d373 95bc
000000c0: c52c 273e b04d 853c 918c ba3d 3e9c 033e
000000d0: 7c9d b33c 293d 29bd 5ca2 783d c08e ef3c
000000e0: 9db7 1dbd 0da0 503d 852b 913c 930d 8a3b
000000f0: 25cb a5bb 58bf f23d b515 12be bdff 073e
00000100: 1231 273b 6662 cdbd 079b 443d 88ca b13d
00000110: 12c9 833d 7dbc 21bd 4aa1 f83d 52fb 1bbd
00000120: d463 b6bd 81c5 593d 03c0 17bd 165e 723d
00000130: 9209 063d e7e2 713c 6099 593d eb64 c43c
00000140: 2073 9fbc ff96 c93d 1755 a1bc 12f0 973d
00000150: 9fe2 103d 781e c23d f99b 56bd 69a5 603b
00000160: 388a 623d 6d74 cabd d0fa e63d 5d30 d13d
00000170: 81ea 52bd b8ef 0c3d 736c 96bd bd5c e6bc
00000180: 47ec 7cbd 3f2f 99bd fa54 993d c109 243e
00000190: 3f76 263e 8199 dd3d 23a6 ea3d 5955 b03d
000001a0: 7a6f 743d e145 2bbd 8ac6 8e3d 13b1 1539
000001b0: 5119 9aba 2c3c 39bc 5ece e13d 5c5c 12bd
000001c0: ab67 49bc 32af 4cbd f77c 62bd 902d d5bc
000001d0: 5d22 debd bfbf 41bd 48f5 e1bd d9a0 c7bd
000001e0: 6766 433d 3a54 0abc d011 413d 1d02 20bd
000001f0: bb57 8e3d 7763 f23d 6bf4 06bd 814f c1bd
00000200: ecf9 ac3c 1c7a 3e3d 9369 3d3d 9ef5 49bc
00000210: 95b5 af3d 4af1 e83d 5251 e6bc c674 04be
00000220: 43a1 6bbd e311 84bc a72f 68bc 6f52 acbd
00000230: 9d2c 013e 2011 033e 6d87 013c 54c5 043d
00000240: b07c 733c 3a9a 5dbd 2457 043e 2652 ea3c
00000250: 8174 1f3d 071e 99bd a47e 223d b0ba dcbd
00000260: 99d3 fdbb 3f0e 643c fd88 923d ca16 03be
00000270: f0ff 7fbd a227 51bd 0cf6 03bd afe4 3fbd
00000280: 7e5d 98bc dfeb 6fbd c73d 1cbc 6a38 91bd
00000290: a9d5 3d3d af19 8c3d feb7 8a3d bde2 86bd
000002a0: 2549 bfbd d897 6bbd d44e e7bd fb5b 6c3d
000002b0: 8377 bc3d 2a0c 27bd aed6 2abd e86e 063d
000002c0: 0ae1 7dbd 779d 43bd 8427 683d 6017 5cbd
000002d0: e357 b13d 970c 69bd 95dc bc3d 4cfe ddbd
000002e0: d7ef 0dbe 6dc3 49bd 5ca7 4f3c 7bfd 223d
000002f0: ef45 c73c c6bc 953d 6431 ed3c b318 553c
00000300: d97b 45bd 5fc8 58bd eb6d eebb ff38 6bbd
00000310: c728 733d ebbf 7bbd e2b2 6e3d 16ea be3c
00000320: 7e36 9abd 3064 c6bc 75b0 9ebd 62c7 98bd
00000330: fc9f b7bd b2db d1bc e3a1 293d cf44 393b
00000340: 4a3e f3bb 8a99 783d 3964 47bc cf4f 8bbd
00000350: 6c2b 48b9 7fcf f93c 699c 0a3e 3619 fa3d
00000360: 242c 853c a464 03be a2d0 10bd 4305 84bc
00000370: 18a8 b23d a8f1 313c a2e0 b2bd 7257 e3ba
00000380: 4b1e 9cbc f330 7cbd 6efe e33c 2ecb 42bc
00000390: 13dc c53c c308 2f3d fcf4 1abe 19b6 18bc
000003a0: 0763 10bc 9523 f7bc 11e7 ddbc 3304 ed3d
000003b0: feb3 a1b8 44e8 553d c5cd 49bc e059 79bd
000003c0: 9752 ffbd a720 e5bc c436 95bd de82 2b3d
000003d0: 7f05 e2bd 72e0 e8bc 9bd5 e2bd e665 5bbd
000003e0: 23b1 3a3d 22cc bc3d d2f1 353d df28 123d
000003f0: 47e4 b83c 40c1 4cbd 79d9 11bc 81ca f03d
-0.12580048 -0.08007846 -0.13074924 0.010514006 0.001250025 -0.032018617 -0.07250663 -0.01842535
-0.116836965 0.08870098 0.0017651988 0.0068343543 -0.031697504 -0.050050344 0.12734322 0.06902577
0.09981257 0.050084006 0.018087627 -0.062659405 0.08173194 -0.09388103 -0.011303669 0.082030654
-0.010582817 -0.119938634 0.055001177 -0.029184226 0.122657806 -0.023580678 -0.021081092 -0.12515616
-0.07437607 0.018098019 0.0019494105 0.024704555 -0.010408445 -0.004009911 -0.0610072 0.049586702
-0.040860254 -0.13666278 -0.0038155704 -0.016249634 -0.04644369 0.01411659 -0.07353524 -0.018243706
0.16325672 0.016272396 0.09108842 0.1285257 0.02192568 -0.041318092 0.060701713 0.029242873
-0.038505185 0.050933886 0.017720947 0.004213044 -0.005059617 0.11852902 -0.14266093 0.1328115
0.0025511426 -0.10028534 0.047999408 0.08681208 0.064348355 -0.039486397 0.121401384 -0.038081475
-0.089057595 0.05316687 -0.03704835 0.05917176 0.03272397 0.01476357 0.053124785 0.023973903
-0.019464076 0.09843253 -0.019693894 0.07418837 0.035372373 0.09478468 -0.05239484 0.003427828
0.055307597 -0.09885488 0.112783074 0.10214303 -0.05149317 0.0344083 -0.07344904 -0.028120393
-0.06174877 -0.074797146 0.07486911 0.16019346 0.16256045 0.10820294 0.11457469 0.08610029
0.059676625 -0.04181469 0.06971462 0.00014275713 -0.0011756812 -0.01130585 0.110256895 -0.035732612
-0.012292783 -0.049971767 -0.055294957 -0.026022702 -0.10846398 -0.047302004 -0.11033112 -0.09747476
0.04770508 -0.008442933 0.047136128 -0.039064515 0.06950327 0.11835378 -0.03294794 -0.09438992
0.021115266 0.04650317 0.04624326 -0.012326626 0.08579556 0.11374147 -0.028114948 -0.1293517
-0.057526838 -0.01612181 -0.014171517 -0.084141605 0.12614675 0.12799501 0.007905823 0.03241475
0.014861271 -0.05410216 0.12923867 0.028603625 0.038929466 -0.074764304 0.039671555 -0.10777795
-0.0077461717 0.013919412 0.07155035 -0.12801662 -0.06249994 -0.051063187 -0.03221707 -0.04684895
-0.018599268 -0.058574554 -0.009536213 -0.07090838 0.04634634 0.06840836 0.06773375 -0.06586216
-0.09340123 -0.057517856 -0.11294332 0.057704907 0.092024826 -0.040783085 -0.04170864 0.032820612
-0.061982192 -0.047757592 0.05667831 -0.05373323 0.08659341 -0.056896772 0.0922176 -0.10839519
-0.13861023 -0.04925864 0.012674179 0.03979252 0.02432534 0.07311396 0.028954215 0.013006377
-0.048213813 -0.052925464 -0.007276287 -0.057427403 0.05936506 -0.061462324 0.058276065 0.02330498
-0.07529925 -0.024217695 -0.077485 -0.07459904 -0.089660615 -0.025617454 0.041414153 0.0028269773
-0.007423197 0.0606933 -0.012169891 -0.06802332 -0.00019089662 0.03049445 0.13536228 0.1221184
0.0162564 -0.1283136 -0.035355218 -0.01611579 0.087234676 0.010860838 -0.087342516 -0.0017344786
-0.019057414 -0.06157012 0.027831282 -0.011889262 0.024152791 0.042732965 -0.15132517 -0.009320759
-0.008812672 -0.030168334 -0.02708772 0.115730666 -7.7106044e-05 0.05222346 -0.012317126 -0.060876727
-0.12466925 -0.027969671 -0.07285836 0.04187285 -0.110362045 -0.028427336 -0.11075898 -0.053563975
0.045579087 0.09218623 0.04442007 0.03568351 0.022569789 -0.049988985 -0.008901947 0.117573746

encoder.layers.0.self_attn.W_O.weight f4 [100, 60]
00000000: 7a14 563d 698b e9bd 432c 2cbd 140a eebc
00000010: 28ec a23d 6531 edbd 34d6 6c3c c636 e0bd
00000020: e692 5e3d 1221 b2bd 2872 c5bd ece6 a5bc
00000030: 14e3 f8bd b5e8 c53c c885 293d dfc1 c2bd
00000040: e94f 7ebd c078 c2bc 5f84 96bd d2bb 373d
00000050: 5ce4 d73d cc69 073d e176 01be 0487 fbbd
00000060: ed46 30bd f02e 1e3c 9f7b 90bd a01d 283d
00000070: 2886 d6bc d60e afbd 2e94 febc d0a5 cf3d
00000080: 4dac a83d 85b9 edbd 9296 94bd 1348 833d
00000090: eeda 753c 64ff 023e 06b1 6abd e12a 0d3e
000000a0: 5654 123b cf4b 12ba 5d8a b43d 8887 2b3d
000000b0: f571 823d 1f83 113d de76 a73c d85d 343d
000000c0: aa1e a53d c4de 3b3d a964 03be 1535 983d
000000d0: 83b1 c73c 48a2 043c a51e 0bbe 6566 3ebd
000000e0: 35a4 6abd f682 683c 5796 bcbc 4032 bd3d
000000f0: 312a dcbd e4f3 d83b 8f98 17be 9f3d 5fbd
00000100: e9ea ce3d ad3e 1a3c f868 8fbd dac8 223e
00000110: 8e8f 113c a857 093d d51d b4bd 876d 213d
00000120: e108 c8bd de80 133e 7cfb 63bd 4798 bc3c
00000130: 42ac 77bd 258a 8b3c 8fce 24be 4e48 3abd
00000140: a27a 85bd a285 02bd 1751 82bd d47e cd3d
00000150: 3eb9 79bd 0b2f f03d 5dae 6ebd 9996 4e3d
00000160: 9cf5 cebb 5a80 1a3e 329a 033e d308 00bd
00000170: a7d7 173e 139a afbd 0a0d 7f3d 0e92 8f3b
00000180: 208c a43d bc51 3cbd 7f00 893d 537a f2bb
00000190: f2a5 2cbd 4c70 483d f3ae ce38 1c88 9b3d
000001a0: 9eee db3c a2c3 d13d 4a86 0e3e b2ea e73d
000001b0: ea52 80bd 5cbb 40bd 682b 6dbd 595e 1a3d
000001c0: e722 c9bd fc27 c93d f75c 0fbd 30ab 513c
000001d0: 9bb6 9ebd f54d 3a3e f400 e73d edb4 d4bd
000001e0: 0224 00be c27b 45bd 8532 adbc c688 a93d
000001f0: f18b 2b3e c5e2 76ba 9184 74bd a2cf 0b3e
00000200: 13df 6ebd 8aed 463c 2b4f 5c3d 939a b9bd
00000210: 6f7b e43d 720b 15bd 5c8a c33c ca78 633d
00000220: f5a2 b23d dc82 fbbd f2bd 0cbe f461 293e
00000230: 42dc 7abc 8187 ad3d 20b1 a8bd 38e9 ff3a
00000240: 856e 26be 0ae4 3ebc a53e 1f3c f54c e43d
00000250: 69cc 05bc 88d8 ffbc b91d 9bbd 9428 53bb
00000260: da63 173e 56a0 523d 5565 193e 6f16 fc3d
00000270: 2374 d7bc 252e dcbc c4c3 f1bd 3303 2a3e
00000280: 2cdc 83bd 557c 86bd 91d4 343e 6fe7 c2bd
00000290: 3d6d 8c3d 8037 0fbd fdbe 153d 1dbb 80bd
000002a0: 45b3 50bd 9a2b 8abd 75ce 38bd f039 ba3d
000002b0: 5181 05be 2f25 a4bd 2e7b 513c 77a2 b13d
000002c0: 393f 2ebe d789 5ebd a7f3 8bbc bdb4 4bbe
000002d0: f111 633d f990 68bd 4c10 08be 12ee e43d
000002e0: 4570 d03d 812b c83d 054c 08be 184d 753d
000002f0: 4dfb de3d a64b 01bc 58ab 78bc 928d 9c3d
00000300: 2fd7 26bd d874 083d d9a0 c93d 097f 00be
00000310: 2a61 57bd b9fc fabd b63b f2bc 1d35 313e
00000320: 8ec8 6e3d fb42 98bd 2231 c83d 32d8 34bd
00000330: d541 2dbd 4509 6ebd 8222 af3c 5b76 ed3a
00000340: 1ad2 033d eba8 b33d 028c 313d 5a96 f93d
00000350: 0bbe 0e3e bec4 d4bd 82e8 0b3e d399 79bd
00000360: 633c bdbc 09c6 0d3e c2de 4c3d 3d99 aa3d
00000370: 253b 54be 995a 573d 51d2 443c 60c6 ed3c
00000380: 9d25 21bd 4264 673d 3b59 1a3e 8805 9cbc
00000390: 0ed0 3fbc a48a bebd c819 a23c 3e05 a4bd
000003a0: 22ec 10bd 18fc 19be 75dd 8bbd fe13 f63d
000003b0: 1f7a 193d 5beb a93d e7c9 743c c6c8 893c
000003c0: 1b31 7ebc 1a56 31bc bfd8 f9ba 7ab4 96bd
000003d0: 0f05 a9bd 089e 13bc db24 ecbd e711 bb3d
000003e0: dec2 7fbd 4b50 5dbd 34bb d93d 7595 a0bd
000003f0: 6fd2 cb3d fdc7 053e 6c60 063e eaed adbd
0.05226562 -0.114035435 -0.0420344 -0.02905754 0.079551995 -0.11581687 0.014455367 -0.10947947
0.054339312 -0.08697714 -0.09640914 -0.020251714 -0.12152687 0.024158815 0.04138735 -0.09509634
-0.062087927 -0.023739219 -0.073494665 0.044856854 0.10541603 0.03305988 -0.12643005 -0.122816116
-0.04303639 0.009654745 -0.07054829 0.041043878 -0.026187018 -0.085477516 -0.031076517 0.10139048
0.08235989 -0.11607651 -0.072552815 0.064102314 0.01500581 0.12792736 -0.05729773 0.13785888
0.00223281 -0.00055807544 0.08815453 0.0418773 0.06369392 0.035525437 0.020442422 0.04403481
0.08062489 0.045866743 -0.12831368 0.074319996 0.024376636 0.0080953315 -0.13585909 -0.04648437
-0.057285506 0.01419138 -0.023020906 0.092381 -0.10750235 0.006620871 -0.1480429 -0.054502126
0.10103399 0.009414357 -0.07002443 0.15896931 0.008884324 0.03353086 -0.087947525 0.039411094
-0.097673185 0.14404628 -0.055659756 0.02302183 -0.060467012 0.017033646 -0.16094421 -0.04547911
-0.06517531 -0.031865723 -0.06363123 0.10033956 -0.060967676 0.11727723 -0.058271755 0.05043659
-0.0063159 0.15088025 0.1285179 -0.031258415 0.14828359 -0.08574309 0.062268294 0.0043814247
0.08034539 -0.045976385 0.06689548 -0.007399836 -0.042150445 0.04893522 9.855432e-05 0.0759432
0.02684718 0.10242392 0.13918415 0.113240615 -0.062658146 -0.04705368 -0.057902724 0.037687633
-0.0982111 0.098220795 -0.035000768 0.012797162 -0.07749673 0.18193801 0.11279479 -0.10386071
-0.12513736 -0.048213728 -0.021142254 0.082780406 0.16752602 -0.00094179466 -0.059696738 0.13653424
-0.05831821 0.012141595 0.053786438 -0.09062686 0.111563556 -0.03638787 0.023869686 0.055535115
0.08722488 -0.12280819 -0.13744333 0.16541272 -0.015311303 0.08473111 -0.08236909 0.0019524461
-0.16253097 -0.011651048 0.009719525 0.11147491 -0.008166411 -0.03123118 -0.075740285 -0.0032220231
0.14784184 0.05142244 0.14980061 0.12308966 -0.026300495 -0.026877472 -0.118049175 0.16602783
-0.06438479 -0.06566683 0.17659213 -0.09516799 0.06856773 -0.03496504 0.036559094 -0.06285689
-0.050952215 -0.067465976 -0.045118768 0.09093082 -0.13037612 -0.08014905 0.012785716 0.08673566
-0.17016305 -0.054330673 -0.017083956 -0.19893165 0.055437032 -0.05677888 -0.13287467 0.11178221
0.10177664 0.09773923 -0.13310249 0.059887975 0.108877756 -0.007891571 -0.01517757 0.0764419
-0.04073256 0.033314556 0.098451324 -0.1254846 -0.052582897 -0.12255234 -0.029569488 0.17305417
0.058296733 -0.074346505 0.09774996 -0.044151492 -0.04229911 -0.05811431 0.02137876 0.0018116938
0.03218279 0.08772453 0.043346412 0.121868804 0.13939683 -0.10389088 0.13662913 -0.060937714
-0.023100084 0.13845076 0.050017126 0.08330009 -0.20725687 0.052576635 0.012013034 0.029025257
-0.03934251 0.056492098 0.15073101 -0.019045606 -0.011707319 -0.09303787 0.019787684 -0.08008812
-0.035381444 -0.15037572 -0.06829349 0.12015532 0.03746998 0.082968436 0.014940715 0.016819369
-0.015514637 -0.010823751 -0.0019061788 -0.07358642 -0.08252918 -0.009009846 -0.11530467 0.09134274
-0.0624417 -0.05403165 0.10631409 -0.07841007 0.099522464 0.1306457 0.1312272 -0.08492644

encoder.layers.0.batchnorm_attn.1.weight f4 [100]
00000000: 5663 7b3f 8ac2 763f 4e55 843f 419d 813f
00000010: b706 7d3f 909d 793f 9231 7d3f 517b 7c3f
00000020: 7478 833f 9732 7c3f 9edd 743f f58c 7d3f
00000030: f79a 793f c419 853f b7a6 833f 8c48 793f
00000040: 07b3 743f ec59 7e3f 6ce0 883f 9aff 793f
00000050: 6d13 813f 0324 733f cf73 753f 4247 763f
00000060: 4a2d 823f 67e4 833f 03b8 863f 7939 7f3f
00000070: 63a2 803f f14e 793f 3f5f 843f e511 783f
00000080: d37b 813f 421b 813f a72d 7d3f 6e0f 7c3f
00000090: 3e30 823f 5d25 763f c203 863f c7ea 7d3f
000000a0: 41d1 873f 009f 7b3f 849b 803f ff4e 7f3f
000000b0: 26fc 773f bc2e 813f 6279 823f d456 773f
000000c0: 7654 833f 9e80 793f f4be 7f3f c15a 853f
000000d0: 0408 793f fe91 743f efd8 7e3f 91ce 803f
000000e0: 7df0 7d3f a0ad 743f 4631 833f d440 813f
000000f0: d6b0 803f 1b8c 853f 3095 833f 0206 863f
00000100: cf39 833f fbfb 793f 6910 813f c95f 843f
00000110: baa9 7d3f d087 813f 7ee2 743f af1c 813f
00000120: 0d54 793f c4ef 873f a1e1 803f 0bc0 723f
00000130: bf15 813f b734 823f c59f 833f 6f1b 7e3f
00000140: 47fa 753f b4ab 823f 87e2 723f 51d1 773f
00000150: 7dc6 7d3f c793 763f 9ceb 7c3f 91da 7d3f
00000160: 1912 823f 16e8 773f 6798 7c3f f103 7a3f
00000170: d139 883f 6af5 843f 218f 7d3f 4865 813f
00000180: 0afb 863f f5d9 7d3f b4fd 7b3f 845f 813f
0.9819845 0.96390593 1.0338533 1.0126115 0.9883837 0.97506046 0.98903763 0.98625666
1.0271134 0.98514694 0.9565066 0.9904321 0.9750208 1.0398488 1.0285252 0.9737632
0.95585674 0.9935596 1.0693488 0.9765564 1.0084053 0.94976825 0.95879835 0.9620248
1.0170071 1.0304078 1.0524906 0.9969707 1.0049556 0.9738608 1.0341567 0.96902305
1.0115913 1.0086443 0.98897785 0.98461044 1.0170972 0.9615076 1.0469897 0.99186367
1.0610734 0.9828949 1.004746 0.99729913 0.96869123 1.0092387 1.0193293 0.96616864
1.026015 0.9746188 0.99900746 1.0418321 0.97277856 0.95535266 0.99549764 1.0063039
0.9919508 0.9557743 1.0249412 1.0097909 1.0053966 1.0433382 1.0279903 1.0470583
1.0252017 0.97650117 1.0083133 1.0341731 0.9908711 1.0119572 0.956581 1.0086879
0.97393876 1.0620046 1.0068856 0.94824284 1.0084761 1.0172337 1.0283133 0.9926061
0.9608502 1.020865 0.94876903 0.96803766 0.99130994 0.9631924 0.9879701 0.9916163
1.0161773 0.9683851 0.9867005 0.97662264 1.0642644 1.0387394 0.9904652 1.0109034
1.0545361 0.991607 0.98433995 1.0107274

encoder.layers.0.batchnorm_attn.1.bias f4 [100]
00000000: 46ba 623a 1e0d 44bc 3e7f 1dbb eff6 7dbc
00000010: b2cb 83bd 7d6c e13c 67b6 9a3c 04c8 c6bc
00000020: f7cf b83b 374a 2f3c 3832 3a3d 68b9 a03b
00000030: 989c 84bc bea6 e1bc 8898 e13c 4cc0 a33c
00000040: 1b83 f33c 594b aebc 6d43 2eba e539 e2bb
00000050: 8093 f43c 7f56 3dbd 590b 50bd 8c0f 883b
00000060: 0a0c 4abd f075 3fbb 12d1 553c bad3 81ba
00000070: c6eb 143b 3bc9 013d 1e30 d1ba 5de6 bdbc
00000080: dc27 04bd c108 71bd e69f 1cbc 6c21 24bd
00000090: add0 4dbd 5f83 193d 220e 2abd d90c 30bd
000000a0: a745 d0bb 73f8 5f3c 1b83 7c3d 042c a0bc
000000b0: 4bed 70bd 9162 d1bc c97e 65bb c9b3 3e3c
000000c0: 6750 2bbc 6116 343d 2069 773c f4dc 213c
000000d0: 18c1 0abd c81e bab9 3b5a 47bc c9ab 913c
000000e0: 85b7 1dbc 3b94 a53c 2c41 3c3b 69cd 163d
000000f0: e2e9 8abc a261 dd3b de91 26bd 6749 003c
00000100: 8859 49bc 1f2d a3bb da45 813d e075 253c
00000110: fc02 4fbb e70e e53b f66b 5a3d ef8f 693c
00000120: b8fc 26bd b1fb 2ebd 157b 1f3d cc83 a63b
00000130: 7faf 10bc d5ea 7fbb 228d 283c 8166 7b3a
00000140: 2b86 a8bc 1b12 243d 06e1 473c caa9 6e3c
00000150: cb9d 373c 1a36 193d bf3c 7ebd 3422 b6ba
00000160: 72c9 42bc 886b 0c3d da06 1b3d 7e61 e8bc
00000170: 19b0 0e3d c453 40bc 894e 15bd 9f3c 133d
00000180: 1128 12bc 3801 60ba e30d ec3c 3bd1 f93b
0.0008648973 -0.011966018 -0.002403214 -0.015500768 -0.06435336 0.027517552 0.018885804 -0.024265297
0.0056400257 0.010698847 0.04545805 0.0049049146 -0.016187951 -0.02754533 0.027538553 0.019989155
0.029725602 -0.021276163 -0.00066476205 -0.006903874 0.02985549 -0.046225067 -0.050792072 0.004152244
-0.049327888 -0.0029214583 0.0130503345 -0.0009905018 0.002272354 0.03168605 -0.0015959775 -0.023181135
-0.032264575 -0.05884624 -0.009559607 -0.040070936 -0.050247837 0.0374788 -0.041517384 -0.042981002
-0.0063559595 0.013670075 0.06164847 -0.019552238 -0.05882005 -0.025559695 -0.0035018197 0.011639544
-0.010456181 0.043966655 0.015100747 0.0098793395 -0.033875555 -0.00035499618 -0.012167509 0.017782109
-0.009626274 0.020212283 0.002872537 0.03681699 -0.016957227 0.0067560235 -0.040666454 0.0078300005
-0.012289412 -0.004979744 0.06312151 0.010098904 -0.0031587472 0.006990302 0.053325616 0.014255508
-0.040768355 -0.0427205 0.03893574 0.0050816294 -0.008830904 -0.0039049883 0.010287555 0.00095901644
-0.020571789 0.04005633 0.012199646 0.014566848 0.011207054 0.03740511 -0.06206965 -0.0013895691
-0.011888849 0.034282237 0.03784833 -0.0283668 0.03483591 -0.011738721 -0.03645185 0.035946485
-0.008920685 -0.00085451035 0.028815215 0.007623819

encoder.layers.0.batchnorm_attn.1.running_mean f4 [100]
00000000: f1b0 58be f766 0140 b5a9 5c40 6293 cb3f
00000010: c675 4240 3d9a 0a40 e3db 8abe d4f7 15bf
00000020: 8e97 f23f a92f b3bf 0fb9 9c3f 4500 f2bf
00000030: f331 823f 2b5c 333f 6150 46c0 ea71 f8bf
00000040: b435 80bf 6fb8 1840 e7e6 053f 0654 253e
00000050: 85d2 85c0 1726 6f3f 2aad 1f40 fd9a b23f
00000060: a913 2c40 dafd f93f ecfa a8bf 6f0e edbf
00000070: e394 21c0 f0aa 9bbf 22b8 2a40 2c85 df3e
00000080: a7c0 3140 9074 1140 d6c2 863f a376 15bf
00000090: 1efe 1e40 e4e0 34c0 33e4 183f 2769 dfbf
000000a0: b4d6 4740 e347 113e fdaf cabe f576 3540
000000b0: a386 c23f 8797 1040 3299 2940 f8f6 2bbf
000000c0: 035b cb3e b9bf 0bc0 01b8 a4bf 46a0 d0bf
000000d0: 7849 0dbd ad31 173f aa4d 953f 063b a9bf
000000e0: 507a 393f 06c1 85bf 47c2 aebf a166 7cbf
000000f0: ca1b b43f b215 61c0 ae7f 9e3f 1d90 6abf
00000100: fa5d 1340 6621 863f 6c02 3dc0 27fe cebe
00000110: e348 cd3d 3f2d 1840 399b cdbf 0df4 4cc0
00000120: 897f 8b3f fb9d 6f40 f32b 66bf e02d b1bf
00000130: e0f7 aebe a870 8c3f 76de afbf f9e4 cb3e
00000140: b764 70bf 879d ffbf 9747 2ec0 e3aa 92bf
00000150: a726 2bbe 48de 4fbf 87c7 3f40 42da 893f
00000160: 1e70 4b40 0595 e9bf c6f0 03c0 06d1 923f
00000170: dbbb e2bf 2c91 f13f 970b b13f 6953 c7bf
00000180: 82ef 5d40 88fa 833f 686c 67bf 5f32 fabe
-0.21161248 2.0219095 3.447858 1.5904353 3.0384383 2.165664 -0.27120885 -0.5858128
1.8952501 -1.399892 1.2243975 -1.8906332 1.0171493 0.7006251 -3.098656 -1.9409764
-1.0016389 2.386257 0.52305454 0.16145334 -4.181948 0.93417495 2.494944 1.3953549
2.6887 1.9530594 -1.3201575 -1.852003 -2.5247123 -1.2161541 2.6674886 0.4365629
2.7773836 2.2727394 1.0528209 -0.5838415 2.48426 -2.8262262 0.59723204 -1.7453965
3.1224794 0.14187579 -0.39587393 2.8353856 1.5197338 2.2592485 2.6499753 -0.6717372
0.39717874 -2.1835768 -1.2868654 -1.6298912 -0.034493893 0.59060174 1.1664326 -1.3221138
0.7245226 -1.0449531 -1.3653039 -0.985941 1.407098 -3.5169492 1.2382715 -0.9162615
2.3026109 1.0478942 -2.9532728 -0.40428278 0.10023668 2.3777616 -1.6062995 -3.2023957
1.0898296 3.7440174 -0.8991081 -1.3842125 -0.3417349 1.097188 -1.3739765 0.3982313
-0.9390368 -1.9969949 -2.7231195 -1.14584 -0.16713963 -0.8119855 2.9965532 1.0769732
3.178718 -1.8248602 -2.0615706 1.1470039 -1.7713579 1.8872428 1.3831662 -1.557233
3.4677434 1.0310831 -0.9039979 -0.48866555

encoder.layers.0.batchnorm_attn.1.running_var f4 [100]
00000000: 91b3 1a40 6e00 9c40 d07d 3a40 204a 2840
00000010: 2300 c840 c759 8a40 7fc3 1f40 fba1 9340
00000020: bc1a 1b40 8521 933f 7515 2340 4962 f03f
00000030: 6ba3 1340 80c1 ee3f 2cba b540 4e34 3440
00000040: 7763 5840 3b34 1040 bb39 8d3f 6ce6 6040
00000050: b45f 1841 3e71 4440 3427 5740 9e66 9740
00000060: 4cb6 2340 3b3b ce3f 79d7 f13f abb5 d73f
00000070: b57f a240 ffb2 8340 f39e 3b40 1f11 2e40
00000080: ad50 0740 9c80 b140 46d7 5c40 85e9 f23f
00000090: 77b9 b640 cbd3 eb40 88f1 5c3f e17d ea3f
000000a0: 9532 9140 651d 1140 1a32 a43e 9c7f 5040
000000b0: 3dfd 1441 e194 4540 55ab 6240 68e9 8540
000000c0: 6673 a23f da6a 6140 5d74 7640 60ae 4a40
000000d0: 9a2d 1b40 fc27 af40 6a21 be3f febc 0b40
000000e0: daca d13f 06b8 0540 7b1c 3840 7d8f 0240
000000f0: 589e ae3f 508b a240 7a56 803f 1ef9 ef3f
00000100: bd95 0840 1b44 ee3f f380 f53f 3bfd db3f
00000110: f220 3540 1c5a 4d40 62d9 bc40 49a0 5240
00000120: 7bab 2c40 edf4 c240 4d2e 3d40 e3ca d53f
00000130: 84ee 5d40 3b8a 0f40 1609 0d40 dc51 a940
00000140: a92c 7b40 d019 3941 70b6 ed40 5a9f 2d40
00000150: 3005 b73f 85cc d03f ee0e 7240 f2be 8e40
00000160: c7ad b040 7cc1 7940 96b4 0c40 aa77 8640
00000170: eb50 fc3e 0619 5c40 748e 7340 f555 0740
00000180: 6eff 8f40 c50d 0b40 a2a3 3d40 dd76 8e3f
2.4172099 4.8750525 2.913929 2.6295242 6.2500167 4.323459 2.4963071 4.613523
2.4235067 1.1494604 2.5481846 1.8779994 2.3068492 1.8652802 5.678976 2.8156924
3.3810709 2.253188 1.1033243 3.5140638 9.523365 3.0694118 3.3617678 4.7312765
2.5580015 1.6111826 1.8893882 1.6852316 5.078089 4.1156 2.9315765 2.719795
2.114299 5.5469494 3.4506392 1.8977515 5.7101398 7.3696036 0.8630605 1.8319665
4.5374246 2.267419 0.32069474 3.2577887 9.311826 3.0872118 3.5417073 4.184742
1.2691467 3.5221467 3.8508523 3.166893 2.4246583 5.473631 1.4853947 2.1834102
1.639003 2.089357 2.8767383 2.0400078 1.3642073 5.079506 1.002639 1.87479
2.1341393 1.8614534 1.9179977 1.7186655 2.8301358 3.2086248 5.901536 3.291033
2.6979663 6.092398 2.955951 1.6702541 3.4676828 2.242812 2.2036796 5.2912426
3.9246008 11.568802 7.42852 2.712851 1.4298458 1.6312414 3.7821612 4.4608088
5.521213 3.9024343 2.198522 4.2021074 0.49280486 3.4390273 3.8055696 2.1146214
4.4999304 2.1727154 2.9631124 1.1130024

encoder.layers.0.ff.0.weight f4 [256, 100]
00000000: 02b4 fd3c 4874 60bc c607 443d c5a1 d9bd
00000010: 4f90 93bc f0b4 c63c 643e cdbc d464 c0bd
00000020: 6323 b33d c1f7 69bd 721b b8bd fc5a 7f3d
00000030: e37b 16bd dfb3 b73d 1365 c2bd 3039 993c
00000040: 5f33 a0bd d1bb c1bc 4d35 ab3d af7c 893d
00000050: c654 d6bd 105a dd3c 73dc 29bd 709a 603b
00000060: 15e0 3d3d 0267 843d 8ea4 5e3d 2b6b 243c
00000070: 4ad0 0dbd ae4c c9bc fbea a2bc 535d 4f3d
00000080: 96d4 85bc afcb 953d d087 cebd 836b 0bbd
00000090: 1447 5c3d 21cf 3d3c 0161 59bc 0f61 443d
000000a0: 8cce 623d 5fad 493d e192 1ebd 1597 01bd
000000b0: 4bd9 463d b861 6cbc f0d5 1f3a fcfd ccbd
000000c0: 9ab8 09bd 9d62 853c 8ca5 f93c 86c3 d4bc
000000d0: c821 c63c 4864 b1bd 9e76 c73d f4dc 45bc
000000e0: 4645 623d 1480 5cb7 9c38 a7bd db02 353c
000000f0: 5c60 c03d 7bd1 9bbd 57a5 973d ed8b a73d
00000100: 6d5f 363d cca0 673d 6c39 5b3d 4597 e9bc
00000110: 4b25 13bd e70b b2bd 749e 80bd c2a0 903d
00000120: 4839 9b3d 9f66 dcbc 57a3 0b3d 4672 85bd
00000130: 0b24 c83d 2298 e33d 5988 bd3d ba67 70bd
00000140: 8c34 bb3d 35cc ccbd dede c1bd 465f 92bd
00000150: 5661 5d3d d35e 1c3d 20f6 87bc 27ff cf3d
00000160: cfe2 f83b 753d 963d 276e 9bbd 0449 35bd
00000170: 5518 a2bc aff5 89bd 2a89 9a3d da04 f5bc
00000180: be7e 033c fb44 9a3d bac1 413d 10a3 16bd
00000190: 1a87 3a3c faf7 953d cd82 99bc cbb6 953b
000001a0: 4822 453d 9608 49bd df93 2d3d d920 b33d
000001b0: b5a1 373d 3ca4 513d 40b3 bdbc d14f 0f3a
000001c0: 514d 833c f6ce 76bd f1e7 143d ff63 9c3d
000001d0: ba61 7e3d 5fc5 313d 8fa3 80bd 6396 d83c
000001e0: 94b6 b1bd 595d 6abd 46e6 c73d ec48 343d
000001f0: fda5 d6bc 4841 a63d 25ce c13d 12ee b0bd
00000200: 83b2 aa3c be4f b33c 1e1e 033e cdc7 2f3d
00000210: a922 333d a9d4 4abd 7f97 21bd 4a43 4dbd
00000220: e5cb f73d 47e0 9b3d a092 bf3d bf2e 42bd
00000230: daa9 c8bc 03bf 1e3c 60ce 0a3d adaf d93c
00000240: dce9 9cbd 7f33 14bc de0d 73bd 0a5b 69bd
00000250: 05b4 91bc 0c53 783d d7d0 a63d f887 56bd
00000260: bc88 123d 2fb8 dabd 03bf 393d 55b6 983c
00000270: 1f11 1b3a c740 c6bb 986b c4bd a0cb 83bd
00000280: cde3 e33d 3b4a 453d 1c00 b6bd 200e 753d
00000290: 4c88 91bd 0ede 92bd 0970 253c e147 4ebd
000002a0: a241 d4bb ec24 04bd e787 bebd fdad abbd
000002b0: b014 bebd 0199 553d 1d69 fcbc 25c8 2a3d
000002c0: 3d37 fd3b 03f4 debd 166a 3439 0a6c 4ebd
000002d0: 81ce 4bbd 99b7 a33c 58f2 233d a825 98bb
000002e0: 5994 40bd cd68 083c 743f 073d 07c6 273d
000002f0: 995a 1c3d c294 abbd f712 87bb e496 b4bd
00000300: 584b 86bd bc48 40bb 92fe 413d 7d78 653d
00000310: 9638 363c fd91 b2bd a63c 68bd f4c2 a13d
00000320: 8598 c63c 1c47 8fbd db9b 6abd 8eb4 1d3d
00000330: af7b e8bd c2c5 62bd c44c 3bbd 4b44 85bd
00000340: 59ef f2bd 54c1 e43b f7dd 6abd 34ba 873d
00000350: 2e27 bebb 3df6 60bc 7801 e33d 6cd1 20bd
00000360: f1e6 9cbc 0f14 7e3d fc0a f63d 90eb 73bd
00000370: d669 eebb becb 523c 2c7c 09bd c3f2 78bd
00000380: b6a2 6cbd 10c4 743d 07f9 223e 56b3 e3bd
00000390: fdb5 a83d 0496 603c 3414 ad3d 2a74 b13d
000003a0: f51e eebd 9c06 40bd 3300 853d 058c a6bd
000003b0: 1632 c63c 7093 84bd a725 843d c2fd 743c
000003c0: 1653 993c a0c4 773c ecb8 e13d 7f8d 0d3c
000003d0: c41d 7dbb 00fd 4f3d f63a 06bc 1285 81bd
000003e0: f164 d6bb 1790 b0bd c181 ad3c 4361 8fbb
000003f0: e95c 12bb 09d2 773b 795c 003e 45ea 78bd
0.030969623 -0.013699599 0.047858976 -0.10626558 -0.018013148 0.0242562 -0.025054164 -0.093942314
0.08746984 -0.057121042 -0.0898961 0.06234263 -0.03673924 0.089698546 -0.094919346 0.018704027
-0.07822298 -0.023649128 0.08359776 0.06713235 -0.10465388 0.027020484 -0.041470002 0.003427174
0.04635628 0.0646496 0.05435615 0.010035316 -0.034622468 -0.024572697 -0.019887438 0.05062611
-0.01633672 0.0731424 -0.10084498 -0.034038078 0.053778723 0.011585028 -0.013267756 0.047944125
0.05537276 0.049237605 -0.038714293 -0.031638224 0.04854707 -0.014427595 0.0006097248 -0.10009381
-0.033623315 0.016282374 0.030474447 -0.02597214 0.02418603 -0.08661705 0.09739421 -0.012076605
0.055241846 -1.3142842e-05 -0.08165094 0.011048044 0.09393379 -0.076083146 0.07404583 0.081809856
0.0445246 0.056549832 0.05352156 -0.028514514 -0.035924237 -0.086936764 -0.062802225 0.07061912
0.07579285 -0.026904402 0.03409132 -0.065159366 0.097725 0.111130014 0.09254522 -0.05869267
0.09140882 -0.09999887 -0.09466337 -0.07147078 0.054047905 0.03817637 -0.016596854 0.10156088
0.007595397 0.07335941 -0.07589369 -0.044259086 -0.019786993 -0.067363136 0.07545693 -0.02990954
0.008025823 0.07532688 0.047303893 -0.036776602 0.01138475 0.073226884 -0.018739128 0.0045689098
0.048128396 -0.049080454 0.04237735 0.087464996 0.04483195 0.051182017 -0.023156762 0.00054669107
0.016028078 -0.060255967 0.03635401 0.0763626 0.062104918 0.04340112 -0.06281196 0.026438897
-0.08677402 -0.05721793 0.09760718 0.044014856 -0.026202196 0.0811792 0.09463147 -0.08639158
0.020837074 0.02188861 0.12804458 0.042915154 0.043734226 -0.049519215 -0.03945112 -0.050113
0.12099437 0.07611137 0.093541384 -0.04740786 -0.024495054 0.009689095 0.03388822 0.026573027
-0.07661793 -0.009045481 -0.059339397 -0.056971587 -0.017786035 0.060626075 0.08145302 -0.052375764
0.03577493 -0.106796615 0.04534818 0.01864163 0.0005915332 -0.0060502025 -0.095908344 -0.06435323
0.11127434 0.048166495 -0.088867396 0.059827924 -0.07106075 -0.0717126 0.010097512 -0.050361518
-0.0064775506 -0.032261774 -0.09303265 -0.08382795 -0.092812896 0.05214787 -0.03081184 0.04169478
0.007727532 -0.10886385 0.00017205658 -0.050396003 -0.049757484 0.019985007 0.04002604 -0.004643161
-0.047016475 0.008325768 0.033019498 0.040960338 0.03817234 -0.08377983 -0.004122134 -0.088178426
-0.065573394 -0.0029340228 0.047361918 0.05602311 0.01112189 -0.08719251 -0.056698464 0.078985125
0.024242649 -0.06995985 -0.05727754 0.03850227 -0.11351716 -0.055364378 -0.045727506 -0.065071665
-0.11862058 0.0069810543 -0.05734059 0.06627312 -0.0058030104 -0.013730583 0.110842645 -0.03926222
-0.01915309 0.062030848 0.12013814 -0.05955082 -0.0072758 0.012865959 -0.033565685 -0.06077839
-0.05777236 0.059757292 0.15915309 -0.1111819 0.082378365 0.0137076415 0.08451119 0.08664735
-0.11626998 -0.046881303 0.064941786 -0.08132175 0.024193805 -0.06473434 0.06452494 0.014953079
0.018716376 0.015122563 0.11021599 0.008639692 -0.0038622478 0.05077839 -0.008192768 -0.06324209
-0.006542795 -0.08621233 0.021180036 -0.004375608 -0.002233321 0.00378144 0.12535276 -0.06077029
