transformer_results_random_no_constants_no_param_tune/performance_prediction/DE-GA-ES-PSO_random_no_constants_dim_10_samples_50_fold_2_budget_50_n_heads_2_n_layers_1_d_model_100_d_k_30_d_v_30_aggregations_mean/trained_model_dict.pt (torch, 339963 bytes, 22 tensors)

W_P.weight f4 [100, 11]
0	0xbe970ca0	-0.2950182
1	0x3e99f98c	0.30073202
2	0xbd26d848	-0.040733606
3	0x3e4d9b51	0.2007878
4	0xbd554db4	-0.052076057
5	0xbd48b111	-0.04899699
6	0xbe4fabdd	-0.20280404
7	0x3e6e79c4	0.23288637
8	0xbdb9ba7d	-0.09068773
9	0xbd9f2b30	-0.07771909
10	0xbebf15ae	-0.37321228
11	0xbe5bf3b2	-0.21479681
12	0x3e128175	0.14307196
13	0x3d9d9a4d	0.07695446
14	0xbbccb460	-0.0062470883
15	0x3e53351f	0.20625733
16	0x3d9b29ee	0.07576357
17	0x3e408cde	0.18803737
18	0xbdf5ee84	-0.12008384
19	0x3e4148af	0.18875383
20	0xbc144021	-0.009048493
21	0x3e8f78eb	0.2802194
22	0xbe1765e2	-0.14784959
23	0x3db0874c	0.08619556
24	0xbe098238	-0.13428581
25	0xbdec8eae	-0.115506515
26	0x3e37b8fc	0.1794166
27	0x3e1940c0	0.14966106
28	0xbe8386ca	-0.25688773
29	0x3d1d565c	0.038412437
30	0x3e26c6d7	0.16286789
31	0xbe8e6217	-0.27809212
32	0xbecc964a	-0.3995841
33	0x3e221c8a	0.158312
34	0x3e7ec31b	0.24879114
35	0x3db82b5b	0.089926444
36	0x3e9113e2	0.28335482
37	0xbe3e312e	-0.18573448
38	0x3e7f00aa	0.24902597
39	0x3e72424a	0.236581
40	0x3e507c8c	0.20360011
41	0xbe1a036c	-0.15040368
42	0x3c2c17af	0.0105036935
43	0xbe3d9663	-0.18514399
44	0x3dbd95fe	0.09257124
45	0xbe77e276	-0.24207482
46	0xbe8d4225	-0.27589527
47	0xbdfddf78	-0.12396139
48	0xbd94e233	-0.072697066
49	0x3e4a6c3e	0.19767854
50	0xbd2e0639	-0.042486403
51	0xbe4bdfdd	-0.19909616
52	0xbddb5463	-0.10709455
53	0x3dc7dc73	0.09758844
54	0xbec4bfb9	-0.38427523
55	0x3e7ac733	0.24490051
56	0xbe76389e	-0.24045035
57	0x3b8cd160	0.0042974204
58	0x3e05b156	0.1305593
59	0x3cb5a3cd	0.022172833
60	0xbdae9a7c	-0.08525559
61	0x3e5ccedd	0.21563287
62	0xbdcac581	-0.09900952
63	0x3d58e747	0.05295494
64	0xbe513b87	-0.20432864
65	0xbe9ed179	-0.3101919
66	0x3e25b4b4	0.16182214
67	0x3e7e5c5a	0.24839917
68	0x3e5d7b2d	0.21629019
69	0x3e8e7c06	0.27828997
70	0xbe6a76c3	-0.22896867
71	0xbd51bd57	-0.05120596
72	0xbd32dee4	-0.043669596
73	0xbd0ff37f	-0.035144325
74	0xbe535e51	-0.20641448
75	0xbe122dce	-0.14275286
76	0x3eef23bf	0.4670696
77	0x3e9c0636	0.3047349
78	0xbe68513a	-0.22687235
79	0xbe7eb275	-0.24872763
80	0xbdb09879	-0.08622832
81	0x3dd98c62	0.10622479
82	0xbe077d79	-0.13231458
83	0xbaa0b00b	-0.0012259496
84	0x3dc52140	0.096254826
85	0xbe488fa7	-0.19586049
86	0xbdd1d000	-0.10244751
87	0x3e930871	0.28717378
88	0xbd3273f8	-0.043567628
89	0x3cbea1b8	0.023270473
90	0xbd6ce9ad	-0.057840038
91	0xbe1fb8c8	-0.15597832
92	0x3e3e6e72	0.18596819
93	0xbd9b9aa1	-0.075978525
94	0xbdb3779d	-0.08763049
95	0x3d8617f4	0.065475374
96	0x3e29cc59	0.16581859
97	0x3d9be623	0.076122545
98	0x3ec07034	0.37585604
99	0xbe8c9568	-0.27457738
100	0xbe40d45d	-0.1883101
101	0x3af70064	0.0018844721
102	0x3d073801	0.033012394
103	0x3e4d7aa9	0.20066322
104	0xbbc3affe	-0.0059719076
105	0xbe3a63ff	-0.18202208
106	0xbe4afb77	-0.19822489
107	0x3e44429b	0.19166033
108	0x3e42221b	0.18958323
109	0xbed288c6	-0.41119975
110	0x3e9d91a9	0.30775192
111	0xbe1b504d	-0.15167351
112	0xbd1b100b	-0.037857097
113	0xbe31af64	-0.17352062
114	0x3d46b3e3	0.048511397
115	0xbe192ee3	-0.14959292
116	0xbe94a6a2	-0.2903338
117	0x3e8d772e	0.2762999
118	0x3d3cdedd	0.046110976
119	0x3ea47266	0.3211853
120	0x3d9086a7	0.07056933
121	0x3e8503c6	0.2597944
122	0xbe0e6bbc	-0.13908285
123	0x3e8604b8	0.26175475
124	0xbe97c16e	-0.29639763
125	0xbe7c551e	-0.24641845
126	0xbe659984	-0.22421843
127	0x3e16ae49	0.14714922
128	0x3dcc73ac	0.09983
129	0x3e9d71a0	0.30750751
130	0x3e87bb1b	0.26509938
131	0x3e71cc8a	0.23613182
132	0xbe2c6f42	-0.16839316
133	0x3e9297a5	0.2863132
134	0x3daf4a23	0.08559062
135	0x3e874bee	0.26425117
136	0x3dffa63d	0.12482879
137	0xbe2710d7	-0.16315018
138	0x3d5e73b8	0.054309577
139	0xbe791e2e	-0.24327919
140	0x3e61ca7d	0.220499
141	0x3e3c07a7	0.18362294
142	0xbc863ce5	-0.016386459
143	0xbce0a956	-0.027424496
144	0x3ddb6fac	0.10714659
145	0xbd4c788d	-0.049919654
146	0xbe7910c6	-0.24322805
147	0xbe119533	-0.14217071
148	0xbe00fc1c	-0.12596172
149	0x3d87474a	0.06605394
150	0x3e388434	0.18019181
151	0xbaf48a7f	-0.0018656998
152	0xbc588e89	-0.013217577
153	0xbe518264	-0.20459896
154	0xbe9cbe27	-0.30613825
155	0x3e17618f	0.1478331
156	0xbd503000	-0.050827026
157	0x3e992aa6	0.2991535
158	0xbe9d1c72	-0.30685765
159	0xbe8d8b4d	-0.2764534
160	0x3e8ceec9	0.2752593
161	0xbe9a9a55	-0.3019587
162	0xbe8db74b	-0.27678904
163	0x3e0b4994	0.13602287
164	0xbe732f3c	-0.23748487
165	0xbe204cfa	-0.15654364
166	0x3de59be6	0.11211376
167	0x3bd5f616	0.00652958
168	0xbacb5b34	-0.0015514852
169	0x3e9040f3	0.28174552
170	0xbe8b382a	-0.27191287
171	0xbce6d56a	-0.028177936
172	0x3e732c7d	0.2374744
173	0x3de65b4e	0.11247884
174	0x3b41f416	0.002959495
175	0xbecae111	-0.39624837
176	0xbe1bda83	-0.15220074
177	0x3e5717dd	0.21005197
178	0x3e1ca16d	0.15295954
179	0x3d0e639c	0.034762964
180	0xbe4bf168	-0.19916308
181	0xbd1d07e3	-0.0383376
182	0x3e81f93b	0.2538546
183	0x3da8c198	0.0824005
184	0xbdbb61fe	-0.0914955
185	0x3e6ff1c1	0.23432066
186	0x3ef6ea5b	0.48225674
187	0xbe66f3c2	-0.22553924
188	0x3e653685	0.22384079
189	0xbe50ff13	-0.20409803
190	0xbda64701	-0.08119012
191	0x3c56b7b2	0.01310532
192	0xbdc485b3	-0.095958136
193	0x3a483cfa	0.0007638481
194	0xbe892395	-0.2678496
195	0x3cb4e55e	0.022082027
196	0xbe80a763	-0.25127706
197	0x3eda87dc	0.42681777
198	0xbe64d716	-0.22347674
199	0xbe950e82	-0.2911263
200	0xbe2641de	-0.16236064
201	0x3e51ccc3	0.20488267
202	0x3bb638c1	0.005560965
203	0x3e4dadac	0.20085782
204	0x3e88c8ba	0.26715642
205	0xbdeb5efb	-0.114927255
206	0x3e99b30b	0.3001941
207	0xbb7c34b6	-0.0038483567
208	0x3eb5d845	0.35516563
209	0x3cd64a86	0.026158582
210	0x3e08ffd0	0.13378835
211	0xbe079c1b	-0.13243143
212	0xbaeb177c	-0.0017936076
213	0xbc8c3901	-0.017117025
214	0x3e29d177	0.16583811
215	0xbe310727	-0.17287885
216	0x3bbcdec5	0.005763861
217	0xbe49d499	-0.19710006
218	0xbc141a0f	-0.009039416
219	0x3e8fc7a3	0.28081998
220	0x3da8ab11	0.08235753
221	0x3e74f226	0.23920497
222	0x3e1e3595	0.15450127
223	0xbe75a214	-0.23987609
224	0xbd3503cb	-0.04419307
225	0xbe1f5708	-0.15560544
226	0x3c4a462d	0.012345833
227	0xbe3dc92d	-0.18533774
228	0xbd271bd4	-0.040798023
229	0x3d826fec	0.06369004
230	0xbe8aee66	-0.2713501
231	0xbd541e08	-0.051786453
232	0xbe048c4c	-0.12944144
233	0x3d561c46	0.052273057
234	0x3e1a16db	0.15047781
235	0xbe5c226e	-0.21497509
236	0xbe2c5da3	-0.16832595
237	0xbe28019e	-0.16406867
238	0xbe6b0499	-0.22950973
239	0x3e8e27d9	0.27764776
240	0xbd980291	-0.074223645
241	0x3d067b7f	0.03283262
242	0x3e97b5ba	0.29630834
243	0x3e8ce40e	0.27517742
244	0xbdd432d1	-0.10361255
245	0x3dadd5c6	0.0848804
246	0xbdb25fbb	-0.087096654
247	0xbe084a7b	-0.13309662
248	0xbe476509	-0.19472136
249	0x3e442c14	0.1915744
250	0xbe2c1e83	-0.16808514
251	0x3e8d64ba	0.2761591
252	0x3ee064eb	0.43826994
253	0x3e5205cc	0.20510024
254	0xbc72e3ad	-0.01482479
255	0xbe680de9	-0.22661556

W_P.bias f4 [100]
0	0xbd392f81	-0.04521132
1	0xbce9a76e	-0.02852222
2	0xbe6c988c	-0.23105067
3	0xbe7ed1dd	-0.24884744
4	0xbe8fa7b8	-0.28057647
5	0x3e90fb8a	0.2831691
6	0x3bfede2a	0.007777949
7	0x3e57219e	0.21008918
8	0xbdc933d6	-0.0982434
9	0xbe4c9c4c	-0.19981498
10	0x3e105399	0.1409439
11	0xbd84edb2	-0.06490649
12	0x3e628bc9	0.22123636
13	0xbdeab6b9	-0.11460633
14	0x3e9aa39d	0.30202952
15	0xbe5b7aa6	-0.21433505
16	0x3e899dbe	0.2687816
17	0xbe885ce8	-0.26633382
18	0x3e254d09	0.16142668
19	0xbe848d3d	-0.25889006
20	0x3c833d4a	0.016020436
21	0x3df0ed29	0.11763985
22	0xbcf230f6	-0.029564362
23	0x3e65c699	0.2243904
24	0x3dc5e006	0.0966187
25	0xbc54481c	-0.012956645
26	0x3e608b6f	0.2192819
27	0xbcee1a66	-0.029065322
28	0xbce6b2e7	-0.02816148
29	0xbdfbf9dc	-0.12303516
30	0x3e30eeda	0.17278615
31	0xbd131378	-0.03590724
32	0xbdb31799	-0.08744735
33	0x3e2246a0	0.15847254
34	0xbd6c4009	-0.057678256
35	0x3e2abeb3	0.16674308
36	0xbe40cd88	-0.18828404
37	0x3e767359	0.24067439
38	0xbd0f7478	-0.035023183
39	0x3e869191	0.26282933
40	0x3abf27cb	0.0014584003
41	0xbe79184d	-0.24325676
42	0x3e15ffaa	0.1464831
43	0xbe3d2057	-0.18469368
44	0xbd46bbda	-0.048518993
45	0x3ad8ce57	0.0016540986
46	0x3e6edc81	0.23326303
47	0xbd856056	-0.06512515
48	0x3e45ed8f	0.19328903
49	0x3e1c4801	0.15261842
50	0xbdee7f1f	-0.1164534
51	0x3e75c927	0.24002515
52	0x3e18e14e	0.14929697
53	0xbe7de975	-0.24796088
54	0xbe8cc7a3	-0.2749606
55	0xbdfbe456	-0.12299411
56	0xbdc34c50	-0.0953604
57	0xbc284d1f	-0.010272293
58	0xbd95e812	-0.073196545
59	0x3dd1d005	0.10244755
60	0xbe0a98e6	-0.13534889
61	0xbd74e748	-0.05979088
62	0xbe3bf6ef	-0.18355916
63	0xbe5b1459	-0.21394481
64	0xbe7e3372	-0.24824312
65	0x3d67ca60	0.056589484
66	0x3e050a6e	0.1299226
67	0xbc56849b	-0.013093139
68	0xbd6186d6	-0.05506023
69	0x3c5657f4	0.013082493
70	0x3e8022e3	0.25026616
71	0x3e8ab514	0.27091277
72	0xbe955421	-0.29165748
73	0xbea21215	-0.3165442
74	0x3e282b68	0.16422808
75	0xbe5a50f5	-0.21319945
76	0xbca5a386	-0.020219576
77	0x3dceacb1	0.10091532
78	0x3e2bb99d	0.16770025
79	0xbe975223	-0.29554853
80	0xbe14fc5a	-0.1454939
81	0xbd532652	-0.051550217
82	0xbe25eed0	-0.16204381
83	0xbe888fab	-0.2667211
84	0x3e6e4856	0.23269781
85	0x3e2906cb	0.16506498
86	0x3e451355	0.19245656
87	0x3dd6af28	0.10482627
88	0xbe214e67	-0.15752564
89	0xbdc0d361	-0.09415317
90	0xbe56fe68	-0.20995486
91	0x3bf0fc8d	0.007354325
92	0x3e53851f	0.2065625
93	0xbe11b408	-0.14228833
94	0xbe0fc698	-0.14040601
95	0xbcb7b953	-0.022427237
96	0xbe5a5af8	-0.21323764
97	0x3b13a9e0	0.0022531673
98	0xbdb72d49	-0.08944184
99	0x3e23fab0	0.16013598

encoder.layers.0.self_attn.W_Q.weight f4 [60, 100]
0	0x3d8891f0	0.0666846
1	0xbd8bbb7e	-0.06822871
2	0x3ca3069f	0.019900618
3	0x3c25386e	0.010084255
4	0x3dcf1f3f	0.101133816
5	0x3e04760b	0.12935655
6	0xbdf27883	-0.11839392
7	0xbd9eb1ec	-0.0774878
8	0xbdeabb1f	-0.11461472
9	0x3ca7e600	0.020495415
10	0xbb3f546b	-0.0029194604
11	0xbdea010d	-0.11425982
12	0x3d9f0b87	0.077658705
13	0xbd5c76b1	-0.05382413
14	0xb88df44f	-6.76891e-05
15	0x3dde01c9	0.10840184
16	0xbcff1a83	-0.031140571
17	0x3c755b70	0.014975414
18	0xbd81a112	-0.0632955
19	0xbd0e3480	-0.034718037
20	0xbcc296a0	-0.023753464
21	0x3d8e1020	0.06936669
22	0xbc854511	-0.016268285
23	0x3c6bae9a	0.01438489
24	0x3c585202	0.013203146
25	0xbd2d5e1f	-0.04232609
26	0xbd159333	-0.036517333
27	0x3dc9e3ab	0.09857877
28	0x3c86d996	0.016461175
29	0x3d3ea361	0.04654253
30	0xbd405823	-0.046959054
31	0xbd90a5a2	-0.07062842
32	0xbd68b382	-0.056811817
33	0xbcfa6128	-0.030563906
34	0xbd22fe33	-0.039793205
35	0xbdfe134c	-0.12406024
36	0xbc35b7f3	-0.01109122
37	0x3ba9760a	0.005171542
38	0xbc70d30a	-0.014698753
39	0xbc8eb437	-0.017419918
40	0xbd7df067	-0.061996844
41	0xbd922899	-0.0713665
42	0xbd710448	-0.058841974
43	0x3d29f63c	0.041494593
44	0xbcb8a759	-0.022540735
45	0x3d961073	0.07327356
46	0x3cdb1010	0.026741058
47	0x3dd38b7f	0.10329341
48	0x3be3f2e9	0.0069564474
49	0x3d4cc092	0.049988337
50	0xbc6552bc	-0.013996776
51	0xbc32829e	-0.010895399
52	0x3b7a8ba2	0.00382302
53	0x3dbbbf38	0.091673315
54	0x3c55c73f	0.013047992
55	0xbdfaf88a	-0.12254436
56	0x3ddc9306	0.1077023
57	0xbd5828ac	-0.052773163
58	0xbd948f03	-0.0725384
59	0xbce2e065	-0.02769489
60	0x3d8b173d	0.06791542
61	0x3d3113cf	0.04323178
62	0xbaf606e4	-0.0018770364
63	0xbddc483d	-0.10755966
64	0x3d1014b2	0.035175987
65	0x3d9a919a	0.075473025
66	0x3def1c32	0.116753
67	0xbda81139	-0.0820641
68	0xbbe53e3d	-0.006995945
69	0x3e000321	0.12501194
70	0x3db8b023	0.090179704
71	0xbcfd4751	-0.030917795
72	0xbdcb7b9c	-0.09935686
73	0xbd9637f6	-0.073348925
74	0x3d3ea4e5	0.046543974
75	0xbd9e6e2e	-0.07735859
76	0x3d88deee	0.066831455
77	0x3d58aab4	0.05289717
78	0xbc26a019	-0.010170006
79	0xbd22846c	-0.03967707
80	0x3d56ddc2	0.05245758
81	0x3d6b810b	0.05749611
82	0xbd5e33fd	-0.0542488
83	0xbd9c0fa6	-0.07620172
84	0x3d855680	0.06510639
85	0xbc7ef6dc	-0.015561786
86	0xbc66110f	-0.014042153
87	0xbde7170f	-0.11283695
88	0xbd39cadf	-0.04535949
89	0x3d985807	0.07438665
90	0x3d7cad9a	0.061688997
91	0x3dfe6d2d	0.124231674
92	0x3cf3fd72	0.029783938
93	0xbd4d3ed1	-0.050108735
94	0x3d5b9341	0.05360723
95	0x3c98831b	0.018617203
96	0xbd326cdc	-0.043560848
97	0x3dc6ab14	0.09700599
98	0x3daaf58d	0.08347616
99	0xbc93cd49	-0.018042224
100	0xbd14d599	-0.036336515
101	0x3d8d6150	0.069033265
102	0xbd5e6f65	-0.054305453
103	0x3d9e2cdd	0.07723401
104	0xb9a5b997	-0.00031609528
105	0x3e069762	0.13143685
106	0xbd903de6	-0.07043056
107	0xbd6d7ce0	-0.05798042
108	0xbcae5a15	-0.021283189
109	0xbd39b115	-0.045334894
110	0xbd8685dd	-0.06568501
111	0x3dd0d8a6	0.101975724
112	0xbc6b6220	-0.014366657
113	0xbcb31a8c	-0.021863244
114	0xbde71f97	-0.11285322
115	0x3d929b67	0.07158547
116	0xbd28465c	-0.041082725
117	0xbc5fc2e7	-0.013657308
118	0xbd85fa75	-0.065419115
119	0x3d14647c	0.036228642
120	0xbd2e479f	-0.042548772
121	0xbd6e18ca	-0.05812911
122	0x3d160be3	0.03663243
123	0x3c948a57	0.018132372
124	0xbc94d001	-0.01816559
125	0x3c367242	0.01113564
126	0x3c5ecf9e	0.0135993045
127	0xbd9f311e	-0.0777304
128	0xbdb8869a	-0.09010048
129	0x3d7ff86e	0.06249278
130	0x3d12b6ae	0.03581875
131	0x3dcb1cdd	0.099176146
132	0x3d226392	0.03964574
133	0x3cf60283	0.030030495
134	0x3db42cc4	0.08797601
135	0xbb2088ba	-0.0024495558
136	0x3dda8a68	0.1067093
137	0xbd1f80b4	-0.0389411
138	0xbc96913d	-0.018379802
139	0x3c4ec27f	0.012619614
140	0xbc951742	-0.018199567
141	0x3c2ec089	0.010666021
142	0x3b3714b1	0.0027935917
143	0xbde4166d	-0.1113709
144	0xbda57661	-0.080792196
145	0x3ca3e273	0.02000544
146	0x3c894e8d	0.016761089
147	0xbd27fc3c	-0.041012034
148	0x3d45bab3	0.048273753
149	0x3ddce6f7	0.107862405
150	0x3d137cc9	0.036007676
151	0x3d846b27	0.0646575
152	0xbb159403	-0.0022823818
153	0xbd7bb17b	-0.061448555
154	0xbdcbdd79	-0.09954352
155	0xbcbdde8c	-0.023177408
156	0x3dcd3996	0.10020749
157	0xbc8856c0	-0.016642928
158	0xbc90d4e9	-0.017679648
159	0x3c2d8a8a	0.010592112
160	0xbd89867b	-0.06715103
161	0xbd39be8d	-0.04534774
162	0xbdaab9c5	-0.08336214
163	0xbda3dd7d	-0.0800123
164	0xbbae6682	-0.0053222785
165	0xbc6a6553	-0.014306384
166	0xbd6f5b15	-0.058436472
167	0xbdffe6b1	-0.12495173
168	0x3d8374e7	0.06418782
169	0xbd482a90	-0.048868716
170	0x3d8bf4a7	0.06833773
171	0x3d12c076	0.035828076
172	0x3d41927e	0.047258846
173	0xba8ef035	-0.0010905328
174	0xbcd3ba99	-0.025845813
175	0xbc7fc867	-0.0156117445
176	0x3db261c4	0.087100536
177	0xbca11a03	-0.019665724
178	0xbbaa23cf	-0.005192257
179	0x3c77ef7a	0.015132779
180	0xbd3154a6	-0.043293618
181	0x3d9bd440	0.07608843
182	0xbd0b6859	-0.03403506
183	0x3dcbc109	0.09948928
184	0xbd58ce85	-0.052931327
185	0x3ba6a805	0.0050859475
186	0x3d7a23bd	0.06106924
187	0xbdd37a9a	-0.10326119
188	0xbd91c0cb	-0.071168505
189	0xbb0b8f90	-0.0021295287
190	0xbb9933ee	-0.00467538
191	0x3d376b1d	0.044779886
192	0x3d189b77	0.037257638
193	0x3d4e92b4	0.050432876
194	0xbdca1d33	-0.098688506
195	0x3d109f7f	0.035308357
196	0x3d4d7460	0.050159812
197	0x3c124578	0.008927695
198	0xbcfda500	-0.030962467
199	0xbdb78135	-0.08960191
200	0x3d54828e	0.05188232
201	0x3c712732	0.014718818
202	0x3d9ef321	0.07761217
203	0x3d260443	0.040531408
204	0x3d9b2196	0.075747654
205	0x3dcfb4cd	0.10141907
206	0xbd3f57e5	-0.046714682
207	0xbd85f644	-0.06541112
208	0x3d3a5674	0.045492604
209	0x3d923929	0.07139809
210	0x3da8f488	0.08249766
211	0x3d0cc706	0.03436949
212	0xbd8b9763	-0.06815984
213	0xbd3e54b0	-0.046467483
214	0xbcfa5fe6	-0.030563306
215	0xbca22602	-0.019793514
216	0xbc19ed6a	-0.009394983
217	0xbd525a3e	-0.051355593
218	0xbd66700b	-0.056259196
219	0x3c807393	0.01568011
220	0x3d2c6cc5	0.04209592
221	0x3da231ae	0.07919632
222	0xbde6e448	-0.1127401
223	0xbb518d26	-0.0031975
224	0xbd74401c	-0.059631452
225	0xbd8d9e00	-0.06914902
226	0x3c6136a2	0.013745936
227	0x3da2be89	0.07946498
228	0x3d530905	0.051522274
229	0x3c829538	0.015940294
230	0xbd311cca	-0.043240346
231	0x3d318860	0.043342948
232	0xbbc9d64f	-0.006159581
233	0xbdb3c804	-0.08778384
234	0xbcf1fecb	-0.02954044
235	0xbd335045	-0.043777723
236	0xbd65f4ff	-0.05614185
237	0x3dc6be74	0.09704295
238	0xbd3f43e8	-0.04669562
239	0xbdc08c72	-0.09401788
240	0xbdc40339	-0.09570927
241	0x3c8e2dc7	0.017355813
242	0xbd74bb92	-0.059749193
243	0xbd81ac9b	-0.0633175
244	0x3d962b07	0.073324256
245	0x3e0b9eea	0.1363484
246	0xbd00560c	-0.03133206
247	0x3d0234b0	0.031788528
248	0xbc96eda7	-0.018423868
249	0xbc8688fd	-0.016422743
250	0xbd6a6405	-0.057224292
251	0xbdc4879b	-0.09596177
252	0x3d474f77	0.048659768
253	0x3d815ba6	0.06316309
254	0xbd835121	-0.064119585
255	0xbbbd404c	-0.005775487

encoder.layers.0.self_attn.W_K.weight f4 [60, 100]
0	0x3d44e4d5	0.048069794
1	0x3dc8d24e	0.098057374
2	0xbdc71ca4	-0.0972226
3	0xbd8831a7	-0.066500954
4	0xbd85c078	-0.06530851
5	0xbe16d053	-0.14727907
6	0x3ccd031f	0.025025902
7	0xbdd78f2f	-0.10525357
8	0xbdc73b72	-0.09728135
9	0xbc3af7d0	-0.011411622
10	0xbd28ee4a	-0.041242875
11	0xbd9acb46	-0.075583026
12	0xbd0a00fa	-0.033692338
13	0x3c418e4f	0.011813714
14	0xbd7a7059	-0.0611423
15	0x3d5b0e1b	0.05348025
16	0x3d7688b5	0.060188968
17	0x3d2f3ab7	0.042780604
18	0xbd6d75b4	-0.05797358
19	0x3bb9a2b4	0.0056651477
20	0x3d5cc826	0.053901814
21	0x3d29c7ec	0.041450426
22	0x3d1c0899	0.038094137
23	0x3d0fc5ea	0.035100855
24	0xbba68fa9	-0.0050830436
25	0x3deb435d	0.11487458
26	0x3ce3a3b5	0.027788023
27	0x3b2704ce	0.0025485042
28	0xbd9c44b6	-0.07630293
29	0xbde8bd0b	-0.11364182
30	0x3c4fa6f6	0.012674084
31	0xbcd78e54	-0.026312985
32	0x3d4c4ee1	0.049879912
33	0xbc5e8a04	-0.01358271
34	0xbdb56735	-0.08857576
35	0xbde9d045	-0.114166774
36	0x3c92a4f6	0.017900925
37	0xbd5112e1	-0.051043395
38	0x3bdeb606	0.006796601
39	0x3c508f8f	0.01272954
40	0x3df9f94b	0.12205752
41	0x3d6a8609	0.057256732
42	0x3e055ca8	0.13023627
43	0xbdc0c34e	-0.094122514
44	0x3d0cd665	0.03438415
45	0xbd9237d0	-0.07139552
46	0xbd5b8606	-0.05359461
47	0xbd49e1ab	-0.04928748
48	0xbde4bc35	-0.1116871
49	0xbd8f68f5	-0.07002441
50	0x3d2ac3fd	0.041690815
51	0x3c8a3a85	0.016873607
52	0xbe04c0d8	-0.12964189
53	0x3d63efc6	0.055648588
54	0xbd90cc60	-0.070702314
55	0x3d8685f8	0.06568521
56	0xbd879770	-0.06620681
57	0x3d3a67fb	0.04550932
58	0x3cb7a948	0.022419587
59	0x3cf8b6d3	0.030360615
60	0x3e1c3ca0	0.15257502
61	0xbdceebdd	-0.10103581
62	0x3e0d0168	0.13770068
63	0x3b351eee	0.0027636844
64	0x3d03f72a	0.032218136
65	0xbda5e4d1	-0.08100284
66	0xbc4cb6dd	-0.01249477
67	0xbcb6bfa8	-0.022308186
68	0x3d436ccf	0.04771119
69	0xbd8485df	-0.064708464
70	0xbd1c256d	-0.03812163
71	0x3e1d3a5b	0.15354292
72	0x3d247f9a	0.040160753
73	0xbdd4f4aa	-0.103982285
74	0xbdeff833	-0.11717262
75	0xbd833a64	-0.064076215
76	0xbde0462d	-0.10950885
77	0xbcbe0e3f	-0.023200152
78	0x3cc73448	0.024316922
79	0x3d4d74cd	0.050160218
80	0xbd46cd2a	-0.048535503
81	0x3ca6176b	0.020274838
82	0x3d14e63a	0.036352374
83	0xbdcbb6ed	-0.09947
84	0xbdbcb05f	-0.092133276
85	0x3d0e28fd	0.03470706
86	0x3dca0f4c	0.09866199
87	0x3d124f0a	0.03571991
88	0xbd9a39a5	-0.07530526
89	0xbd0ffaa1	-0.035151128
90	0xbbff0ca1	-0.007783488
91	0xbc38fb91	-0.011290447
92	0xbcab3a3b	-0.02090179
93	0x3dc8bdd4	0.09801832
94	0xbd599074	-0.053116277
95	0x3dfcef94	0.123503834
96	0x3df3e2db	0.119085036
97	0x3db73f0d	0.08947573
98	0x3cf8c58e	0.030367639
99	0xbd45f463	-0.04832877
100	0x3d3b7e65	0.045774836
101	0x3db9117b	0.09036537
102	0xbd4daa83	-0.05021144
103	0x3dffef50	0.12496817
104	0xbdbe0921	-0.09279085
105	0xbd5de195	-0.05417021
106	0xbc05e3b4	-0.008171964
107	0x3d5b0136	0.05346795
108	0xbdb34858	-0.08754033
109	0xbcc5e6aa	-0.02415784
110	0x3da029a6	0.07820444
111	0xbd776888	-0.060402423
112	0x3d8c5b80	0.0685339
113	0x3cfbb93e	0.030727979
114	0x3dc1ef65	0.09469489
115	0x3c4e0317	0.012573979
116	0x3d88a10e	0.06671344
117	0x3b642488	0.0034811813
118	0x3da323af	0.079657905
119	0xbce4c509	-0.027925985
120	0xbd907c20	-0.07054925
121	0xbcc0520a	-0.02347662
122	0xbc44b9d0	-0.012007192
123	0xbc6c67d6	-0.014429053
124	0xbd41d5af	-0.047322925
125	0x3d09fdf1	0.033689443
126	0x3d887d25	0.066644944
127	0xbd81d053	-0.06338563
128	0x3d78af5d	0.060714114
129	0xbd26d424	-0.040729657
130	0x3cf51157	0.029915495
131	0xbd4d5dde	-0.050138347
132	0xbaeaac34	-0.0017904104
133	0xbb99c05a	-0.0046921195
134	0x3d1f1ec4	0.0388477
135	0xbd49e2fa	-0.049288727
136	0xbdf39c57	-0.11895054
137	0x3d8a9c64	0.067681104
138	0x3d6b9cfe	0.057522766
139	0xbdb22ee2	-0.087003484
140	0xbcc1ae41	-0.023642661
141	0x3d943940	0.07237482
142	0xbdac8111	-0.08423055
143	0x3b423b54	0.0029637413
144	0x3d9120c7	0.0708633
145	0x3d234b34	0.03986664
146	0x3d3392f3	0.043841314
147	0x3d864415	0.06555954
148	0xbc8420e3	-0.016128963
149	0xbaa207cf	-0.0012361946
150	0x3d8fee93	0.07027926
151	0x3e09962e	0.13436195
152	0xbc8829ea	-0.016621549
153	0x3b9aa0e6	0.0047188876
154	0x3dabd342	0.083899036
155	0xbdd5e2ca	-0.10443647
156	0x3df55713	0.11979499
157	0xbb356236	-0.0027676946
158	0x3c1ea9b1	0.009684012
159	0xbe146124	-0.14490181
160	0x3d98e0d3	0.07464757
161	0x3d23f158	0.040025085
162	0xbd1122f7	-0.035433736
163	0x3cbb9d04	0.02290202
164	0xbd308087	-0.043091323
165	0x3d94d6e9	0.07267553
166	0xbd099f61	-0.03359926
167	0xbd937410	-0.071998715
168	0x3d0811e1	0.033220176
169	0x3c74b2ad	0.014935178
170	0xbd541306	-0.051775955
171	0xbdebae53	-0.11507859
172	0xbd875238	-0.06607479
173	0x3d8dfe9a	0.06933327
174	0x3cc39803	0.023876196
175	0x3d223dd7	0.039609756
176	0x3a23409e	0.0006227585
177	0xbd9f04bd	-0.07764576
178	0x3d77b05e	0.06047093
179	0x3db22035	0.08697549
180	0xbd8c0a69	-0.06837923
181	0x3de10e26	0.10989027
182	0xbd468aef	-0.04847234
183	0x3c514090	0.012771741
184	0xbd883263	-0.066502355
185	0x3a07718a	0.000516676
186	0xbd9527d8	-0.0728299
187	0x3d75d3a2	0.060016282
188	0x3958b920	0.0002066833
189	0x3db090ad	0.08621345
190	0xbd59bdc7	-0.0531595
191	0x3bd0395b	0.0063544936
192	0x3d1ac8eb	0.037789267
193	0xbd695e38	-0.05697462
194	0xbb1b3ea4	-0.002368846
195	0xbdda6c0f	-0.10665142
196	0x3d758a6b	0.05994646
197	0xbd6d2ab2	-0.057902046
198	0xbbf293ae	-0.0074028587
199	0x3d438b9e	0.04774057
200	0x3d3370d0	0.04380876
201	0xbbc3335c	-0.0059570502
202	0xbd83aae1	-0.06429077
203	0xbd7b0c58	-0.06129107
204	0xbd971fdc	-0.073791236
205	0xbe251242	-0.16120246
206	0x3d128921	0.035775308
207	0xbdf53776	-0.11973469
208	0xbd9f9f6e	-0.07794081
209	0xbd9e8a02	-0.07741167
210	0xbc2f421d	-0.010696915
211	0xbc711d4e	-0.014716459
212	0xbd0d93be	-0.034564726
213	0xbcc45c30	-0.02396974
214	0x3d4609cb	0.048349183
215	0x3d86ba19	0.06578464
216	0x3e140041	0.14453222
217	0x3deddedf	0.11614775
218	0x3d6e295b	0.05814491
219	0x3d3d4828	0.04621139
220	0x3dc96aa3	0.098347925
221	0x3db4e7e6	0.088332936
222	0x3c4f9b9a	0.012671376
223	0xbd050bfa	-0.032482125
224	0x3d48771f	0.048941728
225	0x3d60c3ad	0.05487411
226	0x3ca20581	0.019778015
227	0xbe0ee980	-0.1395626
228	0xbde8ad01	-0.11361123
229	0x3d31817c	0.043336377
230	0x3d80d076	0.06289761
231	0x3ca6dcfe	0.02036905
232	0xbda07db7	-0.07836478
233	0x3d55c216	0.052187048
234	0xbdc38106	-0.09546094
235	0x3d353f32	0.04424972
236	0x3d0aa65b	0.033850055
237	0xbdc5a08b	-0.09649762
238	0xbd007561	-0.03136194
239	0x3c0df6ee	0.00866483
240	0x3c12f224	0.008968864
241	0x3db3074b	0.087416254
242	0x3e0f0fd8	0.13970888
243	0xbdce6b91	-0.100791104
244	0xbe2b5f1b	-0.16735499
245	0xbe274295	-0.16333993
246	0x3c115540	0.008870423
247	0xbd433bb7	-0.04766437
248	0xbdf05165	-0.11734275
249	0xbd76f254	-0.060289696
250	0xbb227b4e	-0.0024792734
251	0xbc6bc096	-0.014389178
252	0xbd256f89	-0.04038957
253	0xbdf6dcbd	-0.12053821
254	0xbddaff95	-0.1069328
255	0x3d299e58	0.041410774

encoder.layers.0.self_attn.W_V.weight f4 [60, 100]
0	0x3d199954	0.03749974
1	0xbd1f5d3b	-0.03890727
2	0x3d647e6b	0.055784624
3	0x3c8bfdc7	0.017088784
4	0xbceee78b	-0.029163143
5	0x3cab2ea6	0.020896267
6	0x3ce7a1e2	0.028275434
7	0x3c14da2a	0.0090852175
8	0xbc61784f	-0.013761594
9	0x3c45f84d	0.012083125
10	0x3d63e0ee	0.05563443
11	0xbd62d5d5	-0.055379707
12	0x3d81b94a	0.06334169
13	0x3b986362	0.004650519
14	0x3c7c9056	0.015415272
15	0x3e0fa27f	0.14026831
16	0xbda7d972	-0.08195771
17	0x3ddf1c48	0.10894066
18	0xbe3b071f	-0.18264435
19	0x3bffaba3	0.007802443
20	0xbcd259cd	-0.025677586
21	0x3d0c9dce	0.03433018
22	0x3e1f8f00	0.15581894
23	0x3e03391e	0.12814757
24	0xbdb2fd10	-0.08739674
25	0x3ba9fde5	0.0051877373
26	0xbe0e2199	-0.13880004
27	0xbdd4d502	-0.103921905
28	0xbda178d8	-0.07884377
29	0xbdd99ec3	-0.106259845
30	0x3c9789c6	0.018498313
31	0xbcf6d8fe	-0.030132767
32	0x3d929f74	0.071593195
33	0xbe0b3e80	-0.1359806
34	0xbdaf6a74	-0.08565226
35	0xbd97c0d9	-0.0740983
36	0x3cb48f20	0.022040904
37	0x3cd13dd3	0.025542175
38	0xbd95c76b	-0.073134266
39	0xbb7aa09f	-0.003824271
40	0xbe077654	-0.13228732
41	0xbd7e914d	-0.06215029
42	0x3d2de369	0.042453203
43	0x3d6419f9	0.055688832
44	0x3d0a84eb	0.033818167
45	0x3d14ab41	0.036296133
46	0xbe001a93	-0.12510137
47	0xbc919e35	-0.017775634
48	0x3d86406a	0.06555255
49	0x3b493a19	0.0030704795
50	0xbc66dedb	-0.014091219
51	0x3d40923c	0.04701446
52	0xbc095778	-0.008382671
53	0x3dbe9b28	0.093069375
54	0x3cf9c279	0.03048824
55	0x3d8b493a	0.06801076
56	0xbcff72dc	-0.031182699
57	0xbde0dfcc	-0.10980186
58	0x3e2a09d1	0.16605307
59	0xbe09ec84	-0.1346913
60	0xbcd574c7	-0.02605666
61	0xbcfafe50	-0.030638844
62	0x3d22c76a	0.039740957
63	0x3deccca8	0.115624726
64	0xbd81dbc0	-0.06340742
65	0x3ddaf63e	0.10691498
66	0x3dfe792b	0.12425455
67	0x3be73f6c	0.007057121
68	0x3d573d04	0.052548423
69	0x3cba7dcc	0.022765063
70	0x3d7d94f2	0.061909623
71	0x3e105d5d	0.14098115
72	0xbdc57d78	-0.09643072
73	0x3d1a6171	0.037690584
74	0xbe14bbdc	-0.14524788
75	0x3d4ad4ac	0.049519226
76	0xbd39d81b	-0.04537211
77	0xbcf2f079	-0.029655682
78	0xbda020d0	-0.078187585
79	0x3d4628c1	0.04837871
80	0x3c4200b2	0.011840986
81	0x3e25eb7e	0.16203114
82	0x3dcf4719	0.10120983
83	0x3d6fbed0	0.058531582
84	0xbc8f193e	-0.017468091
85	0xbdf395ba	-0.118937925
86	0x3dcea0e9	0.10089285
87	0x3d919365	0.071081914
88	0x3c3b416e	0.011429174
89	0xbc18dafb	-0.009329553
90	0xbd9eae59	-0.07748098
91	0xbe0bfb89	-0.13670172
92	0xbdcfd4e7	-0.1014803
93	0x3d2b50e2	0.041825183
94	0x3de22a8b	0.11043271
95	0x3aedb9bf	0.0018137022
96	0xbd2b1d28	-0.041775852
97	0x3d9d8526	0.07691412
98	0x3ddd2563	0.107981466
99	0xbd42fc33	-0.047603797
100	0x3ce880b7	0.028381689
101	0x3d8af96d	0.067858554
102	0xbde49b88	-0.11162478
103	0xbd800fb1	-0.06252993
104	0x3dda052e	0.10645519
105	0xbd96f337	-0.07370608
106	0xbde7c4b6	-0.113168165
107	0x3dcbabf0	0.09944904
108	0x3e049a34	0.12949449
109	0xbda453f0	-0.08023822
110	0x3d350a5f	0.044199344
111	0x3daa3997	0.08311766
112	0xbb1af375	-0.0023643647
113	0xbd0bb373	-0.034106683
114	0xbd0d74c5	-0.03453519
115	0x3d202e50	0.039106667
116	0xbd344ef8	-0.044020623
117	0x3caaba82	0.020840887
118	0xbd1044e0	-0.035221934
119	0x3e0d3c1f	0.13792466
120	0xbcd5142d	-0.026010597
121	0x3bc789ad	0.0060894103
122	0x3d9ba266	0.075993344
123	0x3debef8a	0.11520298
124	0x3dda9b1a	0.106741145
125	0xbdfa27e4	-0.1221464
126	0x3d183526	0.03716006
127	0xbdcdb0cc	-0.10043487
128	0xbd061f58	-0.032744735
129	0xbdb196ec	-0.08671364
130	0x3dfb8347	0.122808985
131	0xbce8dd2d	-0.028425777
132	0x3d41bfec	0.04730217
133	0x3e069787	0.1314374
134	0x3d236b84	0.039897457
135	0x3d32dcb5	0.043667514
136	0xbd8350fd	-0.06411932
137	0xbd378a47	-0.044809606
138	0x3bd33bda	0.006446344
139	0x3c5f6a80	0.013636231
140	0x3dca78f6	0.09886353
141	0x3b157bd0	0.0022809394
142	0xbdb9d30b	-0.090734564
143	0xbc6f1a10	-0.014593616
144	0xbc2b4328	-0.010453023
145	0xbe0fabca	-0.14030376
146	0x3cb8f049	0.022575514
147	0x3d21593a	0.039391734
148	0xbd960b77	-0.073264055
149	0xbd6a44a1	-0.057194356
150	0xbd684f43	-0.056716215
151	0x3ddea386	0.10871033
152	0x3dcd387a	0.10020538
153	0x3db2cee5	0.08730868
154	0x3d9afcfc	0.07567784
155	0xbd44aea6	-0.04801812
156	0x3cc75451	0.024332197
157	0xb9290ed6	-0.00016122623
158	0xbdcf7c8b	-0.101311766
159	0xbd076bbc	-0.033061728
160	0x3c50ceb7	0.012744597
161	0xbbe0f964	-0.006865667
162	0xbd9336ea	-0.071882084
163	0x3db59ecf	0.08868181
164	0x3d97a28b	0.074040495
165	0xbce13f14	-0.027495898
166	0x3d9af7a7	0.07566767
167	0xbe01bdf5	-0.12670119
168	0x3debc72d	0.11512599
169	0xbbb9aab3	-0.005666101
170	0xbe0b3739	-0.13595285
171	0xbd37bc65	-0.0448574
172	0x3d0551ea	0.032548822
173	0x3dcdb98f	0.10045158
174	0x3d9f2414	0.07770553
175	0xbe1beed3	-0.15227823
176	0xbd99633e	-0.07489632
177	0xbbe4597f	-0.0069686766
178	0xbd5b8821	-0.05359662
179	0x3d9e05ac	0.077159256
180	0x3dceef15	0.10104195
181	0x3c2c6b2a	0.010523597
182	0x3dc44bf0	0.095847964
183	0x3ccf314d	0.025292063
184	0x3d03962b	0.032125633
185	0x3cd3e51d	0.025866086
186	0x3dac43d0	0.08411372
187	0xbd470ba3	-0.048595082
188	0x3b60629e	0.0034238468
189	0xbd17e38e	-0.037082247
190	0x3d8e75f5	0.06956092
191	0xbddff040	-0.10934496
192	0x3e010dfe	0.12602994
193	0xbda4117d	-0.08011148
194	0xbb19dd35	-0.0023477797
195	0x3b759eb3	0.0037478625
196	0xbe01c81a	-0.12673989
197	0xbdcca8be	-0.099931225
198	0xbb27edd3	-0.0025623932
199	0x3e0e0951	0.13870741
200	0xbca6c656	-0.020358246
201	0xbdca4fce	-0.09878503
202	0xbd031ed3	-0.03201182
203	0x3d9955c1	0.074870594
204	0x3c88a6b1	0.016681047
205	0x3e07eccf	0.13273929
206	0x3d4e15ed	0.05031388
207	0x3d910c91	0.07082475
208	0xbc33c069	-0.010971167
209	0xbbc3eafa	-0.005978939
210	0xbcd152a9	-0.02555211
211	0x3d9a905f	0.07547068
212	0xbcba51e2	-0.022744123
213	0x3c99d86d	0.018779958
214	0x3d81ec3b	0.063438855
215	0xbd81eef9	-0.063444085
216	0xbdaba06d	-0.08380208
217	0x3cf96027	0.030441357
218	0x3c6dcf90	0.014514819
219	0xbda44a7d	-0.0802202
220	0x3d34a4d9	0.044102523
221	0xbd2e9ed2	-0.04263193
222	0xbcec1294	-0.028817452
223	0x3d6f228e	0.058382563
224	0x3bfdb10f	0.0077420543
225	0x3d960c7f	0.07326602
226	0xbdc7c04f	-0.09753477
227	0xbd9deb0e	-0.07710849
228	0xbcdff71c	-0.02733951
229	0xbd2f3938	-0.042779177
230	0xbdb34cd7	-0.087548904
231	0x3d2cfef8	0.042235345
232	0x3cf2f60f	0.029658346
233	0x3d0a0b9a	0.03370247
234	0xbb9f1d13	-0.004855761
235	0xbd6f95fc	-0.058492646
236	0x3c8986f8	0.01678799
237	0xbcce637c	-0.025193922
238	0xbc27637d	-0.010216591
239	0x3b86b90b	0.0041114143
240	0xbc0b435d	-0.008499947
241	0xbd3e44b3	-0.046452235
242	0xbda5bd54	-0.08092752
243	0x3b6472c8	0.0034858454
244	0xbcd8e6ef	-0.026477305
245	0x3de25ea4	0.110532075
246	0xbd04a7d4	-0.032386616
247	0xbd22df5c	-0.039763793
248	0x3c872230	0.016495794
249	0x3d49e940	0.04929471
250	0xbd6eba22	-0.05828298
251	0x3d3c3918	0.045952886
252	0xbd4342a6	-0.047670983
253	0x3dae1fd3	0.08502164
254	0xbd29b5c8	-0.041433126
255	0x3c0cf47f	0.008603214

encoder.layers.0.self_attn.W_O.weight f4 [100, 60]
0	0x3dc0c358	0.09412259
1	0xbc9846eb	-0.018588504
2	0x3d9c6750	0.07636893
3	0xbd26d42b	-0.040729683
4	0xbd745830	-0.059654415
5	0xbc9ea8a9	-0.019367533
6	0xbdc241ed	-0.094852306
7	0x39e3de5b	0.00043462482
8	0xbd0dda44	-0.034631982
9	0xbe032012	-0.12805203
10	0xbda43968	-0.08018762
11	0xbcb66471	-0.022264691
12	0x3ba68a4f	0.0050824056
13	0xbdc99250	-0.0984236
14	0x3cc243b7	0.02371393
15	0x3d87042c	0.065925926
16	0xbb2e12ff	-0.0026561616
17	0x3d81963f	0.06327485
18	0xbd578ca9	-0.05262438
19	0xbd9023e1	-0.07038093
20	0xbe267aab	-0.16257732
21	0xbda2e4e7	-0.07953816
22	0xbdfae4b5	-0.12250654
23	0xbdb6f41e	-0.089332804
24	0xbdce9693	-0.100873135
25	0x3cbf9660	0.023387134
26	0xbd4997ce	-0.049217038
27	0xbdd5ff6f	-0.10449111
28	0x3e063c2a	0.13108888
29	0xbd3bca81	-0.04584742
30	0x3cc5c6b2	0.024142597
31	0xbda1d480	-0.07901859
32	0x3cb810c5	0.022468934
33	0xbe0f2fa5	-0.13983019
34	0xbd3e371c	-0.046439275
35	0x3c07299d	0.0082496675
36	0xbd8530d2	-0.06503452
37	0x3d007b48	0.03136757
38	0xbe0beb87	-0.13664065
39	0x3d9d331b	0.07675763
40	0x3ce7b553	0.028284704
41	0xbd13c34d	-0.036074925
42	0x3d6e9f09	0.058257136
43	0xbbde1a91	-0.0067780693
44	0xbe0c0ea8	-0.13677466
45	0xbdb82390	-0.08991158
46	0xbd88c9b2	-0.06679095
47	0xbd7188c4	-0.05896832
48	0x3d67ff2c	0.056639835
49	0x3db27eac	0.08715567
50	0xbdb3f682	-0.08787252
51	0xbda837c2	-0.0821376
52	0x3df3ddd8	0.11907548
53	0xbdc2ecba	-0.09517808
54	0xbcfe28b9	-0.031025277
55	0x3d79eeae	0.06101864
56	0xbcd4ac48	-0.025961056
57	0x3d1150a9	0.035477314
58	0xbdfec62f	-0.12440144
59	0xbd0f0bda	-0.034923412
60	0x3b9ad047	0.0047245356
61	0x3dde9082	0.108674064
62	0x3d8b77c5	0.068099536
63	0xbd7aee6b	-0.06126253
64	0x3e01fb2d	0.12693472
65	0xbcf8b9a1	-0.030361952
66	0x3d6fc675	0.058538873
67	0xbe0bf31c	-0.13666958
68	0x3d7d6424	0.06186308
69	0x3d421867	0.047386553
70	0x3db9db48	0.09075028
71	0x3e009124	0.12555367
72	0x3caddd54	0.021223702
73	0xbc8353fb	-0.016031256
74	0xbe03b5ad	-0.12862273
75	0xbdc159af	-0.09440934
76	0x3d34875e	0.04407441
77	0x3dc74759	0.09730405
78	0xbdd0e28e	-0.10199462
79	0x3d9c072c	0.076185554
80	0x3daca0c9	0.08429105
81	0x3dd5e5b2	0.104442015
82	0x3d2f5ea1	0.042814855
83	0x3d133b55	0.035945255
84	0x3de05470	0.10953605
85	0x3c54f3fc	0.0129976235
86	0xbdbe3277	-0.09286969
87	0x3cdeffb0	0.02722153
88	0x3d3c184b	0.045921605
89	0xbdc734c3	-0.097268604
90	0xbc3efe58	-0.01165732
91	0x3df5ae7b	0.1199617
92	0xbd2d5631	-0.042318527
93	0x3c570a67	0.013125039
94	0x3c1c2d02	0.009532215
95	0xbe183879	-0.14865293
96	0xbc74faf4	-0.01495241
97	0xbdf052d6	-0.1173455
98	0x3de5b631	0.11216391
99	0x3d83f408	0.0644303
100	0xbdaa5ab7	-0.08318084
101	0x3dcca0f2	0.099916354
102	0x3e19dbd0	0.15025258
103	0xbd043fab	-0.03228728
104	0x3bcf2c95	0.0063224533
105	0xbd9ab39c	-0.07553789
106	0x3d8eabda	0.06966372
107	0x3d46fd94	0.048581675
108	0xbe0459d3	-0.1292489
109	0x3d9b180b	0.07572945
110	0xbd32eb6b	-0.043681543
111	0x3dfc95c6	0.123332545
112	0x3d110c2f	0.03541201
113	0x3d9211eb	0.07132324
114	0x3b42e93f	0.0029741076
115	0xbdb724fb	-0.089426
116	0x3e281d41	0.1641741
117	0x3e133efe	0.14379498
118	0x3e171f28	0.14757979
119	0x3d92bd6b	0.07165035
120	0xbcf57a4f	-0.029965548
121	0xbcf53095	-0.029930392
122	0xbd441c4d	-0.047878552
123	0xbdc72ea5	-0.097256936
124	0xbcfa96ee	-0.030589547
125	0xbd3f32d5	-0.046679337
126	0xbe0eda78	-0.13950527
127	0xbdca8646	-0.09888892
128	0xbd8e3d36	-0.06945269
129	0xbe192c22	-0.14958242
130	0x3d6ee628	0.058324963
131	0x3ccc0bba	0.024907935
132	0x3db01a5c	0.08598778
133	0xbe25909e	-0.16168448
134	0x3d43bda0	0.047788262
135	0x3c3b1a2e	0.011419816
136	0x3c2aa2b3	0.010414767
137	0xbd9c09f7	-0.07619088
138	0x3d21cafc	0.03950022
139	0xbdaa54e4	-0.08316973
140	0xbd21f2b4	-0.0395381
141	0xbd5c998b	-0.053857367
142	0xbc1ed619	-0.0096946
143	0x3e04c765	0.12966688
144	0x3d212412	0.03934104
145	0x3df6035b	0.12012359
146	0xbc86dc45	-0.016462455
147	0xbd617756	-0.05504545
148	0xbd817abd	-0.063222386
149	0x3b9515a9	0.004549701
150	0xbce32449	-0.027727263
151	0x3c837d63	0.016051
152	0x3dafcb8a	0.08583744
153	0x3d657099	0.056015585
154	0x3a1aeaac	0.00059096026
155	0x3d8a2976	0.06746189
156	0xbc2df156	-0.010616621
157	0xbd125fc1	-0.03573585
158	0xbe48a25d	-0.19593187
159	0x3e0303bf	0.12794398
160	0x3e12fa13	0.14353208
161	0xbbf627ca	-0.0075120674
162	0x3bc09ed4	0.005878309
163	0x3c288c2f	0.010287329
164	0x3c437462	0.011929603
165	0x3da41aec	0.080129474
166	0xbe0c2991	-0.13687731
167	0x3dae7dd8	0.085200965
168	0x3cb33caa	0.021879513
169	0xbd4046bb	-0.046942454
170	0x3b020cba	0.0019844011
171	0x3d35664e	0.04428702
172	0x3dd5aa65	0.10432891
173	0xbe2c5bd5	-0.16831906
174	0x3e293bda	0.16526738
175	0x3dc1b7c6	0.0945888
176	0x3dc86b49	0.09786088
177	0xbddc5773	-0.10758867
178	0xbd59b48a	-0.05315069
179	0xba22c1b6	-0.0006208675
180	0xbd259109	-0.04042152
181	0xbe1b960c	-0.15193957
182	0x3e177387	0.14790164
183	0xbe162b1e	-0.14664885
184	0xbd4fbe75	-0.050718743
185	0xbe034573	-0.12819462
186	0xbe0c92ff	-0.1372795
187	0x3d9c0313	0.07617774
188	0x3c4875d3	0.012235123
189	0xbda36060	-0.079773664
190	0xbd9f7cd6	-0.077874824
191	0xbbd8903b	-0.0066089905
192	0x3d095883	0.033531677
193	0x3d302c59	0.043011043
194	0xbdda292e	-0.10652386
195	0xbe1439ba	-0.14475146
196	0xbcdc81eb	-0.026917418
197	0x3da8382c	0.08213839
198	0x3d0b4292	0.033999033
199	0xbe0e3d08	-0.13890469
200	0xbdcf1136	-0.101107046
201	0xbdb4249d	-0.08796046
202	0x3d4661a0	0.048432946
203	0x3df89818	0.121383846
204	0x3d86f2b3	0.0658926
205	0x3dd229cb	0.102618776
206	0x3c778548	0.01510746
207	0xbe1a2d66	-0.1505638
208	0x3e015949	0.12631716
209	0xbcd0075e	-0.025394138
210	0x3de5130c	0.111852735
211	0xbcd863de	-0.026414808
212	0x3d252eb3	0.04032774
213	0x3dd790d2	0.10525669
214	0xbd4de72a	-0.050269283
215	0x3d3081f5	0.043092687
216	0x3df410ef	0.11917292
217	0xbdf02904	-0.11726573
218	0xbcc6a7b7	-0.024249895
219	0x3de68c75	0.11257259
220	0x3cbeed6b	0.02330657
221	0xbdb7a2f3	-0.08966627
222	0xbdf0e143	-0.11761715
223	0xbd64b927	-0.055840638
224	0xbdb60814	-0.088882595
225	0x3ddb7580	0.10715771
226	0xbcc27963	-0.023739522
227	0xbd0db5f2	-0.034597345
228	0x3ca4ae19	0.020102547
229	0x3d7b6b38	0.06138155
230	0xbd1444b2	-0.036198325
231	0xba54e462	-0.000812119
232	0xbd462fe6	-0.048385523
233	0xbdd5992b	-0.10429605
234	0x3da29dfa	0.07940288
235	0x3d98a2a8	0.07452899
236	0x3df6513d	0.12027214
237	0xbdf1b782	-0.118025795
238	0x3d0a84ab	0.03381793
239	0x3e0b7d60	0.13622046
240	0x3e0d0652	0.13771942
241	0x3c98b3b1	0.018640371
242	0x3cf38eb0	0.029731125
243	0x3db929b5	0.09041158
244	0xbd6dabf9	-0.058025334
245	0xbe13fb51	-0.14451338
246	0xbd82b22a	-0.06381638
247	0x3d4c740d	0.049915362
248	0x3df9a43e	0.1218953
249	0xbdb3512a	-0.08755715
250	0xbbbefa93	-0.0058282106
251	0xbb49b865	-0.0030780074
252	0xbd4f0bff	-0.05054855
253	0x3cd321af	0.025772898
254	0x3e0ba248	0.13636124
255	0xbda3a1cb	-0.07989844

encoder.layers.0.batchnorm_attn.1.weight f4 [100]
0	0x3f7a3552	0.9773761
1	0x3f7c81bf	0.98635477
2	0x3f7aa45d	0.9790705
3	0x3f807c95	1.003802
4	0x3f7e0030	0.99219036
5	0x3f82087c	1.0158839
6	0x3f7e44d9	0.99323803
7	0x3f7f3657	0.9969229
8	0x3f839b5f	1.028179
9	0x3f81a018	1.0126982
10	0x3f7d267e	0.9888686
11	0x3f78ccd5	0.9718755
12	0x3f779f9d	0.96727926
13	0x3f75551f	0.9583301
14	0x3f7a6468	0.9780946
15	0x3f81e24d	1.0147187
16	0x3f83ed4d	1.0306793
17	0x3f7bc490	0.98346806
18	0x3f81ab71	1.0130445
19	0x3f7dfa5e	0.99210155
20	0x3f7ec5b1	0.99520403
21	0x3f78b339	0.9714847
22	0x3f76844e	0.9629563
23	0x3f7607bd	0.9610556
24	0x3f803c47	1.0018395
25	0x3f72eaf4	0.9488976
26	0x3f75c733	0.9600708
27	0x3f7988e4	0.97474504
28	0x3f7bfdb4	0.98433995
29	0x3f821463	1.0162472
30	0x3f7a363c	0.97739005
31	0x3f7f41fe	0.9971007
32	0x3f7b8e8d	0.9826439
33	0x3f7cebd7	0.98797363
34	0x3f77df22	0.9682485
35	0x3f803f9c	1.0019412
36	0x3f78e672	0.9722663
37	0x3f778810	0.9669199
38	0x3f789c7d	0.9711378
39	0x3f7e4d72	0.9933692
40	0x3f78ee8a	0.9723898
41	0x3f7abbe0	0.97942924
42	0x3f749280	0.9553604
43	0x3f84426a	1.0332768
44	0x3f7cb37d	0.9871138
45	0x3f7de385	0.9917529
46	0x3f6fd5a6	0.93685377
47	0x3f74a911	0.95570475
48	0x3f7d84fe	0.99031055
49	0x3f82bbdf	1.0213584
50	0x3f7d973a	0.9905888
51	0x3f80c6fc	1.0060725
52	0x3f78806f	0.97070974
53	0x3f783c01	0.9696656
54	0x3f8586d7	1.0431775
55	0x3f839e65	1.0282713
56	0x3f7b2a28	0.981112
57	0x3f826140	1.0185928
58	0x3f7ed41b	0.995424
59	0x3f8063cc	1.0030456
60	0x3f81e132	1.0146849
61	0x3f84f41f	1.0387
62	0x3f76bd97	0.9638304
63	0x3f8385a4	1.0275159
64	0x3f733566	0.95003355
65	0x3f82f9ef	1.0232524
66	0x3f8acbd1	1.084345
67	0x3f70eed5	0.9411443
68	0x3f84c9c0	1.0374069
69	0x3f82079f	1.0158576
70	0x3f79bff5	0.9755853
71	0x3f806480	1.003067
72	0x3f82c383	1.0215915
73	0x3f82b475	1.0211321
74	0x3f7a93d4	0.9788182
75	0x3f79d705	0.9759372
76	0x3f8155db	1.0104326
77	0x3f762914	0.9615643
78	0x3f83136c	1.0240302
79	0x3f7d4cac	0.98945117
80	0x3f82d698	1.0221739
81	0x3f7dbb29	0.9911371
82	0x3f838599	1.0275146
83	0x3f77737c	0.9666059
84	0x3f80ac5d	1.0052601
85	0x3f7ab016	0.97924936
86	0x3f76233a	0.961475
87	0x3f80e1c7	1.0068902
88	0x3f7d1168	0.98854685
89	0x3f755178	0.95827436
90	0x3f84649a	1.0343201
91	0x3f763a8e	0.961831
92	0x3f816099	1.0107604
93	0x3f821627	1.016301
94	0x3f7a9164	0.978781
95	0x3f85ddae	1.0458276
96	0x3f82544e	1.0181978
97	0x3f7c635f	0.9858913
98	0x3f7d414e	0.9892777
99	0x3f771b5a	0.9652611

encoder.layers.0.batchnorm_attn.1.bias f4 [100]
0	0xbccfa861	-0.025348844
1	0x3d74bd98	0.059751123
2	0xbd6b8236	-0.057497226
3	0xbc1b6745	-0.009485071
4	0x3c805c15	0.015668908
5	0xbc580c80	-0.013186574
6	0x3c61c1a6	0.01377908
7	0x3cc4e6b3	0.024035787
8	0x3c4e7a12	0.012602346
9	0xbd8603d8	-0.06543702
10	0xbd6731db	-0.05644403
11	0xbb8258cc	-0.0039778706
12	0xbd96d25d	-0.07364342
13	0xbda1886f	-0.07887351
14	0xbd32738a	-0.043567218
15	0xbd91f5ba	-0.07126947
16	0x3c19cd44	0.009387318
17	0x3c83b9e5	0.016079852
18	0x3ca09390	0.019601613
19	0x3cdf6183	0.027268177
20	0xbca3654f	-0.019945769
21	0xbd90ba4d	-0.07066784
22	0xbd9313af	-0.07181489
23	0x3d2fb46e	0.04289668
24	0xbbdf0e55	-0.0068071284
25	0x3c1b87e2	0.009492846
26	0xbd405ec0	-0.04696536
27	0x3d351ede	0.04421889
28	0x3d813b0d	0.06310091
29	0xbce2537f	-0.027627705
30	0xbc256334	-0.010094453
31	0xbd4f6d16	-0.05064114
32	0xbd7b537f	-0.061358925
33	0x3cdf9f3d	0.02729761
34	0xbcbac3b9	-0.022798406
35	0x3d217fa0	0.039428353
36	0xbc182d04	-0.009288076
37	0xbdb594e1	-0.08866287
38	0xbd752d31	-0.05985755
39	0x3c8d5054	0.017250217
40	0xbba37c05	-0.0049891495
41	0x3c644f6e	0.013934953
42	0x3a41151b	0.00073655107
43	0x3d2623f3	0.040561628
44	0xbce51979	-0.027966248
45	0xbc42d2a3	-0.01189104
46	0x3d26c69e	0.04071676
47	0xbd8bb97e	-0.06822489
48	0xbc829037	-0.015937908
49	0x3c93d6a4	0.018046685
50	0xbd892344	-0.066961795
51	0x3caca1dc	0.021073274
52	0xbd0e2576	-0.034703694
53	0xbdb0b715	-0.0862867
54	0x3d5fbc38	0.05462286
55	0xbcc33fe4	-0.023834176
56	0xbd2e72f7	-0.042590108
57	0x3d5a633a	0.053317286
58	0x3bc6ba5b	0.006064696
59	0x3d10999e	0.03530275
60	0xb9e039ab	-0.00042767575
61	0xbd5ad1fa	-0.053422906
62	0x3d7dc60d	0.061956454
63	0xbd5c3c93	-0.053768706
64	0xbb154e04	-0.0022782097
65	0xbc8c00db	-0.017090252
66	0xbd794604	-0.060857788
67	0x3bec8572	0.0072180564
68	0x3d3bb674	0.045828298
69	0xbc52e8b6	-0.012872865
70	0xbc8bce72	-0.017066214
71	0x3d9e9c7a	0.07744689
72	0x3c366362	0.011132093
73	0xbcf647c0	-0.03006351
74	0xbda0c997	-0.0785095
75	0xbd1a0ac5	-0.037607927
76	0xbcacacc6	-0.021078479
77	0xbd89c663	-0.067272924
78	0x3c4b80d5	0.012420853
79	0x3c3b74cd	0.011441422
80	0xbba0defa	-0.0049093934
81	0x3d290020	0.041259885
82	0x3ccfef0d	0.025382543
83	0xbd07070e	-0.032965712
84	0xbc8f9f0e	-0.017531898
85	0xbc8962d2	-0.016770754
86	0xbc8a2236	-0.016862016
87	0xbc665f49	-0.014060804
88	0xbce949b9	-0.028477537
89	0xbc9efddc	-0.019408159
90	0x3c3babe8	0.01145456
91	0xbbb1bccd	-0.005424118
92	0x3d8c41db	0.068484984
93	0xbd792bd9	-0.060832832
94	0x3d20f43c	0.03929542
95	0xbd7a1207	-0.06105235
96	0xbce99a2c	-0.028515898
97	0x3d0f8d74	0.03504701
98	0xbc820759	-0.015872644
99	0xbd612a5f	-0.05497205

encoder.layers.0.batchnorm_attn.1.running_mean f4 [100]
0	0xc0e02628	-7.0046577
1	0x409de3f9	4.9340787
2	0xc0c4fb28	-6.1556587
3	0xc0d80e87	-6.7517734
4	0xc0b47766	-5.639575
5	0xc0fcee45	-7.9040856
6	0x40379d8e	2.8689914
7	0x4093d58c	4.6198177
8	0x3f64f83b	0.8944127
9	0xbf85d88b	-1.0456709
10	0xc0fd04f0	-7.9068527
11	0x3f3c0b70	0.7345495
12	0xc0a8933b	-5.2679725
13	0xc08d67d5	-4.418925
14	0x3ee37d15	0.44431368
15	0xc0c8c6fc	-6.27429
16	0x3f674e45	0.90353805
17	0x40c77e9f	6.2342067
18	0x4059043a	3.390883
19	0x40ca2fbe	6.318328
20	0xc1104c8b	-9.018687
21	0xc06d3a95	-3.7067006
22	0xc0d32a97	-6.598949
23	0x40d95c13	6.7924895
24	0xc10e14c2	-8.880068
25	0x408bb89c	4.3662853
26	0xc1219391	-10.098527
27	0x40615f91	3.521458
28	0x40c82d3c	6.255522
29	0xc0f77313	-7.732797
30	0xc094ae3e	-4.64627
31	0xc10cde31	-8.804246
32	0xc0d65a09	-6.6984906
33	0x409ed1f5	4.9631295
34	0xc10531b1	-8.324632
35	0x40e074d7	7.0142627
36	0xc0a042dd	-5.008162
37	0xc00b5d9f	-2.1775892
38	0xc0212a50	-2.5182076
39	0x40a909ca	5.282445
40	0x3ffc967f	1.9733428
41	0x40ef9f0b	7.4881644
42	0x3fb2bd3d	1.3964001
43	0x40c05796	6.0106916
44	0xc0d61419	-6.6899533
45	0xc0f542c1	-7.6643987
46	0x406fb9d3	3.7457168
47	0xc0890b0a	-4.2825975
48	0xc0d703c6	-6.7192106
49	0x40869739	4.20596
50	0xc096d210	-4.7131424
51	0x40cbad0f	6.3648753
52	0xc0f13325	-7.537493
53	0xc0e3c154	-7.1173496
54	0x401bcb63	2.4342887
55	0x3fb8661c	1.4406161
56	0xc0b38b36	-5.6107435
57	0x40c63e6a	6.195119
58	0xc0a94f59	-5.290936
59	0xbf142756	-0.5787252
60	0xbfb1b0fe	-1.3882139
61	0xc0f9adcb	-7.802465
62	0x40aa8963	5.329271
63	0x3fa0a2f5	1.254973
64	0x3f419548	0.7561841
65	0xc0e7ef30	-7.2479477
66	0xc00a36b6	-2.1595893
67	0xbea640b5	-0.32471243
68	0x4022ed52	2.545735
69	0xc0cfa5b5	-6.488978
70	0xc0985726	-4.760638
71	0x3ffb61b9	1.9639198
72	0x4108434a	8.516428
73	0xc01fdf96	-2.4980216
74	0xbf7931d2	-0.97341645
75	0xc0d69a03	-6.7063003
76	0xc10047d9	-8.017541
77	0xc0881ef8	-4.2537804
78	0x40dd5ae2	6.917344
79	0x408327b2	4.0985956
80	0xbfca7b98	-1.5818968
81	0x403cda18	2.9508114
82	0x409b23f3	4.8481383
83	0xbf747e5e	-0.9550532
84	0xc121a9a9	-10.103921
85	0xc0cdc24c	-6.429968
86	0xc0a90b35	-5.282618
87	0xc0a8ff01	-5.2811284
88	0xc0d46202	-6.636964
89	0xc0bf4bc5	-5.977999
90	0xbfd49722	-1.6608622
91	0xc0dae276	-6.840144
92	0x408fd99f	4.495315
93	0xc0ed7be7	-7.421375
94	0xbfc4889b	-1.5354189
95	0xbfba59cb	-1.4558653
96	0xc0fe7d5c	-7.9528027
97	0xbf5fa6ca	-0.87363875
98	0xc09a60ca	-4.824315
99	0xbd81bbf6	-0.06334679

encoder.layers.0.batchnorm_attn.1.running_var f4 [100]
0	0x418bd00c	17.476585
1	0x4129e9b2	10.6195545
2	0x41542320	13.258575
3	0x41944f94	18.538857
4	0x41478874	12.470814
5	0x41b62e03	22.772467
6	0x40ecfe8b	7.406072
7	0x4110fddb	9.061976
8	0x4048db40	3.138382
9	0x40af73c8	5.4828835
10	0x41c94ec8	25.163467
11	0x40fddb6e	7.933036
12	0x413e4e00	11.894043
13	0x41105ac1	9.022157
14	0x41021e7b	8.1324415
15	0x416981a5	14.5941515
16	0x40c30a2c	6.0949917
17	0x418da6b8	17.706406
18	0x410d7fc0	8.843689
19	0x416a75a7	14.653724
20	0x41e23851	28.277498
21	0x410459e3	8.271945
22	0x4197054a	18.877583
23	0x416813e6	14.504858
24	0x41f07641	30.057741
25	0x411e2f4c	9.886547
26	0x420ce3f6	35.22262
27	0x40f4127f	7.627258
28	0x4184d2ce	16.602932
29	0x41a64daf	20.787931
30	0x4123b462	10.231539
31	0x41e4608f	28.547148
32	0x418300b3	16.375341
33	0x411a0f85	9.628789
34	0x41c10d8e	24.131618
35	0x4185bdeb	16.717733
36	0x4113d125	9.238561
37	0x40b2490f	5.5714183
38	0x40ab2c50	5.3491592
39	0x41204ad7	10.018271
40	0x40ade471	5.434136
41	0x41c48c1c	24.568413
42	0x40946f04	4.6385517
43	0x41727d08	15.155525
44	0x41882164	17.016304
45	0x419a9204	19.321297
46	0x4104ca8a	8.299448
47	0x41058258	8.344322
48	0x4192c878	18.347885
49	0x4124ce22	10.300325
50	0x411fb3ea	9.981424
51	0x415369ec	13.21336
52	0x41ab60b5	21.42222
53	0x41972718	18.894089
54	0x4161974c	14.099438
55	0x40a62a49	5.192662
56	0x4145bab2	12.35808
57	0x415c676c	13.7752495
58	0x41487a95	12.529927
59	0x4094b23f	4.6467586
60	0x40b7ddaa	5.7458086
61	0x41b579aa	22.684406
62	0x4168d4c1	14.551942
63	0x41074346	8.453924
64	0x40adeef2	5.435418
65	0x418f9f50	17.95279
66	0x4095c49e	4.680251
67	0x406e4fe3	3.723626
68	0x40e2e507	7.0904574
69	0x4182b10d	16.33645
70	0x41210a55	10.065022
71	0x40975276	4.728816
72	0x41d023d5	26.017496
73	0x40957472	4.6704645
74	0x4091b4ec	4.553335
75	0x417a6b28	15.651161
76	0x41d1b57a	26.213612
77	0x41182bac	9.510662
78	0x418b0405	17.376963
79	0x410db336	8.856253
80	0x409de32e	4.933982
81	0x40f2e221	7.5901036
82	0x41199ba9	9.600503
83	0x40a9684d	5.293982
84	0x421a5a05	38.58791
85	0x418f1687	17.886
86	0x41372199	11.445703
87	0x415f523a	13.957575
88	0x41ad5bd6	21.669842
89	0x414bc3e2	12.735323
90	0x40ab0776	5.3446608
91	0x417e03fb	15.875972
92	0x4136fd87	11.436896
93	0x419cbd69	19.592485
94	0x40cac1f8	6.336178
95	0x40d31561	6.5963597
96	0x41acd1fc	21.602531
97	0x40d5bf37	6.6795917
98	0x41560a8f	13.377578
99	0x410589b9	8.346124
