transformer_results_random_no_constants_no_param_tune/performance_prediction/PSO1-PSO2-PSO3-PSO4-PSO5-PSO6-PSO7-PSO8-PSO9-PSO10-PSO11-PSO12_random_no_constants_dim_10_samples_50_fold_8_budget_50_n_heads_2_n_layers_1_d_model_100_d_k_30_d_v_30_aggregations_mean/trained_model_dict.pt (torch, 341563 bytes, 22 tensors)

W_P.weight f4 [100, 11]
0	0x3e4702c9	0.19434656
1	0xbc293a32	-0.010328816
2	0xbe5838c8	-0.2111541
3	0xbce1b6c2	-0.027552966
4	0xbde97be9	-0.11400587
5	0x39db7c1a	0.00041863398
6	0x3daae5be	0.08344601
7	0x3b071d8e	0.0020616981
8	0x3e1b5af4	0.15171415
9	0xbe226fd6	-0.15862975
10	0x3d9f8173	0.07788362
11	0xbe680f85	-0.2266217
12	0xbc96a476	-0.018388968
13	0x3e650604	0.22365576
14	0x3e67e26e	0.2264497
15	0xbde8301d	-0.11337302
16	0xbe8917f6	-0.26776093
17	0xbd59da38	-0.053186625
18	0x3e2f5bdc	0.17124885
19	0xbdb1372c	-0.08653101
20	0xbd6e9823	-0.058250558
21	0x3edd7df9	0.43260172
22	0xbe1dc756	-0.15408072
23	0xbd01e59f	-0.031713124
24	0xbe64a551	-0.22328688
25	0xbe77b8c6	-0.24191579
26	0x3df9b6cd	0.121930696
27	0xbdc93e66	-0.09826355
28	0x3d9abaec	0.07555184
29	0xbd08b749	-0.03337792
30	0x3e890453	0.26761112
31	0x3e27e34c	0.163953
32	0xbea2b063	-0.31775197
33	0xbe29fb41	-0.16599752
34	0x3e685664	0.22689205
35	0x3e827733	0.25481567
36	0xbe50f67d	-0.20406528
37	0x3e14ab54	0.14518481
38	0x3dc3b761	0.09556461
39	0xbdfe83bf	-0.12427472
40	0x3e2e515b	0.17023222
41	0x3d97642f	0.073921554
42	0xbe97140b	-0.2950748
43	0x3ea9a154	0.33130896
44	0x3e0359c3	0.1282721
45	0x3e7e2c9c	0.24821705
46	0xbded7d09	-0.11596114
47	0x3cdddf71	0.027084084
48	0x3e1a5bbd	0.15074058
49	0x3d0f36df	0.03496444
50	0x3d318357	0.043338146
51	0xbdcacc67	-0.09902268
52	0x3caadaed	0.020856345
53	0x3c4ec726	0.012620723
54	0x3d7e78f3	0.062127065
55	0x3e1ad85b	0.15121596
56	0xbe8629a6	-0.2620365
57	0x3d20244c	0.039097115
58	0xbd95c675	-0.07313243
59	0x3e8c5fb9	0.2741678
60	0x3d458fb3	0.048232745
61	0xbe423925	-0.18967111
62	0xbe917835	-0.28412023
63	0xbd13d066	-0.036087416
64	0x3e4fa912	0.20279339
65	0xbea1f5fc	-0.31632984
66	0x3dd13142	0.10214473
67	0xbd84a5fa	-0.0647697
68	0xbe13d032	-0.14434889
69	0xbe29f937	-0.16598974
70	0xbca04253	-0.019562876
71	0xbe09a271	-0.13440873
72	0x3de3338d	0.11093817
73	0x3e04197c	0.12900347
74	0x3df1994f	0.117968194
75	0x3d13f11d	0.036118615
76	0x3e98a62e	0.29814285
77	0x3e80a4af	0.25125644
78	0x3d335335	0.043780524
79	0x3da3122a	0.07962449
80	0xbc399de8	-0.011329152
81	0x3da4bd83	0.08043959
82	0x3da1b9ac	0.07896742
83	0xbcbffb64	-0.023435302
84	0xbe72ff6f	-0.23730253
85	0xbe115fdb	-0.14196722
86	0x3d44ca40	0.048044443
87	0x3e8f6c76	0.28012437
88	0xbd6c0165	-0.057618517
89	0x3e15bc3e	0.1462259
90	0x3e2943f8	0.16529834
91	0x3e8ab972	0.2709461
92	0x3c1e90b3	0.009678054
93	0xbdf7a591	-0.12092126
94	0xbdc71566	-0.09720878
95	0xbe1c8a7d	-0.15287204
96	0x3e31c47d	0.1736011
97	0x3dfb2f86	0.12264924
98	0x3e348b4d	0.17631264
99	0xbe590940	-0.21194935
100	0xbce04011	-0.0273743
101	0x3c2a68e7	0.010400987
102	0x3e839110	0.2569661
103	0x3dca205f	0.098694555
104	0xbe8fa791	-0.2805753
105	0xbd3701cd	-0.04467945
106	0xbe9763b4	-0.29568255
107	0x3e92f70c	0.28704107
108	0xbc488aa4	-0.012240086
109	0xbeb50a75	-0.3535954
110	0xbc9950be	-0.018715259
111	0x3e6793da	0.22614995
112	0x3e1d3250	0.15351224
113	0x3dbf7e57	0.09350269
114	0x3e557287	0.2084447
115	0xbe2f6a48	-0.17130387
116	0x3e30e835	0.1727608
117	0xbe389f4c	-0.18029517
118	0xbdf05cb3	-0.11736431
119	0xbda2cdb1	-0.07949389
120	0xbeee06c6	-0.46489543
121	0x3e0d7847	0.13815413
122	0x3e922703	0.2854539
123	0x3d57ff77	0.052733865
124	0x3e42c203	0.19019322
125	0xbe3878fe	-0.18014905
126	0xbe8ad3ff	-0.27114865
127	0xbe6ff0c5	-0.2343169
128	0x3d87d591	0.066325314
129	0xbe3c567b	-0.18392365
130	0x3e67b936	0.22629246
131	0xbeee8d80	-0.4659233
132	0x3c5bd211	0.013416783
133	0xbe8fde53	-0.28099307
134	0xbe26e273	-0.16297321
135	0x3c90889e	0.01764327
136	0x3e6a19a5	0.22861345
137	0x3e8ea6e5	0.27861705
138	0x3e44a1d2	0.19202355
139	0x3d18789f	0.03722441
140	0xbe0a63ec	-0.1351468
141	0x3e5d29c8	0.2159797
142	0x3e8a88c6	0.27057475
143	0x3bc71364	0.0060753096
144	0x3b30f9aa	0.002700428
145	0xbe671db3	-0.22569923
146	0xbe772675	-0.24135764
147	0x3e7eaa8b	0.24869744
148	0xbe1239ed	-0.1427991
149	0xbe667e35	-0.22509082
150	0xbddbab1b	-0.10725995
151	0xbe4d8516	-0.200703
152	0xbe333323	-0.17499976
153	0x3eb23766	0.3480789
154	0x3e75a76a	0.23989645
155	0x3d6b033d	0.057376135
156	0x3e5ddc29	0.21666016
157	0xbe886540	-0.26639748
158	0x3e6ffb72	0.23435763
159	0x3e7071f4	0.2348097
160	0x3db4682c	0.08808932
161	0x3e47011c	0.19434017
162	0xbd58e584	-0.05295326
163	0x3cf2d821	0.029644074
164	0xbda9f84b	-0.08299311
165	0x3e689718	0.22713888
166	0x3dbed2d8	0.09317559
167	0xbe0f6fe7	-0.14007531
168	0xbda7edfd	-0.081996895
169	0xbcfad082	-0.030617002
170	0xbe73e836	-0.2381905
171	0xbe2e2fef	-0.17010473
172	0xbe856665	-0.26054683
173	0xbc95826b	-0.018250665
174	0xbd0eb0e4	-0.034836665
175	0xbcdf33cd	-0.02724638
176	0xbd9d95e4	-0.07694605
177	0x3e72868a	0.23684135
178	0xbd498d1f	-0.04920685
179	0xbe805f1b	-0.2507256
180	0xbe8cf4ee	-0.27530617
181	0xbbf357eb	-0.007426252
182	0xbdb07d6e	-0.08617674
183	0xbe5e3315	-0.21699174
184	0x3e5d3e0c	0.216057
185	0x3d0d9d95	0.03457411
186	0x3edd2a26	0.4319622
187	0xbe29edf7	-0.16594683
188	0x3d000da1	0.031262998
189	0x3e4f12d6	0.20222029
190	0x3d67373e	0.056449167
191	0xbc8629af	-0.016377298
192	0x3c6014b2	0.013676809
193	0x3c66680e	0.0140628945
194	0x3e6c4747	0.23074065
195	0xbb8f39b9	-0.0043708947
196	0xbe17ebe3	-0.14836077
197	0x3d7675d7	0.060170975
198	0xbe822cc5	-0.2542478
199	0x39ca076f	0.0003853398
200	0xbe339bdf	-0.17539929
201	0xbc89649d	-0.016771609
202	0x3d56789a	0.05236111
203	0x3d96950c	0.07352647
204	0xbe48c216	-0.19605288
205	0xbe3075be	-0.17232415
206	0x3a6839fb	0.00088587374
207	0xbe58b778	-0.21163738
208	0x3e94e06c	0.2907747
209	0x3e05def1	0.13073327
210	0xbdc2b629	-0.095074005
211	0x3c13cd6d	0.009021145
212	0xbe15d374	-0.14631444
213	0xbe12d678	-0.14339626
214	0xbc8b838b	-0.017030498
215	0x3e8cba4c	0.27485883
216	0xbe2e5d87	-0.17027865
217	0x3de54efd	0.111967064
218	0x3e7567b5	0.23965342
219	0x3ed2de75	0.41185346
220	0x3cfededa	0.031112123
221	0xbdd11d61	-0.10210682
222	0x3db4c80d	0.08827219
223	0xbe69acab	-0.22819774
224	0x3dda7fc3	0.106689
225	0x3bc9dee7	0.0061606052
226	0xbd8ea1a0	-0.06964421
227	0x3e45276f	0.19253324
228	0xbcf4b179	-0.029869782
229	0x3d857727	0.06516867
230	0xbee3b239	-0.4447191
231	0xbe85f0a4	-0.26160157
232	0x3d803553	0.06260171
233	0x3e18831a	0.14893761
234	0x3e4f19ad	0.20224638
235	0xbcd754b8	-0.026285514
236	0x3db0b652	0.08628525
237	0xbe5c52ca	-0.21515957
238	0xbd9f22af	-0.07770287
239	0x3e64bf76	0.22338662
240	0xbe83354c	-0.256266
241	0x3e8dc5ce	0.27689976
242	0xbe9068f8	-0.28205085
243	0xbe35129a	-0.17682877
244	0xbceebe1e	-0.02914339
245	0x3e056216	0.13025698
246	0xbe5f8197	-0.21826778
247	0xbe007dd9	-0.12548007
248	0xbdaa2cb3	-0.08309307
249	0xbe36cfb5	-0.17852671
250	0x3d0638e4	0.0327691
251	0xbe4a6959	-0.1976675
252	0x3e95f12b	0.2928556
253	0xbe11fd95	-0.1425689
254	0x3e6e7e7f	0.23290442
255	0xbdea8852	-0.11451782

W_P.bias f4 [100]
0	0x3d9df48d	0.0771266
1	0x3e0b03e5	0.13575704
2	0xbe867169	-0.262584
3	0x3e9330c5	0.28748146
4	0xbebaaf9a	-0.36462098
5	0xbe50b49b	-0.20381396
6	0xbea67d73	-0.32517585
7	0x3d453c8c	0.048153445
8	0xbd053490	-0.03252083
9	0xbe4db014	-0.200867
10	0x3d634ab1	0.055491153
11	0x3de13b41	0.1099763
12	0xbc9db9f7	-0.019253714
13	0xbd0ad5f6	-0.033895455
14	0x3e5db9c2	0.21652892
15	0x3df42778	0.119215906
16	0xbc770f09	-0.015079268
17	0x3df5f094	0.12008777
18	0x3d898fc7	0.067168765
19	0xbce12ede	-0.027488168
20	0xbe8364f3	-0.25662956
21	0x3e586934	0.21133882
22	0xbe472cd6	-0.19450697
23	0x3e6bb79e	0.23019263
24	0x3ddf3677	0.1089906
25	0xbb762be7	-0.003756279
26	0xbe994b24	-0.2994014
27	0x3dd76237	0.1051678
28	0xbec15a1c	-0.3776406
29	0x3d2e8111	0.042603556
30	0xbe7b1a14	-0.24521667
31	0xbd93f09f	-0.07223629
32	0x3b859077	0.0040760594
33	0xbdf02b64	-0.11727026
34	0xbdfa7ee1	-0.122312315
35	0xbe08f3f9	-0.13374318
36	0xbe9aad4d	-0.30210343
37	0x3e731965	0.23740156
38	0xbdced94e	-0.10100041
39	0x3dddfd7c	0.10839364
40	0xbe9c204a	-0.30493385
41	0x3e9ebb74	0.3100239
42	0xbc1e6360	-0.0096672475
43	0xbe5a34da	-0.21309224
44	0xbe825a0e	-0.2545933
45	0x3e8c8e43	0.27452287
46	0x3e7d0ed2	0.24712685
47	0xbe3770e9	-0.17914166
48	0xbe8de874	-0.2771641
49	0xbd2de7d4	-0.042457417
50	0x3dd426e0	0.10358977
51	0x3e4eb852	0.201875
52	0xbe5f1f62	-0.21789315
53	0xbd9050db	-0.07046672
54	0xbdc21df1	-0.09478367
55	0x3e180397	0.1484512
56	0x3d85b403	0.06528475
57	0x3e233560	0.1593833
58	0x3e435019	0.19073524
59	0x3d4c9edf	0.0499562
60	0xbe6e3d98	-0.23265684
61	0x3daa4fff	0.08316039
62	0x3e7d6d28	0.24748671
63	0xbe5abd54	-0.21361285
64	0xbea05920	-0.31317997
65	0x3ea5a91c	0.32355583
66	0xbdde7f82	-0.10864164
67	0x3e9d065c	0.30668914
68	0xbd801e13	-0.06255736
69	0xbd4ad976	-0.049523793
70	0x3cfe08f7	0.031010134
71	0x3e0a9e12	0.13536862
72	0xbe15387d	-0.1457233
73	0x3e1bbfee	0.15209934
74	0xbe934a7d	-0.28767768
75	0xbe2784b0	-0.1635921
76	0x3e5f6066	0.21814117
77	0xbd8cf954	-0.06883493
78	0x3e5e6869	0.21719517
79	0x3e564776	0.20925698
80	0xbeb8bc7e	-0.36081308
81	0x3dd16849	0.10224969
82	0x3e93557d	0.2877616
83	0xbd998da0	-0.07497716
84	0xbe82b6fb	-0.25530228
85	0xbd88e8e9	-0.06685049
86	0xbe9784b9	-0.29593447
87	0xbe407d39	-0.18797769
88	0x3e9853c7	0.29751417
89	0xbcfe4085	-0.031036625
90	0x39cc0eb7	0.00038920876
91	0x3e89b06f	0.2689242
92	0x3e834445	0.25638023
93	0x3e2effcd	0.17089768
94	0x3df0f326	0.11765127
95	0x3e4dd50f	0.20100807
96	0x3e836619	0.25663832
97	0x3e3054cc	0.17219847
98	0x3d6c79eb	0.057733458
99	0x3e0acb5d	0.1355414

encoder.layers.0.self_attn.W_Q.weight f4 [60, 100]
0	0xbd133491	-0.035938803
1	0x3d4660b2	0.04843206
2	0x3d707116	0.058701597
3	0x3c188306	0.009308582
4	0x3d0067f4	0.031349137
5	0x3d09d4ca	0.033650197
6	0xbcc260ac	-0.023727737
7	0x3d56b8d3	0.052422356
8	0xbda146e7	-0.07874852
9	0xbd896cf1	-0.06710232
10	0xbd4809b0	-0.048837364
11	0xbd948397	-0.07251661
12	0xbc965639	-0.018351661
13	0xbc0ddc9b	-0.0086585535
14	0x3d53d63f	0.051717993
15	0x3ccc6e1b	0.024954846
16	0x3c66d695	0.014089246
17	0xbc143196	-0.009045025
18	0xbd74fe0f	-0.0598126
19	0xbbcbec69	-0.0062232506
20	0xbd93b8c6	-0.07212977
21	0x3c41da4c	0.011831831
22	0x3ba824a8	0.005131323
23	0xbdbc9581	-0.09208203
24	0xbd23e40b	-0.0400124
25	0xbdf1d949	-0.11809022
26	0x3d5e432c	0.05426328
27	0x3da77ce0	0.08178115
28	0x3c5a8e71	0.013339625
29	0xbbc65c6f	-0.0060534994
30	0x3d2b0e72	0.041761823
31	0x3dce43f6	0.10071556
32	0xbdf9cfcf	-0.121978395
33	0x3da26a0e	0.079303846
34	0x3e02eafc	0.12784952
35	0xbd32b969	-0.043633852
36	0xbe047286	-0.12934312
37	0xbdb8754d	-0.09006748
38	0xbda9fe8a	-0.083005026
39	0x3c605b39	0.013693624
40	0x3d320bb5	0.043468196
41	0xbdd39afa	-0.10332294
42	0x3d97ca4c	0.07411632
43	0xbc9e85af	-0.019350855
44	0xbd9dd2fc	-0.07706258
45	0x3d8a38a5	0.06749085
46	0xbba24139	-0.004951623
47	0xbc1a1214	-0.009403724
48	0xbbc0fb29	-0.0058893156
49	0x3e09b778	0.13448894
50	0xbdd0c75f	-0.10194277
51	0xbd4c5670	-0.04988712
52	0x3dc2dc2a	0.09514649
53	0xbda9c2e6	-0.08289127
54	0xbd7c2ef5	-0.06156822
55	0x3d0eec86	0.034893535
56	0x3d1b9256	0.037981354
57	0xbc8fa4b8	-0.017534599
58	0xbc1e682d	-0.009668392
59	0xbd1a608d	-0.037689734
60	0xbd7f1811	-0.06227881
61	0x3b74b52b	0.003733943
62	0xbcb12296	-0.021622937
63	0x3d359ead	0.04434078
64	0x3d68b4ff	0.056813236
65	0xbd3b9f7f	-0.045806404
66	0xbc0d0c02	-0.00860882
67	0xbcd0ee09	-0.025504129
68	0x3d46d737	0.04854509
69	0xbd1f3408	-0.03886798
70	0x3a7f93e4	0.00097495154
71	0xbd18ce06	-0.037305854
72	0x3d844c7f	0.06459903
73	0xbda33bb3	-0.07970371
74	0xbc00778a	-0.007841
75	0xbdb194a3	-0.08670928
76	0x3c76ac65	0.0150557505
77	0x3de0a7c7	0.10969501
78	0xbd842b5b	-0.06453582
79	0xbdb19230	-0.08670461
80	0xbbe2afcb	-0.006917929
81	0xbda7dc69	-0.08196337
82	0xbc91adbc	-0.017783038
83	0xbd2247e2	-0.039619334
84	0x3d1df8df	0.03856742
85	0xbd8cb1ca	-0.06869848
86	0xbcb6a97e	-0.022297617
87	0xbe0419e5	-0.12900503
88	0x3d5126c7	0.05106237
89	0x3dad8c76	0.084740564
90	0x3d409999	0.047021482
91	0xbdb44580	-0.088023186
92	0x3db1364b	0.08652934
93	0xbd6bd2fa	-0.05757425
94	0xbd16a155	-0.036774952
95	0xbde9e5e2	-0.114208
96	0x3d6f8e99	0.0584856
97	0xbd9d2808	-0.07673651
98	0xbdf35281	-0.11880971
99	0xbd113e1b	-0.03545962
100	0x3d1793ee	0.03700631
101	0xbd5632c9	-0.052294526
102	0x3deb57ce	0.11491357
103	0xbc800e08	-0.01563169
104	0x3d8391f0	0.0642432
105	0x3cd0d6bf	0.025493024
106	0x3dfa2854	0.12214723
107	0x3ca6e278	0.02037166
108	0x3d91f340	0.071264744
109	0x3d04e977	0.032449212
110	0xbda820d1	-0.08209384
111	0x3d989596	0.07450406
112	0x3d801ace	0.062551126
113	0xbd8cd204	-0.06875995
114	0x3cbb2646	0.022845399
115	0xbd2cdae8	-0.042200953
116	0xbdacde12	-0.08440794
117	0xbdc100d2	-0.094239846
118	0x3db95ac1	0.09050513
119	0xbd8cf817	-0.06883257
120	0xbd16dfb5	-0.036834437
121	0xbca5fda3	-0.020262545
122	0x3d22ed5f	0.039777156
123	0x3d85eb50	0.06539023
124	0x3d94718d	0.072482206
125	0xbda69c9c	-0.081353396
126	0xbd042f6d	-0.03227179
127	0x3b9b45a2	0.0047385255
128	0x3e047b33	0.12937622
129	0x3cac51a9	0.021035032
130	0xbd5b8ff3	-0.053604078
131	0x3d1dc2b5	0.038515765
132	0xbd9551d2	-0.072909966
133	0xbd02bce4	-0.03191842
134	0xbd5932b5	-0.053026874
135	0xbd393629	-0.045217667
136	0xbc973f7e	-0.018462893
137	0x3daed66b	0.08536991
138	0x3ca894de	0.020578798
139	0xbd9afc58	-0.07567662
140	0x3d93c6d8	0.07215661
141	0xbceba695	-0.028765956
142	0xbd4569b4	-0.04819651
143	0xbc38bca4	-0.011275444
144	0xbd22f513	-0.039784502
145	0xbdac09b8	-0.08400291
146	0xbd808da3	-0.06277015
147	0x3d2704b8	0.040775985
148	0xbd28f74c	-0.041251466
149	0xbcc0382c	-0.023464285
150	0x3cbe7cfd	0.023252958
151	0x3c84a7ba	0.01619326
152	0xbc79d8ff	-0.01524949
153	0x3d08ecd9	0.033429
154	0x3b9c1d0a	0.004764204
155	0x3d743410	0.059619963
156	0x3d1c4587	0.038152244
157	0xbdba908e	-0.09109603
158	0xbd250aa6	-0.04029336
159	0x3d144643	0.03619982
160	0x3d6a3d39	0.057187293
161	0xbd6f2e52	-0.058393784
162	0xbcb67be4	-0.022275873
163	0xbd9286cb	-0.07154616
164	0x3cfdcb91	0.030980857
165	0xbda2b3b1	-0.0794443
166	0xbd36f1ff	-0.04466438
167	0xbc5d3150	-0.013500527
168	0xbde2f2cb	-0.11081465
169	0x3d90737c	0.07053277
170	0x3d68ecfe	0.05686664
171	0x3d0f5eb3	0.03500242
172	0xbd2a27e8	-0.041541964
173	0xbdc2d6f7	-0.095136575
174	0x3da8aeee	0.0823649
175	0xbd8c1d8e	-0.068415746
176	0x3d87306b	0.06601032
177	0x3d6d9728	0.058005482
178	0x3da8db94	0.08245006
179	0xbd5b8977	-0.053597894
180	0x3d769bc4	0.060207143
181	0x3c75365b	0.014966573
182	0x3d7d2a12	0.0618077
183	0x3dcdfe08	0.10058218
184	0x3d1fd5de	0.03902232
185	0x3d2baca0	0.041912675
186	0xbd3eaa85	-0.04654934
187	0x3b5ce7c5	0.0033707481
188	0x3c7f1973	0.015570032
189	0x3d5e42ab	0.0542628
190	0x3d9b6e0b	0.075893484
191	0x3d3677e3	0.044547927
192	0x3d061fd8	0.032745212
193	0xbb9bd3c8	-0.004755471
194	0xbd8b68ef	-0.06807124
195	0xbbf16993	-0.0073673218
196	0x3dd862bd	0.10565708
197	0x3d611caf	0.054958995
198	0xbd5c149b	-0.05373059
199	0xbd660741	-0.05615926
200	0xbd11d4e9	-0.035603438
201	0xbccbeadb	-0.024892261
202	0xbd69a511	-0.057042185
203	0xbcc4ad37	-0.024008377
204	0x3d3da34e	0.046298318
205	0xbcb41631	-0.021983238
206	0xbc8130b2	-0.01577029
207	0xbd0bbc2d	-0.034115005
208	0x3d7651c9	0.06013659
209	0x3dd7f0ca	0.10543974
210	0x3dc71b98	0.0972206
211	0x3cc0de17	0.0235434
212	0x3d76b2ca	0.0602291
213	0xbdc04b51	-0.093893655
214	0x3d81431e	0.0631163
215	0x3dda039e	0.10645221
216	0xbdb62a62	-0.08894803
217	0xbdc55865	-0.096360005
218	0xbd766ec2	-0.06016422
219	0xbd4b23f1	-0.049594823
220	0x3cc93502	0.024561409
221	0x3c8beb5b	0.01708
222	0x3c9594f3	0.018259501
223	0xbc00ddba	-0.007865364
224	0xbc9f4415	-0.019441644
225	0x3d29f64c	0.041494653
226	0xbd85cd84	-0.065333396
227	0xbd5aba8a	-0.053400554
228	0xbd8e5b81	-0.06951047
229	0xbc95a47b	-0.018266907
230	0xbd60071e	-0.054694287
231	0xbcb6a59a	-0.022295762
232	0x3b59b960	0.0033222064
233	0xbd8ecc47	-0.069725566
234	0x3cd56708	0.026050106
235	0xbc4bf051	-0.012447433
236	0x3e06d4f7	0.13167177
237	0x3dee0fad	0.11624084
238	0x3d79fd64	0.061032668
239	0xbd766989	-0.06015924
240	0x3c2fafe3	0.010723087
241	0x3d5cfd14	0.05395229
242	0xbd7338a5	-0.059380192
243	0xbdc37934	-0.09544602
244	0x3b87c7a8	0.004143674
245	0xbdce392d	-0.10069499
246	0xbd5fb6b2	-0.05461759
247	0x3cbc9c98	0.023023888
248	0xbb737e71	-0.0037154222
249	0xbcb3bc31	-0.021940323
250	0x39a1db4d	0.00030871705
251	0xbd38f9d5	-0.045160133
252	0xbd86fd65	-0.065913
253	0x3d0ec594	0.034856394
254	0xbc914921	-0.017735066
255	0xbc7e2a93	-0.01551308

encoder.layers.0.self_attn.W_K.weight f4 [60, 100]
0	0x3d6c4f02	0.057692535
1	0x3d70a53f	0.05875134
2	0xbdef872a	-0.116957024
3	0x3d6fd5d5	0.058553535
4	0x3ca27a55	0.019833723
5	0x3d3e26af	0.04642361
6	0x3d0ee05f	0.034881946
7	0x3dcaea68	0.09907991
8	0xbd968328	-0.07349235
9	0xbd8e2648	-0.06940895
10	0x3d70ad9a	0.05875931
11	0x3d4eaf10	0.05045992
12	0x3d64bf9a	0.055846788
13	0x3d5eac18	0.05436334
14	0x3d802427	0.062568955
15	0xbb57ed5d	-0.0032947876
16	0x3d52c476	0.05145689
17	0x3dc56e80	0.09640217
18	0xbd8634d8	-0.06553048
19	0x3d25d0ee	0.040482454
20	0x3cd78530	0.026308626
21	0xbd9a9ff2	-0.075500384
22	0x3c36d3d9	0.011158907
23	0xbc01d53d	-0.007924375
24	0xbd7e6444	-0.06210734
25	0xbdab0f3f	-0.08352517
26	0xbdbe047a	-0.092781976
27	0x3dc9591f	0.098314516
28	0x3d13818d	0.03601222
29	0x3dbebd47	0.093134455
30	0x3d70befb	0.058775883
31	0x3da3885a	0.07984991
32	0x3c9c5baa	0.019086678
33	0xbdc0163a	-0.093792394
34	0x3c550415	0.0130014615
35	0x3cf259cb	0.029583832
36	0xbd7a17eb	-0.061057966
37	0xbd2f5932	-0.042809673
38	0x3c8f3c80	0.017484903
39	0x3d8d62b9	0.069035955
40	0xbd8de949	-0.06929261
41	0xbdea2eeb	-0.1143473
42	0x3d4e8dd6	0.050428234
43	0x3d91c0cb	0.071168505
44	0x3def98ec	0.116990894
45	0x3d3cba23	0.04607595
46	0x3d9155d5	0.07096449
47	0xbd0919c0	-0.033471823
48	0x3dd8a480	0.10578251
49	0xb95c372b	-0.00021001387
50	0xbbc3c5a3	-0.005974488
51	0x3d84609a	0.06463738
52	0xbc03d676	-0.008046737
53	0x3d6ebc7c	0.05828522
54	0x3dac179d	0.084029414
55	0x3d45be2a	0.048277058
56	0xbd76aa91	-0.06022126
57	0xbc8eaacd	-0.017415429
58	0x3dc64ea9	0.09682972
59	0x3d960de2	0.07326867
60	0x3dd8c914	0.105852276
61	0xbdf67fcd	-0.12036095
62	0xbc4298ac	-0.01187722
63	0x3d4f0855	0.050545055
64	0x3dd4c351	0.10388816
65	0x3caafbe0	0.020872056
66	0xbdb29ce1	-0.087213285
67	0x3c9310ca	0.017952342
68	0x3dfeca7c	0.124409646
69	0x3d1cb8f1	0.03826231
70	0x3d10956c	0.03529875
71	0x3db15729	0.086592026
72	0x3cdfc16d	0.027313912
73	0x3d9fd875	0.07804958
74	0xbd15fc57	-0.036617603
75	0x3d30dc5c	0.0431789
76	0xbcba7d39	-0.022764789
77	0x3ca54661	0.02017516
78	0x3d262a2d	0.040567566
79	0xbdbba6bb	-0.09162661
80	0xbd20f520	-0.03929627
81	0xbbfaa811	-0.0076494296
82	0x3b9b399a	0.0047370913
83	0x3cac0f4e	0.021003392
84	0xbcae5b2f	-0.021283714
85	0xbdeed87d	-0.116623856
86	0x3d73476d	0.05939429
87	0x3da6b4fd	0.081399895
88	0x3d9576cb	0.072980486
89	0xbd2bf8e9	-0.041985426
90	0x3d976eda	0.0739419
91	0x3dda1498	0.10648459
92	0xbcd2bad2	-0.025723848
93	0xbc9bf858	-0.019039318
94	0xbd9dce74	-0.077053934
95	0x3d318a36	0.0433447
96	0x3cab87ab	0.020938715
97	0xbdcfb160	-0.101412535
98	0x3dba86db	0.09107753
99	0x3c7d708b	0.015468727
100	0x3d9d000a	0.07666023
101	0x3d9292e3	0.07156923
102	0x3de78061	0.11303783
103	0xbd581012	-0.0527497
104	0xbd58fe8f	-0.05297714
105	0x3c228662	0.009919735
106	0xbd894f39	-0.06704564
107	0x3cf523b0	0.029924244
108	0x3d046168	0.032319456
109	0x3e0c7bac	0.13719052
110	0x3c80d9e3	0.015728896
111	0xbbb06d81	-0.0053841476
112	0x3cfd57bf	0.03092563
113	0xbd8dc0d4	-0.06921545
114	0xbb658b82	-0.003502578
115	0x3d8b3b7b	0.067984544
116	0xbdfbdb39	-0.12297673
117	0xbcf826f5	-0.030292014
118	0x3d862ccf	0.06551515
119	0x3d243081	0.04008532
120	0xbd79ad69	-0.060956392
121	0xbcde2011	-0.0271149
122	0x3b14368a	0.0022615516
123	0x3bd4daa7	0.006495792
124	0x3cbf9b79	0.023389565
125	0x3d8e27aa	0.06941159
126	0xbbed6501	-0.0072447066
127	0xbd366893	-0.044533323
128	0x3d722d3f	0.05912518
129	0x3ae19dc3	0.0017213154
130	0xbd4ad196	-0.049516283
131	0x3d9025e8	0.0703848
132	0x3cbc01a5	0.022950003
133	0xbc56c9ed	-0.013109666
134	0x3d188c3b	0.03724311
135	0xbd352a0e	-0.04422956
136	0xbd5a43e5	-0.053287406
137	0x3dcd86f8	0.10035509
138	0xbca0566f	-0.019572465
139	0x3c057a6a	0.008146862
140	0x3d1b1919	0.037865732
141	0xbac8bb17	-0.0015314546
142	0x3c7b4263	0.015335652
143	0xbd4d74df	-0.050160285
144	0x3d934014	0.07189956
145	0x3bc26d02	0.005933405
146	0xbc911101	-0.017708303
147	0xbd900f03	-0.07034113
148	0x3da0ad6c	0.078455776
149	0x3c75b7ff	0.014997481
150	0xbd0ba2a0	-0.03409064
151	0xbd21323b	-0.039354544
152	0xbc8a5bbc	-0.016889445
153	0xbd902fb0	-0.07040346
154	0xbd98ad33	-0.0745491
155	0x3d89da88	0.06731135
156	0xbdcf59c7	-0.101245455
157	0x3b98ad8d	0.0046593607
158	0x3d91bf54	0.07116571
159	0xbd57584f	-0.052574452
160	0x3ad16c81	0.0015977771
161	0xbdd28263	-0.102787755
162	0xbdd12897	-0.1021282
163	0xbdc8e1f5	-0.09808723
164	0xbaf69f79	-0.0018815837
165	0xbc7795b9	-0.01511138
166	0x3d28b1ac	0.041185066
167	0x3de1aaac	0.11018881
168	0x3dcaea02	0.09907915
169	0xbdb1bfca	-0.08679159
170	0x3d9e647c	0.077340096
171	0x3c96fdc8	0.01843156
172	0x3d6409ae	0.055673294
173	0x3dcbd54d	0.09952793
174	0x3d9fc7b5	0.07801763
175	0x3c32286e	0.010873897
176	0x3d957bcd	0.07299004
177	0x3d5324e3	0.05154885
178	0xbd3d8069	-0.04626504
179	0x3d480bc4	0.048839346
180	0x3d8017da	0.06254549
181	0x3d2894ed	0.04115765
182	0xbd9de9a4	-0.07710579
183	0xbd7c7bd7	-0.06164154
184	0xbd0e23d7	-0.03470215
185	0x3d8b9518	0.06815547
186	0x3da2a14e	0.07940923
187	0x3cadab2b	0.021199783
188	0xbd288d49	-0.041150365
189	0x3d970a97	0.07375067
190	0x3d96371b	0.07334729
191	0xbd83dd0b	-0.06438645
192	0xbd755b08	-0.059901267
193	0xbcc4a296	-0.024003308
194	0x3ccb84f0	0.024843663
195	0xbcf110a8	-0.029426888
196	0x3b2ca86a	0.00263455
197	0x3d8bfa23	0.06834819
198	0x3c8a87f4	0.01691053
199	0xbd3a27f0	-0.045448244
200	0x3d156cd1	0.03648073
201	0x3d16c801	0.036811832
202	0x3dc108e8	0.09425527
203	0xbdf40bda	-0.11916323
204	0x3d0dac6b	0.03458826
205	0xbda18b35	-0.0788788
206	0xbc8f4f76	-0.017493945
207	0x3d022326	0.0317718
208	0x3da38be0	0.079856634
209	0xbdc109d9	-0.094257064
210	0xbd852695	-0.065014996
211	0xbd11960f	-0.035543498
212	0x3d8250dc	0.06363079
213	0xbdb9cc14	-0.09072128
214	0xbd35c1e9	-0.04437438
215	0xbd1f648a	-0.03891424
216	0x3d53002b	0.051513832
217	0xbdc6154a	-0.09672029
218	0xbda132f5	-0.078710474
219	0xbd343ecb	-0.044005197
220	0xbd10b739	-0.035330985
221	0xbd2fb406	-0.042896293
222	0xbdafafbc	-0.085784405
223	0xbdb9299f	-0.09041142
224	0x3ccb65b2	0.024828766
225	0x3d4c104f	0.04982024
226	0xbd77d92c	-0.060509846
227	0x3c7b15e9	0.015325048
228	0x3d4927fa	0.04911039
229	0xbd887e99	-0.066647716
230	0xbdb14227	-0.08655196
231	0x3d56df63	0.052459132
232	0xbce729b0	-0.02821812
233	0x3d262b25	0.04056849
234	0x3dfbba1a	0.122913554
235	0x3cc0c074	0.023529269
236	0x3de3d2a1	0.11124159
237	0x3d2170d3	0.03941424
238	0xbdb1ee05	-0.08687977
239	0x3c83982a	0.016063768
240	0x3c142c06	0.009043699
241	0xbd1a79b8	-0.037713736
242	0xbd9b0f43	-0.0757127
243	0x3c945a9d	0.018109614
244	0xbd911dc1	-0.07085753
245	0xbd3bf8bc	-0.04589151
246	0x3daa709f	0.08322262
247	0xbd74192e	-0.059594326
248	0xbd6aac53	-0.057293247
249	0xbda012c9	-0.07816083
250	0xb908013f	-0.00012970435
251	0x3d927824	0.07151821
252	0x3add65e3	0.0016891327
253	0x3b0d4174	0.0021553906
254	0x3cef2392	0.029191766
255	0xbc115269	-0.008869746

encoder.layers.0.self_attn.W_V.weight f4 [60, 100]
0	0xbdcf770b	-0.101301275
1	0xbc81075d	-0.015750581
2	0xb9416a6d	-0.00018445561
3	0x3d2d0bad	0.042247463
4	0x3b85a745	0.004078778
5	0x3db606c0	0.08888006
6	0x3d6b83c8	0.057498723
7	0x3dd4406c	0.1036385
8	0x3e0549a0	0.13016367
9	0xbcb9f06c	-0.02269765
10	0xbcaad243	-0.020852214
11	0xbbbdcb3a	-0.0057920488
12	0x3e00d756	0.12582144
13	0xbdbac056	-0.091187164
14	0x3ca6a2cb	0.020341298
15	0xbdca55ce	-0.09879647
16	0x3d51a693	0.05118425
17	0x3d5e7ec6	0.05432012
18	0x3ca3fd1b	0.020018151
19	0x3e06bccb	0.13157956
20	0xbdc3dc98	-0.09563559
21	0x3d0c72c2	0.03428913
22	0x3d8a6708	0.06757933
23	0xbe0627ae	-0.13101074
24	0xbdda6d7f	-0.10665416
25	0xbd227c63	-0.039669406
26	0x3dc6054b	0.09668978
27	0x3c8e43e4	0.017366357
28	0xbdbfa050	-0.09356749
29	0xbe17ed45	-0.14836605
30	0xbdace15d	-0.08441422
31	0x3dbc5643	0.091961406
32	0x3d8bf96e	0.06834684
33	0x3dca33ce	0.09873162
34	0x3d44ba4d	0.048029233
35	0x3d7be044	0.061493173
36	0x3c8ec68e	0.017428663
37	0xbcc868ad	-0.024463976
38	0xbd176cb8	-0.036968917
39	0x3d6eb66a	0.058279432
40	0x3cad4b6e	0.021154132
41	0x3d17d259	0.037065838
42	0xbd346a5b	-0.04404674
43	0x3d3e5d80	0.046475887
44	0xbdaac8ac	-0.083390564
45	0x3d674bea	0.05646888
46	0x3cd62205	0.026139269
47	0xbd2c8671	-0.0421204
48	0x3db14ff6	0.086578295
49	0x3e16e589	0.14735998
50	0xbca58def	-0.02020928
51	0xbbcf6f78	-0.006330427
52	0xbc1e952f	-0.009679123
53	0x3dbc7e8e	0.09203826
54	0xbe2d062a	-0.16896883
55	0xbdd455d1	-0.10367931
56	0xbcce09fd	-0.025151247
57	0x3dad86c3	0.084729694
58	0xbcbcd087	-0.023048652
59	0x3d0a35e8	0.033742815
60	0xbdd15f7b	-0.102232896
61	0x3c1d6162	0.009605737
62	0x3dba8438	0.0910725
63	0xbdd44520	-0.10364747
64	0xbd19a038	-0.037506312
65	0xbd8735c4	-0.06602052
66	0x3b92d286	0.0044806628
67	0x3c84fcf2	0.016233895
68	0xbddb3330	-0.107031226
69	0x3db1dfda	0.086852744
70	0xbd729e0c	-0.059232756
71	0xbc8f83ad	-0.017518843
72	0xbc3c8309	-0.011505851
73	0x3c970afa	0.018437851
74	0x3d336fe4	0.04380788
75	0xbcd105cc	-0.02551546
76	0xbdb14edb	-0.086576186
77	0x3def42b7	0.11682647
78	0x3deadad8	0.114675224
79	0x3c4cee3c	0.012507971
80	0x3d000c17	0.03126153
81	0xbd834257	-0.06409138
82	0xbd9cbcaa	-0.07653172
83	0xbc9b9c34	-0.018995382
84	0xbd9fc615	-0.07801453
85	0x3cde0cab	0.02710565
86	0x3d1d29a7	0.0383698
87	0x3da6c9c8	0.081439555
88	0x3ddd362f	0.1080135
89	0xbd049611	-0.032369677
90	0xbd63edcb	-0.0556467
91	0xbc5caf3c	-0.0134695135
92	0x3dd89415	0.105751194
93	0x3dfdb2e9	0.1238764
94	0x3e146a67	0.14493714
95	0x3d35cf30	0.044387043
96	0xbd9cdd11	-0.076593526
97	0x3cb88864	0.022525974
98	0xbd76a071	-0.060211603
99	0xbd357b28	-0.044306904
100	0x3d8601dd	0.06543324
101	0xbdf79640	-0.12089205
102	0xbb6ff7ad	-0.0036616132
103	0xbdaa2e0d	-0.08309565
104	0xbbeec118	-0.007286202
105	0xbcf86a90	-0.03032425
106	0x3c96887d	0.01837563
107	0x3c8cec74	0.017202593
108	0x3c865363	0.016397184
109	0x3da3e999	0.080035396
110	0x3d402fb3	0.04692049
111	0xbd14b2b6	-0.036303245
112	0x3caace2d	0.020850265
113	0xbd78ca46	-0.060739778
114	0xbd1b66ed	-0.037939955
115	0xba890f40	-0.0010456815
116	0x3cbfe661	0.023425283
117	0xbd070a77	-0.032968964
118	0xbc90d7cc	-0.017681025
119	0xbca15e7a	-0.01969837
120	0xbca2a705	-0.019855032
121	0xbdb2b450	-0.08725798
122	0xbdb8a127	-0.09015112
123	0xbcb5820c	-0.022156738
124	0x3c3a11bc	0.011356767
125	0xbda0761f	-0.0783503
126	0x3d29cfe5	0.04145803
127	0x3d3ef0de	0.046616428
128	0xbd676799	-0.056495283
129	0x3dd17f45	0.10229353
130	0x3da4c76e	0.08045851
131	0xbda4981e	-0.080368266
132	0x3da47520	0.08030152
133	0xbd212647	-0.039343145
134	0x3d282392	0.041049547
135	0xbde88e9e	-0.11355327
136	0x3bd48bff	0.0064864154
137	0x3d765a01	0.06014443
138	0xbd37cbfb	-0.044872265
139	0xbdc34a93	-0.09535708
140	0x3d3d321b	0.046190362
141	0x3da2546d	0.07926259
142	0xbd62a02b	-0.05532853
143	0xbdd3ec8d	-0.10347853
144	0xbd3cb955	-0.046075184
145	0xbcc2f428	-0.023798063
146	0x3d735521	0.059407357
147	0xbcbadbbe	-0.02280986
148	0x3d8a40c1	0.06750632
149	0xbdbb4ee4	-0.091459066
150	0x3db421cd	0.087955095
151	0x3d870f1d	0.065946795
152	0xbd32d56b	-0.043660562
153	0x3ce5fbdf	0.028074203
154	0x3d8385be	0.06421994
155	0xbd9dc7b5	-0.07704107
156	0xbd2ce8cb	-0.042214196
157	0x3cceef64	0.025260635
158	0x3db6415b	0.08899184
159	0x3cef408a	0.02920558
160	0x3db35041	0.087555416
161	0x3d556dda	0.052106716
162	0xbb9df7aa	-0.0048207836
163	0xbdbfa2b7	-0.09357207
164	0x3d141666	0.036154173
165	0x3dac2172	0.08404817
166	0x3d8bad46	0.06820159
167	0x3d2cc18d	0.042176772
168	0x3cf2b810	0.029628783
169	0xbd721def	-0.05911058
170	0xbd1cb436	-0.0382578
171	0xbd83fec1	-0.06445075
172	0x3ca6ed5e	0.020376857
173	0x3d30fff3	0.043212842
174	0x3db56b4c	0.08858356
175	0xbdad7576	-0.084696695
176	0x3dd2a043	0.10284474
177	0x3c2f07b8	0.010682993
178	0xbd823495	-0.063576855
179	0xbd9fa4ab	-0.0779508
180	0xbbe2deb4	-0.006923521
181	0x3c4a228f	0.012337341
182	0x3da0e1cf	0.078555696
183	0xbbf2c934	-0.007409239
184	0x3db5c3c7	0.08875232
185	0xbd68ab4a	-0.05680398
186	0x3cc7d5d5	0.024393955
187	0x3c368baa	0.011141697
188	0xbdf247de	-0.11830114
189	0xbd7c2232	-0.06155605
190	0xbd953e06	-0.07287221
191	0x3c2e0d41	0.010623277
192	0xbce9575e	-0.028484043
193	0x3daf5024	0.085602075
194	0xbd1d86e8	-0.038458735
195	0x3db8113d	0.08987663
196	0xbd95d690	-0.07316315
197	0xbd0ed8af	-0.034874614
198	0x3d247004	0.04014589
199	0x3d3a7493	0.04552133
200	0x3db24325	0.08704213
201	0xbd454e61	-0.04817045
202	0xbd1fc39c	-0.039004907
203	0xbceefd4f	-0.029173521
204	0xbc514e01	-0.012774945
205	0xbc7be3c5	-0.015374129
206	0xbd0f1825	-0.034935135
207	0x3da5ebfc	0.08101651
208	0xbc92bd28	-0.017912462
209	0xbc7e2d8b	-0.015513788
210	0xbc9206b8	-0.01782547
211	0x3c8f16b6	0.017466884
212	0x3da45eef	0.0802592
213	0xbd78b36b	-0.06071798
214	0x3d9dace5	0.07698993
215	0x3cc6d3d2	0.024270926
216	0xbdc67f96	-0.09692304
217	0x3d04f62a	0.032461323
218	0x3c8f2c28	0.01747711
219	0xbc1d6943	-0.009607616
220	0x3dc97b10	0.098379254
221	0xbc38ec69	-0.011286833
222	0xbdbf948a	-0.093545035
223	0x3dee531b	0.11636945
224	0xbceddec6	-0.02903689
225	0x3cf1c21b	0.029511502
226	0xbddbcd1b	-0.1073248
227	0x3c17a496	0.009255549
228	0xbdd41f61	-0.103575476
229	0x3c9a2e0e	0.018820789
230	0xbd2f51b7	-0.04280254
231	0x3d6bf2b7	0.057604518
232	0xbcffb9b3	-0.031216478
233	0xbd628de4	-0.0553111
234	0xbddea1be	-0.108706936
235	0xbd6a2002	-0.05715943
236	0xbcdb4ef1	-0.02677104
237	0x3e01598d	0.12631817
238	0x3d40fde2	0.04711712
239	0xbdb0d3e8	-0.08634168
240	0xbd8b9b92	-0.06816782
241	0x3d918be3	0.071067594
242	0xbcc7ef6a	-0.024406154
243	0x3d0e1596	0.034688555
244	0xbdbd03ed	-0.092292644
245	0x3c040702	0.008058311
246	0x3d745063	0.059646975
247	0xbdad25cd	-0.084544756
248	0xbdc81c07	-0.09770971
249	0xbcd2c11a	-0.025726844
250	0x3d49df34	0.04928513
251	0x3d24eb2b	0.040263336
252	0xbd2a69c2	-0.041604765
253	0xbbbfab01	-0.0058492427
254	0x3d610624	0.054937497
255	0xbc32ed93	-0.0109209

encoder.layers.0.self_attn.W_O.weight f4 [100, 60]
0	0xbd062037	-0.032745566
1	0xbdac6731	-0.0841812
2	0xbd97f18f	-0.074191205
3	0xbb2cbb42	-0.0026356732
4	0xbd7b214d	-0.061311055
5	0x3d974bb9	0.0738749
6	0x3d942ce6	0.07235126
7	0x3e13a2ff	0.14417647
8	0xbe098dc7	-0.1343299
9	0xbdba533f	-0.09097909
10	0x3db99e81	0.09063435
11	0x3db1b88a	0.08677776
12	0x3bd5ec55	0.006528417
13	0xbd97ad7c	-0.074061364
14	0x3d6b4205	0.057436008
15	0x3e0e5cba	0.1390256
16	0x3ccab6e3	0.02474541
17	0x3e150f9c	0.14556736
18	0x3b89147c	0.00418335
19	0x3dc86792	0.097853795
20	0xbd9c1a2b	-0.07622179
21	0xbe0a092b	-0.1348006
22	0xbda9ef4e	-0.08297597
23	0x3e121a17	0.14267765
24	0xbdcb3ad1	-0.09923328
25	0x3dd79bf1	0.1052779
26	0xbe1d8655	-0.15383275
27	0x3c97d56e	0.018534388
28	0x3c5017b8	0.0127009675
29	0xbdfbae2d	-0.12289081
30	0x3d546ab8	0.051859587
31	0xbd08fb03	-0.03344251
32	0x3dd7ea52	0.1054274
33	0x3e00bf8d	0.12573071
34	0xbdf8e316	-0.12152688
35	0xbd0df29e	-0.034655206
36	0x3e04867e	0.1294193
37	0xbb1f0c4b	-0.0024268802
38	0xbcf051c3	-0.029335862
39	0x3ddb72df	0.10715269
40	0x3d9c5f33	0.07635345
41	0xbd91a7ac	-0.07112059
42	0xbb904ea2	-0.004403905
43	0xbcad6c53	-0.021169817
44	0x3dd61049	0.10452325
45	0x3d8637d3	0.065536164
46	0x3dfd139b	0.12357255
47	0x3df3a916	0.11897485
48	0xbd35d144	-0.044389024
49	0xbd279d47	-0.040921476
50	0x3e15ee2b	0.14641635
51	0x3e008fa8	0.125548
52	0x3df782be	0.12085484
53	0xbd63a793	-0.055579733
54	0xbcbf9ea4	-0.023391075
55	0xbde3eeec	-0.11129555
56	0xbcf8b584	-0.03035999
57	0x3d637443	0.055530798
58	0x3da4ec06	0.080528304
59	0xbcc3e267	-0.023911668
60	0xbbbf7380	-0.005842626
61	0xbd740a3b	-0.05958007
62	0xbcd27778	-0.025691733
63	0x3dd465c5	0.103709735
64	0x3d51bd93	0.051206183
65	0xbcee2163	-0.029068654
66	0x3d1f2bd7	0.03886017
67	0x3cd99942	0.026562337
68	0x3d3a0ff3	0.045425367
69	0x3d132589	0.03592447
70	0xbcf2f39d	-0.02965718
71	0xbde48130	-0.11157453
72	0x3dd66169	0.10467798
73	0x3cf0ed1a	0.029409934
74	0x3d79f196	0.06102141
75	0x3dc4c6b4	0.09608212
76	0xbab922d7	-0.0014124763
77	0x3d2413c5	0.040057916
78	0xbcc3358b	-0.023829242
79	0x3d9cb5b4	0.076518446
80	0x3d478a5a	0.048715927
81	0xbdbc689e	-0.09199642
82	0xbd54a74b	-0.051917356
83	0x3db761a6	0.08954172
84	0x3be02122	0.0068398872
85	0xbd9caaa9	-0.07649738
86	0xbd2df832	-0.042473026
87	0x3d0e5d45	0.034756918
88	0xbe016ca8	-0.12639105
89	0xbdaed9dd	-0.08537648
90	0xbd793a36	-0.06084653
91	0xbd128aa5	-0.035776753
92	0xbc9e7424	-0.01934249
93	0xbd8f2b75	-0.06990711
94	0x3d9e25d2	0.077220574
95	0xbd69245f	-0.05691945
96	0xbe07972c	-0.13241261
97	0xbdfe5d26	-0.124201104
98	0xbe089bba	-0.13340655
99	0x3ca1e42a	0.019762117
100	0x3d4b47b3	0.049628925
101	0x3cf8ed17	0.03038649
102	0xbdb1ce51	-0.0868193
103	0xbd62f88b	-0.05541281
104	0x3e103a73	0.14084797
105	0xbdbf0b94	-0.0932838
106	0x3e1ead9d	0.15495916
107	0x3d03f6aa	0.03221766
108	0xbcd37e46	-0.025817048
109	0x3d9a5486	0.07535653
110	0xbceb8aa2	-0.028752629
111	0xbd311520	-0.043233037
112	0xbc8de2fd	-0.01732015
113	0xbd5f8ba0	-0.054576516
114	0xbdbae46f	-0.091256015
115	0x3e07fe25	0.13280542
116	0xbc04cc8e	-0.00810541
117	0x3d0bd7d2	0.03414137
118	0xbd3bfc64	-0.045894995
119	0x3da26899	0.07930107
120	0xbc88887b	-0.016666641
121	0x3e1f636f	0.15565275
122	0x3ddec8d4	0.10878149
123	0x3d043730	0.032279193
124	0x3d24f440	0.040271997
125	0x3d2ef4ee	0.042714052
126	0x3db5a6a0	0.08869672
127	0x3cfaca76	0.030614119
128	0x3d2a102a	0.04151932
129	0x3e1473e0	0.14497328
130	0xbe16677c	-0.14687914
131	0x3d56e3c7	0.05246332
132	0xbce286da	-0.027652193
133	0x3e1679c6	0.1469489
134	0x3ca717a9	0.020397024
135	0xbc51d7c7	-0.012807793
136	0xbd83e617	-0.064403705
137	0x3dde51b4	0.108554274
138	0x3cacabb2	0.021077964
139	0xbdada411	-0.08478559
140	0xbd6006c2	-0.054693945
141	0x3dd43e5d	0.10363457
142	0xbdb8b7fe	-0.09019469
143	0x3cfd1eaa	0.03089841
144	0x3d0337ca	0.032035626
145	0xbc686fed	-0.014186841
146	0x3e1a8468	0.15089571
147	0xbdc20837	-0.09474223
148	0xbdf20647	-0.118176036
149	0x3dfd6281	0.12372304
150	0xbd9a32b4	-0.07529202
151	0x3dfdfba0	0.12401509
152	0x3d9c83ea	0.07642348
153	0x3d20c402	0.039249428
154	0xbd3ccc14	-0.04609306
155	0x3de703e9	0.11280043
156	0xbdd95f37	-0.10613864
157	0x3d84304f	0.06454527
158	0xbd9ed6fb	-0.07755848
159	0xbe05111a	-0.12994805
160	0x3e077b78	0.13230693
161	0x3dc0e93c	0.09419486
162	0xbd2ae100	-0.041718483
163	0xb9a172bf	-0.00030793805
164	0x3dac3ad2	0.084096566
165	0xbe096661	-0.1341796
166	0xbda9a15c	-0.0828273
167	0xbdc616dc	-0.09672329
168	0x3d7621ca	0.060090818
169	0xbdf96fbd	-0.121795155
170	0xbcea010d	-0.028564954
171	0xbe0729b7	-0.13199507
172	0xbd84cf64	-0.06484869
173	0x3d8ec33c	0.06970832
174	0x3de63978	0.1124143
175	0x3da055db	0.07828876
176	0xbe0354c5	-0.12825306
177	0x3d827f2e	0.06371914
178	0xbd75759a	-0.059926607
179	0xbda9b8a9	-0.08287174
180	0xbd6aa246	-0.057283662
181	0x3d6e73ca	0.058215894
182	0xbbc3bad7	-0.005973201
183	0xbd7a86e3	-0.061163794
184	0xbcffd0d8	-0.031227514
185	0xbc62a740	-0.013833821
186	0x3db3e1d3	0.08783307
187	0x3d914af5	0.07094375
188	0xbdcaf170	-0.09909332
189	0xbdd55cd4	-0.10418096
190	0x3cc2ff71	0.023803445
191	0xbdfa3acb	-0.12218245
192	0x3ca7525f	0.02042502
193	0x3b755d8e	0.0037439796
194	0xbd0c5cfe	-0.03426837
195	0xbccd585d	-0.025066549
196	0xbc2d068f	-0.010560646
197	0x3d7d96a5	0.061911244
198	0x3d3374d0	0.043812573
199	0xbdc542fe	-0.09631918
200	0xbd8e6c1b	-0.06954213
201	0xbe1564d0	-0.14589238
202	0x3dc0bbdc	0.09410831
203	0x3c454228	0.012039699
204	0xbab45d50	-0.001376072
205	0xbd02ed6a	-0.031964697
206	0xbbde9542	-0.0067926953
207	0xbc7aa9a9	-0.015299239
208	0x3e16392a	0.14670244
209	0xbd3f431d	-0.046694864
210	0x3a49fe40	0.00077054277
211	0x3d76ce2f	0.060255226
212	0x3b023908	0.001987042
213	0x3dafbe21	0.08581186
214	0xbccb9666	-0.024851989
215	0xbca8ae88	-0.020591035
216	0x3da88205	0.08227924
217	0x3de64a55	0.112446465
218	0x3d9e7515	0.077371754
219	0x3e0bace3	0.1364017
220	0xbe0ed24c	-0.1394741
221	0x3b96075c	0.004578514
222	0xbb80fbef	-0.003936283
223	0xbd6be634	-0.057592586
224	0xbd2f6849	-0.042824063
225	0x3e031402	0.12800601
226	0x3cbc659b	0.022997668
227	0xbd63342b	-0.055469673
228	0xbc9c1f7d	-0.019057984
229	0xbc714d1c	-0.014727857
230	0xbdb3c41a	-0.08777638
231	0x3c3c5de6	0.0114969965
232	0x3e44fc09	0.19236769
233	0x3e401274	0.1875704
234	0xbe2be2f0	-0.16785789
235	0x3cb60baa	0.022222359
236	0x3a99742b	0.0011707594
237	0x3d52c8c5	0.051461
238	0x3dfb410e	0.122682676
239	0x3e11fe81	0.14257242
240	0x3d5b2e78	0.053511113
241	0xbdbcd6ed	-0.09220681
242	0x3ad2aabe	0.0016072614
243	0x3d0a34b5	0.03374167
244	0xbd98cce8	-0.07460958
245	0x3ba0679a	0.004895163
246	0xbdb8ea93	-0.090291165
247	0x3d139f70	0.036040723
248	0x3d9d7590	0.07688439
249	0x3d09c60b	0.033636134
250	0xbc2b0f0f	-0.010440602
251	0x3db5c396	0.08875196
252	0xbd418120	-0.047242284
253	0x3e00b1fc	0.12567896
254	0xbd1eb9fd	-0.03875159
255	0xbc9b4c61	-0.018957319

encoder.layers.0.batchnorm_attn.1.weight f4 [100]
0	0x3f859674	1.043654
1	0x3f706d7f	0.9391708
2	0x3f7e2adb	0.9928414
3	0x3f797da4	0.9745734
4	0x3f80d771	1.0065747
5	0x3f73bd48	0.95210695
6	0x3f7b32f6	0.98124635
7	0x3f7dba56	0.9911245
8	0x3f72756a	0.9471041
9	0x3f73b0e7	0.95191807
10	0x3f85ffce	1.046869
11	0x3f87b91b	1.0603365
12	0x3f6cb3fb	0.9246213
13	0x3f7d579a	0.98961794
14	0x3f852e68	1.0404787
15	0x3f82a0e9	1.0205356
16	0x3f75d40c	0.9602668
17	0x3f864ed5	1.0492808
18	0x3f86f104	1.0542302
19	0x3f803cf9	1.0018607
20	0x3f8dc97a	1.1077111
21	0x3f74f05d	0.95679265
22	0x3f85290d	1.0403153
23	0x3f7a20c1	0.9770623
24	0x3f85fbf1	1.0467511
25	0x3f7ee404	0.99566674
26	0x3f87c060	1.0605583
27	0x3f70ad3b	0.9401433
28	0x3f7f6694	0.99765897
29	0x3f83bacd	1.0291382
30	0x3f883074	1.0639787
31	0x3f82e675	1.022658
32	0x3f8152c8	1.0103388
33	0x3f8065c4	1.0031056
34	0x3f812891	1.0090505
35	0x3f7a9837	0.9788851
36	0x3f7b8106	0.9824375
37	0x3f8489af	1.0354518
38	0x3f7d3c1c	0.98919845
39	0x3f7d4562	0.98933995
40	0x3f77d40d	0.9680794
41	0x3f80dc4f	1.0067233
42	0x3f60c068	0.8779359
43	0x3f7aaba9	0.9791818
44	0x3f7f957b	0.99837464
45	0x3f7bcbd0	0.9835787
46	0x3f78e180	0.97219086
47	0x3f830d2e	1.0238397
48	0x3f832695	1.0246149
49	0x3f7f0e80	0.996315
50	0x3f82c965	1.0217711
51	0x3f83d389	1.029893
52	0x3f7cf40a	0.98809874
53	0x3f76c8c2	0.9640008
54	0x3f7beb96	0.9840635
55	0x3f705d26	0.93892133
56	0x3f89df53	1.0771278
57	0x3f873028	1.0561571
58	0x3f8ace6e	1.0844247
59	0x3f741d1b	0.9535691
60	0x3f7769b4	0.96645665
61	0x3f7c32b0	0.98514843
62	0x3f7f67e5	0.99767905
63	0x3f78c31e	0.97172725
64	0x3f809732	1.0046141
65	0x3f77953d	0.96712095
66	0x3f7a1f83	0.97704333
67	0x3f77914e	0.9670609
68	0x3f8bde26	1.0927169
69	0x3f801b53	1.0008339
70	0x3f8abac8	1.0838251
71	0x3f865e87	1.0497597
72	0x3f7d8f07	0.9904637
73	0x3f7f49eb	0.99722165
74	0x3f87c31a	1.0606415
75	0x3f818f33	1.0121826
76	0x3f84e3c3	1.0382007
77	0x3f8345d2	1.0255682
78	0x3f6aa188	0.9165273
79	0x3f821e06	1.0165412
80	0x3f751415	0.9573377
81	0x3f7f1c4e	0.99652565
82	0x3f84e907	1.0383614
83	0x3f74dc68	0.95648813
84	0x3f844166	1.0332458
85	0x3f80c6fa	1.0060723
86	0x3f70c878	0.9405589
87	0x3f76599a	0.9623047
88	0x3f79d483	0.9758989
89	0x3f7e438b	0.9932181
90	0x3f7c39d9	0.9852577
91	0x3f7372b5	0.95096904
92	0x3f80ca50	1.0061741
93	0x3f7bf67e	0.9842299
94	0x3f834270	1.025465
95	0x3f828e93	1.019976
96	0x3f819be8	1.0125704
97	0x3f787486	0.970528
98	0x3f7fce64	0.999243
99	0x3f7d3042	0.9890176

encoder.layers.0.batchnorm_attn.1.bias f4 [100]
0	0x3d919738	0.07108921
1	0x3d222638	0.03958723
2	0xbd2161af	-0.0393998
3	0x3d29e63b	0.04147933
4	0xbc30d091	-0.010791914
5	0x3d49c9c0	0.04926467
6	0x3d15eb50	0.036601365
7	0xbd810b97	-0.06301039
8	0x3cce52cc	0.025185965
9	0xbd61f32c	-0.055163547
10	0xbd06b1f3	-0.03288455
11	0xbd24efb9	-0.04026768
12	0xbd3fb80c	-0.04680638
13	0xbc38f3ad	-0.011288566
14	0xbcbdef2d	-0.023185337
15	0xbc7c290f	-0.0153906485
16	0x3d3ae017	0.045623865
17	0xbdbe87f1	-0.093032725
18	0xbd1948dd	-0.037423003
19	0x3d569141	0.05238462
20	0xbcdf5328	-0.027261332
21	0x3d383902	0.044976242
22	0x3c967ba5	0.018369505
23	0xbd8be833	-0.06831398
24	0xbd4c8646	-0.04993274
25	0xbc7b30af	-0.015331431
26	0x3d5e8708	0.054327995
27	0x3ca2c4ff	0.019869326
28	0x3ce14e45	0.027503142
29	0xbd49e411	-0.049289767
30	0xbd7eb68d	-0.062185813
31	0x3d574d38	0.052563876
32	0x3c758dfc	0.014987465
33	0x3d73a43a	0.05948279
34	0x3d311380	0.043231487
35	0x3cd43192	0.025902543
36	0xbd7dd03a	-0.06196616
37	0xbd3339c8	-0.043756276
38	0xbd4b5a3a	-0.049646594
39	0x3d47788a	0.04869894
40	0xbd62794b	-0.055291455
41	0xbd4264ab	-0.047459286
42	0xbd52ba5f	-0.05144727
43	0x3c66dfcf	0.014091446
44	0xbc05801b	-0.0081482185
45	0x3d6662d8	0.05624661
46	0xbbd3a171	-0.0064584543
47	0xbd572c64	-0.05253257
48	0x389fc6c2	7.618732e-05
49	0xbb97ded9	-0.00463472
50	0xbc4fd2fa	-0.012684578
51	0x3ca7cc04	0.020483024
52	0x3d93604d	0.07196102
53	0xbb9d725c	-0.0048048925
54	0xbd775c0a	-0.06039051
55	0x3c0e642e	0.008690877
56	0x3d69e5c2	0.05710388
57	0xbd849ebd	-0.064755894
58	0xbd660cfb	-0.056164723
59	0x3c5c18c4	0.013433639
60	0x3cd7b844	0.026332982
61	0xbd45235f	-0.048129436
62	0x3c879f28	0.016555384
63	0x3b83a39f	0.004017308
64	0x3d857947	0.065172724
65	0x3d798b9a	0.06092415
66	0xbd3728a4	-0.044716492
67	0xbd2f13cd	-0.042743493
68	0xbcfc302e	-0.030784693
69	0xbd738711	-0.05945498
70	0x3d189d4f	0.037259396
71	0x3d4a7c5b	0.049435
72	0xbd10665b	-0.035253864
73	0x3befe8bb	0.007321445
74	0x3d3436a9	0.04399744
75	0xbd327489	-0.043568168
76	0x3c940b80	0.01807189
77	0x3aae6757	0.0013305944
78	0x3d930d0c	0.07180223
79	0xbdb058d4	-0.086106926
80	0xbd883bb1	-0.0665201
81	0xbc8b17f9	-0.016979204
82	0x3d837c3f	0.064201824
83	0xbd1dd1ef	-0.038530286
84	0xbcf8b03a	-0.030357469
85	0xbd8f01ad	-0.069827415
86	0xbd9a3c6b	-0.07531055
87	0xbd1ddf9c	-0.03854333
88	0x3d22b8f5	0.03972717
89	0x3d4ff4ac	0.050770447
90	0xbc9fdaaa	-0.019513447
91	0xbcdc4eca	-0.026893038
92	0xbd0d4fe4	-0.034500018
93	0x3dc8f48a	0.09812267
94	0xbcb8cbe2	-0.022558156
95	0xbd4d298e	-0.050088458
96	0xbcf708eb	-0.03015562
97	0xbbe067cd	-0.0068483115
98	0xbd21fe6e	-0.039549284
99	0x3cd405a2	0.025881592

encoder.layers.0.batchnorm_attn.1.running_mean f4 [100]
0	0x3feddfc2	1.858391
1	0x3ff5fd98	1.9218016
2	0xbf614d4f	-0.8800859
3	0x3e5f0832	0.2178047
4	0xc0058041	-2.085953
5	0x3f63541c	0.88800216
6	0x3fcca124	1.5986676
7	0xbeab4e36	-0.33458108
8	0x3facb732	1.3493407
9	0xbf53966d	-0.82651407
10	0xbfc6f272	-1.5542738
11	0xbf732b61	-0.94988066
12	0xbfd5de6c	-1.6708503
13	0xbf34f6d5	-0.70689136
14	0xbe5fcd29	-0.21855606
15	0xbf7e3f66	-0.9931549
16	0x3facb48d	1.34926
17	0xbe1757aa	-0.14779535
18	0x3e8d0089	0.2753947
19	0x3f676e1c	0.9040239
20	0xbf90b0cc	-1.1303954
21	0x3fe9fdce	1.828058
22	0xbe953dc9	-0.291487
23	0x3e2d49f3	0.1692274
24	0xbf660fc2	-0.89867795
25	0xbfa68f8a	-1.3012555
26	0x3eb97668	0.3622315
27	0x3f3dd2c2	0.74149716
28	0x3f61b091	0.88160044
29	0xbfec97b5	-1.8483797
30	0xbfe29a16	-1.7703273
31	0x3f8194d9	1.012355
32	0xbf983ca0	-1.1893501
33	0x3f825ac4	1.018395
34	0x400c0f5a	2.188437
35	0x3fee26ac	1.8605552
36	0xc0257532	-2.585278
37	0xbf9c70f0	-1.2221966
38	0xbfbc1aac	-1.469564
39	0x3f54beb1	0.8310347
40	0xbf8be82b	-1.0930227
41	0xbdaba07d	-0.0838022
42	0x3e975cc4	0.29562962
43	0x3e280549	0.16408266
44	0xbfa134da	-1.2594254
45	0x3fce1be0	1.6102257
46	0xbfaa9093	-1.332537
47	0xbf070d02	-0.52754223
48	0x3e0d9b18	0.13828695
49	0x3f829356	1.0201213
50	0xc0064cd4	-2.0984392
51	0x3f83ef68	1.0307436
52	0x3fde3d6a	1.7362492
53	0x3f91dc87	1.1395425
54	0xbfec931d	-1.8482395
55	0xbf99eced	-1.2025429
56	0x3f99c2af	1.2012538
57	0x3f953aeb	1.1658605
58	0xbf04831d	-0.51762563
59	0x3f0dc3be	0.55376804
60	0x3fccff8c	1.6015487
61	0xbe9e040b	-0.3086246
62	0x3f7cd68a	0.9876486
63	0x3f6497b5	0.89293987
64	0x3f8a73ff	1.0816649
65	0x402baa1c	2.6822577
66	0xbffb16e4	-1.9616361
67	0xbe7c55be	-0.24642083
68	0xbf10475d	-0.5635889
69	0xc045a91e	-3.088447
70	0x3dae94df	0.08524489
71	0x3f8adc82	1.0848544
72	0xbff5ce6e	-1.9203622
73	0xbf61317c	-0.8796613
74	0x3ed93b06	0.42427844
75	0xbf9acb7e	-1.2093351
76	0x3fa2a90f	1.2707843
77	0x3ebd1ef3	0.36937675
78	0x3d931783	0.07182219
79	0xbd6b000e	-0.0573731
80	0x3f702981	0.9381333
81	0xbf837ca4	-1.0272412
82	0x3f20d291	0.628213
83	0xbf131b5e	-0.57463634
84	0xbfbfa1e2	-1.4971278
85	0xbf8253f8	-1.0181875
86	0xbfb3c468	-1.4044313
87	0xbf9f5ef2	-1.245085
88	0x401eaab6	2.4791694
89	0x3f83389d	1.0251652
90	0x3f59f693	0.8514187
91	0xc0086e99	-2.1317503
92	0xbf46d11b	-0.7766282
93	0x3dbab5cd	0.09116707
94	0x3f3c1ac7	0.7347836
95	0xbfdf88fe	-1.7463682
96	0xbee3009c	-0.44336402
97	0xbca38e86	-0.019965421
98	0x3f79ba3c	0.97549796
99	0xbe648eca	-0.22320095

encoder.layers.0.batchnorm_attn.1.running_var f4 [100]
0	0x406e32c6	3.721849
1	0x40c7127f	6.221008
2	0x409b007d	4.8438096
3	0x4097412e	4.7267065
4	0x41077bb8	8.467705
5	0x40759478	3.8371868
6	0x408beb7c	4.3724957
7	0x402b910b	2.6807277
8	0x40796225	3.8966153
9	0x407f262e	3.9867053
10	0x40f323ca	7.598119
11	0x40ad1e41	5.409943
12	0x4112da07	9.178229
13	0x410729bf	8.447692
14	0x40a0c17a	5.0236177
15	0x40b46ff6	5.638667
16	0x40ca8879	6.3291593
17	0x4031dd1a	2.77912
18	0x40a36558	5.106121
19	0x40515d65	3.2713253
20	0x4048e3d5	3.1389058
21	0x410eb93e	8.920225
22	0x407bbd88	3.933443
23	0x4019511b	2.3955753
24	0x403da3ab	2.9631145
25	0x40e874f6	7.2642775
26	0x4085ed34	4.1852055
27	0x4092eab1	4.591149
28	0x40ca10a8	6.314533
29	0x4093a65c	4.6140575
30	0x40b26efe	5.576049
31	0x402cd0cb	2.7002437
32	0x40ba196b	5.815603
33	0x4069e48b	3.6545742
34	0x40a5bdc3	5.1794143
35	0x40c7014f	6.2189097
36	0x40822636	4.0671644
37	0x405c63a6	3.443582
38	0x408e7d40	4.4527893
39	0x40163417	2.3469293
40	0x40b35411	5.604012
41	0x409d9d8d	4.9254823
42	0x4021aef3	2.526303
43	0x40ab533b	5.35391
44	0x407aa373	3.9162261
45	0x40ab49e2	5.352769
46	0x40e7bcc1	7.2417912
47	0x405ddf07	3.4667375
48	0x40df40a7	6.976642
49	0x40d649b1	6.6964955
50	0x41470871	12.439561
51	0x40886722	4.2625895
52	0x40d6fb59	6.718182
53	0x408be676	4.3718824
54	0x40447324	3.0695276
55	0x408e8a6a	4.4543962
56	0x40d8f8af	6.780357
57	0x4043cfd6	3.0595603
58	0x4051004a	3.2656426
59	0x4043be12	3.058476
60	0x4107312e	8.449507
61	0x40772244	3.8614664
62	0x40a2504a	5.072301
63	0x41112ba7	9.073157
64	0x40797b0b	3.898135
65	0x40eafe24	7.343523
66	0x40bcec3a	5.9038363
67	0x405ea1b4	3.4786196
68	0x4037a44b	2.8694026
69	0x41025c86	8.147589
70	0x40596b4d	3.3971741
71	0x405b49fb	3.4263904
72	0x4053d1b2	3.3096738
73	0x40999b7d	4.8002305
74	0x40a172f0	5.0452805
75	0x4039a7ca	2.900866
76	0x40c38483	6.1099257
77	0x40a26996	5.075389
78	0x4008d23f	2.1378324
79	0x40b35499	5.604077
80	0x40ca6ba0	6.325638
81	0x410fb49b	8.981593
82	0x40b8e4e9	5.777943
83	0x40470223	3.1095054
84	0x407e2f7d	3.9716485
85	0x4043d864	3.0600824
86	0x401fc9c6	2.4966903
87	0x40e7786c	7.23345
88	0x41014620	8.07962
89	0x409386af	4.610191
90	0x40432cfc	3.0496206
91	0x40e6028a	7.18781
92	0x40ace31b	5.402723
93	0x40a75066	5.2285643
94	0x40a3aa8e	5.1145697
95	0x40b46682	5.637513
96	0x406a1a10	3.6578407
97	0x4081a5ef	4.0515056
98	0x414bb286	12.731085
99	0x407d34d5	3.9563496
