transformer_results_random_no_constants_no_param_tune/performance_prediction/PSO1-PSO2-PSO3-PSO4-PSO5-PSO6-PSO7-PSO8-PSO9-PSO10-PSO11-PSO12_random_no_constants_dim_10_samples_50_fold_6_budget_30_n_heads_2_n_layers_1_d_model_100_d_k_30_d_v_30_aggregations_mean/trained_model.pt (torch, 346553 bytes, 22 tensors)

weight f4 [100, 11]
0	0xbe3cfcc2	-0.18455794
1	0x3e27346e	0.16328594
2	0xbdd03f74	-0.10168353
3	0xbe70052d	-0.23439474
4	0xbba24d95	-0.004953096
5	0xbe75b701	-0.23995592
6	0xbd811fe0	-0.06304908
7	0x3e2879db	0.16452734
8	0x3e38f916	0.18063769
9	0x3e4c7b45	0.19968899
10	0xbe8607f2	-0.26177937
11	0xbe809fbf	-0.25121877
12	0xbe88ed5c	-0.2674359
13	0xbe61420b	-0.2199785
14	0x3e61af90	0.22039628
15	0x3e041cb8	0.1290158
16	0xbe797fd9	-0.24365176
17	0x3bff3843	0.0077886893
18	0x3de2a994	0.11067501
19	0x3d679ef2	0.056548066
20	0xbc5ceab9	-0.013483697
21	0x3e9f0f00	0.31066132
22	0xbe8cd3d3	-0.2750536
23	0x3e9020c7	0.28150007
24	0xbe2bcf01	-0.16778184
25	0x3d8d5d24	0.06902531
26	0x3e7483b5	0.23878367
27	0x3e5f069c	0.21779865
28	0x3c2d2c62	0.010569664
29	0xbe3d1fd0	-0.18469167
30	0x3e0e09cb	0.13870923
31	0xbea20ac1	-0.3164883
32	0xbe32b75c	-0.17452759
33	0x3e0341bb	0.12818043
34	0xbdf5913c	-0.11990592
35	0x3e2e82f4	0.17042142
36	0x3e86ba11	0.26313832
37	0xbe7e0dfc	-0.24810022
38	0xbdf1a667	-0.11799317
39	0xbe5440e1	-0.20727874
40	0xbd5a44d0	-0.05328828
41	0xbd0b8a49	-0.034067426
42	0xbe26c704	-0.16286856
43	0x3e9cf8be	0.30658525
44	0x3b85c532	0.0040823454
45	0x3e4611df	0.19342755
46	0xbe4aeee7	-0.19817697
47	0xbdeccc9c	-0.11562464
48	0x3e62b9c2	0.22141173
49	0xbd904583	-0.07044508
50	0xbd89be72	-0.06725778
51	0x3dab8a80	0.08376026
52	0xbe851565	-0.25992885
53	0x3e61734a	0.22016636
54	0xbee33a11	-0.4438024
55	0xbe7f7b9f	-0.24949501
56	0x3cfc89e0	0.030827463
57	0x3dc27b60	0.09496188
58	0x3deea012	0.11651625
59	0xbe417640	-0.18892765
60	0x3e4d4755	0.20046742
61	0xbe8cd746	-0.2750799
62	0xbd02c94e	-0.03193026
63	0xbdd5f519	-0.10447139
64	0xbd777d31	-0.060422126
65	0x3ddf8b93	0.109152935
66	0x3e269bfe	0.16270444
67	0xbdb63fa3	-0.088988565
68	0xbe2ef82e	-0.1708686
69	0xbe8c99f3	-0.27461204
70	0xbde11342	-0.10990001
71	0xbe624dc7	-0.22099982
72	0x3e868f90	0.26281404
73	0xbdfeb76a	-0.12437327
74	0xbe505659	-0.20345439
75	0xbd15d27f	-0.036577698
76	0xbed69d8b	-0.4191707
77	0x3da6df08	0.081480086
78	0xbdbee90d	-0.09321795
79	0x3e1a4f82	0.15069392
80	0x3e5810b5	0.21100123
81	0xbcb59d2c	-0.022169672
82	0xbd3b54fa	-0.045735337
83	0x3e256f54	0.1615575
84	0x3e1c248f	0.15248321
85	0xbdf62999	-0.12019653
86	0xbe179826	-0.14804134
87	0xbedba8bc	-0.42902172
88	0x3dae3a87	0.08507257
89	0xbd91c1d1	-0.07117046
90	0x3d7930af	0.060837444
91	0x3dff3af6	0.12462418
92	0x3d6ee4a1	0.058323506
93	0x3df2a4fa	0.11847873
94	0x3e1ad9d8	0.15122163
95	0xbdedf594	-0.11619106
96	0x3e889253	0.26674137
97	0x3e89b405	0.26895157
98	0xbecdf283	-0.40224084
99	0xbe8d0e4a	-0.27549964
100	0xbcb7ff90	-0.022460729
101	0xbe871403	-0.26382455
102	0xbe699219	-0.22809638
103	0xbe6f9831	-0.233979
104	0xbdda95d4	-0.10673109
105	0x3e7ce43d	0.24696441
106	0xbd5f68f5	-0.054543454
107	0xbd9dc153	-0.07702889
108	0x3e6ec12c	0.23315877
109	0xbe707d79	-0.23485364
110	0x3d29b9d1	0.041436974
111	0xbd9d12ba	-0.076695874
112	0xbdd0d8cc	-0.10197601
113	0xbe7cb2ac	-0.24677533
114	0xbe1e18cd	-0.15439148
115	0xbe2b6282	-0.16736796
116	0xbe04ddbd	-0.12975211
117	0xbe2bf5dd	-0.16793008
118	0xbdd2b6f2	-0.102888
119	0xbda536b4	-0.080670744
120	0xbe70f060	-0.23529196
121	0x3e0d54c2	0.13801864
122	0x3e140278	0.14454067
123	0x3dda4c7f	0.10659122
124	0xbdb79bf1	-0.0896529
125	0x3da6ed3c	0.081507176
126	0xbdd83044	-0.10556081
127	0x3dba51c2	0.09097625
128	0x3cdeeec7	0.027213467
129	0x3cc31f18	0.023818538
130	0x3c9f02a3	0.019410437
131	0x3ecc7dde	0.3993978
132	0xbe7cd196	-0.24689326
133	0x3dc66fbc	0.096892804
134	0xbd1d75ba	-0.03844235
135	0xbd2f371a	-0.04277716
136	0x3e7cde8f	0.24694274
137	0xbdf706ca	-0.12061842
138	0xbe3fb795	-0.18722375
139	0xbe4fa2c6	-0.20276937
140	0xbe855509	-0.2604144
141	0xbe1f3725	-0.1554838
142	0xbdfaf74c	-0.122541994
143	0x3af8319a	0.0018935681
144	0xbd807d0f	-0.06273853
145	0x3e79ddb9	0.24400987
146	0xbc1caffe	-0.009563444
147	0x3d831451	0.064003594
148	0xbdce6b09	-0.10079009
149	0x3e7bb314	0.24580032
150	0x3e330e68	0.17485964
151	0x3e495d5d	0.19664522
152	0xbe3a1cb5	-0.18175013
153	0xbe19b0bf	-0.1500883
154	0xbd9ab4c7	-0.07554012
155	0x3e326fe8	0.17425501
156	0x3d10a99c	0.035318002
157	0xbdc7921e	-0.097446665
158	0xbd89697d	-0.067095734
159	0xbe460ff2	-0.1934202
160	0xbd301d8a	-0.04299692
161	0xbda75c0e	-0.08171855
162	0x3dfef4b4	0.12449017
163	0xbcee88df	-0.029118
164	0x3ec48d63	0.3838912
165	0x3d1f2b18	0.038859457
166	0x3dc7967d	0.097455
167	0x3de5dbd5	0.1122357
168	0x3de91f4c	0.113829225
169	0x3d40625a	0.046968795
170	0x3bc7914f	0.00609032
171	0x3d1bb142	0.038010843
172	0xbda198d5	-0.078904785
173	0xbdfa1b8a	-0.12212284
174	0xbda30460	-0.07959819
175	0x3ef7f0bc	0.48425853
176	0x3dd5c057	0.104370765
177	0x3e4fd418	0.20295751
178	0xbe752741	-0.23940755
179	0x3d8d765c	0.06907341
180	0xbe7ec4f7	-0.24879824
181	0x3e758f51	0.23980452
182	0xbdcc2ae2	-0.09969117
183	0xbdc5968b	-0.096478544
184	0x3e4611fe	0.19342801
185	0xbc56806f	-0.013092144
186	0x3e9a3790	0.30120516
187	0xbd60b217	-0.05485734
188	0x3cbfd890	0.023418695
189	0xbe200642	-0.15627387
190	0x3c5bdc39	0.013419204
191	0xbe0f0816	-0.13967928
192	0xbda815be	-0.08207272
193	0xbe8b5bab	-0.27218375
194	0xbe038700	-0.12844467
195	0xbe46403d	-0.19360442
196	0xbe81a3db	-0.25320324
197	0x3ebfa496	0.37430257
198	0x3dd8cc54	0.105858475
199	0xbe7bddb4	-0.24596292
200	0x3cbe6e28	0.023245886
201	0xbe1c5647	-0.15267287
202	0xbdbff3d7	-0.09372681
203	0x3d60ac08	0.05485156
204	0xbe8781a1	-0.26466087
205	0xbd19933c	-0.03749393
206	0x3e322422	0.17396596
207	0xbe670c36	-0.22563252
208	0x3e59ebad	0.2128131
209	0xbe11f3f5	-0.14253218
210	0x3e179755	0.14803822
211	0x3dbd3314	0.09238258
212	0x3e84fb49	0.25972965
213	0xbd1a3856	-0.037651382
214	0xbe40e3cd	-0.18836899
215	0x3e859912	0.26093346
216	0x3d0eb5db	0.0348414
217	0xbe48c68c	-0.1960699
218	0x3e0ee534	0.13954622
219	0xbed3cb4e	-0.41366047
220	0x3d97c023	0.07409694
221	0xbdeb5e89	-0.114926405
222	0x3e2bd903	0.16782002
223	0x3e002dd4	0.12517482
224	0xbda0cda5	-0.078517236
225	0xbe0d3109	-0.13788237
226	0x3e19057a	0.14943495
227	0xbe7c5eb6	-0.24645504
228	0xbdb1e98f	-0.08687126
229	0xbe249dcf	-0.16075824
230	0x3f04061b	0.51571816
231	0x3cf49358	0.029855415
232	0xbe05f2d6	-0.13080916
233	0x3e8608d7	0.2617862
234	0xbe36236e	-0.17786953
235	0xbe2836dd	-0.16427179
236	0xbe797a0f	-0.24362968
237	0xbe7adfcf	-0.24499439
238	0xbe710204	-0.23535925
239	0xbc3ed64d	-0.011647773
240	0xbe6e31e4	-0.2326122
241	0xbd81da6c	-0.06340489
242	0x3e2f2f43	0.17107873
243	0x3d8a5f28	0.06756431
244	0x3d1ebfaf	0.038757022
245	0xbe8d8ab3	-0.27644882
246	0xbe1eed50	-0.15520215
247	0xbe1da83c	-0.15396208
248	0x3dec52c8	0.11539227
249	0xbe489a6a	-0.19590154
250	0x3d8df8e3	0.06932237
251	0x3d8a1b00	0.06743431
252	0x3eaea372	0.34109074
253	0x3d740723	0.05957712
254	0x3dfe3ebc	0.124143094
255	0xbd211af5	-0.03933235

bias f4 [100]
0	0x3cb88f4b	0.022529265
1	0xbbfcbe80	-0.007713139
2	0xbe1ee966	-0.15518722
3	0x3dcf2100	0.10113716
4	0xbd9b6af4	-0.07588759
5	0xbe396d5c	-0.18108124
6	0xbbce0d9e	-0.0062882444
7	0xbda6bf30	-0.08141935
8	0x3c7da89c	0.015482094
9	0xbe899b0c	-0.26876104
10	0xbe6aacef	-0.22917531
11	0x3d95d5c3	0.073161624
12	0x3e909392	0.28237587
13	0x3e8f7279	0.28017023
14	0x3d9c5704	0.076337844
15	0xbea1cdf5	-0.31602445
16	0x3d1b396a	0.03789655
17	0xbe6f2c49	-0.23356737
18	0xbe9e8f2b	-0.30968603
19	0xbde9fa35	-0.11424676
20	0xbe81e046	-0.2536642
21	0xbe07f416	-0.13276705
22	0xbec17bd8	-0.37789798
23	0x3dd1d230	0.10245168
24	0x3cff7c31	0.031187149
25	0x3e59b47e	0.21260259
26	0xbe09e294	-0.13465339
27	0xbc460408	-0.012085922
28	0xbdf18fba	-0.11794992
29	0xbd68a025	-0.05679335
30	0x3df68f99	0.12039108
31	0xbe7c5241	-0.24640752
32	0x3e634595	0.22194512
33	0x3d61ff43	0.055175077
34	0xbc21a6cb	-0.009866427
35	0x3dd11b62	0.10210301
36	0xbe28d853	-0.16488771
37	0xbe772743	-0.24136071
38	0xbe696231	-0.22791363
39	0x3dab0c12	0.083519116
40	0xbe9d0a3c	-0.3067187
41	0x3dd1e9f4	0.10249701
42	0xbdac1797	-0.08402937
43	0xbdb528a1	-0.0884564
44	0x3e4d8c9b	0.20073168
45	0x3e45b0bf	0.19305705
46	0xbcd7c841	-0.026340606
47	0xbe8e2f60	-0.2777052
48	0x3e97af02	0.29625708
49	0x3e2d1a8d	0.1690466
50	0x3e3d2018	0.18469274
51	0xbe313d72	-0.17308596
52	0xbe77338b	-0.24140756
53	0x3ea2bc3b	0.31784233
54	0x3dbf0c54	0.09328523
55	0x3dfdb4cc	0.12388
56	0x3ea1364d	0.3148674
57	0xbe1c8568	-0.15285265
58	0xbbb87b70	-0.0056299493
59	0x3e768b94	0.24076682
60	0xbe04012e	-0.12891075
61	0x3e6f2842	0.23355201
62	0xbe841067	-0.25793764
63	0xbe87d279	-0.26527765
64	0xbdbdc0f4	-0.092653185
65	0xbe0be357	-0.13660942
66	0x3e51553c	0.2044267
67	0x3d2bb3a4	0.041919366
68	0xbe53d786	-0.20687684
69	0x3d0bcbfd	0.034130085
70	0x3e6bdc36	0.23033223
71	0xbda3877b	-0.07984825
72	0xbdf32317	-0.11871927
73	0xbd3f75c4	-0.04674317
74	0x3d317265	0.043321986
75	0xbe0ae7c7	-0.13564979
76	0xbe0ed818	-0.1394962
77	0x3e6778f6	0.22604737
78	0xbd95103b	-0.07278486
79	0xba5189d9	-0.0007993258
80	0x3e670c2c	0.22563237
81	0x3dd6113f	0.10452508
82	0x3e9722a6	0.29518622
83	0x3e497d42	0.19676688
84	0x3e0655b1	0.13118626
85	0x3ddf79e3	0.1091192
86	0x3e136add	0.14396234
87	0x3e8b3d19	0.2719505
88	0x3dde8890	0.10865891
89	0x3d9c4224	0.07629803
90	0x3e96d664	0.29460442
91	0xbdf7484e	-0.12074338
92	0xbe41afd9	-0.18914737
93	0x3e400e6e	0.18755504
94	0xbe7e4061	-0.24829246
95	0x3d9236a8	0.07139331
96	0x3cced0d2	0.025246058
97	0x3e554cae	0.20830032
98	0xbdef0aa1	-0.11671949
99	0xbe5b3230	-0.21405864

weight f4 [60, 100]
0	0xbdb5a8b9	-0.08870072
1	0x3db48d32	0.08815993
2	0x3dbc19d1	0.091846116
3	0x3d834963	0.06410482
4	0xbda14928	-0.078752816
5	0x3d848060	0.06469798
6	0xbd5deac4	-0.054178968
7	0xbdac0ff4	-0.0840148
8	0xbd9e0781	-0.07716275
9	0xbd8a4661	-0.06751705
10	0x3cf5c89c	0.030002885
11	0x3d303e4e	0.04302817
12	0x3d840eb3	0.06448116
13	0xbcf5cc03	-0.030004507
14	0xbbf7816c	-0.00755327
15	0x3d9d7b90	0.07689583
16	0xbcd821c1	-0.026383283
17	0x3dc29f71	0.09503067
18	0x3d907e0c	0.070552915
19	0x3d44822d	0.047975708
20	0x3e067872	0.13131884
21	0xbd566a0b	-0.052347224
22	0x3d989705	0.0745068
23	0x3d9f0148	0.07763916
24	0x3dab3982	0.08360578
25	0x3c8cb0ca	0.017174143
26	0x3cbf9c3a	0.023389924
27	0xbd6a52ff	-0.057208057
28	0x3dc80a03	0.097675346
29	0xbd8b3eff	-0.06799125
30	0xbd82e8ee	-0.06392084
31	0xbc51330d	-0.012768519
32	0x3d49fcae	0.04931324
33	0xbdd67c5a	-0.10472937
34	0x3d5f3431	0.054493133
35	0xbdc84185	-0.09778122
36	0xbbddb802	-0.00676632
37	0x3da8b86e	0.08238302
38	0xbabd81da	-0.0014458254
39	0x3d495cd8	0.04916081
40	0x3c87ba07	0.016568197
41	0x3cfedc86	0.031111013
42	0x3d312ac6	0.043253683
43	0xbd1cdd07	-0.038296726
44	0x3b2aacfd	0.002604305
45	0xbbea9012	-0.007158288
46	0x3db9308e	0.09042464
47	0xbdbdffcf	-0.09277307
48	0xbd7820e0	-0.060578227
49	0x3c13ef42	0.0090292115
50	0xbd5fa8fd	-0.05460452
51	0x3dcfb5d0	0.101421
52	0xbd97cc6e	-0.07412039
53	0xbd86c348	-0.06580216
54	0x3ceabb85	0.02865387
55	0x3d83c93b	0.06434866
56	0x3c8a0893	0.016849792
57	0xbcca9d9d	-0.024733359
58	0xbd980bfb	-0.0742416
59	0x3d319321	0.043353204
60	0xbddb84e4	-0.10718706
61	0x3d4e037f	0.050296303
62	0x3d87beda	0.06628199
63	0xbdb446ce	-0.088025674
64	0xbd6097a2	-0.05483211
65	0x3c809416	0.015695613
66	0xbdb659b4	-0.08903828
67	0x3a8237bd	0.0009934824
68	0x3d3dd346	0.046344064
69	0x3d998369	0.074957676
70	0xbdc6dd21	-0.09710146
71	0xbdc4e629	-0.09614212
72	0x3c8f57fd	0.01749801
73	0xbcaf3329	-0.0213867
74	0x3cc92fb6	0.024558883
75	0x3d6024ef	0.054722723
76	0x3d6ea6ea	0.05826465
77	0x3d1839f4	0.037164643
78	0xbdeee364	-0.11664465
79	0xbc9b442e	-0.018953409
80	0x3d25c6a0	0.040472627
81	0x3dccff51	0.10009635
82	0x3d113ea8	0.035460144
83	0xbd3a55e1	-0.045492057
84	0xbd874590	-0.06605065
85	0xbdc7dc4e	-0.09758817
86	0x3d903c88	0.070427954
87	0xbdd8d465	-0.10587386
88	0xbc9c1667	-0.019053651
89	0x3d667d6f	0.056271967
90	0xbd73b573	-0.059499215
91	0xbd8e88d6	-0.06959693
92	0x3c195f9e	0.009361176
93	0x3c9cded8	0.019149229
94	0xbca9de77	-0.020735962
95	0xbd7c9300	-0.061663628
96	0x3dd5bc6c	0.10436329
97	0x3ce2a427	0.027666165
98	0xbaf20483	-0.0018464479
99	0x3da07cf7	0.07836335
100	0xbd9d0bbc	-0.07668254
101	0x3d6c1805	0.057640094
102	0xbdb2e862	-0.0873573
103	0x3dd5a6fb	0.104322396
104	0xbce98d8d	-0.02850988
105	0xbd780ce2	-0.06055916
106	0xbc819fc9	-0.015823262
107	0xbdcd43c0	-0.10022688
108	0xbdbc76da	-0.09202357
109	0x3ad73727	0.0016419635
110	0xbd9b35aa	-0.07578595
111	0xbb27ad66	-0.0025585531
112	0xbd10b3b2	-0.03532762
113	0xbdc5e30f	-0.096624486
114	0x3db090a8	0.08621341
115	0x3d36cc5c	0.044628486
116	0x3df09753	0.11747613
117	0x3dc97efb	0.09838673
118	0x3c53d297	0.0129286265
119	0xbd8247ee	-0.06361376
120	0x3d81b0bc	0.063325375
121	0x3d88f15e	0.06686662
122	0xbd20b967	-0.039239313
123	0x3df97b78	0.12181753
124	0x3d180e81	0.037123207
125	0xbe115686	-0.14193162
126	0xbd9fe64a	-0.07807596
127	0x3bc405e1	0.005982146
128	0x3debc891	0.115128644
129	0x3c95e2f4	0.018296696
130	0xbba652be	-0.0050757816
131	0xbbe14339	-0.0068744686
132	0x3da34ba6	0.07973413
133	0xbc6c760b	-0.0144324405
134	0xbd13516a	-0.035966314
135	0x3d600b17	0.054698076
136	0xbd1b61d7	-0.037935104
137	0x3db2223e	0.086979374
138	0xbca34ec8	-0.019935027
139	0xbc68609c	-0.01418319
140	0xbd82d7cd	-0.06388817
141	0xbd7f9acf	-0.062403496
142	0x3ccbff21	0.024901928
143	0xbbede171	-0.0072595407
144	0xbbda86d0	-0.006668903
145	0x3c0cf47d	0.008603212
146	0xbcd6ee3d	-0.026236648
147	0x3db33e33	0.08752098
148	0x3c19f873	0.009397614
149	0xbd6916f8	-0.05690667
150	0x3d03a717	0.03214177
151	0x3d4dd4a6	0.050251625
152	0xbe0be51e	-0.1366162
153	0xbd9c1762	-0.076216474
154	0xbe0de9c1	-0.13858701
155	0x3d3891b0	0.045060813
156	0x3d6f9b41	0.05849767
157	0xbca08fdb	-0.019599846
158	0x3d3f09eb	0.046640318
159	0x3da254fe	0.07926367
160	0xbda4a3fb	-0.08039089
161	0x3dc0eb40	0.094198704
162	0xbc3342e2	-0.010941239
163	0x3a7a3884	0.00095451646
164	0x3d8a62fc	0.06757161
165	0xbb0a8e03	-0.0021141774
166	0xbded7a45	-0.11595587
167	0x3d852b97	0.06502455
168	0x3d77b59d	0.060475934
169	0x3d1fd3a7	0.039020207
170	0x3c4770ef	0.012172922
171	0xbdd716e1	-0.10502411
172	0x3c83d48a	0.016092557
173	0x3d023fb5	0.031799037
174	0x3cc2fcb2	0.023802135
175	0xbd493c7c	-0.049129948
176	0xbd37e59a	-0.0448967
177	0xbaea8d04	-0.0017894809
178	0xbddd84f6	-0.10816376
179	0xbdcbec95	-0.09957234
180	0xbb178d11	-0.0023124854
181	0x3d9f5312	0.07779516
182	0xbdec7c39	-0.11547131
183	0xbda1c725	-0.07899312
184	0x3ddbba63	0.1072891
185	0xbda75459	-0.08170385
186	0xbd58182b	-0.052757423
187	0xbce28d98	-0.027655408
188	0x3dbda302	0.09259607
189	0xbcdb5172	-0.026772235
190	0x3dc4751d	0.0959265
191	0xbd68f52e	-0.056874447
192	0x3dab3e23	0.08361461
193	0x3d0e80d9	0.034790847
194	0xba96d08e	-0.0011506246
195	0xbd39378e	-0.045218997
196	0x3e02ddbb	0.12779896
197	0x3d565924	0.052331105
198	0xbd4b81f2	-0.049684472
199	0xbdd8eb9c	-0.10591814
200	0x3d997bf1	0.07494343
201	0x3c7c052e	0.015382094
202	0xbdcfad16	-0.101404354
203	0x3d5b98e3	0.0536126
204	0x3da9b8e9	0.08287222
205	0xbcb69468	-0.022287562
206	0x3dfa75d2	0.12229504
207	0x3d3d070e	0.046149306
208	0x3d840988	0.064471304
209	0xbdb4114f	-0.08792364
210	0x3d698073	0.057007264
211	0xbd9c3a5a	-0.07628317
212	0xbdbac928	-0.09120399
213	0xbd8ecbd5	-0.069724716
214	0xbd8b1b0b	-0.067922674
215	0xbe14439f	-0.1447892
216	0xbcae40c9	-0.021271126
217	0xbd593267	-0.053026583
218	0x3d2988c9	0.041390214
219	0x3cc2381a	0.023708392
220	0xbdf441e7	-0.119266324
221	0xbd48d162	-0.049027808
222	0xbd9e8dc2	-0.07741882
223	0xbd005dd4	-0.03133948
224	0x3bee8973	0.007279569
225	0x3d4518c6	0.04811933
226	0x3d80be99	0.062863536
227	0xbd79b853	-0.0609668
228	0xbd8ad8af	-0.0677961
229	0x3ca62b06	0.020284187
230	0x3d218016	0.039428793
231	0xbd4f85bd	-0.050664652
232	0x3d446e1e	0.04795658
233	0x3de0c578	0.10975164
234	0xbd98e4dd	-0.07465527
235	0xbd9972ec	-0.07492623
236	0xbd8d4a52	-0.06898941
237	0xbd168f95	-0.036758024
238	0x3d89aed0	0.06722796
239	0xbd503900	-0.05083561
240	0x3d8970d5	0.06710974
241	0x3ce835d0	0.028345972
242	0x3decf53e	0.11570214
243	0xbd5b8b34	-0.05359955
244	0x3d50e1c5	0.05099656
245	0x3d61e539	0.055150244
246	0xbe06bcaf	-0.13157915
247	0xbdb3f8a0	-0.08787656
248	0x3cbcea1c	0.02306085
249	0xbd7bc06f	-0.061462816
250	0xbd342cf9	-0.0439882
251	0x3bf0ec3d	0.0073523805
252	0x3cab66ab	0.02092298
253	0x3bd38008	0.0064544715
254	0x3bd5be98	0.0065229647
255	0x3cd76388	0.026292577

weight f4 [60, 100]
0	0x3d0865b7	0.033300128
1	0x3dd861c0	0.10565519
2	0xbd6a1ab5	-0.057154376
3	0x3c3107b9	0.010805064
4	0x3bd373aa	0.006452997
5	0x3ccbbb23	0.024869507
6	0xbd6ed9cb	-0.058313172
7	0x3db658ef	0.089036815
8	0x3d8c9104	0.06863597
9	0x3dc90e5a	0.098171905
10	0x3de9484e	0.11390744
11	0xbd56bcac	-0.052426025
12	0xba488768	-0.00076495716
13	0xbd0b27a8	-0.033973366
14	0x3dc09ebc	0.09405276
15	0x3c8d2365	0.017228791
16	0xbd99144d	-0.07474575
17	0xbd28543d	-0.04109596
18	0xbd82cae1	-0.06386352
19	0x3da6d027	0.08145171
20	0xbd1e22c5	-0.038607378
21	0xbd247f36	-0.04016038
22	0xbd144f94	-0.036208704
23	0x3d6a9bef	0.057277616
24	0xbcfc74ce	-0.030817416
25	0x3d9b68cb	0.07588347
26	0xbdd243b7	-0.10266822
27	0xbe2bb6e1	-0.16768982
28	0x3de5cc98	0.11220664
29	0xbd7a4ad8	-0.061106533
30	0x3da6d4c3	0.0814605
31	0x3db93aa2	0.090443864
32	0xbd470c02	-0.048595436
33	0xbd59035f	-0.05298173
34	0x3cc5bd4a	0.024138112
35	0x3d09bab1	0.03362531
36	0x3c2515a6	0.010075962
37	0xbb5195a3	-0.003198006
38	0xbd9ef00a	-0.077606276
39	0x3d15dd0e	0.036587767
40	0xbb09f420	-0.002105005
41	0xbd90603d	-0.07049606
42	0xbdc90391	-0.09815133
43	0xbcc34cb2	-0.023840282
44	0x3c2f61bc	0.010704454
45	0xbdc68c28	-0.096947014
46	0x3d493070	0.04911846
47	0x3dbeba37	0.093128614
48	0x3e058601	0.130394
49	0x3d989fe7	0.07452374
50	0xbce697bf	-0.02814853
51	0x3d9ffd1d	0.078119494
52	0xbda1edb3	-0.07906666
53	0x3d08018b	0.033204596
54	0x3d89909b	0.067170344
55	0xbcf652ca	-0.030068774
56	0x3d4ed875	0.0504994
57	0xbb7c9e22	-0.0038546403
58	0xbda6be00	-0.081417084
59	0xbd0c3919	-0.03423414
60	0xbddaea3c	-0.10689208
61	0xbcf7ecac	-0.030264221
62	0x3da340d0	0.079713464
63	0x3cb05593	0.02152518
64	0x3d382d54	0.044965103
65	0x3d058105	0.032593746
66	0xbd7b0cff	-0.06129169
67	0xbd52e279	-0.051485512
68	0x3cc71a88	0.024304643
69	0x3d907723	0.070539735
70	0x3d2e6879	0.0425801
71	0x3d2b3447	0.041797902
72	0xbce6b809	-0.028163927
73	0xbe1c1322	-0.15241674
74	0x3db2f350	0.087378144
75	0x3d48c945	0.04902007
76	0x3dd5c6f9	0.10438342
77	0xbd31259d	-0.04324876
78	0xbd854d29	-0.06508858
79	0x3dd4be79	0.10387892
80	0x3dac2f94	0.08407512
81	0xbc9338d5	-0.017971436
82	0xbc6fd7b5	-0.014638831
83	0xbd4e7347	-0.050402906
84	0x3d80d695	0.06290928
85	0xbaeac43a	-0.0017911263
86	0xbde2f5d0	-0.11082041
87	0x3da3acb7	0.07991927
88	0x3b19a3f2	0.0023443666
89	0x3c9701e4	0.018433519
90	0xbd7b80e0	-0.0614022
91	0x3d599fe3	0.053130995
92	0xbcf48bbe	-0.02985179
93	0xbd6b0e14	-0.057386473
94	0xbc5b8268	-0.0133977905
95	0x3b4e5e65	0.003148937
96	0xbb0517fd	-0.0020308488
97	0x3db846c6	0.08997874
98	0xbd5210b6	-0.051285468
99	0x3dc3cc99	0.09560508
100	0x3daeecdb	0.0854127
101	0x3c8dd2e2	0.01731247
102	0x3e18b638	0.14913261
103	0x3d344b89	0.04401735
104	0xbd6eb55e	-0.058278434
105	0x3d1ec02e	0.038757496
106	0x3da1d007	0.07901006
107	0x3d1689e9	0.036752615
108	0xbbf4ffec	-0.0074767973
109	0x3d99989f	0.07499813
110	0xbcaa4cbe	-0.020788547
111	0xbd9e56d5	-0.07731406
112	0x3d929ad7	0.071584396
113	0x3d8bde6f	0.06829535
114	0xbd6084a2	-0.05481399
115	0xbc896e25	-0.016776154
116	0xbda7cad2	-0.08192982
117	0x3d7a20c0	0.06106639
118	0x3d356063	0.044281375
119	0xbdb990a6	-0.090607926
120	0x3d403816	0.046928488
121	0x3e17b60c	0.14815539
122	0xbb625fb0	-0.0034541897
123	0x3d3f7d72	0.046750493
124	0xbc1c2f7c	-0.0095328055
125	0x3cc10853	0.02356354
126	0xbd3e196b	-0.04641096
127	0x3d17aef3	0.03703208
128	0xbdbb311e	-0.09140228
129	0x3dac0d96	0.08401029
130	0x3d4f585d	0.05062138
131	0x3d4db9b3	0.050225925
132	0xbd6c85fa	-0.057744958
133	0x3de37ad0	0.11107409
134	0x3ddff070	0.10934532
135	0xbc64b460	-0.01395902
136	0x3cf1192d	0.02943095
137	0xbb2bd072	-0.0026216772
138	0x3dbeb25a	0.093113616
139	0xbb86d331	-0.0041145314
140	0x3dce206b	0.10064777
141	0x3ddc4bde	0.10756658
142	0x3cb8fd01	0.02258158
143	0x3d92dfd2	0.071715966
144	0x3d11ebc3	0.03562523
145	0x3ccfb459	0.025354551
146	0xbd133b5b	-0.035945278
147	0x3dc2cf57	0.09512203
148	0x3d006cb0	0.031353652
149	0x3c4086e0	0.011750907
150	0x3d271c8e	0.040798716
151	0xbe1a0cb5	-0.1504391
152	0x3da4d28e	0.080479726
153	0x3dbcd555	0.09220377
154	0x3dff1820	0.12455773
155	0x3da8025c	0.08203575
156	0x3caaf597	0.02086906
157	0xbe18fb0f	-0.14939521
158	0xbdaf0fd1	-0.085479386
159	0xbd8238f6	-0.06358521
160	0x3da3eeb5	0.08004514
161	0xbd7975f5	-0.06090351
162	0x3d5cb313	0.053881716
163	0xbc2d76cd	-0.010587406
164	0xbe0a26f3	-0.1349142
165	0x3dba850a	0.091074064
166	0x3dbaa1a0	0.09112859
167	0xbcfe21c7	-0.031021966
168	0xbe01546f	-0.12629865
169	0xbd3f3571	-0.046681825
170	0xbc89e3d6	-0.016832273
171	0x3d9118fa	0.07084842
172	0x3c36c7ea	0.011156062
173	0xbde48030	-0.11157262
174	0x3d845b88	0.06462771
175	0xbd9ccc1d	-0.07656119
176	0x3db977aa	0.09056027
177	0x3d666507	0.05624869
178	0x3d58b19f	0.052903768
179	0x3dcdfedd	0.10058377
180	0x3df70e0f	0.12063228
181	0xbda96e67	-0.08273011
182	0x3d877ccf	0.06615602
183	0x3d07434f	0.033023175
184	0x3c90a82a	0.017658312
185	0xbdf3fe84	-0.119137794
186	0xbd6cdb0b	-0.057826083
187	0x3dd594b8	0.104287565
188	0xbe0d485c	-0.13797134
189	0x3cdf191d	0.027233655
190	0x3c16c433	0.009202051
191	0x3cbfaf8e	0.02339914
192	0x3dbba8ad	0.09163032
193	0xbc691b33	-0.014227676
194	0x3e04f8b1	0.12985493
195	0x3dcfa02d	0.10137973
196	0xbe0e56a3	-0.13900237
197	0xbd617f23	-0.055052888
198	0x3d7ba7b6	0.06143924
199	0x3e27d1d9	0.16388644
200	0x3b91d51e	0.0044504544
201	0x3d96ec83	0.0736933
202	0xbbce6a6f	-0.006299309
203	0xbdb7fb35	-0.08983461
204	0x3dd9aba2	0.106284395
205	0xbcc4fe8b	-0.024047157
206	0xbc94f305	-0.018182287
207	0xbd9f34f5	-0.077737726
208	0x3d052de0	0.032514453
209	0x3d18f2ce	0.03734093
210	0xbd295e3a	-0.041349627
211	0xbd0c9622	-0.034322865
212	0xbd45abc9	-0.04825953
213	0xbdbf9a37	-0.09355586
214	0x39ca6f72	0.00038611476
215	0x3ca247b0	0.019809574
216	0xbbbdf4c0	-0.0057969987
217	0xbd7e039e	-0.06201517
218	0x3d1462fa	0.036227204
219	0x3c226ee6	0.009914136
220	0xbd93b44b	-0.072121225
221	0xbe104bfa	-0.14091483
222	0x3d1175d8	0.035512775
223	0x3d7eb759	0.062186573
224	0x3dc3b9bd	0.09556911
225	0x3d491bd5	0.04909881
226	0x3e16d0ec	0.14728135
227	0x3c544ad3	0.012957293
228	0xbb772f21	-0.00377173
229	0xbd7f33e4	-0.062305346
230	0x3cac39d0	0.02102366
231	0xbbaba755	-0.0052384534
232	0xbcc8836b	-0.024476727
233	0xbdf48730	-0.119398475
234	0x3dc3ef02	0.095670715
235	0x3d0c16c5	0.034201402
236	0x3d766477	0.060154404
237	0xbb82dd64	-0.003993677
238	0xbcfce4b7	-0.030870778
239	0x3dacd2c0	0.08438635
240	0x3d5348a2	0.05158294
241	0x3cf4f76c	0.029903136
242	0xbd48e887	-0.04904988
243	0xbd2702a0	-0.040773988
244	0x3d99f7b5	0.075179495
245	0x3dae449b	0.08509179
246	0x3d413a40	0.047174692
247	0x385e7e77	5.3046704e-05
248	0xbba13917	-0.0049201357
249	0x3b6f7f2f	0.0036544313
250	0x3d0c674b	0.034278195
251	0xbd359be4	-0.044338122
252	0x3cad9f86	0.02119423
253	0xbddcd328	-0.10782462
254	0xbd2b75bd	-0.04186033
255	0xbc81109a	-0.015754987

weight f4 [60, 100]
0	0x3e12a9e6	0.14322624
1	0xbd028642	-0.03186632
2	0xbd7f1bfb	-0.062282544
3	0xbbf7820d	-0.007553345
4	0x3dad2826	0.08454923
5	0xbce47ff2	-0.02789304
6	0x3dbc9965	0.09208945
7	0xbd482a18	-0.04886827
8	0xbc1a1201	-0.0094037065
9	0x3e3e2d8b	0.18572061
10	0x3c5458fe	0.0129606705
11	0xbc935e2a	-0.017989237
12	0x3c558266	0.013031578
13	0x3da7516c	0.08169827
14	0xbda9cf7a	-0.08291526
15	0xbe556ee4	-0.20843083
16	0xbe1a49c1	-0.15067197
17	0xbcb2a98c	-0.021809362
18	0x3cf68e6e	0.030097213
19	0x3dd535dd	0.10410664
20	0xbd30c7f5	-0.043159444
21	0x3cf133f1	0.029443713
22	0xbde3b042	-0.11117603
23	0x3b1c67f6	0.0023865676
24	0xbca68eb7	-0.020331724
25	0x3b9c6719	0.0047730324
26	0xbd9d8d3c	-0.07692954
27	0xbd0d6a70	-0.034525335
28	0xbcf8e225	-0.030381272
29	0xbc367bde	-0.011137931
30	0x3dc718ad	0.097215034
31	0xbdd96a16	-0.106159374
32	0x3dc58ae7	0.09645634
33	0x3e177bf4	0.14793378
34	0x3d7a4a92	0.061106272
35	0xbda655c8	-0.0812183
36	0x3de4139e	0.11136554
37	0xbd61d4bc	-0.05513452
38	0x3d918d01	0.071069725
39	0x3c0ec463	0.008713814
40	0x3c6cc55f	0.014451354
41	0x3d14a399	0.03628883
42	0x3cec18b0	0.028820366
43	0xbddcd0a2	-0.10781981
44	0x3ce9f0d1	0.028557213
45	0x3ca8f04c	0.020622395
46	0xbcd357c0	-0.025798678
47	0xbd131f77	-0.03591868
48	0x3c591290	0.013249055
49	0x3cc9d819	0.024639176
50	0x3d8ade3f	0.06780671
51	0xbdcb029c	-0.09912607
52	0x3ce79dc4	0.02827347
53	0x3ddad609	0.10685355
54	0x3c4c808f	0.012481823
55	0xbe1dda5f	-0.15415333
56	0xbd3621b3	-0.04446573
57	0xbda5445e	-0.08069681
58	0x3ca270ad	0.019829119
59	0xbcef97e6	-0.029247236
60	0x3e09ed57	0.13469444
61	0x3ce7892c	0.02826365
62	0xbdaff8c9	-0.08592374
63	0x3cd891ba	0.026436675
64	0xbd8b1284	-0.06790641
65	0x3d30a900	0.04312992
66	0xbd9116f0	-0.07084453
67	0x3d7a3d68	0.061093718
68	0xbdc9057b	-0.098154984
69	0x3c1cfb9e	0.009581475
70	0xbdaa603b	-0.08319136
71	0xbc19bf00	-0.009383917
72	0x3d767fe4	0.06018056
73	0xbe0e5ca6	-0.1390253
74	0xbcce5de7	-0.02519126
75	0x3defadd4	0.11703077
76	0x3db343ed	0.0875319
77	0xbc4cefa3	-0.012508306
78	0x3d9be3ad	0.07611785
79	0x3dffd98f	0.12492668
80	0x3d94307b	0.072358094
81	0xbd5823bf	-0.052768465
82	0x3d0dabe7	0.034587767
83	0xbd1518ad	-0.036400486
84	0xbc0c7820	-0.008573562
85	0x3d8dfe41	0.06933261
86	0xbe0541db	-0.13013403
87	0x3dc37d30	0.09545362
88	0x3d6fca8c	0.058542773
89	0x3bfb1ec8	0.0076635815
90	0xbb0b709b	-0.0021276835
91	0xbda23585	-0.07920364
92	0x3d96fe37	0.073727064
93	0xbccf8b72	-0.025335047
94	0x3c69619f	0.014244466
95	0x3dd28a89	0.1028033
96	0xbd1ceadc	-0.038309917
97	0x3d904000	0.07043457
98	0x3d93614b	0.071962915
99	0x3db5bec8	0.08874279
100	0x3de18823	0.11012294
101	0xbba0d85c	-0.0049086045
102	0x3d8cd8c4	0.06877282
103	0xbd14139b	-0.03615151
104	0x3dad5ae2	0.084646
105	0xbcb16336	-0.021653753
106	0x3d0c77cb	0.03429393
107	0x3cd67859	0.026180433
108	0x3d80ad82	0.06283094
109	0x3e019a24	0.12656456
110	0xbdd57ac8	-0.10423809
111	0xbd7d105a	-0.061783172
112	0x3dc49beb	0.096000515
113	0x3d3723a6	0.04471173
114	0x3d2df6ec	0.04247181
115	0xbab5124e	-0.0013814659
116	0xbd58531c	-0.052813634
117	0x3b8eefa8	0.0043620653
118	0xbcd7df30	-0.026351541
119	0x3dec6f91	0.11544717
120	0xbd985d5b	-0.07439681
121	0xbd9d156a	-0.076701
122	0xbcd5f7f3	-0.026119208
123	0x3d47c7e4	0.048774615
124	0xbd89d622	-0.06730296
125	0x3d732529	0.05936161
126	0xbc82d2d5	-0.015969673
127	0xbdeb29e2	-0.11482598
128	0x3d259867	0.040428545
129	0xbd43e988	-0.047830135
130	0xbd22f800	-0.039787292
131	0xbdce267f	-0.10065936
132	0x3d9e76d7	0.07737511
133	0xbd12f7e3	-0.035880934
134	0xbd9d19e2	-0.076709524
135	0x3d534301	0.05157757
136	0x3e09a336	0.13441166
137	0xbdaf14d1	-0.08548892
138	0x3dddbd46	0.10827117
139	0xbc4224c5	-0.011849587
140	0xbd9636a9	-0.07334644
141	0x3d8b0c24	0.06789425
142	0xbcff8520	-0.031191409
143	0xbc45d5f1	-0.012074933
144	0xbe043b8e	-0.12913343
145	0x3d5c4829	0.053779755
146	0xbde87e8b	-0.11352261
147	0x3d5c2a96	0.05375155
148	0x3d5dcce2	0.05415047
149	0xbd903369	-0.07041056
150	0x3c86ef35	0.016471485
151	0xbc553c71	-0.013014899
152	0x3cd1a22b	0.025590023
153	0x3d1045f0	0.035222948
154	0x3d388de4	0.045057192
155	0x3c31947b	0.010838623
156	0xbdf53bea	-0.11974318
157	0xbbc032e7	-0.005865443
158	0x3d8918d4	0.06694189
159	0x3d903dbd	0.07043026
160	0x3d1100a5	0.035401005
161	0x3cb26391	0.021775993
162	0xbd090208	-0.033449203
163	0x3d2d9274	0.042375997
164	0xbdce0b30	-0.100607276
165	0xbde09945	-0.10966734
166	0xb9d474c2	-0.00040522782
167	0x3d59df6b	0.053191584
168	0xbb571041	-0.0032816085
169	0xbdd958e9	-0.106126614
170	0xbd117c85	-0.03551914
171	0xbda1e5e9	-0.0790518
172	0x3d66a46e	0.056309156
173	0xbda924e1	-0.08258987
174	0xbd90e773	-0.070753954
175	0x3dff3193	0.124606274
176	0x3c9bc922	0.019016806
177	0x3cf4786e	0.029842582
178	0x3d8cf9dd	0.06883595
179	0xbc940745	-0.018069873
180	0xbc01e6b3	-0.007928538
181	0x3da5785f	0.080795996
182	0x3c2fd494	0.010731835
183	0x3ce61697	0.028086944
184	0xbdc7f2d6	-0.09763114
185	0x3d71915c	0.058976516
186	0xbd2057e8	-0.039146334
187	0xbd07b199	-0.033128355
188	0xbd629063	-0.05531348
189	0x3d03995e	0.032128684
190	0xbd54883c	-0.051887736
191	0xbd5f41ee	-0.054506235
192	0x3ca4eb53	0.020131743
193	0xbcb288b9	-0.02179371
194	0x3de6f8cd	0.11277924
195	0x3db01a81	0.08598805
196	0xbd4de454	-0.05026658
197	0x3cf3103d	0.029670829
198	0xbd8a6aea	-0.067586735
199	0x3d6a2ff4	0.057174638
200	0xbd8c1cc1	-0.06841422
201	0xbd0c8dba	-0.03431485
202	0x3d859d7f	0.065241806
203	0x3db99319	0.0906126
204	0xbdc55d62	-0.09636952
205	0x3d9f0f20	0.07766557
206	0xbdb96178	-0.09051794
207	0x3d0f5790	0.034995615
208	0x3cae9471	0.021311017
209	0x3d8a18f0	0.06743038
210	0x3dcc43dc	0.09973881
211	0xbdade61d	-0.08491156
212	0xbc8b29a0	-0.016987622
213	0x3d527dae	0.05138939
214	0xbd1c035e	-0.03808915
215	0xbd5cb70d	-0.05388551
216	0x3d046ec9	0.032332215
217	0x3c582300	0.013191938
218	0x3d778aa3	0.06043495
219	0xbc78039c	-0.015137579
220	0x3df04491	0.11731828
221	0x3da22e33	0.07918968
222	0x3dbc78c3	0.09202721
223	0x3c298201	0.010345937
224	0x3d12db78	0.035853833
225	0x3d9bad68	0.07601434
226	0x3c29b1f1	0.010357366
227	0xb88070fa	-6.124559e-05
228	0x3ca0ad70	0.019613951
229	0xbd72ef85	-0.059310455
230	0xbc5becca	-0.013423154
231	0xbd52cf9c	-0.051467523
232	0x3c82e205	0.015976915
233	0x3d77d3eb	0.060504835
234	0xbcd4b003	-0.025962835
235	0xbccabbf4	-0.024747826
236	0xbbc344ef	-0.0059591453
237	0x3cafbb25	0.021451542
238	0x3d4999fd	0.04921912
239	0x3da70bb9	0.08156533
240	0x3def9417	0.11698168
241	0x3ddcb2d3	0.107762955
242	0x3ddb0ba1	0.106955774
243	0x3ccdfeca	0.025145907
244	0x3b6b9854	0.003594895
245	0x3d4e698b	0.050393622
246	0xbdd7bfc3	-0.105346225
247	0x3c8401dc	0.016114168
248	0x3d972a96	0.073811695
249	0x3d5c5029	0.053787384
250	0xbd861301	-0.065465935
251	0xbde50d35	-0.1118416
252	0x3dae2153	0.0850245
253	0x3df150d5	0.117829956
254	0xbdae4a9e	-0.08510326
255	0x3cec296f	0.02882835

weight f4 [100, 60]
0	0x3d64ec31	0.055889312
1	0x3d806636	0.06269495
2	0xbd8c66ae	-0.06855522
3	0xbdc99993	-0.09843745
4	0xbdf207db	-0.118179046
5	0x3e2a0a54	0.16605502
6	0x3d35ceed	0.044386793
7	0x3cb5b97b	0.02218317
8	0x3d9b032b	0.075689636
9	0xbdf9990f	-0.12187397
10	0xbd700fa2	-0.05860866
11	0xbbf3d0b4	-0.007440651
12	0x3d84f9cb	0.06492957
13	0xbc647bd4	-0.013945539
14	0xbdf5b021	-0.119964845
15	0x3de715c2	0.11283447
16	0xbd984db9	-0.074366994
17	0xbd0ab057	-0.033859577
18	0x3db04187	0.08606248
19	0xbd878293	-0.06616702
20	0x3d5427b1	0.051795665
21	0xbe076e94	-0.13225776
22	0x3d6febcc	0.058574483
23	0xbbfb996b	-0.007678201
24	0x3dd908c6	0.105973765
25	0x3d2df69e	0.04247152
26	0x3c3d1473	0.01154052
27	0xbdf2fdff	-0.11864852
28	0x3d03c902	0.032174118
29	0xbce42976	-0.027851801
30	0x3da53979	0.08067603
31	0x3d77692e	0.06040304
32	0x3d1fff7c	0.03906201
33	0x3acd0f19	0.0015644758
34	0xbdaf9638	-0.08573574
35	0xbc34c32e	-0.011032863
36	0x3db15dee	0.08660494
37	0x3da44e07	0.08022695
38	0xbdf23d2d	-0.118280746
39	0x3cb1bdf3	0.02169702
40	0x3c85d5d6	0.016337316
41	0x3df9ce82	0.12197591
42	0x3d7959fe	0.06087684
43	0xbc8ed024	-0.017433234
44	0x3e08aded	0.13347597
45	0x3df4444f	0.11927091
46	0x3db8b0c2	0.09018089
47	0xbd293fed	-0.04132073
48	0x3dc4cef5	0.096097864
49	0x3c7b3d60	0.015334457
50	0xbdc519b5	-0.09624044
51	0xbc565104	-0.013080839
52	0x3d0160f5	0.031586606
53	0xbd2e5cf2	-0.04256911
54	0xbda45bae	-0.08025299
55	0x3de96a78	0.113972604
56	0x3c8094c2	0.015695933
57	0xbc9c6f71	-0.019096108
58	0xbd084079	-0.03326461
59	0x3dac4c16	0.0841295
60	0x3d15a732	0.036536403
61	0xbd9679b3	-0.07347431
62	0x3d1c2dec	0.038129732
63	0x3d3d0013	0.04614265
64	0x3ddb1aa9	0.106984444
65	0xbdcf27a4	-0.10114983
66	0x3de50e99	0.11184425
67	0xbdade11e	-0.08490203
68	0xbd2ac7d0	-0.041694462
69	0xbcf08ccd	-0.029364014
70	0x3d5cbe00	0.053892136
71	0x3d314783	0.04328109
72	0xbc0cec5f	-0.008601277
73	0x3cc4dd69	0.024031358
74	0xbddf845b	-0.10913917
75	0xbe0a6c8e	-0.13517973
76	0xbdde9877	-0.10868924
77	0xbdf9b58f	-0.12192833
78	0xbdbf95b4	-0.093547255
79	0x3df945c3	0.12171509
80	0x3cf0bb14	0.02938608
81	0x3d0ed856	0.034874283
82	0x3ccf2de5	0.025290439
83	0xbbc3e011	-0.0059776385
84	0x3ae93f6e	0.0017795393
85	0x3cc52a63	0.024068063
86	0xbd32d5f9	-0.04366109
87	0x3bb59c42	0.005542309
88	0x3e21995a	0.15781155
89	0xbd9695ed	-0.07352815
90	0xbe049785	-0.12948425
91	0xbb9d9001	-0.0048084264
92	0xbdc0f5b5	-0.09421865
93	0xbdf6234d	-0.12018452
94	0xbd9c90b5	-0.07644788
95	0xbceb84c1	-0.028749825
96	0x3dbe5986	0.09294419
97	0x3e27a851	0.16372801
98	0x3e046ce6	0.12932166
99	0x3c9688c9	0.018375771
100	0xbdad8ef6	-0.08474533
101	0xbd05d6f1	-0.032675687
102	0xbc194440	-0.009354651
103	0xbd44ad74	-0.04801698
104	0xbaf6677e	-0.0018799154
105	0x3e0ce713	0.13760023
106	0xbdb2e497	-0.08735006
107	0xbe068926	-0.13138255
108	0x3d8d95d0	0.0691334
109	0x3d213f29	0.039366875
110	0x3c7f4fe7	0.015583015
111	0xbd96dded	-0.07366548
112	0xbded6750	-0.11591971
113	0x3b47af82	0.00304696
114	0x3d0acc9a	0.03388653
115	0xbcba4f69	-0.022742944
116	0xbdf92b58	-0.1216647
117	0x3c843ba5	0.016141722
118	0xbd6e56cb	-0.05818824
119	0xbe038921	-0.1284528
120	0xbc98ac2b	-0.018636784
121	0xbd0f2e15	-0.034956057
122	0xbd245290	-0.0401178
123	0x3dd05c91	0.10173906
124	0xbdcb4db5	-0.09926931
125	0x3cfc886a	0.030826766
126	0x3d633b18	0.055476278
127	0x3da1f138	0.07907337
128	0xbe51f011	-0.20501734
129	0x3ddf096d	0.1089047
130	0x3db0ec29	0.08638794
131	0x3d0a9732	0.033835597
132	0x3e13df84	0.14440733
133	0xbd865ca5	-0.06560639
134	0x3dd26462	0.10273053
135	0xbcd70cf5	-0.026251296
136	0x3da459da	0.0802495
137	0xbda4a937	-0.08040088
138	0x3cf4dca4	0.029890366
139	0x3c2cb0d5	0.010540207
140	0x3d8b9528	0.06815559
141	0x3d94080a	0.07228096
142	0xbe5227e8	-0.20523036
143	0x3e58b70a	0.21163574
144	0xbdb1ba9e	-0.086781725
145	0xbcbd992e	-0.02314433
146	0x3ba1c808	0.0049371757
147	0x3d8fdb03	0.07024195
148	0x3d19f76c	0.037589476
149	0xbd233164	-0.039842024
150	0xbd91db1c	-0.0712187
151	0xbca6bc75	-0.020353535
152	0x3e3a32fe	0.18183514
153	0x3a84c86b	0.001013053
154	0xbd9ad69f	-0.07560467
155	0xbe1082b8	-0.14112365
156	0xbcc5475a	-0.024081875
157	0xbd6be7bb	-0.057594042
158	0x3df5ad80	0.11995983
159	0x3d7efd6f	0.06225341
160	0xbc40873f	-0.011750995
161	0x3c6224b5	0.013802697
162	0x3dc12d76	0.09432499
163	0x3ccb1a7c	0.024792902
164	0xbbb3971c	-0.00548066
165	0xbd03129b	-0.032000165
166	0x3e04f2f2	0.12983301
167	0x3d40a446	0.047031663
168	0x392f6f05	0.00016730659
169	0x3e04a4d3	0.129535
170	0xbe444ee6	-0.19170722
171	0xbdfae94c	-0.12251529
172	0x3e3239d7	0.17404877
173	0x3d97b28c	0.07407102
174	0x3cecda52	0.028912697
175	0x3d878690	0.06617463
176	0x3d9a263c	0.07526824
177	0x3d622bbb	0.055217486
178	0x3ce8ee9e	0.028434094
179	0xbc5b302a	-0.013378182
180	0xbd2c214d	-0.042023946
181	0xbe21f581	-0.15816309
182	0x3de44529	0.11146004
183	0x3ce82219	0.028336572
184	0xbddb1547	-0.10697418
185	0xbe4aed3e	-0.19817063
186	0xbdf841cb	-0.12121924
187	0x3daa8d06	0.08327679
188	0xbe3c02f8	-0.18360507
189	0xbd095259	-0.0335258
190	0x3d78f191	0.06077725
191	0x3c6d910d	0.014499915
192	0x3d71fe6b	0.059080523
193	0xbd183c9c	-0.037167177
194	0x3d1cb1c3	0.038255464
195	0xbd516cb9	-0.051129077
196	0xbcc243de	-0.023714002
197	0xbddc3809	-0.10752875
198	0xbd9692e9	-0.0735224
199	0x3d9bd85a	0.07609625
200	0x3bd81150	0.0065938607
201	0xbd94ee19	-0.07271976
202	0xbe158642	-0.14601997
203	0x3dc51164	0.096224576
204	0xbe19a8ab	-0.15005748
205	0x3e4e3422	0.20137075
206	0xbdd92d40	-0.10604334
207	0x3d72fe27	0.05932441
208	0x3da11081	0.07864476
209	0xbe1a7992	-0.15085438
210	0x3df3fcba	0.11913438
211	0x3c333551	0.010938005
212	0xbd8cdc92	-0.06878008
213	0x3d6b3eb0	0.05743283
214	0x3da0c11e	0.07849334
215	0x3bad5279	0.0052893725
216	0x3b3c3630	0.0028718822
217	0x3d2f82ca	0.04284934
218	0xbd6f2167	-0.058381464
219	0x3b6663d6	0.0035154722
220	0xbdd41223	-0.10355022
221	0xbcdc63dd	-0.026903087
222	0xbdda6f4d	-0.1066576
223	0x3d2456d7	0.04012188
224	0xbd377dee	-0.04479783
225	0xbdb87bb0	-0.090079665
226	0xbd811d35	-0.06304399
227	0x3df8ac95	0.121422924
228	0x3df4ee48	0.11959511
229	0x3c33a6ce	0.010965062
230	0xbb159f8e	-0.0022830698
231	0x3d0827a2	0.03324092
232	0x3b97c3d6	0.0046314998
233	0xbd1893aa	-0.0372502
234	0x3db1ae49	0.086758204
235	0xbda1fbe3	-0.07909372
236	0x3dad33f4	0.08457175
237	0xbd916137	-0.070986204
238	0xbce5eceb	-0.028067073
239	0x3d9bdb10	0.07610142
240	0xbe01289b	-0.12613146
241	0xbdfca64c	-0.12336406
242	0xbe03ff30	-0.12890315
243	0xbd4ae644	-0.049536005
244	0xbdb4d9cb	-0.08830603
245	0x3dd779b4	0.1052126
246	0x3b1075d5	0.002204289
247	0xbd4086cf	-0.047003563
248	0xbcec9b12	-0.028882537
249	0x3d7d5459	0.06184802
250	0x3e0492ea	0.12946668
251	0x3d2c6788	0.042090923
252	0x3cf8669b	0.030322364
253	0xbe3761e0	-0.1790843
254	0xbdd7ed7b	-0.10543343
255	0x3d4f069f	0.050543424

weight f4 [100]
0	0x3f74344a	0.95392287
1	0x3f80672b	1.0031484
2	0x3f8b2d50	1.0873203
3	0x3f78fb18	0.9725814
4	0x3f826b1f	1.0188941
5	0x3f7c70bb	0.98609513
6	0x3f80ca3d	1.0061718
7	0x3f799b10	0.9750223
8	0x3f7c8023	0.9863302
9	0x3f7f643f	0.9976234
10	0x3f816e08	1.0111704
11	0x3f7bb5fb	0.98324555
12	0x3f83c98d	1.0295883
13	0x3f8a4998	1.0803709
14	0x3f8535a0	1.040699
15	0x3f74c19f	0.9560794
16	0x3f80b944	1.0056539
17	0x3f807afc	1.0037532
18	0x3f83a88a	1.0285809
19	0x3f7b77d8	0.9822974
20	0x3f888ca6	1.0667922
21	0x3f8ac540	1.0841446
22	0x3f7d69be	0.98989475
23	0x3f7a347e	0.97736347
24	0x3f7e81c1	0.9941674
25	0x3f85d7e7	1.0456513
26	0x3f7b6efd	0.9821623
27	0x3f87f66e	1.0622079
28	0x3f812706	1.0090034
29	0x3f80ecd9	1.007228
30	0x3f820792	1.015856
31	0x3f827db5	1.0194613
32	0x3f78b252	0.97147095
33	0x3f785944	0.9701121
34	0x3f89799e	1.074024
35	0x3f8762d6	1.0577037
36	0x3f80ba4f	1.0056857
37	0x3f7922ad	0.97318536
38	0x3f7bbfd6	0.98339593
39	0x3f818d53	1.0121254
40	0x3f7fa19e	0.99855983
41	0x3f79247d	0.973213
42	0x3f7de5c2	0.9917871
43	0x3f83195b	1.0242113
44	0x3f81076e	1.0080392
45	0x3f88d6f4	1.0690598
46	0x3f798e8d	0.9748314
47	0x3f8d7e4f	1.1054171
48	0x3f86da11	1.0535299
49	0x3f7b65b5	0.9820207
50	0x3f82da83	1.0222934
51	0x3f8bd753	1.0925087
52	0x3f874b1a	1.0569794
53	0x3f73478e	0.9503106
54	0x3f79e3ee	0.9761342
55	0x3f7a9086	0.97876775
56	0x3f82d6b2	1.022177
57	0x3f856243	1.0420612
58	0x3f866a43	1.0501179
59	0x3f82b6c6	1.0212028
60	0x3f805ee8	1.0028963
61	0x3f896910	1.0735188
62	0x3f83862f	1.0275325
63	0x3f82d13d	1.0220104
64	0x3f7db2ed	0.99101144
65	0x3f8569c2	1.04229
66	0x3f7ce1f7	0.98782295
67	0x3f8634a9	1.0484821
68	0x3f8197bc	1.0124431
69	0x3f890e77	1.0707539
70	0x3f7471c5	0.954861
71	0x3f84b4f2	1.036772
72	0x3f7bb371	0.9832068
73	0x3f71fe26	0.94528425
74	0x3f871493	1.0553154
75	0x3f840657	1.0314435
76	0x3f8b600f	1.088869
77	0x3f777695	0.96665317
78	0x3f80d101	1.0063783
79	0x3f80e391	1.0069448
80	0x3f875c35	1.0575014
81	0x3f81a819	1.0129424
82	0x3f7fe23a	0.9995457
83	0x3f7d8183	0.99025744
84	0x3f7e59b3	0.9935562
85	0x3f81f313	1.0152305
86	0x3f78211c	0.9692552
87	0x3f7cdb8c	0.987725
88	0x3f82b106	1.0210273
89	0x3f762249	0.96146065
90	0x3f805142	1.0024798
91	0x3f7a8f91	0.97875315
92	0x3f7fc191	0.99904734
93	0x3f85620a	1.0420544
94	0x3f7aab30	0.9791746
95	0x3f723158	0.9460654
96	0x3f8033d1	1.0015813
97	0x3f781b27	0.9691643
98	0x3f794d5a	0.97383654
99	0x3f80d7e3	1.0065883

bias f4 [100]
0	0xbdb8dbbe	-0.090262875
1	0xbb848978	-0.004044708
2	0xbd052644	-0.032507196
3	0xbbf5f8cd	-0.007506466
4	0xbd661eba	-0.056181647
5	0x3cf7d8b3	0.030254697
6	0xbd0a6f4f	-0.03379756
7	0xbbf0366b	-0.007330706
8	0xbd88d11a	-0.06680508
9	0xbb9fe472	-0.0048795277
10	0xbc7af57b	-0.015317316
11	0x3c259f6b	0.010108809
12	0xbd54a029	-0.051910553
13	0x3c558359	0.013031804
14	0x3d5d2fa4	0.05400051
15	0x3c60b9b9	0.013716155
16	0xbd6798c7	-0.056542184
17	0x3d0dd8e7	0.034630682
18	0x3dad1882	0.0845194
19	0xbd0db532	-0.03459663
20	0x3d819782	0.06327726
21	0x3dd2bfb2	0.10290469
22	0x3d83408a	0.06408794
23	0xbc1721b5	-0.009224345
24	0x3d800f47	0.06252914
25	0xbd0799d0	-0.03310567
26	0x3b4d84e2	0.0031359722
27	0x3d8e4592	0.06946863
28	0x3cc61035	0.02417765
29	0xbd3ca268	-0.04605332
30	0xbd865ea0	-0.06561017
31	0x3c0c1621	0.008550198
32	0xbd431847	-0.047630575
33	0xbd10f76c	-0.03539221
34	0xbd8294e3	-0.06376054
35	0x3bac33d7	0.005255203
36	0xbd67862a	-0.056524433
37	0x3ce64611	0.028109582
38	0x3c82b137	0.015953643
39	0x3c88c5b0	0.016695827
40	0x3c3ee435	0.0116510885
41	0x3d185c19	0.037197206
42	0x3c62f08a	0.013851294
43	0x3cafc89d	0.021457965
44	0x3d0d691e	0.034524076
45	0xbd2fd5ce	-0.04292851
46	0xbd281290	-0.041033328
47	0xbcdc5fbe	-0.026901122
48	0xbd7c96a9	-0.06166712
49	0xbcf07350	-0.02935186
50	0xbc7015db	-0.014653648
51	0x3d2e5b88	0.04256776
52	0xbc69d531	-0.01427202
53	0xbce4838c	-0.027894758
54	0x3d6298c1	0.05532146
55	0x3d520ac5	0.051279802
56	0x3d0a934e	0.033831887
57	0xbd20fb61	-0.039302234
58	0x3ca244e9	0.01980825
59	0xbbda5621	-0.0066630994
60	0xbd852dd7	-0.06502884
61	0x3cc5c5ed	0.02414223
62	0xbd6ec468	-0.058292776
63	0x3c709143	0.014683071
64	0xbd64067d	-0.05567025
65	0x3d277a40	0.04088807
66	0x3ce44707	0.0278659
67	0xbd712f89	-0.058883224
68	0xbb958c12	-0.004563817
69	0x3d286624	0.041113034
70	0x3d59852a	0.05310551
71	0x3d8ae72c	0.06782374
72	0x3d2fdeb7	0.042937007
73	0x3d41554c	0.047200486
74	0x3d7ddebc	0.061979994
75	0xbd69267b	-0.056921463
76	0xbcae73ec	-0.02129551
77	0xbceece25	-0.029151032
78	0x3d2bf90e	0.041985564
79	0xbcc10e7b	-0.023566475
80	0xbd9e95f2	-0.077434435
81	0xbc772360	-0.015084118
82	0xbc64f4c9	-0.013974377
83	0xbc329d37	-0.010901741
84	0xbce685ff	-0.028140066
85	0xbdb54956	-0.08851878
86	0x3c088d81	0.008334518
87	0xbc4c3621	-0.012464077
88	0xbd02e97c	-0.03196095
89	0xbc89bd01	-0.016813757
90	0x3ca47315	0.020074407
91	0xbc5e7970	-0.013578758
92	0xbcf81ae1	-0.030286254
93	0x3d4d12a9	0.050066624
94	0x3da5123e	0.0806012
95	0x3c050d47	0.008120841
96	0x3cf1e7c5	0.029529462
97	0xbbba9976	-0.0056945635
98	0xbc06e398	-0.0082329735
99	0xbd1b2c78	-0.037884206

running_mean f4 [100]
0	0xbf724aa0	-0.9464512
1	0x3e95fc9f	0.29294297
2	0xbf098881	-0.53723913
3	0x3fb8a14d	1.4424225
4	0xbf6bc9bc	-0.921047
5	0x3e84fc14	0.2597357
6	0xbfd243f2	-1.6426985
7	0xbeea181d	-0.45721522
8	0xbf2d6b5d	-0.6774195
9	0xbe8576f0	-0.26067305
10	0xbf80aa93	-1.0052055
11	0x3f407d28	0.75190973
12	0xbf429100	-0.760025
13	0x3f0c258d	0.547448
14	0x3fb98100	1.4492493
15	0xbd96f476	-0.07370846
16	0xbea7f3b0	-0.32803106
17	0x3dd70078	0.10498136
18	0x3f6df458	0.92950964
19	0xbf9b751c	-1.2145114
20	0x3fa0b297	1.2554501
21	0x3e978c54	0.2959925
22	0xbda34b2a	-0.07973321
23	0x3e9a10b0	0.30090857
24	0x3fa03a7a	1.2517846
25	0xbf8d6b64	-1.1048398
26	0xbeb136cd	-0.34612122
27	0x3ef94d23	0.48691663
28	0x3c244ac9	0.010027596
29	0x3e8b0a5b	0.27156338
30	0xbe7cdda3	-0.24693923
31	0x3fc5b7b1	1.5446683
32	0xbe274b43	-0.16337304
33	0xbf03ca15	-0.5148023
34	0xbeef9de4	-0.46800148
35	0x3e99f042	0.30066115
36	0xbfaa9c4a	-1.3328946
37	0x3eb8df2e	0.36107773
38	0xbfc6ff0a	-1.5546582
39	0x3e4ee046	0.20202741
40	0x3e5690e0	0.20953703
41	0x3e9598e2	0.29218203
42	0xbe991b1a	-0.2990349
43	0x3fbc2deb	1.4701513
44	0x3f6a5671	0.9153815
45	0xbeaf7a66	-0.3427307
46	0xbf3fe6f1	-0.74961764
47	0xbf1c0440	-0.60943985
48	0xbf24ab77	-0.64324135
49	0xbf80279b	-1.0012087
50	0xbf8730cb	-1.0561765
51	0x3c0f99e9	0.008764722
52	0xbebe1ce0	-0.37131405
53	0x3d11ed1e	0.035626523
54	0x3f20c0ea	0.62794363
55	0x3f82ddce	1.022394
56	0x3fd946a0	1.6974678
57	0x3e8504ec	0.25980318
58	0xbe2db687	-0.1696416
59	0xbdf93bfe	-0.12169646
60	0xbf9be9fb	-1.218078
61	0x3f414e40	0.75510025
62	0xbf927302	-1.1441348
63	0xbf2ab67f	-0.66684717
64	0xbe1afe71	-0.15136124
65	0x3fbbe040	1.4677811
66	0x3ea927e2	0.3303824
67	0xbefd1fdb	-0.49438366
68	0xbf24f5ac	-0.64437366
69	0x3f7ef44c	0.9959152
70	0x3ef644ba	0.4809931
71	0xbde5aa18	-0.112140834
72	0x3e80dfa5	0.25170627
73	0x3faa1611	1.3287984
74	0x3ebf0534	0.37308657
75	0xbfc9ceb0	-1.5766201
76	0xbe80ef0f	-0.25182387
77	0x3f63af9e	0.88939846
78	0xbf1b12d6	-0.60575616
79	0xbfb202ac	-1.3907065
80	0xbf845ea0	-1.0341377
81	0x3ddb0f73	0.10696306
82	0xbf515904	-0.8177645
83	0xbfa61003	-1.2973636
84	0x3ec99ee1	0.39379027
85	0xbf82e27d	-1.0225369
86	0x3f08c4fe	0.53425586
87	0x3ed0226e	0.40651268
88	0x3f02e4eb	0.5113055
89	0xbea18089	-0.31543377
90	0x3fadb5e5	1.3571135
91	0xbeb36a15	-0.35041872
92	0xbdafb034	-0.0857853
93	0x3fc3d198	1.5298338
94	0x3e90e1ef	0.28297374
95	0x3f60f557	0.8787436
96	0x3f294852	0.6612598
97	0x3ca0b07a	0.0196154
98	0xbe198bfb	-0.14994805
99	0xbfe20f54	-1.7660928

running_var f4 [100]
0	0x40901142	4.5021067
1	0x4068c764	3.6371698
2	0x40bd4c51	5.915566
3	0x407e154b	3.9700496
4	0x40206abd	2.5065148
5	0x4056eda8	3.3582554
6	0x40b870dd	5.7637773
7	0x4068b446	3.636003
8	0x40816aab	4.044271
9	0x4072e056	3.7949424
10	0x40726c58	3.7878628
11	0x408096b9	4.018399
12	0x409419da	4.6281557
13	0x40e35125	7.1036553
14	0x407e195f	3.9702985
15	0x406ba0b8	3.6816845
16	0x40b2dfd3	5.5898223
17	0x40a45fc8	5.136692
18	0x40162f92	2.3466535
19	0x401beef5	2.4364598
20	0x407baa7d	3.9322808
21	0x409af568	4.842457
22	0x405d8639	3.4613173
23	0x403fe26b	2.9981945
24	0x40942b0e	4.6302557
25	0x408f6e2d	4.482199
26	0x407f3fcb	3.9882686
27	0x404259cc	3.0367308
28	0x4064cd74	3.5750399
29	0x400adc28	2.1696873
30	0x408af602	4.3425303
31	0x409fd932	4.995263
32	0x40670bf7	3.6101053
33	0x402caa3b	2.69789
34	0x409319a7	4.5968814
35	0x4062618f	3.5372045
36	0x40a65268	5.1975594
37	0x405d099d	3.4537117
38	0x409422ac	4.6292324
39	0x40807aa5	4.0149713
40	0x40c901a4	6.2814503
41	0x40241e76	2.5643592
42	0x4059a8ed	3.4009354
43	0x407a0bf8	3.9069805
44	0x409eae53	4.95878
45	0x40bd71ca	5.9201403
46	0x405d9e40	3.4627838
47	0x4043933e	3.055862
48	0x409674b7	4.7017474
49	0x40a386d6	5.1102095
50	0x3ff85861	1.9401971
51	0x406acc06	3.6687026
52	0x405ca098	3.4473019
53	0x406d20fd	3.7051384
54	0x40a0f393	5.029733
55	0x40571415	3.3606007
56	0x404beff5	3.1865208
57	0x4013d7c5	2.3100445
58	0x3fff7489	1.9957439
59	0x40b54137	5.664211
60	0x3fce0feb	1.6098608
61	0x411b8150	9.71907
62	0x403abf01	2.917908
63	0x4073876f	3.8051412
64	0x3fee4e0c	1.8617568
65	0x405703aa	3.3595986
66	0x4089a003	4.3007827
67	0x4008d93a	2.1382585
68	0x409712df	4.7210536
69	0x40352288	2.8302326
70	0x409d1dce	4.9098883
71	0x40b8b4e6	5.7720823
72	0x407a26b9	3.9086134
73	0x4046105f	3.0947492
74	0x40a9b040	5.302765
75	0x40873ea3	4.226396
76	0x407ee47d	3.9826958
77	0x409704e6	4.719348
78	0x404b0779	3.172331
79	0x3fb23f9f	1.3925666
80	0x40ef22fb	7.47302
81	0x409b86f9	4.860226
82	0x409356de	4.604354
83	0x40897314	4.2952976
84	0x402dbcfc	2.7146597
85	0x40e5776f	7.1708293
86	0x40b8bf0f	5.7733226
87	0x408514ce	4.1587896
88	0x40d07e76	6.515437
89	0x4050953f	3.2591093
90	0x405d4568	3.4573612
91	0x40b70714	5.719614
92	0x401c4b65	2.4421017
93	0x40626c36	3.5378547
94	0x405305bd	3.2972252
95	0x415041f8	13.016106
96	0x4020610c	2.5059233
97	0x403d55f2	2.9583707
98	0x4096bddd	4.7106767
99	0x40b50219	5.656506
