transformer_results_random_no_constants_no_param_tune/performance_prediction/PSO1-PSO2-PSO3-PSO4-PSO5-PSO6-PSO7-PSO8-PSO9-PSO10-PSO11-PSO12_random_no_constants_dim_3_samples_50_fold_0_budget_10_n_heads_2_n_layers_1_d_model_100_d_k_30_d_v_30_aggregations_mean/trained_model.pt (torch, 343801 bytes, 22 tensors)

weight f4 [100, 4]
0	0x3eccbfde	0.39990133
1	0xbeb57401	-0.35440066
2	0x3eddd789	0.43328503
3	0x3e36c96c	0.17850274
4	0x3ea53020	0.3226328
5	0x3cb4cf44	0.022071488
6	0x3e3b0509	0.1826364
7	0xbe024510	-0.12721658
8	0x3ec18187	0.37794134
9	0x3d3005bf	0.04297423
10	0xbe72e755	-0.23721059
11	0x3e9d3fd4	0.3071276
12	0xbe470e0c	-0.19438952
13	0xbd3a8361	-0.04553545
14	0xbe30da7b	-0.17270844
15	0x3f07ad5d	0.52998906
16	0xbec394f6	-0.38199586
17	0xbe37cf9e	-0.17950293
18	0xbe09a490	-0.13441682
19	0xbeeb5c79	-0.4596899
20	0x3cfa6466	0.030565452
21	0xbee42841	-0.4456196
22	0x3ed6f756	0.41985577
23	0xbf149554	-0.58040357
24	0x3ec697b1	0.38787606
25	0x3dc5e383	0.09662535
26	0xbe196827	-0.14981137
27	0x3edfc0b7	0.43701717
28	0x3d48b709	0.04900268
29	0x3eb1fc0c	0.3476261
30	0x3d29a13d	0.041413534
31	0xbe8d424c	-0.27589643
32	0x3df7920f	0.12088405
33	0xbe0260c0	-0.1273222
34	0x3e3c6ec1	0.18401624
35	0x3f1ee515	0.620683
36	0x3e7be624	0.2459951
37	0xbe71d2bd	-0.23615547
38	0x3e768184	0.24072844
39	0x3dd5e06b	0.10443195
40	0x3e79ea49	0.24405779
41	0xbe5de71e	-0.21670195
42	0xbedad994	-0.42744124
43	0xbe6fa446	-0.23402509
44	0xbeaff228	-0.34364438
45	0x3e9d0852	0.3067041
46	0x3dfc7dad	0.12328658
47	0x3ec900d7	0.39258453
48	0x3e024095	0.12719949
49	0xbc27fb26	-0.01025275
50	0x3ebc26c2	0.3674832
51	0xbf08eb5b	-0.53484124
52	0x3c43ff0d	0.011962664
53	0xbea4ff3a	-0.32225972
54	0x3df9f9df	0.12205862
55	0xbe925386	-0.28579348
56	0x3e03a9a9	0.12857689
57	0xbdd3da20	-0.103443384
58	0x3ecf5c62	0.4050017
59	0xbeebf399	-0.46084288
60	0xbe8c6c3c	-0.27426326
61	0xbe8e6cbe	-0.2781734
62	0x3ed56eed	0.41686192
63	0x3ebc28de	0.3674993
64	0x3ee8c1b5	0.45460287
65	0xbebd767e	-0.37004465
66	0xbef066dc	-0.46953475
67	0xbf0fbec0	-0.56150436
68	0xbea35fcc	-0.31909025
69	0x3e3d964e	0.18514368
70	0x3e31733b	0.17329113
71	0x3f18cd5c	0.59688354
72	0xbe6e25e9	-0.23256649
73	0xbe98e314	-0.29860747
74	0x3e7c64c6	0.24647817
75	0xbeac209b	-0.33618626
76	0x3e880f3e	0.2657413
77	0xbde47181	-0.11154462
78	0x3e896557	0.2683513
79	0xbf0f512b	-0.5598323
80	0xbe5b3882	-0.21408275
81	0x3e0ebd3d	0.13939376
82	0x3dc76d1c	0.09737608
83	0xbe85d393	-0.2613798
84	0x3e914615	0.2837378
85	0x3ea53440	0.32266426
86	0xbeb385c6	-0.35063
87	0xbeda089f	-0.42584702
88	0x3ed7df8e	0.42162746
89	0xbe22a307	-0.15882502
90	0xbe39d6fe	-0.1814842
91	0xbf341209	-0.7034002
92	0xbe89e1a9	-0.26929978
93	0x3dd4a678	0.10383314
94	0xbd851dbd	-0.06499813
95	0xbef41f28	-0.4768002
96	0x3cddb9e5	0.02706618
97	0xbe9d29f6	-0.30696076
98	0xbeca7968	-0.3954575
99	0xbea210d7	-0.31653473
100	0xbec550e2	-0.3853827
101	0xbe8e15bf	-0.27750966
102	0x3eea4c18	0.4576118
103	0x3d9e3633	0.077251814
104	0x3e10f575	0.14156134
105	0xbed99242	-0.42494398
106	0xbea38bda	-0.31942636
107	0xbea5042f	-0.32229754
108	0x3db8a6bd	0.09016178
109	0xbeab8c45	-0.33505455
110	0xbe3a87a7	-0.1821581
111	0xbec0b6a7	-0.37639353
112	0xbc2ba192	-0.010475533
113	0xbe370e68	-0.1787659
114	0xbd7663fa	-0.06015394
115	0xbecc9bb5	-0.39962545
116	0xbeadf7d6	-0.33978146
117	0xbe8737a0	-0.26409626
118	0xbe2d052b	-0.16896503
119	0xbf01a15f	-0.5063686
120	0x3ec3043d	0.3808917
121	0xbe03ed80	-0.12883568
122	0x3ec8d7b0	0.39227057
123	0x3e17e899	0.14834823
124	0xbeca79a2	-0.39545923
125	0x3eaee055	0.34155527
126	0xbe03e005	-0.12878425
127	0xbe8f292c	-0.279611
128	0xbec71672	-0.38884312
129	0xbeed88fe	-0.4639358
130	0x3e0546cb	0.13015287
131	0xbe34fa1b	-0.17673533
132	0x3e22ed5a	0.15910855
133	0xbeaf526f	-0.3424258
134	0x3eac543d	0.3365802
135	0xbf1805e8	-0.5938401
136	0xbd7e1cb7	-0.062039103
137	0x3d94fa19	0.07274265
138	0x3e66cb4d	0.2253849
139	0x3f136f16	0.5759138
140	0x3ecbbcb6	0.39792413
141	0xbea13d61	-0.3149214
142	0x3e193c57	0.14964424
143	0xbea017bd	-0.3126811
144	0xbd3a7315	-0.045519907
145	0xbe9da5aa	-0.30790454
146	0x3ed98d72	0.42490727
147	0xbf07e482	-0.5308305
148	0x3e432283	0.19056134
149	0x3e12eef9	0.14348973
150	0x3e1c3bc2	0.15257171
151	0xbf01dfad	-0.5073193
152	0x3ed5db82	0.41769034
153	0x3de23a02	0.1104622
154	0x3d550a9a	0.052012064
155	0xbf216671	-0.6304694
156	0x3e44941d	0.19197126
157	0xbd927b3e	-0.07152413
158	0xbe5a873c	-0.2134065
159	0x3f218b94	0.63103604
160	0x3dffbff5	0.12487785
161	0xbe5e92aa	-0.21735635
162	0xbe6485a9	-0.22316612
163	0x3dbc210d	0.091859914
164	0x3e719040	0.23590183
165	0xbdd0f9f1	-0.102039225
166	0xbe87ee89	-0.26549175
167	0xbe953840	-0.29144478
168	0xbec143af	-0.3774695
169	0x3e327c0d	0.17430134
170	0x3ec7b768	0.39007115
171	0xbf3522d8	-0.7075629
172	0x3db82b52	0.08992638
173	0x3e485d80	0.19566917
174	0x3d839b1b	0.064260684
175	0xbec19bb6	-0.3781411
176	0x3e601f3e	0.21886918
177	0x3e5198ec	0.20468491
178	0x3e1e8cae	0.15483353
179	0xbe763cdc	-0.24046654
180	0xbdc3cad9	-0.095601745
181	0x3d8bf9e3	0.068347715
182	0xbd5bbc8e	-0.053646617
183	0xbe9043e3	-0.28176793
184	0x3e93899b	0.28815922
185	0x3ec46659	0.38359335
186	0xbd6f841c	-0.0584756
187	0xbe35fd99	-0.17772521
188	0x3ba4aa0a	0.005025153
189	0xbcde3532	-0.027124975
190	0x3dd5164a	0.10404642
191	0x3e646a0b	0.22306077
192	0xbece6539	-0.40311602
193	0xbe3e75e3	-0.18599658
194	0x3ebceeee	0.3690104
195	0x3ebac02d	0.36474743
196	0xbd05e978	-0.032693356
197	0xbe882170	-0.2658801
198	0xbe99aa8a	-0.30012923
199	0xbf135545	-0.57551986
200	0xbe1e36a2	-0.15450528
201	0x3e05207c	0.13000673
202	0x3e929732	0.28630978
203	0x3ecff862	0.4061919
204	0xbed79837	-0.42108318
205	0xbe9525c0	-0.29130363
206	0xbd9891dc	-0.074496955
207	0x3f2db789	0.6785818
208	0x3d16c362	0.036807425
209	0xbe01036f	-0.12598966
210	0x3e238818	0.15969884
211	0xbeaaca7d	-0.3335761
212	0xbea9be6b	-0.3315309
213	0x3eb8f4c8	0.36124253
214	0xbe412ad0	-0.18863988
215	0xbe822fed	-0.2542719
216	0xbeee388e	-0.46527523
217	0x3e8302f4	0.2558819
218	0x3eb8b82e	0.36078018
219	0x3e92ca97	0.2867019
220	0xbeab5ca1	-0.33469108
221	0xbef07754	-0.4696604
222	0xbec49e0c	-0.3840183
223	0x3f17eb60	0.5934353
224	0x3e4987f3	0.19680767
225	0x3eae2c78	0.34018302
226	0x3e6a3a39	0.22873773
227	0x3dea3e31	0.11437643
228	0xbca585b3	-0.020205354
229	0xbeba7c57	-0.3642299
230	0xbed50805	-0.4160768
231	0xbf13b56f	-0.5769872
232	0x3e3ff0da	0.18744221
233	0xbe64c0d7	-0.22339188
234	0xbdd627af	-0.10456788
235	0xbee38b71	-0.44442323
236	0xbd19f793	-0.03758962
237	0xbe9f6d30	-0.3113799
238	0xbe987a11	-0.2978063
239	0x3ebb54cd	0.36588135
240	0xbe157ad0	-0.1459763
241	0x3ea58591	0.32328466
242	0xbe0a9322	-0.13532689
243	0xbf069633	-0.52572936
244	0xbdcb0dec	-0.09914765
245	0xbe5e0309	-0.21680845
246	0xbe22a089	-0.15881552
247	0xbf1e5876	-0.6185373
248	0x3e917eed	0.2841715
249	0xbea3cd40	-0.3199253
250	0x3e83992e	0.25702804
251	0x3ea460fd	0.32105246
252	0x3ea4f946	0.3222143
253	0xbeb9d7e7	-0.36297533
254	0x3ea8d5d6	0.32975644
255	0xbed44d2d	-0.4146513

bias f4 [100]
0	0xbe812e38	-0.25230575
1	0x3e31bc2c	0.17356938
2	0xbe340418	-0.17579687
3	0xbe7b1736	-0.24520573
4	0x3f0a7778	0.54088545
5	0x3e51b7c3	0.20480256
6	0x3eb06d66	0.34458464
7	0xbe6ce661	-0.23134758
8	0xbe78c021	-0.24292041
9	0x3e3c77f3	0.18405132
10	0xbe9f0bb7	-0.31063625
11	0xbee3583d	-0.44403258
12	0xbc3ce742	-0.0115297455
13	0xbe70dda1	-0.23522045
14	0xbec44e5b	-0.3834103
15	0x3e7104ba	0.2353696
16	0x3edbb934	0.42914736
17	0x3d6c272c	0.057654545
18	0xbd6e35c7	-0.058156755
19	0xbeebc5ef	-0.4604945
20	0xbe2e4b31	-0.17020871
21	0x3e0acfeb	0.13555877
22	0x3e76b86a	0.24093786
23	0xbd614855	-0.05500062
24	0xbe4bde2d	-0.19908972
25	0x3e9bbc72	0.3041721
26	0xbeb842d7	-0.35988495
27	0x3ebc116e	0.36732048
28	0xbe4cc89b	-0.199984
29	0x3c18ea8a	0.009333262
30	0xbe0d2aa6	-0.137858
31	0x3de9912c	0.114046425
32	0xbe55d4cd	-0.20881958
33	0x3edf67a2	0.43633753
34	0xbd1a9ee6	-0.037749194
35	0x3ed604f0	0.41800642
36	0x3f10a53c	0.5650213
37	0xbe588a13	-0.21146421
38	0xbead9686	-0.33903903
39	0x3ec72e2b	0.3890241
40	0x3ed0f505	0.40811935
41	0xbec696cb	-0.3878692
42	0xbc2a3fd2	-0.0103911925
43	0xbf031bc9	-0.5121427
44	0xbed54b2e	-0.4165892
45	0x3deaab5f	0.11458468
46	0x3e0953eb	0.13410918
47	0x3d9cbabb	0.076528035
48	0xbdfe80b0	-0.12426889
49	0x3efb2dcd	0.4905838
50	0x3d67a082	0.056549557
51	0xbea22b02	-0.31673437
52	0xbd121b3c	-0.035670504
53	0x3e2d71ea	0.16937986
54	0x3e04ef44	0.12981898
55	0xbecdcf6d	-0.40197316
56	0x3e01fcc3	0.12694077
57	0xbe80c344	-0.25148976
58	0xbed6e170	-0.4196887
59	0xbe849061	-0.25891402
60	0x3f02e26a	0.5112673
61	0x3ee0cf4a	0.4390815
62	0x3ee5c7db	0.4487904
63	0x3e6bbf42	0.23022178
64	0x3ec6ba79	0.38814142
65	0xbd6d9df1	-0.058011953
66	0xbe7e2786	-0.24819764
67	0x3e8c947d	0.27457038
68	0xbe87bb45	-0.26510063
69	0xbeb9c87d	-0.36285773
70	0xbe465482	-0.19368175
71	0x3dd5e333	0.104437254
72	0x3e9e98c3	0.30975923
73	0xbe41106e	-0.18853924
74	0xbeafad25	-0.34311786
75	0x3d8df99e	0.06932376
76	0xbea3220f	-0.31861922
77	0xbeb482fd	-0.35256186
78	0x3e8808d8	0.26569247
79	0xbda066e7	-0.07832127
80	0x3ef58e21	0.47959998
81	0x3f06807f	0.5253982
82	0x3e57ed45	0.21086605
83	0x3e3b4495	0.1828788
84	0x3e09afe0	0.13445997
85	0xbcc6c18a	-0.024262208
86	0xbd55fba2	-0.05224193
87	0xbc22cae3	-0.009936067
88	0x3ddfcba0	0.1092751
89	0x3efae175	0.49000135
90	0xbdf8febc	-0.12157962
91	0xbe581630	-0.21102214
92	0xbddee72d	-0.10883937
93	0xbe8d9aa6	-0.2765705
94	0x3e25b97d	0.1618404
95	0x3ed1908a	0.40930587
96	0x3ec9589a	0.3932541
97	0x3e78be18	0.24291265
98	0xbeb7cfd7	-0.35900757
99	0xbe6e5c16	-0.23277315

weight f4 [60, 100]
0	0xbcd046f8	-0.025424466
1	0xbc649933	-0.013952541
2	0x3ca038a1	0.019558253
3	0xbdae55eb	-0.08512481
4	0x3c4d65b2	0.012536453
5	0xbddd597c	-0.108080834
6	0xbd343ee8	-0.044005305
7	0xbd9c6840	-0.076370716
8	0x3dc4d325	0.09610585
9	0xbdc96d18	-0.09835261
10	0x3d76ae44	0.060224786
11	0x3c62b536	0.013837149
12	0xbcac9232	-0.021065805
13	0x3ceb15be	0.02869689
14	0xbcbad42b	-0.022806248
15	0x3d4ca800	0.049964905
16	0x3d5d5e89	0.054045234
17	0xbd8c5acb	-0.06853255
18	0x3be06714	0.0068482254
19	0x3bd43fb9	0.006477323
20	0x3cad0eaa	0.021125156
21	0x3d085cc9	0.03329161
22	0x3c813602	0.015772823
23	0xbd6234b1	-0.05522603
24	0xbd0d4c99	-0.034496877
25	0x3da0cbad	0.07851348
26	0x3d41f65b	0.047354084
27	0xbd007e22	-0.03137029
28	0xbe070017	-0.13183628
29	0xbca31303	-0.019906526
30	0xbd805842	-0.06266834
31	0x3dafa1d0	0.08575785
32	0xbdab2f6c	-0.083586544
33	0xbce3e0b4	-0.027817108
34	0x3aa1fc13	0.0012358449
35	0x3bd0ff46	0.006378087
36	0x3d8bf36f	0.06833541
37	0x3c1a9433	0.0094347475
38	0x3d5ba7f6	0.053626977
39	0x3dc74628	0.09730178
40	0x3d8f239b	0.06989213
41	0xbd2f4475	-0.042789895
42	0xbd0679d4	-0.032831028
43	0x3d3bd6e3	0.04585923
44	0xbca391a8	-0.019966915
45	0x3d3cab31	0.0460617
46	0xbbbe54e1	-0.005808458
47	0xbd73b98a	-0.059503116
48	0x3ce5188c	0.027965806
49	0xbc458253	-0.0120549975
50	0x3d783020	0.06059277
51	0x3dc4be77	0.09606641
52	0x3d3d4b38	0.046214312
53	0x3dd29cb1	0.10283793
54	0x3c835be0	0.01603502
55	0xbdb89c9c	-0.09014246
56	0xbd5daea3	-0.054121625
57	0xbdb66d8e	-0.08907615
58	0xbddf21c1	-0.1089511
59	0xbd675755	-0.05647977
60	0xbda476da	-0.08030482
61	0xbdfcdd6c	-0.1234692
62	0xbd7eec20	-0.062236905
63	0xbdd8027e	-0.1054735
64	0xbd0e6534	-0.034764484
65	0xbb998065	-0.0046844953
66	0x3db76d4a	0.08956392
67	0xbd30e5a3	-0.04318775
68	0xbd72b0ba	-0.05925057
69	0x3d64c6e9	0.055853758
70	0xbd47d10a	-0.04878334
71	0xbd9d018f	-0.07666313
72	0x3d477f54	0.048705414
73	0xbdddcf61	-0.1083057
74	0x3cdff991	0.027340682
75	0x3dc57cc4	0.09642938
76	0x3cd771f3	0.026299452
77	0x3d446d05	0.04795553
78	0xbd7c5e24	-0.061613217
79	0xbcdac81c	-0.026706748
80	0xbb275636	-0.0025533563
81	0xbc051a25	-0.008123909
82	0x3d68ba66	0.05681839
83	0x3d80b4b2	0.06284465
84	0xbdcc3b9c	-0.09972307
85	0x3bd4c6e2	0.0064934352
86	0xbd05ab8b	-0.0326343
87	0xbd7ba0af	-0.061432537
88	0xbc7c549a	-0.01540103
89	0xbdb5a64f	-0.088696115
90	0x3d916fa7	0.07101374
91	0x3ad9629b	0.0016585173
92	0xbd702c57	-0.058636036
93	0x3d40e9f0	0.0470981
94	0xbd996801	-0.0749054
95	0xbd2d8fd8	-0.04237351
96	0xbc7f72d2	-0.01559134
97	0xbdc28cb4	-0.09499493
98	0xbd459e2d	-0.04824655
99	0xbd09e8c2	-0.03366924
100	0x3dc461ca	0.09588964
101	0x3dcf9134	0.10135117
102	0x3d6088e6	0.054818057
103	0xbd8a28c1	-0.067460544
104	0xbd63f69e	-0.055655114
105	0x3dff30d6	0.124604866
106	0x3c034e41	0.008014263
107	0x3c13cbfc	0.009020802
108	0x3cb4a301	0.022050383
109	0xbd8b7231	-0.0680889
110	0xbca3137d	-0.019906754
111	0x3dba9871	0.09111107
112	0xbbaaa8c3	-0.0052081062
113	0x3d1dcc3b	0.038524847
114	0xbd57f3ba	-0.05272267
115	0xbd3e692f	-0.04648703
116	0x3b88770a	0.004164581
117	0xbd9e2c26	-0.077232644
118	0x3cbe3989	0.023220794
119	0x3d8c416e	0.06848417
120	0xbdb12647	-0.08649879
121	0x3ba9aa39	0.005177763
122	0xbd8906d5	-0.06690756
123	0xbd30a4a3	-0.04312576
124	0x3d5f2239	0.054475997
125	0x3dbe1297	0.092808895
126	0xbbf1481f	-0.007363334
127	0xbcc949dc	-0.024571352
128	0xbd53ebd2	-0.051738568
129	0xbd0b246c	-0.03397028
130	0xbda0edc5	-0.07857851
131	0xbd29d4a4	-0.041462556
132	0x3d24204e	0.04006987
133	0xbd936c73	-0.071984194
134	0x3d99ded2	0.07513203
135	0x3d91f929	0.07127602
136	0xbd9d4125	-0.07678441
137	0xbd0cdf3d	-0.034392584
138	0x3d4e0603	0.050298702
139	0xbd690c8e	-0.05689674
140	0xbc4d0bd2	-0.012515025
141	0xbcfa75bc	-0.030573718
142	0x3dbdee99	0.092740245
143	0xbd16e55e	-0.036839835
144	0x3db8195d	0.08989213
145	0xbbd05180	-0.006357372
146	0x3c1d5c0b	0.009604464
147	0x3d8598ec	0.06523308
148	0x3b84e148	0.004055176
149	0xbd3a001d	-0.045410264
150	0xbccc635e	-0.024949726
151	0x3d9fee93	0.07809176
152	0xbd18d2b5	-0.03731032
153	0xbb17e455	-0.0023176868
154	0xbde068c5	-0.10957483
155	0x3d4d1d97	0.050077047
156	0x3cc70b5b	0.024297407
157	0x3ccaa9f5	0.024739245
158	0x3d9b44d4	0.07581487
159	0x3ad3e039	0.0016164846
160	0x3ce95644	0.028483517
161	0xbd883b92	-0.06651987
162	0xbca26d3d	-0.01982748
163	0x3d7432b1	0.059618656
164	0x3d96c0c3	0.07360985
165	0x3dc1496b	0.094378315
166	0xbd886c86	-0.06661324
167	0x3d9e41d2	0.07727398
168	0x3bc726bc	0.0060776155
169	0xbceeaa7f	-0.029134033
170	0xbd9fd1a3	-0.07803657
171	0x3bca0500	0.006165147
172	0x3d932321	0.07184435
173	0x3d1463d2	0.03622801
174	0xbd93b4f7	-0.07212251
175	0x3ceda895	0.02901105
176	0xbd06abf8	-0.032878846
177	0x3d9e3a83	0.07726004
178	0xbdb41d57	-0.08794659
179	0xbc4de02a	-0.012565652
180	0xbdc95804	-0.09831241
181	0xbc9b4164	-0.01895208
182	0xbc1a12a3	-0.009403857
183	0x3dd2f7b6	0.10301153
184	0x3d36004b	0.044433873
185	0x3dbe52fa	0.0929317
186	0xbbd31419	-0.006441605
187	0x3d227734	0.039664462
188	0x3d99be31	0.07506979
189	0x3d9eabcc	0.077476114
190	0xbd3cb189	-0.04606775
191	0x3dc6f471	0.09714592
192	0x3d9bbd07	0.076044135
193	0xbce6e1dd	-0.028183872
194	0xbdaaeda6	-0.08346109
195	0xbdc59f92	-0.09649576
196	0x3cbcf167	0.023064328
197	0xbdab5ddc	-0.08367512
198	0x3d28ee23	0.04124273
199	0x3d360123	0.044434678
200	0xbdc3b307	-0.09555631
201	0x3cfc4e7a	0.03079914
202	0xbca2d431	-0.019876571
203	0x3cb5f9d5	0.022213856
204	0x3db0ed89	0.08639056
205	0xbda917f1	-0.082565196
206	0x3db48f9a	0.08816452
207	0x3dc539e1	0.0963018
208	0xbadf1638	-0.0017020172
209	0xbdb6d196	-0.08926694
210	0xbd0d08ae	-0.034432106
211	0xbd352b58	-0.04423079
212	0xbc224fd7	-0.009906731
213	0x3d433baf	0.04766434
214	0x3d352c6f	0.04423183
215	0x3d95ae1f	0.073086016
216	0xbc995058	-0.018715069
217	0x3cb4c121	0.022064747
218	0x3d15711b	0.03648482
219	0xbd993912	-0.074815884
220	0xbdbb4635	-0.0914425
221	0xbcf7df6c	-0.030257903
222	0x3db5470c	0.08851442
223	0xbd9a9d97	-0.07549589
224	0xbd9d4d3c	-0.07680747
225	0x3d629744	0.05532004
226	0x3d41e5e0	0.047338367
227	0x3dd3ff6f	0.103514545
228	0xbd8dbdc4	-0.069209605
229	0xbd50535b	-0.050860744
230	0x3d26c7bb	0.04071782
231	0x3dcb89c9	0.0993839
232	0x3d5bbd6f	0.053647455
233	0x3d16d6e1	0.03682602
234	0x3b5dd74f	0.0033850258
235	0x3de11f46	0.10992293
236	0xbd2a0470	-0.04150814
237	0xbd1274b6	-0.035755835
238	0x3da3783e	0.07981919
239	0xbdadb083	-0.084809326
240	0xbd335719	-0.043784235
241	0x3d881389	0.06644351
242	0x3d4ced07	0.050030734
243	0x3d239d9d	0.039945234
244	0xbd3060a1	-0.043060903
245	0x3cb621b4	0.022232868
246	0x3dd1f596	0.1025192
247	0xbd92a963	-0.07161214
248	0xbc57ca21	-0.01317075
249	0x3da363fb	0.07978054
250	0xbda7131c	-0.08157942
251	0x3d98cba8	0.07460719
252	0xbd128861	-0.035774592
253	0xbc40fad6	-0.011778554
254	0xbcdb44d8	-0.026766226
255	0xbda948f5	-0.082658686

weight f4 [60, 100]
0	0xbd0d9cfe	-0.034573548
1	0xbc35d6ee	-0.0110986065
2	0x3c918268	0.017762378
3	0x3d96764d	0.07346783
4	0xbd671f8e	-0.056426577
5	0xbd8551e9	-0.06509764
6	0x3d5773ba	0.0526006
7	0xbd1ac1bf	-0.037782427
8	0xbdacc70e	-0.08436404
9	0x3d62ee70	0.055403173
10	0xbc0fcaf8	-0.008776419
11	0x3d17e49b	0.03708325
12	0xbcb3d745	-0.021953234
13	0x3da3b118	0.07992762
14	0x3dece9e7	0.11568051
15	0xbc91b463	-0.01778621
16	0x3c21cfb7	0.009876183
17	0xbb922c3c	-0.0044608396
18	0x3cd7df22	0.026351515
19	0x3ce48bbb	0.02789866
20	0x3decd0b8	0.115632474
21	0x3cd8cd21	0.026465
22	0x3dcb803b	0.099365674
23	0xbb9f7cad	-0.0048671574
24	0x3bc01a27	0.0058624926
25	0xbccc2640	-0.024920583
26	0x3cec3567	0.028834058
27	0x3d9107e3	0.070815824
28	0x3de997c9	0.11405904
29	0x3d972045	0.07379202
30	0xbd33854e	-0.0438283
31	0x3dcfdb1d	0.101492144
32	0x3d848335	0.06470338
33	0x3d7574f8	0.059926003
34	0xbd5bdd19	-0.053677652
35	0xbcf80300	-0.030274868
36	0xbd6d428b	-0.05792479
37	0x3c81e9f9	0.015858637
38	0xbd456c02	-0.048198707
39	0xbcfa5d24	-0.030561991
40	0xbd9e3444	-0.077248126
41	0xbd2db387	-0.04240754
42	0xbc0f30d1	-0.008739666
43	0x3d93153e	0.07181786
44	0x3daa6c13	0.08321395
45	0xbd7af24b	-0.061266225
46	0xbd5cb628	-0.053884655
47	0xbc7a9b36	-0.015295794
48	0xbd3c6797	-0.04599723
49	0xbd42f2bf	-0.047594782
50	0xbca4866c	-0.020083629
51	0xbdd12daa	-0.10213788
52	0x3d3593f0	0.044330537
53	0x3d534cde	0.05158698
54	0x3d8516cc	0.06498489
55	0xbdbb08f1	-0.09132565
56	0x3d8bbf18	0.068235576
57	0x3d323dc5	0.04351594
58	0x3e07dc99	0.13267745
59	0x3dc3d041	0.09561206
60	0x3c9ccc86	0.019140493
61	0x3c919bfd	0.017774576
62	0xbd3e4639	-0.04645369
63	0x3dd2b07b	0.10287567
64	0xbd196922	-0.037453778
65	0x3da68fb4	0.08132878
66	0x3d22540b	0.03963093
67	0x3e0ccbca	0.13749614
68	0x3db419d5	0.087939896
69	0x3d8df4cf	0.06931459
70	0xbd5c4319	-0.053774927
71	0xbd4c1443	-0.04982401
72	0xbd87003d	-0.06591842
73	0x3dbb847f	0.09156131
74	0x3b63179a	0.0034651519
75	0xbb222f03	-0.002474726
76	0x3c629c06	0.013831144
77	0x3b8f1df2	0.0043675834
78	0xbc11a607	-0.008889682
79	0xbd18f75c	-0.037345275
80	0x3d3a3c8a	0.04546789
81	0xbda5e0c7	-0.080995135
82	0xbd992a5b	-0.07478782
83	0x3da61f37	0.081114225
84	0x3db4bc28	0.088249505
85	0xbda4994b	-0.08037051
86	0x3ddeca10	0.10878384
87	0xbdb8b71c	-0.090193
88	0xbd8fa861	-0.070145376
89	0x3c7fc74a	0.015611479
90	0x3c169629	0.009191074
91	0xbd26b5af	-0.04070061
92	0x3dd8fab7	0.10594695
93	0xbda7515b	-0.08169814
94	0xbc41cea0	-0.011829048
95	0x3b913de0	0.004432425
96	0xbd7bb7b8	-0.061454505
97	0x3dcb65ff	0.099315636
98	0xbd5c51c1	-0.053788904
99	0xbcfb94b8	-0.030710563
100	0xbc321693	-0.01086964
101	0x3db9dcd6	0.09075324
102	0x3d4ee317	0.05050954
103	0x3d2fbec2	0.04290653
104	0xbd314575	-0.04327913
105	0x3d38383e	0.04497551
106	0x3d038b92	0.032115526
107	0x3d9f26b7	0.07771056
108	0x3da607f6	0.08106987
109	0x3dc13881	0.094346054
110	0x3d1e9260	0.038713813
111	0x3d212745	0.03934409
112	0xbdc5d240	-0.09659243
113	0x3c441638	0.011968188
114	0xbd99fd44	-0.0751901
115	0x3d2ba821	0.041908387
116	0xbd532673	-0.05155034
117	0x3e02e091	0.12780978
118	0xbd997c7c	-0.07494447
119	0xbdb2bf7e	-0.087279305
120	0x3caf8c02	0.021429066
121	0x3d2ce7d6	0.042213283
122	0xbd882e03	-0.06649401
123	0xbbfdc0f6	-0.00774395
124	0x3d5fe63a	0.05466292
125	0x3cc4132d	0.023934925
126	0xbd510389	-0.051028762
127	0x3ce87068	0.028373912
128	0x3d535868	0.051597983
129	0xbd14f933	-0.036370467
130	0x3dab58d3	0.08366551
131	0xbc83979a	-0.0160635
132	0xbcd6024c	-0.026124142
133	0xbc811abc	-0.015759818
134	0xbd1472eb	-0.036242407
135	0x3d1e22f4	0.038607553
136	0xbd5e5780	-0.054282665
137	0xbdb0c0b5	-0.08630506
138	0xbcafadee	-0.02144524
139	0x3c34a7f7	0.011026374
140	0xbda12a58	-0.078694046
141	0xbd79a7a2	-0.060950883
142	0xbd12e04b	-0.035858434
143	0x3cd9598b	0.026531955
144	0x3c990196	0.018677514
145	0xbd463d0c	-0.048398063
146	0x3cb84914	0.022495784
147	0xbcb8dfac	-0.022567593
148	0x3dd0bedb	0.10192653
149	0x3c7627cc	0.015024137
150	0x3dda457f	0.106577866
151	0xbdaa38b5	-0.08311597
152	0x3d6a71f5	0.057237584
153	0xbbac82f8	-0.005264636
154	0xbd8eef55	-0.06979243
155	0x3db97c01	0.09056855
156	0x3c2e01e9	0.010620573
157	0xbc33a6da	-0.0109650735
158	0x3d19716b	0.03746168
159	0x3d6e5463	0.058185946
160	0x3d47ed7e	0.048810475
161	0xbe01c3ca	-0.12672344
162	0x3e06a8c0	0.1315031
163	0x3cc37fee	0.023864713
164	0x3b577260	0.003287457
165	0xbdc70f14	-0.09719673
166	0xbd3158bc	-0.043297514
167	0x3d6bd02d	0.05757158
168	0x3d5665ad	0.05234306
169	0x3d9c5e13	0.07635131
170	0xbc720cb1	-0.014773534
171	0xbd839875	-0.06425563
172	0x3c01becf	0.0079190275
173	0xbdb27c80	-0.08715153
174	0xbd80f9e7	-0.06297665
175	0x3d8d8f80	0.06912136
176	0x3dced674	0.100994974
177	0xbd8d0d1f	-0.06887268
178	0xbd616283	-0.05502559
179	0xbc076c9b	-0.00826564
180	0xbcc97064	-0.024589725
181	0xbd806887	-0.06269937
182	0xbd334c87	-0.043774154
183	0xbd55c75a	-0.05219207
184	0xbcd973d5	-0.02654449
185	0x3dcaacf0	0.098962665
186	0x3d381c33	0.044948768
187	0x3d9cabea	0.076499775
188	0xbd35f2e6	-0.0444211
189	0xbcb5e61e	-0.022204455
190	0x3dc6722e	0.09689747
191	0xbc3de700	-0.011590719
192	0xbdc88214	-0.097904354
193	0x3d58dc04	0.0529442
194	0x3cce65a0	0.025194943
195	0xbd5400ac	-0.051758453
196	0xbc9f2026	-0.01942451
197	0xbcec6864	-0.028858371
198	0x3d884cb5	0.06655256
199	0x3d826fc8	0.06368977
200	0xbda81517	-0.082071476
201	0x3d719e45	0.05898883
202	0x3d0d1895	0.03444727
203	0x3d0980aa	0.03356997
204	0xbd481a3f	-0.048853155
205	0xbd10df0a	-0.035368957
206	0x3db6e46c	0.08930287
207	0x3d0e910e	0.034806304
208	0xbd389a66	-0.04506912
209	0xbce44784	-0.027866133
210	0x3d847072	0.0646676
211	0xbd1ac0f0	-0.037781656
212	0x3d8a50b5	0.06753675
213	0xbc9fc091	-0.019501003
214	0x3cc7b479	0.024378048
215	0x3ccf5fa2	0.025314156
216	0xbd3dc7e6	-0.046333216
217	0xbcdfa988	-0.027302518
218	0x3cc092fb	0.023507586
219	0xbdc43bd1	-0.095817216
220	0xbc522016	-0.012825033
221	0x3c4de5d7	0.012567005
222	0x3de5a75f	0.11213564
223	0x3d1ee01c	0.038787946
224	0xbda9c383	-0.08289244
225	0xbcfa8479	-0.030580746
226	0x3dbf6754	0.0934588
227	0xbc740438	-0.014893584
228	0x3da4a564	0.08039358
229	0x3c951625	0.018199036
230	0x3d61203c	0.05496238
231	0xbd1b97dd	-0.037986625
232	0x3dc4f2c4	0.09616616
233	0x3d42b476	0.047535382
234	0xbd077e8d	-0.033079673
235	0x3dc40c71	0.095726855
236	0x3d8efbe6	0.069816396
237	0xbd89641a	-0.06708546
238	0xbbbf2f7f	-0.0058345194
239	0x3d2a1ed8	0.04153332
240	0x3c8bb556	0.017054241
241	0xbcd2e826	-0.025745463
242	0xbd41e9f0	-0.04734224
243	0xbd809c91	-0.06279863
244	0x3d60e4ff	0.054905888
245	0x3d7e5044	0.062088266
246	0xbdaa2ee6	-0.083097264
247	0xbd0f51c6	-0.034990095
248	0x3ca238ff	0.019802568
249	0xbda904e8	-0.08252889
250	0x3da82d5b	0.08211776
251	0xbc63174e	-0.013860537
252	0xbcddc6f0	-0.0270724
253	0x3c0f120d	0.008732331
254	0x3ccbdc68	0.024885371
255	0x3ca0734b	0.019586226

weight f4 [60, 100]
0	0x3d462520	0.04837525
1	0x3babe701	0.0052460437
2	0x3dbb7486	0.091530845
3	0x3d31555e	0.043294303
4	0xbbaf6a94	-0.0053532813
5	0x3d7743b7	0.060367312
6	0x3dda7837	0.106674604
7	0xbd892d2e	-0.066980705
8	0x3bfe763d	0.00776556
9	0x3d9736a1	0.073834665
10	0xbd7a189e	-0.061058633
11	0xbdde0525	-0.10840825
12	0x3d229e3f	0.039701696
13	0xbda6a5ca	-0.081370905
14	0x3dae345a	0.08506079
15	0xbd8bc1f4	-0.06824103
16	0xbdb7ad7d	-0.08968637
17	0x3dd0326e	0.10165869
18	0xbc1968d3	-0.009363371
19	0xbd709ed7	-0.05874523
20	0xbd312ee0	-0.043257594
21	0xbdd3246e	-0.10309683
22	0xbdeb8c94	-0.115014225
23	0xbe252bae	-0.16129944
24	0xbd742ac1	-0.059611086
25	0xbdb6285b	-0.08894416
26	0x3dbd84e8	0.092538655
27	0xbd5a64c0	-0.05331874
28	0xbc1b0fb2	-0.009464191
29	0xbd8cc748	-0.068739474
30	0x3c054713	0.008134621
31	0x39bd255b	0.0003607672
32	0x3c61243a	0.013741547
33	0x3cbc0ec9	0.022956269
34	0x3dac6ef8	0.08419603
35	0xbd6c528a	-0.057695903
36	0x3cf202cf	0.029542355
37	0x3d77d90b	0.060509723
38	0x3bf3ffe6	0.007446277
39	0x3e2e7ffb	0.17041008
40	0xbce891e6	-0.028389882
41	0xbd865800	-0.065597534
42	0xbe2bfeab	-0.16796367
43	0xbd2a329d	-0.041552175
44	0xbc6ac679	-0.014329546
45	0xbdf9ba2d	-0.12193713
46	0xbd3a667c	-0.045507893
47	0x3cb8a0ad	0.022537554
48	0x3dd9bf58	0.10632199
49	0xbd139f21	-0.03604043
50	0x3dcf5424	0.101234704
51	0x3d1fe04f	0.039032277
52	0x3bfe8dc3	0.007768364
53	0xbc940e61	-0.018073263
54	0xbde84a61	-0.11342312
55	0xbcbf962b	-0.023387035
56	0xbd94ed24	-0.072717935
57	0x3da1c480	0.078988075
58	0x3cb03e33	0.021514034
59	0xbc70c79c	-0.014696028
60	0xbe41a20b	-0.1890947
61	0x3c99bbeb	0.018766364
62	0x3dba8be8	0.09108716
63	0xbd0d1bf1	-0.034450475
64	0xbdaa8779	-0.083266206
65	0xbda26dc1	-0.0793109
66	0x3cb0162a	0.021494944
67	0xbe2de1bb	-0.1698064
68	0xbcd79c8f	-0.02631977
69	0x3db4a1a6	0.088198945
70	0x3d72e659	0.059301708
71	0xbbafd902	-0.0053664455
72	0xbc7ec281	-0.015549303
73	0xbbd623af	-0.0065350155
74	0xbba1eb60	-0.004941389
75	0x3de3616b	0.111025654
76	0x3c9784cf	0.018495945
77	0x3d7a6f82	0.0611415
78	0x3de05400	0.10953522
79	0xbdc882ca	-0.09790571
80	0xbd8de8b1	-0.06929148
81	0x3ce23ce1	0.02761692
82	0xbd70d1fc	-0.058794007
83	0xbddad030	-0.1068424
84	0x3a1d1cb7	0.00059933536
85	0xbd611c16	-0.054958425
86	0xbcc300af	-0.023804037
87	0x3e0d138f	0.13776992
88	0xbac4b7cb	-0.0015008388
89	0xbe00ed03	-0.12590413
90	0x3dae7f53	0.08520379
91	0xbc969f2f	-0.018386452
92	0xbd651fac	-0.055938408
93	0x3aecab91	0.0018056502
94	0xbdfbc2c2	-0.122930065
95	0xbce6f30b	-0.028192064
96	0xbd99bf22	-0.07507159
97	0xbd22dc84	-0.03976108
98	0xbdd93b35	-0.10606996
99	0x3d91deba	0.0712256
100	0x3e0a870d	0.1352808
101	0x3d8ee4e8	0.06977254
102	0x3cafca5a	0.021458793
103	0xbd9b232b	-0.07575067
104	0xbd784dcf	-0.06062108
105	0xbb5ec5ef	-0.003399249
106	0xbd74c581	-0.059758667
107	0x3d122930	0.03568381
108	0x3dd84a97	0.10561102
109	0x3e08d2a2	0.133616
110	0xbd88bfe4	-0.06677225
111	0xbdaaa01b	-0.08331319
112	0x3c00ffda	0.0078735
113	0x3c8cd5b9	0.017191755
114	0xbd7203fa	-0.059085824
115	0x3dd480a2	0.10376097
116	0x3d66bed0	0.056334317
117	0x3b555fa2	0.0032558222
118	0x3db5fc4a	0.08886011
119	0xbdc8bd75	-0.09801761
120	0xbe3915fd	-0.18074794
121	0xbcef46b8	-0.029208526
122	0x3d8b2330	0.06793821
123	0xbbad8cd6	-0.00529633
124	0xbd682392	-0.056674547
125	0x3d9bd704	0.0760937
126	0x3d9b3693	0.075787686
127	0x3c10fabf	0.008848845
128	0x3d4c61d0	0.04989797
129	0x3a9b3770	0.0011842083
130	0x3d0e67ef	0.034767088
131	0xbddc66bc	-0.107617825
132	0xbd57d7b1	-0.052695934
133	0xbd6273c5	-0.055286188
134	0x3cae45a2	0.021273438
135	0xbce2fc5d	-0.027708227
136	0x3d159b21	0.036524896
137	0x3c21f81f	0.009885817
138	0xbde405a2	-0.11133887
139	0x3c92b512	0.017908607
140	0x3dd52d55	0.10409037
141	0xbcefa5a5	-0.02925379
142	0xbdbc0950	-0.09181464
143	0xbdc12eaf	-0.09432732
144	0xbce5715d	-0.028008157
145	0xbc37a92a	-0.011209765
146	0x3c061015	0.008182545
147	0x3dc61a14	0.09672943
148	0x3c036d98	0.008021735
149	0xbdc5a934	-0.096514136
150	0x3b7fd119	0.0039034544
151	0x3dadb026	0.08480863
152	0x3cac5869	0.021038251
153	0xbd7df215	-0.061998446
154	0xbcb8c1aa	-0.022553284
155	0x3dd567fe	0.104202256
156	0x3d4aa845	0.04947688
157	0xbcd0baa6	-0.025479626
158	0xbd37e248	-0.044893533
159	0x3de4f100	0.111787796
160	0xbe1cb3e7	-0.15303002
161	0xbdb6f84b	-0.08934077
162	0x3de2d6ef	0.110761516
163	0xbd04fbdd	-0.032466758
164	0xbdd6d04b	-0.104889475
165	0xbdbb87c9	-0.09156758
166	0x3c9a0abb	0.018803945
167	0xbe12e17c	-0.14343828
168	0x3da67d2a	0.08129342
169	0x3c8391ef	0.016060797
170	0xbceacd68	-0.028662398
171	0xbd8d582c	-0.06901583
172	0xbd5ecabe	-0.05439257
173	0x3d88b136	0.06674425
174	0xbded3146	-0.11581664
175	0xbd8e47af	-0.06947266
176	0xbbe57d57	-0.007003467
177	0x3d09510b	0.033524554
178	0xbd5d5ed9	-0.054045532
179	0xbd74ed34	-0.059796527
180	0x3d986d74	0.074427515
181	0xbd8013e6	-0.06253795
182	0xbce288db	-0.027653148
183	0xbda94782	-0.08265592
184	0xbdd8c6b6	-0.10584776
185	0xbdac324d	-0.084080316
186	0x3da2fe02	0.079586044
187	0x3de71d52	0.11284889
188	0x3d05108f	0.032486495
189	0xbbf47323	-0.0074600144
190	0x3d66258a	0.056188144
191	0x3d21c65f	0.039495822
192	0x3d201b6c	0.03908865
193	0x3e33a18f	0.17542098
194	0xbd30dba2	-0.04317821
195	0x3bdb2230	0.006687425
196	0x3b092c4e	0.0020930949
197	0xbe079d4b	-0.13243596
198	0xbbe577ea	-0.0070028203
199	0x3cbe89e1	0.023259105
200	0x3db803ac	0.08985075
201	0xbd1da5f9	-0.038488362
202	0x3df600a9	0.12011845
203	0x3ddbfd06	0.1074162
204	0xbd5b1ded	-0.053495336
205	0xbd494596	-0.049138628
206	0x3b989d39	0.0046574143
207	0xbd773bd1	-0.06035978
208	0x3e38e25d	0.180551
209	0x3da42766	0.08015327
210	0xbcdd6b06	-0.027028572
211	0x3d064b37	0.032786574
212	0xbd81f2b9	-0.06345124
213	0xbd982189	-0.07428271
214	0xbe051593	-0.12996511
215	0x3e0f7add	0.14011712
216	0xbd2bd641	-0.041952375
217	0x3ddceeeb	0.107877575
218	0xbd899b24	-0.06719044
219	0xbe1f5808	-0.15560925
220	0xbd93a865	-0.07209853
221	0xbca99f4d	-0.020705843
222	0xbe3f0c0a	-0.18656936
223	0xbe33821e	-0.17530105
224	0xbd5d1aee	-0.05398076
225	0x3dac5c02	0.084159866
226	0xbdc0ee13	-0.09420409
227	0x3d559514	0.052144125
228	0x3d20392b	0.03911702
229	0xbd571594	-0.052510813
230	0x3d01706f	0.031601366
231	0xbd9a841d	-0.0754473
232	0x3dc616e8	0.09672338
233	0xbd405be1	-0.046962623
234	0x3dc9f834	0.09861794
235	0xbd86e9d5	-0.06587569
236	0xbd6159be	-0.055017225
237	0xbdddce81	-0.10830403
238	0xbd940430	-0.07227361
239	0x3de97aa6	0.114003465
240	0x3d146723	0.03623117
241	0xbcbeb566	-0.023279857
242	0xbe531215	-0.20612366
243	0x3c643e22	0.013930829
244	0x3d0a1fb2	0.033721633
245	0xbb9e1363	-0.0048240884
246	0x3d311134	0.043229297
247	0x3dc81a51	0.097706445
248	0x3ddd25ce	0.10798226
249	0x3b84858e	0.0040442413
250	0x3ddc3b8b	0.107535444
251	0x3c78c4f2	0.015183674
252	0xbce3ed27	-0.027823044
253	0xbd9c1dcf	-0.07622873
254	0x3d74f793	0.059806418
255	0x3db12afe	0.08650778

weight f4 [100, 60]
0	0xbd934912	-0.071916714
1	0x3c083f81	0.008315922
2	0x3dab6420	0.08368707
3	0x3ddeb1e3	0.10873773
4	0xbe22909e	-0.1587548
5	0xbb16e9d4	-0.0023027556
6	0xbd232ca5	-0.0398375
7	0xbdaa29d0	-0.08308756
8	0xbb4bbe56	-0.003108879
9	0xbdb66495	-0.08905903
10	0xbddaede7	-0.106899075
11	0xbdc9d212	-0.09854521
12	0xbd8b18b1	-0.06791819
13	0x3db7ea61	0.08980251
14	0x3dae0616	0.084972546
15	0xbcf442e0	-0.029817045
16	0x3dd42515	0.10358635
17	0x3d9d94e1	0.07694412
18	0xbe08deb1	-0.133662
19	0x3dc92c84	0.09822944
20	0xbbad601a	-0.005290997
21	0x3da5f0e1	0.08102585
22	0xbd1515f4	-0.03639789
23	0xba1308bd	-0.0005608907
24	0x3e083188	0.13300145
25	0xbe193380	-0.14961052
26	0x3ccfe61c	0.02537828
27	0xbdbeea7c	-0.09322068
28	0xbd66e9fa	-0.05637548
29	0x3ce89114	0.028389491
30	0xbe1179d5	-0.14206631
31	0xbdb2ec8e	-0.087365255
32	0x3c0b792c	0.008512776
33	0xbc0e41b9	-0.008682662
34	0x3cdc7eed	0.026915992
35	0xbda70315	-0.08154885
36	0x3dc40b92	0.09572519
37	0x3b970f8f	0.004610009
38	0x3cdc7bbb	0.026914468
39	0x3d7f39e6	0.062311076
40	0xbd85965a	-0.06522818
41	0xbcc65c90	-0.02421406
42	0xbdfde7fc	-0.12397763
43	0x3e16105d	0.1465468
44	0xbd347037	-0.04405233
45	0xbe07c5a7	-0.13258992
46	0x3d13b1cb	0.03605823
47	0xbdb6e453	-0.08930268
48	0xbe006b4e	-0.12540933
49	0xbda9a8f5	-0.08284179
50	0xbc5a98e8	-0.01334212
51	0x3d30a42c	0.043125317
52	0xbde59287	-0.112095885
53	0xbc3c6f75	-0.011501183
54	0xbd0c1692	-0.034201212
55	0xbd8605b1	-0.06544054
56	0x3c95b9fa	0.018277157
57	0x3d761744	0.06008078
58	0x3caca0b0	0.021072716
59	0xbcc73dab	-0.024321398
60	0x3d77abf9	0.06046674
61	0xbcf57561	-0.029963197
62	0x3c402155	0.011726697
63	0x3dd82df0	0.10555637
64	0xbc94b42b	-0.018152317
65	0x3dd979a5	0.10618905
66	0x3dd22340	0.1026063
67	0x3d8355cf	0.06412851
68	0xbd330221	-0.043703202
69	0xbcacca02	-0.021092419
70	0x3d4b84d2	0.049687214
71	0x3d1f8ab1	0.038950626
72	0xbd6c88d6	-0.057747684
73	0xbdf37199	-0.118869014
74	0xbc99879d	-0.018741423
75	0x3c2c0d51	0.010501222
76	0x3dd31d2a	0.10308297
77	0x3dc98aee	0.09840952
78	0x3d3a6ac8	0.04551199
79	0x3db197b8	0.08671516
80	0x3dec43a8	0.11536342
81	0xbdc38437	-0.09546702
82	0x3e16e24a	0.1473476
83	0xbd631370	-0.05543846
84	0xbdcac859	-0.099014945
85	0x3d184588	0.037175685
86	0xbd6ebbad	-0.05828445
87	0xbc14f023	-0.009090456
88	0x3ced0779	0.028934227
89	0x3c69d271	0.014271365
90	0xbdc46cc7	-0.0959106
91	0x3da1765c	0.078839034
92	0x3da3fa9f	0.080067866
93	0xbc802d5e	-0.015646633
94	0x3d8e0a02	0.069355026
95	0xbd73c013	-0.059509348
96	0x3d1ce371	0.038302843
97	0xbd7d4223	-0.06183065
98	0x3aa1d7e2	0.0012347663
99	0x3d3ec552	0.046574898
100	0x3cb8e26f	0.02256891
101	0x3dac56c6	0.08414988
102	0xbb3f65ff	-0.0029205082
103	0x3e1c0bef	0.15238927
104	0x3d061958	0.032739013
105	0xbd751552	-0.059834786
106	0xbcbb3958	-0.022854492
107	0xbb6bc35c	-0.0035974598
108	0xbd9d2549	-0.07673127
109	0x3cf0979a	0.029369164
110	0x3dfb4774	0.12269488
111	0x3d41e6cb	0.047339242
112	0x3da9daf0	0.08293712
113	0x3e26a8c5	0.16275318
114	0x3c902beb	0.017599067
115	0xbd4ac951	-0.049508397
116	0xbd88d473	-0.066811465
117	0xbe09269e	-0.13393638
118	0xbd8bedff	-0.068325035
119	0x3a93a2e0	0.001126375
120	0xbde8a89c	-0.11360285
121	0xbdfff832	-0.124985114
122	0xbd926a84	-0.071492225
123	0xbe005509	-0.12532438
124	0xbdcb4275	-0.09924785
125	0xbd965362	-0.07340123
126	0x3d1f533b	0.038897734
127	0x3be94a25	0.0071194344
128	0xbdfc16fd	-0.12309072
129	0xbda90481	-0.08252812
130	0x3dad5d14	0.08465019
131	0x3dc5d599	0.09659881
132	0x3d13fe60	0.036131263
133	0x3d6d9ce6	0.058010958
134	0x3c34b2f7	0.011028997
135	0x3d756c9e	0.05991804
136	0x3d7038ec	0.058648035
137	0xbe108c49	-0.14116015
138	0x3d8c6b6e	0.06856428
139	0xbd03ea54	-0.032205895
140	0x3d0a22e4	0.03372468
141	0xbdf0f405	-0.11765293
142	0xbd646b9c	-0.055766687
143	0xbd8f8df4	-0.07009497
144	0xbd629593	-0.055318426
145	0x3dd091f3	0.101840876
146	0xbd93407a	-0.07190032
147	0x3da2c632	0.07947959
148	0xbc1547aa	-0.009111324
149	0x3cfacf43	0.030616408
150	0xbdd59a35	-0.10429803
151	0xbc8bed37	-0.017080886
152	0xbdec428c	-0.1153613
153	0xbd383e0f	-0.04498106
154	0xbd8f3747	-0.06992965
155	0xbd4624d4	-0.048374966
156	0x3de01754	0.109419495
157	0x3da6721f	0.081272356
158	0x3cc57254	0.024102367
159	0xbd08aa15	-0.033365328
160	0x3de39c10	0.11113751
161	0xbdbadc66	-0.09124069
162	0xbdfb91cc	-0.12283668
163	0x3e0c1718	0.13680685
164	0x3e302714	0.17202407
165	0xbcbec59a	-0.023287583
166	0x3e15af41	0.14617635
167	0xbd379bf0	-0.044826448
168	0x3c9a9ed0	0.018874556
169	0x3d90469a	0.07044716
170	0xbddccb6d	-0.10780988
171	0xbe400138	-0.18750465
172	0x3d42378b	0.04741625
173	0x3dad7831	0.0847019
174	0x3cdffc66	0.027342033
175	0xbdcefc18	-0.10106677
176	0x3cf6bf51	0.030120524
177	0x3d2b867f	0.041876312
178	0xbdffbd3c	-0.124872655
179	0xbe28f293	-0.16498785
180	0x3dd169db	0.102252685
181	0xbd103dbc	-0.035215124
182	0x3d351768	0.044211775
183	0x3d735be0	0.05941379
184	0x3c95d6b1	0.01829085
185	0xbd76028e	-0.06006103
186	0xbd99ebd1	-0.075156815
187	0xbdc80fa4	-0.09768608
188	0x3d98624a	0.07440622
189	0xbd372f09	-0.04472259
190	0xbdc766a9	-0.09736378
191	0xbdba5f9a	-0.09100266
192	0x3d5c8805	0.053840656
193	0x3d1300bf	0.035889383
194	0xbde798da	-0.11308451
195	0x3c9c4ed9	0.019080566
196	0xbd0314d6	-0.032002293
197	0xba93855e	-0.0011254956
198	0x3c9bd365	0.0190217
199	0x3d197379	0.03746364
200	0xbddf1874	-0.10893336
201	0xbafe0226	-0.0019379302
202	0x3d677d3f	0.05651593
203	0xbc956a7c	-0.018239252
204	0x3ded2b54	0.1158053
205	0x3ddfa162	0.10919453
206	0x3ced0f22	0.02893788
207	0x3da5cbac	0.08095488
208	0x3d1c2659	0.03812251
209	0xbd9e3bd4	-0.07726255
210	0x3da0ec78	0.07857603
211	0xbd77e98b	-0.06052546
212	0xbe0e2e1a	-0.13884774
213	0xbdf021af	-0.11725175
214	0x3cae842a	0.021303255
215	0x3dc3ef3f	0.09567117
216	0xbd951aea	-0.07280524
217	0x3c91b5a9	0.017786818
218	0x3d807386	0.06272034
219	0x3d72de8b	0.059294265
220	0x3dec0094	0.11523548
221	0x3daae6af	0.08344781
222	0xbd91fb08	-0.071279585
223	0xbb381cad	-0.0028093264
224	0xbe19683e	-0.14981171
225	0xbddf30da	-0.108979896
226	0xbdaabda8	-0.08336955
227	0x3d268443	0.04065348
228	0x3d483b23	0.048884522
229	0xbca27cd7	-0.019834919
230	0x3dd232f6	0.10263626
231	0xbc26047b	-0.010132904
232	0x3d97b208	0.07407004
233	0x3e1847d5	0.14871152
234	0xbdc9c0b4	-0.09851208
235	0x3d8f24b5	0.06989423
236	0x3ddcd678	0.10783094
237	0x3caaed69	0.02086516
238	0x3d7438e4	0.059624568
239	0xbdc32bf0	-0.09529865
240	0xbd550745	-0.052008886
241	0xbd9c0d5b	-0.07619735
242	0xbde4e6ef	-0.111768596
243	0xbd33e859	-0.043922756
244	0xbde07aa9	-0.109608956
245	0xbd466736	-0.048438273
246	0x3d9572d1	0.0729729
247	0xbd9d6a6e	-0.076863155
248	0xbcf69ea8	-0.03010495
249	0x3c98311c	0.018578105
250	0xbd60af98	-0.05485496
251	0xbbf62ce3	-0.007512675
252	0xbe0efb54	-0.13963062
253	0x3cdb8e8a	0.026801366
254	0x3dcdeac9	0.10054547
255	0xbb0e3f7a	-0.0021705315

weight f4 [100]
0	0x3f825c84	1.0184484
1	0x3f79baf0	0.9755087
2	0x3f7e404c	0.9931686
3	0x3f8273e2	1.0191615
4	0x3f82b5d5	1.0211741
5	0x3f7eac72	0.9948188
6	0x3f75a66a	0.9595705
7	0x3f82e0da	1.0224869
8	0x3f813613	1.0094627
9	0x3f7b9c94	0.98285794
10	0x3f7b495b	0.98158807
11	0x3f71a7e3	0.943968
12	0x3f86fe4b	1.0546354
13	0x3f81f16b	1.01518
14	0x3f871662	1.0553706
15	0x3f6c8050	0.9238329
16	0x3f72c851	0.9483691
17	0x3f7a35df	0.9773845
18	0x3f8357e7	1.0261201
19	0x3f87c41b	1.0606722
20	0x3f805ee0	1.0028954
21	0x3f7b3f54	0.98143506
22	0x3f754a5c	0.9581659
23	0x3f7f2580	0.99666595
24	0x3f80e068	1.0068483
25	0x3f825919	1.018344
26	0x3f7d2913	0.988908
27	0x3f84e858	1.0383406
28	0x3f7e3688	0.9930196
29	0x3f7d4239	0.9892917
30	0x3f824659	1.0177718
31	0x3f7453ba	0.95440257
32	0x3f78b102	0.9714509
33	0x3f7e6406	0.99371374
34	0x3f7fb910	0.9989176
35	0x3f83218b	1.0244612
36	0x3f70a3e7	0.94000095
37	0x3f8be48a	1.092912
38	0x3f85b747	1.0446557
39	0x3f8548c3	1.041283
40	0x3f7b2afe	0.98112476
41	0x3f7a04fd	0.9766386
42	0x3f8c86d3	1.0978645
43	0x3f83fa8d	1.0310837
44	0x3f816e79	1.0111839
45	0x3f7f17f1	0.99645907
46	0x3f7fc290	0.99906254
47	0x3f85a2e8	1.044034
48	0x3f799258	0.9748893
49	0x3f7dd6da	0.9915596
50	0x3f8113c8	1.0084162
51	0x3f867410	1.050417
52	0x3f7a532d	0.97783166
53	0x3f834f2f	1.025854
54	0x3f79267b	0.9732434
55	0x3f89854f	1.0743808
56	0x3f80bb56	1.005717
57	0x3f819dc9	1.0126277
58	0x3f7626af	0.96152776
59	0x3f8b88df	1.0901145
60	0x3f7edd87	0.99556774
61	0x3f7c3c5d	0.9852961
62	0x3f75805a	0.95898974
63	0x3f7d29bc	0.98891807
64	0x3f807e2d	1.0038506
65	0x3f8e89ac	1.1135764
66	0x3f802f8f	1.0014514
67	0x3f7dd7f0	0.9915762
68	0x3f83fd84	1.0311742
69	0x3f823f04	1.0175481
70	0x3f6a37fd	0.9149168
71	0x3f736115	0.9507001
72	0x3f819959	1.0124923
73	0x3f78a9ac	0.971339
74	0x3f7fa304	0.9985812
75	0x3f7d804f	0.9902391
76	0x3f80281a	1.0012238
77	0x3f825cf7	1.0184621
78	0x3f82ac20	1.0208778
79	0x3f7b612b	0.9819514
80	0x3f838450	1.0274754
81	0x3f82fb8d	1.0233017
82	0x3f7a00ef	0.97657675
83	0x3f82cd08	1.021882
84	0x3f7edf9e	0.9955996
85	0x3f846d17	1.0345792
86	0x3f801966	1.0007751
87	0x3f8a114b	1.0786527
88	0x3f8214cb	1.0162596
89	0x3f82cf8f	1.0219592
90	0x3f753f1f	0.9579944
91	0x3f85c1d5	1.0449778
92	0x3f92c96a	1.1467717
93	0x3f82a80f	1.0207537
94	0x3f6cc4b7	0.92487663
95	0x3f7089b4	0.9396012
96	0x3f88c430	1.0684872
97	0x3f7ae1fb	0.9800107
98	0x3f79f866	0.9764465
99	0x3f84217d	1.032272

bias f4 [100]
0	0xbd77c495	-0.06049021
1	0x3da9248c	0.08258924
2	0xbcffa31c	-0.031205706
3	0x3d562c5c	0.0522884
4	0xbce61bad	-0.028089369
5	0xbd10a58b	-0.035314124
6	0xbd2af178	-0.04173419
7	0xbda4b67f	-0.08042621
8	0x3e07daf8	0.13267124
9	0x3d797277	0.060900178
10	0xbdb41bd6	-0.08794372
11	0x3d94557c	0.07242867
12	0xbb8166ad	-0.0039490075
13	0xbd94a7ad	-0.07258544
14	0x3bfcae78	0.007711228
15	0x3d2bddd6	0.041959606
16	0xbdc787b9	-0.09742684
17	0x3d9fe6af	0.07807671
18	0x3d5c5a2c	0.053796932
19	0x3c893dd8	0.016753122
20	0xbdaea7ee	-0.08528124
21	0x3d34af60	0.044112563
22	0xbd16bdb4	-0.03680201
23	0xbddecc7d	-0.10878847
24	0xbb750781	-0.0037388506
25	0x3cca54c0	0.024698615
26	0xbc4adaa7	-0.012381232
27	0xbd9d0a82	-0.0766802
28	0x3c4650af	0.012104197
29	0xbcdde2cc	-0.027085684
30	0x3b8fbbbb	0.004386393
31	0xbdd7acdf	-0.105310194
32	0xbc9bc29d	-0.019013697
33	0xbd1e5b66	-0.038661383
34	0x3de6d02b	0.11270174
35	0xbcc7b639	-0.024378883
36	0xbd9fd507	-0.078043036
37	0x3c85985d	0.016308004
38	0xbd3a0a57	-0.045420017
39	0x3cf03855	0.029323736
40	0x3d13799b	0.036004644
41	0xbddaef86	-0.10690217
42	0x3c5fcc22	0.013659509
43	0xbd4b2144	-0.04959227
44	0xbcbfe4f0	-0.023424596
45	0xbd8ea66f	-0.069653384
46	0x3d100de7	0.03516951
47	0x3ce8cc48	0.028417721
48	0x3d2a76ba	0.041617133
49	0xbdac12a6	-0.084019944
50	0x3dbe6d6d	0.09298215
51	0xbb86cb8e	-0.004113621
52	0x3dfe4a97	0.12416571
53	0x3ca4e36a	0.02012797
54	0x3ca669ca	0.020314116
55	0x3d932e3a	0.071865514
56	0x3d33ab07	0.043864276
57	0xbd85e6f5	-0.06538192
58	0xbde83873	-0.11338892
59	0xbc460732	-0.012086676
60	0xbcfdac5c	-0.030965976
61	0x3b4d5766	0.003133261
62	0x3d310d45	0.043225545
63	0x3bd1dd74	0.006404573
64	0x3cba963c	0.022776715
65	0x3c30af78	0.0107840225
66	0x3d2f1382	0.042743213
67	0xbcf15d15	-0.02946333
68	0xbc9cd935	-0.019146541
69	0x3d37dd8c	0.044889018
70	0x3d9fd2f0	0.07803905
71	0xbcc5d338	-0.024148569
72	0xbd0ef9a6	-0.034906052
73	0x3ce42a97	0.02785234
74	0x3c03c9ca	0.008043716
75	0x3bf2594e	0.0073959
76	0xbb7c6398	-0.003851151
77	0x3d1a1487	0.037617233
78	0x3cc686da	0.024234224
79	0xbc33131f	-0.010929852
80	0xbb6d10ea	-0.0036173412
81	0xbc02ac73	-0.007975685
82	0xbcd2018d	-0.025635505
83	0xbd3cc7eb	-0.046089094
84	0xbdbfa06e	-0.093567714
85	0x3d81ce60	0.06338191
86	0xbce4b972	-0.027920458
87	0x3cbe55cc	0.02323427
88	0xbc8a156d	-0.01685592
89	0xbd0773b9	-0.033069346
90	0xbc74cac9	-0.014940926
91	0xbc680250	-0.014160708
92	0xbb158452	-0.0022814465
93	0x3d8b8111	0.06811727
94	0x3da4fb9d	0.08055804
95	0x3d6de9f3	0.05808444
96	0x3a4573f3	0.00075322314
97	0xbddf35eb	-0.10898956
98	0xbdd53fba	-0.104125455
99	0x3c54127a	0.012943858

running_mean f4 [100]
0	0xbf2956ab	-0.6614787
1	0x3e609f61	0.21935798
2	0xbf80dc75	-1.0067278
3	0xbe47a1f2	-0.19495371
4	0x3f33b84d	0.70203096
5	0x3ea0d35f	0.31411263
6	0x3f3de74c	0.74181056
7	0xbf952af3	-1.1653732
8	0x3f64176d	0.89098245
9	0x3fbfaa72	1.4973891
10	0xbfbf2438	-1.4932928
11	0x3eee3872	0.4652744
12	0x3e1c720e	0.15277883
13	0xbfbf753d	-1.4957653
14	0xbe77cabb	-0.2419843
15	0x3d8a2d6a	0.06746943
16	0x3e996635	0.2996079
17	0x3fc94294	1.5723443
18	0x3f564778	0.837028
19	0xbe472224	-0.19446617
20	0xbf2c1c0a	-0.67230284
21	0x3f9405b9	1.1564246
22	0x3f15adf4	0.58468556
23	0xbe1aea95	-0.15128548
24	0xbfb6710c	-1.4253249
25	0x3fce89e3	1.613583
26	0xbf9b32a5	-1.212483
27	0xbf249b24	-0.64299226
28	0xbf101769	-0.5628572
29	0xbf81d28e	-1.0142381
30	0x3f2c6b0c	0.6735084
31	0xbf945198	-1.15874
32	0x3dbcd6c3	0.0922065
33	0x3edb052c	0.42777383
34	0x3f7570cd	0.95875245
35	0x3fbb719b	1.4644045
36	0xbe61a334	-0.22034913
37	0x3f4f392d	0.8094662
38	0xbe82b9a1	-0.2553225
39	0x3e283dae	0.16429779
40	0x3f339746	0.701527
41	0xbfd021e7	-1.6260346
42	0x3f34305b	0.70386285
43	0xbf788cbb	-0.9708974
44	0xbea26c72	-0.31723362
45	0x3e6672ac	0.22504681
46	0xbed03543	-0.40665635
47	0x3fe45dff	1.7841185
48	0xbf15c5ae	-0.5850476
49	0xbf30e3af	-0.6909742
50	0x3efb9966	0.4914047
51	0xbf1bccb2	-0.60859215
52	0x3f96d68c	1.1784225
53	0x3fa4e951	1.2883703
54	0x3fb995bb	1.4498819
55	0x3f36088d	0.711068
56	0x3e92e426	0.28689688
57	0xbf9d73a2	-1.2300913
58	0xbff1d520	-1.8893166
59	0xbf9f42e7	-1.2442292
60	0x3edd55f3	0.43229637
61	0x3dca981b	0.09892293
62	0x400aa257	2.1661584
63	0x3f7f7331	0.99785143
64	0x3f63e58a	0.89022124
65	0x3f646fbb	0.8923299
66	0xbe4e522d	-0.20148535
67	0xbec8ce16	-0.3921973
68	0x3eed5da0	0.46360493
69	0x3eff83cb	0.49905238
70	0x3d8c4dde	0.068507895
71	0xbf73b277	-0.9519419
72	0xbf8ed089	-1.115739
73	0xbea24bb5	-0.31698385
74	0x3fa08207	1.2539681
75	0xbe210bad	-0.1572711
76	0x3f6116ca	0.879254
77	0x3fa40c6e	1.2816293
78	0xbf01f581	-0.50765234
79	0xbeb06c2a	-0.34457523
80	0x3fbea872	1.4895155
81	0x3f19eac4	0.6012385
82	0xbed1fefe	-0.41014856
83	0x3ebdef6e	0.37096733
84	0xbf75cfae	-0.9602002
85	0xbf0f873a	-0.56065714
86	0xbfa5c2d8	-1.2950087
87	0x3d6d4be8	0.057933718
88	0xbf14e3bc	-0.58159995
89	0x3f1bf804	0.60925317
90	0xbf800b9a	-1.000354
91	0x3e5433d0	0.2072289
92	0xbece576f	-0.40301082
93	0xbeb6550d	-0.35611764
94	0x3efedaf6	0.4977643
95	0x3f24d460	0.6438656
96	0x3f33357f	0.70003504
97	0xbf2f93ef	-0.68585104
98	0xbfc00b61	-1.5003473
99	0xbf943680	-1.1579132

running_var f4 [100]
0	0x41128bc0	9.159119
1	0x3fe35c6f	1.7762583
2	0x40083848	2.1284351
3	0x4057506b	3.3642833
4	0x3ff7fe0c	1.9374404
5	0x4042560c	3.036502
6	0x40683ae9	3.6285956
7	0x40698286	3.6485915
8	0x404b6277	3.1778848
9	0x403b3de6	2.925653
10	0x413374f2	11.216051
11	0x40c77c4b	6.2339225
12	0x3f9a4119	1.2051116
13	0x40eff0d9	7.4981503
14	0x40160a55	2.3443806
15	0x40d0aa0b	6.520757
16	0x413b19a4	11.69376
17	0x40586b40	3.381546
18	0x3f9cdde6	1.2255218
19	0x3f823ce3	1.0174831
20	0x3f80330f	1.0015582
21	0x403c67d4	2.9438372
22	0x40759641	3.8372958
23	0x3fb42837	1.4074773
24	0x40ad5b4c	5.4173946
25	0x40076aff	2.1159055
26	0x4121f140	10.121399
27	0x4168a4ff	14.540282
28	0x40561ee4	3.3456354
29	0x40e5b485	7.178286
30	0x40202d68	2.5027714
31	0x4028da01	2.638306
32	0x402a1574	2.6575594
33	0x3fcbc973	1.5920852
34	0x4078867f	3.883209
35	0x40add5a2	5.432328
36	0x403e2e11	2.9715617
37	0x3f86c7b8	1.0529699
38	0x40bc8dff	5.8923335
39	0x3f66cfab	0.90160626
40	0x408cfe02	4.406007
41	0x40bdaf96	5.927684
42	0x40168d30	2.3523674
43	0x3f3bce49	0.7336164
44	0x404a1fa5	3.1581814
45	0x3fa1c75b	1.2638963
46	0x408eadde	4.458724
47	0x3ff4bdb1	1.9120389
48	0x408befae	4.373008
49	0x409e0521	4.938126
50	0x40e8fdad	7.2809663
51	0x405ea77b	3.4789722
52	0x400c6199	2.193457
53	0x4064c04b	3.5742366
54	0x409e99a2	4.956254
55	0x402da323	2.713082
56	0x4045264c	3.0804625
57	0x415fcf50	13.988113
58	0x40dd92b6	6.924159
59	0x3fbec22d	1.4903008
60	0x406a4baf	3.6608694
61	0x3f52fff4	0.82421803
62	0x409a94ef	4.8306804
63	0x405ad1f2	3.419064
64	0x40665092	3.5986676
65	0x403128ee	2.7681231
66	0x407aa695	3.9164174
67	0x4003ae11	2.0574992
68	0x3fd33420	1.6500282
69	0x403ab28a	2.9171472
70	0x4026839d	2.601783
71	0x40a73ee7	5.2264285
72	0x4013149c	2.298133
73	0x403a6137	2.9121835
74	0x40651c11	3.579838
75	0x40d5615a	6.6681337
76	0x40698f61	3.6493762
77	0x40621e3d	3.5330956
78	0x40cf17e4	6.4716663
79	0x403379c8	2.804308
80	0x3fdf3677	1.7438496
81	0x40764eae	3.8485522
82	0x4013916f	2.3057516
83	0x40073362	2.1125112
84	0x40b23e28	5.5700874
85	0x40a13244	5.037386
86	0x4049d22b	3.1534526
87	0x3f330552	0.69929993
88	0x4115de8c	9.366833
89	0x3f67c560	0.90535545
90	0x411a6627	9.64994
91	0x407ef371	3.9836085
92	0x3f60d309	0.87822014
93	0x403b4efd	2.926696
94	0x40d2f61a	6.5925417
95	0x40211929	2.5171607
96	0x3fed0135	1.8515993
97	0x3faf7c9a	1.37099
98	0x407f81df	3.9923017
99	0x4091ee52	4.560342
