transformer_results_random_no_constants_no_param_tune/performance_prediction/DE-GA-ES-PSO_random_no_constants_dim_3_samples_50_fold_7_budget_50_n_heads_2_n_layers_1_d_model_100_d_k_30_d_v_30_aggregations_mean/trained_model.pt (torch, 342201 bytes, 22 tensors)

weight f4 [100, 4]
-0.0026706187 0.391298 0.37849483 0.54761904 0.03607694 0.33066913 0.1272175 -0.45285815
-0.40964404 0.4692839 -0.46513164 -0.015838476 -0.29396704 0.046780825 0.20544516 0.6271352
0.19290075 0.31435606 -0.3647038 0.027403839 0.39941213 -0.088867754 -0.3303904 -0.52268577
0.062411044 -0.29104728 -0.22590886 -0.13500792 0.01716614 -0.19527122 0.39021924 0.39382204
-0.42405522 0.08528672 -0.39326555 0.10096257 0.5016506 0.39885864 -0.3873868 0.48322013
-0.0077510793 0.074849226 0.44114885 -0.5316838 0.14032413 -0.03674811 0.21652679 0.69833106
-0.18778521 0.401439 0.0348731 0.22925046 -0.3452207 0.24142054 -0.4154969 0.064776435
-0.18788503 0.056800254 0.34400687 -0.08702554 -0.24999443 -0.0506473 0.27663267 -0.08312467
-0.2654719 -0.44011816 0.37308672 0.5449113 0.20058313 -0.12304689 -0.44590032 0.5950928
0.38318297 0.28205746 -0.1834706 -0.13399525 -0.24370643 -0.16298628 -0.0586326 -0.45708546
-0.22120391 0.33459553 0.14921647 0.44224256 -0.26763597 0.0354682 -0.41508383 0.015803274
-0.24946995 -0.32250288 0.4119608 -0.52816594 -0.2148236 0.23121914 -0.17330809 -0.3646349
-0.22670528 0.23632377 -0.22911274 -0.3585708 0.35196728 0.2398277 0.4176622 0.3129785
-0.25649673 -0.18904218 -0.06293347 -0.18304124 0.433895 -0.07135332 0.15455054 -0.53562135
0.25042245 0.13783568 0.33475757 -0.569992 0.42979416 0.023374947 -0.08765639 -0.19236949
-0.079585366 -0.23308928 -0.22689052 0.2988659 -0.00272106 -0.18860182 0.28482917 -0.6004925
-0.4390613 0.02156161 -0.29539505 0.57615864 -0.30874202 0.309666 -0.22064357 -0.100840226
-0.13538288 0.39187065 0.18621472 -0.50262374 -0.39903435 -0.00012345891 0.37862885 0.15110114
-0.1276643 0.16063626 0.21009654 -0.50178325 0.3104726 0.18317577 -0.46168754 -0.19786207
0.37414977 -0.21669726 -0.37995645 0.51814264 -0.04920271 0.079955705 -0.002032808 0.60446864
-0.08606617 -0.20438588 0.12680684 -0.26746318 0.328605 0.33129385 0.05890508 -0.4084296
-0.43539128 0.20581476 -0.2562587 0.17012422 -0.07153318 0.021170288 -0.21287341 -0.31261414
-0.0799261 0.30670503 0.12009723 -0.27627572 -0.0735232 0.24291901 0.15976931 0.4163365
-0.061603244 -0.34346968 -0.068744875 0.39563265 -0.35078198 0.5103639 -0.33719757 0.5995092
-0.12860101 0.35626316 0.2821087 -0.574533 -0.040194847 -0.37636593 -0.29100177 -0.104941435
0.3034685 -0.04494926 -0.14710118 0.5726457 0.21171547 0.031585526 -0.14534158 0.24218318
0.09496273 0.38571152 -0.33400646 -0.50697833 -0.42462924 -0.05700536 0.41305834 0.11557493
-0.39524028 -0.026744124 -0.32032728 0.49356425 -0.33111623 0.32472625 -0.5171601 -0.23211712
-0.15511824 -0.29291025 -0.32410482 -0.59334946 -0.4339881 0.11556282 -0.34411243 -0.44357097
-0.13505337 -0.08923811 0.29230756 -0.5119461 -0.27032125 -0.043698274 0.14510691 -0.60836846
-0.16803338 0.01241802 -0.12703608 -0.07455652 0.24219082 -0.10008171 -0.4390634 0.21129408
0.17743425 -0.05866724 -0.22430228 -0.56671095 -0.0682613 0.3930338 -0.31646803 -0.595307
00000000: 8c05 2fbb 3658 c83e 13ca c13e c330 0c3f
00000010: 6ac5 133d 774d a93e 4e45 023e 06dd e7be
00000020: ddbc d1be fb45 f03e bc25 eebe b1bf 81bc
00000030: d982 96be 409d 3f3d 3760 523e ef8b 203f
00000040: c687 453e 47f3 a03e 75ba babe 047e e03c
00000050: bf7f cc3e 4c00 b6bd ee28 a9be bcce 05bf
00000060: b9a2 7f3d 2604 95be a754 67be 843f 0abe
00000070: 01a0 8c3c 2ef5 47be d1ca c73e 0ba3 c93e
00000080: c41d d9be ceaa ae3d 1a5a c9be 77c5 ce3d
00000090: 2c6c 003f 3337 cc3e 9057 c6be a168 f73e
000000a0: c4fc fdbb 8d4a 993d 43de e13e 6e1c 08bf
000000b0: 21b1 0f3e 3085 16bd 33b9 5d3e d3c5 323f
000000c0: c44a 40be 6a89 cd3e 19d7 0e3d a2c0 6a3e
000000d0: c5c0 b0be f236 773e 02bc d4be 82a9 843d
000000e0: ef64 40be 62a7 683d ab21 b03e 723a b2bd
000000f0: 8afe 7fbe 8b73 4fbd cca2 8d3e 443d aabd
00000100: efeb 87be 2b57 e1be 3905 bf3e 4f7f 0b3f
00000110: aa65 4d3e 0200 fcbd 0c4d e4be 0058 183f
00000120: 8f30 c43e d669 903e b8df 3bbe 0d36 09be
00000130: 2e8e 79be e0e5 26be bd28 70bd 1b07 eabe
00000140: 4783 62be 1b50 ab3e 34cc 183e 9e6d e23e
00000150: 9507 89be 1a47 113d de85 d4be de75 813c
00000160: 0d75 7fbe 191f a5be 87ec d23e e235 07bf
00000170: b8fa 5bbe b6c4 6c3e ad77 31be 6db1 babe
00000180: 6e25 68be dcfe 713e 889c 6abe 9896 b7be
00000190: 0e35 b43e 6595 753e d2d7 d53e b83e a03e
000001a0: 8a53 83be 4694 41be 43e3 80bd 2a6f 3bbe
000001b0: 7c27 de3e b021 92bd 7f42 1e3e 7b1e 09bf
000001c0: 5f37 803e cc24 0d3e 5865 ab3e ffea 11bf
000001d0: fb0d dc3e d17c bf3c 3285 b3bd 82fc 44be
000001e0: a7fd a2bd f5ae 6ebe fd55 68be f404 993e
000001f0: d053 32bb d620 41be 21d5 913e e0b9 19bf
00000200: a5cc e0be f9a1 b03c 053e 97be 227f 133f
00000210: 6f13 9ebe 8b8c 9e3e 63f0 61be 5285 cebd
00000220: cfa1 0abe 45a3 c83e 12af 3e3e f3ab 00bf
00000230: 3b4e ccbe c074 01b9 a4db c13e 42ba 1a3e
00000240: 6eba 02be d57d 243e 8c23 573e de74 00bf
00000250: 44f6 9e3e 6e92 3b3e 4f62 ecbe 5b9c 4abe
00000260: 8f90 bf3e e3e5 5dbe a789 c2be ffa4 043f
00000270: c888 49bd d1bf a33d dc38 05bb 75be 1a3f
00000280: 7643 b0bd 884a 51be a7d9 013e eff0 88be
00000290: ea3e a83e 599f a93e 7446 713d af1d d1be
000002a0: 9beb debe 1bc1 523e 5734 83be 0b35 2e3e
000002b0: fd7f 92bd 506d ad3c 7dfb 59be f60e a0be
000002c0: 4cb0 a3bd 7108 9d3e 89f5 f53d 0374 8dbe
000002d0: 5593 96bd c3bf 783e 919a 233e 0f2a d53e
000002e0: af53 7cbd 42db afbe 1dca 8cbd 5d90 ca3e
000002f0: b299 b3be 35a7 023f 29a5 acbe 6f79 193f
00000300: fcaf 03be 2068 b63e 8d70 903e 9814 13bf
00000310: 5aa3 24bd 09b3 c0be 2ffe 94be 89eb d6bd
00000320: 3960 9b3e b71c 38bd b1a1 16be e998 123f
00000330: f1cb 583e d35f 013d 6cd4 14be defe 773e
00000340: d27b c23d fb7b c53e e502 abbe 55c9 01bf
00000350: 0169 d9be 747e 69bd 627c d33e 8db2 ec3d
00000360: ef5c cabe 7e16 dbbc f001 a4be 74b4 fc3e
00000370: 1188 a9be 8542 a63e 9b64 04bf 1cb0 6dbe
00000380: 51d7 1ebe 55f8 95be 11f1 a5be c0e5 17bf
00000390: b033 debe 33ac ec3d 812f b0be bc1b e3be
000003a0: 6e4b 0abe 78c2 b6bd 56a9 953e e60e 03bf
000003b0: 8c67 8abe f6fc 32bd e896 143e 09be 1bbf
000003c0: f110 2cbe f374 4b3c bf15 02be 17b1 98bd
000003d0: df00 783e a4f7 ccbd ebcc e0be 7a5d 583e
000003e0: 53b1 353e 0f4d 70bd 7faf 65be f813 11bf
000003f0: 95cc 8bbd ba3b c93e 1908 a2be 0a66 18bf

bias f4 [100]
-0.010603854 0.018332051 -0.46887076 -0.31679162 -0.42149642 0.13741061 -0.49792397 -0.18629365
-0.2833824 0.41937363 -0.16074495 0.34159133 -0.34768936 0.17715207 -0.12444665 0.43060708
-0.37586483 -0.3588408 0.041435458 -0.31105888 -0.11126959 -0.56210744 0.44539022 0.566737
-0.24726085 0.0049970495 0.33006376 0.100809656 -0.12454889 0.018437387 -0.088543355 -0.22717561
-0.12758844 -0.40000236 -0.114729196 -0.5240001 -0.44166648 -0.05348175 0.43545625 -0.13549265
0.5649521 -0.041342992 0.0098082535 0.3317268 0.14626028 0.353427 -0.29255277 0.3875266
-0.19196732 -0.08472083 0.038115844 -0.27417758 -0.22480513 0.26647645 0.26463595 0.29112536
0.1929614 0.2908006 0.17398933 -0.10958124 -0.18032968 0.13848644 0.3068998 0.0004112947
0.016746126 -0.3392812 -0.36410898 0.15718044 0.26495546 0.12454791 -0.3893682 -0.13676803
0.17890748 0.06191826 0.11367612 -0.26268396 -0.1186037 0.5566717 0.0907696 0.41805223
0.010084886 0.5221316 -0.560646 -0.18909487 -0.24312232 0.1261718 0.2262943 0.19933072
0.5025499 0.2734052 0.43654394 0.008824809 0.27485436 -0.11303794 -0.35557643 -0.2613963
-0.057775278 0.38419256 0.11747166 0.11397929
00000000: cabb 2dbc 192d 963c d40f f0be 8332 a2be
00000010: 61ce d7be 5eb5 0c3e e4ef febe c3c3 3ebe
00000020: 7f17 91be 24b8 d63e 539a 24be 0fe5 ae3e
00000030: 5704 b2be 5a67 353e e3dd febd 8878 dc3e
00000040: 5b71 c0be fbb9 b7be 3ab8 293d 1c43 9fbe
00000050: 50e1 e3bd 46e6 0fbf 300a e43e ad15 113f
00000060: f331 7dbe 4abe a33b 1efe a83e 4b75 ce3d
00000070: 7d13 ffbd 010a 973c 3856 b5bd b9a0 68be
00000080: 8ba6 02be 1ccd ccbe 24f7 eabd df24 06bf
00000090: 1c22 e2be ae0f 5bbd 1ff4 de3e 96be 0abe
000000a0: b3a0 103f 4557 29bd ccb2 203c 18d8 a93e
000000b0: 41c5 153e 62f4 b43e 7ac9 95be e369 c63e
000000c0: 1593 44be 1d82 adbd 5c1f 1c3d 0161 8cbe
000000d0: 5133 66be 9a6f 883e 5d7e 873e 620e 953e
000000e0: ac97 453e d1e3 943e 422a 323e 216c e0bd
000000f0: 58a8 38be 64cf 0d3e f821 9d3e 0aa3 d739
00000100: 2c2f 893c 44b6 adbe 7e6c babe e9f3 203e
00000110: 3ea8 873e fa12 ff3d 455b c7be eb0c 0cbe
00000120: 8633 373e 009e 7d3d 07cf e83d 837e 86be
00000130: 7fe6 f2bd 0982 0e3f 69e5 b93d f10a d63e
00000140: 143b 253c 6baa 053f 7f86 0fbf 16a2 41be
00000150: 0ff5 78be 2e33 013e b1b9 673e 5a1d 4c3e
00000160: 1ca7 003f c4fb 8b3e b082 df3e ef95 103c
00000170: b6b9 8c3e 6f80 e7bd 1d0e b6be bcd5 85be
00000180: c5a5 6cbd e3b4 c43e fb94 f03d f96d e93d

weight f4 [60, 100]
-0.047692545 -0.021455616 -0.0330302 0.0024922008 -0.07641885 -0.0071270806 -0.122396015 0.09195582
-0.10500269 0.019094452 -0.042089548 -0.03585692 0.010239647 0.00814199 0.09639174 -0.04061129
-0.07851224 -0.00032304443 -0.084846094 -0.10898581 0.063140884 0.019039437 0.06668866 0.053208448
0.018640444 -0.061610464 0.050071284 0.091780014 -0.050462157 0.053758603 -0.09070679 0.0018704823
0.021430934 0.020974346 0.004788308 -0.043772805 0.046595663 0.00980328 0.05375398 0.14659719
-0.10726296 0.012865252 -0.05932438 -0.004335385 0.09839535 0.13223019 -0.019742241 -0.03342119
-0.029814225 0.037623268 0.07588199 0.060127262 -0.0974834 0.094970785 0.029589128 -0.097867206
0.044409987 -0.084486306 0.012122912 -0.04576494 -0.11757263 -0.11389906 -0.122920014 0.01953458
-0.07220519 0.04427599 -0.10290507 -0.09033147 -0.12104873 -0.06885609 -0.007960537 -0.07155173
0.10734056 -0.04394069 -0.01277574 0.06948981 0.0030502777 -0.06365851 0.07333872 0.023000054
0.045091104 0.0890208 -0.012746951 -0.00566418 0.082761504 -0.12179181 0.008858409 0.019032702
-0.016897028 0.018489558 0.096980065 -0.0663249 0.047638677 0.029194446 0.097890355 0.09258623
0.04173014 0.07791107 0.0113275675 0.024518235 0.064397566 -0.043160945 0.038124144 -0.09344348
0.05210538 0.043439824 -0.11597286 -0.088424034 0.05890622 -0.05802459 0.031114325 0.07558373
-0.040414736 0.01588188 -0.037628587 -0.025286661 -0.034236275 -0.008694999 -0.031493552 0.042110693
0.07365487 0.041111052 -0.029952152 0.067373 -0.07597504 -0.033165537 -0.05203276 0.018842574
0.09186919 0.0005861296 -0.023443606 0.10959228 0.054919377 0.00064938376 0.08370833 -0.026137458
0.08447228 0.0364176 0.05076767 0.041147765 0.13049026 -0.011682103 0.043133035 0.04047253
0.023251688 -0.03658988 0.033237424 -0.0010822582 0.06718846 0.010319143 0.079909354 0.021438403
0.009560914 0.0018151863 0.07626117 -0.079256564 -0.09890553 -0.018101878 0.045645587 0.10191375
-0.032288976 -0.072541036 0.015959365 -0.09343041 -0.030404177 -0.019679153 -0.006503025 0.08108294
0.07781337 0.038823478 -0.07247603 -0.019775663 -0.057147205 0.043371685 -0.017556649 0.08237925
-0.1015282 0.006482564 -0.088365994 0.078838766 -0.014849245 -0.014499009 0.040773656 0.05238825
0.03525922 0.032258566 -0.049382634 0.07760467 0.054642342 0.009163824 0.06616092 -0.038431354
-0.059835512 0.03140799 0.04556981 0.021168273 0.054382443 -0.05314999 -0.015150307 0.088111795
0.020396791 0.05581158 -0.08316692 0.03912198 -0.049811203 0.07259613 -0.022409402 0.069221266
-0.0065149735 -0.099113464 0.068214394 -0.08967061 0.004215571 0.053145617 0.012878749 -0.04952561
-0.08041701 0.025432546 0.05474151 -0.04470047 -0.0440514 -0.079913795 0.013707342 0.08434776
-0.005366778 -0.02463491 -0.073573455 0.1216859 -0.03870438 0.038707823 -0.08176349 0.013226662
-0.020252116 0.0032267156 0.006824749 -0.029177269 -0.05887048 0.087632924 -0.10701047 -0.02760035
-0.01466192 0.02981095 -0.039154537 -0.013412224 0.0052761766 -0.09091404 -0.055041544 -0.085261755
0.09044425 -0.015874723 -0.041968457 -0.07964009 0.03393994 -0.013166748 -0.013663677 0.043947365
00000000: 4259 43bd b0c3 afbc ad4a 07bd 3154 233b
00000010: 7c81 9cbd 498a e9bb c3aa fabd 5553 bc3d
00000020: a60b d7bd f86b 9c3c 1766 2cbd b5de 12bd
00000030: 31c4 273c fb65 053c 0869 c53d 0658 26bd
00000040: 06cb a0bd 4a5e a9b9 cac3 adbd f433 dfbd
00000050: 0250 813d 98f8 9b3c 1094 883d 1af1 593d
00000060: d8b3 983c 415b 7cbd 8c17 4d3d 29f7 bb3d
00000070: 68b1 4ebd fb31 5c3d 7bc4 b9bd f92a f53a
00000080: ed8f af3c 64d2 ab3c 3de7 9c3b 1d4b 33bd
00000090: 18db 3e3d f09d 203c 222d 5c3d 931d 163e
000000a0: afac dbbd c7c8 523c 1ffe 72bd d80f 8ebb
000000b0: 8083 c93d 5a67 073e 7bba a1bc a8e4 08bd
000000c0: f63c f4bc db1a 1a3d 0468 9b3d 0148 763d
000000d0: 60a5 c7bd 0b80 c23d e664 f23c 9a6e c8bd
000000e0: 3fe7 353d 2807 adbd 2e9f 463c 0574 3bbd
000000f0: ebc9 f0bd e943 e9bd 7dbd fbbd fc06 a03c
00000100: 51e0 93bd be5a 353d e5bf d2bd b5ff b8bd
00000110: 66e8 f7bd 6c04 8dbd ea6c 02bc b789 92bd
00000120: 5ed5 db3d 27fb 33bd 5651 51bc ac50 8e3d
00000130: 2be7 473b 655f 82bd 9c32 963d 9c6a bc3c
00000140: 73b1 383d 8a50 b63d 96d8 50bc 969a b9bb
00000150: dd7e a93d fc6d f9bd dc22 113c 78ea 9b3c
00000160: a36b 8abc 6a77 973c 7c9d c63d 59d5 87bd
00000170: c620 433d 3129 ef3c bd7a c83d d99d bd3d
00000180: 39ed 2a3d d78f 9f3d 4397 393c 77da c83c
00000190: dfe2 833d 88c9 30bd 1028 1c3d 4c5f bfbd
000001a0: 736c 553d f5ed 313d 2e83 edbd a917 b5bd
000001b0: a647 713d 31ab 6dbd 78e3 fe3c a5cb 9a3d
000001c0: ec89 25bd b71a 823c 6f20 1abd f925 cfbc
000001d0: 563b 0cbd 7875 0ebc 62ff 00bd 437c 2c3d
000001e0: 5dd8 963d 1064 283d 375e f5bc dbfa 893d
000001f0: cd98 9bbd 96d8 07bd 4e20 55bd be5b 9a3c
00000200: ea25 bc3d 7ea6 193a ce0c c0bc eb71 e03d
00000210: 24f3 603d 683b 2a3a 466f ab3d 391e d6bc
00000220: ceff ac3d 9f2a 153d c3f1 4f3d 8f8a 283d
00000230: 3d9f 053e 4b66 3fbc 44ac 303d 86c6 253d
00000240: 537a be3c 45df 15bd f723 083d 8fda 8dba
00000250: 1a9a 893d 9f11 293c 84a7 a33d 979f af3c
00000260: 61a5 1c3c 8ceb ed3a d12e 9c3d 4451 a2bd
00000270: fc8e cabd 644a 94bc def6 3a3d 28b8 d03d
00000280: 7241 04bd 6590 94bd 37bd 823c 7158 bfbd
00000290: 2e12 f9bc 2d36 a1bc 5417 d5bb d00e a63d
000002a0: 9e5c 9f3d 5e05 1f3d 506e 94bd 9200 a2bc
000002b0: 3013 6abd 82a6 313d f6d2 8fbc 74b6 a83d
000002c0: 04ee cfbd b06b d43b 3bf9 b4bd 3876 a13d
000002d0: 3f4a 73bc 408d 6dbc 4702 273d 1095 563d
000002e0: f96b 103d 8f21 043d 7245 4abd 32ef 9e3d
000002f0: a6d0 5f3d dd23 163c 607f 873d 326a 1dbd
00000300: 1516 75bd aaa5 003d 69a7 3a3d 1669 ad3c
00000310: 20c0 5e3d ceb3 59bd fe38 78bc f573 b43d
00000320: 2c17 a73c af9a 643d 6b53 aabd 5f3e 203d
00000330: d506 4cbd 48ad 943d ec93 b7bc e1c3 8d3d
00000340: 8f7b d5bb 00fc cabd fdb3 8b3d 3aa5 b7bd
00000350: c622 8a3b 38af 593d 6301 533c 5edb 4abd
00000360: acb1 a4bd ea57 d03c a238 603d d717 37bd
00000370: 3e6f 34bd d8a9 a3bd c294 603c 85be ac3d
00000380: ccdb afbb 27cf c9bc aead 96bd 7536 f93d
00000390: 7c88 1ebd 188c 1e3d 9e73 a7bd a4b4 583c
000003a0: c4e7 a5bc 4e77 533b 25a2 df3b 2b05 efbc
000003b0: 2c22 71bd e478 b33d 4e28 dbbd 211a e2bc
000003c0: 8d38 70bc 1836 f43c 8260 20bd f2be 5bbc
000003d0: c7e3 ac3b 2431 babd 3e73 61bd b79d aebd
000003e0: d63a b93d b50b 82bc 1ee7 2bbd 581a a3bd
000003f0: 9b04 0b3d 58b9 57bc 9ddd 5fbc 2702 343d

weight f4 [60, 100]
-0.043676704 -0.02277384 0.026905272 0.055910587 0.024804702 -0.018034333 0.0038495166 0.024708334
-0.039624467 -0.028514013 -0.11834901 0.099888094 0.09841043 0.070107654 -0.031231591 -0.027848862
0.030636756 -0.014125556 0.05215099 -0.10881074 -0.045476407 -0.038433474 -0.08805533 0.029827274
-0.086970866 0.10136393 0.064419635 -0.107213035 -0.06696279 0.062095813 0.018525308 -0.08588163
-0.07090902 -0.09067461 0.032813914 0.026180144 0.038789958 0.06200122 0.027913775 0.16783288
-0.028114434 0.018243166 0.07995012 -0.078971304 -0.07184094 -0.0021852679 -0.047984008 -0.036555294
-0.022749431 0.0891504 0.06596651 -0.06669653 -0.09125287 0.039802197 -0.001935108 0.06842976
0.018632365 0.005120538 -0.08499877 -0.061784565 -0.07280748 0.019824594 -0.046911407 0.035738505
-0.12246066 0.03480225 -0.11818312 0.02294774 -0.07336204 0.03367209 -0.00037132466 0.020198574
0.10707537 0.051075693 -0.051067438 -0.043979753 -0.089587525 -0.07286918 0.048604835 0.03713729
0.12148774 -0.030094953 0.06577377 0.087326124 0.05016688 -0.0643341 -0.010344335 -0.089547396
0.06332057 0.06779255 0.048128337 0.0492618 -0.18510452 -0.03179273 -0.025323814 0.009200727
-0.024400057 0.034390476 -0.07578891 -0.029945213 0.038088672 0.07077377 -0.017625459 0.083660655
0.07753239 0.032075487 0.10737303 -0.021459227 0.05491344 -0.04233257 -0.054332852 -0.029900754
0.059274115 -0.054581575 -0.026624061 0.07657361 -0.09793459 -0.0433438 -0.0035904422 -0.025385829
0.0076897526 -0.03875653 0.018955652 -0.012686854 -0.08234819 -0.015534741 0.101624645 0.019557877
-0.019559454 0.02976358 0.10582986 -0.08232054 -0.010571589 -0.058405727 0.056702398 -0.018013686
0.0064999014 -0.011585402 -0.028481096 -0.08615596 -0.058161132 0.0077508553 -0.012655721 0.022105124
-0.031125555 0.008615389 0.007420161 -0.06362699 0.03592845 0.10830277 -0.0045494013 -0.067759305
-0.015927732 0.040127352 -0.043320414 0.018395707 -0.059286095 -0.0027954024 -0.028768627 -0.034989815
0.04600377 0.010009954 -0.052404456 -0.08690434 -0.0011157898 -0.07756315 -0.012157798 0.031048361
-0.052617848 -0.08067142 -0.0054634074 0.0059842127 -0.06373671 -0.074415766 0.03146882 0.07432268
0.09678363 0.02417855 -0.05617994 0.0874078 0.023655394 -0.042352486 -0.044814873 0.022880906
0.009277435 0.081830435 -0.03663056 0.028207093 -0.03896043 0.07061095 -0.056014992 -0.039139222
-0.059000134 -0.071861885 -0.056919675 -0.046237968 0.003567083 -0.02364643 -0.01660827 -0.061477106
0.13255931 -0.07988638 0.056539748 -0.01370105 -0.049160287 -0.10691866 -0.0646996 0.054851506
0.05704828 0.027556904 -0.09311087 0.029102331 0.04026418 0.0646274 0.06078723 -0.08993137
-0.040915836 -0.043316714 0.0041468246 -0.07075285 0.06271047 0.09789341 -0.087530546 -0.054412674
-0.024303954 0.0891069 -0.042853277 -0.07289229 -0.06938173 0.027468165 0.07454678 -0.12240782
0.10865264 -0.017925156 -0.08563483 -0.079430744 -0.0053092055 0.071404845 0.0022081425 0.059088018
-0.11985771 0.025222234 -0.027540091 0.012478281 0.08596431 0.026237678 -0.04849122 -0.00010126688
-0.113487504 -0.0021819447 0.12575129 -0.027992385 -0.08542637 -0.08918872 0.031288166 0.029480139
00000000: 58e6 32bd 3490 babc 7268 dc3c 8002 653d
00000010: 3b33 cb3c bdbc 93bc 2c48 7c3b 2269 ca3c
00000020: 444d 22bd 3896 e9bc f760 f2bd 2192 cc3d
00000030: 688b c93d 9a94 8f3d 65d9 ffbc 4c23 e4bc
00000040: eff9 fa3c e06e 67bc 479c 553d 2ad8 debd
00000050: 7845 3abd 6b6c 1dbd 5a56 b4bd 5458 f43c
00000060: c81d b2bd e497 cf3d 71ee 833d 8292 dbbd
00000070: ca23 89bd 2e58 7e3d 63c2 973c b5e2 afbd
00000080: c038 91bd 9cb3 b9bd e267 063d be77 d63c
00000090: 38e2 1e3d fef4 7d3d 6eab e43c 62dc 2b3e
000000a0: 3e50 e6bc b172 953c e3bc a33d b5bb a1bd
000000b0: 5821 93bd b636 0fbb e18a 44bd 01bb 15bd
000000c0: 045d babc 7c94 b63d 7319 873d 3198 88bd
000000d0: c9e2 babd a107 233d 73a3 fdba e724 8c3d
000000e0: e7a2 983c 30ca a73b d613 aebd d011 7dbd
000000f0: 171c 95bd 3067 a23c 2d26 40bd 8a62 123d
00000100: a8cc fabd ce8c 0e3d fe09 f2bd e6fc bb3c
00000110: d63e 96bd bfeb 093d 5aae c2b9 7b77 a53c
00000120: 554a db3d bf34 513d 172c 51bd 1d24 34bd
00000130: aa79 b7bd 703c 95bd dd15 473d 451d 183d
00000140: 90ce f83d b189 f6bc 66b4 863d 0ad8 b23d
00000150: c97b 4d3d 99c1 83bd 497b 29bc a064 b7bd
00000160: 37ae 813d d2d6 8a3d 3822 453d bec6 493d
00000170: 0a8c 3dbe 1839 02bd e373 cfbc a5be 163c
00000180: a1e2 c7bc 07dd 0c3d 3737 9bbd aa4f f5bc
00000190: de02 1c3d d7f1 903d 4463 90bc 4756 ab3d
000001a0: 4dc9 9e3d 9661 033d 64e6 db3d 43cb afbc
000001b0: eaec 603d eb64 2dbd 208c 5ebd 6df2 f4bc
000001c0: 6ac9 723d ee90 5fbd b41a dabc a0d2 9c3d
000001d0: ee91 c8bd 4589 31bd a04d 6bbb f1f5 cfbc
000001e0: 52fa fb3b 2bbf 1ebd e248 9b3c 86dc 4fbc
000001f0: 2ba6 a8bd 6d85 7ebc 9520 d03d d737 a03c
00000200: 263b a0bc c0d2 f33c 53bd d83d ac97 a8bd
00000210: 7534 2dbc d83a 6fbd c640 683d 7091 93bc
00000220: 20fd d43b b3d0 3dbc 3051 e9bc 8972 b0bd
00000230: 5e3a 6ebd e3fa fd3b f159 4fbc ce15 b53c
00000240: 05fb febc 8f27 0d3c d224 f33b de4e 82bd
00000250: b629 133d d8cd dd3d 2513 95bb 64c5 8abd
00000260: e07a 82bc 945c 243d bf70 31bd 98b2 963c
00000270: fad5 72bd 1233 37bb 2fac ebbc 7b51 0fbd
00000280: 736e 3c3d ca00 243c 0ea6 56bd e7fa b1bd
00000290: b13f 92ba 6ed9 9ebd 8031 47bc 2259 fe3c
000002a0: d085 57bd 0f37 a5bd 6206 b3bb 3717 c43b
000002b0: 6488 82bd 4b67 98bd 73e5 003d 7d36 983d
000002c0: 7f36 c63d 1812 c63c f01c 66bd dc02 b33d
000002d0: f5c8 c13c cd79 2dbd cd8f 37bd bd70 bb3c
000002e0: 6200 183c b796 a73d ed09 16bd 9012 e73c
000002f0: f994 1fbd 799c 903d fa6f 65bd 7350 20bd
00000300: 20aa 71bd 532c 93bd 9b24 69bd 0664 3dbd
00000310: b9c5 693b 28b6 c1bc 110e 88bc 6bcf 7bbd
00000320: a1bd 073e 789b a3bd 3996 673d 5e7a 60bc
00000330: 4c5c 49bd 2cf8 dabd 3981 84bd f9ab 603d
00000340: 75ab 693d 04bf e13c e9b0 bebd 0368 ee3c
00000350: 0eec 243d 5f5b 843d 08fc 783d f02d b8bd
00000360: 5d97 27bd de6c 31bd 16e2 873b dfe6 90bd
00000370: 596e 803d 577c c83d 3743 b3bd d3df 5ebd
00000380: 1619 c7bc ae7d b63d eb86 2fbd 8e48 95bd
00000390: 0218 8ebd eb04 e13c fbab 983d f3b0 fabd
000003a0: 4685 de3d c7d7 92bc 5061 afbd 96ac a2bd
000003b0: d8f8 adbb b43c 923d 7cb6 103b 4706 723d
000003c0: f677 f5bd dc9e ce3c c29b e1bc b471 4c3c
000003d0: 0e0e b03d 66f0 d63c bb9e 46bd 3e5f d4b8
000003e0: 236c e8bd f5fe 0ebb f2c4 003e 4950 e5bc
000003f0: 05f4 aebd 93a8 b6bd 0528 003d 5580 f13c

weight f4 [60, 100]
-0.015540824 0.0033067178 0.03829212 0.017854778 0.043111045 -0.07024894 -0.11330329 -0.038842272
0.06543516 0.08559295 -0.08997529 0.057804756 -0.011253244 0.10436985 -0.034591295 -0.027916865
-0.050105408 0.011402791 0.11284626 0.016062593 -0.025034197 -0.0067075673 0.022156848 0.008384321
-0.033742297 0.030461095 -0.0771694 -0.004555429 -0.1364681 -0.028646732 0.07538529 -0.02543105
-0.03767134 0.06385774 -0.084515855 0.017879479 -0.15453139 0.037759125 0.15431972 0.07552331
-0.022627773 -0.102254935 0.07945688 -0.07792517 0.08285873 0.034175877 0.042933777 -0.018014567
0.037451684 -0.071089454 0.033638008 0.047912665 -0.07101016 -0.014619687 0.013134021 0.05486931
0.016614154 0.07094671 -0.087231964 -0.0266724 -0.004553761 0.019801611 -0.024757057 0.062471375
0.040163975 0.011344544 -0.042234834 0.109243944 0.047128346 0.015935153 0.016683461 -0.00679819
0.07847222 -0.049955595 0.02827076 0.057574924 -0.09795485 0.07809693 0.010602214 -0.009639131
0.17737865 -0.08403853 0.016125068 -0.03756883 0.12482207 -0.007788751 0.029678838 -0.06512229
-0.019114854 0.11162757 -0.06802281 -0.041380294 -0.108556785 -0.038751505 0.050703075 0.020568052
0.06793115 -0.0047792126 -0.040137004 0.0017146537 0.05300147 0.09577373 -0.012460672 -0.121288754
0.054183982 0.08314746 -0.012077601 -0.050933264 -0.062395766 0.06481483 0.028707428 0.047358148
-0.06615965 0.012794212 0.11537956 0.043613482 -0.04272253 0.041027825 0.031829398 0.034344938
-0.05919159 -0.10377225 -0.052716933 -0.02006563 -0.052472387 -0.084799044 -0.008719575 -0.050826263
0.13131504 0.014896769 0.0048912754 0.11673462 -0.04395541 0.008403661 0.1517866 0.06642807
0.17169127 -0.013651791 -0.025655167 -0.008038942 0.07755868 0.09168002 -0.08361291 -0.087383054
0.069182456 0.06493463 -0.022769742 -0.039753217 0.1420403 0.008682437 -0.042515278 0.06905047
0.055839345 0.046036787 -0.06143684 -0.017748801 -0.02571921 -0.0509418 0.06271536 0.056729015
0.038696483 -0.01016948 0.036659162 0.020623881 0.04679288 -0.01251354 -0.021564826 0.06401524
-0.05305383 -0.10862838 0.027688442 -0.023861418 -0.045243338 0.0660118 0.07330587 -0.109038115
0.013853895 0.11762008 0.12761185 -0.003089357 0.0111858165 -0.057203915 0.018930415 0.07003005
-0.026070116 -0.090519965 -0.04658608 0.07367574 -0.07721952 0.027273003 0.037986167 0.011533684
0.13816796 -0.024556223 0.08476301 0.10946725 -0.044746958 0.091230266 -0.08229616 0.10963359
0.007964667 -0.009103696 0.05008996 0.11580934 0.05687504 0.009398979 0.032468706 -0.024862947
0.07180878 -0.012561122 -0.08472317 0.13009621 0.07938579 -0.045709558 -0.07305275 -0.015896467
0.0026455366 0.021711221 0.06506371 -0.006965032 0.14181192 -0.075303905 0.040096123 0.002372306
0.005963707 0.08985723 -0.043532114 -0.025520489 -0.09582014 -0.05217183 0.01057396 -0.12791665
0.14329089 -0.05251949 -0.055912152 0.08221879 -0.14395837 0.06443919 0.12626104 0.052910812
-0.046312124 -0.08973175 -0.021217983 -0.061122905 -0.084268145 -0.019835245 -0.03610855 0.054217376
-0.09154627 -0.034059063 0.052035663 0.12302053 -0.12104123 0.109714724 -0.014265277 -0.041847326
00000000: f19e 7ebc 85b5 583b 33d8 1c3d 2f44 923c
00000010: 3595 303d adde 8fbd 8e0b e8bd 1319 1fbd
00000020: df02 863d 5b4b af3d f744 b8bd aec4 6c3d
00000030: 875f 38bc dcbf d53d 9aaf 0dbd e9b1 e4bc
00000040: 543b 4dbd c6d2 3a3c f11b e73d b395 833c
00000050: 8414 cdbc 27cb dbbb 4782 b53c 645e 093c
00000060: 5d35 0abd 8c89 f93c fe0a 9ebd b545 95bb
00000070: 4bbe 0bbe 8dac eabc 9a63 9a3d c754 d0bc
00000080: 434d 1abd d9c7 823d a616 adbd fc77 923c
00000090: 7a3d 1ebe 50a9 1a3d fd05 1e3e f7ab 9a3d
000000a0: e15d b9bc 096b d1bd 4aba a23d 3b97 9fbd
000000b0: d6b1 a93d 01fc 0b3d 54db 2f3d 4993 93bc
000000c0: f066 193d 5997 91bd 02c8 093d 1240 443d
000000d0: c66d 91bd 6987 6fbc 1430 573c a4be 603d
000000e0: 681a 883c 824c 913d aca6 b2bd 1480 dabc
000000f0: b737 95bb fd36 a23c 50cf cabc fce1 7f3d
00000100: fb82 243d 77de 393c 6ffe 2cbd 4abb df3d
00000110: a709 413d 708a 823c c1ab 883c 5ac3 debb
00000120: 0bb6 a03d 3d9e 4cbd 1598 e73c afd3 6b3d
00000130: 8d9c c8bd 49f1 9f3d e9b4 2d3c 72ed 1dbc
00000140: c0a2 353e 651c acbd b818 843c c6e1 19bd
00000150: b7a2 ff3d c738 ffbb 0921 f33c d65e 85bd
00000160: c196 9cbc ff9c e43d 8b4f 8bbd 627e 29bd
00000170: 0553 debd e6b9 1ebd 07ae 4f3d 557e a83c
00000180: 7d1f 8b3d f19a 9cbb b366 24bd 3bbe e03a
00000190: 1218 593d 0425 c43d d927 4cbc 3d66 f8bd
000001a0: 06f0 5d3d 3749 aa3d 21e1 45bc 669f 50bd
000001b0: b492 7fbd a3bd 843d d72b eb3c 9efa 413d
000001c0: b67e 87bd d19e 513c 1e4c ec3d 0da4 323d
000001d0: d2fd 2ebd cb0c 283d 8b5f 023d 47ad 0c3d
000001e0: e172 72bd 8c86 d4bd b6ed 57bd ad60 a4bc
000001f0: 49ed 56bd 1fab adbd 8cdc 0ebc 332f 50bd
00000200: 7377 063e 9411 743c fe46 a03b 8f12 ef3d
00000210: 970a 34bd 82af 093c f26d 1b3e 710b 883d
00000220: d6cf 2f3e c3ab 5fbc c92a d2bc c4b5 03bc
00000230: 16d7 9e3d bcc2 bb3d 3f3d abbd e3f5 b2bd
00000240: 88af 8d3d 73fc 843d 9c87 babc 45d4 22bd
00000250: 0373 113e c840 0e3c 8024 2ebd 556a 8d3d
00000260: ccb7 643d 1291 3c3d 32a5 7bbd ef65 91bc
00000270: 18b1 d2bc 59a8 50bd e970 803d af5c 683d
00000280: 3480 1e3d e49d 26bc eb27 163d 6af3 a83c
00000290: e4a9 3f3d 9705 4dbc b8a8 b0bc 6c1a 833d
000002a0: f94e 59bd 8e78 debd dfd2 e23c 0579 c3bc
000002b0: 1451 39bd 3231 873d 6321 963d 604f dfbd
000002c0: 72fb 623c cce2 f03d aeac 023e cf76 4abb
000002d0: b744 373c a74e 6abd f513 9b3c ea6b 8f3d
000002e0: ff90 d5bc 8862 b9bd 0cd1 3ebd 4ee3 963d
000002f0: 4525 9ebd a26b df3c 6297 1b3d c7f7 3c3c
00000300: e77b 0d3e 222a c9bc 3b98 ad3d 5e30 e03d
00000310: 9648 37bd efd6 ba3d e48a a8bd 9387 e03d
00000320: 3c7e 023c ab27 15bc 212b 4d3d 722d ed3d
00000330: cdf5 683d 2dfe 193c e8fd 043d 61ad cbbc
00000340: 7b10 933d 2acd 4dbc 5783 adbd f137 053e
00000350: 0495 a23d f239 3bbd ae9c 95bd 4f39 82bc
00000360: bd60 2d3b bbdb b13c 1f40 853d ec3a e4bb
00000370: 2537 113e ef38 9abd d53b 243d b178 1b3b
00000380: 336b c33b 1107 b83d bb4e 32bd 5810 d1bc
00000390: 593d c4bd 21b2 55bd 673e 2d3c 95fc 02be
000003a0: d9ba 123e ad1e 57bd 2404 65bd 5362 a83d
000003b0: d369 13be b2f8 833d 934a 013e 02b9 583d
000003c0: c8b1 3dbd 48c5 b7bd 56d1 adbc 035c 7abd
000003d0: c794 acbd 867d a2bc 8fe6 13bd 0a13 5e3d
000003e0: 9c7c bbbd 8481 0bbd 5923 553d 30f2 fb3d
000003f0: 77e4 f7bd 1db2 e03d e9b8 69bc 1a68 2bbd

weight f4 [100, 60]
-0.12580629 -0.12815164 0.17912868 0.09923013 -0.07202611 -0.07060475 0.03427585 -0.023516426
0.035123825 -0.08771397 -0.1304638 -0.016659906 -0.004057297 -0.008697939 0.013198707 0.039476853
-0.06612951 -0.054188356 0.11418577 0.08238826 -0.071940355 -0.041777115 -0.14250834 0.013108167
0.0018398877 0.04571634 -0.16203009 0.038305454 0.060027245 -0.1625755 0.04303293 -0.15441863
0.15489914 -0.13984789 0.11273233 -0.06823765 0.11773504 -0.14958729 0.06243503 0.077416755
0.030176029 0.089685686 0.08284342 0.10642276 -0.071694985 0.07967025 -0.07107167 0.0031310616
0.15166964 -0.08580392 -0.055006705 -0.022094067 0.09387235 -0.06312802 -0.073470995 0.14406285
-0.15646686 -0.16174312 -0.16294217 0.08288705 0.0024952549 -0.194525 0.09198897 -0.11872355
0.01577643 0.06779453 0.0053521204 -0.034597527 -0.0016094432 -0.043547492 -0.0052927923 -0.09358929
-0.0742727 0.111534745 0.10229634 -0.1201972 0.07348416 -0.032837357 -0.092472985 -0.08283864
-0.11866089 0.092842475 0.095785625 0.16106664 -0.049761537 0.13381383 -0.16825451 -0.13650045
0.14699826 0.0720817 0.00830006 0.1667938 -0.00019977038 -0.033415955 -0.019036299 0.12842281
0.094380125 0.09012538 -0.09921497 0.018244976 -0.019279752 -0.09004301 -0.12796518 -0.11953772
-0.057869196 0.15752317 0.07806397 -0.14903449 -0.17334227 0.13755666 0.038700912 -0.034852367
0.079533994 -0.040172733 0.1631263 0.07710895 -0.1022862 -0.041183617 0.05122998 0.13448907
0.038060002 -0.04102801 0.10286853 0.08521972 0.040393647 -0.09144601 0.08681854 -0.12114158
-0.09411154 0.020187197 -0.11307387 -0.016723618 0.12215511 -0.004716768 0.1646572 -0.035293803
0.11849105 0.11631118 0.100392036 -0.079925664 -0.11414206 0.12621425 0.07657965 -0.052166868
0.116820544 -0.02249944 -0.02501676 0.007977684 -0.05960311 0.05801423 -0.043722384 -0.11339221
0.084869824 0.021930488 -0.045139767 0.037418842 -0.0029255361 -0.14891082 0.104657054 -0.10821393
0.055667404 0.14757247 0.15639625 0.04882912 0.019276049 0.005400286 -0.13073395 0.017155347
0.16119349 -0.11987086 0.03221734 0.10737698 -0.16109432 0.05553116 -0.05884002 0.13515319
-0.06323482 -0.14435095 -0.08126722 0.09593902 -0.120138995 0.029198011 -0.07458959 -0.099994116
-0.15055668 0.07751219 -0.051270623 0.06464007 -0.107421294 -0.12628715 0.042625673 0.113100305
-0.07028354 -0.07635773 0.080469124 -0.07703771 -0.009428163 0.058554236 -0.09883509 0.061270956
0.013071064 -0.054493867 -0.15788287 0.11355169 0.10423185 0.11345708 -0.035050415 -0.089738406
-0.01095182 -0.14177977 0.038205013 -0.05948978 -0.031360675 -0.10843393 -0.05532519 0.037620313
0.14925192 0.09452215 -0.0029092692 -0.065211326 -0.0036215035 0.07689839 -0.08601904 -0.058841944
0.13207641 0.028637106 0.025492745 -0.034613363 -0.13456321 0.07211458 0.038949814 0.04564633
0.13400178 0.046278264 -0.13076733 -0.085967846 0.004550618 -0.020502329 0.12008526 -0.12416392
0.09091517 -0.02309053 0.014303114 0.12562653 0.042110275 0.067968465 0.10020714 0.0292806
-0.005887851 -0.07126597 0.05283858 -0.06772757 -0.057340547 0.061263982 0.06406551 -0.09352406
00000000: 5dd3 00be 2f3a 03be 826d 373e 2b39 cb3d
00000010: 6d82 93bd 3999 90bd d564 0c3d 85a5 c0bc
00000020: 00de 0f3d 62a3 b3bd 4d98 05be 5b7a 88bc
00000030: 13f3 84bb cd81 0ebc 643f 583c 7bb2 213d
00000040: e96e 87bd 9cf4 5dbd 3bda e93d 2dbb a83d
00000050: 7755 93bd 7b1e 2bbd b5ed 11be a3c3 563c
00000060: 6328 f13a 0f41 3b3d 37eb 25be 2ee6 1c3d
00000070: 21df 753d 317a 26be 4c43 303d eb1f 1ebe
00000080: e19d 1e3e 4934 0fbe 35e0 e63d 2ec0 8bbd
00000090: 121f f13d 692d 19be e0bb 7f3d ad8c 9e3d
000000a0: b833 f73c 21ad b73d d0a9 a93d 2df4 d93d
000000b0: d2d4 92bd 282a a33d 068e 91bd 7f32 4d3b
000000c0: 494f 1b3e f7b9 afbd b64e 61bd 9efe b4bc
000000d0: 2640 c03d 4349 81bd f677 96bd 3685 133e
000000e0: d938 20be fd9f 25be 50da 26be b0c0 a93d
000000f0: 6e87 233b 9031 47be b764 bc3d 5525 f3bd
00000100: 923d 813c dcd7 8a3d d760 af3b 23b6 0dbd
00000110: f4f3 d2ba db5e 32bd 296f adbb beab bfbd
00000120: 491c 98bd 546c e43d be80 d13d f329 f6bd
00000130: dd7e 963d 7780 06bd 7a62 bdbd 4ea7 a9bd
00000140: 7b04 f3bd 3224 be3d 412b c43d a7ee 243e
00000150: c1d2 4bbd 7e06 093e e94a 2cbe c6c6 0bbe
00000160: b686 163e 929f 933d fafc 073c fecb 2a3e
00000170: 7479 51b9 2bdf 08bd 03f2 9bbc 4581 033e
00000180: 5e4a c13d a893 b83d 3831 cbbd 7d76 953c
00000190: 92f0 9dbc 7868 b8bd 4e09 03be 31d0 f4bd
000001a0: 4008 6dbd c14d 213e 01e0 9f3d 7f9c 18be
000001b0: a380 31be a7db 0c3e d984 1e3d 5bc1 0ebd
000001c0: b8e2 a23d 2a8c 24bd 950a 273e 4ceb 9d3d
000001d0: 6d7b d1bd 27b0 28bd 87d6 513d 81b7 093e
000001e0: cee4 1b3d fd0c 28bd bcac d23d ad87 ae3d
000001f0: cf73 253d 0c48 bbbd ebcd b13d 1419 f8bd
00000200: 8dbd c0bd 9f5f a53c 4693 e7bd f8ff 88bc
00000210: 752c fa3d 1e8f 9abb e69b 283e 3c90 10bd
00000220: 70ab f23d 8e34 ee3d 579a cd3d 11b0 a3bd
00000230: 50c3 e9bd 4f3e 013e cbd5 9c3d edac 55bd
00000240: 9c3f ef3d bf50 b8bc f3ef ccbc d5b4 023c
00000250: 6422 74bd 54a0 6d3d 3e16 33bd 2d3a e8bd
00000260: 3bd0 ad3d 91a7 b33c 7ae4 38bd 8044 193d
00000270: 5aba 3fbb 147c 18be 7056 d63d 449f ddbd
00000280: 8103 643d 3d1d 173e 5726 203e 0b01 483d
00000290: cee8 9d3c e2f4 b03b 1fdf 05be 5f89 8c3c
000002a0: e80f 253e da7e f5bd 54f6 033d 76e8 db3d
000002b0: e9f5 24be a474 633d 3c02 71bd 9965 0a3e
000002c0: 4281 81bd bcd0 13be 6e6f a6bd ad7b c43d
000002d0: 6f0b f6bd ab30 ef3c 6dc2 98bd b7c9 ccbd
000002e0: 882b 1abe b6be 9e3d 2501 52bd 0362 843d
000002f0: b2ff dbbd 6b51 01be 4298 2e3d 22a1 e73d
00000300: d1f0 8fbd 7161 9cbd ffcc a43d f2c5 9dbd
00000310: 9578 1abc 91d6 6f3d 0d6a cabd 41f7 7a3d
00000320: 0428 563c f634 5fbd 0cac 21be ca8d e83d
00000330: 8277 d53d 305c e83d 0691 0fbd c5c8 b7bd
00000340: 436f 33bc b72e 11be dc7c 1c3d 8eab 73bd
00000350: 0d74 00bd 9c12 debd ab9c 62bd c217 1a3d
00000360: 7fd5 183e d494 c13d 70a9 3ebb 848d 85bd
00000370: bf56 6dbb e77c 9d3d c02a b0bd 4004 71bd
00000380: 0a3f 073e 5d98 ea3c 29d6 d03c bec6 0dbd
00000390: f0ca 09be cfb0 933d d789 1f3d a5f7 3a3d
000003a0: c337 093e 478e 3d3d dfe7 05be e90f b0bd
000003b0: 5a1d 953b 80f4 a7bc 43ef f53d a749 febd
000003c0: bc31 ba3d 5a28 bdbc 9c57 6a3c 3ea4 003e
000003d0: d37b 2c3d 0d33 8b3d 6739 cd3d dedd ef3c
000003e0: e0ee c0bb e5f3 91bd 446d 583d c1b4 8abd
000003f0: ecdd 6abd f1ef 7a3d c734 833d 8b89 bfbd

weight f4 [100]
0.99131894 1.059978 1.0224451 1.0264764 1.0332335 1.0205684 0.96147066 1.0737785
1.0233604 0.93412703 1.0283036 1.0284649 0.9968199 0.9873966 0.99573326 0.996545
0.9611218 1.0212191 0.9809766 1.0097685 0.9939948 0.98818725 1.018689 0.95974344
1.0292115 0.9638641 0.9816084 0.9626231 1.0546552 0.945531 1.01025 1.0292833
1.0066694 0.9756752 0.94604933 1.0234782 0.99211454 1.0038404 1.0523231 1.0099453
1.0775493 1.0091511 1.003939 1.0605875 0.99576926 1.0235021 1.0296863 1.0130475
0.97108084 0.97186 0.9653865 1.0755105 1.0024959 1.035486 1.0059844 0.99735373
1.0246094 0.9654189 1.0059419 1.0398622 1.0928464 0.9840085 1.0151383 1.0089095
0.99091333 0.98252827 1.0008115 0.9777333 0.99524575 1.0206302 1.0224847 1.051187
0.99061155 0.9965346 0.9841975 1.0143305 1.0761012 1.0014539 0.9727987 1.0236982
1.0126071 0.97783756 1.0290413 0.98097056 0.9948874 0.9500848 0.98005885 1.0200948
1.0326144 0.9432935 0.9738353 0.9456892 0.97995096 0.99774534 1.0133858 1.0391678
1.0287406 0.9894881 0.992624 1.0565498
00000000: 14c7 7d3f 5cad 873f 7bdf 823f 9463 833f
00000010: ff40 843f fca1 823f f122 763f 9371 893f
00000020: 79fd 823f f322 6f3f 749f 833f bda4 833f
00000030: 972f 7f3f 06c6 7c3f 60e8 7e3f 931d 7f3f
00000040: 140c 763f 4fb7 823f 4821 7b3f 1840 813f
00000050: 7176 7e3f d7f9 7c3f 6764 823f bfb1 753f
00000060: 34bd 833f ccbf 763f b04a 7b3f 786e 763f
00000070: f1fe 863f 520e 723f df4f 813f 8ebf 833f
00000080: 8bda 803f dac5 793f 4a30 723f 5501 833f
00000090: 38fb 7d3f d87d 803f 86b2 863f e345 813f
000000a0: 23ed 893f dd2b 813f 1381 803f 55c1 873f
000000b0: bcea 7e3f 1e02 833f c3cc 833f 8aab 813f
000000c0: c198 783f d1cb 783f 9223 773f 54aa 893f
000000d0: c951 803f ce8a 843f 19c4 803f 9352 7f3f
000000e0: 6726 833f b125 773f b4c2 803f 341a 853f
000000f0: 64e2 8b3f fbe7 7b3f 0df0 813f f223 813f
00000100: 7fac 7d3f f986 7b3f 971a 803f bb4c 7a3f
00000110: 6dc8 7e3f 03a4 823f c7e0 823f 4c8d 863f
00000120: b898 7d3f e41c 7f3f 5ef4 7b3f 95d5 813f
00000130: afbd 893f a42f 803f 5609 793f 8b08 833f
00000140: 1c9d 813f 9053 7a3f a0b7 833f e320 7b3f
00000150: f1b0 7e3f c238 733f 23e5 7a3f 7792 823f
00000160: b52c 843f af7b 713f 454d 793f b018 723f
00000170: 11de 7a3f 3d6c 7f3f a0b6 813f 7303 853f
00000180: c6ad 833f 184f 7d3f 9b1c 7e3f 063d 873f

bias f4 [100]
0.025991715 -0.023866434 0.0012920634 0.036560968 0.032271 -0.026484502 -0.013920163 -0.036297157
-0.00035367496 -0.028179133 -0.042860005 0.016183114 0.025143797 -0.018762015 -0.018235864 -0.03020028
0.05283659 -0.00058857125 -0.047185607 -0.023294872 0.030253604 0.04597147 -0.002412346 -0.026302557
-0.007872684 0.050636664 -0.023198897 -0.032260496 -0.01766071 0.015773611 0.05485774 -0.000271818
-0.00045422808 -0.004409541 0.0016147756 0.03983373 -0.01300059 -0.022034517 0.018689869 0.022485094
-0.03392531 -0.019898156 0.0020977203 0.017641328 0.026514046 -0.04001409 0.027662141 0.052822664
-0.017635427 -0.024813596 0.029312804 -0.001308259 -0.023405965 0.0048729056 -0.041727506 -0.009056722
-0.012364139 0.013038673 -0.029154966 -0.030689513 0.056771375 -0.010040212 -0.012874812 -0.024152186
-0.0037174947 0.0063209366 -0.015230232 -0.008371288 0.004819218 0.024710903 -0.028501749 -0.01948254
0.008983383 -0.009710573 -0.017475866 -0.0189008 -0.0405714 -0.01690748 -0.008226097 0.030633094
-0.0021557761 0.0021417276 0.047544237 -0.012466927 0.03663439 0.031084463 0.05750544 0.01254209
-0.012548316 0.009791089 -0.01142402 0.01623804 -0.01063365 -0.0010337245 0.023761304 -0.007263001
-0.0019089453 0.008615005 0.015934935 -0.03019574
00000000: 94ec d43c 8a83 c3bc 745a a93a f4c0 153d
00000010: 992e 043d 07f6 d8bc 6511 64bc 54ac 14bd
00000020: 736d b9b9 edd7 e6bc f98d 2fbd 7392 843c
00000030: 5dfa cd3c ccb2 99bc 6163 95bc 9466 f7bc
00000040: 2e6b 583d 594a 1aba b245 41bd e3d4 bebc
00000050: 68d6 f73c 954c 3c3d 7318 1ebb 7678 d7bc
00000060: 6efc 00bc 6468 4f3d 9d0b bebc 9523 04bd
00000070: 31ad 90bc a937 813c 82b2 603d cb82 8eb9
00000080: 7625 eeb9 e97d 90bb e1a6 d33a b128 233d
00000090: 6d00 55bc bb81 b4bc 7f1b 993c a932 b83c
000000a0: 44f5 0abd 7501 a3bc e879 093b 8c84 903c
000000b0: fc33 d93c d0e5 23bd b79b e23c 945c 583d
000000c0: 2c78 90bc e245 cbbc 6821 f03c e379 abba
000000d0: debd bfbc e5ac 9f3b 76ea 2abd a562 14bc
000000e0: f592 4abc 29a0 553c 65d6 eebc 9368 fbbc
000000f0: 1a89 683d b47f 24bc e0f0 52bc ceda c5bc
00000100: 36a1 73bb dc1f cf3b 3988 79bc ba27 09bc
00000110: 88ea 9d3b 856e ca3c 807c e9bc d999 9fbc
00000120: 0a2f 133c 1819 1fbc 8c29 8fbc dad5 9abc
00000130: 322e 26bd 8e81 8abc c0c6 06bc 41f2 fa3c
00000140: ec47 0dbb 3a5c 0c3b bfbd 423d 1542 4cbc
00000150: f10d 163d d8a4 fe3c d38a 6b3d 577d 4d3c
00000160: 7497 4dbc ce6a 203c d02b 3bbc a305 853c
00000170: c338 2ebc 0a7e 87ba 11a7 c23c 78fe edbb
00000180: 9335 faba f325 0d3c fb89 823c 0e5d f7bc

running_mean f4 [100]
1.7041568 -0.23239924 1.0244361 0.056754045 0.21011616 -0.15388244 -1.1702845 -0.64415854
1.2195317 0.2563019 -0.71958864 2.1134274 0.087088905 -0.99560916 -0.34277558 0.13210537
1.6339972 1.0666281 -1.5592914 -2.1533756 1.349218 -0.68226737 -0.83150727 -0.67852455
-0.11232045 1.0816214 -0.5522941 -0.11710206 -1.7207537 -1.1135774 0.5866795 -0.78069246
0.2787702 -0.83704334 -0.5886617 0.7172467 0.39995483 -0.84381044 2.5125313 0.8566631
0.051096812 -1.041977 -0.24776526 1.7738277 1.399666 0.22634369 1.5777551 0.12027417
-1.7874169 -1.2866101 1.4046656 0.8054276 -0.96223956 0.1481327 -0.49371397 0.85102236
-0.7145845 -0.33528945 -0.98586863 -1.8594801 0.20432992 -1.1734933 0.14125423 0.11002688
-1.6761904 -1.2310115 -2.0261574 0.38552612 -0.96299726 1.460522 -1.9086653 -1.6632224
1.5740762 -1.7168983 -0.7135288 -0.649154 -1.7620438 0.73558223 0.4931703 1.4556464
0.1558375 0.7727876 -0.67469466 -1.5598319 1.2199228 0.5339148 1.4554396 -0.112003684
-1.0145137 -0.28155667 -0.5580705 -0.038870327 -1.1486533 0.25932178 0.7593297 1.4452868
2.4443247 -0.062189173 -0.45165825 -0.94797283
00000000: cf21 da3f 11fa 6dbe b920 833f ee76 683d
00000010: b128 573e 5c93 1dbe e2cb 95bf 93e7 24bf
00000020: 9d19 9c3f 013a 833e f636 38bf 6542 0740
00000030: ab5b b23d 3ee0 7ebf 4880 afbe a146 073e
00000040: d226 d13f 4587 883f dc96 c7bf e8d0 09c0
00000050: 2db3 ac3f 13a9 2ebf a9dd 54bf c9b3 2dbf
00000060: 4408 e6bd 9272 8a3f 2563 0dbf 34d3 efbd
00000070: a841 dcbf b489 8ebf a130 163f 76db 47bf
00000080: f8ba 8e3e 7948 56bf 88b2 16bf 7b9d 373f
00000090: e1c6 cc3e f603 58bf 50cd 2040 464e 5b3f
000000a0: e44a 513d 815f 85bf 2db6 7dbe c90c e33f
000000b0: 4128 b33f a4c6 673e e1f3 c93f 4e52 f63d
000000c0: 14ca e4bf a4af a4bf 15cc b33f 8130 4e3f
000000d0: 5555 76bf 19b0 173e 14c8 fcbe 9adc 593f
000000e0: 03ef 36bf 0fab abbe e361 7cbf 7203 eebf
000000f0: dd3b 513e 0735 96bf f3a4 103e c655 e13d
00000100: 688d d6bf c991 9dbf 90ac 01c0 ae63 c53e
00000110: fd86 76bf 63f2 ba3f 254f f4bf 79e4 d4bf
00000120: 547b c93f 53c3 dbbf d3a9 36bf f52e 26bf
00000130: a78a e1bf 1e4f 3c3f d180 fc3e 9f52 ba3f
00000140: de93 1f3e 68d5 453f cab8 2cbf 92a8 c7bf
00000150: 6e26 9c3f a4ae 083f d84b ba3f 3062 e5bd
00000160: 96db 81bf 3228 90be b5dd 0ebf 7e36 1fbd
00000170: 1207 93bf d3c5 843e 6e63 423f 28ff b83f
00000180: d16f 1c40 13ba 7ebd c03f e7be 59ae 72bf

running_var f4 [100]
5.2326183 2.9296718 6.6422863 2.5693097 1.1267692 1.5620543 4.3680553 1.253624
4.2191534 4.9685245 6.0104866 10.822651 2.0564065 1.954743 1.2988102 15.262371
3.3295047 10.713381 4.725473 4.956329 3.994987 1.6182684 13.459999 8.231406
1.3678614 5.100268 1.1294309 8.082475 5.8048882 5.1049914 8.08121 2.9791987
7.1088047 3.8854146 12.185341 3.5267737 3.0743194 3.97285 6.480735 2.831605
1.2837949 17.202032 2.804701 1.8680841 4.122443 1.391708 3.733327 8.265035
7.8629904 3.0256164 9.507754 1.8404999 9.229479 2.035831 2.1297972 3.5100553
2.540913 6.803252 8.0449 3.2623298 1.0030321 2.1885166 1.9856069 4.2730417
3.9983451 4.056314 12.41202 3.873319 2.8268206 7.0629416 2.0304878 2.680082
7.8913693 3.3395262 3.9462326 1.2353407 2.360848 6.1855354 2.8682156 5.54932
5.441266 4.016067 3.1869018 3.406522 3.2994845 3.2312288 8.443795 2.9410925
6.8220954 0.8384613 5.4043994 7.411276 2.1885672 4.3559914 2.0974727 2.3452885
21.056585 7.8399005 3.7581313 2.97816
00000000: 9c71 a740 be7f 3b40 9c8d d440 926f 2440
00000010: f939 903f 65f1 c73f 1cc7 8b40 c076 a03f
00000020: 4e03 8740 27fe 9e40 e855 c040 9429 2d41
00000030: 2a9c 0340 0535 fa3f 6a3f a63f ac32 7441
00000040: 9b16 5540 026a 2b41 1337 9740 3f9a 9e40
00000050: dead 7f40 6b23 cf3f 285c 5741 d7b3 0341
00000060: 1516 af3f 6535 a340 3191 903f d151 0141
00000070: a5c1 b940 175c a340 a34c 0141 31ab 3e40
00000080: 547b e340 a2aa 7840 28f7 4241 a9b6 6140
00000090: a6c1 4440 2d43 7e40 2e62 cf40 0439 3540
000000a0: 6453 a43f c39d 8941 3980 3340 611d ef3f
000000b0: 0eeb 8340 7d23 b23f d4ee 6e40 953d 0441
000000c0: 9e9d fb40 b3a3 4140 c31f 1841 8095 eb3f
000000d0: f2ab 1341 0e4b 0240 994e 0840 bfa4 6040
000000e0: 529e 2240 3eb4 d940 e9b7 0041 03ca 5040
000000f0: 5b63 803f a810 0c40 5e28 fe3f c2bc 8840
00000100: e3e4 7f40 53cd 8140 a297 4641 75e4 7740
00000110: a1ea 3440 9e03 e240 83f3 0140 7786 2b40
00000120: 1986 fc40 ccba 5540 138f 7c40 a51f 9e3f
00000130: 2218 1740 e8ef c540 d890 3740 0894 b140
00000140: da1e ae40 9f83 8040 33f6 4b40 7504 5a40
00000150: c12a 5340 74cc 4e40 c919 0741 dc3a 3c40
00000160: 9b4e da40 66a5 563f d7f0 ac40 2c29 ed40
00000170: 7c11 0c40 4864 8b40 fe3c 0640 3519 1640
00000180: e373 a841 77e0 fa40 3985 7040 2c9a 3e40

weight f4 [256, 100]
-0.09542238 0.014011651 0.079021074 0.08283478 -0.039051604 0.058200635 -0.06357686 -0.018420752
0.07035892 -0.019385427 0.00034304772 0.12336339 -0.0058780257 -0.07337256 0.011882873 0.01596724
-0.032698434 -0.044189803 0.047352277 -0.09301525 0.09621195 -0.043971512 0.0036414599 -0.04712849
-0.050520472 -0.029835695 -0.026215618 0.08905195 -0.024254845 0.001722196 0.111311875 0.03853839
0.0025410436 0.05673937 0.012354522 0.089648835 0.045489524 0.04190515 0.14252582 0.014283992
-0.070553295 -0.12018782 -0.07998277 0.020283818 0.058395114 0.016332792 -0.02782291 0.044997014
-0.025574425 -0.0540087 -0.056123488 0.033965208 0.038433105 -0.06651057 0.0612495 0.056622893
-0.013799288 -0.0068934658 -0.034959335 0.038894285 -0.064768784 -0.03789241 0.013803956 -0.04920772
-0.09875242 -0.027708456 0.061461378 -0.0049785287 0.065413736 0.07688418 -0.094902225 -0.14257944
0.066488534 0.050667524 -0.11388189 -0.041181486 -0.051087264 0.0359266 0.013920607 -0.019628288
0.09418633 -0.020225001 -0.10192805 -0.05192223 -0.017152382 0.053969927 -0.02190165 -0.072783776
-0.083190635 -0.018125877 -0.10981287 0.054297652 -0.07528075 -0.002804982 0.114697315 0.12449303
0.07205393 -0.12226273 -0.0046801497 -0.08424894 -0.08252569 -0.106126726 -0.06488754 -0.06547494
-0.0353841 -0.035743695 0.06412401 0.06496409 -0.011629132 0.0034479878 -0.08953683 0.014799335
0.08173621 -0.0058930633 -0.08673827 -0.024090905 0.090717 0.020136781 -0.045008354 -0.03402635
-0.055313844 -0.0723319 0.085007004 0.078055516 0.08817523 -0.07207139 -0.08291003 0.030732928
0.029650569 0.037286773 0.113566056 0.055787887 -0.05995253 0.05860599 -0.10728064 0.048212226
0.035413932 0.03762457 0.004848573 -0.054740712 -0.107635446 -0.004977207 0.011378592 0.06095347
-0.13290703 0.12441155 -0.051071815 0.022454316 -0.059403796 -0.074213184 0.033476204 -0.007518409
0.089038864 -0.0042463914 -0.056364745 0.017560896 0.025063753 -0.11258012 -0.030156521 -0.013988051
0.08020981 -0.109988116 0.004303404 -0.0029131293 -0.03418596 0.1029329 -0.059006047 0.09922696
-0.087083444 0.036521215 0.06796121 0.026698817 -0.009396398 0.026584262 -0.026644355 -0.060650975
0.021526657 0.008132734 0.07009945 0.11056671 -0.010344771 0.033497553 0.07455782 -0.100977026
0.037969273 -0.012338855 0.008035717 0.030462937 -0.03975969 0.074276365 0.08001653 -0.050774403
0.05855139 -0.058830082 0.043127887 0.035743132 0.067557685 0.101585515 0.06472019 -0.011009087
-0.010891747 0.064191304 0.010762909 0.0588201 -0.01975125 0.112452105 0.08718033 -0.03677414
0.11432067 0.07282815 -0.03857177 0.059123725 0.028328823 0.0145882955 -0.040179107 0.089392394
-0.017410291 -0.05114875 -0.047827646 0.0011229236 0.084679626 0.004321712 0.0316909 0.009009133
0.13672146 -0.025876667 -0.044530068 0.0027105676 -0.005783395 -0.13100797 0.07154752 0.026231742
0.04564815 0.059345596 -0.113513 0.07355127 0.029902942 0.062111158 0.08160378 -0.083573356
-0.111122005 0.018347401 -0.05911768 0.009786953 -0.01347215 -0.119256705 0.06532164 -0.096231826
-0.026631258 0.024884267 -0.022270346 0.078689136 -0.10418968 0.06279032 -0.043492276 0.12991862
00000000: cf6c c3bd 2091 653c cdd5 a13d 48a5 a93d
00000010: 93f4 1fbd ca63 6e3d 9634 82bd 1ee7 96bc
00000020: 5618 903d 30ce 9ebc 16db b339 f2a5 fc3d
00000030: 749c c0bb 5a44 96bd 62b0 423c bbcd 823c
00000040: cbee 05bd 5e00 35bd 76f4 413d c87e bebd
00000050: c50a c53d 791b 34bd 8fa5 6e3b ce09 41bd
00000060: 8eee 4ebd fd69 f4bc 23c2 d6bc de60 b63d
00000070: 19b2 c6bc 4fbb e13a 7bf7 e33d 6eda 1d3d
00000080: a387 263b 8b67 683d 9f6a 4a3c cf99 b73d
00000090: 3953 3a3d bca4 2b3d 4af2 113e 6807 6a3c
000000a0: 3f7e 90bd 0825 f6bd 02ce a3bd 402a a63c
000000b0: b72f 6f3d 59cc 853c dfec e3bc ca4e 383d
000000c0: 7581 d1bc 3a38 5dbd bee1 65bd 1a1f 0b3d
000000d0: 086c 1d3d b236 88bd c1e0 7a3d 68ed 673d
000000e0: 6916 62bc 95e2 e1bb 8531 0fbd 9d4f 1f3d
000000f0: 7fa5 84bd 1235 1bbd fd29 623c 098e 49bd
00000100: b53e cabd d8fc e2bc edbe 7b3d ed22 a3bb
00000110: a3f7 853d 7475 9d3d 195c c2bd 5800 12be
00000120: 242b 883d c088 4f3d e93a e9bd ebad 28bd
00000130: e140 51bd c527 133d 4213 643c 81cb a0bc
00000140: c3e4 c03d e7ae a5bc a7bf d0bd 67ac 54bd
00000150: 2783 8cbc 920f 5d3d 176b b3bc a90f 95bd
00000160: da5f aabd b87c 94bc 92e5 e0bd 3767 5e3d
00000170: cb2c 9abd cad3 37bb 6de6 ea3d 34f6 fe3d
00000180: 0391 933d e264 fabd f15b 99bb b58a acbd
00000190: 3b03 a9bd f858 d9bd c2e3 84bd ba17 86bd
000001a0: ebee 10bd fb67 12bd 7353 833d e50b 853d
000001b0: 1d88 3ebc a3f7 613b 165f b7bd e978 723c
000001c0: 5065 a73d 991a c1bb d6a3 b1bd 4a5a c5bc
000001d0: d6c9 b93d e4f5 a43c ae5a 38bd 375f 0bbd
000001e0: c590 62bd bf22 94bd 2718 ae3d 92db 9f3d
000001f0: 3795 b43d 2a9a 93bd bccc a9bd 9fc3 fb3c
00000200: c0e5 f23c 04ba 183d 5295 e83d d781 643d
00000210: c990 75bd d60c 703d f4b5 dbbd 2f7a 453d
00000220: 330e 113d 391c 1a3d c7e0 9e3b cc37 60bd
00000230: f96f dcbd d717 a3bb 466d 3a3c 59aa 793d
00000240: c818 08be 7ccb fe3d ae30 51bd 1df2 b73c
00000250: 6551 73bd 15fd 97bd 581e 093d fc5c f6bb
00000260: 025a b63d 5025 8bbb b8de 66bd dedb 8f3c
00000270: 8052 cd3c 6890 e6bd cf0a f7bc 232e 65bc
00000280: 0a45 a43d 7341 e1bd 9203 8d3b 33ea 3ebb
00000290: 9406 0cbd 7cce d23d 53b0 71bd 8137 cb3d
000002a0: ce58 b2bd 4597 153d 3f2f 8b3d 7ab7 da3c
000002b0: 5af3 19bc 3dc7 d93c 4345 dabc 286d 78bd
000002c0: ac58 b03c 293f 053c 4d90 8f3d cd70 e23d
000002d0: 1d7d 29bc bb34 093d c5b1 983d 0bcd cebd
000002e0: ab85 1b3d e928 4abc 3da8 033c 698d f93c
000002f0: 0fdb 22bd 351e 983d b5df a33d d2f8 4fbd
00000300: 95d3 6f3d d0f7 70bd dea6 303d 6467 123d
00000310: af5b 8a3d 110c d03d 058c 843d 755f 34bc
00000320: 4c73 32bc bb76 833d ea56 303c 58ed 703d
00000330: 60cd a1bc 4a4d e63d 9a8b b23d 7ba0 16bd
00000340: f520 ea3d ed26 953d 6ffd 1dbd b82b 723d
00000350: d911 e83c bf03 6f3c d992 24bd 5c13 b73d
00000360: 07a0 8ebc 5a81 51bd ece6 43bd 102f 933a
00000370: 836c ad3d 269d 8d3b 51ce 013d 0b9b 133c
00000380: b600 0c3e 4efb d3bc 2965 36bd c7a3 313b
00000390: a282 bdbb f426 06be 8287 923d f3e3 d63c
000003a0: 8ef9 3a3d 5e14 733d 8179 e8bd 0ca2 963d
000003b0: 04f7 f43c 4568 7e3d e21f a73d 8228 abbd
000003c0: ef93 e3bd 4a4d 963c 6125 72bd 7559 203c
000003d0: 4bba 5cbc dc3c f4bd 5ac7 853d 3115 c5bd
000003e0: cc29 dabc 17da cb3c 4d70 b6bc c527 a13d
000003f0: 6661 d5bd 3698 803d f524 32bd 6309 053e
