transformer_results_random_no_constants_no_param_tune/performance_prediction/DE-GA-ES-PSO_random_no_constants_dim_3_samples_50_fold_3_budget_10_n_heads_2_n_layers_1_d_model_100_d_k_30_d_v_30_aggregations_mean/trained_model_dict.pt (torch, 337211 bytes, 22 tensors)

W_P.weight f4 [100, 4]
0	0xbe107f5a	-0.14111081
1	0x3ee610b2	0.44934613
2	0xbee8e2a2	-0.45485407
3	0x3f0528c7	0.52015346
4	0x3cae7bdc	0.021299295
5	0x3e453d4b	0.19261663
6	0xbdc43f23	-0.09582355
7	0xbf252eb7	-0.64524406
8	0x3ee9f132	0.4569183
9	0xbd7b3bac	-0.061336204
10	0xbeb64d45	-0.35605827
11	0x3f0de4b9	0.5542713
12	0xbe73f00c	-0.2382204
13	0xbebe3819	-0.37152174
14	0xbe5ac438	-0.21363914
15	0x3f072909	0.5279699
16	0xbc62f480	-0.013852239
17	0xbedcb147	-0.43104002
18	0x3e0dbfea	0.1384274
19	0xbf34707d	-0.70484143
20	0xbd8a1ff0	-0.06744373
21	0x3eb9655f	0.36210153
22	0x3da72095	0.081605114
23	0x3f2f7577	0.6853861
24	0xbe30632c	-0.17225331
25	0xbe339997	-0.17539059
26	0xbec7b3e5	-0.39004436
27	0xbea0d939	-0.31415728
28	0x3eae4dfc	0.34043872
29	0xbe8c72a5	-0.27431217
30	0xbcdc5bfd	-0.026899332
31	0xbf0b11ba	-0.54323924
32	0x3ebc758b	0.36808428
33	0x3e1626a8	0.14663184
34	0x3ee66077	0.44995472
35	0x3f18e166	0.5971893
36	0x3e67b865	0.22628935
37	0xbe81878d	-0.2529873
38	0x3de68c60	0.11257243
39	0xbed9a72a	-0.4251035
40	0xbe4c3fee	-0.19946262
41	0xbe9c1332	-0.30483395
42	0x3eb2c035	0.34912267
43	0x3ee945ff	0.45561215
44	0x3ede85ea	0.43461543
45	0x3ee252f1	0.44203904
46	0x3e27f3d8	0.16401613
47	0x3f127170	0.5720434
48	0x3ec68a03	0.3877717
49	0x3e455dd2	0.19274071
50	0xbe599116	-0.21246752
51	0x3ee928b6	0.45538872
52	0x3e8980c4	0.26856053
53	0xbe5cdc9a	-0.21568528
54	0xbc9d77d5	-0.01922218
55	0xbefb5ecf	-0.4909577
56	0x3ee06b48	0.4383185
57	0x3ea4d794	0.32195723
58	0xbe5b07b3	-0.21389656
59	0x3e647021	0.22308399
60	0xbe46c180	-0.19409752
61	0x3ea655e0	0.32487392
62	0x3ee117ae	0.4396338
63	0x3f3a0c30	0.72674847
64	0x3e99124c	0.29896772
65	0xbed11f73	-0.40844306
66	0xbee02e4d	-0.43785325
67	0xbd428051	-0.047485653
68	0xbdec49dd	-0.11537526
69	0x3e8e3eff	0.27782437
70	0x3e9a8aa8	0.3018391
71	0xbf39dd48	-0.72603273
72	0xbd3ca1df	-0.04605281
73	0xbda4256f	-0.080149524
74	0xbe9b1687	-0.30290624
75	0x3ef0a831	0.4700332
76	0x3ec16be1	0.37777618
77	0xbec0c96a	-0.37653667
78	0xbda2e62c	-0.07954058
79	0x3f01d918	0.50721884
80	0x3eca0565	0.3945724
81	0x3eaee8fc	0.34162128
82	0xbef421c4	-0.4768201
83	0xbf14626e	-0.5796269
84	0x3e7c6e42	0.24651435
85	0xbcd330be	-0.025780078
86	0x3d355bb5	0.04427691
87	0x3e954715	0.29155794
88	0xbe85a410	-0.26101732
89	0xbe59ef03	-0.21282582
90	0xbe453f03	-0.19262318
91	0x3efbd42f	0.4918532
92	0x3e97936e	0.29604667
93	0x3e6492b0	0.22321582
94	0x3d60b430	0.05485934
95	0x3e0a9f7a	0.13537398
96	0xbe742915	-0.23843797
97	0xbd9f07f8	-0.07765192
98	0xbe649145	-0.22321041
99	0xbf15e694	-0.5855496
100	0x3cdfae25	0.027304718
101	0xbddb7310	-0.10715306
102	0x3eafbac8	0.3432219
103	0xbe13556d	-0.14388056
104	0xbeb874f4	-0.36026728
105	0x3e892478	0.26785636
106	0xbddea949	-0.10872132
107	0xbdd31213	-0.10306182
108	0xbe6ac317	-0.22925983
109	0xbe56e740	-0.20986652
110	0x3e76e4ba	0.2411069
111	0x3e9fb55a	0.31193048
112	0xbe8ef781	-0.27923205
113	0xbdaf0e82	-0.08547689
114	0x3ed0c806	0.40777606
115	0xbec31496	-0.38101643
116	0x3e606a87	0.21915637
117	0x3c4f87f9	0.012666696
118	0x3e77594c	0.24155158
119	0xbe11b8a3	-0.1423059
120	0xbd969b17	-0.073538
121	0xbec20150	-0.37891626
122	0x3e91215d	0.28345767
123	0xbe97c68f	-0.29643676
124	0x3eee13c7	0.46499464
125	0xbed79e26	-0.42112845
126	0xbe9aa93f	-0.3020725
127	0x3f272ffb	0.6530759
128	0xbed20e96	-0.41026753
129	0xbee42d1c	-0.44565666
130	0x3e1c64c9	0.15272821
131	0x3eb792e1	0.35854247
132	0xbd856fea	-0.065154865
133	0xbeac5937	-0.33661816
134	0x3dd70c3f	0.10500383
135	0x3e8be39d	0.27322093
136	0xbaf8b2f7	-0.0018974234
137	0x3e8aa13c	0.27076137
138	0x3e2ece14	0.170708
139	0x3f2280ff	0.6347808
140	0x3e34cbda	0.17655888
141	0xbdbeca0b	-0.093158804
142	0xbedd02ee	-0.43166298
143	0x3e802679	0.25029352
144	0x3eef57be	0.4674663
145	0x3e906e65	0.28209224
146	0xbcef5573	-0.02921555
147	0x3f129ec1	0.5727349
148	0xbedd3e9b	-0.43211827
149	0x3f0025ff	0.5005798
150	0xbe969f9e	-0.29418653
151	0xbcf17466	-0.029474448
152	0xbeb4f066	-0.3533966
153	0xbdddf1b6	-0.10837118
154	0xbd395d12	-0.045254774
155	0x3ee22c63	0.4417449
156	0x3e297ad1	0.16550757
157	0xbe9b60f7	-0.30347416
158	0xbea9c0f2	-0.33155018
159	0xbf2ac49b	-0.66706246
160	0xbd89ef02	-0.0673504
161	0xbe9e91e2	-0.30970675
162	0xbe9eace8	-0.30991292
163	0x3edde71f	0.43340394
164	0xbe962ada	-0.29329568
165	0xbed2ca93	-0.41170177
166	0x3ef28e54	0.47374213
167	0xbe95ce47	-0.2925894
168	0xbc844776	-0.016147356
169	0xbeb43820	-0.3519907
170	0x3ea0b8d2	0.31391007
171	0x3f26a9a8	0.65102625
172	0x3e39feaf	0.1816356
173	0xbedc2ea0	-0.43004322
174	0x3b1e2f4d	0.002413708
175	0x3e8f12be	0.27943987
176	0xbc89e40c	-0.016832374
177	0x3dac8a1e	0.08424781
178	0xbe71c200	-0.23609161
179	0x3e9ca692	0.30595833
180	0x3ebd5980	0.36982346
181	0xbe251dfe	-0.16124722
182	0xbed9c9b9	-0.42536715
183	0x3f0cbb1a	0.54972994
184	0x3dd5ffbf	0.1044917
185	0x3ea8f8e9	0.33002403
186	0x3dc18f24	0.0945113
187	0xbec3f375	-0.3827168
188	0x3dae17b4	0.08500615
189	0xbea54b37	-0.32283947
190	0x3e8f5e65	0.28001705
191	0xbdd4f7f7	-0.10398858
192	0xbcd99e75	-0.026564816
193	0xbe942b94	-0.28939497
194	0x3ed1e1b6	0.40992516
195	0x3f370ada	0.71500933
196	0xbda31d2d	-0.07964549
197	0x3ec0f2d3	0.3768526
198	0xbd3bdde0	-0.045865893
199	0x3f1cdf56	0.61278284
200	0x3d612dda	0.054975368
201	0xbed7f6d9	-0.42180517
202	0x3e6e067b	0.2324466
203	0xbe3f755b	-0.18697111
204	0x3eae9c1b	0.34103474
205	0x3de9610b	0.113954626
206	0x3e27b2cc	0.163768
207	0x3f08ddd9	0.5346351
208	0x3eacb1a1	0.3372927
209	0xbe9928f7	-0.29914066
210	0xbeceddf0	-0.404037
211	0xbeb43b4b	-0.35201487
212	0x3f026dbb	0.50948685
213	0x3c4aac38	0.012370162
214	0xbeef38ee	-0.4672312
215	0xbe6f9940	-0.23398304
216	0x3ddfc3ea	0.109260395
217	0x3e847321	0.25869086
218	0xbd0feaf7	-0.03513619
219	0xbf303d62	-0.6884366
220	0xbec91e5a	-0.3928097
221	0xbd79994b	-0.060937207
222	0xbedada48	-0.4274466
223	0x3f181e2f	0.59421057
224	0x3d5673a8	0.052356392
225	0xbe9f572e	-0.311212
226	0xbe4ab078	-0.1979388
227	0xbf010077	-0.50391334
228	0xbe989101	-0.2979813
229	0xbdc1e47d	-0.09467409
230	0xbd630f19	-0.05543432
231	0x3eb43599	0.35197142
232	0x3ef14584	0.4712335
233	0xbe4ae68d	-0.1981451
234	0x3d9ea0e0	0.07745528
235	0xbef5f704	-0.4804002
236	0xbe1df492	-0.15425327
237	0x3ea20f4f	0.31652305
238	0xbdb61814	-0.08891311
239	0xbe9a0f9a	-0.30090028
240	0xbecd27e3	-0.40069494
241	0xbdae9b0e	-0.08525668
242	0x3e944ddc	0.28965652
243	0xbf0a1421	-0.53936964
244	0xbef4b2a9	-0.47792557
245	0xbd6cb726	-0.05779185
246	0x3e194fa8	0.14971793
247	0x3f04216d	0.51613504
248	0x3eabb868	0.33539128
249	0x3e8e857a	0.2783621
250	0xbe5fe5aa	-0.21864954
251	0x3eb1662f	0.34648272
252	0xbe5c91a9	-0.2153994
253	0xbea46056	-0.32104748
254	0xbe57296e	-0.21011898
255	0xbeba11ee	-0.36341804

W_P.bias f4 [100]
0	0xbf06560d	-0.52475053
1	0x3edbb07e	0.4290809
2	0x3da0a33d	0.07843635
3	0x3e5b9b4f	0.21445964
4	0x3f180c94	0.5939419
5	0x3edadf7d	0.42748633
6	0x3ec703c0	0.3887005
7	0xbd7d03ff	-0.06177139
8	0x3e0461db	0.12927954
9	0xbeaf4d1d	-0.3423852
10	0xbeef63bc	-0.4675578
11	0x3e1e12f0	0.15436912
12	0x3ee9888a	0.45611984
13	0xbe99a829	-0.3001111
14	0xbee172d6	-0.44032925
15	0xbe1bc83a	-0.15213099
16	0x3e9bc860	0.30426311
17	0x3c7b3362	0.015332075
18	0x3ed11ad6	0.40840787
19	0x3ec037c3	0.37542543
20	0xbe5798e1	-0.21054412
21	0x3e02a0f8	0.12756717
22	0xbd48fb3f	-0.049067732
23	0x3dc8d740	0.09806681
24	0xbe4c2901	-0.19937517
25	0xbeb8a540	-0.36063576
26	0x3ef39049	0.47571018
27	0x3e37f835	0.17965777
28	0x3e84b933	0.25922546
29	0xbe0646a4	-0.13112885
30	0xbd391edf	-0.045195457
31	0x3ea0dac1	0.31416896
32	0xbe733374	-0.23750097
33	0xbe4b33e9	-0.19844021
34	0xbe81e418	-0.25369334
35	0x3d1cd387	0.038287666
36	0xbe46e365	-0.19422682
37	0xbec14570	-0.3774829
38	0xbede8652	-0.43461853
39	0x3e8cd5f5	0.27506986
40	0x3dd75a3d	0.105152585
41	0x3e86c6b0	0.26323462
42	0x3eac201b	0.33618245
43	0xbe6508fa	-0.22366706
44	0xbde56d07	-0.11202436
45	0xbe019fd6	-0.12658629
46	0x3e899048	0.2686789
47	0xbe5f530d	-0.21809025
48	0xbf013081	-0.50464636
49	0x3d8512c0	0.06497717
50	0x3ed3d7e1	0.4137564
51	0x3de19ce8	0.110162556
52	0x3e153e73	0.14574604
53	0x3e26eb14	0.16300613
54	0x3f036095	0.5131925
55	0x3ea923bd	0.3303508
56	0x3daa1c18	0.0830614
57	0xbed794d2	-0.42105728
58	0x3f0719e6	0.5277389
59	0x3e6b1ed5	0.2296098
60	0x3eda5c02	0.4264832
61	0x3ea55e0a	0.3229831
62	0xbe9f6b06	-0.3113634
63	0x3d88e720	0.066847086
64	0x3e2e0bc6	0.16996679
65	0x3f121789	0.5706716
66	0xbe597201	-0.21234895
67	0x3ea94e27	0.33067438
68	0x3eeaa018	0.45825267
69	0x3ce15621	0.02750689
70	0xbf05bfe7	-0.52245945
71	0x3eb482b2	0.35255963
72	0xbe8d852b	-0.27640662
73	0xbe6ba3f8	-0.23011768
74	0xbf062a0d	-0.52407914
75	0xbf0015a5	-0.50033027
76	0x3ee04872	0.4380527
77	0xbe7d7bdb	-0.24754278
78	0x3c370f8b	0.011173139
79	0xbe9a6c25	-0.30160633
80	0x3e20b2a0	0.1569314
81	0xbefba284	-0.49147427
82	0xbea8d37b	-0.32973847
83	0x3e93ed44	0.28891957
84	0xbe42d7f8	-0.19027698
85	0xbf00e6cd	-0.50352174
86	0xbddfb61c	-0.109234065
87	0xbf000f77	-0.500236
88	0x3e57e323	0.2108274
89	0x3e9cc05a	0.30615503
90	0x3cbcdab7	0.02305351
91	0xbdee55fe	-0.116374955
92	0xbd244f11	-0.040114466
93	0x3e95c6b7	0.2925317
94	0x3d3b46ab	0.04572169
95	0x3da2f6b4	0.07957211
96	0xbe0706c7	-0.13186179
97	0xbf00dff8	-0.5034175
98	0x3f012867	0.50452274
99	0x3ea447d5	0.32086053

encoder.layers.0.self_attn.W_Q.weight f4 [60, 100]
0	0xbd896e1d	-0.067104556
1	0x3c822ee8	0.015891507
2	0x3d58d31c	0.052935705
3	0xbc171056	-0.009220203
4	0xbd86d9a8	-0.065844834
5	0x3c7e21ec	0.015511017
6	0xbddbcf50	-0.10732901
7	0xbd1b4217	-0.037904825
8	0x3d19a48f	0.03751045
9	0xbd47aa13	-0.04874618
10	0xbccc5fdc	-0.024948053
11	0x3dc0fba3	0.09422996
12	0x3de00a9a	0.10939522
13	0xbd82c9c7	-0.06386142
14	0xbd7b6b51	-0.06138164
15	0xbd77fcd0	-0.060543835
16	0xbdb52673	-0.08845224
17	0x3cadae68	0.021201327
18	0xbd4533c9	-0.04814509
19	0x3cfe9ca9	0.03108056
20	0x3c7b23d7	0.015328369
21	0x3dd11488	0.10208994
22	0xbc84b80c	-0.016201042
23	0x3de857dd	0.113448836
24	0x3cc8feca	0.024535555
25	0x3d565c8a	0.052334346
26	0x3da5b107	0.08090406
27	0xbd2d3d81	-0.042294983
28	0x3dbef275	0.09323589
29	0x3d66b187	0.056321647
30	0xbc52d8dc	-0.012869086
31	0x3d0fb141	0.035081152
32	0xbd56b66e	-0.052420072
33	0x3bee9839	0.00728133
34	0x3df8129e	0.12112926
35	0xbce26884	-0.027637728
36	0x3d5689f0	0.05237764
37	0x3b826f36	0.0039805425
38	0x3c52d886	0.012869006
39	0xbd03b409	-0.032154117
40	0xbe141d5f	-0.14464329
41	0xbd074d6c	-0.03303282
42	0x39d8275a	0.0004122805
43	0xbdbff282	-0.093724266
44	0xbddb8365	-0.10718421
45	0x3d1f5dca	0.038907804
46	0x3def75a7	0.11692362
47	0x3d8529f3	0.06502142
48	0xbdb1de61	-0.086849935
49	0x3d6b1138	0.057389468
50	0xbdd268e2	-0.10273911
51	0xbcc7a3d5	-0.024370113
52	0xbd9fa5e7	-0.07795315
53	0x3d7821c1	0.060579065
54	0x3e2618b7	0.16220365
55	0xbc4552ec	-0.012043696
56	0x3cef9282	0.029244665
57	0xbe06550a	-0.13118377
58	0x3c7c0d00	0.015383959
59	0x3d701091	0.05860955
60	0x3c5cd5ff	0.013478755
61	0xbd54b01c	-0.051925763
62	0xbd2521c6	-0.040315412
63	0xbddae877	-0.106888704
64	0x3ca253a4	0.019815274
65	0x3c0f6ec9	0.008754441
66	0x3e00c804	0.125763
67	0xbdf6904f	-0.120392434
68	0xbdb6e6ec	-0.089307636
69	0xbda70089	-0.08154399
70	0xbd4b7904	-0.049675956
71	0xbd4513ec	-0.048114702
72	0xbd8d9e40	-0.069149494
73	0x3de9288d	0.113846876
74	0xbd15ba1c	-0.03655444
75	0x3c3fdc48	0.011710234
76	0xbc45ce9f	-0.012073188
77	0xbd1e2518	-0.038609594
78	0x3cb2ca13	0.021824872
79	0x3e103458	0.14082468
80	0xbd0b4147	-0.0339978
81	0x3dc08b74	0.094015986
82	0x3e01874b	0.12649266
83	0xbd88fbd9	-0.06688661
84	0x3df2142c	0.11820254
85	0x3dae8624	0.08521679
86	0x3e0139de	0.12619731
87	0xbd164c27	-0.03669372
88	0xbe1267d1	-0.14297415
89	0xbd8936d6	-0.06699912
90	0x3c67cf68	0.014148571
91	0xba119edd	-0.00055549835
92	0x3d9c0027	0.076172166
93	0xbd6a0bcc	-0.057140157
94	0xbd34e738	-0.04416582
95	0x3dd8c9a1	0.10585333
96	0x3d4e8f2d	0.05042951
97	0xbdceedab	-0.10103925
98	0x3c80f197	0.015740199
99	0xbd2b9e86	-0.041899227
100	0xbd758a10	-0.05994612
101	0x3e5a2a36	0.21305165
102	0x3dcf5dc5	0.10125307
103	0x3d3eeba1	0.046611432
104	0x3db506fd	0.088392235
105	0x3d6e74eb	0.05821697
106	0x3d954889	0.072892256
107	0x3d75f19f	0.06004488
108	0x3d04f445	0.032459516
109	0xbc84748c	-0.016168855
110	0xbdb9d55a	-0.09073897
111	0xbbc37afa	-0.0059655877
112	0xbc6169aa	-0.013758102
113	0xbd4c4bb7	-0.049876895
114	0xbd1c480b	-0.038154643
115	0xbc799ea9	-0.015235581
116	0x3d529ebc	0.051420912
117	0xbd5959cb	-0.05306415
118	0x3d930764	0.07179144
119	0xbd74a6f1	-0.05972952
120	0xbc2b7862	-0.010465713
121	0x3c66fd47	0.014098472
122	0xbe09629d	-0.13416524
123	0xbc8f53d0	-0.01749602
124	0x3d880fee	0.06643663
125	0x3d2cb219	0.042162035
126	0x3c0498f3	0.008093107
127	0x3d01b8c2	0.03167034
128	0x3d604207	0.05475047
129	0x3ba863cf	0.0051388512
130	0x3bca6ee2	0.006177769
131	0xbdad7867	-0.084702305
132	0xbe2b2e66	-0.16716918
133	0x3cfe81b5	0.031067709
134	0xbdcf6f0a	-0.10128601
135	0x3d82f67c	0.063946694
136	0xbd526fa5	-0.051376004
137	0x3da1f836	0.079086706
138	0xbde23d5c	-0.110468596
139	0x3cbd8362	0.023133937
140	0x3d4b40fd	0.049622525
141	0xbd3fc799	-0.04682121
142	0x3cce0046	0.025146615
143	0xbd7852e7	-0.060625937
144	0x3d9cd1b1	0.07657183
145	0x3aa1342c	0.0012298874
146	0x3d30735b	0.04307876
147	0xbd93e1ed	-0.07220826
148	0xbe18a447	-0.14906417
149	0xbc98f90f	-0.018673448
150	0x3d06ec4a	0.032940187
151	0xbc8f10dc	-0.017464094
152	0x3c47686d	0.012170893
153	0x3dd353e7	0.103187375
154	0x3d51ddf8	0.051237077
155	0x3d2a3cb9	0.041561816
156	0xbcfe9213	-0.031075513
157	0xbdce60c3	-0.100770496
158	0xbc82e719	-0.015979337
159	0xbc0b7abb	-0.008513148
160	0x3dd4d71d	0.10392592
161	0xbdb314a8	-0.08744174
162	0x3bddf2e8	0.0067733414
163	0xbcb13e74	-0.021636225
164	0x3da505ac	0.080577224
165	0xbc836407	-0.016038908
166	0xbdb0bacc	-0.08629379
167	0xbda7e2da	-0.081975654
168	0xbdc2b3a0	-0.09506917
169	0x3c6b27e3	0.014352771
170	0xbbaafc6f	-0.0052180807
171	0xbd30b128	-0.0431377
172	0xbdccf8a7	-0.10008364
173	0x3aa4068c	0.0012514158
174	0xbe1a7eec	-0.1508748
175	0x3d7bbbe3	0.06145848
176	0xbdc14342	-0.094366565
177	0x3d89f598	0.067362964
178	0x3def1801	0.116745
179	0xbc0c181e	-0.008550672
180	0x3c25a078	0.0101090595
181	0xbe0d7994	-0.1381591
182	0x3da0852e	0.07837902
183	0x3d566311	0.05234057
184	0xbb724dfd	-0.0036972754
185	0xbd0fe839	-0.035133574
186	0x3cebdc9b	0.028791716
187	0xbde8696c	-0.113482326
188	0xbd4fcc82	-0.050732143
189	0x3c8505b4	0.016238071
190	0x3d81c0f7	0.06335633
191	0x3da9ca04	0.082904845
192	0x3dc7904c	0.09744319
193	0x3c0107c3	0.007875386
194	0x3d2f6819	0.042823885
195	0x3db4ecc9	0.08834226
196	0xbdec1d4c	-0.115290254
197	0x3c6b6463	0.014367196
198	0x3cb70adb	0.022344043
199	0xbdb5fd0c	-0.088861555
200	0x3d98dd37	0.074640684
201	0x3e1bc5fe	0.15212247
202	0x3d4ef9ee	0.05053132
203	0x3b7b066c	0.0038303388
204	0x3d46e14c	0.048554704
205	0x3d822658	0.0635497
206	0x3d0cd211	0.034380022
207	0x3d92d5c9	0.071696825
208	0x3cb46a2e	0.022023287
209	0xbd88559f	-0.06656956
210	0xbde18e85	-0.110135116
211	0xbd0f16c9	-0.03493384
212	0x3dde4a77	0.10854047
213	0x3d6d5357	0.057940807
214	0x3c977a5e	0.018490966
215	0xbde2f949	-0.110827036
216	0xbc70e844	-0.014703814
217	0xbd8825b0	-0.06647813
218	0x3d98a81b	0.074539386
219	0xbb2b0e4e	-0.0026101056
220	0x3dc6f789	0.09715182
221	0xbd863804	-0.06553653
222	0xbe029ead	-0.12755843
223	0x3c801caa	0.015638668
224	0xbd952cc7	-0.07283931
225	0x3bee1eaf	0.0072668414
226	0x3d79be29	0.060972366
227	0xbd3f7c75	-0.04674955
228	0x3d21e803	0.039527904
229	0x3d2d2fc3	0.042281877
230	0xbd8dfe51	-0.06933273
231	0xbd54d122	-0.051957257
232	0xbcb5069a	-0.022097874
233	0xbde179d4	-0.11009565
234	0x3ca237ac	0.019801937
235	0xbd0794d8	-0.033100933
236	0x3de40927	0.11134558
237	0x3c06da0b	0.008230696
238	0xbdb78742	-0.08961345
239	0x3d497527	0.04918399
240	0x3ce92e31	0.028464409
241	0xbda076be	-0.07835148
242	0xbd9b1852	-0.07572998
243	0xbdc5e541	-0.09662867
244	0x3dbe68ef	0.09297358
245	0x3d9cf93d	0.07664726
246	0x3d830fe0	0.06399512
247	0xbd3e0bf9	-0.046398137
248	0xbe426ee7	-0.18987618
249	0x3b757681	0.0037454667
250	0xbd35ba73	-0.044367265
251	0xbd6cfbeb	-0.057857435
252	0xbba592c5	-0.0050528967
253	0x3da2174a	0.07914598
254	0x3d57380d	0.05254369
255	0xbd48af7b	-0.048995476

encoder.layers.0.self_attn.W_K.weight f4 [60, 100]
0	0x3b8c2660	0.0042770356
1	0x3d7d5b9d	0.061854947
2	0xbc8def72	-0.01732609
3	0xbe17ce89	-0.1482488
4	0xbc3e834e	-0.011627985
5	0x3d4d9c7f	0.050198074
6	0xbe18e88f	-0.14932464
7	0x3d61c52e	0.055119686
8	0x3e171255	0.14753087
9	0x3c5f0fdd	0.013614622
10	0xbd30ca8e	-0.04316192
11	0x3cb84158	0.022492096
12	0xbc3b99dc	-0.011450257
13	0x3d99afc3	0.07504227
14	0xbc842f3a	-0.0161358
15	0xbda7abb6	-0.08187048
16	0xbd6b6361	-0.057467822
17	0x38ed0f3e	0.0001130388
18	0x3d4b8f9e	0.04969751
19	0xbd353bee	-0.044246607
20	0x3dae235a	0.085028365
21	0x3db9118d	0.09036551
22	0xbd121b6d	-0.035670687
23	0x3e04e21c	0.12976879
24	0xbe0f913e	-0.14020249
25	0xbd8db623	-0.069195054
26	0xbbee4af5	-0.007272119
27	0xbe038771	-0.12844636
28	0x3baf5b2e	0.0053514456
29	0x3defb033	0.11703529
30	0xbda3fc69	-0.08007128
31	0xbd417a9f	-0.04723608
32	0xbd8e6e03	-0.06954577
33	0xbd114b49	-0.03547219
34	0x3dce19bb	0.100635014
35	0x3da5b122	0.08090426
36	0x3dc57152	0.09640755
37	0x3d1f4a55	0.038889248
38	0xbc699d20	-0.014258653
39	0xbd25c0f1	-0.040467206
40	0xbe051b00	-0.12998581
41	0x3c5b5fee	0.013389571
42	0x3d37008a	0.04467825
43	0xbce9f562	-0.02855939
44	0xbdb5603d	-0.088562466
45	0x3dac7e79	0.0842256
46	0x3d7308d3	0.059334587
47	0x3dcee75d	0.10102723
48	0xbdcc8c8e	-0.09987746
49	0xbda6b837	-0.08140605
50	0xbaa6a128	-0.0012712823
51	0x3da526f5	0.08064071
52	0xbd338b54	-0.043834046
53	0x3b544458	0.003238937
54	0x3da69221	0.081333406
55	0xbe027fc6	-0.12744054
56	0xbd59659c	-0.053075418
57	0xbd775cda	-0.060391285
58	0x3db9140f	0.09037029
59	0x3d122413	0.035678934
60	0xbdef78f6	-0.11692993
61	0x3cc56d8e	0.024100091
62	0xbc962fe4	-0.018333383
63	0x3c87f7c5	0.016597638
64	0x3e0c274f	0.1368687
65	0xbd9bef1f	-0.07613968
66	0x3d10d742	0.035361536
67	0x3c805ce0	0.015669286
68	0xbd8b3de9	-0.06798918
69	0xbdce9a1a	-0.10087986
70	0x3d5af1cf	0.053453263
71	0x3d0e23bf	0.03470206
72	0xbcd76425	-0.02629287
73	0xbd8a9b5d	-0.067679144
74	0xbcfa3ffc	-0.030548088
75	0x3e072285	0.13196762
76	0xbdb493f6	-0.08817284
77	0x3d789480	0.060688496
78	0x3dda21ff	0.106510155
79	0x3cc99725	0.024608204
80	0x3c9e13b3	0.019296503
81	0x3dbc9f81	0.092101105
82	0xbd03837d	-0.03210782
83	0x3dbac967	0.09120446
84	0xbca359f4	-0.019940354
85	0x3e064a74	0.13114339
86	0x3d3c8e32	0.046034046
87	0x3d9774c1	0.07395316
88	0xbe059dd2	-0.13048485
89	0xbdfb33eb	-0.12265762
90	0x3d143bd4	0.03618987
91	0x3d1f3acc	0.038874432
92	0xbd7e816a	-0.062135138
93	0xbce9678e	-0.028491762
94	0x3db0689e	0.08613704
95	0x3d60ec2d	0.054912735
96	0xbde9ac97	-0.11409872
97	0xbc9de71f	-0.019275246
98	0x3d333f48	0.04376152
99	0x3db620f5	0.08893005
100	0x3dfaaf83	0.122405075
101	0x3d00c758	0.03144011
102	0xbcbe57d2	-0.023235235
103	0xbda775e7	-0.08176785
104	0x3d0c5bc4	0.034267202
105	0x3c04781d	0.008085278
106	0x3a54d6fc	0.00081191934
107	0xbc23f3a3	-0.010006818
108	0x3d86b00d	0.06576548
109	0xbda54abe	-0.080708966
110	0xbe26bf98	-0.16284025
111	0xbd23f2f8	-0.040026635
112	0x3dab6c12	0.08370222
113	0x3d7a12a7	0.061052945
114	0x3e0015e7	0.12508355
115	0x3d3d484e	0.046211533
116	0x3d018f93	0.031631064
117	0x3db00cdf	0.08596205
118	0xbdcc6278	-0.09979719
119	0x3d5d672c	0.05405347
120	0x3e1677fe	0.14694211
121	0xbdad99c3	-0.08476593
122	0xbe0beda9	-0.13664879
123	0x3dc3c155	0.095583595
124	0xbd0ce2bb	-0.034395915
125	0xbbdac38f	-0.0066761444
126	0x3c5150d7	0.012775621
127	0xbe342b67	-0.17594682
128	0x39c2f42e	0.00037184492
129	0xbd5eaf17	-0.054366197
130	0xbe0cbaa5	-0.13743074
131	0xbcc7855c	-0.024355583
132	0xbc58733f	-0.013211071
133	0xbdba65e6	-0.09101467
134	0xbca3fa24	-0.020016737
135	0xbc905015	-0.017616311
136	0x3e0f4715	0.1399196
137	0xbd578d7a	-0.052625157
138	0xbdf2372e	-0.11826931
139	0x3e0037c9	0.1252128
140	0x3d2fa28e	0.042879634
141	0x3cc748ed	0.024326766
142	0xbe1b1a9f	-0.15146874
143	0xbdc42710	-0.09577763
144	0x3d40eb4b	0.047099393
145	0x3d70d03a	0.05879233
146	0x3d386afe	0.04502391
147	0x3d3dbcc5	0.046322603
148	0xbe352c57	-0.17692696
149	0x3d9e9f77	0.07745259
150	0xbdfab689	-0.12241847
151	0xbd144356	-0.03619703
152	0x3ce87c7b	0.02837967
153	0x3dc4d412	0.09610762
154	0x3ddbe6a0	0.107373476
155	0xbda75713	-0.08170905
156	0x3d44605d	0.04794346
157	0xbcb74c1c	-0.022375159
158	0xbd9212e2	-0.07132508
159	0xbd273175	-0.04081865
160	0xbd9451b5	-0.07242147
161	0xbd0a2716	-0.03372868
162	0x3bc66068	0.006053973
163	0xbd0051ec	-0.031328127
164	0x3d9ee1a8	0.07757884
165	0xbd8842fb	-0.066534005
166	0x3d540a82	0.051767834
167	0xbd283043	-0.04106165
168	0x3d103b8f	0.03521305
169	0xbbd4dcc8	-0.0064960457
170	0xbc5932e8	-0.013256766
171	0xbd8d0243	-0.06885197
172	0xbcf4b30d	-0.029870534
173	0xbd64646b	-0.05575983
174	0x3d08c2e9	0.033389006
175	0x3d62eb73	0.055400323
176	0x3c1fa11b	0.009743
177	0xbe0d35f2	-0.1379011
178	0xbd396cd1	-0.04526979
179	0x3d9cc1c1	0.07654143
180	0x3e23bfcf	0.15991138
181	0xbd925e97	-0.07146948
182	0x3d95924d	0.07303295
183	0x3d22cac0	0.03974414
184	0xbdcc6cc3	-0.09981682
185	0xbbc82f72	-0.0061091715
186	0x3e11c986	0.14237031
187	0x3cbc2739	0.022967922
188	0xbdb537f6	-0.08848564
189	0xbe06340c	-0.13105792
190	0xbcabfc64	-0.020994373
191	0xbd156d19	-0.036480997
192	0x3db8b36d	0.09018598
193	0xbcbbe9d4	-0.022938646
194	0xbd6d4431	-0.05792636
195	0x3dda4422	0.106575266
196	0xbc36eb5d	-0.011164513
197	0xbc83486c	-0.016025744
198	0x3d3e2cb6	0.04642936
199	0xbc0f7e29	-0.008758106
200	0x3dcce30b	0.100042425
201	0x3d77bdeb	0.060483854
202	0x3d8cb01a	0.06869526
203	0xbe02b947	-0.1276599
204	0x3cf12b45	0.029439578
205	0xbdbf6eb2	-0.09347285
206	0x3dcbc212	0.09949125
207	0x3d7e6641	0.062109236
208	0xbd5e74e5	-0.054310698
209	0xbcf71fa1	-0.030166449
210	0xbe1f64de	-0.15565822
211	0x3d2db490	0.042408526
212	0x3dc25f58	0.094908416
213	0x3c9633bb	0.018335214
214	0xbcadd08f	-0.021217613
215	0xbdf3e285	-0.119084395
216	0xbd3250ca	-0.043534078
217	0x3d563a69	0.052301798
218	0x3dd07b6e	0.10179792
219	0x3db4573c	0.08805701
220	0x3e0cd217	0.13752018
221	0xbbc1fb63	-0.00591986
222	0xbdfe0637	-0.12403529
223	0x3db9375b	0.09043761
224	0xbda4db00	-0.080495834
225	0xbdcc4f41	-0.09976054
226	0xbc287e26	-0.010283982
227	0xbe1ea9fd	-0.15494533
228	0xbc2be83e	-0.010492383
229	0x3d1580e1	0.03649986
230	0x3d01df68	0.031707197
231	0xbd02d4d1	-0.03194124
232	0xbe2eee46	-0.17083082
233	0xbcdc8f33	-0.026923751
234	0xbce86611	-0.028368982
235	0xbc2189be	-0.0098595
236	0x3da4226a	0.080143765
237	0x3d2c0164	0.041993514
238	0xbdf73170	-0.12069976
239	0x3d997da7	0.074946694
240	0xbdb0b24c	-0.086277574
241	0xbd965d3b	-0.07342001
242	0x3c17252e	0.009225173
243	0xbd2afdf2	-0.041746087
244	0xbd41a5d6	-0.047277294
245	0x3d9679e8	0.073474705
246	0x3a8243ff	0.0009938477
247	0xbdaa5f56	-0.08318965
248	0xbe2f978e	-0.17147657
249	0x3dbbcde7	0.09170132
250	0xbcb16f8e	-0.021659639
251	0xba8554d4	-0.0010172375
252	0x3c83a959	0.016071962
253	0x3d39426e	0.045229368
254	0x3d91a7df	0.07112097
255	0xbdc5c3b9	-0.09656472

encoder.layers.0.self_attn.W_V.weight f4 [60, 100]
0	0x3c93cb1b	0.018041184
1	0x3d8b266f	0.0679444
2	0xbc1c8ea1	-0.00955549
3	0xbc71ab0e	-0.014750255
4	0x3db75c89	0.089531966
5	0xbd1e47cb	-0.038642686
6	0xbda97537	-0.0827431
7	0x3e0591d2	0.13043907
8	0x3b018a84	0.00197664
9	0x3d35ce07	0.044385936
10	0xbdb68f8b	-0.089140974
11	0x3d48a92b	0.048989456
12	0xbdbbc381	-0.09168149
13	0x3d448a0d	0.047983218
14	0xbd2a8624	-0.041631833
15	0x3cb42311	0.021989377
16	0x3d99a665	0.0750244
17	0xbd948688	-0.07252222
18	0xbd9ec300	-0.07752037
19	0x3dec77bd	0.11546276
20	0x3dc4c9e8	0.09608823
21	0xbcbcb0b9	-0.023033487
22	0x3c122f29	0.008922377
23	0x3d79e099	0.06100521
24	0x3dc34ad0	0.09535754
25	0x3c1b9c1f	0.009497671
26	0x3c8427d7	0.016132278
27	0x3d98fe71	0.07470406
28	0x3dbb729e	0.09152721
29	0x3d279979	0.040917847
30	0xbd807185	-0.06271652
31	0x3dc8ccf0	0.09804714
32	0xbd0b51ef	-0.034013685
33	0x3c2fde7f	0.0107342
34	0xbd42276f	-0.047400888
35	0xbda0ecb8	-0.078576505
36	0xbda317b5	-0.07963506
37	0x3cc0e7c4	0.023548014
38	0xbdef981c	-0.116989344
39	0x3d70136f	0.058612283
40	0x3c74f709	0.014951476
41	0xbd9a4fa1	-0.07534719
42	0x3ce2de46	0.027693879
43	0x3ddfaa3c	0.109211415
44	0x3bd36a35	0.00645187
45	0x3d9c4e52	0.07632126
46	0x3d84cb3b	0.06484076
47	0x3cb1f5d3	0.021723663
48	0xbd464513	-0.048405718
49	0xbddde088	-0.108338416
50	0x3b784da0	0.0037888065
51	0xbda00939	-0.07814259
52	0xbd1f4963	-0.038888346
53	0x3d288e75	0.041151483
54	0x3dc67a9f	0.09691357
55	0x39ee83d9	0.00045493132
56	0xbd4dd27e	-0.05024957
57	0xba098496	-0.0005245892
58	0x3d7fbb1e	0.06243431
59	0x3d86d901	0.06584359
60	0x3dc97f98	0.0983879
61	0xbc898572	-0.016787264
62	0x3d43b197	0.047776785
63	0x3dd6ecb5	0.10494367
64	0x3d1cbc56	0.03826555
65	0x3dd33feb	0.10314926
66	0x3d819d61	0.06328846
67	0x3d240041	0.040039305
68	0x3d37593c	0.044762835
69	0xbd068a17	-0.032846536
70	0x3d48c93d	0.04902004
71	0x3dfe58fb	0.124193154
72	0x3e03599e	0.12827155
73	0xbd3a8b8b	-0.045543235
74	0xbca89f93	-0.020583903
75	0xbcadbfae	-0.021209564
76	0x3bae8b94	0.0053266976
77	0x3db56c21	0.088585146
78	0xbce7c261	-0.02829093
79	0x3e0b7d87	0.13622104
80	0xbd960ba2	-0.073264375
81	0xbbc343b1	-0.005958997
82	0x3d731b7d	0.059352387
83	0xbca9c5a0	-0.020724118
84	0xbd2c5fd3	-0.042083573
85	0xbd231305	-0.03981306
86	0x3de6ca32	0.112690344
87	0x3bd61dfa	0.006534335
88	0xbc10e682	-0.00884402
89	0x3d5dcb19	0.054148767
90	0x3d0d7de6	0.034543894
91	0xbd860228	-0.0654338
92	0xbd84a3c2	-0.06476547
93	0x3d4a857e	0.049443714
94	0xbc9c187e	-0.019054648
95	0xbd723886	-0.059135936
96	0xbdea4ddb	-0.11440631
97	0x3cbcc0f3	0.023041224
98	0x3dce6cff	0.10079383
99	0x3cad0c8d	0.021124149
100	0x3caa19f7	0.020764334
101	0x3deea973	0.116534136
102	0xbd8945c5	-0.067027606
103	0xbdecfd72	-0.11571778
104	0xbbeaf6b0	-0.0071705207
105	0xbd822a56	-0.06355731
106	0x3dd7b13b	0.10531851
107	0x3de2e7e0	0.11079383
108	0x3d407dd8	0.046995014
109	0x3c0c6bd6	0.008570632
110	0xbe00ad17	-0.12566029
111	0xbde8e657	-0.11372059
112	0x3cd9665d	0.026538068
113	0x3d0f6e76	0.035017453
114	0x3da208bd	0.07911823
115	0xbbddc9ed	-0.006768456
116	0x3ddacd2b	0.10683664
117	0xbbecca53	-0.0072262674
118	0x3cdc359f	0.026881037
119	0x3d93ed21	0.07222963
120	0x3d5d4b1c	0.054026708
121	0x3d3571a0	0.044297814
122	0xbd21b1e8	-0.039476305
123	0xbda6d894	-0.08146778
124	0x3d53dcef	0.05172437
125	0xbd8c8eeb	-0.06863197
126	0xbd9292a7	-0.07156878
127	0xbd9c3b5a	-0.07628508
128	0xbd5a7197	-0.053330984
129	0x3c81e132	0.015854452
130	0xbc68ce7b	-0.014209385
131	0xbc8c841f	-0.017152844
132	0xbe07355e	-0.13203952
133	0xbd8a9233	-0.067661665
134	0xbdf10bb0	-0.11769807
135	0xbd46bd07	-0.048520114
136	0xbd05868f	-0.03259903
137	0x3d00458a	0.031316318
138	0x3afdc9ed	0.0019362547
139	0x3e08959c	0.13338321
140	0xbda47ec1	-0.08031989
141	0xbda4cd59	-0.080469795
142	0xbd46a96d	-0.04850142
143	0x3d85e720	0.06538224
144	0x3d1e5d41	0.038663153
145	0x3dc74e8f	0.09731781
146	0x3dc7f462	0.09763409
147	0xbd922703	-0.07136347
148	0xbdcf7f3a	-0.101316884
149	0x3bccefee	0.006254188
150	0xbd30f6e8	-0.04320422
151	0xbd875b31	-0.0660919
152	0x3db65e19	0.089046665
153	0x3dbdd7da	0.09269686
154	0x3e08a38b	0.13343637
155	0xbdbc1e8b	-0.09185513
156	0x3dc9996f	0.09843718
157	0xbcf6ac07	-0.030111326
158	0x3d19ff9e	0.03759729
159	0x3d986fd1	0.07443202
160	0x3c1f6f5a	0.009731138
161	0xbd9479d8	-0.07249802
162	0x3d8d195a	0.06889601
163	0x3b882891	0.0041552265
164	0x3e2bcc4b	0.1677715
165	0x3d5967ae	0.053077392
166	0x3cf8209c	0.030288987
167	0x3d8e54c4	0.069497615
168	0x3ce86135	0.028366664
169	0xbde4defb	-0.11175343
170	0x3d6b595c	0.057458267
171	0xbd976080	-0.07391453
172	0x3dd9ecd6	0.10640876
173	0x3d25fdc0	0.040525198
174	0x3cefb8ac	0.029262863
175	0x3d1023c2	0.03519035
176	0x3d8bcb70	0.06825912
177	0xbc4b3223	-0.01240209
178	0x3cb5f12e	0.02220973
179	0xbd2a20a8	-0.04153505
180	0x3d937020	0.071991205
181	0x3b9e7a66	0.0048363684
182	0x3e0325d7	0.12807404
183	0xbcf8df96	-0.030380052
184	0x3d3eef44	0.0466149
185	0xbb8d017d	-0.004303156
186	0x3db6af1a	0.08920117
187	0xbc80e397	-0.015733523
188	0x3c6d3fb1	0.014480517
189	0xbd49f1a5	-0.049302716
190	0xbba32a90	-0.004979439
191	0xbdacc3ee	-0.08435808
192	0xbdc74ae2	-0.0973108
193	0x3e165766	0.14681777
194	0x3ddaa7f3	0.10676565
195	0xbd46f222	-0.04857076
196	0x3bf3361d	0.0074222223
197	0x3d9a0041	0.0751958
198	0x3daed4c5	0.08536676
199	0xbcc7bdce	-0.024382498
200	0xbcdc3aa0	-0.026883423
201	0xbb1ab3cf	-0.002360571
202	0x3d0c5c37	0.03426763
203	0x3d2cb214	0.042162016
204	0xbc2b81fe	-0.010468004
205	0x3de08590	0.10962975
206	0xbcadf307	-0.021234049
207	0xbbc3c9ce	-0.0059749847
208	0xba283e21	-0.00064179493
209	0xbdb49dde	-0.08819173
210	0xbd072039	-0.032989714
211	0xbd31f5e2	-0.043447383
212	0x3dc53650	0.096295
213	0xbd4182fd	-0.04724406
214	0x3d990e4b	0.07473429
215	0x3c2c4d1e	0.010516433
216	0xbdf618f7	-0.120164804
217	0x3da319bf	0.07963895
218	0x3d9f45f8	0.07777017
219	0xbc92be8c	-0.017913125
220	0xbd94b4f1	-0.07261074
221	0x3d61243f	0.054966208
222	0x3d028924	0.03186907
223	0xbd8e716e	-0.06955229
224	0xbc5f31a9	-0.01362268
225	0x3dbe629f	0.09296154
226	0xbda2ae48	-0.07943398
227	0x3dddab54	0.10823694
228	0xbd63624b	-0.05551366
229	0x3d0a8bcc	0.033824727
230	0x3d6efd59	0.05834708
231	0xbc6a3219	-0.014294171
232	0xbc5c93c0	-0.013462961
233	0x3d1c6dcc	0.038190648
234	0x3dc55f0c	0.096372694
235	0x3d59d041	0.053177122
236	0x3a6143a4	0.0008593148
237	0x3d14a6dd	0.036291946
238	0xbd3ba2b4	-0.045809463
239	0xbd3898b6	-0.04506751
240	0xbd616ee2	-0.055037387
241	0xbd7250e3	-0.05915917
242	0xbca5d936	-0.020245176
243	0xbd51e6b4	-0.051245406
244	0x3db8366b	0.089947544
245	0xbdb68bf0	-0.0891341
246	0xbd8dbb1f	-0.06920456
247	0xbd1a7f66	-0.037719153
248	0x3df5de84	0.12005332
249	0x3dfb0316	0.12256448
250	0x3d15eef8	0.03660485
251	0xbd118d05	-0.035534877
252	0xbc8a9e04	-0.01692105
253	0x3d1c712e	0.038193874
254	0xbd5e963a	-0.054342486
255	0xbdbb4bad	-0.091452934

encoder.layers.0.self_attn.W_O.weight f4 [100, 60]
0	0x3dadd93b	0.08488699
1	0xbbf030af	-0.0073300223
2	0x3dfa9fa2	0.12237479
3	0x3d67af6e	0.056563787
4	0xbda8f422	-0.0824969
5	0xbc8a6a9e	-0.016896542
6	0xbb87e5c1	-0.004147262
7	0x3d1a3521	0.037648324
8	0xbd371443	-0.044697057
9	0x3c9c9906	0.019115936
10	0x3e060697	0.13088451
11	0xbde914c7	-0.11380916
12	0x3e09bb5e	0.13450381
13	0xbe06d97b	-0.131689
14	0x3d90b11d	0.07065032
15	0x3d9b0cec	0.07570824
16	0xbdef52ff	-0.11685752
17	0x3cfdbdbc	0.030974261
18	0xbe249cbf	-0.16075419
19	0x3db28163	0.08716085
20	0x3d84ab3e	0.06477974
21	0x3b456a1a	0.0030123056
22	0xbaff1444	-0.0019460996
23	0xbd18e194	-0.037324503
24	0x3deda1ef	0.11603152
25	0x3e3ba9ee	0.18326542
26	0x3e3b1106	0.18268213
27	0x3d225e74	0.03964086
28	0xbe35026a	-0.17676702
29	0x3d14f512	0.03636653
30	0xbd9e7c98	-0.07738608
31	0x3dc9393c	0.0982537
32	0x3af5827c	0.0018730904
33	0xbd39c2ff	-0.04535198
34	0x3d49e64d	0.049291898
35	0x3c82f2da	0.015984941
36	0xbda5eb6f	-0.08101546
37	0xbc85c107	-0.016327394
38	0x3db6f42f	0.08933293
39	0x3d8f6bad	0.070029594
40	0xbd53f6e5	-0.05174913
41	0xbd97c31f	-0.07410263
42	0x3da97d44	0.08275846
43	0x3d8c84a8	0.0686124
44	0x3d97ace3	0.074060224
45	0x3dbbfaff	0.09178733
46	0x3df06e6b	0.117398106
47	0xbd781ab5	-0.060572345
48	0xbdf4c67f	-0.119519226
49	0xbd2fb951	-0.04290134
50	0x3d864381	0.06555844
51	0xbcc4e140	-0.024033189
52	0xbd8142a7	-0.06311541
53	0x3cda134a	0.026620526
54	0xbdb0ce4e	-0.086330995
55	0xbdfe1fd3	-0.12408414
56	0x3dddedf8	0.108364046
57	0xbdc68c18	-0.096946895
58	0xbd409a5e	-0.047022216
59	0x3db76add	0.089559294
60	0xbd9fa479	-0.077950425
61	0x3e24a796	0.16079554
62	0x3db14221	0.08655191
63	0x3dd35fa6	0.10320978
64	0x3dd8a419	0.10578174
65	0xbd2b8ccb	-0.041882318
66	0xbe005cac	-0.12535352
67	0x3d66afe0	0.05632007
68	0x3e2b7453	0.16743593
69	0x3e132c03	0.14372258
70	0x3bcdbbf6	0.00627851
71	0x3c577e7a	0.013152713
72	0x3d236725	0.03989329
73	0xbd9fbb3e	-0.077993855
74	0x3e09ff17	0.13476215
75	0xbdf59ea4	-0.11993149
76	0x3d356666	0.044287108
77	0x3d9ba2b6	0.07599394
78	0xbd54a864	-0.051918402
79	0xbd8c3975	-0.068468966
80	0x3e04c8b9	0.12967195
81	0x3e09207b	0.13391297
82	0x3cc5c703	0.024142748
83	0xbbd2a456	-0.006428282
84	0xbdc695e1	-0.09696556
85	0x3d39fbba	0.04540608
86	0xbd879fa8	-0.06622249
87	0x3daca543	0.08429959
88	0xbd4a571c	-0.04939948
89	0xbdc60159	-0.09668226
90	0xba735184	-0.0009281861
91	0xbdd0b615	-0.101909794
92	0xbcb25810	-0.021770507
93	0x3dad3373	0.08457079
94	0x3e463434	0.19355851
95	0x3d123c61	0.035702113
96	0xbd9d3c1a	-0.07677479
97	0xbdf646ca	-0.12025221
98	0xbd3fba7f	-0.046808716
99	0x3e2640e5	0.16235693
100	0xbdd89bce	-0.105765924
101	0x3c5e5417	0.013569853
102	0x3db09994	0.08623043
103	0x3dda7a2a	0.10667832
104	0x3d1173de	0.03551089
105	0xbcdc5316	-0.026895087
106	0x3db21e19	0.08697147
107	0xbcc3e1ef	-0.023911444
108	0x3c7f37d7	0.015577278
109	0x3dacd434	0.08438912
110	0x3d0892a3	0.03334297
111	0xbe1354ad	-0.1438777
112	0x3d6ee462	0.05832327
113	0xbe1738af	-0.14767717
114	0x3caaf3ff	0.0208683
115	0xbdd52b73	-0.10408678
116	0x3db1a68f	0.08674347
117	0xbe19dbc8	-0.15025246
118	0xbd4ece06	-0.050489448
119	0xbd85942e	-0.06522404
120	0x3dfc1658	0.12308949
121	0xbdaeecbf	-0.085412495
122	0x3cf8e7a2	0.030383889
123	0x3d259034	0.040420726
124	0xbd50803f	-0.050903555
125	0xbda8538a	-0.08219059
126	0xbc517518	-0.012784265
127	0xbd4930f5	-0.049118955
128	0xbd880069	-0.06640703
129	0xbe01354e	-0.1261799
130	0x3d8dfb33	0.06932678
131	0x3c9e6973	0.019337391
132	0xbcc69175	-0.024239281
133	0xbdab20ec	-0.08355889
134	0xbd064c0b	-0.032787364
135	0x3c813288	0.015771165
136	0xbdf7d6e9	-0.12101538
137	0x3dfe8bba	0.124289945
138	0x3d90dcd9	0.07073373
139	0xbca1667e	-0.019702192
140	0x3e024c19	0.12724341
141	0x3dab6bdd	0.08370183
142	0x3dc09801	0.094039924
143	0xbda12bc9	-0.078696795
144	0xbe0c70e0	-0.13714933
145	0xbdd9cafd	-0.1063442
146	0xbd5ea680	-0.054358006
147	0xbba38521	-0.0049902354
148	0x3c436eb9	0.011928254
149	0xbc8217d4	-0.015880503
150	0x3dcafdb3	0.099116705
151	0xbdb904f9	-0.090341516
152	0xbcb5d395	-0.022195617
153	0xbd57e938	-0.05271265
154	0xbd9ec786	-0.077529
155	0x3d81c1e8	0.06335813
156	0xbd281f0e	-0.04104524
157	0xbce0700a	-0.027397174
158	0xbd6995b6	-0.05702754
159	0xbca8f329	-0.02062376
160	0xbe132766	-0.14370498
161	0x3d9e35b4	0.07725087
162	0xbdb49734	-0.08817902
163	0xbd2db52f	-0.04240912
164	0xbdb9866c	-0.09058842
165	0xbde4668f	-0.11152374
166	0xbd883d08	-0.06652266
167	0xbdf873f0	-0.12131488
168	0xbd84aeda	-0.06478663
169	0x3d2e60e9	0.04257289
170	0x3c31874b	0.010835479
171	0x3e1214d4	0.14265758
172	0xbda75ca5	-0.081719674
173	0xbd046b29	-0.03232876
174	0x3c2a015e	0.0103763025
175	0xbd8a5f08	-0.06756407
176	0xbd0a5fe8	-0.03378287
177	0xbd8a76e3	-0.06760957
178	0x3d9e394c	0.07725772
179	0x3dada0b3	0.084779166
180	0x3d98fa7d	0.07469652
181	0xbcc3c081	-0.023895504
182	0x3de9c4a2	0.11414458
183	0x3db9c405	0.09070591
184	0xbd0a76fb	-0.033804875
185	0xbe1df423	-0.15425162
186	0x3cdbe060	0.026840389
187	0x3d3acbe6	0.04560461
188	0xbe145d57	-0.14488731
189	0xbe0f82dc	-0.14014763
190	0x3da23ac0	0.07921362
191	0xbe35c35e	-0.17750308
192	0x3dd3989c	0.10331842
193	0xbd185ecc	-0.03719978
194	0xbd656a26	-0.056009434
195	0x3e0929af	0.13394807
196	0x3de17a2f	0.11009633
197	0xbdd99eda	-0.10626002
198	0xbb92c4bd	-0.0044790194
199	0x3c2c7cea	0.010527829
200	0xbe4ad413	-0.19807462
201	0x3d5cd634	0.053915218
202	0xbc854ecd	-0.016272927
203	0x3db6da31	0.089283355
204	0xbc491b16	-0.012274524
205	0x3ddf8b75	0.10915271
206	0xbd68f9d4	-0.05687888
207	0x3d24f0b9	0.040268634
208	0xbdd7e9d9	-0.1054265
209	0x3d8c64fc	0.06855199
210	0xbcbd569d	-0.02311259
211	0x3d60ab14	0.054850653
212	0xbd402817	-0.046913233
213	0x3d8bbc1a	0.06822987
214	0xbe1c39a4	-0.15256363
215	0xbcfa8d0c	-0.030584835
216	0x3e2b02d8	0.16700304
217	0x3d4cd1cb	0.05000476
218	0x3d94b0fb	0.07260319
219	0xbd7bcb5f	-0.061473247
220	0x3d94d58f	0.072672956
221	0xbb41b266	-0.0029555797
222	0x3c42eec6	0.011897748
223	0xbe0e95de	-0.13924357
224	0x3dabbb1f	0.083853
225	0xbe3844bb	-0.17994969
226	0x3e1fdcd4	0.15611583
227	0xbd3c36f1	-0.045950834
228	0xbe3aff37	-0.18261419
229	0xbdc38b27	-0.095480256
230	0xbe33a479	-0.1754321
231	0xbd7b0ef0	-0.061293542
232	0xbdf48f0f	-0.11941349
233	0xbbe76fa2	-0.007062868
234	0xbc383c01	-0.011244775
235	0xbc8a2ebb	-0.016867986
236	0x3d52e8a9	0.051491413
237	0x3e084f29	0.13311447
238	0x3bf65067	0.007516909
239	0xbd6ce944	-0.057839647
240	0xbb794da9	-0.0038040674
241	0x3db7d367	0.08975869
242	0xbd3fd1d0	-0.046830952
243	0xbc83d6a8	-0.016093567
244	0x39dd745b	0.00042239096
245	0x3e55d276	0.20881066
246	0x3bf8a55a	0.007588071
247	0xbe30024a	-0.17188373
248	0xbb85ba82	-0.0040810714
249	0x3d9d5b2c	0.07683405
250	0xbd7f898c	-0.062387034
251	0x3e31bb10	0.17356515
252	0xbe44e187	-0.19226657
253	0x3df4c0ca	0.11950834
254	0x3d83a62d	0.0642818
255	0xbda0aab5	-0.0784506

encoder.layers.0.batchnorm_attn.1.weight f4 [100]
0	0x3f785440	0.97003555
1	0x3f7d7e9b	0.9902131
2	0x3f847eb1	1.0351163
3	0x3f7fade6	0.9987472
4	0x3f7f3890	0.9969568
5	0x3f7f2542	0.99666226
6	0x3f7e351f	0.99299806
7	0x3f7cb2f6	0.9871057
8	0x3f7f4399	0.9971252
9	0x3f7e9c7c	0.99457526
10	0x3f7711e4	0.96511674
11	0x3f847376	1.0347736
12	0x3f7a5bc4	0.97796273
13	0x3f81f206	1.0151985
14	0x3f7e1321	0.9924794
15	0x3f77d64d	0.9681137
16	0x3f8507fc	1.0393062
17	0x3f86f75e	1.054424
18	0x3f861f24	1.0478253
19	0x3f79d00b	0.97583073
20	0x3f808a56	1.0042217
21	0x3f828f61	1.0200006
22	0x3f7f0a29	0.9962488
23	0x3f871a89	1.0554973
24	0x3f821655	1.0163065
25	0x3f814ccf	1.0101565
26	0x3f7a3f0f	0.9775247
27	0x3f7c4f8e	0.9855889
28	0x3f83e93f	1.0305556
29	0x3f851852	1.0398047
30	0x3f7df0b0	0.99195385
31	0x3f81aadc	1.0130267
32	0x3f77c1f7	0.9678034
33	0x3f7abbd1	0.97942835
34	0x3f7b0ecc	0.98069453
35	0x3f809105	1.0044256
36	0x3f82e644	1.0226521
37	0x3f7bcb2d	0.98356897
38	0x3f841979	1.0320274
39	0x3f7b4dfe	0.9816588
40	0x3f7d9400	0.99053955
41	0x3f86e5df	1.0538901
42	0x3f785eab	0.9701945
43	0x3f801e88	1.0009317
44	0x3f803da6	1.0018814
45	0x3f81bb55	1.0135294
46	0x3f7a82eb	0.97856015
47	0x3f700325	0.937548
48	0x3f6f7dc0	0.93551254
49	0x3f776602	0.96640027
50	0x3f79286f	0.9732732
51	0x3f83147d	1.0240628
52	0x3f7adcfb	0.9799344
53	0x3f833bca	1.0252621
54	0x3f7d3bdb	0.9891946
55	0x3f7d54f3	0.9895775
56	0x3f86cf8f	1.0532092
57	0x3f7e8347	0.99419063
58	0x3f8b69ea	1.0891697
59	0x3f843253	1.0327858
60	0x3f772ced	0.96552926
61	0x3f7d978e	0.9905938
62	0x3f7f575e	0.99742687
63	0x3f8315eb	1.0241064
64	0x3f805b2e	1.0027826
65	0x3f865e1c	1.049747
66	0x3f83f661	1.0309564
67	0x3f816a27	1.011052
68	0x3f86c81b	1.0529817
69	0x3f7b5c65	0.9818786
70	0x3f7d7b15	0.99015933
71	0x3f82b8e3	1.0212673
72	0x3f831a1f	1.0242347
73	0x3f7bda64	0.9838011
74	0x3f8675e3	1.0504726
75	0x3f7bf947	0.9842724
76	0x3f813915	1.0095545
77	0x3f7f80a9	0.99805695
78	0x3f8a8132	1.0820677
79	0x3f8632f3	1.0484298
80	0x3f86156b	1.0475286
81	0x3f81b279	1.013259
82	0x3f7a4981	0.9776841
83	0x3f7a0649	0.9766584
84	0x3f7fd509	0.9993444
85	0x3f83f80c	1.0310073
86	0x3f7b2734	0.98106694
87	0x3f7c9d96	0.9867796
88	0x3f7e844b	0.99420613
89	0x3f808f87	1.0043801
90	0x3f7ea2ec	0.9946735
91	0x3f807aac	1.0037436
92	0x3f86fda0	1.054615
93	0x3f7fd9aa	0.99941504
94	0x3f79fc10	0.9765024
95	0x3f7a1c13	0.9769909
96	0x3f7f47ee	0.9971913
97	0x3f7907f1	0.9727774
98	0x3f7c6d76	0.98604524
99	0x3f821ef9	1.0165702

encoder.layers.0.batchnorm_attn.1.bias f4 [100]
0	0x3d827dc4	0.06371644
1	0xbdd72db2	-0.105067626
2	0x3d50c684	0.05097057
3	0x3d95641f	0.07294487
4	0xbdc2cd63	-0.09511831
5	0x3db3f23e	0.087864384
6	0xbd80e51d	-0.062937
7	0xbd967a7f	-0.07347583
8	0x3dc31048	0.0952459
9	0xbd9ff617	-0.0781061
10	0x3dd0bc5c	0.10192177
11	0x3d9499df	0.07255911
12	0x3d5f4a86	0.05451443
13	0xbdb6b90b	-0.08922013
14	0x3cf70fd6	0.030158918
15	0x3da0fe55	0.0786101
16	0x3d506e9b	0.05088673
17	0x3d8c3c6f	0.06847464
18	0x3d87484f	0.06605589
19	0xbd7e7417	-0.06212243
20	0xbda3547a	-0.07975097
21	0x3d7e8ea8	0.062147766
22	0x3da03085	0.07821754
23	0xbde3d10b	-0.11123856
24	0xbd87c29c	-0.06628916
25	0xbd6eaa79	-0.058268044
26	0xbd62df28	-0.0553886
27	0x3db258e6	0.08708362
28	0xbda48bef	-0.08034503
29	0x3d932870	0.07185447
30	0xbdb840e7	-0.08996754
31	0x3d0d8c8f	0.034557875
32	0x3dba2463	0.090889715
33	0x3db16b5e	0.08663057
34	0x3da53970	0.08067596
35	0x3d9a091f	0.07521271
36	0x3cc31a4a	0.023816247
37	0x3dac96f8	0.084272325
38	0xbd93d18d	-0.07217703
39	0xbdb0337e	-0.08603571
40	0x3dad7aba	0.08470674
41	0x3c67fa47	0.014158792
42	0x3d931b91	0.07182992
43	0x3db5b846	0.08873038
44	0xbdbeb9b5	-0.093127646
45	0x3d59dafa	0.053187348
46	0xbd299a34	-0.041406825
47	0xbe20d753	-0.1570714
48	0x3dd0d47c	0.10196778
49	0x3e04068e	0.12893125
50	0xbda674e7	-0.08127766
51	0xbd9bc17b	-0.07605263
52	0xbddf9465	-0.10916976
53	0x3c9a5b6c	0.018842421
54	0xbdec4018	-0.115356624
55	0x3c41109c	0.011783745
56	0x3d71e64c	0.05905752
57	0x3df4d82e	0.119552955
58	0x3d7c6e73	0.06162877
59	0xbd619ec6	-0.05508306
60	0xbde0455f	-0.109507315
61	0x3de5ee41	0.11227084
62	0x3d79e494	0.061009005
63	0xbd9a1c5c	-0.0752494
64	0xbdd02635	-0.101635374
65	0x3d505802	0.05086518
66	0xbdb364bf	-0.0875945
67	0xbdc03ab5	-0.093861975
68	0xbd82503a	-0.06362958
69	0x3da1d568	0.07902032
70	0xbc100425	-0.008790051
71	0xbda05b9b	-0.07829972
72	0xbdc3fca1	-0.095696695
73	0x3dcdcdf7	0.1004905
74	0xbd69d1d9	-0.057084892
75	0x3d9491ae	0.07254349
76	0x3d7b7014	0.061386183
77	0x3dc42767	0.09577828
78	0x3d4edf6f	0.05050605
79	0x3d718053	0.05896027
80	0xbd87ee17	-0.06637209
81	0x3dcdd4ab	0.10050329
82	0xbddb3e05	-0.10705189
83	0x3d934841	0.07191516
84	0xbd84ea38	-0.06489986
85	0x3d9e48d2	0.07728733
86	0xbdf36ac8	-0.11885601
87	0xbd77223c	-0.060335383
88	0x3d9dc7bf	0.07704114
89	0xbd8a0baf	-0.0674051
90	0x3da3d3c2	0.07999374
91	0x3d2e60ef	0.04257291
92	0x3d302394	0.04300268
93	0xbdb4b519	-0.08823604
94	0xbd5f2212	-0.05447585
95	0xbcc15196	-0.023598474
96	0x3d980438	0.0742268
97	0x3d9e64da	0.0773408
98	0xbe01501e	-0.12628219
99	0x3dca012a	0.09863503

encoder.layers.0.batchnorm_attn.1.running_mean f4 [100]
0	0x3c5d509c	0.013507988
1	0xbf536635	-0.8257783
2	0x3ed35269	0.4127381
3	0x400efa24	2.2340174
4	0xbf55c919	-0.83509976
5	0x3ffa6953	1.9563392
6	0xbf32c1c6	-0.69826925
7	0xbfba5ea7	-1.4560136
8	0x3f8f9348	1.1216822
9	0xbf6f0d28	-0.9337945
10	0x3f7bf884	0.9842608
11	0x3fc610f1	1.547392
12	0x3f63200e	0.88720787
13	0xbfe0379b	-1.751697
14	0xbd23b2d7	-0.039965477
15	0x3f22cc23	0.6359274
16	0x3fdcaab7	1.7239598
17	0x3ef515c7	0.47868177
18	0x4027036f	2.6095846
19	0xbf01dc1a	-0.50726473
20	0xbfc53471	-1.5406629
21	0x3f641eba	0.89109385
22	0x4013ba26	2.3082366
23	0xbf2df2b0	-0.67948437
24	0xbf71ea3c	-0.9449804
25	0xc001d0cc	-2.028369
26	0xbe8a251e	-0.26981443
27	0x4000435b	2.004111
28	0xbfb05d53	-1.377848
29	0x3e81a2fb	0.25319657
30	0xbfc79968	-1.5593691
31	0x3f3bae79	0.733131
32	0x3f1557e9	0.58337265
33	0x3fb4c2e3	1.4121975
34	0x3f9d904e	1.2309663
35	0x3f8e9b7c	1.11412
36	0x3ef700cb	0.48242792
37	0x3dc72c03	0.097251914
38	0xbf455794	-0.7708676
39	0xbec1dc52	-0.37863404
40	0x3fed84a9	1.855611
41	0x3d5b890b	0.05359749
42	0x3fe90e54	1.8207498
43	0x3fb2d3cf	1.3970889
44	0xbf37e67e	-0.7183608
45	0x3dc02e8c	0.09383878
46	0xbf540f6b	-0.82836026
47	0xbf895e87	-1.0731972
48	0x3fa477d5	1.284907
49	0x3fbfa0b3	1.4970917
50	0xbf35dc2b	-0.71039075
51	0xbf07e8c2	-0.53089535
52	0xbf860e54	-1.0473123
53	0xbef69b4d	-0.4816536
54	0xbf3fd66b	-0.7493655
55	0x3f402520	0.7505665
56	0x3e85667f	0.2605476
57	0x3fa84eb8	1.3149023
58	0x3fc8376f	1.5641917
59	0xbfc14cb3	-1.5101532
60	0xbf51aab1	-0.8190108
61	0x3ff16f27	1.8862046
62	0x3ee3c794	0.44488204
63	0xbf7c8e67	-0.9865479
64	0xbf9ed12e	-1.2407587
65	0x3face1b6	1.3506382
66	0xbff348a8	-1.9006548
67	0xbf5d537e	-0.86455524
68	0xbd8aefc5	-0.06784014
69	0x3fb32481	1.3995515
70	0xbe7bf531	-0.24605252
71	0xbfb24d09	-1.3929759
72	0xbfafccd1	-1.373438
73	0x3f8ccd7a	1.1000206
74	0xbfc16ff3	-1.5112289
75	0x3db7155e	0.08939622
76	0x3ffba2ca	1.9659054
77	0x3f666c82	0.9000932
78	0x3f0f00e0	0.5586071
79	0x3eec58ba	0.46161443
80	0xbfa5dc2e	-1.2957819
81	0x3f924fbd	1.1430584
82	0xbfa8bcd2	-1.3182623
83	0x3e841710	0.25798845
84	0xbfd61144	-1.6724019
85	0x3f6fa7a0	0.9361515
86	0xbfd4c567	-1.6622742
87	0xc0134818	-2.3012753
88	0x3fba2d64	1.4545102
89	0xbebbe108	-0.36695123
90	0x3f97f7df	1.1872519
91	0x3fa0fd05	1.2577215
92	0x3f3ba91e	0.7330493
93	0xbfafba7c	-1.3728786
94	0xbfede86f	-1.8586558
95	0xbee6d6ba	-0.45085698
96	0x3f018c2a	0.506045
97	0x3f32a9e1	0.69790465
98	0xbe730ea7	-0.23736058
99	0x3ff14666	1.8849609

encoder.layers.0.batchnorm_attn.1.running_var f4 [100]
0	0x415895b8	13.536552
1	0x410cdcda	8.803919
2	0x408f931c	4.4867077
3	0x4116c82b	9.423869
4	0x40a2b1f9	5.084225
5	0x408b1b6f	4.347099
6	0x40b5d0c3	5.6817336
7	0x40d53c42	6.6636057
8	0x411bcd7d	9.737668
9	0x40ec52b8	7.3850975
10	0x40e257ce	7.0732183
11	0x413f7605	11.966313
12	0x4093701d	4.6074357
13	0x40ffebd7	7.997539
14	0x40915e84	4.5427876
15	0x40e8c27a	7.27374
16	0x4130129e	11.004545
17	0x3fdbcf2d	1.71726
18	0x415b951a	13.723902
19	0x40a1acc0	5.0523376
20	0x409a3c44	4.8198566
21	0x40e01e51	7.0037007
22	0x415e8f21	13.909944
23	0x403c6181	2.9434512
24	0x41053380	8.325073
25	0x40a98d84	5.298525
26	0x40164c7e	2.3484187
27	0x40d7563a	6.7292757
28	0x40f25ce7	7.5738406
29	0x4094704f	4.6387095
30	0x4105cc9c	8.362453
31	0x40b7a21d	5.738539
32	0x40f60194	7.6876926
33	0x40aa2443	5.3169265
34	0x40c94501	6.2896733
35	0x407db68e	3.9642673
36	0x4024893f	2.5708768
37	0x40819301	4.049195
38	0x405a40c1	3.4102023
39	0x4161c112	14.109636
40	0x41147373	9.278186
41	0x405130d7	3.268606
42	0x4119c777	9.611197
43	0x4106f828	8.435585
44	0x400c3509	2.190737
45	0x4065e20e	3.5919223
46	0x40b2d609	5.5886273
47	0x40bb1bd0	5.847145
48	0x40ed484e	7.4150763
49	0x40732b73	3.799527
50	0x404389a6	3.0552764
51	0x40125641	2.2865145
52	0x40cbbc0a	6.366704
53	0x40ab42ef	5.3519206
54	0x40e9b108	7.3028603
55	0x40a29137	5.0802264
56	0x3f3cb5ef	0.7371511
57	0x40bf48dd	5.9776444
58	0x40d27282	6.576478
59	0x411a68d0	9.650589
60	0x400e8b45	2.2272503
61	0x40f806d0	7.7508316
62	0x4039a122	2.9004598
63	0x412040fd	10.015866
64	0x40cf5d41	6.4801335
65	0x4095ed73	4.6852355
66	0x410cee7c	8.808224
67	0x40b931cb	5.7873282
68	0x408ac051	4.335976
69	0x40f62528	7.6920357
70	0x4012f666	2.296289
71	0x40fbd3d8	7.86961
72	0x40b6b011	5.7089925
73	0x40e60200	7.187744
74	0x40a5fb3e	5.186919
75	0x409b077a	4.8446627
76	0x413e780b	11.904307
77	0x411da55d	9.852872
78	0x40ad73d3	5.4203887
79	0x40b20c80	5.564026
80	0x40e070c9	7.0137677
81	0x40a7fe3f	5.249786
82	0x4049b34d	3.1515687
83	0x400528d5	2.0806172
84	0x40ee4d30	7.4469223
85	0x4128beaa	10.546549
86	0x40799f64	3.9003534
87	0x411c8122	9.781527
88	0x40b2e3eb	5.590322
89	0x3fd978d7	1.6990002
90	0x40d84844	6.7588215
91	0x413cd2a1	11.801423
92	0x408621e7	4.1916385
93	0x411b92a5	9.723302
94	0x4167f3a3	14.496982
95	0x405ca9b6	3.4478583
96	0x407766b8	3.8656445
97	0x40dd55c2	6.9167185
98	0x40bff826	5.9990416
99	0x40f090d7	7.5176806
