transformer_results_random_no_constants_no_param_tune/performance_prediction/DE-GA-ES-PSO_random_no_constants_dim_3_samples_50_fold_1_budget_50_n_heads_2_n_layers_1_d_model_100_d_k_30_d_v_30_aggregations_mean/trained_model.pt (torch, 342201 bytes, 22 tensors)

weight f4 [100, 4]
0.11701559 -0.17264734 0.4325179 -0.64669806 0.45315453 -0.015408409 0.16425255 -0.3380944
0.39673507 -0.122835934 -0.3008769 0.55360943 -0.021186253 -0.06301948 0.293334 0.23751524
0.37042922 0.11865622 0.37320486 -0.22360295 0.03148099 -0.29714268 0.38046372 -0.6962496
-0.40197653 -0.014611233 -0.46304256 0.034809254 -0.22743058 0.44668633 -0.36164266 0.38374302
0.08496526 -0.3090841 0.50110954 0.24430647 0.39257836 -0.40970647 -0.33623353 0.5555178
-0.06857825 -0.42872483 0.18739474 0.53606313 -0.080034 0.36907193 -0.046762686 -0.16007333
-0.18625288 -0.32804984 -0.3941406 0.12470915 -0.4408904 0.07459893 -0.15323414 -0.46454144
-0.02801085 -0.36402768 -0.336403 0.4630409 -0.050570067 0.073895715 0.044759553 0.22589822
0.4709432 0.31964698 0.43235776 0.64330965 0.09873401 0.0696158 0.035931356 -0.47421286
-0.056445718 -0.004991751 -0.35954213 -0.31372154 0.21508639 -0.004689347 0.28917447 -0.061097883
0.28435275 -0.1900897 -0.16400528 -0.51110107 0.011319421 -0.3597743 0.38549304 -0.46683317
-0.37722558 -0.10318446 0.05367376 -0.3846662 -0.3165167 -0.39045122 0.1886352 -0.60126156
-0.03341047 0.29311642 -0.22404093 -0.57505006 -0.1586584 0.105674244 -0.36764216 0.08090218
0.3245053 0.22239634 -0.051561642 0.5392918 -0.03419196 -0.14161886 -0.002469051 0.38742855
0.18687628 -0.45950323 -0.21800232 0.47749618 -0.1286715 0.33396766 -0.41786665 0.5939475
-0.12386848 -0.25739226 0.5036554 0.5723964 -0.34624758 0.22456856 0.0787671 -0.20517045
-0.23701073 -0.04191147 0.021190751 0.32148436 0.08707802 -0.2510077 0.03067432 -0.59734344
0.106288455 0.46077168 -0.19674113 0.46442956 0.106655724 0.17306717 0.3034204 0.47244948
0.31724942 -0.13306378 0.093538135 -0.4401862 0.17974055 -0.44510534 0.3707175 0.47201046
-0.2160137 0.46336988 0.039289083 -0.48501182 0.37694162 0.1520239 -0.35256693 0.522315
-0.0051593925 0.18345693 -0.056195367 0.0071502496 -0.012818301 0.114629366 -0.092404865 0.48731938
-0.29416955 0.1095901 0.10541523 0.58261985 0.38925862 0.21296763 -0.39285043 0.5460724
0.33074942 -0.3756816 -0.12173835 -0.5642165 0.41803026 0.34630805 0.011613965 0.18802293
0.13293287 0.06764908 0.36738643 0.32066166 0.4157401 0.18423147 0.018353289 -0.014176438
0.0094792675 0.21414033 0.06620843 -0.10678635 0.3370602 -0.4539597 0.15002142 0.24533439
0.010709791 0.23735374 -0.030602094 0.17558509 -0.30511096 0.3360204 0.30798137 0.53162843
0.119869396 0.4406192 0.35898927 0.32418746 0.33369336 0.107255034 -0.09294309 -0.52488065
-0.12780924 -0.34246114 -0.082403176 -0.6648423 -0.12089596 0.36896095 -0.21010736 0.17250918
0.15050709 -0.067947455 -0.28604355 -0.4546233 0.3478217 0.18834043 -0.38069093 0.16921641
-0.42608216 -0.43691418 0.18121056 0.03882012 -0.0581468 -0.19793616 -0.11439155 -0.61918825
0.35300037 -0.29186326 0.16920756 0.27309123 0.44865304 -0.3509541 -0.16263843 -0.68898386
-0.0946885 -0.02378531 0.26344755 0.6453069 -0.07549631 -0.07572942 -0.24042289 0.10982565
00000000: dfa5 ef3d 77ca 30be fc72 dd3e 018e 25bf
00000010: df03 e83e 8d73 7cbc d231 283e b61a adbe
00000020: dc20 cb3e 6891 fbbd 890c 9abe 59b9 0d3f
00000030: cb8e adbc 5b10 81bd e02f 963e 3237 733e
00000040: e6a8 bd3e 0802 f33d b514 bf3e 2cf8 64be
00000050: 36f2 003d 1623 98be 24cc c23e 6a3d 32bf
00000060: decf cdbe f463 6fbc ea13 edbe 2694 0e3d
00000070: 90e3 68be 12b4 e43e 3a29 b9be f779 c43e
00000080: 4402 ae3d 4540 9ebe b748 003f 7a2b 7a3e
00000090: 0800 c93e 0cc5 d1be cd26 acbe 6a36 0e3f
000000a0: c172 8cbd d281 dbbe 68e4 3f3e 6f3b 093f
000000b0: dee8 a3bd fff6 bc3e 3b8a 3fbd 43ea 23be
000000c0: 13b9 3ebe 26f6 a7be cccc c9be 8367 ff3d
000000d0: 63bc e1be 53c7 983d 69e9 1cbe 60d8 edbe
000000e0: 0377 e5bc d661 babe 043d acbe b213 ed3e
000000f0: 8f22 4fbd a356 973d cb55 373d dd51 673e
00000100: 781f f13e c5a8 a33e ff5d dd3e f1af 243f
00000110: 0e35 ca3d bb92 8e3d c22c 133d 07cc f2be
00000120: a033 67bd d891 a3bb e815 b8be 1ca0 a0be
00000130: 9b3f 5c3e 18a9 99bb ad0e 943e c641 7abd
00000140: af96 913e e0a6 42be 00f1 27be 85d7 02bf
00000150: 1875 393c 5634 b8be 585f c53e c204 efbe
00000160: b623 c1be 6052 d3bd 04d9 5b3d f8f2 c4be
00000170: 7a0e a2be 39e9 c7be 9629 413e 47ec 19bf
00000180: 6bd9 08bd 5b13 963e fc6a 65be 7b36 13bf
00000190: 5977 22be bd6b d83d 983b bcbe 0bb0 a53d
000001a0: 8f25 a63e debb 633e 4d32 53bd 070f 0a3f
000001b0: de0c 0cbd 8904 11be cdcf 21bb 095d c63e
000001c0: 7f5c 3f3e 0244 ebbe 003c 5fbe 617a f43e
000001d0: 76c2 03be cffd aa3e 9ef2 d5be f20c 183f
000001e0: c2ae fdbd ebc8 83be 8fef 003f 9288 123f
000001f0: 5d47 b1be 4df5 653e a550 a13d 3418 52be
00000200: f1b2 72be 5dab 2bbd 3a98 ad3c 9999 a43e
00000210: f655 b23d 1584 80be b648 fb3c 80eb 18bf
00000220: c3ad d93d 44ea eb3e 8276 49be b6c9 ed3e
00000230: 516e da3d 8538 313e eb59 9b3e e6e4 f13e
00000240: 846e a23e df41 08be ec90 bf3d 1660 e1be
00000250: e80d 383e d9e4 e3be afce bd3e 5bab f13e
00000260: b232 5dbe d13e ed3e 97ed 203d 7853 f8be
00000270: 7efe c03e 27ac 1b3e a783 b4be 70b6 053f
00000280: 1f10 a9bb 22dc 3b3e 1d2d 66bd a44c ea3b
00000290: da03 52bc cdc2 ea3d c33e bdbd ed81 f93e
000002a0: 649d 96be c670 e03d f1e3 d73d 9326 153f
000002b0: e84c c73e 3014 5a3e b123 c9be 67cb 0b3f
000002c0: fd57 a93e 5759 c0be f551 f9bd 7e70 10bf
000002d0: 1008 d63e 4a4f b13e 8048 3e3c 1589 403e
000002e0: 8e1f 083e 9a8b 8a3d 131a bc3e c42d a43e
000002f0: e3db d43e 2da7 3c3e a359 963c 4a44 68bc
00000300: ee4e 1b3c 9a47 5b3e 4998 873d cdb2 dabd
00000310: 2893 ac3e 686d e8be 379f 193e f038 7b3e
00000320: 1f78 2f3c dc0c 733e 3eb1 fabc 94cc 333e
00000330: 8137 9cbe de0a ac3e bcaf 9d3e cd18 083f
00000340: 167e f53d d798 e13e 71cd b73e e6fb a53e
00000350: dbd9 aa3e 87a8 db3d f258 bebd 945e 06bf
00000360: 6de0 02be 1157 afbe ffc2 a8bd 1b33 2abf
00000370: 4d98 f7bd 73e8 bc3e 6226 57be 3fa6 303e
00000380: 881e 1a3e 0928 8bbd 4d74 92be 63c4 e8be
00000390: b015 b23e 50dc 403e ece9 c2be 1147 2d3e
000003a0: 7127 dabe 37b3 dfbe 438f 393e d901 1f3d
000003b0: 572b 6ebd c7af 4abe 1e46 eabd 1f83 1ebf
000003c0: 77bc b43e 1a6f 95be bf44 2d3e 9dd2 8b3e
000003d0: dab5 e53e 41b0 b3be b08a 26be 3f61 30bf
000003e0: 0bec c1bd 69d9 c2bc 99e2 863e d532 253f
000003f0: cf9d 9abd 0718 9bbd 6b31 76be 45ec e03d

bias f4 [100]
0.39217955 -0.29359066 -0.002491691 -0.060652483 0.09955509 -0.20775487 -0.21825063 -0.21668883
0.27080962 -0.1464604 -0.54511315 0.46393698 -0.266682 0.17321452 -0.4643478 -0.16914633
-0.14800042 -0.074243665 -0.26637402 -0.37537226 -0.2595736 0.3149903 0.012792369 -0.3970145
-0.28616813 0.01725967 -0.5650609 -0.11202257 0.18170002 -0.18666749 0.20122981 -0.010706077
-0.21990712 -0.20104815 -0.015659772 0.09203399 -0.3858253 0.21695627 0.09799253 -0.13123998
0.3419207 0.31339252 0.17450757 -0.38888457 0.04168479 0.38991484 0.10072134 0.177391
-0.009425508 -0.3593387 -0.40273008 0.010214507 -0.26214388 0.29362977 0.3533886 -0.49533617
0.40246117 0.398001 0.11936263 0.0613813 -0.31603768 0.25767744 0.06606939 -0.30039364
-0.25436145 -0.29034814 -0.04443939 0.23876399 -0.15851487 0.043346837 -0.048102323 -0.05100394
-0.27069983 -0.3955712 0.49695885 0.4058893 0.23639461 0.080774754 0.38106593 0.094836675
0.19305938 0.46714327 0.3020967 -0.031407278 -0.03149764 -0.5369169 -0.03840789 -0.40398738
0.018251454 -0.04163966 -0.4211209 0.16139984 0.18663909 -0.120106876 -0.01616042 0.50146973
0.43420434 0.3399241 -0.09816762 -0.060804714
00000000: c2cb c83e 8451 96be a34b 23bb bd6e 78bd
00000010: 8ae3 cb3d b1bd 54be 187d 5fbe ade3 5dbe
00000020: 8fa7 8a3e b7f9 15be 898c 0bbf 2689 ed3e
00000030: 8b8a 88be 265f 313e ffbe edbe b234 2dbe
00000040: 6c8d 17be 100d 98bd 2d62 88be cb30 c0be
00000050: d5e6 84be 6946 a13e 1697 513c 7c45 cbbe
00000060: a184 92be 2764 8d3c d5a7 10bf 176c e5bd
00000070: 920f 3a3e c325 3fbe 300f 4e3e 8b68 2fbc
00000080: 552f 61be 91df 4dbe ec48 80bc 517c bc3d
00000090: e58a c5be c929 5e3e 4fb0 c83d c663 06be
000000a0: 3b10 af3e fc74 a03e 1db2 323e e11b c7be
000000b0: acbd 2a3d eba2 c73e fd46 ce3d fca5 353e
000000c0: 726d 1abc 3efb b7be a332 cebe bf5a 273c
000000d0: b937 86be a456 963e 5aef b43e b49c fdbe
000000e0: 640f ce3e c9c6 cb3e 6574 f43d f56a 7b3d
000000f0: b1cf a1be 4cee 833e 634f 873d 32cd 99be
00000100: aa3b 82be 83a8 94be 1406 36bd 8c7e 743e
00000110: b951 22be 748c 313d f106 45bd 82e9 50bd
00000120: 2b99 8abe 4f88 cabe 6471 fe3e b9d0 cf3e
00000130: 6e11 723e 3c6d a53d 131b c33e bb39 c23d
00000140: 5cb1 453e 672d ef3e 6bac 9a3e eba4 00bd
00000150: ab03 01bd 6373 09bf 9751 1dbd 6fd7 cebe
00000160: 1384 953c 598e 2abd 299d d7be 0046 253e
00000170: 511e 3f3e 98fa f5bd db62 84bc 5260 003f
00000180: 0850 de3e 880a ae3e 1b0c c9bd 5d0e 79bd

weight f4 [60, 100]
0.048871826 -0.0008800399 0.09712768 -0.021847015 -0.016679129 -0.08073277 0.058659658 -0.067206815
0.03584003 0.03219531 -0.019215839 0.029655859 -0.037965763 -0.011245588 -0.0035619044 0.121574685
0.10891745 -0.069670826 -0.05382236 -0.041345123 -0.00454343 -0.020726144 -0.05549353 -0.11832088
-0.040318474 -0.10006944 0.08236672 0.0903366 -0.042376272 -0.0065850057 0.13575955 -0.03300002
-0.08585895 -0.09396106 0.0716394 0.11311748 -0.069532625 0.016071193 -0.09779813 -0.041382067
-0.06662304 0.122197695 -0.0012420467 0.10568427 -0.011707318 -0.007972015 -0.009207451 0.013622575
0.044557884 -0.020802291 -0.084694855 -0.051837035 0.01843206 0.0021494047 -0.030767774 0.0009336305
0.020490663 -0.030856656 0.043788508 -0.10598074 0.0068724025 0.044516742 0.08066326 6.9716945e-05
-0.020484176 -0.058824398 0.048569735 -0.029891076 -0.0889624 0.011598105 0.0762223 0.057846367
0.06509965 0.014120884 0.0010234788 -0.021687709 0.036299292 -0.022919733 -0.06322082 0.035150718
0.03278103 0.0320121 0.043906778 0.014021247 0.03693355 0.021819536 0.06684629 -0.09722742
-0.09697698 0.08662442 0.00810002 -0.10240389 -0.095930986 0.13832769 0.051310297 0.009149652
0.01158619 0.06865132 0.12067178 -0.13693215 -0.189715 -0.033539627 -0.016630802 -0.06687911
-0.080149986 -0.030152462 0.1411392 0.035386052 -0.059245188 0.028901035 0.10058865 -0.07113942
-0.014802725 -0.021008702 0.105771415 0.075669326 -0.107876055 0.06479504 0.104725264 -0.12165557
-0.04769247 -0.064576544 0.04570296 -0.009531716 -0.005623269 0.17833248 -0.055024166 0.11494749
0.003915107 0.077752575 -0.18350932 -0.059211083 -0.021859407 0.020722384 0.018312305 0.014746559
-0.050853197 -0.17406426 0.04407464 -0.030326061 -0.010874177 0.048793476 -0.017482636 0.08949026
0.006451178 -0.07839753 -0.073529154 -0.14539509 -0.04856716 0.06486727 0.046175703 0.03462524
-0.07332983 -0.064740576 0.017023936 0.038692705 -0.018080456 -0.04330414 -0.030357761 -0.04455134
-0.0027523683 -0.031084508 0.008668472 0.046814885 0.09532476 -0.005239346 -0.116704345 0.045431457
-0.025134971 -0.017555494 0.12839691 -0.12102753 -0.03751721 0.052047975 0.07969817 -0.06828134
0.026538687 -0.028320799 0.12949531 -0.058794122 -0.10478079 -0.060098 0.050629098 -0.05997334
-0.0066411556 -0.008251929 -0.011915324 0.10462463 0.08996126 -0.041058883 -0.07971004 -0.03807825
0.13276093 0.039137118 0.0068737967 -0.19661276 -0.13213058 0.007092292 -0.06872621 0.13834679
0.17231485 0.03362071 -0.005205386 0.08364411 0.13678427 -0.011735894 0.016742779 -0.020310637
0.06855065 0.022148997 0.029933421 0.074988335 0.05038299 0.012993949 -0.10622516 0.071101494
-0.033428464 -0.0037617884 -0.10183729 0.0047525303 -0.046299826 0.1638243 -0.043465693 -0.03162187
-0.07207392 -0.086131684 -0.11280273 -0.056758445 0.04796615 -0.008353576 0.10010377 0.057201106
-0.1583616 0.098437674 0.05378248 -0.04461293 0.0015496328 0.15920809 -0.079430155 -0.03447909
-0.0018091416 0.03863085 -0.050576907 -0.1409795 -0.06392951 -0.04036932 0.06862351 -0.041599628
-0.010121081 -0.029673418 -0.057063516 -0.004008665 0.08689806 0.0850877 -0.08384183 -0.062836014
00000000: d32d 483d 7ab2 66ba e1ea c63d 83f8 b2bc
00000010: aba2 88bc 3957 a5bd 1c45 703d baa3 89bd
00000020: ffcc 123d 3bdf 033d 896a 9dbc d8f0 f23c
00000030: fd81 1bbd 6a3f 38bc d76e 69bb 26fc f83d
00000040: 1d10 df3d 94af 8ebd d674 5cbd 8159 29bd
00000050: 0ee1 94bb e0c9 a9bc 2f4d 63bd 3852 f2bd
00000060: fc24 25bd 35f1 ccbd e2af a83d 6502 b93d
00000070: be92 2dbd 08c7 d7bb 8d04 0b3e 072b 07bd
00000080: d1d6 afbd a86e c0bd aeb7 923d 23aa e73d
00000090: 1f67 8ebd bca7 833c 634a c8bd 3e80 29bd
000000a0: a971 88bd c942 fa3d 2ccc a2ba ff70 d83d
000000b0: 0dd0 3fbc 0e9d 02bc d9da 16bc 3931 5f3c
000000c0: 5482 363d 9169 aabc 7f74 adbd 1253 54bd
000000d0: d5fe 963c 07dd 0c3b b30c fcbc e2be 743a
000000e0: 09dc a73c 19c7 fcbc 945b 333d 6e0c d9bd
000000f0: e431 e13b 3057 363d c732 a53d 0035 9238
00000100: 6ece a7bc daf1 70bd 0ff1 463d 21de f4bc
00000110: eb31 b6bd fa05 3e3c 701a 9c3d 50f0 6c3d
00000120: f752 853d 485b 673c 4026 863a 6caa b1bc
00000130: 91ae 143d 2ac2 bbbc eb79 81bd 33fa 0f3d
00000140: 6745 063d 1f1f 033d 98d7 333d 5fb9 653c
00000150: a247 173d e2be b23c b5e6 883d 2b1f c7bd
00000160: de9b c6bd 2568 b13d f2b5 043c 21b9 d1bd
00000170: 7777 c4bd c6a5 0d3e bf2a 523d 6ce8 153c
00000180: 01d4 3d3c 1099 8c3d c422 f73d f137 0cbe
00000190: a644 42be d960 09bd 523d 88bc eaf7 88bd
000001a0: ad25 a4bd 4c02 f7bc cb86 103e f7f0 103d
000001b0: 15ab 72bd ddc1 ec3c 6c01 ce3d 8bb1 91bd
000001c0: 2187 72bc 711a acbc af9e d83d 85f8 9a3d
000001d0: 1fee dcbd 43b3 843d 337a d63d 8e26 f9bd
000001e0: 2e59 43bd b540 84bd 0733 3b3d ea2a 1cbc
000001f0: 6643 b8bb ca9c 363e 0561 61bd 9769 eb3d
00000200: 4c4a 803b be3c 9f3d dee9 3bbe 5287 72bd
00000210: 8012 b3bc fdc1 a93c b003 963c 8d9b 713c
00000220: 714b 50bd e73d 32be 9c87 343d 5c6e f8bc
00000230: 9b29 32bc abdb 473d bf37 8fbc ab46 b73d
00000240: 6764 d33b e28e a0bd 7496 96bd 73e2 14be
00000250: 5cee 46bd 22d9 843d bc22 3d3d 32d3 0d3d
00000260: f32d 96bd b596 84bd c875 8b3c 3e7c 1e3d
00000270: 771d 94bc af5f 31bd d7b0 f8bc 777b 36bd
00000280: 1461 34bb f0a4 febc 3506 0e3c f7c0 3f3d
00000290: a139 c33d d2ae abbb b002 efbd 5616 3a3d
000002a0: dbe7 cdbc 8ad0 8fbc 7b7a 033e 48dd f7bd
000002b0: a5ab 19bd 4230 553d cb38 a33d 16d7 8bbd
000002c0: a967 d93c 0501 e8bc 6b9a 043e 1bd2 70bd
000002d0: 5097 d6bd 5229 76bd 7560 4f3d 9ba6 75bd
000002e0: 0d9e d9bb 1933 07bc 7e38 43bc 7045 d63d
000002f0: 9c3d b83d 5c2d 28bd 043f a3bd f0f7 1bbd
00000300: 7bf2 073e 3e4e 203d 963d e13b db54 49be
00000310: 3d4d 07be 7566 e83b 54c0 8cbd c8aa 0d3e
00000320: 4e73 303e dfb5 093d f191 aabb 9a4d ab3d
00000330: 2d11 0c3e e847 40bc 2728 893c 7e62 a6bc
00000340: 4864 8c3d d071 b53c ef36 f53c 7c93 993d
00000350: 655e 4e3d 93e4 543c 948c d9bd a99d 913d
00000360: 49ec 08bd 5688 76bb 1290 d0bd 1dbb 9b3b
00000370: e3a4 3dbd 8fc1 273e 1509 32bd ef85 01bd
00000380: 7e9b 93bd cf65 b0bd 1e05 e7bd 8b7b 68bd
00000390: 2778 443d 70dd 08bc 3503 cd3d b54b 6a3d
000003a0: 8b29 22be b199 c93d 054b 5c3d 0cbc 36bd
000003b0: 0c1d cb3a 7207 233e 47ac a2bd f239 0dbd
000003c0: b820 edba 623b 1e3d bb29 4fbd ee5c 10be
000003d0: 7aed 82bd 4d5a 25bd 7c8a 8c3d 5f64 2abd
000003e0: e4d2 25bc ab15 f3bc 6fbb 69bd 1f5b 83bb
000003f0: 9cf7 b13d 7642 ae3d 44b5 abbd 2bb0 80bd

weight f4 [60, 100]
0.053252127 0.09876253 -0.015183507 -0.047049597 -0.0124235675 0.07730262 -0.050309557 0.05229835
-0.08526961 -0.07232695 -0.018658858 0.053109746 -0.012238206 -0.017582526 0.06311665 -0.100709
-0.010762046 0.05169772 -0.02093256 -0.038217943 0.013768068 0.027882349 -0.026641885 0.0021172918
0.03853985 0.022267519 -0.0699125 -0.12050764 -0.068533145 -0.020258227 -0.13536087 -0.06388626
-0.10161376 0.07675524 -0.02155246 -0.06592963 0.052578885 -0.11590804 -0.018595567 0.061578244
0.078340806 -0.08044112 -0.1580236 -0.1125575 0.016794724 0.10210434 0.03669428 0.07830634
0.017634163 -0.027018756 0.053221896 0.0037572752 0.034623913 0.14524403 0.023373375 -0.06001607
-0.04275008 0.0027482829 -0.066462584 0.11657421 -0.05647676 0.074792966 -0.007078261 0.07474301
0.036966912 -0.061861582 0.07182801 -0.018845078 0.038338527 -0.051953565 -0.00085254334 0.10910516
-0.1305806 -0.06391668 -0.0056941537 -0.051509466 0.01561845 -0.07848665 -0.031953983 0.04137448
-0.025524355 -0.08045104 -0.01245031 0.05522829 -0.13268209 -0.09178042 0.05595644 -0.002721379
0.042707868 0.020891704 -0.038078986 0.009977797 -0.09995122 0.016205182 0.056338858 0.008996826
-0.027077429 -0.036788106 -0.018562578 0.15320419 -0.06575388 0.005340319 0.016419455 0.09240448
-0.04917678 -0.042372413 0.08129867 -0.022376401 0.06907742 0.009636854 0.017117133 0.04785224
0.018408127 0.0849813 -0.0142458165 -0.003211428 0.01594756 0.015078095 -0.06901956 -0.014594502
-0.031209383 -0.108329676 -0.056675807 0.0053182673 -0.075704284 0.043185856 0.11437464 0.042064942
0.10385205 0.10947147 0.056777045 0.04695324 0.11418431 -0.1371861 0.118307866 0.010177544
-0.078180216 0.00092386926 -0.0040104208 -0.010240615 -0.08291557 0.03659904 0.1324653 0.0070417672
-0.046588827 -0.10291406 0.008937015 -0.07022428 0.002722573 0.052632146 -0.057839792 0.14675854
-0.06330546 -0.15981348 -0.081894144 -0.05969707 -0.14404075 -0.012543918 0.07319765 -0.0044078943
0.008662962 -0.05776769 0.16512245 -0.0678951 0.07534408 -0.13151045 -0.047956258 -0.042792242
0.09146288 -0.07553832 0.022109292 -0.045421153 0.12390787 0.11771109 -0.009192947 -0.0023351817
-0.007532802 0.022723468 -0.06777759 0.029110538 -0.1443571 -0.07014685 0.09113888 0.11206257
-0.014174793 0.13004054 -0.05174624 -0.068218276 0.12406228 0.019353941 -0.056920137 -0.15107435
0.007546877 0.06972236 -0.07779144 -0.030475816 -0.04217457 -0.004816368 -0.0040632724 -0.060224134
0.0723042 0.074220724 0.028196555 0.07455794 0.1040114 0.1268638 -0.043781545 -0.03772145
0.091284364 -0.07150177 -0.017637828 0.058920607 0.013968098 0.060158644 0.065800875 -0.13845487
0.0059378985 0.11298195 0.0644175 0.055780735 0.012470504 0.015902698 0.048096545 -0.009270833
0.043806646 -0.115165465 -0.06507623 -0.011126299 -0.027338522 0.054215193 -0.0121860765 -0.047830883
0.012866109 0.124607325 0.059981503 -0.00934641 0.048929956 0.009912781 0.08276499 -0.04081574
-0.086509384 -0.032970726 -0.08674421 -0.041223742 0.10930792 0.012736105 -0.05323001 -0.020348882
0.10030324 0.013752946 0.041321784 -0.11747369 -0.002995037 0.042918045 0.10199155 0.058137532
00000000: e71e 5a3d 0244 ca3d 3fc4 78bc 14b7 40bd
00000010: 388c 4bbc d650 9e3d 6511 4ebd cb36 563d
00000020: d5a1 aebd 2720 94bd 76da 98bc 9b89 593d
00000030: c282 48bc 3b09 90bc 4d43 813d 8540 cebd
00000040: 4b53 30bc fdc0 533d c37a abbc 6b8a 1cbd
00000050: 7693 613c 8669 e43c 1540 dabc 43c2 0a3b
00000060: f6db 1d3d 5f6a b63c 492e 8fbd b6cc f6bd
00000070: 1b5b 8cbd 95f4 a5bc 0a9c 0abe cdd6 82bd
00000080: e01a d0bd da31 9d3d c98e b0bc 1d06 87bd
00000090: f55c 573d 3261 edbd bb55 98bc 7839 7c3d
000000a0: 2571 a03d 50be a4bd f0d0 21be 8c84 e6bd
000000b0: 1795 893c 151c d13d be4c 163d 135f a03d
000000c0: 8575 903c 7056 ddbc 34ff 593d 9e3c 763b
000000d0: ced1 0d3d daba 143e 8579 bf3c 69d3 75bd
000000e0: b51a 2fbd 891c 343b 891d 88bd 76be ee3d
000000f0: 2d54 67bd 0e2d 993d c2f0 e7bb dd12 993d
00000100: 9e6a 173d 9262 7dbd 901a 933d fe60 9abc
00000110: dc08 1d3d 43cd 54bd 377d 5fba 8772 df3d
00000120: ecb6 05be c0e6 82bd 0696 babb 97fb 52bd
00000130: 87e4 7f3c 9cbd a0bd 2ee2 02bd 4978 293d
00000140: 7418 d1bc 84c3 a4bd 63fc 4bbc 0f37 623d
00000150: d0dd 07be 5ff7 bbbd 9432 653d 2a59 32bb
00000160: 72ee 2e3d 1425 ab3c b6f8 1bbd ea79 233c
00000170: 3ab3 ccbd bbc0 843c 93c3 663d 6c67 133c
00000180: 7cd1 ddbc 20af 16bd 8c10 98bc 8fe1 1c3e
00000190: f8a9 86bd d8fd ae3b 1882 863c 8f3e bd3d
000001a0: 976d 49bd b28e 2dbd eb7f a63d b74e b7bc
000001b0: 7678 8d3d e5e3 1d3c 3b39 8c3c b600 443d
000001c0: a4cc 963c ad0a ae3d 4967 69bc d276 52bb
000001d0: 75a4 823c 1d0a 773c 215a 8dbd c71d 6fbc
000001e0: d2aa ffbc f3db ddbd e424 68bd dc44 ae3b
000001f0: d90a 9bbd a7e3 303d 403d ea3d 4a4c 2c3d
00000200: 62b0 d43d 9432 e03d 0c8f 683d 0a52 403d
00000210: 77d9 e93d 837a 0cbe 654b f23d b7bf 263c
00000220: f31c a0bd d12f 723a d969 83bb 41c8 27bc
00000230: a3cf a9bd e0e8 153d fca4 073e a0be e63b
00000240: edd3 3ebd 9bc4 d2bd 8f6c 123c bfd1 8fbd
00000250: 326d 323b ce94 573d 6be9 6cbd df47 163e
00000260: 4ba6 81bd 25a6 23be 1eb8 a7bd ea84 74bd
00000270: 6b7f 13be 0185 4dbc a6e8 953d 1970 90bb
00000280: 19ef 0d3c d09d 6cbd dc15 293e 960c 8bbd
00000290: ff4d 9a3d adaa 06be c86d 44bd eb46 2fbd
000002a0: e450 bb3d d6b3 9abd 8c1e b53c 880b 3abd
000002b0: 69c3 fd3d 8312 f13d 049e 16bc d909 19bb
000002c0: b9d5 f6bb 9126 ba3c face 8abd 3979 ee3c
000002d0: 59d2 13be 27a9 8fbd 05a7 ba3d 1081 e53d
000002e0: 643d 68bc 5929 053e def3 53bd 06b6 8bbd
000002f0: 5d14 fe3d 288c 9e3c 1725 69bd 3cb3 1abe
00000300: cb4b f73b 99ca 8e3d 1e51 9fbd 6ba8 f9bc
00000310: 3ebf 2cbd a0d2 9dbb 3325 85bb 95ad 76bd
00000320: 3914 943d 0901 983d 76fc e63c d5b1 983d
00000330: ee03 d53d 96e8 013e 4754 33bd cf81 1abd
00000340: 4cf3 ba3d 856f 92bd 357d 90bc bc56 713d
00000350: 73da 643c e968 763d 9cc2 863d 1dc7 0dbe
00000360: b492 c23b 1563 e73d 52ed 833d 577a 643d
00000370: 1651 4c3c 6046 823c e200 453d b1e4 17bc
00000380: 996e 333d dfdb ebbd b046 85bd 154b 36bc
00000390: 09f5 dfbc c010 5e3d 1ca8 47bc 51ea 43bd
000003a0: 5fcc 523c 2032 ff3d 2aaf 753d af21 19bc
000003b0: c76a 483d 3869 223c b180 a93d 682e 27bd
000003c0: d52b b1bd 500c 07bd f3a6 b1bd 3ada 28bd
000003d0: d5dc df3d 19ab 503c b607 5abd b3b2 a6bc
000003e0: c96b cd3d 0954 613c 0841 293d 0c96 f0bd
000003f0: 6248 44bb d5ca 2f3d f2e0 d03d 9f21 6e3d

weight f4 [60, 100]
0.0008493017 -0.013907207 0.028721482 0.01039221 -0.028377447 0.12058674 -0.049110863 -0.03997365
0.03899179 0.044667974 -0.1204462 -0.019637426 0.10199167 0.02910656 -0.07993338 -0.037038565
-0.11049413 -0.027078625 -0.042541053 -0.075277984 -0.060516514 0.08215276 -0.011487788 0.022959793
-0.03068655 -0.014470838 -0.13527793 0.050802022 0.08733388 0.006896384 -0.041851483 0.007728871
-0.11716403 0.03982677 -0.10398404 -0.10342726 0.015759865 0.040512115 -0.056695078 0.026750965
0.0777891 -0.10951541 0.031750735 -0.047088556 0.005960389 0.045496292 -0.070120275 0.0068564024
-0.021667374 0.07619289 -0.02150958 0.012585495 -0.039537095 -0.055579074 0.05799806 -0.024192758
0.0140116345 0.087320514 -0.07240555 0.010575131 -0.07910285 0.11768058 -0.11299026 0.067728214
0.041219965 0.08464434 0.065422446 -0.028603926 0.07906909 0.05316186 -0.025585068 0.04436269
-0.0014053137 -0.14322811 0.06273715 0.040994383 0.09082015 -0.05018207 0.12972996 -0.058038965
-0.053899158 0.09896262 -0.026420783 -0.06382525 -0.09305641 -0.12479301 0.017322179 -0.042177554
-0.068279035 -0.087437555 0.08570029 0.11844143 -0.064313345 -0.012522011 -0.06899146 0.010478491
0.08708047 0.038568508 -0.049423255 -0.04694348 0.029705906 0.045342233 0.04033515 -0.041606344
-0.09187905 0.09293559 0.022854967 -0.10062768 0.04198883 0.015513281 -0.10006618 -0.106194876
-0.014760059 -0.039091922 -0.08347279 -0.121905096 -0.031661086 0.09266701 -0.011470892 -0.042153277
0.0017626437 -0.0046143653 -0.04992809 0.09478578 -0.023664096 0.057510443 -0.050293326 -0.06803477
-0.023085024 0.06124823 0.060629167 -0.024102997 -0.0031904958 0.06791443 0.0031290695 0.015305657
0.063501984 -0.0253959 -0.024276474 0.01064867 0.009401584 -0.07391293 0.00041159737 0.05407383
0.08253188 0.0025257757 -0.04476087 -0.088007085 0.10062222 0.004926975 -0.09900769 -0.09406682
-0.022874756 0.10200395 0.04673646 -0.020710424 -0.0030492644 0.07146621 -0.09604019 -0.0048412113
-0.07079276 0.093251474 -0.09930517 0.07705673 0.009507639 0.08068032 -0.009660881 0.08356721
-0.0839753 0.09411308 -0.02038163 0.016450038 0.036426805 -0.02903376 0.097026184 -0.08591949
-0.070103094 -0.02231924 0.01280477 0.026748084 0.035724435 -0.05970797 -0.12021256 0.0070702294
-0.065553874 0.040288363 -0.07765939 0.032754097 -0.097567655 0.04576296 -0.028309865 -0.040910777
0.029324578 -0.14760168 0.053639315 -0.0045635146 -0.07100388 0.03391186 0.07396361 0.101705275
-0.073608555 0.028451497 -0.111328565 -0.13764754 -0.030349152 -0.0778929 -0.07378976 0.07902253
-0.06566416 0.033394996 -0.08550671 0.07038556 -0.031125057 0.13598582 -0.081586584 -0.05701121
0.008346307 0.09953611 0.044296484 -0.062664464 0.02528589 0.011256556 0.09728934 0.07306969
0.15766548 0.04159024 -0.13084616 0.01857999 -0.081953615 0.07540959 -0.07727228 -0.079430155
-0.018881625 -0.069918424 -0.05726913 -0.12501036 -0.022066317 0.044804674 0.13098903 0.07097928
0.11483698 -0.06500838 0.0017202488 0.035756133 -0.026039742 -0.0757078 -0.027770193 -0.013405934
0.035238497 -0.035506785 -0.044671685 0.033370346 -0.0011376316 0.03446563 0.0063299127 0.092391245
00000000: aca3 5e3a 0edb 63bc 5049 eb3c 1744 2a3c
00000010: d277 e8bc 2ef6 f63d 7928 49bd 69bb 23bd
00000020: dbb5 1f3d c4f5 363d 7fac f6bd abde a0bc
00000030: 02e1 d03d e170 ee3c 1db4 a3bd c0b5 17bd
00000040: bf4a e2bd fed3 ddbc 873f 2ebd 582b 9abd
00000050: 2ae0 77bd b53f a83d 4637 3cbc 2d16 bc3c
00000060: 5c62 fbbc 1817 6dbc 4c86 0abe c815 503d
00000070: 1bdc b23d 10fb e13b 766c 2bbd 7842 fd3b
00000080: b2f3 efbd 6521 233d 96f5 d4bd acd1 d3bd
00000090: d51a 813c 08f0 253d 1939 68bd d724 db3c
000000a0: e44f 9f3d 9e49 e0bd 0f0d 023d eedf 40bd
000000b0: 5e4f c33b 525a 3a3d 389b 8fbd acab e03b
000000c0: c77f b1bc 050b 9c3d dc34 b0bc 6433 4e3c
000000d0: a6f1 21bd e2a6 63bd 608f 6d3d e42f c6bc
000000e0: 0e91 653c 19d5 b23d 5c49 94bd 5043 2d3c
000000f0: ad00 a2bd 8402 f13d 7067 e7bd 17b5 8a3d
00000100: 44d6 283d 035a ad3d 34fc 853d c852 eabc
00000110: faee a13d 40c0 593d c797 d1bc a7b5 353d
00000120: 8132 b8ba 64aa 12be 567c 803d bae9 273d
00000130: eaff b93d b78b 4dbd eed7 043e 44ba 6dbd
00000140: 5dc5 5cbd eaac ca3d 6670 d8bc d0b6 82bd
00000150: 5c94 bebd 7a93 ffbd 3ee7 8d3c 5fc2 2cbd
00000160: e1d5 8bbd 7612 b3bd a283 af3d 6c91 f23d
00000170: b7b6 83bd 1f29 4dbc 654b 8dbd faad 2b3c
00000180: 3f57 b23d 03fa 1d3d 0a70 4abd ce47 40bd
00000190: cd59 f33c c7b8 393d 7836 253d 6a6b 2abd
000001a0: 152b bcbd 0455 be3d 573a bb3c e315 cebd
000001b0: 7bfc 2b3d 6b2b 7e3c 7fef ccbd b37c d9bd
000001c0: 2dd4 71bc da1e 20bd c8f3 aabd 61a9 f9bd
000001d0: 0eaf 01bd 34c8 bd3d 68f0 3bbc eaa8 2cbd
000001e0: 8208 e73a 1a34 97bb 6681 4cbd 0c1f c23d
000001f0: 35db c1bc 1290 6b3d 6000 4ebd d055 8bbd
00000200: ce1c bdbc 6ddf 7a3d 4a56 783d a673 c5bc
00000210: a317 51bb b816 8b3d 1311 4d3b 94c4 7a3c
00000220: 540d 823d 100b d0bc 75df c6bc c277 2e3c
00000230: 1a09 1a3c aa5f 97bd aacb d739 857c 5d3d
00000240: 7906 a93d 7c87 253b 2d57 37bd 0f3d b4bd
00000250: 0613 ce3d 7672 a13b 8bc4 cabd 1ba6 c0bd
00000260: d763 bbbc 72e7 d03d bb6e 3f3d e8a8 a9bc
00000270: 2bd6 47bb e05c 923d b8b0 c4bd 06a3 9ebb
00000280: cbfb 90bd a1fa be3d 8260 cbbd ebcf 9d3d
00000290: eec5 1b3c b93b a53d ac48 1ebc 4925 ab3d
000002a0: 3efb abbd 5cbe c03d 60f7 a6bc 3bc2 863c
000002b0: 4634 153d 35d8 edbc aab5 c63d 8ff6 afbd
000002c0: 3692 8fbd d7d6 b6bc 19cb 513c cc1e db3c
000002d0: c953 123d 5890 74bd 0132 f6bd 62ad e73b
000002e0: 1c41 86bd 6905 253d e30b 9fbd 2929 063d
000002f0: 8dd1 c7bd f171 3b3d 17ea e7bc 0f92 27bd
00000300: 193a f03c e524 17be e6b4 5b3d 8989 95bb
00000310: 7b6a 91bd 2ae7 0a3d 3c7a 973d db4a d03d
00000320: 15c0 96bd 1d13 e93c 3b00 e4bd 7af3 0cbe
00000330: c99e f8bc 5086 9fbd 161f 97bd 90d6 a13d
00000340: ee7a 86bd 31c9 083d 241e afbd 4e26 903d
00000350: faf9 febc de3f 0b3e de16 a7bd 9684 69bd
00000360: f3be 083c 97d9 cb3d 3b70 353d 3a56 80bd
00000370: 5b24 cf3c 6b6d 383c a23f c73d 90a5 953d
00000380: 0f73 213e 875a 2a3d 89fc 05be 1035 983c
00000390: 4cd7 a7bd 5870 9a3d ee40 9ebd 47ac a2bd
000003a0: a3ad 9abc 6431 8fbd 0993 6abd b702 00be
000003b0: 6cc4 b4bc 1b85 373d fd21 063e 965d 913d
000003c0: a72f eb3d 1d23 85bd f979 e13a 0675 123d
000003d0: 4c51 d5bc b10c 9bbd 517e e3bc 90a4 5bbc
000003e0: 3e56 103d 906f 11bd a8f9 36bd 58af 083d
000003f0: 951c 95ba d52b 0d3d 286b cf3b 9f37 bd3d

weight f4 [100, 60]
-0.048634805 -0.067342766 0.08561348 -0.1198856 -0.045383573 0.08262601 -0.0827837 0.016863521
-0.090660766 0.11421648 0.0932111 -0.013539087 0.015764175 -0.137984 0.047875702 0.17955409
0.06408578 0.06884191 0.01976507 0.09313033 0.013079416 -0.03985642 0.020524299 0.1373165
0.12161609 0.052799486 0.045165956 -0.002149643 -0.18080746 -0.12390364 0.03057327 0.11619577
-0.10574631 -0.04251017 -0.03966974 0.06505657 -0.023651645 -0.020169778 0.052701846 -0.12405323
0.030856755 -0.029827116 0.024778264 0.015896518 0.109856434 -0.0041944524 0.08542357 0.014650399
-0.0017955591 0.015312955 0.015369633 0.07297819 0.07087458 -0.05786928 -0.04874977 0.038088854
0.08174221 -0.08175526 0.029298428 -0.036440495 0.002566667 0.02601223 -0.034147006 -0.020235348
-0.059981603 -0.11180213 -0.061185036 -0.14185508 0.10710549 -0.019291596 -0.106795564 -0.0020905253
-0.00680327 -0.12867333 -0.03429389 -0.027681682 -0.14993913 -0.031364996 0.012642372 0.11203362
-0.002903621 0.008013021 -0.08908551 -0.05895721 -0.07652327 -0.077796556 -0.05523139 -0.029788114
-0.012000533 0.005839706 -0.0012178255 -0.028865486 0.11598471 -0.1507281 -0.06172955 0.03194589
0.080613434 0.11684973 -0.039231814 -0.08495029 0.045261938 0.018020095 0.023177328 0.0018418022
-0.080879875 -0.08612323 -0.026680224 -0.10437207 -0.16860922 -0.012823982 0.118504286 0.072828695
0.0101345945 -0.0334881 0.051822275 -0.01156903 -0.034597855 -0.11822951 0.08178301 -0.031184563
0.1068313 0.114316635 0.11570744 0.10788905 -0.10357389 -0.03838999 0.11343778 0.013990686
-0.07718076 -0.06023822 0.14645022 0.05538806 -0.13495731 0.102390036 -0.04090263 -0.036533877
-0.11967193 0.074918136 -0.0021590989 0.035397895 0.09426442 0.1555192 0.016648911 -0.008587623
-0.067252725 -0.08132106 -0.029522538 0.15607926 0.0010419796 0.07190642 -0.06895067 0.016834417
-0.03887877 -0.0024298022 0.06874227 0.075653985 0.102230094 -0.07949786 -0.13902219 -0.037173506
0.101298854 -0.10060168 0.066991225 -0.083146825 -0.027025323 0.029961314 -0.092347205 -0.024092365
-0.025380334 0.13109079 0.09143253 0.059949532 0.04864655 -0.08009331 0.07053141 0.06311352
0.0525855 -0.06131259 -0.011993341 0.12226291 -0.07713948 -0.03126198 0.0863335 0.0016836899
-0.09215934 -0.06467186 0.051598992 -0.04345525 -0.04285651 0.08105106 0.07100065 -0.02728461
0.0044238325 -0.024255946 0.160191 0.12195329 -0.039906908 0.07146897 -0.16875067 0.027550634
0.10997444 0.09874673 -0.039581183 0.11630446 -0.009010707 -0.09076332 0.056178667 -0.15290202
-0.08250546 -0.0544805 0.13370822 -0.009665542 -0.027892936 -0.1399395 -0.10153022 -0.06918258
0.113943055 0.11773778 0.003529412 -0.05305716 0.08817897 0.06449353 0.051886443 0.09696763
0.0039488976 0.05518812 0.061309602 -0.14403142 -0.041779183 -0.06772728 0.00046632884 0.14834324
0.0048794355 -0.11225375 -0.06985693 -0.005293357 -0.106104605 0.055643637 -0.017673127 0.09901279
-0.05446794 -0.069017254 0.10158176 -0.12297126 -0.06555391 -0.16394618 -0.08312705 -0.13702282
-0.076306775 0.11746089 -0.08991507 0.08264364 -0.06167113 0.031343717 -0.11007154 -0.046790723
00000000: 4a35 47bd 01eb 89bd 1f56 af3d 9586 f5bd
00000010: 20e4 39bd d337 a93d 808a a9bd 5e25 8a3c
00000020: 5aac b9bd 54ea e93d 76e5 be3d 0cd3 5dbc
00000030: df23 813c ad4b 0dbe 5019 443d 07dd 373e
00000040: 683f 833d fdfc 8c3d 5bea a13c 1dbb be3d
00000050: 0c4b 563c 7c40 23bd 9322 a83c b29c 0c3e
00000060: db11 f93d 4644 583d f0ff 383d 06e1 0cbb
00000070: 9725 39be 31c1 fdbd cb74 fa3c 0cf8 ed3d
00000080: 8591 d8bd 251f 2ebd bd7c 22bd 613c 853d
00000090: 18c1 c1bc 173b a5bc e4dd 573d 9f0f febd
000000a0: 4ec7 fc3c ff57 f4bc c9fb ca3c 6a39 823c
000000b0: 69fc e03d 9e71 89bb 8df2 ae3d 3a08 703c
000000c0: f758 ebba 30e3 7a3c ead0 7b3c 9775 953d
000000d0: b126 913d 5708 6dbd d7ad 47bd 0f03 1c3d
000000e0: 7668 a73d 4d6f a7bd 4203 f03c a142 15bd
000000f0: 8735 283b 9a17 d53c bbdd 0bbd 9ac4 a5bc
00000100: 45af 75bd 84f8 e4bd 299d 7abd 7542 11be
00000110: 205a db3d 6909 9ebc a2b7 dabd 3201 09bb
00000120: f7ed debb f1c2 03be c077 0cbd b2c4 e2bc
00000130: a589 19be 9578 00bd f421 4f3c e271 e53d
00000140: ad4a 3ebb 0c49 033c 7772 b6bd 1e7d 71bd
00000150: 3bb8 9cbd cd53 9fbd 4f3a 62bd 3406 f4bc
00000160: e29d 44bc 015b bf3b 719f 9fba 5077 ecbc
00000170: 6489 ed3d 7858 1abe 20d8 7cbd b2d9 023d
00000180: a818 a53d e94e ef3d 8ab1 20bd 6bfa adbd
00000190: 9564 393d e19e 933c 61de bd3c a068 f13a
000001a0: 59a4 a5bd 6061 b0bd 7c90 dabc 06c1 d5bd
000001b0: e5a7 2cbe ae1b 52bc 60b2 f23d 3627 953d
000001c0: 920b 263c d12a 09bd 9843 543d 078c 3dbc
000001d0: 7bb6 0dbd 5022 f2bd da7d a73d c576 ffbc
000001e0: 5eca da3d d71e ea3d 06f8 ec3d eff4 dc3d
000001f0: 8c1e d4bd d23e 1dbd 1152 e83d 3139 653c
00000200: f210 9ebd 5abc 76bd 0cf7 153e 97de 623d
00000210: 4032 0abe deb1 d13d 8489 27bd 8ca4 15bd
00000220: 8f16 f5bd ae6e 993d ab7f 0dbb 62fd 103d
00000230: b40d c13d 6d40 1f3e 4c63 883c 1ab3 0cbc
00000240: ccbb 89bd a88b a6bd 40d9 f1bc 3ed3 1f3e
00000250: 0993 883a ac43 933d 0236 8dbd 55e8 893c
00000260: 583f 1fbd 513d 1fbb bfc8 8c3d 7af0 9a3d
00000270: 035e d13d c6cf a2bd d55b 0ebe 3f43 18bd
00000280: c675 cf3d 4108 cebd b232 893d e248 aabd
00000290: 3664 ddbc 6e71 f53c 8820 bdbd 5a5d c5bc
000002a0: 6bea cfbc aa3c 063e fa40 bb3d a48d 753d
000002b0: 9b41 473d f607 a4bd c672 903d a941 813d
000002c0: e563 573d e922 7bbd b87f 44bc fa64 fa3d
000002d0: 4efb 9dbd 900c 00bd 9ecf b03d 42af dc3a
000002e0: 09be bcbd ae72 84bd 7759 533d 22fe 31bd
000002f0: 4f8a 2fbd 19fe a53d ca68 913d f983 dfbc
00000300: ccf5 903b 68b4 c6bc 1c09 243e a6c2 f93d
00000310: 6d75 23bd 535e 923d facc 2cbe deb1 e13c
00000320: 473a e13d ba3b ca3d e11f 22bd 0831 ee3d
00000330: a5a1 13bc 1fe2 b9bd 9a1b 663d 5992 1cbe
00000340: 9ff8 a8bd f226 5fbd cfea 083e 395c 1ebc
00000350: ba7f e4bc 4d4c 0fbe 13ef cfbd 99af 8dbd
00000360: fa5a e93d 8120 f13d b54d 673b 7752 59bd
00000370: 2d97 b43d 2f15 843d e186 543d f796 c63d
00000380: c165 813b f00c 623d c71f 7b3d f97c 13be
00000390: a620 2bbd 9ab4 8abd 997d f439 4ae7 173e
000003a0: ace3 9f3b 4be5 e5bd 2611 8fbd e673 adbb
000003b0: 5f4d d9bd 95ea 633d 3cc7 90bc 38c7 ca3d
000003c0: c619 5fbd eb58 8dbd 190a d03d 5bd8 fbbd
000003d0: 2141 86bd 82e1 27be 843e aabd b64f 0cbe
000003e0: ba46 9cbd 568f f03d 6425 b8bd 1241 a93d
000003f0: de9a 7cbd 4562 003d 306d e1bd a1a7 3fbd

weight f4 [100]
1.0206248 0.9801763 0.9712249 1.009628 1.0271089 0.9788831 1.0238869 0.9857777
1.0313559 0.9810995 1.028472 0.9905176 1.0000565 1.009375 0.9799629 1.0165994
1.007604 0.9906409 1.0273749 0.9489136 0.99190485 1.0190935 0.9898468 1.0239099
1.0422344 0.99110574 1.0164 1.0998732 0.9484239 0.94953704 1.0249197 0.9987796
0.98708487 1.0151907 0.9898014 0.9792807 0.9808051 0.9387145 0.95027894 1.0540531
1.0746502 1.0444183 1.0243986 0.95714796 0.9543408 1.0031537 1.0196189 1.0431116
1.0312912 0.99013436 1.0390091 1.0010782 0.97866374 0.97428626 1.0024321 0.9755522
0.97408 0.95587146 0.94921637 1.0470563 1.0079097 1.0213407 1.0030062 0.9721141
1.0163873 0.99784553 1.0376337 0.9743381 0.98066545 0.9700873 1.0101792 1.0102175
0.9955888 1.0743705 0.9869697 0.99789166 0.9685988 0.9948157 1.0482627 0.961143
0.9882755 0.9680134 0.9946625 0.9792802 1.0210644 1.0073749 0.9901014 0.98862374
1.003471 1.0428662 0.98347676 1.0108622 1.0805511 1.0406924 0.90230095 1.0335265
0.98950976 0.981198 0.976985 1.0369513
00000000: d5a3 823f d6ec 7a3f 32a2 783f 7e3b 813f
00000010: 4e78 833f 1598 7a3f ba0e 833f ed5b 7c3f
00000020: 7803 843f 5629 7b3f f8a4 833f 9092 7d3f
00000030: da01 803f 3333 813f d9de 7a3f ee1f 823f
00000040: 2bf9 803f a49a 7d3f 0581 833f 00ec 723f
00000050: 7aed 7d3f a871 823f 9a66 7d3f 7b0f 833f
00000060: f067 853f 1bb9 7d3f 6519 823f a5c8 8c3f
00000070: e9cb 723f dc14 733f 9230 833f 05b0 7f3f
00000080: 98b1 7c3f c5f1 813f a063 7d3f 24b2 7a3f
00000090: 0b16 7b3f 984f 703f 7b45 733f 36eb 863f
000000a0: 238e 893f 80af 853f 7e1f 833f a607 753f
000000b0: ae4f 743f 5767 803f df82 823f ae84 853f
000000c0: 5a01 843f 7279 7d3f 40fe 843f 5523 803f
000000d0: b589 7a3f d36a 793f b24f 803f cabd 793f
000000e0: 4f5d 793f feb3 743f d8ff 723f f105 863f
000000f0: 2f03 813f 4bbb 823f 8262 803f 78dc 783f
00000100: fb18 823f ce72 7f3f 2ed1 843f 396e 793f
00000110: e40c 7b3f a457 783f 8d4d 813f cf4e 813f
00000120: e8de 7e3f f984 893f 0caa 7c3f d475 7f3f
00000130: 17f6 773f 3eac 7e3f 792d 863f 780d 763f
00000140: a0ff 7c3f bacf 773f 34a2 7e3f 1bb2 7a3f
00000150: 3db2 823f a9f1 803f 4977 7d3f 7216 7d3f
00000160: bd71 803f a47c 853f 22c5 7b3f ef63 813f
00000170: 804f 8a3f 6935 853f 32fd 663f 994a 843f
00000180: 8350 7d3f cb2f 7b3f b01b 7a3f d2ba 843f

bias f4 [100]
0.021842498 -0.0056414544 0.05342297 -0.01260226 -0.05689033 0.0535202 0.047176644 0.003477041
0.009905427 -0.004273188 -0.004059348 -0.026481919 0.01848849 0.031375166 0.040605836 0.0070943395
-0.036621425 -0.031966925 0.0068082423 -0.0409233 0.0057121622 0.036646336 0.039007597 0.029460207
-0.009652571 -0.0015819501 -0.03291314 0.026492406 0.031458758 -0.0077150217 -1.3900699e-05 0.0055942903
0.028586617 0.017406592 -0.04744829 -0.11115573 0.018347505 0.07046042 -0.03184351 -0.038607057
-0.014045952 0.0035426086 -0.018737566 -0.0352612 0.013085411 -0.0377686 -0.019390186 -0.03652199
0.02119445 0.007562196 -0.049847312 -0.024291387 -0.024829961 -0.009690225 0.009121619 -0.01277978
-0.010307818 -0.0073457197 0.06622596 -0.008890566 -0.017206652 0.045382753 0.005120844 0.017229227
0.034503974 -0.04432187 0.0026814146 0.047515046 0.031688236 -0.028732657 -9.782364e-05 -0.023453895
0.02536497 -0.017186174 -0.005744316 -0.00893105 0.08841772 0.0005501266 0.01992606 0.0068520796
-0.071832135 0.040007688 0.0059604333 0.010114075 -0.02678546 0.0052508553 -0.050372276 0.045659762
-0.010046763 -0.024161248 -0.042334456 0.019234633 0.005464395 -0.020659667 -0.024699097 -0.012111146
0.0054663206 0.02337935 -0.018958338 -0.002384443
00000000: 0aef b23c f3db b8bb 0bd2 5a3d b679 4ebc
00000010: d605 69bd ff37 5b3d 4c3c 413d 11df 633b
00000020: 5f4a 223c 1906 8cbb 4704 85bb 9cf0 d8bc
00000030: 2c75 973c 3f83 003d 4e52 263d a277 e83b
00000040: 5900 16bd c0ef 02bd ad17 df3b 319f 27bd
00000050: 172d bb3b 781a 163d 6ec6 1f3d 8856 f13c
00000060: d125 1ebc 7059 cfba eecf 06bd 9a06 d93c
00000070: e6da 003d 4bce fcbb 0c37 69b7 4f50 b73b
00000080: 7b2e ea3c 4598 8e3c 2359 42bd 9ea5 e3bd
00000090: 824d 963c 8d4d 903d 576e 02bd 6f22 1ebd
000000a0: fe20 66bc 1c2b 683b 867f 99bc 0c6e 10bd
000000b0: 3164 563c 3fb3 1abd 2bd8 9ebc 1598 15bd
000000c0: fc9f ad3c 4ccc f73b b22c 4cbd bbfe c6bc
000000d0: 3468 cbbc c0c3 1ebc d872 153c 4862 51bc
000000e0: 1fe2 28bc 5db4 f0bb 7aa1 873d bda9 11bc
000000f0: f7f4 8cbc 44e3 393d c1cc a73b 4f24 8d3c
00000100: 0a54 0d3d d98a 35bd acba 2f3b 239f 423d
00000110: 86cb 013d c060 ebbc ab26 cdb8 6222 c0bc
00000120: 33ca cf3c 05ca 8cbc d13a bcbb 8a53 12bc
00000130: 5914 b53d 5f36 103a fa3b a33c 6987 e03b
00000140: ba1c 93bd 1adf 233d bd4f c33b 81b5 253c
00000150: 2e6d dbbc 5e0f ac3b 2953 4ebd bb05 3b3d
00000160: 2e9b 24bc cfed c5bc e566 2dbd f391 9d3c
00000170: ab0e b33b 763e a9bc c355 cabc d46d 46bc
00000180: d21e b33b 0d86 bf3c 844e 9bbc 5144 1cbb

running_mean f4 [100]
-0.173369 0.36373243 0.7023012 0.18850054 -1.132811 -1.4813409 0.23523846 0.6371512
1.272119 1.0265092 1.0034223 1.0281343 0.059828255 -1.2271402 1.0558106 1.0215249
-0.3000256 0.05411425 -0.79133004 -0.7711701 0.21716821 -0.89711595 0.31178904 -0.599901
-0.5534542 0.025898358 -0.5122243 -0.731744 0.99582165 1.7381873 1.0295454 1.3650665
0.31414935 -1.4190638 0.98165214 -0.3792492 -2.0749006 -0.0041392357 0.31578988 0.97111654
1.2156003 1.2568729 0.8858736 -0.849879 -1.1516522 0.6058212 0.586686 1.3803471
0.8435945 -0.14457574 -1.3817576 1.1823437 0.80367213 -0.28672406 -0.42225623 0.6799813
-0.83858067 0.72297525 -0.029515905 -1.0618395 -0.5150279 0.5168054 1.4493585 0.1338934
1.1850657 -1.3387322 -1.4429992 0.26061243 0.96489966 -1.3174337 0.23810823 0.7361776
0.9615639 0.450089 0.51409465 1.6618528 0.525666 2.4022028 0.7790351 1.1765225
0.26523486 -0.3705724 1.2119137 0.665106 1.1539139 0.37034914 0.90231544 -0.105897315
-0.39901733 0.66438216 0.55210185 0.40611625 -0.40843073 1.4837425 -0.13347909 1.3537177
0.17538391 1.3962605 0.4328956 -1.1149378
00000000: a587 31be 233b ba3e 03ca 333f 4906 413e
00000010: f3ff 90bf 949c bdbf 5ae2 703e 571c 233f
00000020: ccd4 a23f a764 833f 2470 803f e899 833f
00000030: 790e 753d ee12 9dbf cd24 873f 54c1 823f
00000040: f59c 99be e7a6 5d3d 9b94 4abf 676b 45bf
00000050: 5861 5e3e 64a9 65bf d0a2 9f3e 1d93 19bf
00000060: 2daf 0dbf cb28 d43c 2221 03bf 9353 3bbf
00000070: 2bee 7e3f ec7c de3f 25c8 833f 80ba ae3f
00000080: 2fd8 a03e e2a3 b5bf 8e4d 7b3f f32c c2be
00000090: 2ccb 04c0 6da2 87bb 36af a13e 189b 783f
000000a0: ca98 9b3f 36e1 a03f 9dc8 623f ac91 59bf
000000b0: 5769 93bf 1917 1b3f 0e31 163f 37af b03f
000000c0: cff5 573f aa0b 14be 6fdd b0bf 0a57 973f
000000d0: 75bd 4d3f 7fcd 92be f831 d8be 4113 2e3f
000000e0: 39ad 56bf e814 393f 57cb f1bc 5bea 87bf
000000f0: ded8 03bf 5c4d 043f 9484 b93f 5a1b 093e
00000100: 3cb0 973f 945b abbf 33b4 b8bf fe6e 853e
00000110: aa03 773f aba1 a8bf a5d2 733e 2376 3c3f
00000120: 0d29 763f 1172 e63e b59b 033f 98b7 d43f
00000130: 0c92 063f b1bd 1940 d86e 473f 4a98 963f
00000140: ddcc 873e aabb bdbe fd1f 9b3f 6344 2a3f
00000150: 73b3 933f 679e bd3e 25fe 663f b1e0 d8bd
00000160: 004c ccbe f314 2a3f 8c56 0d3f 78ee cf3e
00000170: d51d d1be 46eb bd3f beae 08be 9f46 ad3f
00000180: d797 333e aab8 b23f 7ea4 dd3e 48b6 8ebf

running_var f4 [100]
4.552116 3.8582168 3.1386106 1.9846388 7.0527616 8.077566 4.5421424 6.1108055
5.0267406 6.5090237 2.262176 2.157178 3.3508804 6.115903 6.352616 2.8642244
3.9992177 1.5975499 3.304317 1.7884794 3.1955645 4.6308 2.174608 4.465107
1.9931859 4.3937106 3.185481 2.2317004 7.7256017 10.071975 5.6860895 6.1054864
1.0545074 4.663301 9.688159 3.4840844 7.431241 7.956045 7.926314 5.816949
2.7756083 3.4099324 5.0620837 2.8555646 7.9659157 7.2422132 2.8301916 5.7038364
1.5983428 3.7174883 1.5059516 9.555787 9.612906 3.4244351 2.8244689 3.8490899
4.0185385 2.297927 8.703599 3.2317708 3.1222174 6.1400514 3.2900212 5.6613955
4.5142655 4.1554017 5.3489914 3.6334274 2.617966 9.099647 3.0576472 1.7118962
2.6109238 3.7450032 3.3620083 4.2052393 3.6838365 12.542674 2.2511656 7.750488
2.8010435 3.9921966 4.371529 5.752 2.8956292 5.9114113 4.2766786 5.6216173
4.658505 2.6658578 4.016063 2.24509 2.676147 7.4265757 6.0408525 2.7109523
5.6572256 7.7863126 4.178394 4.528052
00000000: efaa 9140 06ed 7640 ffde 4840 a508 fe3f
00000010: 39b0 e140 b63d 0141 3b59 9140 b88b c340
00000020: 0fdb a040 ec49 d040 7ec7 1040 340f 0a40
00000030: d374 5640 7ab5 c340 a148 cb40 744f 3740
00000040: 2ff3 7f40 847c cc3f ee79 5340 e5ec e43f
00000050: 2184 4c40 832f 9440 c72c 0b40 28e2 8e40
00000060: b720 ff3f 4799 8c40 ecde 4b40 2ed4 0e40
00000070: 2138 f740 cf26 2141 72f4 b540 2560 c340
00000080: 19fa 863f c339 9540 b302 1b41 3dfb 5e40
00000090: bacc ed40 ec97 fe40 5da4 fd40 7224 ba40
000000a0: 91a3 3140 553c 5a40 97fc a140 92c1 3640
000000b0: c8e8 fe40 36c0 e740 dc21 3540 d485 b640
000000c0: 7f96 cc3f 54eb 6d40 06c3 c03f 81e4 1841
000000d0: 77ce 1941 f229 5b40 19c4 3440 7d57 7640
000000e0: de97 8040 3c11 1340 f141 0b41 55d5 4e40
000000f0: 69d2 4740 4d7b c440 b58f 5240 272a b540
00000100: dd74 9040 0df9 8440 f02a ab40 138a 6840
00000110: c18c 2740 2798 1141 7eb0 4340 6a1f db3f
00000120: 6019 2740 22ae 6f40 252b 5740 5291 8640
00000130: fac3 6b40 cbae 4841 1913 1040 ff03 f840
00000140: 4c44 3340 2680 7f40 91e3 8b40 6210 b840
00000150: fd51 3940 482a bd40 8dda 8840 4ae4 b340
00000160: 7912 9540 6a9d 2a40 9783 8040 8eaf 0f40
00000170: fe45 2b40 82a6 ed40 aa4e c140 3e80 2d40
00000180: fe07 b540 7929 f940 67b5 8540 cde5 9040

weight f4 [256, 100]
0.061506424 -0.013968264 -0.03902194 0.016031297 0.054566413 0.008816762 -0.009517664 0.04464596
0.021749135 -0.062759064 -0.050158717 0.07110563 -0.060960807 0.108143665 -0.10035683 -0.07207219
-0.036206484 -0.035380784 0.087142915 0.032360256 -0.1177503 -0.047895662 -0.08600783 0.029153991
0.06273985 0.07756388 0.010905729 0.08934798 0.010402579 -0.12361842 0.040628344 -0.0030085926
-0.050647084 0.061686743 0.009771342 0.011576462 -0.05952232 0.0361955 0.08684604 0.0130652785
-0.111933835 -0.026792686 -0.104384236 0.083393425 -0.0034129568 0.029636804 0.024454905 -0.1000803
-0.033693753 -0.0443034 0.043111727 -0.03415624 0.04688532 0.0268599 -0.07323045 -0.093078196
0.02152083 -0.08833591 0.07136494 0.012173212 -0.030075124 -0.069084786 -0.0135528995 0.039441187
-0.114327684 0.031390794 0.0770875 0.09502618 0.058421183 0.08470517 0.031418283 0.017668149
-0.024405317 -0.033048537 0.0028782405 -0.09261365 0.08789848 0.031887416 0.08028934 -0.068293914
-0.018837988 -0.010358653 -0.019925606 -0.11869089 -0.03111603 -0.021387592 -0.034487255 -0.03968072
0.068824686 -0.040088642 0.06624566 0.0022214176 0.110477164 -0.0912319 -0.09131949 -0.065212384
-0.10873455 0.039849922 -0.040324412 -0.0320344 0.067074075 -0.019719671 0.013120364 0.06152389
0.07200719 -0.06694389 0.027701046 0.07101192 -0.03924107 0.11307397 0.1270019 0.048750967
-0.01240465 -0.056193687 0.019766228 0.09497551 0.022246536 0.01500919 0.09650858 0.03858699
-0.06864035 -0.039300255 0.0658579 -0.03974178 0.06220209 -0.026875883 0.052192446 -0.032873984
-0.04643667 0.10194242 0.011002064 0.014999937 0.10713046 -0.07361773 0.10699305 0.0079935985
-0.037203725 0.027976546 0.03635634 0.05478097 0.0044692317 0.13234553 -0.035820905 -0.0150609175
0.035484906 0.085955545 0.032267325 0.10086822 -0.045755543 0.03147725 0.03552557 0.00619408
0.023865512 0.02518792 0.017420458 0.02495878 -0.03071885 -0.055385347 0.017155066 -0.13720466
-0.038551904 0.035941366 0.05643145 -0.08562501 -0.03927232 -0.074132614 -0.027051546 -0.058691528
0.04286227 -0.03988601 -0.01658212 0.01840054 -0.021043522 0.12086058 -0.06699403 -0.026232943
-0.0651192 0.13201691 0.050311714 0.08357824 0.026410758 -0.020932132 -0.023506919 -0.090118796
0.033872932 0.074065655 0.066580124 -0.101747625 -0.06471627 0.019632366 0.080032855 0.056518197
-0.046920996 0.15578558 0.016605748 0.030680796 -0.07252803 -0.04857412 0.054252222 -0.036740247
-0.02745265 0.12704183 -0.055894423 0.04516263 -0.010878543 -0.09198642 -0.051414486 -0.0184853
0.030894628 0.027282698 -0.06877611 -0.061970774 0.032302592 -0.053596377 -0.07682185 0.13261595
-0.0046287654 0.13815124 -0.028070455 0.06460064 0.10141089 0.051068608 -0.047629368 0.07988074
-0.042749733 0.020734016 -0.053349067 -0.04650313 -0.07646559 0.11215504 0.049187064 0.10225249
0.0031728195 -0.05247616 -3.0188528e-05 -0.0720386 0.07037904 -0.10911504 -0.033614893 -0.014900183
0.024866901 -0.0052620885 -0.030351946 0.017132446 0.040702417 0.06569898 -0.047894865 0.12585156
-0.016408917 -0.02106495 -0.10996381 -0.070057385 0.033038933 0.026285157 -0.009066665 -0.027024418
00000000: 29ee 7b3d 25db 64bc 78d5 1fbd 1154 833c
00000010: 0881 5f3d 2e74 103c faef 1bbc afde 363d
00000020: 3e2b b23c d387 80bd 3a73 4dbd d49f 913d
00000030: 0ab2 79bd 6d7a dd3d e287 cdbd 969a 93bd
00000040: 404d 14bd 71eb 10bd fc77 b23d 308c 043d
00000050: 1227 f1bd 3e2e 44bd e024 b0bd 5ad4 ee3c
00000060: c07d 803d d0d9 9e3d f1ad 323c 13fc b63d
00000070: 946f 2a3c a72b fdbd e869 263d cf2b 45bb
00000080: 5173 4fbd 3dab 7c3d fb17 203c 33ab 3d3c
00000090: adcd 73bd bc41 143d 56dc b13d c00f 563c
000000a0: 913d e5bd 567c dbbc 67c7 d5bd 2cca aa3d
000000b0: eaab 5fbb e2c8 f23c a755 c83c e6f6 ccbd
000000c0: 7602 0abd 7b77 35bd ec95 303d 6ae7 0bbd
000000d0: d20a 403d 4b09 dc3c d9f9 95bd c89f bebd
000000e0: 744c b03c 75e9 b4bd c827 923d 2772 473c
000000f0: 1b60 f6bc 537c 8dbd fb0c 5ebc 158d 213d
00000100: a224 eabd a293 003d 0de0 9d3d 169d c23d
00000110: 0d4b 6f3d e779 ad3d 75b0 003d cbbc 903c
00000120: a9ed c7bc e75d 07bd dda0 3c3b 3aac bdbd
00000130: 1e04 b43d 619c 023d bd6e a43d aedd 8bbd
00000140: 2052 9abc 57b7 29bc 063b a3bc 3614 f3bd
00000150: 0be7 febc 0835 afbc 8242 0dbd 4088 22bd
00000160: f5f3 8c3d fd33 24bd ceab 873d 3495 113b
00000170: da41 e23d cad7 babd b605 bbbd 128e 85bd
00000180: 38b0 debd ac39 233d 362b 25bd 8136 03bd
00000190: 225e 893d 268b a1bc ccf6 563c 7900 7c3d
000001a0: 8178 933d e119 89bd 4eed e23c b36e 913d
000001b0: 3fbb 20bd 5393 e73d c90c 023e 18af 473d
000001c0: e03c 4bbc 5a2b 66bd c9ec a13c 8582 c23d
000001d0: 5e3e b63c 1be9 753c 4aa6 c53d 640d 1e3d
000001e0: 5093 8cbd 4ef9 20bd 82e0 863d 47c8 22bd
000001f0: 9ec7 7e3d d02a dcbc bfc7 553d dfa6 06bd
00000200: 6134 3ebd 30c7 d03d 0042 343c 4cc2 753c
00000210: 3767 db3d e4c4 96bd 2c1f db3d 95f7 023c
00000220: ef62 18bd 122f e53c 63ea 143d 0362 603d
00000230: a272 923b 9685 073e f1b8 12bd 11c2 76bc
00000240: 9f58 113d 7609 b03d be2a 043d ff93 ce3d
00000250: 2a6a 3bbd 4aee 003d 4383 113d b6f7 ca3b
00000260: 9b81 c33c e656 ce3c 59b5 8e3c 5b76 cc3c
00000270: 19a6 fbbc bfdb 62bd c888 8c3c 617f 0cbe
00000280: 9ae8 1dbd 4137 133d aa24 673d 2a5c afbd
00000290: 03dc 20bd d7d2 97bd 349b ddbc 8766 70bd
000002a0: 5990 2f3d 835f 23bd 3ad7 87bc bbbc 963c
000002b0: 7763 acbc c085 f73d 2a34 89bd 78e6 d6bc
000002c0: 375d 85bd 712f 073e a813 4e3d 112b ab3d
000002d0: 605b d83c dd79 abbc 9591 c0bc 3490 b8bd
000002e0: 58be 0a3d bcaf 973d 295b 883d 0f61 d0bd
000002f0: f789 84bd 0ed4 a03c 44e8 a33d a07f 673d
00000300: 3b30 40bd 4186 1f3e c708 883c 4b56 fb3c
00000310: 9389 94bd a8f5 46bd 9437 5e3d f17c 16bd
00000320: 61e4 e0bc 4117 023e 8df1 64bd 73fc 383d
00000330: eb3b 32bc 6063 bcbd ff97 52bd 7c6e 97bc
00000340: bb16 fd3c f77f df3c 7dda 8cbd 11d5 7dbd
00000350: b94f 043d e087 5bbd c654 9dbd 7acc 073e
00000360: e6ac 97bb 8577 0d3e 03f4 e5bc 574d 843d
00000370: 83b0 cf3d 512d 513d 0317 43bd 8398 a33d
00000380: 581a 2fbd 62da a93c 8d84 5abd 117a 3ebd
00000390: fe99 9cbd 8bb1 e53d 6078 493d c169 d13d
000003a0: 14ef 4f3b 3ef1 56bd 5f3d fdb7 f988 93bd
000003b0: e322 903d b577 dfbd c5af 09bd e61f 74bc
000003c0: acb5 cb3c 996d acbb a5a4 f8bc 5859 8c3c
000003d0: 94b7 263d 308d 863d 682d 44bd 3bdf 003e
000003e0: fe6b 86bc 6790 acbc b534 e1bd 3f7a 8fbd
000003f0: d553 073d f853 d73c 598c 14bc 5062 ddbc
