transformer_results_random_no_constants_no_param_tune/performance_prediction/DE-GA-ES-PSO_random_no_constants_dim_3_samples_50_fold_0_budget_50_n_heads_2_n_layers_1_d_model_100_d_k_30_d_v_30_aggregations_mean/trained_model.pt (torch, 342201 bytes, 22 tensors)

weight f4 [100, 4]
00000000: 7530 d73e 08c2 c5be b68e d33e cc91 ad3e
00000010: c73c 7f3e 60a7 153c 47c0 ff3d 1325 dc3d
00000020: db0e a73e d99a 513d 1e7a 65be ae98 2f3e
00000030: 8cd9 50be 07e5 55bd 152f 2dbe 47cc 073f
00000040: b825 bdbe b102 4cbe 2298 f6bd 068b 04bf
00000050: 3521 303d 5484 f1be 94cd d73e 8dd2 28bf
00000060: b86b bd3e d9a5 9f3d bc9e 1dbe c3b4 163f
00000070: d05e 803d 63d4 b23e bbbc 6d3d 82f7 aebe
00000080: f07e 063e 3b75 00be 7db4 353e e1c6 373f
00000090: f9a4 893e d3b2 57be 9551 783e d9a2 903e
000000a0: d202 703e 251b 98be eb34 d7be 9af3 98be
000000b0: b6ef c2be e947 bf3e 415b d83d 7606 ba3e
000000c0: 67aa 2b3e 4abd 0ebc aa35 c53e a07f 07bf
000000d0: 52d3 e73c e4ff acbe 9520 133e 813a b6be
000000e0: 4996 0c3e 6e62 0cbe 090e bf3e 8bf0 f6be
000000f0: 8a62 6bbe a363 97be ca96 da3e 741c c73e
00000100: f989 e13e 7a81 c1be 9dbb e5be cb08 23bf
00000110: 303b 9fbe 41a8 3f3e 7349 343e f3da 2a3f
00000120: 5658 76be 19ab abbe 0351 863e a95b b1be
00000130: b4fd 8d3e 6c80 c7bd 4d32 9c3e dea5 06bf
00000140: 3cbe 6dbe 9abd 1b3e ebc9 053e d64a aabe
00000150: f15f 7f3e eb8e a63e eb89 b0be 201a f7be
00000160: b73a d63e f387 1fbe 50a0 28be 03f3 4abf
00000170: 8cd0 94be 1b1d 0b3e fe22 74bd 9e1a 21bf
00000180: 9ddc 63bc 7279 9dbe 5a90 c9be f18e fabe
00000190: 9da4 d2be b178 a9be b699 fa3e 17bd 963e
000001a0: 4474 f33d 6804 c5be 8cc9 9cbe aa56 2fbe
000001b0: 6fce a13d 0089 ccbe 28fc 2bbe 2788 89be
000001c0: d431 8abc 5af9 38be adad 00bd 43eb 0fbf
000001d0: 0662 9fbe 400a 88be 4624 02be 6a93 1fbf
000001e0: a923 b33e 0506 ecbd 4185 b33e c095 a53e
000001f0: 39d9 cebe bbb7 a33e a2be cdbd de80 ebbe
00000200: 0a15 c1be 9e7b edbe 86fb 1c3e 0ab7 23be
00000210: 0dea 5d3e a776 d1be 607b b73e d5ed c5be
00000220: 265a b6bd d250 be3d 0585 6b3e cbc5 323f
00000230: cfa9 e33e 4db0 cabe 0250 133e dd42 23be
00000240: d616 26bd a3d8 babe ec0a e03e 586f cabe
00000250: 1b96 653e dffc 2c3e 2769 f73d 9ab9 0ebf
00000260: d64d d23e df07 9b3d 54d5 643d 0245 24bf
00000270: 26c2 543e 9d8e 81bd e50c 60be 494e 393f
00000280: 1f6d 053e ae88 7dbe c10b 67be a129 fd3d
00000290: 2ca2 5e3e 1185 efbd 6469 7bbe 6a5e 89be
000002a0: 53c7 babe 11e3 3b3e 267a ca3e e2ea 3ebf
000002b0: 142e 843d 4900 5e3e 0780 743d e0f2 9bbe
000002c0: fb4d 553e 4f8a 613e 5cb3 103e 909a 83bd
000002d0: 6d66 b9bd b1ac 863c 7187 34bd aa13 98be
000002e0: 5b7d 923e 855f c93e 3c44 42bd 94b1 afbe
000002f0: 3313 2d3d 414b c0bc 0496 c23d 1c58 e03e
00000300: 6b6f d6be cfe3 4cbe ad8a b83e f8dd a53e
00000310: 1b10 4abd 7dfc 90be 535c 91be 5c62 30bf
00000320: da86 16be 2254 363e 9f6a 8c3e bccd c53e
00000330: afe9 d3be c48a 9bbe 62ce b6bd ae99 3f3f
00000340: e518 423d 4527 f1bd e19c 3f3e d64b c2be
00000350: 3ef5 98be b5e0 c13e 903a 50be b93a dcbe
00000360: a845 e4be b3f2 9b3e 33e6 b03e 6641 ad3e
00000370: 057a adbe 4da1 f4be 3843 d2be be46 093f
00000380: 9fd0 4f3e 9d43 cb3e 20bd 593e 7c72 203e
00000390: ade6 ecbc e4b9 b9be a639 dbbe 722f 31bf
000003a0: b1c8 373e 11c9 52be 337e 93bd 99d0 0abf
000003b0: ca47 afbd 9a1c a3be 8bd0 87be 60d9 853e
000003c0: cb2f ffbd 03ee 973e 294d f3bd a472 45bf
000003d0: 76d1 c4bd 8ffd 7abe 43cf 09be 2218 40bf
000003e0: df82 943e be66 9fbe edd9 803e 4f4d 073f
000003f0: 65e0 c03e 8a9f c3be 619b a63e 7b8c b2be
0.42029157 -0.38624597 0.41319817 0.33900297 0.24925528 0.009134144 0.12487846 0.10749259
0.3262852 0.051173065 -0.22409865 0.17148086 -0.20395488 -0.05222037 -0.16912492 0.5304608
-0.3694284 -0.19922902 -0.12040736 -0.5177463 0.04300042 -0.4717127 0.4214903 -0.65946275
0.36996245 0.07795305 -0.15392584 0.5886957 0.06268084 0.34927663 0.058041316 -0.34173208
0.1313436 -0.1254472 0.17744632 0.7178784 0.26883677 -0.2106431 0.24249871 0.28249243
0.23438576 -0.2970821 -0.4203256 -0.29873353 -0.3807351 0.3735955 0.1056428 0.36333054
0.16764222 -0.008712122 0.38517505 -0.52929115 0.028299008 -0.3378898 0.14367898 -0.3559151
0.13729204 -0.13709423 0.37315395 -0.48230395 -0.22986808 -0.29568204 0.42693168 0.38888896
0.44050577 -0.37794095 -0.448697 -0.6368529 -0.31099844 0.18716528 0.17606144 0.6674034
-0.24057135 -0.33528975 0.26233682 -0.34640244 0.27732623 -0.097412914 0.30507126 -0.52596843
-0.232171 0.15209046 0.13065307 -0.3326022 0.24938942 0.32530913 -0.34480223 -0.4826212
0.4184167 -0.15579204 -0.16467404 -0.79277056 -0.2906536 0.13585322 -0.059603684 -0.6293124
-0.013907579 -0.30756718 -0.39367944 -0.4893718 -0.41141215 -0.33099893 0.48945397 0.2944114
0.1188741 -0.38479924 -0.30622518 -0.17122903 0.07900702 -0.39948273 -0.16795409 -0.26861688
-0.016869463 -0.1806387 -0.03141563 -0.56218356 -0.31129473 -0.2657032 -0.1270915 -0.6233431
0.34988144 -0.11524586 0.35062602 0.32340813 -0.40400103 0.31976113 -0.10046126 -0.45996755
-0.37711364 -0.46383375 0.15330324 -0.15987793 0.21671315 -0.40910837 0.35836315 -0.38658014
-0.08903913 0.09292759 0.22999962 0.6983306 0.4446549 -0.39587632 0.1438599 -0.15943475
-0.04054912 -0.36493406 0.43758333 -0.39538074 0.22420542 0.16893338 0.12080603 -0.55751956
0.4107501 0.07569861 0.055867508 -0.641678 0.20777187 -0.063260294 -0.21879919 0.7238508
0.13029908 -0.2475917 -0.22563078 0.12361456 0.21741551 -0.11695302 -0.24551922 -0.26829845
-0.36480197 0.18348338 0.39546317 -0.7457715 0.06454101 0.21679796 0.05969241 -0.30458736
0.20830528 0.22025417 0.1413092 -0.06425965 -0.09052739 0.016439768 -0.04407448 -0.29702502
0.28611264 0.39330688 -0.047428355 -0.3431517 0.042254638 -0.023473384 0.095012695 0.43817222
-0.4188188 -0.20008777 0.360433 0.3239591 -0.049331766 -0.28317633 -0.2839075 -0.68900084
-0.1469988 0.17805532 0.27425095 0.38633525 -0.41389224 -0.30379307 -0.08926083 0.7484387
0.047387023 -0.11775068 0.18712188 -0.37948483 -0.29874605 0.3786675 -0.2033484 -0.43013552
-0.44584394 0.30458602 0.34550628 0.33838958 -0.33882156 -0.47779313 -0.4106691 0.5362357
0.20294426 0.39700022 0.21263552 0.15668672 -0.028918589 -0.36274636 -0.4281742 -0.6921302
0.17947651 -0.20584513 -0.07201805 -0.54224545 -0.085586146 -0.3185776 -0.26526293 0.26142406
-0.12460288 0.29673776 -0.118799515 -0.7712805 -0.09610264 -0.24510787 -0.1345797 -0.75036824
0.29006097 -0.31133074 0.25166264 0.5285234 0.376712 -0.38207656 0.3254042 -0.34872803

bias f4 [100]
00000000: cf40 89be a36d ed3d 3a02 d4bd 8289 76be
00000010: a7fb 0b3f ad64 433e 19ba af3e 161d 57be
00000020: ec4e 68be 8ae3 1e3e 1ce4 8abe f176 cfbe
00000030: 867b d8bc 36a2 5cbe ce26 c4be e615 7d3e
00000040: 840b e63e c6f8 4e3d 7c20 bbbd 69a4 e3be
00000050: 5ae2 35be 09b2 1b3e f096 803e d5ff 73bd
00000060: e8f4 4ebe d746 8b3e 08e4 b0be 3ca5 ab3e
00000070: 86cb 23be 8db7 713d dc27 14be f85d c23d
00000080: 170c 56be b29c cb3e 7a6b 60bd 78aa e63e
00000090: 032c 043f e419 56be d06d acbe ced4 c23e
000000a0: a16e dd3e 93f1 abbe 0726 21bd d447 01bf
000000b0: b058 cdbe 06c7 173e cd46 383e 8b2b a33d
000000c0: 6985 1dbe f4bc e73e 8b1f 413d b5ea a2be
000000d0: 5ad1 093b b3ae 1d3e 1a24 0d3e e661 cabe
000000e0: 48e2 063e b46f 78be e86e cfbe d9a1 7dbe
000000f0: cc17 f83e c368 dd3e f8dc dc3e 68cd 9c3e
00000100: 0562 d33e 0a0d 81bd 6e1a 8cbe 1d48 883e
00000110: db6a 88be b83f bebe 0e4f ffbd 3ff1 6d3d
00000120: fb76 b63e 7d5e 26be d52e aebe b30e 8b3d
00000130: e916 a5be 4d32 98be 2fcb 743e 08b0 e9bc
00000140: 3963 e03e 90cb 083f d8e9 653e 110b 3b3e
00000150: 9e5a d43d 9a5c c3bc d0b7 aa3c 5403 573b
00000160: 5bf3 523e adee 073f ad84 51be 409b 72be
00000170: c3f3 d0bd d29e 88be 0ecd 003e da12 cb3e
00000180: 55f3 d63e 8d27 743e c1d1 c1be 5ce6 6bbe
-0.26807258 0.11593177 -0.10351987 -0.24075893 0.54680866 0.19081374 0.3432167 -0.21007189
-0.22686356 0.15516487 -0.2712716 -0.40520433 -0.026426088 -0.21546254 -0.38310856 0.24715385
0.4493066 0.050530218 -0.09137055 -0.44461372 -0.17762128 0.15204634 0.25115156 -0.059570152
-0.20210612 0.27202484 -0.34548974 0.335245 -0.15995607 0.05901294 -0.1446833 0.09490579
-0.2090305 0.39767987 -0.054789998 0.45051932 0.51629657 -0.20908314 -0.3367753 0.38052982
0.43248466 -0.33582744 -0.039342906 -0.50500226 -0.40106726 0.14822015 0.17995758 0.079672895
-0.15382923 0.45261347 0.047149222 -0.31819692 0.0021029324 0.15398674 0.13783303 -0.39527816
0.13172257 -0.24261361 -0.40514302 -0.24768771 0.48455656 0.4324399 0.43137336 0.30625463
0.4128572 -0.06301315 -0.27363914 0.26617518 -0.26644024 -0.3715799 -0.1246625 0.0580914
0.3563765 -0.16246982 -0.34020105 0.06789913 -0.32244042 -0.29725876 0.23905633 -0.028526321
0.438257 0.5343561 0.22452486 0.1826594 0.10368846 -0.023847867 0.020839602 0.003280838
0.20600645 0.53098565 -0.20460768 -0.23692036 -0.10202744 -0.2668367 0.12578222 0.3966282
0.41982523 0.23843212 -0.37855342 -0.23037094

weight f4 [60, 100]
00000000: 6d05 883c e594 813c 6165 b53c 72e6 bebd
00000010: 9929 f2bc 8e88 a0bd e600 c7bc dd43 adbd
00000020: 9fe2 223e d0c5 4fbd 94e3 383d d634 c23b
00000030: d5e0 02bb bb7b 743d 0530 adbb e2c1 b93d
00000040: e60d 163d 4285 63bd 3049 dd3c fc85 b63c
00000050: 9098 d0ba cfcd 5cbc 1105 46bb f594 e5bd
00000060: 38d5 81bd 912b db3d 88ff 3f3d 2f28 2abd
00000070: f9e2 0cbe e0da 80bd b2ec abbc 69c3 173d
00000080: 0c5f 9cbd 874a cbba 47d2 5d3d 5f87 f23c
00000090: 76bf ba3d bbc2 723c 775c 663d df50 f93d
000000a0: 11f7 7f3d cb8b 57bd b738 27bd e821 2f3d
000000b0: 972a 183b 4242 e1bc dd84 4ebc 78ef 703a
000000c0: fed8 673d 6197 5dbd b325 bc3d b06a c63d
000000d0: a4f1 8a3d ef63 673d 22ad 8d3c 5b37 d2bd
000000e0: 63e1 f2bc d982 f3bd f3a1 cfbd bb7a 89bd
000000f0: 2b64 0dbe 6124 2cbe 04d2 35bc d248 a4bd
00000100: 96c3 7ebd fe24 573c c6eb e93d 5db9 83bd
00000110: 2ed5 7dbd 1b93 2e3d dc95 34bd 7a94 92bd
00000120: 4a06 483b 665d 18be 8c55 e3bb c097 0d3e
00000130: a780 1d3d c3fa 543d 2650 d2bc 01c6 8ebd
00000140: deff 933c 0099 e8bb c292 a83b 42a7 d5bb
00000150: d14f a8bd 9e56 b63c 38be 6dbd a591 41bd
00000160: 97bc 3bbd 1b4b e1bd a8bc d03d b819 43bd
00000170: cf04 5bbd 331d d23d 3ab2 03be 0cd9 6ebd
00000180: 92a8 10bc ca67 ffbd b5ce 81bd b538 84bd
00000190: 0d6d 3b3d 7942 a73d a968 563d 2fc0 9cbd
000001a0: 6b8f 0dbc d420 c73d d7ff 203c 4654 b23b
000001b0: 573a 6dbd 4467 dcbd b780 b7bb 1fc6 8f3d
000001c0: 406a adbc 15fc 36ba ab17 a1bd d90a adbd
000001d0: 3d85 2d3d f6b1 d6bd 0152 1cbb c290 333d
000001e0: 6227 adbd bf0e 7e3d 35ed 9abc 7d2a 773b
000001f0: 9be2 a43d b080 783d 8951 41bc a29d 82b9
00000200: 784a 4bbd 4053 9b3b b27e f9bd a70d 3d3c
00000210: c0a0 d83c 4197 afbd 7a8e 223c c769 8b3d
00000220: 58ac adbd 87bc 24bd 545e 353d 0d26 71bd
00000230: 6306 d33b 9dc4 c2bc 0153 c13d 7056 4ebd
00000240: 99bc 883d cf3d 9d3d ad4f e03c 0efe 843c
00000250: 1a1e 39bd a380 463c 21b5 81bd 5a0d 7d3d
00000260: dac1 85bd bdc9 563d 72a2 f0bd ddef 483d
00000270: 3b7f 153c 3671 5c3d 8c80 693d 7777 3b3a
00000280: eaab d63d cb79 00bb 7eb9 45bd 5463 2a3d
00000290: faea e13d a001 9a3d 38fe b1bd 2bdc d73d
000002a0: c143 773b e7e9 eebc 14fc a6bd e319 b13b
000002b0: b46d f73d eac9 8e3d 754d 64bd f16d 92bc
000002c0: 6a1c 71bd 796f 913d 5812 ffbd 16e6 cc3c
000002d0: 847d e4bd f419 85bb 03b7 783d b364 3a3e
000002e0: a475 d43c 2ecd 813d 5da7 e83c 5227 f73c
000002f0: c33a ce3d 5ee4 063e 8699 cbbd ba94 093e
00000300: 9d3e 893d 601c bebd 4964 73bc 57d6 2dbd
00000310: f381 223d fd79 3dbd e1b5 023d c8cd 8b3d
00000320: 5f04 bfbd 9379 41bc afff 63bd 8f16 aa3d
00000330: 9c26 fd3d 3ad4 80bd e5ab 153d 86d0 5c3d
00000340: 97cc a43c 2be0 cabd ced2 58bc 5883 32bd
00000350: 0e7f 36bd fb41 b83d 1280 0c3d b2d6 cb3d
00000360: 8bdd 96bc 0139 b13c f82f b03d c341 c0bd
00000370: 6906 acbd 441f a3bd d873 843d 15ed 82bd
00000380: 5c38 23bd 9289 b93d 64a7 af3d b4c8 023e
00000390: 0fc7 efbc 8414 ad3a 3847 b33c 4903 c23d
000003a0: aa54 ec3d 656f 253d 5031 453b f3ac d63d
000003b0: 3914 dbbc ae0c adbd 1077 253d 84e9 d2bd
000003c0: 1fec 03bd 6498 a13d 5d7a 393d 188c 873c
000003d0: c82d b9bd e08f 2d3d 7a90 0f3d 6ab1 9abd
000003e0: 126e 1c3d 9e10 df3d 1cb0 c3bd 50bc 1a3e
000003f0: cc16 14bd d2e7 d6bc 370b 06bd 63c6 31bc
0.01660415 0.015818069 0.022143068 -0.09321298 -0.029560851 -0.07838546 -0.02429242 -0.084602095
0.15906762 -0.050725758 0.04513891 0.0059267087 -0.0019970436 0.05968831 -0.0052852654 0.09070183
0.03663435 -0.055547006 0.027012438 0.022280686 -0.0015914608 -0.013476803 -0.0030215422 -0.11210052
-0.063394964 0.10701669 0.046874553 -0.04154223 -0.13758458 -0.06291747 -0.020986889 0.037051592
-0.07635316 -0.0015509882 0.054155614 0.029605566 0.091185495 0.014816935 0.056240525 0.12173628
0.06249148 -0.05262355 -0.040825572 0.042756945 0.0023218745 -0.027497414 -0.012604919 0.0009190957
0.056603424 -0.054099444 0.09186878 0.09688318 0.067843705 0.05649179 0.01729447 -0.102644645
-0.029648488 -0.118901916 -0.10138311 -0.06712862 -0.13807742 -0.16810752 -0.011097435 -0.08021702
-0.062198244 0.013131378 0.11421923 -0.064318396 -0.061970882 0.04262076 -0.04408823 -0.07157226
0.0030521327 -0.14879379 -0.006937688 0.1382742 0.03845277 0.051996958 -0.025672983 -0.0697136
0.018066343 -0.007098317 0.005144448 -0.006520183 -0.08218349 0.0222581 -0.058042735 -0.047258038
-0.04583415 -0.11000653 0.10192233 -0.04763195 -0.053471383 0.102594756 -0.12860957 -0.05831246
-0.008829253 -0.12470968 -0.06338254 -0.064561285 0.045758296 0.081669755 0.052345905 -0.076538436
-0.008640151 0.09723058 0.009826622 0.005442175 -0.057916965 -0.10761884 -0.005600061 0.070202105
-0.021168828 -0.0006980312 -0.078658424 -0.08449335 0.042363394 -0.10483162 -0.002385259 0.043839224
-0.08454777 0.06202578 -0.018911937 0.0037714534 0.08051034 0.0606696 -0.011799225 -0.00024912978
-0.049631566 0.004740149 -0.12182368 0.0115388995 0.02644384 -0.08573771 0.009921664 0.06807285
-0.084801376 -0.040218856 0.04427941 -0.05887418 0.0064399703 -0.023775393 0.0943966 -0.050375402
0.06676597 0.07677805 0.027381742 0.016234424 -0.045194723 0.01211563 -0.06333376 0.06178031
-0.06531115 0.052438486 -0.11749734 0.049056876 0.009124572 0.053818904 0.057007357 0.00071512855
0.10482009 -0.0019603844 -0.048272602 0.041598633 0.11031146 0.07519841 -0.086910665 0.105400406
0.0037729593 -0.029164268 -0.08153549 0.0054046973 0.12081471 0.06972106 -0.05573793 -0.01787469
-0.05886499 0.0710134 -0.12454671 0.025012057 -0.11156753 -0.0040619317 0.06072141 0.18202476
0.025935002 0.06337963 0.028400118 0.030170117 0.10069802 0.13173053 -0.09941392 0.13435641
0.06701396 -0.09282756 -0.014855453 -0.04244074 0.03967471 -0.046258915 0.031911734 0.06826359
-0.093270056 -0.011808771 -0.05566376 0.08305084 0.1236088 -0.06290479 0.036540885 0.0539098
0.020117087 -0.09906038 -0.0132338535 -0.04358229 -0.044554763 0.0899696 0.034301825 0.09953059
-0.018416187 0.021633627 0.08602899 -0.09387543 -0.0839966 -0.07964948 0.06467408 -0.06392876
-0.03984867 0.090594426 0.08576849 0.12771875 -0.029269723 0.0013204967 0.021884546 0.09473283
0.11539586 0.040389437 0.0030089207 0.10482206 -0.026743041 -0.08449684 0.04039675 -0.10298446
-0.032207604 0.07890394 0.04528271 0.016546294 -0.09041935 0.042373538 0.035049893 -0.0755337
0.03819091 0.10891841 -0.095550746 0.15110898 -0.036154553 -0.026233587 -0.03272554 -0.010850522

weight f4 [60, 100]
00000000: dbb0 183d fd68 543d f814 323d 30d8 7c3d
00000010: ac30 18be aa2f 71bd 0e77 0c3e 3770 17bd
00000020: 749f 823d 23dd 053e e4e0 93bd a4d5 8a3d
00000030: 4e5b ac3a b4a3 7d3d 526c 113e 0e18 023d
00000040: a5e1 6dbd 5404 a13d dacd c9bc 50c7 393d
00000050: 8430 8c3d 7519 e7bb e2d8 d73c 96b8 f1bd
00000060: 7338 8cbd 7de6 00bc 01d5 8bbc d8d6 923c
00000070: 1a08 2dbb ccd5 bbbc 0db0 1e3d bae2 ff3c
00000080: bee4 503c a5f6 943d a898 9d3d 749c b5bc
00000090: 10cb 34bd b647 0b3d 7b50 f8bc e514 833d
000000a0: 14a8 d1bd 5209 e2bd d3a5 71bd 8d4b 953d
000000b0: 1397 003e 21de 3dbe f8b7 c6bc 5f36 063e
000000c0: 7220 acbc 3a2d 16be 2c30 8b3d 3c8c f5bd
000000d0: f5c4 113d ffdc 8dbc 5b17 d43d 0a28 f6bd
000000e0: a779 f83d 47b8 2fbd c2b4 583d 7c71 953d
000000f0: 7c1f a2bd ad8e d0bd bd37 3c3d dcfb fe3d
00000100: 3a05 67bc 0b72 123c 0d00 ac3d 809c 723d
00000110: 3bb4 073c b640 3a3d 9e7f 33bd 56d6 e8bd
00000120: b46c 22be 203b 36bd 195a 6ebc e6f1 b03d
00000130: 0be6 4a3d 4f8b 6a3d 9ce2 653d 290a 05be
00000140: 3e8d 823d cd09 1ebe 9c9a 11be 1f5b 7fbd
00000150: fc30 a23d 9bc3 11bd 82ca c23d ef9f 26bc
00000160: a394 f9bd f1a6 2c3c ada4 963d ff34 12be
00000170: 0e25 db3d 61ef b13c 081d b6bd 4d63 1bbd
00000180: c524 0abd 66dd 053d b8f7 6cbd dbf8 c1bd
00000190: 06a0 83bd 2c77 873d c22b 053d 68ef 0e3c
000001a0: 1c03 b03c eb6a 953d ae59 34bd 3285 d73d
000001b0: 4c3c 80bd a926 0f3d 94e2 a53d 6aed 8e3b
000001c0: e591 a3bd bc12 473d 15ed 80bd c4b5 77bb
000001d0: 6f50 ee3b d100 293d 6b9b fabc ad4a 8bbd
000001e0: 36e2 903d 2ebd af3d 1caa 8f3c b99f d23d
000001f0: 4b25 d43d f62e a43a bf4f b1bc 6664 913d
00000200: 69de 353e fb72 0d3d b141 0d3d afca 523d
00000210: 5b20 9e3b c2fa 46bb 0853 19be 8889 283d
00000220: d60d 1ebd 0e3b 75bd 68a0 583c 98df c3bd
00000230: f2dd 93bd 7c8d 1ebb 9ebb b13c 6dd7 6f3d
00000240: 9ce2 2e3c 19ea 783d 3904 c43c 6b7c 16be
00000250: 831f 8b3d 1ef4 bb3d 3664 193d d753 e2bd
00000260: 7b1e b73d 50c4 643d 2838 d9bd 397d a93d
00000270: 9d71 70bc ba6a 533d 4006 ff3d bd7d 4d3d
00000280: 00ca 203e 2bc0 c4bc 90ea 4b3d 8091 9e3c
00000290: c3c9 04ba 6cae 6abb e5da 52bd 70b2 0c3e
000002a0: 292c f83d ba8f 6c3d 3bdd af3b 71f5 8cbc
000002b0: 966d 8a3d c688 ca3c 6b20 67bd e1d5 7a3b
000002c0: 5161 9a3d 1984 d1bd adbd eebd 2bef 6a3d
000002d0: 9bdb 43bd 4797 893b ed13 0b3c beb6 803d
000002e0: c08e 23bc e4ff 303d f51d 543d 12b0 61bc
000002f0: e0c5 cebc 64f3 093d 3436 2e3d 2e46 5f3d
00000300: 2b20 7fbd f279 51bd c42e b13d b1f2 fe3b
00000310: 7080 a6bb aef3 d23c ff9a 973d 3686 ce3d
00000320: e283 98bd a100 3d3d ac2f 9d3d 5d57 e33d
00000330: c906 8fbd 82a6 d1bd b27c 193e 5bfa 9ebc
00000340: 3490 0d3d af30 2dbc 777f b03d faa6 eebc
00000350: 5e4a 54bb a8a6 6bbd 7283 2fbd 0528 b93c
00000360: 6b9b 23bd 68a5 963c e44f cf3a c5b3 21be
00000370: f2d2 a1bd e35b 61bb 2aad 743d 6ec3 2bbd
00000380: e779 98bd 3077 16bd b685 ed3d 23f8 3dbc
00000390: 0f57 463c 75bb a5bb c0a0 693d 41f6 9ebd
000003a0: 7769 cc3d 1c4d 92bc b97a 133b 8fb7 8e3d
000003b0: 4d44 763b bdcc 05be 6764 94bd 1fa9 2b3e
000003c0: 4009 773d feee a4bc 854d 0cbe fef0 f6bd
000003d0: 85c3 bd3c 56db 21bc f0e9 efbd f22a 9e3c
000003e0: bcff af3c 3ed0 c8bd 149d a43d 0414 4b3d
000003f0: 2dd0 d9bd f118 35bc 35cb 8d3c 1d60 8f3d
0.037278038 0.051857937 0.04347703 0.06172961 -0.14862317 -0.058883347 0.13717291 -0.03697225
0.063780695 0.13072638 -0.07220629 0.0677903 0.001314977 0.061923698 0.14201477 0.03176122
-0.05807652 0.07862154 -0.02463429 0.045356095 0.06845191 -0.0070525953 0.026348535 -0.11802785
-0.06846704 -0.007867453 -0.017069342 0.017924711 -0.0026402534 -0.022929095 0.038742114 0.031236041
0.012749849 0.07273606 0.076951325 -0.02216933 -0.044138968 0.034003936 -0.030311814 0.0640047
-0.102371365 -0.11036934 -0.058996033 0.07289801 0.1255763 -0.18541767 -0.024257645 0.13106678
-0.021011565 -0.1466569 0.067962974 -0.11989638 0.035588223 -0.017317293 0.10356017 -0.120193556
0.12132578 -0.04290035 0.05290676 0.07297036 -0.079161614 -0.10183463 0.045951594 0.12450382
-0.014100367 0.008938323 0.08398447 0.05923128 0.008282716 0.04547187 -0.043822877 -0.11369006
-0.1586178 -0.04448998 -0.014547848 0.086398885 0.049535792 0.05726176 0.056124315 -0.12992157
0.06374596 -0.15433426 -0.14219135 -0.06234276 0.07919499 -0.035586935 0.095112815 -0.010169967
-0.12186553 0.010537849 0.07355628 -0.14278029 0.10700427 0.02172059 -0.08892256 -0.037936497
-0.033726472 0.032681845 -0.05785343 -0.094712935 -0.064270064 0.06614527 0.032512434 0.008724071
0.021485858 0.072957836 -0.044030838 0.10523452 -0.06261501 0.03494898 0.08099857 0.004361798
-0.079868115 0.04860185 -0.0629522 -0.003779755 0.007272772 0.041260544 -0.030591687 -0.06801353
0.07074396 0.08581005 0.01753717 0.10284371 0.103586756 0.0012526202 -0.021644471 0.070992276
0.17760624 0.034533482 0.034486476 0.051462825 0.0048256344 -0.0030361866 -0.1497308 0.041146785
-0.038587414 -0.059870772 0.013221838 -0.095641315 -0.07220067 -0.0024193218 0.021695908 0.058555055
0.010674145 0.060770128 0.023927795 -0.14695899 0.0679312 0.09177421 0.037449084 -0.110511474
0.089413606 0.05585128 -0.10606414 0.082758375 -0.014675525 0.051615454 0.12452364 0.05016874
0.15702057 -0.024017414 0.049784243 0.01935649 -0.0005065465 -0.003580953 -0.051478285 0.13739944
0.12117798 0.057754256 0.005366949 -0.01720688 0.06759183 0.024723422 -0.0564274 0.0038274454
0.07538093 -0.10230274 -0.116572715 0.057356995 -0.047816854 0.004198942 0.008488637 0.06284855
-0.009982765 0.043212786 0.05178638 -0.013774889 -0.025240839 0.03367938 0.04253216 0.054510288
-0.062286537 -0.051141687 0.08651498 0.007780396 -0.005081229 0.025750961 0.0740261 0.100841925
-0.0744703 0.046143178 0.07675108 0.111006476 -0.06983716 -0.10236837 0.14988974 -0.019406488
0.03456135 -0.010570689 0.08618062 -0.029132355 -0.003239296 -0.057531983 -0.042849965 0.02260209
-0.03994314 0.018389419 0.0015816656 -0.15791233 -0.07901563 -0.0034387044 0.059735455 -0.041934423
-0.07445126 -0.03673476 0.11597769 -0.011594805 0.012105717 -0.005057747 0.05703807 -0.07761813
0.09981053 -0.017859034 0.0022503568 0.06968605 0.0037577332 -0.13066383 -0.07245713 0.16763733
0.060311556 -0.020133492 -0.13701446 -0.12057684 0.02316452 -0.009878954 -0.11714542 0.019307587
0.021484248 -0.09805344 0.08037773 0.049579635 -0.106354095 -0.01105331 0.01730881 0.07000754

weight f4 [60, 100]
00000000: 3d59 e43a f2fa abbb a6f5 833d 49a9 183b
00000010: a1e1 ec3c dd86 a73d 9a77 873d b58b 02bd
00000020: d7c1 babd 6823 d63c 6f5e 68bd 682d efbd
00000030: bf29 8a3d fca7 9abd a6ce c83d 3fe4 dcbd
00000040: 4e54 89bd deb7 0e3d 3827 203b 30b7 13bd
00000050: 4290 e43c 4a75 44bd 556c 04bd b7f8 b6bd
00000060: 4b76 29bd 2438 d2bd 407d c03d 2a73 07bd
00000070: c4c1 fe3c ba70 0dbd 3a7b d6bc 5ac3 823d
00000080: c0dc ae3c 8654 563d c37d 853c 8661 74bd
00000090: c218 673d ac3b b23d d86a 593d 6c98 953d
000000a0: 86e8 2bbd 7ac2 47bd de37 abbd d75c 15bc
000000b0: eb83 0fbc 2d20 3ebd 7a2b f1bc 2d8d 40bd
000000c0: 4ef3 9c3d 72e0 773b 5907 8a3d 90f4 f9ba
000000d0: e94a 163d b8a7 403d a121 e0bd bd32 35bd
000000e0: 2028 a7bd e49a de3d 4a39 653d e3bc 1cbd
000000f0: a42c 91bd 9acd 873d 8e54 ae3c 7bee 21bd
00000100: 05d5 99bd ad01 32bd 1607 bd3c 7b6e abbd
00000110: dbc1 b839 9253 733d 269e 9a3d 6b8d 443c
00000120: 03a5 8d3c cdf9 193d 3395 a53c 868c 863d
00000130: 14e4 133c ad77 5b3d 8565 443d 7568 87bd
00000140: 4f97 93bd 1c6c 5e3d 6d1c 9d3c 0169 34bd
00000150: eb85 8e3c 25ef ecbd 3b25 b2bc 59be 423d
00000160: 66be cc39 ecff 69bd e376 e53c a4bc 873c
00000170: f17a 64bc cd7a c1bd 5980 f1bc 04ae fc3c
00000180: 40c6 53bd d0a3 4e3c 75d1 9abd 8ffe ab3d
00000190: fa36 983d 3c70 f33c ed67 91bb 4b8b dcbc
000001a0: b229 31bd 5eae 34bd 015f 8dbd 09bf 1d3d
000001b0: 48f0 b73d bf1b 9c3d eeb3 bfbd 0bdb aabc
000001c0: 6a13 28bd 94a5 5cbc 8d6c efbd 7621 df3d
000001d0: 91f8 133c ccfe 6a3d b207 cc3d 371e 20be
000001e0: fc28 febd e932 04bd 8065 af3c 6d7b 583c
000001f0: d778 6abd 3fec ce3d 690a 633d f6a5 bcba
00000200: c2da b63c 3ad0 6e3c 4178 e7bb 5841 4cbd
00000210: 3ac5 febc 64a3 dbbd acd8 293d 5e2e cdbd
00000220: 0e70 1d3b fa90 d5bc 3cbb 22be 7a29 abbb
00000230: 6409 ad3d 3420 9fbd 5989 62bd f1d1 d5bd
00000240: 813d 49bd 8f36 f43b 7206 4fbc 2e67 c33d
00000250: 048a f73c eabb ccbd 3f53 cb3c 87b2 f73d
00000260: a82a 26bd b79d 873b 8536 243d 3d3a f93d
00000270: 1596 0b3d e1c2 dfbc da9c d0bd 0107 e93d
00000280: 4407 eabd 0803 c2bd 1d17 643d b027 d0bd
00000290: a282 e8bd 85e0 e3bd 63f0 79bb c065 f1bd
000002a0: 368e a93d 2e16 613d 7714 acbd da1f 50bd
000002b0: 54a4 12bd f432 433d b5d8 1bbd 2309 8ebd
000002c0: 5e92 143d 5be9 8f3c 8040 26bd cf22 4ebd
000002d0: ebea d43d 299f 61bd 90bd c33c 4613 b5bd
000002e0: 9006 d3bd 1761 0bbd 7170 8b3d abb3 b93d
000002f0: bdd4 403d 16ff 2ebd 19f1 993d 30aa 793d
00000300: c7ec 933c 38dd fd3d 97a6 faba be27 3abd
00000310: bd84 02bd 45b8 d4bd 1695 023d b374 fe3c
00000320: 5ebe 463d e18b 02bd 5e2e 053e 2022 b23d
00000330: 075c 4cbd 938f 47bd 1045 a03c 1b44 92bd
00000340: 7d16 233e ba72 393d 436e 853c a1f7 c7ba
00000350: b9a7 57bd e138 76bd 367e 01be e891 df3d
00000360: 0813 e4b8 b7cd a63d 644f 84bd abb6 0cbe
00000370: 2a24 9cbd b785 473c de03 1dbe f0f8 2fbe
00000380: 4a4b dcbc 42a4 9d3d 6b10 75bd 862c a03d
00000390: 6911 013d 6cab 3ebd 51b5 c43b 52d4 77bd
000003a0: cd42 bf3d bc67 22bd 0d39 a03d 02f6 2bbd
000003b0: 200d 6dbd 8548 cabd 5043 3fbd 1dc4 c93d
000003c0: 5bef 7f3d 335d 073d 1f12 40be 8f0a b23c
000003d0: bc24 1a3d 0cb5 cc3b 2d7f 353d a77a a63d
000003e0: c70e 923d 5edc c53c 7ed9 813d e741 36bb
000003f0: e070 d7bc facd 39bd 529d 163c f25e a23d
0.0017421615 -0.005248421 0.06443338 0.0023294261 0.028916182 0.0818002 0.06614609 -0.031871516
-0.09119003 0.02613993 -0.056730684 -0.116785824 0.06746244 -0.07551572 0.0980504 -0.10785722
-0.06705533 0.03484332 0.0024437439 -0.036063373 0.027900819 -0.047963418 -0.032329876 -0.08934157
-0.04137258 -0.10264614 0.093988895 -0.033068813 0.031098254 -0.034531333 -0.026181806 0.063849166
0.021345496 0.0523267 0.01629532 -0.059663318 0.056420095 0.08702788 0.05308041 0.07304463
-0.0419698 -0.04876945 -0.08360265 -0.009116373 -0.008759479 -0.046417404 -0.029439677 -0.047009636
0.07663594 0.0037822989 0.06739683 -0.0019070078 0.036692534 0.04703495 -0.10943914 -0.04423784
-0.0816195 0.10869387 0.05596284 -0.038266074 -0.07088593 0.06631012 0.021280553 -0.039534073
-0.075113334 -0.04345863 0.023074668 -0.08370682 0.00035239648 0.05940587 0.07549696 0.011996607
0.017290598 0.037591744 0.020212745 0.065697715 0.009026546 0.05358093 0.04794838 -0.066117205
-0.07206594 0.05430232 0.019178594 -0.044045452 0.017397841 -0.11569051 -0.021746268 0.04754481
0.0003905177 -0.05712883 0.028010791 0.016569443 -0.013945327 -0.094472505 -0.029480146 0.030844696
-0.051702738 0.012612298 -0.07559482 0.083981626 0.07432361 0.029716603 -0.0044374377 -0.026921889
-0.043252654 -0.044111602 -0.06902886 0.038512263 0.08981377 0.0762248 -0.09360491 -0.020856401
-0.04103414 -0.013467211 -0.11690626 0.10895054 0.009031431 0.0573719 0.09962405 -0.15636526
-0.12410161 -0.032275114 0.021410704 0.013213021 -0.057244148 0.10103654 0.05542985 -0.0014392722
0.022321109 0.014576012 -0.007063896 -0.049867004 -0.031099904 -0.10724524 0.0414664 -0.100186095
0.0024023089 -0.026070107 -0.15891737 -0.0052234503 0.08449057 -0.07769814 -0.055306766 -0.10440434
-0.04913092 0.007452793 -0.012635814 0.09541164 0.030217178 -0.09996779 0.024819968 0.12094598
-0.040568024 0.004138674 0.040091056 0.12169311 0.034078676 -0.027314605 -0.10186167 0.11378289
-0.11427167 -0.094732344 0.055686105 -0.1016382 -0.11353041 -0.11126808 -0.0038137666 -0.117869854
0.08279078 0.054952793 -0.08402341 -0.050811626 -0.035801247 0.047656015 -0.038048465 -0.069353364
0.0362724 0.017567327 -0.040588856 -0.050326165 0.103963695 -0.055083428 0.023894101 -0.08841567
-0.10303986 -0.03402814 0.06808556 0.09067472 0.047077883 -0.042723738 0.07516689 0.06095332
0.01805724 0.1239571 -0.0019123134 -0.045448057 -0.03186487 -0.10386709 0.03188046 0.031061506
0.048521392 -0.03187168 0.13005969 0.08697915 -0.04989245 -0.048720907 0.019564182 -0.07141896
0.15926547 0.045275427 0.016287928 -0.0015256294 -0.052650187 -0.060112838 -0.12645802 0.10916501
-0.00010875432 0.08144706 -0.06460455 -0.13741557 -0.07624085 0.012177876 -0.15333506 -0.17184806
-0.02689137 0.07697345 -0.05983011 0.07820992 0.031510744 -0.0465502 0.00600306 -0.06050522
0.09338913 -0.03964971 0.078233816 -0.04198266 -0.057873845 -0.09877113 -0.046695054 0.09851859
0.062484127 0.033047866 -0.18756913 0.02173355 0.03763269 0.0062471684 0.044310737 0.08128863
0.07131725 0.02415293 0.063403115 -0.0027810277 -0.02629894 -0.04536245 0.0091927815 0.07928266

weight f4 [100, 60]
00000000: 3eb0 c6bc 2891 cb3d dca1 d53d 2b74 653d
00000010: b822 0abe 0c94 02bd ac45 81bd 5ef7 d9bc
00000020: 2a74 3cbd 9954 fabd e1cb 8fbd 56ac 1ebd
00000030: 32ef 74bd d418 323d 5f6b 8e3d 41ef cebd
00000040: 40fb 133e 2ecd ca3d 8a9a a5bd 5943 433d
00000050: c452 b43a d1e8 e43d 90b4 1f3a 11f4 95bd
00000060: 85d1 ae3d 79c4 b8bd 3d0f 953d a934 30be
00000070: 30ea b1bc d884 4cbd 5380 1cbe 9256 34be
00000080: c2bc 48bd 3615 76bd a1ca 42bc 3935 6abd
00000090: 6499 2a3e 7e4b 273d d41a d73d c94a 5a3d
000000a0: d4f5 18be 3f44 5d3c efa3 cabd ce91 923d
000000b0: 2e45 88bc aa8f 3cbd 9d20 293c 98eb cbbd
000000c0: 7eda 09be d067 f6bd b3d3 56bd dcb3 883d
000000d0: 904a e6bd 8d3f 03bd d0cd 183d 1aae 55bd
000000e0: b747 0f3d e805 e03d e50a 77bb 86d9 c6bd
000000f0: a48d 983c 4713 32be bae7 9abd 05ba 263e
00000100: 7f9d f73c 3b5a 2e3e af02 353e 3aaa 7e3a
00000110: e4bd 4d3d 423d b33c 2f01 e3bb 0bd6 85bd
00000120: 4be2 32be 6255 e1bd 43cb 383d 36b1 1c3e
00000130: 2a57 8cbc 7675 39bd 9992 bb3c dd78 413d
00000140: b26d d83d cf05 08be 116d a63d 6cb9 8abc
00000150: 3722 82bc 8bae cbbd db86 2fbe a5e1 983d
00000160: 7cec 55bd 5691 ee3d a023 12bd 2bf3 113e
00000170: 0697 b73d 4ed6 0b3d f295 053e ae68 75bd
00000180: 52d9 c13c f27e c5bd 866e dcbd e7d4 d6bb
00000190: 93b7 c93c 577d 013e d1dd 32bc db4a 143e
000001a0: 41c5 02bc 2f47 50bd 6ff1 7fbd 57e2 003d
000001b0: 614e 36bd c805 843d edea 143e 7c44 563d
000001c0: 05ab 573d 2bc6 c03d e545 12bd 260e 95bb
000001d0: 7323 5cbc 2642 1fbe ce8d 47bd beb8 0d3c
000001e0: 6d46 cfbd bc9d d9bb 4484 e23d c276 c4bd
000001f0: 2a40 12be 702e e9bd 2664 cebb 403c a93c
00000200: 3699 04be 03ef 5dbe 97b3 ed3c f172 273e
00000210: 1714 c93d e335 053e 8a06 4dbb eb07 b5bc
00000220: e856 f53d 8d7a 963a 7abc 8fba 37a4 c33c
00000230: a654 383c 6f0f e1bd b02c 49bd ab62 b7bd
00000240: 7a89 81bd 8f02 293e 1398 55bc 685d 7ebd
00000250: 4930 843c f5c1 b1bc 8deb 6dbd dfdb 33be
00000260: f14a a0bd 4c7e 99bc 7366 43be c9d4 00be
00000270: efd0 523e f715 753d 16ea 103d 369a aabd
00000280: f4f3 3e3d 3b18 debc f875 4bbd a22e d83c
00000290: 3339 1a3e 1842 8c3d dea7 cf3d 31ef 1fbe
000002a0: ee22 f6bc 3249 d53d 6cd7 2fbe f733 c3bd
000002b0: 21da fd3c d047 b73c efe3 733d b16a 133d
000002c0: f71e d83d a2e8 db3d 0937 36be e983 25be
000002d0: 3964 083e 9f3f 4abd 99a6 a3bb 8582 123d
000002e0: 2e78 523d 3ca1 6bbd 7852 a5bd 07d5 95bd
000002f0: 443e 4e3d d9c1 4c3c 0b19 8cbd 8c07 c7bd
00000300: 28ac 673d 7d3a e13b 25e9 c6bd 850a 48bc
00000310: f40c 2ebd 2860 58bc 18a0 273d 5fb1 e43c
00000320: 0219 a3bd 6ac4 aa3c 5b68 8e3d 14d5 59bc
00000330: 0706 c83d d0eb 033e 5f66 003d 0157 e23d
00000340: 8d37 4d3d 5cae debd 665e cf3d 00f7 5fbd
00000350: 72ca 01be 6399 2fbe 4bd1 f43c 1d4e f13d
00000360: 5673 76bd d7e8 783b 840d 1c3d 8b93 9d3d
00000370: 5bf4 803d d0ed dd3d a15e a6bd df7a 34bd
00000380: 43fb 33be befb a1bd 7124 9dbd 36fe fe3d
00000390: 25e9 443d 74c2 4fbd abb9 fa3d ff10 81bd
000003a0: 62a6 723c b8a2 d43d 7b3f c8bd 0047 923d
000003b0: 0bcc bb3d c2d7 e2bc 6ad7 773d a412 0dbe
000003c0: 839f 0fbd ae39 c7bd 6c3e f5bd b61f 9cbc
000003d0: dc19 20be 0bfa 9abc 92e0 a13d 8521 eabd
000003e0: 89c6 d9bc b577 c43c 037f 4bbd 6577 3bbc
000003f0: ed22 f8bd f4e0 123d 22fa a03d 7fb4 ef3c
-0.02425396 0.09939796 0.10431263 0.05601899 -0.13489807 -0.03187947 -0.06312117 -0.026607212
-0.04600922 -0.12223167 -0.07021309 -0.03873857 -0.059798427 0.04348071 0.06954073 -0.10104228
0.14451313 0.09902416 -0.080861166 0.04767165 0.0013757576 0.11177219 0.00060922746 -0.073219426
0.085360564 -0.09021849 0.07278297 -0.17207588 -0.021718115 -0.049931377 -0.15283327 -0.17611149
-0.04900814 -0.060078822 -0.011889131 -0.057179663 0.16660076 0.04084348 0.10503164 0.053293977
-0.14937526 0.013505041 -0.09894549 0.07156716 -0.01663455 -0.046035446 0.010322717 -0.09957045
-0.13462254 -0.120315194 -0.052447986 0.066749305 -0.112446904 -0.03204303 0.037305653 -0.05216799
0.034980502 0.109386265 -0.0037695703 -0.09709458 0.018622227 -0.17390166 -0.075637296 0.16281898
0.030226467 0.17026608 0.17676805 0.0009714697 0.050229922 0.021879796 -0.0069276313 -0.06534966
-0.17469136 -0.110026136 0.04511572 0.15301976 -0.017131407 -0.045278035 0.022897052 0.047234405
0.10567798 -0.13283466 0.081262715 -0.01693412 -0.015885456 -0.09945401 -0.17141287 0.07464913
-0.052227482 0.116488144 -0.035678506 0.14252917 0.08964352 0.034139924 0.13045481 -0.059914283
0.023663197 -0.096433535 -0.10763268 -0.0065561417 0.024623668 0.1264547 -0.010917143 0.1448168
-0.007981599 -0.050849136 -0.06248611 0.031465854 -0.04450834 0.06446415 0.14542742 0.052311406
0.05265333 0.094127975 -0.035711188 -0.0045488058 -0.013436186 -0.15552577 -0.04871922 0.008650003
-0.101208545 -0.006641118 0.11060384 -0.09592964 -0.14282289 -0.113858104 -0.0062985597 0.020658612
-0.1294907 -0.21673207 0.0290163 0.1635244 0.09818285 0.13008837 -0.0031284415 -0.022098502
0.11979467 0.0011480615 -0.0010966205 0.023882015 0.0112506505 -0.10989272 -0.049114883 -0.08954366
-0.0632505 0.16504882 -0.013036746 -0.062100798 0.016136305 -0.021698931 -0.058085967 -0.17564343
-0.07826794 -0.01873698 -0.1908205 -0.12581171 0.20587514 0.0598354 0.03537949 -0.08330195
0.04661937 -0.027111163 -0.04967305 0.026389424 0.15060882 0.06848544 0.1013944 -0.15618588
-0.030045953 0.104143515 -0.1717202 -0.09531396 0.030987801 0.02237311 0.059543546 0.03599042
0.10552781 0.107377306 -0.17794432 -0.16163601 0.13319482 -0.04937708 -0.004994225 0.035769004
0.051384144 -0.057526812 -0.0807237 -0.07316022 0.05035235 0.012497389 -0.06840714 -0.09718236
0.056560665 0.0068734274 -0.097124375 -0.012209539 -0.04249282 -0.013206519 0.04092416 0.027916608
-0.07963754 0.02084561 0.06953498 -0.013295431 0.097667746 0.12882924 0.03134763 0.11051751
0.050101805 -0.108731 0.10125427 -0.054678917 -0.12674883 -0.17148356 0.029884955 0.11782477
-0.060168587 0.003798058 0.038098827 0.07694157 0.06296607 0.10836375 -0.08123518 -0.04406249
-0.17576317 -0.07909344 -0.07672966 0.12450831 0.048073906 -0.050722554 0.122424446 -0.0630207
0.014810177 0.10382599 -0.09777733 0.071424484 0.091697775 -0.027690772 0.06050817 -0.13776642
-0.03506423 -0.097277984 -0.11974797 -0.01905809 -0.15634865 -0.018918058 0.079041615 -0.114321746
-0.026583927 0.023982862 -0.049681675 -0.01144204 -0.121160366 0.035859063 0.07860209 0.029260872

weight f4 [100]
00000000: e766 873f edce 783f 788e 8a3f dbd3 803f
00000010: f7e8 833f 5d95 7c3f 0b00 813f 46c6 7b3f
00000020: fa09 7a3f c707 713f 2689 7e3f 6621 833f
00000030: 3dba 733f 4cb4 803f 4a2e 793f f14c 7c3f
00000040: 95e3 793f 321d 7a3f 0c5b 803f 2c3b 7b3f
00000050: dd45 803f bc3a 853f 7644 893f 6b41 853f
00000060: 6395 7a3f e940 773f a5d8 863f 6a39 843f
00000070: 3c51 843f 97a9 833f 2aaf 813f 4974 703f
00000080: 23cb 733f f778 843f 5f6b 7f3f c3f3 7c3f
00000090: 7708 803f ce8c 813f 4475 7e3f afaa 893f
000000a0: bc09 843f b9f1 833f d1ef 7b3f 637c 883f
000000b0: 55a5 6a3f b0fa 813f 43da 803f 0ff3 873f
000000c0: 3dd3 7c3f 2c07 823f 2792 7f3f 030a 8b3f
000000d0: 4145 7e3f 8ef6 873f f6a0 833f 3930 7b3f
000000e0: 23aa 7a3f 0ee3 773f cd1b 823f c409 803f
000000f0: 75ad 8a3f 2baf 823f ec1e 833f 4249 873f
00000100: 0c84 873f 22d9 7a3f 7dad 823f 8337 863f
00000110: d9a4 813f 438f 783f bc1b 7d3f d3cf 7a3f
00000120: 6ee6 773f d03b 7d3f fc3d 813f c3fb 7a3f
00000130: 679d 7c3f 7d8e 813f 79cc 843f 047b 743f
00000140: f67b 833f dcef 803f 9df2 803f 4673 853f
00000150: 7157 843f b370 813f 1010 803f 9e0b 803f
00000160: de00 813f 2606 8a3f 0657 7b3f f5ac 7f3f
00000170: 2e54 753f 5a83 8e3f e199 8b3f 7dd2 833f
00000180: 1c3a 7a3f 340e 813f 8603 7f3f d230 7a3f
1.0578278 0.97190744 1.0824728 1.0064653 1.030547 0.9866541 1.0078138 0.98349416
0.97671473 0.9415249 0.9942802 1.0244567 0.9520605 1.0055022 0.97336257 0.98554903
0.9761289 0.977008 1.0027785 0.98137164 1.002132 1.0408549 1.0724018 1.0410589
0.97884196 0.9658342 1.0534865 1.0330021 1.0337291 1.028613 1.0131581 0.9392744
0.9523184 1.0349416 0.9977321 0.9880945 1.0002583 1.0121095 0.99397683 1.0755213
1.0315471 1.0308143 0.98412806 1.066296 0.91658527 1.0154629 1.0066608 1.0621051
0.98759824 1.0158439 0.99832386 1.086243 0.99324423 1.0622118 1.0283496 0.98120457
0.9791586 0.9683083 1.0164734 1.000298 1.0834185 1.0209707 1.0243812 1.0569232
1.0587173 0.9798757 1.0209194 1.0485691 1.0128433 0.970936 0.98870444 0.97973365
0.9683598 0.9891939 1.0097041 0.9804041 0.98677677 1.0121609 1.03749 0.95500207
1.0272205 1.0073199 1.007404 1.0425804 1.0339185 1.0112518 1.0004902 1.0003545
1.007839 1.0783126 0.9817966 0.99873286 0.95831573 1.1133835 1.0906335 1.0298611
0.9774492 1.008246 0.9961475 0.97730744

bias f4 [100]
00000000: a686 43bd 9e2b a03a d568 1f39 c811 14bd
00000010: cd94 3b3d 7aec 933b e06b 8ebd 6bff 893c
00000020: 01e2 8b3b ca84 f13c 6199 a23c c245 d6bc
00000030: cbc2 063d 48e8 ac3c 3c3d 23bd 7f97 dbbb
00000040: 2297 893c bb1f 833d d184 8d3d b9f0 b2bd
00000050: 3a25 babd a604 b9bc 9380 923d 1dae 99bd
00000060: 4b13 b5bc c25c 043d ca5b deba 0515 84bd
00000070: c2ef 5bbd e297 b53d 9743 4abd 5b3a 3f3d
00000080: 8810 613d da43 85bd 8bea 153d 8932 d1bb
00000090: ded6 41bd ebec 9f3c 2a6d 0dbd 3e92 413c
000000a0: c655 0dbe 2f24 b2bc 081c a23d 6183 96bd
000000b0: f259 8fbd ec77 ecbc 9427 66bc e332 653d
000000c0: d11a a03d 3200 3b3d bbbf 443c dea7 fc3a
000000d0: 1222 523d 87d4 bf3d 9831 f4bb 141f d03c
000000e0: b53d 39bd ff78 573d 5419 e23c 13d4 243d
000000f0: 402a 173d 2b30 913d f222 17bd 6763 6f3d
00000100: 56b8 1dbb 3f47 fd3c b7fd 6cbc 7aff bdbc
00000110: eaa3 b43d 2d0a 943c 22ed 753d 3d18 563d
00000120: c5a2 2f3c 1f85 023d 558e 98bc deb8 42bc
00000130: 2a9b 4e3c cd61 223c 7893 a1bd 32f6 833c
00000140: e6f6 c8bd 7ea0 883d c73f 093c 97f7 75bc
00000150: 41e6 c6bc 8156 c03d 68b0 35bd acc2 043d
00000160: 05a3 c0bc 64d4 25bd 0173 443d 35ed 4c3d
00000170: c900 343c d243 f0bb aa30 38bb 824b 243d
00000180: 39b3 01bd 423c 6d3b 4623 e6bc 6bad 9c3d
-0.047735833 0.001222003 0.00015202475 -0.03614977 0.045796204 0.004514274 -0.06954169 0.016845426
0.004268885 0.029482264 0.019848527 -0.02615631 0.032900613 0.021106854 -0.03985332 -0.0067014094
0.016795699 0.064025365 0.06910098 -0.087373205 -0.09089132 -0.022585224 0.0715343 -0.075039126
-0.022103926 0.032315023 -0.0016964611 -0.06449322 -0.053695448 0.0886686 -0.049380865 0.04668651
0.054947406 -0.06507082 0.03660063 -0.006384198 -0.047324054 0.019522151 -0.034527935 0.011814652
-0.13802251 -0.02174577 0.07915503 -0.07349277 -0.069995776 -0.028865777 -0.014047522 0.055956732
0.07817615 0.045654483 0.012008603 0.0019276103 0.051302023 0.09366708 -0.007452201 0.025405444
-0.045224864 0.052605625 0.027599968 0.040241312 0.036905527 0.070892654 -0.03689856 0.058444407
-0.0024066172 0.030917762 -0.014464787 -0.02319311 0.088203266 0.018071258 0.0600406 0.05226921
0.01071996 0.031865235 -0.018622557 -0.011884896 0.012610236 0.009911013 -0.078894556 0.016108606
-0.09812717 0.066712365 0.008377022 -0.015012643 -0.024279715 0.09391499 -0.044357687 0.032412216
-0.023515234 -0.040485755 0.04796124 0.050030906 0.010986515 -0.0073323036 -0.0028105178 0.040111072
-0.03166506 0.0036199247 -0.028092992 0.07650264

running_mean f4 [100]
00000000: b5af 73bf 6184 2bbe 43ec 403e d751 f53e
00000010: 074d 063f 2036 babf e068 813f 5e3d c8bf
00000020: 5bdb d83f e642 c73f 970d a1bf facd 28be
00000030: 57c1 92bc b68d c0bf a0dc eebf e776 f43f
00000040: 586b f0bd 54da 9c3d 6513 4abe 48d9 c13e
00000050: 96eb bbbf 5f95 903e 40a8 323e 2ae0 fcbe
00000060: 75bc a9bf a4b4 fb3f a981 24bf a739 2cbe
00000070: 46eb 8cbf cdc7 a73e 1907 abbf 2a06 d1bf
00000080: f0e8 b7be d94c 2fbf 8bf3 0940 f2e2 0f40
00000090: 5786 82bf 1408 82be d782 2cc0 24b1 003f
000000a0: c7fa 383f a9e0 f6bf 9143 a73d cfaa 92be
000000b0: 7c9e 8fbf 64d8 ccbf 19f3 c53f 8f59 91be
000000c0: ae45 d33f 8787 453e 7038 db3f 8bd5 45bf
000000d0: 0611 903e c7f2 0bbe bedc c03f 3eb1 7f3f
000000e0: c643 463f c1f0 babe 7ce4 5bbf d89c 873e
000000f0: b34b 3d3e 336b 783f d729 833f 30e7 a13e
00000100: 71e0 503f cb81 7dbe fa67 b0be 3000 583e
00000110: ebd4 4ebe 5f43 e53f 422b 683d 2ae7 1c3e
00000120: 488f a3bf 8244 98bf 9272 16c0 1509 0ebf
00000130: 3810 0c3e 34e7 6b3e e8b8 663f 62b0 5abf
00000140: 7578 0d3f 1dd0 0440 6f2d 52bf b3cc 94bf
00000150: cf94 80bf 57f8 883f d2bb 76bf dfed bf3f
00000160: 07ef 49bf 23e7 043f 6291 523f be70 d5be
00000170: d632 8fbf 11be 28bf a0e7 4a3f 394e 933f
00000180: 90c9 52bf bc6b c1bf 36db 3ac0 cf16 00bf
-0.9518998 -0.16749717 0.18840127 0.47914 0.52461284 -1.4547768 1.011013 -1.5643728
1.6941942 1.5567291 -1.2582272 -0.16484824 -0.017914457 -1.5043247 -1.866108 1.9098786
-0.11739224 0.0765883 -0.19733961 0.37861085 -1.468127 0.2823896 0.17446995 -0.49389774
-1.3260638 1.9664502 -0.64260346 -0.16818868 -1.10093 0.32769623 -1.3361541 -1.6330006
-0.35919905 -0.68476635 2.1554897 2.2482266 -1.0197247 -0.25396788 -2.6954858 0.50270295
0.72257656 -1.9287311 0.08167184 -0.28645942 -1.122024 -1.6003537 1.5464813 -0.2838864
1.650564 0.19289981 1.7126598 -0.77278966 0.28137988 -0.13666831 1.5067365 0.99879825
0.77447164 -0.36511806 -0.85895514 0.2648685 0.18485908 0.97038573 1.0247144 0.31621695
0.8159247 -0.24756543 -0.34454328 0.21093822 -0.2019841 1.7911185 0.05668188 0.15322557
-1.2778101 -1.1895907 -2.3507428 -0.5548261 0.13678062 0.23037416 0.90125895 -0.8542539
0.5526193 2.0752022 -0.82100576 -1.1624969 -1.0045413 1.0700787 -0.9638034 1.4994467
-0.7888035 0.51915187 0.82253087 -0.41687578 -1.1187389 -0.6591502 0.7925968 1.1508247
-0.8233881 -1.5111003 -2.9196296 -0.50034803

running_var f4 [100]
00000000: 0bdf 7340 60fe a740 b405 2340 02ce 8140
00000010: cebf f040 da48 3d41 42d5 4e40 51a3 ac40
00000020: 9ba1 c540 ceea 5641 e43a 3640 66c4 ab40
00000030: 3519 6640 37f7 f440 d4dc 8640 7247 1041
00000040: f411 2f41 fbd0 9f40 68db cb40 3538 e040
00000050: 0def 0641 2c76 d53f 90df 6640 b4b9 fd40
00000060: 0cef df40 d56a 1b41 5cc3 8340 8176 5640
00000070: 74e1 6140 b994 8440 0782 a940 0d54 e640
00000080: 1b4e b440 d543 6040 2d06 1741 c7c8 0a41
00000090: c599 a840 201a 973f 26e5 a840 3406 a83f
000000a0: b831 f940 280c 7040 a7e9 9d3f 318e cb3f
000000b0: 02f7 2a40 85a7 2440 5854 9240 fb6a 0140
000000c0: b959 5d41 ac24 fd40 a567 4740 62fa 0240
000000d0: 9b7f 8b40 54fd 1940 663e 9440 5e57 0141
000000e0: d6c7 5b40 8919 8a40 061a 0a41 0027 aa40
000000f0: e8ac 8c3f 959d b140 9729 8d40 697e 2640
00000100: a7f9 2340 16ea 4a41 1c34 1a40 e38f 7e40
00000110: d970 1941 f914 8740 78ef eb40 c24a de40
00000120: 02fd 2740 9350 b940 3a57 4b41 8327 3541
00000130: bf90 3d40 b622 3a40 f679 fb40 6871 4640
00000140: 1153 9a40 ae74 e240 60e4 3840 6c37 0140
00000150: f665 c740 dfc3 d640 b5d3 6540 af78 1a41
00000160: de5c 7940 a773 b83f 7a12 2a41 cafd 6640
00000170: 77f3 4840 5440 2040 5534 9840 5d30 db40
00000180: e876 a240 7178 ee40 ae6f 8340 bef1 1941
3.8104885 5.2498016 2.547223 4.0563974 7.5234137 11.830286 3.2317662 5.394936
6.175977 13.432325 2.8473444 5.3677244 3.5952885 7.6551776 4.2144566 9.017443
10.941883 4.9942603 6.370533 7.006861 8.433362 1.6676688 3.6073952 7.928919
6.9979305 9.713582 4.1175976 3.350983 3.5293856 4.1431546 5.2971225 7.19776
5.6345344 3.5041401 9.439008 8.674018 5.2687707 1.1804848 5.277972 1.3126893
7.787319 3.750742 1.233693 1.5902768 2.6713262 2.5727246 4.572796 2.0221546
13.834405 7.9107265 3.115701 2.0465322 4.359327 2.406087 4.632617 8.08383
3.434072 4.315617 8.631353 5.3172607 1.0990267 5.550486 4.411327 2.6014655
2.5621126 12.68215 2.4094305 3.9775321 9.590051 4.22131 7.372982 6.9466257
2.6248174 5.7910857 12.708796 11.322146 2.9619596 2.9083686 7.858638 3.1006718
4.82264 7.076743 2.888939 2.0190077 6.2311964 6.71141 3.5910466 9.654464
3.8962932 1.4410294 10.629511 3.60924 3.13986 2.5039263 4.756388 6.8496537
5.077015 7.4522023 4.107383 9.621519

weight f4 [256, 100]
00000000: b3a7 3ebe b1d5 703d e2d0 99bd 51e2 753b
00000010: e6e1 013e 2fed a4bc 98b0 5dbd 4f70 f83d
00000020: cf4a f5bb 9ed4 233d e1cb 83ba b0aa f13c
00000030: a554 5d3b f7d7 c33d b9e5 8ebd 6dba b43d
00000040: d1b8 81bc a60f 623d 434e 79bc 7f7e 5c3d
00000050: 65d2 8f3d 0f48 2b3c 1d2d abbd 6f85 063d
00000060: ccef c3bd 1f33 fdbc d6aa 073e 8619 db3c
00000070: ea41 1ebd c922 4c3e 8b5f c6bc 8208 d23d
00000080: 4845 c83b 1ba8 3b3d a9aa a83d da7d 42bb
00000090: eb16 b6bd 05a1 313e 69a5 e3bd e0b6 75bd
000000a0: 6e73 9fbd 39cb b13d 3bc7 d43b a21e 2d3d
000000b0: f03b 2d3d fd56 ca3d afec e43d 444c 40bd
000000c0: e0d2 cb3d bd5a 183e 8970 643d e42c a9bd
000000d0: 0f91 2e3e ac60 3d3d d272 483d 6b84 2abc
000000e0: 5e62 ad3d 5392 b33c b30b 293e 7396 72bd
000000f0: ffed d93d c6f4 1a3e 4988 83bc f7c1 0bbe
00000100: 96b4 983d 6318 e53d 758f d03c b834 693e
00000110: d4b3 1c3e dcdb 8cbd d541 c83d 32e8 72bb
00000120: a20b 61bc b162 13b9 ca3e cebd 2c05 413d
00000130: 0ab7 c1bd e120 663d 7591 67bd 1f51 8d3d
00000140: c4bb cebc 3c9c 663c c8b4 f3bc 87a4 943d
00000150: 83f4 bf3d 14c0 cdbd 9128 bebc 59a5 21bd
00000160: 3f00 03bd 9db8 883c f86f 63bd f491 0e3e
00000170: 7944 863d 1bcf f1bd 6eae f13d 077c cb3d
00000180: c68f 87bc a284 f53d f601 a3bc 26e7 ca3d
00000190: fbbc 9d3b e1b1 a5bd db3b 20bd 6eda 9b3c
000001a0: 201f 74bd ef55 8e3d 51ed 3b3d 4617 f5bd
000001b0: 5862 debc b396 493d 0c6b c7bd bef5 13bd
000001c0: 4418 cbbc 7042 823d 7369 393d 496f 003c
000001d0: cdbb 8e3d 0bab b33b ac27 8f3c 7f82 73bd
000001e0: a7af 18be 866a 5dbd 1142 19bd d009 00be
000001f0: 822b cfbd 7a77 0f3c 2693 06be 6e63 b53c
00000200: 48aa 08be f6ab a1bd 594c 93bd 0ac2 753c
00000210: 3587 103d 9f87 53bd 570d b9bb afd9 5f3d
00000220: 406b a43c ce5e a9bd c119 a0bd a641 afbd
00000230: c015 4fbc a208 d7bd 24ae a2bd 0c4f c33d
00000240: bed1 debc 63c8 26be a53e ce3d 999f 27bd
00000250: 122e aa3d 09be 6438 9ebd 203e d496 d03b
00000260: 8dfc cb3d 6a87 dabc 5f0b 0c3d 79f8 e23d
00000270: baf0 923d 9dd1 5fbd 6acb 973d 5f0c 893d
00000280: ca3e 433c 147d a9bc 5797 11bd 5dbb bf3d
00000290: ec1e 1abd 519d 083d a02c ccbc 6662 92bd
000002a0: 624c a6bd 4452 adbc ec6a 1a3c 0e13 afbd
000002b0: a7eb a33c e95a 02bc 869f bbbb d15f 853b
000002c0: 9b50 8e3d 634d bdbd 4a92 843a 5496 f7bd
000002d0: a19e dc3b b802 c93b c4d4 cfbb bb72 d0bd
000002e0: dc03 103d 5191 fb3d 337d 11be 4850 6a3d
000002f0: f14c 9bbd c585 e1bb 0b3c ee3d 146e 66bd
00000300: b555 9f3d a6d5 3a3c 627f 943d 5df1 f23d
00000310: 15e7 c2bc 10ae 24be 2ae4 e7bb f03a 233c
00000320: 6dd0 293d 5ec9 18be 209e fcbc 066e 863d
00000330: 0a22 ae3c 565e debb defb 8cbd a054 03bd
00000340: 30f5 88bd d948 09bd 6918 193d d69d fa3c
00000350: 9e4b 32bd 412a 83bc 1805 65bd 2977 f73c
00000360: 3a13 c6bd 522c 903d 52b7 8f3d 3f16 8a3d
00000370: e738 a13d f5a7 993c 7b65 52bd d566 763c
00000380: 949e 90bd 949f a63d 281a 9e3c d088 15bd
00000390: 53d3 32be de95 593d 4627 89bd 62df 07bc
000003a0: a274 623d 4ab7 0cbd e1fc 4b3d 3f2c 103c
000003b0: 0f79 353c b035 f4bc 1123 813d 1b88 2cbd
000003c0: 4470 8abd a40b 9cbd 647b 17be 7277 b8bc
000003d0: 7c13 48bd bdb4 88bd 1c5b bf3d 8fca 433c
000003e0: 73de ef3d df48 eb3d c70a 8e3d e431 543d
000003f0: 857d f1bd c63d 2b3c b1d4 0a3e b6fb d9bc
-0.1861866 0.058797542 -0.07510544 0.0037518928 0.1268383 -0.02013263 -0.05412349 0.12130796
-0.0074857245 0.03999769 -0.0010055267 0.029500335 0.0033772376 0.095626764 -0.0697741 0.088246204
-0.015835198 0.055190705 -0.015216413 0.053831574 0.070225514 0.010454192 -0.08358214 0.032842096
-0.09567222 -0.030908165 0.13248762 0.026745569 -0.03863708 0.19935144 -0.02421548 0.10255529
0.0061117746 0.045814615 0.08235676 -0.0029677064 -0.0889109 0.1734658 -0.11115534 -0.059988856
-0.07785688 0.0868134 0.0064934767 0.04226554 0.04229349 0.09879873 0.11177956 -0.046947733
0.099523306 0.14878364 0.055771384 -0.08260515 0.17047523 0.04623477 0.048937626 -0.0104075475
0.08466028 0.021920359 0.16508369 -0.05922551 0.10641097 0.15132436 -0.016056197 -0.1364821
0.07456319 0.11186292 0.02545903 0.22774017 0.15302974 -0.06877872 0.097781815 -0.0037064669
-0.013735684 -0.00014055778 -0.1007057 0.047124073 -0.0945874 0.0561837 -0.056535203 0.06900238
-0.025236018 0.014075335 -0.02974929 0.072579436 0.09372809 -0.100464016 -0.023212703 -0.03946433
-0.031982657 0.016689593 -0.055526704 0.13922864 0.06556029 -0.1180708 0.11800848 0.09935766
-0.016548049 0.11988188 -0.019898396 0.09907369 0.004813788 -0.08090568 -0.039119583 0.019025054
-0.059599996 0.06949984 0.04588062 -0.1196733 -0.027146503 0.049215984 -0.097372144 -0.03612303
-0.024791844 0.06360328 0.04526658 0.007839032 0.06969414 0.0054830364 0.017474972 -0.059450623
-0.14910756 -0.054056667 -0.03741652 -0.12503743 -0.1011572 0.008756513 -0.1314207 0.022142138
-0.13346207 -0.07894127 -0.071922965 0.014999876 0.035285193 -0.05164301 -0.005647342 0.05465096
0.020070672 -0.08270036 -0.07817412 -0.08557443 -0.012639463 -0.104996935 -0.07943371 0.09536561
-0.027199622 -0.16287379 0.10070542 -0.04092369 0.083095685 5.453642e-05 0.15697333 0.0063656364
0.099602796 -0.026675899 0.03419053 0.11082549 0.07174821 -0.054643262 0.07411845 0.06691813
0.011916826 -0.020689525 -0.03554472 0.093619086 -0.037627146 0.033353154 -0.024923623 -0.07147674
-0.081200376 -0.021157391 0.009424906 -0.08548556 0.020009829 -0.007956245 -0.005725804 0.00407026
0.06948968 -0.09243276 0.0010114398 -0.1208922 0.006732777 0.0061343573 -0.0063425023 -0.10178133
0.03515993 0.12283576 -0.14207916 0.05720547 -0.07583035 -0.0068824016 0.11632546 -0.056257322
0.07780019 0.011403477 0.07250859 0.11862443 -0.02379183 -0.16082025 -0.00707676 0.009962782
0.041458536 -0.14920565 -0.030837119 0.06563954 0.021256465 -0.006786148 -0.06883977 -0.032063127
-0.06687391 -0.03351674 0.037376795 0.03059284 -0.043529145 -0.01601136 -0.05591306 0.030208187
-0.09671636 0.070397034 0.070173874 0.06742524 0.078721814 0.018756846 -0.05136631 0.0150391655
-0.070614964 0.08135906 0.019299582 -0.036507428 -0.17463426 0.05312144 -0.06696944 -0.008293005
0.05528701 -0.034354486 0.04980171 0.008799612 0.011076226 -0.029810756 0.063055165 -0.042121988
-0.06759694 -0.07619408 -0.14793164 -0.022517893 -0.048846707 -0.06675098 0.093435496 0.011950149
0.11712351 0.114885084 0.06935649 0.051805392 -0.11791519 0.01045174 0.13557698 -0.026609283
