transformer_results_random_no_constants_no_param_tune/performance_prediction/PSO1-PSO2-PSO3-PSO4-PSO5-PSO6-PSO7-PSO8-PSO9-PSO10-PSO11-PSO12_random_no_constants_dim_3_samples_50_fold_7_budget_30_n_heads_2_n_layers_1_d_model_100_d_k_30_d_v_30_aggregations_mean/trained_model_dict.pt (torch, 338811 bytes, 22 tensors)

W_P.weight f4 [100, 4]
0.12590308 0.30666423 -0.13403328 0.7131851 0.022599664 -0.28036144 0.050882958 0.16519713
0.20411673 0.03121463 0.17041937 0.5301939 -0.31229046 0.00803127 -0.26634094 0.3962481
-0.14947791 0.19429211 0.10809019 0.21149457 0.017958043 -0.16397 0.34318882 -0.3176641
-0.41575798 0.40921667 -0.19671308 0.2373537 -0.4889122 0.084509104 -0.3354014 -0.46951026
-0.38851747 -0.1499298 -0.2570572 0.22122537 -0.21964638 0.009103281 -0.09683611 -0.13326587
-0.097191 0.37168464 0.005692934 -0.5897267 0.3894434 -0.38609722 0.1894902 -0.4196542
-0.4309366 0.11833074 0.31310055 0.48225743 -0.21935663 -0.42278352 0.25225526 -0.48590207
-0.14081874 -0.004126699 -0.20139281 -0.5855141 -0.45579925 -0.18054229 0.17563292 -0.33282903
-0.14159687 0.26971754 -0.39939252 -0.47280872 -0.48115215 -0.3795006 0.34060755 -0.55544937
-0.09742747 -0.23996678 0.36706772 -0.3734431 0.2667571 -0.027276566 0.13436529 -0.6013694
-0.23418517 0.34349403 0.15411852 0.4745974 -0.43923923 -0.20020835 -0.28437823 -0.60165113
0.45757395 -0.13260561 -0.3035373 0.49482393 -0.30583492 -0.35240906 -0.05672149 0.5085266
0.38231242 0.4590871 0.06717363 -0.42921698 0.39351985 -0.23859876 -0.27260318 -0.47481418
-0.25169852 -0.0101720495 0.27385634 0.1045207 0.427594 -0.0934043 0.08363866 -0.058968853
0.39988944 -0.123976685 -0.138661 -0.53256243 0.04381327 0.14201501 -0.22244786 -0.5835291
0.19846553 -0.036591146 0.11106929 -0.4905906 0.094535515 0.34012374 -0.42562035 0.45281395
-0.19651985 -0.3180188 0.32048354 0.47988492 0.03832126 0.21431617 0.25026473 -0.096353024
0.18555018 0.33859295 0.20705265 0.39571267 0.1393189 -0.033309497 -0.15237859 0.25153613
0.021664917 -0.012163277 -0.20503108 -0.38266632 0.17857698 -0.3201729 0.20578219 -0.20030712
-0.14934199 0.07723676 -0.1146364 0.53747255 -0.10494998 0.3855436 -0.25798553 0.40944684
0.4366269 0.004564422 0.10440578 0.5866434 0.34392443 -0.04385277 0.11299524 0.10111128
-0.39454165 -0.16652657 -0.20705928 0.097061194 -0.4387222 0.21784091 0.21919732 0.2953355
-0.034305464 0.116536155 0.034508903 -0.20302184 -0.11423762 0.06578856 -0.31923863 0.27936253
-0.17449209 -0.32232982 -0.08517614 0.110412516 0.084031224 -0.4432414 -0.28217873 0.4743938
-0.35368598 -0.38221407 0.19113016 0.70864797 -0.3187782 -0.2938041 0.28461528 -0.23612383
-0.08292789 -0.05224142 -0.19031535 -0.32935578 0.46793327 -0.3125886 -0.11468838 -0.224405
0.33807126 -0.4764704 0.32450566 0.31915146 -0.31291786 0.3532356 0.3773434 0.68443686
0.32333428 -0.23407228 0.14777417 -0.74964553 -0.11323145 -0.4624374 0.007298489 0.55084324
0.43770328 -0.2844851 -0.27091235 0.5852566 -0.40028512 -0.36417764 -0.35843173 0.055928588
-0.033426993 -0.2966969 0.42327467 -0.252468 -0.36613536 -0.06448166 -0.18306217 0.7474601
-0.3454609 0.06514068 0.06379198 0.6300001 -0.10579487 0.12901992 -0.06633397 -0.08478124
-0.26195943 0.06614957 -0.05279466 0.73790544 0.28791022 -0.15699235 -0.052745603 0.6100132
00000000: bdec 003e 1803 9d3e 0540 09be 4c93 363f
00000010: ee22 b93c 898b 8fbe a66a 503d 7029 293e
00000020: fa03 513e d3b5 ff3c 6a82 2e3e caba 073f
00000030: 89e4 9fbe 9695 033c d75d 88be 08e1 ca3e
00000040: bd10 19be 83f4 463e 645e dd3d 0892 583e
00000050: bf1c 933c c0e7 27be 72b6 af3e dea4 a2be
00000060: 3bde d4be d984 d13e 276f 49be d90c 733e
00000070: b352 fabe 1c13 ad3d bbb9 abbe a663 f0be
00000080: c3eb c6be 3387 19be 009d 83be e788 623e
00000090: fbea 60be ee25 153c 0352 c6bd d976 08be
000000a0: 130c c7bd 734d be3e cb8b ba3b 54f8 16bf
000000b0: 2065 c73e 89ae c5be b809 423e eadc d6be
000000c0: b9a3 dcbe 6357 f23d b74e a03e 72ea f63e
000000d0: 069f 60be 1577 d8be 9a27 813e 28c8 f8be
000000e0: ca32 10be 4339 87bb eb39 4ebe 41e4 15bf
000000f0: 855e e9be 14e0 38be 1ed9 333e 9168 aabe
00000100: c5fe 10be 6b18 8a3e 2d7d ccbe fc13 f2be
00000110: 9359 f6be e74d c2be 1d64 ae3e ee31 0ebf
00000120: 0e88 c7bd dab9 75be 4df0 bb3e ef33 bfbe
00000130: 6394 883e 1b73 dfbc 0e97 093e 58f3 19bf
00000140: 3dce 6fbe 73de af3e 3fd1 1d3e 6efe f23e
00000150: f7e3 e0be 6b03 4dbe 069a 91be cf05 1abf
00000160: 2247 ea3e c4c9 07be 3e69 9bbe 9059 fd3e
00000170: 6596 9cbe f66e b4be cb54 68bd cd2e 023f
00000180: 74be c33e 770d eb3e 5492 893d 54c2 dbbe
00000190: 6f7b c93e 3c53 74be a592 8bbe d81a f3be
000001a0: a1de 80be aba8 26bc e636 8c3e f30e d63d
000001b0: 9aed da3e c14a bfbd bf4a ab3d 5389 71bd
000001c0: 4fbe cc3e 7de7 fdbd 26fd 0dbe 0356 08bf
000001d0: 8b75 333d 626c 113e 5fc9 63be 2a62 15bf
000001e0: 8c3a 4b3e 99e0 15bd 4c78 e33d b12e fbbe
000001f0: d69b c13d b324 ae3e e9ea d9be 3bd7 e73e
00000200: 803c 49be 5cd3 a2be 6b16 a43e 7ab3 f53e
00000210: c1f6 1c3d b375 5b3e b322 803e bc54 c5bd
00000220: de00 3e3e 0e5c ad3e 9c05 543e da9a ca3e
00000230: 9da9 0e3e 8a6f 08bd 2209 1cbe 58c9 803e
00000240: a07a b13c 7b48 47bc abf3 51be d7ec c3be
00000250: e2dc 363e b4ed a3be 91b8 523e 4f1d 4dbe
00000260: 1bed 18be 4e2e 9e3d 7dc6 eabd cd97 093f
00000270: 04f0 d6bd f965 c53e ae16 84be 04a3 d13e
00000280: 908d df3e 2691 953b b3d2 d53d 432e 163f
00000290: dd16 b03e f69e 33bd 0c6a e73d 6e13 cf3d
000002a0: 5d01 cabe f185 2abe 5907 54be 05c8 c63d
000002b0: 32a0 e0be b011 5f3e 4375 603e 3736 973e
000002c0: e383 0cbd 82aa ee3d 3559 0d3d f5e4 4fbe
000002d0: 6af5 e9bd 27bc 863d 3f73 a3be 9b08 8f3e
000002e0: 0eae 32be 6a08 a5be d470 aebd f51f e23d
000002f0: 9018 ac3d 89f0 e2be bb79 90be bfe3 f23e
00000300: 5416 b5be 90b1 c3be a0b7 433e f469 353f
00000310: e536 a3be 7e6d 96be 18b9 913e 72ca 71be
00000320: 19d6 a9bd 19fb 55bd 07e2 42be 52a1 a8be
00000330: f394 ef3e 9d0b a0be bee1 eabd 6dca 65be
00000340: ad17 ad3e eef3 f3be 9b25 a63e d267 a33e
00000350: c536 a0be 4cdb b43e 2733 c13e 4137 2f3f
00000360: 128c a53e a5b0 6fbe 1d52 173e c5e8 3fbf
00000370: e4e5 e7bd 98c4 ecbe 2a28 ef3b 1004 0d3f
00000380: a51a e03e 08a8 91be 06b5 8abe 60d3 153f
00000390: 2cf2 ccbe 7e75 babe 5d84 b7be 6015 653d
000003a0: beea 08bd a8e8 97be 75b7 d83e 7c43 81be
000003b0: 1876 bbbe f60e 84bd a674 3bbe 8c59 3f3f
000003c0: 40e0 b0be 7a68 853d 5fa5 823d b047 213f
000003d0: fbaa d8bd cc1d 043e 1bda 87bd c9a1 adbd
000003e0: 8c1f 86be 6d79 873d 373f 58bd 5fe7 3c3f
000003f0: f868 933e 9ac2 20be c60b 58bd d329 1c3f

W_P.bias f4 [100]
-0.34789056 -0.53041565 -0.54449546 -0.01901477 -0.09115275 0.2758885 -0.5325022 0.4763527
-0.3763055 -0.24012923 -0.42512304 -0.39914954 0.23762804 -0.015799249 0.1178242 -0.24257441
-0.104647554 0.019076811 0.6037463 -0.4792288 0.41764742 -0.33359504 0.035814032 -0.19373308
-0.13849796 -0.4840166 0.20517977 0.50387603 -0.3115062 0.0030523958 0.20264629 -0.26842004
-0.5425149 -0.2947848 -0.13391815 0.17155486 -0.34862754 -0.42962936 -0.09821461 -0.4784434
-0.4601282 0.49303135 0.18244234 0.07670872 0.13654666 0.16922908 -0.26930806 -0.49087507
0.28199774 -0.01179116 -0.28208378 0.5897258 -0.12683283 -0.1310095 0.4516708 -0.12173086
0.10262797 -0.43971527 -0.17586824 -0.41069126 -0.042199425 -0.010149068 -0.33843213 0.036287908
-0.36857998 -0.4460121 0.12741278 -0.044248432 -0.45212638 0.13264263 -0.46798295 0.052793518
-0.027331142 0.17930345 -0.21560186 0.39642084 -0.48214668 -0.5810518 -0.19255742 -0.36265716
-0.36296192 0.2110735 0.44269603 0.21947065 0.03507856 -0.083681636 -0.065197356 -0.4257073
0.55838877 -0.14019927 0.46055666 -0.15720686 0.53457063 -0.14639677 -0.49783045 0.09302507
0.34894395 -0.39174503 0.19756551 -0.04706389
00000000: b61e b2be 52c9 07bf 0e64 0bbf ddc4 9bbc
00000010: 4bae babd 4241 8d3e 1052 08bf 80e4 f33e
00000020: 1dab c0be 70e4 75be baa9 d9be 545d ccbe
00000030: c454 733e 6d6d 81bc d04d f13d 6d65 78be
00000040: 7551 d6bd f946 9c3c 1e8f 1a3f 7a5d f5be
00000050: e2d5 d53e f8cc aabe bcb1 123d f761 46be
00000060: 69d2 0dbe 06d1 f7be a51a 523e 05fe 003f
00000070: be7d 9fbe b40a 483b 8282 4f3e 5a6e 89be
00000080: 42e2 0abf 09ee 96be d721 09be 14ac 2f3e
00000090: 4f7f b2be 61f8 dbbe be24 c9bd 89f6 f4be
000000a0: ec95 ebbe 9b6e fc3e 2ad2 3a3e 7619 9d3d
000000b0: e3d2 0b3e 634a 2d3e bfe2 89be fa53 fbbe
000000c0: 0262 903e b62f 41bc 496d 90be 45f8 163f
000000d0: 77e0 01be 5b27 06be 6541 e73e 074e f9bd
000000e0: 9d2e d23d 5c22 e1be ce16 34be 2046 d2be
000000f0: 4ed9 2cbd 4748 26bc fa46 adbe a1a2 143d
00000100: 84b6 bcbe b35b e4be 7f78 023e d83d 35bd
00000110: 1c7d e7be 78d3 073e 769b efbe 043e 583d
00000120: 8fe5 dfbc 539b 373e bcc6 5cbe acf7 ca3e
00000130: eedb f6be d0bf 14bf c62d 45be 33ae b9be
00000140: 25d6 b9be a723 583e 0ea9 e23e eabc 603e
00000150: 89ae 0f3d 4761 abbd 3186 85bd 4ff6 d9be
00000160: 91f2 0e3f 6690 0fbe 15ce eb3e d6fa 20be
00000170: 9fd9 083f 09e9 15be a2e3 febe ee83 be3d
00000180: c8a8 b23e ce92 c8be 9d4e 4a3e 11c6 40bd

encoder.layers.0.self_attn.W_Q.weight f4 [60, 100]
0.07287047 -0.047226176 -0.06559675 -0.042439807 -0.07130407 -0.08651308 -0.11239251 -0.058496468
0.05584247 0.053772222 0.017357562 0.03690392 0.01719172 -0.07842282 -0.024447376 -0.044454113
-0.015381467 -0.08283159 -0.024608199 0.084916696 -0.072837204 -0.028853424 0.04879861 -0.020248886
-0.0054434077 -0.044919778 -0.12751023 0.061055858 -0.0202414 -0.021473538 0.04362975 -0.0759095
0.0008860789 0.020773144 -0.055597078 -0.029601632 0.07181064 -0.07398205 0.009588678 -0.050599076
-0.058024075 0.026931824 -0.07645949 0.050391257 0.028115109 0.0750248 -0.107412346 0.090351254
-0.12571241 -0.016149055 -0.07295775 0.084616624 0.02050356 -0.037353646 0.1056123 0.021606302
-0.0035959964 -0.00504077 0.052823346 -0.06919062 -0.0027806358 0.0151867345 -0.07447964 -0.021104379
-0.1135214 0.0230093 -0.031193577 0.11420139 0.005343014 0.098143 -0.066361345 0.051363856
0.040986996 0.05204193 0.030782461 0.028890135 0.10489274 0.051835768 -0.049507815 -0.013052762
-0.11435675 -0.015529796 -0.09316404 -0.0422751 0.10920055 0.07560688 -0.053250283 0.114959404
-0.010669852 0.065455444 -0.009969115 -0.010233245 -0.10602487 0.0022355288 -0.032437626 0.06357625
-0.018178415 -0.030763762 0.04385526 0.09867778 0.07968238 -0.011656736 -0.01857314 0.016787978
0.0018801313 -0.035342555 0.02299607 0.02959 -0.123254195 -0.034403414 0.024305355 0.040416926
-0.07032618 -0.10089569 -0.055253983 -0.06898736 -0.024469802 -0.029585954 -0.06334799 -0.10357579
0.036243524 -0.027748568 0.07754978 0.06266603 0.0012178505 -0.09060757 0.06255381 0.1029364
-0.00056755624 -0.095606044 0.07533183 -0.07838901 -0.09450626 0.07285229 -0.024633205 0.1292132
-0.034348547 -0.0060231136 -0.10594663 -0.008734669 0.03008544 0.116838165 -0.0031437224 0.00485261
-0.021402398 -0.03174335 0.056231238 -0.059666663 0.06041419 -0.02430363 -0.12015105 0.13144962
0.08320355 0.09836491 0.082681 -0.041337658 -0.050509408 0.027519722 -0.0848609 0.004539298
-0.07040872 0.028314479 -0.10807898 0.028370384 -0.041572 -0.009829313 0.08214352 0.13421886
0.01274276 0.06221664 -0.02276462 0.0861815 -0.06180162 0.096835226 -0.098306686 0.12273922
0.048033424 0.044639364 -0.039666176 -0.086380646 0.035570208 0.030072574 -0.06890385 0.006593511
-0.10854631 -0.030402178 -0.05999855 0.07327201 0.041528158 -0.051595602 0.070121326 -0.00087203755
-0.0006594422 -0.012364487 -0.015589011 0.03771489 0.04655575 0.040172685 0.08941933 0.044384945
-0.012377015 -0.091773845 0.03177089 -0.08549341 -0.09787255 -0.08730084 -0.073224075 -0.046422035
0.014253577 0.030770058 0.11188524 0.003362521 -0.05621742 -0.04522758 -0.01760628 0.072131135
0.11670842 0.042212576 -0.07148119 -0.027313838 0.0786264 -0.09328132 -0.022795 -0.05361777
0.008520073 -0.016023431 -0.0455857 -0.081610344 0.0162385 0.11224742 0.047697213 -0.039320286
-0.022737894 -0.054545756 0.023791576 0.08750601 0.008424262 0.016802277 -0.076794215 0.07666828
0.07314537 0.073631115 0.08333228 -0.053026382 -0.038777765 0.064732045 0.07151856 -0.07776349
-0.12430515 -0.023745228 0.035907328 0.0057422603 0.0696987 0.013914393 -0.00412358 -0.046437874
00000000: 1d3d 953d 3c70 41bd 9757 86bd 5dd5 2dbd
00000010: de07 92bd c52d b1bd 0b2e e6bd fe99 6fbd
00000020: 13bb 643d 4340 5c3d 7231 8e3c 9128 173d
00000030: a6d5 8c3c 259c a0bd dd45 c8bc 8415 36bd
00000040: 8c02 7cbc 9ca3 a9bd 2297 c9bc cee8 ad3d
00000050: ac2b 95bd 045e ecbc 0de1 473d fee0 a5bc
00000060: 9d5e b2bb cdfd 37bd 0b92 02be b515 7a3d
00000070: 4bd1 a5bc 46e9 afbc 1cb5 323d 7176 9bbd
00000080: c047 683a 712c aa3c c3b9 63bd 1f7f f2bc
00000090: 7511 933d e783 97bd d519 1d3c fa40 4fbd
000000a0: a7aa 6dbd 21a0 dc3c cb96 9cbd 1067 4e3d
000000b0: a851 e63c 9aa6 993d 01fb dbbd 140a b93d
000000c0: c1ba 00be 064b 84bc df6a 95bd 7b4b ad3d
000000d0: 15f7 a73c 2300 19bd 434b d83d b3ff b03c
000000e0: cfaa 6bbb 0b2d a5bb 4b5d 583d d0b3 8dbd
000000f0: 543b 36bb c8d1 783c c888 98bd 17e3 acbc
00000100: e87d e8bd 007e bc3c ac89 ffbc 6be2 e93d
00000110: 7314 af3b 32ff c83d 75e8 87bd e862 523d
00000120: fbe1 273d eb29 553d 802b fc3c 01ab ec3c
00000130: 01d2 d63d be51 543d b5c8 4abd 40db 55bc
00000140: df33 eabd af70 7ebc cacc bebd a828 2dbd
00000150: 8aa4 df3d c8d7 9a3d f81c 5abd d66f eb3d
00000160: 9ad0 2ebc 810d 863d 8055 23bc 57a9 27bc
00000170: 9123 d9bd f381 123b 51dd 04bd 4434 823d
00000180: e6ea 94bc 4904 fcbc 93a1 333d 9317 ca3d
00000190: 8430 a33d e5fb 3ebc b326 98bc f186 893c
000001a0: bd6e f63a 5bc3 10bd 4162 bc3c ba66 f23c
000001b0: b26c fcbd 98ea 0cbd 061c c73c 388c 253d
000001c0: 2c07 90bd 66a2 cebd 0052 62bd 3f49 8dbd
000001d0: e574 c8bc 3e5e f2bc 97bc 81bd 8b1f d4bd
000001e0: 1774 143d f750 e3bc 6bd2 9e3d 0c57 803d
000001f0: 48a0 9f3a 7690 b9bd 361c 803d 52d0 d23d
00000200: 0ec8 14ba 1acd c3bd 9347 9a3d 6b8a a0bd
00000210: 7f8c c1bd 9533 953d 93cb c9bc 7750 043e
00000220: 10b1 0cbd 8a5d c5bb 8cfa d8bd db1b 0fbc
00000230: be75 f63c d948 ef3d e906 4ebb a502 9f3b
00000240: 1554 afbc 5105 02bd ba52 663d 0865 74bd
00000250: df74 773d 6818 c7bc c111 f6bd bb9a 063e
00000260: 9f66 aa3d 8b73 c93d a854 a93d ad51 29bd
00000270: f4e2 4ebd 0a71 e13c 8dcb adbd 64be 943b
00000280: 7232 90bd c4f3 e73c 8358 ddbd 0269 e83c
00000290: 6747 2abd 200b 21bc dd3a a83d ab70 093e
000002a0: 02c7 503c e0d6 7e3d de7c babc ed7f b03d
000002b0: b223 7dbd 8c51 c63d 0455 c9bd b35e fb3d
000002c0: b2be 443d c4d7 363d 0079 22bd 56e8 b0bd
000002d0: 11b2 113d c25a f63c 761d 8dbd 610e d83b
000002e0: 874d debd fd0d f9bc 0ac1 75bd a30f 963d
000002f0: 6e19 2a3d e955 53bd c59b 8f3d 7399 64ba
00000300: 6bde 2cba 6b94 4abc 0d69 7fbc ee7a 1a3d
00000310: 3eb1 3e3d 1d8c 243d 7b21 b73d fdcc 353d
00000320: f7c8 4abc edf3 bbbd 3122 023d 2b17 afbd
00000330: 6771 c8bd c8ca b2bd 81f6 95bd 0825 3ebd
00000340: d687 693c 7d11 fc3c 1724 e53d be5d 5c3b
00000350: 3d44 66bd 8e40 39bd 0c3b 90bc 7db9 933d
00000360: d304 ef3d 18e7 2c3d bb64 92bd 45c1 dfbc
00000370: e106 a13d 470a bfbd 94bc babc 4f9e 5bbd
00000380: c797 0b3c 9243 83bc 12b8 3abd 5323 a7bd
00000390: 9a06 853c fae1 e53d 275e 433d 4f0e 21bd
000003a0: d244 babc 5f6b 5fbd 8de6 c23c 5a36 b33d
000003b0: ea05 0a3c eea4 893c 4946 9dbd 4204 9d3d
000003c0: 3dcd 953d e9cb 963d 1daa aa3d 3132 59bd
000003d0: 6fd5 1ebd 3c92 843d 5378 923d 7742 9fbd
000003e0: b393 febd 5a85 c2bc 9013 133d 9229 bc3b
000003f0: 31be 8e3d 32f9 633c 191f 87bb a435 3ebd

encoder.layers.0.self_attn.W_K.weight f4 [60, 100]
0.027942711 -0.073151454 0.070220515 0.040357783 0.10993076 -0.09615243 -0.015406489 0.023724496
0.114586115 0.045099303 -0.065125816 -0.10096417 -0.028130973 -0.021658462 -0.1295832 -0.119759895
-0.05798427 -0.114741206 -0.0667858 -0.120145045 -0.012038199 -0.116275765 -0.03275929 -0.025784561
-0.08820132 -0.11130638 0.07876953 -0.031529218 0.022933522 -0.080592856 -0.1790764 0.006899627
0.04898682 -0.010527802 0.06463633 0.042558692 -0.009317807 -0.11476811 0.08237378 0.08547023
0.0076683876 0.076588646 0.099694714 0.05910572 -0.03491922 -0.045416452 0.10325102 -0.0063920566
-0.009942819 0.08023327 -0.0036527098 -0.06350123 0.07178702 -0.036498383 -0.048649903 0.04084439
-0.00019455158 0.10357074 -0.075346515 0.06510883 0.15247571 -0.005827432 0.08829432 0.06630818
0.045614272 -0.16536313 0.12682658 -0.0645967 0.021876533 -0.018141223 -0.088423096 0.063631594
-0.07633417 -0.0059598074 -0.07475148 0.06476565 -0.085533895 -0.11799297 0.077693336 -0.065252766
0.0025197663 0.10345256 -0.026685338 0.029768161 0.0017679939 -0.009922482 0.07706018 0.06822995
-0.031375036 -0.11448714 0.09083244 -0.12576868 0.030567702 0.031091746 -0.12853813 0.04858152
0.05807779 -0.019456085 0.025085315 -0.13236989 0.15202738 -0.052297898 -0.018098019 0.015712041
-0.020334268 -0.06292312 -0.0514357 0.027931277 0.08908444 -0.055804074 -0.10574416 -0.030582521
0.00018889338 -0.083079405 -0.025680233 -0.034782037 -0.055184647 0.024720324 -0.016865896 -0.049461566
0.08454833 -0.060897887 0.029072352 0.08397841 -0.05294502 -0.09048885 -0.039140046 0.02659179
-0.054540116 -0.10764285 -0.04328093 0.015829802 -0.020016465 -0.08842606 0.017986607 0.011259061
-0.14004211 -0.10382778 0.1530594 -0.04548365 0.07126795 0.10028394 0.012944362 0.010459091
0.09234801 0.035665747 0.008235478 0.08807836 0.11357871 -0.051755972 0.007219824 -0.075144656
0.005102071 0.06657686 -0.059802443 0.026924048 -0.053598616 0.05027592 -0.009633842 0.045094658
0.0016690836 -0.015743436 0.16568194 -0.03996291 -0.027211329 -0.073949404 -0.049207717 0.08469487
0.17430057 -0.07052979 0.0014148945 0.012194199 0.12858832 0.05166161 -0.029108189 0.034070566
-0.01844213 -0.09810558 0.012349484 -0.04442674 -0.07620615 0.124243006 -0.0055620144 0.09203947
-0.05509301 0.11709449 0.13138434 -0.072661854 0.049267396 -0.14503138 0.064417824 0.019861236
0.049454242 0.08448574 -0.07227241 -0.09552645 -0.09120419 -0.0018756217 -0.026630884 0.047615215
-0.076155744 0.089862205 -0.11234653 0.0031472058 0.04657847 -0.11992698 0.04826956 0.0058262665
-0.015571128 0.12910676 0.07121945 0.021378508 0.049424164 0.0014219014 0.019995196 -0.008043631
-0.04706855 -0.039870292 -0.13197921 -0.045024622 0.036510102 0.020617817 0.076441295 0.07366577
0.022986384 -0.050343517 0.04460144 0.02368574 0.060089476 -0.0057943733 -0.11292787 0.08662544
-0.029658666 -0.15533556 0.03478178 0.06859268 0.031971812 -0.09536742 0.042901594 0.110536225
0.016366154 -0.027362017 0.095964074 -0.0023798703 -0.10070853 0.019375414 -0.05734398 0.13810398
0.076918535 0.06694174 0.012625765 -0.016526824 0.056795754 0.008028459 -0.08216746 0.11791464
00000000: 1de8 e43c 6ed0 95bd c6cf 8f3d 344e 253d
00000010: 6123 e13d 91eb c4bd 806b 7cbc e059 c23c
00000020: 20ac ea3d 0cba 383d af60 85bd 4ec6 cebd
00000030: ed72 e6bc 166d b1bc 75b1 04be ad44 f5bd
00000040: ea80 6dbd 70fd eabd fec6 88bd 9b0e f6bd
00000050: de3b 45bc fd21 eebd 9b2e 06bd 253a d3bc
00000060: e5a2 b4bd 99f4 e3bd eb51 a13d c824 01bd
00000070: 15df bb3c de0d a5bd ce5f 37be 4416 e23b
00000080: 67a6 483d cd7c 2cbc 0d60 843d 0652 2e3d
00000090: b7a9 18bc 8b0b ebbd 96b3 a83d 040b af3d
000000a0: 1947 fb3b 82da 9c3d be2c cc3d d718 723d
000000b0: 7507 0fbd 9a06 3abd 4575 d33d 7574 d1bb
000000c0: 35e7 22bc 5751 a43d 4d62 6fbb ef0c 82bd
000000d0: 1305 933d 547f 15bd 1f45 47bd 724c 273d
000000e0: 8b00 4cb9 e51c d43d 464f 9abd c757 853d
000000f0: 9822 1c3e 0bf4 bebb a7d3 b43d 95cc 873d
00000100: 08d6 3a3d f454 29be d4de 013e 464b 84bd
00000110: 6a36 b33c e79c 94bc 2b17 b5bd 4851 823d
00000120: 1755 9cbd 7d4a c3bb 4e17 99bd daa3 843d
00000130: 652c afbd 4ca6 f1bd af1d 9f3d 3ea3 85bd
00000140: aa22 253b f0de d33d 369b dabc 5cdc f33c
00000150: 08bc e73a e891 22bc bad1 9d3d 25bc 8b3d
00000160: 1c83 00bd 3c78 eabd 5c06 ba3d 81c9 00be
00000170: 1e69 fa3c 1eb4 fe3c 809f 03be 6afd 463d
00000180: fae2 6d3d 5e62 9fbc b87f cd3c f98b 07be
00000190: 11ad 1b3e 5236 56bd 4c42 94bc 8ab6 803c
000001a0: 0d94 a6bc d6dd 80bd 3eae 52bd 22d0 e43c
000001b0: e771 b63d d092 64bd 6590 d8bd 3288 fabc
000001c0: ae11 4639 8925 aabd 5a5f d2bc 9c77 0ebd
000001d0: 4c09 62bd 4782 ca3c 592a 8abc 3698 4abd
000001e0: ad27 ad3d 1070 79bd 2429 ee3c dffc ab3d
000001f0: e1dc 58bd 3852 b9bd 5051 20bd 07d7 d93c
00000200: 7565 5fbd db73 dcbd 5847 31bd 80ad 813c
00000210: 92f9 a3bc b918 b5bd a658 933c ed77 383c
00000220: 3367 0fbe a9a3 d4bd 9abb 1c3e 104d 3abd
00000230: eef4 913d ab61 cd3d 9714 543c 9b5c 2b3c
00000240: f420 bd3d 3f16 123d 19ee 063c 6d62 b43d
00000250: f49b e83d 12fe 53bd 4694 ec3b 71e5 99bd
00000260: 462f a73b 7359 883d 68f3 74bd d28f dc3c
00000270: 398a 5bbd 20ee 4d3d 43d7 1dbc 2db5 383d
00000280: 27c5 da3a 61f8 80bc 87a8 293e 26b0 23bd
00000290: 4bea debc c972 97bd 088e 49bd 8174 ad3d
000002a0: d97b 323e ec71 90bd fb73 b93a 2dca 473c
000002b0: a8ac 033e 209b 533d 4c74 eebc 948d 0b3d
000002c0: f313 97bc 94eb c8bd 7d55 4a3c d0f8 35bd
000002d0: f811 9cbd 1e73 fe3d 8f41 b6bb 317f bc3d
000002e0: 35a9 61bd 3ccf ef3d 9e89 063e bdcf 94bd
000002f0: 9ccc 493d 1b83 14be 7eed 833d 08b4 a23c
00000300: 8890 4a3d dc06 ad3d 8f03 94bd 5fa3 c3bd
00000310: 43c9 babd 6cd7 f5ba 0329 dabc 2c08 433d
00000320: 8bf7 9bbd ad09 b83d f015 e6bd 5a41 4e3b
00000330: 11c9 3e3d 479c f5bd 4db6 453d 44ea be3b
00000340: 0b1e 7fbc 9034 043e 81db 913d fb21 af3c
00000350: fe70 4a3d 185f ba3a f7cc a33c 6fc9 03bc
00000360: f4ca 40bd 084f 23bd 8f25 07be bd6b 38bd
00000370: 9e8b 153d b2e6 a83c 418d 9c3d 14de 963d
00000380: f14d bc3c 0135 4ebd 00b0 363d 9908 c23c
00000390: 6220 763d bade bdbb ba46 e7bd ae68 b13d
000003a0: bbf6 f2bc 4910 1fbe 5777 0e3d 527a 8c3d
000003b0: e0f4 023d fe4f c3bd 95b9 2f3d d160 e23d
000003c0: 5012 863c 4f26 e0bc d088 c43d 99f7 1bbb
000003d0: 4640 cebd 30b9 9e3c 85e1 6abd 216b 0d3e
000003e0: 7787 9d3d c018 893d 4cdc 4e3c 4363 87bc
000003f0: aaa2 683d cc89 033c 6a47 a8bd 3b7d f13d

encoder.layers.0.self_attn.W_V.weight f4 [60, 100]
0.10941759 0.01838987 0.12651198 0.09553672 0.020884234 0.021908203 -0.047476742 0.016185064
0.053696226 0.03187693 -0.082157984 -0.088900834 0.08338434 -0.042038854 0.0056222957 0.037021853
-0.12131148 -0.13529266 -0.052060876 -0.05583843 -0.023500828 -0.047165986 0.108062826 0.071585506
-0.017978808 -0.029778108 0.023208594 -0.019267717 0.055407465 -0.13962369 -0.10644782 -0.049358327
0.033739246 0.01952778 -0.0027143625 0.011437704 -0.092077106 0.023934677 0.13678196 0.051710106
0.08306719 0.091143005 -0.028615676 -0.0420573 -0.10038527 0.042591304 0.006400754 0.09353033
0.14482853 -0.0083524715 -0.097305946 -0.080705196 -0.067861535 0.074556425 -0.06403598 0.04247694
-0.011530702 -0.017309511 -0.085560285 0.059062567 0.1344255 -0.087943636 0.033931706 -0.014687778
-0.08445396 -0.106929354 0.108882956 0.006592844 0.0718339 -0.08872813 0.023768317 0.005383414
-0.02481114 0.021785913 -0.06349078 -0.06402371 -0.04655507 -0.08050728 0.11478228 -0.023424491
0.061785847 0.09717637 0.124812424 0.08964122 -0.033179037 0.07102821 0.070507996 -0.07084177
-0.0004502853 -0.14238164 0.1072534 0.013247578 -0.036929224 -0.018915445 -0.09846102 0.061226454
0.05343736 -0.06266265 -0.029240027 0.064271115 -0.041215334 0.02046277 0.07378219 0.06254558
-0.074396685 0.06752013 0.04205741 -0.01694698 0.08595968 -0.038770862 0.020579873 0.12011594
-0.07141742 -0.030245084 0.109139666 -0.044833515 0.09336516 -0.026350087 0.08204119 0.112029515
-0.06648145 -0.08699189 0.083923765 -0.07923512 0.05716373 -0.02589449 -0.092379935 0.025522193
0.021120453 0.012663201 0.017363667 -0.039340813 -0.051523943 -0.0854354 -0.04880819 0.00791903
0.10843705 -0.052926403 0.03493486 -0.014169891 -0.0041587744 0.09260326 0.030340804 0.06613582
-0.0795912 -0.01858756 0.0380969 -0.0471392 -0.06585662 0.097943895 -0.057532918 -0.07937645
0.019420166 -0.0439326 0.047545288 0.021741992 -0.10916617 -0.022728149 -0.013351557 -0.027462287
-0.019486569 0.038725063 0.056315143 -0.040916964 -0.043619156 0.0072894683 0.022800403 -0.05576013
-0.09935791 -0.048057348 0.08509177 -0.10706423 -0.0816241 0.07687854 -0.091787 -0.06280757
0.11807492 -0.012821299 -0.11305916 0.071801744 -0.0077321986 -0.019196954 0.0646697 -0.0813749
0.06709705 -0.0019762553 0.08437456 -0.033639856 -0.046024024 0.10038541 -0.03852517 -0.03545457
-0.07005765 -0.0087892255 0.08683814 0.041491684 -0.07828467 -0.028499475 0.0026062005 0.052357312
-0.048016958 -0.012267815 0.034113392 0.005279815 -0.050918784 0.08618054 0.0850141 0.106948264
-0.06102061 -0.03154101 0.008910468 -0.0060928403 -0.0544455 0.04064346 0.071342774 0.10463381
0.063187346 0.09377145 -0.024225911 0.06963121 -0.03408333 0.010878554 -0.16116875 -0.103761
0.0012487619 -0.036245983 0.024799585 0.04379176 0.048505068 0.13680793 0.12408214 -0.13154218
-0.014906471 0.038964085 0.065465 0.01494305 0.10844004 -0.059066784 -0.06496435 0.019877875
-0.037801508 -0.0025461994 -0.08128581 -0.03546153 0.15613562 -0.04208177 -0.092449956 -0.13844968
0.00227595 0.071946785 -0.05066352 -0.00019519139 -0.0519402 -0.05626658 -0.011010708 -0.116710745
00000000: 5416 e03d 5aa6 963c 5b8c 013e c1a8 c33d
00000010: 6a15 ab3c d578 b33c f976 42bd 8a96 843c
00000020: 93f0 5b3d 6291 023d 7242 a8bd a411 b6bd
00000030: 69c5 aa3d ef30 2cbd 3c3b b83b 3aa4 173d
00000040: 2772 f8bd 298a 0abe c93d 55bd d6b6 64bd
00000050: cf84 c0bc 1f31 41bd 0b50 dd3d 6c9b 923d
00000060: 4b48 93bc 38f1 f3bc f31f be3c 55d7 9dbc
00000070: f0f2 623d 83f9 0ebe 5101 dabd f52b 4abd
00000080: 2a32 0a3d b9f8 9f3c 72e3 31bb 3565 3b3c
00000090: ec92 bcbd a812 c43c 9210 0c3e facd 533d
000000a0: 221f aa3d 2fa9 ba3d 6c6b eabc 4744 2cbd
000000b0: cb96 cdbd 3874 2e3d 6bbd d13b d48c bf3d
000000c0: ee4d 143e ced8 08bc 5748 c7bd c448 a5bd
000000d0: fdfa 8abd 0ab1 983d 4c25 83bd 4dfc 2d3d
000000e0: 45eb 3cbc adcc 8dbc 3b3a afbd 97eb 713d
000000f0: d7a6 093e cb1b b4bd f9fb 0a3d 02a5 70bc
00000100: 33f6 acbd c7fd dabd 07fe de3d c908 d83b
00000110: a71d 933d 18b7 b5bd c6b5 c23c 5a67 b03b
00000120: bb40 cbbc 5f78 b23c 7407 82bd dd1e 83bd
00000130: 87b0 3ebd 00e1 a4bd f912 eb3d b8e4 bfbc
00000140: 2813 7d3d 6804 c73d a89d ff3d d195 b73d
00000150: bee6 07bd 3d77 913d 7f66 903d 7d15 91bd
00000160: 4514 ecb9 7ecc 11be aca7 db3d 5f0c 593c
00000170: 1943 17bd 90f4 9abc eea5 c9bd 97c8 7a3d
00000180: 22e1 5a3d 4755 80bd c888 efbc 93a0 833d
00000190: 69d1 28bd 8aa1 a73c 1e1b 973d e617 803d
000001a0: 4a5d 98bd fe47 8a3d 6444 2c3d 65d4 8abc
000001b0: a10b b03d 32ce 1ebd 1f97 a83c 59ff f53d
000001c0: 4c43 92bd 8ac4 f7bc 9e84 df3d 59a3 37bd
000001d0: 3c36 bf3d 23dc d7bc 3605 a83d bb6f e53d
000001e0: 6d27 88bd ce28 b2bd 39e0 ab3d 0646 a2bd
000001f0: 8424 6a3d ae20 d4bc b131 bdbd eb13 d13c
00000200: cd04 ad3c 5179 4f3c 403e 8e3c d523 21bd
00000210: c50a 53bd c1f8 aebd 19eb 47bd d2be 013c
00000220: 3e14 de3d 5bc9 58bd db17 0f3d d528 68bc
00000230: 5446 88bb c7a6 bd3d 478d f83c 3772 873d
00000240: b600 a3bd f044 98bc 7f0b 1c3d 0915 41bd
00000250: d6df 86bd cf96 c83d a3a7 6bbd 1f90 a2bd
00000260: 0a17 9f3c acf2 33bd d9be 423d 431c b23c
00000270: 8392 dfbd 6230 babc 7dc0 5abc 97f8 e0bc
00000280: 4ca2 9fbc 2c9e 1e3d b5aa 663d 8c98 27bd
00000290: 00aa 32bd 7edc ee3b e9c7 ba3c bc64 64bd
000002a0: 297c cbbd c8d7 44bd 9844 ae3d 7e44 dbbd
000002b0: 892a a7bd 7f72 9d3d d3fa bbbd 41a1 80bd
000002c0: 43d1 f13d 6d10 52bc 908b e7bd cb0c 933d
000002d0: 625e fdbb ee42 9dbc 8c71 843d e2a7 a6bd
000002e0: 2e6a 893d 1084 01bb 92cc ac3d f2c9 09bd
000002f0: b083 3cbd de96 cd3d 92cc 1dbd d038 11bd
00000300: 637a 8fbd af00 10bc 32d8 b13d 2ff3 293d
00000310: b753 a0bd bb77 e9bc cacc 2a3b 9f74 563d
00000320: 6ead 44bd f2fe 48bc 7cba 0b3d 4c02 ad3b
00000330: 3790 50bd 6c7f b03d df1b ae3d b107 db3d
00000340: bff0 79bd 2531 01bd 36fd 113c 73a6 c7bb
00000350: 3f02 5fbd c279 263d 291c 923d 404a d63d
00000360: 5e68 813d 3f0b c03d 6b75 c6bc cf9a 8e3d
00000370: f69a 0bbd f63b 323c 6c09 25be a680 d4bd
00000380: 7fad a33a ab76 14bd 8028 cb3c fd5e 333d
00000390: 40ad 463d 6117 0c3e c71e fe3d feb2 06be
000003a0: 453a 74bc ce98 1f3d 8412 863d b2d3 743c
000003b0: d015 de3d 03f0 71bd 070c 85bd edd6 a23c
000003c0: c1d5 1abd 23de 26bb 2d79 a6bd 1c40 11bd
000003d0: 04e2 1f3e ef5d 2cbd 6756 bdbd c1c5 0dbe
000003e0: 1b28 153b d658 933d 8d84 4fbd 4aac 4cb9
000003f0: 3fbf 54bd c977 66bd 4266 34bc 0b06 efbd

encoder.layers.0.self_attn.W_O.weight f4 [100, 60]
0.029417781 -0.063238926 0.01773521 0.11202053 0.068757564 0.012772151 0.14931233 0.01767955
-0.08805708 0.097320035 0.1199702 0.0062512085 -0.086485885 -0.09298311 -0.07761396 -0.047935624
-0.050229773 -0.008951734 0.010755258 -0.12800576 0.029661378 0.025899727 0.014395436 -0.0015231572
-0.053909957 -0.010356192 0.059038248 -0.06273635 0.03130793 0.030217757 0.1375278 -0.016548628
-0.05734054 -0.09088477 0.14284346 0.08825478 -0.13607481 0.04457813 -0.24657677 0.15634325
0.11085744 0.027383953 0.122930214 0.031152526 0.11720509 -0.11501495 0.036221173 0.03828332
-0.09405106 0.19088762 -0.07928966 -0.071083665 0.06115014 0.009882821 -0.10391413 0.1746963
0.062380996 0.09708153 -0.067826554 0.2093866 -0.07789674 -0.044153698 0.11074024 0.06740319
0.050080705 -0.07509925 -0.13259475 0.11080737 0.047288828 -0.009854308 -0.09627348 0.090428025
-0.106116146 0.019140799 -0.09212802 -0.032435514 0.061224792 0.109282725 -0.13859324 -0.08849324
-0.069425665 0.0018920795 0.08725902 -0.06388416 -0.16033882 0.03166675 0.09780569 -0.07014343
-0.022469832 -0.034121 0.16227493 -0.0673645 0.15439542 -0.009273031 0.0084037855 0.049588263
-0.043684617 0.11870882 0.10094741 -0.0540274 -0.06029486 -0.035493184 -0.096455194 -0.12195013
-0.0011580226 0.094218075 -0.016424991 0.113305084 -0.035047293 -0.09749793 0.0126994485 0.15485358
-0.02962498 -0.03420645 0.006721954 -0.08781894 0.060133472 -0.07467403 0.012412913 0.007182418
0.04813222 0.074610874 -0.11515939 -0.12339635 0.07764043 -0.046422847 0.14543553 0.066795684
-0.12732895 -0.054725535 0.07869907 0.07670667 0.023756243 0.10689038 0.042556062 -0.033700094
0.017848557 -0.11525817 -0.014036682 -0.09383961 -0.0772876 0.030136276 0.050913583 -0.111408226
0.09539864 -0.07976371 -0.085899025 -0.00053385546 0.14112289 0.06433832 0.18016274 -0.16508752
-0.098894045 -0.0038425892 -0.0463691 -0.1905621 -0.05832772 0.20580107 -0.11461917 0.04838076
-0.0754392 -0.1020671 0.09917499 -0.090687126 0.050165843 -0.104521915 -0.22104733 0.1350904
-0.08684837 0.18125449 -0.05453484 -0.023441292 -0.0134252785 0.056544617 0.1303078 -0.06942753
0.06002953 0.012496085 -0.099890314 0.02539337 0.07481395 -0.015212217 0.044506226 0.03264237
-0.011847843 -0.12234647 0.04928525 -1.7429875e-05 0.1226507 -0.08814524 0.024526896 0.05118883
0.074928604 -0.049972817 0.13174129 0.078629844 0.032959905 0.098678626 0.07765437 -0.052432496
-0.08701796 0.08026125 0.08403456 0.10960647 -0.015929278 0.09784471 0.060255855 -0.018061051
-0.045258947 -0.041800994 0.06850562 -0.12140601 -0.04217483 -0.10384018 0.0073977965 -0.053552102
-0.108698405 -0.09948286 -0.14745322 0.071112685 -0.03457547 0.05364293 -0.040925216 0.06247698
-0.038554303 -0.092444435 -0.12283643 0.032422427 0.027733576 0.07523064 0.049349226 -0.0021576732
-0.019065814 0.13981861 -0.1537188 0.10321384 0.09398897 0.1079281 -0.07066534 -0.0075225187
-0.0063203317 0.08636383 -0.18866238 0.038095634 -0.0717674 -0.096851416 -0.012838775 0.033178017
0.053849332 0.15401532 -0.18082255 -0.06952613 -9.8456716e-05 -0.10709824 -0.06063989 -0.044824198
00000000: 8ffd f03c 6983 81bd 6e49 913c 056b e53d
00000010: c4d0 8c3d 4942 513c 55e5 183e b4d4 903c
00000020: 4557 b4bd ba4f c73d f0b2 f53d f0d6 cc3b
00000030: 831f b1bd ee6d bebd 11f4 9ebd 2558 44bd
00000040: bcbd 4dbd 4baa 12bc d236 303c f113 03be
00000050: 6bfc f23c aa2b d43c d6da 6b3c ada4 c7ba
00000060: b0d0 5cbd 04ad 29bc 17d2 713d ea7b 80bd
00000070: be3c 003d 3b8b f73c 16d4 0c3e fd90 87bc
00000080: eadd 6abd cb21 babd 8e45 123e ecbe b43d
00000090: 3257 0bbe 8f97 363d 9f7e 7cbe 7218 203e
000000a0: 3a09 e33d 5054 e03c d6c2 fb3d 9533 ff3c
000000b0: 3909 f03d f58c ebbd a75c 143d f8ce 1c3d
000000c0: d89d c0bd 0b78 433e 9e62 a2bd 5094 91bd
000000d0: 9278 7a3d 8eeb 213c eed0 d4bd 96e3 323e
000000e0: 3783 7f3d aed2 c63d a6e8 8abd 7169 563e
000000f0: 5388 9fbd 82da 34bd c7cb e23d af0a 8a3d
00000100: 6d21 4d3d a3cd 99bd ebc6 07be f9ee e23d
00000110: eeb1 413d f773 21bc 082b c5bd 5432 b93d
00000120: 6c53 d9bd 2acd 9c3c 9ead bcbd 1adb 04bd
00000130: d9c6 7a3d 9fcf df3d 63eb 0dbe f23b b5bd
00000140: 0b2f 8ebd a7ff f73a dbb4 b23d b3d5 82bd
00000150: dc2f 24be feb4 013d 594e c83d 5ca7 8fbd
00000160: a712 b8bc 76c2 0bbd 662b 263e 66f6 89bd
00000170: d519 1e3e e9ed 17bc 08b0 093c 101d 4b3d
00000180: a4ee 32bd 9c1d f33d 84bd ce3d d64b 5dbd
00000190: bef7 76bd 4d61 11bd 4d8a c5bd fdc0 f9bd
000001a0: cac8 97ba 68f5 c03d b48d 86bc 7f0c e83d
000001b0: c08d 0fbd ffac c7bd 5911 503c f091 1e3e
000001c0: 16b0 f2bc 101c 0cbd d643 dc3b 6bda b3bd
000001d0: 844e 763d b3ee 98bd 885f 4b3c 7d5a eb3b
000001e0: 4a26 453d 96cd 983d b0d8 ebbd 3ab7 fcbd
000001f0: f201 9f3d e225 3ebd 0ded 143e 2dcc 883d
00000200: 8562 02be e227 60bd fa2c a13d 6318 9d3d
00000210: 749c c23c 58e9 da3d 444f 2e3d 1c09 0abd
00000220: 2337 923c 7a0c ecbd 1dfa 65bc fb2e c0bd
00000230: f648 9ebd 5ae0 f63c c38a 503d ff29 e4bd
00000240: 5d60 c33d 285b a3bd d4eb afbd 6ff2 0bba
00000250: 8582 103e cfc3 833d 957c 383e b40c 29be
00000260: f688 cabd f3d3 7bbb 87ed 3dbd b622 43be
00000270: 0ce9 6ebd 84bd 523e 75bd eabd e72a 463d
00000280: de7f 9abd 8e08 d1bd 421c cb3d 2cba b9bd
00000290: b37a 4d3d 960f d6bd 3b5a 62be 2355 0a3e
000002a0: 8fdd b1bd c79a 393e ed5f 5fbd f407 c0bc
000002b0: b3f5 5bbc 549b 673d 686f 053e 0530 8ebd
000002c0: 86e1 753d 61bc 4c3c 4b93 ccbd c205 d03c
000002d0: 0e38 993d aa3c 79bc 294c 363d 01b4 053d
000002e0: 751d 42bc c990 fabd 55df 493d 5f36 92b7
000002f0: 4a30 fb3d 7e85 b4bd a1ec c83c 61ab 513d
00000300: 2b74 993d 4cb0 4cbd 30e7 063e af08 a13d
00000310: f700 073d 0518 ca3d 4109 9f3d 75c3 56bd
00000320: 7936 b2bd 0360 a43d 501a ac3d 5b79 e03d
00000330: 1e7e 82bc cf62 c83d d8ce 763d c5f4 93bc
00000340: 7261 39bd 8537 2bbd ad4c 8c3d b7a3 f8bd
00000350: 84bf 2cbd 29aa d4bd 3769 f23b 7359 5bbd
00000360: 459d debd abbd cbbd fafd 16be 87a3 913d
00000370: 029f 0dbd b0b8 5b3d 33a1 27bd dde7 7f3d
00000380: 1eeb 1dbd 8253 bdbd ab91 fbbd 61cd 043d
00000390: 8631 e33c 8612 9a3d 6a22 4a3d c067 0dbb
000003a0: e92f 9cbc 9c2c 0f3e 7668 1dbe c761 d33d
000003b0: 4a7d c03d 6809 dd3d fdb8 90bd 767f f6bb
000003c0: c91a cfbb 85df b03d b630 41be 2b0a 1c3d
000003d0: c9fa 92bd 095a c6bd ba59 52bc ace5 073d
000003e0: 1e91 5c3d 31b6 1d3e 8c29 39be b763 8ebd
000003f0: 8c7a ceb8 5256 dbbd 8961 78bd 9499 37bd

encoder.layers.0.batchnorm_attn.1.weight f4 [100]
0.9940515 1.0127195 0.9845205 1.0060575 0.9934098 0.9837283 1.064198 0.9841209
1.0207788 0.9366733 0.9592186 1.0276265 1.0354422 0.99327457 0.9909954 1.0031568
0.9303052 1.0127395 0.99205446 0.9966608 0.9941046 0.99920124 0.9910513 1.0614741
0.960505 1.0942066 0.9766122 0.9716702 0.97763574 0.95356125 1.0320091 1.0135661
0.9478428 0.94716 0.9773814 1.0329628 1.0305326 0.95939416 0.9915102 1.0414628
0.9963676 1.0117832 0.97649235 1.039958 1.0117561 0.93855315 0.99648374 1.0125455
1.0382545 0.9784886 1.005079 1.0360849 0.96996677 1.0091833 0.94139963 1.0184658
0.99156386 0.9540149 0.9869512 0.99974257 1.0157489 1.0130789 1.0293603 1.0052563
1.024627 0.99340403 1.0296667 1.0065639 0.962802 0.9460824 1.0445342 1.0321562
0.9526177 1.1025869 0.9707087 0.9707933 1.0190533 1.0272876 1.0253716 0.9258209
1.0370448 0.9812046 0.9760087 0.9509362 0.9267343 0.96877974 0.9777378 1.0158275
0.98430055 1.025339 0.9649412 1.0218282 0.9956176 1.0320101 0.99797815 0.975825
1.0496538 0.95215714 1.058164 0.9625475
00000000: 297a 7e3f cba0 813f 8909 7c3f 7ec6 803f
00000010: 1b50 7e3f 9ed5 7b3f a437 883f 59ef 7b3f
00000020: e1a8 823f d2c9 6f3f 5a8f 753f 4489 833f
00000030: 5f89 843f 3e47 7e3f e0b1 7d3f 7167 803f
00000040: 7b28 6e3f 73a1 813f 48f7 7d3f 2a25 7f3f
00000050: a47d 7e3f a7cb 7f3f 8ab5 7d3f 62de 873f
00000060: a8e3 753f f60e 8c3f 4203 7a3f 61bf 783f
00000070: 5646 7a3f 971c 743f e018 843f 89bc 813f
00000080: d3a5 723f 1479 723f ab35 7a3f 2038 843f
00000090: 7ee8 833f db9a 753f 9dd3 7d3f a74e 853f
000000a0: f211 7f3f 1d82 813f 67fb 793f 581d 853f
000000b0: 3981 813f 0545 703f 8f19 7f3f 179b 813f
000000c0: 86e5 843f 3b7e 7a3f 6ea6 803f 6e9e 843f
000000d0: be4f 783f eb2c 813f 91ff 703f 165d 823f
000000e0: 21d7 7d3f 523a 743f d5a8 7c3f 21ef 7f3f
000000f0: 0f04 823f 92ac 813f 14c2 833f 3dac 803f
00000100: fa26 833f ba4f 7e3f 1ecc 833f 16d7 803f
00000110: 317a 763f 7532 723f 4cb3 853f b21d 843f
00000120: c1de 733f 9121 8d3f 5e80 783f e985 783f
00000130: 5770 823f 297e 833f 603f 833f 9902 6d3f
00000140: e2bd 843f 3a30 7b3f b5db 793f 8e70 733f
00000150: 763e 6d3f f301 783f 064d 7a3f a306 823f
00000160: 1ffb 7b3f 4f3e 833f 6306 773f 44cb 823f
00000170: cce0 7e3f e818 843f 7f7b 7f3f abcf 793f
00000180: 0e5b 863f 92c0 733f eb71 873f 8369 763f

encoder.layers.0.batchnorm_attn.1.bias f4 [100]
-0.012011095 0.023814864 -0.08377981 -0.073835276 -0.033437673 0.06641021 0.052701626 0.017116489
0.058411397 0.08606893 0.097815916 -0.006622251 0.004762308 -0.04647487 -0.037958916 0.09063732
0.053572565 0.044065386 0.029845977 0.08312108 -0.017588235 0.073986016 -0.07496309 0.058853358
0.004492463 0.007268465 -0.07634732 -0.06486841 0.08700376 0.12112572 -0.08581374 0.062400084
-0.04670254 0.0512279 -0.06538452 -0.045107245 -0.09273364 0.0982393 -0.09280407 -0.117884114
-0.077338405 -0.04946301 0.071836494 -0.06437542 -0.07699346 -0.09742642 0.07821517 0.06270382
0.014471899 -0.01327098 -0.042141613 0.011289077 -0.118132226 -0.056153324 0.043510485 0.06438199
0.018439287 0.07295878 0.08743944 0.10255969 -0.081223644 0.030161723 0.028399633 0.03245014
0.02256315 0.0323369 0.06582885 -0.06615135 -0.07207481 0.07869799 0.11558133 0.047663618
-0.060156528 -0.0723237 0.037887044 0.062791675 0.0012241346 -0.062056985 0.07604718 0.08202596
-0.090215296 -0.046425186 0.0012172709 -0.0784941 0.11090142 -0.0724227 -0.07083536 0.047990926
0.039366253 -0.104607865 -0.054197468 0.05258165 0.037402 0.06321752 0.010840736 -0.040613003
0.013491078 0.040725343 -0.023350755 0.05562656
00000000: 2fca 44bc 6417 c33c c094 abbd f336 97bd
00000010: f1f5 08bd 1402 883d a9dd 573d e137 8c3c
00000020: ca40 6f3d e844 b03d b653 c83d 78ff d8bb
00000030: 230d 9c3b 6f5c 3ebd cf7a 1bbd 0fa0 b93d
00000040: e86e 5b3d e87d 343d 8d7f f43c 633b aa3d
00000050: 3415 90bc fb85 973d 4086 99bd 3810 713d
00000060: 8335 933b 4e2c ee3b fc5b 9cbd bbd9 84bd
00000070: 072f b23d c310 f83d 1dbf afbd 3b97 7f3d
00000080: 2a4b 3fbd 59d4 513d 52e8 85bd 60c2 38bd
00000090: 22eb bdbd b031 c93d 0f10 bebd 3a6d f1bd
000000a0: 9963 9ebd ba99 4abd 031f 933d 43d7 83bd
000000b0: bfae 9dbd 8187 c7bd 462f a03d dc6a 803d
000000c0: 8b1b 6d3c 866e 59bc af9c 2cbd d2f5 383c
000000d0: 4fef f1bd 0701 66bd 0d38 323d b4da 833d
000000e0: fd0d 973c 6a6b 953d 7313 b33d d10a d23d
000000f0: 9558 a6bd b815 f73c 59a6 e83c 70ea 043d
00000100: 5bd6 b83c b273 043d 47d1 863d 5c7a 87bd
00000110: f59b 93bd 692c a13d e8b5 ec3d ed3a 433d
00000120: b166 76bd 731e 94bd 722f 1b3d ec98 803d
00000130: 2473 a03a 772f 7ebd a0be 9b3d 3afd a73d
00000140: ccc2 b8bd 5628 3ebd d58c 9f3a 84c1 a0bd
00000150: 4920 e33d 5a52 94bd 2112 91bd 2292 443d
00000160: 823e 213d a63c d6bd 2afe 5dbd db5f 573d
00000170: d732 193d 3078 813d 589d 313c d259 26bd
00000180: af09 5d3c 9ecf 263d 154a bfbc add8 633d

encoder.layers.0.batchnorm_attn.1.running_mean f4 [100]
1.4374367 -0.61171645 1.0688086 1.0920497 1.5541848 -0.9945181 -2.0367832 -0.7503082
-0.98560685 -1.4139193 -1.8950406 -0.93876064 0.5947404 0.20026527 -0.41802645 -0.9271335
-1.111052 -0.26631948 -0.49926764 -1.8404207 1.8942007 -2.3446949 1.3651849 -1.2552054
-1.1152638 0.44127 1.4687067 1.0764741 -1.4775348 -0.8061038 -0.32927382 -0.8964653
1.0211707 -1.3420056 1.0298885 0.25472775 -1.0460191 -1.952027 0.62921774 0.34520474
1.9109141 2.1662896 -1.0560902 0.4708601 0.6217333 1.264357 -1.482606 -0.52652955
0.1884982 -0.9094306 -0.14385943 0.44726518 1.5860405 0.52931607 0.04968373 0.65955544
1.1081058 -1.8869618 -1.5814435 -0.55221474 1.3614377 -1.2862701 -0.88477266 0.5536705
-1.8490249 -1.0308183 -0.14649098 1.0583786 1.0122156 -1.3185656 -1.4975225 1.1329249
1.1426462 0.76824063 -1.366834 1.7553629 -0.5575534 0.83253485 -0.5206218 -2.0582151
-0.063401274 0.23041369 0.7655761 1.8079585 -1.6127645 1.0047897 1.5212308 -0.72801405
-1.1048781 1.0328255 1.5994188 -1.5830886 0.3353046 -0.69699556 -1.1130592 1.1099
1.1264503 -1.7266953 0.2600265 -0.673181
00000000: edfd b73f 7399 1cbf b8ce 883f 49c8 8b3f
00000010: 87ef c63f bd98 7ebf a85a 02c0 3314 40bf
00000020: bb50 7cbf 4ffb b4bf b190 f2bf 9e52 70bf
00000030: e840 183f 5712 4d3e 9007 d6be 9f58 6dbf
00000040: f436 8ebf 075b 88be 02a0 ffbe e892 ebbf
00000050: 2b75 f23f 7b0f 16c0 61be ae3f 92aa a0bf
00000060: f7c0 8ebf 24ee e13e 95fe bb3f e7c9 893f
00000070: dc1f bdbf d25c 4ebf 9496 a8be c07e 65bf
00000080: b9b5 823f d7c6 abbf 63d3 833f ad6b 823e
00000090: f4e3 85bf 05dc f9bf 6a14 213f adbe b03e
000000a0: d598 f43f 7da4 0a40 f72d 87bf 9314 f13e
000000b0: ea29 1f3f 73d6 a13f 09c6 bdbf a4ca 06bf
000000c0: ac05 413e 72d0 68bf e34f 13be f1ff e43e
000000d0: 6003 cb3f 4281 073f 2b81 4b3d a0d8 283f
000000e0: 69d6 8d3f f787 f1bf be6c cabf f25d 0dbf
000000f0: 9743 ae3f 80a4 a4bf 7680 62bf 5abd 0d3f
00000100: d9ac ecbf dbf1 83bf bb01 16be f378 873f
00000110: 4890 813f c2c6 a8bf d1ae bfbf af03 913f
00000120: 3b42 923f 6bab 443f 6bf4 aebf bbaf e03f
00000130: d2bb 0ebf 0121 553f 7847 05bf ccb9 03c0
00000140: 87d8 81bd 91f1 6b3e ccfc 433f 2f6b e73f
00000150: 116f cebf f39c 803f b1b7 c23f 215f 3abf
00000160: a56c 8dbf a033 843f c1b9 cc3f a6a2 cabf
00000170: 0bad ab3e 4d6e 32bf b978 8ebf 3411 8e3f
00000180: 862f 903f 5a04 ddbf 3222 853e 9755 2cbf

encoder.layers.0.batchnorm_attn.1.running_var f4 [100]
2.3676915 3.2852972 9.836098 4.2841735 5.0728207 6.5652075 7.660532 2.5489407
2.6257467 5.337691 16.359524 3.3459253 3.2444398 2.3367443 4.859035 3.0727944
6.2901635 2.445166 2.20442 9.839548 3.8489547 5.4423213 1.8568729 3.5412893
10.230455 1.5822061 5.851886 3.9455302 10.12116 8.027839 1.5510007 18.163174
14.762808 7.9186125 1.7852414 1.0108794 1.4386325 9.163911 8.138524 4.142625
3.2928724 3.2673123 4.1971264 1.9810184 1.5989501 13.887329 3.544432 1.4753692
1.1630515 4.051802 3.9771118 7.4924774 8.35255 8.495292 8.091391 1.8054383
1.1826781 3.5750651 5.572113 1.946388 11.858012 3.6889036 0.8709705 2.0614583
4.626862 2.0572639 3.535278 1.8829148 8.063083 14.758331 5.746678 1.4619077
5.6438293 2.3061533 3.8206198 3.112585 2.5197508 4.015042 2.2453594 6.77794
5.6083307 0.76484597 4.3859797 9.538213 3.5501685 4.4638104 9.225595 5.122892
4.996683 3.3780408 9.020037 3.5422368 3.3870766 3.675934 4.408853 5.4470677
2.6814113 2.315661 0.9279991 6.532419
00000000: 4288 1740 4f42 5240 a860 1d41 f317 8940
00000010: 8c54 a240 2e16 d240 1423 f540 d821 2340
00000020: 3c0c 2840 5dce aa40 4ee0 8241 a423 5640
00000030: e7a4 4f40 388d 1540 377d 9b40 aaa8 4440
00000040: 0549 c940 9a7d 1c40 3815 0d40 ca6e 1d41
00000050: 4655 7640 7f27 ae40 03ae ed3f 7ca4 6240
00000060: f2af 2341 bb85 ca3f a642 bb40 9183 7c40
00000070: 45f0 2141 0772 0041 3187 c63f 2e4e 9141
00000080: 7634 6c41 4665 fd40 ca82 e43f 7f64 813f
00000090: 1c25 b83f 619f 1241 6537 0241 6290 8440
000000a0: 6cbe 5240 a51b 5140 dc4e 8640 0392 fd3f
000000b0: 66aa cc3f 8032 5e41 f9d7 6240 e6d8 bc3f
000000c0: dfde 943f 5da8 8140 0089 7e40 60c2 ef40
000000d0: 0ba4 0541 b7ec 0741 5676 0141 9a18 e73f
000000e0: ff61 973f decd 6440 c04e b240 3e23 f93f
000000f0: 6bba 3d41 ff16 6c40 ecf7 5e3f efee 0340
00000100: 410f 9440 36aa 0340 ff41 6240 5a03 f13f
00000110: 6302 0141 2022 6c41 c9e4 b740 cb1f bb3f
00000120: 409a b440 0498 1340 0985 7440 9834 4740
00000130: 9943 2140 397b 8040 f8b3 0f40 e2e4 d840
00000140: 7277 b340 f2cc 433f f259 8c40 859c 1841
00000150: f635 6340 89d7 8e40 0a9c 1341 bbee a340
00000160: d4e4 9f40 d231 5840 1252 1041 02b4 6240
00000170: ddc5 5840 8142 6b40 5315 8d40 614e ae40
00000180: 3e9c 2b40 ca33 1440 5991 6d3f 9409 d140

encoder.layers.0.ff.0.weight f4 [256, 100]
0.020035082 -0.04997122 0.02369351 0.026554862 0.0050533847 0.010569489 -0.114698246 0.050318945
0.036242556 0.08945139 0.12470589 -0.04081012 -0.01621378 -0.15085365 0.039071806 -0.1040925
-0.051916774 0.008729422 -0.054907836 -0.027041862 -0.03845175 0.05695062 -0.08755844 -0.06483975
0.017304985 -0.07057736 -0.07220829 -0.027671099 0.102932304 0.072170354 0.03330249 0.08732724
0.02204475 0.030201338 0.02210603 -0.04156872 0.095282294 0.02771979 -0.12741072 0.01683296
-0.049356163 -0.03333751 0.057586398 -0.0959002 -0.05300574 0.0076721874 -0.038206074 0.065987796
0.009105731 -0.09256163 0.11595324 0.0456526 0.05115405 -0.08782565 -0.030397164 -0.1296147
-0.043753617 0.0804275 -0.013311775 0.06795947 -0.045821693 0.047204103 -0.08482546 0.0057633626
-0.0401065 0.08837971 -0.13893218 -0.017034376 0.024880907 -0.025147092 -0.015721146 0.048945833
0.091095775 -0.0014495844 0.08045494 -0.11965128 -0.09750293 -0.025342995 0.01247515 -0.02506643
-0.14266568 0.05885862 -0.06045697 -0.08743363 -0.04003436 -0.06603392 -0.11634194 0.1251871
0.02514039 -0.08146828 0.02114603 -0.08782705 0.058570035 -0.007864223 0.0110854395 0.13881856
0.045542512 0.045211866 0.09120582 -0.07971473 0.05149239 0.03533119 0.106241 0.0031372772
-0.08287436 -0.021299269 -0.085309096 -0.008109069 0.08444 0.07497146 -0.010418795 -0.032469973
0.030998657 -0.057621613 0.036335353 -0.104453966 -0.081413545 0.025453372 0.0403907 0.057235032
-0.08127829 -0.011836762 -0.14273234 -0.13502088 0.14238302 -0.0051591224 0.057633 0.06920535
0.085326836 -0.10536948 -0.0025754261 -0.01362217 -0.09557136 0.037769582 0.096479274 -0.09203715
0.021027995 -0.07029741 0.08287709 0.005447952 -0.07254286 -0.009910234 0.034486905 -0.05528883
-0.020608714 -0.06543983 -0.0053198403 0.042981673 -0.0034385014 0.034117874 0.0014916866 -0.053612124
0.068156004 0.02750133 -0.02976112 -0.19619828 -0.08962132 0.033909313 -0.029650113 0.03251651
0.026384639 -0.058294952 0.08123415 -0.079208955 -0.055270523 -0.056336876 -0.03372734 -0.030006692
0.023632206 -0.047784626 -0.108202316 -0.10817536 -0.0042317323 -0.002162402 0.13130377 -0.12646946
-0.11830857 0.017752951 0.050598297 0.009140522 0.06263589 0.106750555 -0.055550605 0.059856676
-0.034978207 0.045762032 -0.032241777 -0.10571952 0.036402043 0.055813383 0.03776069 -0.041649703
0.07889662 -0.09323639 0.014228956 -0.017632913 -0.16981193 -0.10211174 -0.09127822 0.011679733
0.017961945 0.07325924 -0.089684315 -0.10702801 0.08416656 0.031702675 0.12899342 0.01837456
0.049451858 0.09570281 -0.026339661 -0.010621075 -0.09372486 -0.076398686 -0.06727386 0.06376679
-0.02455613 0.12712224 0.040128868 0.051130358 -0.09439267 -0.042529773 -0.0620442 0.072754815
-0.03915018 -0.032344323 -0.16106436 -0.048538145 -0.010554107 0.11157994 0.021853613 -0.043806396
-0.068192445 0.15707317 -0.04966786 -0.11897228 0.017351067 0.029150758 -0.08449401 -0.029261433
-0.049587417 -0.1015109 0.039110254 -0.074209675 0.024476003 -0.012026325 -0.0042478056 -0.029180937
-0.049516838 -0.016470777 -0.032789085 0.044877343 -0.08206204 0.02473223 0.08251097 0.088289715
00000000: 9d20 a43c 9fae 4cbd e418 c23c 9589 d93c
00000010: dd96 a53b a62b 2d3c eae6 eabd 3d1b 4e3d
00000020: 1373 143d 4a32 b73d cd65 ff3d 8328 27bd
00000030: c3d2 84bc 6179 1abe c209 203d 732e d5bd
00000040: afa6 54bd da05 0f3c 0ae7 60bd e586 ddbc
00000050: 957f 1dbd 0e45 693d d751 b3bd b4ca 84bd
00000060: 2fc3 8d3c dd8a 90bd f1e1 93bd 80ae e2bc
00000070: 2cce d23d 0dce 933d 3168 083d a0d8 b23d
00000080: 3197 b43c cc68 f73c b417 b53c f643 2abd
00000090: 5d23 c33d 9d14 e33c f577 02be 47e5 893c
000000a0: b029 4abd ea8c 08bd b7df 6b3d 5367 c4bd
000000b0: 8c1c 59bd f966 fb3b f97d 1cbd 9c24 873d
000000c0: 3430 153c f490 bdbd e478 ed3d 38fe 3a3d
000000d0: e986 513d efdd b3bd 7903 f9bc b7b9 04be
000000e0: fe36 33bd 2cb7 a43d a219 5abc 562e 8b3d
000000f0: 87af 3bbd 1759 413d f9b8 adbd 97da bc3b
00000100: b746 24bd 6c00 b53d 3d44 0ebe ad8b 8bbc
00000110: 0bd3 cb3c 4601 cebc a2c9 80bc 6d7b 483d
00000120: 6c90 ba3d fbff bdba 8fc5 a43d bb0b f5bd
00000130: 9eaf c7bd 1d9c cfbc 9264 4c3c 1d58 cdbc
00000140: f416 12be bc15 713d baa1 77bd 6710 b3bd
00000150: 12fb 23bd cb3c 87bd af44 eebd 0c31 003e
00000160: 38f3 cd3c d7d8 a6bd 703a ad3c abde b3bd
00000170: 22e7 6f3d f1d8 00bc b49f 353c 7426 0e3e
00000180: c98a 3a3d 1430 393d 1eca ba3d 7a41 a3bd
00000190: afe9 523d 70b7 103d e294 d93d c79a 4d3b
000001a0: 08ba a9bd ce7b aebc 89b6 aebd e7db 04bc
000001b0: e1ee ac3d a38a 993d 98b3 2abc 3cff 04bd
000001c0: e5f0 fd3c a404 6cbd 61d4 143d f6eb d5bd
000001d0: 25bc a6bd 9783 d03c b870 253d 486f 6a3d
000001e0: 3b75 a6bd faee 41bc 6d28 12be ea42 0abe
000001f0: dbcc 113e db0d a9bb 9510 6c3d 89bb 8d3d
00000200: d6bf ae3d f4cb d7bd 7bc8 28bb 862f 5fbc
00000210: ebba c3bd 47b4 1a3d ed96 c53d f97d bcbd
00000220: e742 ac3c 17f8 8fbd 77bb a93d bc84 b23b
00000230: 5a91 94bd 895e 22bc 2442 0d3d 8a76 62bd
00000240: 9bd3 a8bc 5105 86bd 0e52 aebb 8d0d 303d
00000250: 7b58 61bb 2fbf 0b3d b284 c33a 6398 5bbd
00000260: 6095 8b3d 784a e13c 98cd f3bc 34e8 48be
00000270: 628b b7bd 7ee4 0a3d cbe4 f2bc 0830 053d
00000280: 9924 d83c b0c6 6ebd 175e a63d 4e38 a2bd
00000290: 5863 62bd 7fc1 66bd ae25 0abd 98d0 f5bc
000002a0: 5498 c13c d0b9 43bd 2d99 ddbd 0b8b ddbd
000002b0: 58aa 8abb 16b7 0dbb 7f74 063e 3681 01be
000002c0: c34b f2bd a36e 913c 2940 4f3d 21c2 153c
000002d0: 3f47 803d 09a0 da3d 0889 63bd 462c 753d
000002e0: 4f45 0fbd f870 3b3d f40f 04bd 7a83 d8bd
000002f0: 4f1a 153d 939c 643d f4aa 1a3d e198 2abd
00000300: 8d94 a13d b8f2 bebd 9120 693c e672 90bc
00000310: 2ee3 2dbe f61f d1bd 13f0 babd 5a5c 3f3c
00000320: ee24 933c f108 963d 69ac b7bd 8031 dbbd
00000330: 845f ac3d aada 013d da16 043e 3f86 963c
00000340: 088e 4a3d d6ff c33d 46c6 d7bc 0404 2ebc
00000350: d2f2 bfbd ea76 9cbd e1c6 89bd 2a98 823d
00000360: f029 c9bc 552c 023e 2b5e 243d 116e 513d
00000370: f250 c1bd b333 2ebd 0f22 7ebd 7a00 953d
00000380: f05b 20bd 7b7b 04bd 0eee 24be efcf 46bd
00000390: 22eb 2cbc 0684 e43d 5906 b33c 566e 33bd
000003a0: 7ba8 8bbd cad7 203e 8770 4bbd bda7 f3bd
000003b0: d323 8e3c 92cd ee3c 320b adbd acb5 efbc
000003c0: 2d1c 4bbd f2e4 cfbd 1332 203d 3efb 97bd
000003d0: e681 c83c 100a 45bc 2d31 8bbb dc0c efbc
000003e0: 2bd2 4abd b9ed 86bc d94d 06bd 4ed1 373d
000003f0: 2510 a8bd 3f9b ca3c 83fb a83d 3dd1 b43d
