transformer_results_random_no_constants_no_param_tune/performance_prediction/DE-GA-ES-PSO_random_no_constants_dim_10_samples_50_fold_9_budget_10_n_heads_2_n_layers_1_d_model_100_d_k_30_d_v_30_aggregations_mean/trained_model.pt (torch, 344953 bytes, 22 tensors)

weight f4 [100, 11]
00000000: c79e 50be 9101 053e 660d c6bd c1bc 8e3d
00000010: 5bcb d1bd 1800 793e 169f 473d e9b2 94be
00000020: ee41 de3d 84d7 823e cfef b9be 9ea1 323c
00000030: cf8e 083e f7dc 75be 5094 b7bd 4f55 0fbe
00000040: 3c23 29be 43aa 13be 7d74 fa3d 8e75 173e
00000050: 2caf ed3a 8629 d3be 2cc4 24be b31b c93d
00000060: b21a 3a3e 86d3 2cbe cb04 813d b953 8ebd
00000070: d47f 91bd 433e d53b 6fbd 2bbe 5c96 57be
00000080: f7fb b5bd c5e2 703d b31b a0be 4fd2 e43d
00000090: 8b54 22be f9cd debd 8917 333e f2db 0d3d
000000a0: 6761 15bd f73b 0a3d 761a f03c 30aa 4bbe
000000b0: bcaf 4abe 2ad7 043e 566d 7f3e 942a 71be
000000c0: b15a d83d f0f1 093e 2ae9 743e c478 93bd
000000d0: bfad c1bc 2f72 50be 1903 e43d 3fa2 153e
000000e0: 274a 963d 3184 81be 1032 9dbc dbef cc3d
000000f0: 302e 8ebd edc3 413e 35b4 f53d 9e45 55be
00000100: 7855 57be abf3 d6be 6f30 1abe 170e 6f3e
00000110: bcfe 833e 1a5e 393e d647 f7bd 60db 073e
00000120: 7264 55be 6308 86be d2d9 6fbe be90 313e
00000130: 28bb 4a3e d461 38be 18d9 9abc ad9f 743e
00000140: 8b7f 19be 4298 45be 9590 053d cbc1 583e
00000150: e8bd 46be a4c4 353d 2bc3 ddbd e1b2 fb3e
00000160: b377 c83a c300 3c3c 9526 db3b b391 36be
00000170: 3291 a0bb c425 d33d 36d0 bb3c eb08 e9bc
00000180: b253 603e 26be 1fbe cf34 babe c2ae 183d
00000190: 2507 83bb 90cf 90bb 1d6a 483e 0890 4bbe
000001a0: fa4e 81be 9ad2 cdbd 5fc1 2ebe b1df 073e
000001b0: aff6 993b e008 e3be 0fd9 84bd 6d1b 63bd
000001c0: f637 443e 6276 cc3d ceb6 1ebe 0186 92be
000001d0: 70ed 0c3c bf3b fdbc 9f42 4e3e 1085 e0bc
000001e0: acd1 e43e be88 34bc 2953 563e 6851 d93b
000001f0: 32ad 03be da36 22be 0054 e03d 3a01 c7bd
00000200: 305f 6d3e d248 cb3d 65b0 b1bd 766b c0be
00000210: a188 743e 8962 9a3e 980a 5a3e 88ff 833e
00000220: 3fc6 0dbe 5d07 e2bc 47fb 193e d6bf 1fbd
00000230: 0800 5bbe 5bc1 21be 8110 153f bf06 f2bd
00000240: d1ce 0fbe efa0 403e 904b 203e ff07 fdbd
00000250: 8617 ba3d 7f1c 14be 22ad 47be 94ae d0bd
00000260: b110 70be be38 5dbd 7b22 93be 34c7 7b3e
00000270: dcee 78be 8ea9 c03d ff43 693e 7568 28bb
00000280: 4f71 b0bd 1d3c 7cbd e1d0 1bbe 9477 ad3d
00000290: b1e6 9bbe daeb 8dbe 4cab 6cbe e6c5 dcbc
000002a0: b1df 293e be47 24bd e6a5 393e 10dc c73d
000002b0: 6859 8f3e 592f dc3c 32d4 1ebd c6ff 54be
000002c0: 8f24 f3bd 51ba c33c 9002 45be 18af 403e
000002d0: 8358 1bbe c566 853b ceec fe3c 0c5d 2abe
000002e0: ec1c adbd 38ff e93d 444c 0e3f 3673 0bbe
000002f0: 5cd9 76be b40c 8d3d cc74 143e 35eb 143e
00000300: 9f94 3c3e 0cd0 6ebd d893 1dbd 21b7 91be
00000310: ec52 3ebe dd16 683e 0957 ebbd edbe cc3d
00000320: cb8c 703e 6268 88be deee 96be 5803 3f3e
00000330: bc33 8c3e 05c5 acbd c603 5dbe ef1f 8d3d
00000340: 804a 08bf d333 72be d150 ea3d 7843 83be
00000350: 156d 76bc 4ffa 91bd 46fe f53d 54ab 7c3e
00000360: 692b aebd d879 f33c fcb0 343e 44fb b9be
00000370: b817 87bd 5a6c 463d 0bba 24be 1e10 b23b
00000380: d7b9 56be 2025 393e 146f 0f3d df97 4f3e
00000390: 1bc0 033e fe2a 56bd 5b5e a7bd f748 4b3e
000003a0: 1187 0fbe 8ebf 42be 0e37 51bc 62d7 403e
000003b0: e31d f53d 6c1c 8ebe 4cef 5cbe efde c6bd
000003c0: e8bc 993d ee3f 063e ac79 c33d b470 5f3e
000003d0: 4972 873e e2c3 30be accd b23c 8101 f13d
000003e0: efc2 abbd ef4e 34bd 6e5f 78be 2bfe a43d
000003f0: 46d6 04be d92f f7bd 3d85 05bd a946 1b3e
-0.20373069 0.12988879 -0.09670524 0.06969596 -0.10243865 0.24316442 0.0487357 -0.29042748
0.10852419 0.2555505 -0.36315772 0.01090279 0.13335727 -0.24010073 -0.08963835 -0.13997386
-0.16517347 -0.14420418 0.122292496 0.14790937 0.001813387 -0.41242617 -0.16090459 0.09819736
0.18174246 -0.16877565 0.06299742 -0.069495626 -0.071044594 0.0065076663 -0.16771482 -0.21053451
-0.08885949 0.058810014 -0.31271133 0.11172926 -0.15852563 -0.1087913 0.17489447 0.034633584
-0.036469843 0.033748593 0.029309493 -0.1988914 -0.197936 0.12972704 0.24944052 -0.23551399
0.10564173 0.13471198 0.2391707 -0.072007686 -0.023642419 -0.20356058 0.11133403 0.14612673
0.07338362 -0.25296167 -0.01918891 0.10006686 -0.06942403 0.18922396 0.119972624 -0.20827338
-0.21028697 -0.4198278 -0.15057538 0.23345219 0.25780284 0.18102303 -0.120742485 0.13267279
-0.20839098 -0.26178274 -0.23422936 0.17340371 0.19797957 -0.18006068 -0.018902346 0.23889036
-0.1499006 -0.19296363 0.032608587 0.21167676 -0.19408381 0.044376984 -0.10828241 0.4915991
0.0015294462 0.011474791 0.006687949 -0.17829017 -0.004900121 0.103099376 0.022926431 -0.028446635
0.21906927 -0.1559988 -0.36368415 0.037276037 -0.0039986544 -0.0044192746 0.19571729 -0.19879162
-0.25255567 -0.10049935 -0.17065953 0.13268925 0.0046985964 -0.4434271 -0.06486713 -0.055446077
0.19161972 0.09983517 -0.15499422 -0.28617862 0.008601531 -0.030912278 0.20142601 -0.0274072
0.44691217 -0.01101893 0.2093016 0.006632019 -0.12859038 -0.15841237 0.10953522 -0.09717031
0.23180842 0.09925999 -0.08676223 -0.37581986 0.23880245 0.301533 0.21293104 0.25780892
-0.13845156 -0.027591402 0.15037261 -0.03900131 -0.2138673 -0.15796416 0.5822831 -0.11817693
-0.14043738 0.18811391 0.15653825 -0.12355041 0.09086518 -0.14463995 -0.19499639 -0.10189548
-0.23443867 -0.05400919 -0.28737244 0.24587709 -0.24309868 0.0940734 0.22779845 -0.0025697027
-0.08615362 -0.061580766 -0.152164 0.08470073 -0.3044944 -0.27719003 -0.2311222 -0.026949834
0.16589238 -0.04010748 0.18129691 0.097587705 0.279979 0.026878046 -0.038776584 -0.20800695
-0.118722074 0.023892554 -0.19239259 0.18816793 -0.15170483 0.004071089 0.031118777 -0.16637057
-0.08452782 0.11425632 0.5558512 -0.13618168 -0.24106354 0.068871886 0.1449768 0.1454285
0.1841607 -0.058303878 -0.038471073 -0.2846003 -0.1858632 0.22664972 -0.1149121 0.09997354
0.23491208 -0.26642138 -0.29479116 0.1865362 0.2738322 -0.08436016 -0.2158347 0.068908565
-0.5323868 -0.23652582 0.11441196 -0.25637412 -0.015040656 -0.07127821 0.120113894 0.24674731
-0.085043736 0.029721186 0.17645639 -0.36324513 -0.06596321 0.048443176 -0.16086595 0.00543405
-0.2096933 0.18080568 0.03501804 0.20272778 0.12866251 -0.052287094 -0.08172294 0.19852053
-0.14016367 -0.19018385 -0.012769474 0.18832162 0.11968591 -0.2775606 -0.2157566 -0.0971049
0.07506734 0.13110325 0.095446914 0.21820337 0.2645438 -0.17262223 0.021826588 0.11767865
-0.0838679 -0.04402059 -0.24255154 0.08056291 -0.12972364 -0.12069673 -0.03259777 0.15163673

bias f4 [100]
00000000: 4a68 c3bd 1d46 d13c 6ea1 b03e d947 2ebe
00000010: 4156 a73e c517 233e b6fa 03be a7f3 563e
00000020: cb04 1d3c 8940 86be 14eb d2bd 286d 923e
00000030: 7cd3 27bd a9c3 3bbe 5082 b3be f2d2 b4bd
00000040: 1b26 02be 6148 133b c816 543e 1b49 2abe
00000050: 7b98 6b3e 59ca 82be 7c8a 0f3e 6d05 a0be
00000060: 5479 8d3e 6b1b ec3d 3f72 283e 5ec6 3cbd
00000070: 6a8e 6c3e 1296 c9bd 3fda e3bd 6daf 103e
00000080: b1fe 593e 3a4f b63d 739d d63c 7d85 c53c
00000090: d370 893e c5ec bfbd 8798 16be 916b 08be
000000a0: d47a 383e ee6d 913d e1b0 b73c 3d56 103e
000000b0: 2052 0b3e e569 84bd 4bf2 91bd d8fb 8d3e
000000c0: 74be a9bd 8161 49be a974 9f3e fec5 8e3e
000000d0: 852b 46be c9e7 943e 5f2d 84bd 675d de3d
000000e0: ce8e c8bc dbe5 29be 8fb6 223e 4a5d 32be
000000f0: 6eac 65be baa3 6cbe 4a79 34bd e98a 88be
00000100: 6508 afbd d0bd 683e 96d4 553d 60a5 90be
00000110: fe55 67be d6bb 87be f218 47be f67b d83d
00000120: d3bf e2bd 6536 463c e3b4 9f3d 1a2e 193e
00000130: 4131 833e bfb9 0ebe d817 0f3e 5a7c 08be
00000140: 7a9c a33d eb62 243e 88da 2fbe 76fe b9bd
00000150: a73c bdbc e87b 9b3e 5182 c4bd 8864 553e
00000160: c86a 0b3e e08f a43c 6c36 b03e 2d18 21bc
00000170: 3ef1 ef3c 7724 93bd c035 883d 0f0d 78bd
00000180: a828 8d3d cefe 6bbe fa96 21be 29a1 05be
-0.09541376 0.025546128 0.3449816 -0.17019595 0.32682994 0.15927036 -0.12888607 0.20991383
0.009583662 -0.2622111 -0.10298744 0.28598905 -0.04097317 -0.18336357 -0.35060358 -0.08829297
-0.12709849 0.002247356 0.20711815 -0.1662945 0.23007385 -0.25545004 0.14017671 -0.3125414
0.2763163 0.11528667 0.16449831 -0.046087615 0.23101202 -0.09843077 -0.111256115 0.1412942
0.21288563 0.0890183 0.026198125 0.024111504 0.2684389 -0.09371332 -0.14706622 -0.13322283
0.18015605 0.071010455 0.02242321 0.14095397 0.13605547 -0.0646551 -0.07126292 0.27731204
-0.08288279 -0.19666101 0.31143692 0.2788543 -0.19352539 0.29083088 -0.06453966 0.10857659
-0.024482157 -0.16591589 0.15889953 -0.174184 -0.22429058 -0.23109332 -0.044060983 -0.2666848
-0.08546523 0.22728658 0.05220469 -0.2825117 -0.22591397 -0.26510495 -0.1944311 0.10570519
-0.11071744 0.01209793 0.07798173 0.14958993 0.25623515 -0.13938044 0.1397394 -0.13328686
0.0798883 0.16053359 -0.17173207 -0.09081738 -0.02310021 0.3036797 -0.095951684 0.20839131
0.13614953 0.020088136 0.3441652 -0.009832424 0.029289838 -0.071846895 0.06650877 -0.06055933
0.0689252 -0.23046419 -0.15780249 -0.13049759

weight f4 [60, 100]
00000000: a202 c23d 5aa7 66bd 3bc9 313d 47ef 01bd
00000010: 7754 c83c a75e 953d ba80 47bd cb48 c2bd
00000020: 5164 dd3d 1cd2 dc3c 876a 96bd 70cf 11bc
00000030: c30c 49bd 8ba1 94bd 92e8 973c 9c9b c6bd
00000040: 30d0 49bd 1f8a 93bd 4a05 fc3b 5d25 cf3d
00000050: bb4e 9dbd 8bc7 af3c 7ba6 ee3c 4fa5 97bd
00000060: 0768 4b3c 3957 f0bc 05b6 02be 3486 b23d
00000070: 91e6 f53d 5211 873d dced 03be 4fa1 a33d
00000080: 1bc6 9cba 5fab 993d 9c45 e8ba 6274 d73d
00000090: ac27 20bc f2c7 8ebc d0e4 f3bc 1f2d a9bd
000000a0: c049 e63d 7f34 c73d 36fa 90bd 9d38 103e
000000b0: f6fc 6fbc a552 c3bc a16d 0dbd 84e1 60bd
000000c0: a76a b1bd 4896 51bd 0625 943d aff8 283d
000000d0: 48e7 9d3d 858c bd3d d856 ab3d 552e cfbd
000000e0: e08e 893c 8c61 4f3d b0d0 143c 66c8 fe3d
000000f0: bede ea3d 637b 113e e4aa dcbd 0baf 6ebc
00000100: f7df abbd bc4c 6fbc 012c babc 538a a9bd
00000110: 1830 38bd 90b1 073e e374 01bd 2228 183b
00000120: c663 073d f4ee c13c ab27 033e bf1e 4b3b
00000130: ff43 863d 9123 8c3c ade3 ab3d ae94 5fbd
00000140: 89dc 1a3e 67e7 b0bb 3bde c63c ea07 a2bd
00000150: 042d f83d cd57 88bd 5223 04bd eba5 353c
00000160: 230e 863c 0007 0abe fbaf 84bd 1219 8e3c
00000170: 7670 c43d 41f1 50bd deda d93d bef2 ddbd
00000180: c7f7 2dbd ede7 143e 3178 16be 67a2 a1bd
00000190: 61f6 8abd 5702 a3bb acb9 b43d 2a4c f73d
000001a0: a1be 463d 1d5a 0dbd 88ea 9ebc 32a1 f7bd
000001b0: 9bd8 95bb e31d cbbc 2fe7 08be 60ab 77bd
000001c0: 9fb4 a3bc d40a babd 7c9e 1f3d 1fb7 0ebd
000001d0: 6d27 cfbd f3ad 7bbd 6467 133e 4fce 783d
000001e0: 9153 f6bd ecec 07bd 060a 243c e62b 943d
000001f0: a40f 86bd 9807 6e3c ead3 9eba b311 92bd
00000200: a8dc a83d 2b1a 1ebd f03f 7bbd 641c 1abd
00000210: fcb8 a0bd 4882 fc3d 356a de3c e8e4 39bd
00000220: 5598 5cbd 6ae8 c03d 5c1d 56bd 51a8 fdbc
00000230: 848c a43d c778 923d 2b87 463c 00e0 2e3d
00000240: a8fc a7bd 0e28 b0ba 490c a13d 1477 513c
00000250: 0e82 0abd f06b 7dbd b7fe a5bd 0b32 9b3d
00000260: 4cd1 9abd 079c 18bd 7039 9b3b 1e37 333d
00000270: 056b 0a3e c89a 03be 1a72 06bc 1980 133a
00000280: ace7 f83d e5aa 67bd 4bb6 66bd db55 6abd
00000290: 45ac da3d 10f2 ed3d 3e2e 013d 2cdc bcbd
000002a0: 879d e83c a4d3 cdbb afa1 153d b9a6 d9bd
000002b0: fd4e 473d 99c4 b7bd e2e5 5abd d0c6 e5bc
000002c0: 1c69 993c 89ac ec3d c965 013d 5f0f 133d
000002d0: 23a0 83bd fd54 1b3d 3f31 8dbc 0bc3 f6bd
000002e0: b4c5 6b3d 3534 d8bc 947c a5bd 5e8e be3d
000002f0: d195 05bd d655 6d3d a1fb c2bd 62ca 913d
00000300: 722b b1b9 e3b7 61bd 0988 aebd 4276 06bd
00000310: 3317 a13d ece5 6e3d 87a3 2d3d a232 55bc
00000320: b8d7 b03d 65a0 6e3d 84f0 423d 5d49 c93c
00000330: f18c aabd fd47 77bd 598c 163d a32a acbd
00000340: c91c 003e fe78 c83d d84b 00bc 69fc 44bd
00000350: a009 7ebd 2868 a1bb e96f f83d dbc7 66bc
00000360: eed1 e1bd 0adc 8ebd 739a fd3d b693 1f3d
00000370: 161a 91bd 5696 a1bd 4bfc 793d 90c9 dabc
00000380: 000a 4f3d 6c88 52bd e3ea 58bd 9bc4 3e3d
00000390: ce4f 70bd 0e0f 893d 8674 06be f892 8ebd
000003a0: e77e 19bd 84a6 853c e39b 013e b5ca ad3d
000003b0: 8f09 113e f219 b1bc a960 3e3c a53b 88bd
000003c0: f227 e6bc 2afa 99bd 29bc bcbc 036d 7abc
000003d0: 7fa3 12bd 469c db3d 3102 e13d bd44 013c
000003e0: 332d c73b 70d9 033d 1404 97bd 342f 593c
000003f0: a979 e3bd 8d33 903b 08d4 3ebd cc6e 743d
0.094731584 -0.056311943 0.0434048 -0.031722333 0.024454338 0.07293444 -0.048706748 -0.094865404
0.108101495 0.026955657 -0.07344537 -0.008899555 -0.049084436 -0.072573744 0.018543515 -0.09697649
-0.04927081 -0.07204079 0.00769106 0.10114548 -0.07681032 0.021457454 0.029132118 -0.07404577
0.012414939 -0.029338466 -0.12764747 0.087170035 0.12006868 0.065951005 -0.12883705 0.079897515
-0.0011960895 0.075033896 -0.001772094 0.10520245 -0.0097750835 -0.017429326 -0.029772192 -0.08260559
0.112445354 0.0972681 -0.07078974 0.14084096 -0.014647713 -0.023843119 -0.03452838 -0.05490257
-0.086629204 -0.05116871 0.07233624 0.04125279 0.07710129 0.092553176 0.083661735 -0.10116259
0.01679176 0.050630137 0.009082958 0.12440567 0.11468266 0.14207225 -0.10774782 -0.014568101
-0.08392327 -0.014605697 -0.02272606 -0.082783364 -0.04496774 0.13251328 -0.031605612 0.002321728
0.033054136 0.023673512 0.12808101 0.0030993668 0.06555938 0.017106803 0.08393035 -0.05458515
0.1512319 -0.005398679 0.02427589 -0.07911666 0.12117961 -0.06657372 -0.032260247 0.011086921
0.016364163 -0.13479233 -0.06478878 0.017345939 0.09591763 -0.051011328 0.10637449 -0.10837315
-0.042472627 0.14541598 -0.14694287 -0.07892304 -0.06785274 -0.004974644 0.088244766 0.12075074
0.04852164 -0.034509767 -0.019398943 -0.120912924 -0.0045729405 -0.024794525 -0.1336944 -0.06046617
-0.019983588 -0.090840966 0.0389695 -0.034842607 -0.10114942 -0.061445188 0.14394909 0.060743626
-0.12027658 -0.03318493 0.010012155 0.072349355 -0.06545952 0.014528178 -0.0012117599 -0.07132282
0.08245212 -0.038599174 -0.061340272 -0.03762473 -0.07847783 0.12329537 0.027150253 -0.045384318
-0.053856213 0.094193295 -0.052274093 -0.030964049 0.08034614 0.07151943 0.0121171875 0.04269409
-0.08202487 -0.0013439672 0.07863671 0.012784738 -0.033815436 -0.061870515 -0.081052236 0.07577904
-0.075594515 -0.037258174 0.0047370717 0.043753736 0.13517387 -0.12852013 -0.008205915 0.0005626693
0.12153563 -0.056559462 -0.056326192 -0.057210784 0.10677389 0.116184354 0.03153824 -0.09221682
0.028395427 -0.006281333 0.036531147 -0.10627503 0.048659313 -0.08973045 -0.05344189 -0.028048903
0.018726878 0.11556346 0.03159121 0.03590333 -0.06427028 0.037922848 -0.017235396 -0.1204892
0.05756159 -0.026392082 -0.08080402 0.09304498 -0.03261358 0.057943188 -0.09520651 0.071186796
-0.0003379244 -0.05510701 -0.085220404 -0.032827623 0.07865753 0.05832474 0.04239228 -0.01301256
0.08634895 0.058258433 0.047592655 0.024571115 -0.08327664 -0.060371388 0.03675494 -0.0840657
0.1251098 0.097887024 -0.007830583 -0.04809228 -0.062020898 -0.0049257465 0.1213072 -0.014085735
-0.11026369 -0.06975563 0.123829745 0.038959228 -0.070850536 -0.078900024 0.06103162 -0.02670744
0.050546646 -0.051399633 -0.05295838 0.046574216 -0.058669858 0.066923246 -0.13130388 -0.06961626
-0.03747454 0.016314752 0.12657122 0.08485929 0.14163803 -0.021618817 0.011619725 -0.06652001
-0.02809522 -0.07518418 -0.02303894 -0.0152847795 -0.035800453 0.10723166 0.10986746 0.007889924
0.006078386 0.032189786 -0.07373825 0.013255883 -0.11107189 0.0044006766 -0.046588928 0.059675977

weight f4 [60, 100]
00000000: 195b cebd f587 a7bd 850b 94bc 2acd 963b
00000010: dd0f 8bbd 5f77 993a 8a0f 3a3d 69ef 883d
00000020: b5c5 71be f96d f63c 1ed2 b9bd 7c5f 12be
00000030: 3e9d d23c 1914 953b 1689 5f3d 7442 63bd
00000040: 3cfb a73d b3f9 133d 1120 833d 583d d6bc
00000050: e14e ebbd e169 4abd 0a66 1dbc fc1c f3bc
00000060: fb73 fcbd b373 a03d e7e6 52bd 6d30 b2bb
00000070: da85 86bd 4759 03be 7658 06ba b2a2 c13d
00000080: a7d0 153d 60b4 94bd c528 65bd ab37 873b
00000090: 2e64 d3bc b7ac 63bd a866 30bd 52fe 9d3d
000000a0: d34b 2d3d 07e4 c7bd a49c ebbd 9ea0 9cbd
000000b0: 0d35 9dbc 72ff 0fbd c6a6 6cbd 206b 003c
000000c0: 19fb d63d 12d8 1abc 22ad 84bd 85a5 603c
000000d0: c088 20be 40c0 eb3d 6ad3 723c c273 43bd
000000e0: 96ad 033d d322 2dba 010d f3bc 83ef 643b
000000f0: b135 3a3d 76e2 d9bc 9907 a53a 87db 173d
00000100: 6959 af3d 2012 5f3d eec1 b3bc d9ca aebd
00000110: d8ea edbc 16aa e3bd 073f e93b be13 79bd
00000120: 11ea 04be 3e60 053d 06a7 f23b 621f e83d
00000130: 2c46 ab3d e16a 93bc 4807 15bc 00f5 9bbd
00000140: bd11 813d cfd7 2ebd bc29 563d 1129 0ebd
00000150: 739d a2bc c50b afbd 44cb b5bb 4e38 8c3b
00000160: 57b7 38bd 61c9 a9bd c70f 113d 4880 483e
00000170: 6d9e ce3c c2d2 ccbd 104a f1bd e595 063d
00000180: e21f 8f3d 4aca 30be 5bee b13d 444f 913d
00000190: 1502 29be 90dd c1bd 4d80 593d 5d34 68bd
000001a0: eaa4 a53d 67a2 76bd d06f 983d f58a 37bd
000001b0: 89a3 f6bd a93f 613d ef8c bd3d 4052 e23d
000001c0: 5b55 343d 93da df3d 339e e13d 32ea c6bd
000001d0: 4eff 7c3d 77d7 203e 902c e63d 1d36 77bd
000001e0: 5835 80bc f159 07be 47e6 9a3d c8af 50bd
000001f0: a0d8 00be 4332 463e 386f 503d 5a46 9fbc
00000200: dcf0 adbd 9404 21bc e4c5 1e3d 8ebd 66bc
00000210: 1049 c9bb 50cf ae3d e8be 58bc f64e 8ebd
00000220: 044a e9bd faa7 94bd 7573 afbd 0f8a 0ebd
00000230: ec0a cc3d 09cd b7bd 20b5 30bc ad80 0c3d
00000240: 0067 ae3d e06f b93c b57c 64bd bb4a 60ba
00000250: 4d84 b7bd a730 c03d b094 32bd e61d 9e3c
00000260: e494 963c 4384 cdbb 8dde ccbd bc39 913d
00000270: b02b c6bc c5f0 043e 9520 033d 77c7 413d
00000280: 4295 3dbd fde5 a43d 3687 9a3d b521 ef3d
00000290: 38a4 ea3d e09f febd 6fd0 a03c 7a31 8bbd
000002a0: 075a 54bd 3bcf 16be f063 a53d 2136 bf3c
000002b0: 1e45 29bd 099e cc3c cbe2 12bd 6e0f f8bc
000002c0: 177b 30bd b852 a2bd 9855 2abd d828 d5bc
000002d0: def6 073c 7d68 693d ddae 0abb 3f7a 68bd
000002e0: 05f2 dd3b cfb5 0ebc a47b febc d516 26bc
000002f0: f72e 443d f271 01be 10dc fa3b cd75 393d
00000300: b89e b2bb c8f8 1dbe 0d5f e0bd 33f1 e3bc
00000310: eba9 703a 0552 49bd c98e 983c 4be3 663d
00000320: 2726 bbbd 779b e6bc 6402 513d be43 5bbc
00000330: b508 af3d b0fe 00be 2928 fa3d 8ce5 6f3d
00000340: 8a7f e1bd 6370 dabc 9477 f73b 28a7 2b3c
00000350: 5ab1 923d 5de0 fe3c d80b 6b3d 022a c0bd
00000360: ce10 fd3d 796b d53c edd9 9d3d f923 f5bd
00000370: e107 abbd fe7b bcbd 7c8e 8cbc e4ce 053e
00000380: d9a9 cbbd f4f8 273e 4a49 083e e525 e13b
00000390: ac5e ae3c cc3f 0c3d f902 b63d 47c8 f33d
000003a0: d3ce 7abd 51b9 89bc 0ccf 7abd 221e 61bd
000003b0: f61d f93c 00e6 5abd ca27 cebd 6156 dc3c
000003c0: e1cf f33c b761 c7bd 206a 843d 30cf 4dbd
000003d0: 0043 6abc 907b ab3d 71b1 40bd 64c5 d1bc
000003e0: 53a3 55bc 1171 de3d 37b3 24bd 7806 3d3c
000003f0: 6a61 36bc a6b0 dcbd 5180 063d 7235 76bd
-0.10075969 -0.081802286 -0.0180719 0.004602094 -0.06790135 0.0011708549 0.045424975 0.06686289
-0.23610575 0.030081736 -0.0907328 -0.14294237 0.025709745 0.004549515 0.054574095 -0.055483297
0.08202216 0.036126804 0.064026006 -0.026152298 -0.11489654 -0.04941738 -0.009606848 -0.029676907
-0.12326809 0.07834568 -0.051489737 -0.0054379017 -0.06568499 -0.12827025 -0.0005124876 0.0945486
0.03657594 -0.07260966 -0.055947084 0.004126509 -0.025804605 -0.055584636 -0.04306665 0.077145234
0.04230864 -0.0976029 -0.11504486 -0.07647823 -0.019190336 -0.03515572 -0.057776235 0.007838041
0.10497112 -0.009450929 -0.06478335 0.013711338 -0.15677166 0.11511278 0.014820913 -0.047717817
0.032147966 -0.00066046155 -0.029669287 0.00349328 0.04546136 -0.026597243 0.0012590765 0.037074592
0.085619755 0.054460645 -0.021943059 -0.08534784 -0.029042646 -0.11116426 0.007118109 -0.060809843
-0.12979914 0.032562487 0.0074051647 0.11334111 0.083629936 -0.0179953 -0.009095974 -0.076150894
0.063022114 -0.04268628 0.052285895 -0.034707133 -0.019850468 -0.08547167 -0.005547913 0.004279173
-0.04509672 -0.08290363 0.035415437 0.19580185 0.025222028 -0.10001136 -0.117817044 0.032857794
0.06988503 -0.17264667 0.08688041 0.07095197 -0.165047 -0.09466088 0.053100873 -0.056690563
0.080880955 -0.060213473 0.074432015 -0.044810254 -0.120429106 0.05499235 0.092553966 0.11050844
0.044026714 0.109303616 0.11016502 -0.09712638 0.061766915 0.15707193 0.11238968 -0.06035434
-0.015650436 -0.13217904 0.07563453 -0.050948888 -0.12582636 0.19355111 0.050887316 -0.019442726
-0.08493206 -0.009827752 0.038762942 -0.014083279 -0.006142743 0.085356355 -0.013229109 -0.06948654
-0.113910705 -0.072586015 -0.085669436 -0.03479963 0.09963021 -0.08974654 -0.010785371 0.034302402
0.085157394 0.022636354 -0.055782992 -0.00085560576 -0.08960781 0.0938428 -0.04359883 0.019301366
0.018381543 -0.0062718703 -0.10003386 0.0709109 -0.024190754 0.12982471 0.032013495 0.047309365
-0.04628492 0.08051679 0.07545321 0.11676351 0.114571035 -0.124328375 0.019630639 -0.06796546
-0.05184367 -0.1472749 0.08075702 0.02334124 -0.04132568 0.0249777 -0.035860818 -0.030280795
-0.043086138 -0.079259336 -0.041585535 -0.026020452 0.008298604 0.056984413 -0.0021161356 -0.056757208
0.0067732357 -0.008710339 -0.031064816 -0.0101372795 0.04789635 -0.12641123 0.007655628 0.04527836
-0.0054510497 -0.15426934 -0.109556295 -0.027824974 0.0009180593 -0.049150486 0.018622773 0.056369107
-0.09138136 -0.028150303 0.05102767 -0.01338285 0.085465826 -0.12597156 0.12214691 0.058568522
-0.11010654 -0.026664918 0.0075520966 0.010476865 0.071627334 0.031112844 0.057384342 -0.09383012
0.12356721 0.026052224 0.07707582 -0.11969752 -0.08351112 -0.09203337 -0.017157786 0.13067204
-0.09944505 0.16403562 0.13309208 0.0068709725 0.021285377 0.03424053 0.08887286 0.11903434
-0.0612324 -0.016811999 -0.06123261 -0.054960378 0.030409794 -0.053442 -0.10066183 0.026896657
0.02976221 -0.097354345 0.06465554 -0.050246418 -0.014298201 0.08373177 -0.04704422 -0.025606818
-0.013039428 0.108614095 -0.040209975 0.011537187 -0.011131624 -0.107758805 0.032837216 -0.060109563

weight f4 [60, 100]
00000000: be7b a0bc 9f8a 8f3d 2c6a b9bb 91fb b5bd
00000010: 376a 99bc 14dd c5bb ba60 613c 535d a3bd
00000020: 35da 6c3d 6ece 04bd 07c6 c9bd 52af 2fbc
00000030: 5639 573c 1fd6 6d3d 1de8 a3bc 5cff f6bc
00000040: 83df 8fbd 5a75 503d 13d5 d43c ae77 e63d
00000050: 2de4 003d 8257 1ebd 6d3e 383d f60e 37bd
00000060: 57b4 36bb 111f e53c 6218 92bd 5cf5 ac3b
00000070: a508 7bbd 7a75 f5bc a0cc eabc 2057 533d
00000080: a334 b0bd 0dd8 a93d 58a8 be3d ae2b 21bc
00000090: 5f1e 55bc 5b41 0e3e e5eb 90bd c0b0 a83d
000000a0: e8bc 3dbd 9e88 afbd 844b 5dbd 7ed2 163d
000000b0: 4d1d 92bd aa14 943d bf29 04ba dac4 013d
000000c0: 51b8 983c 031d 27bc fd37 2cbd 79a9 5dbd
000000d0: fd30 4fbd 749b 373d 13c8 7dbd e0db a1bd
000000e0: 1a6b 84bc 3b0e afbd 1d7e 91bd de17 3bbd
000000f0: d8e2 63bd 7291 8fbc f3fb 70bd d725 9dbb
00000100: d086 063e 70a9 663d 2d53 d6bc 30b8 a9bd
00000110: 6e17 a3bc 248f 013e 1189 38be b546 32bd
00000120: c31c a53d 701c 9cbb c5bd 343d a75e b8bd
00000130: f5d4 04bd 7f61 a2bd a051 45bd 7a0c 743d
00000140: 4489 b13d e8d8 df3d 4d5c 9bbd 505b 19be
00000150: 9732 673d f78b 7a3d c745 b4bd 0f61 13bd
00000160: 2d01 3f3d 461d e3bc 78b3 aa3a 277a c1bd
00000170: 3920 733d b4b5 2fbd c442 133c 4669 a6bd
00000180: 6cfa 06bd cadf 7dbd 7a70 9fbc cac3 ac3d
00000190: ab87 5a3c ba14 6d3c 710a a83d 15d8 8f3d
000001a0: 0b34 123d 9257 143e b2f3 f0bd 248e 98bd
000001b0: c2ae 8f3b 16dd 683c 536e b1bc 4d6c ab3d
000001c0: 3ae6 a93c 5ce4 cb3c a293 6c3d df2e 503d
000001d0: 5ae8 c9bc 637a 743d 7e0a cabc 29b4 b33a
000001e0: 729d 16bd 1eb2 3cbd 9129 8e3d 712c ba3d
000001f0: 4ea5 153e bd58 9b3d e82a b5bd 2dbd af3c
00000200: 96ef 3cbc d484 3bbd 5720 023d d686 d5bd
00000210: 7d6d 1cbd 98e6 83bb 8579 323d 5ccf 123e
00000220: 2e40 0c3e 7c6d 183e 2924 89bd 94c7 b63c
00000230: 1f92 a6bd 640c 503b a474 16bc b560 d43d
00000240: 7f4c abbd 6c55 39bd b67d 143e 8ae4 26bd
00000250: e1c8 7a3d 28b3 cc3b da8f 893d 846b 433b
00000260: 1394 9bbd 20d4 49bc b81c cb3c f5ee 143d
00000270: 97c4 1a3d 9099 853d 446a 81bc ec44 423c
00000280: 2c83 213d d1a9 4fbd 0aea 3dbd 6041 ec3d
00000290: ee46 5a3d 2423 1a3e ff9c a5bc 5d3a a13c
000002a0: 8cbf 1b3d 126d 273c abc6 a1bd f557 20bd
000002b0: 28fb a83d 2d1a bebd 5449 22bd be05 cabc
000002c0: 6242 72bc 2eed b03d 79c3 d1bc 4e83 c43d
000002d0: 9289 d23d 43dd 9fba 62f9 f8bd a7ef 91bd
000002e0: eaaa 183d feef 8abd ff0f 10bd e52e 43bc
000002f0: 7ac1 dcbd 7157 9f3d ad6b 66bc 27c5 8bbd
00000300: 506b 64bd 6efb 083e c840 95bd f089 e6bd
00000310: e1ab 06be ff5a 05bc 5ae4 04bc 8910 adbd
00000320: 6786 c3bd e951 88bd 8a63 403d 5514 eebd
00000330: 35e9 423d b6ae 883d 1325 78bd 9398 5f3d
00000340: 731a febd cf68 b83b 01cb 303d 80a6 ed3b
00000350: f86b f53d 484c 75bd 98cc e5bc 63da c2bc
00000360: 8f0e 253e e9bd 503d a1bd ccbd f359 06be
00000370: 5404 103e d85c 5bbc bdff d5bd ec89 5c3c
00000380: 4b3a 16be 7e0a 36bd f0a4 b23d cf8d 6e3d
00000390: 654d 843c 92af 6d3c ec4e 603d 0644 c23d
000003a0: 20bd a03d c306 c0bc 899e 13be 2b47 81bd
000003b0: e820 8dbd 2049 83bd 124f 5bbd 470d 073b
000003c0: b63b 873d 107a 8dbc b0e6 03bd 827f 6cbd
000003d0: 44a5 c9bb b378 60bd 2691 f83c 4abe a13c
000003e0: e759 dc3d e2f6 fcbc 94a8 c03d aa9f 673d
000003f0: 48f3 753d 5a00 cebd c2a9 503d 4e2d bc3d
-0.019590255 0.07008862 -0.0056584086 -0.08885873 -0.018727405 -0.0060383175 0.013755972 -0.079767846
0.057825286 -0.03242343 -0.09852224 -0.010722952 0.013136229 0.05806553 -0.020008141 -0.030151062
-0.07025053 0.050893165 0.025980508 0.11253296 0.031467605 -0.038657673 0.04498141 -0.044692002
-0.0027878487 0.027968915 -0.07133557 0.0052782726 -0.06128754 -0.029963244 -0.028662026 0.05159676
-0.0860379 0.082931615 0.09309453 -0.009837074 -0.013007729 0.13892119 -0.07076243 0.082368374
-0.046322733 -0.085709795 -0.054027095 0.036821835 -0.07134495 0.07230504 -0.0005041621 0.031681873
0.018642576 -0.010199788 -0.042045582 -0.0541167 -0.05058383 0.044825986 -0.061958384 -0.07903266
-0.016164351 -0.08547636 -0.07104132 -0.04567706 -0.055636257 -0.017525408 -0.058834027 -0.0047957706
0.13137364 0.056313932 -0.026162708 -0.08287084 -0.019908633 0.1265226 -0.18021037 -0.043524463
0.080621265 -0.004764132 0.04412629 -0.090024285 -0.032429654 -0.07928752 -0.048173547 0.05958221
0.086687595 0.109300435 -0.07585964 -0.14976239 0.05644473 0.061168637 -0.088023715 -0.035981234
0.04663198 -0.02772392 0.0013023457 -0.09447127 0.0593569 -0.042897895 0.008988086 -0.08125548
-0.032953665 -0.061981 -0.019462813 0.08435781 0.01333801 0.014470274 0.082051165 0.07023636
0.035694163 0.1448653 -0.11765231 -0.07448986 0.0043848464 0.014212867 -0.021659052 0.08370266
0.020739663 0.024889164 0.05775798 0.05082595 -0.024646927 0.05968703 -0.024663206 0.0013710308
-0.036771245 -0.046068303 0.06941522 0.09090508 0.1461384 0.07585285 -0.08846074 0.02145251
-0.011531731 -0.04578097 0.031769123 -0.104261085 -0.038190354 -0.0040252917 0.04357292 0.14336914
0.13696358 0.14885515 -0.0669635 0.022311963 -0.08133339 0.0031745667 -0.009183083 0.10370008
-0.083642 -0.04524748 0.1450108 -0.040745296 0.06122673 0.006246943 0.06716891 0.0029818723
-0.07596602 -0.012318641 0.024793968 0.0363607 0.03778514 0.0652343 -0.015797742 0.011857253
0.039431736 -0.05069906 -0.046365775 0.11535907 0.0532903 0.15052468 -0.020216463 0.01968115
0.03802447 0.0102188755 -0.07899221 -0.039146382 0.08251029 -0.092823364 -0.039620712 -0.024660941
-0.014786335 0.086389884 -0.025605904 0.09595357 0.10280146 -0.0012196678 -0.12156941 -0.07125788
0.03727237 -0.06784056 -0.035171505 -0.011913036 -0.1077909 0.0778035 -0.014063758 -0.06824713
-0.055766404 0.13377163 -0.07287747 -0.11256778 -0.13151504 -0.008139371 -0.008111084 -0.084504195
-0.095471196 -0.06656248 0.046969928 -0.11624972 0.047585685 0.066739485 -0.06058223 0.054588865
-0.124073885 0.0056277285 0.04316235 0.0072525144 0.11983484 -0.0598872 -0.02805166 -0.023785776
0.16118835 0.050962362 -0.09997106 -0.1312025 0.14064151 -0.013388835 -0.10449169 0.0134606175
-0.14670675 -0.0444436 0.087228656 0.058240708 0.016150186 0.014507191 0.054762766 0.09485631
0.07848573 -0.023440724 -0.14415945 -0.06312402 -0.06891042 -0.06410432 -0.053542204 0.002060728
0.06603186 -0.017270118 -0.032202423 -0.05773879 -0.0061537344 -0.054802608 0.03034265 0.019744057
0.10759335 -0.030879442 0.09407154 0.056548752 0.060046464 -0.10058661 0.050943144 0.09188329

weight f4 [100, 60]
00000000: 1de5 ca3d 4922 bcbd cd41 1e3e c18a dcbd
00000010: b380 1bbe 2832 24bd 5dee 37bc afb3 e6bd
00000020: e4ed b4bd 3632 cc3c 7d19 093b 5f99 11bd
00000030: 3945 a8bd 21cb ad3d 71d9 97bc c7e6 763e
00000040: b3eb 463e 841d d83d 0690 723d 3d44 9f3c
00000050: fc71 61bd dc65 353e 016d 963d 9e3e 1a3e
00000060: 6abf 703d 3c38 a0bd 3c5c 2d3e 92b4 d43d
00000070: e2ca 5e3d 25f2 00be 41fe c5bd 8fbc e3bd
00000080: 5298 953d b6d0 b43c d4c7 f6bb 651e f13d
00000090: 7be9 763d 6764 083e 9744 13be 7e6f ba3c
000000a0: e8b0 ff3c dd97 1d3d 5a70 7bbc 6ba1 663d
000000b0: 9ad7 99bd 920c 30bd f43f 9cbd 4678 4e3e
000000c0: 6da9 2d3c 50e6 2f3d 1330 10be 48b8 a53d
000000d0: 5773 823d 45a8 27bd cdc6 23bd af31 febd
000000e0: 9f97 303d 6b06 923d 0b34 87bd 3322 c1bd
000000f0: 699e 02bc 1d20 d93d 9577 5ebd 9e0b 263d
00000100: cee9 953d a24e e6bb f905 2a3e ec2f 2fbc
00000110: daa2 35bc 6347 0ebd 4ce9 e43d 334f 893d
00000120: 3105 273e 1bd0 0dbe 699a 1fbd b6a0 273c
00000130: 3f33 53be b87c 6e3d d052 3e3d fc9b 11bd
00000140: 9196 283d 9546 28be 4c23 d0bc dcc9 833d
00000150: 12e2 05be c19d 143d c647 10be 0537 d33c
00000160: 05d4 173d 2096 603d d4ec b73d 3c13 e53c
00000170: 9176 563d 29a2 bfbd fe31 463d 6c61 9cbd
00000180: d880 a7bc 7b81 b1bd 214b 91bd fcff f6bd
00000190: 51ea 303c 526e 7fbd 9248 c6bd 06b6 80bc
000001a0: 8a5c 133d 93fc f6bd 312c 363e be27 13be
000001b0: b8fc bf3c d359 303e c25a 97bd 55fa 35bd
000001c0: 63f9 49be 79c6 343e 04c8 763d 64bd b93d
000001d0: 4643 89bd 26ff bd3c 9d5f 94bd ecea e0bd
000001e0: ca60 debd 8ae1 1f3d 711f b3bd a3a9 0c3d
000001f0: e8d4 62bd 0f1f 343c ae8d 993d b401 073e
00000200: 52c8 823d 9e18 973d 9611 e5bd 48cb 2cbd
00000210: 6196 833d 32e9 9abd 8629 07be 3d6d 03be
00000220: 6d50 893d f889 a63d adc1 0ebe ea6c e4bd
00000230: 395f 7a3c 3509 11be 0881 12be 8845 8abd
00000240: 7afa 353d d18a 27bb c3f2 6f3d 5f1f 09bd
00000250: cb31 f7bd 2c2c e53c 5dc6 9f3d cb2b fe3d
00000260: 3dcd 6c3d e3ec e2bd 4fe9 83bd de0b d93c
00000270: e947 d2bd 8876 fabd ff70 0b3e 32d0 18bd
00000280: c800 6c3d 6fb9 453d c7b9 633d 29c2 1e3e
00000290: 21b6 2f3d fee2 febd b0ae 0a3e 5ccf 04be
000002a0: 012a 843d 323d 8abc a5c8 403d fc40 1bbe
000002b0: db87 37be cad5 c63d e07e 033e 37fb 2fbd
000002c0: a408 56bc 6ccd 903d b16c f8bb 7044 943c
000002d0: 598e 923d c548 57bd 7f56 2dbe 8b0e 92bd
000002e0: 904c 4b3c 8119 d03d 19d4 90bd 104a b13b
000002f0: be24 bd3c be74 6ebd 68f2 cbbd 319c 89bd
00000300: 516b f43d 4f6f d63c 22d5 6b3d 9cb6 27be
00000310: dfc4 033d 4d8f 1bbe 9f05 613d ff61 02be
00000320: 6d89 b2bd 4937 d1bc ef32 a43d d75b cdbd
00000330: 0107 833d ea99 943d 305f 18bd 197d 4dbd
00000340: fecf 36bd 7f66 c73c 009c 0a3e 6c80 f43c
00000350: 9e33 1b3e 528b eebd e32b db3d f039 acbc
00000360: a3c6 19be 1214 9b3d d884 433d b906 82ba
00000370: ccd9 55bc fb4a 27bd ef12 c0bd bafb 303d
00000380: a43e 3cbc a2e6 d9bc 9f63 e23d d0bd 08be
00000390: 313c 163d 29a9 0a3e 9abd 213b 6f87 c8bd
000003a0: 4163 153c f8ea eebb 0f17 e7bc 3a7b 9f3d
000003b0: 89f8 3ebd 1147 82bc a457 e33d 101a 6b3d
000003c0: a0a0 933d d8ba 0e3d 7f6c d3bd 1805 cf3d
000003d0: aca3 33bd a3a0 a03c c1a9 b1bc 3a3b 07be
000003e0: f20f fdbd f6f8 0fbe bdec 813d f218 4fbd
000003f0: f9ff b83d 43dc 77bc 0139 8f3c 888d 32be
0.09906981 -0.09186227 0.15454789 -0.10768653 -0.15185814 -0.040086895 -0.011226264 -0.11264741
-0.088344365 0.024926286 0.0020919733 -0.035546657 -0.08216328 0.084860094 -0.018536301 0.24111472
0.1942585 0.10552505 0.059219383 0.019441718 -0.055040345 0.17714638 0.073450096 0.15062949
0.058776297 -0.07823226 0.16929716 0.103860036 0.054392703 -0.12592371 -0.09667636 -0.11119949
0.073044434 0.022072177 -0.0075311456 0.117733754 0.060281258 0.1331955 -0.14381634 0.022758242
0.031212285 0.038474906 -0.015346611 0.056306284 -0.07511826 -0.042980738 -0.076293856 0.20163068
0.010599476 0.042944252 -0.14080839 0.080917895 0.063696556 -0.04093196 -0.039984513 -0.1241182
0.043113347 0.071301304 -0.06601723 -0.09430351 -0.007972338 0.10601828 -0.05431326 0.040538423
0.07319985 -0.0070284167 0.16603841 -0.010692578 -0.01108619 -0.03473605 0.1117731 0.06704559
0.16310574 -0.13848917 -0.038965616 0.010231188 -0.20625018 0.05822441 0.046465695 -0.03554915
0.041159216 -0.16433175 -0.025407456 0.06434986 -0.1307452 0.03628326 -0.1408988 0.025783071
0.037067432 0.05483067 0.08980718 0.027963273 0.052359167 -0.093571015 0.04838752 -0.07635769
-0.02044718 -0.086672746 -0.07094408 -0.12060544 0.010798053 -0.06236107 -0.096818104 -0.015711796
0.035976924 -0.120598935 0.17790295 -0.14370629 0.023435935 0.17221765 -0.073903576 -0.04442819
-0.1972404 0.17653836 0.060249344 0.090693265 -0.067022845 0.023192953 -0.07244799 -0.10982308
-0.10858305 0.03903345 -0.08746231 0.034341466 -0.055378824 0.010993733 0.074977264 0.13184243
0.06385864 0.07377742 -0.11184995 -0.04218605 0.06425167 -0.0756401 -0.13199434 -0.1283464
0.06704793 0.08131784 -0.13941069 -0.11153586 0.015281492 -0.14163668 -0.14307034 -0.06751543
0.044428326 -0.0025564919 0.058581125 -0.033477183 -0.12070044 0.027975164 0.07801507 0.124106966
0.057812918 -0.11080339 -0.064409845 0.026494917 -0.10267622 -0.12229639 0.13617323 -0.037307926
0.057617933 0.048272546 0.055597093 0.15503754 0.0428983 -0.12445639 0.135432 -0.12969726
0.06453324 -0.016874883 0.04706635 -0.15161508 -0.17922918 0.09708746 0.12841368 -0.042964187
-0.0130635835 0.07070431 -0.0075813164 0.01809904 0.07156057 -0.052559633 -0.16927527 -0.0713168
0.012408391 0.101611145 -0.070717044 0.0054104403 0.02308881 -0.058216803 -0.09958345 -0.06719244
0.119345315 0.026176123 0.057576306 -0.16378254 0.032170173 -0.15191384 0.054937 -0.12732695
-0.08717618 -0.025539057 0.08017527 -0.10027283 0.0639782 0.07255919 -0.037200153 -0.05016813
-0.04463195 0.024340866 0.13536072 0.029846393 0.15156409 -0.11647667 0.1070173 -0.02102372
-0.1501718 0.075721875 0.04773411 -0.0009920216 -0.013052415 -0.04084299 -0.09378611 0.043208815
-0.011489544 -0.026599232 0.110541575 -0.13353658 0.036678497 0.13541092 0.0024679662 -0.09791457
0.009117902 -0.007291194 -0.028209237 0.077871755 -0.04662374 -0.015903028 0.111007005 0.057397902
0.07208371 0.034846157 -0.10323428 0.101083934 -0.04385726 0.019607848 -0.02168739 -0.13206187
-0.12356557 -0.14059815 0.06343982 -0.0505609 0.09033198 -0.015128198 0.017483236 -0.17436802

weight f4 [100]
00000000: 605a 7d3f 226a 793f a9b8 7e3f b32c 7d3f
00000010: a313 723f 0e05 713f 5dd8 7a3f 8e47 7e3f
00000020: 3b89 823f 175b 8a3f 91fe 6d3f f94b 763f
00000030: d5dc 793f 3b1e 7a3f faca 6e3f 4cfa 803f
00000040: 3651 813f 54c3 763f abd0 6e3f 957b 6e3f
00000050: 06fe 7b3f ea17 803f b091 823f ac23 7b3f
00000060: e2f8 723f 4172 753f d4f7 893f e679 733f
00000070: c88f 823f b263 743f 6d72 793f da23 823f
00000080: e34c 823f 9e71 7e3f 2135 6e3f 3895 803f
00000090: 1a8f 793f f93a 7d3f f750 7e3f f3b9 853f
000000a0: 7201 813f fab4 843f 01c8 813f 7dd3 843f
000000b0: 4862 803f 3010 7f3f b6f3 743f 223d 743f
000000c0: 6816 6b3f f4db 753f 65b7 7d3f a588 7d3f
000000d0: 6464 763f ad12 753f 3eb0 853f 82c1 853f
000000e0: b27f 833f 964f 783f 88c5 763f 09ed 783f
000000f0: 8527 773f d087 7a3f 7e2c 753f 7997 803f
00000100: 6519 873f e941 703f 0c94 703f 6d7d 723f
00000110: f19d 833f 5dca 7e3f 7526 8a3f 0d38 763f
00000120: 4dbe 863f 9328 823f 623a 6f3f 1eae 833f
00000130: 6857 743f 9ff6 7c3f 3a99 783f 12e4 873f
00000140: e420 773f 5610 813f 0aac 843f ddd9 773f
00000150: cead 723f 1024 863f e2bb 7a3f c1b3 843f
00000160: 43f1 843f f408 7e3f db44 6b3f 4c1e 873f
00000170: 6e85 7c3f 2342 853f aaca 8b3f 7bb2 773f
00000180: d768 863f 6d2e 753f fcc5 723f 7784 843f
0.98966026 0.9742757 0.9950052 0.9889633 0.94561213 0.9414834 0.97986394 0.99327934
1.019813 1.0809048 0.9296656 0.96209675 0.9760259 0.9770238 0.9327847 1.0076385
1.0102909 0.963918 0.9328715 0.9315732 0.98434484 1.0007298 1.020071 0.98101306
0.94911015 0.9587746 1.0778756 0.9510788 1.0200129 0.9546462 0.97440225 1.0167191
1.0179714 0.99392116 0.9304982 1.0045538 0.9748398 0.9891811 0.9934229 1.0447372
1.0078566 1.036773 1.0139161 1.0377041 1.0029993 0.99634075 0.95684373 0.9540578
0.91831064 0.96038747 0.9910796 0.9903663 0.96246934 0.9573162 1.044441 1.0449679
1.0273345 0.9699644 0.9639516 0.97236687 0.96544677 0.97863483 0.95771015 1.0046226
1.0554625 0.9385057 0.939759 0.94722635 1.0282575 0.9952753 1.0792986 0.96179277
1.0526825 1.0168632 0.9344846 1.0287511 0.9544587 0.98813814 0.97108805 1.0616477
0.9653456 1.008311 1.0365002 0.9681681 0.94796455 1.0479755 0.97942936 1.0367357
1.0386127 0.9923241 0.9190194 1.0556121 0.986411 1.0410808 1.0921223 0.96756715
1.0500745 0.95773965 0.9483335 1.0352925

bias f4 [100]
00000000: 8731 6bbb 1b11 e6bb 78cf bcbc 270d 53bb
00000010: 916f be3d 8c57 8abd 2341 8c3d 23cd 583d
00000020: a797 8ebc f8ae bbbd 52d2 4e3d 1780 6cbd
00000030: 0d57 563d 9e9e 663d 0c8c 353c d889 7ebc
00000040: a526 843d 235a 123d 3c2e 74bd 45ac 90bd
00000050: e7cb 01bd b8a7 b3bd 0331 ffbb e3b9 25bd
00000060: 4196 02bd 0d9f 503d 6333 823d 656a 93bd
00000070: 1dce 1fbd 0cec 86bd 69d6 073d 8409 9f3c
00000080: 5ec8 d33b 41c4 6fbd 1a36 acbd ce81 3dbd
00000090: eaa1 97bd a9f9 4fbd 3446 6abd ea93 0c3d
000000a0: 18c8 51bd 313a ac3c 6e7c 26bd 471c 87bd
000000b0: 8a24 223d 11c7 26bd 3d7c c53d ec50 cd3d
000000c0: 1cec bd3d f476 23bd cbc6 063d 8aea 3ebd
000000d0: 62b0 09bd fa37 d3bd c083 97bc c313 e13b
000000e0: d68a 91bc 080e 263d 5ceb a73d cd8f 63bd
000000f0: 816f 9cbd f5d8 30bd 3c56 bb3d 916b dc3c
00000100: ab26 5abc 70a8 5dbd b4d5 5d3d 7a98 2f3d
00000110: 881e 073c 8d73 b2bd 4f64 873d 716a 263d
00000120: 74cb 663b f0d6 b23c be86 133d b303 19bc
00000130: 3fe9 e1bd 484d 43bd 6c75 44bd 1c10 a9bd
00000140: dbcb 8dbd 052c 333d 6ddd 3abd 4c31 913d
00000150: 4820 38bd 8687 bdbc 69e3 8c3d 375a 363d
00000160: e29f 843c 50d6 0dbd 55d6 4bbd f946 a63d
00000170: 4ec9 ecbd ebab 67bc dc43 533d 0358 9e3d
00000180: 04f4 5cbd 631d 04bd fee1 183d 651c cc3c
-0.0035887675 -0.007021082 -0.023048148 -0.0032203884 0.09298623 -0.067549795 0.06848361 0.05293001
-0.017406298 -0.09164232 0.050493546 -0.057739343 0.05232911 0.056303613 0.011080753 -0.015535794
0.06452683 0.035730492 -0.059614405 -0.07064108 -0.031688597 -0.08772224 -0.007787825 -0.04046048
-0.031881575 0.050932933 0.063574575 -0.071980275 -0.039014924 -0.06587991 0.03316346 0.019413717
0.0064630946 -0.05853677 -0.084087566 -0.04626637 -0.074039295 -0.050775204 -0.057195857 0.03432075
-0.051216215 0.021023842 -0.04064601 -0.0659719 0.039585628 -0.04071719 0.09642837 0.100252
0.0927355 -0.039908364 0.032904427 -0.046610393 -0.033615477 -0.10313411 -0.01849544 0.006868811
-0.017766397 0.040540725 0.08199188 -0.05555706 -0.07638455 -0.043175656 0.09147307 0.02690676
-0.013314883 -0.054115713 0.05415888 0.042870022 0.008247025 -0.08713446 0.06610929 0.040628854
0.0035216482 0.021831006 0.036017172 -0.009339261 -0.11030816 -0.047681123 -0.047963545 -0.08255026
-0.06923648 0.043743152 -0.045621324 0.07089481 -0.04495266 -0.023135912 0.068793125 0.04451963
0.01618952 -0.034628212 -0.04976495 0.08119006 -0.11561833 -0.0141401095 0.051578388 0.07731631
-0.05394365 -0.032254588 0.037324898 0.024915883

running_mean f4 [100]
00000000: 82e6 a13f 990c 353c 02e2 f9bc fbd2 6bbf
00000010: fb6e 4540 0853 f1bf 12a1 c4be 3dcc 9240
00000020: 033a 843f 7da5 8dbf fcd5 333f 48c6 80c0
00000030: f7fa 6140 9f91 b440 782c d13f 53e5 9ebf
00000040: 6184 1240 7fcd 293f a0f4 17bf c60b 85c0
00000050: b951 8fc0 cc41 17c0 021a 35be a977 3fc0
00000060: 9f1e 11c0 f1a7 dd3f 733a 72bf 5501 5fc0
00000070: 7e6c 6fbd 1ca8 4dc0 9e23 2940 332a 75bf
00000080: 157e 31bf 3b50 8dc0 1f1d 28c0 f63f b9bf
00000090: 29bd 08c0 a25b b2c0 1986 003f fbe9 34bf
000000a0: 8c69 fdbf e1d5 79bf 95a2 71bf 245f 783e
000000b0: 6d60 8140 18d9 7cc0 f8cd 7d3f f678 8c3d
000000c0: 7fe6 3f3f 56b7 513f bf76 ce3f df60 373e
000000d0: afb2 67bf 4c0f 87c0 d5ce efbe 0f34 bc3f
000000e0: 35e9 a13f 4553 0840 f709 5640 6650 69c0
000000f0: 9232 09c0 fae0 99c0 75e5 c23f 3be0 013f
00000100: b295 ac3f f166 07c0 e675 1540 9c8b 3c3f
00000110: a902 3fbf 1f7b 53c0 a731 3c3f 7eed 7f40
00000120: 42f4 9abd 40a3 63bf be38 6840 ee0d 343f
00000130: b476 56c0 f7bc 61c0 99d9 1ec0 e5f4 70bf
00000140: d75b be3f cdfa cfbd 487d 7abf 92a9 fe3f
00000150: e1ab 42c0 ed10 e03f 5e89 6f40 b48f 92bf
00000160: d386 3fbf 709a 67bf 60c0 393e d44a dc3f
00000170: d2aa 9ebe 4be8 823f 4875 1bbe 44e2 0440
00000180: 2cba 543f 451a 9bbf b6b8 ec3e b062 ed3f
1.264847 0.011050367 -0.030503277 -0.92118806 3.0848987 -1.8853464 -0.38404137 4.5874314
1.0330204 -1.1066128 0.7024839 -4.0242043 3.5309427 5.642776 1.6341696 -1.2413734
2.2893298 0.6632919 -0.59357643 -4.157687 -4.478726 -2.363391 -0.17685702 -2.9916785
-2.267494 1.7316877 -0.94620436 -3.4844563 -0.058453076 -3.2133856 2.642799 -0.95767516
-0.6933301 -4.4160438 -2.6267774 -1.4472644 -2.1365454 -5.5736856 0.50204617 -0.70669526
-1.9797835 -0.9759198 -0.94388705 0.24255043 4.0430207 -3.9507504 0.9914241 0.06859009
0.74961084 0.81920373 1.6129988 0.17908047 -0.90507025 -4.2206173 -0.46837488 1.4703387
1.2649294 2.1300824 3.3443582 -3.6455321 -2.1437116 -4.808713 1.5226275 0.50732774
1.3483183 -2.115658 2.335321 0.73650527 -0.74613434 -3.3043897 0.73513263 3.9988704
-0.0756612 -0.88920975 3.6284633 0.70333755 -3.350995 -3.5271585 -2.482031 -0.9412368
1.4871777 -0.10155258 -0.97847414 1.9895499 -3.0417407 1.7505165 3.7427592 -1.1450105
-0.748151 -0.9047003 0.18139791 1.7210336 -0.309897 1.022714 -0.15181458 2.0763102
0.83096576 -1.2117392 0.46234673 1.8545742

running_var f4 [100]
00000000: f085 8f40 1fc7 4940 960c 4640 56e6 2840
00000010: e6e3 b540 ff5a 5f40 b8f7 a640 bdd2 d140
00000020: ece6 b340 5060 7940 6f47 5940 5ef7 ab40
00000030: 9b85 ca40 d82f 1d41 672b 9540 930e 7b40
00000040: 7a48 6340 f5a3 6940 be71 8340 b558 bb40
00000050: ce2d bb40 7c75 9740 6f53 4940 544a c240
00000060: 6bb9 6d40 3151 6f40 64ad c940 975f d740
00000070: 78d2 6440 8346 b040 f6ed 9340 039c ea40
00000080: 6a5b cb40 8c83 d440 5319 6640 f91a 3540
00000090: 4922 6f40 0348 f040 dd71 6b40 009f 1e40
000000a0: 0af5 4340 c696 c440 cf93 0940 311f 2f40
000000b0: 54df be40 1cc0 8f40 b975 8540 514b 5540
000000c0: 1936 6a40 d1c8 a340 b5cb 4c40 c9e9 9b40
000000d0: 4a11 5140 62b2 0e41 dba2 8840 7f6d 0841
000000e0: ec84 cc40 4675 7c40 4c45 9d40 af8d 9340
000000f0: 40ad 2240 c16f 0141 b682 5240 6e70 de40
00000100: 0532 da40 d2c0 8940 510f bc40 1c24 6340
00000110: e52b 9040 7c53 6340 6344 e03f bcac b840
00000120: 4192 3f40 d111 ab40 6b6c bb40 365f 3640
00000130: 9f3b f940 f32c 9040 50f5 ab40 4b1e 6040
00000140: fcea e740 9417 7f40 cc6f 3840 587a 6a40
00000150: 92b1 9c40 e4a6 c740 1ca6 9340 7a36 b540
00000160: b8b0 be40 c7ea 8940 375d 2540 f00f 8740
00000170: 180a 2540 13eb a840 39bc 7640 c356 5040
00000180: 5a4f ad40 c54f 9040 150f 9440 2c74 8040
4.4851 3.1527784 3.0945182 2.6390586 5.6840696 3.489929 5.217739 6.556975
5.6219387 3.8965034 3.394985 5.373946 6.3288093 9.824181 4.661548 3.9227645
3.5512986 3.6506321 4.1076345 5.8545785 5.8493414 4.7330914 3.1457174 6.0715733
3.714442 3.7393305 6.302416 6.7304187 3.575346 5.5086074 4.622798 7.3315444
6.354909 6.641058 3.5952957 2.8297713 3.7364676 7.5087905 3.6788247 2.4784546
3.061831 6.143405 2.1496465 2.7362788 5.9647617 4.492201 4.1706204 3.332722
3.6595519 5.1182637 3.1999333 4.872288 3.2666802 8.9185505 4.26988 8.526732
6.391226 3.9446578 4.914709 4.6110454 2.5418243 8.089784 3.289228 6.9512243
6.818606 4.3047876 5.8768697 3.549079 4.505358 3.5519705 1.752087 5.7710857
2.9933016 5.345925 5.8569846 2.8495612 7.788528 4.505487 5.3736954 3.501849
7.2474346 3.985814 2.8818235 3.6637173 4.896676 6.2391224 4.614027 5.6629
5.959072 4.3099093 2.5838144 4.2206955 2.578741 5.2786956 3.8552382 3.2552955
5.4159365 4.5097375 4.626841 4.014181

weight f4 [256, 100]
00000000: 147b d73c 1268 093e 3f60 e43d ecdc 873d
00000010: a884 bbbd 987b 8abd ebd0 85bb 7da3 f43d
00000020: 56fd 073e b1fc 2abd f00a 2c3c 7d35 aebc
00000030: f8e8 983c 4530 af3d bdb8 3bbd 9d9a ec3d
00000040: 6a02 683b 12a3 aebd 04c6 b3bc 5793 c3bd
00000050: 1471 b1bd fca9 ce3b 6076 493b 0eee 463d
00000060: 6307 f93c 2372 ab3d 1d7e 5ebe 14e7 2dbd
00000070: d1f0 983a a2f8 793c e365 debb 28c6 e1bc
00000080: 8123 d33c 2880 40bd 4fd2 d8bd 032c f53c
00000090: b7a0 c13d 9e00 e3bd d899 103e c83c 0d3c
000000a0: 35c9 c83d 53c4 abbb 7ee3 19be 3153 f1bd
000000b0: 54de 763c 8149 553c 6f20 e43d 218b 2c3d
000000c0: 0031 7cbd d584 f43c 3ef2 eb3d 9962 84bd
000000d0: 325a 12bd 3f6b 8d3d 81eb e63d df2b 333d
000000e0: 6aa2 e73d 9874 a4bd aadf f53c 7617 793d
000000f0: 93e8 b3bc d14e 0d3d 6751 393d 221c d63c
00000100: 18c5 cb3c ce4f 263d 57d0 1b3d 446b d13c
00000110: 9bdc 0abe ce93 b2bd bee7 203e f93b 933d
00000120: 8019 dcbd 4dee 0bbd abdd bd3d 1b1b b93c
00000130: a570 0c3d 9b19 88bd ea1f 62bd 352a 95bd
00000140: f6ec 84bb 8636 cebd 6cd5 f93d 5746 8a3c
00000150: 85f1 8a3b 21cf 3e3e fc3a 91bd 2759 e9bd
00000160: faf0 92bd f965 933d 30a6 943c 1982 233e
00000170: 15df 11be 9f5a c23d 3b92 13be 4dfa 363b
00000180: c3e9 033e 48c5 fd3d 27b4 f4bd d332 113c
00000190: 0a05 5ebd 4924 2cbd e0bd b33d b1ef a5bc
000001a0: 3a05 513c 41ff f0bd 1846 bcbd d49d 023d
000001b0: 0c38 c83d 650e 3ebe cfd8 0abd b0cd 433d
000001c0: 5b27 fb3d 0dde d13d 8fd9 183d f52b 983d
000001d0: e4e2 063e 0fe3 16be 2460 c8bd 2aa3 05bb
000001e0: b359 443d feda c3bd b7b1 15bb e112 71bd
000001f0: 9c7e bbbd 5003 a5bd b650 eebd 0542 8dbd
00000200: 1b4e 91bd 2036 23be 9e21 e63d 6246 0bbe
00000210: 8178 92bc 1eb2 babd 7691 35bc 39d4 07be
00000220: da6b 423c 9e5a f6bc 88b1 b8bd ab2d 23bd
00000230: 33e0 0fbe 719e 4cbd 50c7 30be 68f2 5d3d
00000240: da09 3bbd 1433 cabd 9ca0 4a3c 3d2f 6abd
00000250: 7771 eb3c f8c8 113e 5760 cf3d 903e 843d
00000260: 9663 903d d5fc d9bd 71f8 fa3d 1646 be3d
00000270: 11ba ab3d 5773 773d 0f6f a4bd 9268 8abc
00000280: 22fe 85bc dff7 14bd 0743 a23d 6e18 e13d
00000290: ed1b 463d 3bee dabd 1d12 173e 2f9e ba3d
000002a0: 4285 423d 61bf 19bd 14ea c23d 41cf b13d
000002b0: a15e 4d3d 5737 39be b3a3 b3bc 8733 aabd
000002c0: 0034 853b 1b32 6abb 2bdc 9fbc ea2e f33d
000002d0: ea8b 973d 3227 84bd 48e9 103e f00f a6bd
000002e0: 189f 2bbc ff30 873d 1734 333d f8cb 883d
000002f0: be9f 9dbb d174 01bd 6b84 c33d 849f 2e3e
00000300: 4d29 783d c6d8 a9bc 8aaf 033b f666 cf3d
00000310: 8d33 25bc 2993 fd3d 665c bb3c a581 023e
00000320: 8f23 35bd 4157 8ebd 79bd 593b 11d8 82b8
00000330: 9408 67bd 39df 963d 5568 59bd a408 483d
00000340: 147a 97ba 2aaf 52bd 2b01 15b9 c1e3 a9bd
00000350: 61df 863b c89b 96bd 9915 46bd 64a1 92bd
00000360: 6e70 6bbd b199 cbbc c2fd d9bc 69e5 cb3d
00000370: b7f9 ed3c 949e 543d 375f c9bd 9962 cbbd
00000380: c95d 8f3d 488f f2bd 2a1a 79bd 5f67 453d
00000390: 55b2 843b 38b8 0c3d fda1 33bc d1a1 6ebd
000003a0: 99ea c43d 8e0e e73d 22ad ecbc 9613 48bd
000003b0: 6d13 603c a73b 6dbc 5d32 03be e5b6 cb3d
000003c0: b753 eebd 67fd b23c cee2 94bd fc0d a03c
000003d0: 0492 a43d e5a1 c63c 4960 9fbd dcf2 efbd
000003e0: 38a1 393d ce75 903d e79f 533b 1220 c43d
000003f0: e484 c1bc a676 de3d d994 d8bd ef9f 303c
0.026303805 0.13418606 0.1115117 0.066339344 -0.091561615 -0.06761855 -0.004083743 0.119452454
0.13280234 -0.04174489 0.010500655 -0.02126574 0.018665776 0.085541286 -0.045830477 0.11552928
0.003540183 -0.08527197 -0.021945007 -0.09549587 -0.08664146 0.006306885 0.0030740723 0.04856687
0.03039903 0.08371379 -0.21727796 -0.0424567 0.0011668449 0.015257033 -0.006787048 -0.027560309
0.025773766 -0.04699722 -0.10586988 0.029928213 0.09454482 -0.11084102 0.14121187 0.008620448
0.09804002 -0.0052419095 -0.15028188 -0.117834456 0.015067656 0.013018013 0.11138999 0.04212487
-0.061570168 0.029848495 0.115208134 -0.064641185 -0.03573055 0.06905221 0.112753876 0.04374301
0.11310275 -0.08030051 0.030013878 0.06081339 -0.021961486 0.034498993 0.045243647 0.026136462
0.024874255 0.04060345 0.038040485 0.025563844 -0.13560717 -0.08719598 0.15713403 0.07189173
-0.10747051 -0.03416281 0.092707954 0.022595933 0.034287114 -0.06645509 -0.055206217 -0.07283441
-0.0040565683 -0.10068993 0.1219891 0.016879244 0.004240217 0.18633701 -0.070913285 -0.113939576
-0.07174869 0.07197184 0.01814565 0.15967597 -0.14245255 0.09489941 -0.14411251 0.0027920187
0.12882142 0.12391144 -0.11948424 0.008862215 -0.054204024 -0.04202679 0.0877645 -0.020255895
0.012757594 -0.11767436 -0.09193057 0.031888798 0.09776315 -0.18560179 -0.03389817 0.04780358
0.12263366 0.10247431 0.037316855 0.07430259 0.1317249 -0.14735053 -0.09783962 -0.0020391443
0.047937106 -0.09563254 -0.0022841522 -0.058855895 -0.09155008 -0.080572724 -0.11636488 -0.06897358
-0.070949756 -0.15938616 0.11236881 -0.13601068 -0.017879726 -0.091160044 -0.011082044 -0.1326455
0.011866534 -0.030072507 -0.090182364 -0.039838474 -0.14050369 -0.04995579 -0.17263532 0.054186255
-0.045663692 -0.09873024 0.012367394 -0.057173956 0.028740628 0.1423682 0.10125797 0.06457245
0.070502445 -0.10643927 0.12254418 0.092907116 0.08385099 0.06041273 -0.08028995 -0.016895566
-0.016356532 -0.0363692 0.07922941 0.10990988 0.048366476 -0.1068997 0.14753003 0.091122024
0.047490366 -0.03753603 0.09517303 0.08682109 0.050139073 -0.18087517 -0.021928644 -0.08310609
0.004065037 -0.0035735432 -0.019514164 0.118741825 0.07399733 -0.064527884 0.1415149 -0.081085086
-0.010474943 0.06601142 0.04375085 0.06679529 -0.0048103025 -0.031605545 0.09546741 0.17053038
0.060586262 -0.020733248 0.0020093643 0.1012706 -0.010083091 0.12381584 0.022871207 0.12744768
-0.044223364 -0.06950236 0.0033224507 -6.2391286e-05 -0.056404665 0.07366795 -0.053078014 0.048836365
-0.0011556768 -0.05143658 -0.00014210182 -0.08295394 0.0041159843 -0.07353932 -0.04836044 -0.07159689
-0.05748027 -0.02485356 -0.026610259 0.09955866 0.029049737 0.051909044 -0.09832614 -0.099309154
0.0700031 -0.11843735 -0.060815968 0.048194285 0.004049579 0.034355372 -0.010963914 -0.05825979
0.096150585 0.11282073 -0.02889115 -0.048846804 0.0136765065 -0.014479554 -0.12812181 0.09946994
-0.11637061 0.021849347 -0.07269822 0.019537918 0.08035663 0.02424712 -0.07782037 -0.117162436
0.045319766 0.070537195 0.0032291354 0.095764294 -0.023622938 0.10862474 -0.105752654 0.010780319
