transformer_results_random_no_constants_no_param_tune/performance_prediction/DE-GA-ES-PSO_random_no_constants_dim_3_samples_50_fold_2_budget_30_n_heads_2_n_layers_1_d_model_100_d_k_30_d_v_30_aggregations_mean/trained_model_dict.pt (torch, 337211 bytes, 22 tensors)

W_P.weight f4 [100, 4]
0	0xbe781ac0	-0.24228954
1	0x3d80a490	0.06281388
2	0x3dd498a3	0.10380676
3	0x3f124525	0.57136756
4	0xbe909548	-0.28238893
5	0xbd66ffca	-0.056396283
6	0xbecf7580	-0.40519333
7	0x3df04892	0.11732592
8	0xbd03ec87	-0.032207992
9	0xbec899ff	-0.3917999
10	0xbd928f5d	-0.071562506
11	0xbf14134a	-0.5784193
12	0xbd6ce316	-0.057833754
13	0x3e633525	0.22188242
14	0x3e83ef3f	0.25768468
15	0xbefbde93	-0.49193248
16	0xbe116df1	-0.14202096
17	0x3db86998	0.090045154
18	0x3e8e33f3	0.2777401
19	0x3f1d9f77	0.6157145
20	0xbe8f43d2	-0.2798143
21	0x3e8f8e28	0.28038144
22	0xbef150f8	-0.47132087
23	0x3e0e5eb7	0.13903318
24	0x3e6e71d7	0.23285614
25	0xbdb76ea6	-0.089566514
26	0x3ec01b43	0.375208
27	0xbc43aba2	-0.011942776
28	0xbe8b7181	-0.27235034
29	0x3ed8dd05	0.42356125
30	0x3d46cbb4	0.04853411
31	0x3f15de4f	0.5854234
32	0x3d01ed67	0.031720545
33	0xbed24f43	-0.41076097
34	0x3e8ad815	0.27117983
35	0xbef468e8	-0.47736287
36	0x3e2def7e	0.1698589
37	0xbeda85c9	-0.42680195
38	0xbe949541	-0.29020122
39	0x3ebaee4d	0.36509934
40	0xbe3fe7e3	-0.18740802
41	0xbef312b8	-0.4747522
42	0x3d00726c	0.03135912
43	0x3f00fa58	0.50381994
44	0x3ebf01fd	0.37306204
45	0xbd35a43d	-0.044346083
46	0xbe0776fd	-0.13228984
47	0x3ebb6529	0.36600617
48	0x3e9326de	0.2874059
49	0xbe0ddc47	-0.1385356
50	0xbcab0a29	-0.020878868
51	0xbc0a3b61	-0.008437009
52	0x3dab8c92	0.08376421
53	0x3d904048	0.07043511
54	0xbee88e30	-0.4542098
55	0xbf26f379	-0.6521526
56	0xbe9eb66c	-0.30998552
57	0x3c934f6d	0.01798221
58	0xbcef6639	-0.029223548
59	0xbcaacc9d	-0.02084952
60	0x3ec85b82	0.39132315
61	0x3ee5e709	0.44902828
62	0xbeddc1d6	-0.43311948
63	0xbe837c53	-0.2568079
64	0xbdea7df3	-0.11449804
65	0xbea8c57d	-0.32963172
66	0xbed277d9	-0.41107062
67	0x3f12d9db	0.5736367
68	0xbe91cd6a	-0.2847703
69	0x3e0ed608	0.13948834
70	0x3ebc76f7	0.36809513
71	0x3efcc7f3	0.493713
72	0x3e371a15	0.17881043
73	0x3e3ea688	0.18618214
74	0xbc7d033d	-0.015442667
75	0x3f17efe3	0.59350413
76	0xbedb1abe	-0.4279384
77	0x3e402625	0.18764551
78	0xbe9d580e	-0.30731243
79	0xbee0c525	-0.4390041
80	0x3dd94302	0.10608484
81	0x3eded21d	0.4351968
82	0x3eb22d00	0.34799957
83	0xbd28a57b	-0.04117344
84	0x3d463495	0.04838999
85	0xbe85f0fb	-0.26160416
86	0x3dad1b1f	0.084524386
87	0xbc4062b3	-0.011742282
88	0xbec747d5	-0.3892199
89	0x3ea990af	0.33118197
90	0xbd4c76ac	-0.04991786
91	0x3ecf0e1f	0.4044046
92	0x3c9fbfad	0.019500578
93	0x3e3ab425	0.18232782
94	0x3ea40a15	0.32038942
95	0x3f1444f6	0.57917726
96	0x3e4ddb59	0.20103206
97	0x3e90f24f	0.28309867
98	0xbd50baf4	-0.050959542
99	0xbe8f7a1b	-0.28022847
100	0x3ee8fb09	0.45504025
101	0xbe307766	-0.17233047
102	0x3e8575c0	0.260664
103	0x3eab735c	0.3348645
104	0xbe63b27d	-0.22236057
105	0x3d86f315	0.06589333
106	0x3ea62f7b	0.324581
107	0xbf12610b	-0.57179326
108	0x3ef1fd6c	0.47263658
109	0x3e904347	0.2817633
110	0x3d7d00e8	0.061768442
111	0x3ef7f52f	0.48429248
112	0x3eb83692	0.35979134
113	0xbe6559cc	-0.22397536
114	0x3e8b02a3	0.2715045
115	0x3efdec05	0.4959413
116	0x3d9477e3	0.07249429
117	0x3db4ffeb	0.08837875
118	0xbe12b0b5	-0.14325221
119	0xbf115c24	-0.5678122
120	0xbdab1edb	-0.083554946
121	0xbe84b4fc	-0.2591933
122	0x3e38bcd3	0.1804078
123	0xbea6d804	-0.32586682
124	0x3edd5c8b	0.43234667
125	0xbb7c6921	-0.003851481
126	0x3eb07ba7	0.3446934
127	0xbed51897	-0.41620323
128	0xbecbeb57	-0.39827988
129	0x3e83928a	0.25697738
130	0x3e04ce21	0.12969257
131	0x3d86a404	0.06574252
132	0xbe37b818	-0.1794132
133	0xbc44d7a3	-0.012014302
134	0xbe721037	-0.23638998
135	0x3f24461a	0.64169466
136	0x3d8b8c06	0.06813817
137	0xbed2e5b0	-0.41190863
138	0xbed3b6c0	-0.41350365
139	0xbce6b4d1	-0.028162392
140	0xbec06c5a	-0.37582666
141	0xbe88d03a	-0.26721364
142	0x3ec07a08	0.37593102
143	0xbe7f7b8a	-0.2494947
144	0xbe1807f6	-0.14846787
145	0x3edb6aa7	0.42854807
146	0xbe680e3d	-0.22661681
147	0xbe73e538	-0.23817909
148	0xbd855ae7	-0.06511479
149	0xbef04671	-0.46928743
150	0xbdf2d6de	-0.11857389
151	0x3e0bab7a	0.13639632
152	0x3e85d099	0.2613571
153	0x3eba1f69	0.3635209
154	0xbee74473	-0.4516941
155	0x3f014b3b	0.5050542
156	0x3e9ff150	0.31238794
157	0xbe2de228	-0.16980803
158	0xbe1c3d6a	-0.15257803
159	0xbf0c1227	-0.547152
160	0xbefc185d	-0.49237338
161	0x3e571c58	0.21006906
162	0x3e7257ac	0.23666257
163	0x3ed61406	0.41812152
164	0xbe1a32d7	-0.15058456
165	0x3edf1451	0.43570188
166	0xbe400743	-0.1875277
167	0xbeddc2e4	-0.43312752
168	0x3eb07085	0.34460846
169	0x3e114939	0.14188088
170	0x3bc223fa	0.005924699
171	0x3e92eca8	0.2869618
172	0xbebf0eba	-0.37315923
173	0xbeef6a76	-0.4676091
174	0xbb39c11c	-0.0028343862
175	0x3ee38642	0.44438368
176	0x3e048ceb	0.12944381
177	0x3e51828b	0.20459954
178	0x3d954baf	0.07289826
179	0x3ec74d53	0.3892618
180	0x3e150328	0.14551985
181	0x3e51a8d9	0.20474567
182	0xbe7e1aa5	-0.24814852
183	0x3f10b636	0.5652803
184	0x3ebe2968	0.37140965
185	0xbeca4e74	-0.3951298
186	0xbdc57cc0	-0.09642935
187	0xbe83e9a9	-0.25764206
188	0xbb54ee1b	-0.0032490555
189	0x3d79ab03	0.060954105
190	0x3d509beb	0.050929945
191	0x3ec7fd2d	0.39060345
192	0xbdf80f26	-0.12112264
193	0xbd9c9626	-0.07645826
194	0x3dc2ddf4	0.095149904
195	0x3ef06740	0.46953773
196	0x3e918cb0	0.2842765
197	0xbe961331	-0.29311517
198	0xbecefe9a	-0.4042862
199	0x3f120896	0.5704435
200	0xbd0b2b77	-0.033977
201	0xbea81da2	-0.32835108
202	0xbe80aa7a	-0.25130063
203	0x3f1b915d	0.6076868
204	0xbd3a6421	-0.045505647
205	0x3edea0c1	0.4348202
206	0x3d710674	0.058844045
207	0xbf06175c	-0.52379394
208	0xbdc0132b	-0.09378656
209	0xbecd6e69	-0.401233
210	0x3e544565	0.20729597
211	0xbf134f26	-0.57542646
212	0xbe64b749	-0.22335543
213	0x3eacfbd5	0.33785883
214	0x3ed49b2e	0.41524643
215	0x3e0da953	0.13834123
216	0x3db554a1	0.08854032
217	0xbedd9c93	-0.4328352
218	0x3d4dac42	0.050213106
219	0x3e03086f	0.12796186
220	0xbdb16c1d	-0.08663199
221	0xbd4449be	-0.04792189
222	0xbec26314	-0.37966216
223	0xbf119b9d	-0.5687807
224	0xbb482a65	-0.0030542847
225	0x3ec4fd71	0.3847461
226	0xbed14f05	-0.408806
227	0x3d81afa1	0.06332327
228	0x3ecff63b	0.40617546
229	0xbdcb1873	-0.09916773
230	0x3ed4c207	0.4155428
231	0x3ec775b6	0.38956994
232	0xbebda500	-0.37039948
233	0xbe768e52	-0.24077728
234	0xbccf68be	-0.0253185
235	0xbe1b8f5e	-0.15191409
236	0x3d3123fb	0.043247204
237	0x3e50b428	0.20381224
238	0x3ec09dd2	0.37620407
239	0x3f00b109	0.50270134
240	0xbec48695	-0.38383928
241	0xbe21f597	-0.15816341
242	0xbe879bad	-0.2648596
243	0xbefd1721	-0.49431708
244	0x3e5bcefd	0.21465679
245	0x3e5f50cf	0.2180817
246	0xbeba331c	-0.36367118
247	0x3f20dd9c	0.6283815
248	0xbeac49b2	-0.33649975
249	0x3e50f31b	0.20405237
250	0x3ee0e031	0.43921044
251	0xbed9dff7	-0.42553684
252	0xbca2caf0	-0.019872159
253	0x3e69f571	0.22847535
254	0xbb96a18f	-0.004596896
255	0xbe9142e3	-0.28371343

W_P.bias f4 [100]
0	0x3de697cc	0.11259422
1	0xbeddfbf1	-0.4335628
2	0xbeb7b849	-0.35882786
3	0xbd270d7d	-0.040784348
4	0xbe649e3b	-0.22325985
5	0xbb14304b	-0.0022611793
6	0x3e5b6b66	0.21427688
7	0x3ed994a3	0.42496213
8	0xbed9fddf	-0.425765
9	0xbe130fbd	-0.14361472
10	0x3db50277	0.08838361
11	0xbeac710e	-0.33680004
12	0x3df54ade	0.119771704
13	0xbe977394	-0.29580367
14	0xbd04f158	-0.032456726
15	0x3f01a542	0.5064279
16	0x3d3fba07	0.04680827
17	0x3e1dc283	0.15406232
18	0xbddd9fdc	-0.108215064
19	0x3e8dd752	0.2770334
20	0x3dc66ec4	0.096890956
21	0xbe2adb75	-0.16685279
22	0x3eda72d8	0.42665744
23	0x3eb8edb8	0.36118865
24	0xbe8c9eb5	-0.27464834
25	0xbeca942b	-0.39566168
26	0xbe4bb080	-0.19891548
27	0xbe211368	-0.15730059
28	0xbe67793b	-0.2260484
29	0xbe7e7d8b	-0.24852578
30	0xbe9e4f92	-0.30920082
31	0x3e6ce0c6	0.2313262
32	0x3e25b663	0.16182856
33	0xbe874b2c	-0.2642454
34	0x3e52c1dd	0.20581765
35	0x3e8656ac	0.26238
36	0x3d979926	0.074022576
37	0xbe8b10e5	-0.27161327
38	0xbeca3e22	-0.3950053
39	0x3d7301b5	0.0593278
40	0x3e42ea96	0.190348
41	0xbe9bf643	-0.3046132
42	0xbe1688c0	-0.14700603
43	0xbe884e42	-0.26622206
44	0x3e531a14	0.20615417
45	0x3e891280	0.26771927
46	0x3f0552a0	0.520792
47	0x3eba2234	0.3635422
48	0x3e222ec3	0.1583815
49	0xbf01af23	-0.5065786
50	0xbe8e93c2	-0.27847105
51	0xbddb9fd5	-0.10723845
52	0x3e3ba83b	0.18325894
53	0x3dc1a0f9	0.09454531
54	0xbe8b7228	-0.27235532
55	0xbe1ab5ec	-0.1510846
56	0x3e216bc1	0.15763761
57	0xbebd8f67	-0.3702347
58	0xbe766d6e	-0.24065182
59	0xbeedaebc	-0.46422374
60	0x3d7c47fb	0.061592083
61	0xbe28e9c6	-0.16495427
62	0x3ef81954	0.48456824
63	0x3ec90405	0.3926088
64	0xbeec7f95	-0.46191087
65	0xbe1e57c7	-0.15463172
66	0xbefbcd96	-0.49180287
67	0xbea8db7a	-0.32979947
68	0x3e0471fb	0.12934105
69	0xbf00af31	-0.5026732
70	0x3e4aa805	0.19790657
71	0x3eb3c746	0.3511297
72	0xbd6e5b43	-0.058192503
73	0x3eabdbf2	0.33566242
74	0x3ef72224	0.48268235
75	0xbe5259b8	-0.20542037
76	0xbeb6f1d1	-0.35731366
77	0xbeb458c2	-0.35223967
78	0x3ec2a534	0.38016665
79	0x3ec36e70	0.38170195
80	0x3e6ca064	0.23108059
81	0x3e2f42e9	0.17115368
82	0x3d6878b5	0.05675574
83	0x3ef79201	0.4835358
84	0xbe0550d4	-0.13019115
85	0xbe30b992	-0.1725829
86	0xbca73b01	-0.020413877
87	0x3e91389e	0.28363508
88	0xbe53cecc	-0.20684355
89	0xbeaf66a1	-0.34257987
90	0xbe6addcd	-0.22936173
91	0xbd1e49cc	-0.038644597
92	0x3f031d64	0.5121672
93	0xbe3b4286	-0.18287095
94	0x3e4d24c8	0.20033562
95	0xbe8b9f9f	-0.2727022
96	0xbe32ca4b	-0.17459981
97	0x3f013253	0.50467414
98	0xbe99f3b6	-0.3006875
99	0x3f048ac2	0.5177423

encoder.layers.0.self_attn.W_Q.weight f4 [60, 100]
0	0xbd3891f2	-0.04506106
1	0x3b17d8b3	0.0023169934
2	0xbdb12aa7	-0.086507134
3	0x3d52bc06	0.051448844
4	0x3d2b3300	0.041796684
5	0xbc6f0fbe	-0.014591156
6	0xbdb5712e	-0.08859478
7	0x3d608ed6	0.05482372
8	0xbda4dead	-0.080502845
9	0x3d9f0227	0.077640824
10	0x3daaedae	0.08346115
11	0xbd7d4008	-0.061828643
12	0xbdddcd11	-0.10830129
13	0xbda10ce8	-0.0786379
14	0xbd6fc9ff	-0.058542248
15	0xbc27f868	-0.010252096
16	0x3d02f6ae	0.031973533
17	0x3ce08fb3	0.027412271
18	0x3ddf8e42	0.109158054
19	0xbd6d6ee2	-0.057967074
20	0x3d36ae0c	0.044599578
21	0xbd52e753	-0.05149014
22	0xbd74269c	-0.059607133
23	0xbd2af207	-0.04173472
24	0xbda0c47b	-0.07849976
25	0x3d9fb389	0.077979155
26	0x3cb120f0	0.021622151
27	0x3d95687d	0.0729532
28	0xbd629913	-0.055321764
29	0x3c3c7708	0.011502989
30	0x3d3b46e4	0.045721903
31	0xbd399ddf	-0.045316573
32	0xbba89554	-0.0051447544
33	0x3d7bd410	0.061481535
34	0xbc6cf6c6	-0.014463132
35	0xbcc3f298	-0.023919389
36	0xbdc545ce	-0.09632455
37	0xbd92b59a	-0.07163544
38	0x3da78c39	0.08181042
39	0x3d08cbac	0.03339736
40	0x3dc918e7	0.09819203
41	0x3ce38a51	0.027775915
42	0x3c8e8494	0.017397203
43	0xbc88b689	-0.016688602
44	0xbd47992f	-0.04873007
45	0xbaa76216	-0.0012770321
46	0x3c122753	0.008920508
47	0x3d8cf881	0.06883336
48	0x3dc22967	0.09480553
49	0x3c67c376	0.014145723
50	0x3d02241c	0.031772718
51	0xbdc26c49	-0.0949331
52	0x3cee5ad0	0.029096037
53	0xbd9642d6	-0.07336967
54	0xbd33c6b7	-0.04389068
55	0xbdaa0f1d	-0.08303664
56	0xbb850f12	-0.0040606344
57	0x3bf93c21	0.007606045
58	0xbbcdf1a6	-0.0062849103
59	0xbd531ed0	-0.051543057
60	0xbd97ca6f	-0.07411658
61	0xbd0769f8	-0.033060044
62	0xbdae2364	-0.08502844
63	0xbdbc4c82	-0.0919428
64	0x3cdb86a7	0.026797606
65	0x39f83bb9	0.00047346743
66	0x3d9ef6e4	0.077619344
67	0x3d04b1fc	0.0323963
68	0xbde6fd11	-0.11278737
69	0x3dd1b583	0.10239699
70	0xbbd9721e	-0.0066359183
71	0xbdd9467c	-0.10609147
72	0xbd9ef0cd	-0.07760773
73	0x3bad8588	0.005295459
74	0xbdea18d7	-0.11430519
75	0x3de67d96	0.11254422
76	0xbd9a213c	-0.0752587
77	0xbd1c44a6	-0.038151406
78	0xbd7f0839	-0.0622637
79	0xbd59f68b	-0.053213637
80	0x3ba2809f	0.0049591805
81	0xbdcfd498	-0.10147971
82	0x3dd8b8fb	0.10582157
83	0xbd312f9a	-0.043258287
84	0xbc7ce597	-0.015435598
85	0xbd7a7fdb	-0.06115709
86	0xbd4ba50c	-0.049717948
87	0xbd82741e	-0.06369804
88	0xbc198452	-0.0093699265
89	0x3cbff73c	0.02343332
90	0xbce7cb86	-0.02829529
91	0xbd3dec13	-0.046367716
92	0x3d21d8b4	0.039513305
93	0x3ccdce98	0.025122926
94	0x3d982216	0.074283764
95	0xbd302346	-0.04300239
96	0xbda931be	-0.08261441
97	0xbde84f35	-0.113432325
98	0xbda03771	-0.078230746
99	0x3cf5d72a	0.030009825
100	0xbd00e004	-0.031463638
101	0xbdb72c0c	-0.08943948
102	0xbd0335d5	-0.03203376
103	0xbd2a55cf	-0.04158574
104	0x3db32260	0.08746791
105	0x3db055ba	0.08610101
106	0xbdbe533f	-0.09293222
107	0x3d90810c	0.07055864
108	0xbdc68f53	-0.09695306
109	0xbce274af	-0.02764353
110	0xbce515d9	-0.02796452
111	0x3d14ffa2	0.036376603
112	0x3d92828b	0.07153805
113	0x3c7e8bb9	0.015536242
114	0x3d97a4a5	0.0740445
115	0xbcf1a267	-0.029496385
116	0xbc06c2de	-0.008225171
117	0xbd27aec8	-0.04093817
118	0x3d59a327	0.05313411
119	0xbd7d0415	-0.06177147
120	0xbd80df0c	-0.06292543
121	0xbcb7f42c	-0.022455297
122	0xbc27725d	-0.010220137
123	0x3dc26a90	0.094929814
124	0xbd69d38b	-0.05708651
125	0x3d82ef9f	0.0639336
126	0xbdb5b974	-0.08873263
127	0xbd404674	-0.04694219
128	0x3d9b7b88	0.07591921
129	0x3c12c692	0.008958476
130	0x3d62a4b8	0.05533287
131	0x3c0919de	0.008367984
132	0x3db51db8	0.08843559
133	0x3d4bd292	0.049761362
134	0x3da341da	0.079715446
135	0x3d6c90a7	0.05775514
136	0x3dad6650	0.0846678
137	0xbd867c1f	-0.06566643
138	0xba769e12	-0.00094077096
139	0xbd82a3f4	-0.06378928
140	0xbdb33e0d	-0.087520696
141	0x3d697362	0.056994803
142	0x3c237623	0.009976896
143	0x3ddbb031	0.10726965
144	0xbd2d1881	-0.042259697
145	0xbd49aec2	-0.049238928
146	0xbde816d9	-0.11332483
147	0x3dbbb125	0.09164647
148	0xbd745796	-0.05965384
149	0xbc824ff5	-0.015907267
150	0x3cc7e494	0.024400987
151	0xbdbf1a89	-0.09331233
152	0x3d83ae01	0.06429673
153	0xbd4a873b	-0.049445372
154	0x3c431fc9	0.011909434
155	0xbdcb9623	-0.09940746
156	0x3dc574a1	0.09641386
157	0x3c1c359c	0.009534266
158	0x3b587f48	0.003303485
159	0x3dd5454f	0.1041361
160	0xbded785a	-0.11595221
161	0x3e043837	0.1291207
162	0x3d5fa8a1	0.054604176
163	0x3d609983	0.0548339
164	0x3da6bfc7	0.081420474
165	0x3d7da710	0.0619269
166	0xbd155f40	-0.03646779
167	0x3d872049	0.06597955
168	0xbd093a02	-0.033502586
169	0x3d91c8f0	0.07118404
170	0x3c978612	0.018496547
171	0x3c1aabca	0.009440372
172	0xbc1b53d6	-0.009480437
173	0xbc829f7a	-0.015945185
174	0xbe06c801	-0.13162233
175	0xbd99cf3f	-0.07510232
176	0xbc5f3e55	-0.013625701
177	0xbc962a87	-0.018330825
178	0x3d056a73	0.03257222
179	0xbc90fb4c	-0.017697953
180	0xbd773702	-0.060355194
181	0xbd164d2e	-0.036694698
182	0xbd47b87b	-0.04875992
183	0xbd4597c0	-0.048240423
184	0x3ce245d0	0.02762118
185	0xbc28239b	-0.010262395
186	0x3d9931bf	0.074801914
187	0x3da01e29	0.078182526
188	0xba9d8cf7	-0.001202016
189	0xbd0682db	-0.032839637
190	0xbcf34b9b	-0.029699137
191	0xbdf3ad46	-0.11898284
192	0x3d364561	0.04449976
193	0x3d188ee4	0.037245646
194	0x3dec968c	0.11552152
195	0x3ca01073	0.019539094
196	0x3a8c7879	0.0010717056
197	0xbd817844	-0.06321767
198	0x3dcabbe2	0.09899117
199	0xbe12300a	-0.14276138
200	0xbd112197	-0.035432424
201	0x3db5eb79	0.088828035
202	0x3db6c4d8	0.08924264
203	0x3dcaa8b2	0.09895457
204	0xbc23140a	-0.009953508
205	0x3d887f41	0.06664897
206	0xbbf01ede	-0.0073278984
207	0xbd0ed71a	-0.034873106
208	0xbdab5880	-0.083664894
209	0xbce2567d	-0.027629131
210	0x3d5883c3	0.052860033
211	0xbd6c3fa0	-0.057677865
212	0x3d024b28	0.031809956
213	0xbd89ad60	-0.06722522
214	0xbcebcb4b	-0.028783461
215	0x3bc14876	0.0058985306
216	0x3dcd704e	0.10031186
217	0xbd38f74a	-0.04515771
218	0x3d1868cd	0.03720932
219	0xbc11e600	-0.008904934
220	0xbdb0c26b	-0.08630832
221	0xbd036697	-0.03208026
222	0x3dc2ebe3	0.09517648
223	0xbcc87c08	-0.024473205
224	0x3d2adfe8	0.04171744
225	0x3d642bfb	0.055706006
226	0xbd139bb2	-0.036037154
227	0xbdc84ec3	-0.097806476
228	0x3cbceeea	0.023063142
229	0x3dbd50a4	0.092438966
230	0x3dce1481	0.100625046
231	0xbcf7827a	-0.030213583
232	0x3d698e18	0.057020277
233	0xbdb96aa1	-0.09053541
234	0x3cca410a	0.024689216
235	0xbdb5ff30	-0.08886564
236	0x3d4d5920	0.050133824
237	0x3a61239a	0.0008588374
238	0xbd5f4b44	-0.05451514
239	0x3d9f409a	0.07775994
240	0x3d049be1	0.03237522
241	0x3d11ae68	0.035566717
242	0xbd700a39	-0.0586035
243	0xbd7017ce	-0.058616452
244	0xbd8c6507	-0.06855207
245	0xbcca4a05	-0.024693498
246	0xbd596184	-0.053071514
247	0x3ccbca61	0.024876775
248	0xbd83a241	-0.06427432
249	0xbd11f137	-0.03563043
250	0x3d9ae88a	0.075638846
251	0xbc962ce4	-0.018331952
252	0xbda41c81	-0.08013249
253	0xbcb0ab8e	-0.021566179
254	0xbdbcf607	-0.092266135
255	0x3ce991f2	0.028511975

encoder.layers.0.self_attn.W_K.weight f4 [60, 100]
0	0x3999c8ab	0.00029331943
1	0x3d741f40	0.059600115
2	0xbc7a8f36	-0.015292933
3	0x3ce7f6fb	0.028316012
4	0xbe1ef0c1	-0.15521528
5	0xbd8f92db	-0.07010432
6	0x3d5ae7cb	0.05344371
7	0x3d48d0d4	0.04902728
8	0xbd1c4a71	-0.03815693
9	0xbccdead0	-0.025136381
10	0x3d09b87c	0.033623204
11	0xbd88ba5f	-0.066761725
12	0x3c03f545	0.008054082
13	0x3e0bdde4	0.13658863
14	0xbd11a36b	-0.03555624
15	0xbdcdf896	-0.1005718
16	0x3d086c2a	0.03330628
17	0xbcca9c98	-0.024732873
18	0xbdeac37b	-0.11463066
19	0x3ceef96c	0.029171668
20	0xbd803966	-0.06260948
21	0xbda40619	-0.080089755
22	0x3d5b0758	0.0534738
23	0xbd5476f4	-0.051871255
24	0x3c7ce987	0.015436537
25	0xbcdb769c	-0.026789956
26	0x3d76bd89	0.06023935
27	0x3d3ac313	0.045596194
28	0x3d6a42a0	0.057192445
29	0x3e0c8140	0.1372118
30	0x3dd61978	0.104540765
31	0xbdb637a4	-0.08897331
32	0xbdf06d02	-0.117395416
33	0xbcb62731	-0.022235485
34	0xbd87ed59	-0.06637067
35	0xbcb93d4a	-0.022612233
36	0xbd00205c	-0.03128086
37	0x3db025c6	0.08600955
38	0xbdefe464	-0.11713484
39	0xbcea0c86	-0.028570425
40	0xbc8fb5dc	-0.017542772
41	0x3de78b45	0.113058604
42	0xbd845346	-0.06461196
43	0x3c88c0f4	0.01669357
44	0xbddc9f35	-0.10772554
45	0xbe035676	-0.12825951
46	0x3c03b752	0.008039312
47	0xbdd554be	-0.10416554
48	0x3ca99720	0.020701945
49	0xbd0ca7a0	-0.034339547
50	0x3d8a096e	0.0674008
51	0x3dd6dbed	0.10491166
52	0xbd66e3ac	-0.05636947
53	0xbcdf3aa1	-0.027249636
54	0xbd6a2150	-0.057160676
55	0x3d92fa7e	0.07176684
56	0xbd14fa29	-0.036371384
57	0xbda18faf	-0.078887336
58	0x3d7039bf	0.05864882
59	0xbd99fa81	-0.07518483
60	0x3df198f5	0.11796752
61	0xbd2d18e1	-0.042260054
62	0xbde1744f	-0.11008512
63	0x3cc2c9f4	0.02377794
64	0x3d3c085d	0.045906413
65	0x3dda4ec3	0.10659554
66	0x3cebff88	0.02880837
67	0xbdbbec3e	-0.09175919
68	0x3d97346a	0.07383044
69	0xbc3d1a6b	-0.011541943
70	0xbabf1cc1	-0.0014580713
71	0xbd7b79e8	-0.061395556
72	0x3ddbd7c5	0.10734514
73	0xbcbc6cfb	-0.023001185
74	0x3da5577f	0.08073329
75	0x3db8935e	0.09012483
76	0x3c3579ad	0.011076373
77	0x3c856216	0.016282123
78	0x3dc8d95c	0.09807083
79	0xbc8ce93f	-0.017201064
80	0xbd93377c	-0.07188317
81	0x3ce25ff0	0.027633637
82	0xbd0239e2	-0.031793483
83	0x3d8c4d20	0.06850648
84	0x3c3c85fb	0.011506553
85	0xbdb19dd0	-0.086726785
86	0x3d8589fd	0.0652046
87	0xbcd41c73	-0.025892472
88	0x3ce9c7d9	0.028537678
89	0x3c2bca5f	0.010485261
90	0x3dd7b9dd	0.105334975
91	0xbd7e5d53	-0.06210072
92	0x3e0d38f5	0.13791259
93	0x3c525fa2	0.012840183
94	0xbdb9e96c	-0.09077725
95	0xbd84f860	-0.06492686
96	0xbc59d207	-0.013294703
97	0x3d9847cd	0.0743557
98	0x3df27c11	0.1184007
99	0x3daeee5e	0.08541559
100	0xbcfbbebf	-0.030730603
101	0x3cb72a22	0.022358958
102	0x3cee8690	0.029116899
103	0xbc655de7	-0.013999439
104	0x3d1a4dc1	0.03767181
105	0x3cf608af	0.030033438
106	0xbd0cf2ec	-0.034411356
107	0xbdad3011	-0.084564336
108	0x3d3fab50	0.046794236
109	0xbda960c7	-0.08270412
110	0x3d9fb0c8	0.0779739
111	0x3d269824	0.040672436
112	0x3c672def	0.0141100725
113	0x3d4cf900	0.050042152
114	0xbd48321d	-0.048875917
115	0x3c182703	0.009286645
116	0x3d3ae02d	0.045623947
117	0xbdad1354	-0.08450952
118	0xbda54d53	-0.08071389
119	0xbbc36d5c	-0.0059639644
120	0x3c9b8477	0.018984063
121	0x3b33c50f	0.0027430688
122	0xbd63cac5	-0.055613298
123	0xbdce8048	-0.100830615
124	0xbcfcde87	-0.030867828
125	0x3b8d4650	0.0043113604
126	0x3c978539	0.018496143
127	0x3cb1d848	0.021709576
128	0x3d6069da	0.054788448
129	0xbc67aba1	-0.014140041
130	0xbc818213	-0.015809095
131	0xbccb7e85	-0.024840603
132	0xbd9538c6	-0.07286219
133	0x3d3bc3c5	0.045840997
134	0xbd55f54d	-0.05223589
135	0x3dc7cae0	0.09755492
136	0xbd7ac341	-0.061221365
137	0xbdb037e7	-0.086044125
138	0x3cec4c53	0.028844988
139	0xbd9de673	-0.0770997
140	0x3be3fa07	0.006957296
141	0xbd4cf428	-0.050037533
142	0x3d8d47f7	0.06898492
143	0xbdad673b	-0.08466955
144	0xbde940f5	-0.11389343
145	0xbde2b121	-0.11068941
146	0x3d0d9e14	0.034574583
147	0xbd31db84	-0.043422237
148	0x3d05b940	0.03264737
149	0x3cf07904	0.02935458
150	0x3d87692a	0.06611855
151	0x3dbde621	0.09272409
152	0x3cecd146	0.028908383
153	0x3d8fb5e6	0.07017116
154	0xbd690949	-0.05689362
155	0x3d177cee	0.036984377
156	0x3caf7dc1	0.021422269
157	0xbd413917	-0.047173586
158	0x3bacae7a	0.0052698227
159	0xbda1b2ad	-0.07895408
160	0x3dff3704	0.12461665
161	0xbddb5950	-0.107103944
162	0x3d95c3c2	0.073127285
163	0xbd564a59	-0.052316997
164	0xbd2eb3b7	-0.04265186
165	0xbd3aca7f	-0.04560327
166	0x3dc68908	0.096941054
167	0x3d561609	0.052267108
168	0x3d875d54	0.06609598
169	0xbd89f4ff	-0.067361824
170	0xbd3cfd24	-0.04613985
171	0x3bb4ebc1	0.005521268
172	0x3d661123	0.056168687
173	0x3d0fcccb	0.035107415
174	0xbcb98e40	-0.022650838
175	0xbdaab2f3	-0.08334913
176	0x3d259d3c	0.040433154
177	0xbba98478	-0.005173262
178	0x3d1b9e70	0.037992895
179	0x3d3391a4	0.043840066
180	0xbd681226	-0.056657933
181	0x3de0c3cf	0.109748475
182	0x3d2314c0	0.03981471
183	0xbd37e75d	-0.04489838
184	0x3d9c249a	0.07624169
185	0x3d6b0e0e	0.05738645
186	0xbd04410f	-0.032288607
187	0xbdb8891e	-0.09010528
188	0xbdb8a016	-0.09014909
189	0xbcd34834	-0.025791265
190	0x3ce5745d	0.028009588
191	0xbc901803	-0.017589575
192	0x3d8f526b	0.06998142
193	0x3c83fda7	0.016112162
194	0x3c8cab2f	0.01717147
195	0x3ded6918	0.11592311
196	0xbda500f5	-0.08056823
197	0x3de1a5b9	0.11017937
198	0x3dd6f516	0.10495965
199	0x3bd16cee	0.0063911593
200	0x3da07678	0.07835096
201	0x3db744a8	0.08948642
202	0xbd8d901f	-0.069122545
203	0xbd225dd4	-0.039640263
204	0x3bdc95de	0.0067317327
205	0x3c395655	0.011312087
206	0xbd98df62	-0.07464482
207	0xbdc4cad5	-0.09609
208	0x3cc71443	0.024301654
209	0xbd636ac4	-0.05552174
210	0x3d8fda79	0.07024092
211	0xbc5a2263	-0.0133138625
212	0xbbecc7b5	-0.0072259554
213	0x3d022847	0.031776693
214	0x3cac05d7	0.020998878
215	0x3d4ad4bb	0.04951928
216	0x3d9f1519	0.07767696
217	0xbda95292	-0.08267702
218	0x3d102551	0.035191838
219	0xbda169a6	-0.07881479
220	0x3d484388	0.048892528
221	0x3d4e9c6d	0.050442148
222	0xbcc94834	-0.024570562
223	0xbcbe4b13	-0.023229158
224	0x3c8b8369	0.017030435
225	0x3d7bb625	0.061453003
226	0x3da9ee9a	0.08297463
227	0xbc7d746e	-0.0154696535
228	0xbd62f7e0	-0.055412173
229	0x3d25bfe3	0.0404662
230	0xbd56d0f6	-0.052445374
231	0x3c17018d	0.009216678
232	0xbdafd164	-0.0858486
233	0x3ccdd8c4	0.025127776
234	0x3c8ce094	0.017196931
235	0xbd8eac9d	-0.06966517
236	0xbcd1a150	-0.025589615
237	0xbdb98b24	-0.09059742
238	0xbde269f8	-0.11055368
239	0x3d97f6a2	0.07420088
240	0x3daae056	0.0834357
241	0x3cb5843d	0.022157783
242	0x3d8b18cd	0.0679184
243	0x3d313fbf	0.043273684
244	0x3c7f9ea7	0.0156017905
245	0xbd2edece	-0.04269295
246	0xbd8891ac	-0.0666841
247	0x3d3b1257	0.045671787
248	0x3d264cc1	0.040600542
249	0xbd280779	-0.04102275
250	0xbd8ec9d6	-0.06972091
251	0x3c72e422	0.014824899
252	0x3dcc909d	0.0998852
253	0x3c84dab5	0.016217569
254	0x3db0a48d	0.086251356
255	0x3cd844d3	0.026400005

encoder.layers.0.self_attn.W_V.weight f4 [60, 100]
0	0xbc82e79d	-0.015979582
1	0xbd22e18b	-0.039765876
2	0xbd5d13d9	-0.053974006
3	0xbd51faab	-0.051264446
4	0xbd85c3f5	-0.065315165
5	0x3dbc3b85	0.0919104
6	0x3d7f1164	0.062272444
7	0xbd5a2ac1	-0.05326343
8	0x3c092104	0.008369688
9	0xbdc27188	-0.094943106
10	0xbd47e113	-0.048798632
11	0xbdc638ac	-0.09678778
12	0x3d5743d5	0.052554924
13	0xbc85dc2b	-0.016340336
14	0x3d336d81	0.043805603
15	0xbd15135e	-0.036395423
16	0x3c391fcf	0.011299088
17	0x3da07e2a	0.07836564
18	0x3b90cdcd	0.0044190646
19	0xbc99f455	-0.018793264
20	0xbdb38e51	-0.08767379
21	0xbd09b877	-0.033623185
22	0x3deea2a9	0.11652119
23	0xba6ccfa9	-0.00090336293
24	0xbc8e5036	-0.017372232
25	0xbda85c6b	-0.08220752
26	0xbd4053fa	-0.046955086
27	0xbaf10c2f	-0.0018390472
28	0xbd8857e4	-0.06657389
29	0xbcd7f959	-0.026364015
30	0xbc34305e	-0.01099786
31	0x3cc804c5	0.024416337
32	0xbd46d13b	-0.04853938
33	0x3d26d559	0.040730808
34	0xbdad9163	-0.08474996
35	0xbd08ba33	-0.0333807
36	0x3ba9d4c7	0.0051828357
37	0x3d73ef34	0.059554294
38	0x3db972d8	0.09055108
39	0xbd710394	-0.058841303
40	0x3d21478c	0.039374873
41	0xbd871ff7	-0.06597894
42	0xbc588719	-0.013215804
43	0xbd4edf4a	-0.050505914
44	0xbc2a6efe	-0.010402439
45	0x3d99dfd5	0.07513396
46	0xbdc53526	-0.09629278
47	0x3cc5e8b9	0.024158822
48	0x3d51115d	0.05104195
49	0xbd918b35	-0.0710663
50	0x3dbd9943	0.09257748
51	0xbc0ed718	-0.0087182745
52	0xbd7ca361	-0.061679248
53	0x3c4b18a8	0.012396015
54	0xbd46755a	-0.04845176
55	0xbdd275a1	-0.10276342
56	0xbd1b6046	-0.03793361
57	0xbcd46af3	-0.025929904
58	0xbce01c5e	-0.027357277
59	0xbd8a881b	-0.06764241
60	0x3c8611b1	0.016365858
61	0x3dcfb9c1	0.101428516
62	0xbd835ac1	-0.06413794
63	0x3d7b3624	0.06133093
64	0x3c799af2	0.015234696
65	0x3d4e52d5	0.050371964
66	0xbda28ba4	-0.079367906
67	0x3dafc129	0.08581764
68	0xbd083d4a	-0.033261575
69	0xbd34b7a0	-0.04412043
70	0x3d7b9b03	0.061427128
71	0xbcc10d30	-0.023565859
72	0x3c36b921	0.011152537
73	0xbdbc182f	-0.091843
74	0xbddffaca	-0.10936506
75	0x3dcd0fbf	0.10012769
76	0x3d6dfe17	0.058103647
77	0xbd762554	-0.060094193
78	0xbd2093fa	-0.03920362
79	0xbd9f40cc	-0.07776031
80	0xbcc79319	-0.024362134
81	0xbd1d683e	-0.03842949
82	0x3d904182	0.070437446
83	0x3d100c16	0.035167776
84	0x3cd9d22d	0.026589477
85	0x3d712a7e	0.058878414
86	0x3dcd4ddd	0.10024617
87	0x3d03c37b	0.032168847
88	0x3dd52606	0.10407643
89	0xbb416e41	-0.002951518
90	0x3c8b8892	0.017032895
91	0xbd95bea9	-0.07311756
92	0xbda630f9	-0.081148095
93	0x3d915cf8	0.070978105
94	0x3daf4ad6	0.08559196
95	0xbcb6264f	-0.022235064
96	0x3ce7327a	0.028222311
97	0xbd942153	-0.072329186
98	0x3d072a0d	0.032999087
99	0xbdc9c86e	-0.09852682
100	0x3dc84208	0.097782195
101	0xbd3097f5	-0.043113668
102	0xbc8c3711	-0.017116101
103	0xbd865547	-0.06559234
104	0xbcc3aca2	-0.023886029
105	0x3d451fdc	0.048126087
106	0x3cbf4899	0.023350047
107	0x3d1dde55	0.03854211
108	0xbcbba7a4	-0.022907086
109	0x3d674095	0.056458075
110	0x3d23e466	0.04001274
111	0x3c39ef31	0.011348532
112	0x3dbeca21	0.09315897
113	0xbd989c67	-0.074517064
114	0x3ba3a141	0.004993588
115	0xbd798b9d	-0.06092416
116	0xbca97f60	-0.02069062
117	0x3d7f9626	0.062399052
118	0xbcc99108	-0.02460529
119	0x3bd246d6	0.0064171357
120	0x3d5b2d9b	0.05351029
121	0xbc29690c	-0.0103399865
122	0xbd811a4e	-0.06303845
123	0x3d403256	0.046923004
124	0xbd77cad6	-0.060496174
125	0x3d4bb37e	0.049731724
126	0xbd4d49a4	-0.050119057
127	0x3a40995c	0.0007347071
128	0x3e1030c6	0.14081106
129	0xbe0111ee	-0.12604496
130	0x3cb09a49	0.021557944
131	0x3cb25d55	0.02177302
132	0x3c916e4a	0.017752785
133	0x3da91908	0.082567275
134	0xbdb24cc4	-0.08706048
135	0xbd735226	-0.059404515
136	0x3ca681d4	0.020325579
137	0xbcd442cc	-0.025910757
138	0x3dbbab95	0.09163586
139	0x3be16456	0.006878416
140	0x3d5cfdc6	0.053952955
141	0xbb657a37	-0.0035015473
142	0x3db1c098	0.086793125
143	0x3d2a0faf	0.041518863
144	0x3db4088f	0.08790695
145	0x3d8cc9bd	0.06874416
146	0xbd09183d	-0.03347038
147	0x3c8cc354	0.017182983
148	0x3b86b886	0.0041113524
149	0xbc0c0f58	-0.00854858
150	0xbb7becf9	-0.0038440807
151	0xbdd05f8b	-0.101744734
152	0xba94933f	-0.0011335387
153	0x3dada5db	0.084789
154	0x3d4121ea	0.047151484
155	0xbdc1ad56	-0.09456889
156	0xbd454d96	-0.048169695
157	0x3a9138a8	0.0011079507
158	0x3cbf9cd1	0.023390206
159	0x3d223ec5	0.039610643
160	0xbd9556f3	-0.07291975
161	0xbd414fde	-0.047195308
162	0xbdb7784c	-0.08958492
163	0x3caa8ea3	0.020819968
164	0xbd539319	-0.051653955
165	0x3d84c953	0.06483712
166	0x3d9393cf	0.072059266
167	0xbd8761d7	-0.06610458
168	0x3c243f1b	0.010024811
169	0x3c2f0046	0.010681218
170	0xbc450c1c	-0.012026813
171	0xbdc598aa	-0.09648259
172	0xbdbed819	-0.09318561
173	0xbd415f22	-0.047209866
174	0xbd916bba	-0.07100625
175	0x3dd1c007	0.102417044
176	0x3b00a08a	0.0019626939
177	0xbc49a2e1	-0.0123069
178	0xbdc97168	-0.09836084
179	0xbc5b8f46	-0.013400858
180	0xbd622e63	-0.05522002
181	0xbd1a4838	-0.03766653
182	0x3c970136	0.018433195
183	0x3ca39b9c	0.019971661
184	0xbd1ded2a	-0.038556255
185	0x3d7f369f	0.06230795
186	0x3da0c037	0.07849162
187	0xbdd61e53	-0.10455003
188	0x3ddd19c1	0.10795928
189	0x3cdbc300	0.026826382
190	0x3c592f01	0.0132558355
191	0xbd35313e	-0.044236414
192	0xbca8709b	-0.020561507
193	0xbd3469b5	-0.044046123
194	0x3e0386fa	0.12844458
195	0x3d97ef20	0.07418656
196	0xbda20c6d	-0.07912526
197	0xbdbf257b	-0.09333321
198	0xbdbd1a04	-0.09233478
199	0xbd56afd7	-0.052413788
200	0xbd775c90	-0.06039101
201	0x3ce06259	0.027390646
202	0xbd690403	-0.05688859
203	0x3ce0c964	0.02743978
204	0x3d853dd9	0.06505937
205	0x3dac875c	0.08424255
206	0x3d4ee5b7	0.050512042
207	0x3da0e35b	0.078558646
208	0x3bacb8a4	0.0052710343
209	0x3d104473	0.03522153
210	0xbd4c5c95	-0.04989298
211	0x3d39f92b	0.04540364
212	0xbd73f0cf	-0.059555825
213	0xbdc00ad8	-0.09377068
214	0x3d5ba07a	0.05361984
215	0x3c92e6f4	0.017932393
216	0x3ce82e48	0.028342381
217	0x3dda6862	0.10664441
218	0x3dce8506	0.10083966
219	0xbd831ee2	-0.06402375
220	0x3dca7c8d	0.098870374
221	0xbd9c6ae7	-0.076375775
222	0xbd83502d	-0.06411777
223	0x3dcb18ba	0.099168256
224	0x3d9cc24e	0.07654248
225	0x3d943382	0.07236387
226	0xb9cb1806	-0.00038737076
227	0x3db0f761	0.08640934
228	0x3df8740a	0.12131508
229	0xbd2c6e4d	-0.04209738
230	0xbd91ba5d	-0.07115624
231	0x3cadc62d	0.021212662
232	0x3d2163f9	0.039401982
233	0x3e0249ee	0.12723514
234	0x3d5a85d8	0.0533503
235	0xbbcba90a	-0.0062152194
236	0x3cdd312f	0.027000992
237	0x3d02799e	0.031854264
238	0xbc24eabf	-0.010065733
239	0xbd799d2e	-0.060940914
240	0xbc7ad19e	-0.015308766
241	0xbd4bf613	-0.04979522
242	0x3cdbad86	0.02681614
243	0x3cadf2cb	0.021233937
244	0x3ce87c48	0.028379574
245	0x3d91479b	0.07093736
246	0x3c2f9c31	0.010718391
247	0x3deb88b9	0.11500687
248	0x3babecf0	0.005246751
249	0xbc8e1316	-0.017343085
250	0x3db498f3	0.08818235
251	0x3d5fa55d	0.054601062
252	0xbd205600	-0.039144516
253	0x3d4b18f6	0.04958435
254	0xbdabb5b0	-0.083842635
255	0xbdd0d86d	-0.1019753

encoder.layers.0.self_attn.W_O.weight f4 [100, 60]
0	0xbdcf84b6	-0.101327345
1	0xbde52570	-0.11188781
2	0xbdecdcf4	-0.11565581
3	0x3d72399b	0.059136968
4	0x3bfee219	0.007778418
5	0xbdbbbad6	-0.091664955
6	0xbd978bcc	-0.07399711
7	0xbd5ccc34	-0.05390568
8	0xbdf23ef2	-0.11828412
9	0xbcfa7833	-0.030574894
10	0xbe123b92	-0.14280537
11	0xbdc5516e	-0.09634672
12	0x3de30793	0.11085429
13	0xbe0b2da0	-0.13591623
14	0xbd806b91	-0.06270517
15	0xbd04be9d	-0.032408345
16	0xbdebe671	-0.115185626
17	0x3e1791e6	0.1480175
18	0xbd8fdde9	-0.07024748
19	0xbda95aa3	-0.08269241
20	0x3d9ce490	0.07660782
21	0x3dc769ce	0.097369775
22	0xbc360e1a	-0.0111117605
23	0xbda0dd07	-0.078546576
24	0x3db2cad6	0.08730094
25	0x3d0e1f9d	0.034698118
26	0x3c024214	0.007950325
27	0xbd408334	-0.047000125
28	0xbe0200e4	-0.12695652
29	0xbd8bd33a	-0.06827398
30	0xbda7f53a	-0.0820107
31	0xbdd28601	-0.102794655
32	0xbd74b2c0	-0.05974078
33	0xbca8da62	-0.020611946
34	0xbd8c363a	-0.068462804
35	0x3db1091c	0.086443156
36	0x3c579452	0.013157921
37	0xbc98e19a	-0.018662263
38	0x3d455f46	0.048186563
39	0xbe32c139	-0.17456521
40	0xbd3b0831	-0.04566211
41	0x3de1235c	0.109930724
42	0x3ca7822c	0.020447813
43	0xbd71d25f	-0.059038516
44	0x3d7ccf29	0.061721
45	0xbcbeacf3	-0.023275828
46	0xbd0cd8f7	-0.0343866
47	0x3d5cac23	0.0538751
48	0xbcbf6388	-0.02336289
49	0x3df0a689	0.11750514
50	0x3de8f562	0.11374928
51	0xbd87aba1	-0.066245325
52	0x3b14340a	0.0022614026
53	0x3dea32a8	0.11435443
54	0xbd905e7d	-0.07049272
55	0x3d0442b1	0.032290164
56	0x3d0ff279	0.03514335
57	0xbcb38b00	-0.021916866
58	0xbd023b41	-0.03179479
59	0xbdc87c68	-0.097893536
60	0xbc7dbfbb	-0.015487607
61	0xbc3dbc9f	-0.011580615
62	0x3db146de	0.08656095
63	0x3df6c346	0.12048964
64	0xbc9b3575	-0.018946389
65	0x3df132b7	0.11777251
66	0x3d35f395	0.04442175
67	0xbd1441e4	-0.03619565
68	0xbd681b9b	-0.05666695
69	0x3c9b2856	0.018940132
70	0x3d4a9354	0.04945691
71	0xbe09a968	-0.1344353
72	0x3df8ccd9	0.121484466
73	0xbd4d7615	-0.05016144
74	0x3e29e8ac	0.16592664
75	0xbdb9aed4	-0.09066549
76	0xbdae413f	-0.085085385
77	0xbcd3a1f6	-0.025834065
78	0xbccbfc93	-0.02490071
79	0xbd527524	-0.051381245
80	0xbe0e8ae2	-0.13920167
81	0xbe279a2c	-0.16367406
82	0xbd825796	-0.06364362
83	0x3d78fd95	0.06078871
84	0x3b24be0f	0.0025137698
85	0xbd37ff01	-0.044920925
86	0xbde98389	-0.114020415
87	0x3d8bf6d3	0.06834187
88	0x3d2b6319	0.041842554
89	0x3d5967bd	0.05307745
90	0xbda05249	-0.07828195
91	0x3b831695	0.0040004947
92	0x3dc5907b	0.09646698
93	0x3c679f79	0.014137142
94	0xbd90f153	-0.07077279
95	0x3c85fe04	0.016356476
96	0x3d00ff08	0.031493217
97	0xbdd82da1	-0.10555578
98	0x3d757683	0.059927475
99	0xbd2e1e5a	-0.042509414
100	0xbdede58a	-0.11616047
101	0xbd75ca9c	-0.060007676
102	0x3c97e32c	0.018540941
103	0x3dd0411e	0.1016867
104	0xbcf3d04b	-0.029762408
105	0x3dfd2c01	0.12361909
106	0x3e1c1c5a	0.1524519
107	0x3d856d6a	0.0651501
108	0x3db3210a	0.08746536
109	0xbdd1795c	-0.102282256
110	0xbe04628b	-0.12928216
111	0xbdb78adb	-0.089620315
112	0xbd469693	-0.048483443
113	0xbcf1d428	-0.02952011
114	0x3da7e2ce	0.081975564
115	0xbd888556	-0.06666057
116	0x3ceeb40e	0.029138591
117	0xbd65f9fa	-0.0561466
118	0xbda6b161	-0.08139301
119	0x3d997729	0.07493431
120	0x3e161921	0.14658023
121	0xbdc5556e	-0.09635435
122	0x3d53180d	0.05153661
123	0xbd0f0c58	-0.03492388
124	0x3dfadf09	0.12249572
125	0x3cd871a6	0.02642138
126	0x3e0b36e2	0.13595155
127	0xbd129322	-0.035784848
128	0xbca21716	-0.019786399
129	0x3d201c1f	0.03908932
130	0xbcff119b	-0.031136325
131	0xbca543d7	-0.02017395
132	0xbdf7775b	-0.12083312
133	0xbd382577	-0.044957604
134	0x3d9e28c8	0.07722622
135	0x3c8f4718	0.017489955
136	0x3d8a5785	0.06754974
137	0x3cf31de4	0.029677339
138	0xbda42d0a	-0.08016403
139	0xbd7ef0c3	-0.062241327
140	0xbdfb228b	-0.12262448
141	0xbe0b8925	-0.13626535
142	0x3cc20825	0.023685524
143	0x3c3297fa	0.010900492
144	0x3d0e053f	0.03467297
145	0xbd8b26bc	-0.06794497
146	0xbbc1a8c4	-0.005910011
147	0x3da5f273	0.08102884
148	0x3cd302d7	0.02575819
149	0xbda4094a	-0.08009584
150	0x3df003e5	0.11719493
151	0xbdce14d2	-0.10062565
152	0xbd8324d4	-0.06403509
153	0x3d658812	0.05603797
154	0x3d7735e6	0.060354136
155	0xbdebce44	-0.115139514
156	0x3dcddc94	0.100518376
157	0xbd9b7533	-0.07590713
158	0x3cf63dbb	0.030058732
159	0xbc5a0892	-0.013307707
160	0x3d98192c	0.07426676
161	0x3d4db328	0.050219685
162	0xbe05a2ba	-0.13050357
163	0x3c53f6e0	0.012937278
164	0x3ce29930	0.027660936
165	0x3d956ef3	0.072965525
166	0xbdb103b9	-0.08643288
167	0x3dacd42d	0.08438907
168	0xbce2e442	-0.027696732
169	0x3d514cc4	0.0510986
170	0xbc253f00	-0.010085821
171	0x3c08fa44	0.008360449
172	0xbdd8a55a	-0.10578413
173	0xbd981a6c	-0.074269146
174	0x3e0488e1	0.1294284
175	0x3cc41e8a	0.023940343
176	0xbdad3d52	-0.084589615
177	0xbd3605e6	-0.04443922
178	0x3c14c351	0.00907977
179	0x3d1687ec	0.03675072
180	0xbda8abb7	-0.08235877
181	0xbdb4dd53	-0.08831277
182	0xbdcbc4ab	-0.09949621
183	0x3d96cf57	0.07363766
184	0x3d858554	0.06519571
185	0x3d41fbb5	0.047359187
186	0xbc82ab89	-0.015950935
187	0x3dc3a679	0.095532365
188	0x3d50689c	0.050881013
189	0xbdf85f54	-0.121275574
190	0xbe119a1c	-0.14218944
191	0xbd60beba	-0.05486939
192	0x3e09923d	0.13434692
193	0xbcef716e	-0.029228892
194	0xbdb2f25c	-0.08737633
195	0xbce9e204	-0.028550155
196	0xbc982a61	-0.018574895
197	0xbc8f2b7f	-0.017476795
198	0xbe0f77b2	-0.14010504
199	0xbd883e27	-0.066524796
200	0xb8f02812	-0.000114515555
201	0x3d94defe	0.07269095
202	0xbe0baf48	-0.13641083
203	0x3daa492a	0.08314736
204	0x3cbc1b1d	0.022962147
205	0x3d6ac28b	0.057314437
206	0x3db7e95e	0.08980058
207	0x3e3b9738	0.18319404
208	0xbdab693e	-0.08369683
209	0x3b99fd02	0.0046993503
210	0xbd81b338	-0.063330114
211	0x3d3e0a43	0.046396505
212	0x3de6cba7	0.11269312
213	0x3db3eba8	0.08785182
214	0x3d840248	0.064457476
215	0x3db727ba	0.08943124
216	0x3d8a2fe6	0.06747417
217	0xbd4bcd70	-0.049756467
218	0xbcb2d0d6	-0.021828096
219	0xbe3b149f	-0.18269585
220	0x3c8635c2	0.016383056
221	0x3d174e49	0.036939893
222	0xbdadc6c4	-0.08485177
223	0x3d66036d	0.05615561
224	0x3d96e99a	0.07368775
225	0xbdd397a1	-0.10331655
226	0xbcedcf7d	-0.029029602
227	0xbbd5ab6c	-0.006520679
228	0xbd3eccf7	-0.04658219
229	0x3e05b2f1	0.13056542
230	0x3ca54cc1	0.0201782
231	0x3d6bc930	0.057564914
232	0xbbac7efd	-0.0052641616
233	0xbc7995d0	-0.015233472
234	0x3d99ad97	0.07503813
235	0xbde7b193	-0.113131665
236	0xbdc7f1c2	-0.097629085
237	0x3c9432f1	0.018090697
238	0xbd03ca56	-0.032175384
239	0xbdcad016	-0.099029705
240	0x3da02507	0.078195624
241	0x3d2afa95	0.04174288
242	0xbd98114f	-0.07425176
243	0x3cb30821	0.021854462
244	0x3e0e465a	0.13894024
245	0xbbf3a641	-0.0074355905
246	0x3e073ab0	0.13205981
247	0xbcb7551a	-0.022379447
248	0x3db550c7	0.08853298
249	0x3ceb5296	0.028725903
250	0x3d82383c	0.06358382
251	0x3d43d95b	0.04781471
252	0x3d46d266	0.048540495
253	0xbdc53dc4	-0.096309215
254	0x3e03de76	0.12877831
255	0xbcf472b0	-0.029839844

encoder.layers.0.batchnorm_attn.1.weight f4 [100]
0	0x3f862c5d	1.0482289
1	0x3f77628b	0.9663474
2	0x3f81e530	1.0148067
3	0x3f8574c1	1.0426255
4	0x3f7967a7	0.97423786
5	0x3f7d4e80	0.98947906
6	0x3f734146	0.95021474
7	0x3f869583	1.0514377
8	0x3f81c776	1.0138996
9	0x3f7d519c	0.9895265
10	0x3f858f29	1.0434314
11	0x3f79593d	0.9740179
12	0x3f7dc109	0.99122673
13	0x3f820f3f	1.0160903
14	0x3f8174dc	1.0113788
15	0x3f801f6a	1.0009587
16	0x3f73f0d7	0.9528937
17	0x3f75d103	0.9602205
18	0x3f885cd9	1.0653335
19	0x3f7c42b5	0.98539287
20	0x3f6c785b	0.9237115
21	0x3f8a090f	1.0784014
22	0x3f856831	1.0422422
23	0x3f88bb9b	1.0682253
24	0x3f877c14	1.0584741
25	0x3f798d09	0.9748083
26	0x3f75ebe8	0.9606309
27	0x3f824839	1.0178291
28	0x3f7f90fb	0.998306
29	0x3f826ecb	1.0190061
30	0x3f8575c0	1.042656
31	0x3f86c1b9	1.052787
32	0x3f7da246	0.99075735
33	0x3f840323	1.0313457
34	0x3f72c0ba	0.9482533
35	0x3f847856	1.0349224
36	0x3f82cb56	1.0218303
37	0x3f83783a	1.0271065
38	0x3f827ca2	1.0194285
39	0x3f880dc3	1.06292
40	0x3f846f36	1.0346439
41	0x3f7db7bf	0.991085
42	0x3f853a02	1.0408328
43	0x3f799997	0.97499985
44	0x3f81dac6	1.0144889
45	0x3f73f4a9	0.95295197
46	0x3f7deebf	0.9919242
47	0x3f7e1cc3	0.99262637
48	0x3f83e209	1.0303355
49	0x3f7ded55	0.99190265
50	0x3f819726	1.0124252
51	0x3f837275	1.0269305
52	0x3f831f17	1.0243863
53	0x3f6e95f8	0.93197584
54	0x3f7f5068	0.99732065
55	0x3f81c343	1.0137714
56	0x3f814097	1.0097836
57	0x3f751671	0.9573737
58	0x3f802f10	1.0014362
59	0x3f7e6c46	0.9938396
60	0x3f807185	1.0034643
61	0x3f876801	1.0578614
62	0x3f7cab55	0.9869893
63	0x3f829eab	1.0204672
64	0x3f88f122	1.0698588
65	0x3f817bf5	1.0115954
66	0x3f83450d	1.0255448
67	0x3f83569a	1.0260804
68	0x3f77b797	0.9676451
69	0x3f80babd	1.0056988
70	0x3f76a1af	0.9634046
71	0x3f7c7ce4	0.9862807
72	0x3f7eefeb	0.99584836
73	0x3f71467a	0.94248164
74	0x3f817bc8	1.01159
75	0x3f81f474	1.0152726
76	0x3f805fdb	1.0029253
77	0x3f81778f	1.0114611
78	0x3f84a9c4	1.0364308
79	0x3f74e1cb	0.9565703
80	0x3f815050	1.0102634
81	0x3f82fa00	1.0232544
82	0x3f81d154	1.0142007
83	0x3f8204b1	1.0157682
84	0x3f6af4eb	0.91779965
85	0x3f7322fd	0.9497526
86	0x3f8005bf	1.0001754
87	0x3f84df93	1.038073
88	0x3f803e0a	1.0018933
89	0x3f784358	0.9697776
90	0x3f84992d	1.0359246
91	0x3f7ddb2c	0.99162555
92	0x3f82c433	1.0216125
93	0x3f81bfda	1.0136673
94	0x3f86fde0	1.0546227
95	0x3f806142	1.0029681
96	0x3f7d5cd9	0.989698
97	0x3f86eef2	1.054167
98	0x3f84e79e	1.0383184
99	0x3f85466f	1.041212

encoder.layers.0.batchnorm_attn.1.bias f4 [100]
0	0xbd7c9b77	-0.0616717
1	0x3d01363c	0.031545863
2	0xbcdd85b9	-0.027041303
3	0xbd8283b7	-0.06372779
4	0x3d122a47	0.03568485
5	0x3d2e48a8	0.04254976
6	0x3d1ff79b	0.039054494
7	0xbc1d10d7	-0.009586534
8	0xbc948fa7	-0.018134905
9	0xbc7d7daf	-0.01547186
10	0xbcc671ad	-0.024224127
11	0x3a5415ad	0.0008090388
12	0xbd01b1a8	-0.031663567
13	0x3d88c60e	0.06678401
14	0xbdc07fc6	-0.09399371
15	0x3caa21ab	0.020768007
16	0x3cc3b168	0.023888305
17	0x3c170d63	0.0092195
18	0x3d4a4af2	0.04938788
19	0x3d0550da	0.03254781
20	0xbc030f10	-0.007999197
21	0xbd4669e8	-0.048440844
22	0xbd82a2c7	-0.063787036
23	0xbd24f600	-0.040273666
24	0x3daa5287	0.08316522
25	0xbd09ffa9	-0.033691082
26	0x3d3085dc	0.04309641
27	0xbe08cc9e	-0.13359305
28	0x3da93221	0.082615145
29	0xbd013eef	-0.03155416
30	0xbc0def0b	-0.008662949
31	0x3c6b9fe7	0.014381385
32	0xbc7f9bfd	-0.015601155
33	0x3c45070e	0.012025608
34	0x3c3d0d6c	0.011538845
35	0x3d964168	0.07336694
36	0xbda7cf5f	-0.0819385
37	0x3d94c9d0	0.07265055
38	0xbdd7a847	-0.10530143
39	0x3c631662	0.013860317
40	0xbd7b53a8	-0.061359078
41	0xbd31eea1	-0.043440465
42	0x3d3de53b	0.04636119
43	0x3cc940ba	0.024566997
44	0x3c7d88cd	0.01547451
45	0x3d3b4318	0.045718282
46	0xbd20029c	-0.03906499
47	0x3b5bddfb	0.0033549059
48	0x3d333757	0.043753948
49	0x3bdbc2ce	0.006706572
50	0xbd81597e	-0.063158974
51	0x3c789268	0.015171625
52	0xbd18af36	-0.03727647
53	0xbd043172	-0.032273717
54	0xbb2928d4	-0.002581169
55	0x3d5a1e60	0.053251624
56	0x3d14f02e	0.036361866
57	0x3d3c424f	0.045961674
58	0xbd8ac5a6	-0.0677598
59	0xbce048b2	-0.027378414
60	0xbc50ab20	-0.012736112
61	0xbd66bdbc	-0.05633329
62	0xbd96ee87	-0.07369714
63	0xbd05b24c	-0.03264074
64	0x3da3da75	0.08000652
65	0x3d3d4536	0.046208583
66	0xbdbd007b	-0.09228607
67	0x3d65382f	0.055961784
68	0xbd43e217	-0.047823038
69	0x3d1aedfa	0.03782461
70	0x3c8f3384	0.01748062
71	0xbd36bb8e	-0.04461246
72	0x3d9e3cfc	0.077264756
73	0x3c8e9767	0.017406179
74	0xbd180e7c	-0.03712319
75	0x3d1c1a5f	0.038111087
76	0x3cd78b61	0.026311578
77	0xbd8b3a30	-0.06798208
78	0xbd0984fd	-0.033574093
79	0x3d10bf7d	0.035338867
80	0xbcd5915a	-0.026070286
81	0xbb402959	-0.002932152
82	0x3d12e3c6	0.035861753
83	0xbd0d0935	-0.03443261
84	0x3d0f9465	0.03505363
85	0x3c9995c7	0.018748177
86	0x3cd38427	0.025819851
87	0x3d5bf15c	0.053696975
88	0x3d0ec5e0	0.034856677
89	0xbd5e85e4	-0.054326907
90	0xbd839535	-0.06424943
91	0x3c5dc249	0.013535091
92	0x3c48858c	0.012238871
93	0xbccc1afd	-0.024915213
94	0x3d892461	0.06696392
95	0xbbb781e4	-0.005600201
96	0x3c690fe6	0.014224982
97	0xbd758837	-0.059944358
98	0xbd936880	-0.07197666
99	0xbd97f6a5	-0.074200906

encoder.layers.0.batchnorm_attn.1.running_mean f4 [100]
0	0xbe51a889	-0.20474447
1	0x3f19361b	0.59848183
2	0xbf0b1331	-0.5432616
3	0xbf410817	-0.7540297
4	0x3f834d82	1.0258029
5	0x3ee88bf6	0.45419282
6	0x3f56c875	0.83899623
7	0x3e0eaaf5	0.13932402
8	0xbf2eaec9	-0.6823545
9	0xbf42e19d	-0.7612551
10	0x3d301406	0.042987846
11	0xbf910946	-1.1330955
12	0xbf0d02d3	-0.55082434
13	0xbc8930ab	-0.01674684
14	0xbed427dc	-0.4143666
15	0x3f36c4e4	0.7139418
16	0x3f0ca9cc	0.5494659
17	0x3f84276b	1.032453
18	0x3e56d188	0.20978367
19	0x3ecc396e	0.39887565
20	0xbec31a77	-0.3810613
21	0xbf37c394	-0.71782804
22	0xbeb2393b	-0.34809288
23	0x3e6a9d1b	0.22911493
24	0x3f0e3f0c	0.5556495
25	0xbf64e4ce	-0.8941163
26	0x3ed78b2e	0.42098373
27	0xbf152f4d	-0.582753
28	0x3e96c897	0.29449913
29	0xbfe6f357	-1.8043011
30	0xbeb59dbc	-0.35471904
31	0x3f7363b9	0.9507404
32	0x3eb8f186	0.36121768
33	0xbe41cabb	-0.18924992
34	0xbe95398d	-0.2914547
35	0x3ea0d3d2	0.31411606
36	0xbf0d5266	-0.55203855
37	0xbe353c4e	-0.17698786
38	0xbeea0391	-0.45705846
39	0x3f1763f0	0.5913687
40	0x3aa80df3	0.001282154
41	0xbf4d36c4	-0.8016169
42	0x3edfebff	0.43734738
43	0x3f0fc46c	0.5615909
44	0x3fa7f216	1.3120754
45	0x3eff717a	0.49891263
46	0xbeb44aa0	-0.35213184
47	0x3fad36c7	1.3532342
48	0x3f4cbc21	0.7997456
49	0xbf658271	-0.8965216
50	0xbfc89408	-1.5670176
51	0x3e5b54ed	0.21419115
52	0xbf4ad80a	-0.792359
53	0x3e06ca5b	0.1316313
54	0xbf4be4e6	-0.79646146
55	0xbdf3847f	-0.11890506
56	0x3d6819c2	0.05666519
57	0x3ef45f7f	0.47729108
58	0xbf4db007	-0.8034672
59	0x3f2c3fde	0.67284954
60	0xbf4babd5	-0.7955907
61	0xbf418cc3	-0.7560541
62	0xbdfbb381	-0.12290097
63	0xbf8c3c0e	-1.0955827
64	0x3dc1f206	0.094699904
65	0x3ea1c7eb	0.31597838
66	0xbf72daa9	-0.948649
67	0x3e561342	0.20905784
68	0xbf566bdb	-0.83758324
69	0x3f06a486	0.5259479
70	0x3f979255	1.1841532
71	0xbe69a423	-0.2281652
72	0x3f8a638e	1.0811632
73	0x3f0f6364	0.56011033
74	0xbee185f5	-0.44047514
75	0x3f698136	0.91212785
76	0xbda5c4fd	-0.08094213
77	0xbf9b77e2	-1.214596
78	0xbf17ab61	-0.5924588
79	0x3f96d104	1.1782537
80	0xbf15518c	-0.58327556
81	0xbf5df6a6	-0.8670448
82	0x3fab08d3	1.3362068
83	0xbe56c2be	-0.20972726
84	0x3e99e3e4	0.3005668
85	0x3f4a4604	0.79013085
86	0x3fa7d1c8	1.3110895
87	0xbdfaf3c2	-0.12253524
88	0x3faeec2a	1.3665822
89	0x3e5375dd	0.2065043
90	0xbfa1d7d0	-1.2643986
91	0xbf5a8908	-0.85365343
92	0x3ec5b905	0.3861772
93	0xbf9c4ad1	-1.2210332
94	0x3f593c9c	0.8485811
95	0xbf37d69a	-0.7181183
96	0x3eb5d83d	0.3551654
97	0xbe9d7f6b	-0.30761275
98	0xbf4ed410	-0.8079233
99	0xbeba0dea	-0.3633874

encoder.layers.0.batchnorm_attn.1.running_var f4 [100]
0	0x3f9af287	1.2105263
1	0x4008883b	2.1333148
2	0x3fbb6cb6	1.4642551
3	0x401148ec	2.2700758
4	0x4003a9d2	2.05724
5	0x40b597ec	5.674795
6	0x40702da1	3.752785
7	0x405a3c3d	3.4099267
8	0x40132b5d	2.2995217
9	0x401bd913	2.4351242
10	0x401a851e	2.4143748
11	0x3ff5a40f	1.9190692
12	0x40075b0c	2.114932
13	0x40051782	2.0795598
14	0x3fd6cd01	1.6781312
15	0x40994ccc	4.7906246
16	0x4027d26b	2.622218
17	0x408547c7	4.165012
18	0x40095eeb	2.1464183
19	0x4012b650	2.2923775
20	0x407d8368	3.9611454
21	0x3f7e9758	0.9944968
22	0x403cc1f9	2.9493392
23	0x3fdf404c	1.7441497
24	0x40062154	2.0957842
25	0x40582b8b	3.3776577
26	0x3fdd1d93	1.727465
27	0x403d92ac	2.9620771
28	0x4037ac37	2.8698862
29	0x4012ac56	2.2917686
30	0x3f8a5e09	1.0809947
31	0x4052c784	3.2934275
32	0x40006ca8	2.0066319
33	0x3f59a8fe	0.85023487
34	0x40799134	3.8994875
35	0x4081f638	4.061306
36	0x402c5a49	2.6930106
37	0x40512950	3.2681465
38	0x40584dad	3.379741
39	0x40102fd5	2.2529194
40	0x401af13b	2.4209735
41	0x4059e1f7	3.4044168
42	0x4020eebf	2.514572
43	0x40507d79	3.2576582
44	0x3fa5c544	1.2950826
45	0x4002f713	2.0463302
46	0x4099d0d3	4.806741
47	0x3f96d325	1.1783186
48	0x3fb2bca2	1.3963816
49	0x4017ba73	2.370755
50	0x404dcd54	3.2156572
51	0x3fb1af3c	1.3881602
52	0x3fefd47d	1.8736721
53	0x40306067	2.755884
54	0x3fcffd87	1.6249245
55	0x3fb0eaa9	1.3821613
56	0x4051f0fa	3.280333
57	0x40ca6e8a	6.3259935
58	0x40021cca	2.0330071
59	0x40f5bdab	7.679403
60	0x403c2d0c	2.9402494
61	0x4051192d	3.2671616
62	0x401d2f72	2.4560208
63	0x4038a152	2.8848462
64	0x4024dc14	2.5759325
65	0x403ec3e2	2.9807057
66	0x40814cbf	4.0406184
67	0x4047c061	3.1211169
68	0x4069aa4b	3.6510189
69	0x3fd74a28	1.6819506
70	0x402446db	2.5668247
71	0x3fdcc526	1.7247665
72	0x406f142b	3.735606
73	0x4019985e	2.3999248
74	0x3ff87bf7	1.9412831
75	0x3fecf25a	1.851146
76	0x3fe1b141	1.7632219
77	0x4002274a	2.033648
78	0x3fd712c0	1.6802597
79	0x4072454f	3.7854803
80	0x401f0a95	2.4850209
81	0x40017dc7	2.0233018
82	0x402a47ed	2.66064
83	0x3f679fa7	0.90477985
84	0x4026965b	2.602927
85	0x408898cc	4.268652
86	0x4088ba7b	4.2727637
87	0x407d1738	3.9545422
88	0x40615d4d	3.5213196
89	0x400427c5	2.0649273
90	0x401a3273	2.4093292
91	0x3fdc5151	1.7212316
92	0x3eb72b6b	0.35775313
93	0x40392ce5	2.8933651
94	0x402612d6	2.5948997
95	0x40c01586	6.0026274
96	0x401e6547	2.4749315
97	0x3fde5d8a	1.7372296
98	0x4051a14e	3.2754703
99	0x4086c23f	4.2112117
