transformer_results_random_no_constants_no_param_tune/performance_prediction/DE-GA-ES-PSO_random_no_constants_dim_10_samples_50_fold_5_budget_30_n_heads_2_n_layers_1_d_model_100_d_k_30_d_v_30_aggregations_mean/trained_model_dict.pt (torch, 339963 bytes, 22 tensors)

W_P.weight f4 [100, 11]
-0.044627994 -0.2163728 0.23064654 -0.018924223 -0.2554111 0.016691012 -0.035867155 -0.033010222
-0.18021336 -0.21733584 0.18907909 -0.17951955 0.1399094 0.2634424 -0.28000885 0.20526296
0.22214307 0.21218975 0.2669412 -0.07399775 -0.28243133 0.43439168 -0.09527873 -0.2364492
0.02824707 0.028520746 -0.109314315 0.07803303 -0.12287096 -0.229523 -0.23085277 -0.2862258
-0.028022166 0.019057186 -0.16354308 0.15874979 0.24058604 -0.04538984 -0.0048010903 0.24319185
0.26635048 -0.2521061 -0.24909012 -0.15521163 0.2293686 -0.13578646 -0.06408499 0.2134944
0.21987492 0.019013627 0.20838863 0.22635584 -0.18675996 -0.2156451 0.07967652 -0.12100443
0.1599655 -0.19679269 -0.035169896 0.07683259 0.19829696 -0.021633822 -0.27925408 0.02685665
-0.20541659 0.31916368 -0.14420055 -0.18318918 -0.05798859 0.14638415 0.02495135 0.009719264
0.06032545 0.10484463 0.21620853 -0.15669529 -0.2201641 0.14996181 -0.036162242 -0.12270995
-0.007657194 -0.2252955 -0.10253412 -0.14674619 0.092801884 -0.12909551 0.16219623 0.4649478
-0.025230737 0.19829302 0.04248457 0.0682306 -0.017426256 -0.212402 0.22600272 -0.26832524
-0.09539931 0.06502788 -0.4467117 0.0093481215 0.26422104 0.29795226 -0.18265209 0.13927037
0.17731786 0.047717474 -0.047835685 -0.26037553 -0.17224863 0.2929185 0.23436452 -0.2684419
0.11277703 0.1436814 -0.27308556 -0.2654974 0.2772102 0.09860461 0.28574103 -0.25166467
0.23437274 -0.07064337 -0.1656765 0.27801967 -0.19302146 0.052512683 -0.116455294 -0.18440701
-0.20563291 -0.15283547 0.15413862 0.44358486 0.24823962 -0.24482614 0.0625794 -0.19460975
0.26646268 -0.04879575 0.031914845 -0.053662714 0.13135092 -0.12771524 0.2500361 -0.03125044
0.17363143 0.17951377 0.1426742 -0.26781222 0.11649888 0.24816498 0.121083796 -0.034359183
-0.12318097 -0.34227306 -0.2506615 0.03790634 -0.23691964 -0.29239514 0.05605384 0.031618517
-0.19584559 -0.15636986 -0.0058371867 -0.21711306 0.10441289 0.23266582 -0.005481824 0.09113627
0.09017344 -0.03486272 0.26250863 0.16126072 -0.20254663 0.15006456 -0.24121803 0.1537952
-0.10781779 0.11667456 0.18856479 0.13076735 0.17702796 -0.31626445 -0.22591342 0.24165206
-0.20992117 -0.22450343 0.15259306 -0.15448737 0.23797065 0.2396071 -0.20442837 0.0385762
-0.03324186 -0.12093422 0.07312555 0.24724317 0.16311464 0.4055458 0.123152316 -0.1781411
-0.13893457 0.1599945 -0.2660478 0.1767907 0.13356413 -0.19337445 0.21508658 -0.22975561
-0.408133 -0.20295572 0.039887667 0.09948973 0.24925238 0.069508635 -0.010074489 0.25283954
0.15679713 -0.1243547 0.035046708 -0.43318424 -0.13001283 0.062900215 0.10540313 0.16657239
0.27503252 -0.17554782 0.16206487 0.24008098 -0.2189276 0.2429165 0.2340593 -0.17788316
-0.058934312 -0.2293573 0.13580199 0.05664632 0.04186039 0.15973698 0.24797635 -0.010892536
-0.026225794 -0.4341637 0.23823424 0.0970258 0.07244666 0.119193844 -0.1687937 -0.07031287
-0.14175577 -0.1626815 -0.018497722 -0.068569064 0.44986847 -0.053621348 -0.2665572 0.06960887
00000000: d8cb 36bd d590 5dbe 9b2e 6c3e f906 9bbc
00000010: 3ec5 82be 97bb 883c 70e9 12bd ba35 07bd
00000020: da89 38be 498d 5ebe f39d 413e f9d3 37be
00000030: 6944 0f3e ece1 863e 525d 8fbe 7430 523e
00000040: 7979 633e 4548 593e 84ac 883e 228c 97bd
00000050: d79a 90be 9668 de3e 7f21 c3bd bd1f 72be
00000060: 6666 e73c 57a4 e93c 2fe0 dfbd c8cf 9f3d
00000070: c5a3 fbbd 1408 6bbe ab64 6cbe 308c 92be
00000080: be8e e5bc d11d 9c3c d677 27be 4e8f 223e
00000090: 305c 763e b2ea 39bd 7752 9dbb 4907 793e
000000a0: 175f 883e 0d14 81be 7b11 7fbe ccef 1ebe
000000b0: 9adf 6a3e 9b0b 0bbe fe3e 83bd 479e 5a3e
000000c0: e426 613e 77c2 9b3c d463 553e d3c9 673e
000000d0: 013e 3fbe 12d2 5cbe 712d a33d 2cd1 f7bd
000000e0: ffcd 233e 0684 49be 4f0e 10bd 685a 9d3d
000000f0: 5c0e 4b3e 6a39 b1bc 64fa 8ebe 7a02 dc3c
00000100: ba58 52be 6c69 a33e 4fa9 13be f295 3bbe
00000110: 7285 6dbd bae5 153e c666 cc3c 8c3d 1f3c
00000120: d217 773d c8b8 d63d c565 5d3e bb74 20be
00000130: b372 61be 978f 193e dc1e 14bd 5b4f fbbd
00000140: 33e9 fabb ddb3 66be 69fd d1bd a244 16be
00000150: ea0e be3d 9d31 04be c516 263e a30d ee3e
00000160: b1b0 cebc 530d 4b3e 4d04 2e3d 7cbc 8b3d
00000170: 82c1 8ebc e97f 59be 426d 673e ed61 89be
00000180: b760 c3bd 562d 853d 65b7 e4be dd28 193c
00000190: fb47 873e 338d 983e 2609 3bbe e49c 0e3e
000001a0: d092 353e 6673 433d 5aef 43bd f14f 85be
000001b0: f261 30be 6af9 953e 41fd 6f3e 3771 89be
000001c0: a5f7 e63d 3821 133e dfd1 8bbe 46ef 87be
000001d0: 7fee 8d3e 37f1 c93d a64c 923e 31da 80be
000001e0: 68ff 6f3e 79ad 90bd 1aa7 29be 9858 8e3e
000001f0: 6ba7 45be 8a17 573d 1d80 eebd 31d5 3cbe
00000200: 6f91 52be e780 1cbe 84d6 1d3e 8e1d e33e
00000210: 8732 7e3e b4b3 7abe a129 803d c747 47be
00000220: cc6d 883e 0dde 47bd 24b9 023d 6fcd 5bbd
00000230: db80 063e c9c7 02be bb04 803e 7600 00bd
00000240: 70cc 313e 75d2 373e 2f19 123e af1e 89be
00000250: f796 ee3d f61e 7e3e c8fa f73d 37bc 0cbd
00000260: 4e46 fcbd 6a3e afbe b456 80be ae43 1b3d
00000270: 109b 72be d1b4 95be b698 653d 6b82 013d
00000280: bf8b 48be 6c1f 20be df45 bfbb e352 5ebe
00000290: 6dd6 d53d f33f 6e3e dfa0 b3bb a7a5 ba3d
000002a0: daac b83d 36cc 0ebd 8867 863e 8821 253e
000002b0: 6268 4fbe 86aa 193e dc01 77be 7d7c 1d3e
000002c0: 93cf dcbd 12f3 ee3d 2117 413e e0e7 053e
000002d0: d146 353e 6aed a1be d955 67be a373 773e
000002e0: 93f5 56be 3ae4 65be 5b41 1c3e f031 1ebe
000002f0: 94ae 733e 905b 753e ac55 51be 1402 1e3d
00000300: 9e28 08bd 5cac f7bd d9c2 953d 502d 7d3e
00000310: 8607 273e b3a3 cf3e 4837 fc3d 9f6a 36be
00000320: dd44 0ebe 99d5 233e 6b37 88be 9f08 353e
00000330: 09c5 083e f403 46be a83f 5c3e 0e45 6bbe
00000340: cff6 d0be a0d3 4fbe 4061 233d 46c1 cb3d
00000350: 043c 7f3e 8b5a 8e3d 780f 25bc 2f74 813e
00000360: 6d8f 203e adad febd 238d 0f3d 53ca ddbe
00000370: 1522 05be d4d1 803d 99dd d73d f491 2a3e
00000380: 10d1 8c3e cfc2 33be 55f4 253e cad7 753e
00000390: 8f2e 60be 1abf 783e 3ead 6f3e 0127 36be
000003a0: 1b65 71bd a4dc 6abe ad0f 0b3e f905 683d
000003b0: cd75 2b3d 1792 233e 83ed 7d3e 9b76 32bc
000003c0: 7ad7 d6bc b44a debe adf3 733e 76b5 c63d
000003d0: ea5e 943d e71b f43d 41d8 2cbe 3200 90bd
000003e0: 6d28 11be fb95 26be 8988 97bc f06d 8cbd
000003f0: 2955 e63e 0fa2 5bbd 2f7a 88be 188f 8e3d

W_P.bias f4 [100]
-0.155421 -0.09416952 0.0021532692 -0.32888475 -0.19566979 0.20113198 0.25447616 0.20483793
-0.15417133 -0.2137559 -0.18606411 -0.04715703 -0.06506146 0.20839638 -0.075905874 -0.026835253
-0.24669836 0.21706319 0.20489782 -0.15306334 -0.20524926 -0.005527782 -0.28253844 0.15685707
0.094337836 -0.19024615 0.16620865 -0.13148649 0.103189826 -0.065791816 0.20532714 -0.15294091
0.20006642 0.13702244 -0.16298288 0.025160821 -0.0007167163 0.14793026 -0.0851432 -0.29253283
0.13288777 -0.08416857 -0.16315626 0.13011062 -0.10979927 -0.07044847 0.22587629 -0.17827113
-0.0040968442 -0.11945018 0.08937526 -0.016367896 -0.046094555 -0.29586363 0.1410919 0.23200312
0.2538896 0.07781768 0.15679419 -0.18547735 0.08223164 0.1546366 -0.067418985 0.12308636
-0.13832583 -0.121195264 0.084384955 0.15612657 0.28706598 -0.06350951 0.2531173 -0.28710186
-0.28874344 0.17329647 0.20973977 -0.27369708 -0.02239862 0.17498215 -0.01476665 0.21981704
0.31258607 -0.13706343 -0.277902 -0.22581337 0.26478034 -0.05269303 0.22285266 0.020476537
0.20987146 -0.20146832 0.04560477 0.20848492 -0.27174905 -0.12643436 -0.09286673 -0.081628226
0.16621499 0.018792236 0.10579346 -0.30424187
00000000: af26 1fbe f3db c0bd dd1d 0d3b 9563 a8be
00000010: a95d 48be 8bf5 4d3e b34a 823e 09c1 513e
00000020: 17df 1dbe d4e2 5abe 9787 3ebe bb27 41bd
00000030: f13e 85bd dc65 553e 8a74 9bbd 9bd5 dbbc
00000040: 7f9e 7cbe d045 5e3e bcd0 513e a3bc 1cbe
00000050: dd2c 52be 6522 b5bb e1a8 90be 249f 203e
00000060: 3234 c13d e3cf 42be 9a32 2a3e 65a4 06be
00000070: 3055 d33d dcbd 86bd 4741 523e 8b9c 1cbe
00000080: 36de 4c3e 9c4f 0c3e fce4 26be 111e ce3c
00000090: 04e2 3bba 087b 173e 8f5f aebd ddc6 95be
000000a0: bb13 083e 9260 acbd 6f12 27be b83b 053e
000000b0: 71de e0bd 4a47 90bd 1d4c 673e b58c 36be
000000c0: d23e 86bb 4ca2 f4bd 600a b73d f715 86bc
000000d0: a5cd 3cbd 707b 97be 657a 103e 3a92 6d3e
000000e0: d1fd 813e e05e 9f3d a88e 203e c6ed 3dbe
000000f0: 1069 a83d 0f59 1e3e f712 8abd b414 fc3d
00000100: 49a5 0dbe 3935 f8bd 05d2 ac3d a5df 1f3e
00000110: 50fa 923e 4611 82bd 9798 813e 04ff 92be
00000120: 2ed6 93be a174 313e 06c6 563e 0622 8cbe
00000130: 507d b7bc 852e 333e d2ef 71bc b817 613e
00000140: 480b a03e 5b5a 0cbe 2c49 8ebe 9f3b 67be
00000150: 4a91 873e a6d4 57bd 7d33 643e 69be a73c
00000160: 8be8 563e b64d 4ebe 11cc 3a3d 127d 553e
00000170: b122 8bbe 0278 01be ea30 bebd b32c a7bd
00000180: 4334 2a3e 2df2 993c 3eaa d83d 97c5 9bbe

encoder.layers.0.self_attn.W_Q.weight f4 [60, 100]
0.031787626 -0.004007019 0.009027987 -0.18883845 -0.1840605 -0.013808632 -0.05736099 0.051555704
-0.0701661 -0.04792908 -0.08434504 -0.014334083 0.012895976 -0.15392815 0.004972201 -0.14474736
-0.14147586 0.04964798 0.14396714 -0.012675199 0.003392414 -0.11278772 -0.011994285 0.019786485
0.12138984 -0.120862685 0.13331215 0.00017849954 -0.051067594 -0.14109497 0.040786482 0.074677825
-0.011441349 0.1267935 -0.13567837 -0.04526276 -0.0114327185 -0.011887305 -0.013818358 0.076763764
0.0071562054 -0.074881725 -0.15105823 0.021978337 -0.13853502 0.02850332 0.034251887 -0.0036079192
0.06939836 -0.05621077 0.017099075 -0.01655479 0.05788489 0.0076873843 0.07219964 -0.11169791
-0.13155791 0.033380337 0.010841407 -0.067956746 -0.08275272 -0.11956367 -0.072853975 -0.032436132
0.010862525 -0.102962315 -0.044439413 -0.07714239 0.10731748 -0.045062505 0.14264245 -0.08251192
0.014794774 -0.08920698 -0.100997746 -0.061279215 0.06938374 -0.07341337 0.049456 -0.033226095
0.18987884 0.05311008 -0.080286235 -0.055725046 -0.0035124072 -0.14054106 0.065145746 0.07893752
-0.08651124 -0.050722647 0.026944323 -0.0435037 -0.012485955 0.14383164 -0.07143759 -0.029029451
-0.02249929 0.016973406 0.11837995 0.041748136 0.07344577 -0.03710959 -0.051181406 -0.05795726
0.0681224 -0.022487713 -0.01468166 0.05619246 0.12564264 -0.065065734 0.07072309 0.011709751
-0.082434855 0.12456588 -0.04490292 0.06141872 -0.09560618 -0.06707152 0.07174408 0.11523552
-0.08842903 0.028091794 0.06705524 0.049642887 -0.009582177 0.07338842 0.03259133 0.031861592
-0.012747701 -0.021876555 -0.08012852 -0.084305026 0.13211194 -0.08791285 0.06514986 0.039744727
0.052950412 0.046630703 0.0012144928 -0.06554783 0.067965865 -0.00010116892 -0.07798621 -0.011258809
-0.10904912 0.019605143 -0.09693372 -0.07980262 0.09289819 0.09273253 0.058522433 0.08210597
0.037084077 0.06766447 0.084450044 -0.012550079 0.024959113 -0.05062024 0.03644115 0.05638197
0.039011203 -0.039807577 -0.08375769 -0.038537174 0.030547682 -0.085423656 -0.03899471 -0.037336078
0.0024058735 -0.13855767 -0.032902263 0.08237148 0.060850296 0.009622182 0.060839754 -0.12178601
0.033653684 -0.00012207415 -0.044715337 0.05694895 -0.003925892 -0.02972423 0.034249272 0.008275749
-0.065077156 -0.13515605 0.053398177 -0.0116240615 0.08444315 0.039920513 -0.10658669 -0.07417388
-0.03786155 0.03437186 -0.0701894 -0.09141531 -0.0018375998 -0.026948676 -0.060586322 -0.027771525
-0.025546057 -0.047892597 -0.08947845 0.0664529 0.0908486 -0.07609004 0.12556314 -0.030880455
-0.007084596 -0.11126913 0.09083799 -0.06813988 -0.13281474 0.10500182 0.06162825 -0.044718545
-0.04060034 0.036614276 0.015644254 0.057546534 0.04375254 0.043556895 -0.006927672 -0.047572166
-0.033996988 0.16049778 -0.05391782 0.05297111 0.012293425 0.08570906 0.03622209 0.09558052
0.1996141 0.01672862 0.0036728927 0.052056286 -0.059631947 -0.06671458 -0.025747782 0.02957251
0.039037753 -0.047959168 -0.058654286 0.028260777 -0.043854296 -0.08886673 -0.060675956 0.06254609
0.13131888 0.049622163 0.06835819 -0.08049885 0.05896461 -0.01208491 0.011563614 -0.0068423664
00000000: be33 023d 504d 83bb 1fea 133c de5e 41be
00000010: 5b7a 3cbe 9a3d 62bc 5cf3 6abd 132c 533d
00000020: 3fb3 8fbd 4851 44bd 18bd acbd 80d9 6abc
00000030: a549 533c 579f 1dbe d8ed a23b a738 14be
00000040: 0cdf 10be ae5b 4b3d 1f6c 133e a3ab 4fbc
00000050: 4353 5e3b 40fd e6bd ad83 44bc 4417 a23c
00000060: 3d9b f83d db86 f7bd fb82 083e 9b2b 3b39
00000070: 412c 51bd 337b 10be ba0f 273d b0f0 983d
00000080: 7f74 3bbc 28d6 013e 45ef 0abe 7265 39bd
00000090: 4c50 3bbc f9c2 42bc 6566 62bc 5236 9d3d
000000a0: 9a7e ea3b 975b 99bd 02af 1abe ea0b b43c
000000b0: 20dc 0dbe cb7f e93c b54b 0c3d d772 6cbb
000000c0: ba20 8e3d 443d 66bd 5c13 8c3c e99d 87bc
000000d0: b518 6d3d 74e6 fb3b 68dd 933d e0c1 e4bd
000000e0: 1eb7 06be d2b9 083d 28a0 313c e82c 8bbd
000000f0: 427a a9bd ccdd f4bd 7734 95bd c0db 04bd
00000100: bbf8 313c e8dd d2bd 1a06 36bd d4fc 9dbd
00000110: 44c9 db3d 7693 38bd dd10 123e 02fc a8bd
00000120: c865 723c 26b2 b6bd e8d7 cebd eaff 7abd
00000130: 1019 8e3d c059 96bd 6092 4a3d 1618 08bd
00000140: 996f 423e f589 593d 1c6d a4bd f23f 64bd
00000150: 6a30 66bb ffe9 0fbe 226b 853d ffa9 a13d
00000160: ce2c b1bd 8dc2 4fbd 57ba dc3c f030 32bd
00000170: e491 4cbc 9a48 133e df4d 92bd 2ccf edbc
00000180: 6e50 b8bc d00b 8b3c 3071 f23d 1800 2b3d
00000190: bc6a 963d 3a00 18bd 98a3 51bd 9864 6dbd
000001a0: c283 8b3d 2738 b8bc 588b 70bc 112a 663d
000001b0: 77a8 003e 2f41 85bd 44d7 903d 41da 3f3c
000001c0: 9bd3 a8bd 651c ff3d 20ec 37bd 3292 7b3d
000001d0: 2ccd c3bd cb5c 89bd 8fee 923d 9a00 ec3d
000001e0: 471a b5bd c320 e63c 4254 893d 5756 4b3d
000001f0: 90fe 1cbc ab4c 963d 7d7e 053d 4d81 023d
00000200: bcdb 50bc 7636 b3bc 6c1a a4bd 1da8 acbd
00000210: 5a48 073e a70b b4bd 4a6d 853d 5ecb 223d
00000220: 88e2 583d d6ff 3e3d 9e2f 9f3a f13d 86bd
00000230: b031 8b3d a62a d4b8 3cb7 9fbd de76 38bc
00000240: 2555 dfbd f79a a03c 3085 c6bd 8e6f a3bd
00000250: 6841 be3d 8dea bd3d 38b5 6f3d 2d27 a83d
00000260: 79e5 173d ab93 8a3d 25f4 ac3d d99e 4dbc
00000270: 0e77 cc3c 2b57 4fbd 5143 153d c8f0 663d
00000280: 36ca 1f3d 450d 23bd 2789 abbd 28d9 1dbd
00000290: 223f fa3c 99f2 aebd ebb8 1fbd b7ed 18bd
000002a0: dcab 1d3b 10e2 0dbe 86c4 06bd 61b2 a83d
000002b0: 293e 793d 5ba6 1d3c 1b33 793d f26a f9bd
000002c0: 72d8 093d 0801 00b9 6e27 37bd 4d43 693d
000002d0: c5a4 80bb 3a80 f3bc f748 0c3d 0297 073c
000002e0: 2c47 85bd 5966 0abe 0cb8 5a3d d972 3ebc
000002f0: 88f0 ac3d b183 233d 1f4a dabd 7ae8 97bd
00000300: b614 1bbd 82c9 0c3d 76bf 8fbd f337 bbbd
00000310: 9edb f0ba 78c3 dcbc 5d29 78bd 1c81 e3bc
00000320: f745 d1bc 072b 44bd 7a40 b7bd 7518 883d
00000330: d50e ba3d 18d5 9bbd a093 003e 02f9 fcbc
00000340: e625 e8bb 12e1 e3bd 4509 ba3d ec8c 8bbd
00000350: 9600 08be 320b d73d e76d 7c3d cb2a 37bd
00000360: 8b4c 26bd daf8 153d 6128 803c eab5 6b3d
00000370: dd35 333d b768 323d 8601 e3bb 08db 42bd
00000380: 6d40 0bbd 8859 243e efd8 5cbd 3cf8 583d
00000390: 5d6a 493c 3b88 af3d 9d5d 143d b8bf c33d
000003a0: a367 4c3e 750a 893c eab4 703b f938 553d
000003b0: a140 74bd a7a1 88bd 03ed d2bc 0c42 f23c
000003c0: 0de6 1f3d d570 44bd 7a3f 70bd 2583 e73c
000003d0: 90a0 33bd c3ff b5bd 5a87 78bd 2a18 803d
000003e0: 7578 063e 9c40 4b3d 61ff 8b3d 95dc a4bd
000003f0: e084 713d c9ff 45bc 5075 3d3c ee35 e0bb

encoder.layers.0.self_attn.W_K.weight f4 [60, 100]
0.02492908 -0.01833293 0.047966056 0.08337234 -0.09424128 0.0307183 -0.07611087 -0.062660426
0.07510785 -0.033605624 0.07851459 -0.115258336 0.01646905 -0.022998333 -0.04118628 0.023852227
0.02402336 0.039119337 0.13040501 0.026675206 -0.026771856 -0.012019707 -0.0016188622 -0.050189774
-0.070638485 0.092891164 -0.03656687 0.0034800707 0.087950535 0.0687943 -0.009269278 -0.08205369
0.05560615 -0.17965114 0.102931954 0.03548822 -0.05295586 0.12499354 -0.050492786 -0.030009227
-0.09306188 0.14233188 -0.071540445 -0.075015195 -0.075012736 -0.10869987 -0.019792482 0.02818556
0.08370007 0.020590264 0.09217237 0.003634358 -0.005653141 0.12385496 -0.10533714 -0.05549091
-0.1000684 -0.022405405 0.009670372 0.008078502 -0.021848485 -0.15555093 0.13269418 -0.09710979
0.07700063 -0.043695476 0.059606176 0.017624723 0.03528415 -0.10125944 -0.10361197 0.062156614
-0.0070415144 0.089712106 0.046249293 0.020185865 0.02650042 -0.056676626 -0.03982172 -0.026269007
0.110570125 -0.11145549 -0.0029720534 0.08279895 0.085737094 -0.022015613 -0.08651111 -0.06911938
-0.053079583 0.023567704 -0.07271248 -0.09180013 -0.02679053 -0.07289773 -0.030275617 0.00097110646
-0.046445496 0.007196305 -0.04014685 0.04472097 0.07136029 -0.03887075 0.09372041 -0.07924243
-0.03285716 0.10259773 -0.1504327 0.03297068 0.11292668 -0.038053226 0.035934344 0.053160056
0.0751081 -0.027153593 0.030998362 0.016722586 -0.08292513 0.0046994276 -0.048485488 -0.053463873
0.01865289 -0.15164655 -0.0025631506 -0.0370141 -0.032156505 -0.067681886 0.06262074 0.037134532
0.08362818 0.027730422 0.07923237 0.0641095 -0.038374588 -0.03859005 0.03666881 -0.030300979
0.034982037 0.06496554 0.07059326 -0.008000977 -0.058426507 -0.08159762 -0.05858173 0.0017702391
-0.087774545 0.04884013 -0.07769758 0.025815058 0.012040749 0.003786381 -0.057076517 0.075457215
-0.12754199 0.03590276 -0.10743043 0.016226344 -0.09082352 0.031078584 -0.048122525 0.14847949
-0.04278327 0.014004762 -0.08692428 0.06770538 0.06698271 -0.044387367 0.09701515 0.069234274
-0.15620233 -0.0068198796 -0.06804318 -0.08929774 0.019286513 -0.022338932 0.12958726 0.058115315
0.008818208 0.1422064 0.055465452 0.046244044 0.03783862 -0.06382494 -0.078808114 -0.114711404
-0.01239895 0.053566698 0.04269484 -0.105115384 0.0052568917 -0.048214924 -0.039873347 0.09818952
-0.07833223 0.007031414 -0.06874544 -0.033213004 -0.10780828 0.03333542 -0.029895049 -0.02816801
0.0369476 -0.021313265 -0.015530602 -0.10108023 0.015883105 0.0054016933 -0.014893807 0.06519035
0.0899696 -0.07669557 -0.11765908 0.11509649 0.12927745 -0.09114825 -0.0019151807 0.01917685
-0.032942113 0.02373534 -0.032697987 -0.06723914 -0.07775675 -0.0021305718 0.055234097 -0.06642044
-0.0067322548 -0.13389128 -0.02998941 -0.051343296 0.015915534 -0.021349216 0.002206881 -0.08326511
0.08268584 -0.08502235 0.032564085 -0.1268792 0.022258835 0.04620459 -0.073196396 0.053553306
0.095252775 -0.00869161 0.04214679 0.11995466 -0.04036143 0.009400763 0.00339552 -0.08844568
-0.09095059 0.04470311 0.0061972127 0.09731703 -0.07339868 -0.04227934 0.027684843 0.09247345
00000000: 1238 cc3c f12e 96bc 0e78 443d 1ebf aa3d
00000010: 9201 c1bd f2a4 fb3c 04e0 9bbd 1c54 80bd
00000020: 25d2 993d 0da6 09bd 42cc a03d 900c ecbd
00000030: 1aea 863c 0067 bcbc f2b2 28bd bf65 c33c
00000040: a3cc c43c 993b 203d e488 053e f685 da3c
00000050: a750 dbbc 4eee 44bc 0030 d4ba cb93 4dbd
00000060: e9aa 90bd b93d be3d 24c7 15bd e611 643b
00000070: 691f b43d 07e4 8c3d 2bde 17bc c40b a8bd
00000080: 46c3 633d 78f6 37be fdcd d23d 195c 113d
00000090: 3ee8 58bd 9dfc ff3d 86d1 4ebd e9d5 f5bc
000000a0: 3a97 bebd 73bf 113e cc83 92bd 91a1 99bd
000000b0: 47a0 99bd 0a9e debd d823 a2bc 67e5 e63c
000000c0: f16a ab3d eaac a83c dec4 bc3d 692e 6e3b
000000d0: fc3d b9bb aba7 fd3d 00bb d7bd 704a 63bd
000000e0: a9f0 ccbd 8a8b b7bc 7b70 1e3c b15b 043c
000000f0: 98fb b2bc be48 1fbe fce0 073e 7fe1 c6bd
00000100: 82b2 9d3d 07fa 32bd 9b25 743d b961 903c
00000110: 1d86 103d 1c61 cfbd 8332 d4bd ef97 7e3d
00000120: 81bc e6bb fbba b73d e66f 3d3d d45c a53c
00000130: 6917 d93c c025 68bd 1a1c 23bd 1a32 d7bc
00000140: 9772 e23d c742 e4bd c8c6 42bb 7f92 a93d
00000150: ee96 af3d 165a b4bc bd2c b1bd 768e 8dbd
00000160: fa69 59bd 0f11 c13c 48ea 94bd b501 bcbd
00000170: d077 dbbc 684b 95bd 9204 f8bc da91 7e3a
00000180: a23d 3ebd fbce eb3b 0671 24bd 562d 373d
00000190: 5825 923d f036 1fbd 7cf0 bf3d db49 a2bd
000001a0: 3b95 06bd c21e d23d 080b 1abe 440c 073d
000001b0: 1a46 e73d b3dd 1bbd e42f 133d 5cbe 593d
000001c0: 47d2 993d 3671 debc 47f0 fd3c cefd 883c
000001d0: a7d4 a9bd a8fd 993b b898 46bd effc 5abd
000001e0: f2cd 983c 3c49 1bbe 88fa 27bb 199c 17bd
000001f0: 8ab6 03bd cd9c 8abd 4d3f 803d 611a 183d
00000200: 4045 ab3d e92a e33c 9544 a23d d74b 833d
00000210: ac2e 1dbd 9a10 1ebd 0932 163d c239 f8bc
00000220: 5349 0f3d a70c 853d 3393 903d 8816 03bc
00000230: a250 6fbd a71c a7bd 65f3 6fbd 5e07 e83a
00000240: 24c3 b3bd 970c 483d e91f 9fbd 1a7a d33c
00000250: 9046 453c ef24 783b 11c9 69bd 5089 9a3d
00000260: 5e9a 02be c60e 133d 7c04 dcbd 1ced 843c
00000270: af01 babd 8498 fe3c 201c 45bd 020b 183e
00000280: 833d 2fbd 3b74 653c 5b05 b2bd 1ea9 8a3d
00000290: 3b2e 893d 87cf 35bd e1af c63d b3ca 8d3d
000002a0: 81f3 1fbe 4c79 dfbb 395a 8bbd bce1 b6bd
000002b0: c0fe 9d3c 2300 b7bc 86b2 043e 530a 6e3d
000002c0: 3f7a 103c 8e9e 113e be2f 633d 656a 3d3d
000002d0: abfc 1a3d a6b6 82bd 2666 a1bd d0ed eabd
000002e0: f724 4bbc c168 5b3d c9e0 2e3d bc46 d7bd
000002f0: 0142 ac3b 037d 45bd 3c52 23bd 9617 c93d
00000300: a66c a0bd c767 e63b 69ca 8cbd 5c0a 08bd
00000310: 96ca dcbd b98a 083d 76e6 f4bc 99c0 e6bc
00000320: 5e56 173d 2899 aebc 1174 7ebc 2703 cfbd
00000330: 491d 823c b000 b13b 2705 74bc 8582 853d
00000340: fb41 b83d 9112 9dbd 3ef7 f0bd b5b7 eb3d
00000350: 4f61 043e efab babd cd06 fbba c518 9d3c
00000360: 4fee 06bd 9e70 c23c 53ee 05bd adb4 89bd
00000370: ee3e 9fbd 10a1 0bbb 263d 623d 7107 88bd
00000380: 3f9a dcbb cc1a 09be 5aac f5bc 594d 52bd
00000390: 4b61 823c 8de4 aebc 52a1 103b e686 aabd
000003a0: 3257 a93d 3320 aebd eb61 053d 9fec 01be
000003b0: 2958 b63c 0641 3d3d fee7 95bd b65a 5b3d
000003c0: e313 c33d 4167 0ebc 1da2 2c3d caaa f53d
000003d0: 0752 25bd a805 1a3c 5f87 5e3b 0223 b5bd
000003e0: 4e44 babd 9c1a 373d fd11 cb3b 274e c73d
000003f0: 0c52 96bd 1a2d 2dbd 53cb e23c b862 bd3d

encoder.layers.0.self_attn.W_V.weight f4 [60, 100]
-0.008275373 -0.12055935 0.030121554 -0.01563374 0.0001202553 0.07644227 0.0679734 -0.07680889
0.12652756 0.061759178 0.036018755 0.05047532 -0.08586027 0.07311314 -0.004471433 -0.067170225
-0.085915886 -0.120269686 0.117530815 -0.034806903 -0.0036848013 0.14127071 -0.0051533673 -0.12935585
0.111722946 0.0020428125 -0.022029225 -0.027803617 -0.020673193 -0.032639977 -0.10882477 -0.1312848
0.12959239 0.035048895 0.055716366 -0.08134586 -0.03204789 -0.07709568 0.10566491 0.012588063
-0.11181221 0.046367325 -0.032133184 0.11804528 -0.019406829 -0.13234319 7.938526e-05 0.004743407
0.02997644 -0.053721197 0.089799315 0.12523022 -0.14036103 0.061368287 0.01512075 -0.09136497
0.013203178 -0.026060369 0.060211882 -0.1574782 0.0873244 -0.20311987 0.061168667 0.0034949773
0.024523493 -0.07104429 0.022735428 -0.033123523 0.022993121 -0.042158756 -0.013112995 -0.02267204
0.02083289 -0.009028531 0.1369045 -0.0789899 0.1270963 0.024112616 0.0022125132 -0.019533806
-0.024332589 -0.05528924 0.07943993 0.1051731 0.09769506 -0.11758761 0.059503537 0.07865389
0.054933485 0.06316248 0.108463325 -0.08182456 0.006815805 -0.06099118 -0.043945204 -0.115517125
-0.17372979 -0.0043008863 -0.14484046 -0.062436763 0.043849807 -0.05650409 0.080846265 -0.08225531
-0.00060029293 0.032814194 0.07407576 0.004905968 0.033830944 -0.07781793 0.008778234 -0.033867616
-0.06689778 -0.07093317 0.111820936 0.06665192 -0.039135035 0.06569586 -0.015052269 0.07788457
-0.07186842 0.10040123 -0.022597954 0.014336697 0.098926455 0.063265525 0.0071976027 0.045628164
0.088036746 -0.09271041 0.052123334 -0.10615727 0.10498626 -0.11732847 0.074263975 0.064621165
-0.024666194 -0.09232577 -0.026087409 -0.04514897 -0.015228125 -0.038780026 0.06137628 0.1292851
-0.043375574 -0.0004187421 0.015554766 -0.028582813 0.12550245 0.008359754 -0.0012735636 0.025904385
-0.054534007 -0.08392966 0.024691543 0.01189914 -0.10977229 0.007107156 -0.013330848 -0.029793162
0.0031246636 -0.082251444 0.10230893 -0.08417 -0.07640425 0.05274447 -0.024653997 0.027220396
-0.0007513718 -0.11399979 -0.036880687 -0.043549635 0.11802468 -0.04265515 0.10110724 0.03745235
0.09243615 0.06654313 0.04901615 -0.06858297 0.048723016 0.060215306 0.11068274 0.061349854
0.05531724 -0.10676944 -0.026434634 0.03642625 -0.018887624 0.013059452 -0.030284164 -0.09008874
-0.031397928 -0.087303914 -0.003990691 0.054096647 -0.14554544 -0.03906891 0.02499768 -0.04683927
-0.057014555 0.07040935 -0.022926318 0.0059292386 0.014124299 0.10202512 0.01396444 0.06687098
-0.04438459 0.038478673 0.025811072 -0.010719846 -0.05378712 0.038477715 0.078205325 -0.10698248
0.0065672444 0.07373745 0.011448428 -0.14165449 0.1039278 -0.14206241 0.1348186 0.13432577
-0.102162115 -0.050562486 0.028769754 -0.013081807 -0.038024727 0.08828721 -0.049832955 0.01499322
-0.069566995 0.1421654 -0.13666071 0.14718643 -0.07180777 0.0080872085 -0.10986323 -0.025704509
0.13555942 -0.097799525 -0.16451812 -0.012753172 0.080649465 0.02266933 -0.13275237 0.07028781
-0.04592141 -0.04587118 -0.04720012 -0.06581365 0.13272785 0.026827844 0.026692111 0.1304816
00000000: 6e95 07bc d2e7 f6bd 7ac1 f63c 5412 80bc
00000010: 9331 fc38 c48d 9c3d a335 8b3d fb4d 9dbd
00000020: 7190 013e 31f7 7c3d 6788 133d 36bf 4e3d
00000030: 82d7 afbd 58bc 953d 1985 92bb 8b90 89bd
00000040: abf4 afbd f44f f6bd ffb3 f03d af91 0ebd
00000050: b57c 71bb 45a9 103e 94dd a8bb dc75 04be
00000060: 00cf e43d b5e0 053b a276 b4bc 69c4 e3bc
00000070: d45a a9bc 7fb1 05bd 85df debd 866f 06be
00000080: deb3 043e 6e8f 0f3d d836 643d a998 a6bd
00000090: a644 03bd 57e4 9dbd d866 d83d 2a3e 4e3c
000000a0: cdfd e4bd aaeb 3d3d 169e 03bd b9c1 f13d
000000b0: 12fb 9ebc f984 07be a37b a638 956e 9b3b
000000c0: 2791 f53c c20a 5cbd b4e8 b73d 5a3c 003e
000000d0: cdba 0fbe 505d 7b3d 06bd 773c 8f1d bbbd
000000e0: 2452 583c 8e7c d5bc bca0 763d f741 21be
000000f0: 23d7 b23d a8fe 4fbe ff8b 7a3d fd0b 653b
00000100: 7ee5 c83c ab7f 91bd a63f ba3c 88ac 07bd
00000110: 125c bc3c a9ae 2cbd e3d7 56bc b7ba b9bc
00000120: bda9 aa3c 67ec 13bc b130 0c3e 75c5 a1bd
00000130: 8825 023e d287 c53c d0ff 103b 5c05 a0bc
00000140: 2355 c7bc f876 62bd 67b1 a23d ff64 d73d
00000150: 5914 c83d c6d1 f0bd fbb9 733d 4a15 a13d
00000160: ef01 613d 555b 813d 0522 de3d a393 a7bd
00000170: 1e57 df3b e3d1 79bd e3ff 33bd 3e94 ecbd
00000180: 39e6 31be 73ee 8cbb 0f51 14be b1bd 7fbd
00000190: db9b 333d d570 67bd ba92 a53d 7975 a8bd
000001a0: fa5c 1dba 2d68 063d 08b5 973d 3ec2 a03b
000001b0: 5192 0a3d 025f 9fbd 95d2 0f3c c5b8 0abd
000001c0: b401 89bd 6945 91bd 6002 e53d cd80 883d
000001d0: 0f4c 20bd 8d8b 863d cb9d 76bc f281 9f3d
000001e0: c02f 93bd 299f cd3d 581f b9bc 77e4 6a3c
000001f0: f499 ca3d 5b91 813d ded9 eb3b 99e4 3a3d
00000200: 9c4c b43d f5de bdbd 477f 553d fc68 d9bd
00000210: 0903 d73d e949 f0bd b617 983d 1a58 843d
00000220: c210 cabc 4b15 bdbd 43b5 d5bc 20ee 38bd
00000230: 637f 79bc ced7 1ebd b265 7b3d 5063 043e
00000240: 96aa 31bd 9d8a dbb9 6bd9 7e3c 8126 eabc
00000250: b783 003e 5af7 083c b4ed a6ba 6f35 d43c
00000260: 0d5f 5fbd 50e3 abbd eb45 ca3c 9cf4 423c
00000270: 4bd0 e0bd 25e3 e83b a169 5abc ca10 f4bc
00000280: 28c7 4c3b 7273 a8bd 5887 d13d 5261 acbd
00000290: d579 9cbd 960a 583d 2ef7 c9bc 4ffd de3c
000002a0: b5f7 44ba b978 e9bd 3410 17bd 1a61 32bd
000002b0: ecb6 f13d 2bb7 2ebd 5011 cf3d a367 193d
000002c0: 2a4f bd3d c447 883d 29c5 483d 3a75 8cbd
000002d0: c991 473d 53a4 763d a2ad e23d fc49 7b3d
000002e0: 5594 623d f0a9 dabd 728d d8bc b133 153d
000002f0: 38ba 9abc 50f7 553c 7f16 f8bc 7280 b8bd
00000300: 1d9b 00bd 65cc b2bd 58c4 82bb 7294 5d3d
00000310: dd09 15be b906 20bd efc7 cc3c 89da 3fbd
00000320: 1888 69bd c732 903d f9cf bbbc 0f4a c23b
00000330: 9b69 673c 8cf2 d03d 1bcb 643c a7f3 883d
00000340: 9ecc 35bd d09b 1d3d be71 d33c 4ba2 2fbc
00000350: e24f 5cbd cf9a 1d3d 1d2a a03d a119 dbbd
00000360: 0a32 d73b a903 973d 3092 3b3c e00d 11be
00000370: 19d8 d43d cf78 11be e30d 0a3e b28c 093e
00000380: 5f3a d1bd 9c1a 4fbd 8cae eb3c 1355 56bc
00000390: d1bf 1bbd edcf b43d a41d 4cbd 1fa6 753c
000003a0: 2479 8ebd ce93 113e c9f0 0bbe 0ab8 163e
000003b0: f40f 93bd 3680 043c f9ff e0bd 4392 d2bc
000003c0: 17d0 0a3e 1e4b c8bd 7077 28be aef2 50bc
000003d0: 8c2b a53d 08b5 b93c 3df0 07be 0ef3 8f3d
000003e0: 1718 3cbd 6be3 3bbd ea54 41bd 4fc9 86bd
000003f0: cfe9 073e 11c6 db3c 6aa9 da3c f89c 053e

encoder.layers.0.self_attn.W_O.weight f4 [100, 60]
-0.05159225 0.032791108 0.010572054 0.032172386 0.0071255867 0.10005877 -0.028973125 0.14946096
-0.024280237 0.0023312264 -0.04440036 -0.028278267 0.14599547 0.044874758 0.042722594 0.043139115
0.06125727 -0.18682554 0.018810198 0.1547447 0.08023461 -0.0052583762 0.06501147 0.029555865
0.039760448 0.18890043 -0.061954394 0.010882779 -0.037035592 -0.06885675 0.063357465 -0.04239663
0.02024917 -0.067311905 -0.006963815 0.030542929 -0.10590549 0.067588985 0.020673253 -0.0011890602
0.0033030936 -0.01481129 0.05140985 0.05937352 0.04725367 0.028056774 0.113554224 -0.12056783
0.06386704 0.091965474 0.061580975 -0.014623216 0.09461222 -0.11860058 -0.039470527 -0.042263187
0.023260735 0.08989589 -0.09040323 0.011565759 0.037003133 0.026300848 -0.048021615 -0.19521363
0.14569023 0.053864796 -0.094478205 -0.114649385 -0.05879189 -0.11023661 -0.111207955 0.040153768
-0.21316785 -0.16489509 -0.081602655 -0.1858858 0.029663224 0.0049984977 -0.031863596 0.03433249
0.1699954 -0.1568387 0.116168484 0.09433514 -0.022005733 -0.07213533 0.053466097 0.18369964
-0.18191834 0.06666616 -0.097030506 0.094697185 0.02695171 -0.01963161 0.042751048 -0.07439831
-0.0070109237 -0.067102894 -0.09878743 0.11348842 0.064841986 -0.09398512 -0.10120424 -0.06593602
0.059883505 0.047629572 -0.10280441 0.010257605 0.022448538 0.13829552 0.065947294 -0.013121433
0.02234737 0.038093384 -0.014198864 0.0019574473 -0.08962257 0.013182458 0.11761726 0.028665353
0.05079704 0.023430489 -0.14773974 0.11537964 0.09056275 0.034851268 0.1574199 -0.08368629
0.19065137 0.15070496 0.081515506 -0.023481417 0.04672162 -0.05178298 -0.041372806 0.12158994
-0.0969483 0.07620656 0.039871514 -0.1891012 -0.06453564 0.12269143 -0.08900045 0.051082186
0.12239952 -0.0846281 0.12249369 0.05659779 0.18449464 0.12582816 0.14019182 0.13861692
-0.010128609 -0.06808759 -0.016720962 -0.13326427 -0.07752756 -0.04279523 0.022799795 0.069369934
0.03182676 0.053814154 -0.006833604 0.07835256 0.13014574 0.0344545 0.081738636 -0.1183764
-0.007302267 0.103895135 -0.11488322 0.1245512 -0.12128636 0.039463848 0.11658896 0.109818585
0.10462469 -0.08170411 0.117771976 0.031503033 -0.08474312 0.038831186 0.17567499 0.036921192
0.037023917 0.05810476 -0.12448706 0.06627092 -0.1120032 -0.05102056 -0.05961863 -0.071252495
-0.036935914 0.013895748 0.08972175 0.05600747 -0.027121171 -0.009377408 0.0695072 -0.0110142
0.10014999 0.008682664 -0.031252764 -0.00062038423 0.06299501 0.13240561 -0.19899529 -0.14861703
0.029842412 -0.04086428 0.07662152 -0.11780875 0.03611683 0.012869477 0.0989035 0.08740055
0.040072154 0.1357313 0.14123958 -0.09195979 -0.097444445 0.058082588 0.12173091 0.055583604
-0.10278613 0.044838347 -0.040087935 -0.088267565 0.087023824 0.094554335 0.14940286 0.06715659
0.1077191 0.031579025 0.063788764 -0.004074863 -0.0055894973 0.11119282 0.029391475 -0.010115293
0.07289239 0.04191912 -0.13312984 0.01949142 0.057756778 -0.025154967 0.15668476 0.07726531
-0.0016926388 0.09259572 -0.038542863 -0.07332471 0.11885321 0.09885238 0.063083455 0.06121167
00000000: 6552 53bd f84f 063d 6936 2d3c 31c7 033d
00000010: c17d e93b 9deb cc3d 0c59 edbc 4b0c 193e
00000020: 59e7 c6bc 7dc7 183b 27dd 35bd d3a7 e7bc
00000030: d67f 153e 98ce 373d e3fd 2e3d a4b2 303d
00000040: e7e8 7a3d 324f 3fbe d817 9a3c 6575 1e3e
00000050: 0b52 a43d 754e acbb bc24 853d 241f f23c
00000060: dadb 223d 1d6f 413e e4c3 7dbd af4d 323c
00000070: a2b2 17bd c504 8dbd 8fc1 813d 17a8 2dbd
00000080: 96e1 a53c d3da 89bd b730 e4bb 2a35 fa3c
00000090: fae4 d8bd 186c 8a3d f45a a93c 3dda 9bba
000000a0: b778 583b 0eab 72bc 2393 523d a631 733d
000000b0: 108d 413d 52d7 e53c 1e8f e83d 44ec f6bd
000000c0: b9cc 823d 6558 bc3d 553c 7c3d 3796 6fbc
000000d0: 0dc4 c13d dce4 f2bd d9ab 21bd 2a1c 2dbd
000000e0: 4c8d be3c 561b b83d 5425 b9bd 4f7e 3d3c
000000f0: 9990 173d e074 d73c 50b2 44bd 15e6 47be
00000100: d22f 153e 55a1 5c3d ca7d c1bd 4ccd eabd
00000110: c4cf 70bd bbc3 e1bd ffc0 e3bd 4778 243d
00000120: ac48 5abe 42da 28be 4b1f a7bd d958 3ebe
00000130: 4a00 f33c 70ca a33b 6783 02bd 3aa0 0c3d
00000140: 4613 2e3e 539a 20be bee9 ed3d c832 c13d
00000150: 5e45 b4bc b0bb 93bd 44ff 5a3d c21b 3c3e
00000160: cd48 3abe 4588 883d eeb7 c6bd 99f0 c13d
00000170: d5c9 dc3c 78d2 a0bc b91b 2f3d 245e 98bd
00000180: e4bb e5bb 3e6d 89bd 1051 cabd 9e6c e83d
00000190: e0cb 843d 457b c0bd 2b44 cfbd 7709 87bd
000001a0: 6848 753d 3a17 433d 1e8b d2bd 840f 283c
000001b0: ffe5 b73c 579d 0d3e 600f 873d 47fb 56bc
000001c0: d511 b73c cf07 1c3d 5aa2 68bc 8448 003b
000001d0: 0a8c b7bd 3cfb 573c 51e1 f03d 9ad3 ea3c
000001e0: 8f10 503d 4cf1 bf3c 1649 17be 294c ec3d
000001f0: f778 b93d 34c0 0e3d af32 213e b863 abbd
00000200: 1d3a 433e 6752 1a3e 9af1 a63d 1a5c c0bc
00000210: 2b5f 3f3d 641a 54bd 8876 29bd 2504 f93d
00000220: d58c c6bd 2f12 9c3d 5050 233d bfa3 41be
00000230: 432b 84bd a545 fb3d de45 b6bd 8e3b 513d
00000240: 99ac fa3d 7f51 adbd f9dd fa3d 16d3 673d
00000250: 2aec 3c3e 19d9 003e 728e 0f3e 98f1 0d3e
00000260: 77f2 25bc 8271 8bbd 66fa 88bc 6e76 08be
00000270: c5c6 9ebd 0d4a 2fbd a3c6 ba3c d311 8e3d
00000280: c75c 023d 3b6c 5c3d 6dec dfbb 4f77 a03d
00000290: ed44 053e 2920 0d3d 9666 a73d 536f f2bd
000002a0: db47 efbb f9c6 d43d e547 ebbd b314 ff3d
000002b0: fc64 f8bd d8a4 213d 31c6 ee3d 91e8 e03d
000002c0: 7845 d63d 7c54 a7bd 6f32 f13d 5309 013d
000002d0: cd8d adbd 730d 1f3d 25e4 333e ad3a 173d
000002e0: 64a6 173d 42ff 6d3d 12f3 febd 0cb9 873d
000002f0: ef61 e5bd effa 50bd aa32 74bd d4ec 91bd
00000300: 1d4a 17bd feaa 633c 09c0 b73d 1768 653d
00000310: 382d debc b3a3 19bc ca59 8e3d e774 34bc
00000320: 701b cd3d bb41 0e3c e602 00bd 48a1 22ba
00000330: 8703 813d 5695 073e 6cc5 4bbe 102f 18be
00000340: 1378 f43c 4e61 27bd beeb 9c3d b745 f1bd
00000350: 3eef 133d 80da 523c eb8d ca3d 0fff b23d
00000360: b322 243d 25fd 0a3e 1ca1 103e 6a55 bcbd
00000370: f490 c7bd 02e8 6d3d 0e4e f93d a2ab 633d
00000380: 8981 d2bd 6aa8 373d 3f33 24bd a0c5 b4bd
00000390: 8c39 b23d b4a5 c13d 10fd 183e 6589 893d
000003a0: d59b dc3d 0259 013d afa3 823d 6e86 85bb
000003b0: 1a28 b7bb 10b9 e33d 64c6 f03c 9dba 25bc
000003c0: 9b48 953d 62b3 2b3d 3053 08be 78ac 9f3c
000003d0: 5f92 6c3d ca11 cebc f871 203e 463d 9e3d
000003e0: 89db ddba d3a2 bd3d 1fdf 1dbd 442b 96bd
000003f0: 5069 f33d 1e73 ca3d e631 813d 17b9 7a3d

encoder.layers.0.batchnorm_attn.1.weight f4 [100]
0.95557725 0.98293203 1.1059612 1.0067829 1.0041717 0.9961198 0.9934401 0.9900513
0.9950551 0.98756784 0.9432378 0.94259846 1.0111094 0.96551913 0.98315585 0.9373686
0.9401012 1.0009373 0.98316175 1.0017962 1.0570742 1.0691894 1.0381932 0.9972073
0.9881336 1.0493625 0.92054874 1.0063725 0.96822906 0.93816084 1.0634059 1.0642761
1.0013819 0.9426226 1.02488 0.9573974 0.9896844 0.9624629 1.0789967 0.9571031
1.022914 0.9384394 1.0323699 0.9878277 1.0260422 0.9935177 0.99141794 1.0859307
0.94503206 1.0388987 1.0150316 1.0054255 0.9552855 1.0434008 0.9684782 0.9789499
1.0447252 0.9592776 1.0078037 1.027954 0.9666244 1.0025015 1.0261949 1.028809
0.97343147 1.0218635 1.0450852 0.9200668 1.0418959 0.9718086 1.0760759 1.0097039
0.98096347 0.9563323 0.9742289 1.0671538 0.9811629 1.0401094 1.0116448 0.99143225
0.97600496 0.93490714 0.9866567 0.9914467 0.98033917 1.0156721 1.0231624 0.9357657
1.0111742 0.90250814 0.9730469 0.99411225 1.0522604 1.0158292 0.96301675 0.9551257
1.021023 0.9952008 0.9940929 1.0769703
00000000: b6a0 743f 6fa1 7b3f 2390 8d3f 43de 803f
00000010: b388 803f b501 7f3f 1752 7e3f 0174 7d3f
00000020: eebb 7e3f 3fd1 7c3f 0878 713f 224e 713f
00000030: 086c 813f 432c 773f 1ab0 7b3f 63f7 6f3f
00000040: 79aa 703f b71e 803f 7db0 7b3f dc3a 803f
00000050: 354e 873f 33db 883f 84e3 843f fa48 7f3f
00000060: 53f6 7c3f 8351 863f 15a9 6b3f d0d0 803f
00000070: dcdd 773f 4f2b 703f af1d 883f 333a 883f
00000080: 482d 803f b74f 713f 452f 833f ff17 753f
00000090: f55b 7d3f f863 763f 901c 8a3f b504 753f
000000a0: d9ee 823f 913d 703f b224 843f 47e2 7c3f
000000b0: 5a55 833f 2d57 7e3f 91cd 7d3f c7ff 8a3f
000000c0: 9fed 713f a2fa 843f 8eec 813f c8b1 803f
000000d0: 978d 743f 288e 853f 30ee 773f 769c 7a3f
000000e0: 8eb9 853f 3793 753f b6ff 803f ff93 833f
000000f0: b274 773f f851 803f 5b5a 833f 03b0 833f
00000100: ce32 793f 6ccc 823f 5ac5 853f 7f89 6b3f
00000110: d85c 853f 73c8 783f dbbc 893f fa3d 813f
00000120: 6c20 7b3f 32d2 743f 1167 793f 7f98 883f
00000130: 7e2d 7b3f 4e22 853f 947d 813f 81ce 7d3f
00000140: 76db 793f 1356 6f3f 8995 7c3f 73cf 7d3f
00000150: 82f7 7a3f 8b01 823f fcf6 823f 578e 6f3f
00000160: 286e 813f c60a 673f 9a19 793f 247e 7e3f
00000170: 78b0 863f b106 823f 4488 763f 1e83 743f
00000180: e2b0 823f 7bc5 7e3f df7c 7e3f 2ada 893f

encoder.layers.0.batchnorm_attn.1.bias f4 [100]
-0.021982657 0.0057080374 0.06886214 -0.015242708 0.030813735 0.020373078 -0.022319723 0.018544398
0.019575683 -0.0016352064 0.04896491 0.03115496 -0.023268986 -0.03349248 0.0548095 0.009674117
0.045619834 -0.020387188 0.028822048 0.011302087 -0.07005821 -0.015670015 0.029560376 0.026110258
-0.0101853525 0.019666312 -0.039179124 0.0034602187 -0.03865929 0.0018324876 0.06866503 0.05456513
-0.015826799 0.05199937 -0.049376607 -0.0059611765 -0.011949513 -0.021214817 -0.058545306 0.021039175
0.062318563 -0.03430227 -0.021390377 -0.01968202 0.015102422 0.011870515 -0.01649352 0.005665004
-0.010161567 -0.010503437 0.0064642355 0.09019798 0.0378903 -0.028816482 -0.03258273 0.03350313
-0.03798746 0.03304455 0.026562478 0.019662991 -0.021245908 -0.00031913133 -0.020147696 0.044457097
0.01748921 -0.0119662145 -0.005854993 -0.031619295 -0.0002690656 0.042985532 0.020060334 -0.015475034
-0.029882144 0.0037460567 0.002354036 0.006840265 0.042395066 -0.094986394 0.040427037 0.041020334
0.012350526 0.047841936 -0.024831612 -0.0397886 -0.014584703 0.089960724 0.0278224 -0.0045989966
-0.0035649578 0.003374679 -0.04353094 0.025300706 0.027641179 0.004074648 0.024209911 0.00955155
0.02154305 0.010004838 0.0287746 0.08499147
00000000: f914 b4bc 7d0a bb3b 9807 8d3d 8dbc 79bc
00000010: 166d fc3c 71e5 a63c dad7 b6bc 6cea 973c
00000020: 2f5d a03c 6c54 d6ba 6e8f 483d b038 ff3c
00000030: 9a9e bebc 692f 09bd ed7f 603d 3080 1e3c
00000040: dddb 3a3d 0803 a7bc 371c ec3c 642c 393c
00000050: ae7a 8fbd 675e 80bc 9a28 f23c 2ee5 d53c
00000060: 77e0 26bc 3f1b a13c 4a7a 20bd d6c4 623b
00000070: 3459 1ebd 1530 f03a 40a0 8c3d b07f 5f3d
00000080: 34a7 81bc 4bfd 543d 203f 4abd f955 c3bb
00000090: e4c7 43bc b2ca adbc 34cd 6fbd 595a ac3c
000000a0: c041 7f3d 8980 0cbd df3a afbc 303c a1bc
000000b0: 2670 773c 8c7c 423c 6b1d 87bc 7fa1 b93b
000000c0: b37c 26bc 9c16 2cbc f0d1 d33b b8b9 b83d
000000d0: dc32 1b3d 8b10 ecbc 7875 05bd 943a 093d
000000e0: bd98 1bbd b959 073d 8e99 d93c 4814 a13c
000000f0: e60b aebc 1551 a7b9 c80c a5bc a518 363d
00000100: 8845 8f3c f10d 44bc 3edb bfbb 3c83 01bd
00000110: 6011 8db9 9911 303d 9255 a43c ff8a 7dbc
00000120: 66cb f4bc 6780 753b 2c46 1a3b 4d24 e03b
00000130: 73a6 2d3d 3a88 c2bd d296 253d f004 283d
00000140: dc59 4a3c e8f5 433d aa6b cbbc 5ff9 22bd
00000150: aef4 6ebc 543d b83d cdeb e33c 2eb3 96bb
00000160: 11a2 69bb b829 5d3b 804d 32bd 6d43 cf3c
00000170: c16f e23c a084 853b dd53 c63c 1b7e 1c3c
00000180: 0d7b b03c 55eb 233c b6b8 eb3c 0210 ae3d

encoder.layers.0.batchnorm_attn.1.running_mean f4 [100]
-1.7574058 3.821851 0.5832009 -4.6173387 1.2715831 4.4048104 -1.6959078 2.3945596
-1.1680789 0.0755532 1.7537552 2.7987924 2.9398184 -3.915234 -0.07472898 -6.0262613
2.801777 0.04426646 0.124246135 -4.017142 -1.7816669 -0.1638713 0.4050084 3.7903125
0.0148129165 -1.3875289 -1.2605522 -3.292397 -3.912295 1.6413379 1.0336204 0.7751084
-0.8347562 1.0816034 -0.023326548 1.9473165 -0.82232684 -3.3542404 -0.5640014 4.002734
1.9314237 -4.069407 -2.3690746 -0.4238459 0.5368217 -0.66482025 -1.2893636 -0.7456441
-2.1892009 -0.39384058 1.5586227 0.5165254 4.4818926 -1.3883699 -3.3556383 4.6535087
-1.3716093 5.379374 2.6530914 5.0058537 -2.215548 4.015822 -3.7690203 1.6051711
-0.6429088 -0.52626127 -0.6401406 -1.7957147 0.20067765 3.5158443 0.54305595 -4.409282
-3.1309586 2.9196196 1.4324331 0.53254265 1.7430362 0.22432281 4.433731 3.104486
-2.3796515 4.6612253 -2.6988013 -4.76446 0.98058844 -0.1141956 4.0249143 -2.0743415
-0.7236826 -2.8658166 -2.462765 5.296706 -0.70479405 4.5400944 3.2278614 4.401952
-0.084866226 -1.1189765 -1.983224 -0.7988245
00000000: acf2 e0bf 3599 7440 a74c 153f 3dc1 93c0
00000010: 3cc3 a23f 35f4 8c40 8213 d9bf 7740 1940
00000020: 9c83 95bf a3bb 9a3d 0d7b e03f 6a1f 3340
00000030: fc25 3c40 3293 7ac0 820b 99bd 22d7 c0c0
00000040: 5050 3340 bf50 353d c274 fe3d 6d8c 80c0
00000050: a90d e4bf e1cd 27be 435d cf3e 7b94 7240
00000060: e0b1 723c 8c9a b1bf c659 a1bf a2b6 52c0
00000070: 0b63 7ac0 5c17 d23f ac4d 843f 816d 463f
00000080: 95b2 55bf fb71 8a3f 5117 bfbc ab41 f93f
00000090: 0384 52bf e0ab 56c0 6562 10bf 6616 8040
000000a0: e438 f73f 9538 82c0 eb9e 17c0 5402 d9be
000000b0: 266d 093f a931 2abf de09 a5bf 88e2 3ebf
000000c0: de1b 0cc0 79a5 c9be f380 c73f 023b 043f
000000d0: aa6b 8f40 1bb6 b1bf c7c2 56c0 8be9 9440
000000e0: e590 afbf d523 ac40 40cc 2940 f42f a040
000000f0: 8acb 0dc0 9d81 8040 a137 71c0 3f76 cd3f
00000100: ac95 24bf 0fb9 06bf 41e0 23bf fbd9 e5bf
00000110: 717e 4d3e 9803 6140 b705 0b3f d718 8dc0
00000120: a061 48c0 0cdb 3a40 f859 b73f b754 083f
00000130: cf1b df3f e1b4 653e 20e1 8d40 e6af 4640
00000140: 364c 18c0 c228 9540 29b9 2cc0 7576 98c0
00000150: d807 7b3f 62df e9bd 19cc 8040 03c2 04c0
00000160: 4343 39bf 8a69 37c0 f19d 1dc0 9e7e a940
00000170: 626d 34bf 7448 9140 4895 4e40 cadc 8c40
00000180: 58ce adbd 9f3a 8fbf 49da fdbf c37f 4cbf

encoder.layers.0.batchnorm_attn.1.running_var f4 [100]
4.1094103 11.831411 3.7753258 10.233539 5.646099 9.636953 4.0013328 3.9567368
2.5849886 5.318324 7.7346144 4.6532006 7.116084 9.54909 3.7154725 14.545936
8.802667 3.4474115 5.365876 8.103921 7.5548887 5.5237675 2.5979984 8.204854
7.701397 4.6587634 4.0438757 5.3387165 7.9238577 4.9508076 2.9626613 4.8585196
3.8321595 3.233876 3.5998616 3.3987231 3.864474 5.964549 4.0568137 8.142991
3.849818 6.778075 5.415739 5.2773623 4.0169253 2.2035773 4.427034 3.0218194
4.1928253 3.610852 3.9965231 5.8372016 6.949426 5.8720145 6.2718368 10.04679
5.505746 12.993338 4.452352 12.546096 5.925736 8.278142 9.5729685 5.8358355
3.8142374 3.8766236 2.7076948 6.787793 1.170825 9.172856 3.8295617 6.4757185
6.5611453 6.2397094 5.1764903 7.4577146 6.5993795 4.203885 7.631275 8.340624
7.085753 11.571442 4.6676598 8.527001 1.9275806 6.7803774 6.5507283 4.0519605
5.9104795 4.771951 6.3671756 12.324881 2.9402163 8.271937 5.3739595 10.104682
4.336292 3.8021092 9.769248 3.7045956
00000000: 4a80 8340 764d 3d41 f09e 7140 93bc 2341
00000010: d8ac b440 f630 1a41 eb0a 8040 2d3b 7d40
00000020: 7470 2540 b62f aa40 f681 f740 05e7 9440
00000030: f6b6 e340 13c9 1841 4dca 6d40 27bc 6841
00000040: b9d7 0c41 64a2 5c40 42b5 ab40 a9a9 0141
00000050: a6c1 f140 b4c2 b040 9b45 2640 1547 0341
00000060: d871 f640 9714 9540 6e67 8140 c4d6 aa40
00000070: 3e90 fd40 046d 9e40 3e9c 3d40 fe78 9b40
00000080: 1a42 7540 d3f7 4e40 2264 6640 ae84 5940
00000090: 8b53 7740 96dd be40 6bd1 8140 b149 0241
000000a0: 6b63 7640 fee5 d840 bc4d ad40 27e0 a840
000000b0: a78a 8040 6907 0d40 43aa 8d40 7d65 4140
000000c0: a02b 8640 3318 6740 09c7 7f40 5bca ba40
000000d0: b361 de40 8be7 bb40 e3b2 c840 a7bf 2041
000000e0: 122f b040 b6e4 4f41 ab79 8e40 cfbc 4841
000000f0: a19f bd40 4573 0441 e12a 1941 2abf ba40
00000100: 771c 7440 9a1a 7840 df4a 2d40 9a35 d940
00000110: 98dd 953f 05c4 1241 8a17 7540 1639 cf40
00000120: e7f4 d140 b3ab c740 cfa5 a540 99a5 ee40
00000130: 1e2e d340 3a86 8640 6833 f440 3273 0541
00000140: 7dbe e240 a024 3941 785d 9540 996e 0841
00000150: f6ba f63f daf8 d840 919f d140 a9a9 8140
00000160: a622 bd40 d3b3 9840 e7bf cb40 b632 4541
00000170: 812c 3c40 db59 0441 7af7 ab40 c7ac 2141
00000180: e7c2 8a40 c255 7340 d74e 1c41 1818 6d40

encoder.layers.0.ff.0.weight f4 [256, 100]
0.10209423 -0.023166306 -0.10761416 -0.010932942 -0.016536381 -0.010709604 0.0083023 0.07611086
0.02581887 -0.08816447 0.004666886 -0.024713827 -0.01326326 0.09940711 -0.08749726 -0.043033432
0.021672735 0.08368707 -0.056452386 0.08465687 0.052939355 0.04104503 -0.08049387 -0.04781216
0.101335995 -0.097825564 -0.014193163 0.0973578 0.10343333 -0.007775006 -0.049650315 0.043202437
0.060462393 -0.08457957 -0.022425085 -0.03414584 -0.040210318 0.020783661 0.04953871 0.010428286
-0.016672228 0.0006849805 0.018609418 0.040346995 -0.046403676 -0.029315008 0.07701295 -0.0934118
0.049261145 -0.04807498 -0.04033806 -0.050745852 0.054611012 0.055378772 0.05017172 -0.07800609
0.1240737 -0.024721693 0.02247818 -0.0544772 0.066660024 0.051281348 0.02915396 0.025475018
0.009183657 0.022344913 -0.013453379 0.056826133 -0.0099144 0.07437655 -0.09538068 -0.07948047
0.102669224 -0.062252432 -0.030508706 0.06512728 -0.014982013 0.035165407 -0.09509904 -0.058907427
0.06804382 -0.0061417767 -0.048017755 0.0043433183 0.0853827 -0.010629508 -0.089630954 -0.013888866
0.007984578 -0.02976098 0.09293591 -0.12455063 -0.09802344 0.06742658 -0.011687256 -0.0037801643
0.043972977 -0.04650553 -0.012862759 -0.0010580766 0.043912195 0.03217332 -0.03598172 -0.096404895
-0.087192126 0.062364776 -0.077016965 -0.0025529796 0.037262265 -0.08080702 0.031017844 0.10474776
-0.02732744 0.056352496 0.12869671 -0.10531815 -0.022045847 0.049847204 0.0065128086 0.016535904
-0.1562001 -0.059675712 0.06508501 0.09526514 -0.034240734 0.04333617 -0.0781533 -0.07830764
-0.065776646 0.13546681 0.09485465 -0.015000589 -0.018000392 0.030410811 0.009312334 0.117211126
0.07454346 0.002017886 -0.11123896 0.07803007 0.1098998 -0.03621289 -0.13299394 -0.04523802
0.08822667 0.05412329 -0.052604903 0.033264432 -0.015890295 -0.092029504 0.06318925 0.036693398
0.10878762 0.031338405 0.016121631 0.08451176 -0.13271134 0.030105865 0.029255806 0.06923617
-0.036880482 -0.038179908 -0.1457023 0.056978587 0.0192137 -0.090466596 0.013145631 -0.033169672
0.062295288 0.021833463 0.05768819 -0.1499406 -0.055751737 0.09608598 -0.035869848 -0.0047489116
0.076266505 -0.074515335 0.017435439 0.087278575 -0.091450684 -0.037904095 -0.0981539 0.04023353
0.027017115 -0.040162023 0.11126101 -0.11233499 0.021569025 0.044455927 0.05047937 -0.038141783
0.048458256 0.013133651 -0.020941056 0.07430875 -0.01935907 -0.08072772 -0.07626936 0.093762934
0.012705341 0.038183223 -0.18447459 -0.0323382 0.05994732 0.029476346 -0.01745384 -0.10972988
0.039765485 0.03910704 -0.023355912 -0.10139 0.021811586 0.11653606 -0.09483354 0.034840677
0.029990768 0.0690211 -0.09615213 0.034291066 0.04771113 0.09473252 -0.04931662 0.0021964815
0.06687699 0.019603329 0.0407637 -0.017859204 -0.029842393 -0.036409132 -0.14837147 0.0015336436
-0.016410302 -0.13274233 -0.0054464173 0.07471854 -0.07632521 -0.020068169 0.019595109 -0.07795633
-0.12210523 0.10160635 0.1266699 -0.029501673 0.053473435 0.076114245 0.05450337 0.049826436
-0.025158605 0.056321107 0.056027472 -0.039497606 -0.022239951 0.08069431 0.11070897 -0.08500654
00000000: c816 d13d 44c7 bdbc d064 dcbd 1520 33bc
00000010: 4e77 87bc 5677 2fbc 5f06 083c 03e0 9b3d
00000020: 1882 d33c 938f b4bd adec 983b a774 cabc
00000030: 254e 59bc f495 cb3d c331 b3bd d343 30bd
00000040: 058b b13c 2064 ab3d 9e3a 67bd 9560 ad3d
00000050: f0d6 583d d51e 283d f8d9 a4bd afd6 43bd
00000060: 3f89 cf3d c558 c8bd 718a 68bc 8763 c73d
00000070: dbd4 d33d 7ac5 febb 215e 4bbd 0af5 303d
00000080: 6aa7 773d 0e38 adbd d0b4 b7bc 82dc 0bbd
00000090: 93b3 24bd 7f42 aa3c 1ae9 4a3d 67db 2a3c
000000a0: 3294 88bc 4390 333a c772 983c e442 253d
000000b0: c811 3ebd 0726 f0bc f7b8 9d3d b04e bfbd
000000c0: 0ec6 493d 45ea 44bd 8639 25bd e2da 4fbd
000000d0: ccaf 5f3d dad4 623d dd80 4d3d a8c1 9fbd
000000e0: 5a1a fe3d 2685 cabc 2924 b83c 7c23 5fbd
000000f0: 0d85 883d 640c 523d 49d4 ee3c fcb0 d03c
00000100: 0d77 163c ae0c b73c 906b 5cbc 85c2 683d
00000110: 0270 22bc bc52 983d f256 c3bd a8c6 a2bd
00000120: 3e44 d23d 68fc 7ebd 65ed f9bc 7461 853d
00000130: 1e77 75bc 9a09 103d 49c3 c2bd ea48 71bd
00000140: 8f5a 8b3d f540 c9bb 44ae 44bd 6552 8e3b
00000150: 20dd ae3d 6327 2ebc 6f90 b7bd 208e 63bc
00000160: bfd1 023c 4ccd f3bc 2f55 be3d 6714 ffbd
00000170: 83c0 c8bd f216 8a3d e87b 3fbc a2bc 77bb
00000180: 021d 343d 957c 3ebd 52be 52bc 29af 8aba
00000190: 46dd 333d 2cc8 033d 9161 13bd ee6f c5bd
000001a0: c991 b2bd 3572 7f3d 12bb 9dbd e44f 27bb
000001b0: 51a0 183d 277e a5bd 2219 fe3c fe85 d63d
000001c0: ccdd dfbc e0d1 663d 12c9 033e 0bb1 d7bd
000001d0: 7e99 b4bc 952c 4c3d 6669 d53b 4e76 873c
000001e0: ebf2 1fbe 856e 74bd 4a4b 853d 5f1a c33d
000001f0: 0340 0cbd 4581 313d d60e a0bd c25f a0bd
00000200: e8b5 86bd d0b7 0a3e 2843 c23d 08c5 75bc
00000210: 8f75 93bc 1820 f93c c292 183c 630c f03d
00000220: 3eaa 983d 823e 043b 40d1 e3bd 3bce 9f3d
00000230: 2513 e13d f853 14bd 902f 08be 814b 39bd
00000240: 2fb0 b43d 62b0 5d3d 3d78 57bd 4940 083d
00000250: 5d2c 82bc f779 bcbd 5e69 813d d14b 163d
00000260: 0bcc de3d b35c 003d 8311 843c 8014 ad3d
00000270: 7be5 07be 93a0 f63c dfa9 ef3c b1cb 8d3d
00000280: fd0f 17bd 8962 1cbd fc32 15be 6162 693d
00000290: 0d66 9d3c 8d46 b9bd c660 573c ecdc 07bd
000002a0: 5829 7f3d 17dc b23c 744a 6c3d 078a 19be
000002b0: ef5b 64bd bac8 c43d 43ec 12bd c29c 9bbb
000002c0: 9d31 9c3d 7f9b 98bd c4d4 8e3c 1cbf b23d
000002d0: 7f4a bbbd 5341 1bbd e904 c9bd eacb 243d
000002e0: ff52 dd3c ef80 24bd d0dc e33d e30f e6bd
000002f0: 86b1 b03c 6b17 363d 75c3 4e3d 8f3a 1cbd
00000300: 2a7c 463d 862e 573c 948c abbc 302f 983d
00000310: ea96 9ebc 9354 a5bd 1c33 9cbd c806 c03d
00000320: 102a 503c 0366 1c3d e8e6 3cbe 0f75 04bd
00000330: 528b 753d 6178 f13c 5bfb 8ebc 0fba e0bd
00000340: 22e1 223d b42e 203d e654 bfbc 8fa5 cfbd
00000350: 36ae b23c 75aa ee3d 1638 c2bd 19b5 0e3d
00000360: 33af f53c ef5a 8d3d 68eb c4bd ca74 0c3d
00000370: bf6c 433d 2003 c23d 3900 4abd d8f2 0f3b
00000380: cef6 883d 2997 a03c d6f7 263d 774d 92bc
00000390: 0978 f4bc be21 15bd b1ee 17be 8a04 c93a
000003a0: e66e 86bc 9bed 07be dc77 b2bb 0906 993d
000003b0: 6450 9cbd 0066 a4bc ec85 a03c 91a7 9fbd
000003c0: 4f12 fabd fd16 d03d c1b5 013e 7ead f1bc
000003d0: f606 5b3d c9e1 9b3d ed3e 5f3d ce16 4c3d
000003e0: 6b19 cebc f6b0 663d 107d 653d 3ec8 21bd
000003f0: 8f30 b6bc 0f43 a53d 62bb e23d e917 aebd
