transformer_results_random_no_constants_no_param_tune/performance_prediction/PSO1-PSO2-PSO3-PSO4-PSO5-PSO6-PSO7-PSO8-PSO9-PSO10-PSO11-PSO12_random_no_constants_dim_10_samples_50_fold_6_budget_50_n_heads_2_n_layers_1_d_model_100_d_k_30_d_v_30_aggregations_mean/trained_model.pt (torch, 346553 bytes, 22 tensors)

weight f4 [100, 11]
0	0xbe840d8a	-0.2579158
1	0x3e01677f	0.12637137
2	0x3e3961be	0.18103692
3	0x3d559223	0.05214132
4	0x3e362c25	0.17790277
5	0xbd98cfbc	-0.07461497
6	0x3e4d16dc	0.20028251
7	0x3a92597c	0.0011165584
8	0xbdb31b55	-0.087454475
9	0xbe8b4c6d	-0.27206746
10	0xbef62909	-0.48078182
11	0xbe0cab78	-0.13737285
12	0x3d82e3ae	0.06391083
13	0xbe2da849	-0.16958727
14	0xbd21d900	-0.039513588
15	0x3e5c79bd	0.21530814
16	0xbe41adac	-0.18913907
17	0x3e2c9987	0.16855441
18	0x3e905115	0.2818686
19	0xbe836754	-0.2566477
20	0xbe94098b	-0.2891353
21	0xbee44eff	-0.4459152
22	0x3d3a40c9	0.04547194
23	0x3d3915b5	0.045186717
24	0x3e5b1f8e	0.21398756
25	0xbe5bab3b	-0.21452038
26	0x3d07efff	0.033187862
27	0xbe90f97c	-0.2831534
28	0xbe84099d	-0.25788584
29	0x3e540cfb	0.20708077
30	0x3c028acd	0.007967663
31	0x3e6b0cb3	0.22954063
32	0xba9efa33	-0.0012129009
33	0x3d076acc	0.033060834
34	0xbd656150	-0.056001008
35	0x3da705c8	0.081553996
36	0x3e2d1839	0.16903771
37	0xbda8fd2a	-0.08251412
38	0x3e7b233d	0.24525161
39	0x3c47023a	0.012146527
40	0xbe863bec	-0.26217592
41	0xbe84c183	-0.25928888
42	0xbdc96de2	-0.098354116
43	0xbccd09b2	-0.025029037
44	0xbe8db018	-0.2767341
45	0x3e86a22e	0.26295608
46	0xbe86c02c	-0.2631849
47	0x3e5da289	0.21644033
48	0x3e0fdad4	0.1404832
49	0x3de6c84a	0.11268671
50	0xbe0beb2f	-0.13663934
51	0x3e491450	0.19636655
52	0xbe6a5603	-0.22884373
53	0x3e881cb9	0.26584414
54	0x3f0d4c90	0.5519495
55	0x3e0c423b	0.1369714
56	0x3e589eb0	0.21154284
57	0xbe800d8c	-0.25010335
58	0xbd550df0	-0.052015245
59	0x3e859b33	0.2609497
60	0x3cd1a46b	0.025591096
61	0x3e706755	0.23476918
62	0xbe65becd	-0.22436066
63	0x3d2a3315	0.041552622
64	0x3d7097f3	0.05873866
65	0xbed09d03	-0.4074479
66	0xbded1442	-0.115761295
67	0x3e10f9f1	0.14157845
68	0x3ddc699a	0.107623294
69	0xbe0225c1	-0.12709714
70	0xbe2a9da4	-0.16661698
71	0x3e72aa53	0.23697786
72	0xbda14125	-0.078737535
73	0x3df6724d	0.1203352
74	0xbd5e1191	-0.05421597
75	0x3d11cdb4	0.035596564
76	0xbeeb7270	-0.45985746
77	0xbdc85eaa	-0.09783681
78	0x3defa861	0.117020376
79	0xba8a1c52	-0.0010537005
80	0x3e164664	0.1467529
81	0x3e5f8100	0.21826553
82	0xbe8ac902	-0.27106482
83	0xbe248748	-0.1606723
84	0xbd934199	-0.07190246
85	0x3d932bd8	0.07186097
86	0xbd0f297b	-0.03495167
87	0x3ebe22b3	0.37135848
88	0xbe5c407d	-0.21508975
89	0xbd4b2921	-0.04959977
90	0x3e229cdd	0.15880151
91	0xbe49aaba	-0.19694033
92	0x3d9b0419	0.07569141
93	0xbe0a7f8d	-0.1352522
94	0x3e439415	0.19099458
95	0xbd940654	-0.072277695
96	0x3e7d36a4	0.24727875
97	0x3d0d4359	0.034488056
98	0x3e1e9967	0.15488206
99	0xbe7f08f7	-0.24905764
100	0xbdd1a4b5	-0.102364935
101	0xbd8431ca	-0.06454809
102	0x3b09ad0f	0.0021007692
103	0xbdc81222	-0.097690836
104	0x3e1bf400	0.15229797
105	0xbe5e5fdc	-0.21716255
106	0x3cb6b52a	0.022303183
107	0x3e411123	0.18854193
108	0xbdfd9beb	-0.123832546
109	0xbee25630	-0.4420638
110	0xbe28e468	-0.1649338
111	0x3dd73631	0.10508383
112	0xbd6e90e6	-0.058243655
113	0x3d5849a0	0.05280459
114	0xbe6cda0a	-0.2313005
115	0x3e621aee	0.22080585
116	0xbe8effa8	-0.27929425
117	0x3e3217fb	0.1739196
118	0xbd7ce2b8	-0.061739653
119	0x3e5935b0	0.21211886
120	0xbeaaaa6a	-0.3333314
121	0xbe062a5e	-0.131021
122	0xbe81bef6	-0.25341004
123	0xbd4664e4	-0.04843606
124	0x3d85136c	0.06497845
125	0x3e132ff4	0.14373761
126	0x3d1db022	0.03849805
127	0x3cd82a40	0.026387334
128	0xbd28238f	-0.041049536
129	0xbdc254d6	-0.094888374
130	0xbdcfa6e0	-0.10139251
131	0x3d98203d	0.07428024
132	0xbe1fb1d8	-0.15595186
133	0x3e155ca5	0.14586122
134	0xbcacf4fd	-0.021112913
135	0xbe182ec9	-0.14861597
136	0xbc326523	-0.010888371
137	0xbe54e3d1	-0.2079003
138	0xbda169e0	-0.07881522
139	0x3e13954c	0.14412421
140	0x3e2ead62	0.17058328
141	0x3e447db5	0.19188578
142	0x3cb2087c	0.021732561
143	0xbe7bd8e4	-0.24594456
144	0xbe8c5188	-0.27405953
145	0xbe4be8e8	-0.19913065
146	0x3e79454b	0.2434284
147	0x3e0d182f	0.13778757
148	0xbe876b20	-0.26448917
149	0xbb5001bb	-0.0031739313
150	0x3de1bb26	0.11022024
151	0x3dafb9dc	0.08580372
152	0xbca53525	-0.020166943
153	0x3ed9f721	0.42571357
154	0xbe6afbf2	-0.22947672
155	0x3e8f017c	0.2793082
156	0xbe13e346	-0.14442167
157	0x3d8c9918	0.06865138
158	0x3e8a8502	0.27054602
159	0x3e604fc1	0.21905424
160	0xbd2023c9	-0.039096627
161	0xbe17ff02	-0.14843372
162	0x3e216c62	0.15764001
163	0xbe964816	-0.29351872
164	0xbe951e3e	-0.29124635
165	0x3df1c305	0.11804775
166	0xbde65699	-0.11246986
167	0x3e457308	0.19282162
168	0x3e925443	0.28579912
169	0xbe4fdad4	-0.2029832
170	0xbda97c63	-0.08275678
171	0xbe28876d	-0.16457911
172	0xbc6d39a8	-0.014479078
173	0xbd60ad9b	-0.054853063
174	0xbe33d520	-0.1756177
175	0x3e92f07e	0.28699106
176	0xbc207277	-0.009792916
177	0x3e455ab5	0.19272883
178	0xbe5da17f	-0.21643637
179	0xbe07c8d9	-0.13260211
180	0x3e62dadd	0.22153802
181	0xbd8dfbc9	-0.0693279
182	0xbd9993b9	-0.07498879
183	0x3d638265	0.055544276
184	0xbe8d6f90	-0.27624178
185	0x3e61da82	0.2205601
186	0xbef645e6	-0.48100203
187	0xbe782e63	-0.24236445
188	0x3c2184d2	0.009858327
189	0x3db1f728	0.086897194
190	0x3dbe200e	0.09283458
191	0xbe5afef9	-0.21386327
192	0x3e462150	0.19348645
193	0xbe9756a5	-0.29558292
194	0x3c6568d5	0.014002045
195	0xbd542933	-0.051797103
196	0xbc713bdf	-0.014723747
197	0x3e8ca40d	0.2746891
198	0x3e2995e9	0.16561092
199	0xbdc2bc49	-0.09508569
200	0xbe4cabc6	-0.19987401
201	0xbe8d9034	-0.2764908
202	0xbe0300a9	-0.1279322
203	0xbe4b0191	-0.19824816
204	0x3e9110f0	0.28333235
205	0xbe120f4a	-0.14263645
206	0xbe57188e	-0.2100546
207	0xbd1535f6	-0.036428414
208	0xbef988b6	-0.48737115
209	0x3db15599	0.086589046
210	0xbda3fa07	-0.08006673
211	0x3e17d5e6	0.1482769
212	0x3e3b9f58	0.18322504
213	0x3ba1d438	0.0049386285
214	0xbd0bad24	-0.034100667
215	0x3e2c1623	0.1680532
216	0x3e250e9c	0.16118854
217	0xbdf90dc7	-0.12160831
218	0xbe105a28	-0.14096892
219	0xbf082536	-0.5318178
220	0x3d896740	0.067091465
221	0xbd7d9daf	-0.061917957
222	0x3d4a745f	0.049427386
223	0x3def7cfb	0.1169376
224	0x3d67e525	0.056615014
225	0x3def2033	0.116760634
226	0x3e09cb35	0.13456424
227	0xbdc15ba3	-0.094413064
228	0x3e8be68a	0.27324325
229	0x3e94374c	0.28948438
230	0xbf048e9b	-0.517801
231	0xbe856976	-0.26057023
232	0x3ba17cce	0.004928208
233	0xbe1d7c12	-0.1537936
234	0xbe4e22c5	-0.20130451
235	0xbe6271ac	-0.22113675
236	0xbd92e219	-0.07172031
237	0x3e6d071f	0.23147248
238	0xbd91b1a2	-0.07113959
239	0x3bc617b7	0.0060453075
240	0x3e57684d	0.21035881
241	0xbe6215f2	-0.22078684
242	0x3cee428d	0.029084468
243	0xbdb6d5ca	-0.08927496
244	0xbdb725bd	-0.08942745
245	0xbe653e51	-0.22387053
246	0xbe26ad9a	-0.16277161
247	0xbe3f75e8	-0.18697321
248	0xbde3875e	-0.111098036
249	0xbe272bee	-0.16325352
250	0xbdb39fc2	-0.08770706
251	0xbdac5f28	-0.08416587
252	0xbda918eb	-0.08256706
253	0x3e02b6bb	0.12765019
254	0x3e17a6b0	0.1480968
255	0x3dc8e009	0.09808356

bias f4 [100]
0	0xbe2a38c2	-0.16623214
1	0x3e861c43	0.26193437
2	0x3d9aa75a	0.07551451
3	0x3e69bf47	0.22826873
4	0xbe8f4767	-0.27984163
5	0x3e8a9646	0.27067775
6	0x3e88c6bd	0.26714125
7	0x3e874f56	0.26427716
8	0x3e1b0827	0.15139829
9	0x3e578224	0.21045738
10	0x3e2665c1	0.16249754
11	0xbde4b414	-0.1116716
12	0x3e193762	0.14962533
13	0x3db09b1f	0.08623337
14	0x3d0a60b5	0.033783633
15	0x3df9f878	0.12205595
16	0xbdca7507	-0.098856024
17	0xbc821c98	-0.015882775
18	0xbe25a5cf	-0.16176532
19	0xbe312b0e	-0.1730158
20	0x3e8cc8e6	0.27497023
21	0x3e22178a	0.15829292
22	0xbeaf3653	-0.34221134
23	0x3ce2f5a7	0.027705027
24	0x3d697dc6	0.057004713
25	0x3daa8c96	0.08327596
26	0x3e08b012	0.13348415
27	0x3e8aaafe	0.27083582
28	0xbe9e55dc	-0.3092488
29	0x3c8aac59	0.016927885
30	0x3d5c4ade	0.053782336
31	0x3d3f210d	0.04666238
32	0x3cd13539	0.025538074
33	0xbdd8512e	-0.10562359
34	0x3e644289	0.22291006
35	0xbea05193	-0.31312236
36	0x3e5db2dd	0.21650262
37	0x3d5a1abc	0.053248152
38	0x3e1c7bb0	0.15281558
39	0x3eb07514	0.34464324
40	0x3e53e0cf	0.20691226
41	0xbe09d417	-0.13459812
42	0xbddef2a6	-0.10886125
43	0xbca76e57	-0.020438356
44	0xbe4b891d	-0.19876523
45	0x3e3b6880	0.18301582
46	0x3e62355d	0.22090669
47	0x3d4729ac	0.048623726
48	0xbd99eb99	-0.0751564
49	0xbebd4488	-0.36966348
50	0x3e14f845	0.14547832
51	0x3e6977b9	0.22799577
52	0xbe3d41d4	-0.18482143
53	0x3e01cbb1	0.12675358
54	0x3dc7e4eb	0.097604595
55	0x3e2932cc	0.16523284
56	0xbe6c9186	-0.23102388
57	0x3d97ec31	0.07418097
58	0x3d381b60	0.04494798
59	0xbe325210	-0.17414117
60	0x3e360695	0.17775948
61	0xbe8c098b	-0.2735103
62	0x3e84495c	0.2583722
63	0xbe1bfff4	-0.15234357
64	0x3cd29c73	0.025709366
65	0x3eb04563	0.34427938
66	0xbdf5fdaa	-0.12011273
67	0xbe5a6ecf	-0.21331333
68	0x3e18636c	0.14881676
69	0x3ce5a0a5	0.028030703
70	0x3cf915f6	0.03040598
71	0x3e36754d	0.17818184
72	0x3dda867e	0.106701836
73	0xbe3f5fa3	-0.18688826
74	0xbe0b6f54	-0.13616687
75	0x3dbc852e	0.092050895
76	0xbeaff8ae	-0.34369415
77	0xbe91446b	-0.2837251
78	0x3e0b5082	0.1360493
79	0x3e6e8f77	0.23296915
80	0x3ea536d0	0.3226838
81	0xbe864d7c	-0.2623099
82	0x3e9842a5	0.29738346
83	0xbddb1d06	-0.10698895
84	0xbe473586	-0.19454011
85	0x3c655c0e	0.013998998
86	0xbec3f17a	-0.3827017
87	0xbe567846	-0.20944318
88	0xbca75998	-0.020428464
89	0xbe4ca1e5	-0.19983633
90	0xbe22c195	-0.15894158
91	0x3e8f8ced	0.28037205
92	0x3d2dae54	0.04240258
93	0x3bbfa3b0	0.0058483705
94	0x3dc69da9	0.0969804
95	0x3e9a1309	0.30092648
96	0xbcfcf0d2	-0.03087655
97	0x3d139cd3	0.03603823
98	0x3e177e53	0.14794283
99	0xbebc8e47	-0.368273

weight f4 [60, 100]
0	0xbcd61087	-0.026130928
1	0xbc84ecc0	-0.016226172
2	0x3b1e341a	0.0024139942
3	0xbc0f0a87	-0.008730537
4	0x3ceec0a2	0.029144589
5	0x3c3a0ed4	0.011356074
6	0x3d16e31e	0.03683769
7	0xbcbd3395	-0.023095885
8	0x3d47302d	0.04862993
9	0xbde705d6	-0.1128041
10	0x3cf211bf	0.029549478
11	0xbd99635f	-0.07489657
12	0xbdd32898	-0.10310477
13	0x3d4ae59d	0.049535383
14	0x3ade0214	0.0016937875
15	0xbd61e653	-0.055151295
16	0xbd228d85	-0.039685745
17	0x3cba178f	0.022716312
18	0xbd982701	-0.074293144
19	0xbe0c0a75	-0.13675864
20	0x3d30dc9c	0.04317914
21	0x3d4366d5	0.04770549
22	0xbdd32ad8	-0.10310906
23	0x3da6df1d	0.08148024
24	0xbdd46a65	-0.10371856
25	0xbcb81fbe	-0.022476073
26	0xbc3bb05e	-0.011455623
27	0x3d055139	0.032548163
28	0x3dda9cd7	0.10674446
29	0x3d4509ce	0.048105054
30	0xbd27ea27	-0.04099479
31	0xbdc80829	-0.097671814
32	0x3cbf3a5c	0.023343258
33	0x3a3d6356	0.000722458
34	0xbc4a097b	-0.012331362
35	0x3d9a9b34	0.07549134
36	0x3b451946	0.0030074879
37	0xbdd4bff1	-0.103881724
38	0xbbbd70ec	-0.0057812836
39	0xbbbdb1cb	-0.005789017
40	0xbbcda6c7	-0.006275985
41	0xbd98b91d	-0.074571826
42	0xbd89fc41	-0.06737567
43	0x3d2c01f5	0.041994054
44	0x3d87a2a9	0.06622822
45	0x3d4ff641	0.050771955
46	0xbac9bed4	-0.0015391954
47	0xbdbfcf0e	-0.093656644
48	0xbc9fb277	-0.019494278
49	0xbd17586f	-0.03694957
50	0xbdeff827	-0.11717253
51	0xbd798802	-0.060920723
52	0xbe058604	-0.13039404
53	0xbc323618	-0.010877155
54	0xbe018a0b	-0.12650315
55	0x3daec562	0.085337415
56	0x3d224ce6	0.039624117
57	0x3d5ff67b	0.05467842
58	0xbca0c456	-0.01962487
59	0xbcadab3e	-0.021199819
60	0xbd8e7df2	-0.06957616
61	0xbbef3daa	-0.007301052
62	0x3cd2448c	0.025667451
63	0xbd4ea615	-0.050451357
64	0xbc884f0a	-0.016639251
65	0xbd177d0c	-0.03698449
66	0xbcf3965f	-0.029734788
67	0x3db2da95	0.087330975
68	0xbd182cde	-0.037152164
69	0xbd110dd7	-0.03541359
70	0xbdacac62	-0.08431317
71	0x3d6d9ae7	0.058009055
72	0xbe0800e8	-0.13281596
73	0x3d2648af	0.04059666
74	0x3c17145d	0.009221164
75	0xbd2f0e4c	-0.042738244
76	0x3e1b3fd4	0.15161067
77	0x3dd19380	0.102332115
78	0xbcfe3e5a	-0.03103559
79	0xbdafeb6c	-0.08589825
80	0x3db35a54	0.08757463
81	0x3df66e26	0.12032728
82	0x3c9ea520	0.019365847
83	0xbd728fb1	-0.059219066
84	0xbdc8bce0	-0.0980165
85	0x3e0f53b7	0.13996778
86	0x3cdef198	0.02721481
87	0x3caf3632	0.021388147
88	0x3de08f34	0.10964814
89	0xbc9e10b8	-0.019295081
90	0xbcf8c43b	-0.030367007
91	0x3d2273fa	0.039661385
92	0xbd7a9162	-0.061173804
93	0x3d8c3570	0.0684613
94	0xbdd7e74b	-0.105421625
95	0xbde396e5	-0.11112765
96	0xbcac1db9	-0.021010267
97	0xbd488a68	-0.04896012
98	0x3de4ad17	0.11165827
99	0x3d0053ff	0.031330105
100	0xbcfa9ae5	-0.030591438
101	0x3d8c0bad	0.068381645
102	0x3d9fb078	0.077973306
103	0xbcdcf8c4	-0.02697409
104	0xbd33520d	-0.04377942
105	0x3c39f35d	0.011349526
106	0x3d1b96d9	0.037985656
107	0xbd4d04e2	-0.050053485
108	0xbdb5cc89	-0.088769026
109	0x3de07fc9	0.10961873
110	0x3adc82fc	0.0016823704
111	0x3c75d57d	0.015004513
112	0x3d6de734	0.05808182
113	0x3c4ad371	0.012379513
114	0x3dcf37b9	0.1011805
115	0x3d446ea4	0.047957078
116	0x3dced74c	0.10099658
117	0x3a621f23	0.00086258556
118	0x3dd7ced3	0.105374955
119	0x3e099d40	0.13438892
120	0x3d228076	0.03967329
121	0x3c904388	0.017610326
122	0x3dd50c23	0.104027055
123	0xbde09f5d	-0.10967896
124	0xbd44c1df	-0.048036452
125	0x3d3b73c2	0.045764692
126	0xbe058594	-0.13039237
127	0xbce895a8	-0.028391674
128	0xbd4cb566	-0.049977683
129	0x3d579350	0.052630723
130	0xbd7a6df9	-0.061140034
131	0xbc56b3d7	-0.013104401
132	0xbddc3013	-0.10751357
133	0x3dcb9297	0.09940069
134	0x3d08f2ca	0.033434667
135	0x3cde8800	0.02716446
136	0xbd4fe21e	-0.05075275
137	0x3d8d18e3	0.068895124
138	0x3b87f5fe	0.0041491976
139	0xbd924a05	-0.07143024
140	0xbd814ef2	-0.06313886
141	0xbdaf8ab9	-0.08571381
142	0x3d8747e8	0.06605512
143	0xbc203201	-0.009777547
144	0x3d9e1701	0.077192314
145	0xbb77c58a	-0.0037806951
146	0x3bf4c92e	0.0074702716
147	0xbb3af75d	-0.0028528788
148	0xbc56c625	-0.013108765
149	0x3d251f9d	0.040313352
150	0x3d98a4de	0.07453321
151	0x3dd38ae2	0.10329224
152	0x3e10029f	0.140635
153	0xbd8a223d	-0.06744812
154	0x3db756d0	0.08952105
155	0xbb2cbe0a	-0.002635839
156	0x3d18d85f	0.037315723
157	0x3dafe550	0.0858866
158	0x3cc42338	0.023942575
159	0xbd3e3e3c	-0.04644607
160	0x3ddc4b88	0.10756594
161	0xbdacce7c	-0.08437821
162	0xbcd3f66d	-0.02587434
163	0xbdd1475b	-0.10218688
164	0x3e12e0ac	0.14343518
165	0xbcca8681	-0.02472234
166	0x3dd4f1b6	0.10397665
167	0xbdf620b0	-0.120179534
168	0x3cd4ee9a	0.02599268
169	0x3c173d3e	0.00923091
170	0x3d2363ea	0.039890207
171	0x3d0249cb	0.031808656
172	0x3d6dd40a	0.058063544
173	0x3b40a654	0.0029396014
174	0x3d2995da	0.041402675
175	0xbd0b6505	-0.034031887
176	0xbd999d42	-0.07500698
177	0xbcc326f9	-0.023822295
178	0x3daa00c1	0.08300925
179	0xbdda6b59	-0.10665006
180	0xbd5c49ed	-0.05378144
181	0xbd43ef12	-0.047835417
182	0xbd6c08d0	-0.05762559
183	0x3d83bc66	0.064324185
184	0xbb9acb1c	-0.0047239196
185	0xbd21d0a7	-0.039505627
186	0x3dac9486	0.08426766
187	0x3d853315	0.06503884
188	0x3c58c1ab	0.013229768
189	0xbda90336	-0.082525656
190	0x3b4a1928	0.0030837748
191	0x3dac8040	0.08422899
192	0xbd8c78bb	-0.06858965
193	0x3d440836	0.047859393
194	0x3cc02947	0.023457183
195	0xbcdf81fa	-0.027283657
196	0xbe0b9a6b	-0.13633125
197	0xbc000fc7	-0.007816262
198	0xbe021dac	-0.12706631
199	0xba820097	-0.0009918389
200	0x3a70b3a2	0.0009182041
201	0xbcfa19a3	-0.030529803
202	0xbd915628	-0.07096511
203	0xbdfd4312	-0.12366308
204	0x3d91632f	0.07098996
205	0xbd66431c	-0.056216344
206	0x3b96832f	0.004593275
207	0x3db4e94b	0.088335596
208	0x3dd95d2b	0.106134735
209	0xbcdb1cde	-0.026747163
210	0xbdc1f2ef	-0.09470164
211	0x3bfd88b8	0.0077372454
212	0x3dd6b90d	0.104845144
213	0x3ded1b0b	0.11577424
214	0x3d35309f	0.04423582
215	0xba2382e8	-0.0006237463
216	0xbe18cef9	-0.14922704
217	0xbd89f59d	-0.067363
218	0x3bd69bc9	0.0065493328
219	0xbe12d75f	-0.1433997
220	0xbd501f0e	-0.050810866
221	0x3d599340	0.053118944
222	0xbdc54189	-0.096316405
223	0xbc978617	-0.018496556
224	0xbcda7fac	-0.026672207
225	0x3c829f59	0.015945124
226	0x3d26ce40	0.04072404
227	0xbd339219	-0.0438405
228	0x3e08e773	0.13369541
229	0x3d11743f	0.03551125
230	0x3c34e7a8	0.011041559
231	0x3d66ce72	0.056349225
232	0xbd88063c	-0.06641814
233	0x39b7c010	0.00035047578
234	0xbd56eb6b	-0.052470606
235	0x3df45927	0.11931067
236	0x3d0dbe41	0.03460527
237	0xbdea92d2	-0.11453785
238	0x3b6d66ee	0.003622468
239	0xbc09d5dd	-0.008412805
240	0xbd2a7a1a	-0.04162035
241	0x3cd3e15d	0.025864298
242	0xbdae7f0f	-0.08520328
243	0xbb90f6d8	-0.0044239573
244	0xbd9ec3cf	-0.07752191
245	0xbde1d689	-0.110272475
246	0xbc6ebe8a	-0.014571795
247	0xbcf87cd5	-0.030332962
248	0x3d80157a	0.06254096
249	0x3dcf594a	0.101244524
250	0xbbd6f737	-0.006560232
251	0xbd97b428	-0.07407409
252	0xbcfbf9b5	-0.030758718
253	0x3db64f09	0.089017935
254	0xbdebc5d8	-0.11512345
255	0x3e0e28e4	0.13882786

weight f4 [60, 100]
0	0xbde13b48	-0.10997635
1	0x3d8d7f48	0.069090426
2	0x3d5409f0	0.05176729
3	0xbd95cfe7	-0.07315045
4	0xbd48bbf5	-0.049007375
5	0x3ddf4988	0.10902697
6	0x3d9b0143	0.075686
7	0x3cba239e	0.022722062
8	0x3d949054	0.07254091
9	0x3d0c45ed	0.034246374
10	0xbc0967f8	-0.0083866045
11	0xbcc3a3dc	-0.023881845
12	0xbd86a79f	-0.0657494
13	0xbb72bec8	-0.0037039984
14	0x3ce6dad7	0.028180523
15	0x3c02258b	0.007943521
16	0x3d6bdb02	0.05758191
17	0xbdb0587e	-0.086106285
18	0x3dfa3870	0.12217796
19	0x3d8e48fb	0.06947514
20	0x3d033336	0.03203126
21	0xbc99d5d9	-0.018778728
22	0xbdaa849a	-0.08326073
23	0xbdbf15fc	-0.09330365
24	0x3bcb7568	0.0062090643
25	0x3d51e49c	0.05124341
26	0xbd489907	-0.048974063
27	0x3c39ea53	0.011347371
28	0xbdba7bde	-0.09105657
29	0x3cd14d5b	0.025549581
30	0xbddb4469	-0.107064076
31	0x3c5568f3	0.01302551
32	0xbd98eb1b	-0.07466718
33	0xbdcdaf17	-0.10043161
34	0x3d78cd50	0.060742676
35	0xbd9e72c2	-0.07736732
36	0x3d84c76d	0.0648335
37	0xbd78d78d	-0.06075244
38	0x3dc341c2	0.09534027
39	0xbddae011	-0.106872685
40	0x3d90a6ae	0.070630416
41	0xbdf880d0	-0.12133944
42	0xbdf1be03	-0.1180382
43	0xbc3f30cf	-0.011669352
44	0xbde3c0ed	-0.11120782
45	0xbdfdf69a	-0.12400551
46	0xbc679f52	-0.014137106
47	0xb8320654	-4.24444e-05
48	0xbd6521ce	-0.05594044
49	0x3de6121c	0.11233923
50	0x3dbaeada	0.09126826
51	0x3d9da011	0.07696546
52	0xbd429117	-0.04750165
53	0x3cc08c27	0.02350433
54	0xbd3feb49	-0.046855245
55	0x3cf56ae5	0.029958198
56	0x3d944134	0.07238999
57	0x3e12ba85	0.14328964
58	0x3db514f4	0.08841887
59	0x3d253535	0.040333945
60	0xbdb5bb61	-0.0887363
61	0x3b705974	0.0036674412
62	0xbbd35c2e	-0.0064501977
63	0x3d422300	0.04739666
64	0xbdcca13d	-0.09991691
65	0xbd414cc7	-0.04719236
66	0xbd4d478b	-0.050117057
67	0x3d7c6b85	0.061625976
68	0xbe111400	-0.14167786
69	0x3dc5fb42	0.09667064
70	0x3de8ba07	0.11363607
71	0xbd2be5ec	-0.041967317
72	0xbcbd70da	-0.0231251
73	0x3e06f494	0.13179237
74	0xbca24308	-0.019807354
75	0xbd4138be	-0.047173254
76	0x3d2ab48d	0.041676093
77	0x3d771f9c	0.06033288
78	0x3cd891fe	0.026436802
79	0x3acb39ae	0.0015504861
80	0xbc7d3376	-0.015454164
81	0x3d8e2481	0.06940556
82	0x3dc04e2b	0.09389909
83	0x3d0ef6d9	0.03490338
84	0xbd8eb2c2	-0.06967689
85	0x3dd48ba6	0.10378198
86	0x3d92c664	0.07166746
87	0xbb77f763	-0.0037836663
88	0x3d937283	0.07199576
89	0x3de26f95	0.11056439
90	0x3d5b0e57	0.053480472
91	0x3c01cd89	0.007922539
92	0xbd2d637d	-0.042331208
93	0xbd0a23b7	-0.033725467
94	0x3d2cfcaf	0.042233165
95	0x3c82bd2d	0.015959347
96	0x3d3a9b69	0.045558367
97	0x3da1ef2c	0.079069465
98	0xbd470472	-0.048588224
99	0xbe0f986c	-0.14022988
100	0xbd8e09ad	-0.06935439
101	0x3d613130	0.05497855
102	0xbd4c7987	-0.049920585
103	0xbd352a68	-0.044229895
104	0xbba4c50f	-0.005028374
105	0xbdfa42d1	-0.122197755
106	0x3d65bdea	0.05608932
107	0xbcd7a6c3	-0.026324635
108	0x3d38e3da	0.04513917
109	0x3e0121b1	0.12610509
110	0xbd77553e	-0.060384028
111	0xbc9a359f	-0.018824397
112	0xbddf7e8a	-0.10912807
113	0xbd45bc67	-0.048275378
114	0x3d99d5cf	0.07511484
115	0xbcfa4309	-0.030549543
116	0xbda30c75	-0.0796136
117	0xbb60005a	-0.0034179897
118	0xbdc33e4a	-0.09533365
119	0x3d1e7bbb	0.038692217
120	0xbe2149aa	-0.15750757
121	0x3c2fef3a	0.010738188
122	0x3dc66964	0.096880704
123	0xbd98c91c	-0.074602336
124	0x3d0b3a32	0.033991046
125	0x3d77060a	0.060308494
126	0x3cb3db2a	0.021955092
127	0x3dcb01e2	0.099124685
128	0x3c06a219	0.008217358
129	0x3e2d759a	0.16939393
130	0x3e047125	0.12933786
131	0xbd83f0f2	-0.06442441
132	0x3d852f06	0.0650311
133	0x3de2a3cd	0.11066399
134	0xbdbdb538	-0.0926308
135	0x3d4d3c04	0.050106063
136	0x3d096757	0.03354582
137	0x3d1107e2	0.03540791
138	0xbe1ac875	-0.15115531
139	0x3e04edde	0.12981364
140	0x3dc72b25	0.09725026
141	0x3d90ef29	0.07076866
142	0x3dc9b9c3	0.09849884
143	0xbbbb1952	-0.0057098055
144	0x3d0e5119	0.03474531
145	0xbd75c54e	-0.060002618
146	0x3ded91a2	0.11600043
147	0x3db5143c	0.0884175
148	0xbb9e0117	-0.0048219073
149	0xbdbe6780	-0.09297085
150	0xbd9c83db	-0.07642337
151	0x3ddd0471	0.10791863
152	0xbc94596b	-0.018109044
153	0x3bb9bc2b	0.0056681833
154	0x3c29dbab	0.010367314
155	0x3df2a1ad	0.118472435
156	0xbcc15db4	-0.023604251
157	0x3c79547f	0.015217899
158	0xbd848896	-0.06471364
159	0xbdba6272	-0.09100808
160	0x3d96fd1d	0.07372496
161	0xbde9069e	-0.11378215
162	0x3b6edee2	0.0036448766
163	0x3da77a3b	0.081776105
164	0x3c0bca66	0.008532142
165	0xbd3e2d60	-0.04642999
166	0x3daf0b44	0.085470706
167	0x3d729b21	0.059229974
168	0x3d5607e9	0.052253637
169	0xbd408f8e	-0.047011904
170	0xbdb39ca7	-0.087701134
171	0x3d3c1f80	0.04592848
172	0xbe1cece7	-0.15324746
173	0xbddfafc4	-0.109221965
174	0xbd99f0f3	-0.075166605
175	0xbaf4c8e5	-0.0018675594
176	0xbd29333a	-0.04130862
177	0xbcda53ed	-0.026651347
178	0x3dcce398	0.100043476
179	0x3db11bda	0.086478904
180	0x3d73eeb4	0.059553817
181	0x3dba75a9	0.09104473
182	0x3bb43112	0.0054990137
183	0x3cf4010d	0.029785657
184	0xbd95fbcc	-0.07323417
185	0xbcd8fe31	-0.026488395
186	0x3c73456b	0.0148480935
187	0xbd65d316	-0.05610951
188	0x3da50f7e	0.080595955
189	0xbd45995d	-0.04824196
190	0xbd87472b	-0.06605371
191	0xbd1b90ba	-0.03797982
192	0xbd9facd8	-0.07796639
193	0xbdd18145	-0.10229734
194	0x3cc19fb7	0.023635728
195	0x3c40202e	0.011726422
196	0x3d672678	0.05643317
197	0xbcf3ee7d	-0.029776806
198	0xbd7660b9	-0.060150836
199	0xbd2fe1ea	-0.042940058
200	0xbc7203f4	-0.01477145
201	0x3d00aa07	0.03141215
202	0x3d36ea34	0.044656947
203	0x3c55b8a6	0.013044512
204	0xbcf5fa44	-0.030026563
205	0xbdc71f4d	-0.09722767
206	0x3df90b7a	0.12160392
207	0x3c4bc32a	0.012436667
208	0x3d159b16	0.036524855
209	0xbd70fbce	-0.05883389
210	0x3d84dcb1	0.06487406
211	0x3d9b0a9c	0.07570383
212	0x3dc610a3	0.09671142
213	0xbc1a829c	-0.009430554
214	0xbe077d95	-0.132315
215	0xbce04cbf	-0.027380345
216	0x3cdbe4db	0.026842525
217	0x3b8f35aa	0.004370411
218	0xbdd568d7	-0.10420387
219	0x3dcd0664	0.100109845
220	0x3df9d4c8	0.12198788
221	0x3d4b23b0	0.04959458
222	0xbe003131	-0.12518765
223	0x3bea3264	0.0071471203
224	0xbe216f8b	-0.15765207
225	0xbd2aef54	-0.041732147
226	0xbd7cc487	-0.06171086
227	0xbd224555	-0.0396169
228	0xbc67b7ef	-0.014142974
229	0xbba1749a	-0.00492723
230	0xbdf79f24	-0.120909005
231	0x3d8d3fcb	0.06896933
232	0x3d206ecd	0.039168168
233	0x3c32ce85	0.010913496
234	0x3c0451ad	0.008076114
235	0x3dcc511c	0.09976408
236	0xbd4d0afa	-0.050059296
237	0xbc2c6fc7	-0.010524697
238	0x3da41c8c	0.080132574
239	0x3c5e124a	0.013554165
240	0xbd10a3e1	-0.035312537
241	0x3d154163	0.03643931
242	0xbdb5d05a	-0.088776305
243	0x3dbd9e20	0.092586756
244	0x3d099cca	0.03359679
245	0x3da277c3	0.07932999
246	0xbda29693	-0.07938876
247	0x3d35d5f0	0.04439348
248	0xbdc93cb4	-0.09826031
249	0xba7023f2	-0.00091606297
250	0x3cbce9bf	0.023060678
251	0xbd877ac0	-0.066152096
252	0x3d9e6aa5	0.077351846
253	0xba43c3f3	-0.00074678584
254	0xbcf68c54	-0.03009621
255	0xbc8d591c	-0.017254405

weight f4 [60, 100]
0	0x3dde63ed	0.10858903
1	0x3cc8fa45	0.0245334
2	0x3dd2aaec	0.10286507
3	0xbd07d225	-0.033159394
4	0xbddbc738	-0.10731357
5	0xbd8cb0b0	-0.06869638
6	0x3e2e363e	0.17012879
7	0xbd673df3	-0.056455564
8	0x3d6ff007	0.058578517
9	0x3aa16d1e	0.0012315845
10	0x3d165f6e	0.036712103
11	0x3d4e4fcc	0.05036907
12	0xbde92bae	-0.11385284
13	0xbd4cfd2c	-0.05004613
14	0xbdc42cce	-0.09578858
15	0xbdab08c5	-0.08351282
16	0x3db97052	0.090546265
17	0x3de09666	0.10966186
18	0x3dda6ad2	0.106649056
19	0xbc3eb73c	-0.011640366
20	0xbcca203b	-0.024673572
21	0x3caca99f	0.021076975
22	0x3d99c3c5	0.07508043
23	0xbdb0f0fb	-0.086397134
24	0xbd0e63f8	-0.034763306
25	0xbd699ccf	-0.05703431
26	0x3cd3cc54	0.025854267
27	0x3c8a33b8	0.016870365
28	0xbdf43f8e	-0.119261846
29	0x3cbfcf21	0.023414196
30	0x3cfe58d3	0.031048214
31	0x3c6d7b69	0.014494755
32	0xbd72e61c	-0.05930148
33	0x3c8bb196	0.017052453
34	0x3c54729a	0.012966776
35	0xbd9e05bd	-0.07715938
36	0x3cd01efd	0.025405401
37	0xba396cf0	-0.0007073423
38	0x3dcf9959	0.101366706
39	0xbd0ef4e1	-0.034901503
40	0x3cf4352a	0.029810507
41	0xbc17f2ca	-0.009274194
42	0xbd8d8a2d	-0.069111206
43	0xbd988949	-0.0744806
44	0x3d0288b1	0.03186864
45	0x3a94d1d2	0.0011354035
46	0x3dd4d392	0.10391916
47	0x3d7f0b51	0.06226665
48	0xbd855beb	-0.065116726
49	0xbde18a7c	-0.11012742
50	0x3c8f334c	0.017480515
51	0x3dfbe4b1	0.12299479
52	0xbc8c7136	-0.017143827
53	0x3d9c962a	0.07645829
54	0x3daf7abd	0.08568332
55	0xbd90b928	-0.07066566
56	0xbda94c4c	-0.082665056
57	0x3d992664	0.074780256
58	0xbd880a6c	-0.06642613
59	0x3ded66d0	0.115918756
60	0xbd4959cb	-0.0491579
61	0xb9ddec14	-0.00042328297
62	0x3dacedf7	0.08443826
63	0xbcca41dc	-0.024689607
64	0x3e15f0ce	0.14642641
65	0x3d1b1954	0.03786595
66	0xbd34fdc7	-0.044187333
67	0x3cb72be6	0.0223598
68	0x3d2eab23	0.042643677
69	0x3cda3710	0.026637584
70	0x3da17ece	0.07885514
71	0xbe02af6c	-0.1276223
72	0x3e1ebc52	0.15501526
73	0xbdcc9462	-0.09989239
74	0x3d76fff6	0.060302697
75	0x3cce56a1	0.025187792
76	0xbdf73079	-0.12069792
77	0xbd9a64b8	-0.07538742
78	0x3da2a857	0.079422645
79	0x3d4086c3	0.04700352
80	0x3ceea8f2	0.029133294
81	0xbe097a2d	-0.13425513
82	0xbdd9111e	-0.10598968
83	0x3d952307	0.072820716
84	0x3dacd7e8	0.08439618
85	0xbde8a215	-0.1135904
86	0xbc8c1c60	-0.017103374
87	0xbc709c80	-0.01468575
88	0xbd5bc12f	-0.05365103
89	0x3d335c8a	0.043789424
90	0x3d412616	0.047155462
91	0x3e0837a1	0.1330247
92	0xbcf545d4	-0.029940523
93	0x3d1baa50	0.03800422
94	0xbce71011	-0.028205903
95	0x3d217244	0.039415613
96	0x3d4605ee	0.0483455
97	0x3d75b0ce	0.059983067
98	0xbd4045f3	-0.04694171
99	0x3d78a0e3	0.06070031
100	0xbda9827b	-0.0827684
101	0xbd3dd50e	-0.046345763
102	0xbcf499ab	-0.02985843
103	0x3d3cc01a	0.04608164
104	0x3d0b0428	0.03393951
105	0xbd1f6a35	-0.038919646
106	0x3baed4e9	0.0053354395
107	0x3c815d18	0.01579146
108	0xbd9a5f6e	-0.07537733
109	0x3dbbe493	0.091744564
110	0x39c7d329	0.00038113564
111	0x3de299cb	0.1106449
112	0x3d9b362a	0.0757869
113	0x3ccbcc7b	0.024877777
114	0xbd2347a7	-0.039863255
115	0xbd890f79	-0.06692404
116	0x3da8755a	0.08225508
117	0xbe2cc175	-0.16870673
118	0x3c64e084	0.013969544
119	0x3e10870c	0.14114016
120	0x3e0735c4	0.13204104
121	0x3d6a08af	0.057137188
122	0xbb801781	-0.003909052
123	0xbcdb64fb	-0.02678155
124	0xbe2f0087	-0.17090045
125	0xbd0a0692	-0.033697672
126	0xbd778b2d	-0.060435463
127	0x3ce46121	0.027878346
128	0x3bc6653f	0.00605455
129	0x3c7e9fc6	0.015541023
130	0xbd9a71a4	-0.075412065
131	0xbd2ea08a	-0.04263357
132	0x3d699828	0.057029873
133	0xbd9cba0b	-0.076526724
134	0xbdb98849	-0.090591975
135	0xbba62dcf	-0.005071379
136	0xbc36e824	-0.011163745
137	0x3d44b796	0.048026644
138	0x3dc7940e	0.09745036
139	0xbe330eca	-0.1748611
140	0xbcf3f34c	-0.029779099
141	0x3d310aed	0.04322331
142	0xbc8e3bbe	-0.017362472
143	0x3c8f3bac	0.017484508
144	0xbd42d15c	-0.047562942
145	0x3d98c297	0.0745899
146	0xbda29253	-0.079380654
147	0xbdfcf502	-0.12351419
148	0xbda5b144	-0.08090451
149	0x3c1370a2	0.008999022
150	0x3d9d2a76	0.076741144
151	0x3ddebb31	0.10875548
152	0xbc47658e	-0.012170209
153	0x3ba592f5	0.005052919
154	0xbdc98200	-0.09839249
155	0x3ca2873f	0.019839881
156	0x3da8a65a	0.08234854
157	0xbd4703c3	-0.04858757
158	0xbdf35ecc	-0.118833154
159	0x3c85812b	0.016296944
160	0xbd38d7bb	-0.04512761
161	0x3ceab93c	0.02865278
162	0x3d895057	0.06704777
163	0xbdb39384	-0.08768371
164	0x3df1dce6	0.11809711
165	0x3e346a33	0.17618637
166	0x3d9370e0	0.071992636
167	0xbe050f56	-0.12994131
168	0x3d402cb1	0.04691762
169	0xbc58389a	-0.013197089
170	0x3dda84a3	0.1066983
171	0xbbeea7bd	-0.0072831796
172	0x3ccb606d	0.024826253
173	0x3d542648	0.05179432
174	0xbced31c1	-0.028954389
175	0x3a40f6a3	0.00073609705
176	0x3d8e711e	0.06955169
177	0xbd5261af	-0.05136269
178	0xbd04062e	-0.032232456
179	0xbdcb2985	-0.099200286
180	0x36a190f6	4.8150496e-06
181	0xbd2558f8	-0.04036805
182	0x3db50575	0.088389315
183	0xbd43aab2	-0.04777021
184	0xbcb07f52	-0.021545086
185	0x3cf3f341	0.029779078
186	0xbc6aa5b1	-0.0143217305
187	0xbd7b004f	-0.06127959
188	0xbc695694	-0.014241833
189	0xbd0924d7	-0.0334824
190	0x3cd52809	0.026020067
191	0x3d12b893	0.035820555
192	0x3dc586ae	0.09644829
193	0x3d1a501c	0.037674055
194	0x3b1a0873	0.0023503571
195	0xbba8551d	-0.0051370994
196	0xbd8a650c	-0.067575544
197	0x3dd557f9	0.1041717
198	0xbe42c6c6	-0.19021139
199	0x3c2f0a9c	0.010683682
200	0xbd1954d4	-0.037434414
201	0x3d8dc153	0.06921639
202	0xbdab4b6b	-0.08363994
203	0xbce4fd76	-0.02795289
204	0xbbbaa496	-0.0056958897
205	0xbd1fba26	-0.038995884
206	0x3dd3fe65	0.10351256
207	0x3d5ad96d	0.05343001
208	0x3d8e634b	0.069525324
209	0x3d022fb3	0.03178377
210	0x3dfcf6fc	0.12351796
211	0x3d0beb23	0.03415979
212	0x3d4011ad	0.046891857
213	0xbdda72fc	-0.10666463
214	0xbd21263f	-0.039343115
215	0xbd9e7bc8	-0.07738453
216	0x3d0bd11d	0.034134973
217	0x3d195ef2	0.037444063
218	0xbcab0bb4	-0.020879604
219	0x3e345d8b	0.17613809
220	0x3e24a9a1	0.16080333
221	0x3d183651	0.037161175
222	0x3c8ed3dc	0.017435007
223	0xbe347690	-0.17623353
224	0x3ca2609c	0.019821458
225	0x3d80bcca	0.06286009
226	0xbd85e495	-0.06537739
227	0x3ce418c2	0.027843837
228	0xbd0eebd3	-0.03489287
229	0xbc5afe02	-0.013366224
230	0x3d01a420	0.031650662
231	0x3dff0915	0.12452904
232	0x3d7b7427	0.06139007
233	0xbba819a2	-0.005130009
234	0xbbf7983a	-0.0075559886
235	0xbd4ce507	-0.050023105
236	0x3cdfd080	0.0273211
237	0xbb4ef541	-0.0031579288
238	0x3d825130	0.063631415
239	0xbd961f45	-0.07330183
240	0xbca3d48a	-0.019998807
241	0x3d8cb997	0.06871336
242	0xbd93585d	-0.07194588
243	0xbcb1d9e5	-0.021710346
244	0x3db6b64d	0.0892149
245	0x3dc3dde1	0.095638044
246	0x3dca9251	0.09891189
247	0x3d801b4a	0.06255205
248	0xbd8318ba	-0.064012006
249	0xbba1fdf6	-0.0049436046
250	0xbc3da199	-0.011574172
251	0x3de7ac9c	0.113122195
252	0x3b7be998	0.0038438793
253	0xbdb9f865	-0.090805806
254	0x3d1696a9	0.036764774
255	0xbd1e4613	-0.038641047

weight f4 [100, 60]
0	0x3da53437	0.080666
1	0xbe11e14d	-0.14246102
2	0xba9c4381	-0.0011921973
3	0x3dc0e0f6	0.09417908
4	0x3b9eff3c	0.0048522037
5	0xbdbaf611	-0.09128965
6	0x3d9d15cb	0.07670172
7	0xbd8b9373	-0.06815233
8	0xbd231abb	-0.039820414
9	0x3ba5118f	0.0050374935
10	0x3dd1041f	0.10205864
11	0x3da722c7	0.0816093
12	0xbdb0492d	-0.08607707
13	0x3de22ab5	0.11043302
14	0xbd681bfa	-0.056667306
15	0x3b1ab47e	0.0023606117
16	0x3db24be2	0.0870588
17	0xbdd6f57c	-0.10496041
18	0x3d9725c1	0.07380248
19	0x3d165b40	0.036708117
20	0xbdf79fe9	-0.12091047
21	0xbde42978	-0.11140722
22	0x3df3719c	0.11886904
23	0x3da77f0f	0.081785314
24	0x3d6baf15	0.057540018
25	0x3d9904a0	0.07471585
26	0x3d5b11db	0.053483825
27	0x3d8c7983	0.06859114
28	0xbda48335	-0.08032838
29	0xbe1724e2	-0.14760163
30	0x3d51341f	0.051075097
31	0xbccf3f13	-0.02529863
32	0xbdae76e3	-0.085187696
33	0xbde3a18a	-0.111147955
34	0xbe24195e	-0.16025302
35	0x3c4aba20	0.012373477
36	0x3decbe50	0.11559737
37	0x3d89d4c5	0.06730036
38	0xbd3f99bb	-0.04677747
39	0x3d50249a	0.050816156
40	0x3d5a7cd7	0.053341713
41	0x3e2d3301	0.16913988
42	0x3d9ad92f	0.07560956
43	0xbcf3be1e	-0.02975374
44	0xbe1d8a73	-0.15384845
45	0xbd770676	-0.060308896
46	0x3dfb1d66	0.12261467
47	0xbdde9b65	-0.10869483
48	0xbe2bcae1	-0.16776611
49	0x3e0bd9a1	0.13657238
50	0x3e32a0bd	0.1744413
51	0x3dade8ec	0.08491692
52	0x3e103e69	0.14086308
53	0x3d49fbf8	0.04931256
54	0x3d205b57	0.03914961
55	0xbb16c970	-0.002300825
56	0xbd895fbd	-0.06707714
57	0x3d0f1762	0.03493441
58	0xbdb3a4f0	-0.08771694
59	0x3da19771	0.07890213
60	0xbd684d29	-0.05671421
61	0xbd33bdcd	-0.04388218
62	0xbd103e44	-0.03521563
63	0x3d3dd0cd	0.046341706
64	0x3e336441	0.17518713
65	0x3d733d8e	0.059384875
66	0xbccdd026	-0.025123667
67	0x3bbdd83c	0.0057935994
68	0x3df80c1d	0.121116854
69	0xbd15d096	-0.036575876
70	0x3d27458b	0.040837806
71	0xbcb01e59	-0.021498846
72	0x3ce84a37	0.0283557
73	0x3e287ec9	0.16454615
74	0x3ded4bdd	0.115867354
75	0xbe2c7a6c	-0.16843575
76	0x3db472d4	0.08810964
77	0xbc425c57	-0.011862836
78	0xbccfaa3d	-0.02534973
79	0x3d25d937	0.040490355
80	0xbd7df5ab	-0.062001865
81	0xbdc8cbd1	-0.098045
82	0x3cc97e7b	0.024596443
83	0x3ce706f8	0.028201565
84	0xbd677ed1	-0.056517426
85	0x3d5f28d9	0.054482315
86	0xbc1f1b84	-0.00971115
87	0xbc1194f1	-0.008885608
88	0x3d2a3689	0.041555915
89	0x3c9261f0	0.017868966
90	0x3d2c001d	0.041992296
91	0xbd7ca43b	-0.06168006
92	0x3e04158c	0.12898844
93	0x39514fb1	0.0001996148
94	0x3d9cf674	0.07664195
95	0xbd4c1eeb	-0.049834173
96	0xbdc355f7	-0.09537881
97	0xbd8d524a	-0.06900461
98	0x3e1d9df1	0.15392281
99	0xbe0b0870	-0.13577437
100	0xbd76e47e	-0.0602765
101	0x3c195787	0.009359247
102	0x3d237655	0.039907772
103	0xbd0a3f31	-0.03375167
104	0xbd441a9c	-0.04787694
105	0xbdf81088	-0.12112528
106	0xbd870520	-0.065927744
107	0xbd9298e9	-0.071580715
108	0x3adaed04	0.0016702716
109	0x3d430bc0	0.047618628
110	0xbd118255	-0.035524685
111	0xbd43c75f	-0.047797557
112	0xbbfa2166	-0.007633376
113	0xbd9646c7	-0.073377185
114	0x3e13f1eb	0.14447753
115	0xbdeed6b7	-0.11662047
116	0x3e2c9c6b	0.16856544
117	0xbd5bfac6	-0.053705953
118	0xbd11e75c	-0.035621032
119	0x3dc1dc51	0.0946585
120	0x3ce97d6d	0.02850219
121	0xbe010fda	-0.12603703
122	0x3a84683a	0.0010101863
123	0x3dd96ea7	0.106168084
124	0x3e5f61d2	0.21814659
125	0xbdad7d9b	-0.08471223
126	0x3cc38ae2	0.023869935
127	0x3da3cb9e	0.07997821
128	0x3bb94015	0.005653391
129	0x3d07f390	0.033191264
130	0xbcf7eff7	-0.030265791
131	0x3d9cc6e4	0.07655123
132	0x3e031d20	0.12804079
133	0x3d18a2c2	0.037264593
134	0xbc929148	-0.017891541
135	0xbe2a2be8	-0.16618311
136	0xbddd9836	-0.108200476
137	0x3e019003	0.12652592
138	0x3d0411e3	0.03224362
139	0x3de2529d	0.110509135
140	0xbaa39ef0	-0.001248328
141	0xbe057fa5	-0.13036974
142	0xbe19cef3	-0.15020351
143	0x3cc1a98b	0.023640415
144	0x3e36a1d7	0.17835175
145	0x3c0092d1	0.007847504
146	0xbdb1f21d	-0.086887576
147	0x3d622cdc	0.055218562
148	0xbd66abfd	-0.056316365
149	0xbd0485c6	-0.03235414
150	0x3de09607	0.109661154
151	0xbd48bec4	-0.049010053
152	0x3dcbab09	0.09944732
153	0xbde5c199	-0.112185664
154	0x3d87eb80	0.06636715
155	0xbd5a1957	-0.053246822
156	0x3d86e755	0.06587092
157	0x3df57940	0.11986017
158	0xbb162746	-0.0022911592
159	0xbe581160	-0.21100378
160	0x3d808fbd	0.06277416
161	0xbe5e257b	-0.21693985
162	0x3e018241	0.12647344
163	0x3b88d2a6	0.004175502
164	0x3d6a293a	0.057168223
165	0x3ca20497	0.01977758
166	0xbd98d875	-0.07463161
167	0xbbbc658a	-0.005749409
168	0x3e09e7c6	0.13467321
169	0x3d844dba	0.06460138
170	0xbe32b5de	-0.1745219
171	0xbceac637	-0.02865897
172	0xbe341183	-0.17584805
173	0x3e184a45	0.14872082
174	0x3dc0e672	0.09418954
175	0xbe0f48f9	-0.1399268
176	0x3def83d3	0.11695065
177	0x3d93d78b	0.07218846
178	0x3d8565c5	0.065135516
179	0xbce4b5ec	-0.027918778
180	0x3dcc3796	0.0997154
181	0xbcba3090	-0.022728235
182	0xbdc32315	-0.09528176
183	0xbbfd9e46	-0.007739815
184	0xbd9f176e	-0.07768141
185	0x3d3377d8	0.043815464
186	0xbcdb93d9	-0.026803898
187	0x3e2ce46b	0.1688401
188	0x3c589608	0.013219364
189	0x3b9e4e27	0.004831094
190	0xbce814f5	-0.028330306
191	0x3cfb2f2e	0.030662145
192	0xbc36f2b3	-0.011166262
193	0xbcc8a4f6	-0.024492722
194	0x3cc285bb	0.023745408
195	0x3d86bca4	0.06578949
196	0x3e193535	0.14961703
197	0xbe43129a	-0.19050065
198	0x3e1a5e58	0.15075052
199	0xbe1850d4	-0.14874583
200	0xbd2f6a0d	-0.042825747
201	0xbdbd405b	-0.092407905
202	0x3dc950d6	0.09829871
203	0x3d294da1	0.0413338
204	0xbdc98f8b	-0.09841832
205	0x3d43d30f	0.047808703
206	0xbdb25afe	-0.08708762
207	0xbe0995f1	-0.13436104
208	0xbe02d6b2	-0.12777212
209	0xbe44bd7c	-0.19212908
210	0xbde187be	-0.11012219
211	0x3dffcce9	0.124902554
212	0x3d00ba0d	0.03142743
213	0x3b6c601f	0.0036068035
214	0xbbc24134	-0.005928183
215	0x3bf70fe4	0.007539736
216	0x3cacb651	0.021083029
217	0xbb567f8e	-0.0032729837
218	0xbb9ba114	-0.0047494266
219	0x3ab7d6b0	0.0014025774
220	0x3dfb0c52	0.12258209
221	0xbccf817f	-0.025330303
222	0xbe10446b	-0.140886
223	0x3c10813d	0.008819875
224	0xbdbdcb6e	-0.09267317
225	0xbda3b168	-0.07992822
226	0xbda02876	-0.07820217
227	0xbd00ab45	-0.031413335
228	0x3dbc792a	0.09202798
229	0x3e05d9af	0.13071321
230	0x3e3d775d	0.18502565
231	0xbbd1e810	-0.006405838
232	0xbce0558c	-0.027384542
233	0xbd9d0e7e	-0.0766878
234	0xbd86e50e	-0.065866575
235	0xbc240dae	-0.010013027
236	0x3c88cbf7	0.01669882
237	0x3e008223	0.12549643
238	0xbe0d8a32	-0.13822249
239	0xbd80625b	-0.0626876
240	0x3dc0c255	0.09412066
241	0x3c5e6ee9	0.013576248
242	0x3cea15be	0.02857482
243	0xbdb34252	-0.08752884
244	0xbdbbe981	-0.09175397
245	0x3c86191a	0.016369391
246	0x3c6182a9	0.013764062
247	0xbc77022b	-0.0150762005
248	0xbdd572fc	-0.10422322
249	0xbd0239ab	-0.031793278
250	0xbd1b2fc7	-0.03788736
251	0xbe0849d2	-0.1330941
252	0x3dac2a8b	0.08406552
253	0xbce5846a	-0.028017242
254	0xbd880b25	-0.06642751
255	0x3d26bb99	0.04070625

weight f4 [100]
0	0x3f7f1b49	0.9965101
1	0x3f7a30be	0.97730625
2	0x3f82bf50	1.0214634
3	0x3f80c07f	1.0058745
4	0x3f83aab9	1.0286475
5	0x3f8365df	1.0265464
6	0x3f769e4a	0.9633528
7	0x3f8455a6	1.0338638
8	0x3f740e5a	0.953344
9	0x3f7dea98	0.99186087
10	0x3f840fb2	1.031729
11	0x3f871785	1.0554053
12	0x3f7f2bb6	0.9967607
13	0x3f85f17b	1.0464319
14	0x3f80fa8a	1.0076458
15	0x3f87ce90	1.0609913
16	0x3f843fe5	1.0331999
17	0x3f83bbc0	1.0291672
18	0x3f85b76d	1.0446602
19	0x3f82c5dc	1.0216632
20	0x3f854cc8	1.0414057
21	0x3f79cd01	0.97578436
22	0x3f7f5353	0.9973652
23	0x3f846d3b	1.0345834
24	0x3f827c7c	1.019424
25	0x3f84b3ba	1.0367348
26	0x3f898abb	1.0745462
27	0x3f89da16	1.076968
28	0x3f80cc76	1.0062397
29	0x3f8aabd0	1.0833683
30	0x3f845882	1.033951
31	0x3f878a11	1.058901
32	0x3f784057	0.96973175
33	0x3f7b9518	0.98274374
34	0x3f6ccd39	0.92500645
35	0x3f7467e5	0.9547103
36	0x3f82f26e	1.0230234
37	0x3f831840	1.0241776
38	0x3f7a7f26	0.97850263
39	0x3f87058e	1.054857
40	0x3f89361a	1.0719635
41	0x3f80a089	1.0048991
42	0x3f80ba81	1.0056916
43	0x3f7ead60	0.994833
44	0x3f80405c	1.0019641
45	0x3f85ab15	1.0442835
46	0x3f82cbf7	1.0218495
47	0x3f833ac2	1.0252306
48	0x3f798473	0.97467726
49	0x3f712a23	0.9420492
50	0x3f74c2cd	0.9560974
51	0x3f81bfd7	1.013667
52	0x3f727312	0.94706833
53	0x3f8ab581	1.0836641
54	0x3f8253cf	1.0181826
55	0x3f83b3aa	1.0289204
56	0x3f773a0a	0.96572936
57	0x3f7e929a	0.99442446
58	0x3f819ae2	1.0125391
59	0x3f83a6b3	1.0285248
60	0x3f752413	0.9575817
61	0x3f7637c8	0.96178865
62	0x3f84d25b	1.0376695
63	0x3f84e1f7	1.0381459
64	0x3f87b8e6	1.0603302
65	0x3f76c2fc	0.9639127
66	0x3f7b3c65	0.9813903
67	0x3f7fe5b2	0.9995986
68	0x3f722015	0.94580203
69	0x3f84d932	1.0378783
70	0x3f846528	1.034337
71	0x3f7abfe5	0.9794906
72	0x3f81a0e8	1.012723
73	0x3f832df1	1.0248395
74	0x3f741760	0.9534817
75	0x3f7c4ca7	0.9855446
76	0x3f86a4fd	1.05191
77	0x3f842255	1.0322977
78	0x3f7ef190	0.99587345
79	0x3f876464	1.0577512
80	0x3f829dfa	1.0204461
81	0x3f8a1ddd	1.0790364
82	0x3f8973a4	1.0738416
83	0x3f8316a3	1.0241283
84	0x3f6d2f59	0.9265037
85	0x3f8204d6	1.0157726
86	0x3f6090b8	0.87720823
87	0x3f748682	0.9551774
88	0x3f748ed9	0.9553047
89	0x3f78cd6e	0.9718846
90	0x3f8358c4	1.0261464
91	0x3f7fac28	0.99872065
92	0x3f812ac5	1.0091177
93	0x3f84a233	1.0361999
94	0x3f74daf1	0.9564658
95	0x3f737fed	0.95117074
96	0x3f856b53	1.0423378
97	0x3f85594f	1.041788
98	0x3f89bb98	1.0760374
99	0x3f7104ed	0.9414814

bias f4 [100]
0	0x3b8e5d23	0.004344599
1	0xbc0fe669	-0.008782961
2	0x3c0aeba7	0.008479035
3	0xbcac1f6f	-0.021011082
4	0xbbae4950	-0.005318798
5	0xbbc2161a	-0.005923045
6	0x3d1bbf84	0.03802444
7	0xbcc6fcd8	-0.024290487
8	0xbb29c4a9	-0.0025904572
9	0x3c896911	0.016773732
10	0x3c02e048	0.007988043
11	0x3cb1c72c	0.021701418
12	0xbc32fcfb	-0.010924573
13	0xbbe5825b	-0.007004065
14	0xbb2f3f4c	-0.0026740609
15	0x3ced0966	0.028935146
16	0xbcb6f162	-0.022331897
17	0x3c81bbd5	0.015836636
18	0x3cc6222f	0.024186222
19	0xbc119b14	-0.008887071
20	0xbd4be642	-0.049780138
21	0x3c894a82	0.01675916
22	0x3d1b7812	0.037956305
23	0x3c503b55	0.012709458
24	0x3d2e0934	0.042489246
25	0xbc07e81b	-0.008295084
26	0x3d2602db	0.040530067
27	0x3b533012	0.0032224697
28	0x3c6ab360	0.014324993
29	0x3d4ffbba	0.050777175
30	0x3cd4b779	0.025966393
31	0xbc3da3e4	-0.011574719
32	0x3c57c32c	0.013169091
33	0x3cbf1a38	0.023327932
34	0x3d31f9b6	0.043451034
35	0x3c7b6813	0.015344637
36	0xbce962f2	-0.028489564
37	0xbc514003	-0.012771609
38	0xbd0eef05	-0.034895916
39	0x3c1ce054	0.009574968
40	0x3c19236e	0.009346826
41	0x3d2a0ba7	0.04151502
42	0xbd187dd9	-0.037229393
43	0xbc13757c	-0.009000178
44	0x3c6a2f76	0.014293542
45	0xbcf14356	-0.029451054
46	0xbba216ac	-0.0049465504
47	0x3c43876e	0.011934144
48	0xbc121a8a	-0.00891746
49	0xbce86255	-0.0283672
50	0x3d054234	0.03253384
51	0xbc0c5ba3	-0.00856677
52	0x3c0f0dd3	0.008731323
53	0x3bdb564e	0.006693638
54	0x3b0b15e9	0.0021222776
55	0xbc1b4aae	-0.009478254
56	0xbcbe9171	-0.023262711
57	0x3aa8215d	0.0012827326
58	0x3cb24b43	0.021764403
59	0x3c28e77f	0.010309099
60	0xbbde4080	-0.0067825913
61	0x3c3d6eb3	0.011562037
62	0xbc500d41	-0.0126984725
63	0xbc9ee04c	-0.019394062
64	0x3cae565c	0.021281414
65	0x3c0e1bf9	0.008673661
66	0xbaf761da	-0.0018873767
67	0x3a8db2bd	0.0010810714
68	0x3bb7119b	0.0055868155
69	0x3cce44aa	0.025179226
70	0xbb21e043	-0.002470032
71	0x3d414822	0.04718793
72	0xbcec5cfd	-0.028852934
73	0xbb811549	-0.003939305
74	0xbcfee9c6	-0.031117331
75	0xbc6fbf3d	-0.014632997
76	0xbc31b262	-0.010845752
77	0x3cc5dae3	0.024152225
78	0x3cd0238d	0.025407577
79	0xbc8ebd84	-0.017424352
80	0x3c9606c3	0.018313771
81	0xbc442c69	-0.011973479
82	0xbc81f581	-0.015864136
83	0xbbf0575c	-0.007334633
84	0x3ce6e6b8	0.028186187
85	0x3bf091f4	0.0073416177
86	0x3ccf95c1	0.025339963
87	0xbc9a0813	-0.018802678
88	0xbb81ed54	-0.0039650593
89	0xbc705bbb	-0.014670308
90	0x3b8b5a1e	0.004252686
91	0xbce918e1	-0.028454246
92	0xbcbf33b0	-0.023340076
93	0x3c19f0ec	0.009395819
94	0x3c650274	0.013977636
95	0xbbbaed8b	-0.005704587
96	0x3c0c852c	0.0085766725
97	0xbc10dc38	-0.008841567
98	0xbad66bcc	-0.001635903
99	0x3bbbbda0	0.005729392

running_mean f4 [100]
0	0xbf3ecc77	-0.7453074
1	0xbe4aecc0	-0.19816875
2	0xbf00a677	-0.50254005
3	0xbf8bd30c	-1.0923781
4	0x3e104cc3	0.14091782
5	0xbeb6107c	-0.35559452
6	0x3f01a238	0.5063815
7	0x3ec6022c	0.38673532
8	0x3d6ab210	0.05729872
9	0x3de93ba7	0.11388331
10	0x3f123add	0.5712107
11	0x3e014a50	0.12626004
12	0x3ec97518	0.39347148
13	0x3d948c57	0.0725333
14	0x3e4f7900	0.20261002
15	0x3eb2e166	0.3493759
16	0xbe254c9f	-0.1614251
17	0x3f152b11	0.5826884
18	0xbe8a3a57	-0.26997635
19	0xbf8be4af	-1.0929164
20	0x3eae7a8a	0.34077865
21	0xbe257a1e	-0.16159865
22	0xbf29cae6	-0.66325223
23	0x3e8fe249	0.2810233
24	0x3f14ba5e	0.58096874
25	0x3e33f5a7	0.17574178
26	0xbf6e15cd	-0.93002015
27	0x3dec76db	0.115461074
28	0xbf4377d9	-0.7635475
29	0x3ea6356f	0.32462642
30	0xbe3058d7	-0.1722139
31	0xbea7821d	-0.32716456
32	0xbece318b	-0.40272173
33	0x3ce69d69	0.02815123
34	0x3e778cc3	0.2417479
35	0xbe554b04	-0.20829397
36	0x3f0786ff	0.5294036
37	0xbe9d34bf	-0.30704305
38	0xbea83e9a	-0.3286026
39	0xbe488f50	-0.1958592
40	0x3e1f2091	0.15539767
41	0xbe3d1e1c	-0.18468517
42	0xbf927068	-1.1440554
43	0x3dffa915	0.12483422
44	0xbeef91ee	-0.46791023
45	0x3e5dd316	0.21662554
46	0xbd9bef8a	-0.07614048
47	0x3f27fb15	0.65617496
48	0x3cdedf7f	0.02720618
49	0xbf63e962	-0.8902799
50	0xbdfee690	-0.1244632
51	0xbd86c9c0	-0.065814495
52	0x3d80e605	0.06293873
53	0x3e2afbfc	0.16697687
54	0xbd73d2b0	-0.0595271
55	0xbecd5f08	-0.40111566
56	0x3f340c8e	0.70331657
57	0x3e9da7a8	0.30791974
58	0x3f5032b3	0.8132736
59	0x3f1cca63	0.6124632
60	0x3d0f406c	0.034973547
61	0xbdfbc4f9	-0.12293429
62	0x3e9307f4	0.28717005
63	0x3e9dd4db	0.30826458
64	0xbf173f18	-0.5908065
65	0x3ea34df1	0.31895402
66	0xbf1a5a22	-0.6029378
67	0x3efc6f5f	0.4930372
68	0xbd8a4a79	-0.06752486
69	0x3ee3121d	0.44349757
70	0x3f13cd27	0.5773491
71	0x3f0e09c8	0.55483675
72	0xbd0b0f33	-0.033950042
73	0x3c43f7aa	0.011960903
74	0xbf8dbe3e	-1.1073682
75	0xbf2caa7a	-0.67447627
76	0x3dfe2361	0.12409092
77	0x3d1b3021	0.037887696
78	0xbe45bc75	-0.19310172
79	0x3e289461	0.16462852
80	0xbecbac03	-0.39779672
81	0xbc90f98d	-0.01769712
82	0x3eb6f36e	0.35732597
83	0xbf277518	-0.65413046
84	0x3f15ed0e	0.5856484
85	0x3dd0c767	0.10194283
86	0xbe677d44	-0.22606379
87	0xbfc05f87	-1.5029153
88	0x3eb11b17	0.3459098
89	0x3f3e2e06	0.74288976
90	0xbf1fe56f	-0.6245946
91	0x3de1560b	0.110027395
92	0xbf2b7969	-0.6698213
93	0xbcf47e49	-0.029845374
94	0x3d4eb0ef	0.050461706
95	0xbf6ea3b7	-0.9321856
96	0xbd766396	-0.060153566
97	0x3e91600a	0.28393584
98	0x3f058792	0.5215999
99	0xbebd4995	-0.369702

running_var f4 [100]
0	0x40fc402f	7.882835
1	0x410493c6	8.2860775
2	0x40dfbef0	6.992058
3	0x40c8bf46	6.273349
4	0x40993286	4.7874174
5	0x40b7bbb6	5.741664
6	0x4105f6fe	8.372801
7	0x40679428	3.6184177
8	0x40db782e	6.8584204
9	0x40f3be21	7.616959
10	0x4059c5d0	3.4026985
11	0x4094838e	4.641059
12	0x409c914c	4.8927364
13	0x408fef33	4.497949
14	0x40dc7b75	6.8900704
15	0x40eb6f48	7.357334
16	0x40b4fd78	5.655941
17	0x406ee1ee	3.7325397
18	0x4068cc0b	3.6374538
19	0x40a8660e	5.262458
20	0x40638c3f	3.555435
21	0x40979459	4.736859
22	0x407ff964	3.9995966
23	0x3fcce14a	1.6006253
24	0x406fe708	3.748476
25	0x408fe195	4.496287
26	0x3ffe5479	1.9869529
27	0x4002cd3b	2.0437763
28	0x40796427	3.8967378
29	0x40646e9d	3.5692513
30	0x4064cb1a	3.5748963
31	0x40859a6d	4.175101
32	0x40dc37db	6.8818183
33	0x40913f48	4.538975
34	0x40171466	2.36062
35	0x4046f565	3.1087277
36	0x4089533b	4.29141
37	0x40845bed	4.1362214
38	0x40a69621	5.2058263
39	0x405bc263	3.4337394
40	0x40e10028	7.031269
41	0x409d130c	4.908575
42	0x40a64273	5.1956115
43	0x40d9241e	6.785659
44	0x4095c2b6	4.6800184
45	0x40661db7	3.5955637
46	0x407944da	3.8948274
47	0x40617dca	3.5233026
48	0x404ae81c	3.1704168
49	0x4059398a	3.394137
50	0x40da7d5b	6.827802
51	0x409496f5	4.6434274
52	0x40af3df5	5.476313
53	0x405ef02a	3.4834085
54	0x40eef7fc	7.4677715
55	0x4038531b	2.8800724
56	0x412e322b	10.887248
57	0x40c38e4a	6.1111193
58	0x40bc33ff	5.881347
59	0x40c582ff	6.1722407
60	0x408ce7a6	4.4032774
61	0x410a8121	8.656526
62	0x40666d76	3.600431
63	0x405d6488	3.459261
64	0x40746b33	3.819043
65	0x40286f35	2.6317875
66	0x40c0eec3	6.0291457
67	0x41476c8e	12.464003
68	0x4094465a	4.633588
69	0x40024944	2.0357218
70	0x40b38910	5.6104813
71	0x4089d585	4.3073144
72	0x40572ee0	3.362236
73	0x40ddcd19	6.9312863
74	0x40c31842	6.096711
75	0x408629fd	4.1926255
76	0x400e75f5	2.2259495
77	0x40780eea	3.8759103
78	0x40942f8e	4.630805
79	0x40902a69	4.505177
80	0x40ace77d	5.403258
81	0x40d89477	6.768123
82	0x408386d4	4.1102085
83	0x4106f3aa	8.434488
84	0x411c4800	9.767578
85	0x4090d2cd	4.5257325
86	0x401ee9f1	2.4830287
87	0x40c2f414	6.0922947
88	0x40c640f8	6.1954308
89	0x4097531e	4.728896
90	0x4049712a	3.147532
91	0x4010a406	2.2600112
92	0x40913ac4	4.5384235
93	0x403ca9a9	2.9478552
94	0x40e5e714	7.184458
95	0x4093c42e	4.6176977
96	0x40d086ff	6.516479
97	0x40696314	3.6466722
98	0x40595e1a	3.3963685
99	0x409ccc07	4.8999057
