transformer_results_random_no_constants_no_param_tune/performance_prediction/PSO1-PSO2-PSO3-PSO4-PSO5-PSO6-PSO7-PSO8-PSO9-PSO10-PSO11-PSO12_random_no_constants_dim_3_samples_50_fold_5_budget_30_n_heads_2_n_layers_1_d_model_100_d_k_30_d_v_30_aggregations_mean/trained_model_dict.pt (torch, 338811 bytes, 22 tensors)

W_P.weight f4 [100, 4]
0	0x3e635310	0.22199655
1	0x3ead16ca	0.3380645
2	0x3e509ace	0.20371553
3	0xbdfc9ee7	-0.12334996
4	0x3e69e0db	0.22839682
5	0x3e2376fb	0.15963356
6	0x3d8ed48e	0.06974135
7	0x3e25a170	0.16174865
8	0x3ea0dccf	0.31418464
9	0x3e83d14d	0.2574562
10	0xbce449ea	-0.027867276
11	0x3e81903f	0.25305364
12	0x3d1ed995	0.03878172
13	0x3e8192d1	0.25307325
14	0x3ec033f9	0.37539652
15	0x3f241168	0.6408906
16	0x3dbfb17d	0.09360025
17	0x3ecab727	0.3959286
18	0x3ecd251e	0.4006738
19	0x3e069f74	0.13146764
20	0xbea69926	-0.32538718
21	0xbe0e7c4b	-0.13914602
22	0x3e17db7b	0.14829819
23	0x3f15598d	0.5833977
24	0x3eeb3a1c	0.4594277
25	0xbdf74308	-0.12073332
26	0x3ee3bd61	0.44480422
27	0xbf20d712	-0.6282817
28	0xbeb1c17e	-0.34717935
29	0xbe8aa99c	-0.27082527
30	0xbd7d0973	-0.06177659
31	0xbebd8b2d	-0.37020245
32	0x3ee91b51	0.45528653
33	0x3e5f20e6	0.21789894
34	0xbee00c9a	-0.43759614
35	0xbe8c21c5	-0.27369514
36	0x3ec7ae96	0.39000386
37	0xbdc11034	-0.094269186
38	0x3e56e11a	0.20984307
39	0xbca2ac29	-0.019857483
40	0xbdb2538e	-0.08707343
41	0xbe640cba	-0.2227048
42	0xbd8569e4	-0.06514338
43	0x3ef87787	0.48528692
44	0xbec1df64	-0.37865746
45	0x3dd94fee	0.106109485
46	0x3e3bc54d	0.18336983
47	0x3da2bc1d	0.07946036
48	0xbed352d9	-0.41274145
49	0x3eacca6d	0.3374819
50	0xbe91aa85	-0.2845041
51	0x3ec944ea	0.3931039
52	0xbe9f7d26	-0.31150168
53	0xbd4d6637	-0.050146308
54	0x3cd4474a	0.0259129
55	0x3e9db5f8	0.30802894
56	0x3ea50202	0.32228094
57	0xbe057cda	-0.13035908
58	0x3d855b58	0.06511563
59	0xbf1b9348	-0.6077161
60	0x3cf6e3a1	0.030137839
61	0xbd05028c	-0.032473132
62	0xbe9442e5	-0.28957286
63	0xbe1836a0	-0.14864588
64	0x3e9bf8b8	0.30463195
65	0xbe249a4b	-0.16074483
66	0x3d96b733	0.07359161
67	0xbef095aa	-0.46989185
68	0x3dee3f70	0.116331935
69	0x3da9e1bf	0.08295011
70	0x3d890822	0.06691004
71	0x3f364142	0.71193326
72	0x3ee55ed3	0.44798908
73	0x3ec22009	0.37915066
74	0xbe7b43e7	-0.24537621
75	0xbf033982	-0.51259625
76	0x3ebb9359	0.36635855
77	0xbec3f5d7	-0.38273498
78	0x3ee58fea	0.4483636
79	0x3eaaff13	0.3339773
80	0x3e60843d	0.21925445
81	0x3cafad14	0.021444835
82	0x3e3b19b6	0.18271527
83	0x3ef90281	0.48634723
84	0xbe9016fd	-0.2814254
85	0x3eee7f1b	0.4658135
86	0xbee2c54e	-0.44291157
87	0xbeba390f	-0.36371657
88	0xbe194562	-0.14967874
89	0x3e5e40bc	0.21704382
90	0xbdea3862	-0.114365354
91	0xbf1f5d67	-0.62251896
92	0xbd62dec5	-0.05538823
93	0xbebee54b	-0.37284312
94	0xbec5fb02	-0.38668066
95	0x3ebf82d7	0.3740451
96	0xbed02c08	-0.40658593
97	0xbd9cc57d	-0.076548554
98	0xbecdf03e	-0.40222353
99	0xbeec77c8	-0.46185136
100	0xbe787f7d	-0.24267383
101	0x3eb64e39	0.35606554
102	0xbe4669af	-0.19376253
103	0x3f189818	0.59607077
104	0x3eb8b93f	0.36078832
105	0x3dfb9314	0.12283912
106	0xbe3c7f18	-0.18407857
107	0xbe739b49	-0.23789705
108	0x3ee93d0a	0.45554382
109	0xbe703bf9	-0.23460378
110	0x3c99c933	0.018772697
111	0xbea675fd	-0.32511893
112	0x3eef9dc8	0.46800065
113	0xbe260b5b	-0.1621527
114	0x3e1005e8	0.14064753
115	0x3e779381	0.24177362
116	0x3e73ff42	0.23827842
117	0xbec657f6	-0.38738984
118	0x3d9caf72	0.07650651
119	0x3ea04de2	0.3130942
120	0x3e006d83	0.12541775
121	0xbe6fe6d0	-0.23427892
122	0x3e3febd6	0.18742308
123	0x3ed7b154	0.42127478
124	0xbeefac8c	-0.4681133
125	0xbe9b81af	-0.30372378
126	0x3eb51bfc	0.35372913
127	0xbebabb0c	-0.3647083
128	0xbef14b31	-0.4712768
129	0xbe2d5dbb	-0.16930287
130	0x3e17bc5b	0.14817946
131	0x3f16568e	0.5872582
132	0xbb289ccb	-0.0025728222
133	0x3eb2aabf	0.34895894
134	0xbd33d3f1	-0.043903295
135	0xbf2944e9	-0.66120774
136	0xbe8fbb03	-0.28072366
137	0xbc458bfb	-0.0120573
138	0xbe2d3fd7	-0.16918884
139	0x3e904e00	0.2818451
140	0x3e9c9673	0.30583534
141	0x3d86f29a	0.06589241
142	0xbee1e382	-0.44118887
143	0x3f118709	0.5684667
144	0xbe0e5c25	-0.13902338
145	0x3dc92b56	0.09822719
146	0xbedd6016	-0.4323737
147	0xbe8bc89c	-0.2730149
148	0xbe870084	-0.2636758
149	0xbe2bf51e	-0.16792724
150	0x3ee3b62a	0.44474918
151	0xbebd700f	-0.36999556
152	0xbd3844e7	-0.044987585
153	0x3d3ad63a	0.04561446
154	0xbe14041f	-0.14454697
155	0x3d6a2225	0.05716147
156	0xbe8ad7dd	-0.27117816
157	0x3ec74271	0.38917878
158	0xbd7a6018	-0.0611268
159	0x3dda3ea5	0.1065648
160	0xbe31e841	-0.17373754
161	0xbed9725c	-0.42470062
162	0xbe9d9c2b	-0.3078321
163	0xbd827c20	-0.06371331
164	0x3ee0bc39	0.43893602
165	0x3ebf083c	0.3731097
166	0xbe6bede5	-0.23039968
167	0x3ec61ba3	0.3869296
168	0xbe411972	-0.18857363
169	0x3e881a4e	0.2658257
170	0xbead458f	-0.33842131
171	0xbe3e7538	-0.18599403
172	0x3e99a6cd	0.3001007
173	0xbca357e7	-0.019939376
174	0xbe9295f0	-0.28630018
175	0x3ed088c2	0.40729338
176	0xbe947fc9	-0.29003742
177	0x3e0fce69	0.14043583
178	0xbe640df8	-0.22270954
179	0x3f16bd3a	0.58882487
180	0xbdb3e02d	-0.087829925
181	0x3e9420d4	0.28931296
182	0xbeccd789	-0.4000819
183	0x3f072c45	0.52801925
184	0xbe4f2dee	-0.20232365
185	0x3e05d20b	0.13068406
186	0x3dbe770c	0.0930005
187	0x3e4ad902	0.19809344
188	0xbe61eaef	-0.22062276
189	0x3e98e142	0.29859358
190	0x3cf8a2b4	0.03035102
191	0xbeba584b	-0.36395487
192	0x3e45e7ab	0.19326656
193	0x3e1b6a84	0.15177351
194	0x3d8796a4	0.06620529
195	0x3f2985c4	0.66219735
196	0xbe8d2b88	-0.27572274
197	0xbeee0587	-0.46488592
198	0xbdf1cf72	-0.11807145
199	0x3eeb5719	0.45964888
200	0x3ee46264	0.44606316
201	0x3ea07eda	0.3134678
202	0x3ec86a1c	0.39143455
203	0xbebc496e	-0.36774772
204	0xbdd8dfb2	-0.105895415
205	0x3da862cb	0.08221968
206	0xbe02969e	-0.12752768
207	0xbe9241de	-0.28565878
208	0xbeb5f363	-0.35537252
209	0x3c0bc7d7	0.008531532
210	0x3e230b38	0.15922248
211	0x3f038f57	0.51390594
212	0x3ec61dc6	0.3869459
213	0xbe1c222e	-0.15247414
214	0xbe85f2ea	-0.2616189
215	0x3e42a94e	0.19009897
216	0xbe379cd5	-0.1793092
217	0x3e9a9eed	0.30199376
218	0xbddc5148	-0.10757691
219	0xbea68c15	-0.3252875
220	0xbdb44998	-0.088030994
221	0x3d4e2d2a	0.05033604
222	0xbecc163e	-0.3986072
223	0xbdd2057e	-0.10254954
224	0xbead45d9	-0.33842352
225	0xbeaffa9a	-0.3437088
226	0x3ea69b4a	0.3254035
227	0xbebc93ee	-0.3683161
228	0x3ec8b594	0.39201033
229	0x3e7e6654	0.24843723
230	0xbec052b2	-0.37563092
231	0x3f19e54b	0.601155
232	0x3e4de9f4	0.20108777
233	0x3edf22f1	0.43581346
234	0x3ec041a8	0.37550092
235	0x3e83ddec	0.2575525
236	0x3eb83da4	0.35984528
237	0x3e646497	0.22303997
238	0x3ec57e12	0.38572747
239	0x3cdfad83	0.027304417
240	0xbe883a9f	-0.26607224
241	0xbe765642	-0.24056342
242	0x3e990637	0.29887554
243	0xbefd1c48	-0.4943564
244	0xbe44ba47	-0.19211684
245	0xbd7a2470	-0.061069906
246	0x3e96cf50	0.29455042
247	0xbefc8686	-0.49321383
248	0xbe7d9911	-0.24765421
249	0xbdaf8b78	-0.085715234
250	0xbe767a38	-0.2407006
251	0x3ee35867	0.44403383
252	0xbe9b52b0	-0.30336523
253	0x3eb1c613	0.3472143
254	0x3b853344	0.004064949
255	0xbed10833	-0.40826568

W_P.bias f4 [100]
0	0x3d178aa9	0.03699747
1	0x3ef8a1d0	0.48560953
2	0xbc996692	-0.018725667
3	0xbef30a16	-0.47468632
4	0x3f03af3b	0.51439255
5	0xbc180f68	-0.009281017
6	0x3eef4f22	0.4674006
7	0xbed8d9ba	-0.42353612
8	0xbd5eae93	-0.054365706
9	0xbe3aa537	-0.18227087
10	0x3e8f4046	0.27978724
11	0x3e1844ec	0.14870042
12	0xbe64d9be	-0.22348687
13	0xbd0119b1	-0.03151864
14	0x3ead5df7	0.33860752
15	0xbce6dfb8	-0.02818285
16	0xbeb9e479	-0.36307123
17	0xbee5776d	-0.44817677
18	0x3e5e8f4a	0.21734348
19	0xbe201b75	-0.15635474
20	0x3c7e8058	0.015533529
21	0xbe92ae72	-0.28648716
22	0x3e253699	0.16134109
23	0xbddda644	-0.10822728
24	0xbe81d640	-0.25358772
25	0x3edbee52	0.4295526
26	0xbeafd923	-0.3434535
27	0xbdb12186	-0.08648972
28	0xbef8ee36	-0.4861924
29	0xbf011a22	-0.504305
30	0xbe534cab	-0.20634715
31	0xbf058891	-0.5216151
32	0x3ea228be	0.3167171
33	0x3ecaa79a	0.39580995
34	0x3ec1914e	0.3780617
35	0xbeafc699	-0.34331205
36	0x3c895094	0.016762055
37	0xbf0cb383	-0.54961413
38	0xbf0d1ef6	-0.5512537
39	0x3ef6fa44	0.48237813
40	0xbef455e5	-0.47721782
41	0x3de972b6	0.113988325
42	0x3e4cd01a	0.2000126
43	0x3edff8ef	0.4374461
44	0x3ee078d2	0.4384218
45	0xbeb04bd2	-0.34432846
46	0x3f033e4c	0.5126693
47	0xbf04bf91	-0.5185481
48	0xbccc544c	-0.02494254
49	0xbe9ba232	-0.30397183
50	0x3dae036a	0.08496745
51	0xbea114e0	-0.3146124
52	0x3ee3c514	0.44486296
53	0xbed76416	-0.42068547
54	0x3e0d022a	0.13770357
55	0xbe799e69	-0.24376835
56	0x3e5c9091	0.21539523
57	0x3eb83398	0.35976863
58	0x3ee6a147	0.4504492
59	0xbe935e17	-0.28782722
60	0xbe0c814b	-0.13721196
61	0x3f05904b	0.521733
62	0xbea615b5	-0.32438436
63	0xbea50850	-0.32232904
64	0xbd04f6b2	-0.03246183
65	0xbe0b6a20	-0.13614702
66	0x3eb23a60	0.34810162
67	0xbefe2a05	-0.49641433
68	0x3eb1f340	0.34755898
69	0x3e900626	0.2812969
70	0x3e39641b	0.18104593
71	0xbef4b7fd	-0.47796622
72	0xbddb8596	-0.10718839
73	0x3df87f71	0.121336825
74	0x3f0559f6	0.52090394
75	0xbee060a2	-0.43823725
76	0xbe328e77	-0.17437159
77	0x3dcd5dcf	0.10027658
78	0xbebf8596	-0.37406605
79	0xbdb6bea1	-0.08923078
80	0xbab11cd9	-0.0013512626
81	0x3ee894c2	0.45425993
82	0x3db61a6f	0.088917606
83	0x3e87ba09	0.2650912
84	0x3e35b8a5	0.17746218
85	0x3e2e22eb	0.17005508
86	0xbea20fab	-0.3165258
87	0x3eb45dbd	0.35227767
88	0x3eceeb54	0.40413916
89	0xbef790e3	-0.48352727
90	0x3de73932	0.11290206
91	0xbef9d586	-0.48795718
92	0x3cec3caa	0.02883752
93	0x3e889da8	0.26682782
94	0x3ef8bda5	0.48582187
95	0x3e822551	0.25419095
96	0x3ece4ce5	0.4029304
97	0x3ef0623f	0.46949956
98	0x3ee13cf3	0.43991813
99	0xbe8c5694	-0.27409804

encoder.layers.0.self_attn.W_Q.weight f4 [60, 100]
0	0x3ca80867	0.020511819
1	0x3e02952b	0.12752216
2	0x3d1f3502	0.03886891
3	0xbc62ceaa	-0.013843218
4	0xbc60a908	-0.013712175
5	0x3daf7f3f	0.08569192
6	0x3e18af8d	0.14910717
7	0xbd163dce	-0.036680035
8	0x3c86d849	0.016460555
9	0x3ca34ead	0.019934976
10	0x3e2334c4	0.15938097
11	0xbd0dadf5	-0.034589726
12	0xbd90ab19	-0.07063884
13	0xbd4bf7ae	-0.049796753
14	0x3d321cfd	0.043484677
15	0x3d8e9cca	0.06963499
16	0xbd4908fd	-0.049080838
17	0xbe244d11	-0.16045024
18	0xbd286f98	-0.04112205
19	0x3d32db9c	0.043666467
20	0xbd3b8493	-0.04578073
21	0xbccd29e9	-0.025044398
22	0x3d0355b0	0.03206414
23	0x3d8e0771	0.06935013
24	0xbb96f3bb	-0.0046066917
25	0xbd79e888	-0.061012775
26	0xbc81546d	-0.015787328
27	0xbd0c23c1	-0.034213785
28	0xbda3ec4e	-0.08004056
29	0x3da31a8a	0.07964046
30	0xbd033a35	-0.032037932
31	0xbdbc61a8	-0.09198314
32	0x3d7d55ce	0.061849408
33	0xbd1c4101	-0.03814793
34	0x3d9268d0	0.07148898
35	0x3c287711	0.010282294
36	0xbdf3a4b5	-0.1189665
37	0xbc13c35e	-0.009018747
38	0xbe20d362	-0.15705636
39	0x3d37ba7f	0.04485559
40	0x3d8aadde	0.06771444
41	0x3ae8a006	0.0017747886
42	0xbd383ba5	-0.044978756
43	0x3d8b0ffc	0.06790158
44	0x3b80e9ed	0.003934136
45	0x3cef29e3	0.029194778
46	0x3da7ea91	0.08199037
47	0xbe14fd7b	-0.1454982
48	0xbd9d8e3c	-0.07693145
49	0x3c526d32	0.012843417
50	0xbd20bc90	-0.039242327
51	0x3c851861	0.016246976
52	0x3d1ced3f	0.038312193
53	0xbdc7826d	-0.097416736
54	0x3d3fb022	0.046798833
55	0xbdc5402a	-0.09631379
56	0x3d56346b	0.052296083
57	0xbd07b2d4	-0.03312953
58	0x3c94864f	0.01813045
59	0x3cf8c29b	0.030366233
60	0x3c8b9d0d	0.017042661
61	0x3bcd3187	0.0062620076
62	0x3b09dafa	0.0021035061
63	0xbd2fdc21	-0.04293454
64	0xbd0a7c75	-0.033810098
65	0xbc747708	-0.014920957
66	0xbcefe629	-0.029284554
67	0xbdc77ee8	-0.09741002
68	0x3da942ea	0.08264716
69	0xbd1afaa5	-0.03783669
70	0xbc290732	-0.010316657
71	0x3c18861b	0.009309317
72	0x3c54e89b	0.012994911
73	0x3d33c140	0.04388547
74	0xbd60ea82	-0.054911144
75	0xbdf55cec	-0.11980614
76	0xbda57e80	-0.080807686
77	0x3da6d223	0.08145549
78	0xbc97cd44	-0.018530495
79	0xbb99231d	-0.0046733753
80	0x3c0a198f	0.008428945
81	0xbce9ebd6	-0.028554838
82	0xbd913055	-0.07089297
83	0xbbce0e55	-0.0062883296
84	0x3d28219f	0.04104769
85	0x3c15c44a	0.009141037
86	0x3d9af0ab	0.07565435
87	0x3e361c6a	0.17784277
88	0x3d93e304	0.07221034
89	0xbd78777f	-0.060660835
90	0x3e0d90ad	0.1382472
91	0xbd7dc6eb	-0.06195728
92	0x3d45d05b	0.048294406
93	0x3dd651ea	0.104648426
94	0xbb38e93f	-0.0028215197
95	0xbdc0aee7	-0.0940836
96	0x3d6cf5b0	0.057851493
97	0x3d3ad82f	0.045616325
98	0x3d8a81e6	0.067630574
99	0xbd695135	-0.05696221
100	0x3d18b241	0.03727937
101	0xbd28d44a	-0.04121808
102	0xbc4d85b3	-0.012544083
103	0xbd263825	-0.040580887
104	0xbd1fcba8	-0.03901258
105	0xbcb70813	-0.022342717
106	0xbd326f9d	-0.043563474
107	0x3da4cd77	0.08047002
108	0xbc6038fe	-0.013685463
109	0x3d12a22e	0.035799198
110	0xbd9f6012	-0.07781996
111	0x3dca2c64	0.09871748
112	0x3d7ae8f4	0.061257318
113	0xba5348cf	-0.00080598606
114	0xbcb9b207	-0.022667898
115	0x3d52e7e1	0.05149067
116	0x3d82453d	0.063608624
117	0xbe4d6dc5	-0.20061405
118	0x3d655353	0.055987667
119	0xbdc41d60	-0.09575915
120	0x3d3ddb0c	0.046351478
121	0x3cae77d7	0.021297378
122	0xbc3fe67d	-0.0117126675
123	0xbb7ac73b	-0.0038265723
124	0xbd300bcd	-0.042980004
125	0xbb5777da	-0.0032877834
126	0x3d4b69c2	0.049661405
127	0x3d3e9193	0.04652555
128	0x3b7dfbdd	0.0038754859
129	0xbe1236bf	-0.14278696
130	0xbbe88ecf	-0.0070971022
131	0xbd8b200e	-0.06793223
132	0xbca44d91	-0.020056518
133	0x3d50dc98	0.050991625
134	0x3cc12829	0.02357872
135	0xbe1102ba	-0.14161196
136	0x3d0fd016	0.035110556
137	0x3d514d1f	0.05109894
138	0xbda464c1	-0.0802703
139	0x3dec4aa2	0.115376726
140	0xbd840da8	-0.06447917
141	0x3cb15ada	0.021649767
142	0x3cac3b55	0.021024385
143	0x3d601298	0.054705232
144	0xbd73a7f2	-0.059486337
145	0xbda26df5	-0.07931129
146	0x3b143313	0.002261345
147	0xbb07814d	-0.0020676435
148	0xbc1b0029	-0.009460487
149	0xbdc572a0	-0.096410036
150	0x3d5c188e	0.053734355
151	0xbd27805e	-0.040893905
152	0x3d234f4a	0.039870538
153	0xbe0b7fb6	-0.13622937
154	0xbd0367ad	-0.032081295
155	0x3dc0a2ab	0.094060265
156	0x3d0a2458	0.033726066
157	0x3cb82d77	0.022482617
158	0xbc2fd265	-0.010731314
159	0x3d8153c5	0.06314806
160	0xbbb69b1c	-0.0055726897
161	0x3c0c2903	0.0085547
162	0xbcb35c01	-0.021894457
163	0xbc6b396c	-0.014356952
164	0x3dff5bf9	0.12468714
165	0xbdbb6101	-0.091493614
166	0x3dbfaa49	0.09358651
167	0xbd82d8be	-0.063889965
168	0x3bbfc17c	0.0058519226
169	0x3d1ca692	0.03824479
170	0xbd0d698e	-0.034524493
171	0xbe06efd9	-0.13177432
172	0xbd520f9a	-0.05128441
173	0xbd9328e6	-0.07185535
174	0x3d48ed9d	0.04905473
175	0xbdae9cd6	-0.08526008
176	0xbd2424e2	-0.040074237
177	0xbca594a8	-0.020212486
178	0xbb31cc5e	-0.002712987
179	0x3dd6b8e1	0.104844816
180	0x3d2f49ca	0.04279498
181	0xbbc6f3df	-0.006071552
182	0xbd62e975	-0.055398423
183	0x3ca5938f	0.020211963
184	0xbd8b8048	-0.06811577
185	0x3d8001b9	0.062503286
186	0xbc858e73	-0.016303277
187	0x3d80160b	0.06254204
188	0x3b911524	0.004427569
189	0xbd9956c2	-0.07487251
190	0x3d69dc6e	0.057094984
191	0x3ca5054a	0.020144124
192	0x3db5be7b	0.08874222
193	0x3c182f04	0.009288553
194	0x3d1c0234	0.03808804
195	0x3bcffe80	0.0063474774
196	0x3c36666a	0.011132816
197	0x3d144fa5	0.036208767
198	0x3d91aea2	0.07113387
199	0xbb5ac6ed	-0.003338273
200	0x3c4cd15b	0.012501086
201	0x3da67740	0.08128214
202	0xbd754122	-0.05987657
203	0x3c9d519d	0.019203955
204	0x3d891fe6	0.06695537
205	0x3d3dc557	0.046330776
206	0xbded5576	-0.11588566
207	0xbc63b34b	-0.013897727
208	0xbd57b15c	-0.052659377
209	0xbd04e1e5	-0.032441992
210	0xbd98f365	-0.07468299
211	0xbdc69d19	-0.09697933
212	0xbd42bbaf	-0.04754227
213	0x3b42bc8f	0.002971444
214	0xbd205047	-0.03913906
215	0xbda6beeb	-0.081418835
216	0xbd75811b	-0.059937578
217	0x3b854a33	0.004067683
218	0xbdea0b11	-0.11427892
219	0xbc546c1e	-0.01296523
220	0x3c94540d	0.018106485
221	0xbca46818	-0.020069167
222	0x3d44434b	0.047915738
223	0xbcc56e6d	-0.024100507
224	0x3d18ac3d	0.037273634
225	0xbc2515ef	-0.01007603
226	0x3d851bea	0.06499465
227	0x3da5155c	0.080607146
228	0x3d96c036	0.0736088
229	0xbda273fe	-0.0793228
230	0x3c0d2a67	0.008616067
231	0x3d83b95e	0.0643184
232	0xbd998cb3	-0.07497539
233	0xbdea142a	-0.11429627
234	0xbd7d6402	-0.061862953
235	0x3d9d05e1	0.07667137
236	0x3d0a0779	0.033698533
237	0x3d9678a8	0.07347232
238	0x3cbd556e	0.023112025
239	0xbd1399c6	-0.03603532
240	0xbd70a236	-0.058748446
241	0x3caffaca	0.02148189
242	0xbdba5f71	-0.09100235
243	0x3d509b0d	0.050929118
244	0x3ce4d680	0.027934313
245	0x3cc5b97b	0.024136296
246	0xbdd29f7d	-0.10284326
247	0x3d62f59e	0.05541002
248	0x3d6186cd	0.055060197
249	0xbd65ed29	-0.056134377
250	0xbc1bce7b	-0.009509678
251	0xbd6b1afb	-0.057398777
252	0x3dbfb812	0.093612805
253	0x3ce2530f	0.027627496
254	0xbd69f7a2	-0.057120927
255	0x3d7d5990	0.06185299

encoder.layers.0.self_attn.W_K.weight f4 [60, 100]
0	0x3dbdf2ea	0.09274848
1	0xbd84d475	-0.064858355
2	0xbdb58941	-0.0886407
3	0xbc9fe883	-0.01952005
4	0xbd97e432	-0.07416572
5	0x3cbbcf27	0.022925926
6	0xbd9a29af	-0.07527482
7	0x3d3b6398	0.045749277
8	0x3cf55716	0.029948752
9	0xbd2a92d6	-0.04164394
10	0xbc7211f5	-0.014774789
11	0xbdb88f7a	-0.09011741
12	0xbcf03e47	-0.029326571
13	0x3c99f934	0.018795587
14	0x3e150fab	0.14556758
15	0xbc88ad3f	-0.016684173
16	0x3c4a4be9	0.0123472
17	0xbd4b56c4	-0.049643293
18	0x3dabf07a	0.08395477
19	0xbd4f99a8	-0.050683647
20	0x3c54f00a	0.012996683
21	0x3d06264a	0.03275136
22	0x3d26c10d	0.04071145
23	0x3d311ae8	0.04323855
24	0xbd7f8daf	-0.06239098
25	0x3d62b323	0.05534662
26	0x3ddffe4e	0.10937177
27	0xbd39e441	-0.045383696
28	0xbbf9e4f2	-0.0076261694
29	0x3d99432e	0.07483517
30	0xbc03d489	-0.008046278
31	0xbd950426	-0.07276182
32	0xbdb3d131	-0.087801345
33	0xbd370a3c	-0.044687495
34	0x3d8796fb	0.06620594
35	0xbd76f958	-0.060296386
36	0xbdc34c8d	-0.09536085
37	0xbc01adc9	-0.007914969
38	0xbc13a1df	-0.009010761
39	0x3d9ba3be	0.07599591
40	0x3dc0d96c	0.0941647
41	0xbdc6aad5	-0.097005524
42	0xbd6558a8	-0.055992752
43	0xbb377b7b	-0.0027997184
44	0xbd8f828d	-0.070073225
45	0xbda068de	-0.07832502
46	0xbd96f883	-0.073716186
47	0x3b939a89	0.004504506
48	0xbd90af5c	-0.07064697
49	0xbc9f898a	-0.019474763
50	0x3da3ca79	0.07997603
51	0x3d595b92	0.053065844
52	0xbd03d834	-0.03218861
53	0x3d2c457b	0.04205845
54	0xbd7bd3d5	-0.061481316
55	0x3d401a70	0.046900213
56	0x3d7444ae	0.05963581
57	0xbddc0ee1	-0.107450254
58	0xbd850d53	-0.06496682
59	0x3ab44d6d	0.0013755985
60	0xbd955ac1	-0.072927006
61	0xbce33176	-0.027733546
62	0x3c96f7f3	0.018428778
63	0x3dd01c00	0.101615906
64	0x3d1daa41	0.038492445
65	0xbc8027e4	-0.015644021
66	0xbcf44396	-0.029817384
67	0xbdc1a5c9	-0.09455449
68	0xbd87183d	-0.0659642
69	0xbdb65fcd	-0.08904991
70	0x3c848cd9	0.016180443
71	0x3c8bba45	0.017056594
72	0x3dd2b65d	0.10288689
73	0xbdfabae9	-0.122426815
74	0xbd33f7b3	-0.043937396
75	0xbc3549f8	-0.011064999
76	0x3de790ea	0.11306937
77	0xbce5207a	-0.027969588
78	0x3d46688d	0.04843955
79	0x3dc626c8	0.09675366
80	0xbb391f07	-0.0028247254
81	0xbd5027f4	-0.050819352
82	0x3cc2bf46	0.023772847
83	0x3cc762fe	0.024339195
84	0xbdcf0f10	-0.10110295
85	0xbdd2b0a8	-0.10287601
86	0x3da7e06b	0.08197101
87	0x3dac70e3	0.08419969
88	0xbd73bca9	-0.059506092
89	0xbb8bdaac	-0.004268011
90	0x3d1fbfb5	0.039001185
91	0x3da487ca	0.08033712
92	0xbc9a23c0	-0.018815875
93	0xbb1e47e5	-0.002415174
94	0xbd380c84	-0.04493381
95	0xbd708e03	-0.058729183
96	0xbd23bd8a	-0.03997568
97	0xbc4395ab	-0.011937539
98	0xbd4af8f2	-0.04955382
99	0x3d30a03a	0.043121554
100	0x3d354487	0.044254806
101	0xbd6b8d1e	-0.057507627
102	0xbdb35a7f	-0.08757495
103	0x3d33f41d	0.043933976
104	0x3d0d6f0d	0.034529734
105	0xbcff9dd9	-0.031203197
106	0x3d54b59e	0.051931016
107	0xbd2b56ce	-0.04183083
108	0x3d9f7c62	0.07787396
109	0x3caa6c99	0.020803737
110	0xbdde3c80	-0.10851383
111	0x3cb0b758	0.0215718
112	0xbcfcea9d	-0.030873591
113	0xbd2c2819	-0.042030428
114	0x3de4c43d	0.11170242
115	0xbd74d6db	-0.059775215
116	0xbc760698	-0.0150162205
117	0xbdb085b9	-0.086192556
118	0x3c8bb69d	0.01705485
119	0xbca70c5c	-0.020391636
120	0xbccd6b4f	-0.025075583
121	0x3d499cc0	0.049221754
122	0xbd3ffb07	-0.046870258
123	0xbd23c335	-0.039981086
124	0x3d6572e9	0.05601779
125	0xbd96df09	-0.07366759
126	0x3d0740ee	0.033020906
127	0xbd781469	-0.06056634
128	0xbd581354	-0.052752808
129	0xbdeda268	-0.11603242
130	0x3c93ff75	0.018066147
131	0x3d1d9d3b	0.038480025
132	0x3d67ce84	0.056593433
133	0x3dee64f4	0.11640349
134	0xbd1fe479	-0.039036248
135	0xbdada77a	-0.08479209
136	0xbd0b2de6	-0.03397932
137	0xbd8cc1c0	-0.068728924
138	0x3b5bcc52	0.0033538532
139	0xbd91f559	-0.071268745
140	0x3ddb0671	0.10694588
141	0xbd95011e	-0.07275604
142	0x3d6b2d54	0.057416275
143	0xbdcaf019	-0.09909076
144	0xbdd83bd8	-0.10558289
145	0xbd48f025	-0.049057145
146	0x3da49b9a	0.08037491
147	0xbd21a331	-0.039462272
148	0xbdd825bc	-0.10554072
149	0x3d90b854	0.07066408
150	0x3d3f92c6	0.046770833
151	0x3d9d06a3	0.076672815
152	0xbd934788	-0.07191378
153	0x3db59910	0.08867085
154	0xbd9748c9	-0.073869295
155	0xbcfed0c7	-0.031105412
156	0xbda13795	-0.078719296
157	0x3d6f5952	0.058434792
158	0xbd18fe76	-0.037352048
159	0xbdd49dbb	-0.10381647
160	0x3d6a820b	0.057252925
161	0x3c81ee80	0.015860796
162	0xbdd26208	-0.10272604
163	0x3d933a45	0.071888484
164	0x3cc090e9	0.023506599
165	0xbd6aebf8	-0.057353944
166	0xbd37ee72	-0.044905134
167	0xbcb0367d	-0.021510357
168	0xbdccfb14	-0.10008827
169	0x3b2dbb39	0.0026509298
170	0xbdcc8567	-0.09986382
171	0x3d8dddbd	0.06927059
172	0xbd5dfd49	-0.05419663
173	0x3cc76cf8	0.024343953
174	0xbd1f94c6	-0.03896024
175	0x3d89579f	0.067061655
176	0x3cb0654f	0.021532683
177	0xbd06e4af	-0.032932933
178	0xbc8e6562	-0.017382327
179	0xbd747a3e	-0.05968689
180	0x3d7cd92a	0.06173054
181	0xbde70694	-0.112805516
182	0xbd79eed9	-0.0610188
183	0xbae4a985	-0.001744554
184	0x3ce1130f	0.027474908
185	0xbdd787a3	-0.105239175
186	0x3ba589df	0.005051836
187	0xbd19444d	-0.037418652
188	0xbcfcf1e0	-0.030877054
189	0x3ce4b9fc	0.027920716
190	0x3d4f7cac	0.050656006
191	0x3dd4f9f9	0.10399241
192	0x3d46999d	0.04848634
193	0xbdd77d98	-0.10522002
194	0xbd64cc77	-0.055859055
195	0x3da63230	0.08115041
196	0xbd6aefb7	-0.057357516
197	0xbdb21130	-0.086946845
198	0xbc551325	-0.013005053
199	0x3d2740d4	0.04083331
200	0xbdb3990f	-0.08769428
201	0x3d9247c6	0.07142596
202	0xbd02bc09	-0.031917606
203	0x3d0ece53	0.034864735
204	0xbd7de738	-0.061988086
205	0x3dba275e	0.0908954
206	0xbd6a9c86	-0.05727818
207	0xbdb3d365	-0.08780555
208	0x3d1d6083	0.03842212
209	0x3db1a36d	0.08673749
210	0x3d623d4b	0.055234235
211	0x3d5ec8e0	0.054390788
212	0xbd0c4598	-0.034246057
213	0xbdacb2c2	-0.08432533
214	0xbd993c62	-0.0748222
215	0x3d9e210b	0.07721146
216	0x3d0e409d	0.03472959
217	0x3d99a158	0.07501477
218	0x3c8c59c8	0.017132655
219	0x3d79e743	0.061011564
220	0x3d39dc39	0.045376036
221	0xbdac36f2	-0.084089175
222	0xbdcbfdcd	-0.09960518
223	0xbcffe9e8	-0.031239465
224	0x3d59b9ee	0.053155832
225	0x3c757068	0.014980413
226	0x3d22d9cb	0.039758485
227	0xbdadf44b	-0.08493861
228	0xbb63f9d9	-0.0034786372
229	0xbb332d77	-0.0027340332
230	0x3d643819	0.05571756
231	0x3d659211	0.056047503
232	0x3da1fd95	0.07909695
233	0xbdaeb596	-0.085307285
234	0x3c40e489	0.011773237
235	0x3dba7a34	0.0910534
236	0xbccdd97a	-0.025128115
237	0xbc702d87	-0.014659292
238	0xbd158b3d	-0.03650974
239	0x3d5a2838	0.05326101
240	0x3d82d87b	0.063889466
241	0x3dbc1a63	0.0918472
242	0xbde500de	-0.11181806
243	0x3d3edce0	0.04659736
244	0x3dca34e2	0.09873368
245	0xbd8e2b45	-0.06941847
246	0x3bd6bb13	0.0065530627
247	0x3c49460d	0.012284768
248	0x3bbaf913	0.0057059615
249	0xbda3244d	-0.07965908
250	0xbd8e224c	-0.06940135
251	0xbcaca9db	-0.021077087
252	0x3d77f57b	0.060536843
253	0xba3ea6ae	-0.0007272762
254	0xbd2c3fcc	-0.04205303
255	0xbdce29b9	-0.10066552

encoder.layers.0.self_attn.W_V.weight f4 [60, 100]
0	0xbbc86a19	-0.0061161635
1	0x3cc9ec48	0.0246488
2	0xbb98278f	-0.0046433876
3	0x3df9bdc1	0.12194396
4	0x3d71eee0	0.0590657
5	0xbc6e9889	-0.014562734
6	0xbdc6bc8c	-0.09703931
7	0x3d27454d	0.040837575
8	0xbcd1c80a	-0.025608081
9	0x3ccd368d	0.025050426
10	0xbcfe3352	-0.03103033
11	0x3d8a37b1	0.067489035
12	0x3d94000e	0.07226573
13	0xbda44cc3	-0.08022454
14	0xbe04dd38	-0.12975013
15	0xbcaf21d3	-0.021378433
16	0xbdf5262b	-0.119701706
17	0x3e2297e7	0.15878259
18	0x3c4c07e1	0.01245305
19	0x3d019243	0.031633627
20	0x3c28c7e7	0.010301567
21	0xbcd6ea16	-0.026234668
22	0xbd9a4dd1	-0.075343736
23	0xbd9597b2	-0.07304324
24	0xbdcc3885	-0.09971718
25	0xbbaefe57	-0.0053403783
26	0x3d8276c7	0.06370311
27	0xbcdc0c7c	-0.026861422
28	0x3da93276	0.08261578
29	0x3d6ad4fb	0.05733202
30	0x3dc42b53	0.09578576
31	0xbdda3d2f	-0.10656201
32	0x3dd6b809	0.10484321
33	0xbd947772	-0.07249345
34	0xbc90a7b3	-0.01765809
35	0xbd0504c0	-0.032475233
36	0x3c1e3ed3	0.009658533
37	0xbdd72ee3	-0.1050699
38	0x3d36b793	0.044608664
39	0x3c2e9e64	0.01065788
40	0x3d7b999d	0.061425794
41	0x3dafb452	0.08579315
42	0xbdc2bab1	-0.09508265
43	0x3c428ca3	0.011874351
44	0x3e1a2a96	0.15055308
45	0x3dc40a48	0.095722735
46	0x3d82c430	0.06385076
47	0xbcdcdaa5	-0.026959727
48	0x3e26e60d	0.16298695
49	0xbc362b02	-0.011118652
50	0xbd99ebb7	-0.07515662
51	0xbb9ab045	-0.00472072
52	0x3d5f3b8e	0.054500155
53	0xbd64d381	-0.05586577
54	0xbd43251f	-0.047642823
55	0xbd3cfe11	-0.046140734
56	0xbc3be17f	-0.011467337
57	0x3e03415c	0.12817901
58	0x3cee5cc4	0.029096968
59	0xbd3ab4ad	-0.045582462
60	0xbdac84fa	-0.08423801
61	0xbe1b5697	-0.1516975
62	0xbd0798c2	-0.033104666
63	0xbe04d485	-0.12971695
64	0xbd940f96	-0.07229535
65	0x3c8e3464	0.017358966
66	0xbd1c22d3	-0.03811915
67	0x3ce44ee9	0.027869659
68	0xbc9775ed	-0.018488849
69	0xbdb6ff73	-0.08935442
70	0xbc627fde	-0.013824431
71	0xbc91694b	-0.017750403
72	0x3db720fa	0.08941837
73	0x3deb0d6a	0.11477168
74	0x3e003f59	0.12524165
75	0xbdb6afaa	-0.08920224
76	0x3bd076d7	0.006361823
77	0x3b07ae96	0.0020703427
78	0xbdf40c51	-0.11916412
79	0xbd4cdf13	-0.050017428
80	0xbd25bbaa	-0.040462174
81	0x3dfab6be	0.122418866
82	0xbcb3e956	-0.02196185
83	0x3d308624	0.043096676
84	0xbcf1c354	-0.029512085
85	0x3dbdc205	0.09265522
86	0x3c749fcb	0.014930676
87	0x3c3e1a39	0.011602932
88	0xbe0ab75f	-0.13546513
89	0x3d602075	0.054718453
90	0x3dd0673a	0.10175939
91	0xbd9bfa2f	-0.07616078
92	0x3d534024	0.05157484
93	0x3cf0b5c5	0.02938355
94	0x3d27abc4	0.040935293
95	0x3bb30bee	0.0054640686
96	0x3d691033	0.056900214
97	0x3dc49741	0.09599162
98	0x3d99d6cb	0.07511672
99	0xbdecab2a	-0.115560845
100	0xbcd4669d	-0.025927836
101	0xbd6ef5a6	-0.058339737
102	0x3dd7cb91	0.10536874
103	0x3dc299cc	0.09501991
104	0x3dad735c	0.08469269
105	0xbde9c5ae	-0.114146575
106	0x3ad45876	0.001620068
107	0x3c8db67e	0.017298933
108	0xbd36449e	-0.044499032
109	0xbd04f738	-0.03246233
110	0xbd911e57	-0.07085865
111	0xbd38310e	-0.044968657
112	0xbd016f84	-0.03160049
113	0xbd92672a	-0.07148583
114	0xbabf891e	-0.0014613008
115	0xbdccac54	-0.099938065
116	0x3c029628	0.00797037
117	0xbc3e0326	-0.01159743
118	0xbcd4d983	-0.025982624
119	0xbd04116e	-0.032243185
120	0x3da80137	0.08203357
121	0x3c7ec254	0.015549261
122	0x3ddec201	0.10876847
123	0xbde3aabf	-0.111165516
124	0xbc393888	-0.011304982
125	0xbbfc1143	-0.0076924874
126	0x3cb19b0d	0.02168038
127	0xbced686a	-0.028980453
128	0x3a668ad7	0.00087944925
129	0x3d908134	0.070558935
130	0x3c8c85a5	0.01715357
131	0xbcde39b5	-0.027127126
132	0xbdce8900	-0.100847244
133	0xbd505181	-0.05085898
134	0x3d50c475	0.050968606
135	0x3d650d3b	0.05592082
136	0xbd62b0ae	-0.055344276
137	0x3d900d71	0.07033814
138	0xbdea31a1	-0.11435247
139	0xbbd7b30d	-0.006582624
140	0x3d75b2f5	0.05998512
141	0xbd65d9ba	-0.056115843
142	0xbd9d1f5b	-0.07671996
143	0x3d6c3427	0.057666924
144	0xbc61074a	-0.013734648
145	0x397926ef	0.00023760994
146	0xbc158da4	-0.009128008
147	0x3d9fbbe0	0.07799506
148	0xbdaa9f74	-0.083311945
149	0xbd660b22	-0.05616296
150	0xbd72e5de	-0.05930125
151	0x3cb830d0	0.022484213
152	0xbdbccbea	-0.09218581
153	0xbd862d1f	-0.06551575
154	0xbd926d92	-0.07149805
155	0x3b979980	0.004626453
156	0x3d97db32	0.07414855
157	0xbddbff13	-0.10742011
158	0x3d35e04a	0.04440335
159	0xbd14306c	-0.03617899
160	0x3dc4e727	0.09614401
161	0x3cbec226	0.023285937
162	0xbd673b87	-0.056453254
163	0xbd0fe576	-0.03513094
164	0xbd76750e	-0.060170226
165	0x3d74ca9a	0.05976353
166	0xbc8e8e5c	-0.017401867
167	0xbd4c3239	-0.049852584
168	0x3dd540a8	0.10412723
169	0x3cfe2765	0.031024644
170	0xbd9a172a	-0.075239494
171	0x3d457ba4	0.048213616
172	0x3da35ce4	0.07976702
173	0x3ce91f57	0.028457327
174	0x3b67e7a6	0.0035385876
175	0xbdb5c358	-0.088751495
176	0xbd5efe00	-0.054441452
177	0x3cb5616a	0.022141177
178	0xbd976ba3	-0.07393577
179	0xbce6f4ca	-0.028192896
180	0xbc97aff6	-0.018516522
181	0xbdd8f69e	-0.105939135
182	0x3cf6a6e3	0.030108875
183	0xbdac0c8e	-0.08400832
184	0xbcba13bb	-0.022714486
185	0x3d6f80e9	0.058472548
186	0xbb9ee97b	-0.0048496104
187	0xbd74541d	-0.05965053
188	0x3cedecaa	0.029043514
189	0x3cb2216f	0.021744458
190	0xbbe3d48f	-0.006952829
191	0xbc4a543a	-0.012349183
192	0x3de3c622	0.11121775
193	0x3c0431f2	0.0080685485
194	0xbdaace01	-0.083400734
195	0xbda9fcbb	-0.08300158
196	0x3c8f848b	0.017519256
197	0xbc9b890c	-0.018986247
198	0xbd0d621d	-0.034517396
199	0x3d9aa406	0.07550816
200	0xbd4f2b78	-0.050578564
201	0x3da02fe0	0.078216314
202	0x3dac166d	0.08402715
203	0x3cff0476	0.031130057
204	0x3c01f9e3	0.007933113
205	0x3d4bc433	0.049747657
206	0xbe012106	-0.12610254
207	0xbd14a123	-0.036286484
208	0x3d646b3a	0.05576632
209	0xbdc607bc	-0.09669444
210	0x3b81a34d	0.0039562345
211	0x3b912318	0.0044292323
212	0xbd964af8	-0.07338518
213	0x3da37e84	0.07983115
214	0x3d86f81f	0.06590294
215	0xbca18147	-0.019714965
216	0xbd723179	-0.059129212
217	0xbc594235	-0.013260414
218	0xbde412d0	-0.11136401
219	0xbd647423	-0.05577482
220	0x3d88b609	0.066753455
221	0x3cc97110	0.024590045
222	0xbe1bd738	-0.15218818
223	0xbcef3a49	-0.029202597
224	0xbd38e965	-0.045144457
225	0xbc2a06e0	-0.010377616
226	0x3d94a707	0.072584204
227	0xbd2ae510	-0.041722357
228	0x3d3740b4	0.04473944
229	0x3da3751b	0.079813205
230	0xbd6015c6	-0.054708265
231	0xbdae7309	-0.08518035
232	0x3d178eaf	0.037001308
233	0xbdcab123	-0.098970674
234	0x3dfb0693	0.12257113
235	0x3cb3baa5	0.021939585
236	0xbd891cf2	-0.06694974
237	0xbd3016d2	-0.042990513
238	0xbd9b8722	-0.07594134
239	0x3d2e6745	0.042578954
240	0xbcd11189	-0.025521057
241	0x3dc0dd28	0.09417182
242	0xbd66dc13	-0.056362223
243	0xbc908ff8	-0.017646775
244	0x3de69232	0.11258353
245	0xbcf88f73	-0.03034184
246	0x3dcafac7	0.09911113
247	0xbda97284	-0.08273795
248	0x3afadc07	0.001913906
249	0x3c2be1e8	0.010490872
250	0x3d834bef	0.064109676
251	0xbd24ef4e	-0.04026728
252	0xbcd8ce0e	-0.026465442
253	0x3d3e819d	0.046510328
254	0xbd75056f	-0.059819635
255	0x3ca89b8e	0.020581987

encoder.layers.0.self_attn.W_O.weight f4 [100, 60]
0	0x3e244de7	0.16045342
1	0x3daa6607	0.083202414
2	0x3ce4a485	0.02791048
3	0xbe4eef52	-0.20208481
4	0x3cef8427	0.02923782
5	0x3e12de33	0.14342575
6	0x3d27bac2	0.04094959
7	0x3d4c1fac	0.049834892
8	0x3dd207d1	0.10255397
9	0xbe079251	-0.13239409
10	0xbdac169c	-0.0840275
11	0xbd4409f4	-0.047861055
12	0xbdb68880	-0.08912754
13	0x3cb141bd	0.021637792
14	0xbe0cb410	-0.13740563
15	0x3d645505	0.055745143
16	0x3d0231b2	0.031785674
17	0x3d36a675	0.04459234
18	0x3d83545b	0.06412574
19	0x3ba081b1	0.004898273
20	0xbdeebf4c	-0.11657581
21	0xbe450f78	-0.19244182
22	0x3d8edd0a	0.069757536
23	0xbe04c1ea	-0.12964597
24	0xbcb625c2	-0.022234801
25	0x3ca3e1c1	0.020005109
26	0x3dce2574	0.10065737
27	0xbd0b92bf	-0.034075495
28	0x3e01d8f4	0.12680417
29	0x3d838f87	0.0642386
30	0xbe04dc99	-0.12974776
31	0xbd8afe70	-0.06786811
32	0x3d3ca9dd	0.04606043
33	0x3c29f65c	0.010373678
34	0x3dd534bc	0.10410449
35	0x3e274961	0.16336586
36	0x3d7ba24d	0.06143408
37	0xbd8b1ecd	-0.06792984
38	0xbd00dac5	-0.031458635
39	0xbe22241a	-0.15834084
40	0x3d89cd94	0.06728664
41	0x3da04383	0.07825377
42	0x3db9c7d9	0.09071321
43	0x3d1eb4cd	0.038746644
44	0x3decaee0	0.11556792
45	0xbc9b214f	-0.018936781
46	0xbdf7bccd	-0.12096558
47	0xbd997858	-0.07493657
48	0x3cb5923a	0.022164453
49	0xbcaf4b9a	-0.021398354
50	0xbdea2dbc	-0.114345044
51	0xbdac6e03	-0.084194206
52	0x3da755f0	0.08170688
53	0x3dce5662	0.1007507
54	0x3d83e192	0.064395085
55	0xbe18b35d	-0.14912172
56	0x3d9f3e4d	0.07775555
57	0x3de101c6	0.109866664
58	0x3d945054	0.07241884
59	0xbd100cf8	-0.035168618
60	0x3d92e4dd	0.071725585
61	0xbcc16384	-0.023607023
62	0xbdd60743	-0.10450604
63	0xbd91ac52	-0.071129456
64	0xbd631fb4	-0.055450156
65	0xbd9d6d16	-0.07686822
66	0xbd0e9b5a	-0.034816124
67	0x3de16846	0.11006217
68	0xbdbe0909	-0.09279067
69	0x3d897aae	0.067128524
70	0xbd04009d	-0.032227147
71	0x3d284215	0.041078646
72	0x3d19eb6a	0.037578024
73	0xbda37770	-0.07981765
74	0xbcad914f	-0.021187453
75	0xbd810f26	-0.063017175
76	0xbd50eb3c	-0.051005587
77	0x3b83068b	0.0039985827
78	0xbca49963	-0.020092672
79	0x3cceb97e	0.025234934
80	0xbde3294d	-0.11091862
81	0x3dcbb224	0.09946087
82	0x3dad7571	0.08469666
83	0xbd3a5126	-0.045487545
84	0x3c7b7d84	0.0153497495
85	0x3d9bd7d3	0.076095246
86	0x3bfe3ba5	0.007758575
87	0x3e0aa75f	0.1354041
88	0x3d6b1910	0.05739695
89	0xbd02a66f	-0.031897005
90	0x3e525925	0.20541818
91	0xbe2227e7	-0.15835534
92	0x3e16af3c	0.14715284
93	0x3ce0f7fd	0.027462
94	0x3daea65c	0.08527824
95	0xbcdd2fb9	-0.027000295
96	0xbd979dc4	-0.07403138
97	0xbd8d21bd	-0.06891201
98	0x39c985e6	0.0003843747
99	0xbd9a4feb	-0.075347744
100	0x398c38ed	0.00026745294
101	0x3e48ff12	0.19628552
102	0xbd950d8e	-0.07277976
103	0x3ddc59a4	0.10759285
104	0xb9a5c0d1	-0.00031614912
105	0x3d899224	0.06717327
106	0x3d949b92	0.07256235
107	0xbdd1e74f	-0.10249197
108	0xbd27d7cb	-0.04097728
109	0xbcf7f275	-0.03026698
110	0x3d942ae5	0.07234744
111	0xbde34ef5	-0.11099044
112	0x3d38215f	0.0449537
113	0xbdce6b5a	-0.100790694
114	0xbcd8e94a	-0.026478428
115	0x3cc836c4	0.024440177
116	0x3e1fe5da	0.15615025
117	0x3d40104d	0.046890546
118	0x3dd52b9e	0.1040871
119	0xbe0ec27c	-0.13941377
120	0xbd9f2128	-0.07769996
121	0x3d83b55f	0.06431078
122	0x3d997cd1	0.0749451
123	0x3d81b56a	0.0633343
124	0xbd275a69	-0.040857706
125	0xbd239b74	-0.039943174
126	0x3c9b51c0	0.01895988
127	0xbcc93b0e	-0.024564292
128	0x3dab103f	0.08352708
129	0x3d8ce673	0.06879892
130	0x3db007e8	0.08595258
131	0xbd60fb84	-0.054927364
132	0xbde701ba	-0.11279626
133	0x3daff2ad	0.085912086
134	0xbe0d1e66	-0.13781127
135	0xbd2de9ad	-0.04245918
136	0x3dd15b79	0.10222525
137	0x3dada076	0.08477871
138	0x3cede88d	0.029041553
139	0x3de7f826	0.113266274
140	0x3cc92d2e	0.024557676
141	0x3d57abeb	0.052654188
142	0x3ce2686e	0.027637687
143	0x3deac736	0.11463778
144	0xbdb85f13	-0.09002509
145	0xbd139b27	-0.036036637
146	0x3c7e8531	0.015534685
147	0xbda043ec	-0.07825455
148	0xbd9f4814	-0.0777742
149	0xbc8b912b	-0.017036995
150	0xbd740f65	-0.059584994
151	0x3e23fa65	0.16013487
152	0x3d55d12f	0.052201446
153	0xbd51daa1	-0.05123389
154	0xbddb4799	-0.107070155
155	0x3df01c09	0.11724097
156	0x3d934893	0.07191577
157	0xbdf0ef4f	-0.117643945
158	0xbd8d2033	-0.06890907
159	0xbd8b1f5b	-0.0679309
160	0xbd931e62	-0.071835294
161	0xbd839b53	-0.0642611
162	0x3d873fcf	0.066039674
163	0xbd76d490	-0.06026131
164	0xbc3017ac	-0.010747831
165	0xbd809380	-0.062781334
166	0x3dcd2032	0.100159064
167	0x3d675fb3	0.05648775
168	0x3c6e656e	0.01455055
169	0xbc5b1e67	-0.013373948
170	0xbda5056d	-0.080576755
171	0x3d8621f1	0.065494426
172	0xbdfda506	-0.12384991
173	0x3e28c10d	0.16479893
174	0x3ddbd8ae	0.10734688
175	0x3cc52dd4	0.024069704
176	0xbd05b05c	-0.032638893
177	0x3dbdfaaa	0.09276326
178	0xbe1c25fd	-0.15248866
179	0x3e02fef1	0.12792565
180	0xbdade437	-0.08490794
181	0x3d683a1f	0.056696054
182	0x3d35d473	0.04439206
183	0x3e19018c	0.14941996
184	0xbb5688ef	-0.0032735427
185	0xbd8f2705	-0.06989864
186	0x3cf436cb	0.029811284
187	0x3da8d618	0.0824396
188	0x3c20791d	0.009794501
189	0xbde57d82	-0.11205579
190	0x3d541eb9	0.051787112
191	0x3b8e7480	0.004347384
192	0x3e0adf5b	0.13561766
193	0x3dde56ea	0.10856421
194	0x3cf7bbb8	0.030240878
195	0xbd58bf79	-0.052916978
196	0xbdc29514	-0.09501091
197	0x3d7f7729	0.0623695
198	0x3d953145	0.07284788
199	0xbcc945d9	-0.024569439
200	0x3db1555e	0.086588606
201	0xbbd2ee7b	-0.0064371205
202	0xbe0f2e65	-0.13982542
203	0x3e1a33dc	0.15058845
204	0xbd1d37a8	-0.038383156
205	0xbbbf0542	-0.005829484
206	0xbd2583d0	-0.04040891
207	0xbdb63ca0	-0.08898282
208	0xbd8b7d1f	-0.06810974
209	0x3d9c1ac0	0.0762229
210	0xbe493c70	-0.19651961
211	0x3e5d12ed	0.21589251
212	0xbdeace8b	-0.11465176
213	0xbddee78a	-0.10884006
214	0xbe056753	-0.13027696
215	0x3dd3c1f5	0.10339729
216	0x3d53c218	0.051698774
217	0x3da76873	0.08174219
218	0xbda9250e	-0.08259021
219	0x3db6ebfe	0.08931731
220	0xbd8130df	-0.063081495
221	0xbdba84dd	-0.09107373
222	0x3d6cbe9a	0.05779896
223	0xbddfb7e3	-0.109237455
224	0xbc2aca83	-0.010424259
225	0x3d4c68bf	0.04990458
226	0x3de9c913	0.11415305
227	0x3d6c8e26	0.05775275
228	0xbe072613	-0.13198118
229	0x3d358b14	0.04432209
230	0xbdb4ee72	-0.08834542
231	0x3da08be9	0.07839186
232	0xbc283d64	-0.010268543
233	0x3d88b0c5	0.06674341
234	0x3d8c4c76	0.06850521
235	0xbc63edf9	-0.013911718
236	0xbd995a6e	-0.07487951
237	0xbcbc4915	-0.022984067
238	0x3d3d5e08	0.046232253
239	0x3e076d15	0.13225205
240	0x3e02a6fa	0.12759009
241	0x3b4321b3	0.0029774725
242	0xbd9e3639	-0.07725186
243	0xbd7b6975	-0.06137987
244	0x3d703575	0.05864473
245	0x3d51cd42	0.05122114
246	0xbd216207	-0.039400127
247	0xbddbabfd	-0.107261635
248	0xbdb1209d	-0.086487986
249	0x3ad7a300	0.0016451776
250	0x3d5a2e60	0.053266883
251	0xbbd3aabc	-0.006459562
252	0xbdfbf511	-0.12302602
253	0xbc210447	-0.00982768
254	0xbe0f7711	-0.14010264
255	0xbc562dac	-0.013072412

encoder.layers.0.batchnorm_attn.1.weight f4 [100]
0	0x3f82f6fc	1.0231624
1	0x3f8421c1	1.0322801
2	0x3f767942	0.96278775
3	0x3f866a43	1.0501179
4	0x3f84718b	1.034715
5	0x3f7d2f96	0.98900735
6	0x3f7f1e3e	0.9965552
7	0x3f84e7b4	1.038321
8	0x3f7ef6d0	0.99595356
9	0x3f7949ff	0.97378534
10	0x3f788676	0.9708017
11	0x3f80d562	1.0065119
12	0x3f7e3e9b	0.9931428
13	0x3f749228	0.95535517
14	0x3f7b2c5e	0.98114574
15	0x3f8291c3	1.0200733
16	0x3f8b5316	1.0884731
17	0x3f826a8f	1.0188769
18	0x3f7355f8	0.9505305
19	0x3f709197	0.9397215
20	0x3f80d02e	1.0063531
21	0x3f79ed61	0.97627836
22	0x3f823b30	1.0174313
23	0x3f7cbe29	0.9872766
24	0x3f822a15	1.0169092
25	0x3f8bd7bc	1.0925212
26	0x3f7ac003	0.97949237
27	0x3f7315cd	0.9495514
28	0x3f81f4ac	1.0152793
29	0x3f8057f2	1.0026839
30	0x3f804d00	1.0023499
31	0x3f74b481	0.9558793
32	0x3f7d7f64	0.9902251
33	0x3f7a2da4	0.9772589
34	0x3f7e3965	0.9930633
35	0x3f7a4d71	0.97774416
36	0x3f73a251	0.9516955
37	0x3f7cd101	0.98756415
38	0x3f84bd82	1.0370333
39	0x3f84c856	1.0373638
40	0x3f7425e6	0.9537033
41	0x3f7861ef	0.97024435
42	0x3f7c4136	0.98537004
43	0x3f737941	0.95106894
44	0x3f8346c8	1.0255976
45	0x3f82d1d7	1.0220288
46	0x3f7f24af	0.9966535
47	0x3f7f5d84	0.9975207
48	0x3f80fa46	1.0076377
49	0x3f7c3ee0	0.9853344
50	0x3f71a214	0.94387937
51	0x3f86537f	1.0494231
52	0x3f7e91cd	0.99441224
53	0x3f7a6f12	0.9782573
54	0x3f85877f	1.0431975
55	0x3f81a2e6	1.0127838
56	0x3f7bde97	0.9838652
57	0x3f797d02	0.9745637
58	0x3f7d1127	0.988543
59	0x3f80a71c	1.0050998
60	0x3f736215	0.95071536
61	0x3f835b57	1.026225
62	0x3f87687f	1.0578765
63	0x3f7e89f8	0.99429274
64	0x3f8640a3	1.0488476
65	0x3f85e183	1.0459446
66	0x3f754fb7	0.9582476
67	0x3f759c1e	0.9594134
68	0x3f7affc5	0.98046523
69	0x3f7a46b5	0.9776414
70	0x3f7536be	0.95786655
71	0x3f7c7aab	0.98624676
72	0x3f77eb6e	0.9684361
73	0x3f7c7385	0.9861377
74	0x3f7fe3a8	0.9995675
75	0x3f7dc918	0.9913497
76	0x3f80e611	1.0070211
77	0x3f77d0ae	0.96802795
78	0x3f810ee6	1.0082672
79	0x3f7cbb3a	0.98723185
80	0x3f7d494b	0.9893996
81	0x3f811142	1.0083392
82	0x3f82ccee	1.021879
83	0x3f7af382	0.98027813
84	0x3f7c55e7	0.98568577
85	0x3f7d646d	0.9898136
86	0x3f81ab17	1.0130337
87	0x3f82f9cc	1.0232482
88	0x3f7ab10b	0.97926396
89	0x3f7ad99e	0.9798831
90	0x3f822cbf	1.0169905
91	0x3f6f22d3	0.9341251
92	0x3f736b71	0.9508582
93	0x3f7e7392	0.99395096
94	0x3f81e227	1.0147141
95	0x3f805fe3	1.0029262
96	0x3f7031c8	0.9382596
97	0x3f7a5c9a	0.9779755
98	0x3f6b7f1e	0.9199084
99	0x3f805781	1.0026704

encoder.layers.0.batchnorm_attn.1.bias f4 [100]
0	0xbd614904	-0.055001274
1	0x3c929b77	0.017896397
2	0xbdc5deb9	-0.096616216
3	0xbd61316e	-0.05497878
4	0xbd26298b	-0.040566962
5	0x3ce74645	0.02823175
6	0x3bc48a6e	0.0059979474
7	0x3da48a65	0.08034209
8	0xbd9b5ad9	-0.07585687
9	0xbd842730	-0.06452787
10	0x3c8bb499	0.01705389
11	0xbcdcc7a9	-0.026950674
12	0xbbd89475	-0.0066094943
13	0x3d530e6f	0.051527437
14	0x3d4ed4d6	0.050495945
15	0xbcaee21b	-0.02134805
16	0x3c4110e7	0.011783815
17	0xbcf84de8	-0.030310586
18	0xbd86bed5	-0.06579367
19	0xbc18205e	-0.009285061
20	0xbcb907a3	-0.02258665
21	0x3cb58a30	0.02216062
22	0x3d19aca7	0.03751817
23	0x3dd1e700	0.10249138
24	0x3d9685e3	0.073497556
25	0x3bf4eea5	0.0074747377
26	0x3c3d7c33	0.011565256
27	0x3cd84048	0.02639784
28	0xbd8622c1	-0.065495975
29	0x3d1da657	0.038488712
30	0xbb74294d	-0.0037256062
31	0x3d078e20	0.033094525
32	0xbc16acfe	-0.009196518
33	0xbaf56385	-0.0018721676
34	0x3cb37fb9	0.021911489
35	0x3da7950d	0.08182726
36	0x3d402990	0.046914637
37	0x3c857761	0.016292276
38	0xbd368640	-0.044561625
39	0x3c01f7d4	0.007932622
40	0x3c993218	0.018700644
41	0xbdb9fd17	-0.09081476
42	0x3d3b7c0d	0.0457726
43	0x3b4b3853	0.0031008914
44	0xbc0a0f35	-0.008426477
45	0x3cee7dc1	0.029112699
46	0xbd8a940f	-0.06766521
47	0xbde43a31	-0.11143912
48	0xbcb4b34a	-0.022058148
49	0x3d8aa640	0.06769991
50	0xbd82c420	-0.06385064
51	0x3d91f200	0.07126236
52	0x3c0e9dcb	0.008704613
53	0x3c6d1375	0.014469971
54	0x3c3ae1b4	0.011406351
55	0xbcf2674c	-0.029590271
56	0x3d58791a	0.052849866
57	0xbcf92780	-0.030414343
58	0xbdb2ffc0	-0.08740187
59	0xbd356a09	-0.044290576
60	0x3c369814	0.011144657
61	0xbde1f8a4	-0.110337526
62	0x3c027d7f	0.007964491
63	0x3cad3e06	0.02114774
64	0xbc5190c9	-0.012790867
65	0xbc8f8386	-0.01751877
66	0x3cfae2be	0.030625697
67	0x3c233e9e	0.00996366
68	0xbcf6d16d	-0.030129159
69	0x3d870dc4	0.065944225
70	0xbd282e2b	-0.041059654
71	0xbc8add67	-0.016951276
72	0xbd286f48	-0.04112175
73	0x3c8e1215	0.017342607
74	0xbd427038	-0.0474703
75	0x3c4190c2	0.011814298
76	0xbd34d066	-0.044144057
77	0xbd8ef062	-0.06979443
78	0xbc02a44c	-0.007973742
79	0xbd085046	-0.03327968
80	0x3d80fbcf	0.06298029
81	0x3dc083d7	0.094001465
82	0xbd1fa25b	-0.038973194
83	0xbb74c792	-0.0037350398
84	0x3c2f3d76	0.010695806
85	0xbcbeb863	-0.023281282
86	0x3e007d93	0.12547903
87	0x3c4c44e3	0.012467596
88	0xbcebcf46	-0.02878536
89	0xbd2e28dd	-0.04251944
90	0x3d06d724	0.032920018
91	0x3da03349	0.07822282
92	0xbca3a0b9	-0.0199741
93	0x3cdf4615	0.027255097
94	0x3d0bd360	0.03413713
95	0x3cf3abcf	0.02974501
96	0x3d216087	0.039398696
97	0x3d09d812	0.033653326
98	0x3b76199b	0.0037551883
99	0x3d36d901	0.044640545

encoder.layers.0.batchnorm_attn.1.running_mean f4 [100]
0	0x3ed09add	0.4074315
1	0x3e95884f	0.29205558
2	0xbf970830	-1.1799374
3	0xbca6a778	-0.020343527
4	0xbf38709c	-0.7204683
5	0x40066a71	2.1002467
6	0xbfc67110	-1.5503254
7	0xbfe30b2a	-1.7737782
8	0xbf98ef63	-1.1948055
9	0xbe696c23	-0.22795157
10	0x40123cf2	2.2849698
11	0xbd79ed2b	-0.061017197
12	0xbf0ab99d	-0.54189473
13	0x3eedef89	0.46471813
14	0xc0063a4a	-2.0973077
15	0x3eef9acc	0.46797788
16	0xbe757258	-0.239694
17	0x3f35bae6	0.7098831
18	0xbfbd69fd	-1.479797
19	0x3dfbc37e	0.122931466
20	0x3fdcf544	1.7262349
21	0xbf6d37c1	-0.926632
22	0xbfc9a77e	-1.575424
23	0xbef6f137	-0.48230907
24	0x3fa4c313	1.2872032
25	0x3f93b8bd	1.1540753
26	0xbe5defb8	-0.21673477
27	0xc038020a	-2.8751245
28	0xbaa60077	-0.0012664933
29	0x3fda049d	1.7032658
30	0x3faa0785	1.3283545
31	0xc07a9106	-3.9151015
32	0x4029d90f	2.6538732
33	0xbf2aaa61	-0.6666623
34	0xbd8a399f	-0.067492716
35	0x4032c5cb	2.7933223
36	0xbf51a813	-0.81897086
37	0xbecc8fcf	-0.39953467
38	0xbea42e6a	-0.3206666
39	0x3ea69d15	0.3254172
40	0xbf40aa94	-0.7526028
41	0x3f02ff3b	0.511707
42	0x3e314fa8	0.17315543
43	0x3f545c58	0.82953405
44	0x3fa41d53	1.2821449
45	0x3e8f3242	0.2796803
46	0x3e1e1869	0.15438999
47	0xbff57f48	-1.9179468
48	0x3fdabe40	1.708931
49	0x3ead66e2	0.33867556
50	0xbf86be6e	-1.0526865
51	0xbf256ebd	-0.646221
52	0x402fce48	2.7469654
53	0x3f757eee	0.95896804
54	0xbcda0775	-0.026614884
55	0xbf00d376	-0.50322664
56	0xbf8ee57d	-1.1163784
57	0x3fe8989e	1.8171575
58	0x3f51f659	0.8201652
59	0x3f0572c2	0.5212823
60	0xbf951ce7	-1.1649445
61	0x3efe0143	0.49610338
62	0xbe478338	-0.1948365
63	0xc00f1b07	-2.2360246
64	0xbfa25532	-1.268225
65	0x3f12eaf0	0.57389736
66	0x3feed251	1.8657933
67	0xc006c33e	-2.1056666
68	0x3e5f1ab2	0.21787527
69	0x3fecce9a	1.850055
70	0x3f947f75	1.1601397
71	0x3fdbfc22	1.718632
72	0x3f2992ee	0.6623982
73	0x400f3539	2.2376235
74	0x402bd688	2.684969
75	0xbf32e973	-0.69887465
76	0x3fa34cb2	1.275778
77	0x3f799740	0.97496414
78	0x3fb779a4	1.4333997
79	0xbff9e24a	-1.9522183
80	0x3e8ee980	0.2791252
81	0x3fc58dfa	1.5433953
82	0xbfb24dfc	-1.3930049
83	0x4045c325	3.0900357
84	0x3f0d142c	0.55108905
85	0x402a1c5b	2.6579807
86	0x3e3a0755	0.1816686
87	0xbf0c4ca5	-0.5480445
88	0x3f967643	1.1754841
89	0x3f5f96c8	0.8733945
90	0x4024fc7a	2.57791
91	0xbf4044c1	-0.7510491
92	0x3fae0e67	1.3598145
93	0xbff8ec47	-1.9447106
94	0x3f5a2ec6	0.8522762
95	0x3ff1a424	1.8878217
96	0x3ed86cb3	0.4227043
97	0x3f4c7cb1	0.79877764
98	0x3d834d8a	0.06411274
99	0xbfb05770	-1.3776684

encoder.layers.0.batchnorm_attn.1.running_var f4 [100]
0	0x3fcf3eaf	1.6191005
1	0x400cf68f	2.2025487
2	0x3ff2c883	1.8967441
3	0x400a7d6c	2.1639051
4	0x40b6625a	5.699506
5	0x3fc30696	1.5236385
6	0x4101270a	8.072031
7	0x3fce9c6f	1.614149
8	0x40a9a4c6	5.301364
9	0x3f72c1a3	0.94826716
10	0x3fc749f8	1.5569448
11	0x405763fa	3.365477
12	0x4106fa7a	8.4361515
13	0x404408cc	3.063037
14	0x40c0c738	6.0243187
15	0x402da07f	2.712921
16	0x3f375e03	0.71627825
17	0x3f07d7eb	0.5306384
18	0x407747f5	3.863767
19	0x40459e6c	3.0877943
20	0x41006b39	8.026177
21	0x400ae0fe	2.1699824
22	0x4086ba3c	4.2102337
23	0x408aa223	4.332292
24	0x407349f2	3.8013883
25	0x3f6a6aa8	0.91568995
26	0x4064ebfe	3.5769038
27	0x41598d64	13.597019
28	0x40654ee3	3.5829399
29	0x3fec17a5	1.8444716
30	0x3fa6c5be	1.3029096
31	0x4114fa5e	9.311125
32	0x40f398d7	7.612407
33	0x3fe2934c	1.7701201
34	0x3f232d77	0.6374125
35	0x4095f862	4.68657
36	0x3fd91118	1.6958342
37	0x408f98f9	4.4874234
38	0x3f9b7d44	1.2147603
39	0x3f7632ab	0.96171063
40	0x40da6bf0	6.825676
41	0x4130e9c1	11.057069
42	0x4039c19d	2.9024422
43	0x402cdfdd	2.7011635
44	0x3ff275c3	1.8942188
45	0x3fcab953	1.5837806
46	0x3f989f5c	1.1923633
47	0x40770691	3.8597758
48	0x406b3f8b	3.6757534
49	0x40e08ace	7.016944
50	0x40ab8c7d	5.3608994
51	0x3eee6f54	0.46569312
52	0x40477c18	3.116949
53	0x401d2952	2.455647
54	0x3f14d9db	0.5814492
55	0x40f403a0	7.6254425
56	0x41528a19	13.158715
57	0x40f97572	7.7955866
58	0x406e4f52	3.7235913
59	0x404983c9	3.1486685
60	0x40949181	4.6427617
61	0x3fed4bb6	1.853873
62	0x3f806d7a	1.003341
63	0x40a6d386	5.2133207
64	0x3f9311a1	1.1489755
65	0x3f074166	0.52834165
66	0x40f31178	7.5958824
67	0x4031f1eb	2.7803905
68	0x3f59609c	0.8491304
69	0x408aff88	4.343693
70	0x40cb751a	6.3580446
71	0x40bbb377	5.8656573
72	0x410b1f46	8.695135
73	0x404a24a1	3.1584857
74	0x406b9b3e	3.6813502
75	0x3f21a7e6	0.6314682
76	0x40069742	2.102982
77	0x409aa461	4.832566
78	0x40961432	4.6899652
79	0x3ff0952e	1.8795526
80	0x40593c28	3.3942966
81	0x3f614c46	0.8800701
82	0x3fab18dd	1.3366963
83	0x40a7ac9e	5.2398214
84	0x3faf506a	1.3696415
85	0x3fe3bb8b	1.7791609
86	0x40982e1f	4.75563
87	0x3f68148c	0.9065635
88	0x40d66594	6.6998997
89	0x40d45cb2	6.6363153
90	0x40768404	3.8518076
91	0x40b06f93	5.51362
92	0x400516c1	2.0795138
93	0x409da797	4.9267077
94	0x40cd6cfa	6.419553
95	0x4037b5b0	2.8704643
96	0x40c981a1	6.297074
97	0x3fb27a2f	1.3943537
98	0x40121bbc	2.2829428
99	0x4011a4d6	2.2756858
