transformer_results_random_no_constants_no_param_tune/performance_prediction/DE-GA-ES-PSO_random_no_constants_dim_10_samples_50_fold_2_budget_10_n_heads_2_n_layers_1_d_model_100_d_k_30_d_v_30_aggregations_mean/trained_model_dict.pt (torch, 339963 bytes, 22 tensors)

W_P.weight f4 [100, 11]
-0.047420755 0.087605275 -0.14738959 0.09028933 -0.1354145 -0.098643586 0.18578988 0.19387478
-0.2527866 0.05141993 0.47965124 -0.30534357 -0.25042057 0.15461212 0.20503053 0.07551099
0.28867233 -0.18388532 0.28942585 0.21262734 0.16176432 -0.09344776 0.047227774 -0.048653778
0.056216393 -0.19383387 -0.21735694 -0.09935085 -0.028991483 0.16548137 -0.060086012 -0.18105288
-0.31246385 0.09260333 -0.1926714 0.22621205 -0.248459 -0.027346604 0.15159096 0.00770949
-0.107073836 0.24304017 -0.10482049 0.21640073 -0.18808238 -0.11826635 0.16252445 0.2407638
0.20891024 0.23334622 -0.20345375 -0.080614746 -0.065477565 -0.03510151 -0.4696626 -0.15082777
0.3018543 0.29723853 -0.23145309 -0.24184334 -0.072064675 0.14104849 -0.19443557 -0.008304437
0.11550913 -0.44271487 -0.093873575 0.15930636 -0.01848094 0.03842175 -0.058947314 -0.1178852
0.14140037 -0.06331791 -0.037912905 0.08433786 0.44005543 0.049810033 0.2461927 -0.25857294
-0.18073525 -0.0028976903 0.090548135 0.18120956 0.026209867 -0.13235028 -0.18359877 0.40844512
0.23784436 -0.20560145 0.31291124 -0.070711635 0.0055764182 -0.1272711 0.02365014 -0.1859635
-0.27056733 0.28225338 0.22984065 0.29414436 0.05621995 0.26668265 -0.09276693 0.28191447
-0.26249123 -0.27394205 -0.2575877 0.1462492 0.11000308 0.5024477 0.23826863 0.16634068
-0.16731733 0.29225883 0.073708385 0.2801872 0.13493374 -0.10555114 0.12889999 -0.21727552
0.48406944 0.17808147 -0.021572234 -0.023190299 0.07515702 -0.046536688 -0.24627182 -0.07956065
-0.1433442 0.014071323 0.1506814 -0.11862978 -0.0100925015 -0.053040016 -0.28235096 0.0842759
-0.06893487 0.25272563 -0.25033912 -0.26042336 0.25521743 -0.2690251 -0.45389426 0.16017208
-0.1595231 -0.13935791 0.09309194 0.019277561 -0.008390261 0.2970718 -0.29053134 0.005005648
0.26160717 0.2636433 0.007834015 -0.23204163 -0.16954318 0.24060705 0.15642989 0.004373438
-0.22278044 -0.055134054 0.2616231 0.06544645 -0.24889229 0.27389517 0.27981532 -0.19290927
0.22719236 -0.20679536 -0.10632003 -0.010325453 -0.1611903 -0.006735063 -0.27093118 0.08958884
-0.2862937 0.21455547 -0.22244276 -0.25059873 -0.1622478 0.21757196 -0.03367206 0.19600043
0.27839744 -0.09329019 0.62632877 -0.023268485 0.2027911 0.04503047 0.15711649 -0.15157826
-0.05829205 0.024132358 0.1976611 -0.22558904 0.0013719163 -0.47686642 -0.016802369 0.112613596
0.1205103 0.2090643 0.18824244 -0.2819104 -0.036919132 -0.16848181 -0.001090475 -0.18922438
-0.15190406 0.08893153 -0.11332547 0.0017958762 -0.13759084 0.015854834 0.1430355 -0.21320567
-0.13120313 -0.16649373 -0.20295058 0.5488204 -0.023321789 -0.023904774 0.24853013 0.29166505
-0.08024417 0.05685068 -0.071226865 -0.11938363 -0.19049546 0.152746 -0.47005782 0.27192256
0.28108907 0.19767842 -0.012881148 -0.26335168 0.123198636 -0.17741406 -0.14125025 0.10771419
0.041568458 -0.39290932 -0.110127464 0.21713614 0.081973575 -0.25940475 -0.09005938 -0.13361499
-0.17747991 0.2476756 0.20122683 0.116634116 -0.11894005 0.055733085 0.09023476 -0.23540445
00000000: 443c 42bd 656a b33d 4ced 16be 9de9 b83d
00000010: 19aa 0abe a605 cabd b43f 3e3e 1c87 463e
00000020: 3f6d 81be b49d 523d d994 f53e fe55 9cbe
00000030: 2037 80be a452 1e3e 86f3 513e 82a5 9a3d
00000040: dccc 933e 6f4c 3cbe a02f 943e fbba 593e
00000050: 8ca5 253e 8a61 bfbd e971 413d 2f49 47bd
00000060: 2943 663d 637c 46be d192 5ebe 7578 cbbd
00000070: 8c7f edbc f373 293e c01c 76bd ed65 39be
00000080: 43fb 9fbe d1a6 bd3d a74b 45be 22a4 673e
00000090: 096c 7ebe fc05 e0bc a93a 1b3e e49f fc3b
000000a0: 8749 dbbd 86df 783e 20ac d6bd 2798 5d3e
000000b0: ab98 40be a135 f2bd cf6c 263e c98a 763e
000000c0: 91ec 553e 50f2 6e3e 2e56 50be 5819 a5bd
000000d0: 1a19 86bd 9ac6 0fbd 9e77 f0be 9872 1abe
000000e0: a68c 9a3e a62f 983e 0a02 6dbe c8a5 77be
000000f0: a596 93bd 046f 103e 1e1a 47be 550f 08bc
00000100: 0d90 ec3d 86ab e2be ca40 c0bd 3521 233e
00000110: 5765 97bc 2060 1d3d bd72 71bd cc6d f1bd
00000120: 42cb 103e d2ac 81bd 904a 1bbd 54b9 ac3d
00000130: f24e e13e 9b05 4c3d f019 7c3e ac63 84be
00000140: a912 39be 2de7 3dbb 4d71 b93d 008f 393e
00000150: 13b6 d63c d586 07be 5101 3cbe b81f d13e
00000160: 798d 733e 3089 52be e735 a03e 43d1 90bd
00000170: 63ba b63b 5b53 02be f0bd c13c 376d 3ebe
00000180: cd87 8abe 8483 903e 595b 6b3e 179a 963e
00000190: e446 663d a18a 883e 97fc bdbd 1857 903e
000001a0: 4065 86be 2242 8cbe 89e2 83be 5ac2 153e
000001b0: 4b49 e13d 6aa0 003f b1fc 733e 3655 2a3e
000001c0: 3c55 2bbe f3a2 953e 6cf4 963d b274 8f3e
000001d0: 122c 0a3e 322b d8bd 5cfe 033e 797d 5ebe
000001e0: f3d7 f73e fd5a 363e 41b8 b0bc 95f9 bdbc
000001f0: eceb 993d 419d 3ebd ae2e 7cbe b2f0 a2bd
00000200: d2c8 12be 688b 663c 3a4c 1a3e 2cf4 f2bd
00000210: 055b 25bc 7d40 59bd 4e90 90be d898 ac3d
00000220: ba2d 8dbd 4165 813e 732c 80be 3656 85be
00000230: dcab 823e a8bd 89be d464 e8be 2604 243e
00000240: 065a 23be d7b3 0ebe fda6 be3d faeb 9d3c
00000250: 4e77 09bc cc19 983e 86c0 94be 6b06 a43b
00000260: 60f1 853e 41fc 863e 3e5a 003c 529c 6dbe
00000270: ba9c 2dbe b261 763e 282f 203e 0f4f 8f3b
00000280: 8e20 64be 3fd4 61bd 77f3 853e ca08 863d
00000290: 9fdd 7ebe fd3b 8c3e f443 8f3e 028a 45be
000002a0: 1da5 683e 2ac2 53be 51be d9bd 172c 29bc
000002b0: 120f 25be ceb1 dcbb 7eb7 8abe 5b7a b73d
000002c0: 1695 92be 6eb4 5b3e 09c8 63be 7a4e 80be
000002d0: 4a24 26be 2fcb 5e3e b7eb 09bd 56b4 483e
000002e0: 1c8a 8e3e ed0e bfbd 1557 203f 8d9d bebc
000002f0: 78a8 4f3e df71 383d 25e3 203e 5537 1bbe
00000300: a5c3 6ebd 39b1 c53c ac67 4a3e d000 67be
00000310: dfd1 b33a d627 f4be 1fa5 89bc f5a1 e63d
00000320: 1bce f63d f414 563e a0c2 403e 8f56 90be
00000330: 8438 17bd 7f86 2cbe 45ee 8eba 09c4 41be
00000340: bd8c 1bbe bc21 b63d 2f17 e8bd 9b63 eb3a
00000350: 9de4 0cbe ffe1 813c e677 123e 9652 5abe
00000360: 1d5a 06be 557d 2abe 47d2 4fbe 7e7f 0c3f
00000370: 560d bfbc f2d3 c3bc af7e 7e3e 1f55 953e
00000380: 0e57 a4bd 42dc 683d 64df 91bd 687f f4bd
00000390: 3e11 43be 7369 1c3e 6bab f0be 6f39 8b3e
000003a0: e8ea 8f3e 366c 4a3e 730b 53bc 08d6 86be
000003b0: 914f fc3d 08ac 35be e8a3 10be 4299 dc3d
000003c0: b043 2a3d 692b c9be 828a e1bd f058 5e3e
000003d0: c3e1 a73d b3d0 84be 0d71 b8bd 5ed2 08be
000003e0: 4bbd 35be ac9e 7d3e 680e 4e3e dedd ee3d
000003f0: d796 f3bd 6048 643d 00cd b83d dd0d 71be

W_P.bias f4 [100]
-0.07773559 0.12534443 0.0881767 0.24387056 0.24753605 0.05040026 0.16007967 -0.11851614
-0.112421975 -0.2603522 0.18700713 -0.025543667 0.025192194 0.090724066 0.04423201 0.17156902
-0.26935855 0.28902626 -0.062256508 0.23592383 0.08850266 -0.17395206 0.25470215 -0.07644873
-0.14979999 -0.20515373 0.23657265 -0.16644196 0.13011564 0.04362429 -0.080387086 0.36821717
0.23788507 -0.33448613 -0.31924605 -0.19200192 -0.014465697 0.06508744 -0.031037608 0.14839733
-0.19570127 -0.046666913 -0.1778986 -0.12041798 -0.3639828 0.060903456 0.2102546 -0.14554167
-0.10361232 -0.098776 0.2588215 0.34244588 -0.15555815 -0.34099358 0.27930272 -0.21079129
-0.13483258 0.05095474 0.26768473 -0.14256951 -0.1957441 0.082336426 -0.07048742 -0.20522645
0.2301914 0.18436418 0.14317378 0.0022343132 -0.20181414 -0.21923491 -0.3045778 -0.037773818
0.32216844 -0.1804806 -0.13050315 0.016522137 -0.32366133 0.032234713 -0.033147313 0.29596362
0.15376717 -0.18422915 -0.0057743676 -0.049865756 0.18333374 0.35773623 -0.19346419 -0.17689964
-0.10140094 -0.051611852 0.0965819 -0.10103613 0.30995402 -0.32933703 0.005714859 0.1750781
0.104345284 0.29709923 -0.15296082 0.08446427
00000000: d633 9fbd 4a5a 003e fc95 b43d 34b9 793e
00000010: 177a 7d3e 8170 4e3d edeb 233e 97b8 f2bd
00000020: 7e3d e6bd e24c 85be cc7e 3f3e f440 d1bc
00000030: dc5f ce3c 8acd b93d a02c 353d caaf 2f3e
00000040: 5de9 89be 40fb 933e ae00 7fbd 0496 713e
00000050: e240 b53d 7d20 32be 5268 823e 2791 9cbd
00000060: 2b65 19be d213 52be 1a40 723e c36f 2abe
00000070: 093d 053e 62af 323d fca1 a4bd f686 bc3e
00000080: 2598 733e c441 abbe 3874 a3be 279c 44be
00000090: 8801 6dbc 904c 853d 9542 febc 78f5 173e
000000a0: ea65 48be ce25 3fbd 0d2b 36be b49d f6bd
000000b0: f45b babe e775 793d fb4c 573e e008 15be
000000c0: b232 d4bd 124b cabd 4084 843e 1155 af3e
000000d0: a34a 1fbe b696 aebe c400 8f3e acd9 57be
000000e0: 8d11 0abe ebb5 503d f90d 893e befd 11be
000000f0: 2471 48be 00a0 a83d b55b 90bd e226 52be
00000100: 4bb7 6b3e f7c9 3c3e 269c 123e 8e6d 123b
00000110: 5ea8 4ebe 1e7f 60be 9ff1 9bbe b8b8 1abd
00000120: 43f3 a43e e8cf 38be 9ea2 05be 6f59 873c
00000130: f0b6 a5be 8c08 043d 7ac5 07bd 8b88 973e
00000140: 2475 1d3e 91a6 3cbe e836 bdbb 0940 4cbd
00000150: d7bb 3b3e 3429 b73e 7a1b 46be 2e25 35be
00000160: 4cab cfbd f366 53bd bbcc c53d 08ec cebd
00000170: 4bb2 9e3e dd9e a8be b643 bb3b ac47 333e
00000180: fbb2 d53d 641d 983e c3a1 1cbe 9afb ac3d

encoder.layers.0.self_attn.W_Q.weight f4 [60, 100]
-0.06712465 0.082635224 -0.023840519 0.049938824 0.047611833 -0.034236196 -0.035304494 0.06527725
0.011712092 0.05439828 -0.0024434363 -0.10114653 -0.051355768 -0.010200895 -0.05164715 -0.09198282
0.040579043 -0.04533477 -0.03612483 0.035889167 -0.06389788 -0.046457276 -0.053730644 0.064993165
-0.0031637296 0.023379482 0.024884924 0.09119758 -0.010636108 0.014903034 -0.05306247 0.04960496
-0.048945628 0.075737976 0.04948651 -0.068538725 -0.0032293922 -0.09130999 -0.083062224 -0.024994422
0.0723624 0.0017296236 0.036488168 -0.13756074 0.04937414 0.014586412 0.03141278 -0.11014894
0.035600442 0.096891634 0.0013890311 -0.015536282 -0.06272952 -0.027031006 0.11854385 -0.11582548
0.07638784 0.09934257 -0.014417725 -0.017729819 0.0724574 0.07129776 -0.055406746 -0.11882355
0.08519739 -0.06670263 -0.021517243 -0.05732205 -0.035573103 0.061051335 0.07900577 0.10177246
-0.010633152 -0.07249578 0.012920225 -0.050616622 -0.07594035 0.03673128 0.05091624 0.034883283
-0.022441784 0.06835537 -0.104657084 0.07839802 0.019782737 0.085664794 -0.116284356 -0.11674356
-0.05034836 -0.013124351 -0.09949972 0.0776126 -0.023840876 -0.017207501 -0.13259968 0.095929466
-0.039436188 -0.039294604 -0.07728921 0.060458366 -0.09432713 -0.044912748 0.06610918 0.039299972
-0.0025300703 0.01047095 -0.059397373 -0.069946006 -0.0960074 0.056641765 0.016349744 0.0123570245
0.011142417 -0.0007165604 0.099712595 -0.017893596 0.0790244 -0.08204969 0.05339548 0.025852121
-0.06410639 -0.0061476678 0.04071385 -0.09778728 -0.058414117 -0.014887836 0.04351642 -0.03680771
-0.002694143 0.10938758 0.09168188 0.09040091 -0.03224098 -0.03088892 -0.10502736 0.036919598
0.051281154 0.029559609 -0.013960442 -0.021854173 0.0017425742 -0.07646632 -0.012776289 -0.04012118
0.033001773 -0.034132585 -0.06551076 -0.053780068 0.07674927 -0.08948365 0.06910454 0.0370253
0.053971834 -0.036346585 -0.04700815 0.011057569 0.055578012 0.0709235 0.011225073 0.038412943
-0.063558124 0.08058739 -0.031215616 0.05175964 -0.078743316 -0.032691356 0.06623954 -0.07820875
-0.04220843 -0.0345012 0.060514446 0.034049593 0.067203715 0.044858344 -0.09472775 0.054428026
0.0638911 -0.01640982 0.0060371454 -0.0949224 -0.031125939 0.036546808 0.02820992 0.062045664
-0.008876276 0.06829479 0.0412114 -0.015424527 0.10726719 0.061017063 0.065836854 0.06207237
-0.056379642 -0.014660953 0.03300035 -0.085210115 0.028718743 0.011499467 -0.06521138 0.011592855
0.002122271 0.09253831 -0.11179859 0.046307184 -0.05862882 -0.089869045 -0.028290533 0.06054118
0.082757965 0.043297984 -0.012329826 0.0060397023 -0.020879354 -0.0879997 -0.054225598 -0.05314132
0.01946804 -0.018398503 -0.1134187 -0.06436141 -0.11217311 0.06929672 -0.065217115 -0.03969723
0.08764597 0.13953906 -0.0040688794 0.033529714 -0.025690725 -0.043949272 -0.116507 -0.1043652
-0.019412141 0.084532216 0.024566978 0.06640008 -0.12365706 -0.15645845 0.046621446 -0.093455456
0.048249774 -0.01240053 -0.06634422 0.07477363 0.11113812 0.015360225 -0.087496825 0.077171646
-0.062160693 0.11393407 -0.02583706 -0.033532117 -0.07564023 0.03289128 -0.021229682 0.043708447
00000000: a678 89bd a83c a93d 314d c3bc a78c 4c3d
00000010: a004 433d 413b 0cbd 729b 10bd 14b0 853d
00000020: 13e4 3f3c bbd0 5e3d 0f22 20bb e925 cfbd
00000030: 6d5a 52bd a821 27bc f68b 53bd 7d61 bcbd
00000040: 3636 263d f4b0 39bd a1f7 13bd 8500 133d
00000050: e4dc 82bd fc49 3ebd aa14 5cbd 231b 853d
00000060: 9356 4fbb 5486 bf3c 78db cb3c ccc5 ba3d
00000070: 1243 2ebc db2b 743c 0858 59bd 922e 4b3d
00000080: 367b 48bd 831c 9b3d 5eb2 4a3d 085e 8cbd
00000090: 36a4 53bb bb00 bbbd 871c aabd 1ac1 ccbc
000000a0: bd32 943d 8ab4 e23a 9e74 153d b9dc 0cbe
000000b0: 8a3c 4a3d d9fb 6e3c b0aa 003d c495 e1bd
000000c0: c5d1 113d 1f6f c63d 2610 b63a e48b 7ebc
000000d0: 5678 80bd 2170 ddbc 1ec7 f23d e935 edbd
000000e0: 3a71 9c3d 1e74 cb3d 5238 6cbc 203e 91bc
000000f0: 8c64 943d 8f04 923d 2ff2 62bd c359 f3bd
00000100: f87b ae3d 639b 88bd ee44 b0bc 87ca 6abd
00000110: 1ab5 11bd f710 7a3d c7cd a13d 146e d03d
00000120: ac36 2ebc ab78 94bd 5aaf 533c 6053 4fbd
00000130: 9d86 9bbd 8a73 163d 8c8d 503d c6e1 0e3d
00000140: d5d7 b7bc e6fd 8b3d 7456 d6bd 248f a03d
00000150: 680f a23c 0671 af3d 7e26 eebd 3f17 efbd
00000160: 153a 4ebd 8507 57bc 82c6 cbbd 5bf3 9e3d
00000170: f14d c3bc bff6 8cbc 36c8 07be ab76 c43d
00000180: d787 21bd 61f3 20bd ce49 9ebd 31a3 773d
00000190: 952e c1bd 6ef6 37bd 4064 873d 02f9 203d
000001a0: 89cf 25bb 598e 2b3c a94a 73bd da3f 8fbd
000001b0: 879f c4bd 3201 683d e6ef 853c 1e75 4a3c
000001c0: af8e 363c 8ed7 3bba 1e36 cc3d 9795 92bc
000001d0: 8bd7 a13d ab09 a8bd 38b5 5a3d d4c7 d33c
000001e0: 364a 83bd 6072 c9bb 91c3 263d b344 c8bd
000001f0: a443 6fbd 1cec 73bc 463e 323d aec3 16bd
00000200: 3890 30bb 9806 e03d b6c3 bb3d 1d24 b93d
00000210: 1e0f 04bd c30a fdbc 9618 d7bd 0139 173d
00000220: 300c 523d fe26 f23c 56ba 64bc 8607 b3bc
00000230: 1667 e43a 609a 9cbd a453 51bc 1b56 24bd
00000240: de2c 073d 9cce 0bbd 812a 86bd 7d48 5cbd
00000250: b92e 9d3d 3443 b7bd ae86 8d3d d7a7 173d
00000260: 9211 5d3d 28e0 14bd 9e8b 40bd ce2a 353c
00000270: c5a5 633d 5740 913d 5ee9 373c e456 1d3d
00000280: c32a 82bd 000b a53d e4b7 ffbc eb01 543d
00000290: 2d44 a1bd 5fe7 05bd 99a8 873d e92b a0bd
000002a0: bfe2 2cbd 2151 0dbd ffdd 773d 9677 0b3d
000002b0: 1aa2 893d 62bd 373d 9f00 c2bd ecef 5e3d
000002c0: 56d9 823d e36d 86bc 3fd3 c53b ad66 c2bd
000002d0: d3fb febc 1bb2 153d 7d18 e73c 9823 7e3d
000002e0: cd6d 11bc 24de 8b3d 49cd 283d 28b7 7cbc
000002f0: e7ae db3d 07ed 793d 79d5 863d 993f 7e3d
00000300: 57ee 66bd 7e34 70bc 602b 073d a482 aebd
00000310: 9243 eb3c 4368 3c3c 8b8d 85bd f5ef 3d3c
00000320: cd15 0b3b ba84 bd3d a9f6 e4bd 9aac 3d3d
00000330: c624 70bd 430d b8bd 8cc1 e7bc 07fa 773d
00000340: 027d a93d 3a59 313d 0a03 4abc b2e8 c53b
00000350: 2e0b abbc 3039 b4bd a91b 5ebd b6aa 59bd
00000360: 707b 9f3c 75b8 96bc 1048 e8bd eacf 83bd
00000370: 04bb e5bd 70eb 8d3d 8d90 85bd 9099 22bd
00000380: bb7f b33d 54e3 0e3e 3c54 85bb 7456 093d
00000390: 5b75 d2bc 2704 34bd 399b eebd 6cbd d5bd
000003a0: 3606 9fbc 3a1f ad3d b040 c93c c4fc 873d
000003b0: ea3f fdbd a536 20be 21f6 3e3d 9365 bfbd
000003c0: 8ea1 453d 982b 4bbc 7adf 87bd eb22 993d
000003d0: 629c e33d 74a9 7b3c 8931 b3bd 2b0c 9e3d
000003e0: 369c 7ebd 4456 e93d 3ea8 d3bc f958 09bd
000003f0: 44e9 9abd 02b9 063d dfe9 adbc a107 333d

encoder.layers.0.self_attn.W_K.weight f4 [60, 100]
0.07590226 0.06649677 0.11357652 0.011436399 0.076276034 0.031548407 -0.0024481674 0.04437663
-0.11699998 -0.12953676 0.023250608 -0.087828785 0.059356183 -0.055658482 -0.015982497 -0.12588602
0.063454084 0.04823164 0.029116947 -0.054745406 0.051819026 -0.021409405 0.0995922 -0.09096176
0.12094052 0.077944234 -0.019434694 -0.051416714 -0.12257951 -0.1017983 0.06508623 -0.0025417705
-0.13071086 0.103815906 -0.091226034 -0.0016125799 -0.0744897 0.052848805 -0.058690116 0.076712295
0.035834957 -0.031542074 0.0026017465 -0.044290163 0.10939717 -0.0835663 0.008919327 -0.009950945
0.010733658 0.028166855 -0.078915894 -0.011628971 0.07497853 -0.11644767 -0.13610885 -0.087963425
-0.11682284 -0.049756747 0.051796664 0.052879818 -0.11966292 -0.06618471 -0.0598145 -0.02454534
-0.124756925 0.025093976 0.028763877 -0.000956518 -0.06582651 0.03352312 0.07188786 0.06338053
-0.043897767 0.03063956 -0.019045705 0.065991096 0.03885357 0.0011627116 0.0035536487 -0.046768833
0.09076685 0.11045704 0.07901372 0.055822242 -0.11294418 -0.0798569 -0.02796294 0.11818662
-0.10975136 -0.035645828 0.047240842 -0.10398138 0.08932209 0.082083784 0.16007452 0.028772414
0.008810531 -0.05420265 0.07381974 0.02024795 -0.10468745 -0.01582461 -0.002619912 -0.01717239
-0.05776122 0.07321281 0.03349447 -0.1024735 0.058379833 -0.030568115 -0.03733715 -0.00058891415
0.0006930866 -0.03129806 0.062383227 -0.07036247 -0.080903076 0.088697076 0.0766172 -0.10147307
-0.008962322 0.1081199 -0.041121576 -0.0053384076 0.059202842 -0.012095983 0.03665609 0.06856401
-0.0069476776 0.032593228 0.147013 0.14544868 0.0062587326 0.01821504 0.07515446 -0.057528544
0.10388451 0.028444627 0.014856687 -0.11422746 0.057825975 0.03238054 0.008257457 0.09994253
-0.040600374 0.101017244 -0.011418556 -0.09407472 0.041759025 0.015390485 -0.029185396 -0.063560836
-0.023614861 0.05414875 0.04912552 0.04971125 -0.0017860866 -0.061941765 0.04663072 0.12561741
-0.07556055 0.13348705 -0.05817104 -0.02490454 -0.030022288 0.035440665 -0.06995301 0.061031707
-0.013766922 0.04939355 -0.049154043 0.013465312 0.08198271 -0.047485966 0.031046199 -0.050643343
0.034005072 -0.015712712 0.023257015 0.0641634 -0.018717514 -0.07084238 -0.007299793 -0.015206455
-0.054320958 -0.08030049 0.042255357 -0.04624422 -0.013525794 -0.07793066 0.08409584 0.07961418
-0.09090909 -0.040539782 0.066384785 0.050422247 0.07037671 0.104127444 0.00037598374 0.050949436
0.091129735 0.00820756 0.0441536 -0.06211731 0.07170425 -0.030770488 0.012104063 -0.018572725
-0.16365181 0.06094909 0.1260467 0.037025094 -0.009840159 0.047451146 -0.03345434 0.124459535
0.10376824 -0.02050546 0.030803297 -0.030262526 -0.12316747 0.043581598 0.089146234 -0.058848675
-0.09141847 -0.113355 0.03197415 0.026325254 -0.059209395 -0.050769188 -0.037174467 -0.07718396
0.034099393 -0.1208635 -0.12583655 -0.061889313 0.019629953 -0.032866765 -0.03267446 0.06221784
0.03378436 0.043562006 -0.113396086 0.04757346 0.04451705 -0.046247125 0.050791997 -0.025217572
-0.0029884162 -0.066670254 0.005592213 0.025003694 -0.00041348263 -0.08661721 0.10158256 0.0213685
00000000: a572 9b3d 752f 883d ce9a e83d bc5f 3b3c
00000010: 9c36 9c3d e738 013d 6f71 20bb 45c4 353d
00000020: af9d efbd 49a5 04be 0f78 be3c 94df b3bd
00000030: 781f 733d 26fa 63bd baed 82bc 44e8 00be
00000040: 37f4 813d 8a8e 453d aa86 ee3c b83c 60bd
00000050: 3040 543d c762 afbc fff6 cb3d 294a babd
00000060: aaaf f73d 3aa1 9f3d 8235 9fbc 559a 52bd
00000070: f70a fbbd a17b d0bd ee4b 853d d593 26bb
00000080: 11d9 05be 6f9d d43d b7d4 babd 345d d3ba
00000090: 0e8e 98bd fd77 583d 0c65 70bd 561b 9d3d
000000a0: adc7 123d 4332 01bd 1082 2a3b 9a69 35bd
000000b0: a00b e03d cf24 abbd 5e22 123c 4a09 23bc
000000c0: 3adc 2f3c 2dbe e63c a89e a1bd 7187 3ebc
000000d0: 588e 993d 1e7c eebd 1e60 0bbe 2b26 b4bd
000000e0: d040 efbd bbcd 4bbd bd28 543d 8298 583d
000000f0: d511 f5bd d98b 87bd 0d00 75bd 4f13 c9bc
00000100: 8f80 ffbd e291 cd3c 39a2 eb3c d6be 7aba
00000110: 0dd0 86bd 8a4f 093d f139 933d a7cd 813d
00000120: 25ce 33bd d1ff fa3c bd05 9cbc 5726 873d
00000130: ec24 1f3d 2166 983a 55e4 683b ad90 3fbd
00000140: f8e3 b93d 4d37 e23d f2d1 a13d dda5 643d
00000150: 474f e7bd 048c a3bd 8912 e5bc d40b f23d
00000160: 52c5 e0bd 5c01 12bd 9d7f 413d 31f4 d4bd
00000170: 80ee b63d 8b1b a83d 93ea 233e 20b4 eb3c
00000180: 0c5a 103c 9903 5ebd ce2e 973d 07df a53c
00000190: 6066 d6bd 9da2 81bc d4b2 2bbb 1dad 8cbc
000001a0: 0797 6cbd 99f0 953d 7f31 093d a0dd d1bd
000001b0: b11f 6f3d fc69 fabc d7ee 18bd 5c61 1aba
000001c0: 41b0 353a 6532 00bd 8e85 7f3d 331a 90bd
000001d0: 83b0 a5bd d0a6 b53d 7be9 9c3d 1dd1 cfbd
000001e0: b4d6 12bc f76d dd3d 196f 28bd cfed aebb
000001f0: ae7e 723d 3b2e 46bc b224 163d 4a6b 8c3d
00000200: 58a9 e3bb 7a80 053d 938a 163e 80f0 143e
00000210: 0e16 cd3b b537 953c 95ea 993d 0da3 6bbd
00000220: 67c1 d43d b504 e93c 7669 733c 16f0 e9bd
00000230: eeda 6c3d 75a1 043d 494a 073c abae cc3d
00000240: 944c 26bd 21e2 ce3d e514 3bbc 3faa c0bd
00000250: 830b 2b3d 5f28 7c3c 3616 efbc 2f2c 82bd
00000260: f473 c1bc 14cb 5d3d d737 493d 069e 4b3d
00000270: 1f1b eaba a6b6 7dbd dbff 3e3d daa1 003e
00000280: 7dbf 9abd d4b0 083e c244 6ebd 9b04 ccbc
00000290: 4df1 f5bc 3b2a 113d 8643 8fbd 62fc 793d
000002a0: a88e 61bc e450 4a3d c055 49bd 9d9d 5c3c
000002b0: 8de6 a73d a580 42bd 9954 fe3c 656f 4fbd
000002c0: e748 0b3d f2b7 80bc 7f85 be3c 1a68 833d
000002d0: 7955 99bc cf15 91bd 1a33 efbb 7f24 79bc
000002e0: a77f 5ebd 9574 a4bd f413 2d3d 946a 3dbd
000002f0: 4b9b 5dbc 1c9a 9fbd 713a ac3d c20c a33d
00000300: 8c2e babd 0b0d 26bd bff4 873d 8f87 4e3d
00000310: aa21 903d c540 d53d af1f c539 5bb0 503d
00000320: 3aa2 ba3d 0079 063c 68da 343d b86e 7ebd
00000330: aed9 923d 6412 fcbc 1f50 463c d425 98bc
00000340: 5794 27be c1a5 793d 6312 013e a0a7 173d
00000350: 9e38 21bc 225c 423d 6b07 09bd a4e4 fe3d
00000360: 7184 d43d 11fb a7bc 3257 fc3c 1ee9 f7bc
00000370: 3a3f fcbd 9e82 323d 4d92 b63d 4f0b 71bd
00000380: 9b39 bbbd ab26 e8bd 54f7 023d 0fa8 d73c
00000390: 8d85 72bd 5af3 4fbd 4144 18bd a012 9ebd
000003a0: ceab 0b3d 4887 f7bd 4cdb 00be a67f 7dbd
000003b0: ffce a03c 4d9f 06bd a8d5 05bd 22d8 7e3d
000003c0: 7861 0a3d 136e 323d 353c e8bd 63dc 423d
000003d0: 8357 363d a06d 3dbd 450b 503d 1595 cebc
000003e0: 4ed9 43bb 6a8a 88bd e23e b73b 8cd4 cc3c
000003f0: b3c8 d8b9 5d64 b1bd 840a d03d fe0c af3c

encoder.layers.0.self_attn.W_V.weight f4 [60, 100]
-0.058938306 0.030500034 0.09757945 -0.007978665 0.009427677 -0.076909326 -0.16883568 -0.20760714
-0.023569606 -0.08003744 -0.08460214 0.05980111 0.14274548 -0.10164311 0.08523295 -0.0037640047
-0.01985566 0.1358607 0.034237683 -0.06113763 -0.030677203 -0.10388302 0.052250415 0.19857858
0.01901445 0.05107374 -0.14185023 0.010228144 0.043669153 0.01923621 0.113601655 0.015216587
0.0042169862 0.085645795 -0.055527497 -0.11709849 -0.041140363 -0.0032322016 0.17253982 -0.034111157
-0.0042503676 0.05329128 -0.012181258 0.14675756 -0.15203139 0.035910953 0.12720324 -0.005379502
-0.011558797 -0.052860845 0.09743253 0.05999897 0.036490534 -0.008528502 -0.112430155 0.027237171
-0.17391452 -0.08943147 0.09572689 0.12905109 0.06357854 0.119283915 0.066350356 0.13473544
-0.10747661 -0.016346442 -0.003452725 0.002763564 0.06273939 0.014716797 -0.12186186 -0.07079163
-0.101496965 -0.00041672232 0.09733509 0.012468398 0.011156271 -0.013183177 0.11872433 0.007557398
0.15664609 -0.03304616 0.058311485 -0.06321096 -0.039860696 0.005446935 -0.033703666 0.13592064
0.07206025 -0.09547685 -0.010957329 0.050844494 0.10871341 -0.0511944 0.096459515 0.0344858
0.03920194 0.02083921 -0.05107441 0.115702845 0.0147045795 0.05490856 -0.0231266 0.039543163
0.067040704 -0.109794706 0.046252105 -0.1538236 -0.06093564 -0.03739638 0.023873115 0.032098033
0.05682674 0.13523446 0.1203457 0.00054287666 -0.10757571 -0.10852271 0.039366864 -0.06643728
0.07781818 0.012365501 -0.084239565 0.04589765 -0.03808289 -0.08427881 0.0012034813 0.031924237
-0.038752545 -0.09610466 0.008980535 0.007189914 0.04438117 0.0642959 -0.012779374 -0.15628721
0.05501705 0.0012039247 -0.0024030863 0.0012961176 0.04849442 0.037742235 -0.042416703 0.038342565
-0.040300246 -0.014865385 0.07569265 -0.07240715 0.06576065 0.028131384 -0.11398146 -0.024894927
0.021325689 0.002896889 0.03889373 -0.062687896 -0.17379957 -0.050941486 -0.029401045 0.03229555
0.09674448 0.033711992 0.053307157 -0.01108153 -0.0035828338 0.012565753 0.024104277 -0.06021938
-0.0063206786 -0.019017166 -0.049074102 -0.07589208 0.08393263 -0.02678705 0.019176822 0.046166047
-0.024199244 -0.102309175 0.03539221 0.089281075 0.039745554 -0.18450484 0.036333267 0.061839636
-0.00012311107 0.1229393 0.03281199 0.09852992 0.019936655 -0.03252418 -0.0019196095 0.08648172
-0.02482767 0.013490163 0.077702984 -0.07673494 -0.009585483 0.04174621 0.039366137 -0.06206687
0.07001394 -0.031633332 0.009951785 0.11886077 -0.028771069 0.056889903 -0.046055064 0.03468379
-0.021826446 -0.03985708 0.051871024 -0.016910281 -0.060766105 0.012848019 -0.074034005 -0.049727473
0.11801657 -0.058885988 -0.0851315 0.11665694 -0.06303551 -0.049116947 -0.07434479 -0.095514566
-0.003057953 0.06898213 0.030623563 -0.04866891 -0.00026292735 0.11200463 -0.1474563 0.10672253
0.004580183 0.048114173 0.055467788 0.15557623 0.028077608 -0.044205718 -0.17903909 0.0019119916
-0.05544042 -0.07958267 -0.015847396 -0.12200852 0.16899668 0.017459774 -0.09804365 0.079826966
0.027171459 -0.053033266 0.0061788415 0.009286236 -0.15557753 0.15942304 -0.025020542 -0.08991787
00000000: 4b69 71bd 35db f93c bcd7 c73d f2b8 02bc
00000010: 8b76 1a3c a382 9dbd 43e3 2cbe f796 54be
00000020: 0c15 c1bc abea a3bd e343 adbd 02f2 743d
00000030: df2b 123e 432a d0bd 9d8e ae3d 85ad 76bb
00000040: 56a8 a2bc 111f 0b3e d03c 0c3d 746b 7abd
00000050: c24e fbbc 9fc0 d4bd 8804 563d 2f58 4b3e
00000060: 31c4 9b3c b332 513d 3041 11be f293 273c
00000070: 6dde 323d 4295 9d3c fca7 e83d fe4e 793c
00000080: a52e 8a3b 1067 af3d cd70 63bd 55d1 efbd
00000090: cc82 28bd 58d3 53bb 47ae 303e 24b8 0bbd
000000a0: ab46 8bbb f547 5a3d e693 47bc 9d47 163e
000000b0: 1eae 1bbe 5d17 133d 9141 023e 8946 b0bb
000000c0: 1c61 3dbc 9d84 58bd b58a c73d 7bc1 753d
000000d0: 1977 153d 21bb 0bbc c841 e6bd 7d20 df3c
000000e0: a616 32be d927 b7bd 760c c43d f825 043e
000000f0: 7735 823d 204b f43d b2e2 873d 16f8 093e
00000100: b21c dcbd f9e8 85bc 1d47 62bb e91c 353b
00000110: 827d 803d b81e 713c b692 f9bd 34fb 90bd
00000120: a4dd cfbd 867b dab9 9f57 c73d 4048 4c3c
00000130: cbc8 363c 41fe 57bc be25 f33d 0da4 f73b
00000140: d567 203e 695b 07bd 06d8 6e3d bf74 81bd
00000150: f844 23bd 347c b23b db0c 0abd c82e 0b3e
00000160: 5394 933d 5e89 c3bd 5e86 33bc 5142 503d
00000170: 23a5 de3d 38b1 51bd 918c c53d fb40 0d3d
00000180: 3792 203d feb6 aa3c 6733 51bd 9df5 ec3d
00000190: 7aeb 703c cce7 603d ff73 bdbc 03f8 213d
000001a0: a34c 893d 0cdc e0bd d972 3d3d ef83 1dbe
000001b0: a697 79bd f22c 19bd 8d91 c33c 3a79 033d
000001c0: 28c3 683d e77a 0a3e ce77 f63d d64f 0e3a
000001d0: a750 dcbd 2841 debd 263f 213d 4510 88bd
000001e0: 235f 9f3d ac98 4a3c cb85 acbd 2dff 3b3d
000001f0: cefc 1bbd 5e9a acbd 22be 9d3a fdc2 023d
00000200: fdba 1ebd 85d2 c4bd 1823 133c 5f99 eb3b
00000210: 08c9 353d 92ad 833d 9460 51bc c109 20be
00000220: 8f59 613d 02cd 9d3a 197d 1dbb 7de2 a93a
00000230: 16a2 463d 9a97 1a3d 23bd 2dbd 180d 1d3d
00000240: df11 25bd f28d 73bc c004 9b3d 334a 94bd
00000250: 85ad 863d ca73 e63c 1d6f e9bd 72f0 cbbc
00000260: 36b3 ae3c bcd9 3d3b 084f 1f3d 8362 80bd
00000270: 84f8 31be 05a8 50bd 76da f0bc 5748 043d
00000280: f821 c63d 9615 0a3d 9b58 5a3d 4e8f 35bc
00000290: facd 6abb 97e0 4d3c 5576 c53c 99a8 76bd
000002a0: b21d cfbb e3c9 9bbc ed01 49bd 4f6d 9bbd
000002b0: dfe4 ab3d 8470 dbbc b618 9d3c 9c18 3d3d
000002c0: 7e3d c6bc 7987 d1bd 6cf7 103d ffd8 b63d
000002d0: 3ccc 223d d6ee 3cbe 31d2 143d 8f4b 7d3d
000002e0: 6017 01b9 9ac7 fb3d dd65 063d 0eca c93d
000002f0: 3252 a33c 1338 05bd 689b fbba 541d b13d
00000300: 6663 cbbc d805 5d3c be22 9f3d 3527 9dbd
00000310: 6e0c 1dbc 13fe 2a3d 633e 213d d539 7ebd
00000320: 7863 8f3d f491 01bd d00c 233c 466d f33d
00000330: 4eb1 ebbc 6305 693d 3ca4 3cbd 9710 0e3d
00000340: 60cd b2bc 2d41 23bd b676 543d 6e87 8abc
00000350: e1e5 78bd 7f80 523c 249f 97bd 09af 4bbd
00000360: acb2 f13d 6f32 71bd 6d59 aebd d5e9 ee3d
00000370: c318 81bd da2e 49bd 1542 98bd 249d c3bd
00000380: f067 48bb 8146 8d3d 44de fa3c 0d59 47bd
00000390: 83d9 89b9 af62 e53d c9fe 16be 5891 da3d
000003a0: 5c15 963b 5e13 453d 3132 633d 604f 1f3e
000003b0: 0303 e63c 0e11 35bd 0656 37be cb9b fa3a
000003c0: 7e15 63bd 3dfc a2bd 66d2 81bc 9adf f9bd
000003d0: 770d 2d3e cd07 8f3c 1ccb c8bd 527c a33d
000003e0: ae96 de3c 6939 59bd e177 ca3b 4c25 183c
000003f0: b74f 1fbe cb3f 233e e1f7 ccbc dc26 b8bd

encoder.layers.0.self_attn.W_O.weight f4 [100, 60]
-0.09809477 -0.09369364 -0.084418744 -0.101387925 -0.14456008 0.008251712 -0.0023291365 -0.0900377
0.10585388 -0.019312633 -0.014682643 -0.06052459 0.0016494935 -0.102952525 -0.05659332 -0.020202065
-0.08411662 0.10477469 -0.06753963 0.042888895 0.00038724745 -0.0025178604 0.06697682 -0.071104266
-0.10392483 -0.13785638 -0.027971609 -0.08314405 -0.023654006 0.035634007 -0.09572514 -0.119739264
0.09842394 -0.06482766 -0.14130242 -0.02439199 0.032877404 0.13615116 -0.052236244 -0.12388352
0.009494044 0.08272994 0.12834886 -0.14131968 0.08916119 -0.08357471 -0.025674766 -0.095160775
0.06446768 0.03169192 0.0496206 0.13944085 0.0017988171 -0.016520204 -0.14988106 -0.11620539
0.098577596 0.08294072 -0.05861018 0.03589264 0.073389284 0.14738962 -0.052684586 -0.048873797
0.14999823 -0.075294584 -0.06269044 0.033064634 -0.004403968 -0.055897884 0.07418684 0.15303178
-0.10853571 0.01177832 0.093331344 -0.14899512 0.010361377 -0.18356419 0.0044028345 0.053241845
-0.030535959 0.106206976 0.16551358 -0.07827563 -0.004042854 -0.0016196006 0.009241762 0.13091134
-0.15113235 0.06295165 -0.018982856 0.10366889 0.08621797 0.046523716 0.08332997 -0.06598925
0.109735936 0.13607161 0.14857039 0.07907505 -0.030783638 0.0018799256 -0.09159097 -0.03767905
-0.013125363 0.044812445 -0.11546225 -0.075838745 -0.060049437 -0.09773666 0.0790879 0.08682251
0.14253204 -0.12200551 0.051524803 0.030820465 -0.0038912992 -0.025243262 0.013562048 -0.030716531
0.022532873 -0.06225009 0.027742585 0.104009025 0.012656179 0.078595154 0.059888095 -0.01723752
-0.1447668 0.048996318 -0.06103342 0.058152676 0.03014684 0.0976923 -0.008602097 -0.015952123
-0.02749809 -0.02840716 -0.13636178 0.061282903 0.1403036 0.04663702 0.018148411 -0.019785143
0.08030824 0.040808935 -0.10665104 0.034520518 -0.02781562 -0.06387326 0.020614987 -0.0674754
0.107949205 -0.04315649 0.07161618 -0.044002153 0.13438183 0.034686778 0.05426522 -0.16094755
-0.083762236 -0.20927458 0.15552537 -0.19582634 -0.063249014 -0.1015827 -0.17410234 0.14094792
0.028376685 0.04589475 -0.14625746 0.10422243 0.13340531 0.097068794 -0.20160085 -0.23653476
-0.047481764 0.19949333 0.062367328 -0.09099525 -0.10767464 -0.105817586 0.109796464 0.109548286
-0.029942868 0.13943024 -0.045214977 -0.12451735 0.19947596 -0.060840186 0.06955593 -0.0139518
0.015073608 0.13615228 -0.086542174 0.10968174 0.12981987 -0.09838833 0.06252462 0.06009579
0.033557918 -0.02589904 -0.09254719 -0.1003228 0.0032012751 0.1048142 -0.01549851 -0.045818146
-0.019721372 0.15639938 -0.038600504 0.050984375 -0.09947655 -0.122127436 0.06591591 0.08523598
0.112933606 -0.11490642 0.027696336 0.20731394 0.10460524 0.14618835 -0.084178455 0.2529245
-0.036725298 -0.104216896 0.029384384 0.016366638 0.084994026 -0.102461606 0.053109482 -0.040597167
-0.06072703 0.056592878 0.16293171 0.022990763 -0.05381403 -0.20598878 -0.111998916 -0.059042428
0.076837376 -0.029615842 -0.14404283 -0.105673485 0.12810999 -0.17896767 0.10848369 0.038066156
0.017774811 0.054583356 -0.033531953 0.113506235 0.018622968 0.14728735 0.094856545 -0.15480639
00000000: e9e5 c8bd 73e2 bfbd bce3 acbd 79a4 cfbd
00000010: 8f07 14be 3032 073c 6da4 18bb b065 b8bd
00000020: ebc9 d83d 8735 9ebc 788f 70bc a2e8 77bd
00000030: d133 d83a c6d8 d2bd 66ce 67bd cd7e a5bc
00000040: 5645 acbd 1d94 d63d 3852 8abd 44ac 2f3d
00000050: 7907 cb39 b002 25bb 252b 893d 1d9f 91bd
00000060: 8bd6 d4bd 392a 0dbe b724 e5bc 6d47 aabd
00000070: 0cc6 c1bc f7f4 113d 8b0b c4bd dc39 f5bd
00000080: 7e92 c93d 5dc4 84bd 95b1 10be b6d1 c7bc
00000090: 75aa 063d 366b 0b3e acf5 55bd a5b6 fdbd
000000a0: e88c 1b3c 516e a93d e26d 033e 1bb6 10be
000000b0: 249a b63d 3829 abbd e353 d2bc a7e3 c2bd
000000c0: a207 843d 63cf 013d f83e 4b3d 95c9 0e3e
000000d0: 49c6 eb3a 6155 87bc 6c7a 19be 17fd edbd
000000e0: 0de3 c93d d3dc a93d 3a11 70bd 2904 133d
000000f0: 1f4d 963d 4eed 163e cbcb 57bd e42f 48bd
00000100: 2399 193e 0c34 9abd d863 80bd c86e 073d
00000110: 294f 90bb 2ef5 64bd 45ef 973d 5db4 1c3e
00000120: f847 debd dbf9 403c 8124 bf3d 2d92 18be
00000130: c4c2 293c 40f8 3bbe a745 903b 1f14 5a3d
00000140: 8c26 fabc 0b83 d93d 647c 293e f94e a0bd
00000150: eb79 84bb c748 d4ba c26a 173c 9f0d 063e
00000160: 70c2 1abe cbec 803d ef81 9bbc 5b50 d43d
00000170: 0c93 b03d a78f 3e3d e7a8 aa3d 5f25 87bd
00000180: 3cbd e03d 5b56 0b3e d622 183e 1af2 a13d
00000190: f82d fcbc d667 f63a 0c94 bbbd 5955 1abd
000001a0: c30b 57bc 418d 373d 7977 ecbd 5851 9bbd
000001b0: 66f6 75bd 282a c8bd d6f8 a13d 00d0 b13d
000001c0: ebf3 113e 06de f9bd ac0b 533d 337b fc3c
000001d0: 2b05 7fbb f5ca cebc 5a33 5e3c 3ca1 fbbc
000001e0: dc96 b83c f3f9 7ebd 6b44 e33c af02 d53d
000001f0: dd5b 4f3c 7ff6 a03d 384d 753d b335 8dbc
00000200: bf3d 14be 5db0 483d 2efe 79bd 8031 6e3d
00000210: 81f6 f63c e712 c83d cfef 0cbc 07ae 82bc
00000220: ad43 e1bc 22b6 e8bc 6ca2 0bbe c803 7b3d
00000230: bfab 0f3e 7606 3f3d faab 943c 7414 a2bc
00000240: a678 a43d 4527 273d dc6b dabd 6365 0d3d
00000250: 95dd e3bc fccf 82bd c3e0 a83c 8b30 8abd
00000260: 7914 dd3d dcc4 30bd 81ab 923d 9a3b 34bd
00000270: 649b 093e b913 0e3d 3545 5e3d 6fcf 24be
00000280: 898b abbd 134c 56be 0b42 1f3e b386 48be
00000290: b388 81bd 970a d0bd e247 32be a754 103e
000002a0: 3976 e83c 22fc 3b3d 84c4 15be 9272 d53d
000002b0: 679b 083e 01cc c63d 7470 4ebe 2b36 72be
000002c0: 3d7c 42bd fb47 4c3e e274 7f3d b85b babd
000002d0: 8684 dcbd e4b6 d8bd f8dc e03d da5a e03d
000002e0: bf4a f5bc cdc6 0e3e 5733 39bd f402 ffbd
000002f0: 6d43 4c3e 8f33 79bd 5773 8e3d 1796 64bc
00000300: 4bf7 763c 816b 0b3e 063d b1bd d2a0 e03d
00000310: 80ef 043e d27f c9bd e80c 803d 0127 763d
00000320: 0774 093d 392a d4bc 6289 bdbd 0a76 cdbd
00000330: 7ccc 513b d4a8 d63d 76ed 7dbc cfab 3bbd
00000340: b78e a1bc 2927 203e 901b 1ebd fed4 503d
00000350: 5dba cbbd f31d fabd ecfe 863d 3490 ae3d
00000360: bc49 e73d 0f54 ebbd 6de3 e23c 1b4a 543e
00000370: 463b d63d 66b2 153e c165 acbd 527f 813e
00000380: 446d 16bd ab6f d5bd 85b7 f03c 5413 863c
00000390: 5911 ae3d 64d7 d1bd 5489 593d 3749 26bd
000003a0: e8bc 78bd efcd 673d 92d7 263e 2057 bc3c
000003b0: 1a6c 5cbd b9ee 52be b05f e5bd 79d6 71bd
000003c0: ea5c 9d3d ec9c f2bc f77f 13be 576b d8bd
000003d0: 442f 033e 4d43 37be b22c de3d 42eb 1b3d
000003e0: 7b9c 913c cc92 5f3d cd58 09bd f575 e83d
000003f0: 328f 983c 7fd2 163e 2644 c23d 9185 1ebe

encoder.layers.0.batchnorm_attn.1.weight f4 [100]
0.9679774 0.9160394 1.0205072 1.086283 0.98836017 0.96340394 0.9765278 0.9281851
0.93553334 1.0170041 0.9935957 1.020252 0.92886543 0.91315657 1.0149531 0.977716
0.9261439 0.99558693 1.0083944 0.9898174 0.93923706 0.9793394 1.0140251 0.9757091
0.9982558 0.9876104 0.9987149 0.9484846 0.9263656 0.96153295 0.96333283 0.955823
1.0147877 0.9698889 0.9948827 0.9641934 0.9579838 0.92258424 0.94870627 0.9589278
0.9263923 0.9294875 0.98338443 1.0412943 1.046801 1.0759311 1.0013732 1.0554107
0.9897795 1.023005 1.002538 0.92634964 1.0695524 1.0872082 0.9741377 1.1119213
0.9810137 1.0666794 0.9881918 1.0349609 0.9282104 0.9433533 1.0042982 1.0234851
1.021096 1.0275722 1.0989407 0.9683946 1.0434952 1.0376714 1.0730629 1.0067568
1.0516107 0.96383893 1.0094625 1.0404456 0.9298669 1.0586644 0.98238564 1.0217067
1.0254751 1.0129358 1.0249395 0.97220606 0.97513807 0.93611586 0.99260706 0.982419
0.9551947 0.98304844 1.0537508 1.0307902 1.0922934 0.92757773 0.98247814 1.0392792
0.9629386 1.0189989 0.94680446 0.9714283
00000000: 5ecd 773f 8f81 6a3f fb9f 823f 520b 8b3f
00000010: 2c05 7d3f a4a1 763f bafd 793f 8a9d 6d3f
00000020: 1d7f 6f3f 312d 823f 4a5c 7e3f 9e97 823f
00000030: 20ca 6d3f a1c4 693f fce9 813f 994b 7a3f
00000040: c417 6d3f c9de 7e3f 1113 813f ac64 7d3f
00000050: d771 703f fdb5 7a3f 93cb 813f 12c8 793f
00000060: b18d 7f3f 09d4 7c3f c8ab 7f3f e3cf 723f
00000070: 4c26 6d3f 0627 763f fb9c 763f d1b0 743f
00000080: 90e4 813f a44a 783f a2b0 7e3f 61d5 763f
00000090: 6d3e 753f 7b2e 6c3f 6ade 723f 4b7c 753f
000000a0: 0c28 6d3f e5f2 6d3f 15bf 7b3f 2249 853f
000000b0: 93fd 853f 1cb8 893f ff2c 803f b317 873f
000000c0: 3062 7d3f d4f1 823f 2a53 803f 4025 6d3f
000000d0: 18e7 883f a329 8b3f 1761 793f 7053 8e3f
000000e0: b723 7b3f f388 883f 23fa 7c3f 9979 843f
000000f0: 329f 6d3f 9a7f 713f d88c 803f 8f01 833f
00000100: 46b3 823f 7c87 833f 17aa 8c3f b5e8 773f
00000110: 4091 853f 6bd2 843f 205a 893f 68dd 803f
00000120: 2e9b 863f 26be 763f 1136 813f 522d 853f
00000130: c20b 6e3f 5182 873f a07d 7b3f 49c7 823f
00000140: c542 833f e1a7 813f 3831 833f 7fe2 783f
00000150: a6a2 793f 4aa5 6f3f 7f1b 7e3f d07f 7b3f
00000160: a487 743f 10a9 7b3f 4ee1 863f eff0 833f
00000170: 45d0 8b3f bc75 6d3f b083 7b3f 1a07 853f
00000180: 2583 763f 8e6e 823f c761 723f 86af 783f

encoder.layers.0.batchnorm_attn.1.bias f4 [100]
0.10845181 -0.09880874 -0.0752081 0.019606052 -0.02731232 -0.07408973 0.08473334 0.069620766
-0.0045110118 0.051937014 0.029865308 -0.05562025 -0.08780029 0.042377476 0.07486192 0.0036150403
0.071030356 -0.08955313 0.070834175 0.08894445 -0.0724534 -0.026558831 -0.009192914 -0.06285027
0.067966126 -0.022807512 -0.018541621 0.08645597 0.11640083 0.026175825 -0.09867367 -0.0056820386
0.056830626 -0.048088938 0.08211967 0.11803498 0.118478455 -0.08344699 0.07730209 -0.07645547
0.060711704 0.08445582 0.02872125 0.023860404 0.09821426 0.04522599 -0.0650415 -0.046160217
0.036814712 0.07864295 -0.0676967 -0.041952647 -0.049094416 0.071229525 0.0416679 0.06938834
0.09108651 -0.05161879 -0.08234791 0.087734684 0.09131848 -0.10894679 -0.07902249 -0.0037379933
0.09030328 -0.07309214 -0.020200565 0.09379841 0.08006665 0.08207932 -0.008686573 0.058497492
-0.04966571 -0.114077 -0.10532406 -0.11557741 0.08129172 0.068363726 -0.066264644 -0.039099593
-0.06371699 0.06862264 -0.04426611 -0.031912893 0.11645624 -0.0224265 -0.051052183 -0.065281756
-0.07172659 0.05522372 -0.10047857 -0.027739977 -0.009482775 0.107108265 -0.08218549 0.06367567
-0.036955304 -0.07179508 -0.03405216 -0.08307953
00000000: fc1b de3d 3d5c cabd b406 9abd df9c a03c
00000010: 16be dfbc 5bbc 97bd ac88 ad3d 5595 8e3d
00000020: 1cd1 93bb e8bb 543d 17a8 f43c 0fd2 63bd
00000030: a3d0 b3bd 0194 2d3d 3551 993d 50ea 6c3b
00000040: 5d78 913d a267 b7bd 8211 913d 8228 b63d
00000050: 7362 94bd e891 d9bc e09d 16bc a4b7 80bd
00000060: d331 8b3d d2d6 babc 99e4 97bc d40f b13d
00000070: 8f63 ee3d af6e d63c 6c15 cabd 6530 babb
00000080: 3bc7 683d e8f8 44bd 5c2e a83d 53bc f13d
00000090: d5a4 f23d 41e6 aabd 8f50 9e3d af94 9cbd
000000a0: d6ac 783d 2cf7 ac3d d448 eb3c e576 c33c
000000b0: 8f24 c93d e33e 393d 7a34 85bd 7f12 3dbd
000000c0: 06cb 163d 8e0f a13d 91a4 8abd 8ad6 2bbd
000000d0: 3a17 49bd c9e0 913d f6ab 2a3d 791b 8e3d
000000e0: 908b ba3d 396e 53bd 05a6 a8bd 3eae b33d
000000f0: 2f05 bb3d 7f1f dfbd 8bd6 a1bd 1ff9 74bb
00000100: edf0 b83d 55b1 95bd a87b a5bc 6119 c03d
00000110: fcf9 a33d 3419 a83d 2152 0ebc 119b 6f3d
00000120: 466e 4bbd 34a1 e9bd 24b4 d7bd d9b3 ecbd
00000130: 467c a63d 4802 8c3d c2b5 87bd e526 20bd
00000140: 0e7e 82bd 078a 8c3d 6150 35bd 18b7 02bd
00000150: 9c80 ee3d c8b7 b7bc 181c 51bd 71b2 85bd
00000160: 64e5 92bd 4432 623d b5c7 cdbd f33e e3bc
00000170: a45d 1bbc 945b db3d de50 a8bd 6468 823d
00000180: 725e 17bd 4d09 93bd 477a 0bbd 9a25 aabd

encoder.layers.0.batchnorm_attn.1.running_mean f4 [100]
0.07614056 -0.58967716 -1.6153557 0.48260486 -1.366097 -0.4171014 1.1393746 0.5847312
-0.71304494 0.111023925 1.1663902 -1.1949652 -0.8617472 1.183262 -0.14312038 0.6634502
1.1180207 -0.24462013 0.022309162 1.3101146 -0.74026686 -0.3188653 -0.004830802 -1.0733922
0.24718155 -0.20627277 -0.21217793 -0.023576662 1.5404776 0.024194364 -1.0512785 -0.7999812
1.2114055 -0.5652636 0.6002146 0.9944225 -0.4657298 -0.9489124 1.0386983 -1.1005604
0.3107334 0.07347366 1.1343066 0.11312001 -0.237461 0.7929556 -1.1640165 -0.055067398
0.12454854 0.822127 -0.5361824 -0.42578056 -0.70125955 0.5424297 0.092593044 -0.67187905
0.8370275 0.056212604 -1.0503421 -1.2349324 1.2159076 0.048365418 -0.8228693 -0.1250142
1.2848532 -0.15178625 -0.4468871 0.16158482 0.33489418 1.3929801 -0.4923325 0.053849377
0.52446723 -1.9437071 -1.2537466 -1.5389901 0.43282965 0.50403017 -0.9974717 0.19610535
0.3950281 -0.34715855 -0.9217411 -0.27051455 1.9951293 -0.86447734 -1.6312327 -1.1751647
-1.4369948 1.8794682 0.5256903 -0.974899 -0.44457024 0.2536709 -0.4648222 1.4536167
-0.7520736 -0.8172613 -0.31996277 -0.9951147
00000000: 95ef 9b3d 15f5 16bf fac3 cebf fc17 f73e
00000010: 44dc aebf 518e d5be 07d7 913f f2b0 153f
00000020: 1d8a 36bf 8360 e33d 464c 953f 9ff4 98bf
00000030: 779b 5cbf 2175 973f 268e 12be dfd7 293f
00000040: 4d1b 8f3f b37d 7abe b4c1 b63c d6b1 a73f
00000050: 2182 3dbf 5042 a3be b44b 9ebb ea64 89bf
00000060: 291d 7d3e 2b39 53be 2c45 59be d823 c1bc
00000070: 5f2e c53f 4233 c63c 4b90 86bf 91cb 4cbf
00000080: 560f 9b3f 1eb5 10bf aaa7 193f 7992 7e3f
00000090: 2374 eebe eceb 72bf 11f4 843f 2adf 8cbf
000000a0: 7318 9f3e 5c79 963d f530 913f 77ab e73d
000000b0: fa28 73be 23ff 4a3f 7efe 94bf 5a8e 61bd
000000c0: 4e13 ff3d ea76 523f 4043 09bf e9ff d9be
000000d0: bf85 33bf acdc 0a3f 6ca1 bd3d 4400 2cbf
000000e0: 6f47 563f 303f 663d 9c71 86bf 4412 9ebf
000000f0: dca2 9b3f d11a 463d 90a7 52bf b903 00be
00000100: 1276 a43f db6d 1bbe 63ce e4be 7e76 253e
00000110: 4077 ab3e 2c4d b23f 0113 fcbe 2a91 5c3d
00000120: 7c43 063f 65cb f8bf c57a a0bf a1fd c4bf
00000130: d99b dd3e 1f08 013f 4e5a 7fbf d7cf 483e
00000140: 2041 ca3e c4be b1be 3af7 6bbf e280 8abe
00000150: 6660 ff3f 634e 5dbf 3ccc d0bf cc6b 96bf
00000160: 72ef b7bf 6a92 f03f a493 063f fb92 79bf
00000170: b69e e3be 27e1 813e 2dfd edbe 1d10 ba3f
00000180: e587 40bf 0938 51bf 29d2 a3be d6bf 7ebf

encoder.layers.0.batchnorm_attn.1.running_var f4 [100]
6.9281225 9.904228 6.8091865 5.7908983 5.3444057 5.0230236 4.75885 9.175906
6.3576775 10.191464 7.0380774 6.412851 7.5681143 4.0311227 4.878362 8.171105
7.1093173 4.4325995 7.413928 5.2151575 4.531957 12.10362 4.1117454 6.1774044
5.1438317 10.050445 3.5567129 3.5439603 6.882637 7.3378477 5.1222134 4.7473884
6.3971033 4.2193584 2.8251572 3.4608235 5.977062 7.579757 5.500528 6.0975704
4.4855485 3.7114398 6.657527 4.9741836 4.5796742 4.1381965 3.2556973 6.863419
4.8799324 6.4324355 6.8539395 7.419344 6.307508 3.877406 9.90749 6.37035
7.797598 4.7089295 4.632789 6.9268866 8.78793 5.3399086 5.2495074 6.971901
11.364069 3.7839334 10.801248 7.715375 3.6128616 3.6474822 5.7882895 5.423885
8.628551 5.459622 4.8217163 10.066302 5.734836 7.8604035 7.0343513 5.5757947
3.4734564 14.967816 4.988714 5.3796225 4.627207 7.923087 10.025238 6.531428
8.968105 7.616378 8.928774 2.6826458 7.468564 3.7483947 6.5519843 15.720209
2.7993906 7.958837 7.862335 8.86607
00000000: 2eb3 dd40 b877 1e41 dbe4 d940 0a4f b940
00000010: 5f05 ab40 9cbc a040 8048 9840 83d0 1241
00000020: 1872 cb40 3d10 2341 ee37 e140 1336 cd40
00000030: fe2d f240 f5fe 8040 8b1b 9c40 d9bc 0241
00000040: 877f e340 dbd7 8d40 e63e ed40 92e2 a640
00000050: cb05 9140 6da8 4141 6b93 8340 4cad c540
00000060: 459a a440 9fce 2041 2fa1 6340 3fd0 6240
00000070: 903e dc40 a6cf ea40 2ce9 a340 9bea 9740
00000080: 12b5 cc40 fc04 8740 60cf 3440 227e 5d40
00000090: 1844 bf40 5f8d f240 5304 b040 4c1f c340
000000a0: 9d89 8f40 3b88 6d40 760a d540 832c 9f40
000000b0: b18c 9240 1b6c 8440 585d 5040 21a1 db40
000000c0: 6828 9c40 83d6 cd40 7953 db40 446b ed40
000000d0: 1bd7 c940 6b27 7840 1485 1e41 e8d9 cb40
000000e0: ec85 f940 8daf 9640 cf3f 9440 0ea9 dd40
000000f0: 5c9b 0c41 88e0 aa40 f7fb a740 d019 df40
00000100: 3ad3 3541 f72b 7240 e9d1 2c41 5ae4 f640
00000110: 2039 6740 5970 6940 ab39 b940 7790 ad40
00000120: 8b0e 0a41 39b5 ae40 804b 9a40 930f 2141
00000130: c783 b740 6d88 fb40 6819 e140 e96c b240
00000140: 1c4d 5e40 2d7c 6f41 8ca3 9f40 de25 ac40
00000150: 1412 9440 ee89 fd40 6067 2041 7501 d140
00000160: 5c7d 0f41 5eb9 f340 42dc 0e41 78b0 2b40
00000170: 7afe ee40 b3e5 6f40 dba9 d140 fa85 7b41
00000180: 3729 3340 cbae fe40 4098 fb40 6cdb 0d41

encoder.layers.0.ff.0.weight f4 [256, 100]
0.058418136 -0.08942287 -0.049444534 0.18394184 0.034359574 0.01849342 0.069555454 -0.058871415
-0.05791662 -0.029610112 0.12628976 -0.13967748 0.0033262044 -0.100996494 0.027284065 0.05108943
0.012464875 -0.07790691 -0.06843686 -0.09328135 -0.04171981 0.010334013 -0.011573828 0.05489921
0.0670582 0.036872208 -0.04748281 -0.032610055 -0.017973538 0.017690223 0.07264544 0.052153595
0.15037893 0.0034870035 -0.042069856 -0.004427198 -0.06694833 -0.032191075 0.10656219 -0.07613484
-0.071117304 0.08433481 0.15825981 0.15415236 -0.08917157 0.19498217 -0.049577903 -0.20924684
-0.06458846 -0.0010497738 0.025456749 0.047289547 -0.07567657 0.124704584 -0.011984947 0.21122754
0.15258029 -0.21698019 -0.10584357 -0.14236782 0.078644305 0.04930234 -0.07557106 0.009588833
0.06346105 -0.052303053 -0.20431402 -0.089610815 0.17181528 0.065655075 -0.02591853 -0.04104271
-0.17169736 -0.071299605 0.066236876 0.00046372454 -0.029820053 0.065812156 -0.0067876833 -0.032992996
0.10276237 -0.033179443 -0.090218425 0.0045845644 0.013066698 -0.0035323761 0.026669031 -0.0061751497
-0.0936962 -0.10501692 0.16700523 -0.034062512 -0.1599561 -0.06002247 -0.038274836 -0.09462703
0.088106856 -0.08823749 -0.042074084 -0.043905683 0.0026119472 -0.025544818 0.061477512 0.1186704
0.022973351 -0.071030155 -0.047330998 0.052344665 -0.07392745 -0.029372612 -0.091819845 -0.14115903
0.040921636 0.046456486 0.063791424 0.059201222 -0.030507773 -0.08545866 -0.039187107 0.045471452
-0.0121936845 0.0543364 0.05586505 -0.09304309 0.07339556 0.033614468 0.05989305 -0.012123401
0.04697806 -0.098123185 0.00033503535 -0.10612425 0.11429225 0.049146336 -0.028566012 -0.044364497
-0.07114885 -0.02180034 -0.06292709 -0.03148953 0.107042804 0.023883136 0.012890435 -0.00692936
-0.020200832 0.08735401 -0.08249003 -0.042477626 -0.006113389 0.0022635916 0.057986975 -0.06753885
-0.14554712 0.12616234 -0.03911365 0.13283408 0.105377406 -0.145633 0.07588566 -0.033355307
-0.060516816 -0.004993586 0.045491803 -0.032070152 -0.0853279 -0.023098066 -0.11659595 0.04090967
0.012253417 0.043770112 -0.111322805 -0.020045098 -0.05718366 0.0575512 0.081401914 0.02298195
0.08451794 0.026889345 -0.06014103 0.011830783 -0.0641255 0.12893488 -0.039759673 0.0056993915
0.043667674 0.024919134 0.025574375 -0.019956311 -0.036685415 0.056776002 0.031507537 0.06774875
-0.086282186 0.032689266 0.06465381 -0.12435789 -0.060941212 -0.028164713 0.011923769 0.013075355
-0.058504466 0.12475968 -0.114924885 0.06576073 0.018545682 -0.0111182695 -0.029140268 -0.13197887
0.021593586 -0.0021910632 -0.046511684 -0.025911747 -0.066818535 0.07613146 0.06293055 -0.08344409
0.010035983 0.0564854 -0.056838345 -0.1023477 -0.013382151 0.082762234 -0.096891314 0.010652867
-0.03828702 0.01716676 0.10366679 0.029795343 0.08996899 -0.117261946 -0.020590942 -0.06676847
0.039078638 0.018646892 0.053007107 -0.036043677 0.026310163 0.041481033 0.08607759 -0.011948057
-0.06169577 -0.024104139 -0.07810884 -0.045779526 -0.057925534 -0.0004795818 -0.010336792 0.03224708
-0.117950015 0.059465397 0.05928371 0.14169784 -0.057242155 -0.0035694663 -0.0035645936 0.046674304
00000000: db47 6f3d 5623 b7bd 5a86 4abd 405b 3c3e
00000010: a0bc 0c3d 837f 973c 1773 8e3d 2723 71bd
00000020: fa39 6dbd e890 f2bc 1a52 013e 9d07 0fbe
00000030: 73fc 593b 40d7 cebd d582 df3c 2643 513d
00000040: 7a39 4c3c a88d 9fbd a028 8cbd 4b0a bfbd
00000050: 64e2 2abd fe4f 293c 27a0 3dbc fedd 603d
00000060: cf55 893d 5007 173d 567d 42bd 1f92 05bd
00000070: 3e3d 93bc 16eb 903c 22c7 943d 029f 553d
00000080: effc 193e 3686 643b 7151 2cbd 0712 91bb
00000090: 351c 89bd cada 03bd 473d da3d 95ec 9bbd
000000a0: f3a5 91bd bbb7 ac3d dc0e 223e 1eda 1d3e
000000b0: 969f b6bd 68a9 473e 3312 4bbd ce44 56be
000000c0: f446 84bd 9098 89ba ac8a d03c afb2 413d
000000d0: 51fc 9abd 1e65 ff3d 835c 44bc 084c 583e
000000e0: 023e 1c3e 0e30 5ebe 83c4 d8bd dfc8 11be
000000f0: 4410 a13d 40f1 493d 00c5 9abd 7b1a 1d3c
00000100: def7 813d ba3b 56bd b237 51be e085 b7bd
00000110: 58f0 2f3e 2b76 863d 1953 d4bc 671c 28bd
00000120: 6fd1 2fbe 8705 92bd 33a7 873d 0e20 f339
00000130: 2f49 f4bc 86c8 863d 376b debb aa23 07bd
00000140: 1475 d23d 2be7 07bd 70c4 b8bd 1d3a 963b
00000150: b415 563c 707f 67bb 0379 da3c e958 cabb
00000160: cbe3 bfbd 1c13 d7bd 6b03 2b3e 2285 0bbd
00000170: 88cb 23be 1fda 75bd 13c6 1cbd d1cb c1bd
00000180: 5e71 b43d dbb5 b4bd e055 2cbd 72d6 33bd
00000190: 342d 2b3b 5e43 d1bc d8cf 7b3d 7709 f33d
000001a0: 9c32 bc3c 4278 91bd 26de 41bd 5c67 563d
000001b0: 4667 97bd d59e f0bc 0b0c bcbd fe8b 10be
000001c0: 729d 273d 2849 3e3d 14a5 823d fb7c 723d
000001d0: 70eb f9bc f304 afbd a982 20bd 4640 3a3d
000001e0: 05c8 47bc d88f 5e3d c0d2 643d 608d bebd
000001f0: 6950 963d 53af 093d 6a52 753d 3ba1 46bc
00000200: 116c 403d cff4 c8bd afa7 af39 ac57 d9bd
00000210: 0e12 ea3d ab4d 493d 4503 eabc 8cb7 35bd
00000220: 7db6 91bd a096 b2bc ebdf 80bd 2afb 00bd
00000230: 4239 db3d 91a6 c33c 6732 533c af0f e3bb
00000240: 377c a5bc a9e6 b23d 88f0 a8bd 05fd 2dbd
00000250: d352 c8bb c458 143b c083 6d3d cf51 8abd
00000260: 4e0a 15be b330 013e a235 20bd a805 083e
00000270: 1cd0 d73d d120 15be f169 9b3d 939f 08bd
00000280: 7be0 77bd 3ca1 a3bb 9d55 3a3d fe5b 03bd
00000290: 65c0 aebd 2838 bdbc dcc9 eebd e690 273d
000002a0: 8ec2 483c 4a48 333d 36fd e3bd 9e35 a4bc
000002b0: 6a39 6abd cfba 6b3d 0cb6 a63d a444 bc3c
000002c0: be17 ad3d 0b47 dc3c 7156 76bd e7d5 413c
000002d0: 3b54 83bd 8107 043e 0adb 22bd f6c1 ba3b
000002e0: e0dc 323d 3623 cc3c 5a81 d13c 6b7b a3bc
000002f0: 7243 16bd f48d 683d 0c0e 013d dbbf 8a3d
00000300: b7b4 b0bd 2ee5 053d 3769 843d 59af febd
00000310: 7e9d 79bd afb9 e6bc e95b 433c 043a 563c
00000320: 61a2 6fbd 0182 ff3d bd5d ebbd 90ad 863d
00000330: 1ded 973c 6729 36bc 92b7 eebc 7825 07be
00000340: 08e5 b03c f197 0fbb 0983 3ebd df44 d4bc
00000350: 28d8 88bd d0ea 9b3d bbe1 803d bce4 aabd
00000360: f76d 243c 3c5d 673d 53cf 68bd ac9b d1bd
00000370: cf40 5bbc 3f7f a93d f46e c6bd 5d89 2e3c
00000380: dad2 1cbd 4ea1 8c3c 414f d43d 5d15 f43c
00000390: a941 b83d 0827 f0bd 56ae a8bc e8bd 88bd
000003a0: ec10 203d 5ec1 983c fb1d 593d 89a2 13bd
000003b0: 6988 d73c 04e8 293d 7349 b03d c9c1 43bc
000003c0: b4b4 7cbd 0b76 c5bc 87f7 9fbd 5083 3bbd
000003d0: 5343 6dbd 6170 fbb9 a65b 29bc 8415 043d
000003e0: c78f f1bd fd91 733d 7ad3 723d 3d19 113e
000003f0: c076 6abd b5ed 69bb f59b 69bb 8e2d 3f3d
