transformer_results_random_no_constants_no_param_tune/performance_prediction/PSO1-PSO2-PSO3-PSO4-PSO5-PSO6-PSO7-PSO8-PSO9-PSO10-PSO11-PSO12_random_no_constants_dim_3_samples_50_fold_9_budget_30_n_heads_2_n_layers_1_d_model_100_d_k_30_d_v_30_aggregations_mean/trained_model.pt (torch, 343801 bytes, 22 tensors)

weight f4 [100, 4]
0	0xbe69e582	-0.22841457
1	0x3e8a97a6	0.27068824
2	0xbece8b05	-0.40340438
3	0xbee13d38	-0.4399202
4	0x3e2e3c59	0.17015208
5	0xbe8d0521	-0.27542976
6	0x3cde1135	0.027107814
7	0x3f04cc59	0.5187431
8	0x3ec7b44b	0.3900474
9	0xbe171299	-0.14753188
10	0xbd7340e3	-0.059388053
11	0x3ea0a633	0.313768
12	0xbcf99a10	-0.03046897
13	0x3ec782f1	0.38967088
14	0x3edb235c	0.42800415
15	0x3e1f23e5	0.15541036
16	0xbd38c4d2	-0.045109577
17	0x3e91e581	0.2849541
18	0x3d2ab684	0.041677967
19	0xbf22c7e2	-0.63586247
20	0xbee193ff	-0.44058225
21	0xbc448f65	-0.011997079
22	0x3e946e6b	0.28990492
23	0x3f1e21d3	0.6177036
24	0xbef717ca	-0.48260337
25	0x3e8dd041	0.27697948
26	0x3ecf3716	0.40471715
27	0x3f059c55	0.5219167
28	0x3e34ddf2	0.1766279
29	0x3bf1bc1c	0.0073771607
30	0x3ea273a0	0.3172884
31	0xbf2b367e	-0.66880023
32	0x3e93b4ef	0.2884898
33	0x3da46994	0.0802795
34	0xbea3a572	-0.31962162
35	0x3f2d7d20	0.6776905
36	0x3e999266	0.29994506
37	0x3db9fdd6	0.090816185
38	0xbe4fc185	-0.20288666
39	0x3d9f5562	0.07779957
40	0x3e011b84	0.12608153
41	0x3e54c695	0.20778878
42	0x3e2120d4	0.15735179
43	0xbf0f5433	-0.5598785
44	0x3dafe198	0.085879505
45	0x3e9c2ade	0.30501455
46	0xbe97218b	-0.2951778
47	0xbf27b374	-0.655082
48	0xbe9a7433	-0.30166778
49	0x3dfd09a2	0.12355353
50	0x3ec48bd5	0.38387933
51	0x3eae1cf2	0.3400646
52	0x3e4cef80	0.20013237
53	0xbe4f460f	-0.20241569
54	0xbeda1a7f	-0.4259834
55	0x3ea9dac7	0.33174726
56	0x3cb88742	0.022525433
57	0x3eb09dc9	0.3449538
58	0x3d88d9dd	0.06682179
59	0x3e5cabbd	0.21549888
60	0xbe24d382	-0.16096309
61	0xbccc982a	-0.024974901
62	0x3d0ba40d	0.034091998
63	0x3dc87fd6	0.09790008
64	0x3ecefdae	0.40427917
65	0x3ec48290	0.3838086
66	0xbdd3bfe2	-0.10339333
67	0xbd9365b0	-0.0719713
68	0x3e6a7b64	0.22898632
69	0xbe57c401	-0.21070863
70	0x3d82b0c2	0.0638137
71	0xbf399f7a	-0.72508967
72	0x3e5af76a	0.21383443
73	0x3d131595	0.035909254
74	0xbead51cd	-0.33851472
75	0xbcd9f6bb	-0.026606908
76	0x3d743b41	0.05962682
77	0xbe87031e	-0.26369566
78	0xbd0703bf	-0.032962557
79	0x3f0b91ab	0.54519147
80	0x3cb3aba8	0.021932438
81	0x3e44d8aa	0.19223276
82	0xbe7dd30d	-0.2478754
83	0x3e9c94ee	0.30582374
84	0xbebc5afc	-0.36788166
85	0x3d9b0050	0.07568419
86	0xbe3873ec	-0.1801297
87	0xbe539aff	-0.20664595
88	0x3e8b8136	0.27247018
89	0xbe220d36	-0.15825352
90	0xbb88b02f	-0.0041713933
91	0x3f0e3239	0.55545384
92	0x3ed76ecd	0.42076722
93	0x3e445033	0.19171219
94	0xbe915cf3	-0.28391227
95	0x3cb47114	0.022026576
96	0xbebbe67c	-0.36699283
97	0x3ed4f0fe	0.41590112
98	0x3ca02887	0.019550575
99	0xbf0aa7d0	-0.5416231
100	0x3d3d3e8d	0.04620223
101	0x3e55e702	0.20888904
102	0x3e356bec	0.1771695
103	0x3f3cd3ff	0.7376098
104	0xbe5aae17	-0.21355473
105	0xbeb23d67	-0.3481247
106	0x3e6a6b7b	0.22892563
107	0xbf169c19	-0.58831936
108	0x3ec64428	0.38723874
109	0xbd1c4575	-0.038152177
110	0x3ebcb5a7	0.3685734
111	0xbe83b424	-0.25723374
112	0x3e106063	0.14099269
113	0x3e885bd9	0.26632574
114	0x3d635215	0.0554982
115	0xbe9333e2	-0.2875052
116	0xbe82b980	-0.2553215
117	0x3dff7f58	0.12475461
118	0x3e42539d	0.18977208
119	0x3e9a6759	0.30156973
120	0xbd88ddd2	-0.06682934
121	0x3e4d62a4	0.2005716
122	0x3e344856	0.17605719
123	0x3ecc53eb	0.39907774
124	0xbed31bd8	-0.4123218
125	0x3ea3bc7f	0.3197975
126	0x3df70e7e	0.12063311
127	0xbf280503	-0.6563265
128	0x3deaa215	0.11456696
129	0x3e8caaf1	0.27474168
130	0x3d440856	0.047859512
131	0xbe8fbb0b	-0.2807239
132	0x3ec8875b	0.39165768
133	0xbdf7145e	-0.120644316
134	0x3be0e919	0.006863725
135	0x3ed52e13	0.41636714
136	0x3def02cd	0.11670456
137	0xbe73f450	-0.23823667
138	0x3e039a24	0.12851769
139	0xbf09fc87	-0.5390095
140	0x3e4f85f8	0.20265949
141	0x3e0bdacd	0.13657685
142	0xbdc7cb5a	-0.09755583
143	0xbe21cc21	-0.15800525
144	0x3ec1db0b	0.3786243
145	0x3cfb407d	0.030670399
146	0xbd3e38a0	-0.04644072
147	0xbdbcbcc1	-0.092156895
148	0x3e187afe	0.14890668
149	0xbe80bbaf	-0.2514319
150	0x3e52d9fa	0.20590964
151	0xbe736274	-0.23768026
152	0x3cd983b8	0.026552066
153	0x3ddf6b0d	0.1090909
154	0x3e74ca64	0.23905331
155	0x3e826b85	0.25472656
156	0xbee8aa38	-0.45442367
157	0x3deb808f	0.1149913
158	0x3ee9f7de	0.4569692
159	0xbedefda2	-0.4355288
160	0x3d126e20	0.035749555
161	0x3e28e8c8	0.16495049
162	0x3e6be8ad	0.23037978
163	0x3f056b27	0.52116627
164	0xbe8b5eb7	-0.272207
165	0xbe8da448	-0.276644
166	0xbd30de25	-0.043180604
167	0xbd185d88	-0.037198573
168	0xbe87bad8	-0.26509738
169	0xbd154a61	-0.036447886
170	0xbc7870c9	-0.015163609
171	0x3ec9996b	0.3937486
172	0x3e3e7d87	0.18602572
173	0xbe0787b8	-0.13235366
174	0xbe7a00c6	-0.24414358
175	0xbf1bf068	-0.60913706
176	0xbd9bc604	-0.07606128
177	0xbda57921	-0.08079744
178	0xbdf78bb3	-0.120871924
179	0xbf35f75f	-0.71080583
180	0xbdbc4b9d	-0.091941096
181	0x3e39c22a	0.18140474
182	0xbe2a02c5	-0.16602619
183	0xbf29cb1b	-0.6632554
184	0x3e8eece3	0.27915105
185	0x3e3a7336	0.18208012
186	0xbdbe009a	-0.092774585
187	0x3f0ab7e3	0.5418684
188	0xbe8fb621	-0.2806864
189	0x3eaff5f8	0.34367347
190	0x3ce317dd	0.02772134
191	0x3f1da899	0.61585385
192	0x3eb1e764	0.3474685
193	0xbea3ae59	-0.31968954
194	0x3ed8e435	0.42361608
195	0x3c984f4b	0.018592497
196	0xbdbd95d1	-0.09257091
197	0xbcc394e3	-0.023874706
198	0xbc093a2f	-0.008375688
199	0xbea720f8	-0.3264234
200	0x3d969fd6	0.07354705
201	0xbdbfd02b	-0.09365877
202	0xbd45d094	-0.04829462
203	0xbdee5511	-0.11637319
204	0x3ea60042	0.32422072
205	0x3e39f26c	0.18158883
206	0x3c356788	0.011072047
207	0x3dc2de34	0.09515038
208	0x3eaf57c5	0.3424665
209	0x3e7afb30	0.24509883
210	0xbecc21db	-0.3986958
211	0xbec4ff8b	-0.38476214
212	0xbe53acac	-0.20671338
213	0x3e8c8fc6	0.2745344
214	0xbdb661bd	-0.08905361
215	0xbeead6d2	-0.4586702
216	0xbce2b191	-0.02767256
217	0xbd2a6432	-0.04159946
218	0xbdbcfc88	-0.09227854
219	0x3ea1fcbe	0.3163814
220	0x3e061f9d	0.13097997
221	0xbeb18129	-0.34668854
222	0xbe09a0fa	-0.13440314
223	0xbe345f7b	-0.17614548
224	0x3e63e108	0.22253811
225	0xbebc0f9b	-0.36730656
226	0xbe887114	-0.26648772
227	0x3e09ce37	0.13457571
228	0xbd5cf08f	-0.053940352
229	0x3ea46920	0.32111454
230	0xbd9ac734	-0.07557526
231	0xbe4abab2	-0.19797781
232	0xbec38170	-0.3818469
233	0xbe5d85c4	-0.21633059
234	0xbe2697d2	-0.16268852
235	0xbf050167	-0.51955265
236	0xbec4e2b0	-0.384542
237	0xbeaa42e1	-0.3325415
238	0x3d653aff	0.055964466
239	0x3eb02e50	0.34410334
240	0x3dddcb02	0.10829736
241	0xbd1af8e4	-0.037835017
242	0x3ebcad4a	0.3685096
243	0x3dea2435	0.11432687
244	0x3e9a61fc	0.3015288
245	0xbea32f36	-0.31871957
246	0x3e7f9bc6	0.24961767
247	0xbe10d7d0	-0.14144826
248	0xbe20dca6	-0.1570917
249	0x3df6deab	0.12054189
250	0x3e977220	0.29579258
251	0xbf06bd65	-0.52632743
252	0xbe71f6a7	-0.23629247
253	0x3d03c804	0.03217317
254	0x3eac92b1	0.33705667
255	0x3f29e5de	0.66366374

bias f4 [100]
0	0x3e347f5f	0.17626713
1	0x3eee003c	0.46484554
2	0x3e123788	0.14278996
3	0x3e18282e	0.14859077
4	0x3d704908	0.058663398
5	0xbdc6908d	-0.096955396
6	0xbb91d2af	-0.0044501643
7	0x3d2075f8	0.039175004
8	0x3e93a885	0.28839508
9	0x3e90efe0	0.2830801
10	0xbddb2830	-0.107010245
11	0x3ebd682a	0.36993533
12	0xbf0bb506	-0.54573095
13	0x3d336de6	0.04380598
14	0xbdd73714	-0.10508552
15	0xbf0c6051	-0.5483447
16	0x3e734511	0.23756815
17	0xbed4c00c	-0.4155277
18	0xbe9f3154	-0.31092322
19	0xbe58c64c	-0.21169394
20	0xbea41783	-0.32049188
21	0x3eae3f67	0.34032747
22	0xbe782b11	-0.24235179
23	0xbed185ca	-0.40922385
24	0xbe03b8ce	-0.12863466
25	0xbf0363c8	-0.5132413
26	0x3e113420	0.1418004
27	0xbeee910b	-0.46595034
28	0x3e6b9139	0.23004617
29	0xbe4694af	-0.19392656
30	0xbdac3bb0	-0.08409822
31	0x3e3bc782	0.18337825
32	0xbf03f84d	-0.5155075
33	0xbf11f9fb	-0.57022065
34	0xbeb3c7df	-0.35113427
35	0xbecd7715	-0.40129915
36	0xbd488cfb	-0.048962574
37	0x3ef6d615	0.48210207
38	0xbe387d04	-0.1801644
39	0x3dea6be2	0.11446358
40	0xbd0edfbe	-0.034881346
41	0xbe81ca0b	-0.2534946
42	0x3ecda588	0.40165353
43	0x3e99f955	0.30073038
44	0xbc2019cc	-0.009771775
45	0x3e94bf8c	0.2905239
46	0x3ed66511	0.41873983
47	0x3e8e3cad	0.27780667
48	0xbf020d53	-0.5080158
49	0x3e5d0820	0.2158513
50	0x3ed0b322	0.40761667
51	0x3db885b7	0.09009879
52	0x3e5293e9	0.20564236
53	0xbeeaad98	-0.45835567
54	0xbebcf452	-0.36905152
55	0xbbf0ef30	-0.007352732
56	0x3e10650e	0.1410105
57	0x3ee7ec0a	0.4529727
58	0xbe6eb01f	-0.23309372
59	0xbcd4e0ee	-0.025986161
60	0xbdd57dd6	-0.10424392
61	0xbebfc621	-0.37455848
62	0x3f0a24be	0.53962314
63	0x3dc257dd	0.09489415
64	0xbede3e12	-0.4340673
65	0xbe0d3bd5	-0.13792355
66	0x3d198116	0.03747662
67	0xbe687e0d	-0.22704335
68	0x3e9810bd	0.2970027
69	0x3e60c78a	0.21951118
70	0xbcb1875d	-0.021670992
71	0x3e232466	0.15931854
72	0xbe809abe	-0.2511806
73	0xbe525059	-0.20538463
74	0xbdc8cd92	-0.098048344
75	0x3ef7a656	0.48369092
76	0x3c9e2114	0.019302882
77	0xbeb74353	-0.35793552
78	0xbed8776f	-0.4227862
79	0x3e84d1a6	0.259412
80	0xbef80127	-0.4843838
81	0x3ea32e75	0.3187138
82	0xbe75924c	-0.23981589
83	0xbe256a85	-0.16153915
84	0x3e164eac	0.14678448
85	0x3ecc902d	0.39953747
86	0xbe6a321b	-0.22870676
87	0x3e5b3813	0.2140811
88	0xbe9867d5	-0.29766718
89	0xbb88bc5f	-0.004172846
90	0x3e9be5d3	0.3044878
91	0x3dbe60de	0.0929582
92	0x3e8811ff	0.2657623
93	0xbecd0149	-0.40040043
94	0xbdbe61e5	-0.09296016
95	0x3ddcd40b	0.107826315
96	0xbeecd516	-0.46256322
97	0x3d8f59b5	0.06999532
98	0xbe66b99d	-0.22531743
99	0x3e06fccf	0.13182376

weight f4 [60, 100]
0	0xbb8f19d4	-0.0043670926
1	0xbd1e15b4	-0.038594916
2	0x3cdc7bab	0.026914438
3	0xbcd2afb1	-0.025718542
4	0x3db03f58	0.08605832
5	0xbd09cb86	-0.03364136
6	0x3da791b4	0.081820875
7	0xbd01c774	-0.031684354
8	0x3d877660	0.06614375
9	0x3dc9f551	0.098612435
10	0x3c90b35b	0.017663648
11	0xbbbef8ec	-0.0058280136
12	0x3d2287f1	0.039680425
13	0xbc056e74	-0.00814401
14	0x3dcfc47d	0.10144899
15	0xbc67750d	-0.014127028
16	0x3cc975a7	0.024592234
17	0xbd78e3b9	-0.06076405
18	0xbb21f26a	-0.002471114
19	0x3ca2b8b1	0.019863458
20	0xb9e04591	-0.0004277644
21	0x3c745939	0.01491385
22	0x3d80ac8c	0.06282911
23	0xbdb549ba	-0.08851953
24	0xbd9a298a	-0.07527454
25	0xbe05f343	-0.13081078
26	0x3dd17c6e	0.10228811
27	0x3cd9cfaf	0.026588289
28	0xbc9750ad	-0.018471086
29	0x3dbc0356	0.09180324
30	0x3d89b54a	0.06724031
31	0x3cdf29cc	0.02724161
32	0x3ca98325	0.020692417
33	0xbd7fcb70	-0.062449872
34	0xbc1b7be5	-0.009489988
35	0xbdba75a9	-0.09104473
36	0xbdb0d908	-0.086351454
37	0x3d7a5c5c	0.061123237
38	0xbd82bbfc	-0.063835114
39	0xbd8504ea	-0.06495078
40	0x3c936d96	0.01799659
41	0xbd628486	-0.055302165
42	0xbd21f7d7	-0.039543
43	0x3d3c6611	0.045995776
44	0xbd2b5e25	-0.04183783
45	0x3d0f6283	0.035006057
46	0x3d70c68a	0.05878309
47	0x3d81cfef	0.06338488
48	0xbc5e3876	-0.013563266
49	0x3d1c191f	0.038109895
50	0xbad1291a	-0.0015957684
51	0xbd86ea5c	-0.06587669
52	0xbc3c6027	-0.011497534
53	0xbd555f0a	-0.05209259
54	0xbe0943d6	-0.13404784
55	0x3d054699	0.03253803
56	0xbda1b531	-0.07895888
57	0x3d55b7e7	0.052177336
58	0x3d9681b6	0.07348959
59	0x3d081707	0.033225086
60	0xbd24564f	-0.040121373
61	0xbc2948d7	-0.010332308
62	0x3df6040a	0.12012489
63	0xbd4e871d	-0.050421823
64	0xbc8e0f16	-0.017341178
65	0xbda2316b	-0.07919582
66	0x3d8759a0	0.066088915
67	0xbd9285ec	-0.0715445
68	0x3c9aec26	0.018911432
69	0x3d74b2b4	0.059740737
70	0xbdbfecd8	-0.09371346
71	0x3db518e0	0.08842635
72	0x3d7040c7	0.058655526
73	0x3d6aeb6c	0.057353422
74	0x3c950deb	0.018195113
75	0xbd7f1e6b	-0.06228487
76	0x3ccfc9ce	0.025364783
77	0xba0b2f62	-0.000530949
78	0xbce34111	-0.027740987
79	0x3dc0df30	0.0941757
80	0x3c21bc81	0.009871603
81	0x3dbb49cf	0.09144937
82	0xbdad527a	-0.08462997
83	0x397ffe4c	0.00024413428
84	0x3d769fe8	0.060211092
85	0xbd95ca61	-0.07313991
86	0xbbc9fec9	-0.006164406
87	0x3dced3a2	0.100989595
88	0x3ce952cf	0.028481869
89	0x3d473829	0.048637543
90	0x3d8626ae	0.06550346
91	0x3dc41108	0.09573561
92	0xbd019dc2	-0.03164459
93	0x3ce6c2ec	0.028169118
94	0xbd935fe9	-0.07196028
95	0xbdb4055e	-0.08790086
96	0xbdb6251b	-0.08893796
97	0x3d2d523c	0.042314753
98	0xbddd3e2a	-0.108028725
99	0x3c33c805	0.010972981
100	0xbe00700f	-0.12542747
101	0xbdac055e	-0.08399461
102	0x3d11e390	0.03561741
103	0xbca77d28	-0.020445421
104	0x3cc43a71	0.023953648
105	0x3c24951c	0.010045316
106	0xbd9530c1	-0.0728469
107	0xbcf32752	-0.029681835
108	0xbd652aae	-0.055948906
109	0xbdc6fedd	-0.0971658
110	0xbc129fb5	-0.00894921
111	0xbdc82f62	-0.097746626
112	0x3dae1800	0.085006714
113	0x3dc66529	0.096872635
114	0x3c0c9d50	0.008582428
115	0x3dcc82c1	0.09985877
116	0xbd97bb9c	-0.074088305
117	0xbc1f3261	-0.009716601
118	0x3d75c32b	0.06000058
119	0x3d133cd3	0.03594668
120	0x3d2bc9c5	0.04194047
121	0x3bb20726	0.005432981
122	0x3def8924	0.116960794
123	0x3d22f379	0.039782975
124	0x3d0dc32e	0.034609966
125	0x3d9198ad	0.07109199
126	0x3bfc1e61	0.007694051
127	0xbbb3e98b	-0.005490487
128	0xbd98e870	-0.07466209
129	0x3d953ec4	0.07287362
130	0x3de26c94	0.11055866
131	0xbd1a3e8d	-0.03765731
132	0x3cf3d4d2	0.029764567
133	0xbd341caa	-0.04397265
134	0x3d6b8137	0.057496276
135	0xbc0964aa	-0.008385817
136	0xbc6d5654	-0.014485914
137	0x3d478950	0.048714936
138	0x3dce12a2	0.10062148
139	0xbd95cab5	-0.07314054
140	0x3dd5e60e	0.1044427
141	0xbcade5e5	-0.021227786
142	0xbdbf097d	-0.093279816
143	0xbaab8ab9	-0.0013087607
144	0xbde34acb	-0.1109825
145	0xbe1d654e	-0.15370676
146	0xbd4da2d3	-0.05020411
147	0xbd19f525	-0.037587304
148	0x3dda1525	0.10648564
149	0xbdeb4fd9	-0.11489839
150	0x3ccd0cc9	0.02503051
151	0x3c80ab0e	0.015706565
152	0xbcc3cc60	-0.023901165
153	0xbd816d02	-0.0631962
154	0x3c93386e	0.017971244
155	0xbd5dd4f5	-0.05415817
156	0x39c4e235	0.0003755257
157	0xbd9a586a	-0.07536395
158	0x3cd40e23	0.025885647
159	0x3cd095d1	0.025462063
160	0x3db42c74	0.08797541
161	0x3db26e06	0.087123916
162	0xbd2efe2f	-0.042722877
163	0xbd05a30b	-0.032626193
164	0xbd7c8e9f	-0.06165945
165	0xbd74389e	-0.059624307
166	0x3db9460c	0.090465635
167	0xbd23bfa0	-0.03997767
168	0xbd4ac1ac	-0.049501106
169	0xbdb6d7ac	-0.08927855
170	0xbdec2a40	-0.11531496
171	0x3d49c126	0.049256466
172	0xbcaadb8d	-0.020856643
173	0xbca52955	-0.02016131
174	0xbd12d336	-0.035845958
175	0xbd5eb0df	-0.054367896
176	0xbdaa6fd3	-0.0832211
177	0x3d2586c4	0.040411726
178	0x3c8a746d	0.01690122
179	0x3d46b5f0	0.048513353
180	0x3d634f19	0.055495355
181	0xbcee48fd	-0.029087538
182	0xbdddeeb6	-0.10836546
183	0xbd2fc040	-0.042907953
184	0xbdcf55fe	-0.101238236
185	0xbc764020	-0.015029937
186	0xbd94ebda	-0.072715476
187	0x3d6a9c29	0.057277832
188	0xbc314d65	-0.010821675
189	0xbd8c5cfa	-0.06853671
190	0xbd19384b	-0.0374072
191	0x3d09fe25	0.033689637
192	0xbde1041d	-0.10987113
193	0x3d970469	0.07373888
194	0x3d29ee25	0.041486878
195	0x3cf058ac	0.029339157
196	0x3dc8bfa2	0.09802176
197	0xbcdb358a	-0.026758928
198	0x3d2ccc16	0.04218682
199	0xbdb5e46c	-0.08881459
200	0xbd80ae7e	-0.06283282
201	0x3dcea7ff	0.100906365
202	0xbdceb614	-0.100933224
203	0xbdab3f4c	-0.08361682
204	0xbc503007	-0.012706763
205	0xbd8b3586	-0.06797318
206	0xbd2f5339	-0.042803977
207	0x3d2599f5	0.040430028
208	0xbd4b34ee	-0.049611025
209	0x3d93a4ca	0.072091654
210	0x3d18e3f0	0.037326753
211	0xbd6e5701	-0.058188442
212	0xbcae907f	-0.021309135
213	0xbda10eda	-0.07864161
214	0x3b670669	0.0035251623
215	0xbd7b162b	-0.061300438
216	0x3d854bd1	0.065086015
217	0xbd51ad90	-0.051190913
218	0xbd89a09b	-0.06720086
219	0xbc438911	-0.011934535
220	0x3d37021e	0.044679753
221	0x3b80eff9	0.003934857
222	0xbdb332c5	-0.08749918
223	0xbc203e85	-0.009780531
224	0xbda3d7a1	-0.08000112
225	0x3d822e4d	0.063564874
226	0xbd997df1	-0.074947245
227	0xbdad2c85	-0.08455757
228	0xbcbb8801	-0.022892
229	0x3b5bdd1a	0.0033548535
230	0xbd67f16e	-0.05662673
231	0xbc89f9ef	-0.01684281
232	0xbd80e58c	-0.062937826
233	0x3cf9ba37	0.030484302
234	0x3dc751b6	0.09732382
235	0x3bca8105	0.006179931
236	0x3c8ae75f	0.01695603
237	0x3c8aceb5	0.016944269
238	0x3c52f10f	0.012874856
239	0x3d94152c	0.07230601
240	0x3d053fd7	0.032531586
241	0xbcfa1260	-0.03052634
242	0x3d17199c	0.036889657
243	0x3d2c4023	0.042053353
244	0xbcfee790	-0.031116277
245	0x3dc47341	0.095922954
246	0xbd257fa4	-0.04040493
247	0xbdb8b3ef	-0.090186946
248	0x3cfb316e	0.030663218
249	0xbd782f50	-0.060591996
250	0x3bfa6e51	0.0076425453
251	0x3d846825	0.064651765
252	0x3c98abe6	0.018636655
253	0x3cef1739	0.029185878
254	0xbdc1389c	-0.094346255
255	0x3d1b0b1a	0.037852384

weight f4 [60, 100]
0	0x3d301bfd	0.04299544
1	0xbdf64138	-0.12024158
2	0xbd1c681a	-0.038185216
3	0x3ba9904f	0.0051746736
4	0x3dd89ee8	0.10577184
5	0xbc1b1025	-0.009464298
6	0x3d6cd4bc	0.057820067
7	0x3c03150e	0.008000625
8	0xbdd21e3c	-0.10259673
9	0xbd62d004	-0.05537416
10	0xbd317af3	-0.043330144
11	0x3d876f31	0.06613005
12	0x3c9b0af1	0.018926116
13	0x3d6573f7	0.056018796
14	0x3d6e724b	0.058214467
15	0x3d0107b0	0.031501472
16	0x3ce57205	0.02800847
17	0x3e27eddd	0.16399331
18	0x3d82f87d	0.06395052
19	0x3d81a6c0	0.06330633
20	0xbdb82e88	-0.0899325
21	0x3d27f795	0.041007597
22	0xbdf273bf	-0.11838483
23	0x3da139c1	0.07872344
24	0x3dad5564	0.084635526
25	0xbdd2986d	-0.10282979
26	0xbc513066	-0.012767887
27	0xbd7744e5	-0.060368437
28	0xbdb42566	-0.08796196
29	0x3d5ec79b	0.054389577
30	0x3943d1df	0.00018674832
31	0x3d852c66	0.06502609
32	0xbd2951c0	-0.04133773
33	0xbc41019b	-0.011780168
34	0x3ddb7e17	0.10717409
35	0xbd22fa22	-0.039789326
36	0x3d019a68	0.031641394
37	0x3dc4784c	0.09593257
38	0x3d3c4121	0.04596055
39	0xbd81def4	-0.06341353
40	0xbe03df4b	-0.12878148
41	0x3cc4973a	0.023997892
42	0xbe09c1e1	-0.13452865
43	0xbd2b9e36	-0.04189893
44	0x3dae6ade	0.08516477
45	0xbd04aaf5	-0.0323896
46	0xbd3c35af	-0.045949634
47	0xbe0200e4	-0.12695652
48	0x3c94778e	0.018123414
49	0x3ca9808b	0.020691177
50	0x3d76d8e4	0.060265437
51	0x3cbfd9fd	0.023419375
52	0xbd7e2619	-0.06204805
53	0x3da735d5	0.081645645
54	0x3d72b28f	0.059252318
55	0xbd1b57c6	-0.037925504
56	0x3d500218	0.050783247
57	0xbcc9ff73	-0.02465794
58	0xbd620f2b	-0.055190247
59	0x3ca7d2f3	0.02048633
60	0x3d224a25	0.03962149
61	0x3ddc5f42	0.107603565
62	0xb92cf106	-0.00016492986
63	0xbdbddb92	-0.09270395
64	0xbd616656	-0.055029236
65	0x3d8394fc	0.06424901
66	0x3d39e418	0.045383543
67	0xbda9d155	-0.0829188
68	0x3daf1e78	0.08550733
69	0x3de5060a	0.111827925
70	0x3e172b1e	0.14762542
71	0xbc1ba4f7	-0.00949978
72	0xbdd5200a	-0.104065016
73	0x3ca0e5b3	0.01964078
74	0x3d0ea775	0.03482767
75	0xbcc636af	-0.024195997
76	0xbc89f640	-0.016841054
77	0xbd088844	-0.033333078
78	0xbceac5a3	-0.028658694
79	0xbd2e0171	-0.042481843
80	0xbc991755	-0.018687883
81	0x3dcab835	0.09898416
82	0x3d27b2e8	0.040942103
83	0xbd90af6c	-0.07064709
84	0x3dde9ed2	0.10870136
85	0xbd8378eb	-0.06419548
86	0xbd1daf2e	-0.038497142
87	0x3d389bf6	0.04507061
88	0x3d1eca20	0.03876698
89	0x3cec5d5c	0.028853111
90	0xbe05f93e	-0.1308336
91	0xbcb0d12a	-0.021584112
92	0x3c02702a	0.007961312
93	0x3b2a73dd	0.0026009001
94	0xbd8df4a3	-0.069314264
95	0x3beb5673	0.0071819364
96	0x3c3022a1	0.010750444
97	0x3d2eb01c	0.04264842
98	0xbde97141	-0.113985546
99	0x3db1ea92	0.08687319
100	0xbdb473c0	-0.0881114
101	0xbc39e088	-0.011345036
102	0x3dded11a	0.10879727
103	0x3c3009e5	0.010744547
104	0xbd84691f	-0.06465363
105	0x3c1fb4cb	0.009747694
106	0x3cb2d28c	0.021828912
107	0xba8e4ecd	-0.0010857225
108	0xbbaf52c2	-0.0053504417
109	0x3cacfd21	0.021116795
110	0x3dbd97ca	0.09257467
111	0xbdd1ff12	-0.10253729
112	0x3c25ef91	0.010127918
113	0xbd589a5f	-0.052881595
114	0x3d2528e2	0.040322192
115	0xbc58b80d	-0.013227475
116	0xbd906c3a	-0.070518926
117	0xbd717cbc	-0.058956847
118	0xbc2c2497	-0.010506771
119	0xbb91307e	-0.0044308295
120	0x3e0bad21	0.13640262
121	0xbd99b143	-0.07504513
122	0x3d7a5f5a	0.06112609
123	0x3aa1676f	0.0012314151
124	0x3cfba8fe	0.03072023
125	0x3dd8b105	0.10580639
126	0xbddc569b	-0.10758706
127	0xbd9513ab	-0.07279142
128	0xbb985a21	-0.004649416
129	0x3e0c414c	0.13696784
130	0x3c67c239	0.014145427
131	0xbc498af9	-0.0123012
132	0x3dbaed66	0.091273114
133	0x3d61d562	0.05513514
134	0xbd761c32	-0.060085483
135	0xbd80ae14	-0.06283203
136	0x3dacb76a	0.08433421
137	0xbdfd5a87	-0.12370782
138	0xbd7264c7	-0.05917814
139	0x3c892110	0.016739398
140	0x3e02a2e0	0.12757444
141	0x3d5c2fd4	0.05375655
142	0xbca3a770	-0.019977301
143	0xbd7a0fc3	-0.061050188
144	0xbe153171	-0.14569642
145	0x3c26df86	0.010185128
146	0x3e1870b6	0.14886746
147	0x3d8117c9	0.06303365
148	0x3d50c7d6	0.05097183
149	0xbe15a2e4	-0.14612919
150	0xbd6c981c	-0.05776225
151	0x3de17172	0.11007966
152	0xbdc0f6ee	-0.09422098
153	0xbd42fb3b	-0.047602873
154	0xbceefb94	-0.029172696
155	0xbe0ae1c3	-0.13562684
156	0x3d334ba4	0.04377331
157	0xbd051430	-0.032489955
158	0x3d463648	0.04839161
159	0xbdb8327e	-0.089940056
160	0xbd528ef4	-0.051405862
161	0xbd7edcde	-0.062222354
162	0xbd9c0f04	-0.076200515
163	0x3df65a1a	0.12028904
164	0xbaa66f2b	-0.0012697926
165	0xbe15dc58	-0.14634836
166	0x3d2c2293	0.04202516
167	0xbcd5ca76	-0.026097517
168	0xbd8f4517	-0.069956
169	0x3d40a160	0.0470289
170	0xbc0a019a	-0.008423233
171	0xbc886e5d	-0.016654188
172	0x3da80fab	0.082061134
173	0x3d0af3bf	0.03392386
174	0x3e0a022d	0.13477392
175	0x3d159eeb	0.03652851
176	0xbe24a0f1	-0.1607702
177	0xbd38b486	-0.045094036
178	0x3d67fda7	0.056638386
179	0xbbbc1831	-0.0057401885
180	0xbc2091cb	-0.009800385
181	0xbd60aac2	-0.054850347
182	0xbdab631a	-0.083685115
183	0xbd2b5216	-0.04182633
184	0xbcf1219f	-0.029434977
185	0xbd0ea0d3	-0.034821343
186	0xbc22418e	-0.009903325
187	0x3d285fdf	0.041107055
188	0xbc9e2669	-0.019305425
189	0x3d45fb13	0.048335146
190	0x3dd93825	0.10606412
191	0xbd3d53a5	-0.046222348
192	0xbe03d004	-0.1287232
193	0xbd246f2b	-0.04014508
194	0xbda2e0f6	-0.07953064
195	0x3d3c2aa1	0.04593909
196	0xbcedc1fa	-0.02902316
197	0xbcab8d7f	-0.020941494
198	0x3e072ef8	0.13201511
199	0xbcfb6a83	-0.030690437
200	0x3daaa5a1	0.083323725
201	0x3d1bcb6c	0.038035795
202	0x3dc80e72	0.0976838
203	0xbcd32122	-0.025772635
204	0x3d5995a0	0.05312121
205	0x3cea0869	0.028568463
206	0x3d11665b	0.035498004
207	0x3bd3b14a	0.0064603435
208	0x3deb0246	0.11475043
209	0x3da5b39f	0.08090901
210	0x3d7bf989	0.061517272
211	0x3d7355b9	0.059407923
212	0xbc7da4f0	-0.015481219
213	0xbcba7ff8	-0.022766098
214	0x3caba3f5	0.020952204
215	0xbcb296f6	-0.0218005
216	0x3d621f99	0.055205915
217	0xbd2dceb3	-0.04243345
218	0x3d954150	0.07287848
219	0xbd87bd9f	-0.06627964
220	0xbd93e430	-0.07221258
221	0xbcbf10ab	-0.023323378
222	0xbd33b0f4	-0.043869928
223	0xbd8a90f9	-0.067659326
224	0xbd927442	-0.07151081
225	0xbd80d4d4	-0.06290594
226	0x3d135573	0.035970163
227	0x3d361b55	0.04445966
228	0xbd3cb9a9	-0.046075497
229	0xbdd697c4	-0.10478166
230	0x3be95f54	0.0071219597
231	0x3bf1d6f0	0.007380359
232	0x3d84d8fa	0.064866975
233	0xbbf03ded	-0.007331601
234	0x3d7c96f6	0.061667405
235	0xbbcf3365	-0.0063232654
236	0xbdace87b	-0.0844278
237	0x3d5d6458	0.054050773
238	0x3d55d451	0.052204434
239	0x3d8c15d9	0.068401046
240	0x3dcbecf4	0.099573046
241	0xbd7163bb	-0.058933
242	0x3af61056	0.0018773179
243	0x3d4e5e32	0.0503828
244	0xbde27ead	-0.11059318
245	0xbcb2c433	-0.02182207
246	0x3da9364a	0.08262308
247	0x3da2bd7c	0.079462975
248	0x3c0f0802	0.008729937
249	0x3be2daa6	0.0069230376
250	0xbd805478	-0.06266111
251	0xbdb8528f	-0.09000122
252	0xbd6b22f8	-0.057406396
253	0xbc62cd27	-0.013842857
254	0xbd696eb4	-0.05699034
255	0x3d690935	0.056893546

weight f4 [60, 100]
0	0x3df8ee10	0.12154782
1	0x3a6bf8a5	0.00090015895
2	0x3cd5b397	0.026086612
3	0x3d56df29	0.052458916
4	0x3db6bec2	0.08923103
5	0xbd60628c	-0.05478148
6	0x3cb3dfc8	0.021957293
7	0x3c5e5029	0.013568916
8	0x3c19db14	0.009390611
9	0xbd7aea4f	-0.06125861
10	0x3e090ad3	0.13383035
11	0x3db2cacd	0.087300874
12	0xbd0f8f4c	-0.035048768
13	0x3c8c65b7	0.017138345
14	0x3d319ae0	0.04336059
15	0xbc1100fb	-0.008850331
16	0x3d3a470d	0.045477916
17	0x3e2a0dbd	0.16606803
18	0xbcd27b83	-0.02569366
19	0xbbeddd12	-0.0072590197
20	0xbcda12f6	-0.02662037
21	0xbd61edd7	-0.055158462
22	0x3bb0f7e7	0.005400646
23	0x3d062052	0.032745667
24	0xbd91bf8b	-0.07116612
25	0xbcc13b09	-0.02358772
26	0x3e0e0440	0.13868809
27	0x3d7e5758	0.062095016
28	0x3d0d58ac	0.034508392
29	0xbd5b7472	-0.053577848
30	0xbd0a26bc	-0.033728346
31	0xbd071499	-0.032978628
32	0x3d5fa10b	0.054596942
33	0xbda64a50	-0.08119643
34	0x3e20103f	0.15631197
35	0x3dd70d29	0.10500557
36	0x3dbbece0	0.0917604
37	0x3e07e81a	0.13272133
38	0xbc2f9786	-0.010717278
39	0x3d2e4398	0.04254493
40	0x3d264700	0.040595055
41	0xbd0b83a0	-0.034061074
42	0xbd37a919	-0.044839
43	0x3cfa3ac5	0.030545602
44	0x3dc4ca7b	0.096089326
45	0xbbdb67d8	-0.0066957287
46	0xbd82530a	-0.06363495
47	0xbd1a8a40	-0.0377295
48	0x3d2bc16d	0.041932512
49	0x3d60fbae	0.05492752
50	0x3d9cf840	0.076645374
51	0x3da8265f	0.08210444
52	0x3dece434	0.11566964
53	0xbd38917c	-0.04506062
54	0x3c9c2ddd	0.019064838
55	0x3c91cb13	0.017797029
56	0xbd9ffc5d	-0.07811806
57	0x3cfeb4a3	0.031091994
58	0xbd8bba47	-0.06822639
59	0x3bf4b8a7	0.0074683013
60	0x3dd50505	0.10401348
61	0x3d179fe9	0.037017737
62	0x3e0c1d90	0.13683152
63	0xbdfd3d05	-0.12365154
64	0xbd4a04f6	-0.049321137
65	0x3d31e4fd	0.04343127
66	0x3afba81d	0.0019199882
67	0xbe15ce8b	-0.14629571
68	0x3dd32b3a	0.10310979
69	0x3de9d399	0.11417312
70	0x3dac5c6b	0.08416065
71	0x3d824e2f	0.063625686
72	0xbe05e1ce	-0.13074419
73	0xbd7cf005	-0.061752338
74	0xbde49929	-0.111620255
75	0x3df13a47	0.11778694
76	0x3bb71bc6	0.0055880276
77	0xbd4d5c13	-0.050136637
78	0xbe45c371	-0.19312836
79	0x3d7a7478	0.06114623
80	0x3a8cfc38	0.0010756319
81	0x3d969e2a	0.07354386
82	0x3de98d82	0.114039436
83	0xbdb1c2a0	-0.086797
84	0x3c93455c	0.017977409
85	0xbe0f1685	-0.13973434
86	0xbda68f1b	-0.08132764
87	0x3cf70531	0.030153843
88	0x3d5126f9	0.051062558
89	0x3da8366f	0.082135074
90	0xbd358c93	-0.044323515
91	0xbe23eb59	-0.16007747
92	0x3c0f6d28	0.008754052
93	0x3cec3475	0.028833607
94	0xbb97832a	-0.0046237903
95	0x3dc6d230	0.09708059
96	0x3d111875	0.035423715
97	0xbd303f7f	-0.043029305
98	0xbdc581f6	-0.09643929
99	0x3dbd51d0	0.0924412
100	0xbdc1f6cb	-0.094709
101	0x3c7dbba7	0.015486634
102	0x3d921a15	0.07133881
103	0x3df4ccf7	0.119531564
104	0x3d438394	0.047732905
105	0xbd4ca134	-0.049958423
106	0x3dd7d5c7	0.10538822
107	0x3dc91d59	0.09820051
108	0x3d6f8e96	0.05848559
109	0xbda739e3	-0.08165338
110	0xbcc25606	-0.02372266
111	0x3d16dd62	0.03683222
112	0xbd23d462	-0.039997466
113	0xbd17436a	-0.036929525
114	0x3dab1451	0.083534844
115	0xbdd5a4e1	-0.10431839
116	0x3dae77af	0.085189216
117	0x3cd511a7	0.026009394
118	0xbd2b1b19	-0.04177389
119	0xbd7a870d	-0.06116395
120	0x3ca9d272	0.020730231
121	0xbdd3052f	-0.10303723
122	0x3d923063	0.07138135
123	0xbcad198c	-0.021130346
124	0x3ca281e4	0.019837327
125	0x3dfe2100	0.12408638
126	0xbdae95d7	-0.085246734
127	0xbd24b4c6	-0.04021146
128	0x3cf323ca	0.029680151
129	0x3d23b9d2	0.039972134
130	0x3d79b235	0.060960967
131	0x3d9c7cb3	0.07640972
132	0xbd4cafb7	-0.049972262
133	0xbd10ebca	-0.035381116
134	0x3c186fa9	0.009303966
135	0xbd46e902	-0.048562057
136	0xbd6bc5ec	-0.0575618
137	0xbcc7b7f2	-0.024379704
138	0x3d772569	0.06033841
139	0x3d89a453	0.067207955
140	0x3e01b443	0.1266642
141	0xbbee3348	-0.007269297
142	0x3d8e01b6	0.0693392
143	0xbe03ea88	-0.12882435
144	0xbbd6013a	-0.006530908
145	0xbd74e8c1	-0.059792284
146	0xbcecc255	-0.028901258
147	0x3db2e751	0.08735526
148	0x3cb33114	0.021873988
149	0xbd65ad9d	-0.056073774
150	0xbd8cc4c3	-0.06873467
151	0x3d9f1966	0.07768516
152	0x3d3d4118	0.046204656
153	0xbdc139d7	-0.0943486
154	0xba8340af	-0.0010013784
155	0xbd01d88b	-0.031700652
156	0xba8c8a37	-0.0010722344
157	0x3cfd4450	0.030916363
158	0x3d361468	0.044453055
159	0xbdcb0d9b	-0.099147044
160	0x3d6db387	0.05803254
161	0x3ca9294f	0.02064958
162	0x3d6f2d7e	0.058392994
163	0x3d128145	0.035767812
164	0xbdff3f81	-0.12463284
165	0xbd0ae308	-0.03390792
166	0x3e08723e	0.1332483
167	0x3db53bde	0.088493094
168	0xbe1f9671	-0.15584733
169	0xbdade43f	-0.084908
170	0x3be39fdc	0.006946547
171	0xbd164b63	-0.036692988
172	0xbd0e8bf0	-0.034801424
173	0xbd7930fe	-0.06083774
174	0x3e16a074	0.14709646
175	0xbdebbb3e	-0.11510323
176	0xbdea673a	-0.1144547
177	0x3c83b3e7	0.016076995
178	0x3d159a1d	0.036523927
179	0x3cc9522e	0.02457532
180	0xbd31b9a9	-0.04338995
181	0xbe0a962f	-0.13533853
182	0x3c7a61ce	0.0152821075
183	0x3defa8bb	0.11702105
184	0xbd89d186	-0.067294165
185	0x3d0742b3	0.033022594
186	0xbd05b6ae	-0.03264492
187	0xbca57b4b	-0.020200392
188	0x3dab9ba1	0.08379293
189	0xbd86d387	-0.065833144
190	0xbdc25519	-0.09488887
191	0xbdb34a2a	-0.0875438
192	0x3cafc6c2	0.02145708
193	0xbccdfc34	-0.025144674
194	0x3d50e724	0.051001683
195	0x3c2e5932	0.010641383
196	0xbd00f977	-0.03148791
197	0xbe1a4be9	-0.1506802
198	0x3d8ec49a	0.069710925
199	0xbde81915	-0.11332909
200	0x3c9c0a71	0.019047948
201	0xbcc7235e	-0.024308857
202	0xbcf9b8d8	-0.030483648
203	0xbd1f73b8	-0.038928717
204	0xbdfda1f4	-0.12384406
205	0xbc91458a	-0.017733354
206	0x3cf84761	0.030307474
207	0xbe0a279f	-0.13491677
208	0x3dbf91e8	0.09354001
209	0x3cb9dbb1	0.022687765
210	0xbcbbe65b	-0.02293699
211	0x3c145118	0.009052537
212	0x3d08f3e9	0.033435736
213	0x3d766c55	0.060161907
214	0x3dc4b32e	0.09604488
215	0xbd034db5	-0.03205653
216	0x3bd5f9f7	0.0065300423
217	0xbe21babd	-0.15793891
218	0xbcef0b96	-0.02918033
219	0x3e1a6e13	0.15081052
220	0x3de79536	0.113077566
221	0x3d17b4c2	0.03703762
222	0x3d388cde	0.045056216
223	0xbd9ed7d5	-0.077560104
224	0xbda1af32	-0.07894744
225	0x3d7288cd	0.059212495
226	0x3cacda12	0.021100078
227	0x3b5498c5	0.003243969
228	0xbb6a8d3a	-0.0035789744
229	0x3e02f10c	0.12787265
230	0x3dcc7a9c	0.099843234
231	0xbdc6f3ef	-0.097144954
232	0xbdf5405d	-0.11975167
233	0x3dfb1796	0.12260358
234	0xbdd47f41	-0.10375834
235	0xbd559686	-0.052145503
236	0x3d626c5e	0.05527913
237	0xbda12dca	-0.07870062
238	0x3d1ae0f1	0.037812177
239	0xbced8d86	-0.028998148
240	0x3e1013a1	0.14069988
241	0x3d95b262	0.073094144
242	0x3dfcd88b	0.1234599
243	0xbdd75c2c	-0.10515627
244	0xbe00fdde	-0.12596843
245	0xbdb65ee2	-0.08904816
246	0xbd67feed	-0.0566396
247	0x3ccac6f6	0.024753075
248	0xbd0e6b97	-0.034770574
249	0xbd908940	-0.07057428
250	0xbc745470	-0.01491271
251	0x3c2842e2	0.010269852
252	0x3c52eb07	0.012873418
253	0x3c2e8048	0.010650702
254	0x3e00dde8	0.1258465
255	0xbd8f8a2b	-0.07008775

weight f4 [100, 60]
0	0xbd6ac23d	-0.057314146
1	0x3e082c2e	0.13298103
2	0xbe0950a1	-0.13409664
3	0xbda8e2e3	-0.082464
4	0x3bb4e2e7	0.005520213
5	0xbdf9f417	-0.122047596
6	0xbe09c715	-0.1345485
7	0x3dc6b9ed	0.09703431
8	0xbe1bcc7c	-0.15214723
9	0xbc62402f	-0.013809248
10	0x3e151790	0.1455977
11	0x3d2964aa	0.041355766
12	0xbda5f99c	-0.0810425
13	0x3e2b8110	0.16748452
14	0x3c59fbb6	0.0133046415
15	0xbdfcfb0a	-0.123525694
16	0xbe0940fa	-0.13403693
17	0xbb97f58b	-0.0046374253
18	0xbc2f2c35	-0.010691692
19	0xbd0604bc	-0.03271936
20	0xbcd22289	-0.025651233
21	0xbcdae362	-0.026719753
22	0x3d81f287	0.063450865
23	0x3cef643f	0.029222606
24	0xbe0aca71	-0.13553788
25	0xbc8a24e2	-0.01686329
26	0x3d9ad7b1	0.07560671
27	0x3b426ce1	0.0029666948
28	0x3b163450	0.0022919364
29	0xbcea7e56	-0.028624695
30	0xbd987b77	-0.07445424
31	0xbe185953	-0.14877824
32	0xbdca2850	-0.0987097
33	0x3d1e983d	0.038719404
34	0xbd9bd81e	-0.076095805
35	0xbdc51080	-0.09622288
36	0x3d7bf3b6	0.061511718
37	0xbc9b96e1	-0.018992843
38	0x3d05f1d9	0.032701347
39	0xbc81022a	-0.015748102
40	0x3e0fa4ab	0.1402766
41	0x3de03147	0.10946899
42	0xbc1cbc7d	-0.0095664235
43	0x3ba182b7	0.0049289125
44	0xbd6db404	-0.058033004
45	0xbd18b2d0	-0.037279904
46	0xbdcc4b1d	-0.09975264
47	0xbd34dab6	-0.04415389
48	0x3e33b8e1	0.17550994
49	0x3db89f47	0.09014755
50	0x3d51ea59	0.051248882
51	0x3d198938	0.037484378
52	0xbd82647c	-0.06366822
53	0x3d2c1937	0.042016234
54	0x3d038fc3	0.032119524
55	0x3d4cbac4	0.0499828
56	0xbc24d3e2	-0.010060282
57	0x3d3aad78	0.04557559
58	0xbc4b2d02	-0.012400867
59	0xbd192258	-0.03738627
60	0x3d865a24	0.06560162
61	0x3b5315e6	0.0032209097
62	0x3cf6f707	0.030147089
63	0x3d142bdb	0.036174636
64	0x3ca77a11	0.020443948
65	0x3da6a3dd	0.08136723
66	0x3db9ff9a	0.09081955
67	0x3d717ac0	0.058954954
68	0xbc47a6b6	-0.012185743
69	0x3ccf92c3	0.025338536
70	0xbe0950ce	-0.13409731
71	0xbe0ae3e2	-0.13563493
72	0xbd91d372	-0.07120408
73	0x3a788070	0.0009479588
74	0xbd179b89	-0.037013564
75	0x3d96d9fe	0.073657975
76	0xbce9deac	-0.028548561
77	0xbdb457d5	-0.08805815
78	0x3d9318eb	0.07182487
79	0xbd20cb4b	-0.039256375
80	0xbdebe2e9	-0.11517889
81	0x3e013dc5	0.1262122
82	0xbddafb6a	-0.10692485
83	0x3ca7472f	0.020419685
84	0x3c3ba69d	0.011453298
85	0xbd0eb85a	-0.03484378
86	0x3d94c704	0.07264522
87	0xbcbc1984	-0.022961386
88	0x3dafcfa3	0.085845254
89	0x3ded0e34	0.11574975
90	0xbd2037b5	-0.039115626
91	0xbdb8d323	-0.09024646
92	0xbe100353	-0.14063768
93	0xbcde6ea4	-0.027152367
94	0xbcc4cdc3	-0.024023896
95	0xbd442ac0	-0.047892332
96	0xbdd1c537	-0.10242694
97	0x3d6b5a1e	0.05745899
98	0xbd96af77	-0.07357686
99	0x3da9320c	0.08261499
100	0x3c1ccaa7	0.0095698
101	0x3de66050	0.11248839
102	0xbc9afd8c	-0.018919729
103	0xbdce6a56	-0.10078876
104	0xbd8d30ba	-0.068940595
105	0xbd91de4b	-0.07122477
106	0xbd4834bd	-0.04887842
107	0x3e09d855	0.1346143
108	0xbd911afc	-0.07085225
109	0x3ce6a697	0.028155608
110	0xbcca5116	-0.024696868
111	0xbc16cd99	-0.009204292
112	0xbd9cb401	-0.076515205
113	0xbe122574	-0.142721
114	0x3d03077d	0.031989563
115	0x3dc7a488	0.09748179
116	0x3da3b419	0.07993335
117	0x3ddb916f	0.10721099
118	0xbdce8509	-0.10083968
119	0xbd807fd4	-0.06274381
120	0x3e18b375	0.14912207
121	0xbd100ec5	-0.035170335
122	0xbdec1e46	-0.11529212
123	0xbd429c4f	-0.04751235
124	0x3e3157b7	0.17318617
125	0xbd00a196	-0.0314041
126	0xbe05d9df	-0.13071392
127	0xbd5829df	-0.052774306
128	0xbcbe7359	-0.023248361
129	0xbdfb792e	-0.122789726
130	0x3cfe967c	0.031077616
131	0xbc56b31a	-0.013104225
132	0x3d2eae85	0.042646904
133	0x3b8c8cb0	0.004289232
134	0xbddebfd7	-0.10876434
135	0xbcefe713	-0.02928499
136	0xbe22943d	-0.15876861
137	0xbda45475	-0.080239214
138	0xbd7198bb	-0.058983546
139	0xbd07f81a	-0.033195592
140	0xbbd5b1e0	-0.0065214485
141	0x3d419949	0.047265325
142	0x3e0db2ba	0.1383771
143	0xbce17428	-0.027521208
144	0xbe133263	-0.1437469
145	0x3d81ba26	0.06334333
146	0xbdd19e43	-0.10235264
147	0xbdcb53b4	-0.099280745
148	0xbd5b3b7f	-0.053523537
149	0xbdaab28a	-0.08334835
150	0x3da397c5	0.07987932
151	0x3cecdf74	0.028915145
152	0x3e208af2	0.15678003
153	0x3dc73d1a	0.09728451
154	0x3c0e7f51	0.008697347
155	0x3e062e4d	0.131036
156	0x3d15ae16	0.036542974
157	0x3df90cbd	0.12160633
158	0x3cfb8398	0.030702397
159	0x3d06addd	0.032880653
160	0x3dfa5ea9	0.12225086
161	0xbdf567c2	-0.11982681
162	0x3e15a3ae	0.1461322
163	0x3db84410	0.08997357
164	0xbda7d8b7	-0.08195632
165	0xbe01e656	-0.12685522
166	0x3d650404	0.055912033
167	0xbd9d0fcd	-0.076690294
168	0xbdc57202	-0.09640886
169	0xbccaf4e9	-0.024774985
170	0x3c57c6c0	0.013169944
171	0xbda58188	-0.08081347
172	0x3ddb7617	0.10715883
173	0xbd5811e8	-0.05275145
174	0xbe287bfd	-0.16453548
175	0x3dd0e62d	0.102001525
176	0xbd26a161	-0.040681247
177	0x3cd9d841	0.026592376
178	0x3dd73f7e	0.10510157
179	0xbe2d7ce3	-0.16942172
180	0x3e2a5be2	0.16636613
181	0x3e15f9b7	0.1464604
182	0xbbeb3a85	-0.007178607
183	0xbddac1f6	-0.10681526
184	0x3da3c6ff	0.0799694
185	0x3d8adcc0	0.06780386
186	0xbdb2ef25	-0.087370194
187	0x3bc66961	0.0060550426
188	0xbdbff796	-0.09373395
189	0x3d7da7ae	0.06192749
190	0x3d3e4aa9	0.04645792
191	0xbbda309a	-0.006658626
192	0xbcd5654c	-0.026049279
193	0x3e484aff	0.19559859
194	0xbc8e1a91	-0.017346652
195	0xbe23526b	-0.15949409
196	0xbdf2bc40	-0.11852312
197	0xbcfe67e1	-0.031055393
198	0x3dc544a7	0.09632235
199	0x3c61ae16	0.0137744155
200	0x3dec90dd	0.11551068
201	0xbca565bf	-0.020190118
202	0xbc5f51ff	-0.013630389
203	0xbd031d3e	-0.03201031
204	0x3d87163c	0.06596038
205	0xbdf24a10	-0.118305326
206	0x3cc81527	0.024424149
207	0xbdedf978	-0.11619848
208	0xbceee6fc	-0.029162876
209	0x3c5624d6	0.013070306
210	0x3d2cb972	0.042169042
211	0x3d8e673a	0.06953283
212	0x3d028669	0.031866465
213	0x3cc27b64	0.023740478
214	0xbd1ca55e	-0.038243644
215	0xbd50fcee	-0.051022463
216	0xbdb301e2	-0.087405935
217	0xbe011e12	-0.12609127
218	0x3d930436	0.071785375
219	0xbcfbbbb3	-0.03072915
220	0xbd0d0e10	-0.03443724
221	0x3d4a1c97	0.04934367
222	0x3e095c86	0.13414201
223	0xbd1ceaf0	-0.03830999
224	0xbde769d8	-0.11299485
225	0x3d00d982	0.03145743
226	0x3d3372df	0.04381072
227	0x3e07718e	0.13226911
228	0xbdb795fc	-0.08964154
229	0x3e13fb82	0.14451411
230	0x3d34c5bc	0.044133887
231	0xbd93a378	-0.072089136
232	0xbc8af589	-0.016962783
233	0xbdac59ab	-0.0841554
234	0xbc50ba43	-0.012739721
235	0xbe0b6fea	-0.1361691
236	0x3c36d751	0.011159734
237	0xbd74d68d	-0.059774924
238	0xbb66c4e3	-0.0035212568
239	0x3dadcf06	0.08486752
240	0x3d83657f	0.06415843
241	0xbc356a82	-0.011072757
242	0xbd2a0738	-0.04151079
243	0x3e0f59f1	0.13999154
244	0xbdc75a78	-0.097340524
245	0x3e0c0d6e	0.13676998
246	0xbd469771	-0.04848427
247	0xbdb78443	-0.08960774
248	0x3b1618e8	0.002290303
249	0xbd099635	-0.033590514
250	0xbd739355	-0.05946668
251	0xbdc7021a	-0.09717198
252	0xbdcadb88	-0.099051535
253	0x3d4c3b80	0.04986143
254	0x3df5185f	0.11967539
255	0x3e06f628	0.13179839

weight f4 [100]
0	0x3f7a2ba9	0.9772287
1	0x3f845e1c	1.034122
2	0x3f88a9b3	1.0676788
3	0x3f6f21ae	0.93410766
4	0x3f7df605	0.9920352
5	0x3f79a33b	0.97514695
6	0x3f802a7c	1.0012965
7	0x3f733fe2	0.9501935
8	0x3f7a8cbe	0.97871006
9	0x3f74461d	0.95419484
10	0x3f8741da	1.0566971
11	0x3f817aa7	1.0115556
12	0x3f8040c1	1.0019761
13	0x3f7a79a2	0.97841847
14	0x3f77cbc4	0.96795297
15	0x3f8930cd	1.0718018
16	0x3f78a67a	0.97129023
17	0x3f74f397	0.9568419
18	0x3f69ae57	0.91281646
19	0x3f83560f	1.0260638
20	0x3f81c820	1.0139198
21	0x3f79fdee	0.9765309
22	0x3f82af5a	1.0209763
23	0x3f7b8d1f	0.9826221
24	0x3f8b5d3a	1.0887825
25	0x3f836841	1.0266191
26	0x3f83fd63	1.0311702
27	0x3f76c7f1	0.96398836
28	0x3f77c7e7	0.967894
29	0x3f81bcdb	1.0135759
30	0x3f7fb7f5	0.9989007
31	0x3f7f71aa	0.9978281
32	0x3f8018af	1.0007533
33	0x3f842a29	1.0325366
34	0x3f86c611	1.0529195
35	0x3f71468c	0.9424827
36	0x3f7b2ef5	0.98118526
37	0x3f7d313e	0.9890326
38	0x3f7cd004	0.98754907
39	0x3f79aa69	0.9752565
40	0x3f7fe290	0.9995508
41	0x3f7712ad	0.9651287
42	0x3f71b4ad	0.94416314
43	0x3f745039	0.9543491
44	0x3f7af53c	0.9803045
45	0x3f84ad1d	1.036533
46	0x3f77ea30	0.96841717
47	0x3f732479	0.9497753
48	0x3f7d7205	0.99002105
49	0x3f82d50e	1.0221269
50	0x3f8c7228	1.0972338
51	0x3f7a827d	0.9785536
52	0x3f6dc5b2	0.92879784
53	0x3f822a4e	1.016916
54	0x3f876efa	1.0580742
55	0x3f7ec761	0.9952298
56	0x3f87941d	1.0592076
57	0x3f7d8763	0.9903471
58	0x3f867676	1.0504901
59	0x3f7b5d85	0.98189574
60	0x3f7c1da8	0.9848275
61	0x3f7e9cb4	0.9945786
62	0x3f8fb6f8	1.1227713
63	0x3f82cd3e	1.0218885
64	0x3f7a6c62	0.9782163
65	0x3f838f08	1.0278025
66	0x3f6bc40b	0.9209601
67	0x3f84c138	1.0371466
68	0x3f6d4e6a	0.92697775
69	0x3f7fe7ab	0.9996287
70	0x3f87860c	1.0587783
71	0x3f7e47dd	0.99328405
72	0x3f776c9d	0.96650106
73	0x3f865956	1.0496013
74	0x3f783631	0.9695769
75	0x3f82969c	1.0202212
76	0x3f834116	1.0254238
77	0x3f6b3b7b	0.91887635
78	0x3f8ff478	1.1246481
79	0x3f7fba13	0.998933
80	0x3f7c9fc1	0.98681265
81	0x3f80bd37	1.0057744
82	0x3f87f4c2	1.0621569
83	0x3f7194ad	0.94367486
84	0x3f777178	0.96657515
85	0x3f70b03f	0.9401893
86	0x3f68a2c5	0.90873367
87	0x3f87818c	1.058641
88	0x3f847e9b	1.0351137
89	0x3f76bc6d	0.96381265
90	0x3f85ed36	1.0463016
91	0x3f86aa78	1.0520773
92	0x3f877bad	1.0584618
93	0x3f898e79	1.0746604
94	0x3f83576d	1.0261055
95	0x3f85d6ed	1.0456215
96	0x3f72c860	0.94837
97	0x3f7717ad	0.965205
98	0x3f8e4b60	1.1116753
99	0x3f73c0f4	0.952163

bias f4 [100]
0	0x3d0d3f92	0.034484453
1	0xbd594e15	-0.05305298
2	0x3cf06461	0.02934474
3	0xbc9ce1e9	-0.019150691
4	0xbb52ddac	-0.0032175584
5	0xbc3e27c1	-0.011606158
6	0x3ce2b29d	0.02767306
7	0x3d018a2b	0.031625908
8	0xbd7f2d85	-0.06229927
9	0xbaf85b79	-0.0018948159
10	0xbbbf3d2c	-0.0058361497
11	0x3cb856eb	0.022502383
12	0x3ca0dbe6	0.019636106
13	0xbc13bca4	-0.009017143
14	0xbc64b39d	-0.013958839
15	0x3d41f20b	0.04734997
16	0xbc940c48	-0.018072262
17	0x3d0ffc87	0.03515294
18	0x3cd7164e	0.026255753
19	0x3dc007a5	0.09376458
20	0x3c5994bb	0.013280089
21	0xbc26a6ba	-0.010171587
22	0xbcd97afd	-0.026547903
23	0xbd1c69c3	-0.0381868
24	0x3d97a2f7	0.0740413
25	0xbc9ee08b	-0.01939418
26	0x3d0484b6	0.032353126
27	0x3c289433	0.01028924
28	0x3d15bda7	0.03655782
29	0xbcc29f35	-0.023757556
30	0xbd6b23c4	-0.057407156
31	0x3d73a7de	0.059486263
32	0xbcac26d5	-0.02101461
33	0x3c3eaff6	0.011638632
34	0xbdcbbfdf	-0.09948706
35	0x3c084078	0.008316152
36	0xbd7ce08f	-0.061737593
37	0x3d8a01fa	0.06738658
38	0xbc9dd193	-0.019264972
39	0x3c97e266	0.018540572
40	0xbc92c5a4	-0.017916508
41	0x3dac3020	0.084076166
42	0xbd847098	-0.06466788
43	0x3d321acc	0.043482587
44	0x3ccbd46f	0.02488157
45	0x3d1aa6b5	0.03775664
46	0xbd609e8f	-0.054838713
47	0xbb51df21	-0.0032023864
48	0x3c9bfff7	0.019042952
49	0x3d6ea4ac	0.058262512
50	0x3c7dfaea	0.015501717
51	0x3c5eb1c3	0.013592186
52	0x3d8b2ebe	0.06796025
53	0x3d4fabe9	0.050701056
54	0xbcdf33c5	-0.027246365
55	0x3da33031	0.07968176
56	0xbca35ee1	-0.019942703
57	0x3d45c650	0.04828483
58	0xba7eba9e	-0.0009717139
59	0x3dc176f8	0.094465196
60	0x3c133a30	0.008986041
61	0x3d3d50e5	0.046219725
62	0x3cde9a3a	0.02717315
63	0xbd23263f	-0.039831396
64	0x3da51cf3	0.08062162
65	0xbc8021de	-0.01564115
66	0xbbb29ab1	-0.0054505696
67	0xbd139e42	-0.0360396
68	0x3d15a0f6	0.036530457
69	0x3cae9959	0.021313356
70	0x3da69e95	0.08135716
71	0xbd03ff0f	-0.032225665
72	0xbd801beb	-0.06255325
73	0xbc0edbf0	-0.008719429
74	0xbd6d4f29	-0.05793682
75	0x3c96ae29	0.018393593
76	0x3d26f86d	0.04076426
77	0xbd3c58d1	-0.04598314
78	0x3d741f2b	0.059600037
79	0xbccf148e	-0.025278356
80	0xbca1104f	-0.019661097
81	0x3cf710d9	0.0301594
82	0x3d12640f	0.035739955
83	0x3c4f13a2	0.012638958
84	0xbc8a39b9	-0.016873227
85	0x3cecad54	0.028891243
86	0x3bc78406	0.0060887365
87	0xbd6c8bcc	-0.05775051
88	0x3cf26bcd	0.029592419
89	0x3bb4c76c	0.005516937
90	0x3c7995ef	0.015233501
91	0x3df83e33	0.121212386
92	0x3d05a1c6	0.032624982
93	0xbcaaa404	-0.020830162
94	0x3d290539	0.041264746
95	0x3d20ad83	0.039227974
96	0x3d94b244	0.07260564
97	0x3c8dbedc	0.017302923
98	0xbd455f9e	-0.04818689
99	0xbb8ec67b	-0.004357157

running_mean f4 [100]
0	0xbeee21f4	-0.4651028
1	0x3f3e07c6	0.7423061
2	0xbdabe5b2	-0.0839342
3	0xbea92113	-0.33033046
4	0xbef9414f	-0.4868264
5	0x3f8f76bf	1.1208113
6	0x3ff28b64	1.8948789
7	0xbf8b9652	-1.0905249
8	0x3e3455a3	0.17610793
9	0x3f3b66a3	0.73203486
10	0x3f0ab53d	0.541828
11	0x3f8e9313	1.1138633
12	0x3e2e51d7	0.17023407
13	0x3ef1a440	0.47195625
14	0x3f4a057d	0.78914624
15	0xbded79c7	-0.11595493
16	0x3f748060	0.95508385
17	0xbf88fab6	-1.0701511
18	0x3e02b213	0.12763242
19	0xbec75fb8	-0.38940215
20	0x3f80d4a4	1.0064893
21	0xbdcc86b9	-0.09986634
22	0xbee9e502	-0.45682532
23	0xbfbb42a6	-1.4629714
24	0x3e9d8088	0.30762124
25	0xbf36cf9c	-0.71410537
26	0x3e0e3180	0.1388607
27	0xbf88f639	-1.0700141
28	0xbee1760f	-0.44035384
29	0x3ef79980	0.483593
30	0xbeb110e3	-0.34583196
31	0x3e8346b6	0.25639886
32	0xbf4a6516	-0.79060495
33	0xbe43f92b	-0.19138019
34	0xbf980c8a	-1.1878827
35	0xbf8ab416	-1.0836208
36	0xbf134a31	-0.5753508
37	0xbf067d70	-0.5253515
38	0x3fc7e15b	1.5615648
39	0xbf07a576	-0.5298685
40	0x3eb7cefe	0.3590011
41	0x3e4485a5	0.19191606
42	0x3fe0a872	1.7551405
43	0x3d74e33e	0.059787028
44	0xbf305adc	-0.6888864
45	0xbf0e00b4	-0.5546982
46	0x3fc9f35c	1.5777392
47	0x3f826392	1.0186636
48	0x3f7a3330	0.97734356
49	0xbf46f0d3	-0.7771122
50	0xbe8010d0	-0.25012827
51	0xbe511d1a	-0.20421258
52	0xbf26424f	-0.6494493
53	0xc02bfa39	-2.6871474
54	0xbf64e579	-0.8941265
55	0xbf5a3292	-0.85233414
56	0xbf571475	-0.8401559
57	0x3eb50743	0.35357103
58	0x3cd5420a	0.026032466
59	0x3e091bc2	0.13389495
60	0xbfb254bc	-1.3932109
61	0xbf10d41b	-0.5657365
62	0x3f4d4b8c	0.801934
63	0xbf1b299d	-0.6061037
64	0x3e40b5e9	0.18819393
65	0xbf6b10ad	-0.9182232
66	0x3f498500	0.78718567
67	0x3ff0566a	1.8776371
68	0xbf4a7133	-0.7907898
69	0xbecbfa67	-0.3983948
70	0x3d10fbe2	0.035396464
71	0xbff35443	-1.901009
72	0xbe8a1e59	-0.26976278
73	0x3f9e90a9	1.2387897
74	0xbf2a4d9d	-0.6652468
75	0x3fa6c21c	1.3027987
76	0x3e06b455	0.13154729
77	0xbf9891ed	-1.1919533
78	0xbf16802d	-0.5878933
79	0xbfa52cea	-1.2904332
80	0xbe9252c3	-0.28578767
81	0xc0127452	-2.2883496
82	0xbed86894	-0.42267287
83	0x3e9ae8a7	0.30255625
84	0xbf8a030c	-1.078218
85	0x3f938242	1.1524127
86	0x3f62eb86	0.8864063
87	0xbe390729	-0.18069138
88	0x3d888f19	0.06667919
89	0xbdb1ac7f	-0.08675479
90	0x3f90b294	1.1304498
91	0x3ff17d35	1.8866335
92	0x3e1f8dc4	0.15581423
93	0x3e331031	0.17486645
94	0xbe4454c4	-0.1917296
95	0x3f7131aa	0.94216406
96	0xbea2fcb1	-0.31833413
97	0xbfa5395e	-1.2908132
98	0xbf38be5e	-0.7216548
99	0xbdd820c2	-0.10553123

running_var f4 [100]
0	0x40586dbe	3.3816981
1	0x3f881518	1.0631437
2	0x3fe6a387	1.8018655
3	0x40989aa4	4.768877
4	0x3f2cb001	0.6745606
5	0x3ff0fe87	1.8827676
6	0x40487848	3.1323414
7	0x40a5b063	5.1777816
8	0x3fe03e41	1.7518998
9	0x400ac169	2.1680548
10	0x3f62b367	0.88554996
11	0x40348bac	2.821025
12	0x40344957	2.8169763
13	0x40863af1	4.194695
14	0x3f82a245	1.0205771
15	0x3f4b513b	0.7942082
16	0x409736a9	4.7254224
17	0x40e23b01	7.0697026
18	0x40219770	2.524868
19	0x3fda70b1	1.7065641
20	0x4037be1b	2.870978
21	0x400951da	2.1456208
22	0x3f79b45b	0.97540826
23	0x40280082	2.625031
24	0x3fbcd671	1.4752942
25	0x402b023c	2.6720114
26	0x40d78933	6.735498
27	0x40bc1991	5.878121
28	0x401b62bb	2.427901
29	0x40469684	3.1029367
30	0x40c3f904	6.1241474
31	0x3fdcb1f3	1.7241806
32	0x400be518	2.1858578
33	0x402fb39a	2.745337
34	0x3f9eec03	1.2415775
35	0x3f87d58e	1.0612047
36	0x405beca2	3.436318
37	0x40cf0476	6.4692945
38	0x40482b4d	3.1276429
39	0x405380e5	3.304742
40	0x405496d6	3.3217063
41	0x409f1108	4.970829
42	0x4051ae4c	3.2762632
43	0x409e9b07	4.956424
44	0x404374a9	3.0539954
45	0x3f761bd7	0.9613623
46	0x4055c69a	3.3402467
47	0x40321196	2.7823234
48	0x414aea0b	12.682139
49	0x3f8c93fb	1.098266
50	0x3ffbd720	1.9675026
51	0x40bb4558	5.852215
52	0x406a28eb	3.6587474
53	0x4080da0f	4.0266185
54	0x3f7485fd	0.9551695
55	0x3f9bf9ac	1.2185569
56	0x3fbdf756	1.4841106
57	0x40050803	2.078614
58	0x4009112b	2.1416728
59	0x4029075d	2.6410744
60	0x4081e6ac	4.059408
61	0x40c313a2	6.0961466
62	0x3f5017cc	0.8128631
63	0x40ce592a	6.4483843
64	0x4096a958	4.708172
65	0x3fcbf624	1.5934491
66	0x40b13818	5.5380974
67	0x40162081	2.345734
68	0x3fa2deb5	1.2724215
69	0x3fef0822	1.8674357
70	0x4015512e	2.3330798
71	0x4085fcb1	4.187096
72	0x406d6353	3.7091873
73	0x407eb268	3.979639
74	0x4002b1d4	2.0421038
75	0x3fe48e8c	1.7856002
76	0x4098e0ab	4.7774253
77	0x40021512	2.032536
78	0x3efdf108	0.49597955
79	0x409d0380	4.9066772
80	0x3ff3c1dc	1.9043536
81	0x40e33496	7.100169
82	0x4039bb18	2.9020443
83	0x40bf8c9b	5.9859138
84	0x40cd6dfb	6.4196754
85	0x401cbe65	2.4491208
86	0x40dac367	6.836353
87	0x3fc5d708	1.5456247
88	0x408148a4	4.0401173
89	0x4034bb72	2.8239408
90	0x3f346610	0.70468235
91	0x4004090a	2.0630517
92	0x406d393e	3.7066188
93	0x3f90b142	1.1304095
94	0x3fa09f43	1.2548603
95	0x40375353	2.8644607
96	0x3fd0ba18	1.6306791
97	0x40a7b24b	5.2405143
98	0x4014f120	2.327217
99	0x3fa7b96a	1.3103459
