transformer_results_random_no_constants_no_param_tune/performance_prediction/PSO1-PSO2-PSO3-PSO4-PSO5-PSO6-PSO7-PSO8-PSO9-PSO10-PSO11-PSO12_random_no_constants_dim_10_samples_50_fold_1_budget_50_n_heads_2_n_layers_1_d_model_100_d_k_30_d_v_30_aggregations_mean/trained_model_dict.pt (torch, 341563 bytes, 22 tensors)

W_P.weight f4 [100, 11]
0.059862886 -0.09323464 -0.063475914 -0.26265463 -0.23440415 -0.12037975 0.02492647 0.27156183
-0.033267446 0.21506995 0.2509165 -0.2015555 0.25432813 0.063178904 0.12820023 -0.12088069
0.15037386 0.12030249 0.22191519 0.17431688 0.15532872 -0.28726858 0.18977776 -0.19197884
-0.16904317 -0.11959063 -0.2453223 0.13138598 0.19457676 -0.25774294 -0.059805505 -0.26514328
0.28897473 -0.22133318 -0.1563359 0.18878545 0.13376518 -0.16857341 0.23079233 0.00064854685
0.2839605 0.237057 -0.21615174 -0.34132287 -0.07789593 0.042406246 -0.065564305 0.1366026
0.03439412 -0.12076364 -0.27306232 -0.1098085 0.04640991 -0.09212072 0.26447147 0.28676543
-0.22389977 0.19983852 -0.15867223 0.1688815 0.010066076 0.2892779 0.23619145 0.17362455
-0.21529113 -0.38324684 0.22019562 -0.014027628 0.19556344 0.058941685 -0.12049641 0.2769014
-0.268679 0.16525647 -0.044868235 0.12174982 -0.20204838 -0.07388244 0.16154252 0.1888986
0.19518162 -0.092807434 -0.25860226 -0.055334438 -0.19757612 -0.08801842 -0.11169969 0.14812438
-0.055571467 -0.08482932 0.17418991 0.2129562 0.16547787 -0.0815589 0.0068314536 -0.14401764
-0.24966939 -0.07821375 0.193846 -0.116609156 0.08556362 -0.071761966 -0.20052736 0.04430762
-0.20813759 -0.20290351 0.11228968 -0.028961422 -0.24131282 -0.42655715 -0.06723761 0.15117602
0.20871477 0.22265542 -0.12523009 0.098206885 -0.101085514 -0.2706643 0.21343432 -0.004729946
-0.34629926 -0.07657609 -0.07885922 0.20688823 0.014422444 -0.14049013 0.07449154 -0.06414222
-0.12241398 -0.03886588 0.08879827 0.36329976 -0.016082976 -0.13871151 0.038697887 -0.25283772
-0.006672986 0.06276651 0.022647718 0.02870745 -0.0051318216 0.004445109 0.4042256 0.17829823
-0.25636542 -0.22675131 0.0825869 0.2728981 -0.22757727 0.11907889 -0.30395633 -0.020614464
0.031023432 -0.017614266 -0.15790375 -0.07940471 0.25520948 -0.05979914 0.17547269 0.2381308
0.24312195 -0.1319282 0.08407356 -0.12575333 0.40873018 0.10492514 -0.06596087 0.06594124
0.1459354 0.11659623 0.2902367 0.046008836 -0.2955204 -0.084114306 -0.084002696 0.1806007
-0.08013642 0.15978529 -0.16187958 -0.16744679 0.124548204 0.1762438 0.26850805 -0.097964056
0.20898786 0.13098122 -0.16942704 0.19990005 -0.08722134 -0.0014837361 0.25824115 -0.24779892
0.08351905 0.1183368 -0.26147616 0.12864985 -0.18819074 0.106213026 0.20725389 -0.27799252
-0.1709714 -0.07697096 -0.10904164 0.085837446 -0.11354703 0.26749462 -0.15836774 0.25844607
0.31112415 -0.23667991 -0.26957062 0.25660223 0.074499 -0.0032914402 0.2872768 0.15093608
0.19543062 -0.20660561 0.0830532 -0.33051115 -0.07434948 0.13323608 0.19647393 0.20651257
-0.08525817 -0.31311703 0.20637122 0.086209685 -0.20647618 0.01585196 0.10722658 -0.14784661
0.30217165 -0.13484736 -0.25952762 0.02641259 -0.10989896 0.051726703 0.03895848 -0.2852785
0.19196786 -0.3803843 0.24310745 -0.24470474 -0.1425877 0.0948051 0.052723918 -0.1305206
0.20937657 0.16838403 -0.02791919 -0.13190025 0.45209664 -0.085679784 -0.13566796 -0.054656044
00000000: c932 753d cef1 bebd a9ff 81bd ab7a 86be
00000010: a407 70be a989 f6bd 9932 cc3c 270a 8b3e
00000020: 7243 08bd 4c3b 5c3e 2178 803e 9164 4ebe
00000030: 4c37 823e f163 813d ec46 033e 4c90 f7bd
00000040: 9bfb 193e 2761 f63d bc3d 633e 2080 323e
00000050: 7e0e 1f3e de14 93be 1a55 423e 1a96 44be
00000060: a719 2dbe efeb f4bd c535 7bbe 0c8a 063e
00000070: 213f 473e e2f6 83be 9ef6 74bd dcc0 87be
00000080: 7ff4 933e 2aa5 62be 8516 20be f950 413e
00000090: bdf9 083e 829e 2cbe d354 6c3e 3e03 2a3a
000000a0: 4563 913e 12bf 723e e256 5dbe dfc1 aebe
000000b0: e787 9fbd 2cb2 2d3d 9446 86bd 8de1 0b3e
000000c0: d9e0 0c3d ed52 f7bd d3ce 8bbe 47e3 e0bd
000000d0: 5118 3e3d caa9 bcbd ce68 873e ebd2 923e
000000e0: fb45 65be 78a2 4c3e f97a 22be 46ef 2c3e
000000f0: 2fec 243c 3c1c 943e 2cdc 713e a2ca 313e
00000100: 4775 5cbe ee38 c4be f67a 613e 23d4 65bc
00000110: c841 483e d66c 713d d2c6 f6bd 05c6 8d3e
00000120: 4b90 89be fe38 293e c1c7 37bd f857 f93d
00000130: c5e5 4ebe ad4f 97bd 676b 253e a26e 413e
00000140: b1dd 473e d311 bebd 8467 84be 5da6 62bd
00000150: 6551 4abe 0043 b4bd cfc2 e4bd ebad 173e
00000160: e89e 63bd ffba adbd d75e 323e 3111 5a3e
00000170: 0873 293e 5a08 a7bd 63da df3b 5c79 13be
00000180: 55a9 7fbe 882e a0bd 917f 463e c8d0 eebd
00000190: fb3b af3d f0f7 92bd 0b57 4dbe e87b 353d
000001a0: 0522 55be f0c5 4fbe 22f8 e53d 8140 edbc
000001b0: b51a 77be b365 dabe dfb3 89bd e3cd 1a3e
000001c0: 53b9 553e c8ff 633e 513c 00be b120 c93d
000001d0: ec05 cfbd 8394 8abe 878e 5a3e aafd 9abb
000001e0: 234e b1be edd3 9cbd f180 a1bd 82da 533e
000001f0: 1d4c 6c3c a5dc 0fbe 058f 983d ff5c 83bd
00000200: 2eb4 fabd d431 1fbd dedb b53d 6d02 ba3e
00000210: 72c0 83bc 640a 0ebe ad81 1e3d f273 81be
00000220: 10a9 dabb ba8b 803d b587 b93c e32b eb3c
00000230: d728 a8bb 47a8 913b a8f6 ce3e d093 363e
00000240: 5442 83be 7f31 68be 5223 a93d 4db9 8b3e
00000250: 040a 69be a2df f33d 2aa0 9bbe aadf a8bc
00000260: da24 fe3c cb4b 90bc 85b1 21be f09e a2bd
00000270: d1aa 823e f1ef 74bd 1daf 333e 8fd8 733e
00000280: f6f4 783e 3018 07be c22e ac3d 7bc5 00be
00000290: 1545 d13e fee2 d63d 7e16 87bd 330c 873d
000002a0: 1770 153e 01ca ee3d e899 943e c373 3c3d
000002b0: 734e 97be 1f44 acbd 9b09 acbd 64ef 383e
000002c0: 901e a4bd c19e 233e c3c3 25be 2c77 2bbe
000002d0: 2113 ff3d 4179 343e e379 893e 61a1 c8bd
000002e0: ea00 563e f11f 063e 487e 2dbe 99b2 4c3e
000002f0: 1aa1 b2bd ec79 c2ba 2f38 843e 00bf 7dbe
00000300: 090c ab3d 905a f23d 34e0 85be c9bc 033e
00000310: 13b5 40be 3786 d93d 5d3a 543e 0955 8ebe
00000320: 2013 2fbe f3a2 9dbd 3951 dfbd 8bcb af3d
00000330: 588b e8bd 0ef5 883e 272b 22be 0b53 843e
00000340: aa4b 9f3e 385c 72be 2905 8abe 5e61 833e
00000350: ef92 983d 34b5 57bb f215 933e fd8e 1a3e
00000360: f71e 483e 6c90 53be cc17 aa3d c238 a9be
00000370: 8a44 98bd 0a6f 083e 7630 493e 0878 533e
00000380: d69b aebd e050 a0be fa52 533e b48e b03d
00000390: 7e6e 53be f8db 813c 9c99 db3d 1a65 17be
000003a0: 3eb6 9a3e 6d15 0abe cee0 84be 375f d83c
000003b0: b512 e1bd 61df 533d ed92 1f3d 0610 92be
000003c0: 3993 443e bbc1 c2be 29f1 783e e193 7abe
000003d0: 8302 12be 2d29 c23d 09f5 573d 31a7 05be
000003e0: d066 563e dd6c 2c3e c9b6 e4bc dc10 07be
000003f0: 3679 e73e e278 afbd 8bec 0abe 04df 5fbd

W_P.bias f4 [100]
0.085474424 0.06316948 0.24788043 0.10288532 0.060246877 -0.28358772 -0.26583156 0.09790133
0.37040266 -0.09697192 0.0908706 0.066136956 -0.24957156 0.09895311 -0.3861736 0.06597656
0.19603798 -0.09474811 0.27491868 -0.012143763 0.1181668 0.2091907 0.27619344 -0.21416266
-0.17986216 0.06313237 -0.18673737 0.33944225 0.057250876 0.15413763 0.2855921 -0.1294217
0.27580002 0.36815098 0.10410659 -0.18239729 0.21939258 0.0147716 0.049504593 -0.057807617
-0.1567863 -0.20163804 0.21324308 -0.18836959 -0.20271045 0.20670353 -0.23834339 0.26804596
0.07195606 0.05404995 -0.18591453 -0.047084708 0.2597961 0.051312186 0.1304766 0.2815348
0.24565773 0.26616377 0.20585611 -0.076082855 0.2755401 -0.4048064 -0.17405446 0.32675985
0.18576503 0.106114805 0.24780215 0.12879479 0.1938579 0.20513628 0.25126082 0.061811842
0.10683821 -0.008974854 0.11458804 0.2742856 -0.20021223 0.26372573 0.1774165 -0.049850553
-0.12932783 0.042314444 0.023129772 -0.27219158 -0.017273393 0.26285025 -0.19709747 -0.07111729
-0.06810997 -0.2402392 0.009951852 0.046349235 -0.14272656 -0.02784794 -0.057172116 -0.3469284
0.02453129 -0.0821623 -0.26241833 -0.16006242
00000000: 370d af3d 005f 813d 5ed4 7d3e 8ab5 d23d
00000010: 6ec5 763d 6932 91be 131b 88be 7e80 c83d
00000020: 6ba5 bd3e 3799 c6bd 5d1a ba3d d072 873d
00000030: b08f 7fbe eea7 ca3d 8cb8 c5be b81e 873d
00000040: 2ebe 483e 4c0b c2bd 24c2 8c3e a2f6 46bc
00000050: 6f01 f23d 1636 563e 3a69 8d3e 754d 5bbe
00000060: c92d 38be 8b4b 813d 1538 3fbe 60cb ad3e
00000070: e57f 6a3d 41d6 1d3e 2139 923e 1f87 04be
00000080: a935 8d3e 497e bc3e d635 d53d 5bc6 3abe
00000090: 73a8 603e 9504 723c 54c5 4a3d aec7 6cbd
000000a0: 968c 20be 347a 4ebe 655c 5a3e f5e3 40be
000000b0: 5493 4fbe 17aa 533e 4a10 74be 523d 893e
000000c0: b35d 933d 7b63 5d3d 6160 3ebe e5db 40bd
000000d0: ff03 853e ba2c 523d a89b 053e 5425 903e
000000e0: b38d 7b3e 9e46 883e f2cb 523e 54d1 9bbd
000000f0: 9813 8d3e c942 cfbe 553b 32be 114d a73e
00000100: 3039 3e3e b852 d93d d9bf 7d3e c8e2 033e
00000110: af82 463e 3f0f 523e 42a5 803e 6a2e 7d3d
00000120: fecd da3d 440b 13bc 22ad ea3d 2a6f 8c3e
00000130: 6f04 4dbe 0f07 873e acac 353e 1830 4cbd
00000140: 846e 04be e951 2d3d a67a bd3c b25c 8bbe
00000150: ee80 8dbc 4f94 863e ebd3 49be f1a5 91bd
00000160: 3d7d 8bbd 4401 76be 180d 233c b2d8 3d3d
00000170: e926 12be 5d21 e4bc 4f2d 6abd 99a0 b1be
00000180: d8f5 c83c b544 a8bd b25b 86be 67e7 23be

encoder.layers.0.self_attn.W_Q.weight f4 [60, 100]
-0.062546305 -0.028289411 0.056280486 -0.0018470448 0.009716011 0.097476505 0.046923604 0.0022214882
-0.049951278 -0.063736476 0.036326367 -0.069385305 -0.0124737965 0.100164935 -0.035659842 -0.024689907
0.0029774723 0.04995741 -0.04856911 0.04481032 -0.049907114 0.08175158 -0.006272334 0.023162669
-0.109685004 0.0014907763 0.011375091 -0.040941156 -0.026882084 0.016252318 0.08989798 -0.07021297
-0.07523843 0.021488572 0.008292937 0.059049755 0.011930389 0.11002257 0.08268081 -0.009304068
-0.06160874 -0.08349573 0.031153988 0.08843592 0.007184516 0.0008563465 0.020416971 0.04685999
-0.061579615 -0.082175694 0.07135865 0.109854974 0.020083651 0.07809537 -0.007974563 -0.03023191
0.053517044 0.024168035 -0.07455697 0.058445536 0.058339804 0.06006581 -0.043547705 0.03810158
-0.06937349 0.08100946 0.118113786 -0.07606197 0.042063847 0.08848835 0.0028681648 -0.015677096
-0.09307155 -0.09929007 -0.09873066 0.01044093 -0.15532675 -0.06212255 -0.05799248 -0.049219925
-0.048998956 0.08327048 -0.09541272 -0.028771905 -0.005524868 0.014015076 -0.002145719 -0.0017700716
0.060299367 -0.048317738 0.002227936 0.14140575 0.04991588 0.0010881384 -0.068185374 -0.0842055
0.0011110017 0.0154129425 0.0943527 -0.08794039 -0.12047405 -0.05536669 0.025645241 0.074672244
0.020598011 0.035080455 -0.039964523 0.04221 0.02511673 0.07323375 -0.053598534 0.05748823
-0.0494339 -0.0119564 0.009092747 0.049083177 -0.014511449 0.093798324 -0.09913105 -0.01105201
-0.04614493 -0.01475546 -0.074590065 -0.11999506 -0.041908566 0.030415231 -0.061874885 0.027812012
0.06227876 -0.042222086 0.0823477 0.033284284 -0.018540472 -0.04444697 -0.061214786 -0.028340409
-0.08887788 -0.01579092 0.097400084 -0.006090966 -0.034609098 -0.067058116 -0.04773773 -0.05094882
-0.11195996 -0.09272303 -0.10168312 0.038220257 -0.110420085 -0.1141039 -0.053983692 0.08990059
-0.026131911 -0.017257186 0.015288109 0.09689146 0.026846005 0.009506451 -0.08502 0.047518685
-0.024280773 0.028323641 0.06531236 0.11684781 -0.08316007 0.08118421 0.07851954 -0.026571292
0.07316088 -0.018592862 0.03302705 0.087109655 -0.03975451 -0.014844465 0.027824996 0.095233515
-0.07635038 -0.0061682197 0.12087448 0.032121643 -0.089246616 0.00426383 -0.03100533 0.029792322
-0.09737957 -0.053442605 -0.060505614 -0.01584026 -0.061207056 0.012159063 0.020019727 0.145845
0.06415323 0.08208622 -0.09791621 -0.080378 0.015359666 0.06954668 -0.008404428 -0.13616458
0.1153538 -0.124663025 0.02194019 -0.09570029 0.13950874 -0.11687028 0.00056712504 0.02844399
-0.09009211 0.04089445 0.01873213 0.12691991 0.03568523 0.09951163 0.06420042 0.02462009
-0.021807564 0.08000686 0.012936171 -0.09113146 -0.027042605 -0.05848134 0.010451774 -0.04636148
-0.046574406 0.074691035 -0.0259003 -0.02320194 -0.06922902 0.04859776 -0.006656366 0.024399264
-0.009209415 -0.007711646 -0.07012814 0.027448192 0.0647592 -0.13321239 -0.08431882 0.12180049
0.013792074 -0.035847627 -0.066048265 -0.0041448646 0.1464351 0.027767709 0.06797779 -0.0075183567
-0.068502426 0.10725077 -0.08110048 -0.17239812 -0.05941976 -0.020527862 -0.03655207 -0.076537624
00000000: 4718 80bd 32bf e7bc 5e86 663d 8a18 f2ba
00000010: e72f 1f3c c3a1 c73d f732 403d 6396 113b
00000020: b699 4cbd 4588 82bd f5ca 143d e219 8ebd
00000030: e55e 4cbc 4623 cd3d 0e10 12bd 7d42 cabc
00000040: b221 433b 24a0 4c3d 67f0 46bd 078b 373d
00000050: 676b 4cbd 5f6d a73d 2788 cdbb a3bf bd3c
00000060: 88a2 e0bd 2766 c33a 975e 3a3c eab1 27bd
00000070: d137 dcbc 9523 853c 6f1c b83d d1cb 8fbd
00000080: 9b16 9abd cd08 b03c 19df 073c 28de 713d
00000090: ae77 433c 8353 e13d 8e54 a93d 1770 18bc
000000a0: 7259 7cbd cfff aabd a636 ff3c e41d b53d
000000b0: 176c eb3b 717c 603a 7e41 a73c 43f0 3f3d
000000c0: e83a 7cbd bb4b a8bd 7c24 923d a5fb e03d
000000d0: 7886 a43c 77f0 9f3d bea7 02bc e9a8 f7bc
000000e0: b034 5b3d 0bfc c53c 53b1 98bd 9664 6f3d
000000f0: b8f5 6e3d 9107 763d 145f 32bd 6710 1c3d
00000100: b013 8ebd 4ae8 a53d a4e5 f13d 61c6 9bbd
00000110: 244b 2c3d 6139 b53d d2f7 3b3b 416d 80bc
00000120: 4c9c bebd 9858 cbbd 4d33 cabd 6f10 2b3c
00000130: fa0d 1fbe 3774 7ebd 8689 6dbd d59a 49bd
00000140: 21b3 48bd b789 aa3d bf67 c3bd 0fb3 ebbc
00000150: f409 b5bb 7d9f 653c 319f 0cbb bf01 e8ba
00000160: 78fc 763d d2e8 45bd 9002 123b abcc 103e
00000170: 9874 4c3d de9f 8e3a c6a4 8bbd ef73 acbd
00000180: 089f 913a 9186 7c3c fd3b c13d 171a b4bd
00000190: 19bb f6bd 2fc8 62bd f815 d23c c3ed 983d
000001a0: 29bd a83c 86b0 0f3d d7b1 23bd 65e4 2c3d
000001b0: 9ac1 cd3c 94fb 953d 238a 5bbd c778 6b3d
000001c0: 337b 4abd c7e4 43bc bff9 143c 710b 493d
000001d0: 6ec1 6dbc 5619 c03d 3805 cbbd 7d13 35bc
000001e0: 7702 3dbd e3c0 71bc adc2 98bd f8bf f5bd
000001f0: 51a8 2bbd 5d29 f93c 8570 7dbd 04d6 e33c
00000200: 0318 7f3d 11f1 2cbd e9a5 a83d 1a55 083d
00000210: 30e2 97bc 070e 36bd 5bbc 7abd 252a e8bc
00000220: 9b05 b6bd f65b 81bc b279 c73d ba96 c7bb
00000230: 45c2 0dbd c455 89bd a388 43bd b6af 50bd
00000240: 434b e5bd 92e5 bdbd 3d3f d0bd d88c 1c3d
00000250: ed23 e2bd 4eaf e9bd 011e 5dbd cd1d b83d
00000260: 9712 d6bc f15e 8dbc fa7a 7a3c 086f c63d
00000270: 27ec db3c f2c0 1b3c f71e aebd f4a2 423d
00000280: 79e8 c6bc fb06 e83c 7dc2 853d e84d ef3d
00000290: d44f aabd e843 a63d dace a03d 0aac d9bc
000002a0: 5fd5 953d 0f50 98bc 5f47 073d 8c66 b23d
000002b0: a0d5 22bd 3336 73bc 3ff1 e33c ca09 c33d
000002c0: 975d 9cbd c71e cabb 0a8d f73d fc91 033d
000002d0: eec6 b6bd 99b7 8b3b e4fe fdbc 070f f43c
000002e0: f16e c7bd a2e6 5abd bcd4 77bd 6fc3 81bc
000002f0: 40b4 7abd ce36 473c 6900 a43c 6458 153e
00000300: c562 833d d21c a83d 4b88 c8bd 399d a4bd
00000310: 1ca7 7b3c 7d6e 8e3d bab2 09bc ba6e 0bbe
00000320: 9d3e ec3d 544f ffbd eabb b33c 83fe c3bd
00000330: 61db 0e3e af59 efbd 1eab 143a 5f03 e93c
00000340: 3682 b8bd f080 273d 2074 993c 4bf7 013e
00000350: ad2a 123d c1cc cb3d 837b 833d 12b0 c93c
00000360: c7a5 b2bc a3da a33d 3cf2 533c 22a3 babd
00000370: 7488 ddbc 218a 6fbd eb3d 2b3c 89e5 3dbd
00000380: cec4 3ebd 9df7 983d de2c d4bc ff11 bebc
00000390: f2c7 8dbd 720e 473d a51d dabb f7e0 c73c
000003a0: 16e3 16bc fab1 fcbb 589f 8fbd 08db e03c
000003b0: 79a0 843d d468 08be 58af acbd 8972 f93d
000003c0: 27f8 613c f6d4 12bd 5044 87bd a5d1 87bb
000003d0: 15f3 153e 1b79 e33c f137 8b3d 8c5c f6bb
000003e0: 004b 8cbd 4ba6 db3d 0218 a6bd 2289 30be
000003f0: 2262 73bd 0c2a a8bc a0b7 15bd c2bf 9cbd

encoder.layers.0.self_attn.W_K.weight f4 [60, 100]
-0.069503725 0.05636558 -0.0051618763 -0.0398012 0.02555087 0.053580645 -0.044245884 -0.046480425
0.07684559 -0.08014228 -0.02338401 0.066239126 0.012315458 0.048352446 -0.015632711 0.0024586362
0.06309079 -0.035733454 0.100432076 0.088167354 -0.05207194 -0.13464026 0.06336504 -0.044713695
-0.014437192 0.033510573 0.06995767 0.023563273 -0.028967189 0.017931765 0.021548817 -0.083528526
-0.065250546 -0.03578961 0.10838913 0.009816515 -0.04569477 0.01341344 -0.03854924 0.040795084
0.020081235 -0.061815333 -0.051255833 0.08192969 0.0972301 0.054652777 0.05535604 0.06968754
-0.07105174 0.087121315 -0.007761009 -0.017258607 -0.0843965 0.040606298 0.01431442 0.018823735
-0.02095175 0.089004435 0.024905449 0.0037118914 0.07059074 0.06363292 -0.06899102 -0.00161879
-0.0037507038 0.012452276 -0.11567773 0.09940254 -0.04270233 -0.10213802 0.0026032731 0.07108971
-0.10723825 -0.048004273 0.017988162 0.100792035 0.002125123 0.07941719 0.12313156 0.06892614
0.051129136 0.049337026 -0.017905245 0.0057783313 -0.031470556 0.094048075 0.0975606 0.009628916
-0.062945105 -0.03695057 0.04048066 0.02791051 0.04847101 -0.07447946 0.015226089 0.07506426
0.08614633 -0.06131485 0.09413702 0.0683729 -0.010360883 0.017307095 -0.07308469 0.03942948
-0.024370229 0.08659662 0.03370782 0.02747078 0.038709484 -0.116810985 0.08181734 -0.07828967
0.06950309 -0.05034111 -0.019606382 0.013294484 0.038387626 0.095124476 -0.043010328 -0.04947058
-0.10670753 0.0163579 -0.032630414 0.01303468 0.032328013 -0.07193698 -0.027653294 0.04047535
0.0013820898 -0.057455633 0.115164 -0.049911655 0.014182099 0.045921616 0.015253442 0.100974776
0.069709286 0.05606843 -0.06483759 0.06297974 -0.038142458 -0.030967778 0.045571722 0.12151493
-0.008708451 -0.040076602 0.12605219 0.00915886 -0.019498514 0.025450313 -0.050866988 -0.05814207
0.003895753 -0.006091831 -0.015147309 -0.026424428 -0.15867616 0.11184912 -0.1201974 -0.14036414
0.04220959 -0.037000366 0.02650864 -0.041311115 0.08914166 0.080197535 -0.0486419 0.0015592258
-0.0021136736 0.06367652 -0.017910633 0.009134378 0.06741039 -0.097117536 -0.00023077911 0.11047015
0.025318539 0.001305941 0.0313934 0.05874096 -0.047200706 0.05085622 -0.109226465 -0.058707416
-0.00029207492 0.021266699 -0.001440255 -0.093980856 0.010090641 -0.10090855 -0.06740736 -0.08058535
-0.031428292 0.03460107 0.102827296 0.07916363 0.044064865 0.059111577 0.015337952 0.088152505
0.047720995 0.053805415 0.039647404 0.027896019 -0.09289915 -0.13164937 -0.05545299 0.0380066
-0.014111028 0.029452248 -0.1044784 0.07851368 -0.036703587 -0.010464181 -0.04362856 0.033184398
-0.031032851 0.026377609 0.14562611 -0.08488417 0.04608008 0.14815514 -0.04108321 0.06285083
0.097745724 0.114906184 0.074930035 0.07538513 -0.109716184 -0.029490123 0.013821509 0.1012127
0.02705905 -0.08250968 -0.111734755 0.0040215263 -0.03562566 0.034093305 -0.021868674 0.114400655
0.1626238 0.010489118 -0.05401207 -0.02750284 0.04076048 -0.07221801 0.008828154 -0.0037877827
-0.022813525 -0.13482846 -0.05848863 0.044581406 -0.02806837 -0.09779821 -0.051829956 0.116030894
00000000: f857 8ebd 98df 663d f524 a9bb 9506 23bd
00000010: 0f50 d13c 6177 5b3d 2c3b 35bd 4262 3ebd
00000020: 3861 9d3d a321 a4bd d38f bfbc 61a8 873d
00000030: c6c6 493c 370d 463d 2c10 80bc 1221 213b
00000040: be35 813d 3e5d 12bd 55af cd3d 1691 b43d
00000050: 6349 55bd 23df 09be 88c5 813d b525 37bd
00000060: f989 6cbc 6242 093d f845 8f3d c407 c13c
00000070: 994c edbc a3e5 923c 2587 b03c 0111 abbd
00000080: 14a2 85bd 2098 12bd 1ffb dd3d 73d5 203c
00000090: 702a 3bbd 0cc4 5b3c cfe5 1dbd bf18 273d
000000a0: 6781 a43c 1332 7dbd a3f1 51bd c1ca a73d
000000b0: 9320 c73d 97db 5f3d 04bd 623d 57b8 8e3d
000000c0: 9383 91bd a96c b23d 1050 febb ec61 8dbc
000000d0: 12d8 acbd ca52 263d 0787 6a3c 3c34 9a3c
000000e0: 01a3 abbc f547 b63d 8306 cc3c 3443 733b
000000f0: e191 903d fa51 823d 2a4b 8dbd 942d d4ba
00000100: 5ece 75bb a204 4c3c 72e8 ecbd 8f93 cb3d
00000110: a3e8 2ebd bd2d d1bd ad9b 2a3b 7b97 913d
00000120: ba9f dbbd 21a0 44bd e95b 933c 0e6c ce3d
00000130: a645 0b3b 7ba5 a23d 662c fc3d 2629 8d3d
00000140: c96c 513d 9f15 4a3d 05ae 92bc 2858 bd3b
00000150: 45e7 00bd 479c c03d dacd c73d 9ac2 1d3c
00000160: 5de9 80bd 7b59 17bd 0ccf 253d 95a4 e43c
00000170: 8a89 463d b088 98bd d976 793c 4abb 993d
00000180: 7d6d b03d 4825 7bbd e9ca c03d 1707 8c3d
00000190: b1c0 29bc 9cc7 8d3c 6dad 95bd ce80 213d
000001a0: 13a4 c7bc 9259 b13d 3611 0a3d 670a e13c
000001b0: d68d 1e3d 993a efbd d98f a73d 5656 a0bd
000001c0: a357 8e3d 7b32 4ebd 909d a0bc 1bd1 593c
000001d0: 583c 1d3d 9fd0 c23d 992b 30bd aaa1 4abd
000001e0: 7a89 dabd 0101 863c 78a7 05bd 698f 553c
000001f0: 616a 043d b253 93bd 2989 e2bc 7bc9 253d
00000200: 3d27 b53a 9956 6bbd 1adb eb3d 2a70 4cbd
00000210: 095c 683c 4e18 3c3d 93e9 793c ddcb ce3d
00000220: bec3 8e3d 03a8 653d 92c9 84bd 86fb 803d
00000230: 443b 1cbd 23b0 fdbc 6aa9 3a3d d2dc f83d
00000240: e4ad 0ebc 5d27 24bd d313 013e 0b0f 163c
00000250: 59bb 9fbc 2d7d d03c e759 50bd 6126 6ebd
00000260: e44f 7f3b fb9d c7bb 6b2c 78bc 0b78 d8bc
00000270: 017c 22be 2711 e53d 0e2a f6bd 9ebb 0fbe
00000280: f7e3 2c3d b28d 17bd a628 d93c d835 29bd
00000290: e78f b63d 9b3e a43d bb3c 47bd f05e cc3a
000002a0: 8f85 0abb d668 823d 52b9 92bc 5ca8 153c
000002b0: 750e 8a3d 8fe5 c6bd 4cfd 71b9 2d3e e23d
000002c0: d368 cf3c 1c2c ab3a 5e96 003d 5c9a 703d
000002d0: 8755 41bd 9d4e 503d 20b2 dfbd 3077 70bd
000002e0: a221 99b9 8037 ae3c f0c6 bcba 0979 c0bd
000002f0: 3753 253c 24a9 cebd df0c 8abd ef09 a5bd
00000300: f4ba 00bd dab9 0d3d 1e97 d23d 8b20 a23d
00000310: 5c7d 343d fb1e 723d 094c 7b3c 4d89 b43d
00000320: 1777 433d 1163 5c3d 5165 223d 3186 e43c
00000330: e941 bebd 18cf 06be ad22 63bd cfac 1b3d
00000340: f131 67bc d745 f13c c5f8 d5bd c8cb a03d
00000350: 8056 16bd f571 2bbc dcb3 32bd 5dec 073d
00000360: 9b38 febc db15 d83c 031f 153e c0d7 adbd
00000370: 77be 3c3d fbb5 173e de46 28bd f0b7 803d
00000380: e92e c83d ef53 eb3d eb74 993d 8563 9a3d
00000390: e1b2 e0bd 4595 f1bc 9c73 623c 9b48 cf3d
000003a0: f1aa dd3c d6fa a8bd 31d5 e4bd 02c7 833b
000003b0: 36ec 11bd 6ca5 0b3d ef25 b3bc e44a ea3d
000003c0: da86 263e 8dda 2b3c c33b 5dbd a34d e1bc
000003d0: 76f4 263d 09e7 93bd f6a3 103c 733c 78bb
000003e0: 6ee3 babc 7910 0abe c691 6fbd fe9a 363d
000003f0: a3ef e5bc 6e4a c8bd a64b 54bd 9ba1 ed3d

encoder.layers.0.self_attn.W_V.weight f4 [60, 100]
0.09766898 -0.03242489 0.04403258 0.1011997 -0.111904085 -0.03495142 -0.055449627 0.079040445
0.025828457 0.04303835 0.0027215471 -0.08075089 -0.023641327 -0.10029673 -0.062655255 -0.13904239
-0.06278145 0.051100556 -0.053823527 -0.094043165 0.045971345 -0.054100186 -0.13348404 -0.0886014
-0.08041643 -0.09563144 -0.048759077 -0.10965458 0.07832278 -0.026666347 0.03749969 -0.046114013
0.03903141 0.09179425 -0.024061788 0.085138455 -0.12283282 0.13013427 -0.0440115 0.019895894
-0.10244279 -0.046512518 -0.06962616 0.084183946 0.05533758 0.019554993 0.026160128 0.05107491
0.026666772 -0.030877167 0.063214354 -0.04321572 0.12338303 0.019440264 0.09241817 -0.015640505
-0.068198785 -0.08557164 0.0059175002 0.16398712 0.017433774 0.062211454 0.06830778 -0.043612495
0.04235553 -0.0030079756 0.037558198 -0.050150514 -0.032336373 0.074447334 -0.1033157 0.036375735
-0.079714276 -0.07528898 0.084891975 0.014540779 -0.10822618 0.06797814 -0.017149175 0.0028121958
-0.053795036 -0.07171121 -0.0135999555 0.008051583 0.041116163 0.07905599 -0.023798406 -0.10175734
-0.10515064 -0.08035029 -0.11355627 0.016233006 0.04152753 -0.036124595 -0.12280096 0.006634188
-0.065240994 0.030488659 0.027453722 -0.031450115 -0.013593321 -0.03979181 -0.10221843 -0.020348165
0.009352411 0.012380899 -0.08090899 -0.06267172 -0.06925644 -0.027008647 0.0037306366 -0.1185693
-0.1630931 -0.044164475 0.02250488 -0.07401718 -0.005308189 -0.015382155 -0.010923919 0.033971958
0.03730764 0.09814354 -0.07008953 0.0027462407 -0.13744786 -0.11939997 0.04788814 -0.05990842
0.064564906 -0.0014675113 0.06264153 -0.031377453 0.008429918 -0.040992714 0.053921793 -0.03388676
-0.010927514 0.08692406 0.05041643 -0.13162614 -0.015057095 -0.05536857 -0.06812562 -0.07203529
-0.014165594 -0.06276601 -0.050742663 -0.122037746 -0.009754733 -0.0697188 -7.5425676e-05 0.051772363
0.048582472 0.0638367 0.03264874 -0.0008906099 0.0773505 -0.0041898536 -0.050885 0.08679706
0.05925134 -0.017061003 -0.010263541 0.115382425 0.044423923 -0.0039284956 0.05213098 -0.10469535
0.1054923 0.025070792 -0.010355421 0.07780734 -0.014668668 -0.06553981 -0.06651492 -0.015069691
-0.08826186 -0.02425048 0.033009317 -0.047616642 -0.005274305 -0.067453645 -0.02815526 -0.14507058
0.0134548 0.07639512 -0.14797841 -0.11716847 0.076572716 0.046937644 0.026495788 -8.723235e-05
0.008902077 -0.07849298 -0.05677315 -0.095098205 0.06802249 -0.011598822 0.020801054 -0.045615673
-0.052574415 -0.09044411 -0.034639116 -0.008288833 -0.035528664 -0.10040267 0.040194705 -0.019068383
0.06072839 0.010919843 -0.101501435 0.16013715 0.030683622 0.04126635 0.08610399 -0.010182699
-0.03947572 0.03717462 0.0043014553 0.06431522 0.008418149 -0.029731479 0.094839126 0.023561679
0.08405674 0.08957795 0.04367273 0.13395184 0.002494412 -0.04141743 -0.1284301 0.11079358
0.11155718 0.0028619836 -0.029155768 -0.0909862 0.06316281 -0.09879454 0.008725113 0.09783739
0.054336477 -0.070816964 -0.10861415 -0.05894809 0.03725225 -0.09551454 0.010316775 -0.026539974
0.020976882 0.028871426 0.029226294 0.02856589 -0.11994756 -0.007856931 -0.071240336 -0.14118667
00000000: ad06 c83d f6cf 04bd 825b 343d ca41 cf3d
00000010: f82d e5bd 3829 0fbd 261f 63bd f5df a13d
00000020: 3396 d33c fb48 303d fc5b 323b b960 a5bd
00000030: 75ab c1bc 5f68 cdbd 6651 80bd 2161 0ebe
00000040: 9093 80bd d14e 513d 0f76 5cbd b499 c0bd
00000050: 734c 3c3d 2898 5dbd 0ab0 08be a774 b5bd
00000060: 5fb1 a4bd 6bda c3bd 99b7 47bd 9592 e0bd
00000070: b267 a03d 6273 dabc 4699 193d 0ce2 3cbd
00000080: 66df 1f3d a0fe bb3d 3a1d c5bc 125d ae3d
00000090: c68f fbbd eb41 053e 6745 34bd b7fc a23c
000000a0: 87cd d1bd e983 3ebd 2998 8ebd a268 ac3d
000000b0: a9a9 623d cb31 a03c c44d d63c ed33 513d
000000c0: 4674 da3c 1df2 fcbc 8776 813d f802 31bd
000000d0: 3eb0 fc3d 3041 9f3c bd45 bd3d 8420 80bc
000000e0: ceab 8bbd 2f40 afbd 97e7 c13b 3dec 273e
000000f0: 46d1 8e3c 70d1 7e3d f3e4 8b3d 04a3 32bd
00000100: fe7c 2d3d 7521 45bb a0d6 193d a06a 4dbd
00000110: 2573 04bd d877 983d 2f97 d3bd b9fe 143d
00000120: 3d41 a3bd 1c31 9abd d8db ad3d 733c 6e3c
00000130: b0a5 ddbd 2038 8b3d 6d7c 8cbc d14c 383b
00000140: 2f58 5cbd 54dd 92bd 59d2 5ebc c9ea 033c
00000150: 6c69 283d 1be8 a13d e0f4 c2bc 2766 d0bd
00000160: 3859 d7bd b18e a4bd 3190 e8bd 15fb 843c
00000170: c518 2a3d 62f7 13bd 127f fbbd 9a63 d93b
00000180: 129d 85bd 5ac3 f93c a1e6 e03c d6d1 00bd
00000190: 85b6 5ebc bdfc 22bd e557 d1bd 32b1 a6bc
000001a0: db3a 193c 41d9 4a3c 9db3 a5bd 085a 80bd
000001b0: 52d6 8dbd 3d41 ddbc b27d 743b 76d4 f2bd
000001c0: e101 27be cfe5 34bd 275c b83c 5296 97bd
000001d0: 51f0 adbb 6f05 7cbc 3dfa 32bc 2e26 0b3d
000001e0: e5cf 183d 7bff c83d 198b 8fbd 46fa 333b
000001f0: 22bf 0cbe f987 f4bd 5b26 443d 8862 75bd
00000200: 9b3a 843d 8259 c0ba 344a 803d a585 00bd
00000210: a41d 0a3c fae7 27bd 19dd 5c3d d8cc 0abd
00000220: 5109 33bc 3e05 b23d 7581 4e3d 01c9 06be
00000230: 09b2 76bc 27ca 62bd 7285 8bbd 3d87 93bd
00000240: cf16 68bc 778b 80bd 8ad7 4fbd edee f9bd
00000250: 51d2 1fbc bbc8 8ebd da2d 9eb8 420f 543d
00000260: 6afe 463d d1bc 823d afba 053d d277 69ba
00000270: f069 9e3d 0a4b 89bb ca6c 50bd a8c2 b13d
00000280: 88b1 723d 84c3 8bbc 6928 28bc 9f4d ec3d
00000290: dcf5 353d 9cba 80bb 4b87 553d 846a d6bd
000002a0: 590c d83d 4361 cd3c c9a9 29bc 7459 9f3d
000002b0: da54 70bc bc39 86bd f938 88bd dee6 76bc
000002c0: a2c2 b4bd f1a8 c6bc c734 073d ab09 43bd
000002d0: 14d4 acbb 2325 8abd dca5 e6bc 628d 14be
000002e0: 8571 5c3c 0b75 9c3d a787 17be 06f6 efbd
000002f0: 28d2 9c3d b041 403d b20d d93c 83f0 b6b8
00000300: 04da 113c edc0 a0bd f68a 68bd d9c2 c2bd
00000310: 604f 8b3d fc08 3ebc f966 aa3c 80d7 3abd
00000320: 4558 57bd c33a b9bd bfe1 0dbd e3cd 07bc
00000330: 8186 11bd ea9f cdbd 34a3 243d 4c35 9cbc
00000340: 55be 783d 24e9 323c fcdf cfbd fefa 233e
00000350: 385c fb3c e706 293d 4a57 b03d 56d5 26bc
00000360: 4bb1 21bd 6a44 183d 39f3 8c3b b3b7 833d
00000370: 47ec 093c 6e8f f3bc 043b c23d 6c04 c13c
00000380: f125 ac3d a574 b73d 2de2 323d ac2a 093e
00000390: 4a79 233b 53a5 29bd 2e83 03be bfe7 e23d
000003a0: 1778 e43d 1e90 3b3b 14d8 eebc f956 babd
000003b0: 815b 813d cb54 cabd c7f3 0e3c f85e c83d
000003c0: ed8f 5e3d 7c08 91bd 1871 debd 8d73 71bd
000003d0: d195 183d 219d c3bd b107 293c 5c6a d9bc
000003e0: b6d7 ab3c c583 ec3c fb6b ef3c 0303 ea3c
000003f0: 11a7 f5bd 5bba 00bc 74e6 91bd 3d93 10be

encoder.layers.0.self_attn.W_O.weight f4 [100, 60]
0.08550902 -0.039489515 -0.11381341 0.13169879 0.017223116 0.026132599 -0.06330178 -0.15152165
-0.0659903 0.053798556 -0.18168993 0.02646414 0.04593735 -0.017017128 -0.09800164 -0.1094301
0.08723933 -0.04347275 0.041366298 0.062161326 0.033545487 0.05596381 0.09470441 -0.082555436
0.016362254 0.058976732 0.06633242 0.05618008 -0.0878488 -0.12677176 0.17000823 0.009005131
0.042723697 0.19220944 0.084085494 -0.029473728 0.06517951 -0.05093114 -0.08122576 -0.048911482
-0.15421994 -0.1103195 0.019732445 -0.22074182 -0.037620317 0.07836656 0.0056365407 -0.15560777
-0.017754683 -0.047410443 0.073985465 0.017196493 -0.08206495 -0.017297018 0.04781096 0.10912295
-0.11155749 -0.015275598 0.12949714 0.036948908 -0.06658772 0.100648835 0.06271204 -0.054163147
0.17982082 0.09048718 -0.16237813 -0.11089878 0.05374866 -0.09558577 -0.048267 -0.15688103
0.03581189 -0.10846947 -0.093622044 -0.045024246 -0.049511682 0.15576728 -0.03933742 -0.113514796
0.05938152 0.02668502 0.008776478 -0.09492216 0.08707123 -0.13134421 0.11670799 -0.06573334
0.00884293 0.04867902 -0.027107604 0.1879232 -0.012746255 0.13732782 0.08060445 0.16074759
-0.007409187 0.14852177 0.043215904 0.051219527 -0.031105215 -0.020004468 0.15941052 0.029885614
-0.1424547 -0.06418854 -0.2015953 -0.16107364 -0.17185546 0.09510993 -0.045975536 -0.13032617
0.049787175 -0.06305928 -0.019280251 -0.07018297 -0.01296216 -0.051998913 0.14504357 0.09588233
0.020412743 -0.082749106 -0.07528192 0.15108716 -0.070777915 0.13652939 0.07592512 -0.089116886
-0.07517148 -0.1489257 0.019690614 -0.028033964 -0.051855136 -0.085026704 -0.09463968 0.112209834
-0.1218874 0.066531785 0.06794441 0.0810228 0.1752383 0.021960722 -0.046654075 -0.066369265
-0.07680912 0.01259177 -0.14127305 0.13129024 -0.034364425 -0.008177149 -0.1306035 0.027715398
-0.07720935 -0.01592668 -0.018569656 -0.025250742 0.032112148 0.053448025 -0.15595227 -0.007939344
0.04095875 0.10945437 -0.13980588 0.021238795 -0.060021155 0.09397353 -0.037229095 0.11595046
-0.072569266 -0.10411335 -0.12747413 0.09681526 -0.006551382 0.0020618879 0.05940172 -0.08192339
-0.078468286 0.08884556 0.038719382 0.10097662 0.10797755 0.13684526 0.07315759 0.08501533
0.038368326 -0.052017484 0.062981956 -0.12073718 0.00063086033 -0.07715098 -0.065700896 -0.059508394
-0.11893439 -0.13894531 -0.09316884 0.0019197778 -0.12994723 0.07712739 0.086452775 -0.079936564
0.019296432 -0.09906364 -0.010978996 0.042792764 0.106049225 -0.1436251 0.06948212 -0.11319245
-0.03644544 0.07964123 -0.05213608 -0.06651591 0.05765664 -0.03580976 -0.060224652 -0.07253827
-0.06840047 0.077667065 0.05293397 -0.13441005 -0.13096559 -0.06525539 0.07498883 -0.11885492
-0.1540185 0.108010076 0.04300721 -0.08729106 -0.11964682 0.20255278 -0.061948866 -0.06619833
0.018179515 0.00036253032 -0.05434388 -0.07717856 0.08689674 0.16610152 0.11259689 0.058467314
-0.10398796 0.040706716 0.08892229 0.019753316 0.0389971 -0.009197169 0.06878638 -0.008704097
-0.08738679 0.093630955 0.09366989 0.028776353 0.0138591435 0.07387582 0.03142283 0.10277121
00000000: 5a1f af3d c2bf 21bd 0117 e9bd 0cdc 063e
00000010: 7e17 8d3c 0814 d63c 5da4 81bd 7e28 1bbe
00000020: ec25 87bd e05b 5c3d ed0c 3abe 53cb d83c
00000030: cd28 3c3d 8167 8bbc 15b5 c8bd e31c e0bd
00000040: 89aa b23d 7b10 32bd b56f 293d e09c 7e3d
00000050: fe66 093d 4f3a 653d 63f4 c13d d312 a9bd
00000060: 220a 863c 9691 713d 4bd9 873d 151d 663d
00000070: 12ea b3bd 75d0 01be a316 2e3e 428a 133c
00000080: 0bff 2e3d 8dd2 443e 0435 ac3d e372 f1bc
00000090: d67c 853d 2c9d 50bd b159 a6bd 6857 48bd
000000a0: d5eb 1dbe 31ef e1bd f0a5 a13c 250a 62be
000000b0: c317 1abd a67e a03d bbb2 b83b a557 1fbe
000000c0: 4572 91bc 7431 42bd b185 973d a9df 8c3c
000000d0: ab11 a8bd 7ab2 8dbc 6dd5 433d da7b df3d
000000e0: 4178 e4bd 8046 7abc e69a 043e bd57 173d
000000f0: 245f 88bd fa20 ce3d 2c6f 803d 2dda 5dbd
00000100: f322 383e 5851 b93d 7446 26be e61e e3bd
00000110: 8e27 5c3d 79c2 c3bd 9eb3 45bd 6ca5 20be
00000120: 7daf 123d 3e25 debd eabc bfbd 586b 38bd
00000130: c3cc 4abd 7581 1f3e 4620 21bd 727a e8bd
00000140: 093a 733d 8b9a da3c 37cb 0f3c 8d66 c2bd
00000150: 6752 b23d 197f 06be 9904 ef3d 349f 86bd
00000160: f0e1 103c a763 473d c410 debc f06e 403e
00000170: abd5 50bc aa9f 0c3e f213 a53d 049b 243e
00000180: c4c8 f2bb 1716 183e 2903 313d 91cb 513d
00000190: 5dd0 febc 69e0 a3bc 833c 233e add2 f43c
000001a0: a5df 11be 4875 83bd 006f 4ebe 7df0 24be
000001b0: e1fa 2fbe ffc8 c23d d850 3cbd 3974 05be
000001c0: a3ed 4b3d 3925 81bd 9ef1 9dbc 17bc 8fbd
000001d0: 3d5f 54bc d0fc 54bd 4d86 143e f45d c43d
000001e0: a038 a73c 5d78 a9bd 682d 9abd 98b6 1a3e
000001f0: 03f4 90bd 5cce 0b3e a17e 9b3d ea82 b6bd
00000200: 81f3 99bd fb7f 18be 364e a13c 7ca7 e5bc
00000210: 0d66 54bd 7b22 aebd 73d2 c1bd 45ce e53d
00000220: 1aa0 f9bd d141 883d 7026 8b3d 48ef a53d
00000230: ab71 333e f9e6 b33c 5818 3fbd 9cec 87bd
00000240: 1a4e 9dbd b64d 4e3c e2a9 10be f370 063e
00000250: b6c1 0cbd 73f9 05bc edbc 05be 670b e33c
00000260: f01f 9ebd ab78 82bc 641f 98bc a5da cebc
00000270: 0788 033d 51ec 5a3d f4b1 1fbe 0614 02bc
00000280: 5dc4 273d 9d29 e03d 4629 0fbe fbfc ad3c
00000290: bed8 75bd 3275 c03d 897d 18bd 6f77 ed3d
000002a0: 329f 94bd 6139 d5bd 9488 02be 1447 c63d
000002b0: faac d6bb bd20 073b 384f 733d 73c7 a7bd
000002c0: fbb3 a0bd a9f4 b53d 3798 1e3d d5cc ce3d
000002d0: 5523 dd3d 2a21 0c3e a6d3 953d 841c ae3d
000002e0: 1b28 1d3d 4910 55bd affc 803d 0e45 f7bd
000002f0: 5260 253a 5501 9ebd 318e 86bd 13bf 73bd
00000300: e093 f3bd ae47 0ebe 4ecf bebd 0ea1 fb3a
00000310: e310 05be f7f4 9d3d 270e b13d c8b5 a3bd
00000320: 8d13 9e3c e1e1 cabd 3fe1 33bc 7747 2f3d
00000330: 5630 d93d 7512 13be a44c 8e3d 71d1 e7bd
00000340: d047 15bd f11a a33d a48c 55bd 7e39 88bd
00000350: 5e29 6c3d 41ad 12bd 20ae 76bd f28e 94bd
00000360: 8c15 8cbd e90f 9f3d 4ad1 583d caa2 09be
00000370: d81b 06be 9ea4 85bd be93 993d 356a f3bd
00000380: 07b7 1dbe 6334 dd3d 5428 303d a8c5 b2bd
00000390: 6409 f5bd ff69 4f3e 18be 7dbd fd92 87bd
000003a0: 35ed 943c ff11 be39 b097 5ebd cb0f 9ebd
000003b0: ebf6 b13d 8416 2a3e 3399 e63d 6c7b 6f3d
000003c0: a4f7 d4bd 16bc 263d e41c b63d b5d1 a13c
000003d0: 6cbb 1f3d b9af 16bc e0df 8c3d a19b 0ebc
000003e0: d8f7 b2bd 96c1 bf3d 00d6 bf3d 63bc eb3c
000003f0: 7611 633c 354c 973d 3ab5 003d b679 d23d

encoder.layers.0.batchnorm_attn.1.weight f4 [100]
0.9884916 1.0250417 0.9455746 0.9370977 1.0468714 0.98992974 0.9831827 0.9475609
1.0005538 1.0552247 1.0197484 0.95502275 1.0986624 0.9774303 1.0813624 0.99786305
0.96912163 0.9309308 0.97736645 1.0100386 0.95067453 1.005501 0.9769038 0.9466589
0.99978185 1.0503515 1.0753003 1.0154638 0.9771515 0.971383 0.9595054 1.123937
1.020017 0.93275946 1.0615207 1.0018886 1.0932925 0.9525885 0.9929023 1.0283505
0.9833199 1.0881457 0.98333544 0.9328454 0.9219322 0.9942175 0.9756004 0.9868386
1.0401 1.081664 0.96164787 1.012911 1.0243084 0.9789645 0.9714124 1.0121189
0.987461 0.9731541 1.0457724 0.9941005 1.0295753 1.0027238 1.0448039 0.9549359
1.0585687 0.99068403 0.9935901 1.0293018 0.93617326 0.9368849 1.0082908 1.0165548
1.0201923 0.9404325 0.94273096 0.9951089 1.0038728 1.0892245 0.994136 1.039952
1.0640318 1.0457606 1.0322424 1.0169966 1.0372167 1.0083228 0.99576306 1.0581911
1.0283245 0.9933334 0.99158 1.0182241 1.0011463 1.0092568 1.0120842 1.0592062
0.99756134 1.0111641 0.97602534 1.0104731
00000000: c90d 7d3f 9134 833f 2d11 723f a3e5 6f3f
00000010: e2ff 853f 096c 7d3f ddb1 7b3f 5a93 723f
00000020: 2612 803f 9a11 873f 1e87 823f 5f7c 743f
00000030: f8a0 8c3f df38 7a3f 156a 8a3f f473 7f3f
00000040: 5b18 783f 7b51 6e3f b034 7a3f f248 813f
00000050: 685f 733f 42b4 803f 5e16 7a3f 3d58 723f
00000060: b4f1 7f3f eb71 863f 71a3 893f b8fa 813f
00000070: 9a26 7a3f 8eac 783f 25a2 753f 2bdd 8f3f
00000080: eb8f 823f 53c9 6e3f e9df 873f e33d 803f
00000090: 02f1 8b3f d7dc 733f d82e 7e3f fda0 833f
000000a0: daba 7b3f 5c48 8b3f dfbb 7b3f f5ce 6e3f
000000b0: c003 6c3f 0a85 7e3f f3c0 793f 74a1 7c3f
000000c0: ff21 853f f773 8a3f 8e2e 763f 11a7 813f
000000d0: 8a1c 833f 6b9d 7a3f 7cae 783f 1d8d 813f
000000e0: 3eca 7c3f a120 793f dfdb 853f 5f7d 7e3f
000000f0: 20c9 833f 4159 803f 22bc 853f ae76 743f
00000100: 2e7f 873f 789d 7d3f ec5b 7e3f 29c0 833f
00000110: 0da9 6f3f b0d7 6f3f ac0f 813f 781e 823f
00000120: a995 823f 2fc0 703f d156 713f 75bf 7e3f
00000130: e77e 803f b56b 8b3f b27f 7e3f 261d 853f
00000140: 3232 883f 7cdb 853f 8520 843f f22c 823f
00000150: 84c3 843f b910 813f 54ea 7e3f ce72 873f
00000160: 23a0 833f 194b 7e3f 30d8 7d3f 2b55 823f
00000170: 9025 803f 542f 813f fa8b 813f 1294 873f
00000180: 2e60 7f3f d36d 813f ccdc 793f 2f57 813f

encoder.layers.0.batchnorm_attn.1.bias f4 [100]
0.032706648 0.015581044 0.0024131364 0.029837348 -0.016199568 -0.030035606 0.05749784 -0.018794967
0.05228802 0.002122548 0.023490408 -0.005217415 0.00101074 0.024817932 0.053955577 0.015972184
-0.030600669 0.0024282497 -0.034667403 -0.027329912 0.031618167 0.024118472 -0.008100877 -0.014229684
-0.010373669 0.01752409 -0.059174635 0.03747681 0.008414355 0.015954763 -0.07521958 -0.106960736
-0.018218787 -0.024147924 -0.054546084 -0.055175483 0.02487635 -0.033781506 0.01447577 -0.027096605
-0.028981201 0.059423797 -0.09315459 0.035327297 0.05843908 -0.01144768 -0.014052803 0.00012726325
0.054549534 0.122704335 0.022033589 -0.08981636 0.0067033465 0.048089057 -0.0484328 0.0627966
-0.037461817 -0.019848786 -0.033278603 -0.0031852098 0.04743865 -0.030949445 -0.07004318 0.008861221
0.10230502 -0.078871116 0.016750345 -0.11134554 -0.01061074 0.03317396 -0.0031106614 -0.057847686
0.012416873 -0.09820577 -0.02635706 -0.0041492437 0.008600393 0.057663172 0.061390884 0.025046088
0.06858217 -0.06402672 0.06642549 -0.01057352 -0.015266187 -0.072153315 -0.028890427 0.018559176
0.039231077 0.037379723 0.011260064 -0.036122907 -0.06350387 0.05019954 0.023884078 -0.018456727
0.03798581 -0.027617173 -0.041726016 -0.018691573
00000000: 68f7 053d a347 7f3c b625 1e3b 746d f43c
00000010: f5b4 84bc 3b0d f6bc db82 6b3d e7f7 99bc
00000020: f62b 563d 721a 0b3b f56e c03c d9f6 aabb
00000030: ce7a 843a fa4e cb3c 8600 5d3d 19d8 823c
00000040: 41ae fabc 4523 1f3b 68ff 0dbd fbe2 dfbc
00000050: 0d82 013d 1a94 c53c 8ab9 04bc 9f23 69bc
00000060: 52f6 29bc ae8e 8f3c 1a61 72bd 4981 193d
00000070: 5ddc 093c 90b3 823c b90c 9abd 3b0e dbbd
00000080: 913f 95bc ded1 c5bc b76b 5fbd b0ff 61bd
00000090: 7dc9 cb3c 7a5e 0abd c82b 6d3c b3f9 ddbc
000000a0: fc69 edbc 5e66 733d d5c7 bebd 5bb3 103d
000000b0: d15d 6f3d 0d8f 3bbc ba3d 66bc f871 0539
000000c0: 556f 5f3d 694c fb3d c97f b43c a4f1 b7bd
000000d0: bfa7 db3b 08f9 443d 7961 46bd 819b 803d
000000e0: 9071 19bd ec99 a2bc 254f 08bd f4be 50bb
000000f0: 084f 423d b189 fdbc cc72 8fbd a82e 113c
00000100: 4b85 d13d 2e87 a1bd 0538 893c 2109 e4bd
00000110: abd8 2dbc 6be1 073d 3ddc 4bbb b2f1 6cbd
00000120: 2470 4b3c 1b20 c9bd c3ea d7bc 61f6 87bb
00000130: aae8 0c3c 3830 6c3d 0275 7b3d 742d cd3c
00000140: cf74 8c3d 7120 83bd 160a 883d 8f3c 2dbc
00000150: 071f 7abc 1ec5 93bd 9eab ecbc 6a09 983c
00000160: c4b0 203d 7b1b 193d 227c 383c 9df5 13bd
00000170: 510e 82bd 089e 4d3d 8ba8 c33c 9032 97bc
00000180: 0297 1b3d 693d e2bc e6e8 2abd 121f 99bc

encoder.layers.0.batchnorm_attn.1.running_mean f4 [100]
-0.41089565 -1.1636469 0.62194616 -0.8101926 1.0066283 -1.0700933 0.039654065 0.34292734
-0.44822747 0.19193646 -1.0498955 0.9686172 -0.46536815 0.23389822 -0.52071273 0.71169084
0.022225762 -1.1598799 1.5952412 -0.36668658 -0.09612228 -0.41752765 -0.060980354 0.7313455
0.86048156 0.17022865 1.123525 0.17629747 -0.62887114 0.19108489 -0.10015162 0.18187384
1.1902504 1.1804425 0.84898835 -0.0005861794 0.18665135 -0.9705271 -0.9119776 1.5086609
0.3951229 -0.46458197 0.37742046 -0.5448671 0.24402337 1.8171449 0.4875924 0.37189436
0.028088871 0.4651029 -0.48041397 0.2226982 1.0286767 -0.55591166 -0.14199546 -1.084648
0.7535666 0.32687533 1.0282819 -1.1194379 0.3884885 0.17757383 -0.58023006 0.35851666
-0.05828826 0.35788006 -0.8823284 0.6470995 0.002416481 0.1396564 1.59661 -0.23496166
0.39588234 0.3408575 1.0518409 0.43525088 1.0311232 0.07479162 -0.6088131 0.52732754
-0.40428105 0.2551813 0.096371554 -1.1195072 -0.7083855 0.3688947 0.5855261 0.3236142
-1.016246 1.1106849 0.6375992 1.1962829 0.6685782 -0.12557617 0.47025883 -0.52351546
-0.2139387 -1.3393546 0.6899296 0.33667612
00000000: ea60 d2be 62f2 94bf dd37 1f3f c868 4fbf
00000010: 32d9 803f d1f8 88bf 4d6c 223d 2c94 af3e
00000020: 127e e5be fe8a 443e fa62 86bf 4cf7 773f
00000030: bc44 eebe 0483 6f3e 6e4d 05bf 5f31 363f
00000040: cd12 b63c f276 94bf dd30 cc3f 58be bbbe
00000050: c2db c4bd 2fc6 d5be 89c6 79bd 7539 3b3f
00000060: 8548 5c3f 6b50 2e3e abcf 8f3f 5387 343e
00000070: b3fd 20bf c2ab 433e 4b1c cdbd 233d 3a3e
00000080: 205a 983f bd18 973f 4d57 593f d5a9 19ba
00000090: 8821 3f3e 7774 78bf 5d77 69bf cd1b c13f
000000a0: 8c4d ca3e b0dd edbe 413d c13e 697c 0bbf
000000b0: 43e1 793e 3498 e83f b6a5 f93e f068 be3e
000000c0: a21a e63c f821 ee3e d2f8 f5be ff0a 643e
000000d0: aeab 833f 3a50 0ebf 4267 11be bfd5 8abf
000000e0: bee9 403f 345c a73e be9e 833f be49 8fbf
000000f0: f7e7 c63e ead5 353e f589 14bf 7f8f b73e
00000100: acbf 6ebd 0e3c b73e 46e0 61bf 50a8 253f
00000110: d35d 1e3b 1602 0f3e b75d cc3f ca99 70be
00000120: 17b1 ca3e e084 ae3e b9a2 863f 34d9 de3e
00000130: d8fb 833f 592c 993d 2ddb 1bbf f0fe 063f
00000140: edfd cebe 20a7 823e 735e c53d 034c 8fbf
00000150: c158 35bf c4df bc3e 0ae5 153f c3b0 a53e
00000160: 5914 82bf ec2a 8e3f b339 233f cc1f 993f
00000170: f127 2b3f 0a97 00be c4c5 f03e 1c05 06bf
00000180: bf12 5bbe f96f abbf 3a9f 303f d060 ac3e

encoder.layers.0.batchnorm_attn.1.running_var f4 [100]
3.4398243 4.6915164 3.9154994 6.4534698 4.021573 4.795493 7.3092957 3.3893442
3.6258874 3.1146708 7.4264355 8.5019 1.7227024 7.374826 8.811163 5.217962
4.705131 4.8680696 5.6022124 5.1009073 5.7394795 9.152448 3.9671965 5.0543537
3.5749137 3.888734 3.22911 6.4442987 4.509329 4.941272 6.526724 4.212807
6.6626625 7.592528 4.3572693 4.16218 2.1930597 2.865032 2.3071039 3.2556825
3.6296098 6.0359178 4.074972 2.7413263 3.851827 4.114538 3.7978723 4.4511666
8.048534 5.8202925 4.929608 6.651382 3.7761195 6.039723 4.7413864 4.492963
3.754797 3.737762 4.492318 5.7134223 5.116204 6.992358 5.2803645 3.6650448
4.6804056 3.453356 8.251421 3.767971 7.0229926 9.633391 4.0019565 5.028589
3.7099726 2.5919764 3.4946415 2.6358037 2.9249172 4.8606043 3.6165173 5.3503385
6.801045 3.0463963 2.3710654 7.812161 2.8321857 4.2076154 3.9484715 4.0128026
6.4075837 4.1241236 6.403011 3.556509 6.2449636 2.5209544 4.413907 3.9241776
8.208599 3.204495 8.241626 7.3513646
00000000: 1526 5c40 e720 9640 8b97 7a40 d382 ce40
00000010: bab0 8040 ae74 9940 c0e5 e940 04eb 5840
00000020: 8a0e 6840 c456 4740 5ca5 ed40 c807 0841
00000030: 8381 dc3f 93fe eb40 86fa 0c41 8bf9 a640
00000040: 6f90 9640 3ac7 9b40 5345 b340 a23a a340
00000050: d1a9 b740 6d70 1241 8ce6 7d40 44bd a140
00000060: 63cb 6440 05e1 7840 bda9 4e40 b237 ce40
00000070: 6c4c 9040 e61e 9e40 ecda d040 51cf 8640
00000080: 8834 d540 fdf5 f240 c06e 8b40 9430 8540
00000090: 175b 0c40 af5c 3740 97a7 1340 1a5d 5040
000000a0: 874b 6840 3d26 c140 2c66 8240 e471 2f40
000000b0: 5584 7640 4caa 8340 5710 7340 f56f 8e40
000000c0: ccc6 0041 d63f ba40 59bf 9d40 1fd8 d440
000000d0: f1ab 7140 6945 c140 70b9 9740 5ac6 8f40
000000e0: 984e 7040 7e37 6f40 12c1 8f40 5bd4 b640
000000f0: f1b7 a340 66c1 df40 bff8 a840 1890 6a40
00000100: e2c5 9540 c903 5d40 d205 0441 7026 7140
00000110: 5bbc e040 5f22 1a41 0710 8040 33ea a040
00000120: 3170 6d40 f1e2 2540 35a8 5f40 02b1 2840
00000130: d831 3b40 128a 9b40 0575 6740 f935 ab40
00000140: 29a2 d940 28f8 4240 89bf 1740 39fd f940
00000150: 8842 3540 c9a4 8640 c2b3 7c40 e168 8040
00000160: ed0a cd40 d2f8 8340 77e5 cc40 d89d 6340
00000170: bed6 c740 5157 2140 ba3e 8d40 ba25 7b40
00000180: 6c56 0341 7216 4d40 b3dd 0341 613e eb40

encoder.layers.0.ff.0.weight f4 [256, 100]
-0.1192724 -0.048973512 -0.09345903 -0.076498926 -0.02064934 0.11551252 -0.054509524 -0.039390247
0.016170552 0.023229696 -0.05920684 0.099346355 -0.0037706054 -0.13257076 -0.0543996 0.07508993
-0.047845315 -0.039499912 0.03202155 0.07402501 -0.06442929 -0.056856364 -0.04149227 -0.052068435
0.077784285 -0.008935515 0.11818101 -0.10112856 0.06409243 -0.05480091 0.048905294 0.17687584
-0.035621464 0.008681904 0.12879075 0.11556901 -0.08334648 -0.024629496 0.083962284 0.0061844774
-0.08001803 -0.12933987 0.025142089 -0.026680404 -0.04654101 -0.100857556 0.01619969 0.0057706
-0.10021123 -0.02617376 -0.0058712987 0.04799888 0.0017414831 -0.08396901 0.03394316 -0.13122736
0.077865206 0.01355533 -0.08059596 -0.022099534 -0.08715312 0.14234786 0.15292792 0.072254665
-0.08319782 0.10517565 0.045750305 0.0022222241 -0.08874993 -0.0001415929 -0.043468375 0.12952873
-0.043644942 0.11964234 0.037795134 0.03617023 -0.0868546 0.028658891 -0.049173664 -0.04651611
-0.033670254 0.16288769 -0.15203814 -0.021363266 0.09335628 0.014450177 -0.005444857 0.045750625
-0.096331 -0.032797292 -0.080908865 0.023627287 0.03079853 -0.08735309 0.0221917 -0.04101503
-0.07344991 0.107048154 0.12585652 -0.054360148 -0.0013757899 -0.08532323 0.05814039 -0.05153508
-0.022807738 -0.08364187 0.011759989 -0.042091794 0.07216722 -0.07917323 -0.10512668 -0.04035516
0.14523184 0.052594807 0.03841817 -0.08260198 0.055500317 -0.082758754 0.0032598274 -0.03483179
-0.08316677 -0.045959476 -0.0029799289 0.017295318 0.112453654 0.100807115 -0.033594303 -0.009087945
-0.14370054 0.04816779 0.012009283 -0.100899 0.0071527353 0.07618599 0.080292925 -0.052635994
-0.0046837926 -0.050518204 -0.08627409 0.015180695 0.06991939 -0.066190965 0.024413845 -0.04800137
0.00017148632 0.089436136 0.106688075 -0.048866656 -0.07735787 0.058419317 0.06322967 0.026475348
-0.11905202 0.021242702 0.0045212056 -0.10909627 0.1134392 0.0006248101 0.12514639 -0.08092067
-0.010962261 -0.022948157 0.03733324 -0.013384305 0.035464376 0.029337822 -0.11129013 0.05589581
-0.09533104 -0.10417991 -0.04316634 0.06552533 0.049886886 0.04872125 0.068008974 -0.08138581
-0.015644768 0.009733058 -0.05990474 0.07426729 0.049417645 -0.11744143 -0.013338521 0.13109733
0.025987254 0.04696156 0.08496244 0.05968948 -0.08159527 0.08610013 -0.0430408 -0.0057968297
-0.057140943 -0.041258596 -0.1208884 -0.00020881402 0.046434045 -0.113238744 -0.055397537 0.020424856
-0.05010711 -0.11714629 -0.052741904 -0.055802014 -0.06539571 0.12853354 0.08185682 0.022497082
-0.1123179 0.12424708 0.011917564 -0.012730541 -0.118824996 -0.029481392 -0.11607051 0.08086213
0.06334929 0.010559915 -0.058254868 0.043955956 0.020896984 -0.023100639 -0.02699278 0.08636026
-0.116663165 -0.16438176 0.07906952 -0.11756689 -0.08547064 0.018648548 0.07466978 -0.012510413
0.087145865 0.003907378 0.019346217 0.08079406 -0.09145019 -0.05745031 0.04096352 -0.07061547
0.038767364 -0.19340418 0.016900284 -0.09176344 0.08400115 -0.0063793217 -0.12240234 -0.12072707
-0.079524525 -0.11254116 -0.04604263 0.102020845 0.049752496 -0.07635704 0.10936197 0.04565898
00000000: 1745 f4bd 7398 48bd 7367 bfbd 78ab 9cbd
00000010: ce28 a9bc d491 ec3d 6145 5fbd ab57 21bd
00000020: 1b78 843c 344c be3c df82 72bd 1a76 cb3d
00000030: 431c 77bb a1c0 07be 1dd2 5ebd c0c8 993d
00000040: 73f9 43bd a9ca 21bd 0729 033d 6d9a 973d
00000050: 81f3 83bd 38e2 68bd ccf3 29bd b645 55bd
00000060: 5e4d 9f3d 4466 12bc e308 f23d 7e1c cfbd
00000070: e442 833d eb76 60bd eb50 483d f11e 353e
00000080: d0e7 11bd 8b3e 0e3c b9e1 033e 72af ec3d
00000090: 8fb1 aabd ccc3 c9bc 6bf4 ab3d 28a7 ca3b
000000a0: 7ee0 a3bd ac71 04be c8f6 cd3c dd90 dabc
000000b0: c9a1 3ebd 688e cebd 36b5 843c 4d17 bd3b
000000c0: 8c3b cdbd 5a6a d6bc 0664 c0bb 799a 443d
000000d0: 7a42 e43a f2f7 abbd fc07 0b3d 7760 06be
000000e0: cb77 9f3d 2d17 5e3c 7f0f a5bd 150a b5bc
000000f0: 567d b2bd a3c3 113e 2399 1c3e 41fa 933d
00000100: 9e63 aabd 5566 d73d ac64 3b3d bca2 113b
00000110: 86c2 b5bd 8e78 14b9 e50b 32bd 2ea3 043e
00000120: 0ac5 32bd 0b07 f53d 12cf 1a3d 3c27 143d
00000130: d3e0 b1bd 0dc6 ea3c 536a 49bd ad87 3ebd
00000140: d2e9 09bd 08cc 263e e3af 1bbe 0402 afbc
00000150: 9431 bf3d 6fc0 6c3c c56a b2bb 0265 3b3d
00000160: 3049 c5bd 7456 06bd 8cb3 a5bd 038e c13c
00000170: 334d fc3c 2de6 b2bd 5ecb b53c 60ff 27bd
00000180: e86c 96bd 103c db3d 88e0 003e bfa8 5ebd
00000190: d953 b4ba f2bd aebd 9e24 6e3d 7316 53bd
000001a0: 4bd7 babc 6e4c abbd f8ac 403c 7268 2cbd
000001b0: 68cc 933d 9325 a2bd a84c d7bd 744b 25bd
000001c0: a8b7 143e a76d 573d 5f5c 1d3d 3a2b a9bd
000001d0: 4d54 633d 6c7d a9bd d4a2 553b c7ab 0ebd
000001e0: 5753 aabd 0140 3cbd e94a 43bb e9ae 8d3c
000001f0: 1a4e e63d f673 ce3d 2e9a 09bd 9be5 14bc
00000200: 3c26 13be 974b 453d 95c2 443c 23a4 cebd
00000210: 7e61 ea3b 6607 9c3d 9e70 a43d d798 57bd
00000220: 807a 99bb 2dec 4ebd 78b0 b0bd 73b8 783c
00000230: e631 8f3d 218f 87bd 8bff c73c 169d 44bd
00000240: 02d1 3339 4b2a b73d 477f da3d 6728 48bd
00000250: ce6d 9ebd 1849 6f3d 8f7e 813d d4e2 d83c
00000260: 8cd1 f3bd 2d05 ae3c 9f26 943b dd6d dfbd
00000270: d052 e83d 4cca 233a 6026 003e bcb9 a5bd
00000280: 0e9b 33bc c6fd bbbc bdea 183d d849 5bbc
00000290: 1843 113d df55 f03c 14ec e3bd 01f3 643d
000002a0: ec3c c3bd 475c d5bd 30cf 30bd 2532 863d
000002b0: 3156 4c3d ef8f 473d 4a48 8b3d 9bad a6bd
000002c0: 7529 80bc 6777 1f3c ac5e 75bd 7319 983d
000002d0: 286a 4a3d 2285 f0bd d089 5abc 613e 063e
000002e0: 39e3 d43c c45a 403d ca00 ae3d f57c 743d
000002f0: 6c1b a7bd 4455 b03d 8d4b 30bd 55f3 bdbb
00000300: 9f0c 6abd c6fe 28bd 5694 f7bd 16f5 5ab9
00000310: a031 3e3d b7e9 e7bd 87e8 62bd 0752 a73c
00000320: 1d3d 4dbd 65ea efbd e507 58bd a790 64bd
00000330: 30ee 85bd 4c9e 033e 8ca4 a73d cd4b b83c
00000340: ed06 e6bd 4175 fe3d e341 433c c293 50bc
00000350: 855a f3bd f682 f1bc 60b6 edbd 0b9b a53d
00000360: 46bd 813d 7e03 2d3c a89c 6ebd 290b 343d
00000370: 2730 ab3c 8d3d bdbc f61f ddbc a6dd b03d
00000380: 19ed eebd b153 28be 33ef a13d e9c6 f0bd
00000390: 3b0b afbd d7c4 983c 78ec 983d 7af8 4cbc
000003a0: 8879 b23d 7609 803b f57b 9e3c 5b77 a53d
000003b0: 3d4a bbbd 0451 6bbd 5dc9 273d d89e 90bd
000003c0: 87ca 1e3d bf0b 46be 7772 8a3c 78ee bbbd
000003d0: cc08 ac3d a109 d1bb 14ae fabd c13f f7bd
000003e0: c1dd a2bd fb7b e6bd 3297 3cbd 4ef0 d03d
000003f0: 46c9 4b3d 1461 9cbd 2bf9 df3d e904 3b3d
