transformer_results_random_no_constants_no_param_tune/performance_prediction/PSO1-PSO2-PSO3-PSO4-PSO5-PSO6-PSO7-PSO8-PSO9-PSO10-PSO11-PSO12_random_no_constants_dim_10_samples_50_fold_2_budget_10_n_heads_2_n_layers_1_d_model_100_d_k_30_d_v_30_aggregations_mean/trained_model_dict.pt (torch, 341563 bytes, 22 tensors)

W_P.weight f4 [100, 11]
00000000: a1fa 6fbe b2ae ecbc a855 38be c49f 303e
00000010: a134 f7bd 787b 943d a4d2 303e e1ff 623e
00000020: 6506 21be 2ae7 02bc 6ac8 89be 9b7d 71be
00000030: 8cbf 0f3e c3ef ea3d 5793 8fbe 1fee f63c
00000040: 06a8 2c3e 94f4 e6bd 781a 883e 8863 a8bd
00000050: 5156 acbd 3493 833e bf97 0c3e 5299 853e
00000060: 057e d13d 23d3 f23d 219b 1ebe 9823 40be
00000070: b4c6 79be 3539 e03d 8532 87bc f4be 0e3e
00000080: fd30 be3e 9d8c 12bd 5a4d b9bd 0fce 8b3e
00000090: 545d adbd d356 0bbe 4505 30bd 987a 54be
000000a0: de54 29bd 24cf 2fbc ac84 edbc f722 52be
000000b0: c2a4 0bbd e09d 92bd d505 683d d7d3 90be
000000c0: 5a9f 843e 29ff f2bd 5878 8b3e 85cf ab3d
000000d0: dc80 89be d098 973e 824e 8fbe 2220 a03b
000000e0: c34b 8dbe cfbf 3f3e 7d56 78be e778 84b9
000000f0: d9dd 73bd c46d f8bd 221a 17be 94d9 f6bd
00000100: 1f60 6ebd 55fa d33e a7c1 63be c34e 5dbe
00000110: da95 603e 0d36 813e 08bc 68be 8ded 62be
00000120: ee46 dfbd 72e8 3c3e 02d1 843e be09 94be
00000130: 5f52 b53e 1399 c33d 3589 8dbe 2ca1 dc3d
00000140: f4fa 8cbd 02b0 193e 1a77 94be 95a4 0abe
00000150: cd67 8b3e 1532 edbd a12c 15be 4f4d 8ebc
00000160: ced6 7fbe 21d9 4cbe 3045 3e3e f4ab 533e
00000170: 0dd3 37be cf60 9a3e 1dfb 71be 5d4e c13c
00000180: 421c d3bd 4c88 823e 2b12 dd3e 4a61 ae3d
00000190: be39 ee3d 920d c2bd ca10 a3bd 2af3 073e
000001a0: 130c 92be f8c4 8f3d ba62 b03d e304 dfbd
000001b0: 30cc 4ebe a7ec 153e 199b 6a3e 7302 ac3d
000001c0: 58f9 4d3e 7846 89be 1429 2d3c 16e2 883e
000001d0: adce 2c3e 2faf cfbd ac0d 3cbe a81f 923d
000001e0: 01b4 dbbe 4dae c2bd 657c 443e b1df cc3d
000001f0: 69df e93d 3408 28be 2083 b6bc 251b 91be
00000200: a703 4cbe 30d8 523e 0917 3b3e a507 d9be
00000210: 6915 48be fa6c e3bd e685 acbd 3114 fc3d
00000220: a572 683d 0a5c 333d 25b1 c0bd f760 003d
00000230: a220 523d ea37 e4bd a172 3bbe b609 e5bd
00000240: 6754 803d cf02 5dbc ef1e 5b3e ba4e 27be
00000250: c846 e1ba 6173 333d 4752 803e 86c0 51bd
00000260: 07fe 263a ee9d f6bc 6f0c 60be 30d0 0c3e
00000270: 500b 8cbd c027 333c d023 3cbe 0ff8 293c
00000280: 497c bebd e7e7 1f3e bf64 52be 25ef 6abd
00000290: 2d6f bdbe 20d2 193e 8907 573e 0c44 6abe
000002a0: e5c3 dd3c cf08 91be 8aff 79be 0761 613e
000002b0: 93fc 0c3e cacb 38bd 35b6 853d 5c93 363e
000002c0: d404 57be 8171 d4bb 623b f43d e133 54be
000002d0: 7b54 59be 93e0 7fbe a183 553d 4de6 083e
000002e0: 9dbb 55be be77 853e 6805 6bbe e4b5 7ebe
000002f0: ca24 8fbd 20db 1cbe cdbd e1bc cb13 f4bd
00000300: c452 22be 27f1 5abe f4dc 3fbe 1606 4abd
00000310: 5e31 72be c236 cabe 5bf6 e2bd c910 a5bc
00000320: 7138 37be c2bf 3cbe 6b98 11be b7be 683e
00000330: 798e 13be c7c2 89be 70fb c43d f4c6 53bd
00000340: b73a 8bbe 50a5 733e af99 35be ebb6 6ebe
00000350: 857b 57be cd54 70be c44e f83d 7aac 2e3e
00000360: c744 513e cd13 c03d 2f71 513e 12ef adbe
00000370: 0596 8dbe b712 7d3b cfb1 83be 16d4 80be
00000380: fdd5 67be 5054 95be 7474 773e 8696 52be
00000390: 17de 38be b579 4bbe 1716 a63d 4793 503e
000003a0: aa91 32bd 30c1 4ebe b02d 67be 9b89 5cbe
000003b0: c83a bb3d 386f 0d3e 933f 4bbe f2bc 5fbe
000003c0: 54a9 27bd 35bb 743e bdd6 8bbe f757 1a3d
000003d0: 10b4 8fbe 5bb7 893e d027 61be 1d13 91be
000003e0: bad6 90be 1f5c 573e bb2a 8cbd e643 123e
000003f0: 4c52 053e bbfb 48bc c063 833e dd82 ed3c
-0.23435451 -0.028891895 -0.18001425 0.17248446 -0.12070585 0.07250112 0.17267853 0.22167923
-0.15725096 -0.007989684 -0.26910716 -0.23583071 0.14037913 0.11471512 -0.280421 0.030142842
0.16860971 -0.11277118 0.26582694 -0.08222109 -0.08414901 0.25698245 0.13729762 0.26093537
0.102291144 0.118566774 -0.15488864 -0.18763578 -0.24392205 0.109484114 -0.016503582 0.1394003
0.3714675 -0.03577863 -0.09047957 0.27305648 -0.084650666 -0.1360734 -0.042973775 -0.20749891
-0.0413407 -0.0107305385 -0.028993927 -0.2052115 -0.034092672 -0.071590185 0.056646187 -0.2828662
0.25902826 -0.11865074 0.27240252 0.083891906 -0.26856124 0.29608774 -0.27989584 0.004886643
-0.27596864 0.18725513 -0.24251743 -0.0002526708 -0.059537742 -0.12130311 -0.14756063 -0.120532185
-0.058197137 0.41401926 -0.22241841 -0.21612076 0.21932164 0.2523655 -0.22727978 -0.22160931
-0.10902201 0.18448046 0.2594071 -0.28913683 0.35414407 0.09550681 -0.27643743 0.107729286
-0.06883803 0.15008548 -0.28997117 -0.13539346 0.2722763 -0.11581818 -0.14567806 -0.017370848
-0.24984285 -0.20004703 0.1858108 0.20671064 -0.17951603 0.30151984 -0.23630948 0.023596937
-0.10308124 0.2549461 0.43177924 0.0851465 0.11632107 -0.094752446 -0.07962187 0.13276353
-0.28524837 0.07019991 0.086125806 -0.10889604 -0.20195079 0.14641057 0.22910728 0.08398905
0.20114648 -0.26811576 0.010568876 0.2673499 0.16875716 -0.101408355 -0.1836459 0.07134944
-0.4291077 -0.095059015 0.19188078 0.10003603 0.11419565 -0.16409379 -0.022279322 -0.28341022
-0.19923268 0.20590281 0.18270506 -0.42388645 -0.19539417 -0.1110477 -0.084239766 0.12308539
0.05674996 0.043788947 -0.09408788 0.031342473 0.051300652 -0.11143477 -0.18305446 -0.11183493
0.062660985 -0.013489439 0.21398519 -0.16338626 -0.0017187232 0.043811206 0.25062773 -0.051208995
0.00063702505 -0.030104604 -0.21879743 0.13751292 -0.06838095 0.01093477 -0.18373036 0.010374083
-0.09301049 0.15615807 -0.20546244 -0.057356972 -0.36998883 0.15021563 0.20998968 -0.2287752
0.027070949 -0.28327033 -0.24413887 0.22009669 0.13768224 -0.045116223 0.06528894 0.1782965
-0.20997936 -0.0064832573 0.11925389 -0.20722915 -0.21223633 -0.24988012 0.052127484 0.13369103
-0.2087235 0.2606792 -0.22951281 -0.24874073 -0.06989439 -0.15317965 -0.027556324 -0.11917838
-0.15851885 -0.21381055 -0.1873663 -0.04932221 -0.23651645 -0.39494902 -0.11082145 -0.020149605
-0.17892624 -0.18432525 -0.14218299 0.22729002 -0.14409818 -0.26906416 0.096182704 -0.05170341
-0.27193233 0.2379353 -0.17734407 -0.23311965 -0.21043213 -0.23469849 0.12124398 0.17057982
0.20436393 0.09378777 0.20453332 -0.3397146 -0.27653518 0.0038615891 -0.25721595 -0.2516181
-0.22640224 -0.29165888 0.24165517 -0.20565233 -0.1805347 -0.19870646 0.08109682 0.20368682
-0.043595947 -0.20190883 -0.22576022 -0.21536867 0.09142071 0.13811958 -0.1984847 -0.2184942
-0.04093297 0.23899539 -0.2731227 0.037681546 -0.28067064 0.26897702 -0.21987844 -0.28334895
-0.28288823 0.21031235 -0.06844088 0.14283714 0.13019675 -0.0122670485 0.2566204 0.028993065

W_P.bias f4 [100]
00000000: 302e 59be 5936 2abe f31a 60be c35a 20bc
00000010: 31f9 5abb d20a 543c 65df 6abe 2756 4a3e
00000020: 1347 92bc 7307 b23d 4978 7dbe 6153 6fbe
00000030: ac3d 43be 68fb a13e 7bf6 4f3e 1326 833c
00000040: 39be aabe 9382 6abe 16d4 013e 7213 863e
00000050: b1e7 943d 8ac0 96be 05a5 433e ec44 9e3e
00000060: 6ab7 97be c3c1 73be 793e 283e 53d5 1b3e
00000070: 8e4b 9bbe dfaa c03c 9db0 183e b5d3 d3bd
00000080: 8165 81be 4276 eb3c 08c1 23be a648 8ebd
00000090: 181d c03d bc51 81be f9b8 59be 70e6 b1be
000000a0: 6221 80bd 451b 693d 1e12 5e3e a90d 19be
000000b0: 735e 7e3e 2602 863e cd35 e53d f853 e43d
000000c0: ef6d 373e 3025 aa3e 75a2 af3e 0b8f 643d
000000d0: 8f74 6e3d 8fcd 8b3d 707f 0fbe d84c 003e
000000e0: 6c64 6dbe 73b0 8fbc c7a4 b63d 9553 c0bb
000000f0: 84e7 953e 4d2f 25be c417 a43e 870e 47be
00000100: f575 52be 0012 3e3e 74ae 00bd 1c0e 13bc
00000110: 0404 85bd 585c 15bc 668b 9cbd 8ca7 9e3e
00000120: 0c93 163e 1a2a 293e 8b6e b9be 142a 423e
00000130: 3f34 d9bd 3338 63be f0d0 5abd d091 2c3e
00000140: f57a 263e 805f 01bc 6b3c ddbc 4861 5ebe
00000150: 83cf a5be 83b8 75be e9e1 7b3e c230 b13d
00000160: 3eb5 6cbe eed4 333e 1a40 443e ba85 17be
00000170: b713 34be ea06 853d efce 503e 9862 973e
00000180: 7ef0 673e 2faa e4bb bc1b 8bbe 5eaf a8be
-0.21209025 -0.16622294 -0.2188528 -0.009787264 -0.003341269 0.012942033 -0.22936781 0.19759427
-0.017856156 0.08692827 -0.24752916 -0.2337165 -0.19066495 0.3163712 0.20308869 0.016009366
-0.33348253 -0.22901373 0.1267856 0.2618671 0.07270754 -0.2944377 0.19105919 0.30911958
-0.2963212 -0.23804383 0.16430081 0.15218095 -0.3033108 0.023518978 0.14911123 -0.10343114
-0.25272754 0.028742913 -0.15991604 -0.0694745 0.09380549 -0.2525767 -0.21261968 -0.34746122
-0.06256367 0.056910772 0.21686599 -0.14946617 0.24840717 0.26173514 0.11191902 0.11148828
0.1791303 0.33231497 0.34303632 0.05580048 0.058216628 0.068263166 -0.14013457 0.12529314
-0.23182839 -0.017540192 0.089181475 -0.0058693388 0.29278195 -0.16131325 0.32049382 -0.19439135
-0.2055281 0.18561554 -0.03141637 -0.008975532 -0.064949065 -0.009116255 -0.07643776 0.30987203
0.14704531 0.16519967 -0.3621715 0.18961364 -0.10605668 -0.22189407 -0.053421915 0.16852498
0.16257842 -0.007896304 -0.027006349 -0.21716797 -0.3238488 -0.23996167 0.24597897 0.08651878
-0.23116013 0.17561695 0.19165078 -0.14797106 -0.17585646 0.064954594 0.20391439 0.2956741
0.22650334 -0.0069782953 -0.27169597 -0.32946295

encoder.layers.0.self_attn.W_Q.weight f4 [60, 100]
00000000: 1f70 cabb de09 14bc ac23 5c3c 0b47 1f3b
00000010: 05ad abbd 9cd3 083e cc85 9c3d db1c 6bbd
00000020: 0e29 083d 760e 5ebc 8928 a33c 09f4 e03c
00000030: c0ef a3bd af54 cc3d e171 d93c 5cb5 e1bc
00000040: bf1d 99bc 6164 90bc c985 84bd c978 0ebd
00000050: 0084 7ebd 51e0 2d3c 73fb ab3d aa3d bcbb
00000060: c8ee 673c c9e0 4ebd 49d8 9f3c 27e3 5d3d
00000070: 4ee6 0cbe 137a 8e3b 6ca6 fbbb 1eed 7bbd
00000080: eae9 ecbd 268a e03d 2a6e 23bd 35ca fa3a
00000090: f9e7 993c c2c2 b0bd f1c9 07be 60f4 5fbd
000000a0: 2871 5b3c 4af7 c83d f973 32bc 800d 1dbd
000000b0: 4ee0 033c b351 4c3d 04d6 e03c d7d6 963c
000000c0: 9f2f 723c 4a75 303d f6f7 a23c 4b5a 983c
000000d0: 0b69 063c 5236 193e 7f3a 12be ee49 d6bd
000000e0: eb39 37bd b40f 813c b987 e13b 55a6 97bd
000000f0: a95c a83d 095d 23bd d3a9 943d 20fb 1c3d
00000100: ed9f 143d 11c1 163c 1561 cabd db40 f03d
00000110: 29b9 3abd 3246 93bd 8dae ce3b 2ed1 ac3d
00000120: 78f1 18bd fc02 eeb9 3949 afbd a7f5 8a3d
00000130: 975d b7bd d380 4e3d 5dcb 473d 880b 453d
00000140: 5575 91bb 680c ee3d 6395 8bbd 2016 38bc
00000150: 4877 e5b9 b07b 4d3c 6066 c6bc 6669 8a3c
00000160: 35e0 cd3c c321 f4bc 1bdf 4fbd fdbd b9bd
00000170: b13f a9bb 5c25 273d eecc 8ebd 0e09 dbbd
00000180: c0dc 873c 22e3 0abd a543 103c 7539 0a3d
00000190: 09de 0d3d 413b 2a3d fc4f 993d f1a9 f73d
000001a0: 3c67 553d 9daa 983b 1f6f e6bd 7b71 5a3d
000001b0: 74c8 dabd c3f3 0ebd 0fb9 453d 9e17 343c
000001c0: 9e32 f93c 0623 773c 92a7 a63d 0462 8d3d
000001d0: 66cf 213e aa25 1c3e 86c3 48bd b1e3 b53d
000001e0: 57da 49bd 82e7 1abd 04b5 46bc 4e75 debd
000001f0: ace1 973d 2755 b2bc 69a8 1abd 41fb d2bd
00000200: 28ba 863d 6948 debc baa9 183d 22bd fd3c
00000210: 684d aa3d c408 d9bc 4f52 fabd 7be4 36bd
00000220: 6bef a63d fa35 59bc 244d b03d 9306 903d
00000230: 0b4d d8bd ac4d e1bd 0bf1 a33d 3d8f a53d
00000240: dd6c 86bd 86c5 9b3c 65f1 20bd 910e c3bd
00000250: a649 debc cc3a 0c3b bae5 c1bd 202a 993d
00000260: fdb2 c6bd f35e 33bd c0aa f23d a0aa 03bd
00000270: 1194 d2bd 3c64 eebd 705a 8e3d 3b59 c1bd
00000280: b1b3 2ebd 7e06 40bd c5b3 e4bd 14fb 56bc
00000290: fb40 29bd 2b04 4d3c 904e a73c 21b5 a4bd
000002a0: 13ba 62bd bb1d 54bd 66ae 583d 2119 46bd
000002b0: b183 16bd a086 5abd 0d0c 113e 9326 aebd
000002c0: 125d 913d 5bac a5bd fd6f ae3c 36f3 32bd
000002d0: 2b3f 413d 25b3 04bd f304 24bb b161 bd3d
000002e0: 8498 9e3d 3c78 ed3b 39f7 ccbd bed9 493d
000002f0: f32d 453b 3360 fdbd 5562 40bc ea2c 35bd
00000300: ffbf 9dbc 236e c53c 849c 9ebc 574f f3bc
00000310: 4299 d7bc 52ef aabc 2e26 233d f4dd 643d
00000320: 0358 bebd 658f bebc 3a82 94bd 1ace 163d
00000330: 16a7 c13d 8446 efbd 914b 63bd 31b3 053c
00000340: f74d edbc 26ab 63bd c701 7f3c eecd 13bd
00000350: e803 a9bd 7d05 a73d 05ca e63d 2a9c 843d
00000360: b1f0 153c e29d 5bbc 33d2 f33b 2926 8e3c
00000370: d9c1 703d 4bc5 42bd 3af4 bebd bcaf 83bd
00000380: 7015 80bd 75e8 d3bb 0de6 a6bd cb3d f1bd
00000390: e79d 5b3d 57b9 e8bb d5a1 90bd f597 0ebd
000003a0: b112 d9bb ddbb c0bd b7c1 ccbd 6af3 3b3d
000003b0: 8ce7 6b3d e142 573d 3d53 14bc 10bc a43d
000003c0: 3ecd 5a3d 4cb7 a3bd b0bf 02bb 9b08 a23b
000003d0: d3d0 c8bd 4c22 dabd b503 f6b9 d3e4 673d
000003e0: 9984 973d 0bd0 243d c754 adbd 138e cb3c
000003f0: 77b0 2fbd f691 55bd 1e90 17bd de39 843d
-0.0061779167 -0.009035556 0.013436239 0.002430382 -0.0838261 0.13361973 0.07642707 -0.057400566
0.033242278 -0.013553252 0.01991679 0.027460115 -0.08004713 0.099770896 0.02654356 -0.0275523
-0.018690942 -0.01762599 -0.0647083 -0.03478316 -0.062137604 0.010612563 0.083975695 -0.0057446556
0.014156051 -0.05050734 0.019512312 0.054171707 -0.1375973 0.0043480485 -0.007679751 -0.06150543
-0.11568053 0.1096385 -0.039899983 0.0019133749 0.018787371 -0.08630897 -0.13260628 -0.054676414
0.013393678 0.09812792 -0.010891908 -0.038342953 0.008049084 0.049882602 0.0274458 0.01841299
0.014781862 0.043080606 0.019893628 0.018597743 0.008203755 0.14962128 -0.14280127 -0.1046332
-0.04473297 0.015754558 0.0068826345 -0.07404772 0.082207985 -0.039883647 0.07258954 0.03832543
0.03628533 0.009201304 -0.09881798 0.1173112 -0.04558674 -0.07191123 0.006307429 0.08438335
-0.037339658 -0.0004539712 -0.08558888 0.06785136 -0.08953398 0.050415825 0.048777927 0.0481067
-0.004439036 0.1162346 -0.06815603 -0.011235744 -0.00043767155 0.012541696 -0.024218738 0.016895961
0.025131324 -0.029801255 -0.05074988 -0.090694405 -0.0051650633 0.040807113 -0.06972681 -0.106950864
0.016584754 -0.033908017 0.00880519 0.0337462 0.034635577 0.041560415 0.07485959 0.120929606
0.052100405 0.0046590106 -0.112516634 0.05333088 -0.10682765 -0.034900438 0.04827219 0.010991959
0.030419644 0.015084034 0.0813743 0.069034606 0.15801772 0.15248743 -0.04901459 0.08881319
-0.04928049 -0.03781844 -0.012128118 -0.10862218 0.0741609 -0.02176912 -0.037758265 -0.10301829
0.06578475 -0.027134137 0.03727124 0.030973975 0.08315545 -0.026493438 -0.1222273 -0.04465149
0.08151134 -0.013257498 0.086084634 0.07032504 -0.1056157 -0.11001143 0.0800496 0.08083961
-0.06563733 0.019015085 -0.03929271 -0.09524263 -0.027134728 0.002139735 -0.09467645 0.07478738
-0.09702108 -0.043791723 0.11848974 -0.032145143 -0.10282148 -0.11640212 0.06950843 -0.094408475
-0.042651836 -0.04688119 -0.11167101 -0.013121385 -0.041321736 0.012513201 0.020423204 -0.0804236
-0.055353235 -0.051786166 0.052900694 -0.04836381 -0.036746684 -0.053351045 0.14164753 -0.08503451
0.0709783 -0.08089515 0.021293635 -0.043688975 0.047179382 -0.032397408 -0.0025027364 0.09247149
0.07743934 0.007246999 -0.100080915 0.04927992 0.0030087202 -0.12371864 -0.011742194 -0.044232287
-0.01925659 0.024100369 -0.019361742 -0.029700918 -0.026318196 -0.02086607 0.039831333 0.055875733
-0.09294131 -0.023261735 -0.07251401 0.036817648 0.09455697 -0.11683372 -0.055491988 0.008160398
-0.02896784 -0.05558314 0.015564389 -0.03608506 -0.08252698 0.08155344 0.11269001 0.064750984
0.009151624 -0.013404341 0.007440829 0.01735218 0.058778618 -0.047551434 -0.09323926 -0.06430003
-0.06254089 -0.00646692 -0.081493475 -0.11779364 0.053617384 -0.0071021724 -0.07062117 -0.034812886
-0.0066245426 -0.09410832 -0.09997886 0.045886435 0.057593867 0.052554015 -0.009053049 0.080436826
0.05341839 -0.079939455 -0.001995068 0.0049448735 -0.09805455 -0.10651073 -0.00046923538 0.05661471
0.07398338 0.040237468 -0.084634356 0.02484802 -0.0428929 -0.052141152 -0.037002675 0.0645635

encoder.layers.0.self_attn.W_K.weight f4 [60, 100]
00000000: 4804 003c be4e cdbc be41 dcbd 4a37 7b3b
00000010: 546e 843d 6075 883c 6b3e 153d 13c3 c0bd
00000020: abe7 073d 68a8 cdbb a03c 2d3d 1e98 203e
00000030: a0f3 40bd f1cd 543c 38e8 2a3d 26d4 15b8
00000040: 46c1 113d d0b6 d9bd 499a 883d 2cf5 ea3d
00000050: d2c1 97bc 13c6 09bd 6301 1d3d 0131 0fbd
00000060: e794 b1bc eb0f 053e 3b53 81bd 9b4c 6abd
00000070: 830c 4cbd 81ec 9ebc cec1 0bbe 2fa7 703d
00000080: 7e7c d1bc b2d7 a93c cb67 84bc d0bd f4bd
00000090: 6370 6e3d da50 753d ada2 2c3d bedc 5d3c
000000a0: 912a 973c f655 0ebd 7df0 ccbd b67a 5f3d
000000b0: b9bf 93bd 1cc0 ecbd 97ef c9bb a368 a6bb
000000c0: 950d 763d a2e6 23bc 97cd 1f3d 80d6 79bd
000000d0: 048b d9bd da35 06bd d24b ae3d cce2 8abd
000000e0: 3d81 cfbd 32f2 92bd 9b6b 2c3c 4304 28bd
000000f0: 725b a23d 8c47 bbbd e619 80bd c54b 07bc
00000100: da6a edbc d241 653d 27de da3d 57e4 cdb8
00000110: 160b 543d d295 f1bc 194c 263d a7d6 b83c
00000120: 1823 a43b de20 a23c c7fa ac3d 4eee e4bd
00000130: e922 62bd a617 4c3d c027 e0bd 3243 de3d
00000140: 895d 0cbd 82cc 17be 1394 b93d b2d3 66bd
00000150: 0453 44bc 1b98 c7bd 197d cfbd 4106 bfbd
00000160: 5c01 86bc e651 fcbc 8e82 04be 713e debd
00000170: 140a 103d 452d 093e 5e65 6fbc f7d1 6a3d
00000180: 768e 6bbc 9638 5a3d 8c24 9bbd 066c 7dbc
00000190: 2146 d33b 29f8 8fbd d3d3 98bd cf81 393d
000001a0: 4ecc abbc 63e9 a23d b572 473d f21c e13d
000001b0: 6a1c 36bc bcac 3bbd 3522 94bd 4f24 c5bd
000001c0: 6dae 8a3d 5d0a 6cbc ca65 243d e1b0 f0bc
000001d0: b478 c7bd 2032 3e3d f656 b0bc 7309 3c3d
000001e0: 8dfc d03d 3a17 05bd 7fdb d93d cfce febc
000001f0: 9a54 0fbd 7794 ee3c 57df 52bb 30b5 983d
00000200: ccd9 d23d 7c13 3ebc d103 323e a180 70bd
00000210: d4a6 d1bd 3b98 e73c 22c3 8b3d 0aab cc3d
00000220: f625 163d 1021 80bd b198 cabd 22b6 64bd
00000230: d397 a6bb 49bf bf3d 8f78 9cbd 9e12 d8bd
00000240: 095f c9bd 60c9 173e 64b4 c5bd 492a 593d
00000250: 28ef 03bb 6af0 eb3d b44b 20bd e224 8a3d
00000260: 965a 0ebd 9fa6 983d 4658 bebc f0ab f4bc
00000270: a567 353d 1f69 3d3c a3fc a1bc a016 0c3d
00000280: 050b 0bbd 4ec0 41bd 8b13 b03d 2322 31bd
00000290: 7208 0abd 04d1 b5bd d4a4 263b c73b 88bc
000002a0: f763 35bd c093 433d 43a0 81bd c985 8b3c
000002b0: 4795 d3bd ecc3 023d 8a29 d0bd 4cd6 cb3d
000002c0: 075a c1bd 2d1e 983d 9f8b 56bd 0a8b 8bbc
000002d0: 729f 093e 049d b83d 1fd0 8b3d db07 e73d
000002e0: 1e27 673d 3b00 953d dfda 913d 350f 393d
000002f0: 2dcc 03be 60a8 543d 75c9 1d3e 4b74 4a3d
00000300: 0432 103d cbc8 9c3c f837 16be 8a14 dfbd
00000310: 4219 96bc 7c14 2bbc d865 bf3b 8d42 063d
00000320: 30fe b73d 3462 49bd 6187 cbbc 00f0 eabc
00000330: da2d 29bd ea6d 433c 14dc 3a3c 10cd 01bd
00000340: f701 0dbd a76e 6dbc 8ca3 9dbc af74 83bd
00000350: bd65 313d 6544 403d df56 08bc f04b ed3c
00000360: 1f77 f5bc c631 c83d d87f 703d bb3c 2bbd
00000370: 0e51 1b3d c4a8 233d 37eb af3c 06b5 3bbd
00000380: e18d 8d3d 784f a1bd 8bfa ad3d d05c 9b3c
00000390: 519e 05bd fb04 07bd a7aa e53d 7552 913d
000003a0: 05f8 81bd 918d 153d f6bc 09bd 75f1 773d
000003b0: f8b6 6c3d 9a82 a33c 3680 933d 1cc2 263c
000003c0: 7c07 953d b84d e23c 5358 b7bd d60e 17bd
000003d0: 9a4c 02bd fec0 b33d 50e8 5f3d 0924 d23d
000003e0: d285 d837 cb12 a1bc 4bf0 64bd 595d b63d
000003f0: d710 e53c 11a9 c93d b4ef edbd 0f1b 9b3d
0.007813521 -0.025061961 -0.10754727 0.0038332515 0.06466356 0.016657531 0.03643648 -0.094122075
0.03317992 -0.006276179 0.042294145 0.15683028 -0.04710734 0.012988553 0.041725367 -3.5721947e-05
0.03558471 -0.10630572 0.066700526 0.11472544 -0.018525038 -0.033636164 0.0383314 -0.034958843
-0.021677447 0.12994353 -0.06314703 -0.057201963 -0.04981662 -0.019399883 -0.1364815 0.05875319
-0.025572058 0.020732734 -0.016162774 -0.11950266 0.05821265 0.05989156 0.042147327 0.013541399
0.018452914 -0.034749947 -0.10006807 0.054560386 -0.072143026 -0.115600795 -0.0061625945 -0.0050783916
0.060071547 -0.010003718 0.039014425 -0.06099558 -0.10622218 -0.0327662 0.08510555 -0.06781539
-0.10132072 -0.07175101 0.010523702 -0.04101969 0.07927598 -0.09144506 -0.0625494 -0.008257811
-0.028981615 0.055970974 0.106869034 -9.817693e-05 0.051768385 -0.029490385 0.040599916 0.022563292
0.0050090663 0.019791063 0.084462695 -0.111782655 -0.055209074 0.04982724 -0.10945082 0.1085266
-0.03426889 -0.14824107 0.09061446 -0.056354232 -0.011982683 -0.09745809 -0.10131282 -0.09327365
-0.01635807 -0.030800771 -0.12940428 -0.108517535 0.03516586 0.13396175 -0.01461157 0.057329144
-0.014377227 0.05327662 -0.0757533 -0.015467649 0.006447569 -0.07029755 -0.07462277 0.04528981
-0.020971444 0.07954671 0.048693378 0.10991849 -0.011115173 -0.04581903 -0.07233087 -0.09626066
0.0677155 -0.014406768 0.040136136 -0.029381217 -0.09739819 0.04643452 -0.021525841 0.04590745
0.1020442 -0.032492854 0.10637569 -0.031104473 -0.03499279 0.029123528 -0.0032176578 0.07456434
0.10295448 -0.011601325 0.17384268 -0.05871642 -0.10236898 0.028270831 0.06824328 0.099935606
0.036657296 -0.06256306 -0.09892405 -0.055837758 -0.005084017 0.093626566 -0.07640182 -0.10550426
-0.0983258 0.14822912 -0.096535474 0.053018842 -0.0020131562 0.11520465 -0.039134696 0.06745316
-0.03475436 0.074536555 -0.023235451 -0.029867142 0.044288296 0.011560707 -0.019773787 0.034201264
-0.033946056 -0.047302537 0.085974775 -0.043245446 -0.03369946 -0.08877757 0.0025427835 -0.016630067
-0.044284787 0.047748327 -0.063293956 0.017031567 -0.10331207 0.031925127 -0.10164173 0.09952983
-0.094409995 0.074276306 -0.052379247 -0.017034072 0.1343973 0.09014323 0.06826805 0.11280795
0.05643379 0.072754346 0.071218245 0.04518052 -0.12870856 0.051918387 0.15408881 0.049427312
0.03520395 0.019138714 -0.14669788 -0.108925894 -0.01832259 -0.010441896 0.005840998 0.03277831
0.08984029 -0.04916592 -0.024844827 -0.028678894 -0.041303493 0.011928061 0.01140501 -0.031689703
-0.034425702 -0.014491714 -0.019243024 -0.0641874 0.043309916 0.046940226 -0.008321493 0.028966874
-0.029964028 0.097751185 0.05871567 -0.041805964 0.037919097 0.03995587 0.021474464 -0.045826934
0.06911827 -0.078764856 0.08495053 0.018965155 -0.032621685 -0.032963734 0.1121419 0.070958056
-0.06346134 0.03651196 -0.033627473 0.060533006 0.05779168 0.019959737 0.07202189 0.010178115
0.07276818 0.02762495 -0.089523934 -0.036879383 -0.031811334 0.08777045 0.05466491 0.102607794
2.5811521e-05 -0.019662281 -0.055893224 0.089045234 0.027962131 0.098467 -0.11617985 0.075735204

encoder.layers.0.self_attn.W_V.weight f4 [60, 100]
00000000: 153a fb3c e8a5 60bc a59b f0bd 3ddb 67bd
00000010: f541 e1bc c992 c9bd 6eb4 ae3c f465 a8bd
00000020: 0015 e8bb 78bf b8bd f9ef 0b3c 75c3 a8bd
00000030: 8272 34bd f177 e23c a62b a9bd f102 6cbd
00000040: a2c9 63be 8801 213d bda5 6e3d 3acb a1bd
00000050: 1279 b53d 0833 ac3b 1786 b83d e3f0 243c
00000060: 85ea adbb 8a95 e73c 79e6 103c 9247 4cbc
00000070: a19f 803d 22cb 0cbc 8e6c 083e d040 5bbc
00000080: f8b9 58bd e8f1 733d 24da 2ebd 6ca1 083c
00000090: 7b1a 4abd 52b9 88bc caa9 153d 96b4 09bd
000000a0: bc90 9cbd 1904 7abd 35de 0a3d 9c3c fcbd
000000b0: f1f6 44bc 9e40 90bd 2cdf 82bd ee6b 1e3d
000000c0: fcce 013d 7d48 53bd 54fd 7cbd f3e8 0b3e
000000d0: c4de c73d 06c0 4cbd f443 b2bc 772e be3d
000000e0: 31a0 18bd 75ff d93d 6fe4 e9bd 263d aebd
000000f0: a352 07bc 3b6e 8cbd 8224 583d bb2c 60bc
00000100: 745b 5bbd 5436 b23d c861 7dbd 224f 2f3d
00000110: 7b07 25bd e30d ab3c 961d 5cbc 0db3 a23d
00000120: 6f28 37bd 4ef4 9bbd 1406 4c3d 13b8 be3d
00000130: 1107 bdbd 4cb6 8d3d 93d1 813d a1bf 08be
00000140: 1bfb afbc a99a 2d3d f3f1 7abd b9c3 623d
00000150: 917a b23d 2ca1 b33d 8d4b eebd 7739 993d
00000160: 27e8 853d 1e4a da3d 8660 c73d c278 e33c
00000170: 9074 363c 633f 86bd d53e 8cbb f010 dabd
00000180: 88ca 9ebd 7567 003d 4303 cdbd 9dd7 523d
00000190: 8893 69bd fb2c 8ebd efae e43c b178 58bc
000001a0: 5be4 623c 01fa 903c 9744 42bc a449 cabc
000001b0: 0d9a afbc 431a 0fbc c1a0 093e 4326 0abb
000001c0: a945 c5bd d93c c73c 393d 0b3d 8a26 84bc
000001d0: 66e1 b73d cb94 2b3d 49b0 1e3c 59d7 bcbc
000001e0: efda 26bd 713d 723d 927e 68bc 3d78 26bd
000001f0: c74d 8dbd a95c 833d 7aff 7cbd 6cda 0ebd
00000200: f5fd 3f3d 5a0f bd3c ebb7 a6bd 211f ad3d
00000210: 8677 1dbc d2a0 5bbd c72b f0bd 9563 013d
00000220: 223c bebd 3be0 46bc 3ce6 9cbd 33fa 723c
00000230: 25f1 78bd 8966 f3bd af67 b7bd cf03 4e3d
00000240: a237 21bc 7aa3 febd f166 f33d 5c7a b2bd
00000250: 3d1c 75bd a702 e8bd 0f26 6ebd 0636 eebb
00000260: 26fd 8abd 4771 f0bd 8178 6a3d b6ad 7c3c
00000270: c04d 723d ac1e 27bd 337b 843c d054 043e
00000280: 0a8d 3d3d 8093 b13b 1f4b 273d 3a64 2e3d
00000290: 7b56 953d d24d 4fbd 3a50 ed3c e54b 7b3d
000002a0: a468 fa3c 5dad 32bd b547 a0bd d16d f8bd
000002b0: 0f44 ce3d 9206 283c 40bf 0d3d 3823 bdbd
000002c0: 65bf c13d 9604 51bd 4f70 ccbd 099f 913d
000002d0: 8e98 833d d8b8 27bd 3be8 7b3d 5410 d3bd
000002e0: 3034 393d 2dd3 f83c 4ae0 98bd 1dca bbbd
000002f0: 3bc7 903d 53c6 6cbb bf5c 35bd 7d0a b7bc
00000300: 2119 8d3d b1b1 5fbd 8842 a63d 0942 51ba
00000310: 48c4 7fbd dc61 6d3d 6d3a 8c3c 8029 3a3d
00000320: 2883 28bd 9ff3 d5bc 8d7f d6bd 8cb7 e2bd
00000330: 3026 35bc 4c7b f93c a757 3a3a 9992 a63c
00000340: 3e37 213d 92cb 54bd fa41 86bd 3d24 c6bd
00000350: 2996 acbd f587 c4bd 2790 dcbd df4e 183d
00000360: fec9 a8bc c1be 8dba cfc7 563d 9d34 a8bc
00000370: 9d2f d33d cacc 623d beb1 aa3d 1cc4 103e
00000380: ab8b 1a3e 9bd9 c9bd da95 fc3b 4707 f7bc
00000390: 1452 9c3d 7085 c5bd f923 113e 8e19 04bd
000003a0: 30fc 253d 3d19 febc 16f7 a3bc 9e8a 9b3d
000003b0: a39e 7b3b 2bf6 583d f915 32bc f504 f3bb
000003c0: 16b3 8a3d 0fc6 a93d 3407 b23d 0399 d9bd
000003d0: a6cd 813d c311 c63d dc04 01be e37f a63b
000003e0: c6d1 dbbb 0b42 713d b66c 2abd 54fc 67bd
000003f0: 0c63 033d 5080 dd3c ff7f d23c 6c2b 653c
0.030667344 -0.01371143 -0.11748437 -0.056605566 -0.027497271 -0.0984245 0.02132627 -0.08222571
-0.0070825815 -0.09020895 0.008541101 -0.082404055 -0.044054516 0.027645083 -0.082602784 -0.057619993
-0.22244886 0.0393081 0.05826353 -0.079000905 0.08860983 0.005255107 0.090099506 0.0100671975
-0.005307498 0.028269548 0.008844011 -0.012468236 0.06280447 -0.0085933525 0.1332266 -0.013382152
-0.05291173 0.05955687 -0.042688504 0.008339267 -0.04934166 -0.01668993 0.036538877 -0.033619486
-0.076447934 -0.061039064 0.03390332 -0.12316248 -0.012021766 -0.07043575 -0.06390223 0.03867715
0.031691536 -0.051582802 -0.06176503 0.13663082 0.09759286 -0.049987815 -0.021760918 0.09286206
-0.037262145 0.10644428 -0.114205234 -0.08507757 -0.008259448 -0.06856962 0.05276919 -0.01368254
-0.053554013 0.087017685 -0.06186083 0.042800076 -0.040290337 0.020880645 -0.013434788 0.079443075
-0.044716295 -0.07614957 0.049810484 0.09312453 -0.092298634 0.06919536 0.06338801 -0.1335435
-0.021482041 0.042383824 -0.061265897 0.055362437 0.08714784 0.087709755 -0.11635504 0.07481664
0.0653842 0.10658668 0.09735207 0.027767543 0.011136189 -0.06555059 -0.004279951 -0.10647762
-0.077534735 0.031348664 -0.10010388 0.051475156 -0.057025462 -0.06942173 0.027915446 -0.013212369
0.0138483895 0.017697336 -0.011857173 -0.024693318 -0.021435762 -0.008734289 0.13440229 -0.0021079935
-0.09632427 0.024321007 0.033993933 -0.016131658 0.08978538 0.041889947 0.009685584 -0.023051905
-0.040736135 0.059140626 -0.014190333 -0.040642012 -0.068996005 0.06414158 -0.06176708 -0.034876272
0.04687305 0.02307861 -0.08140548 0.08453203 -0.009611016 -0.053620167 -0.117271 0.03158911
-0.09288813 -0.012138422 -0.07661101 0.01483016 -0.06077685 -0.118847914 -0.08955323 0.0502966
-0.009839924 -0.124335244 0.11884869 -0.087147444 -0.059841383 -0.11328631 -0.058141764 -0.0072696237
-0.067865655 -0.11740356 0.057243828 0.015422275 0.05915618 -0.040800735 0.016172027 0.12922978
0.046277083 0.0054191947 0.040843125 0.042576052 0.072918855 -0.050611325 0.028968919 0.061351676
0.030567475 -0.043622363 -0.07826177 -0.12130321 0.10071575 0.010255473 0.03460622 -0.09235233
0.09460334 -0.051029764 -0.09982359 0.07110412 0.06425582 -0.040947765 0.06150077 -0.10305849
0.045215786 0.030374134 -0.07464655 -0.091694094 0.0706925 -0.0036128953 -0.044277903 -0.022343868
0.068895586 -0.05461282 0.081181586 -0.0007982557 -0.062443048 0.057954654 0.017117703 0.045449734
-0.041140705 -0.026117144 -0.10473547 -0.11070165 -0.011056468 0.0304543 0.0007108398 0.020333575
0.039359324 -0.051951952 -0.06555553 -0.09674881 -0.08427078 -0.09596244 -0.107696824 0.037184592
-0.02060413 -0.0010814295 0.052436646 -0.0205329 0.10311816 0.055371083 0.08334683 0.1413731
0.15092342 -0.09855958 0.0077082934 -0.030154837 0.07632843 -0.09644592 0.14173879 -0.032250933
0.040523708 -0.031017894 -0.02001528 0.075947985 0.0038394115 0.05296914 -0.0108694965 -0.0074163624
0.06772439 0.0828973 0.0869278 -0.10624888 0.063380525 0.096713565 -0.1259951 0.0050811633
-0.0067083566 0.058900874 -0.04160758 -0.056637123 0.03207688 0.027038723 0.025695799 0.013987403

encoder.layers.0.self_attn.W_O.weight f4 [100, 60]
00000000: ff5b a63c 209f a7bd b339 8dbc fb0a 17be
00000010: f3e9 26be c6a2 a23d 8e6c b43d 0cad 48bd
00000020: 7a56 ccbd 5ce6 413d 40be 96bd 39cb afbb
00000030: e8f0 5a3d 13d6 0c3e 85f5 6b3d f909 4b3d
00000040: 355c a6bc 9a9b aebc da64 1abc 2c13 7f3d
00000050: 55ad 363d 7c7d 60bb d779 9f3d 55a3 be3d
00000060: fef6 e13d 0403 d53d 872d dfbd 117f a53d
00000070: 8b60 973c e29b babd 5e53 8b3c 36c7 46bd
00000080: a006 c8bc 49a3 8fbd b11e e1bc 91e7 a8bc
00000090: ff7b 9d3d 1d33 203c 7c4b e4bd bf7a bbbd
000000a0: a68f 1cbe b3c2 32be 3b61 1bbe 9791 49bd
000000b0: 1ddc b13d 13eb 003e c12e 0bbe 94e1 013e
000000c0: 56d8 ccbc 12f8 9fba 7186 733d 285d ddbb
000000d0: df31 523d 47c3 8ebd cf68 f23d f4e0 a53d
000000e0: b570 ff3c 5219 b9bd e549 73bc 2966 06be
000000f0: df09 ecbd b76a b3bc 0a63 e8bd 0c28 84bd
00000100: c1a4 86bd 0af8 95bd afc1 d2bd 8887 9e3d
00000110: e23f 913d 4577 9a3d 7021 c0bd 5841 1abe
00000120: a815 bfbc 00d0 8abd 5ef5 d9bd c39e 393d
00000130: e095 11bc 8274 ecbb a061 13bd 3053 bf3c
00000140: 0528 ff3c 6396 81bd 4839 313d ecd3 303d
00000150: 28c4 c9bd 0769 99bd 3c58 c3bd 3cb6 c7bd
00000160: de05 79bb 7c5d 9bbc 78b0 a4bc e468 ba3d
00000170: 7a90 b13d 0dcd a03c 67e9 f4bc a06b f33d
00000180: d064 d4bd 6f73 d03d 0ddf 243e de56 2f3c
00000190: eb0d e2bd 7422 083d a56f 9a3d 5430 b6bd
000001a0: bf66 24bd 7888 efbd 749e 573d b02b dd3c
000001b0: 48e2 893d 3aae 5dbc d8b7 953c 774d a23c
000001c0: 2375 a0bc 6ed5 803d 278e 023e 2ece 7bbc
000001d0: a85d 243d dac0 d9bd 8d7f 163e d0ff 2abd
000001e0: 1447 e93c 130e 10bd c7d1 43bc c50c a8bc
000001f0: 7917 853b 7730 b63c 1f08 be3d ce8a 863b
00000200: 6ce1 013d 0815 533d bf98 bbbd b751 be3d
00000210: 4e2a 0c3e 5992 b7bd 50e2 01be e742 f4bc
00000220: af73 7cbd e7b5 5b3d 15c0 413d 05a2 29bd
00000230: 33d5 6fbd e15e 04bc 084a d3ba 863a cd3d
00000240: bb10 dcbd 774f a7bd 6ed9 10be 3a3f edbd
00000250: 4fb8 07bd f835 a3bd 5be1 32be 0001 3c3d
00000260: aae1 be3b 14e9 6c3d d1b3 093e e535 3c3d
00000270: 728e b4bd 0164 d63b 3a63 3d3e 764e 48bd
00000280: 8e96 f33d 322a 6fbd f116 49bd dc05 01bc
00000290: 2371 06bd fb9e b1bc 5405 1fbe b6d4 343e
000002a0: cec5 72bd b334 863c 142b 90bc 5568 86bd
000002b0: 4c1d 3a3d 6fe2 183d 2160 963c 99e1 653c
000002c0: 02e8 f0bc e0e1 c83d 993c 933d 293b e8bc
000002d0: 0419 6abd 5294 003e f892 343d a2c3 25bd
000002e0: 6dd4 3bbd b394 d53d 25b0 433c 9fdf e6bd
000002f0: 0fbc 0f3e 2f7f 5b3c bcac 1e3e 9b5e 90bd
00000300: 0a57 203e 47b5 dfbd 91d6 7cbd 048e 0e3e
00000310: fdac 223c 0909 603c 4deb 9d3d 2a2a 323c
00000320: cff2 bf3c 52b0 54ba 95a6 923d 4888 843d
00000330: e873 e3bd 016d 123d f659 5fbd ff98 603d
00000340: 81f2 883d 64ba 90bd 3db0 0dbe 6782 7a3c
00000350: 0671 1d3d d011 703d 5be7 e73d 35ce 203e
00000360: 3f92 ecbd caee 923d 2cca 943a 41e9 81bd
00000370: 4837 d13d 3fa9 153e db5f d93d 5c10 d63d
00000380: 3e57 b13d 85cd debd 64e3 923d 7834 43bd
00000390: a7d3 fdbd 8839 a03c b7db 123e 89a9 613d
000003a0: 722e 493d ece5 a6bd 5961 f8bd 2d2c e93d
000003b0: 58aa 0ebd ca80 0ebe dc1c ea3d 0613 a13d
000003c0: 5013 f7bd 755d 003e e285 243d cf6f b8bc
000003d0: f0fe 6d3d 50ab f2bc d0a0 38bd 59b1 cabc
000003e0: 5b8c f33b 5b0c 513c e6be b2bb 03e3 ca3d
000003f0: b615 033e 62df e23d fe02 ab3d ae1f 3f3b
0.020307539 -0.081846476 -0.017239427 -0.14750282 -0.16300182 0.07941203 0.08809768 -0.048993155
-0.099774316 0.04733883 -0.07360506 -0.005364802 0.053452402 0.13753538 0.057607193 0.049570058
-0.02030764 -0.021314431 -0.009423459 0.062274143 0.044598896 -0.0034254482 0.07786911 0.09308497
0.11033438 0.10400966 -0.108973555 0.080808766 0.018478652 -0.091117635 0.017007526 -0.048529826
-0.024417222 -0.07013566 -0.027480455 -0.020618232 0.07689666 0.009777811 -0.1114721 -0.09154271
-0.15289173 -0.17457084 -0.15173809 -0.04921111 0.086845614 0.12589674 -0.13592054 0.12683707
-0.0250055 -0.0012204668 0.059454385 -0.00675549 0.051317092 -0.0697084 0.11836397 0.08099547
0.031181673 -0.090380326 -0.014849161 -0.13124909 -0.1152532 -0.021901472 -0.11347015 -0.06452951
-0.06574393 -0.073227 -0.102908485 0.07740694 0.07092263 0.0754228 -0.09381378 -0.15063989
-0.023325756 -0.06777954 -0.10642503 0.045317423 -0.008885831 -0.0072160373 -0.035981774 0.023355097
0.031147012 -0.06327512 0.04326752 0.043170854 -0.09851867 -0.074907355 -0.09538314 -0.09751555
-0.0037997882 -0.018965475 -0.020103678 0.091020375 0.08670135 0.019629026 -0.029896451 0.11885762
-0.10370791 0.10178267 0.16100712 0.010701863 -0.11037811 0.033235982 0.07540826 -0.088959366
-0.04013705 -0.11695951 0.052641347 0.02699837 0.06732613 -0.013530308 0.01827614 0.019812329
-0.019587105 0.062907085 0.1274954 -0.015368981 0.04012838 -0.10632487 0.14697094 -0.041747868
0.028476276 -0.035169672 -0.01195187 -0.020513901 0.004061636 0.022239907 0.09278893 0.0041059023
0.03170912 0.05153373 -0.091599934 0.092929296 0.13688013 -0.089634605 -0.12683988 -0.029817058
-0.061633762 0.053640272 0.047302324 -0.04141428 -0.058552932 -0.0080792615 -0.0016120085 0.10020928
-0.107453786 -0.081694536 -0.14145443 -0.11584325 -0.033134755 -0.07969278 -0.17468779 0.04589939
0.005825241 0.057839468 0.13447501 0.045949835 -0.08816232 0.006542683 0.18494883 -0.04890295
0.118939504 -0.05838985 -0.049094144 -0.007874932 -0.03282274 -0.021682253 -0.15529376 0.17659268
-0.059270673 0.01638255 -0.017598666 -0.065628685 0.045438096 0.03732532 0.018356385 0.014030837
-0.029407505 0.09808707 0.071892925 -0.028348522 -0.057152763 0.1255658 0.044085473 -0.040469773
-0.045856882 0.10428753 0.011943852 -0.11273121 0.14036582 0.013397022 0.1549558 -0.070492946
0.15658203 -0.10923248 -0.061728064 0.13921362 0.009928939 0.013674029 0.07710896 0.0108743105
0.02343121 -0.0008113432 0.07160679 0.06471306 -0.11106092 0.035748485 -0.054529153 0.05483341
0.06686879 -0.07066801 -0.13836761 0.015289879 0.038437866 0.058610737 0.113234244 0.15703662
-0.11551332 0.07174452 0.0011351756 -0.06343318 0.10215622 0.14615344 0.10613986 0.10452339
0.08659218 -0.108790435 0.071722776 -0.04765746 -0.12393885 0.019558683 0.14341627 0.055093322
0.04911656 -0.08149323 -0.121279426 0.11385379 -0.03483042 -0.13916317 0.11431286 0.078649566
-0.120642304 0.12535651 0.040166743 -0.022514252 0.058104455 -0.029622704 -0.045075238 -0.02474277
0.007432503 0.012759293 -0.005454886 0.0990658 0.12801251 0.11077763 0.0835018 0.002916317

encoder.layers.0.batchnorm_attn.1.weight f4 [100]
00000000: dd17 7e3f 6480 7e3f f607 773f c772 7a3f
00000010: cf20 8a3f be45 803f b1df 803f 17d8 763f
00000020: 2f6e 7f3f b307 803f 0ec1 893f 79ba 763f
00000030: 390a 803f 9659 783f ce0f 7a3f 3eae 7f3f
00000040: 68d0 743f d6a2 8d3f dee8 7d3f 5aac 823f
00000050: 0566 803f 495f 823f bce5 7b3f b8cf 833f
00000060: 69bf 823f 9bab 813f 2aaf 823f e232 833f
00000070: ea6f 813f cd67 7a3f 6952 853f e6e4 833f
00000080: fee4 773f fbd6 873f b6ca 7f3f 89c5 803f
00000090: b344 863f 513d 803f 8c9a 7f3f 2e43 823f
000000a0: 7bc6 783f 817a 8b3f e8a7 803f 97fb 7e3f
000000b0: bab3 7f3f 338f 813f 7e2b 7e3f 2d83 843f
000000c0: 409e 853f ed22 763f 101d 853f 135b 7a3f
000000d0: adc4 833f 3c09 823f 1c37 7f3f a973 843f
000000e0: d17c 7e3f 701d 853f ccf2 793f 05eb 873f
000000f0: 5494 7f3f 6eac 843f a6dc 823f 8b38 803f
00000100: 26e0 773f 15c6 803f a49f 7b3f 7360 823f
00000110: b90f 843f 57a1 7f3f c913 863f 1bfe 7f3f
00000120: 6815 663f 2b48 893f eea0 863f 3458 813f
00000130: d177 753f ec76 803f 4ffb 8b3f 114f 8a3f
00000140: e921 813f 980e 823f ff73 873f 91f1 7f3f
00000150: b874 813f c35b 7a3f 56ff 7d3f 05a4 853f
00000160: 117f 7b3f e91f 803f aff5 8c3f 0bdd 813f
00000170: a588 753f 7186 763f c058 843f 086f 823f
00000180: acea 783f de0b 7e3f 567f 7f3f 4059 843f
0.9925516 0.9941466 0.9649652 0.97831386 1.0791262 1.0021284 1.0068265 0.96423477
0.997775 1.000235 1.0762041 0.96378285 1.000312 0.970117 0.97680366 0.9987525
0.956305 1.1065319 0.9918345 1.0208848 1.0031134 1.0185329 0.9839742 1.0297766
1.0214664 1.0130495 1.0209706 1.0249903 1.0112278 0.9781464 1.0415775 1.0304229
0.9683379 1.0612482 0.9991869 1.0060283 1.0489715 1.0018712 0.99845195 1.0176752
0.9717786 1.089676 1.0051241 0.99602646 0.99883616 1.0121826 0.99285114 1.0352532
1.0438919 0.9614704 1.0399494 0.9779522 1.0294396 1.0159068 0.99693465 1.0347797
0.99409205 1.0399609 0.97636104 1.0618597 0.99835706 1.0365121 1.0223587 1.0017256
0.968264 1.006045 0.9829047 1.0185684 1.0317298 0.9985556 1.0474788 0.9999711
0.89876413 1.0725149 1.0517862 1.0105042 0.9588595 1.0036292 1.0936068 1.0805379
1.0088474 1.0160704 1.0582274 0.99977976 1.0113745 0.9779627 0.99217737 1.044068
0.9824076 1.0009738 1.1012477 1.0145582 0.9591163 0.9629889 1.0339584 1.0190134
0.9723308 0.9923686 0.99803674 1.0339737

encoder.layers.0.batchnorm_attn.1.bias f4 [100]
00000000: cbe4 ffbc 2864 4a3d 7263 8d3c 1c84 ef3b
00000010: e796 40bc f198 a13c 4866 54bb 8455 f1bb
00000020: 8ef4 8c3c 6be3 1b3d e2f0 ebbb 3718 84bc
00000030: ff30 87ba 9977 c0bc a471 2bbd c346 3f3d
00000040: f1e3 8abc 4e8f d0ba 6571 c13a 87f2 07bc
00000050: 8d33 fd3c e35e 383d e2c3 90bc 8949 153d
00000060: 26f5 0a3c 3068 40bd 3663 31bc aa85 c3bc
00000070: 18e7 9e3c 68f6 3bbd 2a1e 3b3d 22f4 303d
00000080: c8e5 e4bc e17a 533c 24ee 52bb aabb 3ebd
00000090: 4c29 063d 0d1a 093d 7ca8 0dbd 61b6 393c
000000a0: b7f9 8fbc fd30 363d 8a61 d4ba 178d 7e3c
000000b0: f6f1 b23c 6501 5c3d cc0f 93bc ecc0 163d
000000c0: ab23 a7bc 759a 2abc 9356 31bd 9c0a a83b
000000d0: 68ae 033d 446c 91bc ecf3 52bd 3495 35ba
000000e0: 2e98 223d 275d b63c 977c 78bc 8082 a7bb
000000f0: 3a69 133c 11ae e2bb 02b6 793d 133e 3b3c
00000100: c439 8ebd 70aa b53c 5792 26bd 1fa3 b53b
00000110: 29f6 1c3d f895 df3c fa9b 0fbb bdc5 663b
00000120: ff92 00bb 033f cdbc 60a9 00bd 2e36 68bb
00000130: 6ab1 293d 40d4 b3b9 c0f0 a63b 0fe2 02bd
00000140: e5ff b5bb 9363 b5bc 1500 93bc 07a3 213c
00000150: 4208 5a3d b71c 133d d47c 563c 1318 fa3c
00000160: 4707 9abd 17fb 223d 34de c03c cc2c bb3c
00000170: 2bb9 5e3d 038e 01bd 9a0e b8bc 92ac 02bd
00000180: 3509 51bc d559 50bd 31b3 c83c b41d 13bd
-0.031237027 0.049411923 0.017259333 0.00730945 -0.011754728 0.019726248 -0.0032409597 -0.0073649306
0.017206457 0.03805868 -0.0072003463 -0.016124828 -0.0010314285 -0.023494529 -0.041856423 0.046698343
-0.016954394 -0.0015911849 0.0014758526 -0.008297569 0.03090837 0.045012366 -0.01767153 0.03644708
0.0084812995 -0.04697436 -0.010826876 -0.023867447 0.019397303 -0.04588929 0.045683064 0.043201573
-0.0279416 0.012907715 -0.00321854 -0.04656569 0.032754228 0.03347211 -0.034584507 0.011334986
-0.017575128 0.044480313 -0.0016203385 0.015536568 0.021843892 0.053712267 -0.017951868 0.03680508
-0.02040275 -0.010412802 -0.043295454 0.005128218 0.03214875 -0.01775182 -0.051502153 -0.0006926835
0.03969591 0.022261215 -0.015166423 -0.0051119924 0.008997256 -0.006917723 0.06096459 0.011428374
-0.06944612 0.022175997 -0.040666904 0.005543127 0.038320694 0.02729319 -0.0021913038 0.0035213076
-0.0019618866 -0.02505446 -0.03141153 -0.0035432684 0.04142896 -0.0003429968 0.0050946176 -0.031953868
-0.0055541866 -0.022142207 -0.017944375 0.009865529 0.05323053 0.035916056 0.013091285 0.030529058
-0.07520919 0.03979024 0.023543455 0.02284851 0.05437581 -0.031629574 -0.0224679 -0.031902857
-0.012758543 -0.05086692 0.024499508 -0.035917

encoder.layers.0.batchnorm_attn.1.running_mean f4 [100]
00000000: 7dae 44c0 7d7b 0240 0ea6 963e cad5 a53f
00000010: f499 e7be 5777 043f 13d9 213f ee38 4bbe
00000020: 568b c43f ecaa 2040 ffe5 1bbf 2897 06c0
00000030: a687 71bf ebf2 60bf bb5c 00c0 0753 4440
00000040: 5cd7 48bf b790 8c3e b859 8a3f a1d6 65bf
00000050: 1447 0c40 c968 5540 02d7 ce3e 5e93 ed3f
00000060: d069 903f 85d7 ccbf b521 67be 3f4d ccbf
00000070: 94ce cd3d 6716 04c0 01f1 963f 12eb 6d3f
00000080: cc6c cebf 8c19 e23f 1550 37be 949e 26bf
00000090: 522d f23f a4c9 873f 8095 b5bf 2e01 5dbe
000000a0: 761e 9dbf 148b ae3f c760 4e3f 847b 9b3e
000000b0: 48ed dc3f dfdf b53f 04f8 5ebe 2056 463f
000000c0: a77f dfbf f089 aebf ce55 29bf ec49 dabe
000000d0: c7d8 ea3f f2d1 4abd 34fe 5ac0 238b 6c3e
000000e0: 53e7 e43f f78d c13f 70df adbf 2256 6cbf
000000f0: 2969 843f 3b51 56be fe14 2540 0b1b e0be
00000100: 4fea bcbf 4094 0e40 469c 06c0 237c f93e
00000110: 7d6a 9d3f 9e63 903f e91b 84bf 66d2 c03e
00000120: 1c70 fd3e 0619 a4bf 7415 44be 6196 dc3e
00000130: d8d1 dc3f 49f2 39be da0e 4dbd b280 cabf
00000140: 3ed5 413f 90a3 88bd 101e d0bf 7254 293f
00000150: 9220 ff3f e4fb c23f e3de fb3f 436b 1940
00000160: 7345 26c0 20fc af3f aeae d93f 63a6 4a3f
00000170: 5cda 5f3f a893 ffbf fc24 bdbf 2da7 e7be
00000180: 2aaf 02c0 804d 3fbf 25b6 383f 1e7a 31c0
-3.07315 2.0387871 0.29423565 1.2955868 -0.45234644 0.517446 0.63221854 -0.19845936
1.5355022 2.5104322 -0.6089782 -2.1029758 -0.9434761 -0.87870663 -2.0056598 3.0675676
-0.7845361 0.2745416 1.080863 -0.8978062 2.1918383 3.3345206 0.40398413 1.8560598
1.1282291 -1.6003271 -0.22571452 -1.5961074 0.10049167 -2.0638673 1.1792299 0.92936814
-1.6126952 1.7664046 -0.17901643 -0.6508572 1.8920081 1.0608411 -1.4186249 -0.21582481
-1.2274921 1.3636193 0.8061642 0.30367672 1.7259912 1.4208945 -0.21774298 0.77475166
-1.7460831 -1.3635845 -0.6614655 -0.42634523 1.8347405 -0.049516626 -3.4217653 0.23099951
1.7883095 1.5121449 -1.3583813 -0.9231893 1.0344592 -0.20929424 2.5794063 -0.43770632
-1.4759005 2.2277985 -2.1032882 0.4872752 1.2298123 1.1280401 -1.0321018 0.3766052
0.49499595 -1.2820137 -0.19148809 0.4308348 1.7251539 -0.1815883 -0.05006299 -1.5820525
0.75716007 -0.06671822 -1.6259174 0.6614448 1.9931815 1.5233121 1.9677395 2.3971717
-2.5979888 1.3748817 1.7006433 0.79160136 0.87442565 -1.9966936 -1.4776912 -0.45244732
-2.0419412 -0.7472763 0.7215293 -2.7730784

encoder.layers.0.batchnorm_attn.1.running_var f4 [100]
00000000: bc8f 5740 f384 8940 e1f8 5140 ee4e ff3f
00000010: f627 8840 818d 2040 d454 8f40 7c76 8840
00000020: 074f a340 695e 9040 bdbd 3e40 84ba 9240
00000030: ed44 d33f b6d3 0840 0927 4540 0f1c b840
00000040: 500d 1b40 b666 c83f 52a2 1e40 94b9 7340
00000050: 666e 9b40 0dca b940 ba4d 9440 d492 3540
00000060: 983b 8c40 894c 1140 f86c 6040 4564 8640
00000070: 704b eb3f 0363 5a40 89d8 3740 dff1 2d40
00000080: 46ab 4540 bf68 4340 df43 0440 c426 b73f
00000090: 6907 8640 451c 3e40 5184 7340 8bde 5a40
000000a0: 1dfd 9340 57ef 8a40 97e7 4a40 bc5b 1440
000000b0: 612e 6d40 3920 e53f a64b 1940 925a 6640
000000c0: 2fdf 1e40 1d31 6140 17db 3f40 e737 2040
000000d0: a3ea 1740 4283 3a40 efb9 8c40 c83d 2b40
000000e0: 4b60 ad40 93ea 1d40 ce3c 3740 52f9 1040
000000f0: 32b8 0340 f0c8 9b3f e00e 6d40 8f5f 8440
00000100: 1660 0b40 8cb6 5f40 5b7c 4140 a922 3b40
00000110: 3d99 8c40 1c32 6340 b2ef 1640 728c 8640
00000120: f4b9 2940 ecfb 8e40 b96b 0f40 3584 5840
00000130: 39bd 8440 9a68 4940 04b0 3940 a5d3 8840
00000140: f265 a040 30ab 5840 d11f 6840 18d2 2640
00000150: fca8 bc40 8e10 7740 04c4 ff3f ad64 6c40
00000160: f907 2040 4fc4 5440 dd09 2840 a370 5440
00000170: 15b5 4640 28e8 3a40 5df4 5340 f38d 8040
00000180: e767 7e40 2fc9 4540 823c a240 cab0 4040
3.3681479 4.297479 3.2808154 1.9945962 4.254878 2.5086367 4.479105 4.2644634
5.103397 4.5115247 2.9803307 4.585268 1.650541 2.1379218 3.0805075 5.753425
2.4226875 1.5656345 2.4786572 3.8082018 4.8572264 5.8059144 4.634488 2.8370867
4.3822746 2.2702963 3.506651 4.19974 1.8382397 3.4122932 2.8725913 2.7178876
3.0885787 3.0532682 2.0666425 1.4308705 4.1884046 2.9704754 3.804951 3.419833
4.6246476 4.3417163 3.1703851 2.318099 3.7059557 1.7900459 2.3952422 3.599278
2.482372 3.5186226 2.9977472 2.503412 2.373696 2.9142613 4.397697 2.6756458
5.4180045 2.4674423 2.8630862 2.2652173 2.0581174 1.2170696 3.704033 4.136665
2.1777396 3.4955168 3.023215 2.9239905 4.393706 3.5499334 2.3583798 4.204644
2.6519747 4.468252 2.2409499 3.3830693 4.1480985 3.1470094 2.9013681 4.2758355
5.0124445 3.3854485 3.626942 2.606573 5.895628 3.8603854 1.9981694 3.6936448
2.5004866 3.3244817 2.625602 3.3193748 3.1048024 2.9204197 3.3117898 4.017328
3.9750917 3.0904043 5.069886 3.0107903

encoder.layers.0.ff.0.weight f4 [256, 100]
00000000: 9429 123e ee3e c7bd 40bb 9bba 1c98 77bd
00000010: c76c 4c3d 5208 3e3d fa94 ae3d 7917 a1bc
00000020: 815d 903d 28cb 0cbe 49bb 32bc cbe6 4c3b
00000030: 8066 0fbd bd11 c3bd f4d9 a23c 007f adbc
00000040: 8dfe 523d e336 abbd 5f27 f6bd 3752 febd
00000050: 58c0 833b b7f9 b9bd 56a8 dc3c 1ae2 5f3d
00000060: e05b aa3d 7fbe fe3d f35b 18bc fd12 2a3e
00000070: 3af7 34bd 6886 0aba 5fa8 62bd 05a6 aebd
00000080: e6cc 8b3d 0f6f 83bd 0a5f ee3d fa40 c2bc
00000090: 376c b0bd 29d9 dfbd 959d f23a dca8 c9bd
000000a0: 0f1e b03d 48e9 21bc e2b8 05bd 6653 fabd
000000b0: 851a febd ceee 4b3d 03ae d6bb be15 1ebe
000000c0: 86ff e33d ae24 063e 3370 cf3c 1499 d3bc
000000d0: bf1a a53b 4908 053c 232f 95bc 1439 e4bd
000000e0: 6d08 b2bd 91cc 433d 9de5 92bd 87a1 723d
000000f0: 0eba bdbc 27e7 293d 77d4 9cbd 2feb 70bc
00000100: 0662 063d ff10 17bd 5028 00bd bf14 c1bd
00000110: 047b 0fbd 000c 6bbd 0d08 173d 7874 cabd
00000120: 9f30 df3a 1876 5d3d 454b 943d 53aa 603d
00000130: 72bf 22bc 640a c9bb 247b d6bd 46b0 09bd
00000140: d075 b23d 0c62 3f3e 0fe3 743d 19a2 e0bc
00000150: 2176 5fbe 148f 92bd 6744 573d 8380 69bc
00000160: 3769 683d f329 c1bd 8890 b2bd 7403 863d
00000170: 01f1 1cbe 1b0f ed3d c947 54bd a8e9 0e3d
00000180: 340b 3f3c b910 1a3d 45cb cbbd c9c5 c03d
00000190: 7ff9 14be 5453 903d 1623 c83d e027 923d
000001a0: ccbb e53d 72f0 b9bd 71d4 6cbd 3146 d23d
000001b0: 1dbb dabc 59a6 b63c 2882 9c3d 5c76 20bd
000001c0: 421b 813d 7c2a 5fbc 4b5f 753d 4c96 bebc
000001d0: 1ed8 823d be31 40bc 9ea9 b33d 3063 82bc
000001e0: b187 cb3c 98a2 0a3d f01a 6bbd ec32 d3bc
000001f0: 5d5d cebd 6176 a1bd 6f1a aa3d 849d 39bd
00000200: 5115 073c d743 4ebd 4def ccbd 874a 073c
00000210: 9dde eabd 74cb a73c d7fa 473a bd54 48bc
00000220: f28a ed3c fea4 e13d b33b d03b fdca 4d3d
00000230: 7f65 c8bd b554 f2bd 83ac d6bd e938 cf3d
00000240: fd1c e93c 5cff c73d b0cd d03b d4bb b73d
00000250: 42c7 97bd 885b 033d f3c7 713d c425 d93c
00000260: c189 38bd 360a 40bd 3758 05bc 852a b6bd
00000270: b8fe 20bd f7a8 a13d 4623 6cbd 93b5 f23d
00000280: 5621 0b3d 629e aabd c5a4 0abd 966e c13d
00000290: 8511 efbc ceba b43c 2f75 9abd f30f 623c
000002a0: 464e c1bd cfb3 6fbc 13cf d53d 8933 22bd
000002b0: 306e 86bd 8adf fa3c 2181 96bd 5c2a 483d
000002c0: c03e 8bba 8248 ed3c b3f7 3e3d b0c9 263d
000002d0: 72e8 983d 5e32 cfbd 3c50 193d 9384 9f3c
000002e0: fd3e db3c 8674 343d 9b54 8f3d 85cf 403d
000002f0: b5bb a7bd 10a3 4dbc 23f5 00bd f46b f13b
00000300: 8705 81bd ce8e a4bd 8a27 483d 1745 89bd
00000310: c1e1 46bd 062c 56bd f147 943d 6d10 01be
00000320: 3e65 af3d d648 643c e36e 9ebd 4942 debc
00000330: 07dc c8bc 2b34 033c d5a3 7d3d 4251 41bc
00000340: eb13 7bbd 9494 c3bd 7f30 26bd 201b 2f3d
00000350: b719 debd 7291 623d dd31 573d d1fb 94bd
00000360: 7019 843d 4d46 033d 9af2 a2bd c617 773d
00000370: d544 adbd 7fd3 a93b 6d29 0bbd a234 56bc
00000380: a594 933c ebb3 0e3e a9a4 d7bd eb10 ff3d
00000390: 8fd3 6438 ca9b 5ebc 34f5 d53d 282a dcbd
000003a0: abbc f03d 94fa e2bd 3347 5e3c d3df 24bd
000003b0: ca9b 883b 666a cbbb b9ff 43bc f3af 45bb
000003c0: f125 3e3d b71b 37bd a66e a33d 28f2 01be
000003d0: 4b31 b6bc b0b1 76bd 8c5b 833d 02e7 3fbe
000003e0: 6337 b9bd 3b95 933d b405 c13d 86ce 88bd
000003f0: d518 ca3c 172c b33d 45e0 91bd 0b1e bebd
0.14273673 -0.097288 -0.0011881366 -0.060447797 0.049908426 0.046394654 0.08524509 -0.019664513
0.070490845 -0.13749373 -0.01090891 0.0031265493 -0.03500986 -0.09524868 0.019879319 -0.021178722
0.05151229 -0.08360078 -0.12019228 -0.12418025 0.004020732 -0.090808325 0.026935738 0.054658987
0.08318305 0.12438678 -0.009299266 0.16608806 -0.044181086 -0.00052843103 -0.055336352 -0.085277595
0.06826191 -0.06417667 0.11639221 -0.023712624 -0.0861439 -0.10930092 0.0018510098 -0.098466605
0.08599483 -0.009882279 -0.03264702 -0.12222938 -0.12407402 0.04978829 -0.0065515055 -0.15437981
0.111327216 0.1309993 0.025322055 -0.02582983 0.005038589 0.008119651 -0.018210953 -0.11143699
-0.08693013 0.04780251 -0.071727015 0.059236076 -0.023160007 0.04148021 -0.07657712 -0.01470451
0.032808326 -0.036881443 -0.031288445 -0.09427785 -0.035029426 -0.05738449 0.036872912 -0.09885496
0.001702804 0.0540677 0.07240919 0.054849934 -0.009933339 -0.006135272 -0.10472706 -0.033615373
0.08713877 0.18689746 0.059786852 -0.027421044 -0.21822406 -0.07156196 0.052555468 -0.014251831
0.056740966 -0.09431829 -0.087189734 0.065436274 -0.1532631 0.11575147 -0.051826272 0.0348908
0.011660386 0.037613604 -0.0995088 0.094127245 -0.145483 0.070471436 0.09772317 0.07136512
0.1121746 -0.090790644 -0.057819787 0.10267294 -0.02670055 0.022296118 0.07642013 -0.039175376
0.06304027 -0.013620969 0.05990533 -0.023265027 0.06388877 -0.011730609 0.08772586 -0.015916437
0.024844976 0.033846468 -0.057398736 -0.025781117 -0.100764014 -0.07883907 0.08305823 -0.045316234
0.008244828 -0.050357666 -0.100065805 0.008257515 -0.11468241 0.020482756 0.00076286256 -0.012227234
0.028996918 0.11017798 0.006354773 0.050242413 -0.09784984 -0.11832563 -0.10482123 0.101182766
0.028456206 0.09765503 0.006372176 0.08971372 -0.07411052 0.032069713 0.059028577 0.026507266
-0.045053247 -0.046884738 -0.008138708 -0.08894829 -0.03930542 0.078935556 -0.057650827 0.11851039
0.03396734 -0.083309904 -0.033848543 0.09444921 -0.029183159 0.022061732 -0.07541882 0.013797748
-0.094387576 -0.014630272 0.10439887 -0.03959993 -0.06563985 0.03062417 -0.07348848 0.048868522
-0.0010623559 0.028965238 0.046622943 0.040719688 0.074662104 -0.10117029 0.037430033 0.019472396
0.026763434 0.044056438 0.06998559 0.047072906 -0.08190099 -0.012551084 -0.03148378 0.0073676053
-0.062998824 -0.0803505 0.048865832 -0.06702631 -0.04855514 -0.052288078 0.07240284 -0.12603922
0.08564232 0.013933381 -0.07735994 -0.027131217 -0.02451898 0.008008043 0.06192382 -0.0117991585
-0.061298292 -0.095498234 -0.040573593 0.042750478 -0.108447485 0.05531449 0.052537788 -0.07274593
0.06450164 0.032049466 -0.07956429 0.060325406 -0.08460394 0.005182683 -0.033975054 -0.013074072
0.018015215 0.13935821 -0.10529453 0.12454399 5.4556465e-05 -0.013586948 0.104471594 -0.10750228
0.117547356 -0.1108295 0.01356678 -0.040252518 0.004168962 -0.006207752 -0.0119628245 -0.0030164688
0.046422902 -0.044704165 0.07980089 -0.12690032 -0.022240302 -0.06022805 0.064139456 -0.18740466
-0.09043767 0.07206198 0.09424916 -0.06680016 0.024670044 0.08748644 -0.07122854 -0.09283074
