transformer_results_random_no_constants_no_param_tune/performance_prediction/PSO1-PSO2-PSO3-PSO4-PSO5-PSO6-PSO7-PSO8-PSO9-PSO10-PSO11-PSO12_random_no_constants_dim_10_samples_50_fold_5_budget_10_n_heads_2_n_layers_1_d_model_100_d_k_30_d_v_30_aggregations_mean/trained_model_dict.pt (torch, 341563 bytes, 22 tensors)

W_P.weight f4 [100, 11]
00000000: 5875 b3bd 5532 f2bd b525 203e 88b1 38be
00000010: 2d27 b83d 7dfd 713e 2f8a b03c 2fda 3abd
00000020: 2cb2 703e 63a4 373e 2314 d13e 246b 14bd
00000030: f24f 873e 3377 6dbe 75b0 22be bee0 363e
00000040: 8c9a 92be 2505 fcbd 5f68 7bbe 5ace 17be
00000050: af08 703b 2724 e2be a904 94be f6de 3e3e
00000060: 7177 7a3c 6118 053e 7775 593e 1f10 97be
00000070: 6d19 c93d b7f7 363e cb2b afbd 0254 153e
00000080: 39ac bf3e 48ac 813c 3a01 fb3d 7950 42bd
00000090: 833d 083e 9029 263e 592e e43d 3650 ec3d
000000a0: 4f46 2ebe 1adb 1ebd e86e f43d 9616 e73d
000000b0: c4cd 84be 5fb2 d7bd 33f5 6a3e de64 473e
000000c0: 04f2 7b3d 82ac 6cbe 1f0d 37be c1de 5fbe
000000d0: 9884 a1bd c8c3 9b3d 0e5e 9fbe 103d 86be
000000e0: b4f4 6dbc 2407 d2bd bb10 e2bd 2a6a e0bd
000000f0: 6ca7 27be 71b9 073d 31aa a23d 7773 3cbe
00000100: ada3 913c 7c94 06bf 9ce7 3abc 7880 57bd
00000110: 4e56 45be 2839 c43d 9914 b2bd 0cac 7c3e
00000120: 47f6 42bd 78cc a4bb 4034 793e 57b4 8f3e
00000130: 5aec 94be 9a0a 68be a037 78bc a2b2 75be
00000140: e852 c33d beb8 abbb 63aa 5bbe 6a25 103e
00000150: 89c2 b0bd 5909 483e b45e 43bd 3cf0 033f
00000160: 134b 23bc 94fd 7fbd a55b 083e aaa2 87bd
00000170: 9772 6f3e 12ed 8f3e 7f51 cabd a06b 823e
00000180: fcf4 48be 0f0f 57be 4bbb 78be 9c3a d83d
00000190: 51fd e03d 0c4e 2e3e 2ec4 bdbd ddaa 5d3d
000001a0: e4fb 853e e9a9 8abe 353f 743e 2397 413e
000001b0: 737c 863e 357b 38be 0009 1d3e e228 d93d
000001c0: 13b8 96bd 92fc 8abe 76c2 24be 7fd3 7f3e
000001d0: 4700 f43d 470d 833e a9f5 76bd 2b74 c1bd
000001e0: 7f6f c0be 5c4c e83d c533 563e e106 94bd
000001f0: e3d7 943c b24a cabd 8df1 89bd 02ef 45be
00000200: 19d6 203e 67a4 b93c 30b0 433e af47 71be
00000210: a682 79bd 416c 103e 83ed 833e ffe3 cebd
00000220: d8f9 d9bd 3c36 f7bd 765a 04bd c3d7 973d
00000230: 147c b93d b90c bfbd c75b 023f 4406 c2bc
00000240: 1f03 e83d 31e3 06be 2d4d d23c 8884 853e
00000250: 341e 28be 8489 e43d 627c 43bc 4482 98be
00000260: 0f37 123e a4bf f13e 8427 31bd 24f6 6a3e
00000270: 7171 7b3e 676d 88be 1118 01bc c6d4 75be
00000280: c646 09bd 154c 803e da5d 9ebd d87e 2b3e
00000290: 8706 b4be 3587 433e 458d 233e a8fc 8a3e
000002a0: c3cd c13d 8d9e cb3d 3d46 3e3e cc04 303e
000002b0: 40f5 6fbe 54fd 00be 427f 233e 352c d3be
000002c0: e841 813e 0cff 2b3e 7760 30bb 2753 1a3e
000002d0: f340 313e 21ac c53d 72e9 8b3e a33c 8f3e
000002e0: 625d d53b 4a88 83be 968d fa3e 5d44 3cbe
000002f0: 1727 913e 58b1 42bd 2d54 eabd 2513 97bd
00000300: 3cf8 14bd c21f b93d e840 3bbe 9247 b0bd
00000310: 0a5c 5bbe fb18 aa3e fd6f 883e b641 063d
00000320: ec5f f0bd 430a 363d 367c 76be 2b4b babd
00000330: f9de 613e 88fa ab3c d35e 5c3e 2d4b 573d
00000340: 6edb ee3e ef1a 8f3e 745b 52bb 2cdf 48be
00000350: 2a36 57be 6b6a 413e ddfc 01bd 9ab8 78be
00000360: 7653 4dbd 6520 8fbe c424 8a3d 1329 943e
00000370: ecf2 69be 794b 983d c3a4 753e 70e4 463e
00000380: 0acb 613e a812 77be 53cb 22be e153 28be
00000390: d55a b4bd 8369 3c3e fda1 dcbd f3ee b5bd
000003a0: 29ac 883d 9a78 82be e2d4 a63d f73f e73d
000003b0: 98b8 8d3e 001a 8a3e 13ad 8cbe c9c5 893e
000003c0: b35a 32be 15f3 393e c414 2b3e acf7 1ebe
000003d0: 49e4 15be 04bd b0bd 92dc 48bd ea93 67bd
000003e0: 98a3 503e 414c 80bd dba6 af3d 25e5 e5bd
000003f0: d430 8ebe 047a 0c3e 3ba8 873d dd3d d63c
-0.08762616 -0.11826006 0.15639384 -0.18036473 0.08991847 0.23631854 0.021550266 -0.045618232
0.23505467 0.17933802 0.40835676 -0.03623499 0.2642818 -0.23190002 -0.15887626 0.1785917
-0.28633535 -0.12305669 -0.24551533 -0.1482481 0.003662627 -0.44168207 -0.28909805 0.1863974
0.015287266 0.12997581 0.21236216 -0.29504487 0.09819303 0.17867933 -0.08553275 0.14582828
0.37436083 0.01582922 0.12256093 -0.047440026 0.13304715 0.16226792 0.111416526 0.115387365
-0.17019008 -0.03878317 0.11935216 0.11283605 -0.25938237 -0.105320685 0.22945099 0.19472072
0.0615101 -0.23112682 -0.17876099 -0.21862318 -0.078866184 0.07605702 -0.31126446 -0.26218462
-0.014523674 -0.10255268 -0.11038347 -0.10957749 -0.1637246 0.033135835 0.07942618 -0.18403421
0.017778242 -0.5257032 -0.011407759 -0.05261275 -0.19271204 0.09581214 -0.08695335 0.24675006
-0.04759815 -0.0050292574 0.24336338 0.28067276 -0.29086572 -0.22660294 -0.015149981 -0.23993924
0.095372975 -0.005240529 -0.21451716 0.14076772 -0.08630855 0.19534816 -0.047697738 0.51538444
-0.00996663 -0.06249769 0.1331621 -0.066228226 0.23383556 0.28110558 -0.098788254 0.25472736
-0.19624704 -0.21001838 -0.24290197 0.10558054 0.10985816 0.1702196 -0.09265934 0.054118026
0.2616874 -0.27082756 0.23852237 0.1890531 0.26266822 -0.1801575 0.15335464 0.10603501
-0.07359328 -0.2714582 -0.16089806 0.24983023 0.119141154 0.25596067 -0.060292874 -0.094459854
-0.37585065 0.113426894 0.20918186 -0.072278745 0.018169349 -0.09877528 -0.06735525 -0.19329455
0.15706672 0.022661401 0.19110179 -0.23562501 -0.06091561 0.14103796 0.25767145 -0.101020806
-0.10643357 -0.12070891 -0.032312833 0.074142 0.09056869 -0.093285985 0.5092129 -0.023684628
0.1132872 -0.13172604 0.025671566 0.26077676 -0.16417772 0.111590415 -0.011931511 -0.29786885
0.14278816 0.47216523 -0.043250576 0.22945458 0.24554993 -0.26645967 -0.007879273 -0.24006948
-0.03351476 0.25058046 -0.077327445 0.16747606 -0.3516123 0.19094546 0.15971859 0.27145886
0.09463074 0.099423505 0.18581481 0.1718933 -0.23433399 -0.12596637 0.15966514 -0.41244665
0.25245595 0.16796511 -0.0026912966 0.15070783 0.17309932 0.096519716 0.27326542 0.2797595
0.0065113762 -0.25689918 0.48936146 -0.18385454 0.28350136 -0.04753241 -0.114418365 -0.073766984
-0.036369547 0.090392604 -0.18286479 -0.08607401 -0.21421829 0.33222184 0.2664794 0.03277751
-0.11737046 0.04444338 -0.2407082 -0.090963684 0.22057714 0.020993486 0.21520548 0.052561928
0.46651787 0.27950236 -0.0032097967 -0.19616383 -0.21016756 0.18888251 -0.03173529 -0.2428917
-0.050128423 -0.27954403 0.06745294 0.28937587 -0.22846574 0.0743627 0.23988633 0.1942308
0.2205011 -0.2412821 -0.15897875 -0.16438247 -0.08806387 0.18399625 -0.10773084 -0.088834666
0.06673462 -0.25482637 0.08146073 0.11291497 0.27679896 0.2697296 -0.27475795 0.2690871
-0.17417412 0.18159135 0.1670714 -0.15524167 -0.14637865 -0.08629802 -0.049038477 -0.056537546
0.20374906 -0.06264544 0.08576747 -0.112253465 -0.27771628 0.1371842 0.06623884 0.026152546

W_P.bias f4 [100]
00000000: fb4c d9bd 7da1 853e 59da c9bd 8abb 273e
00000010: c401 7ebe 5a04 81be 0d71 183d 1310 c23b
00000020: 9114 743b ce27 96be dbb3 ad3d a836 8ebb
00000030: 0b65 fc3c 2e76 2ebe 898f 96bc 4a05 f53d
00000040: 7f8c 84be 0512 aebd 4ddf ff3d e427 733e
00000050: e979 143e 0df1 95be 4b36 b2bd 18a0 9bbe
00000060: 7dda 84be 05b4 473e e98d f33c ab67 bcbd
00000070: 94fb 93be d025 7f3d f077 81be 4d03 c23d
00000080: 0705 413e 4786 9abc 1d11 683d 490f dfbc
00000090: fbe4 05be 50cb 123e ad96 a53e 0b53 5a3e
000000a0: ba00 363d 9592 a43d 633a 7d3e 40ec 833d
000000b0: 53b3 6bbe a329 3cbe fcad 80be 4d63 9b3e
000000c0: cf6e 25bd 550c 093e 79e3 423b 1cd2 a1bd
000000d0: 3074 103e 0479 3abe 4c43 dcbd ccda 653e
000000e0: de1b dcbd b49d 7ebe 62d0 2e3e 651e ae3d
000000f0: 23a7 ae3d fbbb 39be 96d5 883e 119f 6abe
00000100: af73 ba3d e0ea afbe 41f8 fe3c cef0 a2be
00000110: ecea 823e 8b90 7dbe 6025 483e c4f8 56be
00000120: db60 51be 69ec 403e 3808 1d3e 5198 ccbd
00000130: 309e 6fbd 222a 0e3d aed4 61be 0f45 5c3d
00000140: be8a 873e ede4 22be edc1 683e 9fb2 913e
00000150: e9af dc3d e453 7bbe 0bfd 03bd 0ce3 3abe
00000160: 70ce df3d ac14 593e 60f8 22be 60d7 07bd
00000170: 1634 9c3e 785e 443e 0a78 87be e7df f93d
00000180: 5119 583c 746c 3bbe 613b 32be 36ff 83bb
-0.10610386 0.26099768 -0.098561 0.16380134 -0.24805361 -0.25198632 0.03721719 0.0059223264
0.0037243704 -0.29327244 0.0848157 -0.0043400116 0.0308099 -0.1703727 -0.01837899 0.119638994
-0.2588844 -0.08499531 0.12493763 0.23745686 0.1449963 -0.2928547 -0.08701762 -0.3039558
-0.25947943 0.19502266 0.029730754 -0.091994606 -0.28902876 0.06229192 -0.25286818 0.09473286
0.18849574 -0.018862857 0.056656945 -0.027228968 -0.1307563 0.1433537 0.3234152 0.21320741
0.044434287 0.08035771 0.24729304 0.064415455 -0.23017626 -0.18375258 -0.2513274 0.30349198
-0.04038888 0.1338361 0.0029737635 -0.07901403 0.14106822 -0.18210226 -0.10755023 0.22446746
-0.10747503 -0.24864846 0.17071679 0.08501891 0.085279725 -0.18138115 0.26725453 -0.22912242
0.09104096 -0.34358883 0.031124236 -0.31824344 0.25569856 -0.2476217 0.19545507 -0.20993334
-0.20447104 0.18840183 0.15335166 -0.099899895 -0.05850047 0.03470815 -0.22053787 0.053776797
0.2647304 -0.15907641 0.22730227 0.2845659 0.1077574 -0.2454372 -0.032223742 -0.18250674
0.10928047 0.21199292 -0.1591506 -0.033164382 0.30508488 0.19176662 -0.2645877 0.12200909
0.01318963 -0.1830309 -0.17405464 -0.0040282262

encoder.layers.0.self_attn.W_Q.weight f4 [60, 100]
00000000: 8aa9 9bbd 56a0 3e3d 89a9 ca3d 6035 1fbc
00000010: 12a9 3ebd f2a6 523d 526b c9bd f3c0 08bd
00000020: c603 efbc 2fb6 20bc e55a b5bd 0e0d debc
00000030: a787 863d 79ea 7d3c 0600 39bd 9a8d 653d
00000040: 9578 903c 1ce1 a73c 643e ab3d c75c 97bd
00000050: 860e 863d fd9c 923d 58e5 b6bd eb7c 56bd
00000060: cee5 9c3c 2146 86bd 81f6 d03d 0a0b 913c
00000070: c6ee bfbd 9d5f d1bc 0541 ab3d d1cf 87bd
00000080: c607 8fbb 4f12 173d 42ba 193d a8c0 d43c
00000090: 9d41 aa3d 14a2 493d 61d9 b83c 631c 52bd
000000a0: 2c8e fc3d b0e2 04be d3f6 0cbe cd60 edbd
000000b0: 2f87 8d3d 2c08 f83c 6aae 4a3d 3b23 343d
000000c0: d66d bd3c fd93 5e3c 6408 953c 54b3 913c
000000d0: f05e fa3c d39b db3c 5482 6bbd 7ab1 933c
000000e0: fee2 483c 7001 853d be39 f4bd 6000 d3bd
000000f0: 667c b13d 7d6c 023c d283 4dbc 213c 993d
00000100: ef14 b2bd 83bc 3cbd c922 54bc cc4b 9e3d
00000110: c01d febb 9aee b13d 82ae 07be 2828 85bd
00000120: a589 673c fdcc 073d 23a6 98bd 551f 45bd
00000130: 9018 01bd 77c3 123e 6297 d83d 73db 163c
00000140: 6f65 91bc f703 c3bd 3d7c 033b 0932 e33c
00000150: 47e1 eb3d 9f39 c93d a2f1 a0bd 6685 66bc
00000160: 17bf 2cbd b4a8 b23d 407e 343d e2d7 81bd
00000170: 6cb9 b73d af5f c9bd 6367 023e 6c93 35bd
00000180: ef31 063d 2141 873d aaf2 613c 9ab7 a0bd
00000190: 5671 69bd fa3d f1bc 3511 cdbd 4f04 64bd
000001a0: 4f31 cbbd d647 483d b4b8 3bbd 59d8 893d
000001b0: 2edf d6bd f4b8 f0bd 76c7 913c 5047 f03c
000001c0: 0fca ecbc 330c c8bd 4697 acbd bfc6 d3bd
000001d0: 3cc5 4b3d a9f0 073d 3a36 f6bc 355d 0f3d
000001e0: beee 0dbc a809 f83b 375d 5b3d 3f00 863c
000001f0: 9a04 473d cb08 993d 8bca 8dbd 148e 9c3d
00000200: b60d 373d 7252 9d3c 9bdd 693d 9691 223d
00000210: 9d09 003c 4842 40bd e561 543c 8c57 90bd
00000220: baca 6c3c ac06 42bd 8bdb 07ba c623 843c
00000230: e08f 5a3d 84fc cfbb 3ef6 96bc d7d8 a53d
00000240: e685 3c3d b207 453d 6788 bb3c 8ca1 503d
00000250: dad8 a3bd def5 af3c 84e3 ccbd e5de f13c
00000260: 2110 75bd 09f2 d2bd 60e8 8abd 1231 1fbd
00000270: bc61 7cbc cdac 0d3d f465 43bc f4e3 d13d
00000280: cf12 093e 1363 d23d 3606 ca3d 9670 27bc
00000290: 9a63 0f3c c090 dcbc b639 1e3d ee2e f23c
000002a0: aa83 35bd d917 683d 05d5 95bd 46a6 7c3d
000002b0: 69be 95bd d346 6f3b 0c62 8dbd 3db8 813d
000002c0: a5e8 3abd 9198 ec3d 68bc 213c 7d12 acbd
000002d0: 8c65 9f3d 9333 583d f24b e2bc c2e5 99bd
000002e0: 074d 95bd 0faf c4bd 8fff 21bd 1752 efbd
000002f0: efc3 733d 87b1 353d 8b81 aabc 3124 78bd
00000300: 8b94 e23d 6cd9 02bd 713b 513b 56fe ac3d
00000310: 1ca7 723d b5b1 ddbc 76e6 5a3d d221 053d
00000320: 3ba5 3ebd 07f9 c0bd 1432 8d3d 5650 12bd
00000330: 90cf 14bd 8a4c e33b fca5 ecbd 3b58 ea3c
00000340: 62f8 3b3d c62a acbc cb55 a3bd 43f8 babd
00000350: 7f1c 973c ff44 bebd d8f7 b8bd f2d4 e1bd
00000360: 6fca e83d 762b a53d 40f8 cd3c cad9 afbd
00000370: 31ba bbbd 328d 193d 3f76 fb3c 5edd c0bb
00000380: 332f cebc 6c24 063d 8bce dd3d 193f 1e3d
00000390: 317e 1b3d 9efa 093e 6e46 cc3c 4a47 ba3b
000003a0: f99f b13c 0086 803d 7352 d03d 18c9 4fbd
000003b0: 6ca6 b93d 2d00 4fbc 5adf c9bc b0d2 d0bc
000003c0: dc2f 7dbd 4848 b8bc dfdb 3bbd b4d9 d7bd
000003d0: e3bf c1bc 8ae3 bd3d 1d92 a3bd 972f 70bc
000003e0: f3e7 853d 21b0 563d 2bb6 04bd f271 773d
000003f0: 0b92 0dbd db73 933b df3a a5bd d104 5e3d
-0.076006964 0.046539627 0.098956175 -0.009717315 -0.046547957 0.051428743 -0.09834923 -0.033387136
-0.029176604 -0.009809061 -0.088552274 -0.027105834 0.065688424 0.015497797 -0.045166038 0.056043245
0.017635623 0.020493083 0.083615094 -0.07390743 0.06545739 0.071588494 -0.089304626 -0.052365225
0.019152548 -0.06556345 0.10203267 0.01770546 -0.09371714 -0.025558287 0.08362011 -0.06631435
-0.0043649403 0.036882695 0.037531145 0.025970772 0.08313296 0.049226835 0.022564592 -0.051296603
0.12331805 -0.129771 -0.13766031 -0.11590729 0.0691055 0.030277334 0.04948274 0.04397891
0.023123663 0.013585088 0.018192478 0.017785706 0.030562848 0.026807701 -0.057497337 0.018028963
0.01226115 0.06494415 -0.11925076 -0.10302806 0.08666305 0.007960436 -0.012543635 0.07482172
-0.08695399 -0.046078216 -0.012947747 0.07729301 -0.0077550113 0.08688088 -0.13250163 -0.065018
0.014131938 0.033154476 -0.07453563 -0.048125584 -0.031517565 0.14332376 0.10575749 0.009207594
-0.017748563 -0.095222406 0.0020063065 0.02773382 0.115175776 0.098254435 -0.07858588 -0.014069891
-0.042174425 0.08723584 0.044065714 -0.063400045 0.08970913 -0.09832703 0.12734751 -0.044330046
0.032762464 0.06604219 0.013790766 -0.07847519 -0.05699285 -0.029448498 -0.100130476 -0.05566817
-0.09921514 0.048896633 -0.045830444 0.06730718 -0.10491787 -0.11754027 0.017795306 0.02933088
-0.028904943 -0.09767952 -0.084272906 -0.10340642 0.049748644 0.033188496 -0.030055154 0.035001
-0.008662878 0.0075695105 0.053555693 0.01635754 0.048588373 0.0747238 -0.06923398 0.07644287
0.04469081 0.019204352 0.057096105 0.039689623 0.007814792 -0.04693821 0.012962793 -0.07047948
0.014452631 -0.047369644 -0.0005182556 0.01613034 0.053359866 -0.006347241 -0.018427964 0.080979995
0.046026133 0.048103042 0.02289219 0.050935313 -0.080003455 0.021479543 -0.10004333 0.02952523
-0.059829835 -0.10300071 -0.06782603 -0.038865156 -0.015404161 0.034588624 -0.011926163 0.10248557
0.13386081 0.10272803 0.09864466 -0.010219714 0.008751774 -0.02692449 0.038629256 0.029563393
-0.044315018 0.056663368 -0.07316021 0.06168201 -0.073117085 0.003651072 -0.069034666 0.06333969
-0.045632023 0.11552537 0.00987158 -0.08401964 0.077830404 0.05278356 -0.027624104 -0.07514526
-0.072900824 -0.09603702 -0.03955036 -0.11685579 0.05951303 0.044358756 -0.020813724 -0.06058139
0.110634886 -0.03194563 0.00319263 0.08446948 0.0592414 -0.027062276 0.05344244 0.032502957
-0.046544295 -0.09422498 0.06894317 -0.035721146 -0.03633076 0.0069366144 -0.115550965 0.028606525
0.045891173 -0.02101649 -0.07975348 -0.091293834 0.018446205 -0.09290504 -0.090316474 -0.11026944
0.11366736 0.0806493 0.025142789 -0.08586462 -0.091663726 0.03748817 0.030696033 -0.005885764
-0.02516899 0.03274958 0.108304106 0.038634393 0.037962142 0.13474509 0.024935927 0.005684768
0.021682726 0.062755585 0.10171976 -0.050728887 0.090649456 -0.012634319 -0.024642635 -0.025491089
-0.06181322 -0.022495404 -0.045863982 -0.105395705 -0.023651069 0.09271915 -0.07986853 -0.014659784
0.065383814 0.052414063 -0.03240029 0.0604114 -0.034563106 0.004499895 -0.080678694 0.054203812

encoder.layers.0.self_attn.W_K.weight f4 [60, 100]
00000000: cce1 2e3c d654 aebd a2b7 1e3c 1130 a5bd
00000010: 51b2 523d cf73 66bb 1525 26bd 6a59 02be
00000020: e181 25bd 4354 1abe b807 673c 4cd3 033d
00000030: a8f8 ee3c 8bb5 0c3d 7e99 c93a 602e 5a3c
00000040: 92e7 ccbd ef0a 263c f979 11bd a4e5 24bd
00000050: bae7 acbd df27 f4bd 6304 ff3c 7e74 c2bc
00000060: 61b8 f13c b1d7 bbbd 2ad6 d6bc ed7f ce3d
00000070: b3ff acbd 36dc d93b 4921 253d 7cf8 5a3c
00000080: 60ba 00bc 3df2 55bc 70e5 3fbd bfc7 9fbd
00000090: 59f1 8bbd 838d 96bd b6c9 993d 1e1f 493c
000000a0: 46b8 40bd 69f2 b53d c93f 53bc 32cd a63c
000000b0: ad02 133d c1fb b83c 49ee 0d3e 82ff 6a3c
000000c0: 9daf 98bd f3d7 413d fccf aabd 186e 9a3c
000000d0: 3d1e ca3b 97f5 3cbd f93a b33d 6126 6fbd
000000e0: 2431 13b8 162d 69bd e5eb 443d 04f5 d9b9
000000f0: 4b69 813d bca0 0a3d 7a88 80bd 0c5a a1bd
00000100: 5dc2 d3bc 4f54 e7bd 8e72 a53d 0861 c1bd
00000110: 8a34 913d 2270 e13c ac0e 133e 805a b23d
00000120: e126 41bd b314 2dbd 18d9 ee3c e48a ba3c
00000130: 4559 14bd 55d6 acbc c194 923c 5e81 6b3a
00000140: 2d4c d83d 3655 1dbd f09b 41bd 6236 3abc
00000150: baf0 943c 7243 9dbd d1b9 72bc b33d 083d
00000160: 3372 fd3c 0a5b 573d b79d be3b a86d 7abd
00000170: a11e 9a3d 8c3d abbd 9c94 f5bc 18c5 913d
00000180: 26aa a9bd 7b7f 653d 3ce5 713d dd74 71bd
00000190: 30e7 043c b9e3 d1bd 9dda 953d a420 38bd
000001a0: 5151 95bd d1e0 c9bd 7af3 9ebd ac86 173d
000001b0: e086 f6bc 2553 cc3c dcbe bdbb a749 36bd
000001c0: 21ae 283d 4227 2a3d b2da f7bd 9c39 d73d
000001d0: cc67 e5bb ad9b 41bd 9816 193d c9f7 613d
000001e0: c3f3 1f3d 9323 1c3d 9cb6 393c 6dc8 a83d
000001f0: 749b 713c 540c 263e a380 b43c 98d5 433d
00000200: 2609 373d 2788 25bd d713 5c3d 0215 203d
00000210: dcb2 c9bc 2aa8 2d3d 3ca2 a13d 553c 74bd
00000220: 2b56 d8ba 213c b9bd e9e7 4e3d ec70 363d
00000230: 9897 ff3d 4e00 543c 56ef 743d 8e5c 6dbd
00000240: b71e 40bd 806b 193c a244 7d3c 0ade 7b3d
00000250: a3eb 7cbd 2741 79bc 0a84 153c c6f3 5f3d
00000260: 7ca8 60bd 36dd 9c3d 7e4d e3bd 64ad 983c
00000270: 2600 1fbd 5df0 0dbd a3b8 be3d 17a1 dc3c
00000280: cd2f ca3d 18c1 b7bb 8132 f73c 1cda cfbb
00000290: 9682 1cbd 9ccf 3dbd 2019 413d 9069 9e3d
000002a0: 8feb 8d3d 0cf2 9a3c 2e50 893d ff45 69bd
000002b0: 06bb ebbd dddb babd 0d5a 113d 283a 343d
000002c0: 940d f2bd 9df7 093e bd3a 57bd 0002 71bb
000002d0: 0604 f0bd 600b 07bd 8f4a f83a 94d3 b2bb
000002e0: 4d2c da3d 856f ae3d 9403 2abe c2c8 893d
000002f0: e4d7 65bd 728d 02be cfde 1abc e8bb 273d
00000300: a61c 393d 120a 6a3d 85d7 21bd e068 d83c
00000310: ad3d bf3d 59dc dabd 374e 06bd 4a11 2dbe
00000320: 8964 0e3d 47c5 f4bd 9fce edbb bfe2 48bd
00000330: 0ae7 8fbd f4e5 b3bd c2c1 2f3c a88b 9e3d
00000340: 7ba9 923b 2563 5f3d d749 c9bd a5c6 643d
00000350: 6db6 c43d dcdd 6a3d 7231 45bc 68f1 b03d
00000360: e6ed 70bd 26cb b3bd 6ab1 183e 4fc7 343d
00000370: b967 6ebd f0e0 323d ea15 34bd 1681 0a3e
00000380: bae2 b9bd 4304 143e 820f 4ebd f08c b03d
00000390: d79f 44bd 71b7 1a3e 8208 9d3d 2468 eebd
000003a0: f674 debc e156 483d dd0c 613d 8021 083b
000003b0: e96f 833d 0cb8 223b c943 81bd 0378 82bd
000003c0: 94b6 0cbd 1303 30bc 691c 89bb 0fc4 6f3d
000003d0: 9423 babc 7398 843d b26a 14bd fc91 183d
000003e0: 95f9 d13d b0fe 4b3d 6e15 66bd 99c6 ddbc
000003f0: 4ada c9bb 492d b93d f669 87bd a509 0c3b
0.010673951 -0.08512275 0.009687336 -0.080658086 0.051439587 -0.0035164242 -0.040562708 -0.12729421
-0.040407065 -0.15071206 0.014100961 0.03218393 0.029171303 0.03435282 0.0015380827 0.013316721
-0.10005106 0.010134443 -0.035516713 -0.040258065 -0.08442636 -0.11921667 0.031130021 -0.023737188
0.029506864 -0.09171999 -0.026225168 0.10082994 -0.08447208 0.0066485656 0.040314946 0.013364907
-0.007856935 -0.013058242 -0.046849668 -0.078017704 -0.06833143 -0.0735121 0.075091764 0.012275485
-0.047050737 0.08884127 -0.012893626 0.020361517 0.035891224 0.022580983 0.1386043 0.014343144
-0.074553706 0.047325086 -0.08340451 0.018851325 0.0061681555 -0.04613265 0.087514825 -0.05838621
-3.5093297e-05 -0.056927763 0.04807653 -0.00041572016 0.06318911 0.033844694 -0.06276031 -0.07878503
-0.025849516 -0.112953775 0.0807849 -0.09442335 0.07090099 0.02751929 0.14361066 0.08708668
-0.04715622 -0.04225607 0.029156253 0.022771306 -0.036217947 -0.021098295 0.017893197 0.0008983816
0.105614044 -0.03841134 -0.047267854 -0.011365505 0.018181194 -0.0767888 -0.01481481 0.033261966
0.030938243 0.052577056 0.005817141 -0.061139733 0.07525373 -0.083613485 -0.029978089 0.07117671
-0.08284406 0.056029778 0.059056506 -0.05894934 0.00811176 -0.10248513 0.07317088 -0.044953004
-0.072909005 -0.098573335 -0.07761283 0.036993667 -0.03009361 0.02494199 -0.0057905745 -0.044503834
0.041181687 0.041541345 -0.1210226 0.10509035 -0.007000899 -0.047267605 0.037375063 0.055167947
0.03905083 0.038119864 0.011335041 0.08241353 0.014746536 0.1621564 0.022033995 0.04781112
0.04468646 -0.040413048 0.05372986 0.039082535 -0.02462142 0.042396702 0.07892272 -0.05962785
-0.0016505172 -0.09044672 0.050514136 0.044541284 0.12480086 0.012939526 0.05979856 -0.057949595
-0.046904292 0.009364009 0.015458258 0.06149105 -0.06174816 -0.015213287 0.009125719 0.05467584
-0.05484818 0.0765938 -0.11098765 0.018637367 -0.0388185 -0.034653056 0.093125604 0.026932282
0.098723985 -0.0056077354 0.03017545 -0.0063431393 -0.038210474 -0.04634057 0.0471431 0.07734978
0.06929695 0.018914245 0.06704746 -0.05695152 -0.11510281 -0.09123967 0.03548627 0.044000775
-0.11818996 0.13473363 -0.05254625 -0.0036774874 -0.117195174 -0.032969832 0.0018943119 -0.005457351
0.10652981 0.085173644 -0.16602927 0.06727745 -0.056114092 -0.1274927 -0.009452536 0.040950686
0.045193337 0.05713851 -0.039512176 0.026417196 0.093379356 -0.10686559 -0.032789435 -0.16901127
0.034763847 -0.1195169 -0.007257297 -0.049044367 -0.07026489 -0.087840945 0.010727348 0.07741481
0.00447577 0.05453791 -0.09828537 0.055853505 0.096051075 0.057340488 -0.012035714 0.086397946
-0.058820628 -0.08778982 0.14911428 0.044135388 -0.058204386 0.04367155 -0.04396621 0.13525805
-0.09076448 0.1445475 -0.05030776 0.08620632 -0.048003998 0.1510904 0.07667638 -0.11640957
-0.02715538 0.04891098 0.054943908 0.002077192 0.064178295 0.0024828939 -0.06311757 -0.06370547
-0.034353808 -0.01074292 -0.004184295 0.058536585 -0.022722043 0.0647439 -0.036234565 0.037248597
0.10252682 0.049803436 -0.05617278 -0.027072238 -0.0061600553 0.090418406 -0.06612007 0.0021368053

encoder.layers.0.self_attn.W_V.weight f4 [60, 100]
00000000: ac54 f2bd d679 b33d f039 d3bd ae75 06bd
00000010: d781 9e3d 03b0 ce3d 509b a9bc 4100 87bd
00000020: 5f4d 4e3d 9784 f2bc 5687 5bbc c928 9e3d
00000030: 740f 9b3c 373a 303d 22fd d03d 863d 713d
00000040: 7823 85bd 8b44 003d 3e38 9dbd a9dd a63d
00000050: 3290 a4bd 680a 9b3d 6cb2 f13d 70b2 2b3c
00000060: 4b92 ee3c b67a cabd 236d bf3c f4e8 d0bd
00000070: 6304 dd3d fd7f 663c 73a0 10bd 7f08 043c
00000080: 82a9 77bc 0f6a 64bd ba53 d1bd 92fc 043e
00000090: af3c 51bb b3d1 c53d cd72 02bd 8c9a ec3d
000000a0: 784e 7dbd e82c 99bc de43 f83d 5497 24bd
000000b0: 2daa b23c 0173 d8bd 64d3 943d d583 d5bd
000000c0: 4e55 5b3d 5e37 513d 9c9f 13bd 82d2 c43c
000000d0: 23a8 30bd 90c7 f33c 0686 583d c4a6 283c
000000e0: be7b 3e3d f922 07bc ec8a bf3d 7703 a63d
000000f0: 070c 16bd 469b 853d 6ff1 11be 7765 17bd
00000100: 24cb 4e3c c78a 053d 8d87 c33d bcdd a0bd
00000110: 0d53 98bd c34c 15be 1900 2b3d deee 873d
00000120: 03be 233e 5ea6 e83d 9fd4 23be 39cb 38bd
00000130: 785e 633d 0e6f 58bd 9332 fbbc 3dba bd3d
00000140: 2fba 883d 359f 423d 74ab ee3d f651 babc
00000150: fe30 f03c 14df ab3c 55f6 153e c8ab 90bd
00000160: 53be 58bc da05 f03c 1dfd afbd a6bd ce3b
00000170: f85c e13c d788 16be e45a 31bd 9ab4 2f3e
00000180: e95f 8e3d f60b c83c ac82 c73c d419 973d
00000190: d648 1bbc 5c0e 8d3d 0ef9 27be 2ac2 733b
000001a0: 718c e83d ab90 883c 02b0 233d 5ede 12be
000001b0: e150 c13d 12d3 3c3d 67d1 e13c fe71 743c
000001c0: 2257 05be 3000 e5bd 1699 b93d 5379 ad3d
000001d0: 8d5c 52be a51d 99bd b376 4e3d b331 d4bd
000001e0: de2c a9bd 8e2b 2bbd ee0a db3c a6bd cdbd
000001f0: 9120 c4bc 4540 24be b9c4 61bd c21a 253d
00000200: daca dfbc 5d4e 9bbd 3843 06bd a1aa 9abb
00000210: cd43 f43d fa78 4ebd 16fb 35bd fb2e 98bd
00000220: 5eb4 73bd b312 d3bb 0ee5 2b3c 6984 e03d
00000230: 31e7 34be 75ff 573d 227f 113e 3a04 d53d
00000240: e5c0 763d b733 98bc 2c29 b73c 2e6b b23c
00000250: 7f9d 023d 6a89 93bd 5e0f 8dbd be72 dbbd
00000260: cd80 12be 7d60 45be e1c6 6e3c 6d66 5cbc
00000270: 18d4 88bd 533a 5e3d 4210 a63d dae9 473d
00000280: 7e23 603d fed2 a23d c0a0 65be 93a6 afbc
00000290: 8225 8dbb c974 f13d 8a11 fd3d bb3a c9bd
000002a0: cb96 663d d253 77bd bfea 4f3e ff70 0b3e
000002b0: b96c 023e 3ee1 9ebc 19f0 8fbd 595b ba3c
000002c0: 02e3 c13b 0045 e2bd a345 ffbd 8005 7f3d
000002d0: 82e7 8b3d 5779 3c3d 8932 e03d 93e0 9f3d
000002e0: de95 ae3c 5380 f9bc 8258 ec3d de96 93bc
000002f0: 8186 123e a8ea 29bd e862 1abe eec4 e63d
00000300: cce5 9abc 68b9 af3b 3dcb 54bd 79a5 013e
00000310: 77d3 ecbd 992b a23d 1f3a 673c 0d11 6abc
00000320: 61e5 6b3c 457d 973c 5729 033e 9fc1 193e
00000330: 6a5d 29bd f979 893c e8f0 03be d2d1 0fbb
00000340: 7ad1 8bbc 9fc8 6b3d 8532 b13b 4fee b53c
00000350: 08a9 87b8 220b b53d 4ecd d3bd 9977 00bc
00000360: 3482 d73d 6129 27bc 15cb 8abd b170 133e
00000370: 628d 2cbc 434d 0c3d eb08 48bd 0d0d 2bbd
00000380: 262a 5f3d 6eb4 e93d 1edb bc3d 1c7c 683c
00000390: 5f4c cebd d0dc 37bd 9429 a83d b400 d9bd
000003a0: 1e0d 8ebc ab04 bf3c e432 ebbd b52f 39bd
000003b0: c05c 9dbd 1277 893d 00b2 e03d 5f85 79bd
000003c0: fedb 86bc 43a5 0f3c 3527 a1bd 8760 623d
000003d0: a04b 3c3d 334f 7d3d 548b cf3c 9b83 b13c
000003e0: cd87 4dbd 7951 06bd 762a 343d 7e77 3dbd
000003f0: f373 093e fb20 3cbc 5099 d3bc ede9 75bd
-0.11832556 0.08763473 -0.10313785 -0.03282707 0.07739609 0.10092165 -0.020703942 -0.06591845
0.050366756 -0.02960424 -0.013398966 0.07722623 0.018928267 0.043024268 0.10204531 0.058896564
-0.06500906 0.031315368 -0.07676743 0.08147747 -0.080353156 0.07570344 0.118016094 0.0104795545
0.029122492 -0.098866865 0.02336747 -0.10200682 0.10791852 0.014068601 -0.035309266 0.008058666
-0.015116097 -0.055765208 -0.10221048 0.12986973 -0.003192704 0.096591376 -0.031847764 0.11552915
-0.06184241 -0.01869817 0.1212232 -0.04018338 0.021809662 -0.1056881 0.07266882 -0.104255356
0.05354815 0.051078193 -0.036040887 0.02402616 -0.043129098 0.029758245 0.05286219 0.010293666
0.04650473 -0.008248084 0.09352669 0.081061296 -0.036632564 0.06523757 -0.14252256 -0.036962
0.012621675 0.03260305 0.09547339 -0.078547925 -0.07437716 -0.14580064 0.04174814 0.06637357
0.15990452 0.11359857 -0.15999077 -0.045115683 0.055510014 -0.052840285 -0.030663764 0.09264038
0.06676137 0.047515113 0.11653796 -0.02274416 0.029320236 0.020980395 0.1464475 -0.07064015
-0.013228971 0.029299665 -0.085931994 0.006309229 0.027510151 -0.14700638 -0.04329957 0.17158738
0.06951887 0.024419766 0.024354301 0.07377973 -0.009477815 0.068875045 -0.164036 0.0037194588
0.11354912 0.016670546 0.039962776 -0.14342639 0.094392546 0.04609973 0.027565671 0.014919756
-0.1302152 -0.111816764 0.09062402 0.084704064 -0.20543118 -0.07476357 0.05040617 -0.10361042
-0.08260511 -0.041789584 0.02673861 -0.10045938 -0.02394131 -0.16040142 -0.05511925 0.04030872
-0.027318407 -0.07583306 -0.03277895 -0.0047200476 0.119269945 -0.05040834 -0.044428907 -0.07430836
-0.059498183 -0.006441438 0.010491623 0.10962755 -0.17666318 0.052733857 0.14208654 0.10401197
0.060242552 -0.018579347 0.0223585 0.021779623 0.03188848 -0.07203944 -0.06887697 -0.10715245
-0.14306946 -0.19275089 0.014573784 -0.013452155 -0.06681079 0.05425484 0.0810857 0.048807003
0.054721348 0.079504 -0.22424603 -0.021441733 -0.00430745 0.11789853 0.12356861 -0.09825655
0.05629615 -0.06038267 0.20304392 0.13617323 0.12736787 -0.019394513 -0.07028217 0.022748636
0.005916954 -0.11048317 -0.12464454 0.062261105 0.06831266 0.046014156 0.10947139 0.07806506
0.021311697 -0.030456698 0.11540319 -0.018016275 0.14309122 -0.04148355 -0.15076792 0.1126803
-0.018908404 0.0053626783 -0.051951636 0.12660779 -0.11563771 0.07918472 0.014112978 -0.014286292
0.01439795 0.01849235 0.12808739 0.15015267 -0.041348852 0.016781794 -0.12884867 -0.002194513
-0.01706766 0.057564374 0.0054076337 0.022208361 -6.468786e-05 0.08840014 -0.10341893 -0.007841014
0.10522881 -0.010202737 -0.06777016 0.14398457 -0.010531755 0.03425337 -0.04883663 -0.041760493
0.054483555 0.11411367 0.09221481 0.014189746 -0.100731604 -0.044888318 0.082110554 -0.10595837
-0.01734024 0.023317656 -0.11484316 -0.045211513 -0.07683706 0.06712164 0.10971451 -0.06091821
-0.016462322 0.008767429 -0.07868806 0.055267837 0.04597056 0.06184311 0.025334992 0.0216692
-0.050178338 -0.032792542 0.043985806 -0.046256535 0.13423137 -0.0114824725 -0.025829941 -0.060037542

encoder.layers.0.self_attn.W_O.weight f4 [100, 60]
00000000: dbcf efbc 186b f93c be30 963d eb80 d9bd
00000010: caa5 a2bd cbaa 0b3e 392e e93d 7d0d f63c
00000020: 91b1 233c 0d80 dcbc 0a65 233e e2e6 873d
00000030: 2678 803d 2f89 d6bd 6f5c 053e c510 b6bd
00000040: 1812 b1bc 4c5c 72bc ad06 23be e011 913d
00000050: a247 333d 788d a4bd 7de9 433d e7f8 0cbd
00000060: 0941 82bd d6ed 8a3d 286d d63d d07d 3d3c
00000070: de1f 3abd 5f5c ac3d 48d9 46bd 03c3 22bd
00000080: 0014 133e 43db 1fbd 3b05 19bd 4936 543b
00000090: 311d 593c 4baf 8c3d d0d2 a3bd ee80 2c3d
000000a0: 577e c63b 7ff2 703d 1a4c 2c3d 2cc4 39bd
000000b0: 863b 9bbd 10ce 18bc 7b2d 543d 7b13 26be
000000c0: daef f9bd c9a3 16bd 4de3 f13c 8403 b2bd
000000d0: e5f3 cdbd b659 853d 72a2 e03d 30d3 38bd
000000e0: 35a6 b03d 2baf fcba c2b1 0f3e 8604 3f39
000000f0: 8c7d 953b 2559 873e 6272 e1bd ceb0 6fbd
00000100: 60bc 3f3e 76c5 1a3e 1ead 4fbd d908 d33d
00000110: b298 f83d 08a5 9e3d e3b0 233e 9e3c 143b
00000120: 37e8 e43d 52de a9bd 2e8b 61bd 458b e0bd
00000130: 7e17 813c 9e17 343d c1f8 f7bd 87d0 a1bc
00000140: 0995 1ebe 49b2 dcbd ceef 263e 4908 a53d
00000150: ccbc 743d b4be 4dbd 2599 bd3d b4e3 7ebd
00000160: 5b7a da3c b0f7 ee3d f674 e83c 3ddb 82bd
00000170: 3316 073d a72a f5bd 10db 83bc e6cf 243d
00000180: 79ce f5bd e6b2 283e fdf6 8bbd 02c4 403d
00000190: 8044 ad3d 9551 753d 9f8f e93c 9074 7ebd
000001a0: 5055 fb3d ccc7 2d3d 2887 bebb b229 02bd
000001b0: 6f2b ac3d 2d41 603d 78c1 cd3c 21fb 07be
000001c0: e7af 3bbb 79b7 993d f8c5 cb3d 4dec 80bd
000001d0: e412 86bd 1d2d 143d 32e4 3cbd ad39 a0bc
000001e0: 3020 edbd cb16 11be 4471 2f3e e0f2 9cbd
000001f0: a651 3d3d c225 213d 5d24 1ebc 6ea1 eabd
00000200: dab5 793d a66a 2b3d 8546 baba 079a cb3c
00000210: da23 2fbd 3438 d53d bb8c 8c3c bb0c 94bb
00000220: 507c 963c 8637 1ebe 41d3 89bd 7ec5 fbbd
00000230: 9977 c33d f4a6 a6bd a8a3 cabd ea71 bc3d
00000240: 5f7d d83d 5096 cabd 2b45 3fbd 2265 65bd
00000250: b8d9 3bbe efc9 e0bd 24c7 293e d555 a9bc
00000260: 4bcf 993c 6df9 fabd 19df 97bc 3bfb 3c3d
00000270: dbc5 223c 19a1 263c f505 963c 4618 d5bc
00000280: 17af 8bbd ad2f 7cbd 3a68 903d 8402 dcbd
00000290: c9b4 b8bd 2531 75bd 78b6 8f3d b49c b23d
000002a0: fbbd b0bd 39fc a33d e455 cd3d 92c6 a2bb
000002b0: e82e af3d 308d 9a3c c281 9fbb 68c5 04bc
000002c0: ff2c b4bc 685e e7bb 9b81 b7bc 26f4 1fbe
000002d0: 5e77 dd3d 374b 033e 0f77 d43d 8e8b 1e3c
000002e0: 0e52 66bb c824 863c 977c e43d 4465 c23c
000002f0: ce00 053e b98d 123e 69b3 983d b721 0d3c
00000300: c0b8 d53d 44ae dbbc ac6a 8bbd b8c8 17be
00000310: a61a 5d3c ef6b a9bd 06b4 3ebe fc25 1fbd
00000320: 17b9 9fbb b4df 97bd e9fd 283e cc1c 803d
00000330: 987b c2bc bc03 da3d 9faa 053d ace7 d4bd
00000340: 5fbc bbbb 33eb bb3d 3334 61bd b0d7 4fbb
00000350: 1a8b 093e 89e2 0e3e 40ec db3d fde1 6abd
00000360: 873f 883d f12d 0f3e 17c6 5f3d 1aed 2fbe
00000370: 1c74 1fbc 8cee 513d 8125 ebbd 2284 56bd
00000380: 1e7e a53d 7179 91bd 777c 04bd 72b1 e4bc
00000390: 4717 0abe 813f a8bd 88af b6bd 014e bd3c
000003a0: 876a a03d decf 673c 1780 05bc d58e 10bd
000003b0: 03dc 20bd 8d8a 103e 9e95 fb3d 0f7a b23d
000003c0: c764 9e3d 4043 bebd dea2 39bd 7e8a 0fbd
000003d0: df51 5f3d 291d a43d 10be 093b ffbb e3bd
000003e0: d7bf c13d 2f9d 2d3d f43f 61bd 55d3 4f3c
000003f0: 26e9 1ebc b75f e5bd 8a30 a1bd 130d bbbb
-0.029273918 0.030446574 0.073335156 -0.10620292 -0.07941778 0.13639371 0.113857694 0.030035729
0.009991066 -0.026916528 0.15956512 0.06635834 0.062729165 -0.104753844 0.13023542 -0.08889917
-0.021615073 -0.014792513 -0.15920515 0.070834875 0.043769486 -0.080347955 0.047830094 -0.03441706
-0.06360061 0.06783645 0.10470039 0.011565641 -0.045440547 0.08416056 -0.04854706 -0.03973676
0.14363098 -0.039027464 -0.037358504 0.003238099 0.013251589 0.06869372 -0.07999194 0.042115144
0.0060575414 0.058825012 0.042064764 -0.0453531 -0.075797126 -0.009326473 0.051801186 -0.16218369
-0.12203951 -0.03677729 0.02952733 -0.08692077 -0.10056285 0.06511252 0.10968484 -0.04512328
0.086254515 -0.0019278278 0.14032653 0.00018216865 0.0045620855 0.264352 -0.11008145 -0.058518223
0.18724203 0.15114388 -0.050702207 0.10304422 0.12138499 0.07746321 0.15985446 0.0022619138
0.11177104 -0.08294357 -0.055064373 -0.109640636 0.015758272 0.043967836 -0.12107993 -0.019752754
-0.1548654 -0.10776193 0.16302416 0.08058221 0.059750363 -0.050230697 0.092577256 -0.062228873
0.026669672 0.116683364 0.028376084 -0.06389473 0.032980155 -0.11971026 -0.016095668 0.04023733
-0.12002272 0.16474494 -0.06834219 0.047061928 0.08460331 0.059892256 0.028510867 -0.06212288
0.122721314 0.04242687 -0.0058144517 -0.031778045 0.08406722 0.054749656 0.025116667 -0.13279392
-0.0028638782 0.07505698 0.09949869 -0.06295071 -0.06546572 0.036175836 -0.04611606 -0.019558752
-0.11578405 -0.14168851 0.17133051 -0.07663512 0.046220444 0.03934265 -0.009652224 -0.114565715
0.060964443 0.041849755 -0.001421169 0.02485372 -0.0427588 0.104111105 0.01715695 -0.004518119
0.018369824 -0.15450868 -0.067297466 -0.12293528 0.09544296 -0.081373125 -0.09894496 0.09201415
0.10570788 -0.09891951 -0.046696823 -0.05600465 -0.18344772 -0.10976016 0.16579872 -0.02067081
0.018775603 -0.122546054 -0.018538998 0.04613803 0.009934868 0.010170245 0.018313387 -0.026012551
-0.06820505 -0.061568905 0.0705113 -0.10742667 -0.09018857 -0.05986132 0.07017225 0.08721295
-0.08629986 0.08007092 0.10026148 -0.004967519 0.085538685 0.018866152 -0.0048677633 -0.008103706
-0.021994112 -0.0070608146 -0.022400668 -0.15620479 0.10813783 0.12821661 0.10374271 0.009676827
-0.0035144123 0.01637496 0.11156576 0.023729928 0.12988588 0.14311875 0.07456095 0.008613995
0.10435629 -0.026816495 -0.068074554 -0.14822662 0.013495123 -0.0827254 -0.18623361 -0.038854584
-0.0048743594 -0.07415715 0.16503109 0.062554926 -0.023740575 0.106452435 0.03263342 -0.103957504
-0.0057292427 0.0917572 -0.05498142 -0.0031714253 0.1343197 0.13953604 0.107384205 -0.057344425
0.06652742 0.13982369 0.054632273 -0.17180291 -0.0097322725 0.051252887 -0.11481763 -0.052372105
0.080806956 -0.07103241 -0.03234526 -0.027916644 -0.13485442 -0.082152374 -0.08920199 0.023108484
0.078328185 0.0141486805 -0.008148215 -0.035292465 -0.03927232 0.14115353 0.122843966 0.08714687
0.077340655 -0.09290171 -0.045321338 -0.035044186 0.054521438 0.08013374 0.0021017827 -0.11119842
0.09460419 0.04238623 -0.05499263 0.012684663 -0.009699142 -0.11199897 -0.07870586 -0.0057083457

encoder.layers.0.batchnorm_attn.1.weight f4 [100]
00000000: 2d84 7b3f def5 733f 8713 7f3f cf9c 873f
00000010: 5e3c 783f a98a 873f d82f 6d3f bf90 853f
00000020: 69d2 853f 0bf7 703f 89d8 7f3f 47a9 823f
00000030: 4baf 753f 75d5 843f 3006 783f 495b 813f
00000040: b594 823f b909 843f 2633 803f d71a 793f
00000050: 7d19 883f 2ec9 7e3f 7967 853f becb 843f
00000060: 0b2b 823f bba5 883f fa9a 7c3f bc7e 803f
00000070: 2b1f 853f 24fd 7f3f 9694 833f 3f21 793f
00000080: 6c0c 773f 492f 823f 1aa2 793f 3523 843f
00000090: b08e 773f 7f79 883f 84e5 783f c0e7 843f
000000a0: cf5e 753f 0952 8e3f 9f16 743f 0331 803f
000000b0: feb3 833f 66fc 7c3f a61b 713f 98b9 7f3f
000000c0: 4e52 773f 1305 823f 13ac 843f 9e4d 713f
000000d0: 5d4f 7b3f e643 813f 27a3 853f ac1b 7f3f
000000e0: bbbe 7a3f ebc5 833f c9ac 803f 8a47 693f
000000f0: 9ea5 803f 68cf 783f a78f 893f 96e6 703f
00000100: d02d 813f 6c3c 843f 54d8 833f bcd3 763f
00000110: f2c2 843f b07f 883f a4d3 713f a8b4 813f
00000120: 9cae 803f cc42 623f 020b 793f 6770 803f
00000130: f589 813f 3ac1 8e3f bfd7 7b3f 1e7d 7b3f
00000140: 4b8a 7c3f f66f 863f 973c 803f 3f0b 823f
00000150: 1621 863f 7838 793f 57f2 813f a685 7f3f
00000160: 0d71 6f3f 885b 7b3f 9f72 883f 2ff4 823f
00000170: ab0b 783f 6741 863f bbaa 793f b9aa 7a3f
00000180: a9af 813f 6f50 883f f7a7 853f 7087 813f
0.9824856 0.9529704 0.9963917 1.0594729 0.96967113 1.0589191 0.9265113 1.0434798
1.0454837 0.9412696 0.9993978 1.0207909 0.959706 1.0377642 0.9688444 1.0105983
1.0201632 1.0315467 1.0015609 0.9730658 1.0632778 0.99525726 1.0422202 1.0374677
1.0169386 1.0675577 0.98673975 1.0038676 1.0400137 0.99995637 1.027972 0.97316355
0.9650333 1.017068 0.9751297 1.0323244 0.967021 1.0662078 0.97225213 1.0383224
0.9584779 1.1118785 0.9534702 1.0014957 1.0289304 0.9882263 0.94182813 0.9989257
0.9660996 1.0157799 1.0365013 0.9425906 0.98167974 1.0098846 1.0440415 0.996516
0.9794728 1.0294775 1.005273 0.91124785 1.0050542 0.97191477 1.0746964 0.94101846
1.0092106 1.0330939 1.0300393 0.9641683 1.0371993 1.0663967 0.9446356 1.0133257
1.0053287 0.88383174 0.9728242 1.0034302 1.0120226 1.1152718 0.9837608 0.9823779
0.9864852 1.0502918 1.001849 1.0159682 1.0478847 0.9735179 1.0152081 0.99813306
0.93531877 0.9818654 1.065998 1.0230769 0.96892804 1.0488709 0.9752614 0.9791675
1.0131732 1.0649546 1.0441884 1.0119457

encoder.layers.0.batchnorm_attn.1.bias f4 [100]
00000000: 1d03 273d aeae 2dbd 24f9 f1bb 9562 af3c
00000010: 8442 37bd 9cbf febc f325 393d d697 af3c
00000020: 1a01 133d ca43 ae3c db34 20bc d6a5 52bc
00000030: d3dd ea3c 31c9 f43b bcae a13c 1c9b 56bc
00000040: c748 a23d dd3f 4f3c 99a4 723d 8168 9f3c
00000050: fcff 153d 9dd5 84bc 0736 f2bc 2ec0 b13c
00000060: 94aa d23b baa9 b33c 378e acbc 8d3c c1bc
00000070: 75b4 ccbc d0fc 943c a0b1 9bbc 0082 0fbd
00000080: 03aa adbd 9210 de3c 8861 983d 9f93 70bd
00000090: c954 a5bb 4998 45bc e06e 593c b4c7 08bd
000000a0: 0e8f 863d fdaf f93b 1ff3 213d 1d18 72bd
000000b0: 1d33 b2bc 551b 28bd 0f01 463c 6044 633d
000000c0: 4265 96bd 2e55 853b 29c6 b73c afb9 3cbc
000000d0: 6314 cc3c f3a4 423d 0612 7bbc 2a09 943c
000000e0: ab4f 33bb ac47 cfbc 609e 22bc 1c3b f4bc
000000f0: 6016 25bb b95b 72bc 108e d33c 60ab 8a3d
00000100: a454 94bc 4650 21bd 76db 56bd 92ee d7bb
00000110: a5fd 873a eb7a d03c 5607 c7bd 60c7 7fbd
00000120: 51a1 85bc 02b6 18bd 6907 5a3d ad3b 66bc
00000130: 7408 95bc 7c4e fc3c 4205 103d 0149 1f3c
00000140: 99a2 e5bc 7dbb 853b 1b22 eabc e275 3fbc
00000150: 5239 843c 9314 af3c 08c6 11bd 9841 45bc
00000160: f926 2dbd 3292 953b 2b57 9bbb 3692 643c
00000170: b46a a93c bf6f 8e3d b341 f03c 3de2 4dbd
00000180: d637 96bc 8bc9 04bd 942f 213d 1d1a 42bd
0.040774453 -0.042402916 -0.007384436 0.021409312 -0.04474117 -0.031097226 0.045202207 0.021434706
0.035889722 0.021272559 -0.009778227 -0.012856921 0.028670227 0.007470273 0.01973664 -0.013098504
0.079240374 0.012649504 0.059239004 0.019459011 0.03662108 -0.01621514 -0.029566778 0.021698084
0.006429026 0.021931518 -0.021063907 -0.023588443 -0.024988392 0.018186957 -0.019005597 -0.035036087
-0.08479693 0.02710751 0.074404776 -0.058734532 -0.0050455076 -0.012060233 0.013271064 -0.033393577
0.06570254 0.0076198564 0.0395385 -0.059105027 -0.021752888 -0.04104169 0.012085213 0.05548513
-0.07343532 0.004068992 0.022433357 -0.01151888 0.024912065 0.04752059 -0.015324121 0.018070776
-0.0027360718 -0.02530273 -0.009925455 -0.029813342 -0.0025190338 -0.014792376 0.025824577 0.067709684
-0.018106766 -0.039383195 -0.052455388 -0.006589719 0.0010375275 0.025449237 -0.09718196 -0.062446
-0.016312273 -0.03728295 0.053229723 -0.014052314 -0.018192507 0.030799143 0.035161264 0.009721995
-0.028031634 0.0040811882 -0.028580716 -0.01168582 0.016140614 0.021372115 -0.035589248 -0.012039565
-0.042273495 0.004564547 -0.004740616 0.013950875 0.020680763 0.069549076 0.029328203 -0.050264586
-0.018337172 -0.03241877 0.039352015 -0.047388185

encoder.layers.0.batchnorm_attn.1.running_mean f4 [100]
00000000: 0cb5 713f 0621 3dbf 0ef8 a5bd 256f 3e3f
00000010: 3d65 c3bf b098 78bf 492e 903f 79e8 223f
00000020: d445 c53e d1eb 1fbf 8fa2 c9bf 4138 a3bf
00000030: 1d54 973f 0c30 e73e be12 eb3f e49c 12bf
00000040: 6e5b 463f 09b2 f03e c3e5 073f 2c2a a53f
00000050: 0b13 763f 4418 c9be 198f 44bf 798d 063f
00000060: c83a e4bd 644c 433f 4999 8abe 1417 95be
00000070: a828 20bf 2d69 16bf 29eb a5be 8c74 c8bf
00000080: 8fc5 533e 1118 bf3e e217 573f 166c 0cbe
00000090: 6ad9 8cbe a341 ea3e 01c0 4cbe fce5 83bf
000000a0: c947 ac3f 12a1 253f bbac 3340 1f61 2abf
000000b0: fa3c dabf 5a8d 4ebe 7a5b 0c3f 0fe4 6c3f
000000c0: 36cb 5bbf 686e babd 7d26 5cbe 1a69 0f3f
000000d0: 02b4 843f fabb ce3f 5f4f 9e3d a272 fb3f
000000e0: 0212 ec3e 9646 edbe 1a02 46bf 6e05 3ebd
000000f0: 77dc 0a3f ae27 78bf da87 4a3f 5efa 92bf
00000100: 8588 debe b807 8fbd 6e56 4ebf 4bfd 3d3f
00000110: 5f09 1e3f 2eff d83e 1276 84bf 13ed b7bf
00000120: 0be6 47bf bbd5 f53c d91f fe3f 8e08 adbf
00000130: 2d24 00c0 3073 98be 61f0 f53f 5f22 e9be
00000140: 2f9c 8abf 4f69 6fbf 96f8 eabe 17fb 1bbf
00000150: c862 983e 6cc9 293e 74dd c3bf 8018 95be
00000160: f77d 8abf a6c3 e73e 5e01 48be ed23 a8be
00000170: ac5c 813f b1ca cb3f 8d03 d93e c843 07c0
00000180: 0acd abbe 2d41 ddbe 7cae 523f 3b63 c5be
0.9441688 -0.73878515 -0.08103953 0.74388343 -1.526527 -0.9710798 1.1264125 0.63635975
0.38529837 -0.624692 -1.5752734 -1.2751542 1.1822544 0.45153844 1.8365095 -0.57270646
0.7748326 0.4701083 0.53084964 1.2903495 0.9612281 -0.39276326 -0.7678085 0.5255962
-0.11144024 0.7628844 -0.27070072 -0.2911917 -0.62562037 -0.58754236 -0.32405975 -1.5660567
0.20680831 0.3732305 0.8402082 -0.13713107 -0.27509624 0.45753202 -0.19995119 -1.0304561
1.3459407 0.646989 2.8074176 -0.66554445 -1.7049859 -0.20171109 0.5482708 0.9253549
-0.8585695 -0.091030896 -0.21499057 0.5601975 1.0367434 1.6151116 0.077299826 1.9644358
0.4610749 -0.46342915 -0.77346957 -0.046391897 0.5424265 -0.96935546 0.79113543 -1.1482656
-0.4346353 -0.06983894 -0.8060063 0.7421462 0.6173305 0.42382187 -1.0348532 -1.4369224
-0.7808539 0.030009141 1.9853469 -1.3518236 -2.002208 -0.2977538 1.9213983 -0.45534036
-1.0828913 -0.93520063 -0.4589278 -0.6093001 0.29762864 0.16580743 -1.5301957 -0.29120255
-1.0819691 0.45266455 -0.19531772 -0.3283991 1.0106406 1.5921232 0.42385522 -2.113512
-0.3355487 -0.43213788 0.8229749 -0.3855227

encoder.layers.0.batchnorm_attn.1.running_var f4 [100]
00000000: 50cb 6c40 1924 c640 2670 8f40 e993 4d40
00000010: 14df ab40 9685 0a40 f68a 8340 6075 9f40
00000020: 6168 a140 c2f3 d640 8e41 d640 3702 ca40
00000030: 5cb5 4a40 8ac1 3640 08d0 ab40 e750 4840
00000040: 13f2 8540 4d0a db40 656c 4140 1ebb aa40
00000050: a5a7 3240 301e 7e40 2020 5c40 2031 9240
00000060: ca7a b540 1b7e 8b40 4e80 9140 ec37 3b40
00000070: 7c7b 8840 917e 8440 acfd 7040 42b3 db40
00000080: 2157 9840 17e9 af40 316f aa40 8aef 5440
00000090: 525b 6040 cc03 e640 f0d6 c640 b2d8 c640
000000a0: 13dc 9f40 dacd 8440 36f1 d340 abcc 9c40
000000b0: ca1d 8b40 4b67 b640 ae06 d940 fe4d 6d40
000000c0: f7c5 3840 7979 8940 1bdf be40 50ae 8840
000000d0: f1b5 ad40 46f8 8a40 70ec 0540 5e8f 8440
000000e0: 3268 9640 b4b7 0841 23bf 1b40 4d17 3140
000000f0: 3cb8 a840 857f cb40 0f25 6f40 5280 0841
00000100: 0d51 9b40 bef3 2740 e2d0 4540 7e6a 2c40
00000110: b45b 5840 09f9 9340 5c44 7840 ad20 9d40
00000120: 833e 9540 c421 2740 1ee0 4c40 1175 be40
00000130: a818 8240 1424 1640 6e31 af40 7a4a b140
00000140: 8b98 6f40 f3de 6e40 f7d5 7340 cd12 bd40
00000150: d8cc 3140 cd98 9340 1f13 4240 05f2 8040
00000160: b7f9 9d40 ac71 6d40 190f 4840 9dee 8b40
00000170: a539 b140 9490 a340 1158 0540 ba24 8140
00000180: 54f5 4b40 50c5 8f40 f176 8940 8b3e dd40
3.6999092 6.1919065 4.48244 3.2121527 5.370981 2.1644034 4.110713 4.983078
5.0439916 6.7172556 6.6955023 6.3127704 3.1673193 2.8555627 5.3691444 3.129938
4.1858 6.8450074 3.0222409 5.3353415 2.7914822 3.9705925 3.4394608 4.5684967
5.671239 4.3591437 4.546912 2.9252882 4.265074 4.14045 3.765483 6.865632
4.760636 5.4972034 5.326073 3.3271203 3.5055737 7.1879635 6.2137375 6.213952
4.9956145 4.1501284 6.6231947 4.899984 4.3473864 5.700109 6.7820654 3.7078853
2.8870828 4.296078 5.9647346 4.2712784 5.4284596 4.342807 2.092556 4.142501
4.700219 8.544849 2.433541 2.7670472 5.2724895 6.3593163 3.7366369 8.531328
4.853644 2.6242518 3.0908742 2.6939998 3.380597 4.62415 3.8791723 4.9102387
4.663881 2.611436 3.201179 5.9517903 4.06551 2.345952 5.474784 5.5403414
3.7436855 3.7323577 3.8099344 5.908545 2.7781277 4.6124024 3.032417 4.0295434
4.936733 3.710063 3.1259215 4.3728776 5.5382867 5.1113987 2.0835001 4.035733
3.1868486 4.492836 4.295769 6.9138846

encoder.layers.0.ff.0.weight f4 [256, 100]
00000000: b30f ddba d823 32bd 6667 c43d c8aa f83b
00000010: 9f92 7d3d ea13 a03d 0fcf af3d 33ec ad3b
00000020: 6a9f 0a3d 136f 4a3c c723 52bc d404 d13d
00000030: 05fd 56bd 7be1 943d 6436 6fbd d5d6 18bb
00000040: 286c 433c 7c43 b3bd 53f7 bb3d 685f 73bd
00000050: 589b 81bc e573 48bd 6d7f 53bd 22e0 50bd
00000060: 5765 b8bd 42ec 073c 7ba9 28bd d530 e2bc
00000070: 9b79 95bc 2c2d 2ebd 3299 20be c3aa 6c3d
00000080: ae05 95bd 232d 143d ea1a 933c 67af b33d
00000090: b150 0cbe b7b0 46bd 0c91 cb3d 3a6b 703d
000000a0: 9b94 a53d 4b8f e13d 1007 13bd c589 8a3c
000000b0: 7c90 e63d e636 3dbd 148d 753c 095d 45bd
000000c0: e66f f93c 4c0a e33a dc28 123e 0c15 33bd
000000d0: f5af 2e3d 6ab3 09bd aa8b 94bd 31d6 2e3d
000000e0: 721c b2bd ef1a 87bc 5483 713d 1de9 533d
000000f0: e716 f4bd 8baa fdbd a93f 573d a5d0 e43d
00000100: 16f7 ac3d a10f b7bd d959 803c a89c 06bc
00000110: ee92 533c 88cd 5fbd 0cf5 adbd f723 b4bc
00000120: 64b0 663d 507d dbbd 79a2 dcbd 4d48 063e
00000130: 786b 093e 9948 d3bd 3085 16bd 5f81 bf3d
00000140: 26e7 033e fb9a f33d 7952 0d3c af45 2d3e
00000150: 1467 01be 7a29 fe3c 2cea 45bd b02a 89bd
00000160: ddac d6bc 2a07 b1bc d899 1fbe 4904 ec3d
00000170: d6f9 edbd e394 ba3d 6821 1b3d 372e 1e3d
00000180: 3576 d5bd a64c fd3b 8da0 14bd bf81 f0bd
00000190: bac9 103d 6dd7 d5bd 5e94 c7bb 5f9e 9ebc
000001a0: 7bf2 6dbc 5e46 0ebd e83a 7bbc 0624 123d
000001b0: a3db 4f3d 1514 3c3d 8a34 10bd ab3b 9d3b
000001c0: 93af f83c a289 fdbc 6579 14bd a459 ee3a
000001d0: 7f69 8bbd 14b5 d63b 0403 e93b 6e79 b0bc
000001e0: 3415 c03d d37c 893d 57e9 263d 3a14 563d
000001f0: 9a1b 76bc 2573 533b da17 ea3b 657c 51ba
00000200: 5500 6c3d 56c2 6bbd 23a3 1a3d dc5f 7e3d
00000210: d7bf 40bd 83ca 3ebd c162 98bd 4725 d73d
00000220: b3c4 7fbd b32a c8bd 834c a33d 54fa 6dbc
00000230: c9e6 3e3d 6196 9f3b cbf5 d73c 0464 7abd
00000240: 7fea 113d 6759 973d 028b 77bd 0089 82bc
00000250: 0793 a3bc 6680 8b3c 7999 eb3d 813d 94bd
00000260: 448d 403d 5a72 3d3d f1f5 d83d 57d9 19bd
00000270: 19ed 4d3d ed12 063d 373f be3c c0eb 7cbd
00000280: e346 f6bc 9727 08be 4193 fc3c 4152 2a3d
00000290: 2052 bcbc dc45 063e 0c7a 753c 46ff 033e
000002a0: 1762 18bd 54fe 743b 8876 58bd 75e5 b6bd
000002b0: 1ba6 913c 3e9b 7dbd 8dc4 e33c 4e34 a9bc
000002c0: 5ebd 2a3d 4904 06be 9f65 843d 3e86 8bbc
000002d0: 43e5 123d 599a 743c d42b 3dbd 5364 babd
000002e0: 155d 4d3d 9c01 38bc d5dd 2bbd 6a18 013b
000002f0: ff14 a9bc e103 ec3b 983c 77bd aa9f 8e3d
00000300: e987 97b9 1f4d ee3c 4c09 0a3e 4b96 07bc
00000310: f742 3c3d ce9f 0b3c e29a 25bd 3a60 21bd
00000320: 4a62 313d d5eb 6bbd 5dfe 1f3c 9e35 273e
00000330: 2145 35bd 8e99 08be aeb9 723c df3c d73d
00000340: 48fb e23c 13d5 623c d165 973b 955e 3b3d
00000350: 0d3d 183c 88ed 903d 8963 013d 2a66 a23c
00000360: 2cf7 033e 5fbc e73d d4e3 4a3d 68ac 86bd
00000370: c152 a3bc 6769 a13d 4450 2cbe 9bbb 4b3d
00000380: d88b e53d 3153 863c b740 ee3d 2ebd a73d
00000390: 1db4 02bd 8b2f 3fbc 2c18 f0bc bdc3 84bc
000003a0: 1490 303d 4768 2a3e d61d 943d b83c 61bc
000003b0: 60c5 cfbc b481 893d 96f3 84bd 18d1 b9bc
000003c0: 102a db3d b53a 25be 5906 3ebd 59ef d63c
000003d0: 51c8 08be 7ce5 d73d 0459 d9ba 1bfe 353e
000003e0: 315f b0bc 75ab 003d a853 10be 54bf 573c
000003f0: 7d27 103d 1fa2 0b3e 6cbd 8ebd 0976 4f3d
-0.0016865641 -0.043491215 0.09590034 0.007588718 0.061907407 0.07816298 0.08584415 0.005307698
0.033843435 0.012355584 -0.012825913 0.10205999 -0.052487392 0.072695695 -0.05840148 -0.002332141
0.011927642 -0.08753106 0.09178033 -0.05941716 -0.015821144 -0.04893865 -0.051635195 -0.050995
-0.09003704 0.008296074 -0.041177254 -0.027611176 -0.018246463 -0.042523548 -0.1568344 0.05778004
-0.07276474 0.03617586 0.01795717 0.0877369 -0.13702656 -0.048508372 0.09939775 0.05869601
0.08084985 0.11013659 -0.035895407 0.016911397 0.11258027 -0.046194933 0.014987249 -0.04818443
0.030448865 0.0017321794 0.14273399 -0.043721244 0.042648274 -0.03361837 -0.07253201 0.042684738
-0.08696832 -0.016492335 0.058963135 0.051735986 -0.11918431 -0.12386044 0.052550945 0.11172608
0.084455654 -0.08938528 0.015667843 -0.008216061 0.012913449 -0.05463937 -0.084940046 -0.021989806
0.056320563 -0.10717261 -0.10773177 0.13113518 0.13419902 -0.10316581 -0.03674811 0.093508475
0.12881145 0.118947946 0.00862562 0.16921113 -0.12636977 0.031025637 -0.048319027 -0.06697595
-0.026205475 -0.021609861 -0.1558603 0.11524255 -0.11619918 0.09110429 0.037873656 0.038618293
-0.10422937 0.0077300845 -0.036285926 -0.11743497 0.03534863 -0.1044148 -0.006090685 -0.019362627
-0.014523144 -0.034735076 -0.015333869 0.035678886 0.05074657 0.04591759 -0.035206355 0.0047983727
0.030357158 -0.030949418 -0.036248583 0.0018184674 -0.06807231 0.006552348 0.007110955 -0.021542277
0.09379044 0.067132615 0.040749874 0.052265383 -0.015021229 0.0032264676 0.0071439566 -0.00079912535
0.057617504 -0.05755838 0.037753236 0.062103137 -0.047057953 -0.04657985 -0.07440711 0.10505157
-0.062443446 -0.09773769 0.07973578 -0.014525015 0.046606813 0.0048702215 0.02636232 -0.06113054
0.035624024 0.07390099 -0.060435303 -0.015934467 -0.019967569 0.017028999 0.11503882 -0.072382934
0.04700972 0.046251632 0.105937846 -0.037560787 0.050274942 0.032732893 0.023223503 -0.061748266
-0.030063098 -0.13296352 0.030831935 0.04158235 -0.022988379 0.13112587 0.0149827115 0.12890348
-0.03720292 0.0037383037 -0.052847415 -0.08930484 0.0177794 -0.06191563 0.027803684 -0.020654824
0.0416845 -0.13087572 0.06464695 -0.017031785 0.035863172 0.0149293775 -0.046184376 -0.091011666
0.050137598 -0.011230852 -0.041959602 0.001969839 -0.020639895 0.007202611 -0.06036052 0.06964047
-0.00028902225 0.029089509 0.13480109 -0.008275579 0.0459623 0.008521987 -0.04043091 -0.03939841
0.043306626 -0.057597954 0.009765235 0.16329047 -0.04425538 -0.13339826 0.014814777 0.10509657
0.02770771 0.013844746 0.0046202918 0.045744497 0.009291899 0.070765555 0.031589065 0.019824106
0.12887257 0.11315226 0.04953368 -0.06575853 -0.019936921 0.07881432 -0.16827494 0.04973946
0.11208314 0.01639709 0.11633437 0.0819038 -0.03191005 -0.01166905 -0.029308401 -0.016206617
0.043106154 0.16641341 0.07232253 -0.013747387 -0.02536267 0.06714192 -0.06491773 -0.022682711
0.10701382 -0.16135676 -0.046392772 0.026237177 -0.13357665 0.105418175 -0.0016582315 0.17772715
-0.021529766 0.031413514 -0.14094412 0.013168175 0.03519391 0.13636063 -0.06969723 0.050649676
