transformer_results_random_no_constants_no_param_tune/performance_prediction/PSO1-PSO2-PSO3-PSO4-PSO5-PSO6-PSO7-PSO8-PSO9-PSO10-PSO11-PSO12_random_no_constants_dim_10_samples_50_fold_2_budget_50_n_heads_2_n_layers_1_d_model_100_d_k_30_d_v_30_aggregations_mean/trained_model.pt (torch, 346553 bytes, 22 tensors)

weight f4 [100, 11]
00000000: 7b61 ba3d 0c37 81be 571c b93d 3b1e cf3d
00000010: 8281 63be 63a8 a8bd c88b 2cbd d2ea 893c
00000020: a05c 303c 50db 12bc 7b70 a1be 725f 85be
00000030: 1416 043e 82e5 753d 5290 64be 9b81 1a3e
00000040: 8875 5d3d 99c4 42be fd52 84bd 0510 9fbd
00000050: 830a 033e ecc3 a53e 44d4 1ebe b082 5fbe
00000060: 1a9a 6f3e 4ac7 5dbe 1014 513e 7ea5 4abe
00000070: a66c 5f3e 0f27 2fbd c0d6 e8bc b991 e93d
00000080: ee1c 0e3f 1cad 073d 7858 153e 0ce7 e43c
00000090: 1330 533e 954a 3a3c 5dd8 683e 88fd 7ebe
000000a0: 5be5 113e 64da 02be a319 d63d baca 343e
000000b0: 7c1f 343c 1ccf f03d 1321 39be e6c4 5e3e
000000c0: dca5 c53d 66e8 063e 3007 713e 9503 c73d
000000d0: 943b 753e 9f2e 823e 220c a3bd f4c7 6e3d
000000e0: dc39 853e 5cd8 14bd 226c 29be 7b7d a3bd
000000f0: fc14 c0bc f021 6fbe 123f 85be 72ea d3bd
00000100: 246c 2abe 708f e63e 8d1b 41be 4d30 31bc
00000110: 67ba 90be 7b70 79bc c127 41be 844c 413e
00000120: 6d3f 05be 72cb ba3d 430c 553e a2fc 5c3e
00000130: 71de aabe 5fe5 6abc 6983 cdbd d016 7abe
00000140: f960 e53d 646b 003e 9ccd 90be 29c6 533d
00000150: afb3 fb3d 3ca8 0ebe 458e 8b3e 32d3 38be
00000160: 9d71 c3bd 8b8b fa3d 3fd8 433e 3be8 903e
00000170: 024e f93d e5f4 f13d 25ee 17be bdb6 36be
00000180: f99e 70be bc2c 003e 7057 e2bc 99a7 103e
00000190: 5d9b 2a3e b985 32bd 7b04 77bd 40d4 713e
000001a0: 6255 ecbc 27d9 f3bd d03f 07bc 089f 11be
000001b0: 66ea 3f3c 60a3 41be ca08 bebc 4a6c d8bd
000001c0: da89 09bd f25a aebd 6c06 c53d df7c 81be
000001d0: c6a4 7e3e 0db9 25be eca4 8d3e 7479 a73d
000001e0: 7f7a efbe fb44 803e a842 39be 78dc 403b
000001f0: 7df0 8cbe 6808 673e 4864 4dbe 7cb5 24bb
00000200: 328b acbd b7d5 fbbd b138 1dbe d1f3 90be
00000210: 9bc7 52bd 1380 7b3e 8bca 4fbe ee51 63be
00000220: 1352 523e 79b6 673e 5680 61be 0037 3abe
00000230: 8aed fbbd bd38 443e acc8 fd3e 96f1 65be
00000240: 4d8a 843e b8b2 cf3d e854 88be 95af d33d
00000250: bbeb 95bd 38d8 f93d b542 8cbe 715c f7bd
00000260: 3f0f 923e 59e0 b5be f270 00be a225 3fbb
00000270: 697d 64be e8a8 3cbe 15f8 573e b9c0 523e
00000280: 3125 24be a7fd 7c3e 0bfb 7bbe 8a65 0d3d
00000290: b78d c6be 4c05 503e d567 833e a729 e73d
000002a0: 2ad6 303e 2ec4 ccbd 5fac edbd d950 183e
000002b0: 86cb 91be 7960 a43d 2c65 843d fd0f 24be
000002c0: c8c3 37be b770 a839 221e 5c3e 4feb 7f3d
000002d0: 83c9 5d3e 5df5 7abe b6a8 e239 c7be 803e
000002e0: a50c 263e 03c8 b4bd 12a2 f1be f300 1b3d
000002f0: dc4e 88be 8ae4 f8bd b79e 5c3e 9cc1 933d
00000300: 18e2 073e ccea 0fbe 1b3f 2dbd 8a39 8fbe
00000310: f6ac 40be 85ca ac3e 06c0 4f3e 948a 7fbe
00000320: dbc4 69be fb33 babd 5e7a afbd 618c 1e3e
00000330: a225 5c3d edf3 633d 0835 9ebd 4af9 333d
00000340: 72da f13d b02e f2bd 6dbd fcbc c932 0ebe
00000350: 4800 3a3d 5c5c 3ebb 9d61 7b3e a9cb 38be
00000360: 6985 f4bc 1d1f 5a3d 753a 853e 8841 9dbe
00000370: 3b78 6f3b 5e9f c93b 7a08 7cbe 693a 093e
00000380: 9396 b5bd a6cf 873d 187d 30be dd0e 29bd
00000390: d7e8 d7bd 1a52 283e 5638 f3be 45d5 febd
000003a0: d42e 53be c3f9 1c3e 22e0 583e 0359 81be
000003b0: 7003 47bc 28bf 95be 94cc 83be a921 653e
000003c0: 65ca f73d 7176 053c 4431 f13d db47 d63c
000003d0: 7c72 66be 469d d83a 710b e23d ddf6 29be
000003e0: 79ec 5cbe 852d 81be 5b01 8d3d ceca 233e
000003f0: 7cdd 01bf fbf3 7d3e e7b1 e8bd 66f2 79be
0.09100624 -0.2523731 0.090386085 0.10113188 -0.22217372 -0.08235242 -0.042125493 0.016835604
0.010764271 -0.008963421 -0.31531128 -0.26049381 0.12899047 0.06003333 -0.22320679 0.15088503
0.054067165 -0.19020309 -0.06461141 -0.07766727 0.12796979 0.3237604 -0.1551066 -0.21827197
0.23398629 -0.21658054 0.2041781 -0.19789693 0.2181879 -0.04276186 -0.028422713 0.114047475
0.55512893 0.033124074 0.1458453 0.027942203 0.20623808 0.011370321 0.22738786 -0.24901402
0.14247648 -0.12778622 0.104541086 0.17655459 0.010993835 0.11758253 -0.18079023 0.21754798
0.09650776 0.1317459 0.23537898 0.0971748 0.23948509 0.25426194 -0.079612985 0.05829616
0.26020706 -0.03633915 -0.16545156 -0.07982918 -0.023447506 -0.2335279 -0.2602468 -0.10347451
-0.16642815 0.4503131 -0.18858166 -0.010814738 -0.28267214 -0.015224571 -0.18862821 0.18876845
-0.13012476 0.09120835 0.20805459 0.21580747 -0.33372834 -0.014336913 -0.1003483 -0.24422765
0.11200137 0.12540966 -0.28281868 0.051702652 0.12290131 -0.13931364 0.2725698 -0.18049315
-0.095431544 0.12233647 0.1912546 0.28302178 0.12173082 0.11814288 -0.14836939 -0.17843147
-0.23498143 0.12517065 -0.027629584 0.14126433 0.16660829 -0.04358456 -0.060307007 0.23616123
-0.028849307 -0.11906653 -0.00825496 -0.14220822 0.0117136 -0.18909979 -0.02319755 -0.105675295
-0.03357873 -0.0851344 0.096203655 -0.25290582 0.24867544 -0.16183873 0.27664888 0.08177462
-0.46773145 0.25052628 -0.18091834 0.0029428285 -0.27527228 0.225618 -0.20057786 -0.0025132587
-0.08424987 -0.12296622 -0.15353657 -0.28311017 -0.05145989 0.24560575 -0.20292108 -0.22199222
0.20539121 0.22628202 -0.22021613 -0.18185043 -0.12301166 0.19162269 0.49567163 -0.22455439
0.25886765 0.1014151 -0.26627278 0.10336224 -0.07320353 0.121994436 -0.27394643 -0.12078179
0.28527257 -0.35522726 -0.12543085 -0.0029166718 -0.22313465 -0.18423808 0.2109073 0.2058133
-0.16029812 0.24706136 -0.24607484 0.034520663 -0.38779995 0.2031452 0.25665155 0.112872414
0.17269197 -0.09998356 -0.11605143 0.14874591 -0.2847559 0.08026213 0.064646095 -0.16021724
-0.17945778 0.00032127436 0.2149587 0.062480267 0.21658902 -0.24507661 0.0004323178 0.25145552
0.16215761 -0.08827212 -0.47193962 0.037842702 -0.26622665 -0.12152965 0.2154492 0.072146624
0.13269842 -0.14054412 -0.04229651 -0.27973586 -0.1881598 0.3374826 0.20288095 -0.24955207
-0.22829 -0.09091946 -0.085682616 0.15483238 0.053746827 0.055652548 -0.07724959 0.043938912
0.11809243 -0.11825311 -0.030852044 -0.1388656 0.045410424 -0.002904675 0.24548955 -0.1804644
-0.029848771 0.05325233 0.26021162 -0.3071406 0.0036540169 0.0061530313 -0.24612609 0.13401188
-0.088666104 0.06631403 -0.1723522 -0.04127394 -0.105424576 0.1643757 -0.47503918 -0.12443022
-0.20623332 0.15329652 0.2117925 -0.25263223 -0.012146816 -0.29247403 -0.25742018 0.22376122
0.120991506 0.008145914 0.11776975 0.02615731 -0.2250461 0.0016526363 0.110373385 -0.16598077
-0.21574582 -0.2523004 0.06885024 0.15995333 -0.50728583 0.24800102 -0.11362057 -0.24408874

bias f4 [100]
00000000: dd7c 88be 3912 36be 3799 50be bad5 97be
00000010: 8f90 493e ae76 7c3e e8dd 8e3e 1bd9 14be
00000020: 5076 363e 10a6 393e 081c fe3d bee0 593d
00000030: bd9e 34be c865 b83c 2f82 543e f567 19be
00000040: ac7b 9dbe 24a1 e13d 4cab b03e 9776 0b3d
00000050: a456 633e 3cbd 75be 22d4 a4be 3fcb a9be
00000060: 2825 70be 0629 233e 1162 853d 2240 bd3d
00000070: 37a5 723c 1847 ce3d d036 05bd a918 ac3d
00000080: 3d4e 62be 9e65 3dbe 4a19 2d3b ea63 c03c
00000090: 00e0 4abe d079 85be 8ad7 c63d d80d b8be
000000a0: e12e b13d 8c97 25be 5896 1b3e 73e8 9dbe
000000b0: 9b6c 8abe 6e61 83be 7c3b 613e 52c8 7b3e
000000c0: 69f2 723e 71ba 8ebe 595e 943e 2ca8 09be
000000d0: be0a 87be 0f50 65be e614 83be dd7e 223e
000000e0: 931b 443e 2384 ad3c 7124 923d 415c 54bd
000000f0: 977a 8fbe 060f 633e 2655 f6bd f732 803e
00000100: b929 07be 931a e63d 7f97 4dbe feb3 02be
00000110: 26aa 3fbe 0609 61be e806 72be 1780 bebb
00000120: 01d4 b93d 850c 80bd 9192 a8be d90a 3f3e
00000130: 8e0f 98bd f676 833d 1076 83be afb2 34be
00000140: 6695 aabe ef4c 923e 0d34 343e 738b 39bd
00000150: d333 90be b222 0fbe c437 363e d118 963e
00000160: 25c2 833d b378 afbe e06f 123e a3f7 8d3e
00000170: 1613 a5be 5845 3dbe b6af 403e 650a bb3d
00000180: 8f03 9abe 1d87 6a3d 2e5d f23d 1227 fabd
-0.26657763 -0.17780389 -0.20370947 -0.29655248 0.19684051 0.24654648 0.27903676 -0.14535944
0.1781857 0.18129754 0.1240769 0.053192846 -0.17638679 0.02250947 0.20752786 -0.14981063
-0.30758417 0.11017063 0.3450569 0.034048643 0.2220102 -0.23997968 -0.32193094 -0.33162877
-0.23451674 0.15933618 0.06512845 0.09240748 0.014809898 0.10072154 -0.032522976 0.08403141
-0.22100158 -0.18495795 0.0026412779 0.023485143 -0.19812012 -0.26069498 0.097090796 -0.35948062
0.086515196 -0.16171092 0.1519407 -0.30841407 -0.27035984 -0.2566027 0.21995348 0.24588135
0.23725285 -0.27876619 0.28978232 -0.13443059 -0.26375383 -0.22393821 -0.25601882 0.15868707
0.19151144 0.021181172 0.07135857 -0.051845793 -0.28023216 0.221737 -0.120279595 0.25038883
-0.1319951 0.112355374 -0.20077322 -0.12763974 -0.1871725 -0.21976098 -0.23635447 -0.0058136093
0.0907364 -0.06252388 -0.3292432 0.18656482 -0.07424842 0.064191744 -0.25676012 -0.17646287
-0.33317107 0.2857432 0.17597981 -0.045299005 -0.2816454 -0.13978079 0.1779471 0.29315808
0.064335145 -0.34271774 0.1430049 0.27727994 -0.32241124 -0.18483484 0.18817028 0.09132842
-0.3008084 0.05725776 0.11834179 -0.12214483

weight f4 [60, 100]
00000000: 0b68 babd f915 4dbd 4888 2fbd f30d 80bb
00000010: d8d3 283d c528 4ebd 454c bcbd 5d80 aebd
00000020: 141e f7bc 4d70 103d 3b3d 3f3d 8dfa 31bd
00000030: 732e 8a3d 73d4 7f3c ab9a ba3b 1de6 cd3c
00000040: 2507 373d e0bd f83d aa80 f23d 64b6 24bb
00000050: f9bc 3fbd 8a31 c6bc 8c7e c7bd 4e75 06bb
00000060: fc44 cbbd e61d 4ebb 9450 0cbc 7b2e f5bb
00000070: 4ff1 223d e5b6 75bb 8aa6 f93d 767f 80bd
00000080: 7eab 9fbd 7367 ed3d d268 02bd 5f76 203c
00000090: 6299 e2bd 188e 1fbd 9343 a4bc 2697 c83d
000000a0: a338 7a3c c037 433c 08cb 06be db04 643c
000000b0: eb73 17bc 6f67 7dbd f87b 2d3d aeb8 af3d
000000c0: 483f 763c bdb6 883c c7bf 583d 3a49 15be
000000d0: 29a7 98bd 2efa 2ebe be1b 5d3d 5560 443d
000000e0: 3020 e2bc 556a cd3c 7251 793b c8a0 90bd
000000f0: 2303 e9bd c81b 18bd 1487 1b3d fb63 df3d
00000100: cd22 933d 8f6f b93d 0a4a bcbd 5a6a 05be
00000110: 22ec 303d 9799 6bbc 6869 3abd 936f c3bc
00000120: 759f b7bd eaea 103e 8335 b63d a226 6abd
00000130: 195e a9bb 0dc9 acbb d2cd b43d e88c 573d
00000140: 48ea c5bd 94d3 e63d 3fef a33d 862c d9bd
00000150: 3572 0b39 dedb b1bb 1967 91bd b8c1 543c
00000160: a9bf 94bd 1079 5dbd 8e66 f73d 4905 b93b
00000170: 1416 33bd 44e7 6cbc 0dcd 9bbc f030 b63d
00000180: bca2 e3bd 05d8 8c3d c077 a2bd 3724 84bb
00000190: f8c4 93bd ace2 c33d 2abf c5bb f910 843c
000001a0: c49a 663d f06f aabd b1f1 f9bd 8dea 23ba
000001b0: d565 42bd e3a2 343d cc57 b4bc 2065 03bc
000001c0: b814 5bbb 5ab1 cf3b 52e1 003a 9189 963c
000001d0: 8fcc a53b 4d47 a0bc ce67 35bd 95a1 74bc
000001e0: 4b52 86bd 3138 993d 1754 dabd e0ba a9bd
000001f0: 2d9b 4ebd 7bd8 da3b 5b43 20bc bdef 93bd
00000200: 5efa 883b daa9 d6ba 1478 703d 1e25 a43d
00000210: 52f3 0b3d eefd 773d f1c1 7ebd fee7 cb3d
00000220: ab55 70bd c7e1 1ebd 405d 86bb 0d08 6c3d
00000230: aff3 4abd 08f7 f63c 2d37 3cbd 4449 ce3c
00000240: ac67 47bd 508d 5e3d f945 893d 1bf2 9f3d
00000250: 3e5e a7bd 35c5 bd3d fd9b 72bd 3c2d 28bd
00000260: 5068 9e3d 7b99 d2bc 79aa 6cbd 7fab e4bc
00000270: dbc2 a03d 5af4 82bd f27b dabd 0491 b9bd
00000280: 3a04 503b 887b 123d 82e0 84bd 75e6 b3bd
00000290: f00c f83c d158 2f3d 0acb d2bc db65 a53d
000002a0: e62c 5d3d 1e4b 693c 5433 873d 0300 a63d
000002b0: a859 5bbc d1e6 6f3d c87b 2fbd 4d3a 633c
000002c0: c4d9 1cbd ba5d 84bc 2199 1b3d 0405 01bd
000002d0: 4733 063c c072 d03c 7abc 4c3d 693a 893d
000002e0: 5e77 753d 7f0e b63d d357 e8bd eb99 b13d
000002f0: 0088 a3bd 65bc 23bd 0661 21bb bd5a 79bd
00000300: 7027 8c3d 2bd9 f3bc c5b6 953b af30 1a3c
00000310: 9f69 893c 33a2 56bd a390 8b3d b54c 923a
00000320: 63c9 5d3d c11f 02bd f53b 15be 81d5 c3bd
00000330: 339b db3d 3a1e 07bd 1541 c53d 841d 343c
00000340: 00ea 8dbd 475a 1cbd 449d 143e 9a44 1b3d
00000350: 71fb 83bd 3080 df3d 7ee5 2abd 7d9b 8bbd
00000360: db92 f9bb 4668 1d3d 3f7f 5ebc c082 cc3d
00000370: d71b 07bd a0d2 4bbc 6379 d23d 64c9 7bbd
00000380: 9bf7 f6bd 0b81 d0bd 61f3 ce3d 14ae 88bd
00000390: 2807 013d e594 f5bd 3d90 d3bd f05e 0abd
000003a0: e92c 4cbd 384e 2fbd dd88 90bc 6987 bebd
000003b0: 4507 26bd 7629 99bd 415a d33c b2de 4cbd
000003c0: 8138 9c3c a28d aebd e542 da3d 1294 01bd
000003d0: c4bd 363d a92d edbd b384 ad3c edeb cdbd
000003e0: 1fca 0e3e ff80 acbc 455a 9abc 251d dd3d
000003f0: f052 173d d01d 593d 578b 7fbc efe1 a03d
-0.09101876 -0.050069783 -0.042854577 -0.003907913 0.041217655 -0.05033185 -0.09194235 -0.08520577
-0.03016571 0.03526335 0.046689253 -0.043451834 0.06747141 0.015614617 0.0056947074 0.02513414
0.044684548 0.12145591 0.11840947 -0.0025133127 -0.046811078 -0.024193544 -0.09740934 -0.0020516696
-0.09925267 -0.0031450926 -0.008564133 -0.0074823475 0.03978091 -0.0037493047 0.12189968 -0.06274311
-0.077963814 0.11591997 -0.031838246 0.009793847 -0.11064412 -0.03895387 -0.020051753 0.09794454
0.015272292 0.011915147 -0.13163388 0.013917173 -0.009243946 -0.06186622 0.042354554 0.08580147
0.015029736 0.016688699 0.052917268 -0.14578715 -0.07453758 -0.17087623 0.053981535 0.047943432
-0.027603239 0.025075117 0.003804293 -0.070619166 -0.113775514 -0.03713587 0.037970617 0.10907742
0.07184372 0.09054481 -0.09193809 -0.13028851 0.043193944 -0.01437988 -0.04551068 -0.023856914
-0.08965961 0.14152113 0.08896925 -0.05716575 -0.005168688 -0.0052729906 0.088283196 0.052624613
-0.09663826 0.11270824 0.08004617 -0.10604195 0.00013298618 -0.0054278215 -0.070997424 0.012985639
-0.07263119 -0.054070532 0.12080108 0.005646382 -0.043722227 -0.014459435 -0.019018674 0.08896053
-0.111150235 0.0687714 -0.07932997 -0.0040326375 -0.07215303 0.095647186 -0.0060347514 0.016121374
0.05629994 -0.08322132 -0.12204302 -0.00062529073 -0.047460396 0.044100653 -0.022014521 -0.008019716
-0.0033429097 0.0063382806 0.0004916388 0.018376144 0.0050597857 -0.019565249 -0.04428845 -0.014931102
-0.06558665 0.07481421 -0.1066057 -0.08287597 -0.050440956 0.0066786385 -0.009781684 -0.07223461
0.0041802367 -0.0016377524 0.058708265 0.08014892 0.034167595 0.0605449 -0.062196676 0.099563584
-0.05867545 -0.038789537 -0.0041004717 0.057624865 -0.0495488 0.03014709 -0.045951057 0.02518142
-0.048682854 0.054333985 0.06702799 0.0780985 -0.08172272 0.0926613 -0.059230793 -0.041058764
0.0773474 -0.02570795 -0.057779763 -0.027913807 0.07849666 -0.063942626 -0.10668172 -0.09060863
0.00317408 0.03576234 -0.06488134 -0.087841906 0.030279607 0.04280931 -0.025731582 0.08076068
0.053997897 0.014239101 0.06601587 0.08105471 -0.013388075 0.058569733 -0.042842656 0.01386888
-0.038293615 -0.016157974 0.037987832 -0.031498924 0.008190936 0.025445342 0.049984433 0.06700594
0.05992829 0.08889484 -0.11344876 0.08671936 -0.07984924 -0.03997459 -0.002462448 -0.06087755
0.068434596 -0.02976664 0.004568907 0.009411021 0.016773997 -0.05240078 0.06814697 0.0011161776
0.054147135 -0.031768564 -0.14573653 -0.09562207 0.10722961 -0.03298781 0.09631554 0.010993365
-0.069293976 -0.038172033 0.14513117 0.03790722 -0.06444443 0.10913122 -0.041722767 -0.068167664
-0.0076163835 0.03842952 -0.0135801425 0.09985876 -0.032985535 -0.012440354 0.10277059 -0.061471358
-0.12058946 -0.10180863 0.101050146 -0.06673828 0.031500965 -0.1199129 -0.10330246 -0.033781946
-0.049847517 -0.042799205 -0.017643386 -0.09303171 -0.040534277 -0.07478611 0.025799872 -0.050017066
0.019069912 -0.08523108 0.1065729 -0.03163535 0.04461457 -0.115809746 0.02118144 -0.10054765
0.1394429 -0.021057604 -0.018841872 0.107965745 0.03694433 0.053006947 -0.015597186 0.078555934

weight f4 [60, 100]
00000000: 12d7 303d 1330 a0bd eb82 1f3d d3c0 b0bd
00000010: b3a3 463c 7edb 1fbe 16ff 11bd 6f7b 7c3d
00000020: f0c9 b43d 9a3c 94bd a4ec ed3c ab7a c83a
00000030: 73b4 e4bc 253d 143e 3bc4 183e b864 d3bd
00000040: 6ae8 313e cd39 30bd 5f9c 823b 5062 a5bd
00000050: 264d 2f3c e8a0 f9bd 76f6 b7bd 6770 2abd
00000060: 02d3 3d3b 4f50 85bb d06d e6ba 776f 133c
00000070: 017e dbbd 57c4 c1bd 5c19 943d b481 f1ba
00000080: 9e66 713c 0b29 85bc a7c4 76bd 7704 13bd
00000090: 1d87 553c 6de2 cebc 8da0 a7bd 4030 7cbd
000000a0: 241b d23d 1c5b 92bd 6862 53bd 3b4e f3bc
000000b0: 8ae2 003d abe8 06be 2380 8b3d d8ae d9bc
000000c0: 7954 c83c 9339 8dbd c35d 363d cd37 f93b
000000d0: 0670 933d 0732 1ebd b126 78bd 29c5 03be
000000e0: 460c c3bc 5a9a b83d 7706 373e 6cef fe3d
000000f0: 65b4 b0bc e408 3bbc 45b7 653d bfef fc3c
00000100: 9d11 11bd 9bbe fbbd dfb6 a93c 1bfd cebd
00000110: 6077 a33b e539 863d deed 283c c6a0 6c3d
00000120: ff71 b33d 0247 723d 6b5b f33c 048d afbd
00000130: 6a6b f43d 3b70 23bc e813 e8bd 6c6a 633d
00000140: ca46 d3bc a9a0 04bd 2cfc ef3c df3a 3e3d
00000150: 1fa0 f53c 47c4 b2bc 3b43 973d 0eb3 a83d
00000160: ac37 853d 9552 383d 20ef 8f3c e015 c2bc
00000170: 2644 a239 9edb 8e3d e3d2 8cbd 8108 65bd
00000180: 4241 e13b 2a3e 29be bbe3 a7bc 7369 d33c
00000190: 65eb a7bd 0f48 f03c 84a5 b33c 11ef 9dbd
000001a0: 3a94 903d e842 1c3d 4471 85bb 23a6 d3bc
000001b0: 7825 1b3c bbbb 1f3a bc9a 96bd 5858 8f3b
000001c0: 83f3 ecbd 804e 69bd ff6a 0cbc 785c 0d3d
000001d0: 1c26 223d 0758 263d cbfd 9a3d f93f a5bd
000001e0: 0851 a1bd 0fa1 8dbb 8aa7 8b3d ecb9 20bd
000001f0: ff6c 96bd a613 e2bc 5b98 1cbb f29e abbd
00000200: 4881 a03d 3357 afbd 2e14 6bbd 5747 2cbc
00000210: 0e34 81bb c092 c33b 76ae 1f3d 1c71 74bd
00000220: 7b79 7a3d f7b6 3bbd 2e62 e33c 8edb 9eba
00000230: 6460 c73c ddd1 8f3b 3d0a a23d 3a40 83bc
00000240: 4ecc 83bd f2b2 223d b195 c7bd dfd3 923d
00000250: 95f8 a13d 1efc b1bd 238c 8d3d 810d 8cba
00000260: 8d37 21bd d7d3 a4bd df24 28bd 99fb f1bd
00000270: 7107 9cbd 7cdc b2bb 609a 04bd b1f1 dfbc
00000280: 0183 1d3d 63fe ed3d cee6 b4bc 51da 1a3d
00000290: cfd0 283c 26ee e83c 15b1 60bd 00cd 85bd
000002a0: 3208 b63a 6bd9 47bd ef4b 8c3a 79d9 913d
000002b0: c39b 2e3d 7ed9 d6bc 9ab7 dabc b0b6 a33d
000002c0: e5a6 41bd 4ed3 83bd 81fe a8bd e815 f1bb
000002d0: fe70 573d e095 1fbd 65f3 223d 516f 9dbc
000002e0: d133 74bc da63 6f3d 9680 163d 34a6 433d
000002f0: f2cb dc3d 89ec bdbd e463 9b3d d643 e8bd
00000300: ded3 29bd 8ab6 bb3d 5bb6 e93b 2f07 0ebd
00000310: 7769 f93d afe7 0ebc dc46 693d b7f9 afbd
00000320: 98a5 f83b 8708 893d ce90 93bc f34f da3d
00000330: fd31 443d b3e2 b0bd 9ad2 3f3c 5a90 963b
00000340: 5c15 443d 0e50 0a3d 8a09 e6bd d5a3 b8bd
00000350: 85bc a1bd 7481 fa3d e48f e5bd b1b4 193d
00000360: 532c 833d 66ac 643c 9801 9abd eacd 033e
00000370: 7925 d6bc 56dc 9f3d 5194 433d 0889 b8bd
00000380: dbd8 233d 10da abba 919e 153d d84e 1e3e
00000390: d4e9 943c 3f03 0dbe 43ef f33c 024c 71ba
000003a0: b55f d23c 854a 9fbd 5157 e33d 2656 a33a
000003b0: e32d 62bd a392 c63d 5f87 b7bd f074 963b
000003c0: dacb 1abd 0d7a 20bb 7460 a1bc 215a e0bb
000003d0: d6e6 f5bd cac0 c33d 0274 eebc c35f cebc
000003e0: fe34 103d 82cc 01bd 575d ee3d dad2 eb3d
000003f0: 5bc2 d73d 2b04 933d 3014 c7bc f5e2 303d
0.043173857 -0.078216694 0.038943212 -0.08630528 0.01212399 -0.15611073 -0.03564366 0.061641153
0.08827579 -0.07238121 0.029043503 0.0015295347 -0.027918076 0.1447645 0.14918606 -0.10321945
0.17373815 -0.043023873 0.003985926 -0.08075392 0.010699546 -0.121888936 -0.089825556 -0.0416111
0.0028964882 -0.0040684114 -0.0017580334 0.008998743 -0.10717393 -0.09461277 0.072313994 -0.0018425495
0.0147339385 -0.016254922 -0.060246136 -0.03589293 0.013032702 -0.025254453 -0.081849195 -0.061569452
0.10259083 -0.07146284 -0.05160752 -0.02970039 0.031466044 -0.13174693 0.068115495 -0.02657263
0.024454342 -0.06895747 0.044523012 0.007605529 0.07199101 -0.03862193 -0.060583774 -0.1286818
-0.023809563 0.09013815 0.1787356 0.1244801 -0.021570394 -0.011415694 0.056082983 0.030876039
-0.035417188 -0.122922145 0.020717083 -0.1010687 0.004988596 0.06554011 0.010310618 0.057770513
0.087619774 0.05914975 0.029706677 -0.085718185 0.1193455 -0.009975488 -0.11331922 0.055521414
-0.02579059 -0.03237978 0.02929505 0.046442863 0.029983578 -0.021822108 0.0738587 0.08237277
0.06504759 0.04500063 0.017570078 -0.023692071 0.00030949822 0.069754824 -0.06876161 -0.055916313
0.0068742344 -0.1652762 -0.020494333 0.025807118 -0.08199195 0.029331235 0.02192951 -0.07711614
0.07059522 0.038149744 -0.00407234 -0.025836056 0.009469382 0.00060933427 -0.07353732 0.004374545
-0.11569884 -0.05695963 -0.008570432 0.034512013 0.039587125 0.040611293 0.075679384 -0.080688424
-0.078767836 -0.004322178 0.06819065 -0.03923981 -0.07345008 -0.02759726 -0.0023894522 -0.08379926
0.078371584 -0.08561554 -0.05739229 -0.010515056 -0.003942973 0.0059684217 0.03898474 -0.059678182
0.06115101 -0.045828786 0.027756777 -0.0012119876 0.024337955 0.0043890313 0.07912109 -0.016021837
-0.064354524 0.039721437 -0.09745348 0.071693175 0.079087414 -0.08690666 0.069114946 -0.0010685177
-0.039359618 -0.08048218 -0.041050788 -0.118155666 -0.07618607 -0.0054584127 -0.032373786 -0.027336927
0.038455013 0.11620786 -0.022082713 0.03780586 0.01030369 0.02843387 -0.05485638 -0.06533241
0.001388794 -0.04879133 0.0010703782 0.07121558 0.042629015 -0.026226755 -0.026698876 0.07993829
-0.047278304 -0.064367875 -0.08251668 -0.0073573478 0.052597992 -0.03896129 0.0397829 -0.019218119
-0.014904932 0.058444835 0.036743723 0.047765926 0.10781087 -0.09273631 0.07587412 -0.11341064
-0.041461818 0.09165676 0.007132334 -0.03467482 0.12178319 -0.00872223 0.056952342 -0.08592551
0.0075880997 0.066910796 -0.018013384 0.1065978 0.047899235 -0.086369894 0.011707926 0.0045948448
0.047871932 0.033767752 -0.11232288 -0.090156235 -0.07897285 0.122317225 -0.112090856 0.037525836
0.064049385 0.013957119 -0.07519835 0.12871519 -0.026140915 0.078056976 0.047748867 -0.09010512
0.04000173 -0.0013111252 0.036528174 0.15459764 0.018177904 -0.1377077 0.029777175 -0.00092047465
0.025680402 -0.07777885 0.11100639 0.0012461587 -0.055219542 0.096959375 -0.08961367 0.0045915768
-0.037792064 -0.002448681 -0.019699313 -0.0068466817 -0.12006919 0.09558256 -0.029108051 -0.025192147
0.035206787 -0.031689174 0.11638897 0.11514826 0.10535117 0.07178529 -0.024301618 0.043185193

weight f4 [60, 100]
00000000: cdd8 01be 563d f93d beaf 7cbc 377c 2c3d
00000010: 48c3 24bd ea31 2c3d 108d e13d 1e30 843d
00000020: 6ed0 37bd af3a 913d b4b5 31bd 6e1d 813d
00000030: c78a 463e 16b1 b33d 28e7 48bc 68f1 743b
00000040: 0419 0ebd 1fa5 98bd eec1 de3d ebf7 723d
00000050: 03e6 833c 688b 6f3d 89c7 0a3d 4fe2 8fbb
00000060: 9f1d ac3c 2cfc d83d f49a 4f3d 12eb 39bc
00000070: 28da 40bd a8c5 423c 4cea b53d 0a0c 443d
00000080: dd29 e6bd ed95 ea3c 301e 46bd 7463 9b3d
00000090: a8f0 893d d954 6c3d 0dab a63c 6e93 d13d
000000a0: a948 253c 15bf c53d 8f87 cb3d 1232 86bd
000000b0: 00ee debc c9ca 513d 53f9 87bd 9895 7abd
000000c0: 318c 8ebd afc4 4e3c b2ce b73d 7608 2f3d
000000d0: 5820 bbbd 6bfb 1d3d 27be 073d 6453 a1bd
000000e0: 556f b93c bce1 30be 2390 73bd 1ad9 bebd
000000f0: cd6f b03c f3c1 25bd 91cb e7bd e2e8 243d
00000100: 9baa e33d 8cc3 943d db65 b43d 12e6 b23c
00000110: de1e 0d3d 7cbe 83bb 6b26 2fbe 4ded 7e3c
00000120: 0cdd fd39 382e a5bd 54e7 153d 20ef fbbd
00000130: ba26 0d3d d771 bbbd 2060 8e3d b7f2 ccbc
00000140: 72ea debc 61f7 083d c6ea 80bd 8717 99bd
00000150: 600f f5bd 0b51 1d3d cecf bc3c d2e7 19bc
00000160: e5c7 d63c f7e6 fe3c 3298 853d f026 8b3c
00000170: dc5a a4bd 4257 543d 5388 483d 9ebc e53c
00000180: c740 cf3c 298e 513d b578 ac3d db8f 213b
00000190: 1ce2 b6bc 78e6 4f3d db85 a7bd 1a33 963c
000001a0: 8c62 9ebd ae31 e1bc 0d5f 0a3d 1db6 e5bd
000001b0: f3fe 26bd b52d 17be fdf8 2e3d f386 cabd
000001c0: 91e5 9ebd 59a4 a1bd 22e6 4bbd ca75 4f3d
000001d0: 20a5 8e3d cb0b c4bd c640 40bd f870 a03d
000001e0: d986 803d 1490 15bd c976 3fbd 6652 05bb
000001f0: fe3e 6dbd d3f4 903d 95aa 9cbd 65d3 82bd
00000200: fe67 62bb e04c cbbd e2e1 083d 4894 3d3c
00000210: c649 debb 3465 dd3c 4416 0e3d 91a5 493d
00000220: 7218 c9bc 2146 703c 106b 80bd 7a14 343d
00000230: 309e 26bd ee4d 06be 5036 913d 2bb3 8fbc
00000240: 6740 b7bd 493c 8d3d 37ae e43d caaa 84bd
00000250: fb26 bebd 436e 22bd e637 a0bc 475e 903d
00000260: 611b 813d 5732 053d 4fdc a0bd ed75 0b3e
00000270: 4c1c 3d3d 3497 0e3e 88a1 cc3d 0106 1a3d
00000280: b177 aa3c 1520 8dbd f868 033d ccf7 d9bd
00000290: 8154 d3bd 7ce3 973d 554c aebd 4350 24bc
000002a0: 368a 85bd af30 70bd 12ef 403a b0ff 46bd
000002b0: 7054 01bc 2e04 9b3d 85b4 40bc 7e35 a5bb
000002c0: b144 373b 46d1 1bbc 1cf3 8f3d 77f1 6fbd
000002d0: 8752 1cbe 0c52 d63d 8eab 64bb b3e9 af3c
000002e0: 1ce5 50bd 879d 653c b3c5 c8bd fe6e acbd
000002f0: f72e d9bc 98c1 263d aab7 783c ff4c d93c
00000300: 8fe2 83bd cd85 56b9 947e 91bd 8c8f 193d
00000310: 773f b93a 4437 27bd 40ef 5a3c 4ffa 993d
00000320: bddd d0bc 7fa3 b4bd 12df edbd 25d5 533d
00000330: a2bd e2bd 7e8d 36bc 7b99 f0bd 7319 bdbd
00000340: a68c c9b6 120e 59bd 0527 f0bd d75b cf3c
00000350: 00ea 83bd d7e7 aebd dbfc cf3d 80b1 49bd
00000360: aed9 91bd 1e3a 46bd 2e52 80bd d3ea 91bc
00000370: 460a 5ebd 758c d5bd 2313 ec3c 9f61 813d
00000380: ceae 4e3d 5d36 d0bc 8ace c43a 3f75 fb3d
00000390: 51b8 7b3d 8f31 613c ae1e 373d 1c59 80bd
000003a0: db28 a43d 0ca7 d0bd e893 683c e21e 6bbc
000003b0: 634a 9a3d 5f74 99bd 166c 1bbe 1b49 d8bd
000003c0: ce20 4e3e 4caf 313d 032d 94bc a3cc 3d3d
000003d0: 00fe 4a3d e450 f5bd b328 1ebe 5994 88bc
000003e0: a6f6 333e 970d 8bba de4c 04bd 4350 85bd
000003f0: 479a fe3c 6c9b 713d aeb1 13bc a736 97bd
-0.12680359 0.12169902 -0.01542276 0.042110648 -0.040225297 0.04203979 0.11013234 0.0645449
-0.04487651 0.07091271 -0.043386176 0.063044414 0.19388877 0.08774011 -0.012262143 0.0037375335
-0.034691826 -0.07453369 0.10876833 0.059318464 0.01610089 0.058482558 0.033881698 -0.0043909918
0.021010218 0.10594973 0.050684884 -0.011347549 -0.04708305 0.011887945 0.08882579 0.047863044
-0.112384535 0.028635943 -0.048368633 0.075873286 0.06735355 0.057698105 0.020345235 0.10233198
0.010088124 0.09655587 0.09937965 -0.06552519 -0.027213097 0.05121878 -0.06639352 -0.06117782
-0.06960333 0.012620135 0.08974971 0.04273268 -0.091370285 0.03856985 0.033140328 -0.078772336
0.022636095 -0.17273611 -0.05946363 -0.093187526 0.021537686 -0.040468168 -0.11318124 0.040261157
0.11116525 0.0726386 0.0880849 0.021838222 0.034453265 -0.0040205102 -0.17104499 0.015559507
0.00048420613 -0.08065456 0.036597565 -0.12301469 0.03446076 -0.091525726 0.06951928 -0.02501808
-0.027211402 0.033439044 -0.062947795 -0.074751906 -0.11965823 0.038407367 0.023048308 -0.009393649
0.026218364 0.031115992 0.065231696 0.01698634 -0.080251426 0.051841028 0.048958134 0.028044041
0.025299443 0.051160965 0.084214605 0.0024652395 -0.022324614 0.0507569 -0.08179828 0.018334914
-0.0773364 -0.02748951 0.033782054 -0.11216376 -0.040770482 -0.1476353 0.042717922 -0.09889021
-0.0775863 -0.07892675 -0.04978002 0.05064944 0.06965089 -0.09572562 -0.046936773 0.07834047
0.0627572 -0.036514357 -0.04674414 -0.0020343303 -0.057921402 0.070779465 -0.076497234 -0.063879766
-0.0034546847 -0.09926772 0.033418544 0.011570998 -0.006783697 0.027025796 0.034689203 0.049230162
-0.02454779 0.0146651575 -0.062704206 0.04396484 -0.040678203 -0.13115665 0.070904374 -0.017541489
-0.08947831 0.06896264 0.11166041 -0.06477888 -0.09284779 -0.039655935 -0.019557904 0.07049232
0.0630405 0.03251871 -0.078545205 0.13619204 0.046169564 0.13924867 0.09991747 0.037603382
0.020809026 -0.06890885 0.032082528 -0.10642967 -0.10318852 0.07416436 -0.08510653 -0.0100289015
-0.06520502 -0.05864018 0.0007359843 -0.048583686 -0.007893667 0.075691566 -0.011761789 -0.005041777
0.0027964527 -0.009510344 0.07028791 -0.05857989 -0.15265857 0.10464868 -0.0034892294 0.021473741
-0.050999746 0.014014608 -0.09803333 -0.084196076 -0.026511652 0.04071197 0.015180508 0.026525972
-0.06439697 -0.00020458475 -0.07104221 0.037490413 0.0014133294 -0.04082419 0.013362706 0.07518446
-0.025496358 -0.08820247 -0.11614813 0.051716942 -0.11071326 -0.011142133 -0.11748024 -0.0923337
-6.0066404e-06 -0.052991934 -0.117261924 0.025312347 -0.06441116 -0.08540314 0.1015565 -0.049241543
-0.07121597 -0.04839527 -0.062656745 -0.017812168 -0.054209016 -0.10427181 0.028817719 0.06317448
0.050459675 -0.025416547 0.0015015167 0.12278222 0.061455075 0.013744726 0.044706993 -0.06266996
0.08015605 -0.10188112 0.01419542 -0.014350625 0.075337194 -0.07492899 -0.1517795 -0.10560819
0.20129701 0.043380067 -0.01808787 0.046337735 0.04955864 -0.11978319 -0.15445213 -0.0166723
0.17574558 -0.0010608908 -0.03229987 -0.06509449 0.031079425 0.058986112 -0.00901453 -0.07383471

weight f4 [100, 60]
00000000: d549 c83d 1202 d73c 7e81 8a3d e7ed c2bd
00000010: 710d b7bd 4af6 67bd 7b69 b5bd 2682 f03d
00000020: 8409 51bd d0b1 ccbd f58d e1bd ce30 b33d
00000030: 4c84 753d 5e84 84bd b6f6 a73d b147 633d
00000040: 3020 6ebd d1d8 b5bd 5710 6c3c 41d2 173d
00000050: 0b8f 873d d62c 60bd 6089 6bbc 4a9b 29be
00000060: da05 c6bd 7bf2 edbc ece5 0c3e 1dd9 69bc
00000070: 0ee4 373d 46d8 00be f8da db3d 07cd c23d
00000080: 054e b23d 29e0 9dbd 4cf5 0d3d df76 35be
00000090: 1c65 7e3d 772b 593e b792 3f3e 6e17 6f3d
000000a0: 7ebc eabc f77d 84bc dc03 f9bc abd2 1dbe
000000b0: bace 1f3d e735 0fbd fcda 0f3e 5894 13be
000000c0: 6857 f23c 8496 bebd f079 3c3d 8500 ec3c
000000d0: f582 0bbe f4b2 9e3c d879 6a3d 8827 6a3d
000000e0: cac4 8dbd 269e 93bd d5c1 01be 64ff eabd
000000f0: 29e4 b23b dd75 86bc 3e98 cbbd cd81 a23d
00000100: afc8 3e3c cae9 aa3c 6e1a 9d3d aaba c13d
00000110: 23fb e13d 5c70 96bd c8f0 02bd 9fdf d3bd
00000120: a80d eebd 86f7 a03d c1b1 053e 838c 78bd
00000130: a261 c3bd 9222 b13d 9d19 2bbd 8859 b3bc
00000140: df4f 293d 2041 a03d 86fb b83d ffb4 363b
00000150: ce34 e83b 2dde b3bd eee3 0e3d 6387 923d
00000160: 0936 063e 10e0 d8bd 0ad0 2b3b e9ab b93d
00000170: d428 d03d b9a2 5e3d 5ef1 fdbd ca6a 0a3e
00000180: 5460 813d 8ce8 00be a89b 20bd 6f77 74bd
00000190: c1ec 82bd 6d30 4fbd 5e03 433d 5f7a ea3c
000001a0: a0fe 103d 5a9a 35bb 5967 d0bd f200 dabc
000001b0: 1562 bfbd a5ef 95bd 585d 37be f9d0 23bd
000001c0: 2f76 ba3d 10ec f63c e4cc c8bd 7750 973d
000001d0: 29c5 3cbd be11 10bd a82a 043e 8cab 7fbc
000001e0: 5860 16bd 5f7e adbd 360d 4d3e 0f66 6c3d
000001f0: d733 933d 0ea2 b8bd f002 9d3d 0dca 90bd
00000200: 0829 22bd cd87 cbbb f0ec 12be 007a 00be
00000210: 5002 073d cb15 c1bd a5c6 19be 9485 8a3d
00000220: 58e7 9a3d bf93 333d d7ba 4abe d447 a4bd
00000230: 2d4a 48bd 7037 89bd 2ba6 e0bd 6d87 9f3d
00000240: bb19 ab3c 1d4d 0bbd 6d1b c1bc 7033 e8ba
00000250: e9ea b93c 6dd2 b0bb c2df 03bd 42ed 043c
00000260: d6ed 5fbd bd05 42bd 3a89 fbbd b1ec 26bd
00000270: 55fd 31bc 2d65 a9bd 9924 2dbd 3eb9 1e3d
00000280: 9f44 353d 2328 f03d 26de 0cbd db6d c53d
00000290: 8461 313c 05ac 343d 5cd4 08bc 4161 053e
000002a0: 59e5 e8bd e61b 743d dee0 78bd 9c43 2abe
000002b0: 26ec 81bd 0d76 3bbe e93c c13d 1b46 8fbd
000002c0: 286c f13d ad37 373b 54d6 c53d b37f 113e
000002d0: 5685 97bd a29e 543d 7fad c43d a8a6 15bd
000002e0: c5d2 553d 8373 09be 299c fd3c b1fc fabc
000002f0: 53be 22bd dcef 473c 161a 1cbe 21e3 b2bc
00000300: 2c8a b4bc c8af 563d b843 883d 23f5 3fbd
00000310: aa79 813d c8de 863d 8164 fcbd 5f24 0a3e
00000320: 6511 c63d d625 bfbd a7f6 ebbd 7a2e aebd
00000330: 5307 0dbe 753d a33d f649 723d 3c1e 8ebd
00000340: 0e61 3fbd a29f 57bd ce51 72bd 68d9 f23d
00000350: 1f3a 92bd 233d 5dbd 5801 31bd aaec 12be
00000360: 8a53 1dbd f74d 2cbd 5c4f 97bd f48d fd3d
00000370: 0aa2 ec3c 16b9 fd3d 771d a43d 54f5 f3bb
00000380: 0e3a e1bd c12a 993d ca0e f23d ee11 b6bb
00000390: a2e4 9d3b 8f8c a1bd 1be4 6abc 7439 62bd
000003a0: 47d6 00be cbb2 ac3d 258b 1bbe f787 f93d
000003b0: 54e8 98bd 0cc6 3c3d be43 9abd 319c bfbc
000003c0: f6c2 c2bc 49df 903d b9b9 313c 2aa5 f83b
000003d0: 586f 39bd 5f48 8e3d 5684 9eba f949 d939
000003e0: b3c2 d3bd f597 2f3e 2c1c 7d3b 937d 49bd
000003f0: 0b04 e2bd e8bb ed3d 98d1 a7bd b20b debd
0.09779707 0.026246104 0.0676298 -0.095180325 -0.089381106 -0.056631364 -0.088580094 0.11743574
-0.051034465 -0.099948525 -0.11013404 0.08749543 0.05994062 -0.064705595 0.08201353 0.055488292
-0.058136165 -0.08879245 0.014408193 0.037065748 0.0661908 -0.05473026 -0.0143760145 -0.16563144
-0.09669085 -0.029046288 0.13759583 -0.014272955 0.044895224 -0.12582502 0.10735124 0.09511762
0.08706287 -0.07708771 0.03465776 -0.17721127 0.062108144 0.21207987 0.18708311 0.058371954
-0.028654333 -0.016173346 -0.030397348 -0.15412395 0.03901551 -0.034963515 0.1404838 -0.14412057
0.029582694 -0.09306052 0.046014726 0.028808841 -0.13624175 0.01937244 0.057245106 0.057166606
-0.069223 -0.07207899 -0.12671597 -0.11474493 0.0054593277 -0.016413623 -0.09941147 0.07934914
0.011644526 0.020863432 0.07671057 0.094594315 0.11034229 -0.073456496 -0.03196791 -0.10345387
-0.116236985 0.07859711 0.13056089 -0.060680877 -0.09540106 0.08649172 -0.041772474 -0.021893278
0.041335937 0.078249216 0.09032349 0.0027878878 0.007086373 -0.08782611 0.03488534 0.07154729
0.1310655 -0.105896115 0.002621653 0.090659924 0.10164037 0.054354403 -0.12399553 0.135173
0.06317201 -0.1258871 -0.039210945 -0.059684213 -0.063928135 -0.05058329 0.047610633 0.028622804
0.03539908 -0.002771041 -0.10175962 -0.026611779 -0.093448795 -0.07321099 -0.17906702 -0.039994214
0.09104573 0.03014186 -0.09804705 0.07388394 -0.046086464 -0.03517317 0.12906897 -0.015604865
-0.036712974 -0.08471369 0.20024571 0.05771452 0.07187622 -0.090152845 0.07666576 -0.07069788
-0.03958991 -0.006211257 -0.14348197 -0.1254654 0.03296119 -0.09427985 -0.15017183 0.06763759
0.075636566 0.043842074 -0.19797836 -0.08021513 -0.048898865 -0.06700027 -0.10969194 0.07789502
0.020886293 -0.034009088 -0.023572648 -0.0017715525 0.022695022 -0.0053961785 -0.032195814 0.008113207
-0.054670177 -0.047368754 -0.12282033 -0.04075307 -0.010863622 -0.08271251 -0.04227123 0.03875088
0.044254895 0.117264055 -0.034391545 0.09640094 0.010826472 0.044109363 -0.008351412 0.1302538
-0.113718696 0.05959692 -0.060761325 -0.16627353 -0.0634387 -0.18306752 0.09435446 -0.069957934
0.11788207 0.002795677 0.096600205 0.1420887 -0.07398479 0.051909097 0.09603404 -0.03653589
0.05220296 -0.1342297 0.030958252 -0.03063807 -0.03973229 0.012203183 -0.15244326 -0.02183682
-0.022038542 0.05241373 0.06653541 -0.04686464 0.06322034 0.06585461 -0.12323857 0.13490437
0.096712865 -0.093333885 -0.115216546 -0.085049585 -0.13772325 0.079707064 0.059152566 -0.069393605
-0.046723418 -0.052642472 -0.059160046 0.11857873 -0.07139992 -0.054013383 -0.043214172 -0.14348093
-0.038409747 -0.04206654 -0.073881835 0.12380591 0.02888586 0.12388818 0.080134325 -0.007445017
-0.10997401 0.07478858 0.11819227 -0.0055563366 0.004818515 -0.078881375 -0.014336611 -0.055230573
-0.1258174 0.084325396 -0.15189798 0.12184136 -0.07466188 0.04608731 -0.07532452 -0.023389908
-0.023774605 0.07073838 0.010847502 0.0075880485 -0.0452722 0.069473974 -0.0012093883 0.0004144458
-0.1033987 0.17147811 0.0038621528 -0.049192023 -0.110359274 0.11608106 -0.08194274 -0.108420745

weight f4 [100]
00000000: 9834 813f 3ca5 7d3f c783 853f b2d6 7b3f
00000010: 5ff7 7c3f e498 893f 314a 763f 5967 743f
00000020: bba8 833f 7c7c 7a3f 9c21 773f 0f2b 6f3f
00000030: 3f0b 723f fadb 8a3f 64a5 783f 02a7 773f
00000040: 4520 6d3f 0098 803f c80c 833f 1160 7a3f
00000050: 68eb 803f 2eda 703f 65f8 8b3f 3272 823f
00000060: 32ea 863f 7866 743f 3d18 813f 35c5 7f3f
00000070: df5c 803f 0e74 713f 0edb 813f 4e55 883f
00000080: 0c84 813f ebd5 7a3f 2f21 6b3f 9636 833f
00000090: 47d3 7d3f 3791 853f d4bf 733f 66eb 823f
000000a0: 7ced 803f 5f39 7c3f 671c 793f 6bcb 7b3f
000000b0: 3d81 7f3f f2cc 883f 08f3 733f c518 833f
000000c0: c149 843f b732 6b3f 0170 8a3f 4da2 6e3f
000000d0: 1e29 813f 1f3d 823f 3e58 893f c940 713f
000000e0: 52a9 7f3f 436d 8b3f d1f5 703f c714 7a3f
000000f0: fc62 833f 8fc7 813f 5026 863f ee96 853f
00000100: 2a97 8a3f 2f0b 8a3f ff10 773f 89bc 813f
00000110: 516d 773f fdfd 8d3f 7219 943f 8459 823f
00000120: 1293 823f 44a2 7c3f 262a 783f c2b8 813f
00000130: 58ae 833f 690c 893f 523e 783f 4212 7a3f
00000140: 0aba 8f3f f1fa 7a3f e51a 8a3f 4d2e 7e3f
00000150: 83af 823f 89bf 823f 3756 763f 6497 843f
00000160: 9d54 803f 7e79 813f 3f6f 853f ba4b 803f
00000170: 6fd5 7f3f 4b79 853f 93aa 743f e01e 6e3f
00000180: 4cbc 763f 67de 883f e480 813f d873 7f3f
1.0094175 0.9908025 1.043084 0.98374474 0.9881496 1.0749784 0.9620696 0.95470196
1.0285867 0.978462 0.9653566 0.9342508 0.9454841 1.0848382 0.97127366 0.9673921
0.92627364 1.0046387 1.0238276 0.97802836 1.007184 0.94082916 1.0935179 1.01911
1.0540221 0.95468855 1.0085522 0.9991029 1.0028342 0.9431771 1.0144975 1.0651033
1.0118423 0.9798266 0.9184751 1.0251033 0.9915051 1.0434941 0.9521458 1.0228088
1.0072474 0.9852504 0.97308964 0.98357266 0.99806577 1.0687544 0.9529271 1.0241934
1.0335008 0.9187426 1.0815431 0.932164 1.0090673 1.0174903 1.0730054 0.9423948
0.9986774 1.0892719 0.94125086 0.97687954 1.0264583 1.0139025 1.0480442 1.0436685
1.0827382 1.0784663 0.9651031 1.0135661 0.9665118 1.1093136 1.1570265 1.0183568
1.0201132 0.986851 0.96939313 1.0134509 1.028758 1.0706912 0.96970093 0.9768411
1.122865 0.98039156 1.0789458 0.992894 1.0209812 1.0214702 0.96225303 1.0358701
1.0025822 1.0115201 1.0424575 1.002311 0.9993505 1.0427641 0.95572776 0.9301586
0.9638107 1.0692872 1.0117459 0.9978614

bias f4 [100]
00000000: 63ff 2fbc d7ca b5bc ea46 883c 1c98 333c
00000010: fd0d 383b 76d6 cc3c 3792 5dbc e59d 3d39
00000020: a7be 413c e0c5 0a3c a4e4 d9bc 8c85 89bb
00000030: 2ee5 733c 0c22 bc3c 49d8 413c 7c3c 5abc
00000040: 7b45 acbb a8d7 38bc f044 93ba 21bb 31bb
00000050: 2442 1f3c bce0 3dbd 5815 7d3c d7c2 debb
00000060: 2b4a 483a c7fb dabc 4345 6e3c fbac 01bd
00000070: 1225 873c 1c42 b53c 8387 073d e859 3eba
00000080: e56b 28bd 13f1 c23c 7819 17bb c909 9a3b
00000090: bca6 e6bb 87ee 033c 0200 2dbd 50db 33bc
000000a0: 612b 9a3c f5e8 103d 75c5 0bbd bf0c 6a3d
000000b0: 9735 e43c 6359 5abc eb55 383d 80c6 c2bc
000000c0: 5327 64bd 4d4b e93b 69cf 11bd 57d1 f1bc
000000d0: 1238 c53c ffcc 96bc abfc 44b9 8df9 3abc
000000e0: 2c93 14bc 3a49 d6bc 1c31 5cbd fd3e 03bc
000000f0: a861 20bc 318e 25bd 5d24 283c d0c5 81bb
00000100: 8e28 7b3b d95b b7bb a60a 95b9 1f85 c0bc
00000110: 6b45 093b d946 69bb 6852 ffbc a95e 72bc
00000120: 8f9a ed3b 4781 1b3c 6416 653c 28f9 4dbc
00000130: 3722 08bd cc77 1cb9 51ff 3abc dd75 89bc
00000140: a967 79bc 8786 413d 2e72 03bd 298c be3c
00000150: 09b0 c7ba 355c 34bd c837 c0bc 3ea5 623b
00000160: 9505 81bb 3b2b cd3c acc1 acbc 772e 5fbb
00000170: 6525 0f3d 4976 4fbc b8d6 a33c f6ca cf3c
00000180: 929a 39bd 9e11 6f3c 5e5b 153c 8bef 663c
-0.010742041 -0.022191448 0.016635377 0.010961559 0.002808451 0.025004607 -0.01352363 0.00018083265
0.01182524 0.008470029 -0.026598282 -0.004196828 0.014886184 0.022965454 0.011831352 -0.013320085
-0.005257306 -0.011281885 -0.0011235755 -0.0027119594 0.009720359 -0.0463569 0.015446983 -0.006798129
0.00076404464 -0.026731385 0.0145428805 -0.031659108 0.016497169 0.02212625 0.03308822 -0.0007261322
-0.04111852 0.023796594 -0.0023055952 0.0047008735 -0.0070389193 0.008052475 -0.042236336 -0.010977581
0.018819513 0.035378415 -0.034123857 0.057141062 0.027857585 -0.0133269755 0.045003813 -0.023776293
-0.055701565 0.0071195723 -0.035598192 -0.029518766 0.024074588 -0.018408297 -0.00018786143 -0.011412037
-0.009068292 -0.026157964 -0.05375777 -0.008010623 -0.009788908 -0.040418807 0.010262576 -0.0039603487
0.0038323733 -0.005595666 -0.00028427428 -0.023500977 0.0020945917 -0.0035595207 -0.031167224 -0.014793077
0.007251091 0.009491271 0.013982389 -0.0125716105 -0.033235755 -0.00014921947 -0.011413411 -0.016779834
-0.015222468 0.047247436 -0.032091312 0.023260193 -0.0015234958 -0.044033248 -0.023464099 0.0034583355
-0.003937433 0.025045028 -0.021088444 -0.0034054795 0.03494777 -0.012662479 0.019999847 0.025365334
-0.045313425 0.014591603 0.009116022 0.014095197

running_mean f4 [100]
00000000: 0890 73be 8f1d dcbd a896 9a3f e18f 833f
00000010: 1402 dfbe 06cf 1a3f 3b5e 51bd 5ef7 823e
00000020: fad5 0a3f 693a 91bd 444e a2bf df54 51bf
00000030: f951 c23d 5972 a9be 7074 60bf 515d 2a3d
00000040: 5ab9 c7bf 10e0 0bbf 0e07 91be 9346 d2bf
00000050: a092 803c 1c89 ad3e b843 96bf d7db b9bf
00000060: 5ba9 64be 1c44 9e3f 6158 13bf 9a1f a4bf
00000070: 56b0 ba3f d739 00bf 2ea2 e73e 83d7 8dbf
00000080: 327d 003e 868d 1c3f e348 13bf 4711 653f
00000090: e868 9ebf 545b 02bf c10d dc3e cd4a 1a3f
000000a0: 95ae d3bf a82b 72bf 00fb e3be 1b04 e8be
000000b0: 1566 4b3e 61e8 1a3f de6d 713f a696 913f
000000c0: b084 59bf 5e44 943d 1229 4d3f 3124 a7bf
000000d0: f95b cabf 7e2a f8bf 9423 c0be 340c 9bbd
000000e0: 0196 813f a911 c2be 5b47 053f d1f2 80bf
000000f0: e7db 26be 439d 8dbf 2604 52bf 9e6e d7be
00000100: 4a28 463f 73cc a63f d4fe 9ebe cfae 933f
00000110: 87bc ee3e 96d7 43bf b745 21be 699d 04c0
00000120: dd03 46bf edd5 a6bf 064c a43e 0a83 143f
00000130: 36fd 713e baff 6f3f e8c5 153f d1e7 a1bf
00000140: b904 6abf 18d0 dc3f 2447 fdbe 97ec 97bf
00000150: e30b 66be b754 123e 39e2 f9bf d738 be3f
00000160: d371 b7be 6708 c1be 3315 c53f a4bf be3e
00000170: a2af be3e a008 803e 009d 95be ebdf 1d3e
00000180: 3f7b 343f 0956 013f 39f1 bf3c 0258 463e
-0.23785412 -0.10747825 1.2077227 1.0278283 -0.43556273 0.6047214 -0.051115256 0.2557935
0.5423275 -0.07091219 -1.2680135 -0.8177013 0.09488291 -0.33095053 -0.8767767 0.0415929
-1.560344 -0.5463877 -0.28325695 -1.6427788 0.015694916 0.3389367 -1.1739416 -1.4520215
-0.22330229 1.2364535 -0.5755673 -1.2822144 1.4585063 -0.50088257 0.4524092 -1.1081394
0.12547758 0.6115345 -0.5753309 0.8947949 -1.2375765 -0.50920606 0.42979243 0.60270387
-1.6537653 -0.94597864 -0.44527435 -0.45315632 0.1986316 0.6051083 0.9430827 1.1374099
-0.8496809 0.072396025 0.80140793 -1.305792 -1.5809318 -1.9387968 -0.37527144 -0.07570687
1.0123903 -0.379041 0.52062005 -1.0074102 -0.16294824 -1.1063617 -0.8203758 -0.42076582
0.77405226 1.3031143 -0.31053793 1.1537722 0.4662821 -0.76500833 -0.1574925 -2.0721076
-0.77349645 -1.3034035 0.3208925 0.5801245 0.23631749 0.9374958 0.58505106 -1.264887
-0.91413456 1.7251005 -0.49468338 -1.1869076 -0.22465472 0.14290129 -1.9522163 1.4861096
-0.35829028 -0.37701723 1.5397094 0.37255585 0.37243372 0.2500658 -0.29221344 0.15417449
0.7050056 0.50521904 0.023430454 0.1936951

running_var f4 [100]
00000000: 7003 1340 469f 1440 41f9 be40 a45d 9640
00000010: b5d4 9b40 c534 7940 57e3 8540 9c99 3e40
00000020: c12d a540 042e 5c40 e0d9 3540 ca65 5340
00000030: 2476 6040 3f57 f740 7c36 9940 7f1a 8440
00000040: 2501 4c40 df70 b640 fceb 8b40 113a a040
00000050: 5391 3c40 f045 a540 1b23 9d40 5879 c140
00000060: 798d 6740 a491 b840 cd4c d340 e3c9 4c40
00000070: 5f2a cd40 99d1 c540 d52e 7940 dccd 9f40
00000080: 3345 7840 ddb5 5340 aa53 8040 65fb d83f
00000090: d0f7 8840 c253 ac40 157c 1340 e99a 8440
000000a0: 6dfb f73f 7de7 9c40 9c05 5140 f61f 1d40
000000b0: 8ef6 6c40 edd2 d540 8926 3f40 ccd7 6940
000000c0: 2ce4 a740 a71b 4440 2edf 7940 90e5 2340
000000d0: 90e9 af40 d99b 9740 2a61 0140 130d 9840
000000e0: a428 6440 8e48 7940 d88c 5840 0cf0 4340
000000f0: e98c 9340 d9a9 6f40 0216 3a40 e825 0b40
00000100: 97ff 9d40 e35d 2c40 7df9 6440 e33f 8e40
00000110: 4a74 7040 27da e540 814e 9540 226f fe40
00000120: 7d61 5040 c6b6 8840 3e2a 4b40 ea53 b540
00000130: ba9b 1740 b56e ae40 8867 9240 e2a8 7740
00000140: dc19 8140 c75b 7940 0d34 5440 a088 4440
00000150: 9495 3240 a7f4 6340 90cb c140 cb58 8e40
00000160: cafc c740 a571 b340 dc13 a740 b327 8040
00000170: 811a 1140 cc2c b840 129b 2f40 59cf 1540
00000180: f98d 8740 fc0e 8a40 b6ac b740 b640 6040
2.2970848 2.3222213 5.9679265 4.6989307 4.869715 3.8938458 4.1840014 2.9781256
5.161835 3.4403086 2.841423 3.3030877 3.5072107 7.7294 4.787901 4.1282344
3.1875699 5.701278 4.3725567 5.007088 2.94637 5.1647873 4.9105353 6.0460625
3.6180098 5.7677784 6.603125 3.1998222 6.4114223 6.1818357 3.8934834 4.9938793
3.8792236 3.307975 4.010213 1.695172 4.2802505 5.3852243 2.3044484 4.14391
1.9373604 4.903258 3.2659674 2.4550757 3.7025485 6.681998 2.986727 3.6537962
5.246603 3.0641878 3.9042468 2.5608864 5.497261 4.7377744 2.0215554 4.751596
3.5649805 3.8950534 3.3835964 3.0615263 4.610951 3.7447417 2.9075933 2.1741886
4.93745 2.6932304 3.5777276 4.4452987 3.7570977 7.18288 4.665833 7.951066
3.2559502 4.272311 3.1744533 5.6664934 2.3688798 5.451014 4.575138 3.8696828
4.0344067 3.8962266 3.315677 3.070839 2.7903795 3.5618074 6.056099 4.448339
6.249608 5.6076226 5.2211742 4.004846 2.2672427 5.7554684 2.7438397 2.3407805
4.2360806 4.314329 5.739833 3.5039496

weight f4 [256, 100]
00000000: 6843 113d 1a38 91bc 2efc b53b fd09 00bd
00000010: 99aa 013c 8012 b03c e82f 42b9 6211 1bbe
00000020: 8462 82bc eb84 a3bd 9273 203d 2c57 df3d
00000030: 367c fcbd 9701 1abc 74fe cf3b ae9f d9bd
00000040: 1a64 c3bc bb34 18bd 0c6a 013e d45f 3abd
00000050: aff3 93bd f7d2 19be 84cc 9ebd 8ca6 6a3d
00000060: 8b95 8e3d 8406 91bd 8f42 b1bc 8da2 d5bd
00000070: a478 923c a7d5 df3b 917d cb3d d4da 63bb
00000080: 5fb3 563d 0bde 86bd 8ec9 fe3d 9654 1bbc
00000090: 3990 4c3d ed7d 663d 1dc4 c1bd 0b7d d6bd
000000a0: b255 4fbb 6aea dfbd fb65 43bc a8df d5bd
000000b0: 4439 bd3c cf8a 68bd 358a 83bd 60c3 853d
000000c0: 6c87 1c3d b6ae 80bd ccad 10bc 95fb 86bc
000000d0: 8ddb f9bc bbdf 483d 9ae0 e6bc 1aa1 67bd
000000e0: e63b 833d 4f8b 8abd 4db2 26bb d9ba 113d
000000f0: 65cd 0a3d 0ff9 09bd 992c f03d 4021 98bd
00000100: 2414 56bd 2116 3cbd 9b29 753d 4972 2f3d
00000110: 5501 6a3d f71d 00be aba8 cdbb 9c71 e9bc
00000120: 8905 2f3d 792c f83a 4bcc 853d 4b0f 16bd
00000130: 66b4 b33d 8c1d 48bd 2ac0 083d 6f81 e63c
00000140: 4024 03bc 5801 03be 0200 7f3c a9f2 643c
00000150: c9ca db3d 6d74 41bd 7a04 74bd 50e9 b3bd
00000160: 2d68 1b3c 1ff1 49bd 1a9d bebb c19e d03d
00000170: 6a07 933d c5a1 8b3c 5a3f dd3b b7de 1ebd
00000180: 071e 903d 547f f5bc a400 1fbd 174a 833c
00000190: aab9 03bc 682f a03d 8186 373d 67f6 08be
000001a0: 30d8 06bc 5b5a 0ebd 155d 1fbd fd8d b7bd
000001b0: 1316 81bc 10b5 793c 55f5 8bbd d571 223a
000001c0: c986 cf3a 3019 e43d 6efe f3bb a53f a2bd
000001d0: 8eed d63d 68e3 133c 1149 92bd d197 8cbd
000001e0: 49e4 a73c b162 9dbd 7ce5 d2bd f8d4 783c
000001f0: 0e38 0fbd 820e 7d3d 5a86 c8bc ca77 063e
00000200: a719 613c 48ee 0f3c 09cf d33b 7216 a23c
00000210: 4118 a13c 7bb1 1fbc 63b0 1e3d b0f4 64bd
00000220: 718c a93d 5d43 28bb 8112 1dbd e180 06bd
00000230: 4d96 bb3d 7b24 fcbc 8fd3 f43d 24cb 8fbd
00000240: 59d4 8f3d 5040 3b3d 3d3f 8dbd f910 58bd
00000250: 3dea 183e 9b16 b33d abb1 93bc 7b02 073c
00000260: 554b dbbd 675e d63c d7ae 073d 67fe 653c
00000270: 6320 10bc c35b 04be 1c5b 173d 13a6 473d
00000280: 1769 87bd 6feb 513e 15ee 21bd 56b4 c6bc
00000290: 61e0 b43c 987e 4abc 7835 21bd dd78 3a3c
000002a0: b0e9 12be 74e6 053b 3bf3 8a3d 7945 e43c
000002b0: 89f1 0a3e 3fcd f9bd 8e0e c3bd 4a05 063e
000002c0: e00c 3abd 649d 683d fffa 3a3d 475d 51bc
000002d0: 2344 d53d fb98 13bd 6720 893d 64f7 91bd
000002e0: 2552 3f3d 892f 833d db03 b93d 47c2 2f3c
000002f0: 587e 11bd 01b2 0c3d aae2 3bbd 7c7c 90bd
00000300: 0d95 f4bd 147d eebc d6fa c03d db78 89bc
00000310: dad3 9d3d 8d51 20bd c173 53bc 732d 143d
00000320: 44a6 93bd 545c 17bd 3edb cebc 8392 9a3d
00000330: 7169 ee3c 4604 803a ebad bb3c 5f51 5f3d
00000340: 1c9e a53c daf3 b5bd 640f a3bd 028f 9e3d
00000350: a6c2 81bc 281e 2d3d 608d 5e3c bfa3 f13d
00000360: b3a2 18bd 2072 dd3d 635c b93d 97aa ae3d
00000370: d4f3 80bb 432f e2bc 0598 643d a623 5abd
00000380: 0d6d 9fbd 0cfc b43d 5919 25b9 8b4f b93d
00000390: 6a32 f8bc 9d8a d1bc 6109 fcbd ff1e ba3d
000003a0: bc93 3bbc 51b5 193d 954a b3bd acf9 13bd
000003b0: 9c26 f2bd 9e21 00bd 63bd d93d e45e 80bc
000003c0: b5e3 75bd cabf e53c a54f 9cbd a4ff 7e3d
000003d0: 9b44 6fbc 7993 01bd 783b 673d a4d7 df3a
000003e0: 8a96 a23d e3ea 36bd 8ad2 4c3c 85f2 a73c
000003f0: b468 eebb fcfb 653c 976d d63d 4494 1b3d
0.035464674 -0.017726947 0.005553744 -0.031259526 0.007914209 0.021493196 -0.00018519128 -0.1514335
-0.015916117 -0.079843365 0.039172716 0.109052986 -0.12328379 -0.009399793 0.006347472 -0.106261596
-0.023851443 -0.037159663 0.1263811 -0.045501545 -0.07224213 -0.15021883 -0.07753852 0.057287738
0.06962117 -0.07081321 -0.021638183 -0.10431395 0.017879792 0.0068308893 0.09936059 -0.0034767883
0.052417155 -0.0658532 0.12440787 -0.009480616 0.04994223 0.056272436 -0.09461234 -0.10473069
-0.0031636772 -0.10933383 -0.0119261695 -0.1044305 0.023098595 -0.056773003 -0.06422845 0.065314054
0.038215086 -0.062833235 -0.008830499 -0.016477386 -0.030500198 0.04904149 -0.02818327 -0.056550123
0.06407909 -0.06764852 -0.0025435865 0.035578582 0.033887286 -0.033684786 0.11727256 -0.07428217
-0.0522653 -0.04591954 0.05985413 0.0428336 0.057130177 -0.1251143 -0.0062762103 -0.028496556
0.042729888 0.0018934152 0.065331064 -0.03663568 0.08774643 -0.048856303 0.033386387 0.02813789
-0.008004248 -0.12793481 0.015563967 0.01397387 0.107320376 -0.047230173 -0.05957458 -0.08784735
0.009485287 -0.049302217 -0.005817068 0.1018653 0.071791485 0.017044911 0.006751937 -0.038786616
0.07036977 -0.029967941 -0.03881897 0.01602654 -0.008039871 0.07821542 0.044806007 -0.13375245
-0.008230254 -0.03475414 -0.03890713 -0.08962629 -0.015757596 0.015240923 -0.06833903 0.0006196772
0.0015833016 0.11137617 -0.007446102 -0.079222955 0.10494529 0.009026386 -0.071428426 -0.06864894
0.020494597 -0.076848395 -0.10297677 0.015187494 -0.034965567 0.061781414 -0.024478126 0.13131633
0.013739026 0.008784838 0.0064638895 0.019786093 0.019664885 -0.0097469045 0.038742434 -0.055897415
0.0827874 -0.0025674917 -0.038347725 -0.032837752 0.09159527 -0.030779114 0.11954414 -0.07021168
0.07022924 0.04571563 -0.06896827 -0.05275056 0.14933105 0.08744546 -0.018029055 0.0082403375
-0.10707728 0.026168061 0.033125725 0.014037705 -0.008796784 -0.1292563 0.036952123 0.048742365
-0.06611841 0.20499967 -0.039533693 -0.024255913 0.022079648 -0.012359284 -0.039357632 0.011381355
-0.14346957 0.002043155 0.06784674 0.027865158 0.13568701 -0.12197351 -0.095242605 0.13087955
-0.045422435 0.056790724 0.045649525 -0.012778587 0.10413387 -0.036034565 0.066956334 -0.07127264
0.0467092 0.06405551 0.090339385 0.010727472 -0.03552088 0.034349445 -0.04587046 -0.070549935
-0.11942492 -0.029112376 0.09422843 -0.016781261 0.07706423 -0.039140273 -0.012906016 0.036176156
-0.07209447 -0.036953285 -0.025251027 0.07547476 0.029103013 0.0009766899 0.022910079 0.05452096
0.020216994 -0.088844016 -0.0796192 0.0774212 -0.015839886 0.042265087 0.013583511 0.1179881
-0.037264537 0.10812783 0.090508245 0.08528631 -0.0039353166 -0.027610427 0.05580904 -0.053256653
-0.07784472 0.088371366 -0.00015745069 0.09048375 -0.030297477 -0.025578791 -0.123064764 0.09087943
-0.011448797 0.037526432 -0.0875446 -0.036126778 -0.118237704 -0.03128206 0.10631826 -0.015670247
-0.06003161 0.028045554 -0.076323785 0.062255517 -0.014603759 -0.03163478 0.0564532 0.0017077816
0.07938869 -0.0446576 0.012501368 0.020501385 -0.007275665 0.014037129 0.10470121 0.037983194
