transformer_results_random_no_constants_no_param_tune/performance_prediction/PSO1-PSO2-PSO3-PSO4-PSO5-PSO6-PSO7-PSO8-PSO9-PSO10-PSO11-PSO12_random_no_constants_dim_3_samples_50_fold_5_budget_50_n_heads_2_n_layers_1_d_model_100_d_k_30_d_v_30_aggregations_mean/trained_model.pt (torch, 343801 bytes, 22 tensors)

weight f4 [100, 4]
00000000: d262 db3e a8f0 90bd 2fcb 5a3e d4e9 66be
00000010: 6076 d0bd 89e0 5bbe 779a 62bd 5e9f 173f
00000020: 0967 cbbe 3728 043e 50b4 423e ce44 473e
00000030: 477b d5be c360 b03e 7789 86be 9018 bf3e
00000040: 91a3 a7be 930f 65bd ab9d 383d baa2 bf3e
00000050: 8eae a83e 705b 29be fe2b a93d 77cd 11bf
00000060: bba5 513c 568e dcbc 07f5 4dbe 2276 afbd
00000070: 8f6f aa3e 6c00 3fbe d6fe 933d d57c 08bf
00000080: 029f c33d a95c 8c3d ae06 723d c7a5 193f
00000090: e615 ee3e affa c83e 1948 88be d58a e5be
000000a0: 70d6 a13e f060 bcbe 3962 dd3e f417 a93e
000000b0: 1f3c 533e 426a 1b3d cdc1 403e ebee 0d3f
000000c0: fb2a 94be eefe e83e 9758 eebe 2c02 d8be
000000d0: f98a 1fbe b3ac 423e 6259 bebd 926b 1fbf
000000e0: d3f8 61bd c18e b1be 6f97 c3be e57e c03e
000000f0: 23c6 c9be 0efc 5bbd cb7e c6be 7998 debe
00000100: db72 36be c1d8 c03e 00fc 23be 5e2c 0d3f
00000110: 6070 b93e 0124 a33d 724f 63be 51c0 85be
00000120: 66f6 ea3e 42c3 77be 55cf cc3c 354e b6be
00000130: 1d2c da3e bbda 2abe be0f 1f3e 5022 b53d
00000140: 328e 843e cb56 c0be cd0b a73d 3ecf 333e
00000150: 27d0 e93d 3601 52be dc93 3e3e 6a07 c03e
00000160: 21d2 f1be e063 a6be 9e58 b43e e93d 94be
00000170: b92d ddbe e82e fbbd 57d0 1b3e 35e8 273f
00000180: f78f 093c 315e a63e 746d 1fbd 5db5 0ebf
00000190: 1686 82be ae87 873b 49c6 1ebe e2c8 823e
000001a0: 49c9 9c3e f965 6a3d 2c6a e0be 3e92 0e3f
000001b0: f1f7 18be b48b 8c3d 31a8 d9be 6ebd 5ebe
000001c0: 3134 79be 6eb8 23be 6512 ec3e 456d e3be
000001d0: 69d1 4bbd ac0f 393d 2973 05be 9896 8c3d
000001e0: 59a1 89be 8a46 c33e 6ee7 99bd eb3d 5d3c
000001f0: 6211 39be b2b8 eabe b3dd a7be 07c5 5cbe
00000200: 16df db3e ebad b23e 80f8 7ebe 7e1b a73e
00000210: 2c49 51be d234 8f3e 87f6 b1be 8545 c3be
00000220: c2e4 943e a307 a63b 0b91 95be 47b2 e73e
00000230: a531 77be cba0 0d3e b1df 3bbe 74f5 293f
00000240: f164 91bd 9735 9a3e 3d1e c5be 9f86 e93e
00000250: 997f 33be be65 243e 9172 b03d c6d1 623e
00000260: ac9d 5ebe 3c1e 8d3e 7c45 123d 865f 08bf
00000270: 8add 413e 1141 393e cd6c 7c3d 294d 283f
00000280: cb5e 79be 0556 dabe 5364 d2bd 1c4b ec3e
00000290: 9089 e43e 2675 8f3e 0ba0 be3e a898 e1be
000002a0: 66a6 e6bd a432 dd3c 5a92 efbd aa52 9abe
000002b0: 91ab b0be eb94 ff3c 2a70 343e abba 113f
000002c0: a4bd cc3e 5693 2abe a5d9 96be 9836 8f3e
000002d0: 2001 3bbe a6a1 853e ca47 dcbd 6325 b2be
000002e0: f509 bebd 65d5 6e3d 8d87 cebe e34c a4be
000002f0: a87d b7be d610 b1be 0a64 9f3e d870 bbbe
00000300: ee63 cb3e 8d35 903e f55e bcbe f42d 183f
00000310: b341 3a3e 819a ef3e c2b4 c53e cdcf aa3e
00000320: 8c9c 9f3e 888d 0f3e b97d ae3e 9c8e e6bd
00000330: d6b3 7bbe 6726 6cbe 51ce 913e 8c18 04bf
00000340: 8328 32be dc3b 86bd 4070 803e f998 d4be
00000350: f25a 77be bf94 73bd 683d 71be c28c bb3e
00000360: 6793 a4be 839f b13e 3676 693b 3feb e4be
00000370: 7f79 c83d ead5 fb3c fc69 d9bd 6961 cdbe
00000380: 9790 bb3d 0e5e 4cbe 952a 173e 70b9 ef3e
00000390: ee48 f53e f075 51be a49b babe a9ae d2be
000003a0: 7566 953e 3dfb 77be 76f2 4cbe 9207 713c
000003b0: eb86 9d3e f623 e1bc 6df7 143e 1e2e a5be
000003c0: 72af 5a3c 9eb3 e2be 036b 99be 633a 723d
000003d0: f81f c73e 197f c33e 6b0f 64be 4777 fb3d
000003e0: 90e6 953d 4fed 333e b3aa 97be 953e bcbd
000003f0: c697 89bd ecab d23e 63ce bf3e c871 313d
0.4284883 -0.070771515 0.21366571 -0.22550136 -0.10178828 -0.21472372 -0.05532309 0.5922755
-0.39727047 0.12905966 0.19014096 0.1945984 -0.41695616 0.34448823 -0.26276752 0.37323427
-0.3274198 -0.055923056 0.04507224 0.37428838 0.32945675 -0.16538787 0.08260344 -0.5695414
0.012795861 -0.02692334 -0.20113002 -0.08567454 0.33288237 -0.18652505 0.072263405 -0.5331548
0.09551813 0.06853611 0.0590884 0.6001858 0.46501082 0.39253756 -0.26617506 -0.44832483
0.31608915 -0.36792707 0.43239 0.33026087 0.20628403 0.037943132 0.18823929 0.55442685
-0.28939041 0.45506996 -0.46551964 -0.42189157 -0.15580358 0.19011192 -0.09294392 -0.62273514
-0.055168938 -0.34679225 -0.38201472 0.37596813 -0.3940898 -0.053707175 -0.3876861 -0.43475702
-0.17817251 0.3766537 -0.16014099 0.55145824 0.36218548 0.079658516 -0.22198275 -0.26123288
0.45891112 -0.24195579 0.025001207 -0.35606542 0.4261178 -0.16685002 0.15533349 0.08844435
0.25889736 -0.37566218 0.08156548 0.17559525 0.11416655 -0.20508274 0.18611091 0.37505656
-0.47230628 -0.32498074 0.3522386 -0.28953484 -0.43198946 -0.12264806 0.15216194 0.65588695
0.00839614 0.32493737 -0.038922742 -0.5574549 -0.25492924 0.0041360473 -0.15505327 0.25543886
0.30622318 0.057226155 -0.43831003 0.556919 -0.14938332 0.06862584 -0.42511132 -0.21751949
-0.24336316 -0.15988323 0.46107784 -0.44419304 -0.049760256 0.04518096 -0.13032211 0.06864661
-0.2688091 0.38139755 -0.07514845 0.013503532 -0.18073037 -0.45844036 -0.3278633 -0.21559535
0.4294364 0.34898314 -0.24899483 0.32638162 -0.20438069 0.27969986 -0.34758398 -0.38138977
0.29080778 0.0050668283 -0.29212222 0.45253202 -0.24140032 0.13830869 -0.1834705 0.66390157
-0.07099331 0.3011901 -0.38499632 0.4561052 -0.17529143 0.16054437 0.08615602 0.22150335
-0.21739835 0.2756213 0.035710797 -0.5327076 0.18932167 0.18091227 0.061627198 0.6574274
-0.24352567 -0.42643753 -0.102730416 0.46151054 0.44636202 0.28019065 0.37231478 -0.4406178
-0.11262207 0.027001686 -0.11697836 -0.30141193 -0.34505895 0.03119894 0.17620912 0.5692546
0.39988434 -0.16657767 -0.29462925 0.2797134 -0.18262148 0.2609989 -0.1075588 -0.3479415
-0.09279243 0.058308978 -0.40337792 -0.3208991 -0.35838056 -0.34583157 0.3113101 -0.3660953
0.39724678 0.28165856 -0.36791196 0.5944512 0.18189125 0.46797565 0.3861447 0.33361664
0.31174123 0.14018834 0.34080294 -0.11257669 -0.2458032 -0.23061524 0.2847772 -0.51599956
-0.17398266 -0.06554386 0.2508564 -0.4152296 -0.24155787 -0.059468027 -0.23558581 0.36630827
-0.3214371 0.3469201 0.0035623438 -0.4471073 0.097887985 0.03074165 -0.10615918 -0.4011338
0.09158438 -0.19957754 0.14762338 0.46821165 0.47907203 -0.20455146 -0.3644687 -0.4114888
0.2917973 -0.24216934 -0.20014367 0.014711278 0.30766997 -0.027482968 0.1454751 -0.32261747
0.0133474935 -0.44277662 -0.29964456 0.059137713 0.38891578 0.38182905 -0.22271506 0.1227861
0.07319367 0.17570995 -0.2962242 -0.09191624 -0.067184016 0.4114679 0.37462148 0.0433214

bias f4 [100]
00000000: 9d05 903d b31e 08bf d8fa 15bf 29d5 023f
00000010: 493b e4be 7e22 953d 6728 353e b256 ed3e
00000020: a2b1 d43e a38d b2be aff7 d93e fd68 06bf
00000030: 0a5e 393c 6107 88be 98ef 2d3e fb84 83be
00000040: 5cac eb3e e8c6 debe 9191 cd3d f04c 87be
00000050: 0686 883e 0f58 bf3e 2792 b23e 2cd4 acbe
00000060: 927a 98bd 56f2 033f 5f7b c2be 7a96 b5be
00000070: 2099 86bd 402d 1abe f280 c13e 6f6b 02bf
00000080: 2bf5 a53e 656b c83e adcb 4c3e 030e ffbe
00000090: 6a41 43be f3b6 1e3e 9dd0 043f c56d d4be
000000a0: 1f63 68be af93 ed3c 569f 9dbe eb22 efbd
000000b0: 0c84 993b 4c36 f63e a53a 373e d830 8c3e
000000c0: 2434 303e f41a 233e 562d c8be b3cd db3e
000000d0: bacd c73e 61cc 0fbf 8820 c83d 5a4b f6be
000000e0: c9ba f03b ac2b 9a3e a0d1 003f 4900 643e
000000f0: 47a2 de3e 2d20 033f 5de6 dc3e e8d2 76be
00000100: 7bc4 bc3d 27e0 c83e 8d7d 9b3d 3542 f73d
00000110: 5d6a 84be 6456 153f 3a9b 103f 765e b2bc
00000120: 305e 2b3d a5ca 27bd 9337 0e3f 9075 9abd
00000130: 7058 fabd a422 3cbc 7a9a 0bbe 7fdc e33e
00000140: 31f6 14be 6cb3 06bf 140d d5be 6f7b 463b
00000150: 384f ebbe da73 463e c743 b03e b844 c43e
00000160: 5c2b 893e dd59 eebe aa5d b5bc 5936 98be
00000170: 4747 f7be e06b 053f 6f58 a9be 8726 77be
00000180: a2a7 923e 3379 92be 91a5 983e cc7f 933d
0.07032321 -0.53171843 -0.5858588 0.51106507 -0.4457648 0.072819695 0.17691194 0.46355206
0.41541773 -0.34873685 0.4257178 -0.5250395 0.011313925 -0.2656813 0.16985929 -0.25687394
0.46029937 -0.43511128 0.1003753 -0.26425886 0.26664752 0.3737187 0.3487713 -0.33755624
-0.074452534 0.5154165 -0.3798475 -0.35466367 -0.06572175 -0.15056324 0.3779369 -0.5094518
0.3241361 0.39144436 0.19999571 -0.49815378 -0.19067922 0.15499477 0.5188082 -0.41489998
-0.22694062 0.029001085 -0.30785626 -0.11676582 0.0046849307 0.480883 0.17893465 0.27381015
0.1720739 0.1592825 -0.3909709 0.42930374 0.39024144 -0.5617123 0.0977183 -0.48104364
0.0073464853 0.30111444 0.5031986 0.22265734 0.43483183 0.5122097 0.43144503 -0.24103892
0.09217163 0.39233515 0.07592306 0.12073175 -0.258624 0.58334947 0.56486857 -0.021773558
0.04183787 -0.04096474 0.5555355 -0.075419545 -0.12223899 -0.011482868 -0.13633147 0.44504163
-0.1454704 -0.52617526 -0.4161154 0.0030285974 -0.45958877 0.19380131 0.3442671 0.38333678
0.26790893 -0.46552935 -0.022139389 -0.29728964 -0.48296568 0.5211773 -0.33075282 -0.24135791
0.2864352 -0.28608093 0.29813817 0.0720211

weight f4 [60, 100]
00000000: bb4c b1bd 53b1 fa3d 1ea0 86bd df4b db3b
00000010: 8d3d 0c3e d6e6 1fbd 2496 24bd 2063 1ebd
00000020: cf65 20bd ee4a 683d 49b7 473d 1ec8 013c
00000030: 5b1f e4bd d969 ca3c c551 4bbd aef3 b03d
00000040: a650 4abc 6d7e b9bd 4660 873d 9fac f0bc
00000050: a60e 673d a376 b8bd be98 9abc aee4 8a3d
00000060: fc81 183d 33d4 75bd 621e a13d b0af 0f3d
00000070: afbf ddbc 5fdc 06bd 0a7d 01be 48b1 65bd
00000080: 957e 533b 18e4 e3bd 26b5 11bd 637e f73d
00000090: b440 003d f2f1 03bd bf98 1bbe fb03 adbc
000000a0: eeeb e3bc 97ad 6f3d 4e8b f63c 58f3 933d
000000b0: 73fc 6c3c ca37 eabd 9611 8dbd 0c65 9cbd
000000c0: e515 4f3d fabc 7ebd 6bf7 763d 19e6 333d
000000d0: 7daf d53c 37cf 213b 2aae 463d c488 0f3a
000000e0: 494c 623d 103b 473d 0702 cebd 02ae fdbd
000000f0: 38be 463d 4227 2cbd e9a9 f03c e271 2abd
00000100: 943e 613d 673a 9bbd 4274 073c 31dd 033b
00000110: e345 6dbd 3389 c2bc c79f 13be 8a99 ae3d
00000120: 3d17 003c 2776 523d 266d dbbd a670 9b3d
00000130: 5e51 043e bd89 413d 2615 c6bd b6df 23bc
00000140: 23a2 a83d 5a93 84bb cb6a d03c 5b97 9bbd
00000150: b3c3 e93d 4d9c f73c a230 ddbd f4ab 4f3c
00000160: 1fac 72bd eeb9 483c 98b3 9f3d 2cc9 173d
00000170: cd8b 9b3d 4761 dcbd 7228 973d d45a 20bd
00000180: 2400 0bbd 2b38 adbb 5b71 ccbc 6993 bebd
00000190: 4e76 b33b 9707 8c3d 5169 c5bc 1ae0 b53d
000001a0: 1a08 7fbd f3d0 263d d94f acbb 64fc 293d
000001b0: 7ffb 97bd 6807 23bc ea9c 08bd e271 963c
000001c0: 7ac2 553d 11a4 7cbd c539 493d b737 d0bc
000001d0: 2799 d73c 8153 b4bd fd1e 8bbd 10a4 bf3d
000001e0: e2ed 79bc 9887 bc3c 9272 69bc c92b aa3d
000001f0: 3829 8abc 0a04 bebd 039a 0e3d af49 26bc
00000200: e152 a63d af21 dbbc de37 7b3d 4035 92bc
00000210: 7d0a e4bc 38ea d43c 352b afbc 7ac3 53bd
00000220: b098 17bd 2ab0 43bd c976 253d aab4 10bd
00000230: d232 23bd 1fe3 dcbb f533 733c c86e 983d
00000240: 438a 813d 2d4e a9bc f9fb 9bbd ab92 5e3c
00000250: d97a 93bd b95c 873d 0eca 2e3d 8fe7 6ebd
00000260: 487a 15bd 63c4 2fbc de04 9d3d 2460 d03c
00000270: 573c 8b3d 2485 c93c c356 b43c 358e 6d37
00000280: a1cd 06bb d9de 983c 7f52 153d ce54 09bd
00000290: 9db0 f13c 1ec5 a03d 0680 97bd 76b5 b2bb
000002a0: 2cc8 973d dcdc 203d 2c71 a6bd 3b0e b0ba
000002b0: 888b 53bd 6ca5 b5bc 4819 9dbd 1cfa babd
000002c0: 32fa 96bd d019 85bc f0bb 27bc 1d3f bcbd
000002d0: fefe 9abd 29ce 51bd 5906 cabd d1da afbc
000002e0: 0fc4 893b ce61 b6bc 72e6 933d 6155 16bd
000002f0: 0b0e 183d 23b0 a53b 1fd6 9f3d 95cc b83d
00000300: eca1 653d 4425 c8bd 1485 6dbc 1393 5b3d
00000310: c07e a7bd 76a7 a3bd 9801 6cbd 4ef8 2e3d
00000320: 5b37 003d d29c cc3d cdd2 983b e2f1 19bd
00000330: be99 38bd edee 26bc d260 d3bd 3558 943c
00000340: 8d14 fa3c 94da a43a 750c e5bd 7cd9 b73d
00000350: 700b 073d 1bb8 aabd e816 433c 9bea 79bd
00000360: 7ab1 c93d 8ca6 5b3c 11f3 8ebd d085 783d
00000370: b889 7ebd fd07 adbc 4cef f03c 65a5 df3d
00000380: c49e e3bc df6b f9bb a199 273c 4c6a 903d
00000390: 6bc9 09bc dc2b 4e3d 883b 073d 5669 803d
000003a0: c125 a0bc d5e1 4cbd 3e44 9c3c d4c9 813c
000003b0: a2eb d23d ffdc d93c a882 f8bd 9e30 f73d
000003c0: 677c 873b 75d9 8f3d 1883 2dbc ae2a 53bc
000003d0: b894 2fbd 06f6 23bd 4c1b 35bd 7f53 9a3d
000003e0: 15ba 9dbd f526 8ebd f0f1 d1bc 4f03 eabd
000003f0: 042b c5bd 250c 71bd fb94 c9bc b495 df3c
-0.08657213 0.12240853 -0.06573509 0.006692394 0.13695355 -0.0390385 -0.040182248 -0.03866875
-0.039159592 0.056712084 0.04875878 0.007921247 -0.11138793 0.024708675 -0.04963853 0.08640228
-0.01234833 -0.09057317 0.066101596 -0.029379187 0.056410454 -0.09007003 -0.018871661 0.067818984
0.037233338 -0.060016822 0.07867123 0.035079658 -0.02706894 -0.032925006 -0.12645355 -0.05607727
0.0032271494 -0.1112749 -0.035573147 0.12084653 0.031311706 -0.03221316 -0.15194987 -0.021120062
-0.027822461 0.058515158 0.030095723 0.072241485 0.014464485 -0.11436422 -0.0688812 -0.07636461
0.05055799 -0.06219194 0.06029455 0.04392061 0.026084656 0.002469016 0.04850594 0.0005475397
0.055248532 0.04864031 -0.100589804 -0.12386705 0.04852125 -0.042029627 0.029377894 -0.041612513
0.05499132 -0.07579499 0.008267464 0.0020120854 -0.057927977 -0.023747062 -0.14416419 0.08525379
0.00781804 0.05138221 -0.10714178 0.07589845 0.12921664 0.047250498 -0.096720025 -0.010002067
0.0823405 -0.004045886 0.025441548 -0.07597228 0.1141428 0.030225897 -0.108002916 0.012675274
-0.05924618 0.01225136 0.07797927 0.037057087 0.07595024 -0.10760742 0.07380761 -0.03914912
-0.03393568 -0.0052862368 -0.024956396 -0.0930546 0.0054767495 0.06837385 -0.02409807 0.088806346
-0.062263586 0.040726613 -0.005258542 0.041500464 -0.07421016 -0.009950496 -0.03335277 0.01836485
0.05218742 -0.061679903 0.04912736 -0.025417192 0.026318146 -0.088049896 -0.0679302 0.09357464
-0.01525447 0.023013875 -0.014248507 0.083091326 -0.016865358 -0.09278114 0.034814846 -0.0101494035
0.08121277 -0.02674946 0.061332576 -0.017847657 -0.027837032 0.02599059 -0.021382907 -0.051700093
-0.03701085 -0.047775425 0.040396485 -0.035328545 -0.039843388 -0.006740942 0.0148439305 0.07443005
0.063251995 -0.02066716 -0.07616419 0.013584773 -0.07201166 0.06609482 0.042673163 -0.0583263
-0.03649357 -0.010727975 0.07666944 0.025436468 0.06798618 0.02459962 0.022014027 1.4159411e-05
-0.0020569342 0.01866095 0.036455628 -0.03352814 0.029503161 0.07850097 -0.073974654 -0.0054537607
0.07411227 0.039273128 -0.081270546 -0.0013431975 -0.05164674 -0.022173606 -0.07670838 -0.09129736
-0.0737194 -0.01624766 -0.010237679 -0.091917254 -0.07568167 -0.051222 -0.09864492 -0.021466644
0.00420428 -0.022263434 0.07221688 -0.036702517 0.037122767 0.0050563975 0.07804512 0.09023396
0.056062624 -0.09772733 -0.01449706 0.053607058 -0.081784725 -0.07990925 -0.057618707 0.04271727
0.03130279 0.099908486 0.0046638013 -0.037584193 -0.045068495 -0.0101888 -0.103212014 0.018108467
0.030527378 0.0012577348 -0.111840166 0.08977029 0.032969892 -0.083358966 0.011907317 -0.061014753
0.09848304 0.013406407 -0.06979955 0.06067449 -0.062143058 -0.021121973 0.02941098 0.109202184
-0.027785666 -0.007611736 0.010229499 0.070515245 -0.008409838 0.050334796 0.033015758 0.06270091
-0.019549252 -0.050020058 0.01907551 0.01584331 0.1029885 0.026594637 -0.12134296 0.1206982
0.004134703 0.070238985 -0.010590337 -0.012888594 -0.04286644 -0.040029548 -0.044215485 0.07535457
-0.07701508 -0.06941024 -0.02562806 -0.11426412 -0.09627345 -0.058849473 -0.024607172 0.027293064

weight f4 [60, 100]
00000000: 5805 b9bd 13d9 5f3c 568a 8a3c 7eb0 bb3d
00000010: e8e7 eb3d a6c2 0abe 58d4 b5bd 803e 51bc
00000020: 0e1f 7e3d 3f8e b7bd 11ca 9fbb 22c6 f63c
00000030: 6e0e ddbd 0a0d ddbd c408 9f3d e230 e8bb
00000040: 11f0 a53d 600b cc3c 0e2c e2bd 3d9c 923d
00000050: 6224 cf3d 27ee c7b9 fc00 afbd f83c 0e3d
00000060: cce5 14be 7462 f5bc 986e 8f3d 6d21 023d
00000070: 05e6 19bd a1a3 b43c bd19 55bd da97 dabd
00000080: 693b 7abd 7b74 04be 00d6 823d 7029 633d
00000090: 41d5 013e 1061 cbbc b673 dabd 9937 6a3d
000000a0: 4873 dd3d d18d 3cbc 7d31 dcbc 3238 093e
000000b0: 486c 093d 2f94 c0bd 0faa 4ebc dcd9 233d
000000c0: 37e0 47bd 2cb4 51bd 046b c63d af2e a4bc
000000d0: 0d26 f4bd 9818 1b3b 5d22 cdbc 203d 42bc
000000e0: 7580 663d 79bc babc 5bb8 11ba 2d26 64bd
000000f0: 3135 dbbc 4d0b 8c3c e83a 9cbd 98a0 353d
00000100: 1283 143e dd42 ddbb 7d30 9ebd b706 2d3d
00000110: 2061 b93d 6f75 5fbc c7bc 0fbd 7a62 43bd
00000120: c5cc d23d 404c 44bc fc5d 35bd 8846 9b3c
00000130: 3704 8d3d 9235 183d d6a7 503c cbcd bdbd
00000140: 15bc 01bd 0053 c1ba 43eb febc d913 92bc
00000150: 5e3d 2d3d 8080 d63d 7c5e a8bd 8c09 20bd
00000160: c0ec cc3d 29da 65bd af9f 5abc 50e3 0abe
00000170: c872 56bd 80de 2bbd 00ab 743d 0921 4c3c
00000180: a26e c03d 9b2a 363d 2d31 8bbd d21d a5bd
00000190: 7ad0 2cbd 6748 95bd f481 05bd ac78 90bd
000001a0: bf3c a93d c080 6bbd 1d3e 673d dcfe a1bd
000001b0: a754 76bd 3d07 5ebc e9f6 b83d 5036 72bd
000001c0: 41c5 8bbd 8631 583d 237b 603d e65d 3d3d
000001d0: 4ae2 cebc 51e8 033e fb45 abbd 3bf6 eebc
000001e0: b687 a5bd 3071 b93d b2f7 84bd f334 f3bd
000001f0: 4920 c93c e0eb 873a a9ca 87bd 2295 313d
00000200: f404 26bd a5f6 8bbc bdad 81bd 0a7b 94bc
00000210: 50e2 85bd 981f 1eba 4a64 54bd 0c72 a83d
00000220: 3720 07bd 10ab 803d 34b9 68bd ae2f b63d
00000230: d873 573c e1fd 44bc 5194 1cbd 281d d0bd
00000240: 65ce c33d 4f35 ecbd 7a31 86bd d998 c0bc
00000250: 95b5 913d cd71 92bd b6cf c63c d0d2 07be
00000260: 78dd 8fbd a61a 283d af8e 0c3d 2755 c03d
00000270: 557b 693d af4c 6dbd ddf6 8dbb 93ca b23d
00000280: d396 5fbd 4e10 50bd 4a83 67ba 5556 b53c
00000290: 568b 52bd 6c84 693d d8a2 4abd 339a f83b
000002a0: 60e4 7dbd 7c90 333d 571a 4ebd 8cda 6fbd
000002b0: ca36 ba3d 1c95 a53d ce9e 8d3d 05e1 5b3b
000002c0: fcff d0bc 7531 abbd aacc 1abd 2435 a23d
000002d0: d718 873d f8de 9a3c 331f 513b bc2c 023d
000002e0: 5437 4a3d 8cc4 d3bc 5349 8cbc 36fb d5bc
000002f0: 45b1 7c3d c49b d0bc 6bf9 ac3d ca70 5abd
00000300: 9c95 b9bc 17f9 79bc 0329 88bc 6491 ce3c
00000310: ec3e bc3c f15f 7ebd e8d8 05ba 946c be3d
00000320: 799f cd3b f06a 2a3c aa1c 7abc 365d 823c
00000330: 0a62 a73d 08b8 7f3d 5e1e debd 7f47 0f3d
00000340: c8a1 0d3e 6dcd babd 9d47 9fbc e20e 4e3d
00000350: ff54 b0bd 453c 37be d283 82bd fd96 e139
00000360: 6404 4f3c c749 563c 302e dcbc 044a 6fbd
00000370: 1ec4 a1b9 351b c63d 58bf d53b 6355 a13a
00000380: 443a edbb 7ffd 7abd f777 d2bc 6aa8 6d3b
00000390: 9687 42bc c29a babd a889 9b3c 5861 8b3d
000003a0: 853d 563d 65df 13bd 9f2a b23c a708 b73d
000003b0: 8577 af3d f414 c13d e82a 80ba 3ee1 3fbc
000003c0: 3533 9a3d 546c 723c 6f7d 8fbc 2c36 bd3d
000003d0: ed78 93bd 36d3 62bd ae90 713d 8d30 903d
000003e0: d3b1 423d 9bfc a43d 284f 4bbd 3277 31bd
000003f0: 134a dcbd 6bf5 07bd f9fa 0bbe 46db 3dbe
-0.09034222 0.013662594 0.016911667 0.091645226 0.11518842 -0.13550815 -0.08878392 -0.012771249
0.062041335 -0.08962678 -0.004876383 0.030123774 -0.10793768 -0.10793503 0.07765344 -0.0070859054
0.0810243 0.024907768 -0.11043559 0.07158706 0.10114361 -0.00038133675 -0.0854511 0.034726113
-0.14540786 -0.029954173 0.07003516 0.03177016 -0.03757288 0.02205068 -0.0520265 -0.10673495
-0.061091814 -0.12935059 0.063884735 0.05545944 0.12679006 -0.024826556 -0.10666601 0.05718193
0.10813004 -0.011508421 -0.026879067 0.13400343 0.03355053 -0.09403264 -0.012613787 0.04000269
-0.048797812 -0.051197216 0.0968838 -0.020041792 -0.1192132 0.0023665782 -0.0250408 -0.011855394
0.05627485 -0.022794949 -0.0005558782 -0.05570047 -0.026758762 0.017095232 -0.07628423 0.044342607
0.14503124 -0.0067523555 -0.07724092 0.042242732 0.09051728 -0.013638838 -0.03509214 -0.047701336
0.10292963 -0.01198107 -0.044279084 0.01895453 0.068855695 0.037160464 0.012735328 -0.092677675
-0.03167351 -0.0014749467 -0.03111804 -0.01783173 0.042294852 0.10473728 -0.082211465 -0.039071605
0.10006094 -0.056116257 -0.013343736 -0.13563275 -0.052355558 -0.04196024 0.05973339 0.012459048
0.093961015 0.044474225 -0.06796489 -0.080623284 -0.042191006 -0.072892 -0.032594636 -0.07054266
0.082635395 -0.057495832 0.05645572 -0.07909939 -0.060139325 -0.01355153 0.090314694 -0.059133828
-0.068247326 0.052781604 0.054804932 0.046232127 -0.025254387 0.1288159 -0.08362957 -0.029170146
-0.080825254 0.09054792 -0.06492557 -0.11875334 0.024551528 0.0010369979 -0.06630451 0.043355115
-0.040532067 -0.017085383 -0.06331966 -0.018125076 -0.06537306 -0.00060319295 -0.051853456 0.08224878
-0.032989707 0.062826276 -0.05681725 0.08895813 0.013150178 -0.01202342 -0.038227383 -0.10161811
0.09560851 -0.11533605 -0.06552406 -0.023510383 0.07114712 -0.07150612 0.024268966 -0.13264012
-0.07024664 0.04104104 0.03431576 0.093912415 0.057002384 -0.05793446 -0.004332407 0.08730044
-0.054587197 -0.0507968 -0.0008831514 0.022135893 -0.051402412 0.057011053 -0.049471706 0.0075867414
-0.061985373 0.043838963 -0.05031809 -0.058558032 0.090924814 0.08085081 0.06915055 0.003355087
-0.025512688 -0.083590426 -0.03779284 0.07920292 0.06596535 0.018905148 0.0031909465 0.031780943
0.04936917 -0.025850557 -0.017124807 -0.026120763 0.061692495 -0.0254649 0.0844601 -0.05333022
-0.022654347 -0.015257142 -0.016621118 0.025215812 0.022979222 -0.062103216 -0.0005105869 0.092980534
0.006275114 0.010401472 -0.015265623 0.015913587 0.08172996 0.062431365 -0.10845636 0.034980293
0.13831246 -0.09121213 -0.019443328 0.050307162 -0.08609962 -0.17894085 -0.06372799 0.0004302784
0.012635324 0.013079113 -0.026877493 -0.058420196 -0.00030854432 0.09673158 0.006523054 0.0012308772
-0.007239612 -0.06127691 -0.02569197 0.0036263713 -0.0118731465 -0.09111549 0.018986538 0.06805676
0.052304763 -0.036101718 0.021748839 0.08937197 0.085677184 0.094278246 -0.0009778412 -0.011711417
0.07529298 0.014796335 -0.017515866 0.09238848 -0.07200799 -0.055377208 0.058975868 0.0704051
0.047532868 0.08055993 -0.049636036 -0.043326564 -0.10756316 -0.033193033 -0.13669957 -0.18540677

weight f4 [60, 100]
00000000: 0b72 243c 2fda 9cbc 04eb 1c3d 3be3 2f3d
00000010: 8491 cd3d 06fa c1bc 13e3 eebd b38b d8bd
00000020: e729 3b3e a48a e23c a95f 763d b507 bb3d
00000030: 62fd 923d 446b d9bd 8093 56bd 71f4 7e3b
00000040: 2633 ea3d 6a47 b7bd c588 90bd 5e54 0fbd
00000050: cef2 433c 5c6f eb3d 7af3 1bbd 8558 2bbc
00000060: fa17 7ebd 42ac 63bd 9e33 fcbc 7e3c fbbd
00000070: 5712 7abd 920a b7bc c5f1 6c3c 0c08 99bc
00000080: 9dbf 143d 7daa adbd 5a5e d2ba 279a 8c3c
00000090: aafb 093e 4ac4 b03d 1c0d 663d ef45 6f3c
000000a0: 085c 173d ec32 83bd eef0 18be af13 3e3d
000000b0: 1c1f 67bd cb6c 843d d143 3fbd 284f a0bd
000000c0: 8649 d8bb 69c5 943d e4b8 3dbc d2c6 793c
000000d0: 6665 1cbe 1546 743d f2f6 843d fd7c d5bd
000000e0: 46da 083e 82ab 75bd 5995 5cbd 411e 81bd
000000f0: 3a2e ef3c de67 053e 6a45 d63d 69b4 64bd
00000100: ee5c f23c 55af 6ebc 3cef 643d f8be 663d
00000110: b349 223e 574b 27be 42d0 6cbd a214 2b3d
00000120: e8a0 76bb a40b 1dbd 4ab0 64bc 87bb bebc
00000130: 146a 533d 9793 b5bc 2f52 c9bd 6c13 d0bd
00000140: df51 1e3d 557b bc3c cfa8 b9bd 7e5c 5bbd
00000150: 9be8 053e 5c00 763d 3e29 0b3e a1fd cabd
00000160: 1c71 253c 2dd2 c8bc 89d7 65bd 0cb0 80bd
00000170: e458 f9bc e6cc bc3d 96e7 ca3c f750 77bd
00000180: 092f 13be 0867 53bd 1a3b 2239 2782 873d
00000190: 8bc9 85bd ff8e f53d 0d85 a1bd f6bd 923c
000001a0: ac2d fb3d e24a 0ebe 8ba7 b8bd a62a 6b3c
000001b0: 385c 9a3d 23ce 8abc fbeb 12bc 1ebe f23d
000001c0: 9ccb fbbd 155c e2bd 95bb 32bd 195e 1d3c
000001d0: 9486 4cbc d3d0 84bd d02a 05be 260b b33c
000001e0: c89e be3d 107b 5fbd a834 4dbb eda6 b53b
000001f0: 9138 eb3c 1ce1 3a3d e595 443b c373 8dbd
00000200: 854b ecbd 885b cb3d 8c7b dd3b b568 d3bc
00000210: 65c5 e33d df21 d63c 5dae 2fbd f7a6 0a3e
00000220: 20e9 ef3d 8db0 9d3d bde9 9dbd bbab afbc
00000230: e5d6 fcbc 48f6 d5bc 81a4 cbbd b9ba 013d
00000240: 5191 833c 0597 0abe fc73 863c 4135 c0bd
00000250: 749d e23c 1627 823d 2258 f2bc bf25 0cbe
00000260: 8198 41bd 897b 5d3d 6f27 83bd afbf 99bd
00000270: a24c 203e 7b44 55bc 971c 91bd 5cbe f4bd
00000280: e0aa 343d 3770 06bc 6b16 07bd b041 b83d
00000290: d295 603d fd9a dc3d 613c 553d bdf2 cbbc
000002a0: 205b af3d 83b8 d7bb 18fe 16be e44f 52bb
000002b0: a75d f23d a729 cfbd 59af ffbb 31d3 fe3c
000002c0: af42 e9bc 7906 c93d 7e89 9f3c 1186 84bd
000002d0: cbb5 0bbd 304a 41bd e0ea 02be 6865 d7bd
000002e0: a042 bf3d ba03 e73d 0f2d 2cbd 7be8 28bd
000002f0: dac2 7bbc 0b08 f1bc 6bf0 523d 214f b3bd
00000300: 91db 82bb 8f56 963d ba1d b5bd 62a7 92bd
00000310: fea3 4dbc d5f3 01bd 296c 953d 53f8 4ebd
00000320: 4401 bdbd 56e2 3e39 71f8 ecbd 0ae7 083d
00000330: 61c0 fabc d6d7 c43d e858 aebc 635c 30bd
00000340: 9fc0 403d fd90 98bd 9c70 9c3d fa7f 7fbd
00000350: b091 ddbc 98b0 15bc 92dc 003e 8247 163d
00000360: 35fa babd ad95 c23c c655 90bc 51d6 d6bb
00000370: 33a0 92bd 7a35 21bd 8d92 0e3d 59c1 413a
00000380: 88c6 cc3c 12c3 833d 628d 19bd 44d5 aebc
00000390: a651 c63d 5659 db3d 46b0 c4bd 1536 d23d
000003a0: 4bb4 d6bd b841 eabc 8fa7 84bd 4aed 863a
000003b0: b7f5 ddbc 2f55 123d 101d b7bd 15e3 74bc
000003c0: 8ad6 42bc d3fa 863d aead e23d a622 e2bd
000003d0: 0fcd 6abd 96df 92bc b1c7 ef3c ba63 26bd
000003e0: 3dc3 a0bc 4df3 813c 9743 94bd 7f02 febc
000003f0: 4a41 c83d ce0c c03d c62b 483d 66f3 df3b
0.010036956 -0.019147007 0.038310066 0.042941313 0.100375205 -0.02367879 -0.11664405 -0.105735205
0.18277703 0.027654 0.060149822 0.091323294 0.07177235 -0.106161624 -0.05238676 0.0038903023
0.11435537 -0.08949168 -0.07057337 -0.03499257 0.011959745 0.114958495 -0.038073994 -0.010458116
-0.062034585 -0.0555842 -0.030786332 -0.12267397 -0.061052646 -0.022343908 0.014461939 -0.018680595
0.03631555 -0.08479784 -0.0016049847 0.01716335 0.13474908 0.08631189 0.056164846 0.014604076
0.036953002 -0.06406197 -0.14935657 0.04640549 -0.056426153 0.06466063 -0.046695534 -0.07827598
-0.0066005616 0.072642155 -0.011579726 0.015245156 -0.15273055 0.059637148 0.064924136 -0.1042423
0.13364515 -0.059978016 -0.053853367 -0.063045986 0.029196847 0.13027903 0.104624584 -0.055836115
0.029585328 -0.01456817 0.055892214 0.056334466 0.15848427 -0.16337334 -0.057815798 0.041767724
-0.0037632529 -0.03834118 -0.013958046 -0.02328278 0.051614836 -0.022165103 -0.098301284 -0.101599544
0.038652297 0.023008028 -0.09065401 -0.053555004 0.13077013 0.060058936 0.13589951 -0.09911657
0.010097768 -0.024514282 -0.056113753 -0.06283578 -0.030437894 0.09218769 0.024768632 -0.06037995
-0.14373411 -0.05161193 0.00015471541 0.066166215 -0.06532582 0.11990165 -0.078867055 0.017912846
0.122645706 -0.13895753 -0.09016331 0.01435343 0.075371206 -0.016943997 -0.008967395 0.11852668
-0.12294695 -0.110527195 -0.043635923 0.009604954 -0.012483258 -0.064851426 -0.13004613 0.021855902
0.09307629 -0.05456072 -0.0031311903 0.0055435807 0.028713496 0.045624837 0.002999657 -0.069068454
-0.11537842 0.099295676 0.0067591127 -0.025806764 0.111216344 0.026139198 -0.042890895 0.13540255
0.11714387 0.0769969 -0.07710598 -0.021444192 -0.030864188 -0.026118413 -0.09943486 0.031672213
0.016060503 -0.13534172 0.016412728 -0.093851574 0.02766297 0.06355111 -0.02958304 -0.13686274
-0.04726458 0.05407289 -0.06404006 -0.07507264 0.15654233 -0.013016815 -0.07085531 -0.11950371
0.04410827 -0.008205465 -0.032980364 0.08996904 0.05483038 0.10771749 0.052059535 -0.02489602
0.085623026 -0.006583275 -0.14745367 -0.0032091076 0.11834269 -0.101153664 -0.0078028855 0.031106563
-0.02847418 0.09815688 0.019474741 -0.06470884 -0.03410892 -0.04718989 -0.1278491 -0.105173886
0.093388796 0.11280008 -0.04203516 -0.041237336 -0.01536628 -0.02942278 0.05149881 -0.08755327
-0.0039934595 0.073407285 -0.088435605 -0.07160832 -0.012551306 -0.031726677 0.072960205 -0.05052979
-0.09228757 0.00018204129 -0.11570824 0.03342346 -0.030609312 0.0961148 -0.021282628 -0.043056857
0.047058698 -0.07449529 0.07638666 -0.062377907 -0.027047008 -0.0091363415 0.12584141 0.03668929
-0.091297545 0.023753012 -0.017619025 -0.00655631 -0.07159462 -0.03935764 0.03480773 0.0007391177
0.02499701 0.06433691 -0.03748835 -0.021341927 0.09683542 0.10710399 -0.09603934 0.102642216
-0.10483607 -0.02859579 -0.06477272 0.0010294106 -0.027094705 0.03572577 -0.0894109 -0.014946719
-0.01189197 0.0659081 0.11068283 -0.11041765 -0.057324465 -0.01792888 0.029270025 -0.04062245
-0.019624347 0.015863085 -0.07239454 -0.03100705 0.09778078 0.09377442 0.04886987 0.0068344353

weight f4 [100, 60]
00000000: 2f7c c53d bfc2 243d 9ddb 71bd 006f 1cbe
00000010: a484 363e 9191 c23d 6f99 e53d 8353 37bd
00000020: b9e4 0b3e c8bd e5ba 5032 0abe 0ff5 67bd
00000030: 6a65 2c3c 3cbe 38bb 113a 14be f664 1ebc
00000040: 5773 223e d998 d83d e339 c43c ee00 aebd
00000050: d5a2 813d 2211 213e b2a6 4c3d ae59 05be
00000060: b8fa 253e 3f4d 9abd 0f57 e5bd f594 1dbe
00000070: 547b f4bd 5475 5fbc d142 80bd 8149 ff3d
00000080: 7b5e d9bd 2eff 533d 1851 01bd 702e 743d
00000090: 2c73 a83a c534 79bd 2ba4 8ebd 953d 43bd
000000a0: 5e2e 2ebd fb41 443d f95c 07bb 15e1 043d
000000b0: ce97 22bd 8a29 c73d 2d47 ff3d 7510 c6bd
000000c0: 1e16 a13c 0933 b23d f8ba 10bd c132 113e
000000d0: cc98 b13d ae4b 5bbc 9e91 fb3d 7f74 cbbd
000000e0: 907f 023e 5160 0e3d b60c 8f3d 982f d7bc
000000f0: 1759 bcbd 2069 22be 4699 bebc 776b 47bd
00000100: 28a9 78bd 4cfb c63d e8d2 12be 3381 403e
00000110: 2d18 9abc 025b 8d3d 29a1 d73d 7f32 1abe
00000120: df41 5cbd db46 2dbc 3cc1 8a3d f3a8 ccbd
00000130: 81f6 dcbc 06fa 87bd 5fdd 973d e402 80bb
00000140: 2f4e 023e ff34 6e3d 1fe3 0d3e 38bb 7dbd
00000150: 0e29 fcbd 7506 033e 9cb2 f33d f572 1f3d
00000160: e12d 0c3d ba8a c5bd 8b64 313d 71a2 2dbd
00000170: 1e54 b63d ce7a c73d f5aa 363d 5a1f 85bd
00000180: 4fc8 78bd 3a17 003e 5206 94bd 6b5c 983b
00000190: ca9e db3d 671b 783d dc85 9c3c 6a73 dc3d
000001a0: dbc3 083d 8bb4 623d 69c1 983d 4252 ea3d
000001b0: e0d5 c1bd cfa9 dcbc 6f18 aabc 4e42 16bd
000001c0: 1b51 b4bd 38dc 0e3d 7ed5 3c3d a985 bf3d
000001d0: 75ca 003e 3fe5 2dbd 1692 f7bc 8cc6 603d
000001e0: 76b4 733d 1c45 35bd 725d d3bd a720 00be
000001f0: 956b f33b 23ee 25bc 7564 a13d 455e bebd
00000200: 4319 dd39 216e 83bd 4ab5 e23d 8378 453d
00000210: e807 84bd 0bef 08be 61c3 54bd ac42 9b3d
00000220: 5b4c c5bb 9633 313e a0d2 9c3d d97b 053e
00000230: 6cad a33d bf59 803d 80b2 f8bd 15df b73d
00000240: 6871 1abd 6592 ad3d 5e48 b93c 65e7 c23d
00000250: fa8f 2b3c f906 8dbd 96dc 273c ff9d 2d3e
00000260: d143 88bc 29aa a0bd 26f0 cf3d 7491 023c
00000270: 557a 1b3e 92e3 793d 04aa 113c 0d9d 85bd
00000280: 98ef c1bd e7b9 a73d 169a a7bc 4890 bbbd
00000290: 9730 183d 7976 633b 5889 38be 4437 183e
000002a0: 90b7 643b c9f0 90bd 0340 b0bc b109 17be
000002b0: 987a c1bd 6fd5 5a3d 8d61 28be 4c34 363e
000002c0: 26f6 08be 517a 933b 9a0a b8bd 97df 0e3e
000002d0: 98eb 183d 4716 2a3e 13f0 2f3d b767 f93c
000002e0: 5ad8 c73b 0ca0 c7bd 55b7 ab3d 0727 61be
000002f0: f6ea 133e 956a 193e aa6d 593c d4fe 233e
00000300: 7cc4 a3bd f5f2 aebd 7067 efbd 04e7 dd3d
00000310: 1492 bcbc 8e49 a6bc 0877 16bc 28d4 7fbd
00000320: cf76 e4bc 9ac0 5cbc a921 66bd 352c 863d
00000330: 8f6f 523e 4428 b8bd f2e9 f3bd 7bca 56be
00000340: 2853 553d f7c6 373e 385d 07bd 3bad 1ebd
00000350: 5a5e b6bd 9c89 a83c 9850 183d c9c7 56bd
00000360: 6669 e1bd 0c9d 2a3d 3df5 2cbe 655b b33c
00000370: 7988 273e e3f8 0f3e 65fb 153c df6f b4bd
00000380: 02f4 013e 77f6 88bc 1564 033e 5b97 d9bd
00000390: c2e6 20bc 01eb da3d a75f bd3d afe0 91bd
000003a0: 3fe8 9bbd 868d 7fbd 412f b1bd 6005 2a3e
000003b0: ddf9 b53d 1ca0 9b3d a9a5 873c 919f 993d
000003c0: 5b76 09bd c4de 37be a8a7 dd3d 215b f33d
000003d0: 350a 47be d61b c7bc ee83 b9bd a453 dd3d
000003e0: 26bb b6bd ec4f 343d cf31 9e3d 5908 37be
000003f0: 615d 3c3d a26e ddbd 2c59 c93c 65b4 b0bd
0.09642827 0.040224787 -0.05904733 -0.15276718 0.17824036 0.09500421 0.11210906 -0.044757377
0.1366147 -0.0017527873 -0.13495755 -0.05663019 0.010522226 -0.002818956 -0.14475276 -0.009667626
0.15864311 0.105760284 0.023953384 -0.08496271 0.06329886 0.15729192 0.04996366 -0.13022491
0.16208923 -0.07534265 -0.11198246 -0.15388854 -0.119375855 -0.013638813 -0.06262744 0.12465192
-0.10613724 0.05175703 -0.031571478 0.0596146 0.0012851707 -0.06084134 -0.06964906 -0.04766615
-0.042524688 0.047914486 -0.0020654781 0.032441217 -0.039695553 0.0972472 0.124647476 -0.09671108
0.019663867 0.087011404 -0.035334557 0.14179517 0.08671722 -0.013384743 0.12283634 -0.09934329
0.12743974 0.034759823 0.06984846 -0.026267812 -0.0919668 -0.15860415 -0.023266446 -0.04868647
-0.060708195 0.097159 -0.14338267 0.18799286 -0.018810356 0.06902124 0.10528786 -0.15058325
-0.053773757 -0.010575975 0.06775138 -0.09993162 -0.026973011 -0.06639485 0.0741527 -0.0039065946
0.12725137 0.05815601 0.13856171 -0.061946124 -0.12312518 0.12795432 0.118993014 0.03892799
0.03422344 -0.096456006 0.043308776 -0.042391244 0.08902763 0.0974022 0.04459663 -0.065001205
-0.060737904 0.1250886 -0.07227768 0.004649689 0.10723646 0.060573008 0.019106798 0.10764201
0.033389907 0.05534796 0.07458765 0.11441471 -0.094646215 -0.02693644 -0.020763604 -0.036684327
-0.08804532 0.034877986 0.04610204 0.093516655 0.12577231 -0.042454954 -0.030221026 0.05487685
0.059498273 -0.04425536 -0.10320558 -0.12512456 0.0074285963 -0.010127577 0.07880489 -0.09295324
0.00042171226 -0.0641749 0.110697344 0.048210632 -0.064468205 -0.13372438 -0.05194414 0.07581076
-0.006021065 0.17304835 0.07657361 0.13035525 0.07992062 0.06267118 -0.12143421 0.089780964
-0.03770581 0.08475188 0.022617515 0.09516791 0.010471338 -0.068860956 0.010245463 0.16954802
-0.0166339 -0.078449555 0.101532266 0.007969249 0.15183385 0.061008044 0.008890633 -0.06524096
-0.09469527 0.08189755 -0.020459216 -0.09158379 0.037155714 0.0034708066 -0.18021142 0.14864832
0.003489945 -0.07077176 -0.021514898 -0.1474979 -0.09447211 0.053426202 -0.16443463 0.17793387
-0.13375148 0.0045006652 -0.08986397 0.1395248 0.037334055 0.1661006 0.042953562 0.030444963
0.006098789 -0.097473234 0.08384577 -0.21987544 0.14445099 0.14982064 0.013270775 0.16015178
-0.07996461 -0.08542434 -0.11689651 0.10835078 -0.023018874 -0.020298745 -0.009183653 -0.062458187
-0.027888684 -0.013473654 -0.056184445 0.065514006 0.20550369 -0.08992055 -0.11909856 -0.20975678
0.052081257 0.17946993 -0.033047885 -0.038739424 -0.08904715 0.02057343 0.037186235 -0.052436624
-0.11006431 0.041653678 -0.16890426 0.021894166 0.16360654 0.14059786 0.009154175 -0.088104
0.12690738 -0.016719086 0.12831147 -0.10624572 -0.009820642 0.10689355 0.0924676 -0.07122933
-0.07612657 -0.062390827 -0.08651591 0.16603613 0.08885548 0.07598898 0.016558485 0.07501138
-0.03356014 -0.17956072 0.108229935 0.11882616 -0.19437487 -0.024305265 -0.09058367 0.10806969
-0.089224145 0.044021532 0.07724344 -0.17874278 0.04598749 -0.10812117 0.024578653 -0.086281575

weight f4 [100]
00000000: 6480 7a3f 80a3 893f fb26 803f 38dc 7e3f
00000010: 9c29 833f b85d 833f 9534 843f c97b 813f
00000020: 6d0a 813f 0057 7d3f 23b1 7a3f 2e28 823f
00000030: db9e 743f 74fe 813f e98f 823f 4899 773f
00000040: ff09 813f fc6c 793f a5a0 853f 7ccf 7c3f
00000050: 9f99 833f ab5a 853f 884a 7f3f d248 793f
00000060: a229 803f 82f4 843f be27 823f b510 7c3f
00000070: adeb 813f 7089 893f 07c6 783f 15aa 783f
00000080: c47c 7c3f adf7 7d3f 7b6e 833f 49db 823f
00000090: a2d2 803f f850 813f 4f88 803f 0a42 833f
000000a0: d02a 7e3f 9eb1 823f e179 853f 5eff 7c3f
000000b0: 3117 803f b10b 7f3f 84ab 823f ebd2 793f
000000c0: 8cb2 7c3f 3b43 803f 97ac 793f 8587 853f
000000d0: 974c 7c3f 53a3 853f 42b9 813f 1969 893f
000000e0: 597f 7f3f e249 7e3f 682b 803f 4c31 843f
000000f0: 8a1a 7d3f 339f 803f 802b 803f 75ba 7c3f
00000100: 8992 863f 6fb7 6f3f a94b 853f 7342 773f
00000110: f021 7d3f 0d84 7f3f bd5f 803f 8cf4 823f
00000120: a928 773f 4876 723f 0d9d 833f d9ec 783f
00000130: 92fa 803f 0fe6 833f 6da5 813f 4c03 793f
00000140: ca01 813f 3021 803f 902a 783f 8f09 7d3f
00000150: 8183 753f ce6a 813f c718 803f 7e78 833f
00000160: 8dd9 7a3f 511a 7e3f c7a0 7c3f 8816 733f
00000170: e021 813f 3846 793f 46d2 803f 07c2 7e3f
00000180: 2cfe 7f3f d549 763f 8be2 723f 3836 7a3f
0.9785216 1.0753021 1.0011896 0.9955478 1.0247073 1.0262976 1.0328547 1.0115901
1.0081307 0.98960876 0.9792654 1.0168512 0.95554894 1.0155778 1.0200168 0.96718264
1.0081176 0.9743192 1.043965 0.98754096 1.0281256 1.0418295 0.997231 0.9737674
1.0012705 1.0387118 1.0168378 0.9846299 1.0150048 1.0745068 0.97177166 0.97134525
0.9862788 0.9920605 1.0268091 1.022317 1.006428 1.0102835 1.0041598 1.0254529
0.99284077 1.0210454 1.042782 0.9882716 1.0007077 0.99627215 1.0208592 0.9758746
0.9870994 1.0020517 0.97528976 1.0431982 0.98554367 1.0440468 1.0134661 1.0735198
0.9980369 0.99331486 1.0013247 1.0327544 0.9886862 1.0048584 1.0013275 0.9872201
1.0513469 0.9363927 1.0413715 0.9658577 0.9887991 0.9981087 1.0029217 1.023088
0.9654642 0.9471173 1.0282303 0.972364 1.0076468 1.0304583 1.0128609 0.97270656
1.0078671 1.0010128 0.96939945 0.9884271 0.95903784 1.0110719 1.0007561 1.0271146
0.97988206 0.99258906 0.98682827 0.94956255 1.0088463 0.9737277 1.006417 0.9951481
0.9999721 0.9620641 0.9487693 0.9773898

bias f4 [100]
00000000: c2b5 6abd 7d47 253d 18fe 9d3c 2abb 86bc
00000010: 2a24 723c b180 933c c4dd 2c3a 77c3 873d
00000020: 6874 6cbd 4c4f 30bd c4ec 75bd 9bcf 32bc
00000030: 620e 943d 6f3c d33c a16d 6d3d f84b 5e3d
00000040: e597 97bc ed68 11bd 33cc 9e3c 85e4 14bd
00000050: bb56 843c ed06 8dbd a08b aa3c cd99 8abd
00000060: 639b 623d 0577 68bd 58a1 12bc 9388 473d
00000070: c591 c3bc bdcd 5cbd 5a63 1dbd 20ed 743d
00000080: 428b 9abd acbd 7c3c d8bd 56bd 101b 0cbd
00000090: 9dc1 163c 9290 2abd f6f1 8b3d ee0e 3fbd
000000a0: ce78 23bd 4c95 203c bd32 4f3d 7dc0 85bd
000000b0: a92b 913d bc4b 393d dfdb 193d 8c5e e8bc
000000c0: 6873 a5bc 80f6 e03c 76a5 7f3c 3e9d b73c
000000d0: 6c7b 61bb fc1f 3b3d e7c9 3bbd a54f e43b
000000e0: ec35 75bd 134f 94bb cdac 793d a8cd 063c
000000f0: d21c b93d 71de 92bd 4604 b13c d675 6ebd
00000100: 20a3 95bc 5167 61bd 19d9 103d dcaf 6c3d
00000110: c14d a9bc a44f 4c3d 2fbc 493d 029b a0bc
00000120: 4a65 fcbc 490b 203d 241f 65bc 0f07 c5bc
00000130: ee59 ccbc e7b2 4a3d eb86 5c3d 6c2d 913c
00000140: b2f7 bebc 7d79 0fbd 24a9 003d e5bc db3c
00000150: 4951 33bd 1edd 84bd 55e5 79bc 4306 56bb
00000160: 3c1f babc ee04 b73b 30ea 743d c920 f3b9
00000170: b0b5 fc3c b391 67bd 2b50 2dbd 7c51 8d3c
00000180: 47f8 933c 3c26 443d 8e89 803d 15d5 1fbc
-0.057302244 0.04035138 0.0192862 -0.016446669 0.01477913 0.0180057 0.0006594325 0.06629079
-0.0577282 -0.043044373 -0.06004025 -0.010913755 0.07229306 0.025785653 0.05796588 0.05427167
-0.018505046 -0.035500456 0.01938448 -0.036350746 0.016154638 -0.068860866 0.020818532 -0.067676164
0.05532397 -0.05675413 -0.0089496 0.04871423 -0.02387322 -0.053907145 -0.038424827 0.059796453
-0.075460926 0.015426081 -0.052427143 -0.034205496 0.009201434 -0.04164178 0.0683326 -0.046645097
-0.03991013 0.00980122 0.050585497 -0.06530855 0.07088406 0.04523824 0.0375632 -0.028365396
-0.020196632 0.02746129 0.015603414 0.022413846 -0.003440584 0.0456848 -0.045846846 0.006967502
-0.059865877 -0.004526028 0.06095581 0.008227743 0.090387 -0.071713336 0.021608483 -0.058217846
-0.01826626 -0.05503017 0.03536329 0.0577849 -0.020666959 0.04988064 0.04925173 -0.019605163
-0.030810017 0.039073262 -0.013984475 -0.024051217 -0.024945226 0.04948702 0.053839605 0.017721854
-0.02331147 -0.03502797 0.031411305 0.02682347 -0.04377869 -0.06487487 -0.015252431 -0.003265754
-0.022719972 0.0055853045 0.05979365 -0.00046373 0.030848354 -0.056535434 -0.042312782 0.017250769
0.018062724 0.047888026 0.062762365 -0.009755393

running_mean f4 [100]
00000000: 01f9 c33f 43db fdbf aa27 98be f73f 6840
00000010: 2b18 b6bf 4df7 33c0 cc1a a03f cd2e 2bc0
00000020: 0c6b 8740 4833 ab3f e1d8 823f 906d ce3e
00000030: e598 21c0 4210 fabf 7af4 08c0 8e45 a3bf
00000040: 9363 5d40 cc2f cdbe e794 11c0 325f fe3f
00000050: 45db 18bd 399f 8740 d549 f4bf 5768 0640
00000060: 05b6 1cbf 0dcc 6140 2a28 b13f be8e 2a3f
00000070: 89f1 e7bf f3ef 333f 9ec9 af3f 3ad6 93bf
00000080: ece6 0340 3859 1e40 f628 2540 5ea8 4e3f
00000090: 5f63 c7be b0c0 1b40 2bdc 0cc0 32ff c03f
000000a0: 9419 a03f 518c 17c0 0a59 21c0 d894 bc3f
000000b0: 3a5d c8bf 8acd 32bf bc9c 12c0 6747 893f
000000c0: c4e9 c93e 73da 0ac0 e516 0bc0 13c1 bfbf
000000d0: 160f c83f ba39 ffbf 6eb0 ed3f c5be 85be
000000e0: 503c 3f3f 5cd3 8d3f e1e1 c5bf fe1b 8cbe
000000f0: 46ba 6cbf 9d3c a240 8218 a6bf 276e d53f
00000100: 1171 2c40 4a7c c23f de25 15c0 fbda 06c0
00000110: c007 b53f 23cc 18bf 177d dabf 6c14 923e
00000120: c9bc dfbe 3493 63bf 860e a63f 2950 29be
00000130: e0c5 013f b8fe fcbf b566 1bc0 ca1f ffbf
00000140: 8bff dd3f 7596 e83f fdbc 0dc0 b6fa f2be
00000150: b065 f13e ce55 1440 0daf c4be d4e7 4740
00000160: 69b4 9a3e 1883 a9be 5bdc 23c0 4f42 ecbd
00000170: 8b11 71c0 cfed 4040 d077 d93f 8d83 debf
00000180: f33e 75bf 69e5 ae3f 1590 dfbf b11e 22c0
1.5310365 -1.9832538 -0.2971776 3.628904 -1.4226125 -2.811969 1.2508178 -2.6747315
4.2318172 1.3375025 1.0222436 0.40317965 -2.524957 -1.9536211 -2.1399217 -1.2755601
3.4592025 -0.4007553 -2.2747133 1.9872801 -0.037318487 4.2381864 -1.9085032 2.1001184
-0.6121524 3.5280793 1.3840382 0.6662406 -1.8120586 0.7028801 1.3733404 -1.1549752
2.0609694 2.4741955 2.580625 0.8072566 -0.38943002 2.4336357 -2.200938 1.507788
1.2507806 -2.3679392 -2.5210595 1.4732924 -1.565345 -0.6984488 -2.2908163 1.0724915
0.39436162 -2.169583 -2.1732724 -1.4980797 1.5629604 -1.9939492 1.8569467 -0.26122108
0.74701405 1.1080127 -1.5459558 -0.27365106 -0.9247173 5.069899 -1.2976229 1.6674241
2.694401 1.519418 -2.3304362 -2.1071155 1.414299 -0.5968649 -1.7069424 0.28531206
-0.4369872 -0.8889649 1.2973182 -0.16534485 0.5069256 -1.9765234 -2.4281437 -1.9931576
1.734361 1.8170916 -2.21466 -0.47456902 0.47147894 2.317737 -0.38414803 3.1235247
0.30215767 -0.3310783 -2.5603244 -0.11536085 -3.7666957 3.0145147 1.6989689 -1.7383896
-0.9579918 1.366376 -1.7465845 -2.5331233

running_var f4 [100]
00000000: 1c4f 6e40 ea91 863f 6d92 f840 39b2 4b40
00000010: 69ad 7d3f 5144 3440 647b 993f 803b 2940
00000020: 0dab 5c40 66fb 2840 2244 da40 2d19 f33f
00000030: 3986 c840 12c8 3940 7b12 a540 18fb a840
00000040: 5578 6440 d5bf 7b3f 8cc7 9740 6582 8140
00000050: 5fd6 fd3f a8ce 4e40 4c9b c240 0db3 8340
00000060: a1a1 a140 7d28 fc3f 0bf2 e240 6e99 a13f
00000070: 7093 5640 8588 8f3f 8018 1840 797a b540
00000080: ab0c 9840 b798 1b40 52d4 d73f 6916 8640
00000090: a36e 8c3f b59c 3540 c607 ca40 7d76 0e40
000000a0: 71d0 8b40 c700 b440 e979 c63f 0cc1 dc3f
000000b0: b462 f93f 71a9 7d40 e8e7 6840 da53 7240
000000c0: e766 3b40 a84d f440 58d3 9640 a34a 0740
000000d0: c932 7e40 664c 1840 228c 3640 3382 8c3f
000000e0: 4f40 1240 65fd 2340 f0bd 0840 1e40 cc3f
000000f0: f00d 8440 38cb bf40 498a 3240 8f9c 8b40
00000100: cf84 3840 3538 3940 848e 2640 a213 0b40
00000110: 8f6e 6940 5c54 e93f 4cf5 4740 46c4 5640
00000120: d8ab 5440 b493 4040 09e9 1e40 ad86 c840
00000130: d2b2 db3f 9ef9 2140 487f 5340 c117 c840
00000140: 72a0 7f40 0bd2 0e41 d94a 4140 1aec 0640
00000150: 6dbb 5440 cc08 7940 eba9 4840 e925 9040
00000160: 281b 9d40 03f0 4d40 ee0c 9e40 132e dc3f
00000170: 0ff9 7640 0844 0d40 ce59 4340 1f0e 2840
00000180: e610 da3f d982 4a40 c7ab f140 65ca 2940
3.7235785 1.051328 7.7678742 3.1827528 0.9909273 2.8166697 1.1990781 2.6442566
3.44794 2.6403441 6.820817 1.8992058 6.2663846 2.9028363 5.158506 5.280651
3.5698445 0.9833959 4.7431087 4.0471673 1.9831046 3.2313633 6.081457 4.115607
5.05098 1.9699856 7.0920463 1.2624948 3.3527489 1.1213537 2.3764954 5.6712003
4.7515464 2.431196 1.686167 4.1902356 1.0971264 2.8376896 6.313449 2.225982
4.3691945 5.625095 1.5505954 1.7246413 1.9483247 3.963467 3.6391544 3.786368
2.9281557 7.6344795 4.713299 2.1139305 3.9718497 2.379663 2.852303 1.0977234
2.285175 2.562341 2.1365929 1.5957067 4.1267014 5.993557 2.7896903 4.362861
2.883106 2.8940556 2.6024485 2.1730733 3.647373 1.822887 3.1243467 3.3557296
3.3229885 3.009015 2.4829733 6.26644 1.7163947 2.5308604 3.3046436 6.2528996
3.9941678 8.92628 3.0201933 2.1081605 3.3239396 3.891162 3.135371 4.5046277
4.909565 3.2177742 4.9390783 1.7201561 3.8589513 2.2072773 3.0523562 2.625862
1.7036407 3.1642363 7.552219 2.6529782

weight f4 [256, 100]
00000000: 6260 ab3d 2dbc c0bd f120 37bd aa0f eb3d
00000010: 2534 abbd 3195 6dbd c0bc c1bd cc59 a83d
00000020: 0f29 7bbd 9ce6 88bd 4c4b bbbd a047 a33d
00000030: 327a a9bc 287f 58bb fa64 bd3d 057f ca3b
00000040: a036 cd3b 5f66 ab3c c748 e9bd 66e6 d73d
00000050: 20d4 abbd 52c0 cb3d b31c 043d 2155 7b3d
00000060: b65f 233d b2d5 14bd fe73 e73d 8930 753d
00000070: f4cd 1ebd a657 adbc bde1 ca3d 3fc3 afbd
00000080: 8336 b23d c219 853d 3ee7 b9bd e9d9 4d3d
00000090: ed75 b53d d7e6 25bd 4b60 b3bd 2fc6 b63c
000000a0: cf8c 363d db3e 9dbb e72c 043d fb43 c93d
000000b0: f273 8dbd 4674 853c 27b0 9fbd 0fcd d5bd
000000c0: a0e5 a03c a7e6 b83c 5661 523d d217 ebbd
000000d0: 96d9 fdbd c293 7f3d 94cb 32bb ab06 36bd
000000e0: eb3b 333d 7eb1 e0bc e91a c8bd 0853 0c3d
000000f0: e49c 74bc b58d 2f3d ded0 26bc de90 153d
00000100: b243 9bb9 07e7 1b3d 918c dd3b b990 a13d
00000110: c738 3dbc 8102 333d 566b 773d aba0 b33c
00000120: 6f17 033d 0cb3 96bc 22a5 aabd b9ee 243d
00000130: 3bce debc 7085 fbbc b464 b13d 2ea3 85bd
00000140: 449d 4a3d db5d 9d3d 025f 86bd a698 83bd
00000150: 4fcb c23d 1fb5 f3bc 3fee 62bd 5bfa 0fbd
00000160: a9f2 07bd 0954 82bc 5dd1 893c 07ff ea3d
00000170: b2b2 183d ca38 94bd a574 36bd ebf2 68bd
00000180: 60f8 563d c26f 193d bda0 933d d3ce 483d
00000190: 3f00 54bd 2233 c93d 90dc 9fbc 67e1 8e3d
000001a0: 4493 833d d414 8dbd 2746 f0bd a960 b8bd
000001b0: c056 8f3c 5f3c 153d b2a5 1bbd d3ff 493d
000001c0: 1046 2a3d c2ca 54bd c14b 7bbd bbde 803d
000001d0: 7b53 4ebd 4a16 1d3d 06cb 453b 4696 15bd
000001e0: 6fb1 f0bc 50aa 19bd 5734 573c 2bb3 b23b
000001f0: 5a73 e43d c986 883c eace 933b d32e 9dbd
00000200: c579 ccbd 3ccc eabc ee6d 49bc a710 513d
00000210: bd6a 8c3c 52aa 0ebc f6e1 49bd a6ca c43d
00000220: ba1c a73d 794a fe3d a811 ef3d a1bd 3ebd
00000230: 77f4 86bd 5c4c 373d 57e0 c0bb a8e0 d23d
00000240: 8078 a0bd 410d a23c e737 adbc dee5 dabc
00000250: d0ec 4b3c df80 fdbc afbb 583d 96bb ccbd
00000260: 328f 8f3d a1b2 833d 5cfb cabd f80c 05be
00000270: 87ff 603b da12 91bd d2f6 7f3c 6ce6 73bc
00000280: 3fb2 8a3d c506 23bd 5f6e 68bc f9f7 123d
00000290: 4432 ffbc 57d9 643d 8d0a 88bd 1f05 213d
000002a0: aafb 2c3d 0e27 d9bd b748 b5bc d557 b93d
000002b0: 1ac3 17bd 8e1c 7bbd 7c9f 413d 0632 ac3d
000002c0: 8d13 573c b22b 87bd 06c9 0b3d 1b44 a03d
000002d0: 55e0 5fbd 7928 86bc 88a7 4139 ce3a d43c
000002e0: be75 7dbd 0488 f43b 7f84 9f3c 9077 933d
000002f0: 4676 a23c 0120 49bd b9b4 98bd fa25 23ba
00000300: d51a d5bc 487b d7bc dac9 e2bc eb57 76bc
00000310: dca4 b9bc 03fb 893d 6c52 e93b 1a79 c5bd
00000320: 1fae 893d aa2c 173e 1bf0 37bd bc98 f13c
00000330: 1bb4 35bd 8a64 dbbd 0ffe a83d 7d3a 2b3d
00000340: 94e1 db3c 95ae eabc 5546 3c3c d91d 343c
00000350: b900 8abd 4890 5b3d 450f 1e3d d0db 403d
00000360: 4652 bbbd 4783 aebc 2b7c ad3c c76d ef3c
00000370: a34e 57bd 1d3c a03c 8303 843d cb94 a13d
00000380: 7c10 c13d f614 d73b 2189 a23d ca38 913c
00000390: ddef 4dbc d423 863d f4b7 823d cc95 593c
000003a0: 99c7 1c3c 1ce9 ab3d 4073 aabd a7ea a5bd
000003b0: 3ea4 e2bd 7e69 5e3d b8d7 f03c 3b6b 31bc
000003c0: d157 6f3d db8b 3d3b 3efa 27bd 9b75 933d
000003d0: a9ab 3dbd ac3d a6bd 7937 84bc e1f9 9bbd
000003e0: e774 8f3d b33e adbd 0a23 a83d e40e 9d3d
000003f0: 205c 3d3d a708 853d b02d 80bd 176a a53c
0.08367993 -0.09410892 -0.04470915 0.11477597 -0.08359555 -0.05800361 -0.09459829 0.082202524
-0.061318453 -0.0668461 -0.09145221 0.07972646 -0.02068815 -0.0033034775 0.092477754 0.0061796927
0.0062626153 0.020922838 -0.11390834 0.10541992 -0.08390069 0.099487916 0.032253932 0.061360482
0.0398862 -0.03633661 0.11301421 0.05986074 -0.03877063 -0.021159958 0.099063374 -0.08582162
0.087018035 0.064990535 -0.09077309 0.050256643 0.08860383 -0.04050335 -0.08758601 0.022311298
0.04456788 -0.0047987527 0.032269385 0.09827419 -0.069068804 0.016290795 -0.0779727 -0.104395024
0.019640744 0.022570921 0.051362358 -0.11479153 -0.12395017 0.062396772 -0.0027281987 -0.044439953
0.043758314 -0.027428385 -0.09770758 0.034258872 -0.014929984 0.04285975 -0.010181634 0.03651511
-0.0002961434 0.03806212 0.0067611416 0.07888932 -0.011549181 0.04370356 0.060405098 0.021927198
0.03200477 -0.018395923 -0.08332278 0.040266726 -0.027197948 -0.030703276 0.08661786 -0.06525265
0.049466386 0.07683917 -0.0656109 -0.064256 0.09511434 -0.029749451 -0.05540299 -0.035150867
-0.033190403 -0.015909212 0.016823465 0.11474424 0.037279792 -0.07237394 -0.044544835 -0.05687229
0.052482963 0.037460096 0.07208393 0.049025368 -0.051758047 0.09824206 -0.019514352 0.06976586
0.06424573 -0.06888738 -0.117321305 -0.090028115 0.01749742 0.036434527 -0.037999816 0.04931624
0.041570723 -0.051951177 -0.06135154 0.062924825 -0.050372582 0.038351335 0.0030180826 -0.036520265
-0.029381482 -0.03751594 0.013135037 0.0054534874 0.11154814 0.016665833 0.00451075 -0.07674947
-0.09984163 -0.02866184 -0.012294276 0.05104127 0.01714074 -0.0087076 -0.04928776 0.096089646
0.08159776 0.12416548 0.116732895 -0.046567563 -0.06589597 0.044750556 -0.0058861184 0.10296756
-0.078354836 0.01978171 -0.02114482 -0.026720937 0.012446597 -0.03094524 0.052913364 -0.09996717
0.07009734 0.06430555 -0.09911224 -0.12993228 0.0034331994 -0.07083674 0.015622811 -0.01488648
0.06772279 -0.039801378 -0.014186471 0.035881016 -0.031151898 0.055871334 -0.066426374 0.039311524
0.042232193 -0.10603152 -0.0221294 0.09049956 -0.037051298 -0.06130653 0.047271237 0.08407979
0.01312722 -0.06600131 0.034127258 0.0782549 -0.0546573 -0.01637672 0.00018468325 0.025906947
-0.061879866 0.0074625034 0.019472359 0.07200539 0.019831788 -0.049102787 -0.07456345 -0.00062236155
-0.026013771 -0.026303902 -0.027684141 -0.01503561 -0.022661619 0.0673733 0.007120421 -0.09642239
0.06722664 0.14763132 -0.044906717 0.029491775 -0.044361215 -0.10712536 0.08251583 0.041803826
0.026840962 -0.0286477 0.011491378 0.010993444 -0.06738419 0.053604394 0.03858878 0.04708463
-0.09146552 -0.021302832 0.021177372 0.02922715 -0.05256523 0.019559914 0.06445982 0.07889708
0.09426972 0.006563778 0.079363115 0.017727274 -0.012569395 0.065498024 0.063827425 0.013280343
0.009569072 0.083940715 -0.083227634 -0.08101397 -0.11066483 0.054299824 0.029399738 -0.010828788
0.058433358 0.0028922472 -0.041010134 0.07200166 -0.046306286 -0.08117232 -0.016139733 -0.0761602
0.07004719 -0.084592246 0.08209808 0.07668856 0.046230435 0.06495791 -0.06258714 0.02019219
