transformer_results_random_no_constants_no_param_tune/performance_prediction/DE-GA-ES-PSO_random_no_constants_dim_3_samples_50_fold_8_budget_50_n_heads_2_n_layers_1_d_model_100_d_k_30_d_v_30_aggregations_mean/trained_model.pt (torch, 342201 bytes, 22 tensors)

weight f4 [100, 4]
00000000: b670 af3e e043 563e 780f 4d3e 5f61 9b3e
00000010: 2781 a93e 663c 693e fa07 94be e62d c9bc
00000020: 01ce 08be 188c 80bd e9e6 adbd 1c41 3fbe
00000030: f20c c03e 87ff 9e3e a18e 643d b738 1bbe
00000040: ffd1 c03e f3b0 973e 376a 353e ee36 2ebf
00000050: e47f ce3c 1ed4 9dbd c994 9bbe 3c85 d9be
00000060: 5847 a43e 2fed b1bd a72a 013b 89b6 c6be
00000070: e2cb 6d3c 6800 c53e 7afa d03e 71a9 54be
00000080: 0528 653d c46a 80be 9f14 1d3e 49f5 033f
00000090: c435 0dbe 99fd 9fbe 2a79 883d 8582 1c3c
000000a0: e2eb 523d da37 aabd 7523 893d 9648 b43d
000000b0: 7b2e 53be 0f22 a3bc 69e5 cb3e 7e88 bb3e
000000c0: d989 aabe d173 7bbd fca9 76be 4492 f1be
000000d0: c47a 993e 58fe f1be 817d 6f3e 2672 10bf
000000e0: d280 adbe c185 6bbe c9c2 eb3e 332d d53d
000000f0: 8add 38be 3a24 e53e 6104 9abe d566 e63e
00000100: d911 2abe cc9c d73e f236 263d ca26 20bf
00000110: f5f6 d63e f585 9ebe 3e9a f43c c5ad ecbe
00000120: af27 5e3c 4f3b 58be e90b 993e 7440 dbbe
00000130: 9257 213d de4e d33e 781f e8bc 70dc 04bf
00000140: 235e b63e e87e 623e 573e f83b 469f fbbe
00000150: 228d 62bc ac2d 6a3c ba5d b13c 2f7b 8b3e
00000160: 3581 3abe c64d ae3e 048c cfbe a7a6 79be
00000170: ec32 8fbe 38b3 3dbe 25bb a43d 2452 db3c
00000180: d301 26be 4e03 4b3e 2d88 b6be 2157 223f
00000190: 607b c83c 7ecb 333e 6043 6f3e 88f7 d73e
000001a0: f57d eb3e bbdf 6cbd 5d9b 0d3e 96e4 203f
000001b0: 3995 e43e ed67 e83c 0b1a 96bd 483a 633e
000001c0: 21e9 d53d 4e57 653e 933a b7be c7bb 0c3e
000001d0: 35d2 4b3d dbe9 893e f0d6 be3b 9497 d43e
000001e0: d4a0 693e c10c 3bbe 4690 9b3e 34b2 813e
000001f0: 2244 de3d ae8e b5be c8a7 e3bd 55fb 393e
00000200: fbf5 bd3e 3f8e f93c ad00 313e 8cbe 56be
00000210: 389a d0be 62ee edbd d898 adbd 00b1 103e
00000220: 20bb a43e b14e 4e3e 775b 863e 45d3 003f
00000230: 3fe0 dc3e a6d0 903e 4614 4cbe f95f 17bf
00000240: d3f4 3c3e bfdc d3be 7d69 8e3e 3d6f 083f
00000250: dbcb 093e 522a a0be 6ba9 97be 22d8 623e
00000260: 97a3 3d3c 0038 463e 4f24 dabe 3dfd cebe
00000270: 834b dbbe 85c8 8dbe c42d 2cbe af2a 99bd
00000280: 0759 ebbd 9d64 28be dc0b a93e cf47 efbe
00000290: 9f98 d43e 1d5b 80be 8f8c 703e b89f 083e
000002a0: 416c ba3e 8798 be3e 3def 34be afc9 203f
000002b0: 2bb4 dbbe 7c40 91be cd58 b4be dabf d8be
000002c0: 9311 7f3e fee2 bcbe f09c ddbe d2ef 2c3f
000002d0: 2289 72be 39da 993c 2263 463e cf25 873d
000002e0: a18c 8b3d f334 bd3e aef1 a93e c7bb 0d3e
000002f0: 5dba 85be a145 d33e 7d09 ec3e 119e 073f
00000300: c447 d8be c58c cebe f086 70be 487a f9bd
00000310: 2815 70be d90b 49be be7c f23e 0c8a d2bc
00000320: 855e a63d 0c1a 80be aa66 a03e 33f4 0dbf
00000330: da1f d4be 6344 78be 924f 6bbe 2a4e a73e
00000340: 8cfa 9abd 986f cf3e 870b 343e 36a4 6c3e
00000350: 1b3c ab3e d741 933e 4777 a8be 22f5 a2be
00000360: 20ec 45be 28ae 51be 7eb3 f83e bfaa 0e3f
00000370: 4451 51be 7097 55be d17b ebbe d07f 8f3e
00000380: 6c96 d63e 1ee1 a5be 2168 cb3e 5cb6 e0be
00000390: 3fdb 65be 36b8 f5bd ab43 b03e 5001 1f3f
000003a0: 9483 1e3e 4da3 f5bd 0f52 96be 6d1a 0a3e
000003b0: a967 5cbe c213 953e 8eba 8bbe efe0 09be
000003c0: 384b c8be 35cb eabd affc 7bbe f8d4 0abf
000003d0: 2a92 2c3e 2792 3cbe bbb2 7dbe b80a c03e
000003e0: 20f9 823e d18d bcbe 2efb df3e f641 c13e
000003f0: 2f9f 603a be21 863e 7ab5 043e 7472 1cbf
0.3426568 0.2092433 0.20025432 0.30347726 0.33106348 0.22776946 -0.28912336 -0.024558019
-0.13359834 -0.06276721 -0.08491308 -0.18677181 0.37509876 0.31054327 0.055800084 -0.15158354
0.37660214 0.2962719 0.17716299 -0.68052566 0.025207467 -0.07706474 -0.30386952 -0.42484462
0.3208568 -0.08687817 0.001970926 -0.38811138 0.0145139415 0.38476872 0.40816098 -0.20767762
0.05594637 -0.25081456 0.15339898 0.5154615 -0.13790041 -0.31248167 0.06663735 0.009552603
0.051494487 -0.08311434 0.06696216 0.08802907 -0.206232 -0.019913701 0.39823464 0.36627573
-0.33308294 -0.061389748 -0.24088281 -0.47181904 0.29976475 -0.4726436 0.2338772 -0.56424177
-0.33887345 -0.23000242 0.46047047 0.10409012 -0.1805326 0.447542 -0.30081466 0.4500033
-0.16608371 0.42111814 0.040579744 -0.6255919 0.41985288 -0.30961576 0.029858705 -0.46226326
0.013559266 -0.21116374 0.298919 -0.4282261 0.039390154 0.41271108 -0.028335318 -0.5189886
0.35618696 0.22118723 0.007575791 -0.49144953 -0.013827594 0.014293116 0.021651138 0.2724242
-0.18213351 0.3404371 -0.4053651 -0.24379979 -0.27968538 -0.18525398 0.080435075 0.026772566
-0.16211633 0.1982548 -0.3565077 0.634142 0.024472892 0.17558095 0.23365545 0.4218104
0.45994535 -0.057830554 0.13828798 0.62848794 0.44645098 0.028369868 -0.07329186 0.22190201
0.104448564 0.22396585 -0.35786876 0.13743506 0.049761016 0.2693623 0.0058239624 0.41521895
0.22815257 -0.18266584 0.3038351 0.2533127 0.10852839 -0.35460418 -0.11115986 0.18162282
0.3710173 0.030463336 0.17285414 -0.20971125 -0.4074266 -0.116177335 -0.08476418 0.1413002
0.32174015 0.20147206 0.26241657 0.5032237 0.43139836 0.28284186 -0.19929609 -0.5913082
0.18452768 -0.41379353 0.27814856 0.53294736 0.13456671 -0.31282288 -0.29621443 0.2215276
0.011574647 0.193573 -0.42605826 -0.4042758 -0.42831048 -0.27692047 -0.16814333 -0.074788444
-0.1149159 -0.16444631 0.3301686 -0.46734473 0.4152269 -0.25069514 0.23491119 0.13342178
0.36410716 0.37225744 -0.17669387 0.62807745 -0.42910895 -0.2836951 -0.35224 -0.4233387
0.24909048 -0.3689193 -0.43283796 0.67553437 -0.23685125 0.018780814 0.19373754 0.06599008
0.06813932 0.3695446 0.331922 0.13841163 -0.26118746 0.4126406 0.4610099 0.52975565
-0.42242253 -0.40341774 -0.23488975 -0.121815264 -0.2344557 -0.19633426 0.47360796 -0.025700592
0.08123497 -0.25019872 0.31328326 -0.55450743 -0.4143055 -0.24244837 -0.22979572 0.32676822
-0.07567319 0.40514827 0.17582522 0.23109517 0.33444294 0.2876117 -0.329035 -0.31827646
-0.19328356 -0.20476592 0.48574442 0.5572929 -0.20441157 -0.2085855 -0.45992902 0.280272
0.41911638 -0.32398313 0.39727882 -0.4388913 -0.22446917 -0.11998026 0.34426627 0.6211138
0.1547988 -0.11994038 -0.2935948 0.13486643 -0.21523918 0.29116637 -0.27290767 -0.13464712
-0.39119887 -0.1146454 -0.2460811 -0.54231215 0.16852632 -0.18415128 -0.24775212 0.37508178
0.25580692 -0.36826947 0.43746322 0.37745637 0.0008568642 0.26197618 0.12959853 -0.6111214

bias f4 [100]
00000000: 5dba 62be fc6e 913e be38 14bd 099d ae3e
00000010: e6a3 803e 8f1b a1bd 6ad6 583e 2758 c03e
00000020: ce3b 963e a91e d6bc 525e eabe ffd1 be3e
00000030: fb44 2f3d a120 28be 7bd2 04bf 28f4 a43e
00000040: 6f44 d8be 24d1 a4be 8a4d 31bd 84fd 16be
00000050: 60e2 90be 920c dcbe 48dd 023e a654 91be
00000060: f6ee 95be 3864 003e 1002 eb3e 6762 1cbe
00000070: 31ce 943c da8a dc3e 8253 c3be 34ae 52be
00000080: 78cb b63e 5ff7 a93d eb5b 753e 7b11 88be
00000090: 6965 433d a73c e6be 2467 54bd 8bf4 bb3e
000000a0: 5ceb 003f 4140 a0bc 4f22 eabd b3cc da3e
000000b0: 9bcd 3e3e 72aa a7be d2ec c0be e0f0 f63d
000000c0: f5ad 46be fbc4 a93e d4c3 d1be c6c4 853e
000000d0: 5981 ddbe f172 8dbe 8d61 7bbe d976 f9be
000000e0: 8bc7 fd3e 86af 323e 11c8 993d 7f65 0f3e
000000f0: 46fd b73e 02e1 213d 468a 82bd 44fe f33e
00000100: 0f19 84be 3447 8a3e 5e60 693e 8310 acbe
00000110: 25ab c0bd 35a0 fbbe 0eed 5ebe 9d1a a4be
00000120: 09fa a6be 5395 5dbe 3184 723e acd5 edbc
00000130: 9ad7 fe3e d32e 39bd 3d82 aa3c 9606 75bd
00000140: e57c e03e cd7e dabe aff2 0c3e f155 c73e
00000150: 5cf8 6a3e c9fe a1be 23eb 7abe feeb f73c
00000160: aad6 bdbe 7fd9 c6be b266 953e 614b ebbe
00000170: c94e cd3d 42e6 94be 1e7e 5d3e 68dd 583e
00000180: 1f4b 0e3e 7b81 5abd a5d2 64bd 828e 6abc
-0.22141404 0.28404987 -0.036186926 0.34104183 0.25125045 -0.078665845 0.21175542 0.37567255
0.29342502 -0.026137667 -0.45775086 0.3726959 0.042790394 -0.16418697 -0.5188367 0.32217526
-0.4223971 -0.32190812 -0.043286838 -0.14745146 -0.2829771 -0.4297834 0.12779725 -0.28384894
-0.29283875 0.1253823 0.4590001 -0.15271913 0.018164726 0.43074685 -0.3814965 -0.20574266
0.3570211 0.082991354 0.23960845 -0.26575837 0.047704134 -0.4496815 -0.051856175 0.3671001
0.5035913 -0.019561889 -0.11432325 0.42734298 0.1863312 -0.32747227 -0.3768068 0.12057662
-0.19402297 0.33158097 -0.40969718 0.2612669 -0.43262747 -0.27626756 -0.24548931 -0.48723486
0.49566302 0.1744977 0.07508863 0.14003561 0.3593542 0.039521225 -0.0637403 0.47654927
-0.25800368 0.2700745 0.22790667 -0.33606347 -0.09407643 -0.49145666 -0.21770117 -0.32051554
-0.32612637 -0.21638994 0.2368324 -0.02903255 0.49773866 -0.04521067 0.020814056 -0.059820734
0.43845287 -0.42674866 0.13764451 0.38932756 0.22946304 -0.31639698 -0.2450376 0.030263897
-0.37077838 -0.3883781 0.29179913 -0.45955947 0.10024793 -0.29081923 0.21630141 0.2117821
0.13895844 -0.05334614 -0.05586495 -0.014316203

weight f4 [60, 100]
00000000: 57a6 57bd 863d d3bd 2b42 b1bc 6d88 d2bd
00000010: 02d9 323d 805d 14bd 35fa c9bd 858c 57bc
00000020: cd42 683d 8723 a33c 96c5 513d 1638 2c3c
00000030: 93bb bbbc 6e68 babc b906 863b f3ae 09bd
00000040: 5e37 943d 383d 1cbc 018e fd3b 6dae 0b3d
00000050: 7e1f 983d 7228 803d 1159 bbbb 1ccf 423d
00000060: 7465 c13b e70d 503c 4fbd eebd 4212 7bba
00000070: be0a 8e3c 66cc d2bd 9d29 7e3d 7d64 a23d
00000080: f80b 103d 767b 4bbd dc8b 403b 710d 9f3d
00000090: 4c4d 8f3c 70db 9ebd 038f bd3d 66bf b7bc
000000a0: 20a1 003c 5760 1d3c f4ec dcbc 3977 113e
000000b0: 4c6e 00bd 8d0d 203c 417e e6bd b471 5ebc
000000c0: 89f9 4d3d f789 d93d c9a6 f33d 592a a73d
000000d0: ece3 84bd 012e c5bc 2e63 c03c 846e 033c
000000e0: f6fd bebd be62 553c 7be7 663d a644 03bd
000000f0: 63c6 7a3d cd82 66bb e97c 5f3d a471 eb3d
00000100: 254c e9bb 5d48 493d 59d1 debc 0fa4 fe3d
00000110: 26f6 f93c 45a4 d7bd 4cd1 973d 720b c83c
00000120: 530d ee3b 59dc b43b ccd8 cbbb 027d 6ebd
00000130: 48de 993d 5358 c43d fe6e f33d a731 a03d
00000140: c7ae 35bd eb3c b03d e14d b63d a720 24bb
00000150: 4bde 1cbd f3fd 793d 31b7 c73d 1aad 213d
00000160: 991e 8cbc 2027 863c d684 dfbc 89ac 98bd
00000170: c46a e43d d627 e7bd 17ef b8ba 3543 8c3d
00000180: a627 c6bd 759b 08bd 01c2 0fbe a2e6 0a3e
00000190: e932 78bd 4b83 863c 40ad 8d3d 9b01 46bd
000001a0: 0e76 87bd e05b 14bd 6aeb 0f3c eb0c 993d
000001b0: 5b07 4d3b d3b0 3b3d 2bc0 babc d2b8 a6bd
000001c0: 36fe bf3d 07d6 28bd c482 9ebd 94af f7bb
000001d0: eaf3 463c 9ba6 c53d 7295 5fbc 744c f6bc
000001e0: f733 03bd deaa d9bc e4fd 5cbd 95bb d93c
000001f0: d2b5 f9bd 1975 0f3c 22e7 55bd 1a76 febc
00000200: c223 7d3d ae25 fabb 5fc0 f43c edb8 c53d
00000210: 44e6 373d eb31 91bd cad4 e6bd 9679 a93d
00000220: 368a babd fad8 0fbc 8bd0 cebc f4ab 05bd
00000230: 9f6c 843d bb70 86bd e477 aabd 51e9 4abd
00000240: f601 e5bd 39cd a7bc 2db0 e0bc d447 0e3d
00000250: 8eab 1e3c 557a 15bd c1f8 b93c 0312 e63c
00000260: 99a3 b9bd 49dc 853c 8367 ccbc 2426 b43d
00000270: ed67 19bd 8124 aabd 8bd0 24bc b8b6 14bd
00000280: 61d1 fd3b eea8 35bd 0f02 c33b e918 ebb9
00000290: 2210 873b 68eb 503d 7240 e93d dc66 48bb
000002a0: 66a6 2cbd 4043 8c3d 246e cdbc 5aaf 103d
000002b0: 4539 e93d c45d e1bd 5fda 09be 5736 94bd
000002c0: bed6 47bc 8e40 e83d ba08 54bd 0fcf 803d
000002d0: 30db b53c c29f 26bd 2a0f 48bd cac0 5bbc
000002e0: afb0 2fbd f027 24bd 0fb7 b03d 71c7 0a3d
000002f0: c2ee 62bd 7a40 b8bd bcf1 bfbc 8989 d4bd
00000300: 3c98 0a3d ef52 4d3d 6252 39bc e4df 5e3c
00000310: 4c62 a5bd e9c9 d63d 0595 11be 79cc b93c
00000320: 68c2 d03c 8807 b1bc e37a 00bd 8c6d 2abd
00000330: 4192 3d3d 00a8 b4bd c271 11bd da76 813d
00000340: c0c5 503d e994 3fbc 06f3 06ba fc00 8d3d
00000350: 549d 343b 0fa5 a73c 4d6e 63bd 85e0 6fbc
00000360: 257b 553d b93d 88bd 1acc b4bd 4f5b b2bd
00000370: b0b5 acbd 36ea 02bd 5b25 7bbd 05c7 62bd
00000380: 7877 623d 9e49 ee3d 2e1e a93d 5bc6 c83d
00000390: 472e a2bd 0166 58bd a9eb 383d 7ff8 d43c
000003a0: e9b3 45bd 5b1d 923d e09e 3fbc 289a 853c
000003b0: 7f79 44bd aa33 59ba 2331 afbd 7552 1dbd
000003c0: 168b 22bb a39e 0e3c a95b b63d be64 97bd
000003d0: 5c87 cabb 481d 593d 328b 2a3d 42c8 86bd
000003e0: 3d92 6ebd 230c 563d d65c c43a 47ba a2bc
000003f0: b8dd 99bd b1c4 a53d cfa4 8ebd 81bc 6f3d
-0.05264887 -0.10314469 -0.021637997 -0.102799274 0.043663986 -0.03622198 -0.09862176 -0.013156061
0.05670433 0.019914402 0.051213823 0.010511419 -0.02291659 -0.022754874 0.004090157 -0.03361411
0.07237123 -0.00953608 0.0077378755 0.034101892 0.07427882 0.06257714 -0.0057174047 0.047560796
0.0059019867 0.012698627 -0.116572015 -0.0009577611 0.017339107 -0.10292892 0.062051404 0.07929323
0.035167664 -0.04967829 0.0029380238 0.077662356 0.017492913 -0.07756698 0.09255793 -0.022430133
0.007850915 0.009605489 -0.026968457 0.14205636 -0.031355187 0.009768856 -0.1125455 -0.013576914
0.050286803 0.10622018 0.11897046 0.08162374 -0.06488785 -0.024069788 0.023484793 0.008021954
-0.09325783 0.01302403 0.0563731 -0.03204789 0.061224353 -0.0035173178 0.054562483 0.114962846
-0.007119673 0.049141277 -0.027199434 0.124336354 0.03051288 -0.10529379 0.07412967 0.02441952
0.007264772 0.0055194316 -0.0062209126 -0.058224685 0.075131 0.09587159 0.118864045 0.078219704
-0.044356134 0.08605369 0.08901573 -0.0025043876 -0.038297933 0.0610332 0.09751738 0.039471723
-0.017104434 0.016376078 -0.02728502 -0.074547835 0.111531764 -0.11286895 -0.001410934 0.06848756
-0.09675531 -0.03335138 -0.1403885 0.13564542 -0.060595427 0.016420027 0.069178104 -0.048341375
-0.06614314 -0.03622043 0.008784154 0.07473167 0.0031284902 0.04582293 -0.022796711 -0.081407204
0.09374659 -0.041219737 -0.07739785 -0.0075587723 0.012143115 0.09650918 -0.01364647 -0.030065753
-0.03203198 -0.026570734 -0.053953066 0.026578704 -0.121928826 0.008755946 -0.05222238 -0.031062175
0.06180168 -0.0076338863 0.029876886 0.096544124 0.044897333 -0.07089599 -0.11271055 0.08275144
-0.09108393 -0.008779759 -0.025245925 -0.03263469 0.0646603 -0.065644704 -0.083236486 -0.049538914
-0.11182015 -0.0204836 -0.027427757 0.03473647 0.0096844565 -0.036493618 0.022701623 0.02808476
-0.09064407 0.016340392 -0.024951702 0.08796337 -0.037452627 -0.08307744 -0.010059486 -0.036307067
0.007745907 -0.044350557 0.005951173 -0.00044841252 0.004121796 0.05100575 0.11389245 -0.0030578887
-0.042150877 0.068487644 -0.025076933 0.03532348 0.113878764 -0.110042125 -0.13462208 -0.07236927
-0.012197195 0.11340438 -0.051766135 0.06289493 0.022199243 -0.0406797 -0.048842587 -0.013412664
-0.042893108 -0.04007715 0.08628666 0.03388161 -0.05540348 -0.08996673 -0.023430698 -0.10377795
0.03383659 0.05012792 -0.0113111455 0.013603184 -0.08075389 0.1048773 -0.14217003 0.022680508
0.025483325 -0.021610036 -0.031367194 -0.04160838 0.046282057 -0.08821106 -0.03550888 0.06321497
0.05096984 -0.011693218 -0.00051479077 0.068849534 0.0027559595 0.020464448 -0.055525113 -0.014640932
0.052119393 -0.06652398 -0.08827992 -0.08708822 -0.08433092 -0.031961642 -0.06131492 -0.05536558
0.055289716 0.11635135 0.082577094 0.09803458 -0.07918983 -0.052831654 0.045146618 0.025997398
-0.04826728 0.07134505 -0.011695594 0.016308859 -0.04796743 -0.00082855916 -0.08554294 -0.038408715
-0.002480214 0.008704814 0.089042015 -0.07392262 -0.006180687 0.05300644 0.041636653 -0.06581165
-0.058244932 0.05225767 0.001498128 -0.019864215 -0.075129926 0.080941565 -0.069650285 0.05852938

weight f4 [60, 100]
00000000: 9d07 543c 3ab9 623d b64f 82bd 9f75 b2bd
00000010: a801 d0bd f70f 04bd 2ad6 2eba 14c2 c4bd
00000020: bd8a 303d 7bc6 b03d 3931 853d 45a7 633d
00000030: 45e2 8dbc 8834 80bd 3e13 1b3b 8aca d03d
00000040: 8ee5 72ba c5b0 923b b1de a0bd 2a79 aebd
00000050: 6742 8cbd c6e7 8f3d 527a 9d3d b4d1 3cbc
00000060: be79 59bd 6876 2f3d 44cc b83d c87c 9f3d
00000070: 69ad 86bd 5f25 6a3d cfe1 d33d f829 5fbd
00000080: 89fc 96bd b972 673d 8337 a03d c3e8 85bd
00000090: 0f26 6e3d 65d0 a83d 0346 05be 033a 10bd
000000a0: 7498 983d 48da 76bd fe6a d83c 6f49 d73d
000000b0: f68b 86bd 24fe 69bd 06f6 193d 823d bc3d
000000c0: 0079 d73c 5529 24bd be47 cf3c be20 d83d
000000d0: 23cd 923d b644 52bc 834e b23d 3a2c dc3d
000000e0: 0bf7 c73c 340b 6e3d 53c7 bb3d f726 943d
000000f0: 6bd2 b3bd b13e 84bc c390 2f3d 4309 5bbd
00000100: ec5d bbbc 0b35 ba3d eecf a6bd 70d8 ebbd
00000110: b6dc 9dba 38bd ea3d 6fd2 703d 4e0a 2cbd
00000120: bce3 aebd 97b1 66bd 235e 763d 98b7 413d
00000130: f2f9 053e d455 16bd 6354 a5bb 31ef e2bc
00000140: 874c 1a3e b705 d63c 0478 f8bc 8c4d 4ebd
00000150: 4085 cd3c decc a53c 03e7 5c3b c598 55bd
00000160: 0355 123d 630f 60bd 9b57 11bd fc16 2eba
00000170: 41fb 8c3d c8e2 823d fef9 e5bc 6379 03bd
00000180: 626c a23d f8c0 3e3d fff4 363b 46ad 5bbd
00000190: 65f2 91bc 14ff bebc b5ad 5d3d a71c af3c
000001a0: 233e ebbd 1a3f 433c 59dd 443d 20a8 76bd
000001b0: 1c53 cabc 4599 49bd c2d9 013d 98d4 0a3d
000001c0: 6cc3 49bb a463 de3c e929 f3bc e096 78bd
000001d0: 6a40 123d e287 503d 03e4 863d abcc 99bd
000001e0: 685f b9bd 1e65 633c dac4 5b3d 69b1 6e3c
000001f0: 7cf4 5bbd b970 8fbb f88a dfbd bbc1 dabd
00000200: 3506 343c 324a f2bd b95f a7bd 8bcd ce3d
00000210: 886f d73c 9604 5d3d 3baf 62bd 472c d6bd
00000220: d0c3 57bd 5181 5ebd cb44 32bc 846d 3abb
00000230: fd2b bf3d fcd4 d8bd fefe c23c f65b 9c3d
00000240: 82b4 953c 19b5 133d 198c 79bd cd6f 89bd
00000250: b00e b13d ee44 9fbc 8717 d63d 5d20 dc3d
00000260: daaa e7bd b0c0 02be f34c d33d f570 fb3d
00000270: 58fe b1bd 8b17 9cbc 69e5 a0bc 1584 a2bd
00000280: 4091 073c 226c 223d 531a ea3c fa2b 923d
00000290: 0b91 8f3d 4c7e 93bd 7f2a 813b 9b7e cfbc
000002a0: 03e4 76bd b2d3 103d 4ebc e43d 6238 4abd
000002b0: eb15 bf3c 12f0 aebd d934 9c3b ce29 e2bd
000002c0: 4a4c e0bc b7fe 013d 9ca1 9a3d 9df2 7c3d
000002d0: 8528 7abb f637 d6bd 46ab 2f3d 018c 273d
000002e0: 5447 ecbb 98cd 933d e9d8 34bc af4d b73c
000002f0: 18a7 8b3d 9b56 8cbd 72b3 c63d f144 ef3c
00000300: 10fa 5bbc 9607 6dbd 846d 5c3d 5f23 c9bd
00000310: 8ac5 433d 1b80 dc3c fbeb aa3a ece7 b73c
00000320: 8cec d63d 34ed bc3c d3af 91bd c085 5b3c
00000330: da32 123d c481 37bd f31e 973d 6f70 a9bd
00000340: 7ecf bbbd 84f6 0cbe f2fd 893d c983 9fbd
00000350: 065f 8e3d 3965 a4bd 06eb 893d 28df cbbd
00000360: f4ff 9339 8d3a 7c3d b230 48bd 72b5 013e
00000370: bd8c c23d c7b7 67bd 3547 8f3d 0725 963c
00000380: 2799 703d 0bbe a03d 90b4 59bd db1b 533c
00000390: f949 f93d 5639 7fbd df63 97bd c747 563d
000003a0: 497e 84bd 0ee4 5cbc f3e6 b33c a6eb a73d
000003b0: 070b ac3c f905 b13d 627f 813d 44a3 9bbd
000003c0: 5a26 eabd cc3d 423d 9366 dd3b 69b8 b6bd
000003d0: c723 663d 7dbf 5d3d 2ce7 93bd 98a4 be3c
000003e0: 868e 9cbd 57da 173d 09bd 1fbd f931 d0bc
000003f0: 6915 be3d 4445 323d cd24 b73b 3512 b1bc
0.012941268 0.055352427 -0.0636286 -0.08713841 -0.10156566 -0.032241788 -0.0006669486 -0.0960733
0.04310106 0.08631607 0.06503529 0.055579443 -0.017319808 -0.062600195 0.0023662592 0.10194881
-0.00092657737 0.004476639 -0.07854975 -0.08519204 -0.06848603 0.07026629 0.076893464 -0.0115246065
-0.053094618 0.04283753 0.090233356 0.07787472 -0.06576044 0.057164546 0.10345804 -0.054483384
-0.07372386 0.056505892 0.07823088 -0.065385364 0.058141764 0.08242873 -0.13014989 -0.035211574
0.07450953 -0.060266763 0.026418205 0.10512053 -0.06569664 -0.057127133 0.03758814 0.09191419
0.026302814 -0.04007848 0.025302764 0.1055312 0.07168033 -0.012833765 0.08706381 0.10750623
0.024409791 0.058116153 0.091688775 0.072339945 -0.087803684 -0.016143175 0.042862665 -0.05347563
-0.022871934 0.090921484 -0.08145128 -0.115158916 -0.0012043926 0.11461872 0.058794435 -0.042002015
-0.08539531 -0.056321707 0.06014837 0.04729423 0.13083628 -0.036702946 -0.00504546 -0.027701946
0.15068255 0.026125772 -0.030330665 -0.050366923 0.025087953 0.02023929 0.003370703 -0.052147646
0.035725605 -0.054702174 -0.035483938 -0.0006640998 0.068838604 0.06390911 -0.028073307 -0.032098185
0.07930829 0.046570748 0.0027917025 -0.053632043 -0.017815778 -0.02331499 0.054120738 0.021375967
-0.11486461 0.0119169 0.048062656 -0.06021893 -0.024697833 -0.049218435 0.03170181 0.03389415
-0.0030786647 0.027147122 -0.02968307 -0.06069076 0.03570596 0.050910838 0.065864585 -0.075097404
-0.090514004 0.013879089 0.05365453 0.014568665 -0.053699955 -0.0043774513 -0.10915178 -0.106814824
0.010987808 -0.11830558 -0.081725545 0.10097798 0.0262983 0.05395945 -0.055342894 -0.10457664
-0.052676976 -0.054322544 -0.010880659 -0.0028446624 0.09334562 -0.105874985 0.02380323 0.07634728
0.01827455 0.03606138 -0.060924623 -0.067107774 0.086453795 -0.019442048 0.10453706 0.1074836
-0.11311884 -0.12768817 0.10317411 0.12277404 -0.0869109 -0.019054195 -0.019640641 -0.07935349
0.008274376 0.039653905 0.028577005 0.07137294 0.070100866 -0.072018236 0.0039418335 -0.025328925
-0.060276043 0.03535814 0.11168729 -0.049370177 0.023325881 -0.085418835 0.004767042 -0.1104313
-0.027380127 0.031737056 0.07550356 0.06175481 -0.0038171124 -0.104598925 0.04288795 0.040905003
-0.0072106514 0.07216948 -0.011038044 0.02237591 0.0681898 -0.06852456 0.09702195 0.029207679
-0.013426319 -0.057868563 0.05381538 -0.098211996 0.04779581 0.026916554 0.0013040298 0.022449456
0.104943365 0.023062326 -0.07113614 0.013398588 0.035693027 -0.04480149 0.0737895 -0.08273398
-0.09170435 -0.13765913 0.06737889 -0.07788808 0.06951718 -0.08027119 0.0673428 -0.09954673
0.00028228725 0.061579276 -0.048874564 0.12666872 0.094995 -0.056571748 0.069960035 0.018328203
0.058739807 0.07848748 -0.053150713 0.012885059 0.12172312 -0.06231054 -0.07392096 0.052314546
-0.064693995 -0.013482107 0.021960711 0.08199243 0.021001352 0.08643717 0.063231245 -0.075995
-0.11433096 0.047422215 0.0067566126 -0.08921892 0.056186464 0.054137696 -0.07221827 0.023271844
-0.07644372 0.03707346 -0.038998637 -0.025414454 0.092814274 0.043523088 0.005589104 -0.021615127

weight f4 [60, 100]
00000000: 2cf5 ef3d 0a97 ac3d 5f06 0fbc 7fde f1bc
00000010: e5e6 683b a029 99bc f5fe f23d e94c 50bd
00000020: 1d70 63bd 2752 dcbc 48a9 ddba 081b cd3c
00000030: a0da abbd 143d d83d fcdf edbd e8f2 6e3b
00000040: a9d1 ccbd 1fa5 583d 8489 3b3d dc82 6abd
00000050: e4b7 d3bc 0d03 c43d 8a2a 403c 1e83 b3bd
00000060: ba9c 81bd a90d e0bc 81e4 87bc 2cfa 623d
00000070: ba55 05bd 1310 bd3c d853 523c 9d7c 2e3d
00000080: 7beb 863b e7b4 96bd fc0a 89bd efe0 de3d
00000090: a763 c43d 15c5 3f3d 7bcc 4dbd c439 e6bd
000000a0: 5dc2 1bbd 128f f53d 9b5f dd3d 1739 4abc
000000b0: c1c7 343b e7eb 00be cf1f 3c3d e46f 02be
000000c0: 640f adbd 3f79 cbbd c1ed 8abd 47bb b03a
000000d0: 6314 f03c 4b5c bbbc d6b4 c5bd 8639 20bd
000000e0: c4b4 4f3d 08f9 75bb 121b 013e 0044 62bd
000000f0: 549a 8b3d 78ce 8c3d ef68 6cbc 8e16 b8bd
00000100: 419b 0b3d 51b3 f8bc 1ce6 813d 873a 9b3d
00000110: 2b72 0cbe df0a 86bc f407 253d 08e3 8ebb
00000120: 213f 58bc 105a 583d f2bc 043d fd22 f9bb
00000130: 5429 853d ab37 a1bd 89b0 063d 0ef6 a1bd
00000140: 1a40 ad3d 81cb 303d 97fb cabc e413 203d
00000150: a32a d2bd 0f6b e9bd 9217 7dbd 0b93 283d
00000160: 0db0 253c ed0f 653d db3c 98bd f32b 553c
00000170: 9461 653c f38b 6ebc 9c27 ff3c c200 053d
00000180: a27c 47bb bf56 5dbb 3248 ae3d 3dcb b2bd
00000190: ce95 c0bb 7cce 21bc dfd6 f2bc f6c8 03be
000001a0: 25a0 03be e10d 0e3d 8cf4 893b 43e5 a6bd
000001b0: 34b7 483d fb60 373d 9f50 863d e427 6cbd
000001c0: d09a f03c cafa c1bd de37 173d c42c 893d
000001d0: 3df2 fcbd 4d23 97bd ed5a 1b3d 2671 66bd
000001e0: 55e4 a33c fafc 903d 546f 703d a429 7c3d
000001f0: 1f54 d9bb b3d0 87bd 81dc 533d 7eb6 c03d
00000200: 6342 813d da23 92bd aab0 6a3d 9d4d bb3d
00000210: 31a9 b2bd 7d22 7fbb a8a9 2c3d fc47 5abd
00000220: 52e9 c73d 2c74 f53d 62ab 8ebc 3df6 3c3d
00000230: 2500 b7bd 9eba 453c db03 0bbd b47d 8a3d
00000240: b149 52bd a5e4 12bd f337 6f3d 996d 6fbd
00000250: de8c 73bd c0dd d4bd 9cf1 62bc 7028 f33d
00000260: d7f8 07bc 37a5 e1bc 0383 2b3d f923 d33d
00000270: bd9e efbd 8822 dc3d fd4e 993d 9414 a2bd
00000280: 569f 8a3d d59c 443d 520f 8d3d 6e58 8cb7
00000290: 16cb a0bb 8500 c93c 8344 00be 190c 613d
000002a0: 005c 49bd 1ad9 fcbb 26f8 23bd 73d5 d43d
000002b0: eef6 0cbd 3587 9dbd b04a fd3b 723f 70bd
000002c0: 2181 2f3d 22cc 93bd 209e dcbc f5b8 8d3c
000002d0: 16f2 cf3c 3457 17bd e0f1 8dbb c1d0 a6bd
000002e0: 33f5 bc3d 02ff fb3c 2b47 71bd 53a6 a73b
000002f0: c670 743d 317c be3c b0f9 83bd b13f a03d
00000300: ad41 b0bd 0bc9 273e 2bfb 0bbc d904 cbbd
00000310: 2728 bbbc c9f1 e4bb 6440 4c3d 8f44 1dbd
00000320: 7e17 87bc 150a 3ebc 63f4 07bd 3a49 063d
00000330: 3a0d ecbc c1dc acbc 0c14 1f3d 37d7 3e3d
00000340: 7149 a93d dbb7 8abd b0ce 3c3d d21b 833d
00000350: 0b64 60bd af73 b3bb 8831 c3bd b8b7 953c
00000360: f3e7 dd3c ff46 023e 9b8f 1e3c 8913 4ebd
00000370: 1525 b3bb 0ec8 bb3d 2792 a2bd 1262 90bc
00000380: 8918 873d df5a a3bb fa29 5dbd 877d 783c
00000390: 87e7 19ba a798 d6bb 81ca 7abd 2a03 db3d
000003a0: 0a26 9f3d ab89 c3bd f24c babc 3dfb 913d
000003b0: 07ce f23c 99c6 043d 1f38 c23d ac3d cabd
000003c0: 9ded 803d 5944 ddbc 8da6 8d3d e04f 443c
000003d0: ad85 85bd b888 873c 1a4f cdbd 7336 aabd
000003e0: cbe7 abbd db94 ba3d 0f74 2d3d 1880 943d
000003f0: e87d 813d 5778 b8bd 0da8 be3d 8486 8b3d
0.11716685 0.08427246 -0.008729546 -0.02952504 0.0035538014 -0.018696606 0.118650354 -0.050854597
-0.05552684 -0.026894642 -0.0016911412 0.025037304 -0.08391309 0.10558525 -0.11614987 0.0036460701
-0.10000927 0.052891847 0.045785442 -0.057253703 -0.025844522 0.095708944 0.011728892 -0.08765243
-0.06328721 -0.027350264 -0.016588451 0.055414364 -0.03255246 0.023078954 0.012837373 0.04259931
0.004117427 -0.07358723 -0.06691548 0.108827464 0.0958932 0.04681881 -0.050243836 -0.11241487
-0.038027156 0.11990179 0.10809251 -0.012342713 0.0027584883 -0.1258999 0.045928773 -0.12737995
-0.08450201 -0.09935235 -0.06783629 0.0013483547 0.029306596 -0.022871157 -0.09653632 -0.03911736
0.0507095 -0.0037532467 0.12607983 -0.05524063 0.06816545 0.06875318 -0.014429315 -0.08988677
0.03408361 -0.030358942 0.06342718 0.075795226 -0.13715427 -0.016362606 0.040290788 -0.0043605603
-0.013198645 0.052820265 0.032406755 -0.007603048 0.06502023 -0.07871946 0.0328832 -0.07908259
0.08459492 0.043162826 -0.02477817 0.03908147 -0.102620386 -0.11397373 -0.061790057 0.041155856
0.010112775 0.05592339 -0.07433482 0.013010967 0.014000315 -0.014559734 0.031146817 0.032471426
-0.0030439277 -0.0033773629 0.08509864 -0.08730171 -0.005877233 -0.00987589 -0.029643474 -0.1286963
-0.12854059 0.034681205 0.0042100605 -0.08149197 0.04900284 0.044770222 0.06558346 -0.05765523
0.029370695 -0.09471662 0.036918513 0.066979915 -0.12350891 -0.0737978 0.03792851 -0.05626025
0.020006338 0.070795015 0.05869992 0.06156315 -0.0066323425 -0.06631603 0.05172396 0.094098076
0.063114904 -0.071357444 0.057297386 0.09145663 -0.08723677 -0.0038930469 0.042153984 -0.053291306
0.09761299 0.11985049 -0.017415706 0.04613327 -0.089355744 0.012068419 -0.033939224 0.06762257
-0.05133981 -0.035862584 0.058402967 -0.05845413 -0.059460513 -0.10393858 -0.0138515495 0.11872947
-0.008299074 -0.0275446 0.04187299 0.103095956 -0.11700199 0.10748774 0.07485769 -0.07914081
0.06768672 0.04800113 0.06887688 -1.6730479e-05 -0.004907022 0.02453638 -0.12526135 0.054943178
-0.049160004 -0.00771631 -0.040031575 0.10392275 -0.034415178 -0.07691804 0.0077298507 -0.058654256
0.042847756 -0.072166696 -0.026930869 0.017300108 0.02538399 -0.036948398 -0.0043318123 -0.081452854
0.092264555 0.030761246 -0.05890576 0.005116263 0.05967786 0.023252578 -0.064441085 0.07824648
-0.08606277 0.16385286 -0.00854377 -0.09913034 -0.022846295 -0.006986831 0.049866095 -0.03839546
-0.016490694 -0.011599083 -0.03319205 0.032784678 -0.0288149 -0.021101357 0.038837478 0.046591964
0.08265961 -0.06773349 0.04609555 0.06401791 -0.05478291 -0.005476437 -0.09530932 0.01827608
0.027088141 0.12722395 0.009677793 -0.0503116 -0.005467067 0.09169017 -0.079380326 -0.017624889
0.065964766 -0.004985198 -0.05399511 0.015166647 -0.0005870987 -0.0065489593 -0.06122828 0.10693963
0.07770927 -0.095477425 -0.022741769 0.07127998 0.029639257 0.03241596 0.094833605 -0.09875044
0.06295321 -0.02701013 0.06916533 0.011981934 -0.06519637 0.016544685 -0.10024853 -0.083111666
-0.083938204 0.09110423 0.04234701 0.072509944 0.06322843 -0.09007328 0.09309397 0.06812766

weight f4 [100, 60]
00000000: a5b3 e73d 00e3 863d 5e78 8e3d 159a 703d
00000010: d68a cabd 82ac 9abc de53 37bd 4704 07bd
00000020: b40d b53d c029 0f3e 204b 99bd 226a 803d
00000030: 2e6d 483d e81f f7bd 3d91 df3d 253b 173d
00000040: 0f12 ea3d 6d39 a5bd 6387 c73d 33ab 97ba
00000050: f5ef 3cbc ec1b f73b 72f6 13bd ed99 063e
00000060: afa9 9b3d aecc 14be cc59 a5bd 3a32 e43c
00000070: 93e8 f33c 0c6b d6bd 3fc1 f9bd 004d eebc
00000080: 3e36 79bd 5801 193e 6efe 113d d747 b2bc
00000090: 9bc5 d93c 3374 f83c ee78 58be f464 4cbd
000000a0: 5d33 43bd f3ff 17be ab2a 92bd 0f5d ecbd
000000b0: 74ae ffbc ffa5 233e 9fd2 f23d a946 9cbd
000000c0: 3f0e 59bd a0d1 16bd 1ad7 ee3c 73e6 e4bd
000000d0: 211a 5e3d 04d4 e2bc b314 663d be1c 18be
000000e0: 79d3 efbd c7d2 88bd 63a4 a8bc 5538 e5bd
000000f0: 9056 823d 8562 193e a199 f1bc 4620 0dbe
00000100: 1e7a dc3d 3ef8 893d 8063 e3bd d28d b13d
00000110: b201 ddbd 1048 adbd c3cd 29bd 65b4 5dbd
00000120: 6563 45bd bb69 d5bd f80f bf3b 313a 9cbd
00000130: 11a6 bebd 6517 233e 020f f2bd 30af 07be
00000140: e2e7 c63d 52af f43b 2a4f a53d ff16 ecbd
00000150: 17b9 433c a69c 1abd ee45 f2bb aa1a ccbd
00000160: 79b2 88bc 7efd d13d db62 143c 0fc9 0ebe
00000170: cf74 07be cdaa 803d 65b6 efbd 046d 7ebc
00000180: c294 bf3d 984d 7abc 349d 8abd 1fe7 223d
00000190: 5ab4 aebd 669a 5a3d 8f7b 8d3d ecce 383c
000001a0: beef c9bd 63ee 84bd 6d5c cd3d a2a3 07be
000001b0: be94 01be 8c42 f43d e7c6 a9bb 5cf5 67bd
000001c0: 9646 59bd b31a c33d 921d 8bbc cffb 2dbe
000001d0: 0e70 82bd 5e51 19be 34a9 58bc 4f1c 6ebd
000001e0: 9eda 853d 0d55 483d 5dec 87bd 2de4 ec3d
000001f0: 85d9 b0bd 0821 c83d 314a a3bd 0ce9 f03d
00000200: 2bbf a3bd b14c 933b 1e6e e43d cbc8 94bd
00000210: 00cb d23d a241 e03c 7a74 4c3c f3ad dfbc
00000220: 1146 5c3c 8379 a2bc 2009 b33d e42f 88bc
00000230: ab8c b8bd e63a 423d 664c e7bb 907d 923b
00000240: 796e 6cbd 59f9 133c c329 4dbc dcfc a73d
00000250: 5f62 043d f3e4 933d 9843 623d bd64 eb3d
00000260: 12a7 eebc 3808 4a3d c02c b13d 8b21 78bd
00000270: 31bb fa3d 4fa3 2d3e f4f4 99bc cf70 53bd
00000280: 65bd 333e c154 303e ef96 80bd ed76 f33d
00000290: 2129 44bd 9351 04bc 59bf fabd c659 b1bd
000002a0: d33b 543b e8c1 bfbd 149f eebd 9979 103e
000002b0: 3e3e acbd 3335 18bd 7795 8cbd b3b6 3e3e
000002c0: 66a8 e0bd 632e 5f3d 8549 d2bd 2e6a 54bd
000002d0: 2c93 9ebd 596c 433d 501d 82bd b52d fe3b
000002e0: 82f1 31bd 55ee b9bc bdcc 11be 7bb3 febd
000002f0: 8807 67bc 65a8 bc3d acbf 3cbd 2cc8 e83d
00000300: 45d0 ebbc 767e eb3d bbfd 5cbc 9d4b f3bd
00000310: 1edb ad3d 72fb f1bc a925 a13d 3c5f 94bb
00000320: fd00 5dbd 46cf b63d 86df 0b3d 55fe f5bd
00000330: 5ab1 d33d 3174 193d 567e a3b9 19f0 bebd
00000340: 81d2 b6bd 5406 e13d dad2 02be 60e5 f9bd
00000350: 708f 4c3d 5764 82bc 2352 7c3a 9dc7 a3bd
00000360: 513c 34bc fdba 61bd b7c6 803d 2e7f 513d
00000370: b56c a9bb fbb0 c639 0946 53bc 2fe3 92bd
00000380: a154 ed3c a55d febc 0686 603b 6a24 cabd
00000390: af54 aa3d 5c6d f6bd 96e6 91bd 9363 d13d
000003a0: 31bf 81bd 491e d4bd f9eb 733c eef1 243d
000003b0: 2e84 b73d e8a3 173d ad02 4dbd 43bb d73d
000003c0: d1fb 323c 76c8 1b3d ffa7 ae3d f50f 97bc
000003d0: 4717 da3d d7e1 d5bd 57ee 34bd 0562 da3d
000003e0: 9501 90bd 5085 2b3d 8970 713d 42d1 403d
000003f0: 462d aabd 6e0a eebc 6b99 e9bb 6851 183d
0.11313561 0.065862656 0.06956552 0.058740694 -0.09889762 -0.018881086 -0.044757716 -0.032963064
0.08840504 0.1398077 -0.07485032 0.06270243 0.048932247 -0.120666325 0.10916374 0.03692164
0.11429226 -0.08067594 0.0974262 -0.0011571407 -0.01153182 0.0075411703 -0.0361237 0.13144656
0.07600724 -0.14531204 -0.08073768 0.027855981 0.029773986 -0.10469636 -0.12195062 -0.02908945
-0.060842745 0.14941919 0.035643034 -0.021762772 0.026583483 0.030328846 -0.21139881 -0.049900964
-0.047656406 -0.1484373 -0.071370445 -0.11541187 -0.031211115 0.15981291 0.11856579 -0.07630665
-0.0529921 -0.036821008 0.029155303 -0.11176767 0.054224137 -0.027688988 0.056172084 -0.14854714
-0.11710257 -0.066808276 -0.020586198 -0.11192385 0.06364167 0.14978988 -0.029492201 -0.13781843
0.107654795 0.067368016 -0.111029625 0.08669628 -0.10791339 -0.084610105 -0.041455995 -0.054127116
-0.048190493 -0.10420557 0.005830761 -0.07628287 -0.093090184 0.15926893 -0.11819269 -0.13250422
0.09712197 0.007467189 0.0807174 -0.11527824 0.011945984 -0.037747048 -0.00739359 -0.09966023
-0.016686665 0.10253428 0.009056772 -0.13943885 -0.13228153 0.06282578 -0.11704711 -0.015528921
0.09354545 -0.015277289 -0.06768265 0.039771196 -0.08530493 0.053369902 0.069083326 0.011279803
-0.0986018 -0.06490781 0.100273944 -0.13246015 -0.12654397 0.11926755 -0.0051811817 -0.056630477
-0.05304583 0.09526577 -0.016981874 -0.16990589 -0.06369029 -0.14972445 -0.013223935 -0.058132466
0.065358385 0.048909236 -0.066368796 0.115669586 -0.086352386 0.09771925 -0.07973135 0.117632
-0.07995447 0.0044952263 0.11153816 -0.07264861 0.102926254 0.027375046 0.012478942 -0.027304625
0.0134444395 -0.019833332 0.08741975 -0.016624399 -0.09011205 0.04741945 -0.007058668 0.0044705346
-0.057722542 0.009031617 -0.012522164 0.08202526 0.032320376 0.07221403 0.055240244 0.11493824
-0.0291324 0.049324244 0.086511135 -0.060578864 0.12242735 0.16956829 -0.01879356 -0.051621255
0.17552717 0.17219831 -0.06278788 0.11887918 -0.047890786 -0.008076089 -0.12243528 -0.08659701
0.003238429 -0.093631566 -0.116514355 0.14108886 -0.08410309 -0.03716011 -0.06864446 0.18624382
-0.109696195 0.054487597 -0.10267929 -0.051859073 -0.077429146 0.04771075 -0.06353247 0.0077569135
-0.04344321 -0.022696653 -0.14238258 -0.12436577 -0.014100917 0.09211806 -0.04608123 0.11366305
-0.028785834 0.1149873 -0.013488228 -0.118796565 0.08489059 -0.029538844 0.07868511 -0.0045279544
-0.05395602 0.08926253 0.034148715 -0.120114006 0.103365615 0.037464324 -0.0003118391 -0.09323139
-0.08926869 0.10987535 -0.12775746 -0.12201953 0.04994148 -0.015916986 0.00096252764 -0.079970576
-0.011000709 -0.055109967 0.06287902 0.05114668 -0.0051704296 0.00037897364 -0.012895116 -0.07172238
0.028971018 -0.031050513 0.0034259572 -0.09870227 0.08316933 -0.120325774 -0.07124059 0.102240704
-0.06335295 -0.10357339 0.014887803 0.040269785 0.08960758 0.037021548 -0.05005138 0.10533764
0.0109242955 0.03803297 0.085281365 -0.018440226 0.10648971 -0.10443466 -0.04417261 0.10663227
-0.07031552 0.041875184 0.058945213 0.047074564 -0.083094165 -0.029057708 -0.0071288846 0.03718701

weight f4 [100]
00000000: 14d8 813f 638b 813f 6b9c 843f eb2b 823f
00000010: ff84 833f 5db4 7b3f 4c23 823f cebe 863f
00000020: 3955 843f feb9 7f3f ac7c 7c3f a137 7f3f
00000030: 8b6b 7c3f a55c 723f 01cb 7f3f 2aea 733f
00000040: 806c 823f 4101 803f 64e5 6c3f df8c 783f
00000050: 66f1 843f e2c2 863f 8db5 7c3f 5ac2 823f
00000060: 8c36 843f 791e 7f3f 5c1c 7c3f 6670 7d3f
00000070: 95a4 813f e1ff 7c3f 784c 783f aff7 843f
00000080: 9991 803f decb 823f b730 883f 691c 813f
00000090: 2f0c 7e3f a391 853f 9a55 6e3f 2241 843f
000000a0: de5d 813f 8978 803f 01a5 7c3f 54fc 813f
000000b0: 6846 7c3f c74a 843f 1421 7b3f 62f6 823f
000000c0: 12ea 7f3f 7321 763f b2f7 773f 842c 813f
000000d0: eb77 7a3f 05a3 703f 1d46 7f3f 57c0 833f
000000e0: dfdb 793f 8f96 843f b3bc 843f 3f04 843f
000000f0: 6cac 753f c122 7a3f 9654 773f 83a8 7b3f
00000100: e6ef 763f ba0d 753f 323d 7d3f e4f9 813f
00000110: 9868 7b3f e1b4 7c3f 5071 7a3f 3f2a 823f
00000120: aeb8 873f ab47 7d3f 3baa 843f 3657 7b3f
00000130: efbf 803f 350a 873f 80e9 7a3f 1449 7d3f
00000140: 8d48 803f 5d30 823f 1f72 803f 96b4 863f
00000150: f8af 813f 313b 803f b2a4 833f 8280 7f3f
00000160: 6d70 813f 8883 803f 4450 813f 4e59 7e3f
00000170: 5ed1 773f 2046 803f ba81 843f 0a20 7b3f
00000180: a9ef 813f ea16 823f b806 823f fb6f 7e3f
1.0144067 1.0120662 1.0360235 1.0169653 1.0274962 0.9832209 1.0167022 1.0526979
1.0338508 0.99893177 0.98627734 0.9969426 0.986016 0.94672614 0.99919134 0.9527918
1.0189362 1.0000383 0.9253752 0.9708995 1.0386169 1.0528224 0.98714525 1.0215561
1.0329146 0.9965587 0.9848077 0.9899963 1.0128351 0.9882794 0.9699168 1.0388087
1.0044433 1.0218465 1.0639867 1.0086795 0.9923734 1.043507 0.9309937 1.0332377
1.0106771 1.0036784 0.98689276 1.015513 0.9854493 1.033532 0.9809735 1.023144
0.9996654 0.9614479 0.9686233 1.009171 0.9783923 0.9399875 0.9971636 1.0293072
0.9760112 1.0358447 1.0370086 1.0313796 0.9596622 0.9770928 0.9661344 0.98304003
0.96459806 0.9572407 0.989215 1.0154386 0.9820647 0.987135 0.9782915 1.0169142
1.0603235 0.9893748 1.036445 0.9817995 1.0058573 1.054999 0.9801254 0.98939633
1.0022141 1.0171009 1.0034827 1.052386 1.0131826 1.0018064 1.0284636 0.9980546
1.0112435 1.004014 1.010262 0.9935502 0.96803844 1.00214 1.035209 0.9809576
1.0151263 1.0163243 1.01583 0.9938962

bias f4 [100]
00000000: 4da3 1e3c ca67 e1bc cfe0 0cbd b092 9fbb
00000010: 0324 f7bc 9937 81bb 25ae da3c 0767 9b3c
00000020: 80ed 05bc 5c8f 0e3d 3912 273d 3215 c6ba
00000030: 66ec 733c c6bc db3c c379 fc3c 5f04 883c
00000040: dcac 073d a84d 223d b64f 1ebc ed17 1e3c
00000050: 38e8 02bc b0d6 0e3a 56c3 d9bc 6c71 183c
00000060: 97bc cd3c 9864 273c 8cef 32bb 7763 653c
00000070: 3c8d a7bd 01b4 c6bc 6bdc 0ebd 78c0 3abd
00000080: 680d 743c 2438 bb3b 80b9 24bc 3711 b9bc
00000090: 67f7 b53c 0f0b 46bc 2452 bdbc b908 383d
000000a0: ccdb abbb d4ed 40bd ed59 5cbd 7116 053d
000000b0: da7b c3bc c0d8 ff3b dbbb c93b 0b4e 5c3c
000000c0: 6d6e e63c b16b e53c 8fb7 5dbc aa20 aa3c
000000d0: 122e 85bd dd5c dbbc aa8e a63c 9d1c 523c
000000e0: 1674 cbbb 5317 853c 1d2b 25bd 91f5 8d3c
000000f0: 8f26 ba3c 3f56 183d 6cbb 763c 0c62 70ba
00000100: 2360 7d3d 87e5 ed3b e73e 7abc ac43 543b
00000110: f982 72bc 8b30 f73b d6b8 983c eefe 363a
00000120: 31cc 40bd cc07 f6bc 0866 0b3c 13e6 8a3c
00000130: b840 ebbc 9037 873c 22ac 033d ac26 fd3c
00000140: e41f 093c 63c6 29bc 7d52 3fbc 368f b23d
00000150: dd14 813b c032 083d 0662 28bd 475a 123d
00000160: 9856 21bb 012c 4d3b b683 313c 42c5 863c
00000170: 1b1f c63c 9d0c 0539 0de7 1bbd f9a5 95bb
00000180: 9289 df3c a983 0f3c 86a6 b63c 966a 8fbc
0.009682489 -0.02751531 -0.03439408 -0.0048697814 -0.030168539 -0.0039433953 0.026694367 0.018970026
-0.0081743 0.034804687 0.040788863 -0.0015112518 0.014887905 0.026823413 0.03081978 0.016603647
0.033123836 0.03962484 -0.009662559 0.009649259 -0.007989936 0.0005448861 -0.026582401 0.009304386
0.02511434 0.0102168545 -0.0027303426 0.014000765 -0.08181235 -0.024255754 -0.034878176 -0.04559371
0.014895774 0.0057134796 -0.010053992 -0.022591216 0.022212697 -0.0120875975 -0.023110457 0.044930194
-0.0052447077 -0.04710181 -0.053796697 0.032492105 -0.023862768 0.007807821 0.0061564273 0.013446341
0.028128827 0.028005453 -0.013532533 0.020767529 -0.06502928 -0.02677768 0.0203317 0.012824205
-0.006208907 0.016246473 -0.04032432 0.01732901 0.022723464 0.037191626 0.015059333 -0.00091698836
0.06185926 0.007260028 -0.015273786 0.0032388968 -0.014801734 0.0075436286 0.018642824 0.00069807365
-0.047069732 -0.030033015 0.008508213 0.016955411 -0.028717384 0.016505986 0.03214658 0.03090223
0.00836942 -0.0103622405 -0.011677382 0.087187216 0.0039392547 0.033251524 -0.041109107 0.035730626
-0.0024618264 0.0031306746 0.010834625 0.016451482 0.024184754 0.00012688567 -0.038062144 -0.0045669046
0.027287278 0.008759418 0.022296201 -0.017506879

running_mean f4 [100]
00000000: 3a4b bb3f 3571 903f 9a31 9abf ca60 003e
00000010: f252 e2bc c9be d4bf a5c9 d2be 1f3a 633f
00000020: 5dc3 fe3f c134 0d3f 89f5 a63c 9a43 4a3d
00000030: 7aeb 84bf fc19 99bf 2779 993e 6916 e13e
00000040: 3793 03bf a126 7cbf 2ecc b6be 1890 96bf
00000050: b040 6bbf 9e94 96bf 51a7 febe 86e2 a1bf
00000060: adbf 3abf 9e6b 833f 400f fc3f 97ea c83f
00000070: 1dd3 4c3e 6e84 c63e d767 0fbf 7de4 973e
00000080: bf29 3bbe 6867 37bd c61d e6be 0d20 0f3e
00000090: 6413 d23f 910b 7bbf ded2 49be 9fd8 be3f
000000a0: 066e a5bf d462 663f 3ef5 7a3f 6242 8abe
000000b0: 3500 003f d36d 14be 93b1 923f 4bc9 433f
000000c0: 54e9 3dbf 7074 1bbe 0fb5 51bf 2f2a 843f
000000d0: 230a 30bf b8f9 83bf 2886 073e c2cd 0b3f
000000e0: ec38 70bf 503e b9be 9454 e3be 7d9a 8dbd
000000f0: c5c4 5fbf 8027 7a3f 8d96 203f b6a4 4cbf
00000100: 5118 77bf 606e 40bf 781c 79bf 2110 37bf
00000110: ae41 5ebf 560a c13e dab6 253f 1a50 3c3f
00000120: e241 acbd 08ef 9c3f bbe5 cb3f a0ef 4a3f
00000130: 006b 8b3c f764 cfbf b8cb f7be a4db 95bf
00000140: e92f 233f f440 b8bf f9e9 aabf 312e 8b3f
00000150: 9a81 c83e d5d8 273f 17f6 99bf 775e 29bf
00000160: 3ca9 afbf cec5 1abf 64f4 d53e 7351 983f
00000170: 4eb1 38bf 4164 463f 70ca b5be cf12 acbd
00000180: 94de ea3c 53e1 89bf 2c9f f33f be11 c5be
1.4632332 1.1284548 -1.2046387 0.12536922 -0.027627442 -1.6620723 -0.41169468 0.8876056
1.990337 0.5515862 0.020380752 0.049380876 -1.0384362 -1.1961055 0.29975244 0.4396241
-0.5139651 -0.98496443 -0.35702652 -1.1762724 -0.9189558 -1.1764104 -0.49737027 -1.2647254
-0.72948724 1.0267217 1.9692154 1.5696591 0.20002408 0.3877291 -0.5601782 0.2966651
-0.18277644 -0.04477635 -0.4494459 0.1397707 1.6412168 -0.98064524 -0.19709346 1.4909858
-1.2924201 0.8999455 0.9803046 -0.2700377 0.50000316 -0.1449502 1.1460441 0.76479024
-0.74184155 -0.15181136 -0.819169 1.0325373 -0.6876547 -1.0310583 0.1323477 0.54610837
-0.93836856 -0.36180353 -0.44400465 -0.06914232 -0.8740962 0.9771652 0.6272972 -0.7993883
-0.9652148 -0.7516842 -0.97309065 -0.71508986 -0.8681897 0.37703198 0.64732134 0.73559725
-0.08411004 1.2260447 1.5929483 0.7927189 0.017018795 -1.6202687 -0.48397613 -1.1707654
0.6374498 -1.4394822 -1.3352653 1.0873471 0.39161378 0.65565234 -1.2028226 -0.66159767
-1.3723521 -0.60458076 0.41788018 1.1899856 -0.72145545 0.77496725 -0.3550601 -0.08402025
0.028670587 -1.0771888 1.903295 -0.384901

running_var f4 [100]
00000000: e2d2 c740 4e3c 9340 39e5 3940 4132 a93f
00000010: 00e6 ec3f 42d4 f940 6015 3d40 587b 6140
00000020: 16c5 a940 af12 9040 f81d 1740 9afd 6640
00000030: 47af 9d40 0a4e 5d40 e998 d440 379e 6c40
00000040: cccf 3a40 e0a1 8940 bfca 7540 dd8b 4441
00000050: 509e b03f eed1 0440 a906 5440 fa27 1c40
00000060: b3ee e53f 5452 9a40 79f6 e540 009b 1141
00000070: 869d df40 d839 ec3f 7806 4140 36fd e940
00000080: 0f5f 5041 b6e0 9f3f 7944 6c40 1aa3 8840
00000090: 5bc2 ad40 ca09 7340 9ac6 4b40 c45c 7040
000000a0: d6c7 5940 279f 0b41 3e4f 1841 6943 b840
000000b0: 6155 e540 459a ba3f 35f6 1841 7378 5f40
000000c0: 8095 9140 362d 2c41 9ba6 4240 4faa 0e41
000000d0: 579e ce40 81ad 9c40 6b5a cd40 58d0 f440
000000e0: 6b2d bc40 ddbd 903f ce2d 2b40 5255 9540
000000f0: 6d11 a340 9814 ea3f 8d0e 7640 b8a3 5240
00000100: 3b29 6940 aed0 2641 c27b 8b40 200f c240
00000110: 5928 3b41 188d 7640 047f bc40 d072 993f
00000120: b80a cc3f 61d8 a140 2450 2b40 344d 1641
00000130: c7e4 c23f c3e9 4740 4f48 e940 b8be 7540
00000140: 5208 ad3f 872f 4740 31b1 2041 35b0 0940
00000150: f89f 5f3f 7899 4340 27e0 ff40 254d 4e41
00000160: 5c2f 5e41 bd2d 7b40 bdb8 3241 7135 1141
00000170: 0c5d 9f40 4df4 ea40 71fb 8f40 47db 5440
00000180: b896 3d40 fb44 c140 2725 b140 aa07 a840
6.2444925 4.6011114 2.9046156 1.3218461 1.850769 7.8071604 2.9544296 3.5231533
5.3053083 4.5022807 2.3612041 3.6092286 4.927646 3.4578881 6.643666 3.6971567
2.918933 4.30101 3.8404996 12.284146 1.3798313 2.075313 3.3129065 2.43994
1.796347 4.82255 7.186337 9.100342 6.987979 1.8455153 3.0160198 7.3121595
13.023208 1.2490451 3.6916792 4.26991 5.429975 3.7974725 3.1839967 3.755662
3.402822 8.726356 9.519346 5.758229 7.166672 1.4578329 9.560109 3.4917266
4.5494995 10.761038 3.0414188 8.916579 6.4568286 4.8961797 6.4172873 7.6504326
5.880544 1.1307942 2.6746707 4.666665 5.095877 1.8287535 3.844638 3.2912426
3.6431415 10.425947 4.358857 6.0643463 11.6973505 3.8523617 5.890505 1.1988163
1.5940771 5.0576634 2.6767664 9.393848 1.5226067 3.1236427 7.2900767 3.8397655
1.3518164 3.1122758 10.04326 2.1513798 0.8735347 3.056242 7.9961123 12.893834
13.886562 3.9246666 11.170102 9.075547 4.9801083 7.342322 4.4994435 3.3258836
2.9623241 6.0396705 5.535785 5.2509356

weight f4 [256, 100]
00000000: bd95 cf3d 68ed 033d bcbe cabd 07a1 793d
00000010: f4a7 6cbd a5e5 cabd 3bd6 b03d f8ab 733d
00000020: 80c0 42bd 59d3 02bc 6fc4 55bd 552d bbbd
00000030: 56fd 4fbd b819 41bc 59b1 93bc b4e7 63bd
00000040: 09bd 9a3d fb17 d6bd a9a1 98bd 0c27 593c
00000050: 3f8f c03d 2e43 aebd a102 5dbc 9d52 fb3c
00000060: 9763 903d dc0d 8abd 965d a83d 5542 80bb
00000070: a081 62bd 0573 aa3d e617 38bd 2fcc 913d
00000080: 6f98 a9bd 7124 ebbd b44c 843d f613 00bd
00000090: 9738 9d3d 30f3 0a3d f0e6 643d 5e7e e8bc
000000a0: 34a7 3abd 27d4 64bd fee2 47bd d95a b1bd
000000b0: bf67 ae3d 7454 01bd 077b 433d a823 82bd
000000c0: 9e54 d2bd a995 5bbd dd04 b23d 0dc5 56bc
000000d0: 9956 053d b724 843d 7e63 e0bd c5c8 edba
000000e0: 097f 1e3d d947 f9bd 7ca6 95bd 78f6 88bd
000000f0: 68bc 7e3d e230 b83d 27c8 3cbc ff70 4d3d
00000100: c311 c3bd 51ba d1bd 93e8 8abd 8eb4 a5bd
00000110: 70ef 433d 82d9 c2bd 4420 dfbc 7783 cbbc
00000120: 9f4a 673c 5693 c53d 2b07 e03d 42fc 1ebd
00000130: 4fc2 4bbd 8245 ed3c 29ba 1f3d 2a71 abbd
00000140: 581b 393d 2ee5 df3c 2be6 5bbd a134 833d
00000150: 30da 16bd 1d46 35bd 991d 2bbc 9bbe 3c3d
00000160: c722 583d 64db 1cbc 43fe a63d d061 713d
00000170: 98b6 963d df58 373c 3215 b4bb 45f9 13bb
00000180: c1dd c7bd 6a61 aa3d 7b99 90bc 3b3b 973d
00000190: afca 81bc 80ad bcbd 08f7 613d 00b2 1cbc
000001a0: 743a 88bd b038 943d fd84 94bd 24a5 683d
000001b0: b576 bf3d b214 d4bb f295 54bd 1d44 d63d
000001c0: 43b4 aebc ce53 aa3c e028 d43d 7deb aabd
000001d0: f3c6 bebd 6eae d23b fdd4 8fbd a3b7 c63d
000001e0: d286 0dbe f034 8b3d c28b c3bd 8e3a 80bc
000001f0: 7fcd 173d 338e 2cbd e72e c43d 3d7a 8bbd
00000200: 18d0 dbbd ade6 3fbe 447b cebd 8cd4 d5bd
00000210: 10ad 3b3d 2e76 083e 4f73 19bd 6958 e43c
00000220: 274a 533d dc8e 52bd 4eb5 5c3c de57 50bd
00000230: 3fa8 8b3c a0e2 393d ba43 0e3d ad98 b5bd
00000240: df72 9a3b 1410 2e3d 32ff 28bd 6e9a 8bbb
00000250: 12ac 4c3d 2269 75bd 7c2c 54bd 674f 8bbd
00000260: f23b b13c f9fe 883d dab2 0fbd db83 45bd
00000270: 92aa 66bc f4c4 983d 04e7 e13c 3c30 40bb
00000280: ad2b 2cbd 24f4 9ebd 3366 f23d 2d7f 33bd
00000290: 7c0e 833d 6ec0 e3bd df1f 6a3c ed47 3bbd
000002a0: 115b 363d 8636 bdbc 9597 4abd 596a ca3d
000002b0: 4b9a 66bd f715 56bd f313 aa3d 12de 323d
000002c0: a042 753d f379 2ebd a31a 25bc 3373 083d
000002d0: ea00 d53c a0ef 23bd 291d f9bb 453e 0ebd
000002e0: 7b3f cb3d 4cd3 43bd 54ce b1bc 0ec8 243d
000002f0: d91f 00be 75b5 0d3c 9f5f 55bd c288 943d
00000300: 6569 d0bd 6bd4 c13b 7a6e 91bd 79bf 89bd
00000310: 0243 663d 8abd 7dbb 0c58 a33d 6bb1 fe3d
00000320: 4f48 403d b1c7 ca3d 8ebe dd3c f2fa debc
00000330: 40f8 45bc ce28 b93d 8ee1 69bd a1fc 4bbd
00000340: de88 02be fbb1 0ebd c3b8 dabd feb8 79bc
00000350: 47e1 65bd 9819 27bd e24d 70bc 4121 8c3d
00000360: 3aa1 0f3c 6226 c73d a224 623c dd9f bcbd
00000370: dbe0 2a3d d32b b7bd c71c 8c3c 96c3 163c
00000380: 9639 a8bc bde1 fcbb 828d 7ebd d066 283c
00000390: 2c2b 0dbb 0804 ba3d b8a1 87bc 3175 ed3d
000003a0: ae9a 9f3d 733f b6bd 5b32 e53d da93 d03b
000003b0: 0394 95bd b592 cd3b 5c0c b93c ee85 65bd
000003c0: 62de a43d 2252 c93d 6b0b a33d 4b1e ffbd
000003d0: d54e 093d 7920 a4bd 4086 d73b 27ba 8e3d
000003e0: a396 293d 88f9 d93d 9169 c23d e84a aa3c
000003f0: 2536 d5bb eac4 ec3d 2460 51bb baed 763d
0.10135982 0.03220883 -0.09899661 0.060944583 -0.05777736 -0.099070825 0.08634611 0.059490174
-0.047546864 -0.0079849595 -0.052189287 -0.09139506 -0.05077871 -0.011785917 -0.018028902 -0.05564089
0.07555587 -0.10453793 -0.07452709 0.013253938 0.09402322 -0.08508907 -0.013489396 0.030679042
0.07050245 -0.06740925 0.08220975 -0.0039141574 -0.0552994 0.083227195 -0.044944666 0.07119023
-0.082810275 -0.1148156 0.064599425 -0.031269036 0.07676809 0.033923328 0.0558843 -0.02838057
-0.045569614 -0.055866387 -0.04880046 -0.08659906 0.08515882 -0.03157468 0.04772475 -0.06354457
-0.10270046 -0.053609524 0.08692334 -0.013108504 0.03255329 0.06452315 -0.10956477 -0.0018141499
0.03869537 -0.12171907 -0.07307145 -0.06687635 0.062191397 0.08993699 -0.011522329 0.05015659
-0.09524872 -0.10240615 -0.06782641 -0.08091079 0.047835767 -0.095141426 -0.027237065 -0.02484296
0.014116912 0.09647243 0.10938867 -0.03881479 -0.049745854 0.028963808 0.038995896 -0.08371194
0.045192093 0.027330961 -0.053686302 0.064065225 -0.036829174 -0.04425632 -0.010444068 0.046080213
0.05276754 -0.009573791 0.08153965 0.058931172 0.07359046 0.011190622 -0.0054956907 -0.0022578996
-0.09759093 0.083193615 -0.01765131 0.07384344 -0.015843717 -0.0921278 0.055167228 -0.009563923
-0.06651774 0.07237375 -0.07251928 0.056798115 0.093488134 -0.0064721936 -0.05190081 0.1046221
-0.02132619 0.020791914 0.10359359 -0.08345697 -0.0931529 0.006429485 -0.07023046 0.09702995
-0.13820961 0.067972064 -0.09548141 -0.015652921 0.03706121 -0.0421278 0.095792584 -0.068104245
-0.1073305 -0.1874034 -0.10082105 -0.10440931 0.045819342 0.13326332 -0.037463482 0.027874188
0.05158439 -0.051405773 0.013470961 -0.050865047 0.017048 0.045382142 0.034732558 -0.08867011
0.0047134007 0.042495802 -0.041259 -0.004260353 0.049968787 -0.059914716 -0.051800236 -0.06802254
0.02163503 0.06689257 -0.035082676 -0.04822145 -0.014078753 0.07459441 0.027575977 -0.0029325625
-0.04203384 -0.0776141 0.11835899 -0.043822456 0.06399247 -0.111206874 0.014289825 -0.04572289
0.04452044 -0.023097288 -0.049460966 0.098835655 -0.05629949 -0.05226704 0.08304586 0.043668814
0.05987799 -0.04259677 -0.0100771515 0.033312988 0.026001412 -0.040023446 -0.007602353 -0.034727354
0.09924217 -0.04780893 -0.02170483 0.04022985 -0.12512149 0.00864922 -0.052093145 0.07252647
-0.101763524 0.005915215 -0.0710115 -0.06725974 0.056216247 -0.003871771 0.07975778 0.124361835
0.04694396 0.09901369 0.027068403 -0.02721927 -0.012083113 0.09040986 -0.05709987 -0.049801473
-0.12747523 -0.034837704 -0.10679772 -0.0152418595 -0.056123044 -0.040795892 -0.014667006 0.0684228
0.008766467 0.09724118 0.013802679 -0.09210179 0.041718345 -0.08943906 0.017103566 0.009201905
-0.020535272 -0.00771734 -0.06214667 0.010278419 -0.0021540625 0.090828 -0.016556606 0.11594618
0.07793175 -0.08898821 0.11191245 0.0063652815 -0.073036216 0.0062735924 0.022588901 -0.05603593
0.08050229 0.09830119 0.07961162 -0.1245695 0.033522446 -0.08014006 0.006577283 0.069690995
0.041403424 0.106432974 0.094927914 0.020787671 -0.0065066987 0.11560996 -0.0031948173 0.060285307
