transformer_results_random_no_constants_no_param_tune/performance_prediction/PSO1-PSO2-PSO3-PSO4-PSO5-PSO6-PSO7-PSO8-PSO9-PSO10-PSO11-PSO12_random_no_constants_dim_3_samples_50_fold_9_budget_10_n_heads_2_n_layers_1_d_model_100_d_k_30_d_v_30_aggregations_mean/trained_model_dict.pt (torch, 338811 bytes, 22 tensors)

W_P.weight f4 [100, 4]
000000 aa 4c 03 3e 9b 66 71 3e 6e e1 0f 3e aa 44 98 be
       0.12822214 0.23574297 0.14050838 -0.29739887
000010 92 c0 f8 3d e5 9a b0 3e 53 39 9f be f4 b3 ff be
       0.12146105 0.34493175 -0.31098422 -0.4994198
000020 d4 e2 a2 be 95 db 15 3e 0a 09 df 3e f8 a7 97 3e
       -0.3181368 0.14634545 0.43561584 0.29620337
000030 d2 6a 45 3e 1b fd 84 be 79 a6 f8 be 9f 6e 4f 3e
       0.1927903 -0.25974354 -0.4856451 0.20257042
000040 3d b8 6b 3d 2f b0 bf 3e a6 23 c7 3d 9a 8c 4d 3e
       0.05754875 0.37439105 0.09723596 0.20073166
000050 5d b5 3e be 40 0f fb bd a6 5a 81 3d 96 ca 9d 3d
       -0.18623872 -0.12258768 0.06316118 0.07704656
000060 3e 19 dd 3e 38 1e db 3e 75 39 d1 bd ca c2 fd 3c
       0.4318332 0.42796493 -0.10216037 0.030976672
000070 ed 67 57 3e 7d cd 55 be ec e7 87 3d 6e 0d 1a bf
       0.21035738 -0.20879169 0.066360325 -0.6017674
000080 62 63 63 3e 65 b9 ce 3c 28 c4 ad be 01 de ff bd
       0.2220588 0.025234887 -0.33938718 -0.12493516
000090 53 e7 55 3d 87 85 99 be 20 86 32 bd 03 7a c9 3e
       0.05222256 -0.29984686 -0.043584943 0.393509
0000a0 46 3f 86 3c a6 3e 2f 3e de 7d 51 be b3 37 d9 3d
       0.016387593 0.17113742 -0.20458171 0.10606327
0000b0 7e 56 d9 be a5 62 77 3d 1c e4 64 be cc 97 83 be
       -0.424488 0.06039681 -0.22352642 -0.2570175
0000c0 40 a2 8e 3e 40 9b 0c be b7 e4 3f 3d 21 bc 94 3e
       0.27858162 -0.13731098 0.04684898 0.2904978
0000d0 ce 14 ed 3e b7 85 87 3e c6 8a 96 be b5 e5 4e bd
       0.46304935 0.26469204 -0.2940275 -0.050512034
0000e0 dc 7a c6 be c9 00 df 3e ff 5f c8 3c be d3 e6 be
       -0.3876561 0.43555287 0.024459837 -0.4508342
0000f0 47 5f 88 3d 57 22 53 3e 12 28 3a 3e f2 96 16 3f
       0.06658798 0.20618568 0.18179348 0.58824074
000100 92 8b 5e be 2f f7 b1 be 4d e0 47 3e 89 bb d4 be
       -0.2173293 -0.347589 0.19519158 -0.41549328
000110 39 57 c7 3e d8 a5 0b bd 6a c5 d4 3e c1 ef 71 be
       0.38933733 -0.034093708 0.41556865 -0.23626615
000120 6f 5d 02 3e 1a 70 8c 3e 2a d6 9c 3c 09 8e e2 bd
       0.12730955 0.27429277 0.01914509 -0.11062247
000130 31 e8 7e be e6 9e 07 3e ac 53 5c 3e 17 d0 75 3e
       -0.24893261 0.13244209 0.21516293 0.24005161
000140 66 d6 8c bd 45 40 63 3e 09 b2 62 3e 23 5d b2 3e
       -0.06876831 0.22192486 0.22138228 0.34836683
000150 23 77 d9 be eb 02 ae 3e d4 51 02 3e 7f e5 fc be
       -0.42473707 0.339866 0.12726527 -0.49393842
000160 1e b1 16 3e 55 5b a0 3e 38 f2 dd 3c 63 3f 78 be
       0.14716002 0.3131968 0.027093038 -0.2424293
000170 44 ea c1 3e 8d 81 dc bd da 3e 69 3d 16 3a 1c 3e
       0.37874043 -0.10766897 0.056944706 0.15256533
000180 1e b6 c5 3d 48 89 5b be e6 f6 f9 3d 31 b8 f6 be
       0.09653877 -0.21439087 0.12205295 -0.48187402
000190 e8 b4 4e 3e ef 2d 31 3e 31 d4 c8 bd 39 47 5f be
       0.20186198 0.17302679 -0.09806097 -0.21804513
0001a0 d3 b2 d0 3e 1e 10 c0 3d 72 90 54 bd 27 b8 f9 bd
       0.40761432 0.09378074 -0.051895566 -0.121933274
0001b0 a7 75 36 3e 4f 31 8f be d6 70 64 3e 88 d7 cd bd
       0.17818318 -0.27967307 0.22308668 -0.10050875
0001c0 65 a5 20 3d 65 75 da 3d 35 91 99 3e 1a 47 31 3e
       0.039220233 0.106669225 0.29993597 0.1731228
0001d0 a2 1f f2 be 71 fc f9 3d a6 47 eb 3e f1 af 4b be
       -0.4728976 0.122063525 0.459531 -0.19891335
0001e0 69 19 80 3d 65 24 33 3e 90 8a 7e 3e 44 b6 d6 3e
       0.062548466 0.17494352 0.24857545 0.41935933
0001f0 cc 01 ca be 6f bc bc be 35 3c 0a be c1 90 04 bd
       -0.39454496 -0.36862513 -0.1349953 -0.03236461
000200 bf 6e 8f be c9 bf b3 bd a9 40 12 bc b3 82 c3 3e
       -0.2801418 -0.087768145 -0.008926549 0.38185653
000210 f0 63 38 3e 22 9a 17 be 18 40 97 be 4c 80 e3 be
       0.18006873 -0.14804891 -0.29541087 -0.4443382
000220 00 31 a9 bd 63 bc b6 bd 91 58 10 be 90 72 1b bf
       -0.08261299 -0.08922651 -0.14096285 -0.60721684
000230 8f db d6 bd 7e 0d 59 3e 82 99 46 be b5 a4 06 bf
       -0.10491096 0.21196553 -0.19394496 -0.52595073
000240 05 22 92 3e e6 6c 49 3e 6a 95 c0 bd 6d 18 f2 3e
       0.2854158 0.19670448 -0.094034985 0.4728426
000250 6a 04 82 be 8b 06 a9 3e f6 6b c8 3c e3 eb fa 3e
       -0.25393993 0.33012804 0.024465542 0.49008092
000260 ae 64 cd 3e b8 b5 ad be 33 5d f1 3e 51 f8 6e bd
       0.40115875 -0.33927703 0.47141418 -0.05834228
000270 2d 58 fe bd f4 94 5d bd 57 2d 0c bd 6a fc 80 be
       -0.12419162 -0.05409713 -0.034222927 -0.25192577
000280 ff dd 4f 3d bd 60 07 be e8 34 c9 bd 43 75 03 bd
       0.05074882 -0.13220496 -0.09824544 -0.03209425
000290 af b9 c3 3e 2d 05 6d 3e 82 39 57 3b 21 f4 7c 3c
       0.38227603 0.23146506 0.0032840674 0.015439064
0002a0 d2 09 b2 3e 3d b0 85 3e 20 c4 d8 be 30 50 9d be
       0.34773117 0.26111022 -0.42337132 -0.3072524
0002b0 b8 8d 6b be 8b aa a3 3e 00 6b b9 bd 1e 4d f0 be
       -0.2300328 0.3196605 -0.09053612 -0.46933836
0002c0 62 89 20 bd b7 82 93 bc 2f fa 88 bd 0c 4e 52 bd
       -0.03919352 -0.018006666 -0.06688344 -0.051343963
0002d0 7b 6a 11 3e 36 05 a8 be 3d 7d e1 bd bd a0 9b bd
       0.14200775 -0.32816476 -0.110102154 -0.07599018
0002e0 5e 95 69 3e 2b 99 c2 be 4b 1a a0 be c4 b0 aa 3d
       0.22810885 -0.38007483 -0.3127006 0.083344966
0002f0 fe 83 4a bd 7f 7e ad 3e f5 12 da bd 44 cf e3 bd
       -0.049442284 0.3388557 -0.10648147 -0.11123517
000300 f9 8d d9 be a2 84 65 be e3 5f 53 be fc 02 09 bf
       -0.4249113 -0.22413877 -0.20642047 -0.5352018
000310 d1 be d2 be 8f a0 c9 be f6 a9 87 3d 07 6b b6 3e
       -0.41161206 -0.3938031 0.06624214 0.3562853
000320 71 7c d6 3d b0 26 9a bc 18 08 db 3e ea c3 9d 3d
       0.10472954 -0.018817276 0.42779613 0.07703383
000330 c1 47 95 3e c3 a1 ad be 22 97 80 3e 83 d9 33 be
       0.29156306 -0.33912477 0.25115305 -0.17563443
000340 f6 85 13 be 57 9d 0e 3e bf eb 9b 3e 18 16 7f be
       -0.14406571 0.13927208 0.30453297 -0.24910772
000350 4b 01 65 be 0a 0b d0 3c 61 b4 ba 3e 69 6e f6 3e
       -0.22363774 0.025395889 0.36465743 0.4813111
000360 82 eb 51 be 70 16 68 be f1 2b ed be dd 84 e4 be
       -0.20499995 -0.22664809 -0.46322587 -0.44632617
000370 9b 94 41 3c b1 5c 07 be ea 3c 23 bd 4a 8f c9 be
       0.011815215 -0.13218953 -0.039853014 -0.39367133
000380 e5 4c d2 be 46 0a 7e 3e 67 d8 b3 3e 17 d4 de 3e
       -0.4107429 0.24808607 0.3512604 0.43521187
000390 3b d0 9a bd 54 94 7d 3e 6e 44 68 3e 7b 01 f5 3e
       -0.07559248 0.24763614 0.22682354 0.47852692
0003a0 64 9c 9a 3e b7 ff 36 3d 7a 4e 67 be 51 66 fa be
       0.30197442 0.044677462 -0.2258853 -0.48906186
0003b0 12 13 f7 bd e5 e2 99 3d 9b 58 bb be 2b e2 2f be
       -0.12064184 0.0751398 -0.36591038 -0.1717612
0003c0 67 cf 86 be 91 7a a2 3d 60 ae 91 be 2b cb 09 bf
       -0.2633011 0.07933534 -0.2845335 -0.53825635
0003d0 84 f5 7b 3d dc b0 b8 be 88 dd ba 3e 29 3c 16 bf
       0.06151344 -0.36072433 0.3649714 -0.5868555
0003e0 c6 b3 c6 be 46 f3 ec bd 5d 4b eb be 0c 8f 93 3e
       -0.3880903 -0.11569838 -0.45955935 0.28820074
0003f0 0a d7 88 3e a7 ee 0a be fd 92 d7 bb bc 22 71 3e
       0.26726562 -0.13567601 -0.0065788017 0.23548406

W_P.bias f4 [100]
000000 62 4a df ba c8 7f 71 be 9b 8d cf 3e c5 ad 81 3e
       -0.0017035718 -0.23583901 0.40537724 0.25327888
000010 b5 b4 40 bd 2a ac 55 3e 3e 77 dd 3e 30 81 99 3e
       -0.047047336 0.20866457 0.43255037 0.29981375
000020 88 75 fb be 11 23 32 3e 13 84 af 3e 7a bc 19 3e
       -0.49113107 0.1739619 0.34280452 0.15013304
000030 c8 61 01 3e 0e e0 ea be 2c fc 99 be 4f 94 3c bd
       0.12634957 -0.45874065 -0.30075204 -0.046039876
000040 50 06 86 3d ff ea ce 3e 6e 46 75 be 95 07 98 3d
       0.06544173 0.40413663 -0.23952648 0.07423321
000050 77 24 f4 bc 46 d9 b0 be ba 6b e8 3e ab 9c 06 3e
       -0.029802544 -0.34540766 0.4539469 0.13145702
000060 25 06 ce be 88 c3 3c be f9 91 18 bb 73 ce f6 bd
       -0.40239063 -0.18433964 -0.0023280366 -0.12051096
000070 98 30 84 3e a6 a6 19 3e 50 43 79 bc a5 93 cd 3d
       0.25818324 0.15004978 -0.015213802 0.100379266
000080 a5 15 15 be fe 10 05 be 64 05 ce bd de 87 a6 3e
       -0.14559038 -0.12994763 -0.10059622 0.32525533
000090 de 44 c3 bc 59 14 bb be c5 77 b0 be 7f 1d 88 3e
       -0.02383655 -0.36538962 -0.34466377 0.26585004
0000a0 b0 6e f4 be 2b 9b a9 3e 05 cf 9c be 96 9d 0e be
       -0.47740698 0.33126196 -0.30626693 -0.13927302
0000b0 67 15 d7 3d 28 22 b7 3e de 1f 4f be 96 ea 34 3e
       0.10502129 0.35768247 -0.20227 0.17667612
0000c0 7b b3 c5 be 51 43 2b bd 26 3d 95 3e 6c 1c b1 3d
       -0.38613495 -0.041812245 0.29148215 0.08647999
0000d0 5c c1 3e 3e b5 a8 bb be 16 c3 0b bd 9c 4b b5 3d
       0.18628448 -0.3665215 -0.034121595 0.08852312
0000e0 e6 54 c9 be 71 3b 6f 3d 9b 08 41 be 59 c5 3a 3d
       -0.39322585 0.058406297 -0.18850939 0.04559836
0000f0 8a 9a 15 bd b6 d5 8a be 6f 49 2f 3e 90 8c 79 be
       -0.036524333 -0.27116174 0.17117856 -0.24370027
000100 69 ee a0 3e 2b 7a 28 be 08 a1 aa 3e 01 81 5e be
       0.31431893 -0.16452853 0.33325982 -0.21728899
000110 73 d3 a0 3e e3 78 da 3e fb 64 ae 3c 06 be 86 be
       0.31411323 0.42670354 0.021288386 -0.2631685
000120 29 f8 67 3e a8 a6 bc 3d 8f 47 ed 3e 00 22 1c 3e
       0.2265326 0.09211475 0.46343657 0.15247345
000130 a6 71 42 3d 6e d4 61 be 66 55 ec 3d a9 64 a6 3e
       0.047471665 -0.22053692 0.11539726 0.32498673
000140 df 80 7f 3e 61 c3 31 3d ad 16 e6 3e 17 44 c0 be
       0.24951504 0.04339922 0.44939175 -0.37551948
000150 9f 4c e8 be ba 1b 04 bf 26 36 e4 3e d9 9f 16 3e
       -0.45370957 -0.5160481 0.44572562 0.14709415
000160 6b 00 85 be 15 8f d6 3e 16 d5 98 3e 44 8a da bb
       -0.2597688 0.41906038 0.29850072 -0.0066693146
000170 21 ae 2d 3e f0 8a 36 be 40 67 80 3c 35 d7 b9 be
       0.16960956 -0.17826438 0.015674233 -0.36297002
000180 4f 2d f8 be f7 00 0c 3e cc e5 a6 be 5c 9e e9 be
       -0.48472068 0.13672243 -0.32597196 -0.4562863

encoder.layers.0.self_attn.W_Q.weight f4 [60, 100]
000000 7a d0 f0 ba 22 b7 4b bd d8 08 48 bd b3 11 46 3d
       -0.0018372678 -0.049735196 -0.04883656 0.048356723
000010 28 c3 36 bd af 2e cd 3c a9 11 14 3d 70 e4 5d 3d
       -0.04461971 0.025046675 0.036149655 0.054172933
000020 04 02 7b bc df 2f cf 3b e7 2f 80 bc 3b 21 72 bd
       -0.015320305 0.0063228454 -0.015647842 -0.059113722
000030 ab 77 bc bc 04 b6 8b bd 15 5b b3 bd 08 23 2e 3d
       -0.02300628 -0.06821826 -0.08757607 0.042513877
000040 ab 60 54 bd 10 69 6b 3c 0e 06 65 3d 72 a3 45 3d
       -0.051850002 0.014368311 0.055913977 0.048251577
000050 e1 b7 75 bd e0 0c 41 bc 03 16 90 3d 12 85 8f bd
       -0.059989814 -0.011782855 0.070354484 -0.07007803
000060 61 17 ec bb 49 a1 a6 bd 33 a3 1e 3d fd 66 95 bd
       -0.0072049354 -0.081362315 0.038729858 -0.07295034
000070 42 b3 20 bc bf 04 88 3d 64 3d c9 bd 9a e0 ba 3d
       -0.009808363 0.0664153 -0.098261625 0.091248706
000080 d2 f7 b3 3d cf 50 a5 3d 45 5d 9a 3c 29 7a 9e bd
       0.08787502 0.08072054 0.018843303 -0.07738144
000090 7d be 9f 3c 77 4d 25 bc 18 91 eb 3c 3e 15 e6 3d
       0.019500012 -0.01008927 0.02875571 0.112345204
0000a0 9b cf e0 3c dd 07 b0 3d 05 23 dd bd 5b 63 49 bc
       0.027442744 0.0859525 -0.10797695 -0.012291755
0000b0 d9 61 5d 3d a5 08 88 bd dc 94 38 3c 3d e5 cf 3d
       0.054048393 -0.06642274 0.01126596 0.101511456
0000c0 3a 94 b8 3c 41 9e 8a 3d 56 32 39 3d a1 4b ce 3d
       0.022531617 0.06768466 0.04521402 0.10073019
0000d0 2e 3b 3e bd 90 6c 9b 3c f6 cd 18 bd eb 11 c2 bd
       -0.046443157 0.018972665 -0.037305795 -0.09476074
0000e0 7e 70 95 bd f7 d5 20 3d 55 b4 c6 bd 55 f1 c6 3c
       -0.07296847 0.039266553 -0.09702364 0.024284998
0000f0 d3 25 b9 bd 09 6d b9 bd b4 70 26 3d c4 70 2c bd
       -0.090404175 -0.09054 0.040634826 -0.04209973
000100 2c f2 58 3d 41 50 3d bc 37 68 8b bd f0 4d 11 bd
       0.052965328 -0.011554779 -0.06806987 -0.035474718
000110 f7 2d 69 bd 3e b4 9c bd 00 a5 28 3c c7 0c b7 bc
       -0.0569286 -0.07651566 0.010293245 -0.02234496
000120 8e 90 4e 3d 13 da bf 3d a0 cc 88 bc 20 1c 9f 3d
       0.050430827 0.09367766 -0.016699135 0.07769036
000130 0a 75 43 bd fb 58 0a bd c0 41 41 3d ad 35 6a bb
       -0.04771904 -0.033776265 0.047181845 -0.003573756
000140 30 c2 6b 3c 0c 8a 43 3d dc 5e c5 3d 12 a0 7a ba
       0.01438956 0.047739074 0.096372336 -0.00095605955
000150 70 2b 5a 3d 9b a0 05 bd 5d 27 92 3d cf ad 13 bc
       0.05326408 -0.03262387 0.07136414 -0.009013607
000160 3f 59 81 bd bf 0d 96 3d b8 b5 ac 3d 0d f8 3b ba
       -0.063158505 0.073268406 0.084330976 -0.00071704463
000170 3c 2a db 3b 51 7a b4 bd e0 cb 83 3d a6 57 3c bd
       0.0066883843 -0.088123925 0.064353704 -0.045982026
000180 c6 ed cf bc 62 c3 c7 3d 56 23 9f 3d 87 7e 99 bd
       -0.025381934 0.09754063 0.07770412 -0.07494836
000190 5c 62 30 3d 87 39 4c bd 42 c2 8f bd 67 f2 79 3d
       0.043062553 -0.04985955 -0.070194736 0.06102219
0001a0 ef cc 90 bd 75 c5 58 bd 6d 4c 93 bd af d6 8c bd
       -0.07070338 -0.052922685 -0.071923114 -0.06876885
0001b0 7c 33 8f 3d 6b e6 88 bc 64 d3 ca 3d 06 f7 be 3c
       0.06992242 -0.016711434 0.09903601 0.02331115
0001c0 4e ca cf 3c f5 77 99 bd 79 84 9a bd b9 68 35 bd
       0.025365021 -0.07493583 -0.075447984 -0.044289324
0001d0 20 d1 f8 bb ca ab 56 bd 67 c0 94 3c af 2b fb 3c
       -0.007593289 -0.052409925 0.01815815 0.030660478
0001e0 c7 03 a0 3d c7 fd 41 3d b1 b8 de 3b d3 e2 16 bd
       0.078132205 0.04736116 0.0067969193 -0.03683741
0001f0 67 5d bb bd 27 35 91 bd 56 b6 87 3d bd 32 c8 bd
       -0.091486745 -0.07090216 0.06626575 -0.097753026
000200 e9 43 cd 3a d3 f6 76 bd 64 18 8f bd 39 eb c6 3d
       0.0015660498 -0.060293984 -0.06987074 0.09712834
000210 18 58 36 3a 00 c1 93 bd 8f 00 d1 bd f7 5c da bc
       0.0006955876 -0.07214546 -0.10205185 -0.026655657
000220 9d 28 0a bd cb e9 08 3d f6 00 be bd 62 b5 8c 3d
       -0.033730138 0.033426087 -0.09277527 0.068705335
000230 62 d1 3b 3c 09 20 98 bc af ec e2 bd 81 37 ae bd
       0.011463495 -0.018569963 -0.110803 -0.0850668
000240 b6 45 1a bd d6 c0 07 3c 45 d1 79 bd 46 05 4d 3d
       -0.037664138 0.008285722 -0.06099059 0.050053857
000250 ea d8 10 bc 95 8e c5 bc bd e7 0e bd 81 46 9d 3c
       -0.008840779 -0.02411584 -0.03488897 0.019198658
000260 85 6e 5f bd 43 78 56 3d 06 52 a8 3c f3 f6 9d 3b
       -0.05454876 0.052360784 0.020546924 0.0048206984
000270 8f 70 c7 3d 30 36 bc 3c e2 c5 fc bc 62 da 74 bd
       0.09738266 0.022975057 -0.030856077 -0.05977858
000280 1a 3f a6 bd 63 be 78 3d 8a 54 8f bd 7a b9 9a bd
       -0.081175044 0.060728442 -0.069985464 -0.07554908
000290 d5 70 19 bb 45 3c b4 bd 81 ec 5b bd 2d 45 a2 3c
       -0.00234132 -0.08800558 -0.053692345 0.019808376
0002a0 70 ae 20 bc 65 27 d2 3d 98 87 78 3d e0 62 33 bd
       -0.009807214 0.1026142 0.060676187 -0.043795466
0002b0 d5 01 13 bd 4c c5 77 bd 75 d6 2c bc c3 ba c9 bc
       -0.03589042 -0.06049089 -0.010549177 -0.024625188
0002c0 cd 85 bf 3d 9b 5d 86 bd 7f 60 92 bd f8 c9 38 bb
       0.09351692 -0.065608226 -0.071473114 -0.0028196555
0002d0 bd e4 c6 3d d6 64 68 3c b8 97 97 bd 6b f9 55 bc
       0.09711597 0.014184197 -0.07401985 -0.013059954
0002e0 ae 37 99 bd b1 6f 76 3d 4d 1d 9a bd 9d 4d 9b bd
       -0.07481323 0.06016511 -0.0752512 -0.07583163
0002f0 30 28 c9 39 b3 d4 1b 3c 82 28 4d bd 71 4d 4c bd
       0.0003836765 0.009511161 -0.05008746 -0.04987854
000300 7d 7d 15 bd 99 e9 f8 3c 71 4d c5 3d f6 a2 bc 3b
       -0.036496628 0.030384826 0.096339114 0.005756731
000310 4f e1 8e 3b 6f 0f 88 3c 19 9c 09 3d 23 44 40 3d
       0.004360355 0.016608922 0.033596132 0.04693998
000320 91 99 2b 3d ec 96 6e bd 4d 11 13 3d 01 91 26 3d
       0.0418945 -0.0582494 0.03590517 0.04066563
000330 63 c1 bb bc 7d b1 93 3d a2 b1 5a bc e8 2b dd bd
       -0.022919362 0.072115876 -0.013348015 -0.1079939
000340 7b 32 02 3d 18 95 a0 bd 50 97 b2 3b b7 6c 5a 3d
       0.031786423 -0.078409374 0.0054501668 0.053326335
000350 ca 89 46 3d bd 6a 4a 3d 60 28 b9 bd 18 8b 83 3d
       0.04847125 0.0494182 -0.09040904 0.064230144
000360 53 9b a2 bc 61 8e 8f bc f8 0f 67 3c 5f 33 6d 3d
       -0.019849455 -0.017523946 0.014102928 0.05791032
000370 81 11 d0 3d ee e9 17 3d c4 b3 a9 bd fb b9 8d bd
       0.101595886 0.037088327 -0.08286241 -0.069202386
000380 17 e6 a1 bd 68 bb bd bd 64 87 70 3d a4 7f b7 bb
       -0.07905214 -0.092642605 0.05872287 -0.0055999327
000390 5f 5e 58 bd fd e1 79 bd 3a 3e 5e bc f5 13 68 3c
       -0.052824374 -0.061006535 -0.013564641 0.014164914
0003a0 31 24 bc 3d 58 67 7e bd e1 75 2f 3d cf 5a 3e bd
       0.091865905 -0.062110275 0.042837027 -0.04647332
0003b0 a6 e7 90 3c 7c c3 1f 3d 11 b0 3d bd 00 bb 42 bc
       0.017688584 0.039004788 -0.046310488 -0.011885405
0003c0 36 94 95 bd e2 ed 70 bb f8 9c 97 3d 2e ec 20 3d
       -0.073036596 -0.0036762883 0.07402986 0.03928774
0003d0 08 c7 c8 3c 33 3c c7 3d c8 f6 82 3d 1d c8 0b 3d
       0.024508968 0.09728279 0.06394726 0.03412639
0003e0 14 73 69 bd bb 85 7e 3d ec 85 94 bd c2 83 a5 3d
       -0.056994513 0.062139254 -0.07252106 0.080817714
0003f0 f0 a1 86 3c 12 5a c0 3d 2c 48 87 3d 66 4d b8 bd
       0.01643464 0.093921795 0.066055626 -0.089991376

encoder.layers.0.self_attn.W_K.weight f4 [60, 100]
000000 72 11 c0 bd 9a ba 14 3d 69 27 d2 bd 93 6e a6 bd
       -0.093783274 0.03631077 -0.10261423 -0.08126559
000010 e8 f6 ec bc c6 27 a8 bd ea 80 59 3c 03 20 91 bc
       -0.028926328 -0.08210711 0.013275364 -0.01771546
000020 98 f1 a3 3c 9e 22 84 bd a4 42 ec 3b fb 7e 6e 3d
       0.020012662 -0.06451915 0.0072100926 0.058226567
000030 20 c4 c1 bd 50 d1 1c 3d a4 ed de 3d a4 11 c8 bd
       -0.09461236 0.038285553 0.1088517 -0.0976899
000040 f7 a0 ae 3d bc 1c ba bc 86 18 d7 bd 87 5e 29 3b
       0.08526795 -0.02271878 -0.10502724 0.0025843696
000050 9c 7a 08 bb 45 7d f3 3d a8 e9 2d bd 28 e4 9a bd
       -0.0020825034 0.11889128 -0.04245916 -0.075630486
000060 9d 34 b4 bc 4b bf 31 bd 91 1d 83 3d bd ef d4 bc
       -0.021997744 -0.04339532 0.06402124 -0.025993222
000070 bd a0 31 3b e2 e2 e8 3d 83 af 85 3d eb f1 8a bd
       0.0027103864 0.113713995 0.06527617 -0.067844234
000080 4f 46 ab bd 6e 56 b0 3d f2 d4 ea 3d 6b 83 cf bc
       -0.0836302 0.08610235 0.11466397 -0.02533122
000090 f2 43 f4 bd ec 87 99 bd 99 11 8b 3c 05 80 10 3d
       -0.11927022 -0.07496628 0.016976165 0.03527834
0000a0 09 cb b1 bc 7e 91 9d 3d e9 3c 92 bb d8 0f 32 3c
       -0.02170326 0.07693766 -0.0044628275 0.010868035
0000b0 ed 4c dc 3d 5a 4f e1 bb 0a 30 02 bd 7e e4 99 3d
       0.1075686 -0.0068759145 -0.031784095 0.075142846
0000c0 be be 6c 3c 60 5f 0d 3d 44 48 97 bd 0f 7b 58 3d
       0.014449773 0.034514785 -0.073868304 0.052851733
0000d0 4f 79 1d bd 4a d6 e2 bc 6d 0b df bc cd d5 89 3d
       -0.038445767 -0.027690072 -0.027227128 0.067302324
0000e0 a0 1a 9f bc d0 16 23 bd 44 73 10 bd 6f 99 c5 3d
       -0.019421875 -0.039816678 -0.035266176 0.09648406
0000f0 04 50 4a bd ae 72 b1 3c 52 05 d1 3d 73 c9 33 bd
       -0.049392715 0.021661129 0.10206093 -0.04389329
000100 0f 3d c0 bd 13 44 2f bb e5 9c 1d 3c 51 41 45 3b
       -0.09386646 -0.0026743456 0.009619926 0.0030098746
000110 a8 17 cd bd d0 19 aa bc 78 fc c3 3d 1b 70 9d bd
       -0.10014278 -0.020764261 0.09569639 -0.07687398
000120 8e 42 91 3c 53 f6 99 bd 42 c0 15 3b 09 27 47 bb
       0.017731931 -0.07517686 0.002285019 -0.0030388257
000130 8a 10 95 bd a3 f1 ec 3c 57 6f 09 3d e2 42 28 3c
       -0.07278545 0.028923815 0.033553448 0.010269852
000140 6c 22 7f 3d 70 36 9e bd c2 1e 8a 3d 38 a5 be bc
       0.062288687 -0.07725227 0.06744148 -0.023272142
000150 d2 c2 15 3d 29 50 d4 3c 1f ad 22 bd 5f 71 19 bd
       0.03656275 0.02591713 -0.039715882 -0.037461635
000160 55 b9 54 bd 8e 41 f3 3d 58 c9 73 bd ae a8 20 3d
       -0.05193456 0.11877738 -0.05951819 0.039223365
000170 3b 51 5b 3d 61 9f 83 3d 8d 10 59 3d 89 bb d8 bc
       0.053544264 0.064268835 0.0529943 -0.026456611
000180 7b ef ee 3d 77 f5 ee bd de 25 8d bd dc 4f f8 3b
       0.11666771 -0.116679125 -0.06891988 0.0075778794
000190 8b 7f c1 3d f3 92 9a 3d 71 9f b1 bc a7 7f df bc
       0.09448155 0.075475596 -0.021682473 -0.027282549
0001a0 8b 0c 61 bd ce c2 6d 3d 11 7b c4 3d 40 3c c7 3c
       -0.054943603 0.05804711 0.095937856 0.024320722
0001b0 f5 3d 37 3d d9 dc c8 bd 8e e0 5a bd 06 33 8c 3d
       0.04473682 -0.09807748 -0.05343681 0.068456694
0001c0 57 a1 97 bd aa cc 18 bd d4 a2 75 bc ab 03 bb bd
       -0.0740382 -0.037304558 -0.0149924345 -0.09131559
0001d0 83 2c a8 3d 8a 71 ba bc dd 65 b8 3d 79 b2 91 bd
       0.08211615 -0.022759218 0.09003804 -0.07114119
0001e0 6f dd 54 bd 24 df 8e bc 1d fe 8a bd 36 eb b0 3d
       -0.051968988 -0.017440386 -0.067867495 0.08638613
0001f0 66 b1 90 3d c8 2d 11 bd f0 20 45 3b 3d a6 6e bd
       0.07065086 -0.03544405 0.0030079447 -0.058264006
000200 fe 5e 31 bc 40 ed c1 3d 29 bd 3a 3d 5c 7e 35 3d
       -0.010825871 0.0946908 0.045590553 0.04430996
000210 9f 13 8b 3d 4f fa 7b 3c 3e 49 b9 3d c5 51 72 3d
       0.06790852 0.015379502 0.09047173 0.059160013
000220 58 fa d9 bd b5 53 aa bd f6 87 9f 3d d7 0d 85 bd
       -0.106434524 -0.08316747 0.07789604 -0.0649678
000230 72 d8 63 3b 0e 79 f9 bc 5b c7 a6 bd 7d a2 bb bd
       0.0034766463 -0.030453231 -0.08143493 -0.091618516
000240 5d 90 56 bd 41 e7 88 bd 1c df e0 bb e1 df cd 3c
       -0.05238377 -0.06684733 -0.006862534 0.025131168
000250 fb 5a 56 bc 55 21 1e 3d fb 43 c1 3d 8f bb 2d bd
       -0.013083215 0.038606007 0.09436794 -0.042415198
000260 5e b5 fd bc 63 de 59 bd 5f b3 b0 bd 69 fe 33 3d
       -0.030970272 -0.0531906 -0.08627962 0.043943796
000270 12 e8 85 bc db 48 a2 3c 36 63 cb 3d c8 7d 5e bd
       -0.016346011 0.01981013 0.09931032 -0.054319173
000280 25 25 8c 3d 52 1b 87 3d 21 9e f0 3c cd 01 de bb
       0.06843022 0.06597008 0.029372277 -0.006775117
000290 3b 38 b3 3d a8 72 7b 3c 1e 90 77 3d 90 5c 2b 3d
       0.087509595 0.01534716 0.060440175 0.04183632
0002a0 26 65 53 3d ba fb 21 3d 6c 2b b1 3d 7a 65 69 3d
       0.051610135 0.039546706 0.0865086 0.05698154
0002b0 1e 65 0f 3d 76 10 0c bd a8 e5 d7 3c be 39 79 bd
       0.035008542 -0.034195386 0.026354626 -0.060846083
0002c0 42 8d 31 3d 69 7e fc bc ba da ca 3d 67 21 ee bd
       0.043347605 -0.030821996 0.09905 -0.11627465
0002d0 a7 e0 09 be 22 6e d8 bc 3f f8 be bd c3 bd 88 bd
       -0.13464604 -0.026419703 -0.09324693 -0.06676819
0002e0 13 68 87 bd e1 21 94 bd 78 8e ad 3c 7f b3 fd 3c
       -0.066116475 -0.072330244 0.021186098 0.03096938
0002f0 a8 46 97 bc ae 38 f7 bd 81 a9 5a 3c f9 49 8a 3d
       -0.018466309 -0.12071358 0.013346077 0.067523904
000300 2e a5 8f 3d 77 6f 74 bd b0 52 8a 3d 76 a3 43 bb
       0.070139274 -0.059676614 0.06754053 -0.002985207
000310 7e 4c b4 bd 90 57 33 3d 78 00 46 3d 96 da b0 3d
       -0.08803652 0.043784678 0.04834029 0.08635442
000320 00 43 ba 3d d1 1a 92 bd f9 57 62 3c ed 64 0f 3d
       0.090948105 -0.07134021 0.01381492 0.03500836
000330 e7 45 af bd 59 d5 8b 3b bf d1 49 3d 49 b6 a2 3d
       -0.08558255 0.0042673764 0.049272295 0.079449244
000340 fc 6e 67 bc 65 0c 54 3d 24 88 a8 bd 01 d4 b6 bd
       -0.014125582 0.051769633 -0.08229092 -0.08927155
000350 29 4e 66 bd f8 39 4f bb a9 fe 91 bd 93 a3 48 3d
       -0.056226883 -0.0031620245 -0.07128651 0.04898412
000360 53 84 be bd 78 bd b3 3d 37 c4 b5 3c 89 40 64 3d
       -0.093025826 0.08776373 0.02218829 0.055725608
000370 9f 00 b3 3d 99 7e 93 bd 9d b0 22 3d f5 83 8b 3c
       0.08740353 -0.07201881 0.039719213 0.017030695
000380 a6 cf d1 3d a0 12 8f bc 4d 01 a4 bd 51 75 5d 3d
       0.10244684 -0.017464936 -0.080080606 0.05406696
000390 5b b5 c1 3d 9a 40 9d 3d f6 5d b3 bd 99 de b8 3d
       0.09458419 0.076783374 -0.08758156 0.09026832
0003a0 bd 57 53 bd ce fb 86 3c dc 14 50 3c d0 7b d2 3a
       -0.051597346 0.016477492 0.012700286 0.0016058628
0003b0 89 6c e7 bc c4 b9 21 3c 92 2e 8a bd 47 9f 8f bd
       -0.028249996 0.00987095 -0.06747164 -0.070128016
0003c0 68 54 bc bd b9 7b 9f 3d eb f3 bf bd 06 6c 47 bc
       -0.09195787 0.0778727 -0.093726955 -0.012171751
0003d0 b2 e8 6c bd 7d fa 69 3d 29 07 98 3d c6 91 be bd
       -0.057839103 0.05712365 0.07423241 -0.09305148
0003e0 a3 c3 3a 3d a4 95 c4 3c a0 d9 a7 3d 6c 8c c1 bc
       0.04559673 0.023997135 0.081958055 -0.023626529
0003f0 ce 30 9c 3d e8 73 de 3b 1b 8a 57 3d 01 e7 0e bd
       0.07626496 0.0067887194 0.052621942 -0.03488827

encoder.layers.0.self_attn.W_V.weight f4 [60, 100]
000000 e9 27 8f 3d cd db 1a bd a7 ae aa 3c 3d 73 a2 bc
       0.06990034 -0.037807275 0.020835234 -0.01983034
000010 40 cb 18 3d f4 e9 c4 bd 1a 2d a8 bc 62 a0 51 bc
       0.03730321 -0.096149355 -0.020529319 -0.012794586
000020 2d 0c bd 3c 7c 80 a3 3c 67 04 6d 3d 95 68 99 3d
       0.023077095 0.019958727 0.057865527 0.074906506
000030 23 fc ee 3d fc 46 83 bd 02 94 6c 3d 37 49 fe 3c
       0.11669185 -0.064100236 0.05775834 0.031040771
000040 59 55 c6 bd fb 47 da bb 9a 84 d4 bd 6f a2 77 3d
       -0.096842475 -0.006661413 -0.10376854 0.060457643
000050 d3 67 d9 3d 23 ef fc bc 38 60 9c 3d 92 31 82 bd
       0.10615506 -0.030875748 0.0763554 -0.06357111
000060 a4 a8 e5 bd eb 17 fb bc f5 df 40 3d 12 36 d9 bd
       -0.11213806 -0.030651053 0.047088582 -0.10606016
000070 4d 41 0f 3d da 69 76 3d cb 1a 68 3d 96 34 8c bc
       0.034974385 0.06015954 0.056666177 -0.017114919
000080 71 64 6d bd b1 cc 7b bd de 0d ea bd 09 b5 6b 3d
       -0.057957117 -0.061474506 -0.11428426 0.057545695
000090 b3 7f 51 bc 0e 6d 00 bd 11 74 da bd b0 b2 a3 3d
       -0.0127867935 -0.031354003 -0.10666669 0.07993066
0000a0 8c dc 42 b9 19 3d b4 3d 98 fa 96 3d b5 56 7b bd
       -0.00018583442 0.08800716 0.07372016 -0.061361987
0000b0 f5 d1 02 bd 67 b5 bf bd 59 c6 5d bd c5 34 05 3d
       -0.031938512 -0.093607716 -0.054144237 0.032521028
0000c0 a3 ea 98 bb 0a b0 bc 3d 86 85 0e 3d 07 fa bf bd
       -0.0046666428 0.09213264 0.034795307 -0.09373861
0000d0 96 97 91 bd 3b 79 06 3d 75 6d 52 3c ff 0a 3e 3d
       -0.07108991 0.032830458 0.012843479 0.046397205
0000e0 68 5b 96 3d 51 5e 57 bd 1b 3f a6 bd 81 75 79 3d
       0.07341653 -0.05258018 -0.08117505 0.060903076
0000f0 cc d0 85 bd 63 d3 0a bd eb 3e 9e 3d aa 40 e4 3d
       -0.065339655 -0.033893 0.077268444 0.11145146
000100 83 f9 97 3d 0a 38 f5 bd 7e 80 b3 3c 83 cd ae 3d
       0.074206375 -0.11973579 0.021911856 0.08535292
000110 ae b5 9f 3d 48 b3 51 bd a9 54 32 bd 8f fb c7 3d
       0.077983245 -0.051196367 -0.04353777 0.09764778
000120 ce ac 00 be b4 7a e4 3b 1b ce 05 3d fc ed a1 bd
       -0.1256592 0.006972635 0.03266726 -0.0790672
000130 9c 7c 81 3d f3 49 68 3d 71 82 2c bd 3c 5b 98 bd
       0.063225955 0.05671115 -0.042116586 -0.074392766
000140 08 07 25 3d 58 80 1a bd ca dd 78 3c 63 9f 33 bd
       0.04028991 -0.037720054 0.015189597 -0.043853175
000150 25 44 22 3d 8e 02 67 3d d2 24 28 bd 08 8b be bd
       0.03961577 0.05639892 -0.04105074 -0.09303862
000160 6a ed 51 3d 69 83 5e bc 93 a4 7c 3c 85 0c 87 3d
       0.051251806 -0.013581135 0.015420097 0.06594185
000170 ba 52 3a bd fa ea d6 bd 3b 0d 6f 3c 47 64 c2 bd
       -0.04548905 -0.10494037 0.014590557 -0.09491783
000180 be 98 d7 bd 29 6d 7d 3b 01 4b 27 b8 ff fc 84 3d
       -0.1052718 0.00386698 -3.9885756e-05 0.06493568
000190 22 12 be 3d ad 00 78 3d 0f ca 64 3d 00 2b 94 bd
       0.09280802 0.06054752 0.05585676 -0.07234764
0001a0 f3 20 3b 3d c8 4b 72 3c f8 91 79 bd e5 2e cd 3d
       0.04568572 0.0147885755 -0.060930222 0.1001871
0001b0 86 69 56 bb 80 32 dd bc d4 c3 fa bc 90 41 62 3d
       -0.0032716705 -0.02700162 -0.030610956 0.055238307
0001c0 af 40 1d 3d 75 4d 98 bd f0 35 4d 3d b6 a3 0a bd
       0.038391765 -0.07436649 0.050100267 -0.033847533
0001d0 ed a5 5a 3d da e1 71 3d 4a 07 d1 3d b3 6d ed bd
       0.053380895 0.05905328 0.102064684 -0.11593189
0001e0 a0 68 64 bc 01 56 36 3d 8a d2 9f 3d 9e 64 14 bd
       -0.01394096 0.044515613 0.07803829 -0.03622877
0001f0 07 40 f6 bc 87 06 26 3d b2 66 c8 3d 30 f8 1d 3d
       -0.030059827 0.04053357 0.097852126 0.03856677
000200 97 64 eb bd c4 88 80 bc 17 ad 00 3d 6d 1f bf bc
       -0.11493795 -0.015690215 0.03141507 -0.023330415
000210 f7 43 28 bd 4a fb 2e bd c2 bf 10 3e 62 c4 ce bc
       -0.04108044 -0.042720117 0.1413565 -0.025240127
000220 e5 d9 c5 bd 14 e8 7b bd a2 a8 8d 3b 49 84 27 3d
       -0.09660701 -0.061500624 0.004323081 0.04089764
000230 c7 62 8f bb 82 ae c2 bd 1d 24 11 3d b8 53 dc 3d
       -0.004375789 -0.09505941 0.03543483 0.107581556
000240 4f 53 84 bd ec 60 94 3d da 4c ad bb b9 01 c0 bc
       -0.06461202 0.07245049 -0.0052887024 -0.023438321
000250 33 41 cd 3d e3 75 40 bd 3d 3d aa bd a3 64 93 bd
       0.100222014 -0.046987426 -0.083124615 -0.07196929
000260 25 b9 e4 3d 07 22 c4 bd bc 6d aa 3d 59 35 35 3d
       0.11168126 -0.09576803 0.083217114 0.04424033
000270 ae b9 fa bc 3d 43 0e be 96 46 9f 3d eb 69 35 bd
       -0.030606117 -0.13892837 0.07777135 -0.044290464
000280 0c e7 b7 3d 5e d8 b2 bc e4 56 5f bd e7 4d 91 bd
       0.089796156 -0.021831688 -0.054526225 -0.07094937
000290 11 4d c4 bd fb b8 1f bd a7 d1 cd 3c dd 4e 8a bd
       -0.09585012 -0.03899477 0.025124384 -0.06753323
0002a0 f7 18 1d 3c 61 6d c3 39 f1 bb 58 3c eb 25 8f 3d
       0.009588472 0.00037274792 0.0132284025 0.06989654
0002b0 2e 09 06 3d f7 f5 06 3c 1f fc da 3d 87 20 b2 bd
       0.0327236 0.0082373535 0.106926195 -0.0869761
0002c0 bf b1 28 3c 05 73 a9 bd b0 b2 03 3c 25 77 c7 3d
       0.010296284 -0.08273891 0.008038208 0.09739522
0002d0 a7 af 19 3d 85 92 66 3c 03 12 26 3d 06 f9 92 bd
       0.03752103 0.014073019 0.04054452 -0.07176404
0002e0 9e 4d 84 bd 4e ca 72 bb 3c 84 72 3d 5e 5b 5f 3d
       -0.06460117 -0.0037046853 0.05920814 0.054530494
0002f0 46 9e 0e bc 52 3e e0 3d 0b b6 42 3d 89 7b 98 bc
       -0.0087047275 0.10949387 0.04753689 -0.018613594
000300 d5 af f2 bd 0c 88 0a 3e 15 42 f3 bc a6 ca e0 3b
       -0.118499435 0.1352846 -0.029694596 0.006860095
000310 9b c7 d8 3d 8c ef b8 bd 3a 53 d5 3c 82 b0 a3 bc
       0.10584947 -0.09030065 0.026040662 -0.019981626
000320 e2 57 e5 3d 24 ce ba 3d 43 49 97 3d 54 28 81 bd
       0.11198403 0.091213495 0.073870204 -0.0630652
000330 4b fe 6f bd b5 89 6b 3c e1 f8 ce bd f2 44 e8 3c
       -0.058592122 0.014376094 -0.10106064 0.028353188
000340 e7 31 e9 bc 23 ed 21 bd 1d a8 8f bb fe d4 f4 3c
       -0.028466178 -0.03953279 -0.0043840543 0.029886719
000350 1c 41 ce 3b c6 1e 1d 3d 12 48 df 3d db dd c6 bd
       0.0062943827 0.038359426 0.10902418 -0.09710284
000360 92 60 4e 3d 58 6f 6a 3d 03 39 c1 3d 48 ab 96 bd
       0.050385065 0.057235092 0.09434702 -0.07356888
000370 df d3 fd bc 39 9d e7 3d a8 9b 81 bd 96 bc 95 3d
       -0.030984817 0.11309285 -0.06328517 0.073113605
000380 58 53 d8 3d f6 2d 90 3d c4 51 03 3c 5d 49 85 3d
       0.105627716 0.07040016 0.0080151 0.065081336
000390 18 f0 4f bd eb 14 2a 3d 02 a0 0e 3d f4 bc 0c 3d
       -0.05076608 0.041523855 0.034820564 0.034359887
0003a0 1e 64 a0 bd e7 5e 62 3c 9a d9 02 3e 8a e6 b4 38
       -0.07831596 0.013816572 0.12778321 8.62601e-05
0003b0 70 18 dd bd 67 81 22 bc 81 a1 89 3d 86 c9 91 3d
       -0.10795677 -0.009918547 0.067202576 0.07118516
0003c0 61 db 64 bd ae 81 9d bd 67 ef 93 bd 7c 8d 42 3d
       -0.05587328 -0.0769075 -0.07223397 0.04749821
0003d0 b6 0a a6 3b b9 52 a1 bd b6 fa ab bd a6 2f 82 3d
       0.005067195 -0.07877106 -0.08397429 0.063567445
0003e0 f6 47 fb 3d 37 54 52 bd 87 f9 94 3d 3b 22 be 3d
       0.12269585 -0.051349845 0.07274156 0.09283873
0003f0 c6 6e b8 3d db dc 12 3d 91 11 ba 3d 3a 43 35 3d
       0.09005503 0.035855155 0.09085382 0.044253565

encoder.layers.0.self_attn.W_O.weight f4 [100, 60]
000000 b9 1d be 3d 4a 99 0e 3e 5d 42 16 3c eb 77 0f bc
       0.09283013 0.13925663 0.009171096 -0.008756618
000010 90 c7 3e bc c9 2e 2c bd 0f 85 75 bd d2 1f 70 bd
       -0.011644259 -0.042036805 -0.059941348 -0.058624096
000020 19 ac e3 3d 9e d3 03 3e 56 2e 50 3d 85 3f 65 3d
       0.111168094 0.12873694 0.05082544 0.05596878
000030 59 84 3b bd 46 70 6d bb a5 95 8e bc 12 03 c9 3d
       -0.045780513 -0.003623025 -0.01740534 0.09815039
000040 64 0e fd bc b3 f6 63 3d bf b9 df bc 7a be 87 bd
       -0.030890651 0.055655193 -0.02731025 -0.066281274
000050 c8 0f e3 3d ed 73 82 3c 0b 58 74 3c e2 ca 14 3c
       0.110869944 0.015924418 0.014913569 0.009081574
000060 c5 91 8e 3d 15 97 a3 3d 69 96 9c 3d 9b 67 0f 3e
       0.06961397 0.07987801 0.07645876 0.14004366
000070 80 77 39 bc 6a 78 37 3c 42 00 ff bd f9 4c d1 bd
       -0.011319995 0.011198143 -0.12451221 -0.102197595
000080 58 a4 17 bd 9a e1 3a 3d c3 7a d4 bd b6 be 4f 3d
       -0.037021965 0.045625307 -0.103749774 0.050718985
000090 23 48 4a bd 9c ba df bd 92 b9 eb 3c 48 82 16 bd
       -0.0493852 -0.10924265 0.02877501 -0.03674534
0000a0 5c c9 d0 bd 82 87 37 3e 04 63 02 be cb 47 fb bb
       -0.10194656 0.17922786 -0.12733084 -0.0076684705
0000b0 b9 08 65 3c 80 fe 84 bd 5b 49 53 3d d6 38 4a bd
       0.01397913 -0.064938545 0.05158363 -0.04937061
0000c0 99 24 c1 bb 7e 1b 28 3e b9 af 9f bd 0c 17 e6 bd
       -0.0058942554 0.16416737 -0.07797188 -0.112348646
0000d0 35 70 a2 bd 3a 12 16 bd 1e 41 67 bc f0 b3 76 bd
       -0.07931558 -0.036638476 -0.014114646 -0.060230196
0000e0 34 64 15 be 40 82 80 3d 7b f6 09 bd 07 51 bd 3d
       -0.14589006 0.06274843 -0.033682328 0.0924397
0000f0 99 5b d7 3c 04 00 1a 3e 84 10 a7 3d ea da d2 bd
       0.026288794 0.15039068 0.08157447 -0.10295661
000100 ab 02 88 bd 0b 58 0f be 46 d9 b7 bd 5c e1 0e 3d
       -0.06641134 -0.1399843 -0.089769885 0.03488289
000110 e4 1f 69 bd bd bc 9a 3d 27 ba f6 bb 3f 97 11 3b
       -0.05691518 0.0755553 -0.0075295153 0.0022215394
000120 ea c9 55 bd 90 10 1c be 71 15 f1 bc bf 61 13 3e
       -0.052194513 -0.15240693 -0.02942917 0.14392756
000130 a2 af 05 3e a9 f2 e9 3d bf 58 d7 bd aa 3a ba bd
       0.1305528 0.11423237 -0.10514974 -0.090932205
000140 15 88 0f 3e 95 b2 55 bc 3a 4d b2 bd 73 45 0f b6
       0.14016755 -0.013043066 -0.08706136 -2.1349085e-06
000150 3f 75 06 3e 14 e9 c9 3b a9 a1 75 bd e1 86 2a bd
       0.13130663 0.0061618183 -0.059968624 -0.041632537
000160 fc d8 46 3d ed 07 cc bc 06 b5 25 bc 3a d5 aa 3c
       0.048546776 -0.024906123 -0.01011396 0.020853627
000170 45 de 11 3d e0 9b 0b bd 2a 30 a3 bd 26 f6 22 3b
       0.035612363 -0.0340842 -0.07968171 0.0024865954
000180 42 d5 b2 bd ea d2 86 bd c9 07 06 bd ba 44 d9 bd
       -0.08732082 -0.065831974 -0.03272227 -0.10608812
000190 9b 42 77 bc fd ea 23 3d 14 46 e1 3d 87 d1 c4 3c
       -0.015091564 0.040019024 0.109996945 0.024025692
0001a0 61 b0 bd bd ca e2 f5 3d d3 44 fc bd f5 96 25 bd
       -0.09262157 0.12006147 -0.12317815 -0.040427167
0001b0 24 04 05 3d 9b 81 15 bd 40 cf 72 3d 33 73 c9 3d
       0.032474652 -0.036500555 0.05927968 0.09836426
0001c0 f0 e8 60 3d 0b b9 06 3d 75 66 f1 3b 52 76 74 3d
       0.054909647 0.032891314 0.00736695 0.05968315
0001d0 e4 fe ee 3c 76 4e 74 3d 6f ac 0d bd f5 68 c1 3d
       0.029174276 0.05964514 -0.034588274 0.09443847
0001e0 4b 3b 15 bb 21 64 bc bd 03 b9 fd 3c 83 f2 8b 3d
       -0.0022770937 -0.091987856 0.03097201 0.06833365
0001f0 49 ad 2e bd a8 f5 fe bd 95 0f 13 3d 92 20 25 bd
       -0.042645726 -0.12449199 0.035903532 -0.040314265
000200 c2 0e 0e be f1 c3 ac bd 41 14 d0 3b 43 b0 af bd
       -0.13872817 -0.0843581 0.0063500707 -0.08578541
000210 ac 4a 81 3d 2d 40 14 be 87 af cf bd ed 88 e0 3d
       0.06313071 -0.14477606 -0.10140901 0.109636165
000220 73 d9 bf bc 36 6a f5 3d 7f ee b7 3c ff bd 27 be
       -0.023419118 0.11983149 0.022452591 -0.16381072
000230 54 7d e5 3d 4e 03 29 3e 0d f8 63 3c 42 3c 99 bd
       0.11205545 0.16505167 0.01391412 -0.074821964
000240 a4 26 71 3d 08 fe b6 3d 1c 79 85 bd 51 2a 0a bc
       0.05887474 0.08935171 -0.065172404 -0.008432941
000250 3c c8 25 bd 11 ae 0c 3e 34 78 ef bc 69 67 49 bd
       -0.04047416 0.13738276 -0.029232122 -0.049170885
000260 a7 74 19 bc 20 1a 02 3e 32 b5 a7 bc ba 9c dc bd
       -0.009366191 0.12705278 -0.020472143 -0.10772081
000270 f1 25 90 bd ed 7e a8 bd 45 cf 03 3e cd be 95 bc
       -0.07038487 -0.08227334 0.12872036 -0.018279457
000280 2c ab ca 3d a8 b1 3c 3d ea 2a c8 bc 21 51 b0 bc
       0.0989593 0.046067864 -0.024434526 -0.02152306
000290 44 06 85 3d 04 94 a7 bd 71 d6 b9 bc 73 d5 2b bd
       0.06495336 -0.081825286 -0.022685261 -0.041951608
0002a0 c7 b2 30 bd 8b a3 fb 3d 28 cc 32 3c 46 c0 b5 3d
       -0.043139245 0.12287053 0.010912932 0.08874564
0002b0 cf d9 06 3d 38 a0 1c bc b2 80 2d bd 39 92 e6 bd
       0.032922562 -0.0095596835 -0.04235906 -0.112583585
0002c0 0c e8 31 bd a0 c6 17 be 63 f9 d2 3d 03 15 00 3c
       -0.043434188 -0.14821863 0.10301473 0.00781751
0002d0 de d7 17 3b a1 0d 30 3d 22 d6 a3 3d 25 39 25 3c
       0.0023169438 0.042981748 0.07999827 0.010084425
0002e0 b5 b6 cb bd 7e 34 56 3d 49 12 b4 3d e2 9a 31 3e
       -0.09946958 0.052296154 0.0879255 0.1734424
0002f0 a1 35 a1 bd 86 6a b0 3d e2 e8 8f 3d f3 55 6c bd
       -0.07871557 0.08614068 0.07026841 -0.057699155
000300 81 6e 8c bd 16 e1 7e bc e0 a7 f2 3c 61 84 20 be
       -0.068570144 -0.015556594 0.029621065 -0.15675499
000310 ba 53 d9 bc 7d 10 ff bd 43 08 08 bc 43 fc d6 3d
       -0.026529182 -0.12454317 -0.008302751 0.10497334
000320 84 91 28 3d 01 3b 84 bc 41 1f 88 bd 62 42 02 3e
       0.0411544 -0.016141417 -0.06646586 0.12720636
000330 c5 49 16 be aa f3 85 3d d7 9b b9 bd d3 08 77 bd
       -0.14676578 0.06540616 -0.09062927 -0.06031115
000340 e4 b0 b5 bc 0f 91 9b bc 7e 27 aa bd ee cb 94 bd
       -0.022179075 -0.018990068 -0.08308314 -0.07265459
000350 21 c6 d1 bd ec ea 92 3d db 35 63 3d 41 a3 96 3d
       -0.10242868 0.07173714 0.055471282 0.07355357
000360 96 84 b3 bd 0d cd 8d 3d 1b ed 97 bd 74 04 11 bd
       -0.08765523 0.06923876 -0.07418271 -0.035404637
000370 37 58 7d bd cd 08 00 be a2 ca 04 bd 96 c5 b2 3d
       -0.061851706 -0.12503357 -0.03241981 0.08729093
000380 25 d4 48 3c 65 94 5f bc 82 33 82 3d 74 dd 29 bd
       0.01225761 -0.01364622 0.063574806 -0.04147096
000390 30 74 5a 3d 48 e9 d8 3d 7d a0 19 3d 00 57 ff 3b
       0.05333346 0.1059137 0.03750657 0.0077923536
0003a0 7a 47 f3 3c 01 18 62 3c 24 65 cb 3c 7a 4d 5a bd
       0.029697169 0.013799668 0.024828501 -0.053296544
0003b0 f2 95 3b 3d a8 6c 91 bd 34 be 68 bc 39 4c 08 3d
       0.045797296 -0.07100803 -0.014205504 0.033275817
0003c0 3a 5a 9b 3d 45 89 d8 bd a9 e7 7b bc a8 6c 5d bd
       0.07585569 -0.10573057 -0.015375056 -0.0540587
0003d0 cd af 22 3d b8 00 35 3e a0 a9 a8 bd 1f b5 cd 3b
       0.039718438 0.17676055 -0.082354784 0.006277695
0003e0 e1 be b9 bb 03 30 cc 3c ed 57 ae 3b 3d 07 9f 3d
       -0.0056685065 0.024925238 0.00532054 0.077650525
0003f0 81 2c 80 3d 21 1b 7e bd de 07 6f 3d df 86 d6 bd
       0.062584884 -0.06203759 0.058357112 -0.10474943

encoder.layers.0.batchnorm_attn.1.weight f4 [100]
000000 d1 67 83 3f 8e 8f 7a 3f 5e e8 7d 3f 10 f8 7b 3f
       1.0266057 0.978753 0.9918269 0.9842539
000010 8f e7 80 3f 6a 62 7e 3f c1 80 73 3f c8 50 84 3f
       1.0070666 0.9936892 0.9511834 1.0337152
000020 58 fc 7c 3f 74 7c 81 3f 84 c9 88 3f 86 0c 80 3f
       0.98822546 1.0116105 1.0686498 1.0003822
000030 df ce 86 3f 40 a6 74 3f eb 77 80 3f 29 55 86 3f
       1.0531882 0.9556618 1.0036596 1.0494739
000040 d1 92 87 3f 47 29 7c 3f 6c 36 80 3f 6f e2 7a 3f
       1.059168 0.98500484 1.0016608 0.9800176
000050 3b e4 81 3f a1 e8 7f 3f 82 d3 83 3f 12 cb 81 3f
       1.0147775 0.9996434 1.0298922 1.0140097
000060 f4 b1 87 3f 99 57 80 3f 94 ba 74 3f ff cf 7f 3f
       1.0601182 1.0026733 0.95597196 0.9992675
000070 b1 cb 7a 3f 32 72 76 3f e3 b7 82 3f 9b b2 81 3f
       0.9796706 0.96268 1.0212368 1.0132631
000080 0e cb 86 3f f3 9a 87 3f 53 a2 8d 3f e4 2f 6e 3f
       1.0530717 1.0594162 1.1065162 0.93041825
000090 47 ef 80 3f bb 33 7d 3f a8 9b 75 3f ec c8 86 3f
       1.0073022 0.9890706 0.9594064 1.0530066
0000a0 13 bd 81 3f c3 a6 74 3f bf dd 83 3f ac c3 82 3f
       1.0135826 0.9556696 1.0302047 1.0215964
0000b0 14 6a 86 3f 65 0f 72 3f 3b 64 85 3f 9c af 81 3f
       1.0501122 0.9455474 1.0421213 1.0131717
0000c0 d0 fc 85 3f 88 8e 7a 3f 77 a7 82 3f c7 b6 72 3f
       1.0467777 0.97873735 1.0207356 0.94810146
0000d0 c1 5e 84 3f 14 43 88 3f a3 62 80 3f 20 3e 7d 3f
       1.0341417 1.0645471 1.0030102 0.9892292
0000e0 6d 9a 7e 3f 5f 68 77 3f d4 83 86 3f b6 a9 83 3f
       0.99454385 0.9664363 1.0508981 1.0286167
0000f0 69 83 86 3f 47 5e 7b 3f e6 05 85 3f fc dd 74 3f
       1.0508853 0.9819073 1.0392425 0.9565122
000100 bf 42 86 3f 45 2f 7b 3f ea 07 7f 3f 8b 57 85 3f
       1.0489119 0.98119 0.9962145 1.0417341
000110 21 a1 83 3f 09 ff 7f 3f fe 70 78 3f b6 40 84 3f
       1.0283548 0.9999853 0.9704741 1.0332248
000120 8e 0a 7a 3f a7 ae 80 3f 2a 0a 81 3f 49 37 7e 3f
       0.97672355 1.00533 1.0081227 0.9930311
000130 cf 7c 82 3f c7 1d 79 3f 1f 4d 76 3f da 2e 80 3f
       1.0194339 0.9731106 0.9621143 1.0014298
000140 85 65 84 3f 09 da 80 3f 83 b4 8a 3f 48 6b 74 3f
       1.0343481 1.0066539 1.0836338 0.954762
000150 e1 9c 83 3f ed 93 78 3f 47 a5 7d 3f 0b c3 79 3f
       1.0282251 0.97100717 0.9908032 0.97563237
000160 a5 9b 81 3f 87 b9 74 3f c4 f7 81 3f 28 ae 85 3f
       1.0125624 0.9559559 1.0153737 1.0443773
000170 9c 62 83 3f dd a1 81 3f e8 3c 82 3f 4e 86 86 3f
       1.0264468 1.0127522 1.0174837 1.0509737
000180 96 94 78 3f d0 d3 80 3f 88 c1 81 3f 7f 2b 80 3f
       0.97101724 1.006464 1.0137186 1.0013274

encoder.layers.0.batchnorm_attn.1.bias f4 [100]
000000 19 e4 d8 bb 3c 8f 8e bd 44 3f cd 3c 41 aa 81 3d
       -0.0066189882 -0.069609135 0.025054581 0.063313015
000010 df 88 45 bd d7 6a ce 3c 69 03 20 3c fe c4 70 bd
       -0.048226234 0.02519743 0.009766438 -0.058781616
000020 67 15 27 bd d8 55 21 3b 62 c8 1e bc b1 15 aa 3c
       -0.040791895 0.0024617817 -0.00969133 0.020762296
000030 96 23 1d bd 9e c6 d1 bc 24 45 e6 3c 17 0e db bb
       -0.038364016 -0.025607403 0.02810914 -0.0066850292
000040 0c 45 f1 3b 77 eb eb bc f6 90 f9 3c 19 e8 30 3c
       0.0073629674 -0.028798802 0.03046463 0.010797524
000050 72 7a 90 3d 05 bb 4b bd 1e f5 1e bd ec 72 ac bc
       0.070546046 -0.049738903 -0.03880798 -0.021050893
000060 f9 e2 b4 3c 1b ca 4c 3d ad e4 4d 3d 54 1e 09 3d
       0.022080885 0.04999743 0.05026691 0.03347619
000070 17 02 f1 3b 47 a0 71 bc 9e b4 ea 3c bb 1e 90 3d
       0.0073549855 -0.014747686 0.028650578 0.07037111
000080 81 a8 b2 3d 06 f1 b1 3b 2f 12 8d bc 42 76 90 bd
       0.08723546 0.0054303436 -0.017220585 -0.07053806
000090 b8 87 82 3d 17 b9 59 3d ac 3c 2a bd 2c dc c7 3c
       0.063735425 0.05315503 -0.041561767 0.024396978
0000a0 03 0e a9 3d ab 31 78 bc 19 54 aa bd 4f 25 02 bd
       0.08254626 -0.0151485605 -0.083168216 -0.03177386
0000b0 48 e0 22 bd 27 4f 93 3d db ef 8f 3d 0f 26 c1 bc
       -0.039764673 0.071928315 0.07028171 -0.023577718
0000c0 b1 c2 d9 bb 4b 98 26 3d 4a d9 56 3c 85 5b 85 bd
       -0.0066455235 0.04067258 0.013113329 -0.065115966
0000d0 a6 3d f1 bc 63 ac ac 3c c4 70 cf 3c 2d e9 43 bd
       -0.029448342 0.021078294 0.025322326 -0.047829796
0000e0 3f 65 e4 3c 57 6b e9 3c 0b 49 5b bd 73 f8 50 bd
       0.02788031 0.028493566 -0.053536456 -0.05101819
0000f0 ce 4d 8a bc 8f 57 21 bd 12 b2 34 3d 8d fe 08 3b
       -0.016882803 -0.039390143 0.044115134 0.0020903677
000100 71 37 ca 3c 48 53 0f bc 20 3e 38 bd 38 94 03 bc
       0.02468464 -0.008747883 -0.044981122 -0.008030944
000110 26 89 ef 3c 9f a8 4d 3c f5 fe e5 3b 46 d9 ca 3c
       0.029240202 0.012552409 0.0070189186 0.024761807
000120 a9 f3 ec bd d8 9f a8 3b 2b b5 6e bc ac fd b4 3d
       -0.11569912 0.005146008 -0.014569561 0.088374466
000130 90 6b b0 3c f4 b6 2b 39 99 b5 b3 bd e2 67 9d 3b
       0.021535665 0.00016375986 -0.087748714 0.0048036436
000140 ff fc ac 3d 3b 8b 3e 3d df f5 82 3c ff dd 1b bd
       0.08446693 0.0465195 0.015986381 -0.03805351
000150 ff 31 c4 3c ec 2f cf 3b c6 87 91 3d b4 f7 41 bd
       0.023949621 0.0063228514 0.07105975 -0.04735537
000160 f9 4a 8d 3c 15 52 06 3c b8 e2 18 3d e5 e5 59 bc
       0.017247664 0.008198281 0.03732559 -0.01329944
000170 bf f5 0d 3d 77 cd 9f 3a 74 70 c1 3b d6 5f 34 bc
       0.03465819 0.0012191971 0.005903298 -0.011009177
000180 f4 6a 83 bd 38 67 a0 bd 5a e2 4d bd 43 f1 17 bd
       -0.06416884 -0.078321874 -0.050264694 -0.03709532

encoder.layers.0.batchnorm_attn.1.running_mean f4 [100]
000000 29 52 c8 be e1 50 3f 3c 17 2a c1 3f 8d be 6f 3f
       -0.39125183 0.011676998 1.509097 0.9365013
000010 ac 0d 97 bf 4c a0 b4 3f 21 f9 7e be 2d ce 6b bb
       -1.1801047 1.4111419 -0.24899723 -0.0035981045
000020 ed c1 00 be 7b 91 9a 3f 2d 1f 41 bf 39 de 0a 3f
       -0.12573977 1.2075647 -0.75438195 0.54245335
000030 b8 35 df 3e b1 b6 c3 be 8b 5f 8d be 3e 16 27 3e
       0.43595672 -0.3822532 -0.27611956 0.16317078
000040 b3 8b 20 bf e9 2a a0 3e e1 fd 89 3d 18 d6 9c be
       -0.62713164 0.31282738 0.06737877 -0.3063209
000050 60 33 1a be 85 1a 94 be ad 8e b0 be 8f ae d7 3e
       -0.1505866 -0.28926483 -0.34483853 0.42125365
000060 7c 77 b6 bf 46 2b 86 bf 85 5d 81 be bb 1e b7 bf
       -1.4255214 -1.0481956 -0.25266662 -1.4306253
000070 ce fd 7c bf cf a6 5b be 8e 72 ee 3e 1f 5c ed 3e
       -0.98824775 -0.21450351 0.46571773 0.46359345
000080 34 71 53 be 0b f2 58 bf 1e dc 5a bb 37 55 27 3f
       -0.20648652 -0.8474433 -0.003339536 0.653644
000090 28 bb 92 be 20 a0 99 bf c1 f6 81 bc cb 47 51 3f
       -0.28658414 -1.2001991 -0.015864732 0.8175017
0000a0 c8 57 0a bf 1e d5 97 bf e6 07 04 bf 06 92 08 bf
       -0.54040194 -1.1861913 -0.5157455 -0.53347814
0000b0 45 07 69 bd 56 50 ba 3e 40 a3 f1 3d 09 fc ab bf
       -0.0568917 0.36389416 0.117987156 -1.343629
0000c0 e8 ae 0e c0 7a f0 92 3f d9 3c eb 3e f4 ea 24 3d
       -2.2294254 1.1479638 0.4594486 0.04026313
0000d0 17 28 99 bf 5d 39 b3 3f bf ac be 3c 6b 88 8d 3f
       -1.196536 1.4001881 0.023275731 1.1057256
0000e0 8a 31 76 3f 4c ce 87 be a1 16 fb bf 17 90 97 3f
       0.9616934 -0.2652458 -1.9616281 1.1840848
0000f0 f3 99 09 bf 17 3e 91 bf 90 0d bb be ff 99 8e 3f
       -0.5375053 -1.1347073 -0.36533785 1.1140746
000100 af 04 01 3f 11 0a af 3f 1a e9 35 3f 5f 0a be 3e
       0.5039777 1.3674947 0.7105881 0.37117288
000110 6d 1a a8 3f cb b9 56 3f 68 18 35 3f a1 d1 b4 be
       1.3133065 0.8387725 0.70740366 -0.35316184
000120 15 d6 f7 3d be 06 d4 3e d9 3d 59 bf 49 37 a0 3f
       0.1210138 0.41411394 -0.8486 1.2516872
000130 93 bd 04 40 99 b2 88 bf a0 a7 0a 3f 0f fb 09 bf
       2.0740707 -1.0679504 0.54162025 -0.5389871
000140 42 32 8a 3f 32 a0 17 3f 29 ea 8d bd 59 29 7c bf
       1.0796587 0.59228814 -0.06929428 -0.9850059
000150 62 58 0a c0 a2 e0 dc bf 6b b7 b0 3e 91 39 8f 3e
       -2.1616445 -1.7256052 0.34514937 0.27973607
000160 22 d4 5d be a9 1b db 3f 47 d8 b5 3f ea 15 73 bf
       -0.21662953 1.7117816 1.4206628 -0.94955313
000170 7f 4b 92 3f b4 03 36 be c2 87 22 bf 81 b4 9f bf
       1.142929 -0.1777485 -0.634884 -1.247696
000180 79 72 33 bf 30 54 5f 3f f1 58 e8 be b3 ec 05 3f
       -0.70096546 0.87237835 -0.45380357 0.523143

encoder.layers.0.batchnorm_attn.1.running_var f4 [100]
000000 b0 2f b9 3f 1a 1a d5 3f 31 75 52 40 15 2a 56 40
       1.4467678 1.664859 3.2884028 3.3463185
000010 e0 19 3d 40 16 e2 e5 3f 51 d0 a5 40 51 75 df 3f
       2.9547043 1.7959621 5.1816792 1.7457677
000020 03 74 b6 3f 95 1f d6 3f 16 b6 c7 3f 87 0a 2b 40
       1.4254154 1.6728388 1.5602443 2.6725175
000030 a3 c6 81 3f 32 db 74 40 87 c7 63 40 24 91 56 3f
       1.0138744 3.8258786 3.5590532 0.83815217
000040 77 cf 21 40 9b 31 3c 40 82 60 09 40 b6 00 ca 3f
       2.5282876 2.9405277 2.1465154 1.5781467
000050 10 40 c9 3f 88 a9 5b 40 ee 2c 0c 40 e8 80 04 40
       1.5722675 3.4322224 2.1902423 2.0703678
000060 cc 31 c1 3f 3d df cc 3f 77 2e 36 40 3e 60 1f 40
       1.5093322 1.6005627 2.846586 2.4902492
000070 f8 16 11 40 08 4c 61 40 35 46 98 3f 76 84 22 40
       2.267027 3.5202656 1.1896425 2.5393348
000080 d8 e4 23 3f 5f cc dd 3f d5 f8 09 3f 1f 5e 98 3f
       0.6402106 1.7327994 0.5389531 1.1903723
000090 cb 1e 28 40 74 4f 0c 40 5c ac 6d 40 7e 1c ec 3e
       2.6268795 2.1923494 3.713645 0.46115488
0000a0 e8 ce d0 3e ab d3 65 40 37 2a 3f 40 7d 05 e8 3f
       0.40782857 3.5910442 2.9869516 1.8126675
0000b0 a6 5d 28 3f a9 9d a1 3f d2 69 34 40 2e 1b 13 40
       0.65767896 1.2626239 2.8189588 2.298534
0000c0 2b 58 15 40 69 c9 9b 40 4d bb 08 40 3e 2f 00 40
       2.3335063 4.868336 2.136432 2.0028834
0000d0 5e 9a 1c 40 01 bc 13 40 80 99 35 40 f0 6b aa 3f
       2.4469218 2.3083498 2.837494 1.331419
0000e0 87 0e 83 40 08 31 d0 3f b3 fb 3a 40 44 28 3b 40
       4.0955234 1.6264963 2.9216125 2.9243326
0000f0 06 57 0c 40 aa e4 56 40 2a df 31 40 9f 90 91 3f
       2.1928115 3.3577065 2.7792459 1.137226
000100 d1 3f 0f 40 31 b8 41 40 ea 8e 23 40 99 02 00 40
       2.23827 3.0268672 2.5555978 2.0001585
000110 39 44 80 3f de 9f f9 3f 76 4b 81 40 95 94 0c 40
       1.002082 1.9501913 4.0404615 2.1965687
000120 b4 22 7f 40 84 ff 7b 40 4f cf ad 40 72 83 3d 40
       3.986493 3.9374704 5.431556 2.9611478
000130 d9 f4 ed 40 21 46 15 40 19 c9 8d 40 42 2e 30 40
       7.4361386 2.3324053 4.430798 2.7528234
000140 79 63 2f 3f 7b 2f 33 3f b2 b3 0e 3f 18 60 92 3f
       0.6851116 0.69994324 0.55742943 1.1435575
000150 60 ae 0f 40 66 c2 6c 40 18 89 16 40 7f 8e 50 40
       2.245018 3.6993651 2.3521175 3.2586973
000160 82 97 3c 40 f7 c6 88 40 df 0f 16 40 b0 26 a3 3e
       2.9467473 4.2742877 2.3447187 0.31865454
000170 7b 82 11 40 f8 74 03 40 0b 21 20 40 0b ce 03 40
       2.273589 2.0540142 2.5020168 2.0594509
000180 36 34 41 40 cb 59 43 3f 2f 2e c0 40 d9 d5 d3 3f
       3.0188117 0.7630889 6.0056376 1.6549636
