transformer_results_random_no_constants_no_param_tune/performance_prediction/DE-GA-ES-PSO_random_no_constants_dim_10_samples_50_fold_1_budget_30_n_heads_2_n_layers_1_d_model_100_d_k_30_d_v_30_aggregations_mean/trained_model.pt (torch, 344953 bytes, 22 tensors)

weight f4 [100, 11]
0	0xbd9eafc4	-0.077483684
1	0xbddc7729	-0.107649155
2	0xbe97488f	-0.29547545
3	0xbddd8bcf	-0.10817682
4	0x3e249899	0.16073836
5	0x3e7033b9	0.2345723
6	0x3e0de17f	0.13855551
7	0x3e61bc06	0.22044381
8	0xbe9f1a55	-0.31074777
9	0x3e9dabf7	0.3079526
10	0x3edaac90	0.4270978
11	0xbe71cc5b	-0.23613112
12	0xbd91fc54	-0.07128206
13	0x3e9d995f	0.30781075
14	0xbe94d6a8	-0.2907002
15	0x3ba7b6f8	0.005118247
16	0xbd7a1c3f	-0.061062094
17	0x3db62f87	0.08895784
18	0xbe0d739e	-0.13813636
19	0xbe8def62	-0.27721697
20	0xbe66ae7e	-0.22527501
21	0xbed15424	-0.40884507
22	0x3db7376b	0.08946117
23	0xbe80b201	-0.25135806
24	0xbd5f5f06	-0.05453398
25	0xbde89c0c	-0.113578886
26	0xbda5248b	-0.08063611
27	0xbd586a40	-0.052835703
28	0x3e718815	0.23587067
29	0x3de5958f	0.11210167
30	0xbe904d59	-0.28184012
31	0x3cef2848	0.029194012
32	0x3efaf514	0.49015105
33	0xbe34f43b	-0.17671292
34	0xbe841139	-0.2579439
35	0x3b0746fa	0.002064167
36	0xbd460b52	-0.04835064
37	0x3c5f610f	0.01363398
38	0xbca75b22	-0.020429198
39	0xbe8b2d72	-0.2718311
40	0xbd629249	-0.05531529
41	0x3e71035e	0.2353644
42	0x3d46d7ed	0.048545767
43	0xbeea5a26	-0.45771903
44	0x3d43da97	0.047815885
45	0x3e647445	0.22309978
46	0x3cfc5622	0.03080279
47	0x3e61765b	0.22017805
48	0xbe6db3b4	-0.23213083
49	0x3ea01d80	0.31272507
50	0xbe0bc49f	-0.13649224
51	0xbe189bfe	-0.14903256
52	0x3e9c8bf1	0.30575517
53	0xbe62a9f6	-0.22135147
54	0xbeab696c	-0.33478868
55	0xbd5baaf6	-0.053629838
56	0x3e6b0565	0.22951277
57	0xbd6c5724	-0.05770029
58	0xbd48f4eb	-0.049061697
59	0xbe44db92	-0.19224384
60	0x3e82c6e6	0.25542372
61	0xbe6387f8	-0.22219837
62	0x3d8e835c	0.069586486
63	0x3e2a22d2	0.16614845
64	0xbce3ade0	-0.027792871
65	0x3f1cdebf	0.61277384
66	0xbd9bee75	-0.076138414
67	0x3dddb3fc	0.10825345
68	0x3e7479a0	0.23874521
69	0xbe661d2e	-0.22472069
70	0x3cdc9567	0.02692671
71	0xbe2f4d39	-0.17119302
72	0xbdee1325	-0.11624745
73	0xbdd4431f	-0.10364365
74	0xbe8eacea	-0.27866298
75	0xbe4d89de	-0.20072123
76	0x3f03384e	0.5125779
77	0x3e7f10c6	0.24908742
78	0xbe5cf543	-0.21577935
79	0xbd73763e	-0.059438936
80	0xbdcde0e3	-0.10052659
81	0x3e49fc4d	0.19725151
82	0x3e760a09	0.24027266
83	0x3e565b15	0.20933183
84	0x3e7696bf	0.24080943
85	0x3dadfc60	0.08495402
86	0xbdc56525	-0.096384324
87	0x3e2d6c18	0.16935766
88	0x3ce40559	0.027834581
89	0xbe97e8e2	-0.29669863
90	0x3e7c7eca	0.24657741
91	0xbe7d1663	-0.24715571
92	0xbcc9f04c	-0.024650715
93	0xbcc26201	-0.023728373
94	0x3e6b5f3a	0.22985545
95	0xbcbfd465	-0.023416707
96	0xbe35a3e0	-0.17738295
97	0xbb18e8a7	-0.002333203
98	0x3ef3b087	0.47595617
99	0x3e56e2ec	0.20985001
100	0x3e15f504	0.14644247
101	0xbdb48625	-0.088146485
102	0x3d79fc98	0.061031908
103	0x3d8ac2fa	0.0677547
104	0x3daab84b	0.08335932
105	0x3e471119	0.19440116
106	0xbe7fa060	-0.24963522
107	0xbdc23e78	-0.09484571
108	0x37a9b5b3	2.023098e-05
109	0x3f0e506a	0.5559145
110	0xbe0ef16f	-0.13959287
111	0x3ddc1be9	0.10747511
112	0xbdbc9240	-0.092075825
113	0xbe8cd53d	-0.27506438
114	0x3e868ee5	0.26280895
115	0x3dae3b74	0.085074335
116	0xbe31aa64	-0.17350155
117	0x3e2a6e9d	0.16643758
118	0x3e4ed073	0.20196705
119	0xbd3f1d67	-0.0466589
120	0x3eed8fea	0.4639886
121	0xbe8678c4	-0.26264012
122	0xbe8bda1b	-0.2731484
123	0x3e5266a1	0.20546962
124	0x3da543e5	0.080695905
125	0x3e3faa3b	0.18717282
126	0x3c2ec101	0.010666133
127	0x3da7c46d	0.08191762
128	0xbe8af056	-0.27136487
129	0xbe8f5547	-0.2799475
130	0x3e6193f2	0.22029093
131	0xbf10cbec	-0.5656116
132	0x3dcf243c	0.10114333
133	0x3a620305	0.0008621666
134	0x3c9f8f5b	0.019477537
135	0xbc5f6114	-0.013633985
136	0xbc0ae573	-0.0084775565
137	0x3e19638a	0.14979377
138	0x3cfaa6e5	0.03059716
139	0x3e37788e	0.17917082
140	0x3e54da98	0.20786512
141	0xbe4533ca	-0.19258037
142	0x3e69e48e	0.22841093
143	0xbe758638	-0.23976982
144	0xbe51b2f8	-0.20478427
145	0xbdca5cab	-0.09880956
146	0x3e7334b8	0.2375058
147	0xbde1b879	-0.110215135
148	0x3d273e88	0.04083112
149	0xbe35a791	-0.17739703
150	0xbdd6c6aa	-0.10487111
151	0x3e9bde9e	0.3044328
152	0x3e6ed70b	0.2332422
153	0xbd86bfc2	-0.06579544
154	0xbe3e6a08	-0.18595135
155	0xbc85aa44	-0.01631654
156	0x3d4f109b	0.050552946
157	0xbe72e9e8	-0.2372204
158	0x3ddd81a9	0.10815746
159	0xbd222efb	-0.039595585
160	0xbe7d532c	-0.24738759
161	0x3e95ea23	0.29280195
162	0xbdd989e6	-0.10622005
163	0x3dadfea6	0.08495836
164	0x3ebc0b18	0.36727214
165	0x3e87a6f6	0.2649457
166	0x3d721c08	0.059108764
167	0x3dfaf829	0.12254364
168	0x3e7caab2	0.2467449
169	0xbe637a1a	-0.22214547
170	0x3e16d68f	0.14730285
171	0xbe45107a	-0.19244567
172	0xbe7a1fd4	-0.24426204
173	0xbce78c53	-0.028265154
174	0x3e75ec95	0.2401603
175	0xbd2a861f	-0.041631814
176	0x3e8b2bbc	0.27181804
177	0x3d82bbe3	0.06383493
178	0x3dca82b2	0.098882094
179	0xbe788112	-0.24267986
180	0xbd1780a2	-0.03698791
181	0xbda25a05	-0.07927326
182	0x3d853342	0.06503917
183	0xbdfb25fa	-0.12263103
184	0xbd860aae	-0.06545006
185	0xbda8b134	-0.08236924
186	0x3ea9a12c	0.33130777
187	0x3e6c76bd	0.2309217
188	0xbe519a1f	-0.20468949
189	0x3e763e5a	0.24047223
190	0xbcaa65e5	-0.02080054
191	0xbdf02c76	-0.1172723
192	0x3debd6fc	0.115156144
193	0xbe3786c0	-0.17922497
194	0x3d7c33e5	0.061572928
195	0x3e7f0fcb	0.24908368
196	0xbe519433	-0.2046669
197	0x3f0e01f8	0.55471754
198	0x3e32aec0	0.17449474
199	0x3e4892b0	0.19587207
200	0xbe6fa612	-0.23403195
201	0x3dea9834	0.11454812
202	0x3d94ba91	0.07262147
203	0xbe81cf27	-0.25353357
204	0x3da19d76	0.078913614
205	0x3ac6758f	0.0015141236
206	0x3e33a3a5	0.17542894
207	0xbe0214e2	-0.12703279
208	0x3ed7accf	0.4212403
209	0xbe794cce	-0.24345705
210	0xbbdcbd9a	-0.0067364695
211	0x3d0451ab	0.032304447
212	0xbbc8ae68	-0.0061243065
213	0xbe5067e2	-0.20352128
214	0xbe001c03	-0.12510686
215	0xbe27d7df	-0.16390942
216	0xbdec086f	-0.11525046
217	0xbc43b8db	-0.011945928
218	0xbdafeb38	-0.08589786
219	0xbed11bac	-0.40841424
220	0xbdd916a1	-0.10600019
221	0xbda457b9	-0.08024544
222	0xbdf50a57	-0.11964863
223	0xbe134bdd	-0.14384408
224	0x3e68b0e0	0.22723722
225	0xbe4b2d8e	-0.19841596
226	0x3e8db523	0.2767726
227	0xbe2398de	-0.15976283
228	0x3d7c2ff3	0.061569165
229	0xbe475be9	-0.19468655
230	0xbeab1202	-0.33412176
231	0xbd1c2d51	-0.038129155
232	0x3d3afccd	0.045651246
233	0x3d6c1e4d	0.057646085
234	0x3d82bc7e	0.06383608
235	0xbe77cf4c	-0.24200171
236	0xbdc8cf6a	-0.09805186
237	0x3d11e4c9	0.035618577
238	0x3b464e76	0.0030259169
239	0x3e302793	0.17202596
240	0x3e88086b	0.26568922
241	0x3f154bfc	0.5831907
242	0x3e79d726	0.24398479
243	0xbdd375bb	-0.1032519
244	0xbe059496	-0.13044962
245	0xbd1bb0cb	-0.0380104
246	0x3cf3d950	0.029766709
247	0x3d77acb3	0.060467433
248	0xbe92ab7d	-0.2864646
249	0xbda45790	-0.08024514
250	0x3e87d502	0.265297
251	0x3c1456f7	0.009053937
252	0xbed24d48	-0.41074586
253	0xbe35c042	-0.17749122
254	0xbdf478a0	-0.1193707
255	0x3e32a759	0.1744665

bias f4 [100]
0	0xbe2086fa	-0.1567649
1	0x3e4428b1	0.19156148
2	0x3e81b1f3	0.25331077
3	0x3e3d3575	0.18477423
4	0x3e91dc51	0.284884
5	0x3ddc20e1	0.10748459
6	0xbe0f65bd	-0.14003654
7	0xbe17b15b	-0.1481375
8	0x3e03d0e7	0.12872659
9	0xbe59e6f1	-0.21279503
10	0xbde043f3	-0.1095046
11	0x3d3a6c99	0.045513723
12	0x3ddc8040	0.10766649
13	0xbd720753	-0.059089016
14	0xbe75b0cc	-0.23993224
15	0xbd485274	-0.04890676
16	0xbe030b8f	-0.12797378
17	0xbdb00a74	-0.08595744
18	0x3e68e14f	0.22742198
19	0x3d111cc0	0.03542781
20	0x3e8bfc98	0.2734115
21	0x3dfabe65	0.12243346
22	0x3e0e5076	0.13897881
23	0xbeb28800	-0.34869385
24	0xbe8be318	-0.27321696
25	0x3e135299	0.14386977
26	0xbe82862b	-0.25492987
27	0x3e14e8cf	0.14541934
28	0xbe22d484	-0.15901381
29	0x3e4549df	0.19266461
30	0xbcdab628	-0.026698187
31	0x3e08813e	0.13330552
32	0xbd6112a7	-0.05494943
33	0xbe83b130	-0.2572112
34	0x3e82312d	0.25428143
35	0xbe803503	-0.25040445
36	0x3e31e69b	0.17373125
37	0x3d77b9fd	0.060480107
38	0xbdf0a56c	-0.11750302
39	0xbe55b81d	-0.20871015
40	0x3e31f87e	0.17379948
41	0xbe892b9c	-0.26791084
42	0x3e6b5261	0.22980644
43	0x3bc0b559	0.0058809933
44	0x3e98813c	0.29786098
45	0xbcbba55f	-0.022906004
46	0xbd1fd50d	-0.03902154
47	0xbe0e2db8	-0.13884628
48	0xbe71637c	-0.23573107
49	0x3dc6b5a4	0.09702614
50	0xbe822cd0	-0.25424814
51	0x3e6ca512	0.23109844
52	0xbea22abe	-0.31673235
53	0x3d9781f3	0.07397833
54	0xbba3f206	-0.0050032167
55	0x3e82622c	0.25465524
56	0xbe7e90ce	-0.24859926
57	0x3cde29fa	0.027119625
58	0xbe10131b	-0.14069788
59	0xbe2bb679	-0.16768827
60	0xbe35fac1	-0.17771436
61	0xbdd68e1d	-0.10476325
62	0x3eaaed4b	0.33384165
63	0xbcd0139b	-0.025399974
64	0xbd55fb3a	-0.05224154
65	0x3e60c6d8	0.21950853
66	0x3dd399d7	0.10332077
67	0x3e8dcd28	0.27695584
68	0x3d4f30ef	0.050583776
69	0x3cbd2c09	0.023092287
70	0x3e4a4e5f	0.19756459
71	0x3b744118	0.0037270244
72	0xbd9e29d4	-0.07722822
73	0x3e5473ee	0.20747349
74	0x3e0afea9	0.13573708
75	0x3e6fb5ca	0.23409191
76	0x3e64e194	0.22351676
77	0xbe3b1c26	-0.18272457
78	0x3e9246a8	0.2856953
79	0xbdeda70f	-0.116041295
80	0x3dd6eccc	0.10494384
81	0xbd14e976	-0.03635546
82	0xbc97c3ac	-0.01852592
83	0xbd15b3d0	-0.036548436
84	0x3e824310	0.2544179
85	0x3e35fe2c	0.1777274
86	0x3e8afa5d	0.27144137
87	0x3e5c6070	0.21521163
88	0x3e831c9d	0.25607768
89	0xbe67e1d4	-0.2264474
90	0xbdd2f549	-0.10300691
91	0x3e292f6d	0.16521998
92	0xbe07189f	-0.13192986
93	0xbd5f9abb	-0.05459092
94	0xbe9afb3f	-0.3026981
95	0x3e183cf2	0.14866999
96	0xbe3a5d89	-0.18199743
97	0xbe7fe0d1	-0.24988104
98	0xbe07d800	-0.13265991
99	0xbd5d60a4	-0.05404724

weight f4 [60, 100]
0	0xbd8e61d4	-0.06952253
1	0x3d940bc6	0.07228808
2	0xbd54dda5	-0.05196919
3	0x3d39f9e5	0.045404334
4	0x3dfb6d4f	0.12276708
5	0xbdf32f65	-0.11874274
6	0xbdaa5b85	-0.08318237
7	0xbd8ad44d	-0.067787744
8	0xbc8b5acf	-0.017011074
9	0x3c8ab6bf	0.016932843
10	0x3cc2631e	0.023728903
11	0x3dce8ea2	0.10085799
12	0xbd0e5c31	-0.03475589
13	0xbd76c76c	-0.060248777
14	0x3d1fb0c7	0.038986947
15	0x3db1b32b	0.08676752
16	0xbd751073	-0.05983014
17	0xbdc7e770	-0.0976094
18	0x3d7e921d	0.062151063
19	0x3d809f0d	0.062803365
20	0xbd64b300	-0.05583477
21	0xbcfe80e1	-0.031067314
22	0x3dbb581a	0.091476634
23	0xbd844767	-0.064589314
24	0xbdcc2b23	-0.09969165
25	0x3aa69f3d	0.0012712252
26	0x3df1a9fb	0.11799999
27	0xbdb31c4f	-0.08745634
28	0x3b1dbf1d	0.0024070211
29	0x3d8f488d	0.0699626
30	0xbc9a535f	-0.018838583
31	0x3d94a6cd	0.07258377
32	0xbd3962f6	-0.045260392
33	0x3d255915	0.04036816
34	0xbd2ef18c	-0.042710826
35	0x3c2eaea2	0.010661753
36	0xbde11641	-0.10990573
37	0x3c3c9136	0.01150923
38	0x3da9c0ca	0.08288725
39	0xbd4e8d7c	-0.0504279
40	0xbd34f751	-0.04418117
41	0xbca6620d	-0.020310426
42	0x3c0b4172	0.00849949
43	0x3d8d4046	0.06897025
44	0x3e2db567	0.16963731
45	0xbd31c17d	-0.043397415
46	0x3d992c77	0.07479184
47	0x3e071d22	0.13194707
48	0xbd53d88e	-0.051720195
49	0xbde4803b	-0.111572705
50	0xbd1e1375	-0.038592774
51	0x3e1c10f0	0.15240836
52	0x3b871960	0.004122898
53	0xbd848b2b	-0.06471857
54	0xbc71b596	-0.014752766
55	0x3df1f07a	0.118134454
56	0x3d0e2667	0.034704592
57	0x3daea28b	0.08527096
58	0x3dd7f736	0.105451986
59	0xbd509687	-0.050924804
60	0xbd41ea56	-0.04734262
61	0x3d031b2c	0.032008335
62	0xbd793161	-0.060838107
63	0xbde95a16	-0.11394136
64	0xbce4f999	-0.027951049
65	0x3db44010	0.088012815
66	0x3d970d6d	0.07375608
67	0x3c01aecb	0.007915209
68	0x3d163d94	0.03667982
69	0xbd9ed699	-0.07755775
70	0xbdac9f40	-0.08428812
71	0x3b5d2225	0.0033742276
72	0x3c7abff8	0.015304558
73	0xbd6aaece	-0.057295613
74	0xb9972086	-0.00028825196
75	0x39e5a13b	0.0004379841
76	0x3de04a61	0.10951687
77	0x3d8280f4	0.06372252
78	0x3da0c4bb	0.07850023
79	0xbe0840e0	-0.13305998
80	0xbd2feada	-0.04294858
81	0x3c09b377	0.008404604
82	0xbbfd12e5	-0.0077231997
83	0x3df021dc	0.11725208
84	0x3d82accd	0.063806154
85	0x3d995dc2	0.07488586
86	0xbde89ab3	-0.113576315
87	0x3cbdc48c	0.02316501
88	0x3db0f551	0.086405404
89	0xbdbf9258	-0.09354085
90	0xbdcc4a56	-0.09975116
91	0xbc9d38ab	-0.01919206
92	0x3e1712b4	0.14753228
93	0xbc73ea83	-0.014887455
94	0xbdbd99e2	-0.092578664
95	0xbc804ca6	-0.015661549
96	0x3d80f6c5	0.062970676
97	0xbd439150	-0.047746003
98	0xbd19792a	-0.037469067
99	0xbdd70651	-0.10499252
100	0x3d19720a	0.03746227
101	0x3e09139f	0.13386391
102	0x3d645a27	0.05575004
103	0xbcea5faa	-0.02861007
104	0x3c3baea8	0.0114552155
105	0x3d0b8486	0.03406193
106	0x3d1c927c	0.038225636
107	0xbcdfcbf1	-0.027318927
108	0xbd116774	-0.03549905
109	0xbc67bc49	-0.014144012
110	0x3d4ad438	0.049518794
111	0x3d9c3643	0.07627537
112	0xbd9baf38	-0.0760178
113	0xbde95878	-0.11393827
114	0xbdb1f6f5	-0.086896814
115	0xbdbb184d	-0.091354944
116	0x3cfe2361	0.03102273
117	0xbd0ce642	-0.03439928
118	0xbd6c08cf	-0.057625588
119	0xbd686c0f	-0.056743678
120	0x3dcabd5d	0.098993994
121	0xbde3bdf0	-0.11120212
122	0x3ce327b7	0.027728898
123	0xbd5bd815	-0.05367287
124	0x3da6364d	0.08115826
125	0x3dc5c737	0.09657138
126	0x3d78099d	0.060556043
127	0xbddc86cd	-0.10767899
128	0x3db0b3ae	0.08628021
129	0xbdd81261	-0.105503805
130	0xbc1d1028	-0.0095863715
131	0x3d8c4506	0.06849103
132	0x3abba426	0.0014315888
133	0x3ceafef9	0.028686034
134	0x3e098f4b	0.13433568
135	0x3d64ca8e	0.055857234
136	0xbdadadfb	-0.0848045
137	0x3d814b8b	0.06313237
138	0x3d34befb	0.044127446
139	0x3d73d5a6	0.059529923
140	0x3c8ca11d	0.017166669
141	0x3d176768	0.03696385
142	0xba605533	-0.00085576175
143	0x3de603a9	0.11231167
144	0x3d138320	0.036013722
145	0xbcdc7423	-0.026910847
146	0xbd8d68cd	-0.06904755
147	0x3d841e56	0.064510986
148	0x3ce8b224	0.028405257
149	0xbcfff7da	-0.031246115
150	0xbd1a2e32	-0.03764171
151	0x3e0828e7	0.13296853
152	0xbd718d78	-0.058972806
153	0x3d60e50e	0.054905944
154	0xbda94283	-0.08264639
155	0x3d452006	0.048126243
156	0xbb351ec6	-0.002763675
157	0x3b8e1567	0.0043360475
158	0x3e1c5d00	0.15269852
159	0x3cdf3fd8	0.027252123
160	0xbc387984	-0.01125944
161	0xbda9a71f	-0.08283829
162	0x3db4af80	0.088225365
163	0xbdb51c08	-0.08843237
164	0x3c54d8b1	0.012991116
165	0xbcf00553	-0.029299414
166	0xbdb2a948	-0.08723694
167	0xbd4f1065	-0.050552744
168	0x3e0cf5dd	0.13765664
169	0xbdfa9fd7	-0.12237518
170	0xbd4ea578	-0.050450772
171	0x3d9643ab	0.073371254
172	0x3dffa736	0.12483065
173	0xbb408d74	-0.0029381188
174	0x3dccd36d	0.10001264
175	0x3e0473c1	0.12934782
176	0x3c2928bd	0.010324654
177	0xbd01aaf3	-0.03165717
178	0x3df95205	0.12173847
179	0xbdaffa3d	-0.08592651
180	0x3d7c42a1	0.06158698
181	0xbe05dd88	-0.13072789
182	0x3d76dd20	0.060269475
183	0xbb83b293	-0.0040190904
184	0x3e359106	0.17731103
185	0x3d595d43	0.053067457
186	0xbd9d3340	-0.07675791
187	0x3d1ea6dd	0.038733352
188	0x3d0f2e6c	0.03495638
189	0x3d148f3a	0.036269404
190	0x3d700731	0.05860061
191	0xbc059342	-0.008152785
192	0x3da7e3ea	0.08197768
193	0xbe0f6c95	-0.14006265
194	0xbe026b52	-0.12736252
195	0x3d58500c	0.052810714
196	0x3dd22bce	0.10262261
197	0xbd9b89fd	-0.075946786
198	0x3d2993fc	0.041400895
199	0x3cbae243	0.022812968
200	0xbda64c1b	-0.08119985
201	0x3a6d67da	0.00090563076
202	0xbe0fb744	-0.14034754
203	0x39e76fe2	0.00044143113
204	0x3dc9745a	0.098366454
205	0xbda77b81	-0.081778534
206	0x3d07d696	0.03316363
207	0x3be99f1c	0.007129563
208	0xbca7b0a8	-0.020469978
209	0x3cc35438	0.02384387
210	0x3d9c01bb	0.076175176
211	0xbccb6682	-0.024829153
212	0xbd0ee556	-0.03488668
213	0x3d1a3f82	0.037658222
214	0xbd42c3df	-0.04755008
215	0x3dc240d6	0.09485023
216	0xbcb8f950	-0.022579819
217	0xbb3ad678	-0.002850918
218	0x3d71f66a	0.05907289
219	0xbd151ff3	-0.036407422
220	0x3d48515b	0.04890571
221	0x3d950847	0.072769694
222	0xbbf34e02	-0.0074250707
223	0x3c3d6a57	0.011560998
224	0x3d27fa0a	0.04100994
225	0x3c5dcbca	0.013537357
226	0x3a98e6a5	0.0011665417
227	0xbb7a5fb1	-0.003820401
228	0xbd0c02da	-0.034182407
229	0xbdce4318	-0.10071391
230	0x3c9be645	0.0190307
231	0xbd534549	-0.051579747
232	0xbca32df0	-0.019919366
233	0x3da0204f	0.078186624
234	0xbce3ec57	-0.027822657
235	0x3d709faa	0.058746018
236	0xbc77ca6b	-0.015123944
237	0x3a8964d4	0.001048232
238	0xbd739a7c	-0.0594735
239	0xbc941c1a	-0.018079806
240	0x3d93de1f	0.072201006
241	0x3d9a696d	0.075396396
242	0x3c590448	0.01324565
243	0x3d44dd31	0.048062507
244	0x3d98837d	0.074469544
245	0x3e02c3a4	0.12769943
246	0x3d9dfbb2	0.07714023
247	0x3be3d59f	0.006952956
248	0x3dcff494	0.101540715
249	0xbe20574c	-0.15658301
250	0x3beb8261	0.0071871732
251	0x3e1ac456	0.15113959
252	0x3d9f9428	0.077919304
253	0x3d033e52	0.032041855
254	0x3d3bdcd1	0.045864884
255	0x3bd66782	0.006543101

weight f4 [60, 100]
0	0xbd2058e1	-0.03914726
1	0xbdab2d10	-0.08358204
2	0xbd232d17	-0.039837923
3	0x3c83bdff	0.016081808
4	0x3df67592	0.120341435
5	0x3e154ebf	0.1458082
6	0x3e06201b	0.13098185
7	0xbe0e3075	-0.13885672
8	0xbb84f0a7	-0.0040570083
9	0x3de15872	0.11003198
10	0xbc21775e	-0.0098551195
11	0xbe0ff69a	-0.14058915
12	0x3d302f94	0.043014124
13	0x3de3fdb2	0.11132373
14	0xbdce0e1c	-0.10061285
15	0x3db9f0b0	0.090791106
16	0x3daaa20f	0.083316915
17	0x3d24c76c	0.040229246
18	0xbd1b1c84	-0.03786899
19	0xbd7fd726	-0.06246104
20	0xbe05c9a5	-0.13065203
21	0x3e114f89	0.14190497
22	0xbc415c29	-0.011801758
23	0x3d8f7d9e	0.070063815
24	0x3d8612c4	0.06546548
25	0xbd8bcee8	-0.068265736
26	0xbd484bd7	-0.04890045
27	0xbd1d56c2	-0.038412817
28	0x3d36c470	0.04462093
29	0xbd920981	-0.07130719
30	0x3d878b47	0.06618362
31	0xbdc40a93	-0.09572329
32	0x3bce3d57	0.0062939334
33	0xbbfe1362	-0.0077537755
34	0xbdcb7f58	-0.09936398
35	0xbb3a7c25	-0.0028455344
36	0xbd930b88	-0.07179934
37	0xbe32712c	-0.17425984
38	0xbd843d29	-0.06456978
39	0xbc155226	-0.009113824
40	0xbcc0cc4e	-0.02353492
41	0x3d01b9cf	0.03167134
42	0x3de7a1f2	0.113101855
43	0x3dc40606	0.095714614
44	0x3cdeaeff	0.027183054
45	0xbe2c7293	-0.16840582
46	0x3cb51205	0.022103319
47	0x3d5980b5	0.05310126
48	0xbd316bd6	-0.04331573
49	0x3d7dc075	0.06195112
50	0xbb3357d8	-0.0027365591
51	0xbd459182	-0.04823447
52	0xbd3212d6	-0.043474995
53	0xbd77f92c	-0.060540363
54	0xbd2bf336	-0.04197999
55	0xbd7191e0	-0.058977008
56	0x3e23d2d1	0.15998389
57	0x3dd2b88e	0.10289107
58	0xbd00d7a2	-0.031455643
59	0x3d7a958e	0.061177783
60	0xbd0b0f7f	-0.033950325
61	0x3df7d47a	0.121010736
62	0xbe1dd16f	-0.15411924
63	0x3dd30e1d	0.10305426
64	0xbd15dea1	-0.03658927
65	0xbcbf83af	-0.023378221
66	0xbcdfb578	-0.02730821
67	0x3e109752	0.14120224
68	0x3ddebb69	0.108755894
69	0x3dc85ccd	0.09783325
70	0xbddde175	-0.10834018
71	0xbc1d0dd2	-0.009585815
72	0xbe38000a	-0.17968765
73	0x3df35177	0.118807726
74	0x3c169357	0.009190402
75	0xbb8b36b8	-0.0042484663
76	0xbd0fc15f	-0.035096522
77	0xbd6a76cd	-0.057242204
78	0x3c6566b6	0.014001539
79	0x3c18989f	0.009313731
80	0xbd346430	-0.04404086
81	0xbd88b29d	-0.06674693
82	0xbdef4e82	-0.11684896
83	0xbdd70135	-0.10498277
84	0xbd95db71	-0.07317246
85	0x3da88aa7	0.08229571
86	0xbb9b6e57	-0.004743378
87	0x3e3550d4	0.17706615
88	0x3d933da7	0.071894936
89	0xbcbeb361	-0.023278894
90	0x3d5f4bbb	0.05451558
91	0xbdaa2dc8	-0.08309513
92	0xbdbe48d8	-0.092912376
93	0xbc4e8617	-0.012605212
94	0x3d77e622	0.060522206
95	0xbdcf08db	-0.10109111
96	0xbde615b8	-0.11234611
97	0xbbe18cb5	-0.0068832287
98	0xbdb58c5f	-0.08864664
99	0xbc442b1e	-0.011973171
100	0xbd532cb8	-0.05155632
101	0xbd11eaff	-0.0356245
102	0xbd0d96e0	-0.034567714
103	0xbc05115b	-0.008121814
104	0x3db1ebea	0.08687575
105	0x3c8459fe	0.016156193
106	0xbbba5b7a	-0.0056871744
107	0x39a33e0d	0.00031136014
108	0xbd096e85	-0.033552665
109	0xbc7dc0ca	-0.015487859
110	0x3d57e9e1	0.05271328
111	0xbd988e7f	-0.07449054
112	0xbb352103	-0.0027638085
113	0x3d29e230	0.041475475
114	0x3ca3dc98	0.020002648
115	0xbd96db7e	-0.073660836
116	0x3b7cd09a	0.0038576485
117	0xbd0ed8f3	-0.034874868
118	0xbe08822d	-0.13330908
119	0x3d461cda	0.04836736
120	0xbd74a90d	-0.059731532
121	0xbc71e170	-0.014763221
122	0xbced1056	-0.028938454
123	0xbe2fd657	-0.17171608
124	0xbccb3d07	-0.024809374
125	0xbcbec2ab	-0.023286184
126	0xbc8e462a	-0.017367441
127	0x3cfdf2ef	0.030999629
128	0x3ca832f5	0.02053211
129	0xbd88ea91	-0.06685365
130	0xbd0145dc	-0.031560764
131	0x3dc7a355	0.0974795
132	0x3c711157	0.014713607
133	0xbb3529fa	-0.0027643428
134	0xbce0b458	-0.027429745
135	0xbdc43e49	-0.095821925
136	0xbe0d2260	-0.13782644
137	0x3da0ee36	0.07857935
138	0xbd3cf437	-0.04613134
139	0x3e1e8e6d	0.15484019
140	0xbd419eec	-0.0472707
141	0x3d1048d7	0.035225715
142	0xbdc911f2	-0.09817876
143	0x3d1e1437	0.038593497
144	0x3d960e4b	0.07326945
145	0xbd4d89b9	-0.05018017
146	0x3de9dd38	0.11419147
147	0x3cb902ec	0.022584401
148	0x3de9536c	0.113928646
149	0x3d069d4c	0.032864854
150	0x3d145134	0.036210254
151	0x3dd54479	0.10413451
152	0xbdb40818	-0.08790606
153	0x3d8b1e21	0.06792856
154	0x3d6e5418	0.058185667
155	0x3ce0127d	0.027352566
156	0xbe2ab182	-0.16669276
157	0x3dfe8ef3	0.12429609
158	0x3deb1c0c	0.11479959
159	0xbd141426	-0.036152028
160	0x3d07373b	0.033011656
161	0x3cd63cc7	0.026152028
162	0xbb83848b	-0.004013603
163	0x3dbf252e	0.09333263
164	0xbb36dc6b	-0.0027902375
165	0x3dc0db35	0.094168104
166	0x3b3a7ef4	0.0028457018
167	0xbc8d21e1	-0.017228069
168	0x3c625119	0.0138132805
169	0xbe2aa1ab	-0.16663234
170	0x3d9211c4	0.07132295
171	0xbcb7478f	-0.022372989
172	0xbcb6aae9	-0.022298293
173	0x3de4c067	0.1116951
174	0xbb44a021	-0.003000267
175	0x3d3a06ff	0.04541683
176	0xbdb8037d	-0.0898504
177	0x3c79fc74	0.015257943
178	0x3d76cec5	0.060255785
179	0xbd64f855	-0.05590089
180	0x3dbd91e1	0.0925634
181	0xbe410ffc	-0.18853754
182	0x3d02a384	0.031894222
183	0xbd78d33c	-0.060748324
184	0x3e3bb798	0.18331754
185	0xbdc44e3c	-0.095852345
186	0xbe19bc97	-0.15013348
187	0x3dc99d16	0.09844415
188	0x3dc4cc89	0.096093245
189	0x3cc6e133	0.024277305
190	0xbd8a378f	-0.06748878
191	0xbdd46c03	-0.10372164
192	0x3dcae0ba	0.099061444
193	0xbdba8c30	-0.0910877
194	0x3dc1d354	0.09464136
195	0xbdd6d8a6	-0.10490541
196	0xbccca4af	-0.024980871
197	0x3e4524f9	0.19252385
198	0xbc874277	-0.016511185
199	0x3dc6bedb	0.097043715
200	0x3dd73223	0.1050761
201	0x3d94dd93	0.072688244
202	0x3dc12842	0.09431507
203	0xbda09ade	-0.078420386
204	0x3d9956f0	0.07487285
205	0x3d71c17b	0.059022408
206	0x3d22549a	0.039631464
207	0x3d1110ea	0.03541652
208	0x3d9c5e37	0.076351576
209	0x3c81cc5d	0.015844518
210	0xbdad40a2	-0.08459593
211	0xbdaf1a10	-0.08549893
212	0xbd1e3c1a	-0.038631536
213	0x3d0773a3	0.033069264
214	0x3dd5637f	0.10419368
215	0xbd328e07	-0.04359248
216	0xbd87f821	-0.06639124
217	0xbd4972b5	-0.04918166
218	0xbdcaec72	-0.099083796
219	0xbc9a83e2	-0.018861715
220	0xbe036de2	-0.12834886
221	0x3c982d74	0.018576361
222	0xbdc4c3b2	-0.096076384
223	0x3d87a7df	0.06623816
224	0x3d54eebd	0.05198549
225	0xbd952360	-0.07282138
226	0x3d902179	0.070376344
227	0xbd8cc8ec	-0.0687426
228	0x3ce1274a	0.027484555
229	0xbd5234db	-0.05131994
230	0x3c2817d5	0.010259588
231	0x3d92fb1a	0.071768
232	0x3d525e7f	0.05135965
233	0xbe078cbc	-0.1323728
234	0x3c86cc6d	0.0164549
235	0x3c5faa06	0.013651377
236	0x3de4a561	0.11164356
237	0x3d49b371	0.049243394
238	0xbdb65a45	-0.08903936
239	0x3daac1a8	0.08337718
240	0x3c361c44	0.0111151375
241	0xbc428ca5	-0.011874353
242	0xbce0426f	-0.027375428
243	0x3d0abc01	0.0338707
244	0xbd1a07b7	-0.037605014
245	0xbd359417	-0.044330683
246	0x3cc77ad7	0.024350567
247	0xbe167b24	-0.14695412
248	0x3dbac572	0.09119691
249	0x3d7cd7d0	0.061729252
250	0xbd7fd2e9	-0.062457
251	0xbd1f2b5b	-0.038859706
252	0xbd601ef8	-0.054717034
253	0xbe29ba2c	-0.16574925
254	0xbdaf59e4	-0.08562067
255	0xbd98508f	-0.0743724

weight f4 [60, 100]
0	0x3df0c89e	0.11757015
1	0xbd2ffe17	-0.04296693
2	0x3dd9680f	0.10615551
3	0xbd7334f9	-0.05937669
4	0x3caa7971	0.02080986
5	0xbcf7c428	-0.030244902
6	0x3d8b370a	0.06797607
7	0x3db03f0c	0.08605775
8	0x3d6e1c1d	0.05813228
9	0x3e004174	0.12524968
10	0x3c96f534	0.018427469
11	0xbd2dd06c	-0.042435095
12	0xbd08dcee	-0.03341382
13	0x3cff2f5c	0.031150512
14	0xbd1d174c	-0.038352296
15	0xbcf68a4f	-0.030095248
16	0x3d51bbde	0.051204555
17	0x3c5ce64a	0.01348264
18	0x3ddd212e	0.10797344
19	0xbd73144e	-0.059345536
20	0xbdd35936	-0.1031975
21	0x3d17f8c3	0.037102472
22	0xbe0aa79b	-0.13540499
23	0xbcc94775	-0.024570206
24	0xbcdc0653	-0.026858484
25	0xbdbdab1d	-0.09261153
26	0x3d41e65a	0.04733882
27	0xbdafb240	-0.0857892
28	0xbe04e485	-0.12977798
29	0x3d5c63b8	0.053806037
30	0x3ddeb7bb	0.108748876
31	0xbc27a57b	-0.010232325
32	0x3d49617a	0.049165227
33	0xbd66432e	-0.05621641
34	0x3c8a67e1	0.016895236
35	0x3ce51378	0.027963385
36	0x3d814875	0.06312648
37	0x3d94db17	0.072683506
38	0xbd0a7d77	-0.03381106
39	0xbcfeaac1	-0.031087281
40	0xbcc63d8d	-0.024199272
41	0x3daa00eb	0.08300956
42	0xbd4d8967	-0.050179865
43	0x3983006f	0.0002498659
44	0xbd974768	-0.073866665
45	0xbc22f249	-0.009945461
46	0xbdbce16e	-0.09222685
47	0xbda630c6	-0.081147715
48	0xbd898fcf	-0.067168824
49	0x3d20f961	0.039300326
50	0xbe17fd35	-0.14842685
51	0xbd5d34af	-0.05400532
52	0xbd334044	-0.04376246
53	0xbdad68eb	-0.08467277
54	0x3e11ba37	0.14231192
55	0xbd76d2e7	-0.060259726
56	0x3d53576e	0.05159705
57	0x3da8535a	0.08219023
58	0xbd0267e3	-0.031837355
59	0xbc412200	-0.011787891
60	0x3e222e6a	0.15838018
61	0xbd47fcad	-0.048824955
62	0xbdbb6827	-0.09150725
63	0xbb694126	-0.003559181
64	0xbd1f4ccc	-0.0388916
65	0x3da43890	0.08018601
66	0xbdf91650	-0.12162459
67	0x3bee7cf3	0.0072780787
68	0xbda2a50a	-0.07941635
69	0x3daef945	0.08543638
70	0x3db2cc96	0.08730428
71	0x3b4a6fc9	0.0030889383
72	0x3ca29ea9	0.019851046
73	0x3db987ec	0.09059128
74	0x3da88dc3	0.08230164
75	0xbe18d7ef	-0.14926122
76	0x3dbd7404	0.09250644
77	0xbe0200ae	-0.12695572
78	0xbdfda181	-0.1238432
79	0x3e052888	0.13003743
80	0x3bab656c	0.0052305963
81	0x3d542c8a	0.05180029
82	0xbdc18d83	-0.09450819
83	0xbe1779f4	-0.14792615
84	0xba3d34f8	-0.0007217671
85	0xbd5fdceb	-0.054654043
86	0xbdcd32a2	-0.10019423
87	0x3d2b2005	0.041778583
88	0xb9fb96a2	-0.0004798668
89	0x3dadf350	0.08493674
90	0xbc10ae92	-0.008830683
91	0x3dc56405	0.09638218
92	0xbcdf262e	-0.027239885
93	0x3cfa4196	0.030548852
94	0x3ddeff20	0.10888505
95	0xbe058fe4	-0.13043171
96	0xbde3f61b	-0.11130925
97	0xbd9df098	-0.07711905
98	0xbd88ba19	-0.0667612
99	0x3d4ab429	0.04948822
100	0xbdba0a46	-0.09083991
101	0x3d57489d	0.052559484
102	0x3bb136c4	0.00540814
103	0x3e04cee4	0.12969548
104	0xbd783ca2	-0.0606047
105	0xbe0a7e29	-0.13524689
106	0xbe31475c	-0.17312378
107	0xbd59034b	-0.052981656
108	0x3c93abcd	0.018026257
109	0xbe07c8ea	-0.13260236
110	0x3d46f16c	0.04857008
111	0xbc8f2a03	-0.017476087
112	0xbbdef32d	-0.006803891
113	0xbdb4a174	-0.08819857
114	0x3dad00a1	0.084473856
115	0xbdc77117	-0.09738367
116	0xbdffb121	-0.124849565
117	0xbdc0043f	-0.0937581
118	0xbe04e969	-0.12979664
119	0x3c1cb582	0.009564759
120	0x3d0b261e	0.0339719
121	0xbd88507b	-0.066559754
122	0x3e0143e5	0.12623556
123	0x3da28d8b	0.079371534
124	0x3d143d91	0.036191527
125	0xbd30f94e	-0.043206505
126	0x3c9844b5	0.01858745
127	0xbd12174b	-0.035666745
128	0x3b50c85e	0.003185771
129	0xbda9c1ed	-0.082889415
130	0x39f31ea0	0.0004637139
131	0xbe19554c	-0.14973944
132	0xbd1d202d	-0.038360763
133	0x3dab390d	0.08360491
134	0x3e313a48	0.17307389
135	0xbd976e0a	-0.07394035
136	0xbdaba94a	-0.08381899
137	0x3d8255b7	0.06364005
138	0x3ca1db4f	0.019757895
139	0x3d4227d3	0.04740126
140	0xbda6c7d1	-0.08143581
141	0x3d6f2d1b	0.058392625
142	0xbe072247	-0.1319667
143	0xbd5b5c7a	-0.05355499
144	0x3db33a4d	0.08751354
145	0x3e0f6f32	0.14007261
146	0xbc73ec00	-0.01488781
147	0x3e159cce	0.14610597
148	0x3d4ebc2c	0.050472423
149	0xbdeccb72	-0.115622416
150	0x3d1923f0	0.03738779
151	0x3d70fcf2	0.058834977
152	0x3c486b8f	0.012232675
153	0xbd0478e9	-0.03234187
154	0x3c45ab7c	0.012064811
155	0xbd9cfb81	-0.07665158
156	0xbe010101	-0.12598039
157	0x3e064157	0.13110863
158	0x3de280b1	0.11059702
159	0x3dad03ac	0.08447966
160	0xbd4bbd88	-0.049741298
161	0x3d07b1ea	0.033128656
162	0x3d03224c	0.03201513
163	0xbe25772f	-0.16158746
164	0x3e1e49f5	0.154579
165	0xba9a26b7	-0.0011760806
166	0x3de34129	0.11096413
167	0xbcd50a71	-0.026005955
168	0xbd9ee12a	-0.077577904
169	0xbd29ee09	-0.041486774
170	0x3d21d13d	0.039506186
171	0x3d9a222f	0.07526051
172	0x3db94ccd	0.09047852
173	0xbcf6cbdb	-0.030126503
174	0xbda17d86	-0.0788527
175	0x3dd684ab	0.10474523
176	0xbdc3b05a	-0.09555121
177	0x3bbcabf1	0.0057578017
178	0xbd0b0b0c	-0.033946082
179	0xbdd9e3c0	-0.10639143
180	0x3b7f6979	0.0038972779
181	0xbd861492	-0.06546892
182	0x3dd34d80	0.10317516
183	0xbb866083	-0.0041008606
184	0x3de6ee89	0.11275966
185	0x3e0c2777	0.1368693
186	0x3c80072b	0.015628418
187	0xbe1a19c4	-0.15048891
188	0x3d28fc16	0.041256033
189	0xbdaaf3b1	-0.08347262
190	0xbda09d59	-0.07842512
191	0x3c119ba8	0.008887209
192	0x3e09b1b8	0.134467
193	0xbdf561ac	-0.1198152
194	0xbe13dbbf	-0.14439295
195	0x3df3d168	0.119051754
196	0xbc10aab5	-0.008829762
197	0xbc72d557	-0.014821372
198	0x3c9fd29a	0.019509602
199	0x3a8a3999	0.001054573
200	0xbdbde36c	-0.09271893
201	0xbd06d88e	-0.032921366
202	0x3d55ffc3	0.052245867
203	0x3de0a5d5	0.1096913
204	0xbcbf579e	-0.023357209
205	0xbdc71d18	-0.09722346
206	0xbcea1e98	-0.028579041
207	0xbe00356a	-0.12520376
208	0x3c7bfa64	0.015379522
209	0xbd8e8397	-0.069586925
210	0xbd866563	-0.06562307
211	0x3db3a77a	0.08772178
212	0xbc19555f	-0.009358733
213	0x3d9438c9	0.072373934
214	0x3d3bedf1	0.045881215
215	0x3d480591	0.048833434
216	0x3da12fdd	0.07870457
217	0xbdb25f6c	-0.087096065
218	0x3ce9df00	0.028548717
219	0x3d3484bb	0.044071894
220	0x3bfe1703	0.007754208
221	0x3b5cffc7	0.003372179
222	0x3dd96476	0.106148645
223	0xbde4fa88	-0.111805975
224	0x3ceef46d	0.029169286
225	0xbd5fb378	-0.054614514
226	0x3e010353	0.12598924
227	0xbd05b12a	-0.03263966
228	0x3d885ae6	0.066579625
229	0xbda88fbd	-0.08230541
230	0xbcc9cd80	-0.024634123
231	0xbd82944b	-0.06375941
232	0xbdc8ee8b	-0.098111235
233	0xbc928f92	-0.017890725
234	0xbd24d76b	-0.0402445
235	0xbdbf0eb9	-0.0932898
236	0x3d29a042	0.0414126
237	0xbd179b02	-0.03701306
238	0xbd25a3d4	-0.04043944
239	0x3daafd45	0.083490886
240	0x3cefcf7f	0.029273747
241	0xbd826781	-0.06367398
242	0x3caff40c	0.021478675
243	0x3d29f7a0	0.04149592
244	0x3dfdc4bf	0.12391042
245	0xbd2a7afc	-0.041621193
246	0xbd181bc1	-0.037135843
247	0x3e0be462	0.1366134
248	0xbc4ab18a	-0.01237143
249	0xbdc10e9b	-0.09426614
250	0x3de36e86	0.11105065
251	0xbcc2f72f	-0.023799507
252	0xbd3ea5d2	-0.046544857
253	0x3c3feaeb	0.011713724
254	0xbd95e0e6	-0.073182866
255	0x3dda3e96	0.106564686

weight f4 [100, 60]
0	0x3dc4373c	0.095808476
1	0x3d48da7f	0.0490365
2	0xbd2f5805	-0.04280855
3	0x3e0c78be	0.13717934
4	0x3cc4c450	0.02401939
5	0x3d92e833	0.07173195
6	0xbe1d4bcc	-0.15360945
7	0xbdac6fcc	-0.08419761
8	0xbb74fbc8	-0.0037381519
9	0xbcb3ccff	-0.021948336
10	0x3d372e85	0.0447221
11	0x3dad44e9	0.08460409
12	0xbb73796d	-0.0037151233
13	0xbc858356	-0.016297977
14	0x3da9b11e	0.082857355
15	0x3dea8b99	0.114524074
16	0xbb6364e6	-0.0034697591
17	0x3c1cf7a7	0.009580529
18	0x3d3cb62d	0.046072174
19	0x3da8f499	0.08249778
20	0xbcd22485	-0.02565218
21	0xbc4dff2f	-0.012573048
22	0x3dd306d9	0.103040405
23	0xbdc1da2b	-0.0946544
24	0xbe184e4b	-0.14873616
25	0x3deb84c8	0.114999354
26	0x3d679944	0.05654265
27	0xbd9ee106	-0.077577636
28	0x3db4d721	0.08830095
29	0x3bba7787	0.0056905183
30	0xbe10cac5	-0.1413985
31	0x3d0c0248	0.034181863
32	0x3e2a3295	0.16620858
33	0xbd7ee65e	-0.062231414
34	0xbd6ae084	-0.05734302
35	0x3dd8c5f9	0.10584635
36	0x3c25d875	0.010122408
37	0xbaacef9d	-0.0013193969
38	0x3e0c5c9a	0.137072
39	0xbe091a8b	-0.13389032
40	0x3ba25024	0.004953401
41	0x3d9d2c1d	0.076744296
42	0x3d87aeec	0.066251606
43	0x3d9e5768	0.07731515
44	0x3d13c01b	0.036071878
45	0x3be8105d	0.007082029
46	0xbe0d76e2	-0.13814881
47	0x3dc53ede	0.096311316
48	0xbb8fa5f8	-0.0043837987
49	0x3dcc136d	0.09964643
50	0xbd968e25	-0.07351331
51	0x3bfc13cf	0.007692791
52	0x3d27542e	0.040851764
53	0x3cb3c6c4	0.021945365
54	0xbd4b03de	-0.049564235
55	0xbdb013f0	-0.08597553
56	0xbda113f4	-0.07865134
57	0x3a4e4341	0.0007868298
58	0x3c23b18a	0.009991059
59	0xbde4972d	-0.11161647
60	0xbbad255d	-0.005283995
61	0x3e90e1cd	0.28297272
62	0x3d7360cf	0.059418496
63	0xbaa762b5	-0.0012770506
64	0x3ca4e9c6	0.020131003
65	0x3afde4ef	0.0019370596
66	0xbdaef43c	-0.08542678
67	0x3e5257a3	0.20541243
68	0x3d307d32	0.043088146
69	0xbd46b743	-0.048514616
70	0x3d11168e	0.0354219
71	0x3d8c084b	0.06837519
72	0x3e382934	0.17984468
73	0xbe133030	-0.14373851
74	0xbd8aa868	-0.06770402
75	0x3cdcef05	0.026969442
76	0x3deb784c	0.11497554
77	0xbdc8a7cd	-0.097976305
78	0xbe5d7736	-0.21627507
79	0x3d8a53b6	0.06754248
80	0x3d8eaaae	0.06966148
81	0xbe0d625a	-0.1380705
82	0xbdc5f99a	-0.09666748
83	0xbd03204e	-0.03201323
84	0xbd6879f1	-0.056756917
85	0x3dd6da3b	0.10490843
86	0xbe2680cd	-0.16260071
87	0x3c1f2735	0.0097139375
88	0xbdff91fe	-0.12479018
89	0x3cf5e147	0.030014647
90	0x3dc6e4af	0.09711587
91	0xbd7f80d0	-0.062378705
92	0x3d75de9a	0.060026743
93	0xbc49ac7d	-0.012309191
94	0xbd6e4158	-0.058167785
95	0xbd4f9849	-0.05068234
96	0xbd4c20b7	-0.049835887
97	0xbcdd3c79	-0.027006375
98	0xbd57e5b0	-0.05270928
99	0xbe14ba34	-0.14524156
100	0x3da0598a	0.07829578
101	0xbd19bdbe	-0.037534468
102	0xbd7da056	-0.061920486
103	0xbd6f5987	-0.05843499
104	0xbbfee014	-0.007778177
105	0xbd739019	-0.059463594
106	0xbe3fb60a	-0.18721786
107	0x3dc8c11f	0.0980246
108	0xbc110ad6	-0.008852681
109	0x3e341dad	0.17589445
110	0xbd5f4253	-0.05450661
111	0xbcb2ab06	-0.021810066
112	0x3db6a142	0.08917476
113	0xbcdcc28f	-0.026948242
114	0xbcc72861	-0.024311246
115	0xbd877cc0	-0.06615591
116	0x3d7a9d71	0.061185304
117	0x3d9eaa78	0.07747358
118	0x3c005cd4	0.007834632
119	0xbde5b39c	-0.112158984
120	0x3d8ded45	0.06930021
121	0xbdd8d32b	-0.10587152
122	0x3db47adb	0.08812495
123	0x3d171e1a	0.03689394
124	0xbdb07d41	-0.0861764
125	0xbd8fc631	-0.07020224
126	0xbd2ebf50	-0.04266292
127	0xbdc94611	-0.09827817
128	0x3daa6b7f	0.083212845
129	0x3c9f78aa	0.019466717
130	0x3cdc3d2d	0.02688464
131	0x3d837dec	0.06420502
132	0xbd869c89	-0.065728255
133	0x3dd420fc	0.10357854
134	0x3d97346c	0.073830456
135	0xbca8602f	-0.020553676
136	0x3d0fcae7	0.035105612
137	0xbd3ca900	-0.04605961
138	0x3dcd3b42	0.10021068
139	0xbe32f23e	-0.1747522
140	0xbdce616b	-0.10077175
141	0x3d836ad9	0.06416864
142	0x3e00b29c	0.12568134
143	0x3e0943e6	0.13404807
144	0x3d9c5167	0.07632714
145	0x3d39fbf4	0.045406297
146	0x3d81abd3	0.06331601
147	0x3dd25023	0.10269191
148	0xbd535003	-0.051589977
149	0xbe150059	-0.14550914
150	0xbd4d9ab4	-0.050196365
151	0x3e0a11bb	0.13483326
152	0x3d7f8ca5	0.06238999
153	0xbd501e54	-0.050810173
154	0xbda1ee2f	-0.07906758
155	0x3d6ac181	0.057313446
156	0x3e17ea1d	0.14835401
157	0xbc4daa5c	-0.012552824
158	0x3ddadaa2	0.10686232
159	0xbe07eb9b	-0.1327347
160	0xbdd111bc	-0.10208461
161	0xbdedae57	-0.11605518
162	0xbd73d1bd	-0.059526194
163	0xbd943da7	-0.07238322
164	0x3d470590	0.04858929
165	0xbcf1167c	-0.029429667
166	0x3b339b64	0.0027405852
167	0xbc916fa6	-0.017753433
168	0xbb952c09	-0.0045523685
169	0x3de437e3	0.11143472
170	0xbe23c60f	-0.15993522
171	0xbd12da7b	-0.03585289
172	0xbd466350	-0.048434556
173	0x3e2cd514	0.16878158
174	0x3c89edd5	0.01683704
175	0x3c9337ff	0.017971037
176	0x3d6b1c64	0.057400122
177	0x3de67edb	0.112546645
178	0x3b946c92	0.004529544
179	0x3d19d768	0.037558943
180	0xbe0d5b6e	-0.13804409
181	0xbcc01df7	-0.023451788
182	0x3db802af	0.08984887
183	0xbdcce94d	-0.10005436
184	0xbdc178a3	-0.09446838
185	0x3dbb0e91	0.09133638
186	0xbd7f2b68	-0.062297255
187	0x3e071158	0.1319021
188	0x3d49664b	0.04916982
189	0x3dd93d15	0.106073536
190	0x3e147790	0.14498734
191	0xbdcb8437	-0.09937327
192	0x3e0cd4b6	0.13753018
193	0x3d6637be	0.056205504
194	0xbd398107	-0.045289066
195	0xbe056622	-0.13027242
196	0x3dc7becd	0.09753189
197	0xbde3321b	-0.11093541
198	0x3de0879d	0.10963366
199	0xbd6dd8ee	-0.05806821
200	0xbd16ae9e	-0.03678762
201	0xbd98d572	-0.074625865
202	0xbd8f3a10	-0.069934964
203	0xbcb6aa41	-0.02229798
204	0x3dbf5467	0.0934227
205	0xbe0748b9	-0.13211335
206	0x3de198e8	0.11015493
207	0x3dd6ca51	0.104878075
208	0xbd85881a	-0.065201
209	0xbd6bbf11	-0.057555262
210	0x3df81c21	0.1211474
211	0x3d965633	0.0734066
212	0xbdf7913d	-0.12088249
213	0x3d97902e	0.07400547
214	0x3ccbc5a0	0.024874508
215	0xbd2153cf	-0.039386567
216	0xbbc919c5	-0.006137105
217	0xbcd63a21	-0.026150765
218	0xbd5cf58e	-0.053945117
219	0x3de41649	0.11137063
220	0x3dc20af5	0.09474746
221	0x3dfea50e	0.124338254
222	0xbc8973f8	-0.016778931
223	0xbcb7cf4c	-0.022437714
224	0x3ddaa340	0.10675669
225	0xbd87d112	-0.06631674
226	0x3c105788	0.008809932
227	0x3d62c8d4	0.055367306
228	0xbb8e13fe	-0.0043358793
229	0xbcbffa27	-0.023434712
230	0xbd0141e0	-0.031556964
231	0x3d6e3907	0.058159854
232	0x3d6b19ca	0.05739764
233	0x3d8c88e6	0.06862049
234	0x3d84dfdc	0.0648801
235	0xbc4e8655	-0.012605269
236	0xbdbe3f57	-0.09289425
237	0xbd59e4e7	-0.053196814
238	0x3e1a57d3	0.15072565
239	0xbd85bc0c	-0.06530008
240	0xbda8943f	-0.08231401
241	0xbd789e9c	-0.060698137
242	0xbd377b68	-0.044795424
243	0xbcbcc377	-0.023042424
244	0x3db057b2	0.086104766
245	0xbd58717a	-0.052842595
246	0x3de04b78	0.109518945
247	0x3d8cb436	0.0687031
248	0xbce23af2	-0.027615998
249	0xbcf92514	-0.030413188
250	0xbcef4be6	-0.029210996
251	0x3c30aaf1	0.010782943
252	0x3e06acb6	0.13151821
253	0xbdb7684b	-0.08955439
254	0xbdea3d11	-0.11437429
255	0xbd95935b	-0.073034965

weight f4 [100]
0	0x3f803a8b	1.0017866
1	0x3f7a4790	0.97765446
2	0x3f808c7e	1.0042875
3	0x3f822d28	1.017003
4	0x3f72c001	0.94824225
5	0x3f852860	1.0402946
6	0x3f84c579	1.0372764
7	0x3f7d3adc	0.9891794
8	0x3f686fe8	0.90795755
9	0x3f8329f7	1.0247182
10	0x3f718863	0.94348735
11	0x3f852ee4	1.0404935
12	0x3f780734	0.9688599
13	0x3f8e546b	1.1119512
14	0x3f8107d6	1.0080516
15	0x3f89e4e4	1.0772977
16	0x3f80fafb	1.0076593
17	0x3f810758	1.0080366
18	0x3f75d7c6	0.9603237
19	0x3f6abdcf	0.91695875
20	0x3f7bd593	0.98372763
21	0x3f72d80b	0.94860905
22	0x3f878376	1.0586994
23	0x3f83f35c	1.0308642
24	0x3f8382b6	1.0274265
25	0x3f80ad2f	1.0052851
26	0x3f7361e1	0.95071226
27	0x3f7fe9db	0.9996621
28	0x3f7264bd	0.94684964
29	0x3f8499ce	1.0359437
30	0x3f75faef	0.9608602
31	0x3f79913a	0.97487223
32	0x3f7376f4	0.95103383
33	0x3f7225f3	0.94589156
34	0x3f7d38c1	0.98914725
35	0x3f825977	1.0183553
36	0x3f8afa29	1.0857593
37	0x3f84d303	1.0376896
38	0x3f7b56b9	0.98179203
39	0x3f83bb8d	1.0291611
40	0x3f7ea3c9	0.99468666
41	0x3f81d14d	1.0141999
42	0x3f81ce4e	1.0141084
43	0x3f831a64	1.0242429
44	0x3f714ea6	0.94260633
45	0x3f74d1f2	0.9563285
46	0x3f80841a	1.0040314
47	0x3f7c8f7c	0.9865644
48	0x3f73bdc8	0.9521146
49	0x3f7c85c2	0.986416
50	0x3f7fa48c	0.99860454
51	0x3f79b94f	0.97548383
52	0x3f67e7a7	0.9058785
53	0x3f890a36	1.0706241
54	0x3f83f791	1.0309926
55	0x3f7fb94d	0.9989212
56	0x3f85446e	1.0411508
57	0x3f70eae4	0.94108415
58	0x3f6fcbd7	0.9367041
59	0x3f7cf0ca	0.98804915
60	0x3f71b381	0.94414526
61	0x3f75462a	0.95810187
62	0x3f667238	0.90018034
63	0x3f80c965	1.0061461
64	0x3f814586	1.0099342
65	0x3f62baa3	0.88566035
66	0x3f735f70	0.950675
67	0x3f866ea3	1.0502514
68	0x3f77f27c	0.96854377
69	0x3f8a54b9	1.0807105
70	0x3f83b9b5	1.0291048
71	0x3f898e6e	1.0746591
72	0x3f7d923e	0.9905127
73	0x3f8034f2	1.0016158
74	0x3f83491f	1.025669
75	0x3f6c6dd7	0.923551
76	0x3f7a5054	0.9777882
77	0x3f8976ce	1.0739381
78	0x3f6fdfea	0.9370104
79	0x3f85a9c7	1.0442437
80	0x3f77e059	0.968267
81	0x3f7046e1	0.9385815
82	0x3f6c75ca	0.9236723
83	0x3f71a060	0.9438534
84	0x3f80c251	1.0059301
85	0x3f8bc4cc	1.0919433
86	0x3f801dff	1.0009154
87	0x3f81d19b	1.0142092
88	0x3f6d8ad7	0.9278998
89	0x3f843945	1.0329977
90	0x3f782b5b	0.96941155
91	0x3f89dac7	1.076989
92	0x3f8b13a0	1.0865364
93	0x3f734925	0.95033485
94	0x3f7f0239	0.99612767
95	0x3f85506f	1.0415171
96	0x3f7a2161	0.9770718
97	0x3f6ed662	0.9329587
98	0x3f7881ab	0.9707286
99	0x3f85be6e	1.044874

bias f4 [100]
0	0xbcfc5ee1	-0.03080696
1	0x3c3224dd	0.010873047
2	0xbcac3cc9	-0.021025078
3	0x3ca51e54	0.020156063
4	0x3ca4ad2d	0.020102108
5	0xbcadd1cf	-0.021218209
6	0x3c630279	0.01385557
7	0xbcd38147	-0.02581848
8	0x3cb7fa13	0.022458112
9	0xbce16814	-0.027515449
10	0xbd11a623	-0.03555883
11	0x3bb8ae39	0.0056360033
12	0xbc9ef92c	-0.019405924
13	0x3c909ed6	0.017653864
14	0x3d884412	0.066536084
15	0x3d3140db	0.04327474
16	0xbd0c965e	-0.03432309
17	0x3caa66a8	0.020800903
18	0xbcc4d9e4	-0.02402968
19	0xbc8f76a7	-0.017512633
20	0x3d14d686	0.036337398
21	0x3b8e3467	0.004339743
22	0x3cae47d3	0.021274483
23	0x3d84c2b9	0.06482453
24	0x3d1be830	0.038063228
25	0x3ce32292	0.027726445
26	0x3c93112d	0.017952526
27	0xbc647d72	-0.013945924
28	0xbc2e0903	-0.010622266
29	0x3c880b2b	0.016606888
30	0xbcc65986	-0.02421261
31	0xbc163c5e	-0.009169666
32	0xbc41ab24	-0.011820588
33	0x3ca91025	0.020637581
34	0x3c6b508b	0.014362465
35	0xbc344eea	-0.011005143
36	0x3c8fbf40	0.01754725
37	0xba4ef37c	-0.00078945584
38	0x3d07678f	0.033057746
39	0x3c760162	0.015014978
40	0xbd74054a	-0.059575357
41	0x3c9c9fd7	0.019119186
42	0x3ce0ffc9	0.027465718
43	0xbd2029fe	-0.039102547
44	0x3c4152cb	0.011799525
45	0xbcbd84aa	-0.023134548
46	0x3cbd3be5	0.023099849
47	0x3c94ed67	0.018179609
48	0xbc4da214	-0.0125508495
49	0xbbc5bda9	-0.006034572
50	0x3cb5f23f	0.022210239
51	0x3cf58b49	0.029973643
52	0xbc4e0a8a	-0.012575755
53	0x3cb78c8f	0.02240589
54	0xbd261ed8	-0.04055676
55	0x3ca22ce2	0.019796792
56	0xbc17049d	-0.0092174085
57	0xbc0175f2	-0.0079016555
58	0xbc4b03c4	-0.0123910345
59	0xbccb0165	-0.024780938
60	0xbc380df7	-0.011233798
61	0xbd01c739	-0.031684134
62	0xbcb09010	-0.02155307
63	0x3c053520	0.008130342
64	0xbd4e0288	-0.050295383
65	0x3ceb6639	0.028735267
66	0xbc3d2c78	-0.011546247
67	0xbd006944	-0.03135039
68	0xbca4850a	-0.02008297
69	0x3b262fd7	0.0025358105
70	0xbc9a3496	-0.018823903
71	0xbca6b268	-0.020348743
72	0x3c92a8c7	0.017902745
73	0x3c512c03	0.012766841
74	0x3d2267ae	0.039649658
75	0xbd8cc902	-0.06874277
76	0x3c44487c	0.011980172
77	0x3c6c9154	0.014438946
78	0xbc7fa738	-0.015603833
79	0x3cf2a5ee	0.029620137
80	0xbcb79620	-0.022410452
81	0xbccaefe1	-0.024772586
82	0xbcc2cb78	-0.023778662
83	0xbcead96a	-0.028668124
84	0x3b833a7e	0.0040047755
85	0x3c6ee8aa	0.014581839
86	0xbce6b38f	-0.028161792
87	0xbcd1549b	-0.025553038
88	0x3d2797f4	0.0409164
89	0xbd0f7af0	-0.03502935
90	0xbd216305	-0.039401073
91	0x3bcaf9b4	0.0061943177
92	0x3c95f32d	0.018304432
93	0xbaafc6c7	-0.0013410681
94	0x3c51cafc	0.012804743
95	0x3c85adb5	0.016318182
96	0xbb63abc9	-0.0034739843
97	0x3d491662	0.04909361
98	0xbd7840d3	-0.060608696
99	0xba25ebc3	-0.0006329382

running_mean f4 [100]
0	0x3f1b975e	0.60777843
1	0x3f443b11	0.7665263
2	0x3fe48db3	1.7855743
3	0xbec0b575	-0.3763844
4	0xc012616f	-2.2871969
5	0x408066ca	4.0125475
6	0x4006934c	2.1027403
7	0x3fddc0a7	1.7324418
8	0xbfe270d9	-1.7690688
9	0x3f7ee4d3	0.9956791
10	0x3f90a3be	1.129997
11	0xbf86ecd2	-1.0541022
12	0x3e16923d	0.14704223
13	0x3f14618a	0.5796133
14	0x3ee57a33	0.44819793
15	0xbec186eb	-0.37798247
16	0x3fb3d0dc	1.4048114
17	0xbed7ec8d	-0.4217266
18	0x3fc4705f	1.5346793
19	0x40666497	3.5998895
20	0xc030725b	-2.7569797
21	0x406614d7	3.595022
22	0xbe2d829d	-0.16944356
23	0xbffc3180	-1.9702606
24	0xbfb59a44	-1.4187703
25	0xbf90b1ac	-1.1304221
26	0xbfda3a1d	-1.7048985
27	0x40359c77	2.8376749
28	0x3f14b60f	0.580903
29	0xbf32357c	-0.6961286
30	0xbe6b4a35	-0.22977526
31	0x3f88745d	1.0660511
32	0x4020558c	2.5052214
33	0xc029c96f	-2.6529195
34	0xc0375eeb	-2.8651683
35	0x3fbab19e	1.4585454
36	0x3ede7b2b	0.43453345
37	0x3fb499a0	1.4109383
38	0xc06d4883	-3.7075508
39	0x3e14360f	0.14473747
40	0x3fd0e973	1.6321243
41	0xbe38368b	-0.17989556
42	0x3fb78324	1.4336896
43	0x3f8dafd0	1.1069279
44	0xbff35836	-1.9011295
45	0xc01119fa	-2.2672105
46	0xbfcd1b38	-1.6023932
47	0xc07adebd	-3.9198449
48	0xbe36f491	-0.17866732
49	0x402864dc	2.631156
50	0xc02e4920	-2.7232132
51	0xc0266035	-2.599622
52	0xbff40009	-1.9062511
53	0x3f846f01	1.0346376
54	0xbe8c3353	-0.27382907
55	0xbfb96e00	-1.4486694
56	0x3f6e5190	0.93093204
57	0x3fd02f39	1.6264411
58	0xbff90cad	-1.9456993
59	0x404b9632	3.1810422
60	0x40205c34	2.5056276
61	0x3f8f08b5	1.1174532
62	0x3f1e5151	0.6184283
63	0x3ff119f2	1.8836043
64	0xbf4e9315	-0.8069318
65	0x3f1dd082	0.6164628
66	0x400b73ae	2.1789355
67	0x3f9f314a	1.2436917
68	0x3f8b77f0	1.0895977
69	0x4002dec8	2.0448475
70	0x403000ff	2.7500608
71	0x3f40d230	0.7532072
72	0xc010ba59	-2.2613738
73	0x3ef7dac2	0.48409086
74	0xbe1b6b10	-0.1517756
75	0x3f8f5120	1.1196632
76	0xc04922b9	-3.1427443
77	0xbfc742e8	-1.5567293
78	0xbea1847e	-0.31546396
79	0xbf409013	-0.7521984
80	0x4095a0f6	4.6758986
81	0x400b6490	2.1780128
82	0x3ff00db3	1.8754181
83	0x4054f70b	3.3275783
84	0xbfe8bb29	-1.8182117
85	0x3f62f569	0.88655716
86	0x400034fb	2.0032337
87	0x3f045d49	0.5170484
88	0xbf37cdb2	-0.7179824
89	0x3fa025d3	1.2511543
90	0x4018c737	2.387159
91	0xbf39d3c4	-0.72588754
92	0xbee898a0	-0.45428944
93	0x4056ef82	3.3583684
94	0x3f48ca5b	0.7843377
95	0x3b9052ef	0.0044044177
96	0xc04e4027	-3.2226655
97	0xc03516fd	-2.829528
98	0xbea90ae4	-0.3301612
99	0x3ebb6d23	0.36606702

running_var f4 [100]
0	0x40ef694e	7.4816046
1	0x411dc74d	9.861157
2	0x405f88fe	3.4927363
3	0x408a2939	4.317532
4	0x40df901e	6.9863424
5	0x413c3c0a	11.764658
6	0x407bf741	3.9369662
7	0x40802570	4.00457
8	0x40ca9d68	6.3317146
9	0x40c3325c	6.0998974
10	0x409754e0	4.7291107
11	0x40f5721b	7.670179
12	0x40b1cbb4	5.556116
13	0x411074cd	9.028516
14	0x40c00fd5	6.0019326
15	0x40cd60bf	6.41806
16	0x408f5145	4.4786706
17	0x40a65812	5.198251
18	0x4062fbbd	3.546615
19	0x41027b91	8.155168
20	0x40ef6718	7.4813347
21	0x4135060f	11.313979
22	0x40f8a524	7.770159
23	0x416449b3	14.267993
24	0x41012e64	8.073826
25	0x4139e312	11.617937
26	0x40a9af7d	5.302672
27	0x40e5610d	7.168097
28	0x40bd88a0	5.922928
29	0x40f6183b	7.690458
30	0x404ab5ff	3.1673582
31	0x40c3030a	6.094121
32	0x40e1ac6f	7.052299
33	0x410bea85	8.744756
34	0x4111ae7a	9.105097
35	0x4046c265	3.105615
36	0x40d26f29	6.5760694
37	0x4029a615	2.6507618
38	0x410b2308	8.696053
39	0x40d6b8f1	6.710076
40	0x40bb9e82	5.863099
41	0x40d74095	6.7266335
42	0x40c88220	6.2658844
43	0x40cd4608	6.4147987
44	0x412b14f7	10.692618
45	0x411024e5	9.009007
46	0x4110a6c9	9.040719
47	0x4101d65e	8.114836
48	0x4098bce2	4.773057
49	0x4096098d	4.688666
50	0x411458bd	9.271665
51	0x410b8b97	8.72158
52	0x407518df	3.829643
53	0x40121409	2.2824728
54	0x40c1e293	6.058908
55	0x4077a7dc	3.8696203
56	0x40a5d7a4	5.1825733
57	0x40a5666e	5.1687536
58	0x408d70bb	4.420011
59	0x41383be5	11.514623
60	0x40ef767b	7.483213
61	0x41044eb9	8.269219
62	0x4067cd04	3.6218882
63	0x40c00fed	6.001944
64	0x40a382ab	5.1097007
65	0x4011c98e	2.277927
66	0x40b69748	5.705967
67	0x404342e4	3.0509577
68	0x4060edbf	3.5145109
69	0x40e3d3a6	7.119586
70	0x4123a833	10.228564
71	0x4126e9fa	10.432123
72	0x40c51260	6.158493
73	0x40f0b4ed	7.5220857
74	0x40c68812	6.20411
75	0x4082a1ec	4.082266
76	0x410954cc	8.583202
77	0x410fb637	8.981986
78	0x40f8fd2b	7.7809043
79	0x4096b921	4.7100987
80	0x419e02c5	19.751352
81	0x4119f314	9.621845
82	0x411d66be	9.837584
83	0x41112f1a	9.073999
84	0x40ede953	7.434732
85	0x407f3ad6	3.987966
86	0x40994cc6	4.7906218
87	0x40e86a93	7.2630095
88	0x40844008	4.1328163
89	0x40bcc4d1	5.8990254
90	0x409f90fe	4.9864492
91	0x414c6762	12.77524
92	0x40c6427a	6.195615
93	0x4174751e	15.278593
94	0x40b187a0	5.547806
95	0x4125ae39	10.355035
96	0x4109fd65	8.624364
97	0x40ec60d5	7.3868203
98	0x40a295b4	5.0807743
99	0x411bbf64	9.734226
